…
I1007 12:33:17.055147  4874 net.cpp:294] The NetState phase (0) differed from the phase (1) specified by a rule in layer Accuracy1
I1007 12:33:17.055784  4874 net.cpp:51] Initializing net from parameters: 
name: "resnet_cifar10"
state {
  phase: TRAIN
  level: 0
  stage: ""
}
layer {
  name: "Data1"
  type: "Data"
  top: "Data1"
  top: "Data2"
  include {
    phase: TRAIN
  }
  transform_param {
    mirror: true
    crop_size: 28
    mean_file: "/home/x306/caffe/xn/PENLU/data/cifar10/mean.binaryproto"
  }
  data_param {
    source: "/home/x306/caffe/xn/PENLU/data/cifar10/cifar10_train_lmdb"
    batch_size: 100
    backend: LMDB
  }
}
layer {
  name: "Convolution1"
  type: "Convolution"
  bottom: "Data1"
  top: "Convolution1"
  param {
    lr_mult: 1
    decay_mult: 1
  }
  param {
    lr_mult: 2
    decay_mult: 0
  }
  convolution_param {
    num_output: 16
    pad: 1
    kernel_size: 3
    stride: 1
    weight_filler {
      type: "gaussian"
      std: 0.118
    }
    bias_filler {
      type: "constant"
      value: 0
    }
  }
}
layer {
  name: "BatchNorm1"
  type: "BatchNorm"
  bottom: "Convolution1"
  top: "Convolution1"
  param {
    lr_mult: 0
    decay_mult: 0
  }
  param {
    lr_mult: 0
    decay_mult: 0
  }
  param {
    lr_mult: 0
    decay_mult: 0
  }
}
layer {
  name: "Scale1"
  type: "Scale"
  bottom: "Convolution1"
  top: "Convolution1"
  scale_param {
    bias_term: true
  }
}
layer {
  name: "M2PELU1"
  type: "M2PELU"
  bottom: "Convolution1"
  top: "Convolution1"
  param {
    lr_mult: 2
    decay_mult: 2
  }
  param {
    lr_mult: 2
    decay_mult: 2
  }
  m2pelu_param {
    alpha_filler {
      type: "constant"
      value: 0.25
    }
    beta_filler {
      type: "constant"
      value: 1
    }
  }
}
layer {
  name: "Convolution2"
  type: "Convolution"
  bottom: "Convolution1"
  top: "Convolution2"
  param {
    lr_mult: 1
    decay_mult: 1
  }
  param {
    lr_mult: 2
    decay_mult: 0
  }
  convolution_param {
    num_output: 16
    pad: 1
    kernel_size: 3
    stride: 1
    weight_filler {
      type: "gaussian"
      std: 0.118
    }
    bias_filler {
      type: "constant"
      value: 0
    }
  }
}
layer {
  name: "BatchNorm2"
  type: "BatchNorm"
  bottom: "Convolution2"
  top: "Convolution2"
  param {
    lr_mult: 0
    decay_mult: 0
  }
  param {
    lr_mult: 0
    decay_mult: 0
  }
  param {
    lr_mult: 0
    decay_mult: 0
  }
}
layer {
  name: "Scale2"
  type: "Scale"
  bottom: "Convolution2"
  top: "Convolution2"
  scale_param {
    bias_term: true
  }
}
layer {
  name: "M2PELU2"
  type: "M2PELU"
  bottom: "Convolution2"
  top: "Convolution2"
  param {
    lr_mult: 2
    decay_mult: 2
  }
  param {
    lr_mult: 2
    decay_mult: 2
  }
  m2pelu_param {
    alpha_filler {
      type: "constant"
      value: 0.25
    }
    beta_filler {
      type: "constant"
      value: 1
    }
  }
}
layer {
  name: "Convolution3"
  type: "Convolution"
  bottom: "Convolution2"
  top: "Convolution3"
  param {
    lr_mult: 1
    decay_mult: 1
  }
  param {
    lr_mult: 2
    decay_mult: 0
  }
  convolution_param {
    num_output: 16
    pad: 1
    kernel_size: 3
    stride: 1
    weight_filler {
      type: "gaussian"
      std: 0.118
    }
    bias_filler {
      type: "constant"
      value: 0
    }
  }
}
layer {
  name: "BatchNorm3"
  type: "BatchNorm"
  bottom: "Convolution3"
  top: "Convolution3"
  param {
    lr_mult: 0
    decay_mult: 0
  }
  param {
    lr_mult: 0
    decay_mult: 0
  }
  param {
    lr_mult: 0
    decay_mult: 0
  }
}
layer {
  name: "Scale3"
  type: "Scale"
  bottom: "Convolution3"
  top: "Convolution3"
  scale_param {
    bias_term: true
  }
}
layer {
  name: "Eltwise1"
  type: "Eltwise"
  bottom: "Convolution1"
  bottom: "Convolution3"
  top: "Eltwise1"
  eltwise_param {
    operation: SUM
  }
}
layer {
  name: "M2PELU3"
  type: "M2PELU"
  bottom: "Eltwise1"
  top: "Eltwise1"
  param {
    lr_mult: 2
    decay_mult: 2
  }
  param {
    lr_mult: 2
    decay_mult: 2
  }
  m2pelu_param {
    alpha_filler {
      type: "constant"
      value: 0.25
    }
    beta_filler {
      type: "constant"
      value: 1
    }
  }
}
layer {
  name: "Convolution4"
  type: "Convolution"
  bottom: "Eltwise1"
  top: "Convolution4"
  param {
    lr_mult: 1
    decay_mult: 1
  }
  param {
    lr_mult: 2
    decay_mult: 0
  }
  convolution_param {
    num_output: 16
    pad: 1
    kernel_size: 3
    stride: 1
    weight_filler {
      type: "gaussian"
      std: 0.118
    }
    bias_filler {
      type: "constant"
      value: 0
    }
  }
}
layer {
  name: "BatchNorm4"
  type: "BatchNorm"
  bottom: "Convolution4"
  top: "Convolution4"
  param {
    lr_mult: 0
    decay_mult: 0
  }
  param {
    lr_mult: 0
    decay_mult: 0
  }
  param {
    lr_mult: 0
    decay_mult: 0
  }
}
layer {
  name: "Scale4"
  type: "Scale"
  bottom: "Convolution4"
  top: "Convolution4"
  scale_param {
    bias_term: true
  }
}
layer {
  name: "M2PELU4"
  type: "M2PELU"
  bottom: "Convolution4"
  top: "Convolution4"
  param {
    lr_mult: 2
    decay_mult: 2
  }
  param {
    lr_mult: 2
    decay_mult: 2
  }
  m2pelu_param {
    alpha_filler {
      type: "constant"
      value: 0.25
    }
    beta_filler {
      type: "constant"
      value: 1
    }
  }
}
layer {
  name: "Convolution5"
  type: "Convolution"
  bottom: "Convolution4"
  top: "Convolution5"
  param {
    lr_mult: 1
    decay_mult: 1
  }
  param {
    lr_mult: 2
    decay_mult: 0
  }
  convolution_param {
    num_output: 16
    pad: 1
    kernel_size: 3
    stride: 1
    weight_filler {
      type: "gaussian"
      std: 0.118
    }
    bias_filler {
      type: "constant"
      value: 0
    }
  }
}
layer {
  name: "BatchNorm5"
  type: "BatchNorm"
  bottom: "Convolution5"
  top: "Convolution5"
  param {
    lr_mult: 0
    decay_mult: 0
  }
  param {
    lr_mult: 0
    decay_mult: 0
  }
  param {
    lr_mult: 0
    decay_mult: 0
  }
}
layer {
  name: "Scale5"
  type: "Scale"
  bottom: "Convolution5"
  top: "Convolution5"
  scale_param {
    bias_term: true
  }
}
layer {
  name: "Eltwise2"
  type: "Eltwise"
  bottom: "Eltwise1"
  bottom: "Convolution5"
  top: "Eltwise2"
  eltwise_param {
    operation: SUM
  }
}
layer {
  name: "M2PELU5"
  type: "M2PELU"
  bottom: "Eltwise2"
  top: "Eltwise2"
  param {
    lr_mult: 2
    decay_mult: 2
  }
  param {
    lr_mult: 2
    decay_mult: 2
  }
  m2pelu_param {
    alpha_filler {
      type: "constant"
      value: 0.25
    }
    beta_filler {
      type: "constant"
      value: 1
    }
  }
}
layer {
  name: "Convolution6"
  type: "Convolution"
  bottom: "Eltwise2"
  top: "Convolution6"
  param {
    lr_mult: 1
    decay_mult: 1
  }
  param {
    lr_mult: 2
    decay_mult: 0
  }
  convolution_param {
    num_output: 16
    pad: 1
    kernel_size: 3
    stride: 1
    weight_filler {
      type: "gaussian"
      std: 0.118
    }
    bias_filler {
      type: "constant"
      value: 0
    }
  }
}
layer {
  name: "BatchNorm6"
  type: "BatchNorm"
  bottom: "Convolution6"
  top: "Convolution6"
  param {
    lr_mult: 0
    decay_mult: 0
  }
  param {
    lr_mult: 0
    decay_mult: 0
  }
  param {
    lr_mult: 0
    decay_mult: 0
  }
}
layer {
  name: "Scale6"
  type: "Scale"
  bottom: "Convolution6"
  top: "Convolution6"
  scale_param {
    bias_term: true
  }
}
layer {
  name: "M2PELU6"
  type: "M2PELU"
  bottom: "Convolution6"
  top: "Convolution6"
  param {
    lr_mult: 2
    decay_mult: 2
  }
  param {
    lr_mult: 2
    decay_mult: 2
  }
  m2pelu_param {
    alpha_filler {
      type: "constant"
      value: 0.25
    }
    beta_filler {
      type: "constant"
      value: 1
    }
  }
}
layer {
  name: "Convolution7"
  type: "Convolution"
  bottom: "Convolution6"
  top: "Convolution7"
  param {
    lr_mult: 1
    decay_mult: 1
  }
  param {
    lr_mult: 2
    decay_mult: 0
  }
  convolution_param {
    num_output: 16
    pad: 1
    kernel_size: 3
    stride: 1
    weight_filler {
      type: "gaussian"
      std: 0.118
    }
    bias_filler {
      type: "constant"
      value: 0
    }
  }
}
layer {
  name: "BatchNorm7"
  type: "BatchNorm"
  bottom: "Convolution7"
  top: "Convolution7"
  param {
    lr_mult: 0
    decay_mult: 0
  }
  param {
    lr_mult: 0
    decay_mult: 0
  }
  param {
    lr_mult: 0
    decay_mult: 0
  }
}
layer {
  name: "Scale7"
  type: "Scale"
  bottom: "Convolution7"
  top: "Convolution7"
  scale_param {
    bias_term: true
  }
}
layer {
  name: "Eltwise3"
  type: "Eltwise"
  bottom: "Eltwise2"
  bottom: "Convolution7"
  top: "Eltwise3"
  eltwise_param {
    operation: SUM
  }
}
layer {
  name: "M2PELU7"
  type: "M2PELU"
  bottom: "Eltwise3"
  top: "Eltwise3"
  param {
    lr_mult: 2
    decay_mult: 2
  }
  param {
    lr_mult: 2
    decay_mult: 2
  }
  m2pelu_param {
    alpha_filler {
      type: "constant"
      value: 0.25
    }
    beta_filler {
      type: "constant"
      value: 1
    }
  }
}
layer {
  name: "Convolution8"
  type: "Convolution"
  bottom: "Eltwise3"
  top: "Convolution8"
  param {
    lr_mult: 1
    decay_mult: 1
  }
  param {
    lr_mult: 2
    decay_mult: 0
  }
  convolution_param {
    num_output: 16
    pad: 1
    kernel_size: 3
    stride: 1
    weight_filler {
      type: "gaussian"
      std: 0.118
    }
    bias_filler {
      type: "constant"
      value: 0
    }
  }
}
layer {
  name: "BatchNorm8"
  type: "BatchNorm"
  bottom: "Convolution8"
  top: "Convolution8"
  param {
    lr_mult: 0
    decay_mult: 0
  }
  param {
    lr_mult: 0
    decay_mult: 0
  }
  param {
    lr_mult: 0
    decay_mult: 0
  }
}
layer {
  name: "Scale8"
  type: "Scale"
  bottom: "Convolution8"
  top: "Convolution8"
  scale_param {
    bias_term: true
  }
}
layer {
  name: "M2PELU8"
  type: "M2PELU"
  bottom: "Convolution8"
  top: "Convolution8"
  param {
    lr_mult: 2
    decay_mult: 2
  }
  param {
    lr_mult: 2
    decay_mult: 2
  }
  m2pelu_param {
    alpha_filler {
      type: "constant"
      value: 0.25
    }
    beta_filler {
      type: "constant"
      value: 1
    }
  }
}
layer {
  name: "Convolution9"
  type: "Convolution"
  bottom: "Convolution8"
  top: "Convolution9"
  param {
    lr_mult: 1
    decay_mult: 1
  }
  param {
    lr_mult: 2
    decay_mult: 0
  }
  convolution_param {
    num_output: 16
    pad: 1
    kernel_size: 3
    stride: 1
    weight_filler {
      type: "gaussian"
      std: 0.118
    }
    bias_filler {
      type: "constant"
      value: 0
    }
  }
}
layer {
  name: "BatchNorm9"
  type: "BatchNorm"
  bottom: "Convolution9"
  top: "Convolution9"
  param {
    lr_mult: 0
    decay_mult: 0
  }
  param {
    lr_mult: 0
    decay_mult: 0
  }
  param {
    lr_mult: 0
    decay_mult: 0
  }
}
layer {
  name: "Scale9"
  type: "Scale"
  bottom: "Convolution9"
  top: "Convolution9"
  scale_param {
    bias_term: true
  }
}
layer {
  name: "Eltwise4"
  type: "Eltwise"
  bottom: "Eltwise3"
  bottom: "Convolution9"
  top: "Eltwise4"
  eltwise_param {
    operation: SUM
  }
}
layer {
  name: "M2PELU9"
  type: "M2PELU"
  bottom: "Eltwise4"
  top: "Eltwise4"
  param {
    lr_mult: 2
    decay_mult: 2
  }
  param {
    lr_mult: 2
    decay_mult: 2
  }
  m2pelu_param {
    alpha_filler {
      type: "constant"
      value: 0.25
    }
    beta_filler {
      type: "constant"
      value: 1
    }
  }
}
layer {
  name: "Convolution10"
  type: "Convolution"
  bottom: "Eltwise4"
  top: "Convolution10"
  param {
    lr_mult: 1
    decay_mult: 1
  }
  param {
    lr_mult: 2
    decay_mult: 0
  }
  convolution_param {
    num_output: 16
    pad: 1
    kernel_size: 3
    stride: 1
    weight_filler {
      type: "gaussian"
      std: 0.118
    }
    bias_filler {
      type: "constant"
      value: 0
    }
  }
}
layer {
  name: "BatchNorm10"
  type: "BatchNorm"
  bottom: "Convolution10"
  top: "Convolution10"
  param {
    lr_mult: 0
    decay_mult: 0
  }
  param {
    lr_mult: 0
    decay_mult: 0
  }
  param {
    lr_mult: 0
    decay_mult: 0
  }
}
layer {
  name: "Scale10"
  type: "Scale"
  bottom: "Convolution10"
  top: "Convolution10"
  scale_param {
    bias_term: true
  }
}
layer {
  name: "M2PELU10"
  type: "M2PELU"
  bottom: "Convolution10"
  top: "Convolution10"
  param {
    lr_mult: 2
    decay_mult: 2
  }
  param {
    lr_mult: 2
    decay_mult: 2
  }
  m2pelu_param {
    alpha_filler {
      type: "constant"
      value: 0.25
    }
    beta_filler {
      type: "constant"
      value: 1
    }
  }
}
layer {
  name: "Convolution11"
  type: "Convolution"
  bottom: "Convolution10"
  top: "Convolution11"
  param {
    lr_mult: 1
    decay_mult: 1
  }
  param {
    lr_mult: 2
    decay_mult: 0
  }
  convolution_param {
    num_output: 16
    pad: 1
    kernel_size: 3
    stride: 1
    weight_filler {
      type: "gaussian"
      std: 0.118
    }
    bias_filler {
      type: "constant"
      value: 0
    }
  }
}
layer {
  name: "BatchNorm11"
  type: "BatchNorm"
  bottom: "Convolution11"
  top: "Convolution11"
  param {
    lr_mult: 0
    decay_mult: 0
  }
  param {
    lr_mult: 0
    decay_mult: 0
  }
  param {
    lr_mult: 0
    decay_mult: 0
  }
}
layer {
  name: "Scale11"
  type: "Scale"
  bottom: "Convolution11"
  top: "Convolution11"
  scale_param {
    bias_term: true
  }
}
layer {
  name: "Eltwise5"
  type: "Eltwise"
  bottom: "Eltwise4"
  bottom: "Convolution11"
  top: "Eltwise5"
  eltwise_param {
    operation: SUM
  }
}
layer {
  name: "M2PELU11"
  type: "M2PELU"
  bottom: "Eltwise5"
  top: "Eltwise5"
  param {
    lr_mult: 2
    decay_mult: 2
  }
  param {
    lr_mult: 2
    decay_mult: 2
  }
  m2pelu_param {
    alpha_filler {
      type: "constant"
      value: 0.25
    }
    beta_filler {
      type: "constant"
      value: 1
    }
  }
}
layer {
  name: "Convolution12"
  type: "Convolution"
  bottom: "Eltwise5"
  top: "Convolution12"
  param {
    lr_mult: 1
    decay_mult: 1
  }
  param {
    lr_mult: 2
    decay_mult: 0
  }
  convolution_param {
    num_output: 32
    pad: 0
    kernel_size: 1
    stride: 2
    weight_filler {
      type: "gaussian"
      std: 0.25
    }
    bias_filler {
      type: "constant"
      value: 0
    }
  }
}
layer {
  name: "BatchNorm12"
  type: "BatchNorm"
  bottom: "Convolution12"
  top: "Convolution12"
  param {
    lr_mult: 0
    decay_mult: 0
  }
  param {
    lr_mult: 0
    decay_mult: 0
  }
  param {
    lr_mult: 0
    decay_mult: 0
  }
}
layer {
  name: "Scale12"
  type: "Scale"
  bottom: "Convolution12"
  top: "Convolution12"
  scale_param {
    bias_term: true
  }
}
layer {
  name: "Convolution13"
  type: "Convolution"
  bottom: "Eltwise5"
  top: "Convolution13"
  param {
    lr_mult: 1
    decay_mult: 1
  }
  param {
    lr_mult: 2
    decay_mult: 0
  }
  convolution_param {
    num_output: 32
    pad: 1
    kernel_size: 3
    stride: 2
    weight_filler {
      type: "gaussian"
      std: 0.083
    }
    bias_filler {
      type: "constant"
      value: 0
    }
  }
}
layer {
  name: "BatchNorm13"
  type: "BatchNorm"
  bottom: "Convolution13"
  top: "Convolution13"
  param {
    lr_mult: 0
    decay_mult: 0
  }
  param {
    lr_mult: 0
    decay_mult: 0
  }
  param {
    lr_mult: 0
    decay_mult: 0
  }
}
layer {
  name: "Scale13"
  type: "Scale"
  bottom: "Convolution13"
  top: "Convolution13"
  scale_param {
    bias_term: true
  }
}
layer {
  name: "M2PELU12"
  type: "M2PELU"
  bottom: "Convolution13"
  top: "Convolution13"
  param {
    lr_mult: 2
    decay_mult: 2
  }
  param {
    lr_mult: 2
    decay_mult: 2
  }
  m2pelu_param {
    alpha_filler {
      type: "constant"
      value: 0.25
    }
    beta_filler {
      type: "constant"
      value: 1
    }
  }
}
layer {
  name: "Convolution14"
  type: "Convolution"
  bottom: "Convolution13"
  top: "Convolution14"
  param {
    lr_mult: 1
    decay_mult: 1
  }
  param {
    lr_mult: 2
    decay_mult: 0
  }
  convolution_param {
    num_output: 32
    pad: 1
    kernel_size: 3
    stride: 1
    weight_filler {
      type: "gaussian"
      std: 0.083
    }
    bias_filler {
      type: "constant"
      value: 0
    }
  }
}
layer {
  name: "BatchNorm14"
  type: "BatchNorm"
  bottom: "Convolution14"
  top: "Convolution14"
  param {
    lr_mult: 0
    decay_mult: 0
  }
  param {
    lr_mult: 0
    decay_mult: 0
  }
  param {
    lr_mult: 0
    decay_mult: 0
  }
}
layer {
  name: "Scale14"
  type: "Scale"
  bottom: "Convolution14"
  top: "Convolution14"
  scale_param {
    bias_term: true
  }
}
layer {
  name: "Eltwise6"
  type: "Eltwise"
  bottom: "Convolution12"
  bottom: "Convolution14"
  top: "Eltwise6"
  eltwise_param {
    operation: SUM
  }
}
layer {
  name: "M2PELU13"
  type: "M2PELU"
  bottom: "Eltwise6"
  top: "Eltwise6"
  param {
    lr_mult: 2
    decay_mult: 2
  }
  param {
    lr_mult: 2
    decay_mult: 2
  }
  m2pelu_param {
    alpha_filler {
      type: "constant"
      value: 0.25
    }
    beta_filler {
      type: "constant"
      value: 1
    }
  }
}
layer {
  name: "Convolution15"
  type: "Convolution"
  bottom: "Eltwise6"
  top: "Convolution15"
  param {
    lr_mult: 1
    decay_mult: 1
  }
  param {
    lr_mult: 2
    decay_mult: 0
  }
  convolution_param {
    num_output: 32
    pad: 1
    kernel_size: 3
    stride: 1
    weight_filler {
      type: "gaussian"
      std: 0.083
    }
    bias_filler {
      type: "constant"
      value: 0
    }
  }
}
layer {
  name: "BatchNorm15"
  type: "BatchNorm"
  bottom: "Convolution15"
  top: "Convolution15"
  param {
    lr_mult: 0
    decay_mult: 0
  }
  param {
    lr_mult: 0
    decay_mult: 0
  }
  param {
    lr_mult: 0
    decay_mult: 0
  }
}
layer {
  name: "Scale15"
  type: "Scale"
  bottom: "Convolution15"
  top: "Convolution15"
  scale_param {
    bias_term: true
  }
}
layer {
  name: "M2PELU14"
  type: "M2PELU"
  bottom: "Convolution15"
  top: "Convolution15"
  param {
    lr_mult: 2
    decay_mult: 2
  }
  param {
    lr_mult: 2
    decay_mult: 2
  }
  m2pelu_param {
    alpha_filler {
      type: "constant"
      value: 0.25
    }
    beta_filler {
      type: "constant"
      value: 1
    }
  }
}
layer {
  name: "Convolution16"
  type: "Convolution"
  bottom: "Convolution15"
  top: "Convolution16"
  param {
    lr_mult: 1
    decay_mult: 1
  }
  param {
    lr_mult: 2
    decay_mult: 0
  }
  convolution_param {
    num_output: 32
    pad: 1
    kernel_size: 3
    stride: 1
    weight_filler {
      type: "gaussian"
      std: 0.083
    }
    bias_filler {
      type: "constant"
      value: 0
    }
  }
}
layer {
  name: "BatchNorm16"
  type: "BatchNorm"
  bottom: "Convolution16"
  top: "Convolution16"
  param {
    lr_mult: 0
    decay_mult: 0
  }
  param {
    lr_mult: 0
    decay_mult: 0
  }
  param {
    lr_mult: 0
    decay_mult: 0
  }
}
layer {
  name: "Scale16"
  type: "Scale"
  bottom: "Convolution16"
  top: "Convolution16"
  scale_param {
    bias_term: true
  }
}
layer {
  name: "Eltwise7"
  type: "Eltwise"
  bottom: "Eltwise6"
  bottom: "Convolution16"
  top: "Eltwise7"
  eltwise_param {
    operation: SUM
  }
}
layer {
  name: "M2PELU15"
  type: "M2PELU"
  bottom: "Eltwise7"
  top: "Eltwise7"
  param {
    lr_mult: 2
    decay_mult: 2
  }
  param {
    lr_mult: 2
    decay_mult: 2
  }
  m2pelu_param {
    alpha_filler {
      type: "constant"
      value: 0.25
    }
    beta_filler {
      type: "constant"
      value: 1
    }
  }
}
layer {
  name: "Convolution17"
  type: "Convolution"
  bottom: "Eltwise7"
  top: "Convolution17"
  param {
    lr_mult: 1
    decay_mult: 1
  }
  param {
    lr_mult: 2
    decay_mult: 0
  }
  convolution_param {
    num_output: 32
    pad: 1
    kernel_size: 3
    stride: 1
    weight_filler {
      type: "gaussian"
      std: 0.083
    }
    bias_filler {
      type: "constant"
      value: 0
    }
  }
}
layer {
  name: "BatchNorm17"
  type: "BatchNorm"
  bottom: "Convolution17"
  top: "Convolution17"
  param {
    lr_mult: 0
    decay_mult: 0
  }
  param {
    lr_mult: 0
    decay_mult: 0
  }
  param {
    lr_mult: 0
    decay_mult: 0
  }
}
layer {
  name: "Scale17"
  type: "Scale"
  bottom: "Convolution17"
  top: "Convolution17"
  scale_param {
    bias_term: true
  }
}
layer {
  name: "M2PELU16"
  type: "M2PELU"
  bottom: "Convolution17"
  top: "Convolution17"
  param {
    lr_mult: 2
    decay_mult: 2
  }
  param {
    lr_mult: 2
    decay_mult: 2
  }
  m2pelu_param {
    alpha_filler {
      type: "constant"
      value: 0.25
    }
    beta_filler {
      type: "constant"
      value: 1
    }
  }
}
layer {
  name: "Convolution18"
  type: "Convolution"
  bottom: "Convolution17"
  top: "Convolution18"
  param {
    lr_mult: 1
    decay_mult: 1
  }
  param {
    lr_mult: 2
    decay_mult: 0
  }
  convolution_param {
    num_output: 32
    pad: 1
    kernel_size: 3
    stride: 1
    weight_filler {
      type: "gaussian"
      std: 0.083
    }
    bias_filler {
      type: "constant"
      value: 0
    }
  }
}
layer {
  name: "BatchNorm18"
  type: "BatchNorm"
  bottom: "Convolution18"
  top: "Convolution18"
  param {
    lr_mult: 0
    decay_mult: 0
  }
  param {
    lr_mult: 0
    decay_mult: 0
  }
  param {
    lr_mult: 0
    decay_mult: 0
  }
}
layer {
  name: "Scale18"
  type: "Scale"
  bottom: "Convolution18"
  top: "Convolution18"
  scale_param {
    bias_term: true
  }
}
layer {
  name: "Eltwise8"
  type: "Eltwise"
  bottom: "Eltwise7"
  bottom: "Convolution18"
  top: "Eltwise8"
  eltwise_param {
    operation: SUM
  }
}
layer {
  name: "M2PELU17"
  type: "M2PELU"
  bottom: "Eltwise8"
  top: "Eltwise8"
  param {
    lr_mult: 2
    decay_mult: 2
  }
  param {
    lr_mult: 2
    decay_mult: 2
  }
  m2pelu_param {
    alpha_filler {
      type: "constant"
      value: 0.25
    }
    beta_filler {
      type: "constant"
      value: 1
    }
  }
}
layer {
  name: "Convolution19"
  type: "Convolution"
  bottom: "Eltwise8"
  top: "Convolution19"
  param {
    lr_mult: 1
    decay_mult: 1
  }
  param {
    lr_mult: 2
    decay_mult: 0
  }
  convolution_param {
    num_output: 32
    pad: 1
    kernel_size: 3
    stride: 1
    weight_filler {
      type: "gaussian"
      std: 0.083
    }
    bias_filler {
      type: "constant"
      value: 0
    }
  }
}
layer {
  name: "BatchNorm19"
  type: "BatchNorm"
  bottom: "Convolution19"
  top: "Convolution19"
  param {
    lr_mult: 0
    decay_mult: 0
  }
  param {
    lr_mult: 0
    decay_mult: 0
  }
  param {
    lr_mult: 0
    decay_mult: 0
  }
}
layer {
  name: "Scale19"
  type: "Scale"
  bottom: "Convolution19"
  top: "Convolution19"
  scale_param {
    bias_term: true
  }
}
layer {
  name: "M2PELU18"
  type: "M2PELU"
  bottom: "Convolution19"
  top: "Convolution19"
  param {
    lr_mult: 2
    decay_mult: 2
  }
  param {
    lr_mult: 2
    decay_mult: 2
  }
  m2pelu_param {
    alpha_filler {
      type: "constant"
      value: 0.25
    }
    beta_filler {
      type: "constant"
      value: 1
    }
  }
}
layer {
  name: "Convolution20"
  type: "Convolution"
  bottom: "Convolution19"
  top: "Convolution20"
  param {
    lr_mult: 1
    decay_mult: 1
  }
  param {
    lr_mult: 2
    decay_mult: 0
  }
  convolution_param {
    num_output: 32
    pad: 1
    kernel_size: 3
    stride: 1
    weight_filler {
      type: "gaussian"
      std: 0.083
    }
    bias_filler {
      type: "constant"
      value: 0
    }
  }
}
layer {
  name: "BatchNorm20"
  type: "BatchNorm"
  bottom: "Convolution20"
  top: "Convolution20"
  param {
    lr_mult: 0
    decay_mult: 0
  }
  param {
    lr_mult: 0
    decay_mult: 0
  }
  param {
    lr_mult: 0
    decay_mult: 0
  }
}
layer {
  name: "Scale20"
  type: "Scale"
  bottom: "Convolution20"
  top: "Convolution20"
  scale_param {
    bias_term: true
  }
}
layer {
  name: "Eltwise9"
  type: "Eltwise"
  bottom: "Eltwise8"
  bottom: "Convolution20"
  top: "Eltwise9"
  eltwise_param {
    operation: SUM
  }
}
layer {
  name: "M2PELU19"
  type: "M2PELU"
  bottom: "Eltwise9"
  top: "Eltwise9"
  param {
    lr_mult: 2
    decay_mult: 2
  }
  param {
    lr_mult: 2
    decay_mult: 2
  }
  m2pelu_param {
    alpha_filler {
      type: "constant"
      value: 0.25
    }
    beta_filler {
      type: "constant"
      value: 1
    }
  }
}
layer {
  name: "Convolution21"
  type: "Convolution"
  bottom: "Eltwise9"
  top: "Convolution21"
  param {
    lr_mult: 1
    decay_mult: 1
  }
  param {
    lr_mult: 2
    decay_mult: 0
  }
  convolution_param {
    num_output: 32
    pad: 1
    kernel_size: 3
    stride: 1
    weight_filler {
      type: "gaussian"
      std: 0.083
    }
    bias_filler {
      type: "constant"
      value: 0
    }
  }
}
layer {
  name: "BatchNorm21"
  type: "BatchNorm"
  bottom: "Convolution21"
  top: "Convolution21"
  param {
    lr_mult: 0
    decay_mult: 0
  }
  param {
    lr_mult: 0
    decay_mult: 0
  }
  param {
    lr_mult: 0
    decay_mult: 0
  }
}
layer {
  name: "Scale21"
  type: "Scale"
  bottom: "Convolution21"
  top: "Convolution21"
  scale_param {
    bias_term: true
  }
}
layer {
  name: "M2PELU20"
  type: "M2PELU"
  bottom: "Convolution21"
  top: "Convolution21"
  param {
    lr_mult: 2
    decay_mult: 2
  }
  param {
    lr_mult: 2
    decay_mult: 2
  }
  m2pelu_param {
    alpha_filler {
      type: "constant"
      value: 0.25
    }
    beta_filler {
      type: "constant"
      value: 1
    }
  }
}
layer {
  name: "Convolution22"
  type: "Convolution"
  bottom: "Convolution21"
  top: "Convolution22"
  param {
    lr_mult: 1
    decay_mult: 1
  }
  param {
    lr_mult: 2
    decay_mult: 0
  }
  convolution_param {
    num_output: 32
    pad: 1
    kernel_size: 3
    stride: 1
    weight_filler {
      type: "gaussian"
      std: 0.083
    }
    bias_filler {
      type: "constant"
      value: 0
    }
  }
}
layer {
  name: "BatchNorm22"
  type: "BatchNorm"
  bottom: "Convolution22"
  top: "Convolution22"
  param {
    lr_mult: 0
    decay_mult: 0
  }
  param {
    lr_mult: 0
    decay_mult: 0
  }
  param {
    lr_mult: 0
    decay_mult: 0
  }
}
layer {
  name: "Scale22"
  type: "Scale"
  bottom: "Convolution22"
  top: "Convolution22"
  scale_param {
    bias_term: true
  }
}
layer {
  name: "Eltwise10"
  type: "Eltwise"
  bottom: "Eltwise9"
  bottom: "Convolution22"
  top: "Eltwise10"
  eltwise_param {
    operation: SUM
  }
}
layer {
  name: "M2PELU21"
  type: "M2PELU"
  bottom: "Eltwise10"
  top: "Eltwise10"
  param {
    lr_mult: 2
    decay_mult: 2
  }
  param {
    lr_mult: 2
    decay_mult: 2
  }
  m2pelu_param {
    alpha_filler {
      type: "constant"
      value: 0.25
    }
    beta_filler {
      type: "constant"
      value: 1
    }
  }
}
layer {
  name: "Convolution23"
  type: "Convolution"
  bottom: "Eltwise10"
  top: "Convolution23"
  param {
    lr_mult: 1
    decay_mult: 1
  }
  param {
    lr_mult: 2
    decay_mult: 0
  }
  convolution_param {
    num_output: 64
    pad: 0
    kernel_size: 1
    stride: 2
    weight_filler {
      type: "gaussian"
      std: 0.17677669
    }
    bias_filler {
      type: "constant"
      value: 0
    }
  }
}
layer {
  name: "BatchNorm23"
  type: "BatchNorm"
  bottom: "Convolution23"
  top: "Convolution23"
  param {
    lr_mult: 0
    decay_mult: 0
  }
  param {
    lr_mult: 0
    decay_mult: 0
  }
  param {
    lr_mult: 0
    decay_mult: 0
  }
}
layer {
  name: "Scale23"
  type: "Scale"
  bottom: "Convolution23"
  top: "Convolution23"
  scale_param {
    bias_term: true
  }
}
layer {
  name: "Convolution24"
  type: "Convolution"
  bottom: "Eltwise10"
  top: "Convolution24"
  param {
    lr_mult: 1
    decay_mult: 1
  }
  param {
    lr_mult: 2
    decay_mult: 0
  }
  convolution_param {
    num_output: 64
    pad: 1
    kernel_size: 3
    stride: 2
    weight_filler {
      type: "gaussian"
      std: 0.059
    }
    bias_filler {
      type: "constant"
      value: 0
    }
  }
}
layer {
  name: "BatchNorm24"
  type: "BatchNorm"
  bottom: "Convolution24"
  top: "Convolution24"
  param {
    lr_mult: 0
    decay_mult: 0
  }
  param {
    lr_mult: 0
    decay_mult: 0
  }
  param {
    lr_mult: 0
    decay_mult: 0
  }
}
layer {
  name: "Scale24"
  type: "Scale"
  bottom: "Convolution24"
  top: "Convolution24"
  scale_param {
    bias_term: true
  }
}
layer {
  name: "M2PELU22"
  type: "M2PELU"
  bottom: "Convolution24"
  top: "Convolution24"
  param {
    lr_mult: 2
    decay_mult: 2
  }
  param {
    lr_mult: 2
    decay_mult: 2
  }
  m2pelu_param {
    alpha_filler {
      type: "constant"
      value: 0.25
    }
    beta_filler {
      type: "constant"
      value: 1
    }
  }
}
layer {
  name: "Convolution25"
  type: "Convolution"
  bottom: "Convolution24"
  top: "Convolution25"
  param {
    lr_mult: 1
    decay_mult: 1
  }
  param {
    lr_mult: 2
    decay_mult: 0
  }
  convolution_param {
    num_output: 64
    pad: 1
    kernel_size: 3
    stride: 1
    weight_filler {
      type: "gaussian"
      std: 0.059
    }
    bias_filler {
      type: "constant"
      value: 0
    }
  }
}
layer {
  name: "BatchNorm25"
  type: "BatchNorm"
  bottom: "Convolution25"
  top: "Convolution25"
  param {
    lr_mult: 0
    decay_mult: 0
  }
  param {
    lr_mult: 0
    decay_mult: 0
  }
  param {
    lr_mult: 0
    decay_mult: 0
  }
}
layer {
  name: "Scale25"
  type: "Scale"
  bottom: "Convolution25"
  top: "Convolution25"
  scale_param {
    bias_term: true
  }
}
layer {
  name: "Eltwise11"
  type: "Eltwise"
  bottom: "Convolution23"
  bottom: "Convolution25"
  top: "Eltwise11"
  eltwise_param {
    operation: SUM
  }
}
layer {
  name: "M2PELU23"
  type: "M2PELU"
  bottom: "Eltwise11"
  top: "Eltwise11"
  param {
    lr_mult: 2
    decay_mult: 2
  }
  param {
    lr_mult: 2
    decay_mult: 2
  }
  m2pelu_param {
    alpha_filler {
      type: "constant"
      value: 0.25
    }
    beta_filler {
      type: "constant"
      value: 1
    }
  }
}
layer {
  name: "Convolution26"
  type: "Convolution"
  bottom: "Eltwise11"
  top: "Convolution26"
  param {
    lr_mult: 1
    decay_mult: 1
  }
  param {
    lr_mult: 2
    decay_mult: 0
  }
  convolution_param {
    num_output: 64
    pad: 1
    kernel_size: 3
    stride: 1
    weight_filler {
      type: "gaussian"
      std: 0.059
    }
    bias_filler {
      type: "constant"
      value: 0
    }
  }
}
layer {
  name: "BatchNorm26"
  type: "BatchNorm"
  bottom: "Convolution26"
  top: "Convoluti
I1007 12:33:17.056236  4874 layer_factory.hpp:77] Creating layer Data1
I1007 12:33:17.056311  4874 db_lmdb.cpp:35] Opened lmdb /home/x306/caffe/xn/PENLU/data/cifar10/cifar10_train_lmdb
I1007 12:33:17.056330  4874 net.cpp:84] Creating Layer Data1
I1007 12:33:17.056336  4874 net.cpp:380] Data1 -> Data1
I1007 12:33:17.056354  4874 net.cpp:380] Data1 -> Data2
I1007 12:33:17.056362  4874 data_transformer.cpp:25] Loading mean file from: /home/x306/caffe/xn/PENLU/data/cifar10/mean.binaryproto
I1007 12:33:17.057754  4874 data_layer.cpp:45] output data size: 100,3,28,28
I1007 12:33:17.060035  4874 net.cpp:122] Setting up Data1
I1007 12:33:17.060058  4874 net.cpp:129] Top shape: 100 3 28 28 (235200)
I1007 12:33:17.060063  4874 net.cpp:129] Top shape: 100 (100)
I1007 12:33:17.060065  4874 net.cpp:137] Memory required for data: 941200
I1007 12:33:17.060071  4874 layer_factory.hpp:77] Creating layer Convolution1
I1007 12:33:17.060091  4874 net.cpp:84] Creating Layer Convolution1
I1007 12:33:17.060094  4874 net.cpp:406] Convolution1 <- Data1
I1007 12:33:17.060103  4874 net.cpp:380] Convolution1 -> Convolution1
I1007 12:33:17.205562  4874 net.cpp:122] Setting up Convolution1
I1007 12:33:17.205590  4874 net.cpp:129] Top shape: 100 16 28 28 (1254400)
I1007 12:33:17.205593  4874 net.cpp:137] Memory required for data: 5958800
I1007 12:33:17.205618  4874 layer_factory.hpp:77] Creating layer BatchNorm1
I1007 12:33:17.205641  4874 net.cpp:84] Creating Layer BatchNorm1
I1007 12:33:17.205664  4874 net.cpp:406] BatchNorm1 <- Convolution1
I1007 12:33:17.205682  4874 net.cpp:367] BatchNorm1 -> Convolution1 (in-place)
I1007 12:33:17.205822  4874 net.cpp:122] Setting up BatchNorm1
I1007 12:33:17.205828  4874 net.cpp:129] Top shape: 100 16 28 28 (1254400)
I1007 12:33:17.205831  4874 net.cpp:137] Memory required for data: 10976400
I1007 12:33:17.205850  4874 layer_factory.hpp:77] Creating layer Scale1
I1007 12:33:17.205859  4874 net.cpp:84] Creating Layer Scale1
I1007 12:33:17.205863  4874 net.cpp:406] Scale1 <- Convolution1
I1007 12:33:17.205866  4874 net.cpp:367] Scale1 -> Convolution1 (in-place)
I1007 12:33:17.205929  4874 layer_factory.hpp:77] Creating layer Scale1
I1007 12:33:17.206048  4874 net.cpp:122] Setting up Scale1
I1007 12:33:17.206054  4874 net.cpp:129] Top shape: 100 16 28 28 (1254400)
I1007 12:33:17.206058  4874 net.cpp:137] Memory required for data: 15994000
I1007 12:33:17.206073  4874 layer_factory.hpp:77] Creating layer M2PELU1
I1007 12:33:17.206092  4874 net.cpp:84] Creating Layer M2PELU1
I1007 12:33:17.206096  4874 net.cpp:406] M2PELU1 <- Convolution1
I1007 12:33:17.206099  4874 net.cpp:367] M2PELU1 -> Convolution1 (in-place)
I1007 12:33:17.206728  4874 net.cpp:122] Setting up M2PELU1
I1007 12:33:17.206738  4874 net.cpp:129] Top shape: 100 16 28 28 (1254400)
I1007 12:33:17.206751  4874 net.cpp:137] Memory required for data: 21011600
I1007 12:33:17.206759  4874 layer_factory.hpp:77] Creating layer Convolution1_M2PELU1_0_split
I1007 12:33:17.206781  4874 net.cpp:84] Creating Layer Convolution1_M2PELU1_0_split
I1007 12:33:17.206784  4874 net.cpp:406] Convolution1_M2PELU1_0_split <- Convolution1
I1007 12:33:17.206799  4874 net.cpp:380] Convolution1_M2PELU1_0_split -> Convolution1_M2PELU1_0_split_0
I1007 12:33:17.206818  4874 net.cpp:380] Convolution1_M2PELU1_0_split -> Convolution1_M2PELU1_0_split_1
I1007 12:33:17.206861  4874 net.cpp:122] Setting up Convolution1_M2PELU1_0_split
I1007 12:33:17.206867  4874 net.cpp:129] Top shape: 100 16 28 28 (1254400)
I1007 12:33:17.206871  4874 net.cpp:129] Top shape: 100 16 28 28 (1254400)
I1007 12:33:17.206874  4874 net.cpp:137] Memory required for data: 31046800
I1007 12:33:17.206876  4874 layer_factory.hpp:77] Creating layer Convolution2
I1007 12:33:17.206884  4874 net.cpp:84] Creating Layer Convolution2
I1007 12:33:17.206888  4874 net.cpp:406] Convolution2 <- Convolution1_M2PELU1_0_split_0
I1007 12:33:17.206892  4874 net.cpp:380] Convolution2 -> Convolution2
I1007 12:33:17.207753  4874 net.cpp:122] Setting up Convolution2
I1007 12:33:17.207764  4874 net.cpp:129] Top shape: 100 16 28 28 (1254400)
I1007 12:33:17.207768  4874 net.cpp:137] Memory required for data: 36064400
I1007 12:33:17.207772  4874 layer_factory.hpp:77] Creating layer BatchNorm2
I1007 12:33:17.207788  4874 net.cpp:84] Creating Layer BatchNorm2
I1007 12:33:17.207792  4874 net.cpp:406] BatchNorm2 <- Convolution2
I1007 12:33:17.207795  4874 net.cpp:367] BatchNorm2 -> Convolution2 (in-place)
I1007 12:33:17.207921  4874 net.cpp:122] Setting up BatchNorm2
I1007 12:33:17.207926  4874 net.cpp:129] Top shape: 100 16 28 28 (1254400)
I1007 12:33:17.207928  4874 net.cpp:137] Memory required for data: 41082000
I1007 12:33:17.207943  4874 layer_factory.hpp:77] Creating layer Scale2
I1007 12:33:17.207949  4874 net.cpp:84] Creating Layer Scale2
I1007 12:33:17.207952  4874 net.cpp:406] Scale2 <- Convolution2
I1007 12:33:17.207955  4874 net.cpp:367] Scale2 -> Convolution2 (in-place)
I1007 12:33:17.207981  4874 layer_factory.hpp:77] Creating layer Scale2
I1007 12:33:17.208052  4874 net.cpp:122] Setting up Scale2
I1007 12:33:17.208058  4874 net.cpp:129] Top shape: 100 16 28 28 (1254400)
I1007 12:33:17.208061  4874 net.cpp:137] Memory required for data: 46099600
I1007 12:33:17.208065  4874 layer_factory.hpp:77] Creating layer M2PELU2
I1007 12:33:17.208071  4874 net.cpp:84] Creating Layer M2PELU2
I1007 12:33:17.208075  4874 net.cpp:406] M2PELU2 <- Convolution2
I1007 12:33:17.208077  4874 net.cpp:367] M2PELU2 -> Convolution2 (in-place)
I1007 12:33:17.208153  4874 net.cpp:122] Setting up M2PELU2
I1007 12:33:17.208165  4874 net.cpp:129] Top shape: 100 16 28 28 (1254400)
I1007 12:33:17.208169  4874 net.cpp:137] Memory required for data: 51117200
I1007 12:33:17.208175  4874 layer_factory.hpp:77] Creating layer Convolution3
I1007 12:33:17.208183  4874 net.cpp:84] Creating Layer Convolution3
I1007 12:33:17.208185  4874 net.cpp:406] Convolution3 <- Convolution2
I1007 12:33:17.208189  4874 net.cpp:380] Convolution3 -> Convolution3
I1007 12:33:17.209075  4874 net.cpp:122] Setting up Convolution3
I1007 12:33:17.209085  4874 net.cpp:129] Top shape: 100 16 28 28 (1254400)
I1007 12:33:17.209089  4874 net.cpp:137] Memory required for data: 56134800
I1007 12:33:17.209095  4874 layer_factory.hpp:77] Creating layer BatchNorm3
I1007 12:33:17.209100  4874 net.cpp:84] Creating Layer BatchNorm3
I1007 12:33:17.209105  4874 net.cpp:406] BatchNorm3 <- Convolution3
I1007 12:33:17.209108  4874 net.cpp:367] BatchNorm3 -> Convolution3 (in-place)
I1007 12:33:17.209234  4874 net.cpp:122] Setting up BatchNorm3
I1007 12:33:17.209240  4874 net.cpp:129] Top shape: 100 16 28 28 (1254400)
I1007 12:33:17.209244  4874 net.cpp:137] Memory required for data: 61152400
I1007 12:33:17.209249  4874 layer_factory.hpp:77] Creating layer Scale3
I1007 12:33:17.209254  4874 net.cpp:84] Creating Layer Scale3
I1007 12:33:17.209257  4874 net.cpp:406] Scale3 <- Convolution3
I1007 12:33:17.209260  4874 net.cpp:367] Scale3 -> Convolution3 (in-place)
I1007 12:33:17.209286  4874 layer_factory.hpp:77] Creating layer Scale3
I1007 12:33:17.209363  4874 net.cpp:122] Setting up Scale3
I1007 12:33:17.209368  4874 net.cpp:129] Top shape: 100 16 28 28 (1254400)
I1007 12:33:17.209372  4874 net.cpp:137] Memory required for data: 66170000
I1007 12:33:17.209377  4874 layer_factory.hpp:77] Creating layer Eltwise1
I1007 12:33:17.209381  4874 net.cpp:84] Creating Layer Eltwise1
I1007 12:33:17.209385  4874 net.cpp:406] Eltwise1 <- Convolution1_M2PELU1_0_split_1
I1007 12:33:17.209388  4874 net.cpp:406] Eltwise1 <- Convolution3
I1007 12:33:17.209393  4874 net.cpp:380] Eltwise1 -> Eltwise1
I1007 12:33:17.209408  4874 net.cpp:122] Setting up Eltwise1
I1007 12:33:17.209414  4874 net.cpp:129] Top shape: 100 16 28 28 (1254400)
I1007 12:33:17.209416  4874 net.cpp:137] Memory required for data: 71187600
I1007 12:33:17.209419  4874 layer_factory.hpp:77] Creating layer M2PELU3
I1007 12:33:17.209424  4874 net.cpp:84] Creating Layer M2PELU3
I1007 12:33:17.209427  4874 net.cpp:406] M2PELU3 <- Eltwise1
I1007 12:33:17.209431  4874 net.cpp:367] M2PELU3 -> Eltwise1 (in-place)
I1007 12:33:17.209509  4874 net.cpp:122] Setting up M2PELU3
I1007 12:33:17.209516  4874 net.cpp:129] Top shape: 100 16 28 28 (1254400)
I1007 12:33:17.209518  4874 net.cpp:137] Memory required for data: 76205200
I1007 12:33:17.209522  4874 layer_factory.hpp:77] Creating layer Eltwise1_M2PELU3_0_split
I1007 12:33:17.209527  4874 net.cpp:84] Creating Layer Eltwise1_M2PELU3_0_split
I1007 12:33:17.209530  4874 net.cpp:406] Eltwise1_M2PELU3_0_split <- Eltwise1
I1007 12:33:17.209533  4874 net.cpp:380] Eltwise1_M2PELU3_0_split -> Eltwise1_M2PELU3_0_split_0
I1007 12:33:17.209538  4874 net.cpp:380] Eltwise1_M2PELU3_0_split -> Eltwise1_M2PELU3_0_split_1
I1007 12:33:17.209561  4874 net.cpp:122] Setting up Eltwise1_M2PELU3_0_split
I1007 12:33:17.209566  4874 net.cpp:129] Top shape: 100 16 28 28 (1254400)
I1007 12:33:17.209569  4874 net.cpp:129] Top shape: 100 16 28 28 (1254400)
I1007 12:33:17.209573  4874 net.cpp:137] Memory required for data: 86240400
I1007 12:33:17.209574  4874 layer_factory.hpp:77] Creating layer Convolution4
I1007 12:33:17.209583  4874 net.cpp:84] Creating Layer Convolution4
I1007 12:33:17.209585  4874 net.cpp:406] Convolution4 <- Eltwise1_M2PELU3_0_split_0
I1007 12:33:17.209589  4874 net.cpp:380] Convolution4 -> Convolution4
I1007 12:33:17.210464  4874 net.cpp:122] Setting up Convolution4
I1007 12:33:17.210474  4874 net.cpp:129] Top shape: 100 16 28 28 (1254400)
I1007 12:33:17.210477  4874 net.cpp:137] Memory required for data: 91258000
I1007 12:33:17.210482  4874 layer_factory.hpp:77] Creating layer BatchNorm4
I1007 12:33:17.210496  4874 net.cpp:84] Creating Layer BatchNorm4
I1007 12:33:17.210500  4874 net.cpp:406] BatchNorm4 <- Convolution4
I1007 12:33:17.210503  4874 net.cpp:367] BatchNorm4 -> Convolution4 (in-place)
I1007 12:33:17.210623  4874 net.cpp:122] Setting up BatchNorm4
I1007 12:33:17.210628  4874 net.cpp:129] Top shape: 100 16 28 28 (1254400)
I1007 12:33:17.210633  4874 net.cpp:137] Memory required for data: 96275600
I1007 12:33:17.210638  4874 layer_factory.hpp:77] Creating layer Scale4
I1007 12:33:17.210641  4874 net.cpp:84] Creating Layer Scale4
I1007 12:33:17.210644  4874 net.cpp:406] Scale4 <- Convolution4
I1007 12:33:17.210649  4874 net.cpp:367] Scale4 -> Convolution4 (in-place)
I1007 12:33:17.210674  4874 layer_factory.hpp:77] Creating layer Scale4
I1007 12:33:17.210744  4874 net.cpp:122] Setting up Scale4
I1007 12:33:17.210749  4874 net.cpp:129] Top shape: 100 16 28 28 (1254400)
I1007 12:33:17.210752  4874 net.cpp:137] Memory required for data: 101293200
I1007 12:33:17.210759  4874 layer_factory.hpp:77] Creating layer M2PELU4
I1007 12:33:17.210765  4874 net.cpp:84] Creating Layer M2PELU4
I1007 12:33:17.210768  4874 net.cpp:406] M2PELU4 <- Convolution4
I1007 12:33:17.210772  4874 net.cpp:367] M2PELU4 -> Convolution4 (in-place)
I1007 12:33:17.210849  4874 net.cpp:122] Setting up M2PELU4
I1007 12:33:17.210853  4874 net.cpp:129] Top shape: 100 16 28 28 (1254400)
I1007 12:33:17.210856  4874 net.cpp:137] Memory required for data: 106310800
I1007 12:33:17.210860  4874 layer_factory.hpp:77] Creating layer Convolution5
I1007 12:33:17.210867  4874 net.cpp:84] Creating Layer Convolution5
I1007 12:33:17.210870  4874 net.cpp:406] Convolution5 <- Convolution4
I1007 12:33:17.210875  4874 net.cpp:380] Convolution5 -> Convolution5
I1007 12:33:17.211740  4874 net.cpp:122] Setting up Convolution5
I1007 12:33:17.211751  4874 net.cpp:129] Top shape: 100 16 28 28 (1254400)
I1007 12:33:17.211755  4874 net.cpp:137] Memory required for data: 111328400
I1007 12:33:17.211760  4874 layer_factory.hpp:77] Creating layer BatchNorm5
I1007 12:33:17.211766  4874 net.cpp:84] Creating Layer BatchNorm5
I1007 12:33:17.211769  4874 net.cpp:406] BatchNorm5 <- Convolution5
I1007 12:33:17.211772  4874 net.cpp:367] BatchNorm5 -> Convolution5 (in-place)
I1007 12:33:17.211894  4874 net.cpp:122] Setting up BatchNorm5
I1007 12:33:17.211899  4874 net.cpp:129] Top shape: 100 16 28 28 (1254400)
I1007 12:33:17.211901  4874 net.cpp:137] Memory required for data: 116346000
I1007 12:33:17.211906  4874 layer_factory.hpp:77] Creating layer Scale5
I1007 12:33:17.211911  4874 net.cpp:84] Creating Layer Scale5
I1007 12:33:17.211915  4874 net.cpp:406] Scale5 <- Convolution5
I1007 12:33:17.211918  4874 net.cpp:367] Scale5 -> Convolution5 (in-place)
I1007 12:33:17.211943  4874 layer_factory.hpp:77] Creating layer Scale5
I1007 12:33:17.212016  4874 net.cpp:122] Setting up Scale5
I1007 12:33:17.212021  4874 net.cpp:129] Top shape: 100 16 28 28 (1254400)
I1007 12:33:17.212024  4874 net.cpp:137] Memory required for data: 121363600
I1007 12:33:17.212028  4874 layer_factory.hpp:77] Creating layer Eltwise2
I1007 12:33:17.212033  4874 net.cpp:84] Creating Layer Eltwise2
I1007 12:33:17.212035  4874 net.cpp:406] Eltwise2 <- Eltwise1_M2PELU3_0_split_1
I1007 12:33:17.212038  4874 net.cpp:406] Eltwise2 <- Convolution5
I1007 12:33:17.212041  4874 net.cpp:380] Eltwise2 -> Eltwise2
I1007 12:33:17.212056  4874 net.cpp:122] Setting up Eltwise2
I1007 12:33:17.212060  4874 net.cpp:129] Top shape: 100 16 28 28 (1254400)
I1007 12:33:17.212064  4874 net.cpp:137] Memory required for data: 126381200
I1007 12:33:17.212066  4874 layer_factory.hpp:77] Creating layer M2PELU5
I1007 12:33:17.212070  4874 net.cpp:84] Creating Layer M2PELU5
I1007 12:33:17.212074  4874 net.cpp:406] M2PELU5 <- Eltwise2
I1007 12:33:17.212077  4874 net.cpp:367] M2PELU5 -> Eltwise2 (in-place)
I1007 12:33:17.212154  4874 net.cpp:122] Setting up M2PELU5
I1007 12:33:17.212159  4874 net.cpp:129] Top shape: 100 16 28 28 (1254400)
I1007 12:33:17.212162  4874 net.cpp:137] Memory required for data: 131398800
I1007 12:33:17.212167  4874 layer_factory.hpp:77] Creating layer Eltwise2_M2PELU5_0_split
I1007 12:33:17.212177  4874 net.cpp:84] Creating Layer Eltwise2_M2PELU5_0_split
I1007 12:33:17.212180  4874 net.cpp:406] Eltwise2_M2PELU5_0_split <- Eltwise2
I1007 12:33:17.212184  4874 net.cpp:380] Eltwise2_M2PELU5_0_split -> Eltwise2_M2PELU5_0_split_0
I1007 12:33:17.212189  4874 net.cpp:380] Eltwise2_M2PELU5_0_split -> Eltwise2_M2PELU5_0_split_1
I1007 12:33:17.212213  4874 net.cpp:122] Setting up Eltwise2_M2PELU5_0_split
I1007 12:33:17.212218  4874 net.cpp:129] Top shape: 100 16 28 28 (1254400)
I1007 12:33:17.212220  4874 net.cpp:129] Top shape: 100 16 28 28 (1254400)
I1007 12:33:17.212224  4874 net.cpp:137] Memory required for data: 141434000
I1007 12:33:17.212226  4874 layer_factory.hpp:77] Creating layer Convolution6
I1007 12:33:17.212232  4874 net.cpp:84] Creating Layer Convolution6
I1007 12:33:17.212235  4874 net.cpp:406] Convolution6 <- Eltwise2_M2PELU5_0_split_0
I1007 12:33:17.212239  4874 net.cpp:380] Convolution6 -> Convolution6
I1007 12:33:17.213101  4874 net.cpp:122] Setting up Convolution6
I1007 12:33:17.213111  4874 net.cpp:129] Top shape: 100 16 28 28 (1254400)
I1007 12:33:17.213115  4874 net.cpp:137] Memory required for data: 146451600
I1007 12:33:17.213120  4874 layer_factory.hpp:77] Creating layer BatchNorm6
I1007 12:33:17.213125  4874 net.cpp:84] Creating Layer BatchNorm6
I1007 12:33:17.213129  4874 net.cpp:406] BatchNorm6 <- Convolution6
I1007 12:33:17.213132  4874 net.cpp:367] BatchNorm6 -> Convolution6 (in-place)
I1007 12:33:17.213258  4874 net.cpp:122] Setting up BatchNorm6
I1007 12:33:17.213263  4874 net.cpp:129] Top shape: 100 16 28 28 (1254400)
I1007 12:33:17.213265  4874 net.cpp:137] Memory required for data: 151469200
I1007 12:33:17.213270  4874 layer_factory.hpp:77] Creating layer Scale6
I1007 12:33:17.213275  4874 net.cpp:84] Creating Layer Scale6
I1007 12:33:17.213279  4874 net.cpp:406] Scale6 <- Convolution6
I1007 12:33:17.213281  4874 net.cpp:367] Scale6 -> Convolution6 (in-place)
I1007 12:33:17.213307  4874 layer_factory.hpp:77] Creating layer Scale6
I1007 12:33:17.213380  4874 net.cpp:122] Setting up Scale6
I1007 12:33:17.213385  4874 net.cpp:129] Top shape: 100 16 28 28 (1254400)
I1007 12:33:17.213388  4874 net.cpp:137] Memory required for data: 156486800
I1007 12:33:17.213392  4874 layer_factory.hpp:77] Creating layer M2PELU6
I1007 12:33:17.213398  4874 net.cpp:84] Creating Layer M2PELU6
I1007 12:33:17.213402  4874 net.cpp:406] M2PELU6 <- Convolution6
I1007 12:33:17.213405  4874 net.cpp:367] M2PELU6 -> Convolution6 (in-place)
I1007 12:33:17.213486  4874 net.cpp:122] Setting up M2PELU6
I1007 12:33:17.213491  4874 net.cpp:129] Top shape: 100 16 28 28 (1254400)
I1007 12:33:17.213495  4874 net.cpp:137] Memory required for data: 161504400
I1007 12:33:17.213498  4874 layer_factory.hpp:77] Creating layer Convolution7
I1007 12:33:17.213505  4874 net.cpp:84] Creating Layer Convolution7
I1007 12:33:17.213508  4874 net.cpp:406] Convolution7 <- Convolution6
I1007 12:33:17.213512  4874 net.cpp:380] Convolution7 -> Convolution7
I1007 12:33:17.214042  4874 net.cpp:122] Setting up Convolution7
I1007 12:33:17.214051  4874 net.cpp:129] Top shape: 100 16 28 28 (1254400)
I1007 12:33:17.214056  4874 net.cpp:137] Memory required for data: 166522000
I1007 12:33:17.214059  4874 layer_factory.hpp:77] Creating layer BatchNorm7
I1007 12:33:17.214064  4874 net.cpp:84] Creating Layer BatchNorm7
I1007 12:33:17.214067  4874 net.cpp:406] BatchNorm7 <- Convolution7
I1007 12:33:17.214071  4874 net.cpp:367] BatchNorm7 -> Convolution7 (in-place)
I1007 12:33:17.214195  4874 net.cpp:122] Setting up BatchNorm7
I1007 12:33:17.214200  4874 net.cpp:129] Top shape: 100 16 28 28 (1254400)
I1007 12:33:17.214203  4874 net.cpp:137] Memory required for data: 171539600
I1007 12:33:17.214208  4874 layer_factory.hpp:77] Creating layer Scale7
I1007 12:33:17.214215  4874 net.cpp:84] Creating Layer Scale7
I1007 12:33:17.214218  4874 net.cpp:406] Scale7 <- Convolution7
I1007 12:33:17.214221  4874 net.cpp:367] Scale7 -> Convolution7 (in-place)
I1007 12:33:17.214246  4874 layer_factory.hpp:77] Creating layer Scale7
I1007 12:33:17.214328  4874 net.cpp:122] Setting up Scale7
I1007 12:33:17.214334  4874 net.cpp:129] Top shape: 100 16 28 28 (1254400)
I1007 12:33:17.214336  4874 net.cpp:137] Memory required for data: 176557200
I1007 12:33:17.214340  4874 layer_factory.hpp:77] Creating layer Eltwise3
I1007 12:33:17.214345  4874 net.cpp:84] Creating Layer Eltwise3
I1007 12:33:17.214349  4874 net.cpp:406] Eltwise3 <- Eltwise2_M2PELU5_0_split_1
I1007 12:33:17.214351  4874 net.cpp:406] Eltwise3 <- Convolution7
I1007 12:33:17.214355  4874 net.cpp:380] Eltwise3 -> Eltwise3
I1007 12:33:17.214370  4874 net.cpp:122] Setting up Eltwise3
I1007 12:33:17.214375  4874 net.cpp:129] Top shape: 100 16 28 28 (1254400)
I1007 12:33:17.214378  4874 net.cpp:137] Memory required for data: 181574800
I1007 12:33:17.214380  4874 layer_factory.hpp:77] Creating layer M2PELU7
I1007 12:33:17.214385  4874 net.cpp:84] Creating Layer M2PELU7
I1007 12:33:17.214388  4874 net.cpp:406] M2PELU7 <- Eltwise3
I1007 12:33:17.214391  4874 net.cpp:367] M2PELU7 -> Eltwise3 (in-place)
I1007 12:33:17.214471  4874 net.cpp:122] Setting up M2PELU7
I1007 12:33:17.214476  4874 net.cpp:129] Top shape: 100 16 28 28 (1254400)
I1007 12:33:17.214479  4874 net.cpp:137] Memory required for data: 186592400
I1007 12:33:17.214483  4874 layer_factory.hpp:77] Creating layer Eltwise3_M2PELU7_0_split
I1007 12:33:17.214488  4874 net.cpp:84] Creating Layer Eltwise3_M2PELU7_0_split
I1007 12:33:17.214490  4874 net.cpp:406] Eltwise3_M2PELU7_0_split <- Eltwise3
I1007 12:33:17.214494  4874 net.cpp:380] Eltwise3_M2PELU7_0_split -> Eltwise3_M2PELU7_0_split_0
I1007 12:33:17.214498  4874 net.cpp:380] Eltwise3_M2PELU7_0_split -> Eltwise3_M2PELU7_0_split_1
I1007 12:33:17.214520  4874 net.cpp:122] Setting up Eltwise3_M2PELU7_0_split
I1007 12:33:17.214524  4874 net.cpp:129] Top shape: 100 16 28 28 (1254400)
I1007 12:33:17.214529  4874 net.cpp:129] Top shape: 100 16 28 28 (1254400)
I1007 12:33:17.214531  4874 net.cpp:137] Memory required for data: 196627600
I1007 12:33:17.214534  4874 layer_factory.hpp:77] Creating layer Convolution8
I1007 12:33:17.214540  4874 net.cpp:84] Creating Layer Convolution8
I1007 12:33:17.214543  4874 net.cpp:406] Convolution8 <- Eltwise3_M2PELU7_0_split_0
I1007 12:33:17.214547  4874 net.cpp:380] Convolution8 -> Convolution8
I1007 12:33:17.215409  4874 net.cpp:122] Setting up Convolution8
I1007 12:33:17.215420  4874 net.cpp:129] Top shape: 100 16 28 28 (1254400)
I1007 12:33:17.215423  4874 net.cpp:137] Memory required for data: 201645200
I1007 12:33:17.215433  4874 layer_factory.hpp:77] Creating layer BatchNorm8
I1007 12:33:17.215438  4874 net.cpp:84] Creating Layer BatchNorm8
I1007 12:33:17.215442  4874 net.cpp:406] BatchNorm8 <- Convolution8
I1007 12:33:17.215445  4874 net.cpp:367] BatchNorm8 -> Convolution8 (in-place)
I1007 12:33:17.215571  4874 net.cpp:122] Setting up BatchNorm8
I1007 12:33:17.215576  4874 net.cpp:129] Top shape: 100 16 28 28 (1254400)
I1007 12:33:17.215579  4874 net.cpp:137] Memory required for data: 206662800
I1007 12:33:17.215585  4874 layer_factory.hpp:77] Creating layer Scale8
I1007 12:33:17.215590  4874 net.cpp:84] Creating Layer Scale8
I1007 12:33:17.215593  4874 net.cpp:406] Scale8 <- Convolution8
I1007 12:33:17.215596  4874 net.cpp:367] Scale8 -> Convolution8 (in-place)
I1007 12:33:17.215622  4874 layer_factory.hpp:77] Creating layer Scale8
I1007 12:33:17.215697  4874 net.cpp:122] Setting up Scale8
I1007 12:33:17.215701  4874 net.cpp:129] Top shape: 100 16 28 28 (1254400)
I1007 12:33:17.215704  4874 net.cpp:137] Memory required for data: 211680400
I1007 12:33:17.215708  4874 layer_factory.hpp:77] Creating layer M2PELU8
I1007 12:33:17.215714  4874 net.cpp:84] Creating Layer M2PELU8
I1007 12:33:17.215718  4874 net.cpp:406] M2PELU8 <- Convolution8
I1007 12:33:17.215720  4874 net.cpp:367] M2PELU8 -> Convolution8 (in-place)
I1007 12:33:17.215801  4874 net.cpp:122] Setting up M2PELU8
I1007 12:33:17.215806  4874 net.cpp:129] Top shape: 100 16 28 28 (1254400)
I1007 12:33:17.215809  4874 net.cpp:137] Memory required for data: 216698000
I1007 12:33:17.215821  4874 layer_factory.hpp:77] Creating layer Convolution9
I1007 12:33:17.215828  4874 net.cpp:84] Creating Layer Convolution9
I1007 12:33:17.215831  4874 net.cpp:406] Convolution9 <- Convolution8
I1007 12:33:17.215836  4874 net.cpp:380] Convolution9 -> Convolution9
I1007 12:33:17.216696  4874 net.cpp:122] Setting up Convolution9
I1007 12:33:17.216707  4874 net.cpp:129] Top shape: 100 16 28 28 (1254400)
I1007 12:33:17.216711  4874 net.cpp:137] Memory required for data: 221715600
I1007 12:33:17.216715  4874 layer_factory.hpp:77] Creating layer BatchNorm9
I1007 12:33:17.216722  4874 net.cpp:84] Creating Layer BatchNorm9
I1007 12:33:17.216724  4874 net.cpp:406] BatchNorm9 <- Convolution9
I1007 12:33:17.216728  4874 net.cpp:367] BatchNorm9 -> Convolution9 (in-place)
I1007 12:33:17.216853  4874 net.cpp:122] Setting up BatchNorm9
I1007 12:33:17.216859  4874 net.cpp:129] Top shape: 100 16 28 28 (1254400)
I1007 12:33:17.216862  4874 net.cpp:137] Memory required for data: 226733200
I1007 12:33:17.216867  4874 layer_factory.hpp:77] Creating layer Scale9
I1007 12:33:17.216871  4874 net.cpp:84] Creating Layer Scale9
I1007 12:33:17.216873  4874 net.cpp:406] Scale9 <- Convolution9
I1007 12:33:17.216878  4874 net.cpp:367] Scale9 -> Convolution9 (in-place)
I1007 12:33:17.216904  4874 layer_factory.hpp:77] Creating layer Scale9
I1007 12:33:17.216979  4874 net.cpp:122] Setting up Scale9
I1007 12:33:17.216984  4874 net.cpp:129] Top shape: 100 16 28 28 (1254400)
I1007 12:33:17.216987  4874 net.cpp:137] Memory required for data: 231750800
I1007 12:33:17.216991  4874 layer_factory.hpp:77] Creating layer Eltwise4
I1007 12:33:17.216995  4874 net.cpp:84] Creating Layer Eltwise4
I1007 12:33:17.216998  4874 net.cpp:406] Eltwise4 <- Eltwise3_M2PELU7_0_split_1
I1007 12:33:17.217002  4874 net.cpp:406] Eltwise4 <- Convolution9
I1007 12:33:17.217006  4874 net.cpp:380] Eltwise4 -> Eltwise4
I1007 12:33:17.217020  4874 net.cpp:122] Setting up Eltwise4
I1007 12:33:17.217025  4874 net.cpp:129] Top shape: 100 16 28 28 (1254400)
I1007 12:33:17.217027  4874 net.cpp:137] Memory required for data: 236768400
I1007 12:33:17.217031  4874 layer_factory.hpp:77] Creating layer M2PELU9
I1007 12:33:17.217036  4874 net.cpp:84] Creating Layer M2PELU9
I1007 12:33:17.217038  4874 net.cpp:406] M2PELU9 <- Eltwise4
I1007 12:33:17.217041  4874 net.cpp:367] M2PELU9 -> Eltwise4 (in-place)
I1007 12:33:17.217125  4874 net.cpp:122] Setting up M2PELU9
I1007 12:33:17.217130  4874 net.cpp:129] Top shape: 100 16 28 28 (1254400)
I1007 12:33:17.217133  4874 net.cpp:137] Memory required for data: 241786000
I1007 12:33:17.217137  4874 layer_factory.hpp:77] Creating layer Eltwise4_M2PELU9_0_split
I1007 12:33:17.217140  4874 net.cpp:84] Creating Layer Eltwise4_M2PELU9_0_split
I1007 12:33:17.217144  4874 net.cpp:406] Eltwise4_M2PELU9_0_split <- Eltwise4
I1007 12:33:17.217146  4874 net.cpp:380] Eltwise4_M2PELU9_0_split -> Eltwise4_M2PELU9_0_split_0
I1007 12:33:17.217151  4874 net.cpp:380] Eltwise4_M2PELU9_0_split -> Eltwise4_M2PELU9_0_split_1
I1007 12:33:17.217173  4874 net.cpp:122] Setting up Eltwise4_M2PELU9_0_split
I1007 12:33:17.217178  4874 net.cpp:129] Top shape: 100 16 28 28 (1254400)
I1007 12:33:17.217181  4874 net.cpp:129] Top shape: 100 16 28 28 (1254400)
I1007 12:33:17.217185  4874 net.cpp:137] Memory required for data: 251821200
I1007 12:33:17.217187  4874 layer_factory.hpp:77] Creating layer Convolution10
I1007 12:33:17.217193  4874 net.cpp:84] Creating Layer Convolution10
I1007 12:33:17.217196  4874 net.cpp:406] Convolution10 <- Eltwise4_M2PELU9_0_split_0
I1007 12:33:17.217200  4874 net.cpp:380] Convolution10 -> Convolution10
I1007 12:33:17.218065  4874 net.cpp:122] Setting up Convolution10
I1007 12:33:17.218075  4874 net.cpp:129] Top shape: 100 16 28 28 (1254400)
I1007 12:33:17.218078  4874 net.cpp:137] Memory required for data: 256838800
I1007 12:33:17.218083  4874 layer_factory.hpp:77] Creating layer BatchNorm10
I1007 12:33:17.218089  4874 net.cpp:84] Creating Layer BatchNorm10
I1007 12:33:17.218092  4874 net.cpp:406] BatchNorm10 <- Convolution10
I1007 12:33:17.218103  4874 net.cpp:367] BatchNorm10 -> Convolution10 (in-place)
I1007 12:33:17.218232  4874 net.cpp:122] Setting up BatchNorm10
I1007 12:33:17.218237  4874 net.cpp:129] Top shape: 100 16 28 28 (1254400)
I1007 12:33:17.218240  4874 net.cpp:137] Memory required for data: 261856400
I1007 12:33:17.218246  4874 layer_factory.hpp:77] Creating layer Scale10
I1007 12:33:17.218251  4874 net.cpp:84] Creating Layer Scale10
I1007 12:33:17.218253  4874 net.cpp:406] Scale10 <- Convolution10
I1007 12:33:17.218257  4874 net.cpp:367] Scale10 -> Convolution10 (in-place)
I1007 12:33:17.218283  4874 layer_factory.hpp:77] Creating layer Scale10
I1007 12:33:17.218358  4874 net.cpp:122] Setting up Scale10
I1007 12:33:17.218364  4874 net.cpp:129] Top shape: 100 16 28 28 (1254400)
I1007 12:33:17.218367  4874 net.cpp:137] Memory required for data: 266874000
I1007 12:33:17.218371  4874 layer_factory.hpp:77] Creating layer M2PELU10
I1007 12:33:17.218377  4874 net.cpp:84] Creating Layer M2PELU10
I1007 12:33:17.218380  4874 net.cpp:406] M2PELU10 <- Convolution10
I1007 12:33:17.218384  4874 net.cpp:367] M2PELU10 -> Convolution10 (in-place)
I1007 12:33:17.218464  4874 net.cpp:122] Setting up M2PELU10
I1007 12:33:17.218471  4874 net.cpp:129] Top shape: 100 16 28 28 (1254400)
I1007 12:33:17.218473  4874 net.cpp:137] Memory required for data: 271891600
I1007 12:33:17.218477  4874 layer_factory.hpp:77] Creating layer Convolution11
I1007 12:33:17.218484  4874 net.cpp:84] Creating Layer Convolution11
I1007 12:33:17.218487  4874 net.cpp:406] Convolution11 <- Convolution10
I1007 12:33:17.218492  4874 net.cpp:380] Convolution11 -> Convolution11
I1007 12:33:17.219403  4874 net.cpp:122] Setting up Convolution11
I1007 12:33:17.219414  4874 net.cpp:129] Top shape: 100 16 28 28 (1254400)
I1007 12:33:17.219419  4874 net.cpp:137] Memory required for data: 276909200
I1007 12:33:17.219424  4874 layer_factory.hpp:77] Creating layer BatchNorm11
I1007 12:33:17.219429  4874 net.cpp:84] Creating Layer BatchNorm11
I1007 12:33:17.219432  4874 net.cpp:406] BatchNorm11 <- Convolution11
I1007 12:33:17.219436  4874 net.cpp:367] BatchNorm11 -> Convolution11 (in-place)
I1007 12:33:17.219564  4874 net.cpp:122] Setting up BatchNorm11
I1007 12:33:17.219570  4874 net.cpp:129] Top shape: 100 16 28 28 (1254400)
I1007 12:33:17.219573  4874 net.cpp:137] Memory required for data: 281926800
I1007 12:33:17.219578  4874 layer_factory.hpp:77] Creating layer Scale11
I1007 12:33:17.219583  4874 net.cpp:84] Creating Layer Scale11
I1007 12:33:17.219585  4874 net.cpp:406] Scale11 <- Convolution11
I1007 12:33:17.219589  4874 net.cpp:367] Scale11 -> Convolution11 (in-place)
I1007 12:33:17.219615  4874 layer_factory.hpp:77] Creating layer Scale11
I1007 12:33:17.219692  4874 net.cpp:122] Setting up Scale11
I1007 12:33:17.219697  4874 net.cpp:129] Top shape: 100 16 28 28 (1254400)
I1007 12:33:17.219702  4874 net.cpp:137] Memory required for data: 286944400
I1007 12:33:17.219705  4874 layer_factory.hpp:77] Creating layer Eltwise5
I1007 12:33:17.219710  4874 net.cpp:84] Creating Layer Eltwise5
I1007 12:33:17.219713  4874 net.cpp:406] Eltwise5 <- Eltwise4_M2PELU9_0_split_1
I1007 12:33:17.219717  4874 net.cpp:406] Eltwise5 <- Convolution11
I1007 12:33:17.219720  4874 net.cpp:380] Eltwise5 -> Eltwise5
I1007 12:33:17.219735  4874 net.cpp:122] Setting up Eltwise5
I1007 12:33:17.219740  4874 net.cpp:129] Top shape: 100 16 28 28 (1254400)
I1007 12:33:17.219744  4874 net.cpp:137] Memory required for data: 291962000
I1007 12:33:17.219746  4874 layer_factory.hpp:77] Creating layer M2PELU11
I1007 12:33:17.219751  4874 net.cpp:84] Creating Layer M2PELU11
I1007 12:33:17.219754  4874 net.cpp:406] M2PELU11 <- Eltwise5
I1007 12:33:17.219758  4874 net.cpp:367] M2PELU11 -> Eltwise5 (in-place)
I1007 12:33:17.219842  4874 net.cpp:122] Setting up M2PELU11
I1007 12:33:17.219848  4874 net.cpp:129] Top shape: 100 16 28 28 (1254400)
I1007 12:33:17.219851  4874 net.cpp:137] Memory required for data: 296979600
I1007 12:33:17.219856  4874 layer_factory.hpp:77] Creating layer Eltwise5_M2PELU11_0_split
I1007 12:33:17.219867  4874 net.cpp:84] Creating Layer Eltwise5_M2PELU11_0_split
I1007 12:33:17.219871  4874 net.cpp:406] Eltwise5_M2PELU11_0_split <- Eltwise5
I1007 12:33:17.219873  4874 net.cpp:380] Eltwise5_M2PELU11_0_split -> Eltwise5_M2PELU11_0_split_0
I1007 12:33:17.219878  4874 net.cpp:380] Eltwise5_M2PELU11_0_split -> Eltwise5_M2PELU11_0_split_1
I1007 12:33:17.219902  4874 net.cpp:122] Setting up Eltwise5_M2PELU11_0_split
I1007 12:33:17.219907  4874 net.cpp:129] Top shape: 100 16 28 28 (1254400)
I1007 12:33:17.219911  4874 net.cpp:129] Top shape: 100 16 28 28 (1254400)
I1007 12:33:17.219913  4874 net.cpp:137] Memory required for data: 307014800
I1007 12:33:17.219916  4874 layer_factory.hpp:77] Creating layer Convolution12
I1007 12:33:17.219923  4874 net.cpp:84] Creating Layer Convolution12
I1007 12:33:17.219925  4874 net.cpp:406] Convolution12 <- Eltwise5_M2PELU11_0_split_0
I1007 12:33:17.219930  4874 net.cpp:380] Convolution12 -> Convolution12
I1007 12:33:17.221089  4874 net.cpp:122] Setting up Convolution12
I1007 12:33:17.221101  4874 net.cpp:129] Top shape: 100 32 14 14 (627200)
I1007 12:33:17.221104  4874 net.cpp:137] Memory required for data: 309523600
I1007 12:33:17.221109  4874 layer_factory.hpp:77] Creating layer BatchNorm12
I1007 12:33:17.221115  4874 net.cpp:84] Creating Layer BatchNorm12
I1007 12:33:17.221118  4874 net.cpp:406] BatchNorm12 <- Convolution12
I1007 12:33:17.221122  4874 net.cpp:367] BatchNorm12 -> Convolution12 (in-place)
I1007 12:33:17.221261  4874 net.cpp:122] Setting up BatchNorm12
I1007 12:33:17.221266  4874 net.cpp:129] Top shape: 100 32 14 14 (627200)
I1007 12:33:17.221269  4874 net.cpp:137] Memory required for data: 312032400
I1007 12:33:17.221274  4874 layer_factory.hpp:77] Creating layer Scale12
I1007 12:33:17.221279  4874 net.cpp:84] Creating Layer Scale12
I1007 12:33:17.221282  4874 net.cpp:406] Scale12 <- Convolution12
I1007 12:33:17.221287  4874 net.cpp:367] Scale12 -> Convolution12 (in-place)
I1007 12:33:17.221312  4874 layer_factory.hpp:77] Creating layer Scale12
I1007 12:33:17.221386  4874 net.cpp:122] Setting up Scale12
I1007 12:33:17.221392  4874 net.cpp:129] Top shape: 100 32 14 14 (627200)
I1007 12:33:17.221395  4874 net.cpp:137] Memory required for data: 314541200
I1007 12:33:17.221400  4874 layer_factory.hpp:77] Creating layer Convolution13
I1007 12:33:17.221406  4874 net.cpp:84] Creating Layer Convolution13
I1007 12:33:17.221410  4874 net.cpp:406] Convolution13 <- Eltwise5_M2PELU11_0_split_1
I1007 12:33:17.221415  4874 net.cpp:380] Convolution13 -> Convolution13
I1007 12:33:17.222661  4874 net.cpp:122] Setting up Convolution13
I1007 12:33:17.222672  4874 net.cpp:129] Top shape: 100 32 14 14 (627200)
I1007 12:33:17.222676  4874 net.cpp:137] Memory required for data: 317050000
I1007 12:33:17.222681  4874 layer_factory.hpp:77] Creating layer BatchNorm13
I1007 12:33:17.222687  4874 net.cpp:84] Creating Layer BatchNorm13
I1007 12:33:17.222690  4874 net.cpp:406] BatchNorm13 <- Convolution13
I1007 12:33:17.222694  4874 net.cpp:367] BatchNorm13 -> Convolution13 (in-place)
I1007 12:33:17.222827  4874 net.cpp:122] Setting up BatchNorm13
I1007 12:33:17.222833  4874 net.cpp:129] Top shape: 100 32 14 14 (627200)
I1007 12:33:17.222836  4874 net.cpp:137] Memory required for data: 319558800
I1007 12:33:17.222841  4874 layer_factory.hpp:77] Creating layer Scale13
I1007 12:33:17.222846  4874 net.cpp:84] Creating Layer Scale13
I1007 12:33:17.222849  4874 net.cpp:406] Scale13 <- Convolution13
I1007 12:33:17.222853  4874 net.cpp:367] Scale13 -> Convolution13 (in-place)
I1007 12:33:17.222879  4874 layer_factory.hpp:77] Creating layer Scale13
I1007 12:33:17.222952  4874 net.cpp:122] Setting up Scale13
I1007 12:33:17.222959  4874 net.cpp:129] Top shape: 100 32 14 14 (627200)
I1007 12:33:17.222961  4874 net.cpp:137] Memory required for data: 322067600
I1007 12:33:17.222965  4874 layer_factory.hpp:77] Creating layer M2PELU12
I1007 12:33:17.222971  4874 net.cpp:84] Creating Layer M2PELU12
I1007 12:33:17.222975  4874 net.cpp:406] M2PELU12 <- Convolution13
I1007 12:33:17.222978  4874 net.cpp:367] M2PELU12 -> Convolution13 (in-place)
I1007 12:33:17.223068  4874 net.cpp:122] Setting up M2PELU12
I1007 12:33:17.223074  4874 net.cpp:129] Top shape: 100 32 14 14 (627200)
I1007 12:33:17.223078  4874 net.cpp:137] Memory required for data: 324576400
I1007 12:33:17.223081  4874 layer_factory.hpp:77] Creating layer Convolution14
I1007 12:33:17.223088  4874 net.cpp:84] Creating Layer Convolution14
I1007 12:33:17.223093  4874 net.cpp:406] Convolution14 <- Convolution13
I1007 12:33:17.223096  4874 net.cpp:380] Convolution14 -> Convolution14
I1007 12:33:17.224139  4874 net.cpp:122] Setting up Convolution14
I1007 12:33:17.224150  4874 net.cpp:129] Top shape: 100 32 14 14 (627200)
I1007 12:33:17.224154  4874 net.cpp:137] Memory required for data: 327085200
I1007 12:33:17.224159  4874 layer_factory.hpp:77] Creating layer BatchNorm14
I1007 12:33:17.224167  4874 net.cpp:84] Creating Layer BatchNorm14
I1007 12:33:17.224171  4874 net.cpp:406] BatchNorm14 <- Convolution14
I1007 12:33:17.224175  4874 net.cpp:367] BatchNorm14 -> Convolution14 (in-place)
I1007 12:33:17.224303  4874 net.cpp:122] Setting up BatchNorm14
I1007 12:33:17.224308  4874 net.cpp:129] Top shape: 100 32 14 14 (627200)
I1007 12:33:17.224313  4874 net.cpp:137] Memory required for data: 329594000
I1007 12:33:17.224318  4874 layer_factory.hpp:77] Creating layer Scale14
I1007 12:33:17.224323  4874 net.cpp:84] Creating Layer Scale14
I1007 12:33:17.224325  4874 net.cpp:406] Scale14 <- Convolution14
I1007 12:33:17.224328  4874 net.cpp:367] Scale14 -> Convolution14 (in-place)
I1007 12:33:17.224355  4874 layer_factory.hpp:77] Creating layer Scale14
I1007 12:33:17.224427  4874 net.cpp:122] Setting up Scale14
I1007 12:33:17.224433  4874 net.cpp:129] Top shape: 100 32 14 14 (627200)
I1007 12:33:17.224436  4874 net.cpp:137] Memory required for data: 332102800
I1007 12:33:17.224440  4874 layer_factory.hpp:77] Creating layer Eltwise6
I1007 12:33:17.224445  4874 net.cpp:84] Creating Layer Eltwise6
I1007 12:33:17.224448  4874 net.cpp:406] Eltwise6 <- Convolution12
I1007 12:33:17.224452  4874 net.cpp:406] Eltwise6 <- Convolution14
I1007 12:33:17.224455  4874 net.cpp:380] Eltwise6 -> Eltwise6
I1007 12:33:17.224470  4874 net.cpp:122] Setting up Eltwise6
I1007 12:33:17.224473  4874 net.cpp:129] Top shape: 100 32 14 14 (627200)
I1007 12:33:17.224476  4874 net.cpp:137] Memory required for data: 334611600
I1007 12:33:17.224478  4874 layer_factory.hpp:77] Creating layer M2PELU13
I1007 12:33:17.224483  4874 net.cpp:84] Creating Layer M2PELU13
I1007 12:33:17.224485  4874 net.cpp:406] M2PELU13 <- Eltwise6
I1007 12:33:17.224488  4874 net.cpp:367] M2PELU13 -> Eltwise6 (in-place)
I1007 12:33:17.224570  4874 net.cpp:122] Setting up M2PELU13
I1007 12:33:17.224573  4874 net.cpp:129] Top shape: 100 32 14 14 (627200)
I1007 12:33:17.224575  4874 net.cpp:137] Memory required for data: 337120400
I1007 12:33:17.224580  4874 layer_factory.hpp:77] Creating layer Eltwise6_M2PELU13_0_split
I1007 12:33:17.224583  4874 net.cpp:84] Creating Layer Eltwise6_M2PELU13_0_split
I1007 12:33:17.224586  4874 net.cpp:406] Eltwise6_M2PELU13_0_split <- Eltwise6
I1007 12:33:17.224588  4874 net.cpp:380] Eltwise6_M2PELU13_0_split -> Eltwise6_M2PELU13_0_split_0
I1007 12:33:17.224592  4874 net.cpp:380] Eltwise6_M2PELU13_0_split -> Eltwise6_M2PELU13_0_split_1
I1007 12:33:17.224614  4874 net.cpp:122] Setting up Eltwise6_M2PELU13_0_split
I1007 12:33:17.224618  4874 net.cpp:129] Top shape: 100 32 14 14 (627200)
I1007 12:33:17.224622  4874 net.cpp:129] Top shape: 100 32 14 14 (627200)
I1007 12:33:17.224623  4874 net.cpp:137] Memory required for data: 342138000
I1007 12:33:17.224627  4874 layer_factory.hpp:77] Creating layer Convolution15
I1007 12:33:17.224632  4874 net.cpp:84] Creating Layer Convolution15
I1007 12:33:17.224634  4874 net.cpp:406] Convolution15 <- Eltwise6_M2PELU13_0_split_0
I1007 12:33:17.224638  4874 net.cpp:380] Convolution15 -> Convolution15
I1007 12:33:17.225656  4874 net.cpp:122] Setting up Convolution15
I1007 12:33:17.225666  4874 net.cpp:129] Top shape: 100 32 14 14 (627200)
I1007 12:33:17.225668  4874 net.cpp:137] Memory required for data: 344646800
I1007 12:33:17.225679  4874 layer_factory.hpp:77] Creating layer BatchNorm15
I1007 12:33:17.225684  4874 net.cpp:84] Creating Layer BatchNorm15
I1007 12:33:17.225687  4874 net.cpp:406] BatchNorm15 <- Convolution15
I1007 12:33:17.225692  4874 net.cpp:367] BatchNorm15 -> Convolution15 (in-place)
I1007 12:33:17.225818  4874 net.cpp:122] Setting up BatchNorm15
I1007 12:33:17.225823  4874 net.cpp:129] Top shape: 100 32 14 14 (627200)
I1007 12:33:17.225826  4874 net.cpp:137] Memory required for data: 347155600
I1007 12:33:17.225838  4874 layer_factory.hpp:77] Creating layer Scale15
I1007 12:33:17.225842  4874 net.cpp:84] Creating Layer Scale15
I1007 12:33:17.225845  4874 net.cpp:406] Scale15 <- Convolution15
I1007 12:33:17.225848  4874 net.cpp:367] Scale15 -> Convolution15 (in-place)
I1007 12:33:17.225874  4874 layer_factory.hpp:77] Creating layer Scale15
I1007 12:33:17.225945  4874 net.cpp:122] Setting up Scale15
I1007 12:33:17.225950  4874 net.cpp:129] Top shape: 100 32 14 14 (627200)
I1007 12:33:17.225951  4874 net.cpp:137] Memory required for data: 349664400
I1007 12:33:17.225956  4874 layer_factory.hpp:77] Creating layer M2PELU14
I1007 12:33:17.225960  4874 net.cpp:84] Creating Layer M2PELU14
I1007 12:33:17.225963  4874 net.cpp:406] M2PELU14 <- Convolution15
I1007 12:33:17.225966  4874 net.cpp:367] M2PELU14 -> Convolution15 (in-place)
I1007 12:33:17.226047  4874 net.cpp:122] Setting up M2PELU14
I1007 12:33:17.226050  4874 net.cpp:129] Top shape: 100 32 14 14 (627200)
I1007 12:33:17.226052  4874 net.cpp:137] Memory required for data: 352173200
I1007 12:33:17.226056  4874 layer_factory.hpp:77] Creating layer Convolution16
I1007 12:33:17.226063  4874 net.cpp:84] Creating Layer Convolution16
I1007 12:33:17.226065  4874 net.cpp:406] Convolution16 <- Convolution15
I1007 12:33:17.226068  4874 net.cpp:380] Convolution16 -> Convolution16
I1007 12:33:17.227082  4874 net.cpp:122] Setting up Convolution16
I1007 12:33:17.227092  4874 net.cpp:129] Top shape: 100 32 14 14 (627200)
I1007 12:33:17.227095  4874 net.cpp:137] Memory required for data: 354682000
I1007 12:33:17.227100  4874 layer_factory.hpp:77] Creating layer BatchNorm16
I1007 12:33:17.227104  4874 net.cpp:84] Creating Layer BatchNorm16
I1007 12:33:17.227108  4874 net.cpp:406] BatchNorm16 <- Convolution16
I1007 12:33:17.227111  4874 net.cpp:367] BatchNorm16 -> Convolution16 (in-place)
I1007 12:33:17.227241  4874 net.cpp:122] Setting up BatchNorm16
I1007 12:33:17.227247  4874 net.cpp:129] Top shape: 100 32 14 14 (627200)
I1007 12:33:17.227249  4874 net.cpp:137] Memory required for data: 357190800
I1007 12:33:17.227254  4874 layer_factory.hpp:77] Creating layer Scale16
I1007 12:33:17.227258  4874 net.cpp:84] Creating Layer Scale16
I1007 12:33:17.227262  4874 net.cpp:406] Scale16 <- Convolution16
I1007 12:33:17.227264  4874 net.cpp:367] Scale16 -> Convolution16 (in-place)
I1007 12:33:17.227289  4874 layer_factory.hpp:77] Creating layer Scale16
I1007 12:33:17.227361  4874 net.cpp:122] Setting up Scale16
I1007 12:33:17.227365  4874 net.cpp:129] Top shape: 100 32 14 14 (627200)
I1007 12:33:17.227367  4874 net.cpp:137] Memory required for data: 359699600
I1007 12:33:17.227371  4874 layer_factory.hpp:77] Creating layer Eltwise7
I1007 12:33:17.227375  4874 net.cpp:84] Creating Layer Eltwise7
I1007 12:33:17.227378  4874 net.cpp:406] Eltwise7 <- Eltwise6_M2PELU13_0_split_1
I1007 12:33:17.227381  4874 net.cpp:406] Eltwise7 <- Convolution16
I1007 12:33:17.227385  4874 net.cpp:380] Eltwise7 -> Eltwise7
I1007 12:33:17.227399  4874 net.cpp:122] Setting up Eltwise7
I1007 12:33:17.227403  4874 net.cpp:129] Top shape: 100 32 14 14 (627200)
I1007 12:33:17.227406  4874 net.cpp:137] Memory required for data: 362208400
I1007 12:33:17.227407  4874 layer_factory.hpp:77] Creating layer M2PELU15
I1007 12:33:17.227412  4874 net.cpp:84] Creating Layer M2PELU15
I1007 12:33:17.227414  4874 net.cpp:406] M2PELU15 <- Eltwise7
I1007 12:33:17.227418  4874 net.cpp:367] M2PELU15 -> Eltwise7 (in-place)
I1007 12:33:17.227497  4874 net.cpp:122] Setting up M2PELU15
I1007 12:33:17.227501  4874 net.cpp:129] Top shape: 100 32 14 14 (627200)
I1007 12:33:17.227510  4874 net.cpp:137] Memory required for data: 364717200
I1007 12:33:17.227515  4874 layer_factory.hpp:77] Creating layer Eltwise7_M2PELU15_0_split
I1007 12:33:17.227519  4874 net.cpp:84] Creating Layer Eltwise7_M2PELU15_0_split
I1007 12:33:17.227521  4874 net.cpp:406] Eltwise7_M2PELU15_0_split <- Eltwise7
I1007 12:33:17.227525  4874 net.cpp:380] Eltwise7_M2PELU15_0_split -> Eltwise7_M2PELU15_0_split_0
I1007 12:33:17.227530  4874 net.cpp:380] Eltwise7_M2PELU15_0_split -> Eltwise7_M2PELU15_0_split_1
I1007 12:33:17.227551  4874 net.cpp:122] Setting up Eltwise7_M2PELU15_0_split
I1007 12:33:17.227555  4874 net.cpp:129] Top shape: 100 32 14 14 (627200)
I1007 12:33:17.227558  4874 net.cpp:129] Top shape: 100 32 14 14 (627200)
I1007 12:33:17.227560  4874 net.cpp:137] Memory required for data: 369734800
I1007 12:33:17.227562  4874 layer_factory.hpp:77] Creating layer Convolution17
I1007 12:33:17.227568  4874 net.cpp:84] Creating Layer Convolution17
I1007 12:33:17.227571  4874 net.cpp:406] Convolution17 <- Eltwise7_M2PELU15_0_split_0
I1007 12:33:17.227576  4874 net.cpp:380] Convolution17 -> Convolution17
I1007 12:33:17.228255  4874 net.cpp:122] Setting up Convolution17
I1007 12:33:17.228262  4874 net.cpp:129] Top shape: 100 32 14 14 (627200)
I1007 12:33:17.228266  4874 net.cpp:137] Memory required for data: 372243600
I1007 12:33:17.228269  4874 layer_factory.hpp:77] Creating layer BatchNorm17
I1007 12:33:17.228274  4874 net.cpp:84] Creating Layer BatchNorm17
I1007 12:33:17.228276  4874 net.cpp:406] BatchNorm17 <- Convolution17
I1007 12:33:17.228281  4874 net.cpp:367] BatchNorm17 -> Convolution17 (in-place)
I1007 12:33:17.228404  4874 net.cpp:122] Setting up BatchNorm17
I1007 12:33:17.228408  4874 net.cpp:129] Top shape: 100 32 14 14 (627200)
I1007 12:33:17.228410  4874 net.cpp:137] Memory required for data: 374752400
I1007 12:33:17.228415  4874 layer_factory.hpp:77] Creating layer Scale17
I1007 12:33:17.228420  4874 net.cpp:84] Creating Layer Scale17
I1007 12:33:17.228422  4874 net.cpp:406] Scale17 <- Convolution17
I1007 12:33:17.228425  4874 net.cpp:367] Scale17 -> Convolution17 (in-place)
I1007 12:33:17.228449  4874 layer_factory.hpp:77] Creating layer Scale17
I1007 12:33:17.228520  4874 net.cpp:122] Setting up Scale17
I1007 12:33:17.228524  4874 net.cpp:129] Top shape: 100 32 14 14 (627200)
I1007 12:33:17.228526  4874 net.cpp:137] Memory required for data: 377261200
I1007 12:33:17.228530  4874 layer_factory.hpp:77] Creating layer M2PELU16
I1007 12:33:17.228535  4874 net.cpp:84] Creating Layer M2PELU16
I1007 12:33:17.228538  4874 net.cpp:406] M2PELU16 <- Convolution17
I1007 12:33:17.228541  4874 net.cpp:367] M2PELU16 -> Convolution17 (in-place)
I1007 12:33:17.228621  4874 net.cpp:122] Setting up M2PELU16
I1007 12:33:17.228624  4874 net.cpp:129] Top shape: 100 32 14 14 (627200)
I1007 12:33:17.228626  4874 net.cpp:137] Memory required for data: 379770000
I1007 12:33:17.228631  4874 layer_factory.hpp:77] Creating layer Convolution18
I1007 12:33:17.228636  4874 net.cpp:84] Creating Layer Convolution18
I1007 12:33:17.228638  4874 net.cpp:406] Convolution18 <- Convolution17
I1007 12:33:17.228642  4874 net.cpp:380] Convolution18 -> Convolution18
I1007 12:33:17.229651  4874 net.cpp:122] Setting up Convolution18
I1007 12:33:17.229660  4874 net.cpp:129] Top shape: 100 32 14 14 (627200)
I1007 12:33:17.229663  4874 net.cpp:137] Memory required for data: 382278800
I1007 12:33:17.229667  4874 layer_factory.hpp:77] Creating layer BatchNorm18
I1007 12:33:17.229672  4874 net.cpp:84] Creating Layer BatchNorm18
I1007 12:33:17.229676  4874 net.cpp:406] BatchNorm18 <- Convolution18
I1007 12:33:17.229678  4874 net.cpp:367] BatchNorm18 -> Convolution18 (in-place)
I1007 12:33:17.229805  4874 net.cpp:122] Setting up BatchNorm18
I1007 12:33:17.229809  4874 net.cpp:129] Top shape: 100 32 14 14 (627200)
I1007 12:33:17.229812  4874 net.cpp:137] Memory required for data: 384787600
I1007 12:33:17.229816  4874 layer_factory.hpp:77] Creating layer Scale18
I1007 12:33:17.229821  4874 net.cpp:84] Creating Layer Scale18
I1007 12:33:17.229830  4874 net.cpp:406] Scale18 <- Convolution18
I1007 12:33:17.229833  4874 net.cpp:367] Scale18 -> Convolution18 (in-place)
I1007 12:33:17.229859  4874 layer_factory.hpp:77] Creating layer Scale18
I1007 12:33:17.229930  4874 net.cpp:122] Setting up Scale18
I1007 12:33:17.229935  4874 net.cpp:129] Top shape: 100 32 14 14 (627200)
I1007 12:33:17.229938  4874 net.cpp:137] Memory required for data: 387296400
I1007 12:33:17.229941  4874 layer_factory.hpp:77] Creating layer Eltwise8
I1007 12:33:17.229945  4874 net.cpp:84] Creating Layer Eltwise8
I1007 12:33:17.229948  4874 net.cpp:406] Eltwise8 <- Eltwise7_M2PELU15_0_split_1
I1007 12:33:17.229951  4874 net.cpp:406] Eltwise8 <- Convolution18
I1007 12:33:17.229954  4874 net.cpp:380] Eltwise8 -> Eltwise8
I1007 12:33:17.229969  4874 net.cpp:122] Setting up Eltwise8
I1007 12:33:17.229972  4874 net.cpp:129] Top shape: 100 32 14 14 (627200)
I1007 12:33:17.229974  4874 net.cpp:137] Memory required for data: 389805200
I1007 12:33:17.229977  4874 layer_factory.hpp:77] Creating layer M2PELU17
I1007 12:33:17.229981  4874 net.cpp:84] Creating Layer M2PELU17
I1007 12:33:17.229984  4874 net.cpp:406] M2PELU17 <- Eltwise8
I1007 12:33:17.229987  4874 net.cpp:367] M2PELU17 -> Eltwise8 (in-place)
I1007 12:33:17.230065  4874 net.cpp:122] Setting up M2PELU17
I1007 12:33:17.230070  4874 net.cpp:129] Top shape: 100 32 14 14 (627200)
I1007 12:33:17.230072  4874 net.cpp:137] Memory required for data: 392314000
I1007 12:33:17.230077  4874 layer_factory.hpp:77] Creating layer Eltwise8_M2PELU17_0_split
I1007 12:33:17.230079  4874 net.cpp:84] Creating Layer Eltwise8_M2PELU17_0_split
I1007 12:33:17.230082  4874 net.cpp:406] Eltwise8_M2PELU17_0_split <- Eltwise8
I1007 12:33:17.230085  4874 net.cpp:380] Eltwise8_M2PELU17_0_split -> Eltwise8_M2PELU17_0_split_0
I1007 12:33:17.230089  4874 net.cpp:380] Eltwise8_M2PELU17_0_split -> Eltwise8_M2PELU17_0_split_1
I1007 12:33:17.230111  4874 net.cpp:122] Setting up Eltwise8_M2PELU17_0_split
I1007 12:33:17.230114  4874 net.cpp:129] Top shape: 100 32 14 14 (627200)
I1007 12:33:17.230118  4874 net.cpp:129] Top shape: 100 32 14 14 (627200)
I1007 12:33:17.230119  4874 net.cpp:137] Memory required for data: 397331600
I1007 12:33:17.230123  4874 layer_factory.hpp:77] Creating layer Convolution19
I1007 12:33:17.230129  4874 net.cpp:84] Creating Layer Convolution19
I1007 12:33:17.230130  4874 net.cpp:406] Convolution19 <- Eltwise8_M2PELU17_0_split_0
I1007 12:33:17.230134  4874 net.cpp:380] Convolution19 -> Convolution19
I1007 12:33:17.231508  4874 net.cpp:122] Setting up Convolution19
I1007 12:33:17.231526  4874 net.cpp:129] Top shape: 100 32 14 14 (627200)
I1007 12:33:17.231529  4874 net.cpp:137] Memory required for data: 399840400
I1007 12:33:17.231544  4874 layer_factory.hpp:77] Creating layer BatchNorm19
I1007 12:33:17.231549  4874 net.cpp:84] Creating Layer BatchNorm19
I1007 12:33:17.231552  4874 net.cpp:406] BatchNorm19 <- Convolution19
I1007 12:33:17.231555  4874 net.cpp:367] BatchNorm19 -> Convolution19 (in-place)
I1007 12:33:17.231685  4874 net.cpp:122] Setting up BatchNorm19
I1007 12:33:17.231689  4874 net.cpp:129] Top shape: 100 32 14 14 (627200)
I1007 12:33:17.231693  4874 net.cpp:137] Memory required for data: 402349200
I1007 12:33:17.231696  4874 layer_factory.hpp:77] Creating layer Scale19
I1007 12:33:17.231701  4874 net.cpp:84] Creating Layer Scale19
I1007 12:33:17.231704  4874 net.cpp:406] Scale19 <- Convolution19
I1007 12:33:17.231708  4874 net.cpp:367] Scale19 -> Convolution19 (in-place)
I1007 12:33:17.231732  4874 layer_factory.hpp:77] Creating layer Scale19
I1007 12:33:17.231804  4874 net.cpp:122] Setting up Scale19
I1007 12:33:17.231808  4874 net.cpp:129] Top shape: 100 32 14 14 (627200)
I1007 12:33:17.231811  4874 net.cpp:137] Memory required for data: 404858000
I1007 12:33:17.231814  4874 layer_factory.hpp:77] Creating layer M2PELU18
I1007 12:33:17.231819  4874 net.cpp:84] Creating Layer M2PELU18
I1007 12:33:17.231822  4874 net.cpp:406] M2PELU18 <- Convolution19
I1007 12:33:17.231825  4874 net.cpp:367] M2PELU18 -> Convolution19 (in-place)
I1007 12:33:17.231914  4874 net.cpp:122] Setting up M2PELU18
I1007 12:33:17.231919  4874 net.cpp:129] Top shape: 100 32 14 14 (627200)
I1007 12:33:17.231920  4874 net.cpp:137] Memory required for data: 407366800
I1007 12:33:17.231925  4874 layer_factory.hpp:77] Creating layer Convolution20
I1007 12:33:17.231931  4874 net.cpp:84] Creating Layer Convolution20
I1007 12:33:17.231933  4874 net.cpp:406] Convolution20 <- Convolution19
I1007 12:33:17.231937  4874 net.cpp:380] Convolution20 -> Convolution20
I1007 12:33:17.232964  4874 net.cpp:122] Setting up Convolution20
I1007 12:33:17.232973  4874 net.cpp:129] Top shape: 100 32 14 14 (627200)
I1007 12:33:17.232976  4874 net.cpp:137] Memory required for data: 409875600
I1007 12:33:17.232981  4874 layer_factory.hpp:77] Creating layer BatchNorm20
I1007 12:33:17.232986  4874 net.cpp:84] Creating Layer BatchNorm20
I1007 12:33:17.232988  4874 net.cpp:406] BatchNorm20 <- Convolution20
I1007 12:33:17.232992  4874 net.cpp:367] BatchNorm20 -> Convolution20 (in-place)
I1007 12:33:17.233119  4874 net.cpp:122] Setting up BatchNorm20
I1007 12:33:17.233122  4874 net.cpp:129] Top shape: 100 32 14 14 (627200)
I1007 12:33:17.233124  4874 net.cpp:137] Memory required for data: 412384400
I1007 12:33:17.233129  4874 layer_factory.hpp:77] Creating layer Scale20
I1007 12:33:17.233134  4874 net.cpp:84] Creating Layer Scale20
I1007 12:33:17.233136  4874 net.cpp:406] Scale20 <- Convolution20
I1007 12:33:17.233139  4874 net.cpp:367] Scale20 -> Convolution20 (in-place)
I1007 12:33:17.233165  4874 layer_factory.hpp:77] Creating layer Scale20
I1007 12:33:17.233237  4874 net.cpp:122] Setting up Scale20
I1007 12:33:17.233242  4874 net.cpp:129] Top shape: 100 32 14 14 (627200)
I1007 12:33:17.233243  4874 net.cpp:137] Memory required for data: 414893200
I1007 12:33:17.233247  4874 layer_factory.hpp:77] Creating layer Eltwise9
I1007 12:33:17.233252  4874 net.cpp:84] Creating Layer Eltwise9
I1007 12:33:17.233254  4874 net.cpp:406] Eltwise9 <- Eltwise8_M2PELU17_0_split_1
I1007 12:33:17.233258  4874 net.cpp:406] Eltwise9 <- Convolution20
I1007 12:33:17.233260  4874 net.cpp:380] Eltwise9 -> Eltwise9
I1007 12:33:17.233275  4874 net.cpp:122] Setting up Eltwise9
I1007 12:33:17.233278  4874 net.cpp:129] Top shape: 100 32 14 14 (627200)
I1007 12:33:17.233281  4874 net.cpp:137] Memory required for data: 417402000
I1007 12:33:17.233283  4874 layer_factory.hpp:77] Creating layer M2PELU19
I1007 12:33:17.233289  4874 net.cpp:84] Creating Layer M2PELU19
I1007 12:33:17.233290  4874 net.cpp:406] M2PELU19 <- Eltwise9
I1007 12:33:17.233294  4874 net.cpp:367] M2PELU19 -> Eltwise9 (in-place)
I1007 12:33:17.233373  4874 net.cpp:122] Setting up M2PELU19
I1007 12:33:17.233378  4874 net.cpp:129] Top shape: 100 32 14 14 (627200)
I1007 12:33:17.233389  4874 net.cpp:137] Memory required for data: 419910800
I1007 12:33:17.233393  4874 layer_factory.hpp:77] Creating layer Eltwise9_M2PELU19_0_split
I1007 12:33:17.233397  4874 net.cpp:84] Creating Layer Eltwise9_M2PELU19_0_split
I1007 12:33:17.233399  4874 net.cpp:406] Eltwise9_M2PELU19_0_split <- Eltwise9
I1007 12:33:17.233402  4874 net.cpp:380] Eltwise9_M2PELU19_0_split -> Eltwise9_M2PELU19_0_split_0
I1007 12:33:17.233407  4874 net.cpp:380] Eltwise9_M2PELU19_0_split -> Eltwise9_M2PELU19_0_split_1
I1007 12:33:17.233428  4874 net.cpp:122] Setting up Eltwise9_M2PELU19_0_split
I1007 12:33:17.233430  4874 net.cpp:129] Top shape: 100 32 14 14 (627200)
I1007 12:33:17.233433  4874 net.cpp:129] Top shape: 100 32 14 14 (627200)
I1007 12:33:17.233435  4874 net.cpp:137] Memory required for data: 424928400
I1007 12:33:17.233438  4874 layer_factory.hpp:77] Creating layer Convolution21
I1007 12:33:17.233443  4874 net.cpp:84] Creating Layer Convolution21
I1007 12:33:17.233446  4874 net.cpp:406] Convolution21 <- Eltwise9_M2PELU19_0_split_0
I1007 12:33:17.233449  4874 net.cpp:380] Convolution21 -> Convolution21
I1007 12:33:17.234829  4874 net.cpp:122] Setting up Convolution21
I1007 12:33:17.234840  4874 net.cpp:129] Top shape: 100 32 14 14 (627200)
I1007 12:33:17.234844  4874 net.cpp:137] Memory required for data: 427437200
I1007 12:33:17.234869  4874 layer_factory.hpp:77] Creating layer BatchNorm21
I1007 12:33:17.234874  4874 net.cpp:84] Creating Layer BatchNorm21
I1007 12:33:17.234877  4874 net.cpp:406] BatchNorm21 <- Convolution21
I1007 12:33:17.234881  4874 net.cpp:367] BatchNorm21 -> Convolution21 (in-place)
I1007 12:33:17.235015  4874 net.cpp:122] Setting up BatchNorm21
I1007 12:33:17.235019  4874 net.cpp:129] Top shape: 100 32 14 14 (627200)
I1007 12:33:17.235021  4874 net.cpp:137] Memory required for data: 429946000
I1007 12:33:17.235026  4874 layer_factory.hpp:77] Creating layer Scale21
I1007 12:33:17.235030  4874 net.cpp:84] Creating Layer Scale21
I1007 12:33:17.235033  4874 net.cpp:406] Scale21 <- Convolution21
I1007 12:33:17.235035  4874 net.cpp:367] Scale21 -> Convolution21 (in-place)
I1007 12:33:17.235060  4874 layer_factory.hpp:77] Creating layer Scale21
I1007 12:33:17.235148  4874 net.cpp:122] Setting up Scale21
I1007 12:33:17.235152  4874 net.cpp:129] Top shape: 100 32 14 14 (627200)
I1007 12:33:17.235154  4874 net.cpp:137] Memory required for data: 432454800
I1007 12:33:17.235158  4874 layer_factory.hpp:77] Creating layer M2PELU20
I1007 12:33:17.235190  4874 net.cpp:84] Creating Layer M2PELU20
I1007 12:33:17.235193  4874 net.cpp:406] M2PELU20 <- Convolution21
I1007 12:33:17.235196  4874 net.cpp:367] M2PELU20 -> Convolution21 (in-place)
I1007 12:33:17.235297  4874 net.cpp:122] Setting up M2PELU20
I1007 12:33:17.235301  4874 net.cpp:129] Top shape: 100 32 14 14 (627200)
I1007 12:33:17.235303  4874 net.cpp:137] Memory required for data: 434963600
I1007 12:33:17.235307  4874 layer_factory.hpp:77] Creating layer Convolution22
I1007 12:33:17.235313  4874 net.cpp:84] Creating Layer Convolution22
I1007 12:33:17.235316  4874 net.cpp:406] Convolution22 <- Convolution21
I1007 12:33:17.235319  4874 net.cpp:380] Convolution22 -> Convolution22
I1007 12:33:17.236367  4874 net.cpp:122] Setting up Convolution22
I1007 12:33:17.236377  4874 net.cpp:129] Top shape: 100 32 14 14 (627200)
I1007 12:33:17.236379  4874 net.cpp:137] Memory required for data: 437472400
I1007 12:33:17.236383  4874 layer_factory.hpp:77] Creating layer BatchNorm22
I1007 12:33:17.236388  4874 net.cpp:84] Creating Layer BatchNorm22
I1007 12:33:17.236390  4874 net.cpp:406] BatchNorm22 <- Convolution22
I1007 12:33:17.236394  4874 net.cpp:367] BatchNorm22 -> Convolution22 (in-place)
I1007 12:33:17.236516  4874 net.cpp:122] Setting up BatchNorm22
I1007 12:33:17.236521  4874 net.cpp:129] Top shape: 100 32 14 14 (627200)
I1007 12:33:17.236522  4874 net.cpp:137] Memory required for data: 439981200
I1007 12:33:17.236527  4874 layer_factory.hpp:77] Creating layer Scale22
I1007 12:33:17.236531  4874 net.cpp:84] Creating Layer Scale22
I1007 12:33:17.236533  4874 net.cpp:406] Scale22 <- Convolution22
I1007 12:33:17.236536  4874 net.cpp:367] Scale22 -> Convolution22 (in-place)
I1007 12:33:17.236560  4874 layer_factory.hpp:77] Creating layer Scale22
I1007 12:33:17.236629  4874 net.cpp:122] Setting up Scale22
I1007 12:33:17.236632  4874 net.cpp:129] Top shape: 100 32 14 14 (627200)
I1007 12:33:17.236635  4874 net.cpp:137] Memory required for data: 442490000
I1007 12:33:17.236639  4874 layer_factory.hpp:77] Creating layer Eltwise10
I1007 12:33:17.236642  4874 net.cpp:84] Creating Layer Eltwise10
I1007 12:33:17.236645  4874 net.cpp:406] Eltwise10 <- Eltwise9_M2PELU19_0_split_1
I1007 12:33:17.236647  4874 net.cpp:406] Eltwise10 <- Convolution22
I1007 12:33:17.236651  4874 net.cpp:380] Eltwise10 -> Eltwise10
I1007 12:33:17.236665  4874 net.cpp:122] Setting up Eltwise10
I1007 12:33:17.236670  4874 net.cpp:129] Top shape: 100 32 14 14 (627200)
I1007 12:33:17.236671  4874 net.cpp:137] Memory required for data: 444998800
I1007 12:33:17.236673  4874 layer_factory.hpp:77] Creating layer M2PELU21
I1007 12:33:17.236677  4874 net.cpp:84] Creating Layer M2PELU21
I1007 12:33:17.236680  4874 net.cpp:406] M2PELU21 <- Eltwise10
I1007 12:33:17.236683  4874 net.cpp:367] M2PELU21 -> Eltwise10 (in-place)
I1007 12:33:17.236760  4874 net.cpp:122] Setting up M2PELU21
I1007 12:33:17.236770  4874 net.cpp:129] Top shape: 100 32 14 14 (627200)
I1007 12:33:17.236773  4874 net.cpp:137] Memory required for data: 447507600
I1007 12:33:17.236778  4874 layer_factory.hpp:77] Creating layer Eltwise10_M2PELU21_0_split
I1007 12:33:17.236780  4874 net.cpp:84] Creating Layer Eltwise10_M2PELU21_0_split
I1007 12:33:17.236783  4874 net.cpp:406] Eltwise10_M2PELU21_0_split <- Eltwise10
I1007 12:33:17.236786  4874 net.cpp:380] Eltwise10_M2PELU21_0_split -> Eltwise10_M2PELU21_0_split_0
I1007 12:33:17.236790  4874 net.cpp:380] Eltwise10_M2PELU21_0_split -> Eltwise10_M2PELU21_0_split_1
I1007 12:33:17.236812  4874 net.cpp:122] Setting up Eltwise10_M2PELU21_0_split
I1007 12:33:17.236816  4874 net.cpp:129] Top shape: 100 32 14 14 (627200)
I1007 12:33:17.236819  4874 net.cpp:129] Top shape: 100 32 14 14 (627200)
I1007 12:33:17.236820  4874 net.cpp:137] Memory required for data: 452525200
I1007 12:33:17.236822  4874 layer_factory.hpp:77] Creating layer Convolution23
I1007 12:33:17.236829  4874 net.cpp:84] Creating Layer Convolution23
I1007 12:33:17.236830  4874 net.cpp:406] Convolution23 <- Eltwise10_M2PELU21_0_split_0
I1007 12:33:17.236835  4874 net.cpp:380] Convolution23 -> Convolution23
I1007 12:33:17.237664  4874 net.cpp:122] Setting up Convolution23
I1007 12:33:17.237673  4874 net.cpp:129] Top shape: 100 64 7 7 (313600)
I1007 12:33:17.237676  4874 net.cpp:137] Memory required for data: 453779600
I1007 12:33:17.237680  4874 layer_factory.hpp:77] Creating layer BatchNorm23
I1007 12:33:17.237685  4874 net.cpp:84] Creating Layer BatchNorm23
I1007 12:33:17.237687  4874 net.cpp:406] BatchNorm23 <- Convolution23
I1007 12:33:17.237691  4874 net.cpp:367] BatchNorm23 -> Convolution23 (in-place)
I1007 12:33:17.237812  4874 net.cpp:122] Setting up BatchNorm23
I1007 12:33:17.237818  4874 net.cpp:129] Top shape: 100 64 7 7 (313600)
I1007 12:33:17.237819  4874 net.cpp:137] Memory required for data: 455034000
I1007 12:33:17.237823  4874 layer_factory.hpp:77] Creating layer Scale23
I1007 12:33:17.237828  4874 net.cpp:84] Creating Layer Scale23
I1007 12:33:17.237830  4874 net.cpp:406] Scale23 <- Convolution23
I1007 12:33:17.237833  4874 net.cpp:367] Scale23 -> Convolution23 (in-place)
I1007 12:33:17.237856  4874 layer_factory.hpp:77] Creating layer Scale23
I1007 12:33:17.237924  4874 net.cpp:122] Setting up Scale23
I1007 12:33:17.237928  4874 net.cpp:129] Top shape: 100 64 7 7 (313600)
I1007 12:33:17.237931  4874 net.cpp:137] Memory required for data: 456288400
I1007 12:33:17.237934  4874 layer_factory.hpp:77] Creating layer Convolution24
I1007 12:33:17.237941  4874 net.cpp:84] Creating Layer Convolution24
I1007 12:33:17.237944  4874 net.cpp:406] Convolution24 <- Eltwise10_M2PELU21_0_split_1
I1007 12:33:17.237948  4874 net.cpp:380] Convolution24 -> Convolution24
I1007 12:33:17.239660  4874 net.cpp:122] Setting up Convolution24
I1007 12:33:17.239668  4874 net.cpp:129] Top shape: 100 64 7 7 (313600)
I1007 12:33:17.239671  4874 net.cpp:137] Memory required for data: 457542800
I1007 12:33:17.239675  4874 layer_factory.hpp:77] Creating layer BatchNorm24
I1007 12:33:17.239681  4874 net.cpp:84] Creating Layer BatchNorm24
I1007 12:33:17.239683  4874 net.cpp:406] BatchNorm24 <- Convolution24
I1007 12:33:17.239686  4874 net.cpp:367] BatchNorm24 -> Convolution24 (in-place)
I1007 12:33:17.239809  4874 net.cpp:122] Setting up BatchNorm24
I1007 12:33:17.239812  4874 net.cpp:129] Top shape: 100 64 7 7 (313600)
I1007 12:33:17.239814  4874 net.cpp:137] Memory required for data: 458797200
I1007 12:33:17.239820  4874 layer_factory.hpp:77] Creating layer Scale24
I1007 12:33:17.239823  4874 net.cpp:84] Creating Layer Scale24
I1007 12:33:17.239825  4874 net.cpp:406] Scale24 <- Convolution24
I1007 12:33:17.239828  4874 net.cpp:367] Scale24 -> Convolution24 (in-place)
I1007 12:33:17.239853  4874 layer_factory.hpp:77] Creating layer Scale24
I1007 12:33:17.239922  4874 net.cpp:122] Setting up Scale24
I1007 12:33:17.239925  4874 net.cpp:129] Top shape: 100 64 7 7 (313600)
I1007 12:33:17.239928  4874 net.cpp:137] Memory required for data: 460051600
I1007 12:33:17.239938  4874 layer_factory.hpp:77] Creating layer M2PELU22
I1007 12:33:17.239943  4874 net.cpp:84] Creating Layer M2PELU22
I1007 12:33:17.239945  4874 net.cpp:406] M2PELU22 <- Convolution24
I1007 12:33:17.239949  4874 net.cpp:367] M2PELU22 -> Convolution24 (in-place)
I1007 12:33:17.240025  4874 net.cpp:122] Setting up M2PELU22
I1007 12:33:17.240030  4874 net.cpp:129] Top shape: 100 64 7 7 (313600)
I1007 12:33:17.240032  4874 net.cpp:137] Memory required for data: 461306000
I1007 12:33:17.240036  4874 layer_factory.hpp:77] Creating layer Convolution25
I1007 12:33:17.240041  4874 net.cpp:84] Creating Layer Convolution25
I1007 12:33:17.240044  4874 net.cpp:406] Convolution25 <- Convolution24
I1007 12:33:17.240048  4874 net.cpp:380] Convolution25 -> Convolution25
I1007 12:33:17.241914  4874 net.cpp:122] Setting up Convolution25
I1007 12:33:17.241924  4874 net.cpp:129] Top shape: 100 64 7 7 (313600)
I1007 12:33:17.241926  4874 net.cpp:137] Memory required for data: 462560400
I1007 12:33:17.241930  4874 layer_factory.hpp:77] Creating layer BatchNorm25
I1007 12:33:17.241935  4874 net.cpp:84] Creating Layer BatchNorm25
I1007 12:33:17.241938  4874 net.cpp:406] BatchNorm25 <- Convolution25
I1007 12:33:17.241941  4874 net.cpp:367] BatchNorm25 -> Convolution25 (in-place)
I1007 12:33:17.242066  4874 net.cpp:122] Setting up BatchNorm25
I1007 12:33:17.242071  4874 net.cpp:129] Top shape: 100 64 7 7 (313600)
I1007 12:33:17.242074  4874 net.cpp:137] Memory required for data: 463814800
I1007 12:33:17.242077  4874 layer_factory.hpp:77] Creating layer Scale25
I1007 12:33:17.242081  4874 net.cpp:84] Creating Layer Scale25
I1007 12:33:17.242084  4874 net.cpp:406] Scale25 <- Convolution25
I1007 12:33:17.242087  4874 net.cpp:367] Scale25 -> Convolution25 (in-place)
I1007 12:33:17.242112  4874 layer_factory.hpp:77] Creating layer Scale25
I1007 12:33:17.242182  4874 net.cpp:122] Setting up Scale25
I1007 12:33:17.242185  4874 net.cpp:129] Top shape: 100 64 7 7 (313600)
I1007 12:33:17.242187  4874 net.cpp:137] Memory required for data: 465069200
I1007 12:33:17.242192  4874 layer_factory.hpp:77] Creating layer Eltwise11
I1007 12:33:17.242195  4874 net.cpp:84] Creating Layer Eltwise11
I1007 12:33:17.242197  4874 net.cpp:406] Eltwise11 <- Convolution23
I1007 12:33:17.242200  4874 net.cpp:406] Eltwise11 <- Convolution25
I1007 12:33:17.242203  4874 net.cpp:380] Eltwise11 -> Eltwise11
I1007 12:33:17.242218  4874 net.cpp:122] Setting up Eltwise11
I1007 12:33:17.242223  4874 net.cpp:129] Top shape: 100 64 7 7 (313600)
I1007 12:33:17.242224  4874 net.cpp:137] Memory required for data: 466323600
I1007 12:33:17.242226  4874 layer_factory.hpp:77] Creating layer M2PELU23
I1007 12:33:17.242231  4874 net.cpp:84] Creating Layer M2PELU23
I1007 12:33:17.242233  4874 net.cpp:406] M2PELU23 <- Eltwise11
I1007 12:33:17.242236  4874 net.cpp:367] M2PELU23 -> Eltwise11 (in-place)
I1007 12:33:17.242316  4874 net.cpp:122] Setting up M2PELU23
I1007 12:33:17.242319  4874 net.cpp:129] Top shape: 100 64 7 7 (313600)
I1007 12:33:17.242322  4874 net.cpp:137] Memory required for data: 467578000
I1007 12:33:17.242326  4874 layer_factory.hpp:77] Creating layer Eltwise11_M2PELU23_0_split
I1007 12:33:17.242329  4874 net.cpp:84] Creating Layer Eltwise11_M2PELU23_0_split
I1007 12:33:17.242331  4874 net.cpp:406] Eltwise11_M2PELU23_0_split <- Eltwise11
I1007 12:33:17.242334  4874 net.cpp:380] Eltwise11_M2PELU23_0_split -> Eltwise11_M2PELU23_0_split_0
I1007 12:33:17.242338  4874 net.cpp:380] Eltwise11_M2PELU23_0_split -> Eltwise11_M2PELU23_0_split_1
I1007 12:33:17.242360  4874 net.cpp:122] Setting up Eltwise11_M2PELU23_0_split
I1007 12:33:17.242363  4874 net.cpp:129] Top shape: 100 64 7 7 (313600)
I1007 12:33:17.242367  4874 net.cpp:129] Top shape: 100 64 7 7 (313600)
I1007 12:33:17.242368  4874 net.cpp:137] Memory required for data: 470086800
I1007 12:33:17.242370  4874 layer_factory.hpp:77] Creating layer Convolution26
I1007 12:33:17.242377  4874 net.cpp:84] Creating Layer Convolution26
I1007 12:33:17.242378  4874 net.cpp:406] Convolution26 <- Eltwise11_M2PELU23_0_split_0
I1007 12:33:17.242388  4874 net.cpp:380] Convolution26 -> Convolution26
I1007 12:33:17.243988  4874 net.cpp:122] Setting up Convolution26
I1007 12:33:17.243998  4874 net.cpp:129] Top shape: 100 64 7 7 (313600)
I1007 12:33:17.244000  4874 net.cpp:137] Memory required for data: 471341200
I1007 12:33:17.244004  4874 layer_factory.hpp:77] Creating layer BatchNorm26
I1007 12:33:17.244009  4874 net.cpp:84] Creating Layer BatchNorm26
I1007 12:33:17.244012  4874 net.cpp:406] BatchNorm26 <- Convolution26
I1007 12:33:17.244015  4874 net.cpp:367] BatchNorm26 -> Convolution26 (in-place)
I1007 12:33:17.244138  4874 net.cpp:122] Setting up BatchNorm26
I1007 12:33:17.244143  4874 net.cpp:129] Top shape: 100 64 7 7 (313600)
I1007 12:33:17.244145  4874 net.cpp:137] Memory required for data: 472595600
I1007 12:33:17.244149  4874 layer_factory.hpp:77] Creating layer Scale26
I1007 12:33:17.244153  4874 net.cpp:84] Creating Layer Scale26
I1007 12:33:17.244155  4874 net.cpp:406] Scale26 <- Convolution26
I1007 12:33:17.244158  4874 net.cpp:367] Scale26 -> Convolution26 (in-place)
I1007 12:33:17.244184  4874 layer_factory.hpp:77] Creating layer Scale26
I1007 12:33:17.244252  4874 net.cpp:122] Setting up Scale26
I1007 12:33:17.244256  4874 net.cpp:129] Top shape: 100 64 7 7 (313600)
I1007 12:33:17.244258  4874 net.cpp:137] Memory required for data: 473850000
I1007 12:33:17.244262  4874 layer_factory.hpp:77] Creating layer M2PELU24
I1007 12:33:17.244267  4874 net.cpp:84] Creating Layer M2PELU24
I1007 12:33:17.244269  4874 net.cpp:406] M2PELU24 <- Convolution26
I1007 12:33:17.244272  4874 net.cpp:367] M2PELU24 -> Convolution26 (in-place)
I1007 12:33:17.244350  4874 net.cpp:122] Setting up M2PELU24
I1007 12:33:17.244354  4874 net.cpp:129] Top shape: 100 64 7 7 (313600)
I1007 12:33:17.244356  4874 net.cpp:137] Memory required for data: 475104400
I1007 12:33:17.244360  4874 layer_factory.hpp:77] Creating layer Convolution27
I1007 12:33:17.244366  4874 net.cpp:84] Creating Layer Convolution27
I1007 12:33:17.244369  4874 net.cpp:406] Convolution27 <- Convolution26
I1007 12:33:17.244372  4874 net.cpp:380] Convolution27 -> Convolution27
I1007 12:33:17.245964  4874 net.cpp:122] Setting up Convolution27
I1007 12:33:17.245972  4874 net.cpp:129] Top shape: 100 64 7 7 (313600)
I1007 12:33:17.245975  4874 net.cpp:137] Memory required for data: 476358800
I1007 12:33:17.245980  4874 layer_factory.hpp:77] Creating layer BatchNorm27
I1007 12:33:17.245985  4874 net.cpp:84] Creating Layer BatchNorm27
I1007 12:33:17.245986  4874 net.cpp:406] BatchNorm27 <- Convolution27
I1007 12:33:17.245990  4874 net.cpp:367] BatchNorm27 -> Convolution27 (in-place)
I1007 12:33:17.246115  4874 net.cpp:122] Setting up BatchNorm27
I1007 12:33:17.246119  4874 net.cpp:129] Top shape: 100 64 7 7 (313600)
I1007 12:33:17.246122  4874 net.cpp:137] Memory required for data: 477613200
I1007 12:33:17.246126  4874 layer_factory.hpp:77] Creating layer Scale27
I1007 12:33:17.246137  4874 net.cpp:84] Creating Layer Scale27
I1007 12:33:17.246140  4874 net.cpp:406] Scale27 <- Convolution27
I1007 12:33:17.246143  4874 net.cpp:367] Scale27 -> Convolution27 (in-place)
I1007 12:33:17.246168  4874 layer_factory.hpp:77] Creating layer Scale27
I1007 12:33:17.246239  4874 net.cpp:122] Setting up Scale27
I1007 12:33:17.246243  4874 net.cpp:129] Top shape: 100 64 7 7 (313600)
I1007 12:33:17.246246  4874 net.cpp:137] Memory required for data: 478867600
I1007 12:33:17.246250  4874 layer_factory.hpp:77] Creating layer Eltwise12
I1007 12:33:17.246254  4874 net.cpp:84] Creating Layer Eltwise12
I1007 12:33:17.246256  4874 net.cpp:406] Eltwise12 <- Eltwise11_M2PELU23_0_split_1
I1007 12:33:17.246259  4874 net.cpp:406] Eltwise12 <- Convolution27
I1007 12:33:17.246263  4874 net.cpp:380] Eltwise12 -> Eltwise12
I1007 12:33:17.246281  4874 net.cpp:122] Setting up Eltwise12
I1007 12:33:17.246286  4874 net.cpp:129] Top shape: 100 64 7 7 (313600)
I1007 12:33:17.246289  4874 net.cpp:137] Memory required for data: 480122000
I1007 12:33:17.246290  4874 layer_factory.hpp:77] Creating layer M2PELU25
I1007 12:33:17.246294  4874 net.cpp:84] Creating Layer M2PELU25
I1007 12:33:17.246304  4874 net.cpp:406] M2PELU25 <- Eltwise12
I1007 12:33:17.246307  4874 net.cpp:367] M2PELU25 -> Eltwise12 (in-place)
I1007 12:33:17.246390  4874 net.cpp:122] Setting up M2PELU25
I1007 12:33:17.246394  4874 net.cpp:129] Top shape: 100 64 7 7 (313600)
I1007 12:33:17.246397  4874 net.cpp:137] Memory required for data: 481376400
I1007 12:33:17.246400  4874 layer_factory.hpp:77] Creating layer Eltwise12_M2PELU25_0_split
I1007 12:33:17.246403  4874 net.cpp:84] Creating Layer Eltwise12_M2PELU25_0_split
I1007 12:33:17.246405  4874 net.cpp:406] Eltwise12_M2PELU25_0_split <- Eltwise12
I1007 12:33:17.246409  4874 net.cpp:380] Eltwise12_M2PELU25_0_split -> Eltwise12_M2PELU25_0_split_0
I1007 12:33:17.246413  4874 net.cpp:380] Eltwise12_M2PELU25_0_split -> Eltwise12_M2PELU25_0_split_1
I1007 12:33:17.246434  4874 net.cpp:122] Setting up Eltwise12_M2PELU25_0_split
I1007 12:33:17.246438  4874 net.cpp:129] Top shape: 100 64 7 7 (313600)
I1007 12:33:17.246441  4874 net.cpp:129] Top shape: 100 64 7 7 (313600)
I1007 12:33:17.246443  4874 net.cpp:137] Memory required for data: 483885200
I1007 12:33:17.246445  4874 layer_factory.hpp:77] Creating layer Convolution28
I1007 12:33:17.246450  4874 net.cpp:84] Creating Layer Convolution28
I1007 12:33:17.246454  4874 net.cpp:406] Convolution28 <- Eltwise12_M2PELU25_0_split_0
I1007 12:33:17.246457  4874 net.cpp:380] Convolution28 -> Convolution28
I1007 12:33:17.248050  4874 net.cpp:122] Setting up Convolution28
I1007 12:33:17.248059  4874 net.cpp:129] Top shape: 100 64 7 7 (313600)
I1007 12:33:17.248062  4874 net.cpp:137] Memory required for data: 485139600
I1007 12:33:17.248066  4874 layer_factory.hpp:77] Creating layer BatchNorm28
I1007 12:33:17.248072  4874 net.cpp:84] Creating Layer BatchNorm28
I1007 12:33:17.248075  4874 net.cpp:406] BatchNorm28 <- Convolution28
I1007 12:33:17.248078  4874 net.cpp:367] BatchNorm28 -> Convolution28 (in-place)
I1007 12:33:17.248203  4874 net.cpp:122] Setting up BatchNorm28
I1007 12:33:17.248208  4874 net.cpp:129] Top shape: 100 64 7 7 (313600)
I1007 12:33:17.248209  4874 net.cpp:137] Memory required for data: 486394000
I1007 12:33:17.248214  4874 layer_factory.hpp:77] Creating layer Scale28
I1007 12:33:17.248219  4874 net.cpp:84] Creating Layer Scale28
I1007 12:33:17.248220  4874 net.cpp:406] Scale28 <- Convolution28
I1007 12:33:17.248224  4874 net.cpp:367] Scale28 -> Convolution28 (in-place)
I1007 12:33:17.248247  4874 layer_factory.hpp:77] Creating layer Scale28
I1007 12:33:17.248317  4874 net.cpp:122] Setting up Scale28
I1007 12:33:17.248322  4874 net.cpp:129] Top shape: 100 64 7 7 (313600)
I1007 12:33:17.248323  4874 net.cpp:137] Memory required for data: 487648400
I1007 12:33:17.248327  4874 layer_factory.hpp:77] Creating layer M2PELU26
I1007 12:33:17.248332  4874 net.cpp:84] Creating Layer M2PELU26
I1007 12:33:17.248334  4874 net.cpp:406] M2PELU26 <- Convolution28
I1007 12:33:17.248338  4874 net.cpp:367] M2PELU26 -> Convolution28 (in-place)
I1007 12:33:17.248416  4874 net.cpp:122] Setting up M2PELU26
I1007 12:33:17.248420  4874 net.cpp:129] Top shape: 100 64 7 7 (313600)
I1007 12:33:17.248423  4874 net.cpp:137] Memory required for data: 488902800
I1007 12:33:17.248426  4874 layer_factory.hpp:77] Creating layer Convolution29
I1007 12:33:17.248432  4874 net.cpp:84] Creating Layer Convolution29
I1007 12:33:17.248435  4874 net.cpp:406] Convolution29 <- Convolution28
I1007 12:33:17.248438  4874 net.cpp:380] Convolution29 -> Convolution29
I1007 12:33:17.250300  4874 net.cpp:122] Setting up Convolution29
I1007 12:33:17.250308  4874 net.cpp:129] Top shape: 100 64 7 7 (313600)
I1007 12:33:17.250311  4874 net.cpp:137] Memory required for data: 490157200
I1007 12:33:17.250316  4874 layer_factory.hpp:77] Creating layer BatchNorm29
I1007 12:33:17.250320  4874 net.cpp:84] Creating Layer BatchNorm29
I1007 12:33:17.250324  4874 net.cpp:406] BatchNorm29 <- Convolution29
I1007 12:33:17.250326  4874 net.cpp:367] BatchNorm29 -> Convolution29 (in-place)
I1007 12:33:17.250453  4874 net.cpp:122] Setting up BatchNorm29
I1007 12:33:17.250464  4874 net.cpp:129] Top shape: 100 64 7 7 (313600)
I1007 12:33:17.250466  4874 net.cpp:137] Memory required for data: 491411600
I1007 12:33:17.250471  4874 layer_factory.hpp:77] Creating layer Scale29
I1007 12:33:17.250475  4874 net.cpp:84] Creating Layer Scale29
I1007 12:33:17.250478  4874 net.cpp:406] Scale29 <- Convolution29
I1007 12:33:17.250481  4874 net.cpp:367] Scale29 -> Convolution29 (in-place)
I1007 12:33:17.250507  4874 layer_factory.hpp:77] Creating layer Scale29
I1007 12:33:17.250578  4874 net.cpp:122] Setting up Scale29
I1007 12:33:17.250582  4874 net.cpp:129] Top shape: 100 64 7 7 (313600)
I1007 12:33:17.250584  4874 net.cpp:137] Memory required for data: 492666000
I1007 12:33:17.250588  4874 layer_factory.hpp:77] Creating layer Eltwise13
I1007 12:33:17.250591  4874 net.cpp:84] Creating Layer Eltwise13
I1007 12:33:17.250594  4874 net.cpp:406] Eltwise13 <- Eltwise12_M2PELU25_0_split_1
I1007 12:33:17.250597  4874 net.cpp:406] Eltwise13 <- Convolution29
I1007 12:33:17.250600  4874 net.cpp:380] Eltwise13 -> Eltwise13
I1007 12:33:17.250615  4874 net.cpp:122] Setting up Eltwise13
I1007 12:33:17.250618  4874 net.cpp:129] Top shape: 100 64 7 7 (313600)
I1007 12:33:17.250620  4874 net.cpp:137] Memory required for data: 493920400
I1007 12:33:17.250623  4874 layer_factory.hpp:77] Creating layer M2PELU27
I1007 12:33:17.250627  4874 net.cpp:84] Creating Layer M2PELU27
I1007 12:33:17.250629  4874 net.cpp:406] M2PELU27 <- Eltwise13
I1007 12:33:17.250633  4874 net.cpp:367] M2PELU27 -> Eltwise13 (in-place)
I1007 12:33:17.250710  4874 net.cpp:122] Setting up M2PELU27
I1007 12:33:17.250715  4874 net.cpp:129] Top shape: 100 64 7 7 (313600)
I1007 12:33:17.250717  4874 net.cpp:137] Memory required for data: 495174800
I1007 12:33:17.250736  4874 layer_factory.hpp:77] Creating layer Eltwise13_M2PELU27_0_split
I1007 12:33:17.250741  4874 net.cpp:84] Creating Layer Eltwise13_M2PELU27_0_split
I1007 12:33:17.250742  4874 net.cpp:406] Eltwise13_M2PELU27_0_split <- Eltwise13
I1007 12:33:17.250746  4874 net.cpp:380] Eltwise13_M2PELU27_0_split -> Eltwise13_M2PELU27_0_split_0
I1007 12:33:17.250749  4874 net.cpp:380] Eltwise13_M2PELU27_0_split -> Eltwise13_M2PELU27_0_split_1
I1007 12:33:17.250772  4874 net.cpp:122] Setting up Eltwise13_M2PELU27_0_split
I1007 12:33:17.250777  4874 net.cpp:129] Top shape: 100 64 7 7 (313600)
I1007 12:33:17.250778  4874 net.cpp:129] Top shape: 100 64 7 7 (313600)
I1007 12:33:17.250780  4874 net.cpp:137] Memory required for data: 497683600
I1007 12:33:17.250783  4874 layer_factory.hpp:77] Creating layer Convolution30
I1007 12:33:17.250788  4874 net.cpp:84] Creating Layer Convolution30
I1007 12:33:17.250792  4874 net.cpp:406] Convolution30 <- Eltwise13_M2PELU27_0_split_0
I1007 12:33:17.250795  4874 net.cpp:380] Convolution30 -> Convolution30
I1007 12:33:17.252393  4874 net.cpp:122] Setting up Convolution30
I1007 12:33:17.252403  4874 net.cpp:129] Top shape: 100 64 7 7 (313600)
I1007 12:33:17.252405  4874 net.cpp:137] Memory required for data: 498938000
I1007 12:33:17.252409  4874 layer_factory.hpp:77] Creating layer BatchNorm30
I1007 12:33:17.252414  4874 net.cpp:84] Creating Layer BatchNorm30
I1007 12:33:17.252418  4874 net.cpp:406] BatchNorm30 <- Convolution30
I1007 12:33:17.252420  4874 net.cpp:367] BatchNorm30 -> Convolution30 (in-place)
I1007 12:33:17.252545  4874 net.cpp:122] Setting up BatchNorm30
I1007 12:33:17.252549  4874 net.cpp:129] Top shape: 100 64 7 7 (313600)
I1007 12:33:17.252552  4874 net.cpp:137] Memory required for data: 500192400
I1007 12:33:17.252557  4874 layer_factory.hpp:77] Creating layer Scale30
I1007 12:33:17.252560  4874 net.cpp:84] Creating Layer Scale30
I1007 12:33:17.252562  4874 net.cpp:406] Scale30 <- Convolution30
I1007 12:33:17.252565  4874 net.cpp:367] Scale30 -> Convolution30 (in-place)
I1007 12:33:17.252589  4874 layer_factory.hpp:77] Creating layer Scale30
I1007 12:33:17.252660  4874 net.cpp:122] Setting up Scale30
I1007 12:33:17.252663  4874 net.cpp:129] Top shape: 100 64 7 7 (313600)
I1007 12:33:17.252666  4874 net.cpp:137] Memory required for data: 501446800
I1007 12:33:17.252676  4874 layer_factory.hpp:77] Creating layer M2PELU28
I1007 12:33:17.252681  4874 net.cpp:84] Creating Layer M2PELU28
I1007 12:33:17.252684  4874 net.cpp:406] M2PELU28 <- Convolution30
I1007 12:33:17.252687  4874 net.cpp:367] M2PELU28 -> Convolution30 (in-place)
I1007 12:33:17.252771  4874 net.cpp:122] Setting up M2PELU28
I1007 12:33:17.252775  4874 net.cpp:129] Top shape: 100 64 7 7 (313600)
I1007 12:33:17.252777  4874 net.cpp:137] Memory required for data: 502701200
I1007 12:33:17.252780  4874 layer_factory.hpp:77] Creating layer Convolution31
I1007 12:33:17.252786  4874 net.cpp:84] Creating Layer Convolution31
I1007 12:33:17.252789  4874 net.cpp:406] Convolution31 <- Convolution30
I1007 12:33:17.252792  4874 net.cpp:380] Convolution31 -> Convolution31
I1007 12:33:17.254662  4874 net.cpp:122] Setting up Convolution31
I1007 12:33:17.254669  4874 net.cpp:129] Top shape: 100 64 7 7 (313600)
I1007 12:33:17.254673  4874 net.cpp:137] Memory required for data: 503955600
I1007 12:33:17.254678  4874 layer_factory.hpp:77] Creating layer BatchNorm31
I1007 12:33:17.254681  4874 net.cpp:84] Creating Layer BatchNorm31
I1007 12:33:17.254684  4874 net.cpp:406] BatchNorm31 <- Convolution31
I1007 12:33:17.254688  4874 net.cpp:367] BatchNorm31 -> Convolution31 (in-place)
I1007 12:33:17.254817  4874 net.cpp:122] Setting up BatchNorm31
I1007 12:33:17.254820  4874 net.cpp:129] Top shape: 100 64 7 7 (313600)
I1007 12:33:17.254823  4874 net.cpp:137] Memory required for data: 505210000
I1007 12:33:17.254827  4874 layer_factory.hpp:77] Creating layer Scale31
I1007 12:33:17.254832  4874 net.cpp:84] Creating Layer Scale31
I1007 12:33:17.254834  4874 net.cpp:406] Scale31 <- Convolution31
I1007 12:33:17.254837  4874 net.cpp:367] Scale31 -> Convolution31 (in-place)
I1007 12:33:17.254863  4874 layer_factory.hpp:77] Creating layer Scale31
I1007 12:33:17.254933  4874 net.cpp:122] Setting up Scale31
I1007 12:33:17.254938  4874 net.cpp:129] Top shape: 100 64 7 7 (313600)
I1007 12:33:17.254940  4874 net.cpp:137] Memory required for data: 506464400
I1007 12:33:17.254945  4874 layer_factory.hpp:77] Creating layer Eltwise14
I1007 12:33:17.254947  4874 net.cpp:84] Creating Layer Eltwise14
I1007 12:33:17.254951  4874 net.cpp:406] Eltwise14 <- Eltwise13_M2PELU27_0_split_1
I1007 12:33:17.254953  4874 net.cpp:406] Eltwise14 <- Convolution31
I1007 12:33:17.254956  4874 net.cpp:380] Eltwise14 -> Eltwise14
I1007 12:33:17.254971  4874 net.cpp:122] Setting up Eltwise14
I1007 12:33:17.254974  4874 net.cpp:129] Top shape: 100 64 7 7 (313600)
I1007 12:33:17.254976  4874 net.cpp:137] Memory required for data: 507718800
I1007 12:33:17.254979  4874 layer_factory.hpp:77] Creating layer M2PELU29
I1007 12:33:17.254983  4874 net.cpp:84] Creating Layer M2PELU29
I1007 12:33:17.254986  4874 net.cpp:406] M2PELU29 <- Eltwise14
I1007 12:33:17.254988  4874 net.cpp:367] M2PELU29 -> Eltwise14 (in-place)
I1007 12:33:17.255069  4874 net.cpp:122] Setting up M2PELU29
I1007 12:33:17.255074  4874 net.cpp:129] Top shape: 100 64 7 7 (313600)
I1007 12:33:17.255075  4874 net.cpp:137] Memory required for data: 508973200
I1007 12:33:17.255079  4874 layer_factory.hpp:77] Creating layer Eltwise14_M2PELU29_0_split
I1007 12:33:17.255082  4874 net.cpp:84] Creating Layer Eltwise14_M2PELU29_0_split
I1007 12:33:17.255084  4874 net.cpp:406] Eltwise14_M2PELU29_0_split <- Eltwise14
I1007 12:33:17.255087  4874 net.cpp:380] Eltwise14_M2PELU29_0_split -> Eltwise14_M2PELU29_0_split_0
I1007 12:33:17.255092  4874 net.cpp:380] Eltwise14_M2PELU29_0_split -> Eltwise14_M2PELU29_0_split_1
I1007 12:33:17.255113  4874 net.cpp:122] Setting up Eltwise14_M2PELU29_0_split
I1007 12:33:17.255116  4874 net.cpp:129] Top shape: 100 64 7 7 (313600)
I1007 12:33:17.255120  4874 net.cpp:129] Top shape: 100 64 7 7 (313600)
I1007 12:33:17.255121  4874 net.cpp:137] Memory required for data: 511482000
I1007 12:33:17.255125  4874 layer_factory.hpp:77] Creating layer Convolution32
I1007 12:33:17.255129  4874 net.cpp:84] Creating Layer Convolution32
I1007 12:33:17.255132  4874 net.cpp:406] Convolution32 <- Eltwise14_M2PELU29_0_split_0
I1007 12:33:17.255142  4874 net.cpp:380] Convolution32 -> Convolution32
I1007 12:33:17.256757  4874 net.cpp:122] Setting up Convolution32
I1007 12:33:17.256765  4874 net.cpp:129] Top shape: 100 64 7 7 (313600)
I1007 12:33:17.256768  4874 net.cpp:137] Memory required for data: 512736400
I1007 12:33:17.256772  4874 layer_factory.hpp:77] Creating layer BatchNorm32
I1007 12:33:17.256778  4874 net.cpp:84] Creating Layer BatchNorm32
I1007 12:33:17.256779  4874 net.cpp:406] BatchNorm32 <- Convolution32
I1007 12:33:17.256783  4874 net.cpp:367] BatchNorm32 -> Convolution32 (in-place)
I1007 12:33:17.256909  4874 net.cpp:122] Setting up BatchNorm32
I1007 12:33:17.256913  4874 net.cpp:129] Top shape: 100 64 7 7 (313600)
I1007 12:33:17.256916  4874 net.cpp:137] Memory required for data: 513990800
I1007 12:33:17.256920  4874 layer_factory.hpp:77] Creating layer Scale32
I1007 12:33:17.256924  4874 net.cpp:84] Creating Layer Scale32
I1007 12:33:17.256927  4874 net.cpp:406] Scale32 <- Convolution32
I1007 12:33:17.256929  4874 net.cpp:367] Scale32 -> Convolution32 (in-place)
I1007 12:33:17.256954  4874 layer_factory.hpp:77] Creating layer Scale32
I1007 12:33:17.257025  4874 net.cpp:122] Setting up Scale32
I1007 12:33:17.257030  4874 net.cpp:129] Top shape: 100 64 7 7 (313600)
I1007 12:33:17.257031  4874 net.cpp:137] Memory required for data: 515245200
I1007 12:33:17.257035  4874 layer_factory.hpp:77] Creating layer M2PELU30
I1007 12:33:17.257040  4874 net.cpp:84] Creating Layer M2PELU30
I1007 12:33:17.257042  4874 net.cpp:406] M2PELU30 <- Convolution32
I1007 12:33:17.257045  4874 net.cpp:367] M2PELU30 -> Convolution32 (in-place)
I1007 12:33:17.257127  4874 net.cpp:122] Setting up M2PELU30
I1007 12:33:17.257130  4874 net.cpp:129] Top shape: 100 64 7 7 (313600)
I1007 12:33:17.257133  4874 net.cpp:137] Memory required for data: 516499600
I1007 12:33:17.257135  4874 layer_factory.hpp:77] Creating layer Convolution33
I1007 12:33:17.257141  4874 net.cpp:84] Creating Layer Convolution33
I1007 12:33:17.257144  4874 net.cpp:406] Convolution33 <- Convolution32
I1007 12:33:17.257148  4874 net.cpp:380] Convolution33 -> Convolution33
I1007 12:33:17.259028  4874 net.cpp:122] Setting up Convolution33
I1007 12:33:17.259037  4874 net.cpp:129] Top shape: 100 64 7 7 (313600)
I1007 12:33:17.259039  4874 net.cpp:137] Memory required for data: 517754000
I1007 12:33:17.259043  4874 layer_factory.hpp:77] Creating layer BatchNorm33
I1007 12:33:17.259048  4874 net.cpp:84] Creating Layer BatchNorm33
I1007 12:33:17.259052  4874 net.cpp:406] BatchNorm33 <- Convolution33
I1007 12:33:17.259054  4874 net.cpp:367] BatchNorm33 -> Convolution33 (in-place)
I1007 12:33:17.259212  4874 net.cpp:122] Setting up BatchNorm33
I1007 12:33:17.259217  4874 net.cpp:129] Top shape: 100 64 7 7 (313600)
I1007 12:33:17.259218  4874 net.cpp:137] Memory required for data: 519008400
I1007 12:33:17.259223  4874 layer_factory.hpp:77] Creating layer Scale33
I1007 12:33:17.259227  4874 net.cpp:84] Creating Layer Scale33
I1007 12:33:17.259230  4874 net.cpp:406] Scale33 <- Convolution33
I1007 12:33:17.259233  4874 net.cpp:367] Scale33 -> Convolution33 (in-place)
I1007 12:33:17.259258  4874 layer_factory.hpp:77] Creating layer Scale33
I1007 12:33:17.259331  4874 net.cpp:122] Setting up Scale33
I1007 12:33:17.259335  4874 net.cpp:129] Top shape: 100 64 7 7 (313600)
I1007 12:33:17.259337  4874 net.cpp:137] Memory required for data: 520262800
I1007 12:33:17.259341  4874 layer_factory.hpp:77] Creating layer Eltwise15
I1007 12:33:17.259346  4874 net.cpp:84] Creating Layer Eltwise15
I1007 12:33:17.259347  4874 net.cpp:406] Eltwise15 <- Eltwise14_M2PELU29_0_split_1
I1007 12:33:17.259351  4874 net.cpp:406] Eltwise15 <- Convolution33
I1007 12:33:17.259353  4874 net.cpp:380] Eltwise15 -> Eltwise15
I1007 12:33:17.259368  4874 net.cpp:122] Setting up Eltwise15
I1007 12:33:17.259372  4874 net.cpp:129] Top shape: 100 64 7 7 (313600)
I1007 12:33:17.259374  4874 net.cpp:137] Memory required for data: 521517200
I1007 12:33:17.259377  4874 layer_factory.hpp:77] Creating layer M2PELU31
I1007 12:33:17.259382  4874 net.cpp:84] Creating Layer M2PELU31
I1007 12:33:17.259389  4874 net.cpp:406] M2PELU31 <- Eltwise15
I1007 12:33:17.259393  4874 net.cpp:367] M2PELU31 -> Eltwise15 (in-place)
I1007 12:33:17.259476  4874 net.cpp:122] Setting up M2PELU31
I1007 12:33:17.259480  4874 net.cpp:129] Top shape: 100 64 7 7 (313600)
I1007 12:33:17.259482  4874 net.cpp:137] Memory required for data: 522771600
I1007 12:33:17.259486  4874 layer_factory.hpp:77] Creating layer Pooling1
I1007 12:33:17.259490  4874 net.cpp:84] Creating Layer Pooling1
I1007 12:33:17.259492  4874 net.cpp:406] Pooling1 <- Eltwise15
I1007 12:33:17.259495  4874 net.cpp:380] Pooling1 -> Pooling1
I1007 12:33:17.259634  4874 net.cpp:122] Setting up Pooling1
I1007 12:33:17.259640  4874 net.cpp:129] Top shape: 100 64 1 1 (6400)
I1007 12:33:17.259642  4874 net.cpp:137] Memory required for data: 522797200
I1007 12:33:17.259645  4874 layer_factory.hpp:77] Creating layer InnerProduct1
I1007 12:33:17.259654  4874 net.cpp:84] Creating Layer InnerProduct1
I1007 12:33:17.259656  4874 net.cpp:406] InnerProduct1 <- Pooling1
I1007 12:33:17.259660  4874 net.cpp:380] InnerProduct1 -> InnerProduct1
I1007 12:33:17.259752  4874 net.cpp:122] Setting up InnerProduct1
I1007 12:33:17.259757  4874 net.cpp:129] Top shape: 100 10 (1000)
I1007 12:33:17.259758  4874 net.cpp:137] Memory required for data: 522801200
I1007 12:33:17.259763  4874 layer_factory.hpp:77] Creating layer SoftmaxWithLoss1
I1007 12:33:17.259766  4874 net.cpp:84] Creating Layer SoftmaxWithLoss1
I1007 12:33:17.259768  4874 net.cpp:406] SoftmaxWithLoss1 <- InnerProduct1
I1007 12:33:17.259771  4874 net.cpp:406] SoftmaxWithLoss1 <- Data2
I1007 12:33:17.259775  4874 net.cpp:380] SoftmaxWithLoss1 -> SoftmaxWithLoss1
…
I1007 12:33:17.262995  4874 net.cpp:294] The NetState phase (1) differed from the phase (0) specified by a rule in layer Data1
I1007 12:33:17.263664  4874 net.cpp:51] Initializing net from parameters: 
name: "resnet_cifar10"
state {
  phase: TEST
}
layer {
  name: "Data1"
  type: "Data"
  top: "Data1"
  top: "Data2"
  include {
    phase: TEST
  }
  transform_param {
    mean_file: "/home/x306/caffe/xn/PENLU/data/cifar10/mean.binaryproto"
  }
  data_param {
    source: "/home/x306/caffe/xn/PENLU/data/cifar10/cifar10_test_lmdb"
    batch_size: 100
    backend: LMDB
  }
}
layer {
  name: "Convolution1"
  type: "Convolution"
  bottom: "Data1"
  top: "Convolution1"
  param {
    lr_mult: 1
    decay_mult: 1
  }
  param {
    lr_mult: 2
    decay_mult: 0
  }
  convolution_param {
    num_output: 16
    pad: 1
    kernel_size: 3
    stride: 1
    weight_filler {
      type: "gaussian"
      std: 0.118
    }
    bias_filler {
      type: "constant"
      value: 0
    }
  }
}
layer {
  name: "BatchNorm1"
  type: "BatchNorm"
  bottom: "Convolution1"
  top: "Convolution1"
  param {
    lr_mult: 0
    decay_mult: 0
  }
  param {
    lr_mult: 0
    decay_mult: 0
  }
  param {
    lr_mult: 0
    decay_mult: 0
  }
}
layer {
  name: "Scale1"
  type: "Scale"
  bottom: "Convolution1"
  top: "Convolution1"
  scale_param {
    bias_term: true
  }
}
layer {
  name: "M2PELU1"
  type: "M2PELU"
  bottom: "Convolution1"
  top: "Convolution1"
  param {
    lr_mult: 2
    decay_mult: 2
  }
  param {
    lr_mult: 2
    decay_mult: 2
  }
  m2pelu_param {
    alpha_filler {
      type: "constant"
      value: 0.25
    }
    beta_filler {
      type: "constant"
      value: 1
    }
  }
}
layer {
  name: "Convolution2"
  type: "Convolution"
  bottom: "Convolution1"
  top: "Convolution2"
  param {
    lr_mult: 1
    decay_mult: 1
  }
  param {
    lr_mult: 2
    decay_mult: 0
  }
  convolution_param {
    num_output: 16
    pad: 1
    kernel_size: 3
    stride: 1
    weight_filler {
      type: "gaussian"
      std: 0.118
    }
    bias_filler {
      type: "constant"
      value: 0
    }
  }
}
layer {
  name: "BatchNorm2"
  type: "BatchNorm"
  bottom: "Convolution2"
  top: "Convolution2"
  param {
    lr_mult: 0
    decay_mult: 0
  }
  param {
    lr_mult: 0
    decay_mult: 0
  }
  param {
    lr_mult: 0
    decay_mult: 0
  }
}
layer {
  name: "Scale2"
  type: "Scale"
  bottom: "Convolution2"
  top: "Convolution2"
  scale_param {
    bias_term: true
  }
}
layer {
  name: "M2PELU2"
  type: "M2PELU"
  bottom: "Convolution2"
  top: "Convolution2"
  param {
    lr_mult: 2
    decay_mult: 2
  }
  param {
    lr_mult: 2
    decay_mult: 2
  }
  m2pelu_param {
    alpha_filler {
      type: "constant"
      value: 0.25
    }
    beta_filler {
      type: "constant"
      value: 1
    }
  }
}
layer {
  name: "Convolution3"
  type: "Convolution"
  bottom: "Convolution2"
  top: "Convolution3"
  param {
    lr_mult: 1
    decay_mult: 1
  }
  param {
    lr_mult: 2
    decay_mult: 0
  }
  convolution_param {
    num_output: 16
    pad: 1
    kernel_size: 3
    stride: 1
    weight_filler {
      type: "gaussian"
      std: 0.118
    }
    bias_filler {
      type: "constant"
      value: 0
    }
  }
}
layer {
  name: "BatchNorm3"
  type: "BatchNorm"
  bottom: "Convolution3"
  top: "Convolution3"
  param {
    lr_mult: 0
    decay_mult: 0
  }
  param {
    lr_mult: 0
    decay_mult: 0
  }
  param {
    lr_mult: 0
    decay_mult: 0
  }
}
layer {
  name: "Scale3"
  type: "Scale"
  bottom: "Convolution3"
  top: "Convolution3"
  scale_param {
    bias_term: true
  }
}
layer {
  name: "Eltwise1"
  type: "Eltwise"
  bottom: "Convolution1"
  bottom: "Convolution3"
  top: "Eltwise1"
  eltwise_param {
    operation: SUM
  }
}
layer {
  name: "M2PELU3"
  type: "M2PELU"
  bottom: "Eltwise1"
  top: "Eltwise1"
  param {
    lr_mult: 2
    decay_mult: 2
  }
  param {
    lr_mult: 2
    decay_mult: 2
  }
  m2pelu_param {
    alpha_filler {
      type: "constant"
      value: 0.25
    }
    beta_filler {
      type: "constant"
      value: 1
    }
  }
}
layer {
  name: "Convolution4"
  type: "Convolution"
  bottom: "Eltwise1"
  top: "Convolution4"
  param {
    lr_mult: 1
    decay_mult: 1
  }
  param {
    lr_mult: 2
    decay_mult: 0
  }
  convolution_param {
    num_output: 16
    pad: 1
    kernel_size: 3
    stride: 1
    weight_filler {
      type: "gaussian"
      std: 0.118
    }
    bias_filler {
      type: "constant"
      value: 0
    }
  }
}
layer {
  name: "BatchNorm4"
  type: "BatchNorm"
  bottom: "Convolution4"
  top: "Convolution4"
  param {
    lr_mult: 0
    decay_mult: 0
  }
  param {
    lr_mult: 0
    decay_mult: 0
  }
  param {
    lr_mult: 0
    decay_mult: 0
  }
}
layer {
  name: "Scale4"
  type: "Scale"
  bottom: "Convolution4"
  top: "Convolution4"
  scale_param {
    bias_term: true
  }
}
layer {
  name: "M2PELU4"
  type: "M2PELU"
  bottom: "Convolution4"
  top: "Convolution4"
  param {
    lr_mult: 2
    decay_mult: 2
  }
  param {
    lr_mult: 2
    decay_mult: 2
  }
  m2pelu_param {
    alpha_filler {
      type: "constant"
      value: 0.25
    }
    beta_filler {
      type: "constant"
      value: 1
    }
  }
}
layer {
  name: "Convolution5"
  type: "Convolution"
  bottom: "Convolution4"
  top: "Convolution5"
  param {
    lr_mult: 1
    decay_mult: 1
  }
  param {
    lr_mult: 2
    decay_mult: 0
  }
  convolution_param {
    num_output: 16
    pad: 1
    kernel_size: 3
    stride: 1
    weight_filler {
      type: "gaussian"
      std: 0.118
    }
    bias_filler {
      type: "constant"
      value: 0
    }
  }
}
layer {
  name: "BatchNorm5"
  type: "BatchNorm"
  bottom: "Convolution5"
  top: "Convolution5"
  param {
    lr_mult: 0
    decay_mult: 0
  }
  param {
    lr_mult: 0
    decay_mult: 0
  }
  param {
    lr_mult: 0
    decay_mult: 0
  }
}
layer {
  name: "Scale5"
  type: "Scale"
  bottom: "Convolution5"
  top: "Convolution5"
  scale_param {
    bias_term: true
  }
}
layer {
  name: "Eltwise2"
  type: "Eltwise"
  bottom: "Eltwise1"
  bottom: "Convolution5"
  top: "Eltwise2"
  eltwise_param {
    operation: SUM
  }
}
layer {
  name: "M2PELU5"
  type: "M2PELU"
  bottom: "Eltwise2"
  top: "Eltwise2"
  param {
    lr_mult: 2
    decay_mult: 2
  }
  param {
    lr_mult: 2
    decay_mult: 2
  }
  m2pelu_param {
    alpha_filler {
      type: "constant"
      value: 0.25
    }
    beta_filler {
      type: "constant"
      value: 1
    }
  }
}
layer {
  name: "Convolution6"
  type: "Convolution"
  bottom: "Eltwise2"
  top: "Convolution6"
  param {
    lr_mult: 1
    decay_mult: 1
  }
  param {
    lr_mult: 2
    decay_mult: 0
  }
  convolution_param {
    num_output: 16
    pad: 1
    kernel_size: 3
    stride: 1
    weight_filler {
      type: "gaussian"
      std: 0.118
    }
    bias_filler {
      type: "constant"
      value: 0
    }
  }
}
layer {
  name: "BatchNorm6"
  type: "BatchNorm"
  bottom: "Convolution6"
  top: "Convolution6"
  param {
    lr_mult: 0
    decay_mult: 0
  }
  param {
    lr_mult: 0
    decay_mult: 0
  }
  param {
    lr_mult: 0
    decay_mult: 0
  }
}
layer {
  name: "Scale6"
  type: "Scale"
  bottom: "Convolution6"
  top: "Convolution6"
  scale_param {
    bias_term: true
  }
}
layer {
  name: "M2PELU6"
  type: "M2PELU"
  bottom: "Convolution6"
  top: "Convolution6"
  param {
    lr_mult: 2
    decay_mult: 2
  }
  param {
    lr_mult: 2
    decay_mult: 2
  }
  m2pelu_param {
    alpha_filler {
      type: "constant"
      value: 0.25
    }
    beta_filler {
      type: "constant"
      value: 1
    }
  }
}
layer {
  name: "Convolution7"
  type: "Convolution"
  bottom: "Convolution6"
  top: "Convolution7"
  param {
    lr_mult: 1
    decay_mult: 1
  }
  param {
    lr_mult: 2
    decay_mult: 0
  }
  convolution_param {
    num_output: 16
    pad: 1
    kernel_size: 3
    stride: 1
    weight_filler {
      type: "gaussian"
      std: 0.118
    }
    bias_filler {
      type: "constant"
      value: 0
    }
  }
}
layer {
  name: "BatchNorm7"
  type: "BatchNorm"
  bottom: "Convolution7"
  top: "Convolution7"
  param {
    lr_mult: 0
    decay_mult: 0
  }
  param {
    lr_mult: 0
    decay_mult: 0
  }
  param {
    lr_mult: 0
    decay_mult: 0
  }
}
layer {
  name: "Scale7"
  type: "Scale"
  bottom: "Convolution7"
  top: "Convolution7"
  scale_param {
    bias_term: true
  }
}
layer {
  name: "Eltwise3"
  type: "Eltwise"
  bottom: "Eltwise2"
  bottom: "Convolution7"
  top: "Eltwise3"
  eltwise_param {
    operation: SUM
  }
}
layer {
  name: "M2PELU7"
  type: "M2PELU"
  bottom: "Eltwise3"
  top: "Eltwise3"
  param {
    lr_mult: 2
    decay_mult: 2
  }
  param {
    lr_mult: 2
    decay_mult: 2
  }
  m2pelu_param {
    alpha_filler {
      type: "constant"
      value: 0.25
    }
    beta_filler {
      type: "constant"
      value: 1
    }
  }
}
layer {
  name: "Convolution8"
  type: "Convolution"
  bottom: "Eltwise3"
  top: "Convolution8"
  param {
    lr_mult: 1
    decay_mult: 1
  }
  param {
    lr_mult: 2
    decay_mult: 0
  }
  convolution_param {
    num_output: 16
    pad: 1
    kernel_size: 3
    stride: 1
    weight_filler {
      type: "gaussian"
      std: 0.118
    }
    bias_filler {
      type: "constant"
      value: 0
    }
  }
}
layer {
  name: "BatchNorm8"
  type: "BatchNorm"
  bottom: "Convolution8"
  top: "Convolution8"
  param {
    lr_mult: 0
    decay_mult: 0
  }
  param {
    lr_mult: 0
    decay_mult: 0
  }
  param {
    lr_mult: 0
    decay_mult: 0
  }
}
layer {
  name: "Scale8"
  type: "Scale"
  bottom: "Convolution8"
  top: "Convolution8"
  scale_param {
    bias_term: true
  }
}
layer {
  name: "M2PELU8"
  type: "M2PELU"
  bottom: "Convolution8"
  top: "Convolution8"
  param {
    lr_mult: 2
    decay_mult: 2
  }
  param {
    lr_mult: 2
    decay_mult: 2
  }
  m2pelu_param {
    alpha_filler {
      type: "constant"
      value: 0.25
    }
    beta_filler {
      type: "constant"
      value: 1
    }
  }
}
layer {
  name: "Convolution9"
  type: "Convolution"
  bottom: "Convolution8"
  top: "Convolution9"
  param {
    lr_mult: 1
    decay_mult: 1
  }
  param {
    lr_mult: 2
    decay_mult: 0
  }
  convolution_param {
    num_output: 16
    pad: 1
    kernel_size: 3
    stride: 1
    weight_filler {
      type: "gaussian"
      std: 0.118
    }
    bias_filler {
      type: "constant"
      value: 0
    }
  }
}
layer {
  name: "BatchNorm9"
  type: "BatchNorm"
  bottom: "Convolution9"
  top: "Convolution9"
  param {
    lr_mult: 0
    decay_mult: 0
  }
  param {
    lr_mult: 0
    decay_mult: 0
  }
  param {
    lr_mult: 0
    decay_mult: 0
  }
}
layer {
  name: "Scale9"
  type: "Scale"
  bottom: "Convolution9"
  top: "Convolution9"
  scale_param {
    bias_term: true
  }
}
layer {
  name: "Eltwise4"
  type: "Eltwise"
  bottom: "Eltwise3"
  bottom: "Convolution9"
  top: "Eltwise4"
  eltwise_param {
    operation: SUM
  }
}
layer {
  name: "M2PELU9"
  type: "M2PELU"
  bottom: "Eltwise4"
  top: "Eltwise4"
  param {
    lr_mult: 2
    decay_mult: 2
  }
  param {
    lr_mult: 2
    decay_mult: 2
  }
  m2pelu_param {
    alpha_filler {
      type: "constant"
      value: 0.25
    }
    beta_filler {
      type: "constant"
      value: 1
    }
  }
}
layer {
  name: "Convolution10"
  type: "Convolution"
  bottom: "Eltwise4"
  top: "Convolution10"
  param {
    lr_mult: 1
    decay_mult: 1
  }
  param {
    lr_mult: 2
    decay_mult: 0
  }
  convolution_param {
    num_output: 16
    pad: 1
    kernel_size: 3
    stride: 1
    weight_filler {
      type: "gaussian"
      std: 0.118
    }
    bias_filler {
      type: "constant"
      value: 0
    }
  }
}
layer {
  name: "BatchNorm10"
  type: "BatchNorm"
  bottom: "Convolution10"
  top: "Convolution10"
  param {
    lr_mult: 0
    decay_mult: 0
  }
  param {
    lr_mult: 0
    decay_mult: 0
  }
  param {
    lr_mult: 0
    decay_mult: 0
  }
}
layer {
  name: "Scale10"
  type: "Scale"
  bottom: "Convolution10"
  top: "Convolution10"
  scale_param {
    bias_term: true
  }
}
layer {
  name: "M2PELU10"
  type: "M2PELU"
  bottom: "Convolution10"
  top: "Convolution10"
  param {
    lr_mult: 2
    decay_mult: 2
  }
  param {
    lr_mult: 2
    decay_mult: 2
  }
  m2pelu_param {
    alpha_filler {
      type: "constant"
      value: 0.25
    }
    beta_filler {
      type: "constant"
      value: 1
    }
  }
}
layer {
  name: "Convolution11"
  type: "Convolution"
  bottom: "Convolution10"
  top: "Convolution11"
  param {
    lr_mult: 1
    decay_mult: 1
  }
  param {
    lr_mult: 2
    decay_mult: 0
  }
  convolution_param {
    num_output: 16
    pad: 1
    kernel_size: 3
    stride: 1
    weight_filler {
      type: "gaussian"
      std: 0.118
    }
    bias_filler {
      type: "constant"
      value: 0
    }
  }
}
layer {
  name: "BatchNorm11"
  type: "BatchNorm"
  bottom: "Convolution11"
  top: "Convolution11"
  param {
    lr_mult: 0
    decay_mult: 0
  }
  param {
    lr_mult: 0
    decay_mult: 0
  }
  param {
    lr_mult: 0
    decay_mult: 0
  }
}
layer {
  name: "Scale11"
  type: "Scale"
  bottom: "Convolution11"
  top: "Convolution11"
  scale_param {
    bias_term: true
  }
}
layer {
  name: "Eltwise5"
  type: "Eltwise"
  bottom: "Eltwise4"
  bottom: "Convolution11"
  top: "Eltwise5"
  eltwise_param {
    operation: SUM
  }
}
layer {
  name: "M2PELU11"
  type: "M2PELU"
  bottom: "Eltwise5"
  top: "Eltwise5"
  param {
    lr_mult: 2
    decay_mult: 2
  }
  param {
    lr_mult: 2
    decay_mult: 2
  }
  m2pelu_param {
    alpha_filler {
      type: "constant"
      value: 0.25
    }
    beta_filler {
      type: "constant"
      value: 1
    }
  }
}
layer {
  name: "Convolution12"
  type: "Convolution"
  bottom: "Eltwise5"
  top: "Convolution12"
  param {
    lr_mult: 1
    decay_mult: 1
  }
  param {
    lr_mult: 2
    decay_mult: 0
  }
  convolution_param {
    num_output: 32
    pad: 0
    kernel_size: 1
    stride: 2
    weight_filler {
      type: "gaussian"
      std: 0.25
    }
    bias_filler {
      type: "constant"
      value: 0
    }
  }
}
layer {
  name: "BatchNorm12"
  type: "BatchNorm"
  bottom: "Convolution12"
  top: "Convolution12"
  param {
    lr_mult: 0
    decay_mult: 0
  }
  param {
    lr_mult: 0
    decay_mult: 0
  }
  param {
    lr_mult: 0
    decay_mult: 0
  }
}
layer {
  name: "Scale12"
  type: "Scale"
  bottom: "Convolution12"
  top: "Convolution12"
  scale_param {
    bias_term: true
  }
}
layer {
  name: "Convolution13"
  type: "Convolution"
  bottom: "Eltwise5"
  top: "Convolution13"
  param {
    lr_mult: 1
    decay_mult: 1
  }
  param {
    lr_mult: 2
    decay_mult: 0
  }
  convolution_param {
    num_output: 32
    pad: 1
    kernel_size: 3
    stride: 2
    weight_filler {
      type: "gaussian"
      std: 0.083
    }
    bias_filler {
      type: "constant"
      value: 0
    }
  }
}
layer {
  name: "BatchNorm13"
  type: "BatchNorm"
  bottom: "Convolution13"
  top: "Convolution13"
  param {
    lr_mult: 0
    decay_mult: 0
  }
  param {
    lr_mult: 0
    decay_mult: 0
  }
  param {
    lr_mult: 0
    decay_mult: 0
  }
}
layer {
  name: "Scale13"
  type: "Scale"
  bottom: "Convolution13"
  top: "Convolution13"
  scale_param {
    bias_term: true
  }
}
layer {
  name: "M2PELU12"
  type: "M2PELU"
  bottom: "Convolution13"
  top: "Convolution13"
  param {
    lr_mult: 2
    decay_mult: 2
  }
  param {
    lr_mult: 2
    decay_mult: 2
  }
  m2pelu_param {
    alpha_filler {
      type: "constant"
      value: 0.25
    }
    beta_filler {
      type: "constant"
      value: 1
    }
  }
}
layer {
  name: "Convolution14"
  type: "Convolution"
  bottom: "Convolution13"
  top: "Convolution14"
  param {
    lr_mult: 1
    decay_mult: 1
  }
  param {
    lr_mult: 2
    decay_mult: 0
  }
  convolution_param {
    num_output: 32
    pad: 1
    kernel_size: 3
    stride: 1
    weight_filler {
      type: "gaussian"
      std: 0.083
    }
    bias_filler {
      type: "constant"
      value: 0
    }
  }
}
layer {
  name: "BatchNorm14"
  type: "BatchNorm"
  bottom: "Convolution14"
  top: "Convolution14"
  param {
    lr_mult: 0
    decay_mult: 0
  }
  param {
    lr_mult: 0
    decay_mult: 0
  }
  param {
    lr_mult: 0
    decay_mult: 0
  }
}
layer {
  name: "Scale14"
  type: "Scale"
  bottom: "Convolution14"
  top: "Convolution14"
  scale_param {
    bias_term: true
  }
}
layer {
  name: "Eltwise6"
  type: "Eltwise"
  bottom: "Convolution12"
  bottom: "Convolution14"
  top: "Eltwise6"
  eltwise_param {
    operation: SUM
  }
}
layer {
  name: "M2PELU13"
  type: "M2PELU"
  bottom: "Eltwise6"
  top: "Eltwise6"
  param {
    lr_mult: 2
    decay_mult: 2
  }
  param {
    lr_mult: 2
    decay_mult: 2
  }
  m2pelu_param {
    alpha_filler {
      type: "constant"
      value: 0.25
    }
    beta_filler {
      type: "constant"
      value: 1
    }
  }
}
layer {
  name: "Convolution15"
  type: "Convolution"
  bottom: "Eltwise6"
  top: "Convolution15"
  param {
    lr_mult: 1
    decay_mult: 1
  }
  param {
    lr_mult: 2
    decay_mult: 0
  }
  convolution_param {
    num_output: 32
    pad: 1
    kernel_size: 3
    stride: 1
    weight_filler {
      type: "gaussian"
      std: 0.083
    }
    bias_filler {
      type: "constant"
      value: 0
    }
  }
}
layer {
  name: "BatchNorm15"
  type: "BatchNorm"
  bottom: "Convolution15"
  top: "Convolution15"
  param {
    lr_mult: 0
    decay_mult: 0
  }
  param {
    lr_mult: 0
    decay_mult: 0
  }
  param {
    lr_mult: 0
    decay_mult: 0
  }
}
layer {
  name: "Scale15"
  type: "Scale"
  bottom: "Convolution15"
  top: "Convolution15"
  scale_param {
    bias_term: true
  }
}
layer {
  name: "M2PELU14"
  type: "M2PELU"
  bottom: "Convolution15"
  top: "Convolution15"
  param {
    lr_mult: 2
    decay_mult: 2
  }
  param {
    lr_mult: 2
    decay_mult: 2
  }
  m2pelu_param {
    alpha_filler {
      type: "constant"
      value: 0.25
    }
    beta_filler {
      type: "constant"
      value: 1
    }
  }
}
layer {
  name: "Convolution16"
  type: "Convolution"
  bottom: "Convolution15"
  top: "Convolution16"
  param {
    lr_mult: 1
    decay_mult: 1
  }
  param {
    lr_mult: 2
    decay_mult: 0
  }
  convolution_param {
    num_output: 32
    pad: 1
    kernel_size: 3
    stride: 1
    weight_filler {
      type: "gaussian"
      std: 0.083
    }
    bias_filler {
      type: "constant"
      value: 0
    }
  }
}
layer {
  name: "BatchNorm16"
  type: "BatchNorm"
  bottom: "Convolution16"
  top: "Convolution16"
  param {
    lr_mult: 0
    decay_mult: 0
  }
  param {
    lr_mult: 0
    decay_mult: 0
  }
  param {
    lr_mult: 0
    decay_mult: 0
  }
}
layer {
  name: "Scale16"
  type: "Scale"
  bottom: "Convolution16"
  top: "Convolution16"
  scale_param {
    bias_term: true
  }
}
layer {
  name: "Eltwise7"
  type: "Eltwise"
  bottom: "Eltwise6"
  bottom: "Convolution16"
  top: "Eltwise7"
  eltwise_param {
    operation: SUM
  }
}
layer {
  name: "M2PELU15"
  type: "M2PELU"
  bottom: "Eltwise7"
  top: "Eltwise7"
  param {
    lr_mult: 2
    decay_mult: 2
  }
  param {
    lr_mult: 2
    decay_mult: 2
  }
  m2pelu_param {
    alpha_filler {
      type: "constant"
      value: 0.25
    }
    beta_filler {
      type: "constant"
      value: 1
    }
  }
}
layer {
  name: "Convolution17"
  type: "Convolution"
  bottom: "Eltwise7"
  top: "Convolution17"
  param {
    lr_mult: 1
    decay_mult: 1
  }
  param {
    lr_mult: 2
    decay_mult: 0
  }
  convolution_param {
    num_output: 32
    pad: 1
    kernel_size: 3
    stride: 1
    weight_filler {
      type: "gaussian"
      std: 0.083
    }
    bias_filler {
      type: "constant"
      value: 0
    }
  }
}
layer {
  name: "BatchNorm17"
  type: "BatchNorm"
  bottom: "Convolution17"
  top: "Convolution17"
  param {
    lr_mult: 0
    decay_mult: 0
  }
  param {
    lr_mult: 0
    decay_mult: 0
  }
  param {
    lr_mult: 0
    decay_mult: 0
  }
}
layer {
  name: "Scale17"
  type: "Scale"
  bottom: "Convolution17"
  top: "Convolution17"
  scale_param {
    bias_term: true
  }
}
layer {
  name: "M2PELU16"
  type: "M2PELU"
  bottom: "Convolution17"
  top: "Convolution17"
  param {
    lr_mult: 2
    decay_mult: 2
  }
  param {
    lr_mult: 2
    decay_mult: 2
  }
  m2pelu_param {
    alpha_filler {
      type: "constant"
      value: 0.25
    }
    beta_filler {
      type: "constant"
      value: 1
    }
  }
}
layer {
  name: "Convolution18"
  type: "Convolution"
  bottom: "Convolution17"
  top: "Convolution18"
  param {
    lr_mult: 1
    decay_mult: 1
  }
  param {
    lr_mult: 2
    decay_mult: 0
  }
  convolution_param {
    num_output: 32
    pad: 1
    kernel_size: 3
    stride: 1
    weight_filler {
      type: "gaussian"
      std: 0.083
    }
    bias_filler {
      type: "constant"
      value: 0
    }
  }
}
layer {
  name: "BatchNorm18"
  type: "BatchNorm"
  bottom: "Convolution18"
  top: "Convolution18"
  param {
    lr_mult: 0
    decay_mult: 0
  }
  param {
    lr_mult: 0
    decay_mult: 0
  }
  param {
    lr_mult: 0
    decay_mult: 0
  }
}
layer {
  name: "Scale18"
  type: "Scale"
  bottom: "Convolution18"
  top: "Convolution18"
  scale_param {
    bias_term: true
  }
}
layer {
  name: "Eltwise8"
  type: "Eltwise"
  bottom: "Eltwise7"
  bottom: "Convolution18"
  top: "Eltwise8"
  eltwise_param {
    operation: SUM
  }
}
layer {
  name: "M2PELU17"
  type: "M2PELU"
  bottom: "Eltwise8"
  top: "Eltwise8"
  param {
    lr_mult: 2
    decay_mult: 2
  }
  param {
    lr_mult: 2
    decay_mult: 2
  }
  m2pelu_param {
    alpha_filler {
      type: "constant"
      value: 0.25
    }
    beta_filler {
      type: "constant"
      value: 1
    }
  }
}
layer {
  name: "Convolution19"
  type: "Convolution"
  bottom: "Eltwise8"
  top: "Convolution19"
  param {
    lr_mult: 1
    decay_mult: 1
  }
  param {
    lr_mult: 2
    decay_mult: 0
  }
  convolution_param {
    num_output: 32
    pad: 1
    kernel_size: 3
    stride: 1
    weight_filler {
      type: "gaussian"
      std: 0.083
    }
    bias_filler {
      type: "constant"
      value: 0
    }
  }
}
layer {
  name: "BatchNorm19"
  type: "BatchNorm"
  bottom: "Convolution19"
  top: "Convolution19"
  param {
    lr_mult: 0
    decay_mult: 0
  }
  param {
    lr_mult: 0
    decay_mult: 0
  }
  param {
    lr_mult: 0
    decay_mult: 0
  }
}
layer {
  name: "Scale19"
  type: "Scale"
  bottom: "Convolution19"
  top: "Convolution19"
  scale_param {
    bias_term: true
  }
}
layer {
  name: "M2PELU18"
  type: "M2PELU"
  bottom: "Convolution19"
  top: "Convolution19"
  param {
    lr_mult: 2
    decay_mult: 2
  }
  param {
    lr_mult: 2
    decay_mult: 2
  }
  m2pelu_param {
    alpha_filler {
      type: "constant"
      value: 0.25
    }
    beta_filler {
      type: "constant"
      value: 1
    }
  }
}
layer {
  name: "Convolution20"
  type: "Convolution"
  bottom: "Convolution19"
  top: "Convolution20"
  param {
    lr_mult: 1
    decay_mult: 1
  }
  param {
    lr_mult: 2
    decay_mult: 0
  }
  convolution_param {
    num_output: 32
    pad: 1
    kernel_size: 3
    stride: 1
    weight_filler {
      type: "gaussian"
      std: 0.083
    }
    bias_filler {
      type: "constant"
      value: 0
    }
  }
}
layer {
  name: "BatchNorm20"
  type: "BatchNorm"
  bottom: "Convolution20"
  top: "Convolution20"
  param {
    lr_mult: 0
    decay_mult: 0
  }
  param {
    lr_mult: 0
    decay_mult: 0
  }
  param {
    lr_mult: 0
    decay_mult: 0
  }
}
layer {
  name: "Scale20"
  type: "Scale"
  bottom: "Convolution20"
  top: "Convolution20"
  scale_param {
    bias_term: true
  }
}
layer {
  name: "Eltwise9"
  type: "Eltwise"
  bottom: "Eltwise8"
  bottom: "Convolution20"
  top: "Eltwise9"
  eltwise_param {
    operation: SUM
  }
}
layer {
  name: "M2PELU19"
  type: "M2PELU"
  bottom: "Eltwise9"
  top: "Eltwise9"
  param {
    lr_mult: 2
    decay_mult: 2
  }
  param {
    lr_mult: 2
    decay_mult: 2
  }
  m2pelu_param {
    alpha_filler {
      type: "constant"
      value: 0.25
    }
    beta_filler {
      type: "constant"
      value: 1
    }
  }
}
layer {
  name: "Convolution21"
  type: "Convolution"
  bottom: "Eltwise9"
  top: "Convolution21"
  param {
    lr_mult: 1
    decay_mult: 1
  }
  param {
    lr_mult: 2
    decay_mult: 0
  }
  convolution_param {
    num_output: 32
    pad: 1
    kernel_size: 3
    stride: 1
    weight_filler {
      type: "gaussian"
      std: 0.083
    }
    bias_filler {
      type: "constant"
      value: 0
    }
  }
}
layer {
  name: "BatchNorm21"
  type: "BatchNorm"
  bottom: "Convolution21"
  top: "Convolution21"
  param {
    lr_mult: 0
    decay_mult: 0
  }
  param {
    lr_mult: 0
    decay_mult: 0
  }
  param {
    lr_mult: 0
    decay_mult: 0
  }
}
layer {
  name: "Scale21"
  type: "Scale"
  bottom: "Convolution21"
  top: "Convolution21"
  scale_param {
    bias_term: true
  }
}
layer {
  name: "M2PELU20"
  type: "M2PELU"
  bottom: "Convolution21"
  top: "Convolution21"
  param {
    lr_mult: 2
    decay_mult: 2
  }
  param {
    lr_mult: 2
    decay_mult: 2
  }
  m2pelu_param {
    alpha_filler {
      type: "constant"
      value: 0.25
    }
    beta_filler {
      type: "constant"
      value: 1
    }
  }
}
layer {
  name: "Convolution22"
  type: "Convolution"
  bottom: "Convolution21"
  top: "Convolution22"
  param {
    lr_mult: 1
    decay_mult: 1
  }
  param {
    lr_mult: 2
    decay_mult: 0
  }
  convolution_param {
    num_output: 32
    pad: 1
    kernel_size: 3
    stride: 1
    weight_filler {
      type: "gaussian"
      std: 0.083
    }
    bias_filler {
      type: "constant"
      value: 0
    }
  }
}
layer {
  name: "BatchNorm22"
  type: "BatchNorm"
  bottom: "Convolution22"
  top: "Convolution22"
  param {
    lr_mult: 0
    decay_mult: 0
  }
  param {
    lr_mult: 0
    decay_mult: 0
  }
  param {
    lr_mult: 0
    decay_mult: 0
  }
}
layer {
  name: "Scale22"
  type: "Scale"
  bottom: "Convolution22"
  top: "Convolution22"
  scale_param {
    bias_term: true
  }
}
layer {
  name: "Eltwise10"
  type: "Eltwise"
  bottom: "Eltwise9"
  bottom: "Convolution22"
  top: "Eltwise10"
  eltwise_param {
    operation: SUM
  }
}
layer {
  name: "M2PELU21"
  type: "M2PELU"
  bottom: "Eltwise10"
  top: "Eltwise10"
  param {
    lr_mult: 2
    decay_mult: 2
  }
  param {
    lr_mult: 2
    decay_mult: 2
  }
  m2pelu_param {
    alpha_filler {
      type: "constant"
      value: 0.25
    }
    beta_filler {
      type: "constant"
      value: 1
    }
  }
}
layer {
  name: "Convolution23"
  type: "Convolution"
  bottom: "Eltwise10"
  top: "Convolution23"
  param {
    lr_mult: 1
    decay_mult: 1
  }
  param {
    lr_mult: 2
    decay_mult: 0
  }
  convolution_param {
    num_output: 64
    pad: 0
    kernel_size: 1
    stride: 2
    weight_filler {
      type: "gaussian"
      std: 0.17677669
    }
    bias_filler {
      type: "constant"
      value: 0
    }
  }
}
layer {
  name: "BatchNorm23"
  type: "BatchNorm"
  bottom: "Convolution23"
  top: "Convolution23"
  param {
    lr_mult: 0
    decay_mult: 0
  }
  param {
    lr_mult: 0
    decay_mult: 0
  }
  param {
    lr_mult: 0
    decay_mult: 0
  }
}
layer {
  name: "Scale23"
  type: "Scale"
  bottom: "Convolution23"
  top: "Convolution23"
  scale_param {
    bias_term: true
  }
}
layer {
  name: "Convolution24"
  type: "Convolution"
  bottom: "Eltwise10"
  top: "Convolution24"
  param {
    lr_mult: 1
    decay_mult: 1
  }
  param {
    lr_mult: 2
    decay_mult: 0
  }
  convolution_param {
    num_output: 64
    pad: 1
    kernel_size: 3
    stride: 2
    weight_filler {
      type: "gaussian"
      std: 0.059
    }
    bias_filler {
      type: "constant"
      value: 0
    }
  }
}
layer {
  name: "BatchNorm24"
  type: "BatchNorm"
  bottom: "Convolution24"
  top: "Convolution24"
  param {
    lr_mult: 0
    decay_mult: 0
  }
  param {
    lr_mult: 0
    decay_mult: 0
  }
  param {
    lr_mult: 0
    decay_mult: 0
  }
}
layer {
  name: "Scale24"
  type: "Scale"
  bottom: "Convolution24"
  top: "Convolution24"
  scale_param {
    bias_term: true
  }
}
layer {
  name: "M2PELU22"
  type: "M2PELU"
  bottom: "Convolution24"
  top: "Convolution24"
  param {
    lr_mult: 2
    decay_mult: 2
  }
  param {
    lr_mult: 2
    decay_mult: 2
  }
  m2pelu_param {
    alpha_filler {
      type: "constant"
      value: 0.25
    }
    beta_filler {
      type: "constant"
      value: 1
    }
  }
}
layer {
  name: "Convolution25"
  type: "Convolution"
  bottom: "Convolution24"
  top: "Convolution25"
  param {
    lr_mult: 1
    decay_mult: 1
  }
  param {
    lr_mult: 2
    decay_mult: 0
  }
  convolution_param {
    num_output: 64
    pad: 1
    kernel_size: 3
    stride: 1
    weight_filler {
      type: "gaussian"
      std: 0.059
    }
    bias_filler {
      type: "constant"
      value: 0
    }
  }
}
layer {
  name: "BatchNorm25"
  type: "BatchNorm"
  bottom: "Convolution25"
  top: "Convolution25"
  param {
    lr_mult: 0
    decay_mult: 0
  }
  param {
    lr_mult: 0
    decay_mult: 0
  }
  param {
    lr_mult: 0
    decay_mult: 0
  }
}
layer {
  name: "Scale25"
  type: "Scale"
  bottom: "Convolution25"
  top: "Convolution25"
  scale_param {
    bias_term: true
  }
}
layer {
  name: "Eltwise11"
  type: "Eltwise"
  bottom: "Convolution23"
  bottom: "Convolution25"
  top: "Eltwise11"
  eltwise_param {
    operation: SUM
  }
}
layer {
  name: "M2PELU23"
  type: "M2PELU"
  bottom: "Eltwise11"
  top: "Eltwise11"
  param {
    lr_mult: 2
    decay_mult: 2
  }
  param {
    lr_mult: 2
    decay_mult: 2
  }
  m2pelu_param {
    alpha_filler {
      type: "constant"
      value: 0.25
    }
    beta_filler {
      type: "constant"
      value: 1
    }
  }
}
layer {
  name: "Convolution26"
  type: "Convolution"
  bottom: "Eltwise11"
  top: "Convolution26"
  param {
    lr_mult: 1
    decay_mult: 1
  }
  param {
    lr_mult: 2
    decay_mult: 0
  }
  convolution_param {
    num_output: 64
    pad: 1
    kernel_size: 3
    stride: 1
    weight_filler {
      type: "gaussian"
      std: 0.059
    }
    bias_filler {
      type: "constant"
      value: 0
    }
  }
}
layer {
  name: "BatchNorm26"
  type: "BatchNorm"
  bottom: "Convolution26"
  top: "Convolution26"
  param {
    lr_mult: 0
    decay_mult: 0
  }
  param 
I1007 12:33:17.266718  4874 layer_factory.hpp:77] Creating layer Data1
I1007 12:33:17.294440  4874 db_lmdb.cpp:35] Opened lmdb /home/x306/caffe/xn/PENLU/data/cifar10/cifar10_test_lmdb
I1007 12:33:17.294454  4874 net.cpp:84] Creating Layer Data1
I1007 12:33:17.294459  4874 net.cpp:380] Data1 -> Data1
I1007 12:33:17.294466  4874 net.cpp:380] Data1 -> Data2
I1007 12:33:17.294472  4874 data_transformer.cpp:25] Loading mean file from: /home/x306/caffe/xn/PENLU/data/cifar10/mean.binaryproto
…
I1007 12:33:17.360585  4874 layer_factory.hpp:77] Creating layer Convolution16
I1007 12:33:17.360592  4874 net.cpp:84] Creating Layer Convolution16
I1007 12:33:17.360595  4874 net.cpp:406] Convolution16 <- Convolution15
I1007 12:33:17.360599  4874 net.cpp:380] Convolution16 -> Convolution16
I1007 12:33:17.362200  4874 net.cpp:122] Setting up Convolution16
I1007 12:33:17.362210  4874 net.cpp:129] Top shape: 100 32 16 16 (819200)
I1007 12:33:17.362211  4874 net.cpp:137] Memory required for data: 463258800
I1007 12:33:17.362216  4874 layer_factory.hpp:77] Creating layer BatchNorm16
I1007 12:33:17.362222  4874 net.cpp:84] Creating Layer BatchNorm16
I1007 12:33:17.362226  4874 net.cpp:406] BatchNorm16 <- Convolution16
I1007 12:33:17.362228  4874 net.cpp:367] BatchNorm16 -> Convolution16 (in-place)
I1007 12:33:17.362366  4874 net.cpp:122] Setting up BatchNorm16
I1007 12:33:17.362371  4874 net.cpp:129] Top shape: 100 32 16 16 (819200)
I1007 12:33:17.362373  4874 net.cpp:137] Memory required for data: 466535600
I1007 12:33:17.362377  4874 layer_factory.hpp:77] Creating layer Scale16
I1007 12:33:17.362382  4874 net.cpp:84] Creating Layer Scale16
I1007 12:33:17.362385  4874 net.cpp:406] Scale16 <- Convolution16
I1007 12:33:17.362387  4874 net.cpp:367] Scale16 -> Convolution16 (in-place)
I1007 12:33:17.362417  4874 layer_factory.hpp:77] Creating layer Scale16
I1007 12:33:17.362499  4874 net.cpp:122] Setting up Scale16
I1007 12:33:17.362504  4874 net.cpp:129] Top shape: 100 32 16 16 (819200)
I1007 12:33:17.362506  4874 net.cpp:137] Memory required for data: 469812400
I1007 12:33:17.362510  4874 layer_factory.hpp:77] Creating layer Eltwise7
I1007 12:33:17.362514  4874 net.cpp:84] Creating Layer Eltwise7
I1007 12:33:17.362516  4874 net.cpp:406] Eltwise7 <- Eltwise6_M2PELU13_0_split_1
I1007 12:33:17.362519  4874 net.cpp:406] Eltwise7 <- Convolution16
I1007 12:33:17.362524  4874 net.cpp:380] Eltwise7 -> Eltwise7
I1007 12:33:17.362537  4874 net.cpp:122] Setting up Eltwise7
I1007 12:33:17.362541  4874 net.cpp:129] Top shape: 100 32 16 16 (819200)
I1007 12:33:17.362543  4874 net.cpp:137] Memory required for data: 473089200
I1007 12:33:17.362545  4874 layer_factory.hpp:77] Creating layer M2PELU15
I1007 12:33:17.362550  4874 net.cpp:84] Creating Layer M2PELU15
I1007 12:33:17.362552  4874 net.cpp:406] M2PELU15 <- Eltwise7
I1007 12:33:17.362556  4874 net.cpp:367] M2PELU15 -> Eltwise7 (in-place)
I1007 12:33:17.362644  4874 net.cpp:122] Setting up M2PELU15
I1007 12:33:17.362648  4874 net.cpp:129] Top shape: 100 32 16 16 (819200)
I1007 12:33:17.362650  4874 net.cpp:137] Memory required for data: 476366000
I1007 12:33:17.362654  4874 layer_factory.hpp:77] Creating layer Eltwise7_M2PELU15_0_split
I1007 12:33:17.362658  4874 net.cpp:84] Creating Layer Eltwise7_M2PELU15_0_split
I1007 12:33:17.362660  4874 net.cpp:406] Eltwise7_M2PELU15_0_split <- Eltwise7
I1007 12:33:17.362664  4874 net.cpp:380] Eltwise7_M2PELU15_0_split -> Eltwise7_M2PELU15_0_split_0
I1007 12:33:17.362668  4874 net.cpp:380] Eltwise7_M2PELU15_0_split -> Eltwise7_M2PELU15_0_split_1
I1007 12:33:17.362692  4874 net.cpp:122] Setting up Eltwise7_M2PELU15_0_split
I1007 12:33:17.362696  4874 net.cpp:129] Top shape: 100 32 16 16 (819200)
I1007 12:33:17.362699  4874 net.cpp:129] Top shape: 100 32 16 16 (819200)
I1007 12:33:17.362701  4874 net.cpp:137] Memory required for data: 482919600
I1007 12:33:17.362704  4874 layer_factory.hpp:77] Creating layer Convolution17
I1007 12:33:17.362716  4874 net.cpp:84] Creating Layer Convolution17
I1007 12:33:17.362720  4874 net.cpp:406] Convolution17 <- Eltwise7_M2PELU15_0_split_0
I1007 12:33:17.362723  4874 net.cpp:380] Convolution17 -> Convolution17
I1007 12:33:17.363831  4874 net.cpp:122] Setting up Convolution17
I1007 12:33:17.363840  4874 net.cpp:129] Top shape: 100 32 16 16 (819200)
I1007 12:33:17.363843  4874 net.cpp:137] Memory required for data: 486196400
I1007 12:33:17.363848  4874 layer_factory.hpp:77] Creating layer BatchNorm17
I1007 12:33:17.363853  4874 net.cpp:84] Creating Layer BatchNorm17
I1007 12:33:17.363857  4874 net.cpp:406] BatchNorm17 <- Convolution17
I1007 12:33:17.363860  4874 net.cpp:367] BatchNorm17 -> Convolution17 (in-place)
I1007 12:33:17.363999  4874 net.cpp:122] Setting up BatchNorm17
I1007 12:33:17.364003  4874 net.cpp:129] Top shape: 100 32 16 16 (819200)
I1007 12:33:17.364006  4874 net.cpp:137] Memory required for data: 489473200
I1007 12:33:17.364011  4874 layer_factory.hpp:77] Creating layer Scale17
I1007 12:33:17.364015  4874 net.cpp:84] Creating Layer Scale17
I1007 12:33:17.364017  4874 net.cpp:406] Scale17 <- Convolution17
I1007 12:33:17.364022  4874 net.cpp:367] Scale17 -> Convolution17 (in-place)
I1007 12:33:17.364049  4874 layer_factory.hpp:77] Creating layer Scale17
I1007 12:33:17.364130  4874 net.cpp:122] Setting up Scale17
I1007 12:33:17.364135  4874 net.cpp:129] Top shape: 100 32 16 16 (819200)
I1007 12:33:17.364136  4874 net.cpp:137] Memory required for data: 492750000
I1007 12:33:17.364140  4874 layer_factory.hpp:77] Creating layer M2PELU16
I1007 12:33:17.364147  4874 net.cpp:84] Creating Layer M2PELU16
I1007 12:33:17.364150  4874 net.cpp:406] M2PELU16 <- Convolution17
I1007 12:33:17.364153  4874 net.cpp:367] M2PELU16 -> Convolution17 (in-place)
I1007 12:33:17.364238  4874 net.cpp:122] Setting up M2PELU16
I1007 12:33:17.364241  4874 net.cpp:129] Top shape: 100 32 16 16 (819200)
I1007 12:33:17.364243  4874 net.cpp:137] Memory required for data: 496026800
I1007 12:33:17.364248  4874 layer_factory.hpp:77] Creating layer Convolution18
I1007 12:33:17.364254  4874 net.cpp:84] Creating Layer Convolution18
I1007 12:33:17.364256  4874 net.cpp:406] Convolution18 <- Convolution17
I1007 12:33:17.364260  4874 net.cpp:380] Convolution18 -> Convolution18
I1007 12:33:17.365342  4874 net.cpp:122] Setting up Convolution18
I1007 12:33:17.365351  4874 net.cpp:129] Top shape: 100 32 16 16 (819200)
I1007 12:33:17.365353  4874 net.cpp:137] Memory required for data: 499303600
I1007 12:33:17.365358  4874 layer_factory.hpp:77] Creating layer BatchNorm18
I1007 12:33:17.365363  4874 net.cpp:84] Creating Layer BatchNorm18
I1007 12:33:17.365365  4874 net.cpp:406] BatchNorm18 <- Convolution18
I1007 12:33:17.365370  4874 net.cpp:367] BatchNorm18 -> Convolution18 (in-place)
I1007 12:33:17.365532  4874 net.cpp:122] Setting up BatchNorm18
I1007 12:33:17.365536  4874 net.cpp:129] Top shape: 100 32 16 16 (819200)
I1007 12:33:17.365538  4874 net.cpp:137] Memory required for data: 502580400
I1007 12:33:17.365543  4874 layer_factory.hpp:77] Creating layer Scale18
I1007 12:33:17.365547  4874 net.cpp:84] Creating Layer Scale18
I1007 12:33:17.365550  4874 net.cpp:406] Scale18 <- Convolution18
I1007 12:33:17.365555  4874 net.cpp:367] Scale18 -> Convolution18 (in-place)
I1007 12:33:17.365582  4874 layer_factory.hpp:77] Creating layer Scale18
I1007 12:33:17.365664  4874 net.cpp:122] Setting up Scale18
I1007 12:33:17.365667  4874 net.cpp:129] Top shape: 100 32 16 16 (819200)
I1007 12:33:17.365669  4874 net.cpp:137] Memory required for data: 505857200
I1007 12:33:17.365674  4874 layer_factory.hpp:77] Creating layer Eltwise8
I1007 12:33:17.365677  4874 net.cpp:84] Creating Layer Eltwise8
I1007 12:33:17.365679  4874 net.cpp:406] Eltwise8 <- Eltwise7_M2PELU15_0_split_1
I1007 12:33:17.365682  4874 net.cpp:406] Eltwise8 <- Convolution18
I1007 12:33:17.365686  4874 net.cpp:380] Eltwise8 -> Eltwise8
I1007 12:33:17.365700  4874 net.cpp:122] Setting up Eltwise8
I1007 12:33:17.365703  4874 net.cpp:129] Top shape: 100 32 16 16 (819200)
I1007 12:33:17.365711  4874 net.cpp:137] Memory required for data: 509134000
I1007 12:33:17.365715  4874 layer_factory.hpp:77] Creating layer M2PELU17
I1007 12:33:17.365720  4874 net.cpp:84] Creating Layer M2PELU17
I1007 12:33:17.365721  4874 net.cpp:406] M2PELU17 <- Eltwise8
I1007 12:33:17.365725  4874 net.cpp:367] M2PELU17 -> Eltwise8 (in-place)
I1007 12:33:17.365815  4874 net.cpp:122] Setting up M2PELU17
I1007 12:33:17.365820  4874 net.cpp:129] Top shape: 100 32 16 16 (819200)
I1007 12:33:17.365823  4874 net.cpp:137] Memory required for data: 512410800
I1007 12:33:17.365826  4874 layer_factory.hpp:77] Creating layer Eltwise8_M2PELU17_0_split
I1007 12:33:17.365829  4874 net.cpp:84] Creating Layer Eltwise8_M2PELU17_0_split
I1007 12:33:17.385640  4874 net.cpp:406] Eltwise8_M2PELU17_0_split <- Eltwise8
I1007 12:33:17.385650  4874 net.cpp:380] Eltwise8_M2PELU17_0_split -> Eltwise8_M2PELU17_0_split_0
I1007 12:33:17.385658  4874 net.cpp:380] Eltwise8_M2PELU17_0_split -> Eltwise8_M2PELU17_0_split_1
I1007 12:33:17.385696  4874 net.cpp:122] Setting up Eltwise8_M2PELU17_0_split
I1007 12:33:17.385701  4874 net.cpp:129] Top shape: 100 32 16 16 (819200)
I1007 12:33:17.385705  4874 net.cpp:129] Top shape: 100 32 16 16 (819200)
I1007 12:33:17.385707  4874 net.cpp:137] Memory required for data: 518964400
I1007 12:33:17.385710  4874 layer_factory.hpp:77] Creating layer Convolution19
I1007 12:33:17.385717  4874 net.cpp:84] Creating Layer Convolution19
I1007 12:33:17.385720  4874 net.cpp:406] Convolution19 <- Eltwise8_M2PELU17_0_split_0
I1007 12:33:17.385725  4874 net.cpp:380] Convolution19 -> Convolution19
I1007 12:33:17.386909  4874 net.cpp:122] Setting up Convolution19
I1007 12:33:17.386919  4874 net.cpp:129] Top shape: 100 32 16 16 (819200)
I1007 12:33:17.386921  4874 net.cpp:137] Memory required for data: 522241200
I1007 12:33:17.386926  4874 layer_factory.hpp:77] Creating layer BatchNorm19
I1007 12:33:17.386932  4874 net.cpp:84] Creating Layer BatchNorm19
I1007 12:33:17.386935  4874 net.cpp:406] BatchNorm19 <- Convolution19
I1007 12:33:17.386940  4874 net.cpp:367] BatchNorm19 -> Convolution19 (in-place)
I1007 12:33:17.387092  4874 net.cpp:122] Setting up BatchNorm19
I1007 12:33:17.387097  4874 net.cpp:129] Top shape: 100 32 16 16 (819200)
I1007 12:33:17.387099  4874 net.cpp:137] Memory required for data: 525518000
I1007 12:33:17.387105  4874 layer_factory.hpp:77] Creating layer Scale19
I1007 12:33:17.387110  4874 net.cpp:84] Creating Layer Scale19
I1007 12:33:17.387114  4874 net.cpp:406] Scale19 <- Convolution19
I1007 12:33:17.387116  4874 net.cpp:367] Scale19 -> Convolution19 (in-place)
I1007 12:33:17.387148  4874 layer_factory.hpp:77] Creating layer Scale19
I1007 12:33:17.387248  4874 net.cpp:122] Setting up Scale19
I1007 12:33:17.387253  4874 net.cpp:129] Top shape: 100 32 16 16 (819200)
I1007 12:33:17.387255  4874 net.cpp:137] Memory required for data: 528794800
I1007 12:33:17.387259  4874 layer_factory.hpp:77] Creating layer M2PELU18
I1007 12:33:17.387265  4874 net.cpp:84] Creating Layer M2PELU18
I1007 12:33:17.387267  4874 net.cpp:406] M2PELU18 <- Convolution19
I1007 12:33:17.387271  4874 net.cpp:367] M2PELU18 -> Convolution19 (in-place)
I1007 12:33:17.387373  4874 net.cpp:122] Setting up M2PELU18
I1007 12:33:17.387377  4874 net.cpp:129] Top shape: 100 32 16 16 (819200)
I1007 12:33:17.387379  4874 net.cpp:137] Memory required for data: 532071600
I1007 12:33:17.387383  4874 layer_factory.hpp:77] Creating layer Convolution20
I1007 12:33:17.387390  4874 net.cpp:84] Creating Layer Convolution20
I1007 12:33:17.387393  4874 net.cpp:406] Convolution20 <- Convolution19
I1007 12:33:17.387398  4874 net.cpp:380] Convolution20 -> Convolution20
I1007 12:33:17.388140  4874 net.cpp:122] Setting up Convolution20
I1007 12:33:17.388149  4874 net.cpp:129] Top shape: 100 32 16 16 (819200)
I1007 12:33:17.388151  4874 net.cpp:137] Memory required for data: 535348400
I1007 12:33:17.388155  4874 layer_factory.hpp:77] Creating layer BatchNorm20
I1007 12:33:17.388159  4874 net.cpp:84] Creating Layer BatchNorm20
I1007 12:33:17.388169  4874 net.cpp:406] BatchNorm20 <- Convolution20
I1007 12:33:17.388173  4874 net.cpp:367] BatchNorm20 -> Convolution20 (in-place)
I1007 12:33:17.388341  4874 net.cpp:122] Setting up BatchNorm20
I1007 12:33:17.388350  4874 net.cpp:129] Top shape: 100 32 16 16 (819200)
I1007 12:33:17.388353  4874 net.cpp:137] Memory required for data: 538625200
I1007 12:33:17.388360  4874 layer_factory.hpp:77] Creating layer Scale20
I1007 12:33:17.388363  4874 net.cpp:84] Creating Layer Scale20
I1007 12:33:17.388365  4874 net.cpp:406] Scale20 <- Convolution20
I1007 12:33:17.388370  4874 net.cpp:367] Scale20 -> Convolution20 (in-place)
I1007 12:33:17.388401  4874 layer_factory.hpp:77] Creating layer Scale20
I1007 12:33:17.388486  4874 net.cpp:122] Setting up Scale20
I1007 12:33:17.388490  4874 net.cpp:129] Top shape: 100 32 16 16 (819200)
I1007 12:33:17.388494  4874 net.cpp:137] Memory required for data: 541902000
I1007 12:33:17.388497  4874 layer_factory.hpp:77] Creating layer Eltwise9
I1007 12:33:17.388501  4874 net.cpp:84] Creating Layer Eltwise9
I1007 12:33:17.388504  4874 net.cpp:406] Eltwise9 <- Eltwise8_M2PELU17_0_split_1
I1007 12:33:17.388506  4874 net.cpp:406] Eltwise9 <- Convolution20
I1007 12:33:17.388510  4874 net.cpp:380] Eltwise9 -> Eltwise9
I1007 12:33:17.388525  4874 net.cpp:122] Setting up Eltwise9
I1007 12:33:17.388528  4874 net.cpp:129] Top shape: 100 32 16 16 (819200)
I1007 12:33:17.388530  4874 net.cpp:137] Memory required for data: 545178800
I1007 12:33:17.388532  4874 layer_factory.hpp:77] Creating layer M2PELU19
I1007 12:33:17.388537  4874 net.cpp:84] Creating Layer M2PELU19
I1007 12:33:17.388540  4874 net.cpp:406] M2PELU19 <- Eltwise9
I1007 12:33:17.388545  4874 net.cpp:367] M2PELU19 -> Eltwise9 (in-place)
I1007 12:33:17.388639  4874 net.cpp:122] Setting up M2PELU19
I1007 12:33:17.388643  4874 net.cpp:129] Top shape: 100 32 16 16 (819200)
I1007 12:33:17.388646  4874 net.cpp:137] Memory required for data: 548455600
I1007 12:33:17.388649  4874 layer_factory.hpp:77] Creating layer Eltwise9_M2PELU19_0_split
I1007 12:33:17.388653  4874 net.cpp:84] Creating Layer Eltwise9_M2PELU19_0_split
I1007 12:33:17.388656  4874 net.cpp:406] Eltwise9_M2PELU19_0_split <- Eltwise9
I1007 12:33:17.388660  4874 net.cpp:380] Eltwise9_M2PELU19_0_split -> Eltwise9_M2PELU19_0_split_0
I1007 12:33:17.388664  4874 net.cpp:380] Eltwise9_M2PELU19_0_split -> Eltwise9_M2PELU19_0_split_1
I1007 12:33:17.388690  4874 net.cpp:122] Setting up Eltwise9_M2PELU19_0_split
I1007 12:33:17.388695  4874 net.cpp:129] Top shape: 100 32 16 16 (819200)
I1007 12:33:17.388697  4874 net.cpp:129] Top shape: 100 32 16 16 (819200)
I1007 12:33:17.388700  4874 net.cpp:137] Memory required for data: 555009200
I1007 12:33:17.388702  4874 layer_factory.hpp:77] Creating layer Convolution21
I1007 12:33:17.388708  4874 net.cpp:84] Creating Layer Convolution21
I1007 12:33:17.388711  4874 net.cpp:406] Convolution21 <- Eltwise9_M2PELU19_0_split_0
I1007 12:33:17.388715  4874 net.cpp:380] Convolution21 -> Convolution21
I1007 12:33:17.389875  4874 net.cpp:122] Setting up Convolution21
I1007 12:33:17.389885  4874 net.cpp:129] Top shape: 100 32 16 16 (819200)
I1007 12:33:17.389889  4874 net.cpp:137] Memory required for data: 558286000
I1007 12:33:17.389892  4874 layer_factory.hpp:77] Creating layer BatchNorm21
I1007 12:33:17.389899  4874 net.cpp:84] Creating Layer BatchNorm21
I1007 12:33:17.389901  4874 net.cpp:406] BatchNorm21 <- Convolution21
I1007 12:33:17.389905  4874 net.cpp:367] BatchNorm21 -> Convolution21 (in-place)
I1007 12:33:17.390055  4874 net.cpp:122] Setting up BatchNorm21
I1007 12:33:17.390060  4874 net.cpp:129] Top shape: 100 32 16 16 (819200)
I1007 12:33:17.390063  4874 net.cpp:137] Memory required for data: 561562800
I1007 12:33:17.390069  4874 layer_factory.hpp:77] Creating layer Scale21
I1007 12:33:17.390072  4874 net.cpp:84] Creating Layer Scale21
I1007 12:33:17.390074  4874 net.cpp:406] Scale21 <- Convolution21
I1007 12:33:17.390079  4874 net.cpp:367] Scale21 -> Convolution21 (in-place)
I1007 12:33:17.390108  4874 layer_factory.hpp:77] Creating layer Scale21
I1007 12:33:17.390214  4874 net.cpp:122] Setting up Scale21
I1007 12:33:17.390219  4874 net.cpp:129] Top shape: 100 32 16 16 (819200)
I1007 12:33:17.390221  4874 net.cpp:137] Memory required for data: 564839600
I1007 12:33:17.390226  4874 layer_factory.hpp:77] Creating layer M2PELU20
I1007 12:33:17.390231  4874 net.cpp:84] Creating Layer M2PELU20
I1007 12:33:17.390233  4874 net.cpp:406] M2PELU20 <- Convolution21
I1007 12:33:17.390238  4874 net.cpp:367] M2PELU20 -> Convolution21 (in-place)
I1007 12:33:17.390328  4874 net.cpp:122] Setting up M2PELU20
I1007 12:33:17.390332  4874 net.cpp:129] Top shape: 100 32 16 16 (819200)
I1007 12:33:17.390336  4874 net.cpp:137] Memory required for data: 568116400
I1007 12:33:17.390339  4874 layer_factory.hpp:77] Creating layer Convolution22
I1007 12:33:17.390346  4874 net.cpp:84] Creating Layer Convolution22
I1007 12:33:17.390348  4874 net.cpp:406] Convolution22 <- Convolution21
I1007 12:33:17.390353  4874 net.cpp:380] Convolution22 -> Convolution22
I1007 12:33:17.391475  4874 net.cpp:122] Setting up Convolution22
I1007 12:33:17.391484  4874 net.cpp:129] Top shape: 100 32 16 16 (819200)
I1007 12:33:17.391487  4874 net.cpp:137] Memory required for data: 571393200
I1007 12:33:17.391491  4874 layer_factory.hpp:77] Creating layer BatchNorm22
I1007 12:33:17.391496  4874 net.cpp:84] Creating Layer BatchNorm22
I1007 12:33:17.391499  4874 net.cpp:406] BatchNorm22 <- Convolution22
I1007 12:33:17.391504  4874 net.cpp:367] BatchNorm22 -> Convolution22 (in-place)
I1007 12:33:17.391651  4874 net.cpp:122] Setting up BatchNorm22
I1007 12:33:17.391656  4874 net.cpp:129] Top shape: 100 32 16 16 (819200)
I1007 12:33:17.391659  4874 net.cpp:137] Memory required for data: 574670000
I1007 12:33:17.391664  4874 layer_factory.hpp:77] Creating layer Scale22
I1007 12:33:17.391669  4874 net.cpp:84] Creating Layer Scale22
I1007 12:33:17.391670  4874 net.cpp:406] Scale22 <- Convolution22
I1007 12:33:17.391674  4874 net.cpp:367] Scale22 -> Convolution22 (in-place)
I1007 12:33:17.391703  4874 layer_factory.hpp:77] Creating layer Scale22
I1007 12:33:17.391788  4874 net.cpp:122] Setting up Scale22
I1007 12:33:17.391793  4874 net.cpp:129] Top shape: 100 32 16 16 (819200)
I1007 12:33:17.391795  4874 net.cpp:137] Memory required for data: 577946800
I1007 12:33:17.391799  4874 layer_factory.hpp:77] Creating layer Eltwise10
I1007 12:33:17.391803  4874 net.cpp:84] Creating Layer Eltwise10
I1007 12:33:17.391806  4874 net.cpp:406] Eltwise10 <- Eltwise9_M2PELU19_0_split_1
I1007 12:33:17.391809  4874 net.cpp:406] Eltwise10 <- Convolution22
I1007 12:33:17.391813  4874 net.cpp:380] Eltwise10 -> Eltwise10
I1007 12:33:17.391827  4874 net.cpp:122] Setting up Eltwise10
I1007 12:33:17.391831  4874 net.cpp:129] Top shape: 100 32 16 16 (819200)
I1007 12:33:17.391834  4874 net.cpp:137] Memory required for data: 581223600
I1007 12:33:17.391835  4874 layer_factory.hpp:77] Creating layer M2PELU21
I1007 12:33:17.391840  4874 net.cpp:84] Creating Layer M2PELU21
I1007 12:33:17.391844  4874 net.cpp:406] M2PELU21 <- Eltwise10
I1007 12:33:17.391846  4874 net.cpp:367] M2PELU21 -> Eltwise10 (in-place)
I1007 12:33:17.391942  4874 net.cpp:122] Setting up M2PELU21
I1007 12:33:17.391947  4874 net.cpp:129] Top shape: 100 32 16 16 (819200)
I1007 12:33:17.391948  4874 net.cpp:137] Memory required for data: 584500400
I1007 12:33:17.391952  4874 layer_factory.hpp:77] Creating layer Eltwise10_M2PELU21_0_split
I1007 12:33:17.391957  4874 net.cpp:84] Creating Layer Eltwise10_M2PELU21_0_split
I1007 12:33:17.391959  4874 net.cpp:406] Eltwise10_M2PELU21_0_split <- Eltwise10
I1007 12:33:17.391963  4874 net.cpp:380] Eltwise10_M2PELU21_0_split -> Eltwise10_M2PELU21_0_split_0
I1007 12:33:17.391968  4874 net.cpp:380] Eltwise10_M2PELU21_0_split -> Eltwise10_M2PELU21_0_split_1
I1007 12:33:17.391994  4874 net.cpp:122] Setting up Eltwise10_M2PELU21_0_split
I1007 12:33:17.391999  4874 net.cpp:129] Top shape: 100 32 16 16 (819200)
I1007 12:33:17.392001  4874 net.cpp:129] Top shape: 100 32 16 16 (819200)
I1007 12:33:17.392004  4874 net.cpp:137] Memory required for data: 591054000
I1007 12:33:17.392012  4874 layer_factory.hpp:77] Creating layer Convolution23
I1007 12:33:17.392019  4874 net.cpp:84] Creating Layer Convolution23
I1007 12:33:17.392021  4874 net.cpp:406] Convolution23 <- Eltwise10_M2PELU21_0_split_0
I1007 12:33:17.392026  4874 net.cpp:380] Convolution23 -> Convolution23
I1007 12:33:17.393003  4874 net.cpp:122] Setting up Convolution23
I1007 12:33:17.393013  4874 net.cpp:129] Top shape: 100 64 8 8 (409600)
I1007 12:33:17.393015  4874 net.cpp:137] Memory required for data: 592692400
I1007 12:33:17.393020  4874 layer_factory.hpp:77] Creating layer BatchNorm23
I1007 12:33:17.393024  4874 net.cpp:84] Creating Layer BatchNorm23
I1007 12:33:17.393028  4874 net.cpp:406] BatchNorm23 <- Convolution23
I1007 12:33:17.393033  4874 net.cpp:367] BatchNorm23 -> Convolution23 (in-place)
I1007 12:33:17.393187  4874 net.cpp:122] Setting up BatchNorm23
I1007 12:33:17.393191  4874 net.cpp:129] Top shape: 100 64 8 8 (409600)
I1007 12:33:17.393193  4874 net.cpp:137] Memory required for data: 594330800
I1007 12:33:17.393198  4874 layer_factory.hpp:77] Creating layer Scale23
I1007 12:33:17.393203  4874 net.cpp:84] Creating Layer Scale23
I1007 12:33:17.393204  4874 net.cpp:406] Scale23 <- Convolution23
I1007 12:33:17.393208  4874 net.cpp:367] Scale23 -> Convolution23 (in-place)
I1007 12:33:17.393239  4874 layer_factory.hpp:77] Creating layer Scale23
I1007 12:33:17.393326  4874 net.cpp:122] Setting up Scale23
I1007 12:33:17.393331  4874 net.cpp:129] Top shape: 100 64 8 8 (409600)
I1007 12:33:17.393332  4874 net.cpp:137] Memory required for data: 595969200
I1007 12:33:17.393337  4874 layer_factory.hpp:77] Creating layer Convolution24
I1007 12:33:17.393343  4874 net.cpp:84] Creating Layer Convolution24
I1007 12:33:17.393347  4874 net.cpp:406] Convolution24 <- Eltwise10_M2PELU21_0_split_1
I1007 12:33:17.393352  4874 net.cpp:380] Convolution24 -> Convolution24
I1007 12:33:17.394693  4874 net.cpp:122] Setting up Convolution24
I1007 12:33:17.394702  4874 net.cpp:129] Top shape: 100 64 8 8 (409600)
I1007 12:33:17.394706  4874 net.cpp:137] Memory required for data: 597607600
I1007 12:33:17.394709  4874 layer_factory.hpp:77] Creating layer BatchNorm24
I1007 12:33:17.394714  4874 net.cpp:84] Creating Layer BatchNorm24
I1007 12:33:17.394717  4874 net.cpp:406] BatchNorm24 <- Convolution24
I1007 12:33:17.394721  4874 net.cpp:367] BatchNorm24 -> Convolution24 (in-place)
I1007 12:33:17.394875  4874 net.cpp:122] Setting up BatchNorm24
I1007 12:33:17.394879  4874 net.cpp:129] Top shape: 100 64 8 8 (409600)
I1007 12:33:17.394881  4874 net.cpp:137] Memory required for data: 599246000
I1007 12:33:17.394886  4874 layer_factory.hpp:77] Creating layer Scale24
I1007 12:33:17.394891  4874 net.cpp:84] Creating Layer Scale24
I1007 12:33:17.394892  4874 net.cpp:406] Scale24 <- Convolution24
I1007 12:33:17.394896  4874 net.cpp:367] Scale24 -> Convolution24 (in-place)
I1007 12:33:17.394927  4874 layer_factory.hpp:77] Creating layer Scale24
I1007 12:33:17.395012  4874 net.cpp:122] Setting up Scale24
I1007 12:33:17.395017  4874 net.cpp:129] Top shape: 100 64 8 8 (409600)
I1007 12:33:17.395020  4874 net.cpp:137] Memory required for data: 600884400
I1007 12:33:17.395023  4874 layer_factory.hpp:77] Creating layer M2PELU22
I1007 12:33:17.395028  4874 net.cpp:84] Creating Layer M2PELU22
I1007 12:33:17.395031  4874 net.cpp:406] M2PELU22 <- Convolution24
I1007 12:33:17.395035  4874 net.cpp:367] M2PELU22 -> Convolution24 (in-place)
I1007 12:33:17.395129  4874 net.cpp:122] Setting up M2PELU22
I1007 12:33:17.395133  4874 net.cpp:129] Top shape: 100 64 8 8 (409600)
I1007 12:33:17.395135  4874 net.cpp:137] Memory required for data: 602522800
I1007 12:33:17.395139  4874 layer_factory.hpp:77] Creating layer Convolution25
I1007 12:33:17.395146  4874 net.cpp:84] Creating Layer Convolution25
I1007 12:33:17.395149  4874 net.cpp:406] Convolution25 <- Convolution24
I1007 12:33:17.395153  4874 net.cpp:380] Convolution25 -> Convolution25
I1007 12:33:17.396917  4874 net.cpp:122] Setting up Convolution25
I1007 12:33:17.396926  4874 net.cpp:129] Top shape: 100 64 8 8 (409600)
I1007 12:33:17.396935  4874 net.cpp:137] Memory required for data: 604161200
I1007 12:33:17.396940  4874 layer_factory.hpp:77] Creating layer BatchNorm25
I1007 12:33:17.396946  4874 net.cpp:84] Creating Layer BatchNorm25
I1007 12:33:17.396950  4874 net.cpp:406] BatchNorm25 <- Convolution25
I1007 12:33:17.396952  4874 net.cpp:367] BatchNorm25 -> Convolution25 (in-place)
I1007 12:33:17.397105  4874 net.cpp:122] Setting up BatchNorm25
I1007 12:33:17.397109  4874 net.cpp:129] Top shape: 100 64 8 8 (409600)
I1007 12:33:17.397112  4874 net.cpp:137] Memory required for data: 605799600
I1007 12:33:17.397117  4874 layer_factory.hpp:77] Creating layer Scale25
I1007 12:33:17.416431  4874 net.cpp:84] Creating Layer Scale25
I1007 12:33:17.416440  4874 net.cpp:406] Scale25 <- Convolution25
I1007 12:33:17.416445  4874 net.cpp:367] Scale25 -> Convolution25 (in-place)
I1007 12:33:17.416491  4874 layer_factory.hpp:77] Creating layer Scale25
I1007 12:33:17.416586  4874 net.cpp:122] Setting up Scale25
I1007 12:33:17.416592  4874 net.cpp:129] Top shape: 100 64 8 8 (409600)
I1007 12:33:17.416594  4874 net.cpp:137] Memory required for data: 607438000
I1007 12:33:17.416599  4874 layer_factory.hpp:77] Creating layer Eltwise11
I1007 12:33:17.416605  4874 net.cpp:84] Creating Layer Eltwise11
I1007 12:33:17.416609  4874 net.cpp:406] Eltwise11 <- Convolution23
I1007 12:33:17.416611  4874 net.cpp:406] Eltwise11 <- Convolution25
I1007 12:33:17.416615  4874 net.cpp:380] Eltwise11 -> Eltwise11
I1007 12:33:17.416635  4874 net.cpp:122] Setting up Eltwise11
I1007 12:33:17.416640  4874 net.cpp:129] Top shape: 100 64 8 8 (409600)
I1007 12:33:17.416641  4874 net.cpp:137] Memory required for data: 609076400
I1007 12:33:17.416643  4874 layer_factory.hpp:77] Creating layer M2PELU23
I1007 12:33:17.416648  4874 net.cpp:84] Creating Layer M2PELU23
I1007 12:33:17.416651  4874 net.cpp:406] M2PELU23 <- Eltwise11
I1007 12:33:17.416654  4874 net.cpp:367] M2PELU23 -> Eltwise11 (in-place)
I1007 12:33:17.416754  4874 net.cpp:122] Setting up M2PELU23
I1007 12:33:17.416759  4874 net.cpp:129] Top shape: 100 64 8 8 (409600)
I1007 12:33:17.416761  4874 net.cpp:137] Memory required for data: 610714800
I1007 12:33:17.416765  4874 layer_factory.hpp:77] Creating layer Eltwise11_M2PELU23_0_split
I1007 12:33:17.416769  4874 net.cpp:84] Creating Layer Eltwise11_M2PELU23_0_split
I1007 12:33:17.416771  4874 net.cpp:406] Eltwise11_M2PELU23_0_split <- Eltwise11
I1007 12:33:17.416775  4874 net.cpp:380] Eltwise11_M2PELU23_0_split -> Eltwise11_M2PELU23_0_split_0
I1007 12:33:17.416779  4874 net.cpp:380] Eltwise11_M2PELU23_0_split -> Eltwise11_M2PELU23_0_split_1
I1007 12:33:17.416808  4874 net.cpp:122] Setting up Eltwise11_M2PELU23_0_split
I1007 12:33:17.416812  4874 net.cpp:129] Top shape: 100 64 8 8 (409600)
I1007 12:33:17.416815  4874 net.cpp:129] Top shape: 100 64 8 8 (409600)
I1007 12:33:17.416817  4874 net.cpp:137] Memory required for data: 613991600
I1007 12:33:17.416820  4874 layer_factory.hpp:77] Creating layer Convolution26
I1007 12:33:17.416827  4874 net.cpp:84] Creating Layer Convolution26
I1007 12:33:17.416831  4874 net.cpp:406] Convolution26 <- Eltwise11_M2PELU23_0_split_0
I1007 12:33:17.416834  4874 net.cpp:380] Convolution26 -> Convolution26
I1007 12:33:17.418704  4874 net.cpp:122] Setting up Convolution26
I1007 12:33:17.418712  4874 net.cpp:129] Top shape: 100 64 8 8 (409600)
I1007 12:33:17.418715  4874 net.cpp:137] Memory required for data: 615630000
I1007 12:33:17.418721  4874 layer_factory.hpp:77] Creating layer BatchNorm26
I1007 12:33:17.418725  4874 net.cpp:84] Creating Layer BatchNorm26
I1007 12:33:17.418730  4874 net.cpp:406] BatchNorm26 <- Convolution26
I1007 12:33:17.418733  4874 net.cpp:367] BatchNorm26 -> Convolution26 (in-place)
I1007 12:33:17.418882  4874 net.cpp:122] Setting up BatchNorm26
I1007 12:33:17.418887  4874 net.cpp:129] Top shape: 100 64 8 8 (409600)
I1007 12:33:17.418889  4874 net.cpp:137] Memory required for data: 617268400
I1007 12:33:17.418895  4874 layer_factory.hpp:77] Creating layer Scale26
I1007 12:33:17.418900  4874 net.cpp:84] Creating Layer Scale26
I1007 12:33:17.418910  4874 net.cpp:406] Scale26 <- Convolution26
I1007 12:33:17.418913  4874 net.cpp:367] Scale26 -> Convolution26 (in-place)
I1007 12:33:17.418946  4874 layer_factory.hpp:77] Creating layer Scale26
I1007 12:33:17.419033  4874 net.cpp:122] Setting up Scale26
I1007 12:33:17.419037  4874 net.cpp:129] Top shape: 100 64 8 8 (409600)
I1007 12:33:17.419039  4874 net.cpp:137] Memory required for data: 618906800
I1007 12:33:17.419044  4874 layer_factory.hpp:77] Creating layer M2PELU24
I1007 12:33:17.419049  4874 net.cpp:84] Creating Layer M2PELU24
I1007 12:33:17.419051  4874 net.cpp:406] M2PELU24 <- Convolution26
I1007 12:33:17.419054  4874 net.cpp:367] M2PELU24 -> Convolution26 (in-place)
I1007 12:33:17.419148  4874 net.cpp:122] Setting up M2PELU24
I1007 12:33:17.419153  4874 net.cpp:129] Top shape: 100 64 8 8 (409600)
I1007 12:33:17.419155  4874 net.cpp:137] Memory required for data: 620545200
I1007 12:33:17.419159  4874 layer_factory.hpp:77] Creating layer Convolution27
I1007 12:33:17.419175  4874 net.cpp:84] Creating Layer Convolution27
I1007 12:33:17.419178  4874 net.cpp:406] Convolution27 <- Convolution26
I1007 12:33:17.419183  4874 net.cpp:380] Convolution27 -> Convolution27
I1007 12:33:17.420938  4874 net.cpp:122] Setting up Convolution27
I1007 12:33:17.420948  4874 net.cpp:129] Top shape: 100 64 8 8 (409600)
I1007 12:33:17.420950  4874 net.cpp:137] Memory required for data: 622183600
I1007 12:33:17.420954  4874 layer_factory.hpp:77] Creating layer BatchNorm27
I1007 12:33:17.420972  4874 net.cpp:84] Creating Layer BatchNorm27
I1007 12:33:17.420975  4874 net.cpp:406] BatchNorm27 <- Convolution27
I1007 12:33:17.420979  4874 net.cpp:367] BatchNorm27 -> Convolution27 (in-place)
I1007 12:33:17.421129  4874 net.cpp:122] Setting up BatchNorm27
I1007 12:33:17.421134  4874 net.cpp:129] Top shape: 100 64 8 8 (409600)
I1007 12:33:17.421136  4874 net.cpp:137] Memory required for data: 623822000
I1007 12:33:17.421141  4874 layer_factory.hpp:77] Creating layer Scale27
I1007 12:33:17.421145  4874 net.cpp:84] Creating Layer Scale27
I1007 12:33:17.421147  4874 net.cpp:406] Scale27 <- Convolution27
I1007 12:33:17.421150  4874 net.cpp:367] Scale27 -> Convolution27 (in-place)
I1007 12:33:17.421181  4874 layer_factory.hpp:77] Creating layer Scale27
I1007 12:33:17.421267  4874 net.cpp:122] Setting up Scale27
I1007 12:33:17.421270  4874 net.cpp:129] Top shape: 100 64 8 8 (409600)
I1007 12:33:17.421273  4874 net.cpp:137] Memory required for data: 625460400
I1007 12:33:17.421277  4874 layer_factory.hpp:77] Creating layer Eltwise12
I1007 12:33:17.421281  4874 net.cpp:84] Creating Layer Eltwise12
I1007 12:33:17.421283  4874 net.cpp:406] Eltwise12 <- Eltwise11_M2PELU23_0_split_1
I1007 12:33:17.421286  4874 net.cpp:406] Eltwise12 <- Convolution27
I1007 12:33:17.421289  4874 net.cpp:380] Eltwise12 -> Eltwise12
I1007 12:33:17.421310  4874 net.cpp:122] Setting up Eltwise12
I1007 12:33:17.421314  4874 net.cpp:129] Top shape: 100 64 8 8 (409600)
I1007 12:33:17.421316  4874 net.cpp:137] Memory required for data: 627098800
I1007 12:33:17.421319  4874 layer_factory.hpp:77] Creating layer M2PELU25
I1007 12:33:17.421324  4874 net.cpp:84] Creating Layer M2PELU25
I1007 12:33:17.421325  4874 net.cpp:406] M2PELU25 <- Eltwise12
I1007 12:33:17.421329  4874 net.cpp:367] M2PELU25 -> Eltwise12 (in-place)
I1007 12:33:17.421422  4874 net.cpp:122] Setting up M2PELU25
I1007 12:33:17.421425  4874 net.cpp:129] Top shape: 100 64 8 8 (409600)
I1007 12:33:17.421427  4874 net.cpp:137] Memory required for data: 628737200
I1007 12:33:17.421430  4874 layer_factory.hpp:77] Creating layer Eltwise12_M2PELU25_0_split
I1007 12:33:17.421434  4874 net.cpp:84] Creating Layer Eltwise12_M2PELU25_0_split
I1007 12:33:17.421437  4874 net.cpp:406] Eltwise12_M2PELU25_0_split <- Eltwise12
I1007 12:33:17.421439  4874 net.cpp:380] Eltwise12_M2PELU25_0_split -> Eltwise12_M2PELU25_0_split_0
I1007 12:33:17.421444  4874 net.cpp:380] Eltwise12_M2PELU25_0_split -> Eltwise12_M2PELU25_0_split_1
I1007 12:33:17.421470  4874 net.cpp:122] Setting up Eltwise12_M2PELU25_0_split
I1007 12:33:17.421480  4874 net.cpp:129] Top shape: 100 64 8 8 (409600)
I1007 12:33:17.421483  4874 net.cpp:129] Top shape: 100 64 8 8 (409600)
I1007 12:33:17.421485  4874 net.cpp:137] Memory required for data: 632014000
I1007 12:33:17.421488  4874 layer_factory.hpp:77] Creating layer Convolution28
I1007 12:33:17.421494  4874 net.cpp:84] Creating Layer Convolution28
I1007 12:33:17.421497  4874 net.cpp:406] Convolution28 <- Eltwise12_M2PELU25_0_split_0
I1007 12:33:17.421501  4874 net.cpp:380] Convolution28 -> Convolution28
I1007 12:33:17.423555  4874 net.cpp:122] Setting up Convolution28
I1007 12:33:17.423564  4874 net.cpp:129] Top shape: 100 64 8 8 (409600)
I1007 12:33:17.423568  4874 net.cpp:137] Memory required for data: 633652400
I1007 12:33:17.423573  4874 layer_factory.hpp:77] Creating layer BatchNorm28
I1007 12:33:17.423578  4874 net.cpp:84] Creating Layer BatchNorm28
I1007 12:33:17.423579  4874 net.cpp:406] BatchNorm28 <- Convolution28
I1007 12:33:17.423585  4874 net.cpp:367] BatchNorm28 -> Convolution28 (in-place)
I1007 12:33:17.423743  4874 net.cpp:122] Setting up BatchNorm28
I1007 12:33:17.423746  4874 net.cpp:129] Top shape: 100 64 8 8 (409600)
I1007 12:33:17.423748  4874 net.cpp:137] Memory required for data: 635290800
I1007 12:33:17.423753  4874 layer_factory.hpp:77] Creating layer Scale28
I1007 12:33:17.423758  4874 net.cpp:84] Creating Layer Scale28
I1007 12:33:17.423760  4874 net.cpp:406] Scale28 <- Convolution28
I1007 12:33:17.423764  4874 net.cpp:367] Scale28 -> Convolution28 (in-place)
I1007 12:33:17.423794  4874 layer_factory.hpp:77] Creating layer Scale28
I1007 12:33:17.423885  4874 net.cpp:122] Setting up Scale28
I1007 12:33:17.423890  4874 net.cpp:129] Top shape: 100 64 8 8 (409600)
I1007 12:33:17.423892  4874 net.cpp:137] Memory required for data: 636929200
I1007 12:33:17.423897  4874 layer_factory.hpp:77] Creating layer M2PELU26
I1007 12:33:17.423902  4874 net.cpp:84] Creating Layer M2PELU26
I1007 12:33:17.423904  4874 net.cpp:406] M2PELU26 <- Convolution28
I1007 12:33:17.423907  4874 net.cpp:367] M2PELU26 -> Convolution28 (in-place)
I1007 12:33:17.424003  4874 net.cpp:122] Setting up M2PELU26
I1007 12:33:17.424008  4874 net.cpp:129] Top shape: 100 64 8 8 (409600)
I1007 12:33:17.424010  4874 net.cpp:137] Memory required for data: 638567600
I1007 12:33:17.424013  4874 layer_factory.hpp:77] Creating layer Convolution29
I1007 12:33:17.424021  4874 net.cpp:84] Creating Layer Convolution29
I1007 12:33:17.424023  4874 net.cpp:406] Convolution29 <- Convolution28
I1007 12:33:17.424027  4874 net.cpp:380] Convolution29 -> Convolution29
I1007 12:33:17.426275  4874 net.cpp:122] Setting up Convolution29
I1007 12:33:17.426285  4874 net.cpp:129] Top shape: 100 64 8 8 (409600)
I1007 12:33:17.426287  4874 net.cpp:137] Memory required for data: 640206000
I1007 12:33:17.426291  4874 layer_factory.hpp:77] Creating layer BatchNorm29
I1007 12:33:17.426296  4874 net.cpp:84] Creating Layer BatchNorm29
I1007 12:33:17.426300  4874 net.cpp:406] BatchNorm29 <- Convolution29
I1007 12:33:17.426303  4874 net.cpp:367] BatchNorm29 -> Convolution29 (in-place)
I1007 12:33:17.426455  4874 net.cpp:122] Setting up BatchNorm29
I1007 12:33:17.426460  4874 net.cpp:129] Top shape: 100 64 8 8 (409600)
I1007 12:33:17.426462  4874 net.cpp:137] Memory required for data: 641844400
I1007 12:33:17.426467  4874 layer_factory.hpp:77] Creating layer Scale29
I1007 12:33:17.426471  4874 net.cpp:84] Creating Layer Scale29
I1007 12:33:17.426473  4874 net.cpp:406] Scale29 <- Convolution29
I1007 12:33:17.426477  4874 net.cpp:367] Scale29 -> Convolution29 (in-place)
I1007 12:33:17.426506  4874 layer_factory.hpp:77] Creating layer Scale29
I1007 12:33:17.426594  4874 net.cpp:122] Setting up Scale29
I1007 12:33:17.426597  4874 net.cpp:129] Top shape: 100 64 8 8 (409600)
I1007 12:33:17.426599  4874 net.cpp:137] Memory required for data: 643482800
I1007 12:33:17.426604  4874 layer_factory.hpp:77] Creating layer Eltwise13
I1007 12:33:17.426607  4874 net.cpp:84] Creating Layer Eltwise13
I1007 12:33:17.426610  4874 net.cpp:406] Eltwise13 <- Eltwise12_M2PELU25_0_split_1
I1007 12:33:17.426620  4874 net.cpp:406] Eltwise13 <- Convolution29
I1007 12:33:17.426625  4874 net.cpp:380] Eltwise13 -> Eltwise13
I1007 12:33:17.426645  4874 net.cpp:122] Setting up Eltwise13
I1007 12:33:17.426650  4874 net.cpp:129] Top shape: 100 64 8 8 (409600)
I1007 12:33:17.426651  4874 net.cpp:137] Memory required for data: 645121200
I1007 12:33:17.426653  4874 layer_factory.hpp:77] Creating layer M2PELU27
I1007 12:33:17.426657  4874 net.cpp:84] Creating Layer M2PELU27
I1007 12:33:17.426661  4874 net.cpp:406] M2PELU27 <- Eltwise13
I1007 12:33:17.426664  4874 net.cpp:367] M2PELU27 -> Eltwise13 (in-place)
I1007 12:33:17.426759  4874 net.cpp:122] Setting up M2PELU27
I1007 12:33:17.426762  4874 net.cpp:129] Top shape: 100 64 8 8 (409600)
I1007 12:33:17.426764  4874 net.cpp:137] Memory required for data: 646759600
I1007 12:33:17.426787  4874 layer_factory.hpp:77] Creating layer Eltwise13_M2PELU27_0_split
I1007 12:33:17.426792  4874 net.cpp:84] Creating Layer Eltwise13_M2PELU27_0_split
I1007 12:33:17.426795  4874 net.cpp:406] Eltwise13_M2PELU27_0_split <- Eltwise13
I1007 12:33:17.426797  4874 net.cpp:380] Eltwise13_M2PELU27_0_split -> Eltwise13_M2PELU27_0_split_0
I1007 12:33:17.426802  4874 net.cpp:380] Eltwise13_M2PELU27_0_split -> Eltwise13_M2PELU27_0_split_1
I1007 12:33:17.426831  4874 net.cpp:122] Setting up Eltwise13_M2PELU27_0_split
I1007 12:33:17.426836  4874 net.cpp:129] Top shape: 100 64 8 8 (409600)
I1007 12:33:17.426838  4874 net.cpp:129] Top shape: 100 64 8 8 (409600)
I1007 12:33:17.426841  4874 net.cpp:137] Memory required for data: 650036400
I1007 12:33:17.426842  4874 layer_factory.hpp:77] Creating layer Convolution30
I1007 12:33:17.426849  4874 net.cpp:84] Creating Layer Convolution30
I1007 12:33:17.426852  4874 net.cpp:406] Convolution30 <- Eltwise13_M2PELU27_0_split_0
I1007 12:33:17.426857  4874 net.cpp:380] Convolution30 -> Convolution30
I1007 12:33:17.428932  4874 net.cpp:122] Setting up Convolution30
I1007 12:33:17.428941  4874 net.cpp:129] Top shape: 100 64 8 8 (409600)
I1007 12:33:17.428944  4874 net.cpp:137] Memory required for data: 651674800
I1007 12:33:17.428949  4874 layer_factory.hpp:77] Creating layer BatchNorm30
I1007 12:33:17.428954  4874 net.cpp:84] Creating Layer BatchNorm30
I1007 12:33:17.428957  4874 net.cpp:406] BatchNorm30 <- Convolution30
I1007 12:33:17.428961  4874 net.cpp:367] BatchNorm30 -> Convolution30 (in-place)
I1007 12:33:17.429116  4874 net.cpp:122] Setting up BatchNorm30
I1007 12:33:17.429121  4874 net.cpp:129] Top shape: 100 64 8 8 (409600)
I1007 12:33:17.429123  4874 net.cpp:137] Memory required for data: 653313200
I1007 12:33:17.429127  4874 layer_factory.hpp:77] Creating layer Scale30
I1007 12:33:17.429131  4874 net.cpp:84] Creating Layer Scale30
I1007 12:33:17.429134  4874 net.cpp:406] Scale30 <- Convolution30
I1007 12:33:17.429137  4874 net.cpp:367] Scale30 -> Convolution30 (in-place)
I1007 12:33:17.429168  4874 layer_factory.hpp:77] Creating layer Scale30
I1007 12:33:17.429255  4874 net.cpp:122] Setting up Scale30
I1007 12:33:17.429260  4874 net.cpp:129] Top shape: 100 64 8 8 (409600)
I1007 12:33:17.429261  4874 net.cpp:137] Memory required for data: 654951600
I1007 12:33:17.429265  4874 layer_factory.hpp:77] Creating layer M2PELU28
I1007 12:33:17.429270  4874 net.cpp:84] Creating Layer M2PELU28
I1007 12:33:17.429272  4874 net.cpp:406] M2PELU28 <- Convolution30
I1007 12:33:17.429276  4874 net.cpp:367] M2PELU28 -> Convolution30 (in-place)
I1007 12:33:17.429370  4874 net.cpp:122] Setting up M2PELU28
I1007 12:33:17.429375  4874 net.cpp:129] Top shape: 100 64 8 8 (409600)
I1007 12:33:17.429378  4874 net.cpp:137] Memory required for data: 656590000
I1007 12:33:17.429380  4874 layer_factory.hpp:77] Creating layer Convolution31
I1007 12:33:17.429388  4874 net.cpp:84] Creating Layer Convolution31
I1007 12:33:17.429390  4874 net.cpp:406] Convolution31 <- Convolution30
I1007 12:33:17.429394  4874 net.cpp:380] Convolution31 -> Convolution31
I1007 12:33:17.431095  4874 net.cpp:122] Setting up Convolution31
I1007 12:33:17.431103  4874 net.cpp:129] Top shape: 100 64 8 8 (409600)
I1007 12:33:17.431113  4874 net.cpp:137] Memory required for data: 658228400
I1007 12:33:17.431118  4874 layer_factory.hpp:77] Creating layer BatchNorm31
I1007 12:33:17.431123  4874 net.cpp:84] Creating Layer BatchNorm31
I1007 12:33:17.431126  4874 net.cpp:406] BatchNorm31 <- Convolution31
I1007 12:33:17.431130  4874 net.cpp:367] BatchNorm31 -> Convolution31 (in-place)
I1007 12:33:17.431289  4874 net.cpp:122] Setting up BatchNorm31
I1007 12:33:17.431295  4874 net.cpp:129] Top shape: 100 64 8 8 (409600)
I1007 12:33:17.447459  4874 net.cpp:137] Memory required for data: 659866800
I1007 12:33:17.447471  4874 layer_factory.hpp:77] Creating layer Scale31
I1007 12:33:17.447479  4874 net.cpp:84] Creating Layer Scale31
I1007 12:33:17.447482  4874 net.cpp:406] Scale31 <- Convolution31
I1007 12:33:17.447485  4874 net.cpp:367] Scale31 -> Convolution31 (in-place)
I1007 12:33:17.447531  4874 layer_factory.hpp:77] Creating layer Scale31
I1007 12:33:17.447633  4874 net.cpp:122] Setting up Scale31
I1007 12:33:17.447638  4874 net.cpp:129] Top shape: 100 64 8 8 (409600)
I1007 12:33:17.447639  4874 net.cpp:137] Memory required for data: 661505200
I1007 12:33:17.447643  4874 layer_factory.hpp:77] Creating layer Eltwise14
I1007 12:33:17.447650  4874 net.cpp:84] Creating Layer Eltwise14
I1007 12:33:17.447654  4874 net.cpp:406] Eltwise14 <- Eltwise13_M2PELU27_0_split_1
I1007 12:33:17.447657  4874 net.cpp:406] Eltwise14 <- Convolution31
I1007 12:33:17.447660  4874 net.cpp:380] Eltwise14 -> Eltwise14
I1007 12:33:17.447681  4874 net.cpp:122] Setting up Eltwise14
I1007 12:33:17.447685  4874 net.cpp:129] Top shape: 100 64 8 8 (409600)
I1007 12:33:17.447688  4874 net.cpp:137] Memory required for data: 663143600
I1007 12:33:17.447690  4874 layer_factory.hpp:77] Creating layer M2PELU29
I1007 12:33:17.447696  4874 net.cpp:84] Creating Layer M2PELU29
I1007 12:33:17.447698  4874 net.cpp:406] M2PELU29 <- Eltwise14
I1007 12:33:17.447702  4874 net.cpp:367] M2PELU29 -> Eltwise14 (in-place)
I1007 12:33:17.447805  4874 net.cpp:122] Setting up M2PELU29
I1007 12:33:17.447810  4874 net.cpp:129] Top shape: 100 64 8 8 (409600)
I1007 12:33:17.447813  4874 net.cpp:137] Memory required for data: 664782000
I1007 12:33:17.447816  4874 layer_factory.hpp:77] Creating layer Eltwise14_M2PELU29_0_split
I1007 12:33:17.447820  4874 net.cpp:84] Creating Layer Eltwise14_M2PELU29_0_split
I1007 12:33:17.447824  4874 net.cpp:406] Eltwise14_M2PELU29_0_split <- Eltwise14
I1007 12:33:17.447826  4874 net.cpp:380] Eltwise14_M2PELU29_0_split -> Eltwise14_M2PELU29_0_split_0
I1007 12:33:17.447831  4874 net.cpp:380] Eltwise14_M2PELU29_0_split -> Eltwise14_M2PELU29_0_split_1
I1007 12:33:17.447860  4874 net.cpp:122] Setting up Eltwise14_M2PELU29_0_split
I1007 12:33:17.447865  4874 net.cpp:129] Top shape: 100 64 8 8 (409600)
I1007 12:33:17.447867  4874 net.cpp:129] Top shape: 100 64 8 8 (409600)
I1007 12:33:17.447870  4874 net.cpp:137] Memory required for data: 668058800
I1007 12:33:17.447871  4874 layer_factory.hpp:77] Creating layer Convolution32
I1007 12:33:17.447877  4874 net.cpp:84] Creating Layer Convolution32
I1007 12:33:17.447880  4874 net.cpp:406] Convolution32 <- Eltwise14_M2PELU29_0_split_0
I1007 12:33:17.447885  4874 net.cpp:380] Convolution32 -> Convolution32
I1007 12:33:17.450314  4874 net.cpp:122] Setting up Convolution32
I1007 12:33:17.450322  4874 net.cpp:129] Top shape: 100 64 8 8 (409600)
I1007 12:33:17.450325  4874 net.cpp:137] Memory required for data: 669697200
I1007 12:33:17.450330  4874 layer_factory.hpp:77] Creating layer BatchNorm32
I1007 12:33:17.450335  4874 net.cpp:84] Creating Layer BatchNorm32
I1007 12:33:17.450338  4874 net.cpp:406] BatchNorm32 <- Convolution32
I1007 12:33:17.450343  4874 net.cpp:367] BatchNorm32 -> Convolution32 (in-place)
I1007 12:33:17.450502  4874 net.cpp:122] Setting up BatchNorm32
I1007 12:33:17.450507  4874 net.cpp:129] Top shape: 100 64 8 8 (409600)
I1007 12:33:17.450510  4874 net.cpp:137] Memory required for data: 671335600
I1007 12:33:17.450515  4874 layer_factory.hpp:77] Creating layer Scale32
I1007 12:33:17.450520  4874 net.cpp:84] Creating Layer Scale32
I1007 12:33:17.450529  4874 net.cpp:406] Scale32 <- Convolution32
I1007 12:33:17.450533  4874 net.cpp:367] Scale32 -> Convolution32 (in-place)
I1007 12:33:17.450567  4874 layer_factory.hpp:77] Creating layer Scale32
I1007 12:33:17.450655  4874 net.cpp:122] Setting up Scale32
I1007 12:33:17.450660  4874 net.cpp:129] Top shape: 100 64 8 8 (409600)
I1007 12:33:17.450662  4874 net.cpp:137] Memory required for data: 672974000
I1007 12:33:17.450666  4874 layer_factory.hpp:77] Creating layer M2PELU30
I1007 12:33:17.450672  4874 net.cpp:84] Creating Layer M2PELU30
I1007 12:33:17.450675  4874 net.cpp:406] M2PELU30 <- Convolution32
I1007 12:33:17.450678  4874 net.cpp:367] M2PELU30 -> Convolution32 (in-place)
I1007 12:33:17.450774  4874 net.cpp:122] Setting up M2PELU30
I1007 12:33:17.450779  4874 net.cpp:129] Top shape: 100 64 8 8 (409600)
I1007 12:33:17.450781  4874 net.cpp:137] Memory required for data: 674612400
I1007 12:33:17.450785  4874 layer_factory.hpp:77] Creating layer Convolution33
I1007 12:33:17.450791  4874 net.cpp:84] Creating Layer Convolution33
I1007 12:33:17.450794  4874 net.cpp:406] Convolution33 <- Convolution32
I1007 12:33:17.450801  4874 net.cpp:380] Convolution33 -> Convolution33
I1007 12:33:17.452584  4874 net.cpp:122] Setting up Convolution33
I1007 12:33:17.452594  4874 net.cpp:129] Top shape: 100 64 8 8 (409600)
I1007 12:33:17.452596  4874 net.cpp:137] Memory required for data: 676250800
I1007 12:33:17.452600  4874 layer_factory.hpp:77] Creating layer BatchNorm33
I1007 12:33:17.452606  4874 net.cpp:84] Creating Layer BatchNorm33
I1007 12:33:17.452608  4874 net.cpp:406] BatchNorm33 <- Convolution33
I1007 12:33:17.452612  4874 net.cpp:367] BatchNorm33 -> Convolution33 (in-place)
I1007 12:33:17.452766  4874 net.cpp:122] Setting up BatchNorm33
I1007 12:33:17.452771  4874 net.cpp:129] Top shape: 100 64 8 8 (409600)
I1007 12:33:17.452774  4874 net.cpp:137] Memory required for data: 677889200
I1007 12:33:17.452778  4874 layer_factory.hpp:77] Creating layer Scale33
I1007 12:33:17.452781  4874 net.cpp:84] Creating Layer Scale33
I1007 12:33:17.452785  4874 net.cpp:406] Scale33 <- Convolution33
I1007 12:33:17.452787  4874 net.cpp:367] Scale33 -> Convolution33 (in-place)
I1007 12:33:17.452819  4874 layer_factory.hpp:77] Creating layer Scale33
I1007 12:33:17.452906  4874 net.cpp:122] Setting up Scale33
I1007 12:33:17.452913  4874 net.cpp:129] Top shape: 100 64 8 8 (409600)
I1007 12:33:17.452914  4874 net.cpp:137] Memory required for data: 679527600
I1007 12:33:17.452919  4874 layer_factory.hpp:77] Creating layer Eltwise15
I1007 12:33:17.452922  4874 net.cpp:84] Creating Layer Eltwise15
I1007 12:33:17.452924  4874 net.cpp:406] Eltwise15 <- Eltwise14_M2PELU29_0_split_1
I1007 12:33:17.452927  4874 net.cpp:406] Eltwise15 <- Convolution33
I1007 12:33:17.452930  4874 net.cpp:380] Eltwise15 -> Eltwise15
I1007 12:33:17.452950  4874 net.cpp:122] Setting up Eltwise15
I1007 12:33:17.452953  4874 net.cpp:129] Top shape: 100 64 8 8 (409600)
I1007 12:33:17.452956  4874 net.cpp:137] Memory required for data: 681166000
I1007 12:33:17.452958  4874 layer_factory.hpp:77] Creating layer M2PELU31
I1007 12:33:17.452963  4874 net.cpp:84] Creating Layer M2PELU31
I1007 12:33:17.452965  4874 net.cpp:406] M2PELU31 <- Eltwise15
I1007 12:33:17.452968  4874 net.cpp:367] M2PELU31 -> Eltwise15 (in-place)
I1007 12:33:17.453064  4874 net.cpp:122] Setting up M2PELU31
I1007 12:33:17.453068  4874 net.cpp:129] Top shape: 100 64 8 8 (409600)
I1007 12:33:17.453070  4874 net.cpp:137] Memory required for data: 682804400
I1007 12:33:17.453074  4874 layer_factory.hpp:77] Creating layer Pooling1
I1007 12:33:17.453078  4874 net.cpp:84] Creating Layer Pooling1
I1007 12:33:17.453080  4874 net.cpp:406] Pooling1 <- Eltwise15
I1007 12:33:17.453085  4874 net.cpp:380] Pooling1 -> Pooling1
I1007 12:33:17.453227  4874 net.cpp:122] Setting up Pooling1
I1007 12:33:17.453233  4874 net.cpp:129] Top shape: 100 64 1 1 (6400)
I1007 12:33:17.453234  4874 net.cpp:137] Memory required for data: 682830000
I1007 12:33:17.453236  4874 layer_factory.hpp:77] Creating layer InnerProduct1
I1007 12:33:17.453249  4874 net.cpp:84] Creating Layer InnerProduct1
I1007 12:33:17.453253  4874 net.cpp:406] InnerProduct1 <- Pooling1
I1007 12:33:17.453256  4874 net.cpp:380] InnerProduct1 -> InnerProduct1
I1007 12:33:17.453367  4874 net.cpp:122] Setting up InnerProduct1
I1007 12:33:17.453372  4874 net.cpp:129] Top shape: 100 10 (1000)
I1007 12:33:17.453374  4874 net.cpp:137] Memory required for data: 682834000
I1007 12:33:17.453378  4874 layer_factory.hpp:77] Creating layer InnerProduct1_InnerProduct1_0_split
I1007 12:33:17.453382  4874 net.cpp:84] Creating Layer InnerProduct1_InnerProduct1_0_split
I1007 12:33:17.453384  4874 net.cpp:406] InnerProduct1_InnerProduct1_0_split <- InnerProduct1
I1007 12:33:17.453387  4874 net.cpp:380] InnerProduct1_InnerProduct1_0_split -> InnerProduct1_InnerProduct1_0_split_0
I1007 12:33:17.453392  4874 net.cpp:380] InnerProduct1_InnerProduct1_0_split -> InnerProduct1_InnerProduct1_0_split_1
I1007 12:33:17.453420  4874 net.cpp:122] Setting up InnerProduct1_InnerProduct1_0_split
I1007 12:33:17.453424  4874 net.cpp:129] Top shape: 100 10 (1000)
I1007 12:33:17.453428  4874 net.cpp:129] Top shape: 100 10 (1000)
I1007 12:33:17.453429  4874 net.cpp:137] Memory required for data: 682842000
I1007 12:33:17.453431  4874 layer_factory.hpp:77] Creating layer SoftmaxWithLoss1
I1007 12:33:17.453436  4874 net.cpp:84] Creating Layer SoftmaxWithLoss1
I1007 12:33:17.453438  4874 net.cpp:406] SoftmaxWithLoss1 <- InnerProduct1_InnerProduct1_0_split_0
I1007 12:33:17.453441  4874 net.cpp:406] SoftmaxWithLoss1 <- Data2_Data1_1_split_0
…
