…
I1006 17:36:08.814357  3702 net.cpp:294] The NetState phase (0) differed from the phase (1) specified by a rule in layer Accuracy1
I1006 17:36:08.815057  3702 net.cpp:51] Initializing net from parameters: 
name: "resnet_cifar10"
state {
  phase: TRAIN
  level: 0
  stage: ""
}
layer {
  name: "Data1"
  type: "Data"
  top: "Data1"
  top: "Data2"
  include {
    phase: TRAIN
  }
  transform_param {
    mirror: true
    crop_size: 28
    mean_file: "/home/x306/caffe/xn/PENLU/data/cifar10/mean.binaryproto"
  }
  data_param {
    source: "/home/x306/caffe/xn/PENLU/data/cifar10/cifar10_train_lmdb"
    batch_size: 100
    backend: LMDB
  }
}
layer {
  name: "Convolution1"
  type: "Convolution"
  bottom: "Data1"
  top: "Convolution1"
  param {
    lr_mult: 1
    decay_mult: 1
  }
  param {
    lr_mult: 2
    decay_mult: 0
  }
  convolution_param {
    num_output: 16
    pad: 1
    kernel_size: 3
    stride: 1
    weight_filler {
      type: "gaussian"
      std: 0.118
    }
    bias_filler {
      type: "constant"
      value: 0
    }
  }
}
layer {
  name: "BatchNorm1"
  type: "BatchNorm"
  bottom: "Convolution1"
  top: "Convolution1"
  param {
    lr_mult: 0
    decay_mult: 0
  }
  param {
    lr_mult: 0
    decay_mult: 0
  }
  param {
    lr_mult: 0
    decay_mult: 0
  }
}
layer {
  name: "Scale1"
  type: "Scale"
  bottom: "Convolution1"
  top: "Convolution1"
  scale_param {
    bias_term: true
  }
}
layer {
  name: "penlu1"
  type: "PENLU"
  bottom: "Convolution1"
  top: "Convolution1"
  param {
    lr_mult: 2
    decay_mult: 2
  }
  param {
    lr_mult: 2
    decay_mult: 2
  }
  param {
    lr_mult: 0
    decay_mult: 0
  }
  penlu_param {
    alpha_filler {
      type: "constant"
      value: 0.25
    }
    beta_filler {
      type: "constant"
      value: 1
    }
    eta_filler {
      type: "constant"
      value: 1
    }
  }
}
layer {
  name: "Convolution2"
  type: "Convolution"
  bottom: "Convolution1"
  top: "Convolution2"
  param {
    lr_mult: 1
    decay_mult: 1
  }
  param {
    lr_mult: 2
    decay_mult: 0
  }
  convolution_param {
    num_output: 16
    pad: 1
    kernel_size: 3
    stride: 1
    weight_filler {
      type: "gaussian"
      std: 0.118
    }
    bias_filler {
      type: "constant"
      value: 0
    }
  }
}
layer {
  name: "BatchNorm2"
  type: "BatchNorm"
  bottom: "Convolution2"
  top: "Convolution2"
  param {
    lr_mult: 0
    decay_mult: 0
  }
  param {
    lr_mult: 0
    decay_mult: 0
  }
  param {
    lr_mult: 0
    decay_mult: 0
  }
}
layer {
  name: "Scale2"
  type: "Scale"
  bottom: "Convolution2"
  top: "Convolution2"
  scale_param {
    bias_term: true
  }
}
layer {
  name: "penlu2"
  type: "PENLU"
  bottom: "Convolution2"
  top: "Convolution2"
  param {
    lr_mult: 2
    decay_mult: 2
  }
  param {
    lr_mult: 2
    decay_mult: 2
  }
  param {
    lr_mult: 0
    decay_mult: 0
  }
  penlu_param {
    alpha_filler {
      type: "constant"
      value: 0.25
    }
    beta_filler {
      type: "constant"
      value: 1
    }
    eta_filler {
      type: "constant"
      value: 1
    }
  }
}
layer {
  name: "Convolution3"
  type: "Convolution"
  bottom: "Convolution2"
  top: "Convolution3"
  param {
    lr_mult: 1
    decay_mult: 1
  }
  param {
    lr_mult: 2
    decay_mult: 0
  }
  convolution_param {
    num_output: 16
    pad: 1
    kernel_size: 3
    stride: 1
    weight_filler {
      type: "gaussian"
      std: 0.118
    }
    bias_filler {
      type: "constant"
      value: 0
    }
  }
}
layer {
  name: "BatchNorm3"
  type: "BatchNorm"
  bottom: "Convolution3"
  top: "Convolution3"
  param {
    lr_mult: 0
    decay_mult: 0
  }
  param {
    lr_mult: 0
    decay_mult: 0
  }
  param {
    lr_mult: 0
    decay_mult: 0
  }
}
layer {
  name: "Scale3"
  type: "Scale"
  bottom: "Convolution3"
  top: "Convolution3"
  scale_param {
    bias_term: true
  }
}
layer {
  name: "Eltwise1"
  type: "Eltwise"
  bottom: "Convolution1"
  bottom: "Convolution3"
  top: "Eltwise1"
  eltwise_param {
    operation: SUM
  }
}
layer {
  name: "penlu3"
  type: "PENLU"
  bottom: "Eltwise1"
  top: "Eltwise1"
  param {
    lr_mult: 2
    decay_mult: 2
  }
  param {
    lr_mult: 2
    decay_mult: 2
  }
  param {
    lr_mult: 0
    decay_mult: 0
  }
  penlu_param {
    alpha_filler {
      type: "constant"
      value: 0.25
    }
    beta_filler {
      type: "constant"
      value: 1
    }
    eta_filler {
      type: "constant"
      value: 1
    }
  }
}
layer {
  name: "Convolution4"
  type: "Convolution"
  bottom: "Eltwise1"
  top: "Convolution4"
  param {
    lr_mult: 1
    decay_mult: 1
  }
  param {
    lr_mult: 2
    decay_mult: 0
  }
  convolution_param {
    num_output: 16
    pad: 1
    kernel_size: 3
    stride: 1
    weight_filler {
      type: "gaussian"
      std: 0.118
    }
    bias_filler {
      type: "constant"
      value: 0
    }
  }
}
layer {
  name: "BatchNorm4"
  type: "BatchNorm"
  bottom: "Convolution4"
  top: "Convolution4"
  param {
    lr_mult: 0
    decay_mult: 0
  }
  param {
    lr_mult: 0
    decay_mult: 0
  }
  param {
    lr_mult: 0
    decay_mult: 0
  }
}
layer {
  name: "Scale4"
  type: "Scale"
  bottom: "Convolution4"
  top: "Convolution4"
  scale_param {
    bias_term: true
  }
}
layer {
  name: "penlu4"
  type: "PENLU"
  bottom: "Convolution4"
  top: "Convolution4"
  param {
    lr_mult: 2
    decay_mult: 2
  }
  param {
    lr_mult: 2
    decay_mult: 2
  }
  param {
    lr_mult: 0
    decay_mult: 0
  }
  penlu_param {
    alpha_filler {
      type: "constant"
      value: 0.25
    }
    beta_filler {
      type: "constant"
      value: 1
    }
    eta_filler {
      type: "constant"
      value: 1
    }
  }
}
layer {
  name: "Convolution5"
  type: "Convolution"
  bottom: "Convolution4"
  top: "Convolution5"
  param {
    lr_mult: 1
    decay_mult: 1
  }
  param {
    lr_mult: 2
    decay_mult: 0
  }
  convolution_param {
    num_output: 16
    pad: 1
    kernel_size: 3
    stride: 1
    weight_filler {
      type: "gaussian"
      std: 0.118
    }
    bias_filler {
      type: "constant"
      value: 0
    }
  }
}
layer {
  name: "BatchNorm5"
  type: "BatchNorm"
  bottom: "Convolution5"
  top: "Convolution5"
  param {
    lr_mult: 0
    decay_mult: 0
  }
  param {
    lr_mult: 0
    decay_mult: 0
  }
  param {
    lr_mult: 0
    decay_mult: 0
  }
}
layer {
  name: "Scale5"
  type: "Scale"
  bottom: "Convolution5"
  top: "Convolution5"
  scale_param {
    bias_term: true
  }
}
layer {
  name: "Eltwise2"
  type: "Eltwise"
  bottom: "Eltwise1"
  bottom: "Convolution5"
  top: "Eltwise2"
  eltwise_param {
    operation: SUM
  }
}
layer {
  name: "penlu5"
  type: "PENLU"
  bottom: "Eltwise2"
  top: "Eltwise2"
  param {
    lr_mult: 2
    decay_mult: 2
  }
  param {
    lr_mult: 2
    decay_mult: 2
  }
  param {
    lr_mult: 0
    decay_mult: 0
  }
  penlu_param {
    alpha_filler {
      type: "constant"
      value: 0.25
    }
    beta_filler {
      type: "constant"
      value: 1
    }
    eta_filler {
      type: "constant"
      value: 1
    }
  }
}
layer {
  name: "Convolution6"
  type: "Convolution"
  bottom: "Eltwise2"
  top: "Convolution6"
  param {
    lr_mult: 1
    decay_mult: 1
  }
  param {
    lr_mult: 2
    decay_mult: 0
  }
  convolution_param {
    num_output: 16
    pad: 1
    kernel_size: 3
    stride: 1
    weight_filler {
      type: "gaussian"
      std: 0.118
    }
    bias_filler {
      type: "constant"
      value: 0
    }
  }
}
layer {
  name: "BatchNorm6"
  type: "BatchNorm"
  bottom: "Convolution6"
  top: "Convolution6"
  param {
    lr_mult: 0
    decay_mult: 0
  }
  param {
    lr_mult: 0
    decay_mult: 0
  }
  param {
    lr_mult: 0
    decay_mult: 0
  }
}
layer {
  name: "Scale6"
  type: "Scale"
  bottom: "Convolution6"
  top: "Convolution6"
  scale_param {
    bias_term: true
  }
}
layer {
  name: "penlu6"
  type: "PENLU"
  bottom: "Convolution6"
  top: "Convolution6"
  param {
    lr_mult: 2
    decay_mult: 2
  }
  param {
    lr_mult: 2
    decay_mult: 2
  }
  param {
    lr_mult: 0
    decay_mult: 0
  }
  penlu_param {
    alpha_filler {
      type: "constant"
      value: 0.25
    }
    beta_filler {
      type: "constant"
      value: 1
    }
    eta_filler {
      type: "constant"
      value: 1
    }
  }
}
layer {
  name: "Convolution7"
  type: "Convolution"
  bottom: "Convolution6"
  top: "Convolution7"
  param {
    lr_mult: 1
    decay_mult: 1
  }
  param {
    lr_mult: 2
    decay_mult: 0
  }
  convolution_param {
    num_output: 16
    pad: 1
    kernel_size: 3
    stride: 1
    weight_filler {
      type: "gaussian"
      std: 0.118
    }
    bias_filler {
      type: "constant"
      value: 0
    }
  }
}
layer {
  name: "BatchNorm7"
  type: "BatchNorm"
  bottom: "Convolution7"
  top: "Convolution7"
  param {
    lr_mult: 0
    decay_mult: 0
  }
  param {
    lr_mult: 0
    decay_mult: 0
  }
  param {
    lr_mult: 0
    decay_mult: 0
  }
}
layer {
  name: "Scale7"
  type: "Scale"
  bottom: "Convolution7"
  top: "Convolution7"
  scale_param {
    bias_term: true
  }
}
layer {
  name: "Eltwise3"
  type: "Eltwise"
  bottom: "Eltwise2"
  bottom: "Convolution7"
  top: "Eltwise3"
  eltwise_param {
    operation: SUM
  }
}
layer {
  name: "penlu7"
  type: "PENLU"
  bottom: "Eltwise3"
  top: "Eltwise3"
  param {
    lr_mult: 2
    decay_mult: 2
  }
  param {
    lr_mult: 2
    decay_mult: 2
  }
  param {
    lr_mult: 0
    decay_mult: 0
  }
  penlu_param {
    alpha_filler {
      type: "constant"
      value: 0.25
    }
    beta_filler {
      type: "constant"
      value: 1
    }
    eta_filler {
      type: "constant"
      value: 1
    }
  }
}
layer {
  name: "Convolution8"
  type: "Convolution"
  bottom: "Eltwise3"
  top: "Convolution8"
  param {
    lr_mult: 1
    decay_mult: 1
  }
  param {
    lr_mult: 2
    decay_mult: 0
  }
  convolution_param {
    num_output: 16
    pad: 1
    kernel_size: 3
    stride: 1
    weight_filler {
      type: "gaussian"
      std: 0.118
    }
    bias_filler {
      type: "constant"
      value: 0
    }
  }
}
layer {
  name: "BatchNorm8"
  type: "BatchNorm"
  bottom: "Convolution8"
  top: "Convolution8"
  param {
    lr_mult: 0
    decay_mult: 0
  }
  param {
    lr_mult: 0
    decay_mult: 0
  }
  param {
    lr_mult: 0
    decay_mult: 0
  }
}
layer {
  name: "Scale8"
  type: "Scale"
  bottom: "Convolution8"
  top: "Convolution8"
  scale_param {
    bias_term: true
  }
}
layer {
  name: "penlu8"
  type: "PENLU"
  bottom: "Convolution8"
  top: "Convolution8"
  param {
    lr_mult: 2
    decay_mult: 2
  }
  param {
    lr_mult: 2
    decay_mult: 2
  }
  param {
    lr_mult: 0
    decay_mult: 0
  }
  penlu_param {
    alpha_filler {
      type: "constant"
      value: 0.25
    }
    beta_filler {
      type: "constant"
      value: 1
    }
    eta_filler {
      type: "constant"
      value: 1
    }
  }
}
layer {
  name: "Convolution9"
  type: "Convolution"
  bottom: "Convolution8"
  top: "Convolution9"
  param {
    lr_mult: 1
    decay_mult: 1
  }
  param {
    lr_mult: 2
    decay_mult: 0
  }
  convolution_param {
    num_output: 16
    pad: 1
    kernel_size: 3
    stride: 1
    weight_filler {
      type: "gaussian"
      std: 0.118
    }
    bias_filler {
      type: "constant"
      value: 0
    }
  }
}
layer {
  name: "BatchNorm9"
  type: "BatchNorm"
  bottom: "Convolution9"
  top: "Convolution9"
  param {
    lr_mult: 0
    decay_mult: 0
  }
  param {
    lr_mult: 0
    decay_mult: 0
  }
  param {
    lr_mult: 0
    decay_mult: 0
  }
}
layer {
  name: "Scale9"
  type: "Scale"
  bottom: "Convolution9"
  top: "Convolution9"
  scale_param {
    bias_term: true
  }
}
layer {
  name: "Eltwise4"
  type: "Eltwise"
  bottom: "Eltwise3"
  bottom: "Convolution9"
  top: "Eltwise4"
  eltwise_param {
    operation: SUM
  }
}
layer {
  name: "penlu9"
  type: "PENLU"
  bottom: "Eltwise4"
  top: "Eltwise4"
  param {
    lr_mult: 2
    decay_mult: 2
  }
  param {
    lr_mult: 2
    decay_mult: 2
  }
  param {
    lr_mult: 0
    decay_mult: 0
  }
  penlu_param {
    alpha_filler {
      type: "constant"
      value: 0.25
    }
    beta_filler {
      type: "constant"
      value: 1
    }
    eta_filler {
      type: "constant"
      value: 1
    }
  }
}
layer {
  name: "Convolution10"
  type: "Convolution"
  bottom: "Eltwise4"
  top: "Convolution10"
  param {
    lr_mult: 1
    decay_mult: 1
  }
  param {
    lr_mult: 2
    decay_mult: 0
  }
  convolution_param {
    num_output: 16
    pad: 1
    kernel_size: 3
    stride: 1
    weight_filler {
      type: "gaussian"
      std: 0.118
    }
    bias_filler {
      type: "constant"
      value: 0
    }
  }
}
layer {
  name: "BatchNorm10"
  type: "BatchNorm"
  bottom: "Convolution10"
  top: "Convolution10"
  param {
    lr_mult: 0
    decay_mult: 0
  }
  param {
    lr_mult: 0
    decay_mult: 0
  }
  param {
    lr_mult: 0
    decay_mult: 0
  }
}
layer {
  name: "Scale10"
  type: "Scale"
  bottom: "Convolution10"
  top: "Convolution10"
  scale_param {
    bias_term: true
  }
}
layer {
  name: "penlu10"
  type: "PENLU"
  bottom: "Convolution10"
  top: "Convolution10"
  param {
    lr_mult: 2
    decay_mult: 2
  }
  param {
    lr_mult: 2
    decay_mult: 2
  }
  param {
    lr_mult: 0
    decay_mult: 0
  }
  penlu_param {
    alpha_filler {
      type: "constant"
      value: 0.25
    }
    beta_filler {
      type: "constant"
      value: 1
    }
    eta_filler {
      type: "constant"
      value: 1
    }
  }
}
layer {
  name: "Convolution11"
  type: "Convolution"
  bottom: "Convolution10"
  top: "Convolution11"
  param {
    lr_mult: 1
    decay_mult: 1
  }
  param {
    lr_mult: 2
    decay_mult: 0
  }
  convolution_param {
    num_output: 16
    pad: 1
    kernel_size: 3
    stride: 1
    weight_filler {
      type: "gaussian"
      std: 0.118
    }
    bias_filler {
      type: "constant"
      value: 0
    }
  }
}
layer {
  name: "BatchNorm11"
  type: "BatchNorm"
  bottom: "Convolution11"
  top: "Convolution11"
  param {
    lr_mult: 0
    decay_mult: 0
  }
  param {
    lr_mult: 0
    decay_mult: 0
  }
  param {
    lr_mult: 0
    decay_mult: 0
  }
}
layer {
  name: "Scale11"
  type: "Scale"
  bottom: "Convolution11"
  top: "Convolution11"
  scale_param {
    bias_term: true
  }
}
layer {
  name: "Eltwise5"
  type: "Eltwise"
  bottom: "Eltwise4"
  bottom: "Convolution11"
  top: "Eltwise5"
  eltwise_param {
    operation: SUM
  }
}
layer {
  name: "penlu11"
  type: "PENLU"
  bottom: "Eltwise5"
  top: "Eltwise5"
  param {
    lr_mult: 2
    decay_mult: 2
  }
  param {
    lr_mult: 2
    decay_mult: 2
  }
  param {
    lr_mult: 0
    decay_mult: 0
  }
  penlu_param {
    alpha_filler {
      type: "constant"
      value: 0.25
    }
    beta_filler {
      type: "constant"
      value: 1
    }
    eta_filler {
      type: "constant"
      value: 1
    }
  }
}
layer {
  name: "Convolution12"
  type: "Convolution"
  bottom: "Eltwise5"
  top: "Convolution12"
  param {
    lr_mult: 1
    decay_mult: 1
  }
  param {
    lr_mult: 2
    decay_mult: 0
  }
  convolution_param {
    num_output: 32
    pad: 0
    kernel_size: 1
    stride: 2
    weight_filler {
      type: "gaussian"
      std: 0.25
    }
    bias_filler {
      type: "constant"
      value: 0
    }
  }
}
layer {
  name: "BatchNorm12"
  type: "BatchNorm"
  bottom: "Convolution12"
  top: "Convolution12"
  param {
    lr_mult: 0
    decay_mult: 0
  }
  param {
    lr_mult: 0
    decay_mult: 0
  }
  param {
    lr_mult: 0
    decay_mult: 0
  }
}
layer {
  name: "Scale12"
  type: "Scale"
  bottom: "Convolution12"
  top: "Convolution12"
  scale_param {
    bias_term: true
  }
}
layer {
  name: "Convolution13"
  type: "Convolution"
  bottom: "Eltwise5"
  top: "Convolution13"
  param {
    lr_mult: 1
    decay_mult: 1
  }
  param {
    lr_mult: 2
    decay_mult: 0
  }
  convolution_param {
    num_output: 32
    pad: 1
    kernel_size: 3
    stride: 2
    weight_filler {
      type: "gaussian"
      std: 0.083
    }
    bias_filler {
      type: "constant"
      value: 0
    }
  }
}
layer {
  name: "BatchNorm13"
  type: "BatchNorm"
  bottom: "Convolution13"
  top: "Convolution13"
  param {
    lr_mult: 0
    decay_mult: 0
  }
  param {
    lr_mult: 0
    decay_mult: 0
  }
  param {
    lr_mult: 0
    decay_mult: 0
  }
}
layer {
  name: "Scale13"
  type: "Scale"
  bottom: "Convolution13"
  top: "Convolution13"
  scale_param {
    bias_term: true
  }
}
layer {
  name: "penlu12"
  type: "PENLU"
  bottom: "Convolution13"
  top: "Convolution13"
  param {
    lr_mult: 2
    decay_mult: 2
  }
  param {
    lr_mult: 2
    decay_mult: 2
  }
  param {
    lr_mult: 0
    decay_mult: 0
  }
  penlu_param {
    alpha_filler {
      type: "constant"
      value: 0.25
    }
    beta_filler {
      type: "constant"
      value: 1
    }
    eta_filler {
      type: "constant"
      value: 1
    }
  }
}
layer {
  name: "Convolution14"
  type: "Convolution"
  bottom: "Convolution13"
  top: "Convolution14"
  param {
    lr_mult: 1
    decay_mult: 1
  }
  param {
    lr_mult: 2
    decay_mult: 0
  }
  convolution_param {
    num_output: 32
    pad: 1
    kernel_size: 3
    stride: 1
    weight_filler {
      type: "gaussian"
      std: 0.083
    }
    bias_filler {
      type: "constant"
      value: 0
    }
  }
}
layer {
  name: "BatchNorm14"
  type: "BatchNorm"
  bottom: "Convolution14"
  top: "Convolution14"
  param {
    lr_mult: 0
    decay_mult: 0
  }
  param {
    lr_mult: 0
    decay_mult: 0
  }
  param {
    lr_mult: 0
    decay_mult: 0
  }
}
layer {
  name: "Scale14"
  type: "Scale"
  bottom: "Convolution14"
  top: "Convolution14"
  scale_param {
    bias_term: true
  }
}
layer {
  name: "Eltwise6"
  type: "Eltwise"
  bottom: "Convolution12"
  bottom: "Convolution14"
  top: "Eltwise6"
  eltwise_param {
    operation: SUM
  }
}
layer {
  name: "penlu13"
  type: "PENLU"
  bottom: "Eltwise6"
  top: "Eltwise6"
  param {
    lr_mult: 2
    decay_mult: 2
  }
  param {
    lr_mult: 2
    decay_mult: 2
  }
  param {
    lr_mult: 0
    decay_mult: 0
  }
  penlu_param {
    alpha_filler {
      type: "constant"
      value: 0.25
    }
    beta_filler {
      type: "constant"
      value: 1
    }
    eta_filler {
      type: "constant"
      value: 1
    }
  }
}
layer {
  name: "Convolution15"
  type: "Convolution"
  bottom: "Eltwise6"
  top: "Convolution15"
  param {
    lr_mult: 1
    decay_mult: 1
  }
  param {
    lr_mult: 2
    decay_mult: 0
  }
  convolution_param {
    num_output: 32
    pad: 1
    kernel_size: 3
    stride: 1
    weight_filler {
      type: "gaussian"
      std: 0.083
    }
    bias_filler {
      type: "constant"
      value: 0
    }
  }
}
layer {
  name: "BatchNorm15"
  type: "BatchNorm"
  bottom: "Convolution15"
  top: "Convolution15"
  param {
    lr_mult: 0
    decay_mult: 0
  }
  param {
    lr_mult: 0
    decay_mult: 0
  }
  param {
    lr_mult: 0
    decay_mult: 0
  }
}
layer {
  name: "Scale15"
  type: "Scale"
  bottom: "Convolution15"
  top: "Convolution15"
  scale_param {
    bias_term: true
  }
}
layer {
  name: "penlu14"
  type: "PENLU"
  bottom: "Convolution15"
  top: "Convolution15"
  param {
    lr_mult: 2
    decay_mult: 2
  }
  param {
    lr_mult: 2
    decay_mult: 2
  }
  param {
    lr_mult: 0
    decay_mult: 0
  }
  penlu_param {
    alpha_filler {
      type: "constant"
      value: 0.25
    }
    beta_filler {
      type: "constant"
      value: 1
    }
    eta_filler {
      type: "constant"
      value: 1
    }
  }
}
layer {
  name: "Convolution16"
  type: "Convolution"
  bottom: "Convolution15"
  top: "Convolution16"
  param {
    lr_mult: 1
    decay_mult: 1
  }
  param {
    lr_mult: 2
    decay_mult: 0
  }
  convolution_param {
    num_output: 32
    pad: 1
    kernel_size: 3
    stride: 1
    weight_filler {
      type: "gaussian"
      std: 0.083
    }
    bias_filler {
      type: "constant"
      value: 0
    }
  }
}
layer {
  name: "BatchNorm16"
  type: "BatchNorm"
  bottom: "Convolution16"
  top: "Convolution16"
  param {
    lr_mult: 0
    decay_mult: 0
  }
  param {
    lr_mult: 0
    decay_mult: 0
  }
  param {
    lr_mult: 0
    decay_mult: 0
  }
}
layer {
  name: "Scale16"
  type: "Scale"
  bottom: "Convolution16"
  top: "Convolution16"
  scale_param {
    bias_term: true
  }
}
layer {
  name: "Eltwise7"
  type: "Eltwise"
  bottom: "Eltwise6"
  bottom: "Convolution16"
  top: "Eltwise7"
  eltwise_param {
    operation: SUM
  }
}
layer {
  name: "penlu15"
  type: "PENLU"
  bottom: "Eltwise7"
  top: "Eltwise7"
  param {
    lr_mult: 2
    decay_mult: 2
  }
  param {
    lr_mult: 2
    decay_mult: 2
  }
  param {
    lr_mult: 0
    decay_mult: 0
  }
  penlu_param {
    alpha_filler {
      type: "constant"
      value: 0.25
    }
    beta_filler {
      type: "constant"
      value: 1
    }
    eta_filler {
      type: "constant"
      value: 1
    }
  }
}
layer {
  name: "Convolution17"
  type: "Convolution"
  bottom: "Eltwise7"
  top: "Convolution17"
  param {
    lr_mult: 1
    decay_mult: 1
  }
  param {
    lr_mult: 2
    decay_mult: 0
  }
  convolution_param {
    num_output: 32
    pad: 1
    kernel_size: 3
    stride: 1
    weight_filler {
      type: "gaussian"
      std: 0.083
    }
    bias_filler {
      type: "constant"
      value: 0
    }
  }
}
layer {
  name: "BatchNorm17"
  type: "BatchNorm"
  bottom: "Convolution17"
  top: "Convolution17"
  param {
    lr_mult: 0
    decay_mult: 0
  }
  param {
    lr_mult: 0
    decay_mult: 0
  }
  param {
    lr_mult: 0
    decay_mult: 0
  }
}
layer {
  name: "Scale17"
  type: "Scale"
  bottom: "Convolution17"
  top: "Convolution17"
  scale_param {
    bias_term: true
  }
}
layer {
  name: "penlu16"
  type: "PENLU"
  bottom: "Convolution17"
  top: "Convolution17"
  param {
    lr_mult: 2
    decay_mult: 2
  }
  param {
    lr_mult: 2
    decay_mult: 2
  }
  param {
    lr_mult: 0
    decay_mult: 0
  }
  penlu_param {
    alpha_filler {
      type: "constant"
      value: 0.25
    }
    beta_filler {
      type: "constant"
      value: 1
    }
    eta_filler {
      type: "constant"
      value: 1
    }
  }
}
layer {
  name: "Convolution18"
  type: "Convolution"
  bottom: "Convolution17"
  top: "Convolution18"
  param {
    lr_mult: 1
    decay_mult: 1
  }
  param {
    lr_mult: 2
    decay_mult: 0
  }
  convolution_param {
    num_output: 32
    pad: 1
    kernel_size: 3
    stride: 1
    weight_filler {
      type: "gaussian"
      std: 0.083
    }
    bias_filler {
      type: "constant"
      value: 0
    }
  }
}
layer {
  name: "BatchNorm18"
  type: "BatchNorm"
  bottom: "Convolution18"
  top: "Convolution18"
  param {
    lr_mult: 0
    decay_mult: 0
  }
  param {
    lr_mult: 0
    decay_mult: 0
  }
  param {
    lr_mult: 0
    decay_mult: 0
  }
}
layer {
  name: "Scale18"
  type: "Scale"
  bottom: "Convolution18"
  top: "Convolution18"
  scale_param {
    bias_term: true
  }
}
layer {
  name: "Eltwise8"
  type: "Eltwise"
  bottom: "Eltwise7"
  bottom: "Convolution18"
  top: "Eltwise8"
  eltwise_param {
    operation: SUM
  }
}
layer {
  name: "penlu17"
  type: "PENLU"
  bottom: "Eltwise8"
  top: "Eltwise8"
  param {
    lr_mult: 2
    decay_mult: 2
  }
  param {
    lr_mult: 2
    decay_mult: 2
  }
  param {
    lr_mult: 0
    decay_mult: 0
  }
  penlu_param {
    alpha_filler {
      type: "constant"
      value: 0.25
    }
    beta_filler {
      type: "constant"
      value: 1
    }
    eta_filler {
      type: "constant"
      value: 1
    }
  }
}
layer {
  name: "Convolution19"
  type: "Convolution"
  bottom: "Eltwise8"
  top: "Convolution19"
  param {
    lr_mult: 1
    decay_mult: 1
  }
  param {
    lr_mult: 2
    decay_mult: 0
  }
  convolution_param {
    num_output: 32
    pad: 1
    kernel_size: 3
    stride: 1
    weight_filler {
      type: "gaussian"
      std: 0.083
    }
    bias_filler {
      type: "constant"
      value: 0
    }
  }
}
layer {
  name: "BatchNorm19"
  type: "BatchNorm"
  bottom: "Convolution19"
  top: "Convolution19"
  param {
    lr_mult: 0
    decay_mult: 0
  }
  param {
    lr_mult: 0
    decay_mult: 0
  }
  param {
    lr_mult: 0
    decay_mult: 0
  }
}
layer {
  name: "Scale19"
  type: "Scale"
  bottom: "Convolution19"
  top: "Convolution19"
  scale_param {
    bias_term: true
  }
}
layer {
  name: "penlu18"
  type: "PENLU"
  bottom: "Convolution19"
  top: "Convolution19"
  param {
    lr_mult: 2
    decay_mult: 2
  }
  param {
    lr_mult: 2
    decay_mult: 2
  }
  param {
    lr_mult: 0
    decay_mult: 0
  }
  penlu_param {
    alpha_filler {
      type: "constant"
      value: 0.25
    }
    beta_filler {
      type: "constant"
      value: 1
    }
    eta_filler {
      type: "constant"
      value: 1
    }
  }
}
layer {
  name: "Convolution20"
  type: "Convolution"
  bottom: "Convolution19"
  top: "Convolution20"
  param {
    lr_mult: 1
    decay_mult: 1
  }
  param {
    lr_mult: 2
    decay_mult: 0
  }
  convolution_param {
    num_output: 32
    pad: 1
    kernel_size: 3
    stride: 1
    weight_filler {
      type: "gaussian"
      std: 0.083
    }
    bias_filler {
      type: "constant"
      value: 0
    }
  }
}
layer {
  name: "BatchNorm20"
  type: "BatchNorm"
  bottom: "Convolution20"
  top: "Convolution20"
  param {
    lr_mult: 0
    decay_mult: 0
  }
  param {
    lr_mult: 0
    decay_mult: 0
  }
  param {
    lr_mult: 0
    decay_mult: 0
  }
}
layer {
  name: "Scale20"
  type: "Scale"
  bottom: "Convolution20"
  top: "Convolution20"
  scale_param {
    bias_term: true
  }
}
layer {
  name: "Eltwise9"
  type: "Eltwise"
  bottom: "Eltwise8"
  bottom: "Convolution20"
  top: "Eltwise9"
  eltwise_param {
    operation: SUM
  }
}
layer {
  name: "penlu19"
  type: "PENLU"
  bottom: "Eltwise9"
  top: "Eltwise9"
  param {
    lr_mult: 2
    decay_mult: 2
  }
  param {
    lr_mult: 2
    decay_mult: 2
  }
  param {
    lr_mult: 0
    decay_mult: 0
  }
  penlu_param {
    alpha_filler {
      type: "constant"
      value: 0.25
    }
    beta_filler {
      type: "constant"
      value: 1
    }
    eta_filler {
      type: "constant"
      value: 1
    }
  }
}
layer {
  name: "Convolution21"
  type: "Convolution"
  bottom: "Eltwise9"
  top: "Convolution21"
  param {
    lr_mult: 1
    decay_mult: 1
  }
  param {
    lr_mult: 2
    decay_mult: 0
  }
  convolution_param {
    num_output: 32
    pad: 1
    kernel_size: 3
    stride: 1
    weight_filler {
      type: "gaussian"
      std: 0.083
    }
    bias_filler {
      type: "constant"
      value: 0
    }
  }
}
layer {
  name: "BatchNorm21"
  type: "BatchNorm"
  bottom: "Convolution21"
  top: "Convolution21"
  param {
    lr_mult: 0
    decay_mult: 0
  }
  param {
    lr_mult: 0
    decay_mult: 0
  }
  param {
    lr_mult: 0
    decay_mult: 0
  }
}
layer {
  name: "Scale21"
  type: "Scale"
  bottom: "Convolution21"
  top: "Convolution21"
  scale_param {
    bias_term: true
  }
}
layer {
  name: "penlu20"
  type: "PENLU"
  bottom: "Convolution21"
  top: "Convolution21"
  param {
    lr_mult: 2
    decay_mult: 2
  }
  param {
    lr_mult: 2
    decay_mult: 2
  }
  param {
    lr_mult: 0
    decay_mult: 0
  }
  penlu_param {
    alpha_filler {
      type: "constant"
      value: 0.25
    }
    beta_filler {
      type: "constant"
      value: 1
    }
    eta_filler {
      type: "constant"
      value: 1
    }
  }
}
layer {
  name: "Convolution22"
  type: "Convolution"
  bottom: "Convolution21"
  top: "Convolution22"
  param {
    lr_mult: 1
    decay_mult: 1
  }
  param {
    lr_mult: 2
    decay_mult: 0
  }
  convolution_param {
    num_output: 32
    pad: 1
    kernel_size: 3
    stride: 1
    weight_filler {
      type: "gaussian"
      std: 0.083
    }
    bias_filler {
      type: "constant"
      value: 0
    }
  }
}
layer {
  name: "BatchNorm22"
  type: "BatchNorm"
  bottom: "Convolution22"
  top: "Convolution22"
  param {
    lr_mult: 0
    decay_mult: 0
  }
  param {
    lr_mult: 0
    decay_mult: 0
  }
  param {
    lr_mult: 0
    decay_mult: 0
  }
}
layer {
  name: "Scale22"
  type: "Scale"
  bottom: "Convolution22"
  top: "Convolution22"
  scale_param {
    bias_term: true
  }
}
layer {
  name: "Eltwise10"
  type: "Eltwise"
  bottom: "Eltwise9"
  bottom: "Convolution22"
  top: "Eltwise10"
  eltwise_param {
    operation: SUM
  }
}
layer {
  name: "penlu21"
  type: "PENLU"
  bottom: "Eltwise10"
  top: "Eltwise10"
  param {
    lr_mult: 2
    decay_mult: 2
  }
  param {
    lr_mult: 2
    decay_mult: 2
  }
  param {
    lr_mult: 0
    decay_mult: 0
  }
  penlu_param {
    alpha_filler {
      type: "constant"
      value: 0.25
    }
    beta_filler {
      type: "constant"
      value: 1
    }
    eta_filler {
      type: "constant"
      value: 1
    }
  }
}
layer {
  name: "Convolution23"
  type: "Convolution"
  bottom: "Eltwise10"
  top: "Convolution23"
  param {
    lr_mult: 1
    decay_mult: 1
  }
  param {
    lr_mult: 2
    decay_mult: 0
  }
  convolution_param {
    num_output: 64
    pad: 0
    kernel_size: 1
    stride: 2
    weight_filler {
      type: "gaussian"
      std: 0.17677669
    }
    bias_filler {
      type: "constant"
      value: 0
    }
  }
}
layer {
  name: "BatchNorm23"
  type: "BatchNorm"
  bottom: "Convolution23"
  top: "Convolution23"
  param {
    lr_mult: 0
    decay_mult: 0
  }
  param {
    lr_mult: 0
    decay_mult: 0
  }
  param {
    lr_mult: 0
    decay_mult: 0
  }
}
layer {
  name: "Scale23"
  type: "Scale"
  bottom: "Convolution23"
  top: "Convolution23"
  scale_param {
    bias_term: true
  }
}
layer {
  name: "Convolution24"
  type: "Convolution"
  bottom: "Eltwise10"
  top: "Convolution24"
  param {
    lr_mult: 1
    decay_mult: 1
  }
  param {
    lr_mult: 2
    decay_mult: 0
  }
  convolution_param {
    num_output: 64
    pad: 1
    kernel_size: 3
    stride: 2
    weight_filler {
      type: "gaussian"
      std: 0.059
    }
    bias_filler {
      type: "constant"
      value: 0
    }
  }
}
layer {
  name: "BatchNorm24"
  type: "BatchNorm"
  bottom: "Convolution24"
  top: "Convolution24"
  param {
    lr_mult: 0
    decay_mult: 0
  }
  param {
    lr_mult: 0
    decay_mult: 0
  }
  param {
    lr_mult: 0
    decay_mult: 0
  }
}
layer {
  name: "Scale24"
  type: "Scale"
  bottom: 
I1006 17:36:08.815500  3702 layer_factory.hpp:77] Creating layer Data1
I1006 17:36:08.815575  3702 db_lmdb.cpp:35] Opened lmdb /home/x306/caffe/xn/PENLU/data/cifar10/cifar10_train_lmdb
I1006 17:36:08.815594  3702 net.cpp:84] Creating Layer Data1
I1006 17:36:08.815599  3702 net.cpp:380] Data1 -> Data1
I1006 17:36:08.815618  3702 net.cpp:380] Data1 -> Data2
I1006 17:36:08.815625  3702 data_transformer.cpp:25] Loading mean file from: /home/x306/caffe/xn/PENLU/data/cifar10/mean.binaryproto
I1006 17:36:08.817018  3702 data_layer.cpp:45] output data size: 100,3,28,28
I1006 17:36:08.819252  3702 net.cpp:122] Setting up Data1
I1006 17:36:08.819264  3702 net.cpp:129] Top shape: 100 3 28 28 (235200)
I1006 17:36:08.819268  3702 net.cpp:129] Top shape: 100 (100)
I1006 17:36:08.819270  3702 net.cpp:137] Memory required for data: 941200
I1006 17:36:08.819277  3702 layer_factory.hpp:77] Creating layer Convolution1
I1006 17:36:08.819294  3702 net.cpp:84] Creating Layer Convolution1
I1006 17:36:08.819298  3702 net.cpp:406] Convolution1 <- Data1
I1006 17:36:08.819308  3702 net.cpp:380] Convolution1 -> Convolution1
I1006 17:36:08.965800  3702 net.cpp:122] Setting up Convolution1
I1006 17:36:08.965836  3702 net.cpp:129] Top shape: 100 16 28 28 (1254400)
I1006 17:36:08.965839  3702 net.cpp:137] Memory required for data: 5958800
I1006 17:36:08.965863  3702 layer_factory.hpp:77] Creating layer BatchNorm1
I1006 17:36:08.965878  3702 net.cpp:84] Creating Layer BatchNorm1
I1006 17:36:08.965903  3702 net.cpp:406] BatchNorm1 <- Convolution1
I1006 17:36:08.965916  3702 net.cpp:367] BatchNorm1 -> Convolution1 (in-place)
I1006 17:36:08.966080  3702 net.cpp:122] Setting up BatchNorm1
I1006 17:36:08.966086  3702 net.cpp:129] Top shape: 100 16 28 28 (1254400)
I1006 17:36:08.966099  3702 net.cpp:137] Memory required for data: 10976400
I1006 17:36:08.966106  3702 layer_factory.hpp:77] Creating layer Scale1
I1006 17:36:08.966125  3702 net.cpp:84] Creating Layer Scale1
I1006 17:36:08.966128  3702 net.cpp:406] Scale1 <- Convolution1
I1006 17:36:08.966131  3702 net.cpp:367] Scale1 -> Convolution1 (in-place)
I1006 17:36:08.966179  3702 layer_factory.hpp:77] Creating layer Scale1
I1006 17:36:08.966300  3702 net.cpp:122] Setting up Scale1
I1006 17:36:08.966305  3702 net.cpp:129] Top shape: 100 16 28 28 (1254400)
I1006 17:36:08.966308  3702 net.cpp:137] Memory required for data: 15994000
I1006 17:36:08.966312  3702 layer_factory.hpp:77] Creating layer penlu1
I1006 17:36:08.966321  3702 net.cpp:84] Creating Layer penlu1
I1006 17:36:08.966323  3702 net.cpp:406] penlu1 <- Convolution1
I1006 17:36:08.966336  3702 net.cpp:367] penlu1 -> Convolution1 (in-place)
I1006 17:36:08.966964  3702 net.cpp:122] Setting up penlu1
I1006 17:36:08.966974  3702 net.cpp:129] Top shape: 100 16 28 28 (1254400)
I1006 17:36:08.966976  3702 net.cpp:137] Memory required for data: 21011600
I1006 17:36:08.966982  3702 layer_factory.hpp:77] Creating layer Convolution1_penlu1_0_split
I1006 17:36:08.966989  3702 net.cpp:84] Creating Layer Convolution1_penlu1_0_split
I1006 17:36:08.966990  3702 net.cpp:406] Convolution1_penlu1_0_split <- Convolution1
I1006 17:36:08.967003  3702 net.cpp:380] Convolution1_penlu1_0_split -> Convolution1_penlu1_0_split_0
I1006 17:36:08.967010  3702 net.cpp:380] Convolution1_penlu1_0_split -> Convolution1_penlu1_0_split_1
I1006 17:36:08.967046  3702 net.cpp:122] Setting up Convolution1_penlu1_0_split
I1006 17:36:08.967061  3702 net.cpp:129] Top shape: 100 16 28 28 (1254400)
I1006 17:36:08.967063  3702 net.cpp:129] Top shape: 100 16 28 28 (1254400)
I1006 17:36:08.967075  3702 net.cpp:137] Memory required for data: 31046800
I1006 17:36:08.967078  3702 layer_factory.hpp:77] Creating layer Convolution2
I1006 17:36:08.967095  3702 net.cpp:84] Creating Layer Convolution2
I1006 17:36:08.967098  3702 net.cpp:406] Convolution2 <- Convolution1_penlu1_0_split_0
I1006 17:36:08.967114  3702 net.cpp:380] Convolution2 -> Convolution2
I1006 17:36:08.968003  3702 net.cpp:122] Setting up Convolution2
I1006 17:36:08.968013  3702 net.cpp:129] Top shape: 100 16 28 28 (1254400)
I1006 17:36:08.968015  3702 net.cpp:137] Memory required for data: 36064400
I1006 17:36:08.968019  3702 layer_factory.hpp:77] Creating layer BatchNorm2
I1006 17:36:08.968024  3702 net.cpp:84] Creating Layer BatchNorm2
I1006 17:36:08.968027  3702 net.cpp:406] BatchNorm2 <- Convolution2
I1006 17:36:08.968031  3702 net.cpp:367] BatchNorm2 -> Convolution2 (in-place)
I1006 17:36:08.968186  3702 net.cpp:122] Setting up BatchNorm2
I1006 17:36:08.968191  3702 net.cpp:129] Top shape: 100 16 28 28 (1254400)
I1006 17:36:08.968194  3702 net.cpp:137] Memory required for data: 41082000
I1006 17:36:08.968199  3702 layer_factory.hpp:77] Creating layer Scale2
I1006 17:36:08.968204  3702 net.cpp:84] Creating Layer Scale2
I1006 17:36:08.968205  3702 net.cpp:406] Scale2 <- Convolution2
I1006 17:36:08.968209  3702 net.cpp:367] Scale2 -> Convolution2 (in-place)
I1006 17:36:08.968268  3702 layer_factory.hpp:77] Creating layer Scale2
I1006 17:36:08.968387  3702 net.cpp:122] Setting up Scale2
I1006 17:36:08.968392  3702 net.cpp:129] Top shape: 100 16 28 28 (1254400)
I1006 17:36:08.968394  3702 net.cpp:137] Memory required for data: 46099600
I1006 17:36:08.968400  3702 layer_factory.hpp:77] Creating layer penlu2
I1006 17:36:08.968405  3702 net.cpp:84] Creating Layer penlu2
I1006 17:36:08.968408  3702 net.cpp:406] penlu2 <- Convolution2
I1006 17:36:08.968421  3702 net.cpp:367] penlu2 -> Convolution2 (in-place)
I1006 17:36:08.968549  3702 net.cpp:122] Setting up penlu2
I1006 17:36:08.968561  3702 net.cpp:129] Top shape: 100 16 28 28 (1254400)
I1006 17:36:08.968564  3702 net.cpp:137] Memory required for data: 51117200
I1006 17:36:08.968569  3702 layer_factory.hpp:77] Creating layer Convolution3
I1006 17:36:08.968576  3702 net.cpp:84] Creating Layer Convolution3
I1006 17:36:08.968578  3702 net.cpp:406] Convolution3 <- Convolution2
I1006 17:36:08.968592  3702 net.cpp:380] Convolution3 -> Convolution3
I1006 17:36:08.969450  3702 net.cpp:122] Setting up Convolution3
I1006 17:36:08.969460  3702 net.cpp:129] Top shape: 100 16 28 28 (1254400)
I1006 17:36:08.969463  3702 net.cpp:137] Memory required for data: 56134800
I1006 17:36:08.969467  3702 layer_factory.hpp:77] Creating layer BatchNorm3
I1006 17:36:08.969473  3702 net.cpp:84] Creating Layer BatchNorm3
I1006 17:36:08.969475  3702 net.cpp:406] BatchNorm3 <- Convolution3
I1006 17:36:08.969489  3702 net.cpp:367] BatchNorm3 -> Convolution3 (in-place)
I1006 17:36:08.969620  3702 net.cpp:122] Setting up BatchNorm3
I1006 17:36:08.969625  3702 net.cpp:129] Top shape: 100 16 28 28 (1254400)
I1006 17:36:08.969627  3702 net.cpp:137] Memory required for data: 61152400
I1006 17:36:08.969633  3702 layer_factory.hpp:77] Creating layer Scale3
I1006 17:36:08.969637  3702 net.cpp:84] Creating Layer Scale3
I1006 17:36:08.969640  3702 net.cpp:406] Scale3 <- Convolution3
I1006 17:36:08.969642  3702 net.cpp:367] Scale3 -> Convolution3 (in-place)
I1006 17:36:08.969686  3702 layer_factory.hpp:77] Creating layer Scale3
I1006 17:36:08.969779  3702 net.cpp:122] Setting up Scale3
I1006 17:36:08.969784  3702 net.cpp:129] Top shape: 100 16 28 28 (1254400)
I1006 17:36:08.969785  3702 net.cpp:137] Memory required for data: 66170000
I1006 17:36:08.969789  3702 layer_factory.hpp:77] Creating layer Eltwise1
I1006 17:36:08.969794  3702 net.cpp:84] Creating Layer Eltwise1
I1006 17:36:08.969796  3702 net.cpp:406] Eltwise1 <- Convolution1_penlu1_0_split_1
I1006 17:36:08.969799  3702 net.cpp:406] Eltwise1 <- Convolution3
I1006 17:36:08.969812  3702 net.cpp:380] Eltwise1 -> Eltwise1
I1006 17:36:08.969830  3702 net.cpp:122] Setting up Eltwise1
I1006 17:36:08.969842  3702 net.cpp:129] Top shape: 100 16 28 28 (1254400)
I1006 17:36:08.969844  3702 net.cpp:137] Memory required for data: 71187600
I1006 17:36:08.969846  3702 layer_factory.hpp:77] Creating layer penlu3
I1006 17:36:08.969852  3702 net.cpp:84] Creating Layer penlu3
I1006 17:36:08.969854  3702 net.cpp:406] penlu3 <- Eltwise1
I1006 17:36:08.969857  3702 net.cpp:367] penlu3 -> Eltwise1 (in-place)
I1006 17:36:08.969974  3702 net.cpp:122] Setting up penlu3
I1006 17:36:08.969979  3702 net.cpp:129] Top shape: 100 16 28 28 (1254400)
I1006 17:36:08.969980  3702 net.cpp:137] Memory required for data: 76205200
I1006 17:36:08.969985  3702 layer_factory.hpp:77] Creating layer Eltwise1_penlu3_0_split
I1006 17:36:08.969988  3702 net.cpp:84] Creating Layer Eltwise1_penlu3_0_split
I1006 17:36:08.969990  3702 net.cpp:406] Eltwise1_penlu3_0_split <- Eltwise1
I1006 17:36:08.969995  3702 net.cpp:380] Eltwise1_penlu3_0_split -> Eltwise1_penlu3_0_split_0
I1006 17:36:08.970008  3702 net.cpp:380] Eltwise1_penlu3_0_split -> Eltwise1_penlu3_0_split_1
I1006 17:36:08.970038  3702 net.cpp:122] Setting up Eltwise1_penlu3_0_split
I1006 17:36:08.970043  3702 net.cpp:129] Top shape: 100 16 28 28 (1254400)
I1006 17:36:08.970046  3702 net.cpp:129] Top shape: 100 16 28 28 (1254400)
I1006 17:36:08.970047  3702 net.cpp:137] Memory required for data: 86240400
I1006 17:36:08.970049  3702 layer_factory.hpp:77] Creating layer Convolution4
I1006 17:36:08.970057  3702 net.cpp:84] Creating Layer Convolution4
I1006 17:36:08.970059  3702 net.cpp:406] Convolution4 <- Eltwise1_penlu3_0_split_0
I1006 17:36:08.970073  3702 net.cpp:380] Convolution4 -> Convolution4
I1006 17:36:08.970927  3702 net.cpp:122] Setting up Convolution4
I1006 17:36:08.970937  3702 net.cpp:129] Top shape: 100 16 28 28 (1254400)
I1006 17:36:08.970939  3702 net.cpp:137] Memory required for data: 91258000
I1006 17:36:08.970943  3702 layer_factory.hpp:77] Creating layer BatchNorm4
I1006 17:36:08.970960  3702 net.cpp:84] Creating Layer BatchNorm4
I1006 17:36:08.970970  3702 net.cpp:406] BatchNorm4 <- Convolution4
I1006 17:36:08.970984  3702 net.cpp:367] BatchNorm4 -> Convolution4 (in-place)
I1006 17:36:08.971124  3702 net.cpp:122] Setting up BatchNorm4
I1006 17:36:08.971129  3702 net.cpp:129] Top shape: 100 16 28 28 (1254400)
I1006 17:36:08.971132  3702 net.cpp:137] Memory required for data: 96275600
I1006 17:36:08.971140  3702 layer_factory.hpp:77] Creating layer Scale4
I1006 17:36:08.971144  3702 net.cpp:84] Creating Layer Scale4
I1006 17:36:08.971146  3702 net.cpp:406] Scale4 <- Convolution4
I1006 17:36:08.971160  3702 net.cpp:367] Scale4 -> Convolution4 (in-place)
I1006 17:36:08.971200  3702 layer_factory.hpp:77] Creating layer Scale4
I1006 17:36:08.971295  3702 net.cpp:122] Setting up Scale4
I1006 17:36:08.971300  3702 net.cpp:129] Top shape: 100 16 28 28 (1254400)
I1006 17:36:08.971302  3702 net.cpp:137] Memory required for data: 101293200
I1006 17:36:08.971307  3702 layer_factory.hpp:77] Creating layer penlu4
I1006 17:36:08.971312  3702 net.cpp:84] Creating Layer penlu4
I1006 17:36:08.971325  3702 net.cpp:406] penlu4 <- Convolution4
I1006 17:36:08.971329  3702 net.cpp:367] penlu4 -> Convolution4 (in-place)
I1006 17:36:08.971456  3702 net.cpp:122] Setting up penlu4
I1006 17:36:08.971460  3702 net.cpp:129] Top shape: 100 16 28 28 (1254400)
I1006 17:36:08.971462  3702 net.cpp:137] Memory required for data: 106310800
I1006 17:36:08.971467  3702 layer_factory.hpp:77] Creating layer Convolution5
I1006 17:36:08.971472  3702 net.cpp:84] Creating Layer Convolution5
I1006 17:36:08.971489  3702 net.cpp:406] Convolution5 <- Convolution4
I1006 17:36:08.971493  3702 net.cpp:380] Convolution5 -> Convolution5
I1006 17:36:08.972373  3702 net.cpp:122] Setting up Convolution5
I1006 17:36:08.972383  3702 net.cpp:129] Top shape: 100 16 28 28 (1254400)
I1006 17:36:08.972385  3702 net.cpp:137] Memory required for data: 111328400
I1006 17:36:08.972390  3702 layer_factory.hpp:77] Creating layer BatchNorm5
I1006 17:36:08.972394  3702 net.cpp:84] Creating Layer BatchNorm5
I1006 17:36:08.972407  3702 net.cpp:406] BatchNorm5 <- Convolution5
I1006 17:36:08.972412  3702 net.cpp:367] BatchNorm5 -> Convolution5 (in-place)
I1006 17:36:08.972549  3702 net.cpp:122] Setting up BatchNorm5
I1006 17:36:08.972554  3702 net.cpp:129] Top shape: 100 16 28 28 (1254400)
I1006 17:36:08.972556  3702 net.cpp:137] Memory required for data: 116346000
I1006 17:36:08.972561  3702 layer_factory.hpp:77] Creating layer Scale5
I1006 17:36:08.972565  3702 net.cpp:84] Creating Layer Scale5
I1006 17:36:08.972568  3702 net.cpp:406] Scale5 <- Convolution5
I1006 17:36:08.972581  3702 net.cpp:367] Scale5 -> Convolution5 (in-place)
I1006 17:36:08.972625  3702 layer_factory.hpp:77] Creating layer Scale5
I1006 17:36:08.972728  3702 net.cpp:122] Setting up Scale5
I1006 17:36:08.972733  3702 net.cpp:129] Top shape: 100 16 28 28 (1254400)
I1006 17:36:08.972735  3702 net.cpp:137] Memory required for data: 121363600
I1006 17:36:08.972749  3702 layer_factory.hpp:77] Creating layer Eltwise2
I1006 17:36:08.972754  3702 net.cpp:84] Creating Layer Eltwise2
I1006 17:36:08.972757  3702 net.cpp:406] Eltwise2 <- Eltwise1_penlu3_0_split_1
I1006 17:36:08.972759  3702 net.cpp:406] Eltwise2 <- Convolution5
I1006 17:36:08.972764  3702 net.cpp:380] Eltwise2 -> Eltwise2
I1006 17:36:08.972779  3702 net.cpp:122] Setting up Eltwise2
I1006 17:36:08.972784  3702 net.cpp:129] Top shape: 100 16 28 28 (1254400)
I1006 17:36:08.972786  3702 net.cpp:137] Memory required for data: 126381200
I1006 17:36:08.972790  3702 layer_factory.hpp:77] Creating layer penlu5
I1006 17:36:08.972795  3702 net.cpp:84] Creating Layer penlu5
I1006 17:36:08.972797  3702 net.cpp:406] penlu5 <- Eltwise2
I1006 17:36:08.972801  3702 net.cpp:367] penlu5 -> Eltwise2 (in-place)
I1006 17:36:08.972905  3702 net.cpp:122] Setting up penlu5
I1006 17:36:08.972910  3702 net.cpp:129] Top shape: 100 16 28 28 (1254400)
I1006 17:36:08.972913  3702 net.cpp:137] Memory required for data: 131398800
I1006 17:36:08.972918  3702 layer_factory.hpp:77] Creating layer Eltwise2_penlu5_0_split
I1006 17:36:08.972929  3702 net.cpp:84] Creating Layer Eltwise2_penlu5_0_split
I1006 17:36:08.972932  3702 net.cpp:406] Eltwise2_penlu5_0_split <- Eltwise2
I1006 17:36:08.972935  3702 net.cpp:380] Eltwise2_penlu5_0_split -> Eltwise2_penlu5_0_split_0
I1006 17:36:08.972940  3702 net.cpp:380] Eltwise2_penlu5_0_split -> Eltwise2_penlu5_0_split_1
I1006 17:36:08.972965  3702 net.cpp:122] Setting up Eltwise2_penlu5_0_split
I1006 17:36:08.972968  3702 net.cpp:129] Top shape: 100 16 28 28 (1254400)
I1006 17:36:08.972972  3702 net.cpp:129] Top shape: 100 16 28 28 (1254400)
I1006 17:36:08.972975  3702 net.cpp:137] Memory required for data: 141434000
I1006 17:36:08.972977  3702 layer_factory.hpp:77] Creating layer Convolution6
I1006 17:36:08.972983  3702 net.cpp:84] Creating Layer Convolution6
I1006 17:36:08.972986  3702 net.cpp:406] Convolution6 <- Eltwise2_penlu5_0_split_0
I1006 17:36:08.972991  3702 net.cpp:380] Convolution6 -> Convolution6
I1006 17:36:08.973866  3702 net.cpp:122] Setting up Convolution6
I1006 17:36:08.973876  3702 net.cpp:129] Top shape: 100 16 28 28 (1254400)
I1006 17:36:08.973881  3702 net.cpp:137] Memory required for data: 146451600
I1006 17:36:08.973884  3702 layer_factory.hpp:77] Creating layer BatchNorm6
I1006 17:36:08.973891  3702 net.cpp:84] Creating Layer BatchNorm6
I1006 17:36:08.973894  3702 net.cpp:406] BatchNorm6 <- Convolution6
I1006 17:36:08.973897  3702 net.cpp:367] BatchNorm6 -> Convolution6 (in-place)
I1006 17:36:08.974028  3702 net.cpp:122] Setting up BatchNorm6
I1006 17:36:08.974033  3702 net.cpp:129] Top shape: 100 16 28 28 (1254400)
I1006 17:36:08.974036  3702 net.cpp:137] Memory required for data: 151469200
I1006 17:36:08.974041  3702 layer_factory.hpp:77] Creating layer Scale6
I1006 17:36:08.974046  3702 net.cpp:84] Creating Layer Scale6
I1006 17:36:08.974050  3702 net.cpp:406] Scale6 <- Convolution6
I1006 17:36:08.974052  3702 net.cpp:367] Scale6 -> Convolution6 (in-place)
I1006 17:36:08.974081  3702 layer_factory.hpp:77] Creating layer Scale6
I1006 17:36:08.974158  3702 net.cpp:122] Setting up Scale6
I1006 17:36:08.974164  3702 net.cpp:129] Top shape: 100 16 28 28 (1254400)
I1006 17:36:08.974165  3702 net.cpp:137] Memory required for data: 156486800
I1006 17:36:08.974169  3702 layer_factory.hpp:77] Creating layer penlu6
I1006 17:36:08.974175  3702 net.cpp:84] Creating Layer penlu6
I1006 17:36:08.974179  3702 net.cpp:406] penlu6 <- Convolution6
I1006 17:36:08.974182  3702 net.cpp:367] penlu6 -> Convolution6 (in-place)
I1006 17:36:08.974287  3702 net.cpp:122] Setting up penlu6
I1006 17:36:08.974292  3702 net.cpp:129] Top shape: 100 16 28 28 (1254400)
I1006 17:36:08.974295  3702 net.cpp:137] Memory required for data: 161504400
I1006 17:36:08.974300  3702 layer_factory.hpp:77] Creating layer Convolution7
I1006 17:36:08.974308  3702 net.cpp:84] Creating Layer Convolution7
I1006 17:36:08.974310  3702 net.cpp:406] Convolution7 <- Convolution6
I1006 17:36:08.974314  3702 net.cpp:380] Convolution7 -> Convolution7
I1006 17:36:08.974865  3702 net.cpp:122] Setting up Convolution7
I1006 17:36:08.974875  3702 net.cpp:129] Top shape: 100 16 28 28 (1254400)
I1006 17:36:08.974879  3702 net.cpp:137] Memory required for data: 166522000
I1006 17:36:08.974882  3702 layer_factory.hpp:77] Creating layer BatchNorm7
I1006 17:36:08.974889  3702 net.cpp:84] Creating Layer BatchNorm7
I1006 17:36:08.974891  3702 net.cpp:406] BatchNorm7 <- Convolution7
I1006 17:36:08.974895  3702 net.cpp:367] BatchNorm7 -> Convolution7 (in-place)
I1006 17:36:08.975023  3702 net.cpp:122] Setting up BatchNorm7
I1006 17:36:08.975028  3702 net.cpp:129] Top shape: 100 16 28 28 (1254400)
I1006 17:36:08.975031  3702 net.cpp:137] Memory required for data: 171539600
I1006 17:36:08.975041  3702 layer_factory.hpp:77] Creating layer Scale7
I1006 17:36:08.975047  3702 net.cpp:84] Creating Layer Scale7
I1006 17:36:08.975050  3702 net.cpp:406] Scale7 <- Convolution7
I1006 17:36:08.975054  3702 net.cpp:367] Scale7 -> Convolution7 (in-place)
I1006 17:36:08.975081  3702 layer_factory.hpp:77] Creating layer Scale7
I1006 17:36:08.975168  3702 net.cpp:122] Setting up Scale7
I1006 17:36:08.975175  3702 net.cpp:129] Top shape: 100 16 28 28 (1254400)
I1006 17:36:08.975178  3702 net.cpp:137] Memory required for data: 176557200
I1006 17:36:08.975183  3702 layer_factory.hpp:77] Creating layer Eltwise3
I1006 17:36:08.975188  3702 net.cpp:84] Creating Layer Eltwise3
I1006 17:36:08.975191  3702 net.cpp:406] Eltwise3 <- Eltwise2_penlu5_0_split_1
I1006 17:36:08.975194  3702 net.cpp:406] Eltwise3 <- Convolution7
I1006 17:36:08.975198  3702 net.cpp:380] Eltwise3 -> Eltwise3
I1006 17:36:08.975214  3702 net.cpp:122] Setting up Eltwise3
I1006 17:36:08.975217  3702 net.cpp:129] Top shape: 100 16 28 28 (1254400)
I1006 17:36:08.975220  3702 net.cpp:137] Memory required for data: 181574800
I1006 17:36:08.975222  3702 layer_factory.hpp:77] Creating layer penlu7
I1006 17:36:08.975229  3702 net.cpp:84] Creating Layer penlu7
I1006 17:36:08.975231  3702 net.cpp:406] penlu7 <- Eltwise3
I1006 17:36:08.975235  3702 net.cpp:367] penlu7 -> Eltwise3 (in-place)
I1006 17:36:08.975340  3702 net.cpp:122] Setting up penlu7
I1006 17:36:08.975345  3702 net.cpp:129] Top shape: 100 16 28 28 (1254400)
I1006 17:36:08.975348  3702 net.cpp:137] Memory required for data: 186592400
I1006 17:36:08.975353  3702 layer_factory.hpp:77] Creating layer Eltwise3_penlu7_0_split
I1006 17:36:08.975358  3702 net.cpp:84] Creating Layer Eltwise3_penlu7_0_split
I1006 17:36:08.975360  3702 net.cpp:406] Eltwise3_penlu7_0_split <- Eltwise3
I1006 17:36:08.975363  3702 net.cpp:380] Eltwise3_penlu7_0_split -> Eltwise3_penlu7_0_split_0
I1006 17:36:08.975368  3702 net.cpp:380] Eltwise3_penlu7_0_split -> Eltwise3_penlu7_0_split_1
I1006 17:36:08.975390  3702 net.cpp:122] Setting up Eltwise3_penlu7_0_split
I1006 17:36:08.975395  3702 net.cpp:129] Top shape: 100 16 28 28 (1254400)
I1006 17:36:08.975399  3702 net.cpp:129] Top shape: 100 16 28 28 (1254400)
I1006 17:36:08.975401  3702 net.cpp:137] Memory required for data: 196627600
I1006 17:36:08.975404  3702 layer_factory.hpp:77] Creating layer Convolution8
I1006 17:36:08.975410  3702 net.cpp:84] Creating Layer Convolution8
I1006 17:36:08.975414  3702 net.cpp:406] Convolution8 <- Eltwise3_penlu7_0_split_0
I1006 17:36:08.975417  3702 net.cpp:380] Convolution8 -> Convolution8
I1006 17:36:08.976289  3702 net.cpp:122] Setting up Convolution8
I1006 17:36:08.976299  3702 net.cpp:129] Top shape: 100 16 28 28 (1254400)
I1006 17:36:08.976301  3702 net.cpp:137] Memory required for data: 201645200
I1006 17:36:08.976306  3702 layer_factory.hpp:77] Creating layer BatchNorm8
I1006 17:36:08.976311  3702 net.cpp:84] Creating Layer BatchNorm8
I1006 17:36:08.976315  3702 net.cpp:406] BatchNorm8 <- Convolution8
I1006 17:36:08.976320  3702 net.cpp:367] BatchNorm8 -> Convolution8 (in-place)
I1006 17:36:08.976447  3702 net.cpp:122] Setting up BatchNorm8
I1006 17:36:08.976454  3702 net.cpp:129] Top shape: 100 16 28 28 (1254400)
I1006 17:36:08.976456  3702 net.cpp:137] Memory required for data: 206662800
I1006 17:36:08.976461  3702 layer_factory.hpp:77] Creating layer Scale8
I1006 17:36:08.976466  3702 net.cpp:84] Creating Layer Scale8
I1006 17:36:08.976469  3702 net.cpp:406] Scale8 <- Convolution8
I1006 17:36:08.976474  3702 net.cpp:367] Scale8 -> Convolution8 (in-place)
I1006 17:36:08.976498  3702 layer_factory.hpp:77] Creating layer Scale8
I1006 17:36:08.976586  3702 net.cpp:122] Setting up Scale8
I1006 17:36:08.976591  3702 net.cpp:129] Top shape: 100 16 28 28 (1254400)
I1006 17:36:08.976594  3702 net.cpp:137] Memory required for data: 211680400
I1006 17:36:08.976598  3702 layer_factory.hpp:77] Creating layer penlu8
I1006 17:36:08.976604  3702 net.cpp:84] Creating Layer penlu8
I1006 17:36:08.976608  3702 net.cpp:406] penlu8 <- Convolution8
I1006 17:36:08.976613  3702 net.cpp:367] penlu8 -> Convolution8 (in-place)
I1006 17:36:08.976718  3702 net.cpp:122] Setting up penlu8
I1006 17:36:08.976723  3702 net.cpp:129] Top shape: 100 16 28 28 (1254400)
I1006 17:36:08.976727  3702 net.cpp:137] Memory required for data: 216698000
I1006 17:36:08.976732  3702 layer_factory.hpp:77] Creating layer Convolution9
I1006 17:36:08.976745  3702 net.cpp:84] Creating Layer Convolution9
I1006 17:36:08.976749  3702 net.cpp:406] Convolution9 <- Convolution8
I1006 17:36:08.976753  3702 net.cpp:380] Convolution9 -> Convolution9
I1006 17:36:08.977716  3702 net.cpp:122] Setting up Convolution9
I1006 17:36:08.977730  3702 net.cpp:129] Top shape: 100 16 28 28 (1254400)
I1006 17:36:08.977735  3702 net.cpp:137] Memory required for data: 221715600
I1006 17:36:08.977742  3702 layer_factory.hpp:77] Creating layer BatchNorm9
I1006 17:36:08.977751  3702 net.cpp:84] Creating Layer BatchNorm9
I1006 17:36:08.977757  3702 net.cpp:406] BatchNorm9 <- Convolution9
I1006 17:36:08.977763  3702 net.cpp:367] BatchNorm9 -> Convolution9 (in-place)
I1006 17:36:08.977903  3702 net.cpp:122] Setting up BatchNorm9
I1006 17:36:08.977911  3702 net.cpp:129] Top shape: 100 16 28 28 (1254400)
I1006 17:36:08.977916  3702 net.cpp:137] Memory required for data: 226733200
I1006 17:36:08.977923  3702 layer_factory.hpp:77] Creating layer Scale9
I1006 17:36:08.977931  3702 net.cpp:84] Creating Layer Scale9
I1006 17:36:08.977936  3702 net.cpp:406] Scale9 <- Convolution9
I1006 17:36:08.977946  3702 net.cpp:367] Scale9 -> Convolution9 (in-place)
I1006 17:36:08.977978  3702 layer_factory.hpp:77] Creating layer Scale9
I1006 17:36:08.978070  3702 net.cpp:122] Setting up Scale9
I1006 17:36:08.978076  3702 net.cpp:129] Top shape: 100 16 28 28 (1254400)
I1006 17:36:08.978080  3702 net.cpp:137] Memory required for data: 231750800
I1006 17:36:08.978088  3702 layer_factory.hpp:77] Creating layer Eltwise4
I1006 17:36:08.978096  3702 net.cpp:84] Creating Layer Eltwise4
I1006 17:36:08.978101  3702 net.cpp:406] Eltwise4 <- Eltwise3_penlu7_0_split_1
I1006 17:36:08.978107  3702 net.cpp:406] Eltwise4 <- Convolution9
I1006 17:36:08.978116  3702 net.cpp:380] Eltwise4 -> Eltwise4
I1006 17:36:08.978138  3702 net.cpp:122] Setting up Eltwise4
I1006 17:36:08.978145  3702 net.cpp:129] Top shape: 100 16 28 28 (1254400)
I1006 17:36:08.978149  3702 net.cpp:137] Memory required for data: 236768400
I1006 17:36:08.978154  3702 layer_factory.hpp:77] Creating layer penlu9
I1006 17:36:08.978163  3702 net.cpp:84] Creating Layer penlu9
I1006 17:36:08.978168  3702 net.cpp:406] penlu9 <- Eltwise4
I1006 17:36:08.978175  3702 net.cpp:367] penlu9 -> Eltwise4 (in-place)
I1006 17:36:08.978291  3702 net.cpp:122] Setting up penlu9
I1006 17:36:08.978297  3702 net.cpp:129] Top shape: 100 16 28 28 (1254400)
I1006 17:36:08.978302  3702 net.cpp:137] Memory required for data: 241786000
I1006 17:36:08.978312  3702 layer_factory.hpp:77] Creating layer Eltwise4_penlu9_0_split
I1006 17:36:08.978317  3702 net.cpp:84] Creating Layer Eltwise4_penlu9_0_split
I1006 17:36:08.978322  3702 net.cpp:406] Eltwise4_penlu9_0_split <- Eltwise4
I1006 17:36:08.978328  3702 net.cpp:380] Eltwise4_penlu9_0_split -> Eltwise4_penlu9_0_split_0
I1006 17:36:08.978337  3702 net.cpp:380] Eltwise4_penlu9_0_split -> Eltwise4_penlu9_0_split_1
I1006 17:36:08.978365  3702 net.cpp:122] Setting up Eltwise4_penlu9_0_split
I1006 17:36:08.978373  3702 net.cpp:129] Top shape: 100 16 28 28 (1254400)
I1006 17:36:08.978379  3702 net.cpp:129] Top shape: 100 16 28 28 (1254400)
I1006 17:36:08.978384  3702 net.cpp:137] Memory required for data: 251821200
I1006 17:36:08.978389  3702 layer_factory.hpp:77] Creating layer Convolution10
I1006 17:36:08.978399  3702 net.cpp:84] Creating Layer Convolution10
I1006 17:36:08.978404  3702 net.cpp:406] Convolution10 <- Eltwise4_penlu9_0_split_0
I1006 17:36:08.978411  3702 net.cpp:380] Convolution10 -> Convolution10
I1006 17:36:08.979393  3702 net.cpp:122] Setting up Convolution10
I1006 17:36:08.979404  3702 net.cpp:129] Top shape: 100 16 28 28 (1254400)
I1006 17:36:08.979409  3702 net.cpp:137] Memory required for data: 256838800
I1006 17:36:08.979426  3702 layer_factory.hpp:77] Creating layer BatchNorm10
I1006 17:36:08.979436  3702 net.cpp:84] Creating Layer BatchNorm10
I1006 17:36:08.979442  3702 net.cpp:406] BatchNorm10 <- Convolution10
I1006 17:36:08.979450  3702 net.cpp:367] BatchNorm10 -> Convolution10 (in-place)
I1006 17:36:08.979598  3702 net.cpp:122] Setting up BatchNorm10
I1006 17:36:08.979607  3702 net.cpp:129] Top shape: 100 16 28 28 (1254400)
I1006 17:36:08.979611  3702 net.cpp:137] Memory required for data: 261856400
I1006 17:36:08.979621  3702 layer_factory.hpp:77] Creating layer Scale10
I1006 17:36:08.979629  3702 net.cpp:84] Creating Layer Scale10
I1006 17:36:08.979635  3702 net.cpp:406] Scale10 <- Convolution10
I1006 17:36:08.979643  3702 net.cpp:367] Scale10 -> Convolution10 (in-place)
I1006 17:36:08.979674  3702 layer_factory.hpp:77] Creating layer Scale10
I1006 17:36:08.979760  3702 net.cpp:122] Setting up Scale10
I1006 17:36:08.979768  3702 net.cpp:129] Top shape: 100 16 28 28 (1254400)
I1006 17:36:08.979771  3702 net.cpp:137] Memory required for data: 266874000
I1006 17:36:08.979780  3702 layer_factory.hpp:77] Creating layer penlu10
I1006 17:36:08.979789  3702 net.cpp:84] Creating Layer penlu10
I1006 17:36:08.979794  3702 net.cpp:406] penlu10 <- Convolution10
I1006 17:36:08.979802  3702 net.cpp:367] penlu10 -> Convolution10 (in-place)
I1006 17:36:08.979918  3702 net.cpp:122] Setting up penlu10
I1006 17:36:08.979924  3702 net.cpp:129] Top shape: 100 16 28 28 (1254400)
I1006 17:36:08.979929  3702 net.cpp:137] Memory required for data: 271891600
I1006 17:36:08.979938  3702 layer_factory.hpp:77] Creating layer Convolution11
I1006 17:36:08.979950  3702 net.cpp:84] Creating Layer Convolution11
I1006 17:36:08.979955  3702 net.cpp:406] Convolution11 <- Convolution10
I1006 17:36:08.979962  3702 net.cpp:380] Convolution11 -> Convolution11
I1006 17:36:08.980885  3702 net.cpp:122] Setting up Convolution11
I1006 17:36:08.980896  3702 net.cpp:129] Top shape: 100 16 28 28 (1254400)
I1006 17:36:08.980901  3702 net.cpp:137] Memory required for data: 276909200
I1006 17:36:08.980908  3702 layer_factory.hpp:77] Creating layer BatchNorm11
I1006 17:36:08.980917  3702 net.cpp:84] Creating Layer BatchNorm11
I1006 17:36:08.980922  3702 net.cpp:406] BatchNorm11 <- Convolution11
I1006 17:36:08.980932  3702 net.cpp:367] BatchNorm11 -> Convolution11 (in-place)
I1006 17:36:08.981073  3702 net.cpp:122] Setting up BatchNorm11
I1006 17:36:08.981081  3702 net.cpp:129] Top shape: 100 16 28 28 (1254400)
I1006 17:36:08.981086  3702 net.cpp:137] Memory required for data: 281926800
I1006 17:36:08.981096  3702 layer_factory.hpp:77] Creating layer Scale11
I1006 17:36:08.981102  3702 net.cpp:84] Creating Layer Scale11
I1006 17:36:08.981107  3702 net.cpp:406] Scale11 <- Convolution11
I1006 17:36:08.981117  3702 net.cpp:367] Scale11 -> Convolution11 (in-place)
I1006 17:36:08.981148  3702 layer_factory.hpp:77] Creating layer Scale11
I1006 17:36:08.981235  3702 net.cpp:122] Setting up Scale11
I1006 17:36:08.981243  3702 net.cpp:129] Top shape: 100 16 28 28 (1254400)
I1006 17:36:08.981247  3702 net.cpp:137] Memory required for data: 286944400
I1006 17:36:08.981256  3702 layer_factory.hpp:77] Creating layer Eltwise5
I1006 17:36:08.981262  3702 net.cpp:84] Creating Layer Eltwise5
I1006 17:36:08.981268  3702 net.cpp:406] Eltwise5 <- Eltwise4_penlu9_0_split_1
I1006 17:36:08.981274  3702 net.cpp:406] Eltwise5 <- Convolution11
I1006 17:36:08.981283  3702 net.cpp:380] Eltwise5 -> Eltwise5
I1006 17:36:08.981303  3702 net.cpp:122] Setting up Eltwise5
I1006 17:36:08.981312  3702 net.cpp:129] Top shape: 100 16 28 28 (1254400)
I1006 17:36:08.981317  3702 net.cpp:137] Memory required for data: 291962000
I1006 17:36:08.981323  3702 layer_factory.hpp:77] Creating layer penlu11
I1006 17:36:08.981331  3702 net.cpp:84] Creating Layer penlu11
I1006 17:36:08.981336  3702 net.cpp:406] penlu11 <- Eltwise5
I1006 17:36:08.981343  3702 net.cpp:367] penlu11 -> Eltwise5 (in-place)
I1006 17:36:08.981462  3702 net.cpp:122] Setting up penlu11
I1006 17:36:08.981468  3702 net.cpp:129] Top shape: 100 16 28 28 (1254400)
I1006 17:36:08.981472  3702 net.cpp:137] Memory required for data: 296979600
I1006 17:36:08.981482  3702 layer_factory.hpp:77] Creating layer Eltwise5_penlu11_0_split
I1006 17:36:08.981488  3702 net.cpp:84] Creating Layer Eltwise5_penlu11_0_split
I1006 17:36:08.981493  3702 net.cpp:406] Eltwise5_penlu11_0_split <- Eltwise5
I1006 17:36:08.981508  3702 net.cpp:380] Eltwise5_penlu11_0_split -> Eltwise5_penlu11_0_split_0
I1006 17:36:08.981516  3702 net.cpp:380] Eltwise5_penlu11_0_split -> Eltwise5_penlu11_0_split_1
I1006 17:36:08.981547  3702 net.cpp:122] Setting up Eltwise5_penlu11_0_split
I1006 17:36:08.981554  3702 net.cpp:129] Top shape: 100 16 28 28 (1254400)
I1006 17:36:08.981560  3702 net.cpp:129] Top shape: 100 16 28 28 (1254400)
I1006 17:36:08.981564  3702 net.cpp:137] Memory required for data: 307014800
I1006 17:36:08.981570  3702 layer_factory.hpp:77] Creating layer Convolution12
I1006 17:36:08.981580  3702 net.cpp:84] Creating Layer Convolution12
I1006 17:36:08.981585  3702 net.cpp:406] Convolution12 <- Eltwise5_penlu11_0_split_0
I1006 17:36:08.981592  3702 net.cpp:380] Convolution12 -> Convolution12
I1006 17:36:08.982779  3702 net.cpp:122] Setting up Convolution12
I1006 17:36:08.982789  3702 net.cpp:129] Top shape: 100 32 14 14 (627200)
I1006 17:36:08.982794  3702 net.cpp:137] Memory required for data: 309523600
I1006 17:36:08.982801  3702 layer_factory.hpp:77] Creating layer BatchNorm12
I1006 17:36:08.982811  3702 net.cpp:84] Creating Layer BatchNorm12
I1006 17:36:08.982816  3702 net.cpp:406] BatchNorm12 <- Convolution12
I1006 17:36:08.982825  3702 net.cpp:367] BatchNorm12 -> Convolution12 (in-place)
I1006 17:36:08.982970  3702 net.cpp:122] Setting up BatchNorm12
I1006 17:36:08.982978  3702 net.cpp:129] Top shape: 100 32 14 14 (627200)
I1006 17:36:08.982982  3702 net.cpp:137] Memory required for data: 312032400
I1006 17:36:08.982991  3702 layer_factory.hpp:77] Creating layer Scale12
I1006 17:36:08.982998  3702 net.cpp:84] Creating Layer Scale12
I1006 17:36:08.983005  3702 net.cpp:406] Scale12 <- Convolution12
I1006 17:36:08.983011  3702 net.cpp:367] Scale12 -> Convolution12 (in-place)
I1006 17:36:08.983044  3702 layer_factory.hpp:77] Creating layer Scale12
I1006 17:36:08.983125  3702 net.cpp:122] Setting up Scale12
I1006 17:36:08.983132  3702 net.cpp:129] Top shape: 100 32 14 14 (627200)
I1006 17:36:08.983137  3702 net.cpp:137] Memory required for data: 314541200
I1006 17:36:08.983145  3702 layer_factory.hpp:77] Creating layer Convolution13
I1006 17:36:08.983156  3702 net.cpp:84] Creating Layer Convolution13
I1006 17:36:08.983160  3702 net.cpp:406] Convolution13 <- Eltwise5_penlu11_0_split_1
I1006 17:36:08.983184  3702 net.cpp:380] Convolution13 -> Convolution13
I1006 17:36:08.984447  3702 net.cpp:122] Setting up Convolution13
I1006 17:36:08.984458  3702 net.cpp:129] Top shape: 100 32 14 14 (627200)
I1006 17:36:08.984463  3702 net.cpp:137] Memory required for data: 317050000
I1006 17:36:08.984472  3702 layer_factory.hpp:77] Creating layer BatchNorm13
I1006 17:36:08.984482  3702 net.cpp:84] Creating Layer BatchNorm13
I1006 17:36:08.984486  3702 net.cpp:406] BatchNorm13 <- Convolution13
I1006 17:36:08.984494  3702 net.cpp:367] BatchNorm13 -> Convolution13 (in-place)
I1006 17:36:08.984632  3702 net.cpp:122] Setting up BatchNorm13
I1006 17:36:08.984640  3702 net.cpp:129] Top shape: 100 32 14 14 (627200)
I1006 17:36:08.984644  3702 net.cpp:137] Memory required for data: 319558800
I1006 17:36:08.984654  3702 layer_factory.hpp:77] Creating layer Scale13
I1006 17:36:08.984663  3702 net.cpp:84] Creating Layer Scale13
I1006 17:36:08.984668  3702 net.cpp:406] Scale13 <- Convolution13
I1006 17:36:08.984674  3702 net.cpp:367] Scale13 -> Convolution13 (in-place)
I1006 17:36:08.984707  3702 layer_factory.hpp:77] Creating layer Scale13
I1006 17:36:08.984791  3702 net.cpp:122] Setting up Scale13
I1006 17:36:08.984798  3702 net.cpp:129] Top shape: 100 32 14 14 (627200)
I1006 17:36:08.984802  3702 net.cpp:137] Memory required for data: 322067600
I1006 17:36:08.984810  3702 layer_factory.hpp:77] Creating layer penlu12
I1006 17:36:08.984822  3702 net.cpp:84] Creating Layer penlu12
I1006 17:36:08.984825  3702 net.cpp:406] penlu12 <- Convolution13
I1006 17:36:08.984832  3702 net.cpp:367] penlu12 -> Convolution13 (in-place)
I1006 17:36:08.984942  3702 net.cpp:122] Setting up penlu12
I1006 17:36:08.984949  3702 net.cpp:129] Top shape: 100 32 14 14 (627200)
I1006 17:36:08.984961  3702 net.cpp:137] Memory required for data: 324576400
I1006 17:36:08.984972  3702 layer_factory.hpp:77] Creating layer Convolution14
I1006 17:36:08.984982  3702 net.cpp:84] Creating Layer Convolution14
I1006 17:36:08.984987  3702 net.cpp:406] Convolution14 <- Convolution13
I1006 17:36:08.984994  3702 net.cpp:380] Convolution14 -> Convolution14
I1006 17:36:08.986049  3702 net.cpp:122] Setting up Convolution14
I1006 17:36:08.986060  3702 net.cpp:129] Top shape: 100 32 14 14 (627200)
I1006 17:36:08.986065  3702 net.cpp:137] Memory required for data: 327085200
I1006 17:36:08.986086  3702 layer_factory.hpp:77] Creating layer BatchNorm14
I1006 17:36:08.986099  3702 net.cpp:84] Creating Layer BatchNorm14
I1006 17:36:08.986104  3702 net.cpp:406] BatchNorm14 <- Convolution14
I1006 17:36:08.986112  3702 net.cpp:367] BatchNorm14 -> Convolution14 (in-place)
I1006 17:36:08.986249  3702 net.cpp:122] Setting up BatchNorm14
I1006 17:36:08.986258  3702 net.cpp:129] Top shape: 100 32 14 14 (627200)
I1006 17:36:08.986261  3702 net.cpp:137] Memory required for data: 329594000
I1006 17:36:08.986274  3702 layer_factory.hpp:77] Creating layer Scale14
I1006 17:36:08.986280  3702 net.cpp:84] Creating Layer Scale14
I1006 17:36:08.986285  3702 net.cpp:406] Scale14 <- Convolution14
I1006 17:36:08.986292  3702 net.cpp:367] Scale14 -> Convolution14 (in-place)
I1006 17:36:08.986325  3702 layer_factory.hpp:77] Creating layer Scale14
I1006 17:36:08.986407  3702 net.cpp:122] Setting up Scale14
I1006 17:36:08.986414  3702 net.cpp:129] Top shape: 100 32 14 14 (627200)
I1006 17:36:08.986418  3702 net.cpp:137] Memory required for data: 332102800
I1006 17:36:08.986426  3702 layer_factory.hpp:77] Creating layer Eltwise6
I1006 17:36:08.986433  3702 net.cpp:84] Creating Layer Eltwise6
I1006 17:36:08.986438  3702 net.cpp:406] Eltwise6 <- Convolution12
I1006 17:36:08.986444  3702 net.cpp:406] Eltwise6 <- Convolution14
I1006 17:36:08.986450  3702 net.cpp:380] Eltwise6 -> Eltwise6
I1006 17:36:08.986467  3702 net.cpp:122] Setting up Eltwise6
I1006 17:36:08.986471  3702 net.cpp:129] Top shape: 100 32 14 14 (627200)
I1006 17:36:08.986474  3702 net.cpp:137] Memory required for data: 334611600
I1006 17:36:08.986475  3702 layer_factory.hpp:77] Creating layer penlu13
I1006 17:36:08.986481  3702 net.cpp:84] Creating Layer penlu13
I1006 17:36:08.986484  3702 net.cpp:406] penlu13 <- Eltwise6
I1006 17:36:08.986487  3702 net.cpp:367] penlu13 -> Eltwise6 (in-place)
I1006 17:36:08.986591  3702 net.cpp:122] Setting up penlu13
I1006 17:36:08.986596  3702 net.cpp:129] Top shape: 100 32 14 14 (627200)
I1006 17:36:08.986598  3702 net.cpp:137] Memory required for data: 337120400
I1006 17:36:08.986603  3702 layer_factory.hpp:77] Creating layer Eltwise6_penlu13_0_split
I1006 17:36:08.986606  3702 net.cpp:84] Creating Layer Eltwise6_penlu13_0_split
I1006 17:36:08.986608  3702 net.cpp:406] Eltwise6_penlu13_0_split <- Eltwise6
I1006 17:36:08.986613  3702 net.cpp:380] Eltwise6_penlu13_0_split -> Eltwise6_penlu13_0_split_0
I1006 17:36:08.986616  3702 net.cpp:380] Eltwise6_penlu13_0_split -> Eltwise6_penlu13_0_split_1
I1006 17:36:08.986637  3702 net.cpp:122] Setting up Eltwise6_penlu13_0_split
I1006 17:36:08.986640  3702 net.cpp:129] Top shape: 100 32 14 14 (627200)
I1006 17:36:08.986644  3702 net.cpp:129] Top shape: 100 32 14 14 (627200)
I1006 17:36:08.986645  3702 net.cpp:137] Memory required for data: 342138000
I1006 17:36:08.986647  3702 layer_factory.hpp:77] Creating layer Convolution15
I1006 17:36:08.986654  3702 net.cpp:84] Creating Layer Convolution15
I1006 17:36:08.986656  3702 net.cpp:406] Convolution15 <- Eltwise6_penlu13_0_split_0
I1006 17:36:08.986660  3702 net.cpp:380] Convolution15 -> Convolution15
I1006 17:36:08.987721  3702 net.cpp:122] Setting up Convolution15
I1006 17:36:08.987730  3702 net.cpp:129] Top shape: 100 32 14 14 (627200)
I1006 17:36:08.987732  3702 net.cpp:137] Memory required for data: 344646800
I1006 17:36:08.987737  3702 layer_factory.hpp:77] Creating layer BatchNorm15
I1006 17:36:08.987743  3702 net.cpp:84] Creating Layer BatchNorm15
I1006 17:36:08.987753  3702 net.cpp:406] BatchNorm15 <- Convolution15
I1006 17:36:08.987757  3702 net.cpp:367] BatchNorm15 -> Convolution15 (in-place)
I1006 17:36:08.987886  3702 net.cpp:122] Setting up BatchNorm15
I1006 17:36:08.987891  3702 net.cpp:129] Top shape: 100 32 14 14 (627200)
I1006 17:36:08.987893  3702 net.cpp:137] Memory required for data: 347155600
I1006 17:36:08.987900  3702 layer_factory.hpp:77] Creating layer Scale15
I1006 17:36:08.987903  3702 net.cpp:84] Creating Layer Scale15
I1006 17:36:08.987905  3702 net.cpp:406] Scale15 <- Convolution15
I1006 17:36:08.987908  3702 net.cpp:367] Scale15 -> Convolution15 (in-place)
I1006 17:36:08.987933  3702 layer_factory.hpp:77] Creating layer Scale15
I1006 17:36:08.988008  3702 net.cpp:122] Setting up Scale15
I1006 17:36:08.988013  3702 net.cpp:129] Top shape: 100 32 14 14 (627200)
I1006 17:36:08.988015  3702 net.cpp:137] Memory required for data: 349664400
I1006 17:36:08.988018  3702 layer_factory.hpp:77] Creating layer penlu14
I1006 17:36:08.988025  3702 net.cpp:84] Creating Layer penlu14
I1006 17:36:08.988028  3702 net.cpp:406] penlu14 <- Convolution15
I1006 17:36:08.988030  3702 net.cpp:367] penlu14 -> Convolution15 (in-place)
I1006 17:36:08.988134  3702 net.cpp:122] Setting up penlu14
I1006 17:36:08.988138  3702 net.cpp:129] Top shape: 100 32 14 14 (627200)
I1006 17:36:08.988140  3702 net.cpp:137] Memory required for data: 352173200
I1006 17:36:08.988144  3702 layer_factory.hpp:77] Creating layer Convolution16
I1006 17:36:08.988152  3702 net.cpp:84] Creating Layer Convolution16
I1006 17:36:08.988154  3702 net.cpp:406] Convolution16 <- Convolution15
I1006 17:36:08.988158  3702 net.cpp:380] Convolution16 -> Convolution16
I1006 17:36:08.989202  3702 net.cpp:122] Setting up Convolution16
I1006 17:36:08.989210  3702 net.cpp:129] Top shape: 100 32 14 14 (627200)
I1006 17:36:08.989212  3702 net.cpp:137] Memory required for data: 354682000
I1006 17:36:08.989217  3702 layer_factory.hpp:77] Creating layer BatchNorm16
I1006 17:36:08.989223  3702 net.cpp:84] Creating Layer BatchNorm16
I1006 17:36:08.989225  3702 net.cpp:406] BatchNorm16 <- Convolution16
I1006 17:36:08.989229  3702 net.cpp:367] BatchNorm16 -> Convolution16 (in-place)
I1006 17:36:08.989361  3702 net.cpp:122] Setting up BatchNorm16
I1006 17:36:08.989364  3702 net.cpp:129] Top shape: 100 32 14 14 (627200)
I1006 17:36:08.989367  3702 net.cpp:137] Memory required for data: 357190800
I1006 17:36:08.989372  3702 layer_factory.hpp:77] Creating layer Scale16
I1006 17:36:08.989377  3702 net.cpp:84] Creating Layer Scale16
I1006 17:36:08.989378  3702 net.cpp:406] Scale16 <- Convolution16
I1006 17:36:08.989382  3702 net.cpp:367] Scale16 -> Convolution16 (in-place)
I1006 17:36:08.989408  3702 layer_factory.hpp:77] Creating layer Scale16
I1006 17:36:08.989482  3702 net.cpp:122] Setting up Scale16
I1006 17:36:08.989486  3702 net.cpp:129] Top shape: 100 32 14 14 (627200)
I1006 17:36:08.989488  3702 net.cpp:137] Memory required for data: 359699600
I1006 17:36:08.989492  3702 layer_factory.hpp:77] Creating layer Eltwise7
I1006 17:36:08.989496  3702 net.cpp:84] Creating Layer Eltwise7
I1006 17:36:08.989498  3702 net.cpp:406] Eltwise7 <- Eltwise6_penlu13_0_split_1
I1006 17:36:08.989501  3702 net.cpp:406] Eltwise7 <- Convolution16
I1006 17:36:08.989506  3702 net.cpp:380] Eltwise7 -> Eltwise7
I1006 17:36:08.989521  3702 net.cpp:122] Setting up Eltwise7
I1006 17:36:08.989523  3702 net.cpp:129] Top shape: 100 32 14 14 (627200)
I1006 17:36:08.989526  3702 net.cpp:137] Memory required for data: 362208400
I1006 17:36:08.989528  3702 layer_factory.hpp:77] Creating layer penlu15
I1006 17:36:08.989533  3702 net.cpp:84] Creating Layer penlu15
I1006 17:36:08.989537  3702 net.cpp:406] penlu15 <- Eltwise7
I1006 17:36:08.989539  3702 net.cpp:367] penlu15 -> Eltwise7 (in-place)
I1006 17:36:08.989644  3702 net.cpp:122] Setting up penlu15
I1006 17:36:08.989647  3702 net.cpp:129] Top shape: 100 32 14 14 (627200)
I1006 17:36:08.989650  3702 net.cpp:137] Memory required for data: 364717200
I1006 17:36:08.989660  3702 layer_factory.hpp:77] Creating layer Eltwise7_penlu15_0_split
I1006 17:36:08.989665  3702 net.cpp:84] Creating Layer Eltwise7_penlu15_0_split
I1006 17:36:08.989666  3702 net.cpp:406] Eltwise7_penlu15_0_split <- Eltwise7
I1006 17:36:08.989670  3702 net.cpp:380] Eltwise7_penlu15_0_split -> Eltwise7_penlu15_0_split_0
I1006 17:36:08.989675  3702 net.cpp:380] Eltwise7_penlu15_0_split -> Eltwise7_penlu15_0_split_1
I1006 17:36:08.989696  3702 net.cpp:122] Setting up Eltwise7_penlu15_0_split
I1006 17:36:08.989701  3702 net.cpp:129] Top shape: 100 32 14 14 (627200)
I1006 17:36:08.989703  3702 net.cpp:129] Top shape: 100 32 14 14 (627200)
I1006 17:36:08.989706  3702 net.cpp:137] Memory required for data: 369734800
I1006 17:36:08.989707  3702 layer_factory.hpp:77] Creating layer Convolution17
I1006 17:36:08.989713  3702 net.cpp:84] Creating Layer Convolution17
I1006 17:36:08.989717  3702 net.cpp:406] Convolution17 <- Eltwise7_penlu15_0_split_0
I1006 17:36:08.989720  3702 net.cpp:380] Convolution17 -> Convolution17
I1006 17:36:08.990435  3702 net.cpp:122] Setting up Convolution17
I1006 17:36:08.990442  3702 net.cpp:129] Top shape: 100 32 14 14 (627200)
I1006 17:36:08.990444  3702 net.cpp:137] Memory required for data: 372243600
I1006 17:36:08.990448  3702 layer_factory.hpp:77] Creating layer BatchNorm17
I1006 17:36:08.990453  3702 net.cpp:84] Creating Layer BatchNorm17
I1006 17:36:08.990456  3702 net.cpp:406] BatchNorm17 <- Convolution17
I1006 17:36:08.990460  3702 net.cpp:367] BatchNorm17 -> Convolution17 (in-place)
I1006 17:36:08.990589  3702 net.cpp:122] Setting up BatchNorm17
I1006 17:36:08.990593  3702 net.cpp:129] Top shape: 100 32 14 14 (627200)
I1006 17:36:08.990595  3702 net.cpp:137] Memory required for data: 374752400
I1006 17:36:08.990600  3702 layer_factory.hpp:77] Creating layer Scale17
I1006 17:36:08.990604  3702 net.cpp:84] Creating Layer Scale17
I1006 17:36:08.990607  3702 net.cpp:406] Scale17 <- Convolution17
I1006 17:36:08.990610  3702 net.cpp:367] Scale17 -> Convolution17 (in-place)
I1006 17:36:08.990636  3702 layer_factory.hpp:77] Creating layer Scale17
I1006 17:36:08.990710  3702 net.cpp:122] Setting up Scale17
I1006 17:36:08.990715  3702 net.cpp:129] Top shape: 100 32 14 14 (627200)
I1006 17:36:08.990716  3702 net.cpp:137] Memory required for data: 377261200
I1006 17:36:08.990720  3702 layer_factory.hpp:77] Creating layer penlu16
I1006 17:36:08.990725  3702 net.cpp:84] Creating Layer penlu16
I1006 17:36:08.990727  3702 net.cpp:406] penlu16 <- Convolution17
I1006 17:36:08.990731  3702 net.cpp:367] penlu16 -> Convolution17 (in-place)
I1006 17:36:08.990835  3702 net.cpp:122] Setting up penlu16
I1006 17:36:08.990839  3702 net.cpp:129] Top shape: 100 32 14 14 (627200)
I1006 17:36:08.990841  3702 net.cpp:137] Memory required for data: 379770000
I1006 17:36:08.990845  3702 layer_factory.hpp:77] Creating layer Convolution18
I1006 17:36:08.990851  3702 net.cpp:84] Creating Layer Convolution18
I1006 17:36:08.990854  3702 net.cpp:406] Convolution18 <- Convolution17
I1006 17:36:08.990859  3702 net.cpp:380] Convolution18 -> Convolution18
I1006 17:36:08.991952  3702 net.cpp:122] Setting up Convolution18
I1006 17:36:08.991961  3702 net.cpp:129] Top shape: 100 32 14 14 (627200)
I1006 17:36:08.991964  3702 net.cpp:137] Memory required for data: 382278800
I1006 17:36:08.991968  3702 layer_factory.hpp:77] Creating layer BatchNorm18
I1006 17:36:08.991973  3702 net.cpp:84] Creating Layer BatchNorm18
I1006 17:36:08.991976  3702 net.cpp:406] BatchNorm18 <- Convolution18
I1006 17:36:08.991981  3702 net.cpp:367] BatchNorm18 -> Convolution18 (in-place)
I1006 17:36:08.992111  3702 net.cpp:122] Setting up BatchNorm18
I1006 17:36:08.992115  3702 net.cpp:129] Top shape: 100 32 14 14 (627200)
I1006 17:36:08.992117  3702 net.cpp:137] Memory required for data: 384787600
I1006 17:36:08.992122  3702 layer_factory.hpp:77] Creating layer Scale18
I1006 17:36:08.992126  3702 net.cpp:84] Creating Layer Scale18
I1006 17:36:08.992128  3702 net.cpp:406] Scale18 <- Convolution18
I1006 17:36:08.992131  3702 net.cpp:367] Scale18 -> Convolution18 (in-place)
I1006 17:36:08.992166  3702 layer_factory.hpp:77] Creating layer Scale18
I1006 17:36:08.992242  3702 net.cpp:122] Setting up Scale18
I1006 17:36:08.992247  3702 net.cpp:129] Top shape: 100 32 14 14 (627200)
I1006 17:36:08.992249  3702 net.cpp:137] Memory required for data: 387296400
I1006 17:36:08.992252  3702 layer_factory.hpp:77] Creating layer Eltwise8
I1006 17:36:08.992257  3702 net.cpp:84] Creating Layer Eltwise8
I1006 17:36:08.992259  3702 net.cpp:406] Eltwise8 <- Eltwise7_penlu15_0_split_1
I1006 17:36:08.992262  3702 net.cpp:406] Eltwise8 <- Convolution18
I1006 17:36:08.992265  3702 net.cpp:380] Eltwise8 -> Eltwise8
I1006 17:36:08.992281  3702 net.cpp:122] Setting up Eltwise8
I1006 17:36:08.992285  3702 net.cpp:129] Top shape: 100 32 14 14 (627200)
I1006 17:36:08.992287  3702 net.cpp:137] Memory required for data: 389805200
I1006 17:36:08.992290  3702 layer_factory.hpp:77] Creating layer penlu17
I1006 17:36:08.992295  3702 net.cpp:84] Creating Layer penlu17
I1006 17:36:08.992296  3702 net.cpp:406] penlu17 <- Eltwise8
I1006 17:36:08.992300  3702 net.cpp:367] penlu17 -> Eltwise8 (in-place)
I1006 17:36:08.992406  3702 net.cpp:122] Setting up penlu17
I1006 17:36:08.992410  3702 net.cpp:129] Top shape: 100 32 14 14 (627200)
I1006 17:36:08.992413  3702 net.cpp:137] Memory required for data: 392314000
I1006 17:36:08.992418  3702 layer_factory.hpp:77] Creating layer Eltwise8_penlu17_0_split
I1006 17:36:08.992421  3702 net.cpp:84] Creating Layer Eltwise8_penlu17_0_split
I1006 17:36:08.992424  3702 net.cpp:406] Eltwise8_penlu17_0_split <- Eltwise8
I1006 17:36:08.992426  3702 net.cpp:380] Eltwise8_penlu17_0_split -> Eltwise8_penlu17_0_split_0
I1006 17:36:08.992430  3702 net.cpp:380] Eltwise8_penlu17_0_split -> Eltwise8_penlu17_0_split_1
I1006 17:36:08.992453  3702 net.cpp:122] Setting up Eltwise8_penlu17_0_split
I1006 17:36:08.992457  3702 net.cpp:129] Top shape: 100 32 14 14 (627200)
I1006 17:36:08.992460  3702 net.cpp:129] Top shape: 100 32 14 14 (627200)
I1006 17:36:08.992461  3702 net.cpp:137] Memory required for data: 397331600
I1006 17:36:08.992463  3702 layer_factory.hpp:77] Creating layer Convolution19
I1006 17:36:08.992470  3702 net.cpp:84] Creating Layer Convolution19
I1006 17:36:08.992471  3702 net.cpp:406] Convolution19 <- Eltwise8_penlu17_0_split_0
I1006 17:36:08.992476  3702 net.cpp:380] Convolution19 -> Convolution19
I1006 17:36:08.994216  3702 net.cpp:122] Setting up Convolution19
I1006 17:36:08.994228  3702 net.cpp:129] Top shape: 100 32 14 14 (627200)
I1006 17:36:08.994233  3702 net.cpp:137] Memory required for data: 399840400
I1006 17:36:08.994241  3702 layer_factory.hpp:77] Creating layer BatchNorm19
I1006 17:36:08.994251  3702 net.cpp:84] Creating Layer BatchNorm19
I1006 17:36:08.994258  3702 net.cpp:406] BatchNorm19 <- Convolution19
I1006 17:36:08.994266  3702 net.cpp:367] BatchNorm19 -> Convolution19 (in-place)
I1006 17:36:08.994410  3702 net.cpp:122] Setting up BatchNorm19
I1006 17:36:08.994416  3702 net.cpp:129] Top shape: 100 32 14 14 (627200)
I1006 17:36:08.994421  3702 net.cpp:137] Memory required for data: 402349200
I1006 17:36:08.994429  3702 layer_factory.hpp:77] Creating layer Scale19
I1006 17:36:08.994438  3702 net.cpp:84] Creating Layer Scale19
I1006 17:36:08.994444  3702 net.cpp:406] Scale19 <- Convolution19
I1006 17:36:08.994449  3702 net.cpp:367] Scale19 -> Convolution19 (in-place)
I1006 17:36:08.994484  3702 layer_factory.hpp:77] Creating layer Scale19
I1006 17:36:08.994568  3702 net.cpp:122] Setting up Scale19
I1006 17:36:08.994575  3702 net.cpp:129] Top shape: 100 32 14 14 (627200)
I1006 17:36:08.994580  3702 net.cpp:137] Memory required for data: 404858000
I1006 17:36:08.994587  3702 layer_factory.hpp:77] Creating layer penlu18
I1006 17:36:08.994597  3702 net.cpp:84] Creating Layer penlu18
I1006 17:36:08.994601  3702 net.cpp:406] penlu18 <- Convolution19
I1006 17:36:08.994609  3702 net.cpp:367] penlu18 -> Convolution19 (in-place)
I1006 17:36:08.994720  3702 net.cpp:122] Setting up penlu18
I1006 17:36:08.994729  3702 net.cpp:129] Top shape: 100 32 14 14 (627200)
I1006 17:36:08.994740  3702 net.cpp:137] Memory required for data: 407366800
I1006 17:36:08.994748  3702 layer_factory.hpp:77] Creating layer Convolution20
I1006 17:36:08.994761  3702 net.cpp:84] Creating Layer Convolution20
I1006 17:36:08.994766  3702 net.cpp:406] Convolution20 <- Convolution19
I1006 17:36:08.994773  3702 net.cpp:380] Convolution20 -> Convolution20
I1006 17:36:08.995857  3702 net.cpp:122] Setting up Convolution20
I1006 17:36:08.995869  3702 net.cpp:129] Top shape: 100 32 14 14 (627200)
I1006 17:36:08.995873  3702 net.cpp:137] Memory required for data: 409875600
I1006 17:36:08.995882  3702 layer_factory.hpp:77] Creating layer BatchNorm20
I1006 17:36:08.995890  3702 net.cpp:84] Creating Layer BatchNorm20
I1006 17:36:08.995895  3702 net.cpp:406] BatchNorm20 <- Convolution20
I1006 17:36:08.995903  3702 net.cpp:367] BatchNorm20 -> Convolution20 (in-place)
I1006 17:36:08.996044  3702 net.cpp:122] Setting up BatchNorm20
I1006 17:36:08.996052  3702 net.cpp:129] Top shape: 100 32 14 14 (627200)
I1006 17:36:08.996055  3702 net.cpp:137] Memory required for data: 412384400
I1006 17:36:08.996065  3702 layer_factory.hpp:77] Creating layer Scale20
I1006 17:36:08.996073  3702 net.cpp:84] Creating Layer Scale20
I1006 17:36:08.996078  3702 net.cpp:406] Scale20 <- Convolution20
I1006 17:36:08.996085  3702 net.cpp:367] Scale20 -> Convolution20 (in-place)
I1006 17:36:08.996115  3702 layer_factory.hpp:77] Creating layer Scale20
I1006 17:36:08.996192  3702 net.cpp:122] Setting up Scale20
I1006 17:36:08.996197  3702 net.cpp:129] Top shape: 100 32 14 14 (627200)
I1006 17:36:08.996199  3702 net.cpp:137] Memory required for data: 414893200
I1006 17:36:08.996203  3702 layer_factory.hpp:77] Creating layer Eltwise9
I1006 17:36:08.996207  3702 net.cpp:84] Creating Layer Eltwise9
I1006 17:36:08.996209  3702 net.cpp:406] Eltwise9 <- Eltwise8_penlu17_0_split_1
I1006 17:36:08.996212  3702 net.cpp:406] Eltwise9 <- Convolution20
I1006 17:36:08.996217  3702 net.cpp:380] Eltwise9 -> Eltwise9
I1006 17:36:08.996232  3702 net.cpp:122] Setting up Eltwise9
I1006 17:36:08.996235  3702 net.cpp:129] Top shape: 100 32 14 14 (627200)
I1006 17:36:08.996237  3702 net.cpp:137] Memory required for data: 417402000
I1006 17:36:08.996240  3702 layer_factory.hpp:77] Creating layer penlu19
I1006 17:36:08.996244  3702 net.cpp:84] Creating Layer penlu19
I1006 17:36:08.996246  3702 net.cpp:406] penlu19 <- Eltwise9
I1006 17:36:08.996250  3702 net.cpp:367] penlu19 -> Eltwise9 (in-place)
I1006 17:36:08.996357  3702 net.cpp:122] Setting up penlu19
I1006 17:36:08.996361  3702 net.cpp:129] Top shape: 100 32 14 14 (627200)
I1006 17:36:08.996363  3702 net.cpp:137] Memory required for data: 419910800
I1006 17:36:08.996368  3702 layer_factory.hpp:77] Creating layer Eltwise9_penlu19_0_split
I1006 17:36:08.996371  3702 net.cpp:84] Creating Layer Eltwise9_penlu19_0_split
I1006 17:36:08.996373  3702 net.cpp:406] Eltwise9_penlu19_0_split <- Eltwise9
I1006 17:36:08.996376  3702 net.cpp:380] Eltwise9_penlu19_0_split -> Eltwise9_penlu19_0_split_0
I1006 17:36:08.996381  3702 net.cpp:380] Eltwise9_penlu19_0_split -> Eltwise9_penlu19_0_split_1
I1006 17:36:08.996402  3702 net.cpp:122] Setting up Eltwise9_penlu19_0_split
I1006 17:36:08.996407  3702 net.cpp:129] Top shape: 100 32 14 14 (627200)
I1006 17:36:08.996409  3702 net.cpp:129] Top shape: 100 32 14 14 (627200)
I1006 17:36:08.996412  3702 net.cpp:137] Memory required for data: 424928400
I1006 17:36:08.996413  3702 layer_factory.hpp:77] Creating layer Convolution21
I1006 17:36:08.996419  3702 net.cpp:84] Creating Layer Convolution21
I1006 17:36:08.996423  3702 net.cpp:406] Convolution21 <- Eltwise9_penlu19_0_split_0
I1006 17:36:08.996425  3702 net.cpp:380] Convolution21 -> Convolution21
I1006 17:36:08.997778  3702 net.cpp:122] Setting up Convolution21
I1006 17:36:08.997787  3702 net.cpp:129] Top shape: 100 32 14 14 (627200)
I1006 17:36:08.997789  3702 net.cpp:137] Memory required for data: 427437200
I1006 17:36:08.997794  3702 layer_factory.hpp:77] Creating layer BatchNorm21
I1006 17:36:08.997800  3702 net.cpp:84] Creating Layer BatchNorm21
I1006 17:36:08.997809  3702 net.cpp:406] BatchNorm21 <- Convolution21
I1006 17:36:08.997813  3702 net.cpp:367] BatchNorm21 -> Convolution21 (in-place)
I1006 17:36:08.997949  3702 net.cpp:122] Setting up BatchNorm21
I1006 17:36:08.997954  3702 net.cpp:129] Top shape: 100 32 14 14 (627200)
I1006 17:36:08.997956  3702 net.cpp:137] Memory required for data: 429946000
I1006 17:36:08.997962  3702 layer_factory.hpp:77] Creating layer Scale21
I1006 17:36:08.997967  3702 net.cpp:84] Creating Layer Scale21
I1006 17:36:08.997968  3702 net.cpp:406] Scale21 <- Convolution21
I1006 17:36:08.997972  3702 net.cpp:367] Scale21 -> Convolution21 (in-place)
I1006 17:36:08.997999  3702 layer_factory.hpp:77] Creating layer Scale21
I1006 17:36:08.998076  3702 net.cpp:122] Setting up Scale21
I1006 17:36:08.998080  3702 net.cpp:129] Top shape: 100 32 14 14 (627200)
I1006 17:36:08.998083  3702 net.cpp:137] Memory required for data: 432454800
I1006 17:36:08.998086  3702 layer_factory.hpp:77] Creating layer penlu20
I1006 17:36:08.998092  3702 net.cpp:84] Creating Layer penlu20
I1006 17:36:08.998095  3702 net.cpp:406] penlu20 <- Convolution21
I1006 17:36:08.998098  3702 net.cpp:367] penlu20 -> Convolution21 (in-place)
I1006 17:36:08.998204  3702 net.cpp:122] Setting up penlu20
I1006 17:36:08.998209  3702 net.cpp:129] Top shape: 100 32 14 14 (627200)
I1006 17:36:08.998211  3702 net.cpp:137] Memory required for data: 434963600
I1006 17:36:08.998215  3702 layer_factory.hpp:77] Creating layer Convolution22
I1006 17:36:08.998224  3702 net.cpp:84] Creating Layer Convolution22
I1006 17:36:08.998225  3702 net.cpp:406] Convolution22 <- Convolution21
I1006 17:36:08.998229  3702 net.cpp:380] Convolution22 -> Convolution22
I1006 17:36:08.999310  3702 net.cpp:122] Setting up Convolution22
I1006 17:36:08.999318  3702 net.cpp:129] Top shape: 100 32 14 14 (627200)
I1006 17:36:08.999321  3702 net.cpp:137] Memory required for data: 437472400
I1006 17:36:08.999325  3702 layer_factory.hpp:77] Creating layer BatchNorm22
I1006 17:36:08.999331  3702 net.cpp:84] Creating Layer BatchNorm22
I1006 17:36:08.999333  3702 net.cpp:406] BatchNorm22 <- Convolution22
I1006 17:36:08.999338  3702 net.cpp:367] BatchNorm22 -> Convolution22 (in-place)
I1006 17:36:08.999472  3702 net.cpp:122] Setting up BatchNorm22
I1006 17:36:08.999477  3702 net.cpp:129] Top shape: 100 32 14 14 (627200)
I1006 17:36:08.999480  3702 net.cpp:137] Memory required for data: 439981200
I1006 17:36:08.999483  3702 layer_factory.hpp:77] Creating layer Scale22
I1006 17:36:08.999488  3702 net.cpp:84] Creating Layer Scale22
I1006 17:36:08.999491  3702 net.cpp:406] Scale22 <- Convolution22
I1006 17:36:08.999495  3702 net.cpp:367] Scale22 -> Convolution22 (in-place)
I1006 17:36:08.999521  3702 layer_factory.hpp:77] Creating layer Scale22
I1006 17:36:08.999598  3702 net.cpp:122] Setting up Scale22
I1006 17:36:08.999601  3702 net.cpp:129] Top shape: 100 32 14 14 (627200)
I1006 17:36:08.999603  3702 net.cpp:137] Memory required for data: 442490000
I1006 17:36:08.999608  3702 layer_factory.hpp:77] Creating layer Eltwise10
I1006 17:36:08.999611  3702 net.cpp:84] Creating Layer Eltwise10
I1006 17:36:08.999614  3702 net.cpp:406] Eltwise10 <- Eltwise9_penlu19_0_split_1
I1006 17:36:08.999617  3702 net.cpp:406] Eltwise10 <- Convolution22
I1006 17:36:08.999620  3702 net.cpp:380] Eltwise10 -> Eltwise10
I1006 17:36:08.999636  3702 net.cpp:122] Setting up Eltwise10
I1006 17:36:08.999640  3702 net.cpp:129] Top shape: 100 32 14 14 (627200)
I1006 17:36:08.999642  3702 net.cpp:137] Memory required for data: 444998800
I1006 17:36:08.999644  3702 layer_factory.hpp:77] Creating layer penlu21
I1006 17:36:08.999650  3702 net.cpp:84] Creating Layer penlu21
I1006 17:36:08.999652  3702 net.cpp:406] penlu21 <- Eltwise10
I1006 17:36:08.999655  3702 net.cpp:367] penlu21 -> Eltwise10 (in-place)
I1006 17:36:08.999763  3702 net.cpp:122] Setting up penlu21
I1006 17:36:08.999766  3702 net.cpp:129] Top shape: 100 32 14 14 (627200)
I1006 17:36:08.999769  3702 net.cpp:137] Memory required for data: 447507600
I1006 17:36:08.999773  3702 layer_factory.hpp:77] Creating layer Eltwise10_penlu21_0_split
I1006 17:36:08.999784  3702 net.cpp:84] Creating Layer Eltwise10_penlu21_0_split
I1006 17:36:08.999788  3702 net.cpp:406] Eltwise10_penlu21_0_split <- Eltwise10
I1006 17:36:08.999790  3702 net.cpp:380] Eltwise10_penlu21_0_split -> Eltwise10_penlu21_0_split_0
I1006 17:36:08.999794  3702 net.cpp:380] Eltwise10_penlu21_0_split -> Eltwise10_penlu21_0_split_1
I1006 17:36:08.999819  3702 net.cpp:122] Setting up Eltwise10_penlu21_0_split
I1006 17:36:08.999822  3702 net.cpp:129] Top shape: 100 32 14 14 (627200)
I1006 17:36:08.999825  3702 net.cpp:129] Top shape: 100 32 14 14 (627200)
I1006 17:36:08.999827  3702 net.cpp:137] Memory required for data: 452525200
I1006 17:36:08.999830  3702 layer_factory.hpp:77] Creating layer Convolution23
I1006 17:36:08.999836  3702 net.cpp:84] Creating Layer Convolution23
I1006 17:36:08.999838  3702 net.cpp:406] Convolution23 <- Eltwise10_penlu21_0_split_0
I1006 17:36:08.999842  3702 net.cpp:380] Convolution23 -> Convolution23
I1006 17:36:09.000736  3702 net.cpp:122] Setting up Convolution23
I1006 17:36:09.000744  3702 net.cpp:129] Top shape: 100 64 7 7 (313600)
I1006 17:36:09.000747  3702 net.cpp:137] Memory required for data: 453779600
I1006 17:36:09.000751  3702 layer_factory.hpp:77] Creating layer BatchNorm23
I1006 17:36:09.000757  3702 net.cpp:84] Creating Layer BatchNorm23
I1006 17:36:09.000759  3702 net.cpp:406] BatchNorm23 <- Convolution23
I1006 17:36:09.000763  3702 net.cpp:367] BatchNorm23 -> Convolution23 (in-place)
I1006 17:36:09.000896  3702 net.cpp:122] Setting up BatchNorm23
I1006 17:36:09.000901  3702 net.cpp:129] Top shape: 100 64 7 7 (313600)
I1006 17:36:09.000903  3702 net.cpp:137] Memory required for data: 455034000
I1006 17:36:09.000907  3702 layer_factory.hpp:77] Creating layer Scale23
I1006 17:36:09.000912  3702 net.cpp:84] Creating Layer Scale23
I1006 17:36:09.000915  3702 net.cpp:406] Scale23 <- Convolution23
I1006 17:36:09.000917  3702 net.cpp:367] Scale23 -> Convolution23 (in-place)
I1006 17:36:09.000943  3702 layer_factory.hpp:77] Creating layer Scale23
I1006 17:36:09.001020  3702 net.cpp:122] Setting up Scale23
I1006 17:36:09.001025  3702 net.cpp:129] Top shape: 100 64 7 7 (313600)
I1006 17:36:09.001027  3702 net.cpp:137] Memory required for data: 456288400
I1006 17:36:09.001031  3702 layer_factory.hpp:77] Creating layer Convolution24
I1006 17:36:09.001039  3702 net.cpp:84] Creating Layer Convolution24
I1006 17:36:09.001041  3702 net.cpp:406] Convolution24 <- Eltwise10_penlu21_0_split_1
I1006 17:36:09.001045  3702 net.cpp:380] Convolution24 -> Convolution24
I1006 17:36:09.002811  3702 net.cpp:122] Setting up Convolution24
I1006 17:36:09.002820  3702 net.cpp:129] Top shape: 100 64 7 7 (313600)
I1006 17:36:09.002822  3702 net.cpp:137] Memory required for data: 457542800
I1006 17:36:09.002827  3702 layer_factory.hpp:77] Creating layer BatchNorm24
I1006 17:36:09.002832  3702 net.cpp:84] Creating Layer BatchNorm24
I1006 17:36:09.002835  3702 net.cpp:406] BatchNorm24 <- Convolution24
I1006 17:36:09.002840  3702 net.cpp:367] BatchNorm24 -> Convolution24 (in-place)
I1006 17:36:09.002974  3702 net.cpp:122] Setting up BatchNorm24
I1006 17:36:09.002979  3702 net.cpp:129] Top shape: 100 64 7 7 (313600)
I1006 17:36:09.002981  3702 net.cpp:137] Memory required for data: 458797200
I1006 17:36:09.002985  3702 layer_factory.hpp:77] Creating layer Scale24
I1006 17:36:09.002990  3702 net.cpp:84] Creating Layer Scale24
I1006 17:36:09.002993  3702 net.cpp:406] Scale24 <- Convolution24
I1006 17:36:09.002996  3702 net.cpp:367] Scale24 -> Convolution24 (in-place)
I1006 17:36:09.003022  3702 layer_factory.hpp:77] Creating layer Scale24
I1006 17:36:09.003101  3702 net.cpp:122] Setting up Scale24
I1006 17:36:09.003106  3702 net.cpp:129] Top shape: 100 64 7 7 (313600)
I1006 17:36:09.003108  3702 net.cpp:137] Memory required for data: 460051600
I1006 17:36:09.003113  3702 layer_factory.hpp:77] Creating layer penlu22
I1006 17:36:09.003118  3702 net.cpp:84] Creating Layer penlu22
I1006 17:36:09.003119  3702 net.cpp:406] penlu22 <- Convolution24
I1006 17:36:09.003130  3702 net.cpp:367] penlu22 -> Convolution24 (in-place)
I1006 17:36:09.003265  3702 net.cpp:122] Setting up penlu22
I1006 17:36:09.003271  3702 net.cpp:129] Top shape: 100 64 7 7 (313600)
I1006 17:36:09.003273  3702 net.cpp:137] Memory required for data: 461306000
I1006 17:36:09.003278  3702 layer_factory.hpp:77] Creating layer Convolution25
I1006 17:36:09.003284  3702 net.cpp:84] Creating Layer Convolution25
I1006 17:36:09.003288  3702 net.cpp:406] Convolution25 <- Convolution24
I1006 17:36:09.003291  3702 net.cpp:380] Convolution25 -> Convolution25
I1006 17:36:09.005252  3702 net.cpp:122] Setting up Convolution25
I1006 17:36:09.005260  3702 net.cpp:129] Top shape: 100 64 7 7 (313600)
I1006 17:36:09.005264  3702 net.cpp:137] Memory required for data: 462560400
I1006 17:36:09.005267  3702 layer_factory.hpp:77] Creating layer BatchNorm25
I1006 17:36:09.005273  3702 net.cpp:84] Creating Layer BatchNorm25
I1006 17:36:09.005275  3702 net.cpp:406] BatchNorm25 <- Convolution25
I1006 17:36:09.005280  3702 net.cpp:367] BatchNorm25 -> Convolution25 (in-place)
I1006 17:36:09.005419  3702 net.cpp:122] Setting up BatchNorm25
I1006 17:36:09.005424  3702 net.cpp:129] Top shape: 100 64 7 7 (313600)
I1006 17:36:09.005425  3702 net.cpp:137] Memory required for data: 463814800
I1006 17:36:09.005430  3702 layer_factory.hpp:77] Creating layer Scale25
I1006 17:36:09.005434  3702 net.cpp:84] Creating Layer Scale25
I1006 17:36:09.005436  3702 net.cpp:406] Scale25 <- Convolution25
I1006 17:36:09.005440  3702 net.cpp:367] Scale25 -> Convolution25 (in-place)
I1006 17:36:09.005468  3702 layer_factory.hpp:77] Creating layer Scale25
I1006 17:36:09.005545  3702 net.cpp:122] Setting up Scale25
I1006 17:36:09.005549  3702 net.cpp:129] Top shape: 100 64 7 7 (313600)
I1006 17:36:09.005551  3702 net.cpp:137] Memory required for data: 465069200
I1006 17:36:09.005554  3702 layer_factory.hpp:77] Creating layer Eltwise11
I1006 17:36:09.005559  3702 net.cpp:84] Creating Layer Eltwise11
I1006 17:36:09.005561  3702 net.cpp:406] Eltwise11 <- Convolution23
I1006 17:36:09.005564  3702 net.cpp:406] Eltwise11 <- Convolution25
I1006 17:36:09.005568  3702 net.cpp:380] Eltwise11 -> Eltwise11
I1006 17:36:09.005584  3702 net.cpp:122] Setting up Eltwise11
I1006 17:36:09.005587  3702 net.cpp:129] Top shape: 100 64 7 7 (313600)
I1006 17:36:09.005589  3702 net.cpp:137] Memory required for data: 466323600
I1006 17:36:09.005591  3702 layer_factory.hpp:77] Creating layer penlu23
I1006 17:36:09.005597  3702 net.cpp:84] Creating Layer penlu23
I1006 17:36:09.005599  3702 net.cpp:406] penlu23 <- Eltwise11
I1006 17:36:09.005602  3702 net.cpp:367] penlu23 -> Eltwise11 (in-place)
I1006 17:36:09.005712  3702 net.cpp:122] Setting up penlu23
I1006 17:36:09.005717  3702 net.cpp:129] Top shape: 100 64 7 7 (313600)
I1006 17:36:09.005718  3702 net.cpp:137] Memory required for data: 467578000
I1006 17:36:09.005722  3702 layer_factory.hpp:77] Creating layer Eltwise11_penlu23_0_split
I1006 17:36:09.005726  3702 net.cpp:84] Creating Layer Eltwise11_penlu23_0_split
I1006 17:36:09.005728  3702 net.cpp:406] Eltwise11_penlu23_0_split <- Eltwise11
I1006 17:36:09.005733  3702 net.cpp:380] Eltwise11_penlu23_0_split -> Eltwise11_penlu23_0_split_0
I1006 17:36:09.005736  3702 net.cpp:380] Eltwise11_penlu23_0_split -> Eltwise11_penlu23_0_split_1
I1006 17:36:09.005759  3702 net.cpp:122] Setting up Eltwise11_penlu23_0_split
I1006 17:36:09.005762  3702 net.cpp:129] Top shape: 100 64 7 7 (313600)
I1006 17:36:09.005765  3702 net.cpp:129] Top shape: 100 64 7 7 (313600)
I1006 17:36:09.005767  3702 net.cpp:137] Memory required for data: 470086800
I1006 17:36:09.005769  3702 layer_factory.hpp:77] Creating layer Convolution26
I1006 17:36:09.005775  3702 net.cpp:84] Creating Layer Convolution26
I1006 17:36:09.005777  3702 net.cpp:406] Convolution26 <- Eltwise11_penlu23_0_split_0
I1006 17:36:09.005782  3702 net.cpp:380] Convolution26 -> Convolution26
I1006 17:36:09.007462  3702 net.cpp:122] Setting up Convolution26
I1006 17:36:09.007472  3702 net.cpp:129] Top shape: 100 64 7 7 (313600)
I1006 17:36:09.007480  3702 net.cpp:137] Memory required for data: 471341200
I1006 17:36:09.007485  3702 layer_factory.hpp:77] Creating layer BatchNorm26
I1006 17:36:09.007491  3702 net.cpp:84] Creating Layer BatchNorm26
I1006 17:36:09.007494  3702 net.cpp:406] BatchNorm26 <- Convolution26
I1006 17:36:09.007498  3702 net.cpp:367] BatchNorm26 -> Convolution26 (in-place)
I1006 17:36:09.007634  3702 net.cpp:122] Setting up BatchNorm26
I1006 17:36:09.007638  3702 net.cpp:129] Top shape: 100 64 7 7 (313600)
I1006 17:36:09.007640  3702 net.cpp:137] Memory required for data: 472595600
I1006 17:36:09.007645  3702 layer_factory.hpp:77] Creating layer Scale26
I1006 17:36:09.007649  3702 net.cpp:84] Creating Layer Scale26
I1006 17:36:09.007652  3702 net.cpp:406] Scale26 <- Convolution26
I1006 17:36:09.007655  3702 net.cpp:367] Scale26 -> Convolution26 (in-place)
I1006 17:36:09.007683  3702 layer_factory.hpp:77] Creating layer Scale26
I1006 17:36:09.007761  3702 net.cpp:122] Setting up Scale26
I1006 17:36:09.007766  3702 net.cpp:129] Top shape: 100 64 7 7 (313600)
I1006 17:36:09.007768  3702 net.cpp:137] Memory required for data: 473850000
I1006 17:36:09.007772  3702 layer_factory.hpp:77] Creating layer penlu24
I1006 17:36:09.007776  3702 net.cpp:84] Creating Layer penlu24
I1006 17:36:09.007779  3702 net.cpp:406] penlu24 <- Convolution26
I1006 17:36:09.007783  3702 net.cpp:367] penlu24 -> Convolution26 (in-place)
I1006 17:36:09.007894  3702 net.cpp:122] Setting up penlu24
I1006 17:36:09.007899  3702 net.cpp:129] Top shape: 100 64 7 7 (313600)
I1006 17:36:09.007901  3702 net.cpp:137] Memory required for data: 475104400
I1006 17:36:09.007905  3702 layer_factory.hpp:77] Creating layer Convolution27
I1006 17:36:09.007912  3702 net.cpp:84] Creating Layer Convolution27
I1006 17:36:09.007915  3702 net.cpp:406] Convolution27 <- Convolution26
I1006 17:36:09.007920  3702 net.cpp:380] Convolution27 -> Convolution27
I1006 17:36:09.009563  3702 net.cpp:122] Setting up Convolution27
I1006 17:36:09.009572  3702 net.cpp:129] Top shape: 100 64 7 7 (313600)
I1006 17:36:09.009575  3702 net.cpp:137] Memory required for data: 476358800
I1006 17:36:09.009579  3702 layer_factory.hpp:77] Creating layer BatchNorm27
I1006 17:36:09.009583  3702 net.cpp:84] Creating Layer BatchNorm27
I1006 17:36:09.009587  3702 net.cpp:406] BatchNorm27 <- Convolution27
I1006 17:36:09.009590  3702 net.cpp:367] BatchNorm27 -> Convolution27 (in-place)
I1006 17:36:09.009732  3702 net.cpp:122] Setting up BatchNorm27
I1006 17:36:09.009735  3702 net.cpp:129] Top shape: 100 64 7 7 (313600)
I1006 17:36:09.009737  3702 net.cpp:137] Memory required for data: 477613200
I1006 17:36:09.009760  3702 layer_factory.hpp:77] Creating layer Scale27
I1006 17:36:09.009773  3702 net.cpp:84] Creating Layer Scale27
I1006 17:36:09.009776  3702 net.cpp:406] Scale27 <- Convolution27
I1006 17:36:09.009779  3702 net.cpp:367] Scale27 -> Convolution27 (in-place)
I1006 17:36:09.009809  3702 layer_factory.hpp:77] Creating layer Scale27
I1006 17:36:09.009887  3702 net.cpp:122] Setting up Scale27
I1006 17:36:09.009891  3702 net.cpp:129] Top shape: 100 64 7 7 (313600)
I1006 17:36:09.009894  3702 net.cpp:137] Memory required for data: 478867600
I1006 17:36:09.009898  3702 layer_factory.hpp:77] Creating layer Eltwise12
I1006 17:36:09.009902  3702 net.cpp:84] Creating Layer Eltwise12
I1006 17:36:09.009905  3702 net.cpp:406] Eltwise12 <- Eltwise11_penlu23_0_split_1
I1006 17:36:09.009908  3702 net.cpp:406] Eltwise12 <- Convolution27
I1006 17:36:09.009912  3702 net.cpp:380] Eltwise12 -> Eltwise12
I1006 17:36:09.009932  3702 net.cpp:122] Setting up Eltwise12
I1006 17:36:09.009937  3702 net.cpp:129] Top shape: 100 64 7 7 (313600)
I1006 17:36:09.009938  3702 net.cpp:137] Memory required for data: 480122000
I1006 17:36:09.009940  3702 layer_factory.hpp:77] Creating layer penlu25
I1006 17:36:09.009945  3702 net.cpp:84] Creating Layer penlu25
I1006 17:36:09.009948  3702 net.cpp:406] penlu25 <- Eltwise12
I1006 17:36:09.009950  3702 net.cpp:367] penlu25 -> Eltwise12 (in-place)
I1006 17:36:09.010063  3702 net.cpp:122] Setting up penlu25
I1006 17:36:09.010073  3702 net.cpp:129] Top shape: 100 64 7 7 (313600)
I1006 17:36:09.010076  3702 net.cpp:137] Memory required for data: 481376400
I1006 17:36:09.010080  3702 layer_factory.hpp:77] Creating layer Eltwise12_penlu25_0_split
I1006 17:36:09.010085  3702 net.cpp:84] Creating Layer Eltwise12_penlu25_0_split
I1006 17:36:09.010088  3702 net.cpp:406] Eltwise12_penlu25_0_split <- Eltwise12
I1006 17:36:09.010092  3702 net.cpp:380] Eltwise12_penlu25_0_split -> Eltwise12_penlu25_0_split_0
I1006 17:36:09.010095  3702 net.cpp:380] Eltwise12_penlu25_0_split -> Eltwise12_penlu25_0_split_1
I1006 17:36:09.010121  3702 net.cpp:122] Setting up Eltwise12_penlu25_0_split
I1006 17:36:09.010125  3702 net.cpp:129] Top shape: 100 64 7 7 (313600)
I1006 17:36:09.010128  3702 net.cpp:129] Top shape: 100 64 7 7 (313600)
I1006 17:36:09.010130  3702 net.cpp:137] Memory required for data: 483885200
I1006 17:36:09.010133  3702 layer_factory.hpp:77] Creating layer Convolution28
I1006 17:36:09.010138  3702 net.cpp:84] Creating Layer Convolution28
I1006 17:36:09.010140  3702 net.cpp:406] Convolution28 <- Eltwise12_penlu25_0_split_0
I1006 17:36:09.010145  3702 net.cpp:380] Convolution28 -> Convolution28
I1006 17:36:09.011821  3702 net.cpp:122] Setting up Convolution28
I1006 17:36:09.011831  3702 net.cpp:129] Top shape: 100 64 7 7 (313600)
I1006 17:36:09.011833  3702 net.cpp:137] Memory required for data: 485139600
I1006 17:36:09.011837  3702 layer_factory.hpp:77] Creating layer BatchNorm28
I1006 17:36:09.011843  3702 net.cpp:84] Creating Layer BatchNorm28
I1006 17:36:09.011845  3702 net.cpp:406] BatchNorm28 <- Convolution28
I1006 17:36:09.011849  3702 net.cpp:367] BatchNorm28 -> Convolution28 (in-place)
I1006 17:36:09.011987  3702 net.cpp:122] Setting up BatchNorm28
I1006 17:36:09.011991  3702 net.cpp:129] Top shape: 100 64 7 7 (313600)
I1006 17:36:09.011993  3702 net.cpp:137] Memory required for data: 486394000
I1006 17:36:09.011998  3702 layer_factory.hpp:77] Creating layer Scale28
I1006 17:36:09.012002  3702 net.cpp:84] Creating Layer Scale28
I1006 17:36:09.012004  3702 net.cpp:406] Scale28 <- Convolution28
I1006 17:36:09.012007  3702 net.cpp:367] Scale28 -> Convolution28 (in-place)
I1006 17:36:09.012035  3702 layer_factory.hpp:77] Creating layer Scale28
I1006 17:36:09.012115  3702 net.cpp:122] Setting up Scale28
I1006 17:36:09.012118  3702 net.cpp:129] Top shape: 100 64 7 7 (313600)
I1006 17:36:09.012120  3702 net.cpp:137] Memory required for data: 487648400
I1006 17:36:09.012125  3702 layer_factory.hpp:77] Creating layer penlu26
I1006 17:36:09.012130  3702 net.cpp:84] Creating Layer penlu26
I1006 17:36:09.012131  3702 net.cpp:406] penlu26 <- Convolution28
I1006 17:36:09.012135  3702 net.cpp:367] penlu26 -> Convolution28 (in-place)
I1006 17:36:09.012248  3702 net.cpp:122] Setting up penlu26
I1006 17:36:09.012253  3702 net.cpp:129] Top shape: 100 64 7 7 (313600)
I1006 17:36:09.012254  3702 net.cpp:137] Memory required for data: 488902800
I1006 17:36:09.012259  3702 layer_factory.hpp:77] Creating layer Convolution29
I1006 17:36:09.012265  3702 net.cpp:84] Creating Layer Convolution29
I1006 17:36:09.012269  3702 net.cpp:406] Convolution29 <- Convolution28
I1006 17:36:09.012272  3702 net.cpp:380] Convolution29 -> Convolution29
I1006 17:36:09.014236  3702 net.cpp:122] Setting up Convolution29
I1006 17:36:09.014245  3702 net.cpp:129] Top shape: 100 64 7 7 (313600)
I1006 17:36:09.014247  3702 net.cpp:137] Memory required for data: 490157200
I1006 17:36:09.014251  3702 layer_factory.hpp:77] Creating layer BatchNorm29
I1006 17:36:09.014257  3702 net.cpp:84] Creating Layer BatchNorm29
I1006 17:36:09.014261  3702 net.cpp:406] BatchNorm29 <- Convolution29
I1006 17:36:09.014264  3702 net.cpp:367] BatchNorm29 -> Convolution29 (in-place)
I1006 17:36:09.014407  3702 net.cpp:122] Setting up BatchNorm29
I1006 17:36:09.014412  3702 net.cpp:129] Top shape: 100 64 7 7 (313600)
I1006 17:36:09.014415  3702 net.cpp:137] Memory required for data: 491411600
I1006 17:36:09.014420  3702 layer_factory.hpp:77] Creating layer Scale29
I1006 17:36:09.014423  3702 net.cpp:84] Creating Layer Scale29
I1006 17:36:09.014433  3702 net.cpp:406] Scale29 <- Convolution29
I1006 17:36:09.014436  3702 net.cpp:367] Scale29 -> Convolution29 (in-place)
I1006 17:36:09.014466  3702 layer_factory.hpp:77] Creating layer Scale29
I1006 17:36:09.014547  3702 net.cpp:122] Setting up Scale29
I1006 17:36:09.014551  3702 net.cpp:129] Top shape: 100 64 7 7 (313600)
I1006 17:36:09.014554  3702 net.cpp:137] Memory required for data: 492666000
I1006 17:36:09.014557  3702 layer_factory.hpp:77] Creating layer Eltwise13
I1006 17:36:09.014562  3702 net.cpp:84] Creating Layer Eltwise13
I1006 17:36:09.014565  3702 net.cpp:406] Eltwise13 <- Eltwise12_penlu25_0_split_1
I1006 17:36:09.014567  3702 net.cpp:406] Eltwise13 <- Convolution29
I1006 17:36:09.014571  3702 net.cpp:380] Eltwise13 -> Eltwise13
I1006 17:36:09.014587  3702 net.cpp:122] Setting up Eltwise13
I1006 17:36:09.014591  3702 net.cpp:129] Top shape: 100 64 7 7 (313600)
I1006 17:36:09.014593  3702 net.cpp:137] Memory required for data: 493920400
I1006 17:36:09.014595  3702 layer_factory.hpp:77] Creating layer penlu27
I1006 17:36:09.014601  3702 net.cpp:84] Creating Layer penlu27
I1006 17:36:09.014605  3702 net.cpp:406] penlu27 <- Eltwise13
I1006 17:36:09.014607  3702 net.cpp:367] penlu27 -> Eltwise13 (in-place)
I1006 17:36:09.014719  3702 net.cpp:122] Setting up penlu27
I1006 17:36:09.014722  3702 net.cpp:129] Top shape: 100 64 7 7 (313600)
I1006 17:36:09.014724  3702 net.cpp:137] Memory required for data: 495174800
I1006 17:36:09.014729  3702 layer_factory.hpp:77] Creating layer Eltwise13_penlu27_0_split
I1006 17:36:09.014732  3702 net.cpp:84] Creating Layer Eltwise13_penlu27_0_split
I1006 17:36:09.014735  3702 net.cpp:406] Eltwise13_penlu27_0_split <- Eltwise13
I1006 17:36:09.014739  3702 net.cpp:380] Eltwise13_penlu27_0_split -> Eltwise13_penlu27_0_split_0
I1006 17:36:09.014742  3702 net.cpp:380] Eltwise13_penlu27_0_split -> Eltwise13_penlu27_0_split_1
I1006 17:36:09.014765  3702 net.cpp:122] Setting up Eltwise13_penlu27_0_split
I1006 17:36:09.014770  3702 net.cpp:129] Top shape: 100 64 7 7 (313600)
I1006 17:36:09.014772  3702 net.cpp:129] Top shape: 100 64 7 7 (313600)
I1006 17:36:09.014775  3702 net.cpp:137] Memory required for data: 497683600
I1006 17:36:09.014776  3702 layer_factory.hpp:77] Creating layer Convolution30
I1006 17:36:09.014782  3702 net.cpp:84] Creating Layer Convolution30
I1006 17:36:09.014786  3702 net.cpp:406] Convolution30 <- Eltwise13_penlu27_0_split_0
I1006 17:36:09.014789  3702 net.cpp:380] Convolution30 -> Convolution30
I1006 17:36:09.016479  3702 net.cpp:122] Setting up Convolution30
I1006 17:36:09.016487  3702 net.cpp:129] Top shape: 100 64 7 7 (313600)
I1006 17:36:09.016489  3702 net.cpp:137] Memory required for data: 498938000
I1006 17:36:09.016494  3702 layer_factory.hpp:77] Creating layer BatchNorm30
I1006 17:36:09.016499  3702 net.cpp:84] Creating Layer BatchNorm30
I1006 17:36:09.016502  3702 net.cpp:406] BatchNorm30 <- Convolution30
I1006 17:36:09.016506  3702 net.cpp:367] BatchNorm30 -> Convolution30 (in-place)
I1006 17:36:09.016645  3702 net.cpp:122] Setting up BatchNorm30
I1006 17:36:09.016649  3702 net.cpp:129] Top shape: 100 64 7 7 (313600)
I1006 17:36:09.016651  3702 net.cpp:137] Memory required for data: 500192400
I1006 17:36:09.016656  3702 layer_factory.hpp:77] Creating layer Scale30
I1006 17:36:09.016661  3702 net.cpp:84] Creating Layer Scale30
I1006 17:36:09.016664  3702 net.cpp:406] Scale30 <- Convolution30
I1006 17:36:09.016667  3702 net.cpp:367] Scale30 -> Convolution30 (in-place)
I1006 17:36:09.016695  3702 layer_factory.hpp:77] Creating layer Scale30
I1006 17:36:09.016774  3702 net.cpp:122] Setting up Scale30
I1006 17:36:09.016779  3702 net.cpp:129] Top shape: 100 64 7 7 (313600)
I1006 17:36:09.016782  3702 net.cpp:137] Memory required for data: 501446800
I1006 17:36:09.016785  3702 layer_factory.hpp:77] Creating layer penlu28
I1006 17:36:09.016790  3702 net.cpp:84] Creating Layer penlu28
I1006 17:36:09.016793  3702 net.cpp:406] penlu28 <- Convolution30
I1006 17:36:09.016796  3702 net.cpp:367] penlu28 -> Convolution30 (in-place)
I1006 17:36:09.016916  3702 net.cpp:122] Setting up penlu28
I1006 17:36:09.016921  3702 net.cpp:129] Top shape: 100 64 7 7 (313600)
I1006 17:36:09.016922  3702 net.cpp:137] Memory required for data: 502701200
I1006 17:36:09.016927  3702 layer_factory.hpp:77] Creating layer Convolution31
I1006 17:36:09.016933  3702 net.cpp:84] Creating Layer Convolution31
I1006 17:36:09.016935  3702 net.cpp:406] Convolution31 <- Convolution30
I1006 17:36:09.016939  3702 net.cpp:380] Convolution31 -> Convolution31
I1006 17:36:09.018913  3702 net.cpp:122] Setting up Convolution31
I1006 17:36:09.018923  3702 net.cpp:129] Top shape: 100 64 7 7 (313600)
I1006 17:36:09.018924  3702 net.cpp:137] Memory required for data: 503955600
I1006 17:36:09.018929  3702 layer_factory.hpp:77] Creating layer BatchNorm31
I1006 17:36:09.018934  3702 net.cpp:84] Creating Layer BatchNorm31
I1006 17:36:09.018936  3702 net.cpp:406] BatchNorm31 <- Convolution31
I1006 17:36:09.018940  3702 net.cpp:367] BatchNorm31 -> Convolution31 (in-place)
I1006 17:36:09.019083  3702 net.cpp:122] Setting up BatchNorm31
I1006 17:36:09.019088  3702 net.cpp:129] Top shape: 100 64 7 7 (313600)
I1006 17:36:09.019090  3702 net.cpp:137] Memory required for data: 505210000
I1006 17:36:09.019094  3702 layer_factory.hpp:77] Creating layer Scale31
I1006 17:36:09.019098  3702 net.cpp:84] Creating Layer Scale31
I1006 17:36:09.019101  3702 net.cpp:406] Scale31 <- Convolution31
I1006 17:36:09.019105  3702 net.cpp:367] Scale31 -> Convolution31 (in-place)
I1006 17:36:09.019132  3702 layer_factory.hpp:77] Creating layer Scale31
I1006 17:36:09.019239  3702 net.cpp:122] Setting up Scale31
I1006 17:36:09.019245  3702 net.cpp:129] Top shape: 100 64 7 7 (313600)
I1006 17:36:09.019248  3702 net.cpp:137] Memory required for data: 506464400
I1006 17:36:09.019251  3702 layer_factory.hpp:77] Creating layer Eltwise14
I1006 17:36:09.019255  3702 net.cpp:84] Creating Layer Eltwise14
I1006 17:36:09.019258  3702 net.cpp:406] Eltwise14 <- Eltwise13_penlu27_0_split_1
I1006 17:36:09.019260  3702 net.cpp:406] Eltwise14 <- Convolution31
I1006 17:36:09.019264  3702 net.cpp:380] Eltwise14 -> Eltwise14
I1006 17:36:09.019280  3702 net.cpp:122] Setting up Eltwise14
I1006 17:36:09.019285  3702 net.cpp:129] Top shape: 100 64 7 7 (313600)
I1006 17:36:09.019287  3702 net.cpp:137] Memory required for data: 507718800
I1006 17:36:09.019289  3702 layer_factory.hpp:77] Creating layer penlu29
I1006 17:36:09.019294  3702 net.cpp:84] Creating Layer penlu29
I1006 17:36:09.019296  3702 net.cpp:406] penlu29 <- Eltwise14
I1006 17:36:09.019300  3702 net.cpp:367] penlu29 -> Eltwise14 (in-place)
I1006 17:36:09.019413  3702 net.cpp:122] Setting up penlu29
I1006 17:36:09.019418  3702 net.cpp:129] Top shape: 100 64 7 7 (313600)
I1006 17:36:09.019419  3702 net.cpp:137] Memory required for data: 508973200
I1006 17:36:09.019423  3702 layer_factory.hpp:77] Creating layer Eltwise14_penlu29_0_split
I1006 17:36:09.019428  3702 net.cpp:84] Creating Layer Eltwise14_penlu29_0_split
I1006 17:36:09.019429  3702 net.cpp:406] Eltwise14_penlu29_0_split <- Eltwise14
I1006 17:36:09.019433  3702 net.cpp:380] Eltwise14_penlu29_0_split -> Eltwise14_penlu29_0_split_0
I1006 17:36:09.019436  3702 net.cpp:380] Eltwise14_penlu29_0_split -> Eltwise14_penlu29_0_split_1
I1006 17:36:09.019460  3702 net.cpp:122] Setting up Eltwise14_penlu29_0_split
I1006 17:36:09.019464  3702 net.cpp:129] Top shape: 100 64 7 7 (313600)
I1006 17:36:09.019466  3702 net.cpp:129] Top shape: 100 64 7 7 (313600)
I1006 17:36:09.019469  3702 net.cpp:137] Memory required for data: 511482000
I1006 17:36:09.019471  3702 layer_factory.hpp:77] Creating layer Convolution32
I1006 17:36:09.019477  3702 net.cpp:84] Creating Layer Convolution32
I1006 17:36:09.019480  3702 net.cpp:406] Convolution32 <- Eltwise14_penlu29_0_split_0
I1006 17:36:09.019484  3702 net.cpp:380] Convolution32 -> Convolution32
I1006 17:36:09.021152  3702 net.cpp:122] Setting up Convolution32
I1006 17:36:09.021162  3702 net.cpp:129] Top shape: 100 64 7 7 (313600)
I1006 17:36:09.021163  3702 net.cpp:137] Memory required for data: 512736400
I1006 17:36:09.021174  3702 layer_factory.hpp:77] Creating layer BatchNorm32
I1006 17:36:09.021181  3702 net.cpp:84] Creating Layer BatchNorm32
I1006 17:36:09.021183  3702 net.cpp:406] BatchNorm32 <- Convolution32
I1006 17:36:09.021188  3702 net.cpp:367] BatchNorm32 -> Convolution32 (in-place)
I1006 17:36:09.021330  3702 net.cpp:122] Setting up BatchNorm32
I1006 17:36:09.021334  3702 net.cpp:129] Top shape: 100 64 7 7 (313600)
I1006 17:36:09.021337  3702 net.cpp:137] Memory required for data: 513990800
I1006 17:36:09.021342  3702 layer_factory.hpp:77] Creating layer Scale32
I1006 17:36:09.021345  3702 net.cpp:84] Creating Layer Scale32
I1006 17:36:09.021347  3702 net.cpp:406] Scale32 <- Convolution32
I1006 17:36:09.021351  3702 net.cpp:367] Scale32 -> Convolution32 (in-place)
I1006 17:36:09.021378  3702 layer_factory.hpp:77] Creating layer Scale32
I1006 17:36:09.021459  3702 net.cpp:122] Setting up Scale32
I1006 17:36:09.021464  3702 net.cpp:129] Top shape: 100 64 7 7 (313600)
I1006 17:36:09.021466  3702 net.cpp:137] Memory required for data: 515245200
I1006 17:36:09.021471  3702 layer_factory.hpp:77] Creating layer penlu30
I1006 17:36:09.021476  3702 net.cpp:84] Creating Layer penlu30
I1006 17:36:09.021478  3702 net.cpp:406] penlu30 <- Convolution32
I1006 17:36:09.021482  3702 net.cpp:367] penlu30 -> Convolution32 (in-place)
I1006 17:36:09.021594  3702 net.cpp:122] Setting up penlu30
I1006 17:36:09.021598  3702 net.cpp:129] Top shape: 100 64 7 7 (313600)
I1006 17:36:09.021600  3702 net.cpp:137] Memory required for data: 516499600
I1006 17:36:09.021605  3702 layer_factory.hpp:77] Creating layer Convolution33
I1006 17:36:09.021611  3702 net.cpp:84] Creating Layer Convolution33
I1006 17:36:09.021613  3702 net.cpp:406] Convolution33 <- Convolution32
I1006 17:36:09.021617  3702 net.cpp:380] Convolution33 -> Convolution33
I1006 17:36:09.023620  3702 net.cpp:122] Setting up Convolution33
I1006 17:36:09.023629  3702 net.cpp:129] Top shape: 100 64 7 7 (313600)
I1006 17:36:09.023633  3702 net.cpp:137] Memory required for data: 517754000
I1006 17:36:09.023636  3702 layer_factory.hpp:77] Creating layer BatchNorm33
I1006 17:36:09.023643  3702 net.cpp:84] Creating Layer BatchNorm33
I1006 17:36:09.023645  3702 net.cpp:406] BatchNorm33 <- Convolution33
I1006 17:36:09.023648  3702 net.cpp:367] BatchNorm33 -> Convolution33 (in-place)
I1006 17:36:09.023792  3702 net.cpp:122] Setting up BatchNorm33
I1006 17:36:09.023797  3702 net.cpp:129] Top shape: 100 64 7 7 (313600)
I1006 17:36:09.023798  3702 net.cpp:137] Memory required for data: 519008400
I1006 17:36:09.023802  3702 layer_factory.hpp:77] Creating layer Scale33
I1006 17:36:09.023807  3702 net.cpp:84] Creating Layer Scale33
I1006 17:36:09.023809  3702 net.cpp:406] Scale33 <- Convolution33
I1006 17:36:09.023813  3702 net.cpp:367] Scale33 -> Convolution33 (in-place)
I1006 17:36:09.023851  3702 layer_factory.hpp:77] Creating layer Scale33
I1006 17:36:09.023982  3702 net.cpp:122] Setting up Scale33
I1006 17:36:09.023989  3702 net.cpp:129] Top shape: 100 64 7 7 (313600)
I1006 17:36:09.023993  3702 net.cpp:137] Memory required for data: 520262800
I1006 17:36:09.023999  3702 layer_factory.hpp:77] Creating layer Eltwise15
I1006 17:36:09.024006  3702 net.cpp:84] Creating Layer Eltwise15
I1006 17:36:09.024010  3702 net.cpp:406] Eltwise15 <- Eltwise14_penlu29_0_split_1
I1006 17:36:09.024015  3702 net.cpp:406] Eltwise15 <- Convolution33
I1006 17:36:09.024020  3702 net.cpp:380] Eltwise15 -> Eltwise15
I1006 17:36:09.024039  3702 net.cpp:122] Setting up Eltwise15
I1006 17:36:09.024044  3702 net.cpp:129] Top shape: 100 64 7 7 (313600)
I1006 17:36:09.024046  3702 net.cpp:137] Memory required for data: 521517200
I1006 17:36:09.024049  3702 layer_factory.hpp:77] Creating layer penlu31
I1006 17:36:09.024055  3702 net.cpp:84] Creating Layer penlu31
I1006 17:36:09.024056  3702 net.cpp:406] penlu31 <- Eltwise15
I1006 17:36:09.024060  3702 net.cpp:367] penlu31 -> Eltwise15 (in-place)
I1006 17:36:09.024176  3702 net.cpp:122] Setting up penlu31
I1006 17:36:09.024180  3702 net.cpp:129] Top shape: 100 64 7 7 (313600)
I1006 17:36:09.024189  3702 net.cpp:137] Memory required for data: 522771600
I1006 17:36:09.024194  3702 layer_factory.hpp:77] Creating layer Pooling1
I1006 17:36:09.024199  3702 net.cpp:84] Creating Layer Pooling1
I1006 17:36:09.024202  3702 net.cpp:406] Pooling1 <- Eltwise15
I1006 17:36:09.024205  3702 net.cpp:380] Pooling1 -> Pooling1
I1006 17:36:09.024364  3702 net.cpp:122] Setting up Pooling1
I1006 17:36:09.024371  3702 net.cpp:129] Top shape: 100 64 1 1 (6400)
I1006 17:36:09.024374  3702 net.cpp:137] Memory required for data: 522797200
I1006 17:36:09.024376  3702 layer_factory.hpp:77] Creating layer InnerProduct1
I1006 17:36:09.024385  3702 net.cpp:84] Creating Layer InnerProduct1
I1006 17:36:09.024387  3702 net.cpp:406] InnerProduct1 <- Pooling1
I1006 17:36:09.024392  3702 net.cpp:380] InnerProduct1 -> InnerProduct1
I1006 17:36:09.024492  3702 net.cpp:122] Setting up InnerProduct1
I1006 17:36:09.024497  3702 net.cpp:129] Top shape: 100 10 (1000)
I1006 17:36:09.024499  3702 net.cpp:137] Memory required for data: 522801200
I1006 17:36:09.024503  3702 layer_factory.hpp:77] Creating layer SoftmaxWithLoss1
I1006 17:36:09.024508  3702 net.cpp:84] Creating Layer SoftmaxWithLoss1
I1006 17:36:09.024510  3702 net.cpp:406] SoftmaxWithLoss1 <- InnerProduct1
I1006 17:36:09.024513  3702 net.cpp:406] SoftmaxWithLoss1 <- Data2
I1006 17:36:09.024518  3702 net.cpp:380] SoftmaxWithLoss1 -> SoftmaxWithLoss1
…
I1006 17:36:09.028183  3702 net.cpp:294] The NetState phase (1) differed from the phase (0) specified by a rule in layer Data1
I1006 17:36:09.028928  3702 net.cpp:51] Initializing net from parameters: 
name: "resnet_cifar10"
state {
  phase: TEST
}
layer {
  name: "Data1"
  type: "Data"
  top: "Data1"
  top: "Data2"
  include {
    phase: TEST
  }
  transform_param {
    mean_file: "/home/x306/caffe/xn/PENLU/data/cifar10/mean.binaryproto"
  }
  data_param {
    source: "/home/x306/caffe/xn/PENLU/data/cifar10/cifar10_test_lmdb"
    batch_size: 100
    backend: LMDB
  }
}
layer {
  name: "Convolution1"
  type: "Convolution"
  bottom: "Data1"
  top: "Convolution1"
  param {
    lr_mult: 1
    decay_mult: 1
  }
  param {
    lr_mult: 2
    decay_mult: 0
  }
  convolution_param {
    num_output: 16
    pad: 1
    kernel_size: 3
    stride: 1
    weight_filler {
      type: "gaussian"
      std: 0.118
    }
    bias_filler {
      type: "constant"
      value: 0
    }
  }
}
layer {
  name: "BatchNorm1"
  type: "BatchNorm"
  bottom: "Convolution1"
  top: "Convolution1"
  param {
    lr_mult: 0
    decay_mult: 0
  }
  param {
    lr_mult: 0
    decay_mult: 0
  }
  param {
    lr_mult: 0
    decay_mult: 0
  }
}
layer {
  name: "Scale1"
  type: "Scale"
  bottom: "Convolution1"
  top: "Convolution1"
  scale_param {
    bias_term: true
  }
}
layer {
  name: "penlu1"
  type: "PENLU"
  bottom: "Convolution1"
  top: "Convolution1"
  param {
    lr_mult: 2
    decay_mult: 2
  }
  param {
    lr_mult: 2
    decay_mult: 2
  }
  param {
    lr_mult: 0
    decay_mult: 0
  }
  penlu_param {
    alpha_filler {
      type: "constant"
      value: 0.25
    }
    beta_filler {
      type: "constant"
      value: 1
    }
    eta_filler {
      type: "constant"
      value: 1
    }
  }
}
layer {
  name: "Convolution2"
  type: "Convolution"
  bottom: "Convolution1"
  top: "Convolution2"
  param {
    lr_mult: 1
    decay_mult: 1
  }
  param {
    lr_mult: 2
    decay_mult: 0
  }
  convolution_param {
    num_output: 16
    pad: 1
    kernel_size: 3
    stride: 1
    weight_filler {
      type: "gaussian"
      std: 0.118
    }
    bias_filler {
      type: "constant"
      value: 0
    }
  }
}
layer {
  name: "BatchNorm2"
  type: "BatchNorm"
  bottom: "Convolution2"
  top: "Convolution2"
  param {
    lr_mult: 0
    decay_mult: 0
  }
  param {
    lr_mult: 0
    decay_mult: 0
  }
  param {
    lr_mult: 0
    decay_mult: 0
  }
}
layer {
  name: "Scale2"
  type: "Scale"
  bottom: "Convolution2"
  top: "Convolution2"
  scale_param {
    bias_term: true
  }
}
layer {
  name: "penlu2"
  type: "PENLU"
  bottom: "Convolution2"
  top: "Convolution2"
  param {
    lr_mult: 2
    decay_mult: 2
  }
  param {
    lr_mult: 2
    decay_mult: 2
  }
  param {
    lr_mult: 0
    decay_mult: 0
  }
  penlu_param {
    alpha_filler {
      type: "constant"
      value: 0.25
    }
    beta_filler {
      type: "constant"
      value: 1
    }
    eta_filler {
      type: "constant"
      value: 1
    }
  }
}
layer {
  name: "Convolution3"
  type: "Convolution"
  bottom: "Convolution2"
  top: "Convolution3"
  param {
    lr_mult: 1
    decay_mult: 1
  }
  param {
    lr_mult: 2
    decay_mult: 0
  }
  convolution_param {
    num_output: 16
    pad: 1
    kernel_size: 3
    stride: 1
    weight_filler {
      type: "gaussian"
      std: 0.118
    }
    bias_filler {
      type: "constant"
      value: 0
    }
  }
}
layer {
  name: "BatchNorm3"
  type: "BatchNorm"
  bottom: "Convolution3"
  top: "Convolution3"
  param {
    lr_mult: 0
    decay_mult: 0
  }
  param {
    lr_mult: 0
    decay_mult: 0
  }
  param {
    lr_mult: 0
    decay_mult: 0
  }
}
layer {
  name: "Scale3"
  type: "Scale"
  bottom: "Convolution3"
  top: "Convolution3"
  scale_param {
    bias_term: true
  }
}
layer {
  name: "Eltwise1"
  type: "Eltwise"
  bottom: "Convolution1"
  bottom: "Convolution3"
  top: "Eltwise1"
  eltwise_param {
    operation: SUM
  }
}
layer {
  name: "penlu3"
  type: "PENLU"
  bottom: "Eltwise1"
  top: "Eltwise1"
  param {
    lr_mult: 2
    decay_mult: 2
  }
  param {
    lr_mult: 2
    decay_mult: 2
  }
  param {
    lr_mult: 0
    decay_mult: 0
  }
  penlu_param {
    alpha_filler {
      type: "constant"
      value: 0.25
    }
    beta_filler {
      type: "constant"
      value: 1
    }
    eta_filler {
      type: "constant"
      value: 1
    }
  }
}
layer {
  name: "Convolution4"
  type: "Convolution"
  bottom: "Eltwise1"
  top: "Convolution4"
  param {
    lr_mult: 1
    decay_mult: 1
  }
  param {
    lr_mult: 2
    decay_mult: 0
  }
  convolution_param {
    num_output: 16
    pad: 1
    kernel_size: 3
    stride: 1
    weight_filler {
      type: "gaussian"
      std: 0.118
    }
    bias_filler {
      type: "constant"
      value: 0
    }
  }
}
layer {
  name: "BatchNorm4"
  type: "BatchNorm"
  bottom: "Convolution4"
  top: "Convolution4"
  param {
    lr_mult: 0
    decay_mult: 0
  }
  param {
    lr_mult: 0
    decay_mult: 0
  }
  param {
    lr_mult: 0
    decay_mult: 0
  }
}
layer {
  name: "Scale4"
  type: "Scale"
  bottom: "Convolution4"
  top: "Convolution4"
  scale_param {
    bias_term: true
  }
}
layer {
  name: "penlu4"
  type: "PENLU"
  bottom: "Convolution4"
  top: "Convolution4"
  param {
    lr_mult: 2
    decay_mult: 2
  }
  param {
    lr_mult: 2
    decay_mult: 2
  }
  param {
    lr_mult: 0
    decay_mult: 0
  }
  penlu_param {
    alpha_filler {
      type: "constant"
      value: 0.25
    }
    beta_filler {
      type: "constant"
      value: 1
    }
    eta_filler {
      type: "constant"
      value: 1
    }
  }
}
layer {
  name: "Convolution5"
  type: "Convolution"
  bottom: "Convolution4"
  top: "Convolution5"
  param {
    lr_mult: 1
    decay_mult: 1
  }
  param {
    lr_mult: 2
    decay_mult: 0
  }
  convolution_param {
    num_output: 16
    pad: 1
    kernel_size: 3
    stride: 1
    weight_filler {
      type: "gaussian"
      std: 0.118
    }
    bias_filler {
      type: "constant"
      value: 0
    }
  }
}
layer {
  name: "BatchNorm5"
  type: "BatchNorm"
  bottom: "Convolution5"
  top: "Convolution5"
  param {
    lr_mult: 0
    decay_mult: 0
  }
  param {
    lr_mult: 0
    decay_mult: 0
  }
  param {
    lr_mult: 0
    decay_mult: 0
  }
}
layer {
  name: "Scale5"
  type: "Scale"
  bottom: "Convolution5"
  top: "Convolution5"
  scale_param {
    bias_term: true
  }
}
layer {
  name: "Eltwise2"
  type: "Eltwise"
  bottom: "Eltwise1"
  bottom: "Convolution5"
  top: "Eltwise2"
  eltwise_param {
    operation: SUM
  }
}
layer {
  name: "penlu5"
  type: "PENLU"
  bottom: "Eltwise2"
  top: "Eltwise2"
  param {
    lr_mult: 2
    decay_mult: 2
  }
  param {
    lr_mult: 2
    decay_mult: 2
  }
  param {
    lr_mult: 0
    decay_mult: 0
  }
  penlu_param {
    alpha_filler {
      type: "constant"
      value: 0.25
    }
    beta_filler {
      type: "constant"
      value: 1
    }
    eta_filler {
      type: "constant"
      value: 1
    }
  }
}
layer {
  name: "Convolution6"
  type: "Convolution"
  bottom: "Eltwise2"
  top: "Convolution6"
  param {
    lr_mult: 1
    decay_mult: 1
  }
  param {
    lr_mult: 2
    decay_mult: 0
  }
  convolution_param {
    num_output: 16
    pad: 1
    kernel_size: 3
    stride: 1
    weight_filler {
      type: "gaussian"
      std: 0.118
    }
    bias_filler {
      type: "constant"
      value: 0
    }
  }
}
layer {
  name: "BatchNorm6"
  type: "BatchNorm"
  bottom: "Convolution6"
  top: "Convolution6"
  param {
    lr_mult: 0
    decay_mult: 0
  }
  param {
    lr_mult: 0
    decay_mult: 0
  }
  param {
    lr_mult: 0
    decay_mult: 0
  }
}
layer {
  name: "Scale6"
  type: "Scale"
  bottom: "Convolution6"
  top: "Convolution6"
  scale_param {
    bias_term: true
  }
}
layer {
  name: "penlu6"
  type: "PENLU"
  bottom: "Convolution6"
  top: "Convolution6"
  param {
    lr_mult: 2
    decay_mult: 2
  }
  param {
    lr_mult: 2
    decay_mult: 2
  }
  param {
    lr_mult: 0
    decay_mult: 0
  }
  penlu_param {
    alpha_filler {
      type: "constant"
      value: 0.25
    }
    beta_filler {
      type: "constant"
      value: 1
    }
    eta_filler {
      type: "constant"
      value: 1
    }
  }
}
layer {
  name: "Convolution7"
  type: "Convolution"
  bottom: "Convolution6"
  top: "Convolution7"
  param {
    lr_mult: 1
    decay_mult: 1
  }
  param {
    lr_mult: 2
    decay_mult: 0
  }
  convolution_param {
    num_output: 16
    pad: 1
    kernel_size: 3
    stride: 1
    weight_filler {
      type: "gaussian"
      std: 0.118
    }
    bias_filler {
      type: "constant"
      value: 0
    }
  }
}
layer {
  name: "BatchNorm7"
  type: "BatchNorm"
  bottom: "Convolution7"
  top: "Convolution7"
  param {
    lr_mult: 0
    decay_mult: 0
  }
  param {
    lr_mult: 0
    decay_mult: 0
  }
  param {
    lr_mult: 0
    decay_mult: 0
  }
}
layer {
  name: "Scale7"
  type: "Scale"
  bottom: "Convolution7"
  top: "Convolution7"
  scale_param {
    bias_term: true
  }
}
layer {
  name: "Eltwise3"
  type: "Eltwise"
  bottom: "Eltwise2"
  bottom: "Convolution7"
  top: "Eltwise3"
  eltwise_param {
    operation: SUM
  }
}
layer {
  name: "penlu7"
  type: "PENLU"
  bottom: "Eltwise3"
  top: "Eltwise3"
  param {
    lr_mult: 2
    decay_mult: 2
  }
  param {
    lr_mult: 2
    decay_mult: 2
  }
  param {
    lr_mult: 0
    decay_mult: 0
  }
  penlu_param {
    alpha_filler {
      type: "constant"
      value: 0.25
    }
    beta_filler {
      type: "constant"
      value: 1
    }
    eta_filler {
      type: "constant"
      value: 1
    }
  }
}
layer {
  name: "Convolution8"
  type: "Convolution"
  bottom: "Eltwise3"
  top: "Convolution8"
  param {
    lr_mult: 1
    decay_mult: 1
  }
  param {
    lr_mult: 2
    decay_mult: 0
  }
  convolution_param {
    num_output: 16
    pad: 1
    kernel_size: 3
    stride: 1
    weight_filler {
      type: "gaussian"
      std: 0.118
    }
    bias_filler {
      type: "constant"
      value: 0
    }
  }
}
layer {
  name: "BatchNorm8"
  type: "BatchNorm"
  bottom: "Convolution8"
  top: "Convolution8"
  param {
    lr_mult: 0
    decay_mult: 0
  }
  param {
    lr_mult: 0
    decay_mult: 0
  }
  param {
    lr_mult: 0
    decay_mult: 0
  }
}
layer {
  name: "Scale8"
  type: "Scale"
  bottom: "Convolution8"
  top: "Convolution8"
  scale_param {
    bias_term: true
  }
}
layer {
  name: "penlu8"
  type: "PENLU"
  bottom: "Convolution8"
  top: "Convolution8"
  param {
    lr_mult: 2
    decay_mult: 2
  }
  param {
    lr_mult: 2
    decay_mult: 2
  }
  param {
    lr_mult: 0
    decay_mult: 0
  }
  penlu_param {
    alpha_filler {
      type: "constant"
      value: 0.25
    }
    beta_filler {
      type: "constant"
      value: 1
    }
    eta_filler {
      type: "constant"
      value: 1
    }
  }
}
layer {
  name: "Convolution9"
  type: "Convolution"
  bottom: "Convolution8"
  top: "Convolution9"
  param {
    lr_mult: 1
    decay_mult: 1
  }
  param {
    lr_mult: 2
    decay_mult: 0
  }
  convolution_param {
    num_output: 16
    pad: 1
    kernel_size: 3
    stride: 1
    weight_filler {
      type: "gaussian"
      std: 0.118
    }
    bias_filler {
      type: "constant"
      value: 0
    }
  }
}
layer {
  name: "BatchNorm9"
  type: "BatchNorm"
  bottom: "Convolution9"
  top: "Convolution9"
  param {
    lr_mult: 0
    decay_mult: 0
  }
  param {
    lr_mult: 0
    decay_mult: 0
  }
  param {
    lr_mult: 0
    decay_mult: 0
  }
}
layer {
  name: "Scale9"
  type: "Scale"
  bottom: "Convolution9"
  top: "Convolution9"
  scale_param {
    bias_term: true
  }
}
layer {
  name: "Eltwise4"
  type: "Eltwise"
  bottom: "Eltwise3"
  bottom: "Convolution9"
  top: "Eltwise4"
  eltwise_param {
    operation: SUM
  }
}
layer {
  name: "penlu9"
  type: "PENLU"
  bottom: "Eltwise4"
  top: "Eltwise4"
  param {
    lr_mult: 2
    decay_mult: 2
  }
  param {
    lr_mult: 2
    decay_mult: 2
  }
  param {
    lr_mult: 0
    decay_mult: 0
  }
  penlu_param {
    alpha_filler {
      type: "constant"
      value: 0.25
    }
    beta_filler {
      type: "constant"
      value: 1
    }
    eta_filler {
      type: "constant"
      value: 1
    }
  }
}
layer {
  name: "Convolution10"
  type: "Convolution"
  bottom: "Eltwise4"
  top: "Convolution10"
  param {
    lr_mult: 1
    decay_mult: 1
  }
  param {
    lr_mult: 2
    decay_mult: 0
  }
  convolution_param {
    num_output: 16
    pad: 1
    kernel_size: 3
    stride: 1
    weight_filler {
      type: "gaussian"
      std: 0.118
    }
    bias_filler {
      type: "constant"
      value: 0
    }
  }
}
layer {
  name: "BatchNorm10"
  type: "BatchNorm"
  bottom: "Convolution10"
  top: "Convolution10"
  param {
    lr_mult: 0
    decay_mult: 0
  }
  param {
    lr_mult: 0
    decay_mult: 0
  }
  param {
    lr_mult: 0
    decay_mult: 0
  }
}
layer {
  name: "Scale10"
  type: "Scale"
  bottom: "Convolution10"
  top: "Convolution10"
  scale_param {
    bias_term: true
  }
}
layer {
  name: "penlu10"
  type: "PENLU"
  bottom: "Convolution10"
  top: "Convolution10"
  param {
    lr_mult: 2
    decay_mult: 2
  }
  param {
    lr_mult: 2
    decay_mult: 2
  }
  param {
    lr_mult: 0
    decay_mult: 0
  }
  penlu_param {
    alpha_filler {
      type: "constant"
      value: 0.25
    }
    beta_filler {
      type: "constant"
      value: 1
    }
    eta_filler {
      type: "constant"
      value: 1
    }
  }
}
layer {
  name: "Convolution11"
  type: "Convolution"
  bottom: "Convolution10"
  top: "Convolution11"
  param {
    lr_mult: 1
    decay_mult: 1
  }
  param {
    lr_mult: 2
    decay_mult: 0
  }
  convolution_param {
    num_output: 16
    pad: 1
    kernel_size: 3
    stride: 1
    weight_filler {
      type: "gaussian"
      std: 0.118
    }
    bias_filler {
      type: "constant"
      value: 0
    }
  }
}
layer {
  name: "BatchNorm11"
  type: "BatchNorm"
  bottom: "Convolution11"
  top: "Convolution11"
  param {
    lr_mult: 0
    decay_mult: 0
  }
  param {
    lr_mult: 0
    decay_mult: 0
  }
  param {
    lr_mult: 0
    decay_mult: 0
  }
}
layer {
  name: "Scale11"
  type: "Scale"
  bottom: "Convolution11"
  top: "Convolution11"
  scale_param {
    bias_term: true
  }
}
layer {
  name: "Eltwise5"
  type: "Eltwise"
  bottom: "Eltwise4"
  bottom: "Convolution11"
  top: "Eltwise5"
  eltwise_param {
    operation: SUM
  }
}
layer {
  name: "penlu11"
  type: "PENLU"
  bottom: "Eltwise5"
  top: "Eltwise5"
  param {
    lr_mult: 2
    decay_mult: 2
  }
  param {
    lr_mult: 2
    decay_mult: 2
  }
  param {
    lr_mult: 0
    decay_mult: 0
  }
  penlu_param {
    alpha_filler {
      type: "constant"
      value: 0.25
    }
    beta_filler {
      type: "constant"
      value: 1
    }
    eta_filler {
      type: "constant"
      value: 1
    }
  }
}
layer {
  name: "Convolution12"
  type: "Convolution"
  bottom: "Eltwise5"
  top: "Convolution12"
  param {
    lr_mult: 1
    decay_mult: 1
  }
  param {
    lr_mult: 2
    decay_mult: 0
  }
  convolution_param {
    num_output: 32
    pad: 0
    kernel_size: 1
    stride: 2
    weight_filler {
      type: "gaussian"
      std: 0.25
    }
    bias_filler {
      type: "constant"
      value: 0
    }
  }
}
layer {
  name: "BatchNorm12"
  type: "BatchNorm"
  bottom: "Convolution12"
  top: "Convolution12"
  param {
    lr_mult: 0
    decay_mult: 0
  }
  param {
    lr_mult: 0
    decay_mult: 0
  }
  param {
    lr_mult: 0
    decay_mult: 0
  }
}
layer {
  name: "Scale12"
  type: "Scale"
  bottom: "Convolution12"
  top: "Convolution12"
  scale_param {
    bias_term: true
  }
}
layer {
  name: "Convolution13"
  type: "Convolution"
  bottom: "Eltwise5"
  top: "Convolution13"
  param {
    lr_mult: 1
    decay_mult: 1
  }
  param {
    lr_mult: 2
    decay_mult: 0
  }
  convolution_param {
    num_output: 32
    pad: 1
    kernel_size: 3
    stride: 2
    weight_filler {
      type: "gaussian"
      std: 0.083
    }
    bias_filler {
      type: "constant"
      value: 0
    }
  }
}
layer {
  name: "BatchNorm13"
  type: "BatchNorm"
  bottom: "Convolution13"
  top: "Convolution13"
  param {
    lr_mult: 0
    decay_mult: 0
  }
  param {
    lr_mult: 0
    decay_mult: 0
  }
  param {
    lr_mult: 0
    decay_mult: 0
  }
}
layer {
  name: "Scale13"
  type: "Scale"
  bottom: "Convolution13"
  top: "Convolution13"
  scale_param {
    bias_term: true
  }
}
layer {
  name: "penlu12"
  type: "PENLU"
  bottom: "Convolution13"
  top: "Convolution13"
  param {
    lr_mult: 2
    decay_mult: 2
  }
  param {
    lr_mult: 2
    decay_mult: 2
  }
  param {
    lr_mult: 0
    decay_mult: 0
  }
  penlu_param {
    alpha_filler {
      type: "constant"
      value: 0.25
    }
    beta_filler {
      type: "constant"
      value: 1
    }
    eta_filler {
      type: "constant"
      value: 1
    }
  }
}
layer {
  name: "Convolution14"
  type: "Convolution"
  bottom: "Convolution13"
  top: "Convolution14"
  param {
    lr_mult: 1
    decay_mult: 1
  }
  param {
    lr_mult: 2
    decay_mult: 0
  }
  convolution_param {
    num_output: 32
    pad: 1
    kernel_size: 3
    stride: 1
    weight_filler {
      type: "gaussian"
      std: 0.083
    }
    bias_filler {
      type: "constant"
      value: 0
    }
  }
}
layer {
  name: "BatchNorm14"
  type: "BatchNorm"
  bottom: "Convolution14"
  top: "Convolution14"
  param {
    lr_mult: 0
    decay_mult: 0
  }
  param {
    lr_mult: 0
    decay_mult: 0
  }
  param {
    lr_mult: 0
    decay_mult: 0
  }
}
layer {
  name: "Scale14"
  type: "Scale"
  bottom: "Convolution14"
  top: "Convolution14"
  scale_param {
    bias_term: true
  }
}
layer {
  name: "Eltwise6"
  type: "Eltwise"
  bottom: "Convolution12"
  bottom: "Convolution14"
  top: "Eltwise6"
  eltwise_param {
    operation: SUM
  }
}
layer {
  name: "penlu13"
  type: "PENLU"
  bottom: "Eltwise6"
  top: "Eltwise6"
  param {
    lr_mult: 2
    decay_mult: 2
  }
  param {
    lr_mult: 2
    decay_mult: 2
  }
  param {
    lr_mult: 0
    decay_mult: 0
  }
  penlu_param {
    alpha_filler {
      type: "constant"
      value: 0.25
    }
    beta_filler {
      type: "constant"
      value: 1
    }
    eta_filler {
      type: "constant"
      value: 1
    }
  }
}
layer {
  name: "Convolution15"
  type: "Convolution"
  bottom: "Eltwise6"
  top: "Convolution15"
  param {
    lr_mult: 1
    decay_mult: 1
  }
  param {
    lr_mult: 2
    decay_mult: 0
  }
  convolution_param {
    num_output: 32
    pad: 1
    kernel_size: 3
    stride: 1
    weight_filler {
      type: "gaussian"
      std: 0.083
    }
    bias_filler {
      type: "constant"
      value: 0
    }
  }
}
layer {
  name: "BatchNorm15"
  type: "BatchNorm"
  bottom: "Convolution15"
  top: "Convolution15"
  param {
    lr_mult: 0
    decay_mult: 0
  }
  param {
    lr_mult: 0
    decay_mult: 0
  }
  param {
    lr_mult: 0
    decay_mult: 0
  }
}
layer {
  name: "Scale15"
  type: "Scale"
  bottom: "Convolution15"
  top: "Convolution15"
  scale_param {
    bias_term: true
  }
}
layer {
  name: "penlu14"
  type: "PENLU"
  bottom: "Convolution15"
  top: "Convolution15"
  param {
    lr_mult: 2
    decay_mult: 2
  }
  param {
    lr_mult: 2
    decay_mult: 2
  }
  param {
    lr_mult: 0
    decay_mult: 0
  }
  penlu_param {
    alpha_filler {
      type: "constant"
      value: 0.25
    }
    beta_filler {
      type: "constant"
      value: 1
    }
    eta_filler {
      type: "constant"
      value: 1
    }
  }
}
layer {
  name: "Convolution16"
  type: "Convolution"
  bottom: "Convolution15"
  top: "Convolution16"
  param {
    lr_mult: 1
    decay_mult: 1
  }
  param {
    lr_mult: 2
    decay_mult: 0
  }
  convolution_param {
    num_output: 32
    pad: 1
    kernel_size: 3
    stride: 1
    weight_filler {
      type: "gaussian"
      std: 0.083
    }
    bias_filler {
      type: "constant"
      value: 0
    }
  }
}
layer {
  name: "BatchNorm16"
  type: "BatchNorm"
  bottom: "Convolution16"
  top: "Convolution16"
  param {
    lr_mult: 0
    decay_mult: 0
  }
  param {
    lr_mult: 0
    decay_mult: 0
  }
  param {
    lr_mult: 0
    decay_mult: 0
  }
}
layer {
  name: "Scale16"
  type: "Scale"
  bottom: "Convolution16"
  top: "Convolution16"
  scale_param {
    bias_term: true
  }
}
layer {
  name: "Eltwise7"
  type: "Eltwise"
  bottom: "Eltwise6"
  bottom: "Convolution16"
  top: "Eltwise7"
  eltwise_param {
    operation: SUM
  }
}
layer {
  name: "penlu15"
  type: "PENLU"
  bottom: "Eltwise7"
  top: "Eltwise7"
  param {
    lr_mult: 2
    decay_mult: 2
  }
  param {
    lr_mult: 2
    decay_mult: 2
  }
  param {
    lr_mult: 0
    decay_mult: 0
  }
  penlu_param {
    alpha_filler {
      type: "constant"
      value: 0.25
    }
    beta_filler {
      type: "constant"
      value: 1
    }
    eta_filler {
      type: "constant"
      value: 1
    }
  }
}
layer {
  name: "Convolution17"
  type: "Convolution"
  bottom: "Eltwise7"
  top: "Convolution17"
  param {
    lr_mult: 1
    decay_mult: 1
  }
  param {
    lr_mult: 2
    decay_mult: 0
  }
  convolution_param {
    num_output: 32
    pad: 1
    kernel_size: 3
    stride: 1
    weight_filler {
      type: "gaussian"
      std: 0.083
    }
    bias_filler {
      type: "constant"
      value: 0
    }
  }
}
layer {
  name: "BatchNorm17"
  type: "BatchNorm"
  bottom: "Convolution17"
  top: "Convolution17"
  param {
    lr_mult: 0
    decay_mult: 0
  }
  param {
    lr_mult: 0
    decay_mult: 0
  }
  param {
    lr_mult: 0
    decay_mult: 0
  }
}
layer {
  name: "Scale17"
  type: "Scale"
  bottom: "Convolution17"
  top: "Convolution17"
  scale_param {
    bias_term: true
  }
}
layer {
  name: "penlu16"
  type: "PENLU"
  bottom: "Convolution17"
  top: "Convolution17"
  param {
    lr_mult: 2
    decay_mult: 2
  }
  param {
    lr_mult: 2
    decay_mult: 2
  }
  param {
    lr_mult: 0
    decay_mult: 0
  }
  penlu_param {
    alpha_filler {
      type: "constant"
      value: 0.25
    }
    beta_filler {
      type: "constant"
      value: 1
    }
    eta_filler {
      type: "constant"
      value: 1
    }
  }
}
layer {
  name: "Convolution18"
  type: "Convolution"
  bottom: "Convolution17"
  top: "Convolution18"
  param {
    lr_mult: 1
    decay_mult: 1
  }
  param {
    lr_mult: 2
    decay_mult: 0
  }
  convolution_param {
    num_output: 32
    pad: 1
    kernel_size: 3
    stride: 1
    weight_filler {
      type: "gaussian"
      std: 0.083
    }
    bias_filler {
      type: "constant"
      value: 0
    }
  }
}
layer {
  name: "BatchNorm18"
  type: "BatchNorm"
  bottom: "Convolution18"
  top: "Convolution18"
  param {
    lr_mult: 0
    decay_mult: 0
  }
  param {
    lr_mult: 0
    decay_mult: 0
  }
  param {
    lr_mult: 0
    decay_mult: 0
  }
}
layer {
  name: "Scale18"
  type: "Scale"
  bottom: "Convolution18"
  top: "Convolution18"
  scale_param {
    bias_term: true
  }
}
layer {
  name: "Eltwise8"
  type: "Eltwise"
  bottom: "Eltwise7"
  bottom: "Convolution18"
  top: "Eltwise8"
  eltwise_param {
    operation: SUM
  }
}
layer {
  name: "penlu17"
  type: "PENLU"
  bottom: "Eltwise8"
  top: "Eltwise8"
  param {
    lr_mult: 2
    decay_mult: 2
  }
  param {
    lr_mult: 2
    decay_mult: 2
  }
  param {
    lr_mult: 0
    decay_mult: 0
  }
  penlu_param {
    alpha_filler {
      type: "constant"
      value: 0.25
    }
    beta_filler {
      type: "constant"
      value: 1
    }
    eta_filler {
      type: "constant"
      value: 1
    }
  }
}
layer {
  name: "Convolution19"
  type: "Convolution"
  bottom: "Eltwise8"
  top: "Convolution19"
  param {
    lr_mult: 1
    decay_mult: 1
  }
  param {
    lr_mult: 2
    decay_mult: 0
  }
  convolution_param {
    num_output: 32
    pad: 1
    kernel_size: 3
    stride: 1
    weight_filler {
      type: "gaussian"
      std: 0.083
    }
    bias_filler {
      type: "constant"
      value: 0
    }
  }
}
layer {
  name: "BatchNorm19"
  type: "BatchNorm"
  bottom: "Convolution19"
  top: "Convolution19"
  param {
    lr_mult: 0
    decay_mult: 0
  }
  param {
    lr_mult: 0
    decay_mult: 0
  }
  param {
    lr_mult: 0
    decay_mult: 0
  }
}
layer {
  name: "Scale19"
  type: "Scale"
  bottom: "Convolution19"
  top: "Convolution19"
  scale_param {
    bias_term: true
  }
}
layer {
  name: "penlu18"
  type: "PENLU"
  bottom: "Convolution19"
  top: "Convolution19"
  param {
    lr_mult: 2
    decay_mult: 2
  }
  param {
    lr_mult: 2
    decay_mult: 2
  }
  param {
    lr_mult: 0
    decay_mult: 0
  }
  penlu_param {
    alpha_filler {
      type: "constant"
      value: 0.25
    }
    beta_filler {
      type: "constant"
      value: 1
    }
    eta_filler {
      type: "constant"
      value: 1
    }
  }
}
layer {
  name: "Convolution20"
  type: "Convolution"
  bottom: "Convolution19"
  top: "Convolution20"
  param {
    lr_mult: 1
    decay_mult: 1
  }
  param {
    lr_mult: 2
    decay_mult: 0
  }
  convolution_param {
    num_output: 32
    pad: 1
    kernel_size: 3
    stride: 1
    weight_filler {
      type: "gaussian"
      std: 0.083
    }
    bias_filler {
      type: "constant"
      value: 0
    }
  }
}
layer {
  name: "BatchNorm20"
  type: "BatchNorm"
  bottom: "Convolution20"
  top: "Convolution20"
  param {
    lr_mult: 0
    decay_mult: 0
  }
  param {
    lr_mult: 0
    decay_mult: 0
  }
  param {
    lr_mult: 0
    decay_mult: 0
  }
}
layer {
  name: "Scale20"
  type: "Scale"
  bottom: "Convolution20"
  top: "Convolution20"
  scale_param {
    bias_term: true
  }
}
layer {
  name: "Eltwise9"
  type: "Eltwise"
  bottom: "Eltwise8"
  bottom: "Convolution20"
  top: "Eltwise9"
  eltwise_param {
    operation: SUM
  }
}
layer {
  name: "penlu19"
  type: "PENLU"
  bottom: "Eltwise9"
  top: "Eltwise9"
  param {
    lr_mult: 2
    decay_mult: 2
  }
  param {
    lr_mult: 2
    decay_mult: 2
  }
  param {
    lr_mult: 0
    decay_mult: 0
  }
  penlu_param {
    alpha_filler {
      type: "constant"
      value: 0.25
    }
    beta_filler {
      type: "constant"
      value: 1
    }
    eta_filler {
      type: "constant"
      value: 1
    }
  }
}
layer {
  name: "Convolution21"
  type: "Convolution"
  bottom: "Eltwise9"
  top: "Convolution21"
  param {
    lr_mult: 1
    decay_mult: 1
  }
  param {
    lr_mult: 2
    decay_mult: 0
  }
  convolution_param {
    num_output: 32
    pad: 1
    kernel_size: 3
    stride: 1
    weight_filler {
      type: "gaussian"
      std: 0.083
    }
    bias_filler {
      type: "constant"
      value: 0
    }
  }
}
layer {
  name: "BatchNorm21"
  type: "BatchNorm"
  bottom: "Convolution21"
  top: "Convolution21"
  param {
    lr_mult: 0
    decay_mult: 0
  }
  param {
    lr_mult: 0
    decay_mult: 0
  }
  param {
    lr_mult: 0
    decay_mult: 0
  }
}
layer {
  name: "Scale21"
  type: "Scale"
  bottom: "Convolution21"
  top: "Convolution21"
  scale_param {
    bias_term: true
  }
}
layer {
  name: "penlu20"
  type: "PENLU"
  bottom: "Convolution21"
  top: "Convolution21"
  param {
    lr_mult: 2
    decay_mult: 2
  }
  param {
    lr_mult: 2
    decay_mult: 2
  }
  param {
    lr_mult: 0
    decay_mult: 0
  }
  penlu_param {
    alpha_filler {
      type: "constant"
      value: 0.25
    }
    beta_filler {
      type: "constant"
      value: 1
    }
    eta_filler {
      type: "constant"
      value: 1
    }
  }
}
layer {
  name: "Convolution22"
  type: "Convolution"
  bottom: "Convolution21"
  top: "Convolution22"
  param {
    lr_mult: 1
    decay_mult: 1
  }
  param {
    lr_mult: 2
    decay_mult: 0
  }
  convolution_param {
    num_output: 32
    pad: 1
    kernel_size: 3
    stride: 1
    weight_filler {
      type: "gaussian"
      std: 0.083
    }
    bias_filler {
      type: "constant"
      value: 0
    }
  }
}
layer {
  name: "BatchNorm22"
  type: "BatchNorm"
  bottom: "Convolution22"
  top: "Convolution22"
  param {
    lr_mult: 0
    decay_mult: 0
  }
  param {
    lr_mult: 0
    decay_mult: 0
  }
  param {
    lr_mult: 0
    decay_mult: 0
  }
}
layer {
  name: "Scale22"
  type: "Scale"
  bottom: "Convolution22"
  top: "Convolution22"
  scale_param {
    bias_term: true
  }
}
layer {
  name: "Eltwise10"
  type: "Eltwise"
  bottom: "Eltwise9"
  bottom: "Convolution22"
  top: "Eltwise10"
  eltwise_param {
    operation: SUM
  }
}
layer {
  name: "penlu21"
  type: "PENLU"
  bottom: "Eltwise10"
  top: "Eltwise10"
  param {
    lr_mult: 2
    decay_mult: 2
  }
  param {
    lr_mult: 2
    decay_mult: 2
  }
  param {
    lr_mult: 0
    decay_mult: 0
  }
  penlu_param {
    alpha_filler {
      type: "constant"
      value: 0.25
    }
    beta_filler {
      type: "constant"
      value: 1
    }
    eta_filler {
      type: "constant"
      value: 1
    }
  }
}
layer {
  name: "Convolution23"
  type: "Convolution"
  bottom: "Eltwise10"
  top: "Convolution23"
  param {
    lr_mult: 1
    decay_mult: 1
  }
  param {
    lr_mult: 2
    decay_mult: 0
  }
  convolution_param {
    num_output: 64
    pad: 0
    kernel_size: 1
    stride: 2
    weight_filler {
      type: "gaussian"
      std: 0.17677669
    }
    bias_filler {
      type: "constant"
      value: 0
    }
  }
}
layer {
  name: "BatchNorm23"
  type: "BatchNorm"
  bottom: "Convolution23"
  top: "Convolution23"
  param {
    lr_mult: 0
    decay_mult: 0
  }
  param {
    lr_mult: 0
    decay_mult: 0
  }
  param {
    lr_mult: 0
    decay_mult: 0
  }
}
layer {
  name: "Scale23"
  type: "Scale"
  bottom: "Convolution23"
  top: "Convolution23"
  scale_param {
    bias_term: true
  }
}
layer {
  name: "Convolution24"
  type: "Convolution"
  bottom: "Eltwise10"
  top: "Convolution24"
  param {
    lr_mult: 1
    decay_mult: 1
  }
  param {
    lr_mult: 2
    decay_mult: 0
  }
  convolution_param {
    num_output: 64
    pad: 1
    kernel_size: 3
    stride: 2
    weight_filler {
      type: "gaussian"
      std: 0.059
    }
    bias_filler {
      type: "constant"
      value: 0
    }
  }
}
layer {
  name: "BatchNorm24"
  type: "BatchNorm"
  bottom: "Convolution24"
  top: "Convolution24"
  param {
    lr_mult: 0
    decay_mult: 0
  }
  param {
    lr_mult: 0
    decay_mult: 0
  }
  param {
    lr_mult: 0
    decay_mult: 0
  }
}
layer {
  name: "Scale24"
  type: "Scale"
  bottom: "Convolution24"
  top: "Convolution24"
  scale_param {
    bi
I1006 17:36:09.029338  3702 layer_factory.hpp:77] Creating layer Data1
I1006 17:36:09.054451  3702 db_lmdb.cpp:35] Opened lmdb /home/x306/caffe/xn/PENLU/data/cifar10/cifar10_test_lmdb
I1006 17:36:09.054469  3702 net.cpp:84] Creating Layer Data1
I1006 17:36:09.054477  3702 net.cpp:380] Data1 -> Data1
I1006 17:36:09.054487  3702 net.cpp:380] Data1 -> Data2
I1006 17:36:09.054496  3702 data_transformer.cpp:25] Loading mean file from: /home/x306/caffe/xn/PENLU/data/cifar10/mean.binaryproto
I1006 17:36:09.054648  3702 data_layer.cpp:45] output data size: 100,3,32,32
I1006 17:36:09.058933  3702 net.cpp:122] Setting up Data1
I1006 17:36:09.058954  3702 net.cpp:129] Top shape: 100 3 32 32 (307200)
I1006 17:36:09.058959  3702 net.cpp:129] Top shape: 100 (100)
…
I1006 17:36:09.121078  3702 net.cpp:129] Top shape: 100 32 16 16 (819200)
I1006 17:36:09.121079  3702 net.cpp:137] Memory required for data: 459982000
I1006 17:36:09.121083  3702 layer_factory.hpp:77] Creating layer Convolution16
I1006 17:36:09.121090  3702 net.cpp:84] Creating Layer Convolution16
I1006 17:36:09.121093  3702 net.cpp:406] Convolution16 <- Convolution15
I1006 17:36:09.121098  3702 net.cpp:380] Convolution16 -> Convolution16
I1006 17:36:09.122709  3702 net.cpp:122] Setting up Convolution16
I1006 17:36:09.122719  3702 net.cpp:129] Top shape: 100 32 16 16 (819200)
I1006 17:36:09.122721  3702 net.cpp:137] Memory required for data: 463258800
I1006 17:36:09.122725  3702 layer_factory.hpp:77] Creating layer BatchNorm16
I1006 17:36:09.122731  3702 net.cpp:84] Creating Layer BatchNorm16
I1006 17:36:09.122735  3702 net.cpp:406] BatchNorm16 <- Convolution16
I1006 17:36:09.122737  3702 net.cpp:367] BatchNorm16 -> Convolution16 (in-place)
I1006 17:36:09.122881  3702 net.cpp:122] Setting up BatchNorm16
I1006 17:36:09.122886  3702 net.cpp:129] Top shape: 100 32 16 16 (819200)
I1006 17:36:09.122889  3702 net.cpp:137] Memory required for data: 466535600
I1006 17:36:09.122895  3702 layer_factory.hpp:77] Creating layer Scale16
I1006 17:36:09.122898  3702 net.cpp:84] Creating Layer Scale16
I1006 17:36:09.122900  3702 net.cpp:406] Scale16 <- Convolution16
I1006 17:36:09.122903  3702 net.cpp:367] Scale16 -> Convolution16 (in-place)
I1006 17:36:09.122932  3702 layer_factory.hpp:77] Creating layer Scale16
I1006 17:36:09.123016  3702 net.cpp:122] Setting up Scale16
I1006 17:36:09.123020  3702 net.cpp:129] Top shape: 100 32 16 16 (819200)
I1006 17:36:09.123023  3702 net.cpp:137] Memory required for data: 469812400
I1006 17:36:09.123026  3702 layer_factory.hpp:77] Creating layer Eltwise7
I1006 17:36:09.123031  3702 net.cpp:84] Creating Layer Eltwise7
I1006 17:36:09.123034  3702 net.cpp:406] Eltwise7 <- Eltwise6_penlu13_0_split_1
I1006 17:36:09.123036  3702 net.cpp:406] Eltwise7 <- Convolution16
I1006 17:36:09.123040  3702 net.cpp:380] Eltwise7 -> Eltwise7
I1006 17:36:09.123054  3702 net.cpp:122] Setting up Eltwise7
I1006 17:36:09.123059  3702 net.cpp:129] Top shape: 100 32 16 16 (819200)
I1006 17:36:09.123060  3702 net.cpp:137] Memory required for data: 473089200
I1006 17:36:09.123062  3702 layer_factory.hpp:77] Creating layer penlu15
I1006 17:36:09.123069  3702 net.cpp:84] Creating Layer penlu15
I1006 17:36:09.123070  3702 net.cpp:406] penlu15 <- Eltwise7
I1006 17:36:09.123073  3702 net.cpp:367] penlu15 -> Eltwise7 (in-place)
I1006 17:36:09.123195  3702 net.cpp:122] Setting up penlu15
I1006 17:36:09.123200  3702 net.cpp:129] Top shape: 100 32 16 16 (819200)
I1006 17:36:09.123203  3702 net.cpp:137] Memory required for data: 476366000
I1006 17:36:09.123208  3702 layer_factory.hpp:77] Creating layer Eltwise7_penlu15_0_split
I1006 17:36:09.123211  3702 net.cpp:84] Creating Layer Eltwise7_penlu15_0_split
I1006 17:36:09.123214  3702 net.cpp:406] Eltwise7_penlu15_0_split <- Eltwise7
I1006 17:36:09.123216  3702 net.cpp:380] Eltwise7_penlu15_0_split -> Eltwise7_penlu15_0_split_0
I1006 17:36:09.123220  3702 net.cpp:380] Eltwise7_penlu15_0_split -> Eltwise7_penlu15_0_split_1
I1006 17:36:09.123245  3702 net.cpp:122] Setting up Eltwise7_penlu15_0_split
I1006 17:36:09.123250  3702 net.cpp:129] Top shape: 100 32 16 16 (819200)
I1006 17:36:09.123252  3702 net.cpp:129] Top shape: 100 32 16 16 (819200)
I1006 17:36:09.123255  3702 net.cpp:137] Memory required for data: 482919600
I1006 17:36:09.123256  3702 layer_factory.hpp:77] Creating layer Convolution17
I1006 17:36:09.123262  3702 net.cpp:84] Creating Layer Convolution17
I1006 17:36:09.123265  3702 net.cpp:406] Convolution17 <- Eltwise7_penlu15_0_split_0
I1006 17:36:09.123270  3702 net.cpp:380] Convolution17 -> Convolution17
I1006 17:36:09.124347  3702 net.cpp:122] Setting up Convolution17
I1006 17:36:09.124356  3702 net.cpp:129] Top shape: 100 32 16 16 (819200)
I1006 17:36:09.124358  3702 net.cpp:137] Memory required for data: 486196400
I1006 17:36:09.124369  3702 layer_factory.hpp:77] Creating layer BatchNorm17
I1006 17:36:09.124375  3702 net.cpp:84] Creating Layer BatchNorm17
I1006 17:36:09.124378  3702 net.cpp:406] BatchNorm17 <- Convolution17
I1006 17:36:09.124382  3702 net.cpp:367] BatchNorm17 -> Convolution17 (in-place)
I1006 17:36:09.124523  3702 net.cpp:122] Setting up BatchNorm17
I1006 17:36:09.124527  3702 net.cpp:129] Top shape: 100 32 16 16 (819200)
I1006 17:36:09.124531  3702 net.cpp:137] Memory required for data: 489473200
I1006 17:36:09.124534  3702 layer_factory.hpp:77] Creating layer Scale17
I1006 17:36:09.124538  3702 net.cpp:84] Creating Layer Scale17
I1006 17:36:09.124541  3702 net.cpp:406] Scale17 <- Convolution17
I1006 17:36:09.124544  3702 net.cpp:367] Scale17 -> Convolution17 (in-place)
I1006 17:36:09.124581  3702 layer_factory.hpp:77] Creating layer Scale17
I1006 17:36:09.124663  3702 net.cpp:122] Setting up Scale17
I1006 17:36:09.124667  3702 net.cpp:129] Top shape: 100 32 16 16 (819200)
I1006 17:36:09.124670  3702 net.cpp:137] Memory required for data: 492750000
I1006 17:36:09.124673  3702 layer_factory.hpp:77] Creating layer penlu16
I1006 17:36:09.124677  3702 net.cpp:84] Creating Layer penlu16
I1006 17:36:09.124680  3702 net.cpp:406] penlu16 <- Convolution17
I1006 17:36:09.124685  3702 net.cpp:367] penlu16 -> Convolution17 (in-place)
I1006 17:36:09.124799  3702 net.cpp:122] Setting up penlu16
I1006 17:36:09.124804  3702 net.cpp:129] Top shape: 100 32 16 16 (819200)
I1006 17:36:09.124805  3702 net.cpp:137] Memory required for data: 496026800
I1006 17:36:09.124809  3702 layer_factory.hpp:77] Creating layer Convolution18
I1006 17:36:09.124816  3702 net.cpp:84] Creating Layer Convolution18
I1006 17:36:09.124819  3702 net.cpp:406] Convolution18 <- Convolution17
I1006 17:36:09.124822  3702 net.cpp:380] Convolution18 -> Convolution18
I1006 17:36:09.125912  3702 net.cpp:122] Setting up Convolution18
I1006 17:36:09.125921  3702 net.cpp:129] Top shape: 100 32 16 16 (819200)
I1006 17:36:09.125923  3702 net.cpp:137] Memory required for data: 499303600
I1006 17:36:09.125927  3702 layer_factory.hpp:77] Creating layer BatchNorm18
I1006 17:36:09.125932  3702 net.cpp:84] Creating Layer BatchNorm18
I1006 17:36:09.125936  3702 net.cpp:406] BatchNorm18 <- Convolution18
I1006 17:36:09.125939  3702 net.cpp:367] BatchNorm18 -> Convolution18 (in-place)
I1006 17:36:09.126081  3702 net.cpp:122] Setting up BatchNorm18
I1006 17:36:09.126085  3702 net.cpp:129] Top shape: 100 32 16 16 (819200)
I1006 17:36:09.126087  3702 net.cpp:137] Memory required for data: 502580400
I1006 17:36:09.126092  3702 layer_factory.hpp:77] Creating layer Scale18
I1006 17:36:09.126096  3702 net.cpp:84] Creating Layer Scale18
I1006 17:36:09.126098  3702 net.cpp:406] Scale18 <- Convolution18
I1006 17:36:09.126102  3702 net.cpp:367] Scale18 -> Convolution18 (in-place)
I1006 17:36:09.126130  3702 layer_factory.hpp:77] Creating layer Scale18
I1006 17:36:09.126214  3702 net.cpp:122] Setting up Scale18
I1006 17:36:09.126217  3702 net.cpp:129] Top shape: 100 32 16 16 (819200)
I1006 17:36:09.126219  3702 net.cpp:137] Memory required for data: 505857200
I1006 17:36:09.126224  3702 layer_factory.hpp:77] Creating layer Eltwise8
I1006 17:36:09.126226  3702 net.cpp:84] Creating Layer Eltwise8
I1006 17:36:09.126230  3702 net.cpp:406] Eltwise8 <- Eltwise7_penlu15_0_split_1
I1006 17:36:09.126231  3702 net.cpp:406] Eltwise8 <- Convolution18
I1006 17:36:09.126235  3702 net.cpp:380] Eltwise8 -> Eltwise8
I1006 17:36:09.126248  3702 net.cpp:122] Setting up Eltwise8
I1006 17:36:09.126252  3702 net.cpp:129] Top shape: 100 32 16 16 (819200)
I1006 17:36:09.126255  3702 net.cpp:137] Memory required for data: 509134000
I1006 17:36:09.126256  3702 layer_factory.hpp:77] Creating layer penlu17
I1006 17:36:09.126261  3702 net.cpp:84] Creating Layer penlu17
I1006 17:36:09.126263  3702 net.cpp:406] penlu17 <- Eltwise8
I1006 17:36:09.126268  3702 net.cpp:367] penlu17 -> Eltwise8 (in-place)
I1006 17:36:09.126384  3702 net.cpp:122] Setting up penlu17
I1006 17:36:09.126389  3702 net.cpp:129] Top shape: 100 32 16 16 (819200)
I1006 17:36:09.126396  3702 net.cpp:137] Memory required for data: 512410800
I1006 17:36:09.126401  3702 layer_factory.hpp:77] Creating layer Eltwise8_penlu17_0_split
I1006 17:36:09.126405  3702 net.cpp:84] Creating Layer Eltwise8_penlu17_0_split
I1006 17:36:09.126407  3702 net.cpp:406] Eltwise8_penlu17_0_split <- Eltwise8
I1006 17:36:09.126410  3702 net.cpp:380] Eltwise8_penlu17_0_split -> Eltwise8_penlu17_0_split_0
I1006 17:36:09.145987  3702 net.cpp:380] Eltwise8_penlu17_0_split -> Eltwise8_penlu17_0_split_1
I1006 17:36:09.146042  3702 net.cpp:122] Setting up Eltwise8_penlu17_0_split
I1006 17:36:09.146050  3702 net.cpp:129] Top shape: 100 32 16 16 (819200)
I1006 17:36:09.146056  3702 net.cpp:129] Top shape: 100 32 16 16 (819200)
I1006 17:36:09.146060  3702 net.cpp:137] Memory required for data: 518964400
I1006 17:36:09.146064  3702 layer_factory.hpp:77] Creating layer Convolution19
I1006 17:36:09.146073  3702 net.cpp:84] Creating Layer Convolution19
I1006 17:36:09.146078  3702 net.cpp:406] Convolution19 <- Eltwise8_penlu17_0_split_0
I1006 17:36:09.146086  3702 net.cpp:380] Convolution19 -> Convolution19
I1006 17:36:09.147354  3702 net.cpp:122] Setting up Convolution19
I1006 17:36:09.147364  3702 net.cpp:129] Top shape: 100 32 16 16 (819200)
I1006 17:36:09.147367  3702 net.cpp:137] Memory required for data: 522241200
I1006 17:36:09.147372  3702 layer_factory.hpp:77] Creating layer BatchNorm19
I1006 17:36:09.147377  3702 net.cpp:84] Creating Layer BatchNorm19
I1006 17:36:09.147379  3702 net.cpp:406] BatchNorm19 <- Convolution19
I1006 17:36:09.147384  3702 net.cpp:367] BatchNorm19 -> Convolution19 (in-place)
I1006 17:36:09.147536  3702 net.cpp:122] Setting up BatchNorm19
I1006 17:36:09.147541  3702 net.cpp:129] Top shape: 100 32 16 16 (819200)
I1006 17:36:09.147543  3702 net.cpp:137] Memory required for data: 525518000
I1006 17:36:09.147548  3702 layer_factory.hpp:77] Creating layer Scale19
I1006 17:36:09.147552  3702 net.cpp:84] Creating Layer Scale19
I1006 17:36:09.147555  3702 net.cpp:406] Scale19 <- Convolution19
I1006 17:36:09.147558  3702 net.cpp:367] Scale19 -> Convolution19 (in-place)
I1006 17:36:09.147588  3702 layer_factory.hpp:77] Creating layer Scale19
I1006 17:36:09.147677  3702 net.cpp:122] Setting up Scale19
I1006 17:36:09.147682  3702 net.cpp:129] Top shape: 100 32 16 16 (819200)
I1006 17:36:09.147685  3702 net.cpp:137] Memory required for data: 528794800
I1006 17:36:09.147688  3702 layer_factory.hpp:77] Creating layer penlu18
I1006 17:36:09.147694  3702 net.cpp:84] Creating Layer penlu18
I1006 17:36:09.147696  3702 net.cpp:406] penlu18 <- Convolution19
I1006 17:36:09.147701  3702 net.cpp:367] penlu18 -> Convolution19 (in-place)
I1006 17:36:09.147872  3702 net.cpp:122] Setting up penlu18
I1006 17:36:09.147881  3702 net.cpp:129] Top shape: 100 32 16 16 (819200)
I1006 17:36:09.147884  3702 net.cpp:137] Memory required for data: 532071600
I1006 17:36:09.147892  3702 layer_factory.hpp:77] Creating layer Convolution20
I1006 17:36:09.147903  3702 net.cpp:84] Creating Layer Convolution20
I1006 17:36:09.147907  3702 net.cpp:406] Convolution20 <- Convolution19
I1006 17:36:09.147914  3702 net.cpp:380] Convolution20 -> Convolution20
I1006 17:36:09.148749  3702 net.cpp:122] Setting up Convolution20
I1006 17:36:09.148757  3702 net.cpp:129] Top shape: 100 32 16 16 (819200)
I1006 17:36:09.148761  3702 net.cpp:137] Memory required for data: 535348400
I1006 17:36:09.148764  3702 layer_factory.hpp:77] Creating layer BatchNorm20
I1006 17:36:09.148771  3702 net.cpp:84] Creating Layer BatchNorm20
I1006 17:36:09.148772  3702 net.cpp:406] BatchNorm20 <- Convolution20
I1006 17:36:09.148777  3702 net.cpp:367] BatchNorm20 -> Convolution20 (in-place)
I1006 17:36:09.148953  3702 net.cpp:122] Setting up BatchNorm20
I1006 17:36:09.148958  3702 net.cpp:129] Top shape: 100 32 16 16 (819200)
I1006 17:36:09.148960  3702 net.cpp:137] Memory required for data: 538625200
I1006 17:36:09.148965  3702 layer_factory.hpp:77] Creating layer Scale20
I1006 17:36:09.148970  3702 net.cpp:84] Creating Layer Scale20
I1006 17:36:09.148972  3702 net.cpp:406] Scale20 <- Convolution20
I1006 17:36:09.148983  3702 net.cpp:367] Scale20 -> Convolution20 (in-place)
I1006 17:36:09.149024  3702 layer_factory.hpp:77] Creating layer Scale20
I1006 17:36:09.149121  3702 net.cpp:122] Setting up Scale20
I1006 17:36:09.149125  3702 net.cpp:129] Top shape: 100 32 16 16 (819200)
I1006 17:36:09.149127  3702 net.cpp:137] Memory required for data: 541902000
I1006 17:36:09.149132  3702 layer_factory.hpp:77] Creating layer Eltwise9
I1006 17:36:09.149135  3702 net.cpp:84] Creating Layer Eltwise9
I1006 17:36:09.149138  3702 net.cpp:406] Eltwise9 <- Eltwise8_penlu17_0_split_1
I1006 17:36:09.149140  3702 net.cpp:406] Eltwise9 <- Convolution20
I1006 17:36:09.149144  3702 net.cpp:380] Eltwise9 -> Eltwise9
I1006 17:36:09.149158  3702 net.cpp:122] Setting up Eltwise9
I1006 17:36:09.149163  3702 net.cpp:129] Top shape: 100 32 16 16 (819200)
I1006 17:36:09.149164  3702 net.cpp:137] Memory required for data: 545178800
I1006 17:36:09.149166  3702 layer_factory.hpp:77] Creating layer penlu19
I1006 17:36:09.149173  3702 net.cpp:84] Creating Layer penlu19
I1006 17:36:09.149174  3702 net.cpp:406] penlu19 <- Eltwise9
I1006 17:36:09.149178  3702 net.cpp:367] penlu19 -> Eltwise9 (in-place)
I1006 17:36:09.149312  3702 net.cpp:122] Setting up penlu19
I1006 17:36:09.149327  3702 net.cpp:129] Top shape: 100 32 16 16 (819200)
I1006 17:36:09.149328  3702 net.cpp:137] Memory required for data: 548455600
I1006 17:36:09.149333  3702 layer_factory.hpp:77] Creating layer Eltwise9_penlu19_0_split
I1006 17:36:09.149336  3702 net.cpp:84] Creating Layer Eltwise9_penlu19_0_split
I1006 17:36:09.149338  3702 net.cpp:406] Eltwise9_penlu19_0_split <- Eltwise9
I1006 17:36:09.149341  3702 net.cpp:380] Eltwise9_penlu19_0_split -> Eltwise9_penlu19_0_split_0
I1006 17:36:09.149345  3702 net.cpp:380] Eltwise9_penlu19_0_split -> Eltwise9_penlu19_0_split_1
I1006 17:36:09.149371  3702 net.cpp:122] Setting up Eltwise9_penlu19_0_split
I1006 17:36:09.149375  3702 net.cpp:129] Top shape: 100 32 16 16 (819200)
I1006 17:36:09.149379  3702 net.cpp:129] Top shape: 100 32 16 16 (819200)
I1006 17:36:09.149380  3702 net.cpp:137] Memory required for data: 555009200
I1006 17:36:09.149382  3702 layer_factory.hpp:77] Creating layer Convolution21
I1006 17:36:09.149389  3702 net.cpp:84] Creating Layer Convolution21
I1006 17:36:09.149391  3702 net.cpp:406] Convolution21 <- Eltwise9_penlu19_0_split_0
I1006 17:36:09.149395  3702 net.cpp:380] Convolution21 -> Convolution21
I1006 17:36:09.150503  3702 net.cpp:122] Setting up Convolution21
I1006 17:36:09.150511  3702 net.cpp:129] Top shape: 100 32 16 16 (819200)
I1006 17:36:09.150514  3702 net.cpp:137] Memory required for data: 558286000
I1006 17:36:09.150518  3702 layer_factory.hpp:77] Creating layer BatchNorm21
I1006 17:36:09.150523  3702 net.cpp:84] Creating Layer BatchNorm21
I1006 17:36:09.150526  3702 net.cpp:406] BatchNorm21 <- Convolution21
I1006 17:36:09.150530  3702 net.cpp:367] BatchNorm21 -> Convolution21 (in-place)
I1006 17:36:09.150676  3702 net.cpp:122] Setting up BatchNorm21
I1006 17:36:09.150681  3702 net.cpp:129] Top shape: 100 32 16 16 (819200)
I1006 17:36:09.150683  3702 net.cpp:137] Memory required for data: 561562800
I1006 17:36:09.150688  3702 layer_factory.hpp:77] Creating layer Scale21
I1006 17:36:09.150692  3702 net.cpp:84] Creating Layer Scale21
I1006 17:36:09.150694  3702 net.cpp:406] Scale21 <- Convolution21
I1006 17:36:09.150697  3702 net.cpp:367] Scale21 -> Convolution21 (in-place)
I1006 17:36:09.150727  3702 layer_factory.hpp:77] Creating layer Scale21
I1006 17:36:09.150810  3702 net.cpp:122] Setting up Scale21
I1006 17:36:09.150815  3702 net.cpp:129] Top shape: 100 32 16 16 (819200)
I1006 17:36:09.150817  3702 net.cpp:137] Memory required for data: 564839600
I1006 17:36:09.150821  3702 layer_factory.hpp:77] Creating layer penlu20
I1006 17:36:09.150826  3702 net.cpp:84] Creating Layer penlu20
I1006 17:36:09.150828  3702 net.cpp:406] penlu20 <- Convolution21
I1006 17:36:09.150832  3702 net.cpp:367] penlu20 -> Convolution21 (in-place)
I1006 17:36:09.150951  3702 net.cpp:122] Setting up penlu20
I1006 17:36:09.150962  3702 net.cpp:129] Top shape: 100 32 16 16 (819200)
I1006 17:36:09.150964  3702 net.cpp:137] Memory required for data: 568116400
I1006 17:36:09.150969  3702 layer_factory.hpp:77] Creating layer Convolution22
I1006 17:36:09.150976  3702 net.cpp:84] Creating Layer Convolution22
I1006 17:36:09.150979  3702 net.cpp:406] Convolution22 <- Convolution21
I1006 17:36:09.150984  3702 net.cpp:380] Convolution22 -> Convolution22
I1006 17:36:09.152132  3702 net.cpp:122] Setting up Convolution22
I1006 17:36:09.152140  3702 net.cpp:129] Top shape: 100 32 16 16 (819200)
I1006 17:36:09.152143  3702 net.cpp:137] Memory required for data: 571393200
I1006 17:36:09.152148  3702 layer_factory.hpp:77] Creating layer BatchNorm22
I1006 17:36:09.152153  3702 net.cpp:84] Creating Layer BatchNorm22
I1006 17:36:09.152155  3702 net.cpp:406] BatchNorm22 <- Convolution22
I1006 17:36:09.152160  3702 net.cpp:367] BatchNorm22 -> Convolution22 (in-place)
I1006 17:36:09.152310  3702 net.cpp:122] Setting up BatchNorm22
I1006 17:36:09.152315  3702 net.cpp:129] Top shape: 100 32 16 16 (819200)
I1006 17:36:09.152318  3702 net.cpp:137] Memory required for data: 574670000
I1006 17:36:09.152323  3702 layer_factory.hpp:77] Creating layer Scale22
I1006 17:36:09.152326  3702 net.cpp:84] Creating Layer Scale22
I1006 17:36:09.152328  3702 net.cpp:406] Scale22 <- Convolution22
I1006 17:36:09.152333  3702 net.cpp:367] Scale22 -> Convolution22 (in-place)
I1006 17:36:09.152362  3702 layer_factory.hpp:77] Creating layer Scale22
I1006 17:36:09.152451  3702 net.cpp:122] Setting up Scale22
I1006 17:36:09.152454  3702 net.cpp:129] Top shape: 100 32 16 16 (819200)
I1006 17:36:09.152456  3702 net.cpp:137] Memory required for data: 577946800
I1006 17:36:09.152460  3702 layer_factory.hpp:77] Creating layer Eltwise10
I1006 17:36:09.152464  3702 net.cpp:84] Creating Layer Eltwise10
I1006 17:36:09.152467  3702 net.cpp:406] Eltwise10 <- Eltwise9_penlu19_0_split_1
I1006 17:36:09.152470  3702 net.cpp:406] Eltwise10 <- Convolution22
I1006 17:36:09.152474  3702 net.cpp:380] Eltwise10 -> Eltwise10
I1006 17:36:09.152488  3702 net.cpp:122] Setting up Eltwise10
I1006 17:36:09.152493  3702 net.cpp:129] Top shape: 100 32 16 16 (819200)
I1006 17:36:09.152494  3702 net.cpp:137] Memory required for data: 581223600
I1006 17:36:09.152496  3702 layer_factory.hpp:77] Creating layer penlu21
I1006 17:36:09.152503  3702 net.cpp:84] Creating Layer penlu21
I1006 17:36:09.152504  3702 net.cpp:406] penlu21 <- Eltwise10
I1006 17:36:09.152508  3702 net.cpp:367] penlu21 -> Eltwise10 (in-place)
I1006 17:36:09.152644  3702 net.cpp:122] Setting up penlu21
I1006 17:36:09.152649  3702 net.cpp:129] Top shape: 100 32 16 16 (819200)
I1006 17:36:09.152652  3702 net.cpp:137] Memory required for data: 584500400
I1006 17:36:09.152655  3702 layer_factory.hpp:77] Creating layer Eltwise10_penlu21_0_split
I1006 17:36:09.152660  3702 net.cpp:84] Creating Layer Eltwise10_penlu21_0_split
I1006 17:36:09.152663  3702 net.cpp:406] Eltwise10_penlu21_0_split <- Eltwise10
I1006 17:36:09.152667  3702 net.cpp:380] Eltwise10_penlu21_0_split -> Eltwise10_penlu21_0_split_0
I1006 17:36:09.152670  3702 net.cpp:380] Eltwise10_penlu21_0_split -> Eltwise10_penlu21_0_split_1
I1006 17:36:09.152698  3702 net.cpp:122] Setting up Eltwise10_penlu21_0_split
I1006 17:36:09.152701  3702 net.cpp:129] Top shape: 100 32 16 16 (819200)
I1006 17:36:09.152704  3702 net.cpp:129] Top shape: 100 32 16 16 (819200)
I1006 17:36:09.152707  3702 net.cpp:137] Memory required for data: 591054000
I1006 17:36:09.152709  3702 layer_factory.hpp:77] Creating layer Convolution23
I1006 17:36:09.152715  3702 net.cpp:84] Creating Layer Convolution23
I1006 17:36:09.152717  3702 net.cpp:406] Convolution23 <- Eltwise10_penlu21_0_split_0
I1006 17:36:09.152722  3702 net.cpp:380] Convolution23 -> Convolution23
I1006 17:36:09.153759  3702 net.cpp:122] Setting up Convolution23
I1006 17:36:09.153769  3702 net.cpp:129] Top shape: 100 64 8 8 (409600)
I1006 17:36:09.153771  3702 net.cpp:137] Memory required for data: 592692400
I1006 17:36:09.153776  3702 layer_factory.hpp:77] Creating layer BatchNorm23
I1006 17:36:09.153787  3702 net.cpp:84] Creating Layer BatchNorm23
I1006 17:36:09.153791  3702 net.cpp:406] BatchNorm23 <- Convolution23
I1006 17:36:09.153795  3702 net.cpp:367] BatchNorm23 -> Convolution23 (in-place)
I1006 17:36:09.153946  3702 net.cpp:122] Setting up BatchNorm23
I1006 17:36:09.153951  3702 net.cpp:129] Top shape: 100 64 8 8 (409600)
I1006 17:36:09.153954  3702 net.cpp:137] Memory required for data: 594330800
I1006 17:36:09.153959  3702 layer_factory.hpp:77] Creating layer Scale23
I1006 17:36:09.153962  3702 net.cpp:84] Creating Layer Scale23
I1006 17:36:09.153964  3702 net.cpp:406] Scale23 <- Convolution23
I1006 17:36:09.153967  3702 net.cpp:367] Scale23 -> Convolution23 (in-place)
I1006 17:36:09.153997  3702 layer_factory.hpp:77] Creating layer Scale23
I1006 17:36:09.154084  3702 net.cpp:122] Setting up Scale23
I1006 17:36:09.154088  3702 net.cpp:129] Top shape: 100 64 8 8 (409600)
I1006 17:36:09.154090  3702 net.cpp:137] Memory required for data: 595969200
I1006 17:36:09.154094  3702 layer_factory.hpp:77] Creating layer Convolution24
I1006 17:36:09.154100  3702 net.cpp:84] Creating Layer Convolution24
I1006 17:36:09.154103  3702 net.cpp:406] Convolution24 <- Eltwise10_penlu21_0_split_1
I1006 17:36:09.154109  3702 net.cpp:380] Convolution24 -> Convolution24
I1006 17:36:09.155475  3702 net.cpp:122] Setting up Convolution24
I1006 17:36:09.155485  3702 net.cpp:129] Top shape: 100 64 8 8 (409600)
I1006 17:36:09.155488  3702 net.cpp:137] Memory required for data: 597607600
I1006 17:36:09.155493  3702 layer_factory.hpp:77] Creating layer BatchNorm24
I1006 17:36:09.155498  3702 net.cpp:84] Creating Layer BatchNorm24
I1006 17:36:09.155500  3702 net.cpp:406] BatchNorm24 <- Convolution24
I1006 17:36:09.155504  3702 net.cpp:367] BatchNorm24 -> Convolution24 (in-place)
I1006 17:36:09.155670  3702 net.cpp:122] Setting up BatchNorm24
I1006 17:36:09.155675  3702 net.cpp:129] Top shape: 100 64 8 8 (409600)
I1006 17:36:09.155678  3702 net.cpp:137] Memory required for data: 599246000
I1006 17:36:09.155683  3702 layer_factory.hpp:77] Creating layer Scale24
I1006 17:36:09.155686  3702 net.cpp:84] Creating Layer Scale24
I1006 17:36:09.155689  3702 net.cpp:406] Scale24 <- Convolution24
I1006 17:36:09.155692  3702 net.cpp:367] Scale24 -> Convolution24 (in-place)
I1006 17:36:09.155722  3702 layer_factory.hpp:77] Creating layer Scale24
I1006 17:36:09.155808  3702 net.cpp:122] Setting up Scale24
I1006 17:36:09.155812  3702 net.cpp:129] Top shape: 100 64 8 8 (409600)
I1006 17:36:09.155814  3702 net.cpp:137] Memory required for data: 600884400
I1006 17:36:09.155818  3702 layer_factory.hpp:77] Creating layer penlu22
I1006 17:36:09.155823  3702 net.cpp:84] Creating Layer penlu22
I1006 17:36:09.155825  3702 net.cpp:406] penlu22 <- Convolution24
I1006 17:36:09.155829  3702 net.cpp:367] penlu22 -> Convolution24 (in-place)
I1006 17:36:09.155949  3702 net.cpp:122] Setting up penlu22
I1006 17:36:09.155954  3702 net.cpp:129] Top shape: 100 64 8 8 (409600)
I1006 17:36:09.155956  3702 net.cpp:137] Memory required for data: 602522800
I1006 17:36:09.155961  3702 layer_factory.hpp:77] Creating layer Convolution25
I1006 17:36:09.155967  3702 net.cpp:84] Creating Layer Convolution25
I1006 17:36:09.155969  3702 net.cpp:406] Convolution25 <- Convolution24
I1006 17:36:09.155973  3702 net.cpp:380] Convolution25 -> Convolution25
I1006 17:36:09.157784  3702 net.cpp:122] Setting up Convolution25
I1006 17:36:09.157793  3702 net.cpp:129] Top shape: 100 64 8 8 (409600)
I1006 17:36:09.157796  3702 net.cpp:137] Memory required for data: 604161200
I1006 17:36:09.157800  3702 layer_factory.hpp:77] Creating layer BatchNorm25
I1006 17:36:09.157805  3702 net.cpp:84] Creating Layer BatchNorm25
I1006 17:36:09.157807  3702 net.cpp:406] BatchNorm25 <- Convolution25
I1006 17:36:09.157812  3702 net.cpp:367] BatchNorm25 -> Convolution25 (in-place)
I1006 17:36:09.157961  3702 net.cpp:122] Setting up BatchNorm25
I1006 17:36:09.157965  3702 net.cpp:129] Top shape: 100 64 8 8 (409600)
I1006 17:36:09.157968  3702 net.cpp:137] Memory required for data: 605799600
I1006 17:36:09.157979  3702 layer_factory.hpp:77] Creating layer Scale25
I1006 17:36:09.157984  3702 net.cpp:84] Creating Layer Scale25
I1006 17:36:09.157986  3702 net.cpp:406] Scale25 <- Convolution25
I1006 17:36:09.157990  3702 net.cpp:367] Scale25 -> Convolution25 (in-place)
I1006 17:36:09.176920  3702 layer_factory.hpp:77] Creating layer Scale25
I1006 17:36:09.177031  3702 net.cpp:122] Setting up Scale25
I1006 17:36:09.177037  3702 net.cpp:129] Top shape: 100 64 8 8 (409600)
I1006 17:36:09.177039  3702 net.cpp:137] Memory required for data: 607438000
I1006 17:36:09.177044  3702 layer_factory.hpp:77] Creating layer Eltwise11
I1006 17:36:09.177049  3702 net.cpp:84] Creating Layer Eltwise11
I1006 17:36:09.177052  3702 net.cpp:406] Eltwise11 <- Convolution23
I1006 17:36:09.177055  3702 net.cpp:406] Eltwise11 <- Convolution25
I1006 17:36:09.177059  3702 net.cpp:380] Eltwise11 -> Eltwise11
I1006 17:36:09.177079  3702 net.cpp:122] Setting up Eltwise11
I1006 17:36:09.177084  3702 net.cpp:129] Top shape: 100 64 8 8 (409600)
I1006 17:36:09.177086  3702 net.cpp:137] Memory required for data: 609076400
I1006 17:36:09.177088  3702 layer_factory.hpp:77] Creating layer penlu23
I1006 17:36:09.177093  3702 net.cpp:84] Creating Layer penlu23
I1006 17:36:09.177096  3702 net.cpp:406] penlu23 <- Eltwise11
I1006 17:36:09.177100  3702 net.cpp:367] penlu23 -> Eltwise11 (in-place)
I1006 17:36:09.177237  3702 net.cpp:122] Setting up penlu23
I1006 17:36:09.177242  3702 net.cpp:129] Top shape: 100 64 8 8 (409600)
I1006 17:36:09.177243  3702 net.cpp:137] Memory required for data: 610714800
I1006 17:36:09.177248  3702 layer_factory.hpp:77] Creating layer Eltwise11_penlu23_0_split
I1006 17:36:09.177253  3702 net.cpp:84] Creating Layer Eltwise11_penlu23_0_split
I1006 17:36:09.177254  3702 net.cpp:406] Eltwise11_penlu23_0_split <- Eltwise11
I1006 17:36:09.177258  3702 net.cpp:380] Eltwise11_penlu23_0_split -> Eltwise11_penlu23_0_split_0
I1006 17:36:09.177263  3702 net.cpp:380] Eltwise11_penlu23_0_split -> Eltwise11_penlu23_0_split_1
I1006 17:36:09.177294  3702 net.cpp:122] Setting up Eltwise11_penlu23_0_split
I1006 17:36:09.177297  3702 net.cpp:129] Top shape: 100 64 8 8 (409600)
I1006 17:36:09.177300  3702 net.cpp:129] Top shape: 100 64 8 8 (409600)
I1006 17:36:09.177302  3702 net.cpp:137] Memory required for data: 613991600
I1006 17:36:09.177304  3702 layer_factory.hpp:77] Creating layer Convolution26
I1006 17:36:09.177311  3702 net.cpp:84] Creating Layer Convolution26
I1006 17:36:09.177314  3702 net.cpp:406] Convolution26 <- Eltwise11_penlu23_0_split_0
I1006 17:36:09.177319  3702 net.cpp:380] Convolution26 -> Convolution26
I1006 17:36:09.179208  3702 net.cpp:122] Setting up Convolution26
I1006 17:36:09.179219  3702 net.cpp:129] Top shape: 100 64 8 8 (409600)
I1006 17:36:09.179221  3702 net.cpp:137] Memory required for data: 615630000
I1006 17:36:09.179226  3702 layer_factory.hpp:77] Creating layer BatchNorm26
I1006 17:36:09.179231  3702 net.cpp:84] Creating Layer BatchNorm26
I1006 17:36:09.179234  3702 net.cpp:406] BatchNorm26 <- Convolution26
I1006 17:36:09.179239  3702 net.cpp:367] BatchNorm26 -> Convolution26 (in-place)
I1006 17:36:09.179394  3702 net.cpp:122] Setting up BatchNorm26
I1006 17:36:09.179399  3702 net.cpp:129] Top shape: 100 64 8 8 (409600)
I1006 17:36:09.179401  3702 net.cpp:137] Memory required for data: 617268400
I1006 17:36:09.179406  3702 layer_factory.hpp:77] Creating layer Scale26
I1006 17:36:09.179411  3702 net.cpp:84] Creating Layer Scale26
I1006 17:36:09.179414  3702 net.cpp:406] Scale26 <- Convolution26
I1006 17:36:09.179417  3702 net.cpp:367] Scale26 -> Convolution26 (in-place)
I1006 17:36:09.179448  3702 layer_factory.hpp:77] Creating layer Scale26
I1006 17:36:09.179538  3702 net.cpp:122] Setting up Scale26
I1006 17:36:09.179541  3702 net.cpp:129] Top shape: 100 64 8 8 (409600)
I1006 17:36:09.179543  3702 net.cpp:137] Memory required for data: 618906800
I1006 17:36:09.179548  3702 layer_factory.hpp:77] Creating layer penlu24
I1006 17:36:09.179553  3702 net.cpp:84] Creating Layer penlu24
I1006 17:36:09.179563  3702 net.cpp:406] penlu24 <- Convolution26
I1006 17:36:09.179567  3702 net.cpp:367] penlu24 -> Convolution26 (in-place)
I1006 17:36:09.179692  3702 net.cpp:122] Setting up penlu24
I1006 17:36:09.179697  3702 net.cpp:129] Top shape: 100 64 8 8 (409600)
I1006 17:36:09.179699  3702 net.cpp:137] Memory required for data: 620545200
I1006 17:36:09.179704  3702 layer_factory.hpp:77] Creating layer Convolution27
I1006 17:36:09.179711  3702 net.cpp:84] Creating Layer Convolution27
I1006 17:36:09.179714  3702 net.cpp:406] Convolution27 <- Convolution26
I1006 17:36:09.179718  3702 net.cpp:380] Convolution27 -> Convolution27
I1006 17:36:09.181489  3702 net.cpp:122] Setting up Convolution27
I1006 17:36:09.181499  3702 net.cpp:129] Top shape: 100 64 8 8 (409600)
I1006 17:36:09.181501  3702 net.cpp:137] Memory required for data: 622183600
I1006 17:36:09.181506  3702 layer_factory.hpp:77] Creating layer BatchNorm27
I1006 17:36:09.181522  3702 net.cpp:84] Creating Layer BatchNorm27
I1006 17:36:09.181525  3702 net.cpp:406] BatchNorm27 <- Convolution27
I1006 17:36:09.181530  3702 net.cpp:367] BatchNorm27 -> Convolution27 (in-place)
I1006 17:36:09.181689  3702 net.cpp:122] Setting up BatchNorm27
I1006 17:36:09.181694  3702 net.cpp:129] Top shape: 100 64 8 8 (409600)
I1006 17:36:09.181695  3702 net.cpp:137] Memory required for data: 623822000
I1006 17:36:09.181721  3702 layer_factory.hpp:77] Creating layer Scale27
I1006 17:36:09.181726  3702 net.cpp:84] Creating Layer Scale27
I1006 17:36:09.181730  3702 net.cpp:406] Scale27 <- Convolution27
I1006 17:36:09.181732  3702 net.cpp:367] Scale27 -> Convolution27 (in-place)
I1006 17:36:09.181766  3702 layer_factory.hpp:77] Creating layer Scale27
I1006 17:36:09.181857  3702 net.cpp:122] Setting up Scale27
I1006 17:36:09.181861  3702 net.cpp:129] Top shape: 100 64 8 8 (409600)
I1006 17:36:09.181864  3702 net.cpp:137] Memory required for data: 625460400
I1006 17:36:09.181867  3702 layer_factory.hpp:77] Creating layer Eltwise12
I1006 17:36:09.181871  3702 net.cpp:84] Creating Layer Eltwise12
I1006 17:36:09.181874  3702 net.cpp:406] Eltwise12 <- Eltwise11_penlu23_0_split_1
I1006 17:36:09.181877  3702 net.cpp:406] Eltwise12 <- Convolution27
I1006 17:36:09.181881  3702 net.cpp:380] Eltwise12 -> Eltwise12
I1006 17:36:09.181900  3702 net.cpp:122] Setting up Eltwise12
I1006 17:36:09.181903  3702 net.cpp:129] Top shape: 100 64 8 8 (409600)
I1006 17:36:09.181905  3702 net.cpp:137] Memory required for data: 627098800
I1006 17:36:09.181907  3702 layer_factory.hpp:77] Creating layer penlu25
I1006 17:36:09.181913  3702 net.cpp:84] Creating Layer penlu25
I1006 17:36:09.181915  3702 net.cpp:406] penlu25 <- Eltwise12
I1006 17:36:09.181919  3702 net.cpp:367] penlu25 -> Eltwise12 (in-place)
I1006 17:36:09.182044  3702 net.cpp:122] Setting up penlu25
I1006 17:36:09.182049  3702 net.cpp:129] Top shape: 100 64 8 8 (409600)
I1006 17:36:09.182050  3702 net.cpp:137] Memory required for data: 628737200
I1006 17:36:09.182054  3702 layer_factory.hpp:77] Creating layer Eltwise12_penlu25_0_split
I1006 17:36:09.182059  3702 net.cpp:84] Creating Layer Eltwise12_penlu25_0_split
I1006 17:36:09.182060  3702 net.cpp:406] Eltwise12_penlu25_0_split <- Eltwise12
I1006 17:36:09.182065  3702 net.cpp:380] Eltwise12_penlu25_0_split -> Eltwise12_penlu25_0_split_0
I1006 17:36:09.182070  3702 net.cpp:380] Eltwise12_penlu25_0_split -> Eltwise12_penlu25_0_split_1
I1006 17:36:09.182096  3702 net.cpp:122] Setting up Eltwise12_penlu25_0_split
I1006 17:36:09.182098  3702 net.cpp:129] Top shape: 100 64 8 8 (409600)
I1006 17:36:09.182101  3702 net.cpp:129] Top shape: 100 64 8 8 (409600)
I1006 17:36:09.182103  3702 net.cpp:137] Memory required for data: 632014000
I1006 17:36:09.182106  3702 layer_factory.hpp:77] Creating layer Convolution28
I1006 17:36:09.182112  3702 net.cpp:84] Creating Layer Convolution28
I1006 17:36:09.182116  3702 net.cpp:406] Convolution28 <- Eltwise12_penlu25_0_split_0
I1006 17:36:09.182119  3702 net.cpp:380] Convolution28 -> Convolution28
I1006 17:36:09.184226  3702 net.cpp:122] Setting up Convolution28
I1006 17:36:09.184242  3702 net.cpp:129] Top shape: 100 64 8 8 (409600)
I1006 17:36:09.184245  3702 net.cpp:137] Memory required for data: 633652400
I1006 17:36:09.184250  3702 layer_factory.hpp:77] Creating layer BatchNorm28
I1006 17:36:09.184255  3702 net.cpp:84] Creating Layer BatchNorm28
I1006 17:36:09.184257  3702 net.cpp:406] BatchNorm28 <- Convolution28
I1006 17:36:09.184262  3702 net.cpp:367] BatchNorm28 -> Convolution28 (in-place)
I1006 17:36:09.184424  3702 net.cpp:122] Setting up BatchNorm28
I1006 17:36:09.184429  3702 net.cpp:129] Top shape: 100 64 8 8 (409600)
I1006 17:36:09.184432  3702 net.cpp:137] Memory required for data: 635290800
I1006 17:36:09.184437  3702 layer_factory.hpp:77] Creating layer Scale28
I1006 17:36:09.184440  3702 net.cpp:84] Creating Layer Scale28
I1006 17:36:09.184442  3702 net.cpp:406] Scale28 <- Convolution28
I1006 17:36:09.184447  3702 net.cpp:367] Scale28 -> Convolution28 (in-place)
I1006 17:36:09.184478  3702 layer_factory.hpp:77] Creating layer Scale28
I1006 17:36:09.184568  3702 net.cpp:122] Setting up Scale28
I1006 17:36:09.184572  3702 net.cpp:129] Top shape: 100 64 8 8 (409600)
I1006 17:36:09.184574  3702 net.cpp:137] Memory required for data: 636929200
I1006 17:36:09.184578  3702 layer_factory.hpp:77] Creating layer penlu26
I1006 17:36:09.184584  3702 net.cpp:84] Creating Layer penlu26
I1006 17:36:09.184587  3702 net.cpp:406] penlu26 <- Convolution28
I1006 17:36:09.184590  3702 net.cpp:367] penlu26 -> Convolution28 (in-place)
I1006 17:36:09.184727  3702 net.cpp:122] Setting up penlu26
I1006 17:36:09.184732  3702 net.cpp:129] Top shape: 100 64 8 8 (409600)
I1006 17:36:09.184734  3702 net.cpp:137] Memory required for data: 638567600
I1006 17:36:09.184739  3702 layer_factory.hpp:77] Creating layer Convolution29
I1006 17:36:09.184746  3702 net.cpp:84] Creating Layer Convolution29
I1006 17:36:09.184749  3702 net.cpp:406] Convolution29 <- Convolution28
I1006 17:36:09.184753  3702 net.cpp:380] Convolution29 -> Convolution29
I1006 17:36:09.187084  3702 net.cpp:122] Setting up Convolution29
I1006 17:36:09.187093  3702 net.cpp:129] Top shape: 100 64 8 8 (409600)
I1006 17:36:09.187095  3702 net.cpp:137] Memory required for data: 640206000
I1006 17:36:09.187100  3702 layer_factory.hpp:77] Creating layer BatchNorm29
I1006 17:36:09.187105  3702 net.cpp:84] Creating Layer BatchNorm29
I1006 17:36:09.187108  3702 net.cpp:406] BatchNorm29 <- Convolution29
I1006 17:36:09.187113  3702 net.cpp:367] BatchNorm29 -> Convolution29 (in-place)
I1006 17:36:09.187276  3702 net.cpp:122] Setting up BatchNorm29
I1006 17:36:09.187283  3702 net.cpp:129] Top shape: 100 64 8 8 (409600)
I1006 17:36:09.187284  3702 net.cpp:137] Memory required for data: 641844400
I1006 17:36:09.187289  3702 layer_factory.hpp:77] Creating layer Scale29
I1006 17:36:09.187294  3702 net.cpp:84] Creating Layer Scale29
I1006 17:36:09.187296  3702 net.cpp:406] Scale29 <- Convolution29
I1006 17:36:09.187300  3702 net.cpp:367] Scale29 -> Convolution29 (in-place)
I1006 17:36:09.187331  3702 layer_factory.hpp:77] Creating layer Scale29
I1006 17:36:09.187422  3702 net.cpp:122] Setting up Scale29
I1006 17:36:09.187427  3702 net.cpp:129] Top shape: 100 64 8 8 (409600)
I1006 17:36:09.187429  3702 net.cpp:137] Memory required for data: 643482800
I1006 17:36:09.187433  3702 layer_factory.hpp:77] Creating layer Eltwise13
I1006 17:36:09.187438  3702 net.cpp:84] Creating Layer Eltwise13
I1006 17:36:09.187439  3702 net.cpp:406] Eltwise13 <- Eltwise12_penlu25_0_split_1
I1006 17:36:09.187443  3702 net.cpp:406] Eltwise13 <- Convolution29
I1006 17:36:09.187446  3702 net.cpp:380] Eltwise13 -> Eltwise13
I1006 17:36:09.187464  3702 net.cpp:122] Setting up Eltwise13
I1006 17:36:09.187469  3702 net.cpp:129] Top shape: 100 64 8 8 (409600)
I1006 17:36:09.187470  3702 net.cpp:137] Memory required for data: 645121200
I1006 17:36:09.187472  3702 layer_factory.hpp:77] Creating layer penlu27
I1006 17:36:09.187479  3702 net.cpp:84] Creating Layer penlu27
I1006 17:36:09.187481  3702 net.cpp:406] penlu27 <- Eltwise13
I1006 17:36:09.187484  3702 net.cpp:367] penlu27 -> Eltwise13 (in-place)
I1006 17:36:09.187618  3702 net.cpp:122] Setting up penlu27
I1006 17:36:09.187623  3702 net.cpp:129] Top shape: 100 64 8 8 (409600)
I1006 17:36:09.187625  3702 net.cpp:137] Memory required for data: 646759600
I1006 17:36:09.187630  3702 layer_factory.hpp:77] Creating layer Eltwise13_penlu27_0_split
I1006 17:36:09.187633  3702 net.cpp:84] Creating Layer Eltwise13_penlu27_0_split
I1006 17:36:09.187636  3702 net.cpp:406] Eltwise13_penlu27_0_split <- Eltwise13
I1006 17:36:09.187639  3702 net.cpp:380] Eltwise13_penlu27_0_split -> Eltwise13_penlu27_0_split_0
I1006 17:36:09.187644  3702 net.cpp:380] Eltwise13_penlu27_0_split -> Eltwise13_penlu27_0_split_1
I1006 17:36:09.187671  3702 net.cpp:122] Setting up Eltwise13_penlu27_0_split
I1006 17:36:09.187675  3702 net.cpp:129] Top shape: 100 64 8 8 (409600)
I1006 17:36:09.187678  3702 net.cpp:129] Top shape: 100 64 8 8 (409600)
I1006 17:36:09.187680  3702 net.cpp:137] Memory required for data: 650036400
I1006 17:36:09.187690  3702 layer_factory.hpp:77] Creating layer Convolution30
I1006 17:36:09.187698  3702 net.cpp:84] Creating Layer Convolution30
I1006 17:36:09.187700  3702 net.cpp:406] Convolution30 <- Eltwise13_penlu27_0_split_0
I1006 17:36:09.187705  3702 net.cpp:380] Convolution30 -> Convolution30
I1006 17:36:09.189795  3702 net.cpp:122] Setting up Convolution30
I1006 17:36:09.189802  3702 net.cpp:129] Top shape: 100 64 8 8 (409600)
I1006 17:36:09.189805  3702 net.cpp:137] Memory required for data: 651674800
I1006 17:36:09.189810  3702 layer_factory.hpp:77] Creating layer BatchNorm30
I1006 17:36:09.189815  3702 net.cpp:84] Creating Layer BatchNorm30
I1006 17:36:09.189817  3702 net.cpp:406] BatchNorm30 <- Convolution30
I1006 17:36:09.189821  3702 net.cpp:367] BatchNorm30 -> Convolution30 (in-place)
I1006 17:36:09.189980  3702 net.cpp:122] Setting up BatchNorm30
I1006 17:36:09.189985  3702 net.cpp:129] Top shape: 100 64 8 8 (409600)
I1006 17:36:09.189986  3702 net.cpp:137] Memory required for data: 653313200
I1006 17:36:09.189991  3702 layer_factory.hpp:77] Creating layer Scale30
I1006 17:36:09.189996  3702 net.cpp:84] Creating Layer Scale30
I1006 17:36:09.189997  3702 net.cpp:406] Scale30 <- Convolution30
I1006 17:36:09.190003  3702 net.cpp:367] Scale30 -> Convolution30 (in-place)
I1006 17:36:09.190033  3702 layer_factory.hpp:77] Creating layer Scale30
I1006 17:36:09.190124  3702 net.cpp:122] Setting up Scale30
I1006 17:36:09.190127  3702 net.cpp:129] Top shape: 100 64 8 8 (409600)
I1006 17:36:09.190129  3702 net.cpp:137] Memory required for data: 654951600
I1006 17:36:09.190134  3702 layer_factory.hpp:77] Creating layer penlu28
I1006 17:36:09.190140  3702 net.cpp:84] Creating Layer penlu28
I1006 17:36:09.190141  3702 net.cpp:406] penlu28 <- Convolution30
I1006 17:36:09.190145  3702 net.cpp:367] penlu28 -> Convolution30 (in-place)
I1006 17:36:09.190268  3702 net.cpp:122] Setting up penlu28
I1006 17:36:09.190273  3702 net.cpp:129] Top shape: 100 64 8 8 (409600)
I1006 17:36:09.190274  3702 net.cpp:137] Memory required for data: 656590000
I1006 17:36:09.190279  3702 layer_factory.hpp:77] Creating layer Convolution31
I1006 17:36:09.190284  3702 net.cpp:84] Creating Layer Convolution31
I1006 17:36:09.190287  3702 net.cpp:406] Convolution31 <- Convolution30
I1006 17:36:09.190291  3702 net.cpp:380] Convolution31 -> Convolution31
I1006 17:36:09.192008  3702 net.cpp:122] Setting up Convolution31
I1006 17:36:09.192018  3702 net.cpp:129] Top shape: 100 64 8 8 (409600)
I1006 17:36:09.192019  3702 net.cpp:137] Memory required for data: 658228400
I1006 17:36:09.192024  3702 layer_factory.hpp:77] Creating layer BatchNorm31
I1006 17:36:09.192028  3702 net.cpp:84] Creating Layer BatchNorm31
I1006 17:36:09.192031  3702 net.cpp:406] BatchNorm31 <- Convolution31
I1006 17:36:09.192035  3702 net.cpp:367] BatchNorm31 -> Convolution31 (in-place)
I1006 17:36:09.192191  3702 net.cpp:122] Setting up BatchNorm31
I1006 17:36:09.192195  3702 net.cpp:129] Top shape: 100 64 8 8 (409600)
I1006 17:36:09.192198  3702 net.cpp:137] Memory required for data: 659866800
I1006 17:36:09.192209  3702 layer_factory.hpp:77] Creating layer Scale31
I1006 17:36:09.192214  3702 net.cpp:84] Creating Layer Scale31
I1006 17:36:09.207726  3702 net.cpp:406] Scale31 <- Convolution31
I1006 17:36:09.207738  3702 net.cpp:367] Scale31 -> Convolution31 (in-place)
I1006 17:36:09.207798  3702 layer_factory.hpp:77] Creating layer Scale31
I1006 17:36:09.207903  3702 net.cpp:122] Setting up Scale31
I1006 17:36:09.207911  3702 net.cpp:129] Top shape: 100 64 8 8 (409600)
I1006 17:36:09.207916  3702 net.cpp:137] Memory required for data: 661505200
I1006 17:36:09.207922  3702 layer_factory.hpp:77] Creating layer Eltwise14
I1006 17:36:09.207929  3702 net.cpp:84] Creating Layer Eltwise14
I1006 17:36:09.207933  3702 net.cpp:406] Eltwise14 <- Eltwise13_penlu27_0_split_1
I1006 17:36:09.207937  3702 net.cpp:406] Eltwise14 <- Convolution31
I1006 17:36:09.207942  3702 net.cpp:380] Eltwise14 -> Eltwise14
I1006 17:36:09.207965  3702 net.cpp:122] Setting up Eltwise14
I1006 17:36:09.207970  3702 net.cpp:129] Top shape: 100 64 8 8 (409600)
I1006 17:36:09.207981  3702 net.cpp:137] Memory required for data: 663143600
I1006 17:36:09.207983  3702 layer_factory.hpp:77] Creating layer penlu29
I1006 17:36:09.207988  3702 net.cpp:84] Creating Layer penlu29
I1006 17:36:09.207991  3702 net.cpp:406] penlu29 <- Eltwise14
I1006 17:36:09.207995  3702 net.cpp:367] penlu29 -> Eltwise14 (in-place)
I1006 17:36:09.208124  3702 net.cpp:122] Setting up penlu29
I1006 17:36:09.208128  3702 net.cpp:129] Top shape: 100 64 8 8 (409600)
I1006 17:36:09.208130  3702 net.cpp:137] Memory required for data: 664782000
I1006 17:36:09.208135  3702 layer_factory.hpp:77] Creating layer Eltwise14_penlu29_0_split
I1006 17:36:09.208139  3702 net.cpp:84] Creating Layer Eltwise14_penlu29_0_split
I1006 17:36:09.208142  3702 net.cpp:406] Eltwise14_penlu29_0_split <- Eltwise14
I1006 17:36:09.208144  3702 net.cpp:380] Eltwise14_penlu29_0_split -> Eltwise14_penlu29_0_split_0
I1006 17:36:09.208149  3702 net.cpp:380] Eltwise14_penlu29_0_split -> Eltwise14_penlu29_0_split_1
I1006 17:36:09.208176  3702 net.cpp:122] Setting up Eltwise14_penlu29_0_split
I1006 17:36:09.208180  3702 net.cpp:129] Top shape: 100 64 8 8 (409600)
I1006 17:36:09.208184  3702 net.cpp:129] Top shape: 100 64 8 8 (409600)
I1006 17:36:09.208185  3702 net.cpp:137] Memory required for data: 668058800
I1006 17:36:09.208187  3702 layer_factory.hpp:77] Creating layer Convolution32
I1006 17:36:09.208194  3702 net.cpp:84] Creating Layer Convolution32
I1006 17:36:09.208195  3702 net.cpp:406] Convolution32 <- Eltwise14_penlu29_0_split_0
I1006 17:36:09.208200  3702 net.cpp:380] Convolution32 -> Convolution32
I1006 17:36:09.210711  3702 net.cpp:122] Setting up Convolution32
I1006 17:36:09.210721  3702 net.cpp:129] Top shape: 100 64 8 8 (409600)
I1006 17:36:09.210724  3702 net.cpp:137] Memory required for data: 669697200
I1006 17:36:09.210728  3702 layer_factory.hpp:77] Creating layer BatchNorm32
I1006 17:36:09.210734  3702 net.cpp:84] Creating Layer BatchNorm32
I1006 17:36:09.210737  3702 net.cpp:406] BatchNorm32 <- Convolution32
I1006 17:36:09.210741  3702 net.cpp:367] BatchNorm32 -> Convolution32 (in-place)
I1006 17:36:09.210901  3702 net.cpp:122] Setting up BatchNorm32
I1006 17:36:09.210906  3702 net.cpp:129] Top shape: 100 64 8 8 (409600)
I1006 17:36:09.210908  3702 net.cpp:137] Memory required for data: 671335600
I1006 17:36:09.210913  3702 layer_factory.hpp:77] Creating layer Scale32
I1006 17:36:09.210919  3702 net.cpp:84] Creating Layer Scale32
I1006 17:36:09.210922  3702 net.cpp:406] Scale32 <- Convolution32
I1006 17:36:09.210924  3702 net.cpp:367] Scale32 -> Convolution32 (in-place)
I1006 17:36:09.210957  3702 layer_factory.hpp:77] Creating layer Scale32
I1006 17:36:09.211046  3702 net.cpp:122] Setting up Scale32
I1006 17:36:09.211051  3702 net.cpp:129] Top shape: 100 64 8 8 (409600)
I1006 17:36:09.211053  3702 net.cpp:137] Memory required for data: 672974000
I1006 17:36:09.211056  3702 layer_factory.hpp:77] Creating layer penlu30
I1006 17:36:09.211062  3702 net.cpp:84] Creating Layer penlu30
I1006 17:36:09.211066  3702 net.cpp:406] penlu30 <- Convolution32
I1006 17:36:09.211076  3702 net.cpp:367] penlu30 -> Convolution32 (in-place)
I1006 17:36:09.211254  3702 net.cpp:122] Setting up penlu30
I1006 17:36:09.211261  3702 net.cpp:129] Top shape: 100 64 8 8 (409600)
I1006 17:36:09.211272  3702 net.cpp:137] Memory required for data: 674612400
I1006 17:36:09.211277  3702 layer_factory.hpp:77] Creating layer Convolution33
I1006 17:36:09.211283  3702 net.cpp:84] Creating Layer Convolution33
I1006 17:36:09.211287  3702 net.cpp:406] Convolution33 <- Convolution32
I1006 17:36:09.211290  3702 net.cpp:380] Convolution33 -> Convolution33
I1006 17:36:09.213140  3702 net.cpp:122] Setting up Convolution33
I1006 17:36:09.213148  3702 net.cpp:129] Top shape: 100 64 8 8 (409600)
I1006 17:36:09.213150  3702 net.cpp:137] Memory required for data: 676250800
I1006 17:36:09.213155  3702 layer_factory.hpp:77] Creating layer BatchNorm33
I1006 17:36:09.213160  3702 net.cpp:84] Creating Layer BatchNorm33
I1006 17:36:09.213163  3702 net.cpp:406] BatchNorm33 <- Convolution33
I1006 17:36:09.213167  3702 net.cpp:367] BatchNorm33 -> Convolution33 (in-place)
I1006 17:36:09.213321  3702 net.cpp:122] Setting up BatchNorm33
I1006 17:36:09.213326  3702 net.cpp:129] Top shape: 100 64 8 8 (409600)
I1006 17:36:09.213328  3702 net.cpp:137] Memory required for data: 677889200
I1006 17:36:09.213332  3702 layer_factory.hpp:77] Creating layer Scale33
I1006 17:36:09.213337  3702 net.cpp:84] Creating Layer Scale33
I1006 17:36:09.213340  3702 net.cpp:406] Scale33 <- Convolution33
I1006 17:36:09.213343  3702 net.cpp:367] Scale33 -> Convolution33 (in-place)
I1006 17:36:09.213374  3702 layer_factory.hpp:77] Creating layer Scale33
I1006 17:36:09.213464  3702 net.cpp:122] Setting up Scale33
I1006 17:36:09.213469  3702 net.cpp:129] Top shape: 100 64 8 8 (409600)
I1006 17:36:09.213471  3702 net.cpp:137] Memory required for data: 679527600
I1006 17:36:09.213474  3702 layer_factory.hpp:77] Creating layer Eltwise15
I1006 17:36:09.213480  3702 net.cpp:84] Creating Layer Eltwise15
I1006 17:36:09.213484  3702 net.cpp:406] Eltwise15 <- Eltwise14_penlu29_0_split_1
I1006 17:36:09.213486  3702 net.cpp:406] Eltwise15 <- Convolution33
I1006 17:36:09.213490  3702 net.cpp:380] Eltwise15 -> Eltwise15
I1006 17:36:09.213508  3702 net.cpp:122] Setting up Eltwise15
I1006 17:36:09.213512  3702 net.cpp:129] Top shape: 100 64 8 8 (409600)
I1006 17:36:09.213515  3702 net.cpp:137] Memory required for data: 681166000
I1006 17:36:09.213516  3702 layer_factory.hpp:77] Creating layer penlu31
I1006 17:36:09.213521  3702 net.cpp:84] Creating Layer penlu31
I1006 17:36:09.213524  3702 net.cpp:406] penlu31 <- Eltwise15
I1006 17:36:09.213527  3702 net.cpp:367] penlu31 -> Eltwise15 (in-place)
I1006 17:36:09.213649  3702 net.cpp:122] Setting up penlu31
I1006 17:36:09.213654  3702 net.cpp:129] Top shape: 100 64 8 8 (409600)
I1006 17:36:09.213655  3702 net.cpp:137] Memory required for data: 682804400
I1006 17:36:09.213660  3702 layer_factory.hpp:77] Creating layer Pooling1
I1006 17:36:09.213663  3702 net.cpp:84] Creating Layer Pooling1
I1006 17:36:09.213666  3702 net.cpp:406] Pooling1 <- Eltwise15
I1006 17:36:09.213670  3702 net.cpp:380] Pooling1 -> Pooling1
I1006 17:36:09.213814  3702 net.cpp:122] Setting up Pooling1
I1006 17:36:09.213820  3702 net.cpp:129] Top shape: 100 64 1 1 (6400)
I1006 17:36:09.213824  3702 net.cpp:137] Memory required for data: 682830000
I1006 17:36:09.213825  3702 layer_factory.hpp:77] Creating layer InnerProduct1
I1006 17:36:09.213830  3702 net.cpp:84] Creating Layer InnerProduct1
I1006 17:36:09.213834  3702 net.cpp:406] InnerProduct1 <- Pooling1
I1006 17:36:09.213837  3702 net.cpp:380] InnerProduct1 -> InnerProduct1
I1006 17:36:09.213946  3702 net.cpp:122] Setting up InnerProduct1
I1006 17:36:09.213950  3702 net.cpp:129] Top shape: 100 10 (1000)
I1006 17:36:09.213953  3702 net.cpp:137] Memory required for data: 682834000
I1006 17:36:09.213956  3702 layer_factory.hpp:77] Creating layer InnerProduct1_InnerProduct1_0_split
I1006 17:36:09.213960  3702 net.cpp:84] Creating Layer InnerProduct1_InnerProduct1_0_split
I1006 17:36:09.213969  3702 net.cpp:406] InnerProduct1_InnerProduct1_0_split <- InnerProduct1
I1006 17:36:09.213973  3702 net.cpp:380] InnerProduct1_InnerProduct1_0_split -> InnerProduct1_InnerProduct1_0_split_0
I1006 17:36:09.213977  3702 net.cpp:380] InnerProduct1_InnerProduct1_0_split -> InnerProduct1_InnerProduct1_0_split_1
I1006 17:36:09.214007  3702 net.cpp:122] Setting up InnerProduct1_InnerProduct1_0_split
I1006 17:36:09.214011  3702 net.cpp:129] Top shape: 100 10 (1000)
I1006 17:36:09.214015  3702 net.cpp:129] Top shape: 100 10 (1000)
I1006 17:36:09.214016  3702 net.cpp:137] Memory required for data: 682842000
I1006 17:36:09.214018  3702 layer_factory.hpp:77] Creating layer SoftmaxWithLoss1
I1006 17:36:09.214022  3702 net.cpp:84] Creating Layer SoftmaxWithLoss1
I1006 17:36:09.214025  3702 net.cpp:406] SoftmaxWithLoss1 <- InnerProduct1_InnerProduct1_0_split_0
I1006 17:36:09.214027  3702 net.cpp:406] SoftmaxWithLoss1 <- Data2_Data1_1_split_0
…
