…
I1006 20:10:34.020449  3817 net.cpp:294] The NetState phase (0) differed from the phase (1) specified by a rule in layer Accuracy1
I1006 20:10:34.020967  3817 net.cpp:51] Initializing net from parameters: 
name: "resnet_cifar10"
state {
  phase: TRAIN
  level: 0
  stage: ""
}
layer {
  name: "Data1"
  type: "Data"
  top: "Data1"
  top: "Data2"
  include {
    phase: TRAIN
  }
  transform_param {
    mirror: true
    crop_size: 28
    mean_file: "/home/x306/caffe/xn/PENLU/data/cifar10/mean.binaryproto"
  }
  data_param {
    source: "/home/x306/caffe/xn/PENLU/data/cifar10/cifar10_train_lmdb"
    batch_size: 100
    backend: LMDB
  }
}
layer {
  name: "Convolution1"
  type: "Convolution"
  bottom: "Data1"
  top: "Convolution1"
  param {
    lr_mult: 1
    decay_mult: 1
  }
  param {
    lr_mult: 2
    decay_mult: 0
  }
  convolution_param {
    num_output: 16
    pad: 1
    kernel_size: 3
    stride: 1
    weight_filler {
      type: "gaussian"
      std: 0.118
    }
    bias_filler {
      type: "constant"
      value: 0
    }
  }
}
layer {
  name: "BatchNorm1"
  type: "BatchNorm"
  bottom: "Convolution1"
  top: "Convolution1"
  param {
    lr_mult: 0
    decay_mult: 0
  }
  param {
    lr_mult: 0
    decay_mult: 0
  }
  param {
    lr_mult: 0
    decay_mult: 0
  }
}
layer {
  name: "Scale1"
  type: "Scale"
  bottom: "Convolution1"
  top: "Convolution1"
  scale_param {
    bias_term: true
  }
}
layer {
  name: "PReLU1"
  type: "PReLU"
  bottom: "Convolution1"
  top: "Convolution1"
}
layer {
  name: "Convolution2"
  type: "Convolution"
  bottom: "Convolution1"
  top: "Convolution2"
  param {
    lr_mult: 1
    decay_mult: 1
  }
  param {
    lr_mult: 2
    decay_mult: 0
  }
  convolution_param {
    num_output: 16
    pad: 1
    kernel_size: 3
    stride: 1
    weight_filler {
      type: "gaussian"
      std: 0.118
    }
    bias_filler {
      type: "constant"
      value: 0
    }
  }
}
layer {
  name: "BatchNorm2"
  type: "BatchNorm"
  bottom: "Convolution2"
  top: "Convolution2"
  param {
    lr_mult: 0
    decay_mult: 0
  }
  param {
    lr_mult: 0
    decay_mult: 0
  }
  param {
    lr_mult: 0
    decay_mult: 0
  }
}
layer {
  name: "Scale2"
  type: "Scale"
  bottom: "Convolution2"
  top: "Convolution2"
  scale_param {
    bias_term: true
  }
}
layer {
  name: "PReLU2"
  type: "PReLU"
  bottom: "Convolution2"
  top: "Convolution2"
}
layer {
  name: "Convolution3"
  type: "Convolution"
  bottom: "Convolution2"
  top: "Convolution3"
  param {
    lr_mult: 1
    decay_mult: 1
  }
  param {
    lr_mult: 2
    decay_mult: 0
  }
  convolution_param {
    num_output: 16
    pad: 1
    kernel_size: 3
    stride: 1
    weight_filler {
      type: "gaussian"
      std: 0.118
    }
    bias_filler {
      type: "constant"
      value: 0
    }
  }
}
layer {
  name: "BatchNorm3"
  type: "BatchNorm"
  bottom: "Convolution3"
  top: "Convolution3"
  param {
    lr_mult: 0
    decay_mult: 0
  }
  param {
    lr_mult: 0
    decay_mult: 0
  }
  param {
    lr_mult: 0
    decay_mult: 0
  }
}
layer {
  name: "Scale3"
  type: "Scale"
  bottom: "Convolution3"
  top: "Convolution3"
  scale_param {
    bias_term: true
  }
}
layer {
  name: "Eltwise1"
  type: "Eltwise"
  bottom: "Convolution1"
  bottom: "Convolution3"
  top: "Eltwise1"
  eltwise_param {
    operation: SUM
  }
}
layer {
  name: "PReLU3"
  type: "PReLU"
  bottom: "Eltwise1"
  top: "Eltwise1"
}
layer {
  name: "Convolution4"
  type: "Convolution"
  bottom: "Eltwise1"
  top: "Convolution4"
  param {
    lr_mult: 1
    decay_mult: 1
  }
  param {
    lr_mult: 2
    decay_mult: 0
  }
  convolution_param {
    num_output: 16
    pad: 1
    kernel_size: 3
    stride: 1
    weight_filler {
      type: "gaussian"
      std: 0.118
    }
    bias_filler {
      type: "constant"
      value: 0
    }
  }
}
layer {
  name: "BatchNorm4"
  type: "BatchNorm"
  bottom: "Convolution4"
  top: "Convolution4"
  param {
    lr_mult: 0
    decay_mult: 0
  }
  param {
    lr_mult: 0
    decay_mult: 0
  }
  param {
    lr_mult: 0
    decay_mult: 0
  }
}
layer {
  name: "Scale4"
  type: "Scale"
  bottom: "Convolution4"
  top: "Convolution4"
  scale_param {
    bias_term: true
  }
}
layer {
  name: "PReLU4"
  type: "PReLU"
  bottom: "Convolution4"
  top: "Convolution4"
}
layer {
  name: "Convolution5"
  type: "Convolution"
  bottom: "Convolution4"
  top: "Convolution5"
  param {
    lr_mult: 1
    decay_mult: 1
  }
  param {
    lr_mult: 2
    decay_mult: 0
  }
  convolution_param {
    num_output: 16
    pad: 1
    kernel_size: 3
    stride: 1
    weight_filler {
      type: "gaussian"
      std: 0.118
    }
    bias_filler {
      type: "constant"
      value: 0
    }
  }
}
layer {
  name: "BatchNorm5"
  type: "BatchNorm"
  bottom: "Convolution5"
  top: "Convolution5"
  param {
    lr_mult: 0
    decay_mult: 0
  }
  param {
    lr_mult: 0
    decay_mult: 0
  }
  param {
    lr_mult: 0
    decay_mult: 0
  }
}
layer {
  name: "Scale5"
  type: "Scale"
  bottom: "Convolution5"
  top: "Convolution5"
  scale_param {
    bias_term: true
  }
}
layer {
  name: "Eltwise2"
  type: "Eltwise"
  bottom: "Eltwise1"
  bottom: "Convolution5"
  top: "Eltwise2"
  eltwise_param {
    operation: SUM
  }
}
layer {
  name: "PReLU5"
  type: "PReLU"
  bottom: "Eltwise2"
  top: "Eltwise2"
}
layer {
  name: "Convolution6"
  type: "Convolution"
  bottom: "Eltwise2"
  top: "Convolution6"
  param {
    lr_mult: 1
    decay_mult: 1
  }
  param {
    lr_mult: 2
    decay_mult: 0
  }
  convolution_param {
    num_output: 16
    pad: 1
    kernel_size: 3
    stride: 1
    weight_filler {
      type: "gaussian"
      std: 0.118
    }
    bias_filler {
      type: "constant"
      value: 0
    }
  }
}
layer {
  name: "BatchNorm6"
  type: "BatchNorm"
  bottom: "Convolution6"
  top: "Convolution6"
  param {
    lr_mult: 0
    decay_mult: 0
  }
  param {
    lr_mult: 0
    decay_mult: 0
  }
  param {
    lr_mult: 0
    decay_mult: 0
  }
}
layer {
  name: "Scale6"
  type: "Scale"
  bottom: "Convolution6"
  top: "Convolution6"
  scale_param {
    bias_term: true
  }
}
layer {
  name: "PReLU6"
  type: "PReLU"
  bottom: "Convolution6"
  top: "Convolution6"
}
layer {
  name: "Convolution7"
  type: "Convolution"
  bottom: "Convolution6"
  top: "Convolution7"
  param {
    lr_mult: 1
    decay_mult: 1
  }
  param {
    lr_mult: 2
    decay_mult: 0
  }
  convolution_param {
    num_output: 16
    pad: 1
    kernel_size: 3
    stride: 1
    weight_filler {
      type: "gaussian"
      std: 0.118
    }
    bias_filler {
      type: "constant"
      value: 0
    }
  }
}
layer {
  name: "BatchNorm7"
  type: "BatchNorm"
  bottom: "Convolution7"
  top: "Convolution7"
  param {
    lr_mult: 0
    decay_mult: 0
  }
  param {
    lr_mult: 0
    decay_mult: 0
  }
  param {
    lr_mult: 0
    decay_mult: 0
  }
}
layer {
  name: "Scale7"
  type: "Scale"
  bottom: "Convolution7"
  top: "Convolution7"
  scale_param {
    bias_term: true
  }
}
layer {
  name: "Eltwise3"
  type: "Eltwise"
  bottom: "Eltwise2"
  bottom: "Convolution7"
  top: "Eltwise3"
  eltwise_param {
    operation: SUM
  }
}
layer {
  name: "PReLU7"
  type: "PReLU"
  bottom: "Eltwise3"
  top: "Eltwise3"
}
layer {
  name: "Convolution8"
  type: "Convolution"
  bottom: "Eltwise3"
  top: "Convolution8"
  param {
    lr_mult: 1
    decay_mult: 1
  }
  param {
    lr_mult: 2
    decay_mult: 0
  }
  convolution_param {
    num_output: 16
    pad: 1
    kernel_size: 3
    stride: 1
    weight_filler {
      type: "gaussian"
      std: 0.118
    }
    bias_filler {
      type: "constant"
      value: 0
    }
  }
}
layer {
  name: "BatchNorm8"
  type: "BatchNorm"
  bottom: "Convolution8"
  top: "Convolution8"
  param {
    lr_mult: 0
    decay_mult: 0
  }
  param {
    lr_mult: 0
    decay_mult: 0
  }
  param {
    lr_mult: 0
    decay_mult: 0
  }
}
layer {
  name: "Scale8"
  type: "Scale"
  bottom: "Convolution8"
  top: "Convolution8"
  scale_param {
    bias_term: true
  }
}
layer {
  name: "PReLU8"
  type: "PReLU"
  bottom: "Convolution8"
  top: "Convolution8"
}
layer {
  name: "Convolution9"
  type: "Convolution"
  bottom: "Convolution8"
  top: "Convolution9"
  param {
    lr_mult: 1
    decay_mult: 1
  }
  param {
    lr_mult: 2
    decay_mult: 0
  }
  convolution_param {
    num_output: 16
    pad: 1
    kernel_size: 3
    stride: 1
    weight_filler {
      type: "gaussian"
      std: 0.118
    }
    bias_filler {
      type: "constant"
      value: 0
    }
  }
}
layer {
  name: "BatchNorm9"
  type: "BatchNorm"
  bottom: "Convolution9"
  top: "Convolution9"
  param {
    lr_mult: 0
    decay_mult: 0
  }
  param {
    lr_mult: 0
    decay_mult: 0
  }
  param {
    lr_mult: 0
    decay_mult: 0
  }
}
layer {
  name: "Scale9"
  type: "Scale"
  bottom: "Convolution9"
  top: "Convolution9"
  scale_param {
    bias_term: true
  }
}
layer {
  name: "Eltwise4"
  type: "Eltwise"
  bottom: "Eltwise3"
  bottom: "Convolution9"
  top: "Eltwise4"
  eltwise_param {
    operation: SUM
  }
}
layer {
  name: "PReLU9"
  type: "PReLU"
  bottom: "Eltwise4"
  top: "Eltwise4"
}
layer {
  name: "Convolution10"
  type: "Convolution"
  bottom: "Eltwise4"
  top: "Convolution10"
  param {
    lr_mult: 1
    decay_mult: 1
  }
  param {
    lr_mult: 2
    decay_mult: 0
  }
  convolution_param {
    num_output: 16
    pad: 1
    kernel_size: 3
    stride: 1
    weight_filler {
      type: "gaussian"
      std: 0.118
    }
    bias_filler {
      type: "constant"
      value: 0
    }
  }
}
layer {
  name: "BatchNorm10"
  type: "BatchNorm"
  bottom: "Convolution10"
  top: "Convolution10"
  param {
    lr_mult: 0
    decay_mult: 0
  }
  param {
    lr_mult: 0
    decay_mult: 0
  }
  param {
    lr_mult: 0
    decay_mult: 0
  }
}
layer {
  name: "Scale10"
  type: "Scale"
  bottom: "Convolution10"
  top: "Convolution10"
  scale_param {
    bias_term: true
  }
}
layer {
  name: "PReLU10"
  type: "PReLU"
  bottom: "Convolution10"
  top: "Convolution10"
}
layer {
  name: "Convolution11"
  type: "Convolution"
  bottom: "Convolution10"
  top: "Convolution11"
  param {
    lr_mult: 1
    decay_mult: 1
  }
  param {
    lr_mult: 2
    decay_mult: 0
  }
  convolution_param {
    num_output: 16
    pad: 1
    kernel_size: 3
    stride: 1
    weight_filler {
      type: "gaussian"
      std: 0.118
    }
    bias_filler {
      type: "constant"
      value: 0
    }
  }
}
layer {
  name: "BatchNorm11"
  type: "BatchNorm"
  bottom: "Convolution11"
  top: "Convolution11"
  param {
    lr_mult: 0
    decay_mult: 0
  }
  param {
    lr_mult: 0
    decay_mult: 0
  }
  param {
    lr_mult: 0
    decay_mult: 0
  }
}
layer {
  name: "Scale11"
  type: "Scale"
  bottom: "Convolution11"
  top: "Convolution11"
  scale_param {
    bias_term: true
  }
}
layer {
  name: "Eltwise5"
  type: "Eltwise"
  bottom: "Eltwise4"
  bottom: "Convolution11"
  top: "Eltwise5"
  eltwise_param {
    operation: SUM
  }
}
layer {
  name: "PReLU11"
  type: "PReLU"
  bottom: "Eltwise5"
  top: "Eltwise5"
}
layer {
  name: "Convolution12"
  type: "Convolution"
  bottom: "Eltwise5"
  top: "Convolution12"
  param {
    lr_mult: 1
    decay_mult: 1
  }
  param {
    lr_mult: 2
    decay_mult: 0
  }
  convolution_param {
    num_output: 32
    pad: 0
    kernel_size: 1
    stride: 2
    weight_filler {
      type: "gaussian"
      std: 0.25
    }
    bias_filler {
      type: "constant"
      value: 0
    }
  }
}
layer {
  name: "BatchNorm12"
  type: "BatchNorm"
  bottom: "Convolution12"
  top: "Convolution12"
  param {
    lr_mult: 0
    decay_mult: 0
  }
  param {
    lr_mult: 0
    decay_mult: 0
  }
  param {
    lr_mult: 0
    decay_mult: 0
  }
}
layer {
  name: "Scale12"
  type: "Scale"
  bottom: "Convolution12"
  top: "Convolution12"
  scale_param {
    bias_term: true
  }
}
layer {
  name: "Convolution13"
  type: "Convolution"
  bottom: "Eltwise5"
  top: "Convolution13"
  param {
    lr_mult: 1
    decay_mult: 1
  }
  param {
    lr_mult: 2
    decay_mult: 0
  }
  convolution_param {
    num_output: 32
    pad: 1
    kernel_size: 3
    stride: 2
    weight_filler {
      type: "gaussian"
      std: 0.083
    }
    bias_filler {
      type: "constant"
      value: 0
    }
  }
}
layer {
  name: "BatchNorm13"
  type: "BatchNorm"
  bottom: "Convolution13"
  top: "Convolution13"
  param {
    lr_mult: 0
    decay_mult: 0
  }
  param {
    lr_mult: 0
    decay_mult: 0
  }
  param {
    lr_mult: 0
    decay_mult: 0
  }
}
layer {
  name: "Scale13"
  type: "Scale"
  bottom: "Convolution13"
  top: "Convolution13"
  scale_param {
    bias_term: true
  }
}
layer {
  name: "PReLU12"
  type: "PReLU"
  bottom: "Convolution13"
  top: "Convolution13"
}
layer {
  name: "Convolution14"
  type: "Convolution"
  bottom: "Convolution13"
  top: "Convolution14"
  param {
    lr_mult: 1
    decay_mult: 1
  }
  param {
    lr_mult: 2
    decay_mult: 0
  }
  convolution_param {
    num_output: 32
    pad: 1
    kernel_size: 3
    stride: 1
    weight_filler {
      type: "gaussian"
      std: 0.083
    }
    bias_filler {
      type: "constant"
      value: 0
    }
  }
}
layer {
  name: "BatchNorm14"
  type: "BatchNorm"
  bottom: "Convolution14"
  top: "Convolution14"
  param {
    lr_mult: 0
    decay_mult: 0
  }
  param {
    lr_mult: 0
    decay_mult: 0
  }
  param {
    lr_mult: 0
    decay_mult: 0
  }
}
layer {
  name: "Scale14"
  type: "Scale"
  bottom: "Convolution14"
  top: "Convolution14"
  scale_param {
    bias_term: true
  }
}
layer {
  name: "Eltwise6"
  type: "Eltwise"
  bottom: "Convolution12"
  bottom: "Convolution14"
  top: "Eltwise6"
  eltwise_param {
    operation: SUM
  }
}
layer {
  name: "PReLU13"
  type: "PReLU"
  bottom: "Eltwise6"
  top: "Eltwise6"
}
layer {
  name: "Convolution15"
  type: "Convolution"
  bottom: "Eltwise6"
  top: "Convolution15"
  param {
    lr_mult: 1
    decay_mult: 1
  }
  param {
    lr_mult: 2
    decay_mult: 0
  }
  convolution_param {
    num_output: 32
    pad: 1
    kernel_size: 3
    stride: 1
    weight_filler {
      type: "gaussian"
      std: 0.083
    }
    bias_filler {
      type: "constant"
      value: 0
    }
  }
}
layer {
  name: "BatchNorm15"
  type: "BatchNorm"
  bottom: "Convolution15"
  top: "Convolution15"
  param {
    lr_mult: 0
    decay_mult: 0
  }
  param {
    lr_mult: 0
    decay_mult: 0
  }
  param {
    lr_mult: 0
    decay_mult: 0
  }
}
layer {
  name: "Scale15"
  type: "Scale"
  bottom: "Convolution15"
  top: "Convolution15"
  scale_param {
    bias_term: true
  }
}
layer {
  name: "PReLU14"
  type: "PReLU"
  bottom: "Convolution15"
  top: "Convolution15"
}
layer {
  name: "Convolution16"
  type: "Convolution"
  bottom: "Convolution15"
  top: "Convolution16"
  param {
    lr_mult: 1
    decay_mult: 1
  }
  param {
    lr_mult: 2
    decay_mult: 0
  }
  convolution_param {
    num_output: 32
    pad: 1
    kernel_size: 3
    stride: 1
    weight_filler {
      type: "gaussian"
      std: 0.083
    }
    bias_filler {
      type: "constant"
      value: 0
    }
  }
}
layer {
  name: "BatchNorm16"
  type: "BatchNorm"
  bottom: "Convolution16"
  top: "Convolution16"
  param {
    lr_mult: 0
    decay_mult: 0
  }
  param {
    lr_mult: 0
    decay_mult: 0
  }
  param {
    lr_mult: 0
    decay_mult: 0
  }
}
layer {
  name: "Scale16"
  type: "Scale"
  bottom: "Convolution16"
  top: "Convolution16"
  scale_param {
    bias_term: true
  }
}
layer {
  name: "Eltwise7"
  type: "Eltwise"
  bottom: "Eltwise6"
  bottom: "Convolution16"
  top: "Eltwise7"
  eltwise_param {
    operation: SUM
  }
}
layer {
  name: "PReLU15"
  type: "PReLU"
  bottom: "Eltwise7"
  top: "Eltwise7"
}
layer {
  name: "Convolution17"
  type: "Convolution"
  bottom: "Eltwise7"
  top: "Convolution17"
  param {
    lr_mult: 1
    decay_mult: 1
  }
  param {
    lr_mult: 2
    decay_mult: 0
  }
  convolution_param {
    num_output: 32
    pad: 1
    kernel_size: 3
    stride: 1
    weight_filler {
      type: "gaussian"
      std: 0.083
    }
    bias_filler {
      type: "constant"
      value: 0
    }
  }
}
layer {
  name: "BatchNorm17"
  type: "BatchNorm"
  bottom: "Convolution17"
  top: "Convolution17"
  param {
    lr_mult: 0
    decay_mult: 0
  }
  param {
    lr_mult: 0
    decay_mult: 0
  }
  param {
    lr_mult: 0
    decay_mult: 0
  }
}
layer {
  name: "Scale17"
  type: "Scale"
  bottom: "Convolution17"
  top: "Convolution17"
  scale_param {
    bias_term: true
  }
}
layer {
  name: "PReLU16"
  type: "PReLU"
  bottom: "Convolution17"
  top: "Convolution17"
}
layer {
  name: "Convolution18"
  type: "Convolution"
  bottom: "Convolution17"
  top: "Convolution18"
  param {
    lr_mult: 1
    decay_mult: 1
  }
  param {
    lr_mult: 2
    decay_mult: 0
  }
  convolution_param {
    num_output: 32
    pad: 1
    kernel_size: 3
    stride: 1
    weight_filler {
      type: "gaussian"
      std: 0.083
    }
    bias_filler {
      type: "constant"
      value: 0
    }
  }
}
layer {
  name: "BatchNorm18"
  type: "BatchNorm"
  bottom: "Convolution18"
  top: "Convolution18"
  param {
    lr_mult: 0
    decay_mult: 0
  }
  param {
    lr_mult: 0
    decay_mult: 0
  }
  param {
    lr_mult: 0
    decay_mult: 0
  }
}
layer {
  name: "Scale18"
  type: "Scale"
  bottom: "Convolution18"
  top: "Convolution18"
  scale_param {
    bias_term: true
  }
}
layer {
  name: "Eltwise8"
  type: "Eltwise"
  bottom: "Eltwise7"
  bottom: "Convolution18"
  top: "Eltwise8"
  eltwise_param {
    operation: SUM
  }
}
layer {
  name: "PReLU17"
  type: "PReLU"
  bottom: "Eltwise8"
  top: "Eltwise8"
}
layer {
  name: "Convolution19"
  type: "Convolution"
  bottom: "Eltwise8"
  top: "Convolution19"
  param {
    lr_mult: 1
    decay_mult: 1
  }
  param {
    lr_mult: 2
    decay_mult: 0
  }
  convolution_param {
    num_output: 32
    pad: 1
    kernel_size: 3
    stride: 1
    weight_filler {
      type: "gaussian"
      std: 0.083
    }
    bias_filler {
      type: "constant"
      value: 0
    }
  }
}
layer {
  name: "BatchNorm19"
  type: "BatchNorm"
  bottom: "Convolution19"
  top: "Convolution19"
  param {
    lr_mult: 0
    decay_mult: 0
  }
  param {
    lr_mult: 0
    decay_mult: 0
  }
  param {
    lr_mult: 0
    decay_mult: 0
  }
}
layer {
  name: "Scale19"
  type: "Scale"
  bottom: "Convolution19"
  top: "Convolution19"
  scale_param {
    bias_term: true
  }
}
layer {
  name: "PReLU18"
  type: "PReLU"
  bottom: "Convolution19"
  top: "Convolution19"
}
layer {
  name: "Convolution20"
  type: "Convolution"
  bottom: "Convolution19"
  top: "Convolution20"
  param {
    lr_mult: 1
    decay_mult: 1
  }
  param {
    lr_mult: 2
    decay_mult: 0
  }
  convolution_param {
    num_output: 32
    pad: 1
    kernel_size: 3
    stride: 1
    weight_filler {
      type: "gaussian"
      std: 0.083
    }
    bias_filler {
      type: "constant"
      value: 0
    }
  }
}
layer {
  name: "BatchNorm20"
  type: "BatchNorm"
  bottom: "Convolution20"
  top: "Convolution20"
  param {
    lr_mult: 0
    decay_mult: 0
  }
  param {
    lr_mult: 0
    decay_mult: 0
  }
  param {
    lr_mult: 0
    decay_mult: 0
  }
}
layer {
  name: "Scale20"
  type: "Scale"
  bottom: "Convolution20"
  top: "Convolution20"
  scale_param {
    bias_term: true
  }
}
layer {
  name: "Eltwise9"
  type: "Eltwise"
  bottom: "Eltwise8"
  bottom: "Convolution20"
  top: "Eltwise9"
  eltwise_param {
    operation: SUM
  }
}
layer {
  name: "PReLU19"
  type: "PReLU"
  bottom: "Eltwise9"
  top: "Eltwise9"
}
layer {
  name: "Convolution21"
  type: "Convolution"
  bottom: "Eltwise9"
  top: "Convolution21"
  param {
    lr_mult: 1
    decay_mult: 1
  }
  param {
    lr_mult: 2
    decay_mult: 0
  }
  convolution_param {
    num_output: 32
    pad: 1
    kernel_size: 3
    stride: 1
    weight_filler {
      type: "gaussian"
      std: 0.083
    }
    bias_filler {
      type: "constant"
      value: 0
    }
  }
}
layer {
  name: "BatchNorm21"
  type: "BatchNorm"
  bottom: "Convolution21"
  top: "Convolution21"
  param {
    lr_mult: 0
    decay_mult: 0
  }
  param {
    lr_mult: 0
    decay_mult: 0
  }
  param {
    lr_mult: 0
    decay_mult: 0
  }
}
layer {
  name: "Scale21"
  type: "Scale"
  bottom: "Convolution21"
  top: "Convolution21"
  scale_param {
    bias_term: true
  }
}
layer {
  name: "PReLU20"
  type: "PReLU"
  bottom: "Convolution21"
  top: "Convolution21"
}
layer {
  name: "Convolution22"
  type: "Convolution"
  bottom: "Convolution21"
  top: "Convolution22"
  param {
    lr_mult: 1
    decay_mult: 1
  }
  param {
    lr_mult: 2
    decay_mult: 0
  }
  convolution_param {
    num_output: 32
    pad: 1
    kernel_size: 3
    stride: 1
    weight_filler {
      type: "gaussian"
      std: 0.083
    }
    bias_filler {
      type: "constant"
      value: 0
    }
  }
}
layer {
  name: "BatchNorm22"
  type: "BatchNorm"
  bottom: "Convolution22"
  top: "Convolution22"
  param {
    lr_mult: 0
    decay_mult: 0
  }
  param {
    lr_mult: 0
    decay_mult: 0
  }
  param {
    lr_mult: 0
    decay_mult: 0
  }
}
layer {
  name: "Scale22"
  type: "Scale"
  bottom: "Convolution22"
  top: "Convolution22"
  scale_param {
    bias_term: true
  }
}
layer {
  name: "Eltwise10"
  type: "Eltwise"
  bottom: "Eltwise9"
  bottom: "Convolution22"
  top: "Eltwise10"
  eltwise_param {
    operation: SUM
  }
}
layer {
  name: "PReLU21"
  type: "PReLU"
  bottom: "Eltwise10"
  top: "Eltwise10"
}
layer {
  name: "Convolution23"
  type: "Convolution"
  bottom: "Eltwise10"
  top: "Convolution23"
  param {
    lr_mult: 1
    decay_mult: 1
  }
  param {
    lr_mult: 2
    decay_mult: 0
  }
  convolution_param {
    num_output: 64
    pad: 0
    kernel_size: 1
    stride: 2
    weight_filler {
      type: "gaussian"
      std: 0.17677669
    }
    bias_filler {
      type: "constant"
      value: 0
    }
  }
}
layer {
  name: "BatchNorm23"
  type: "BatchNorm"
  bottom: "Convolution23"
  top: "Convolution23"
  param {
    lr_mult: 0
    decay_mult: 0
  }
  param {
    lr_mult: 0
    decay_mult: 0
  }
  param {
    lr_mult: 0
    decay_mult: 0
  }
}
layer {
  name: "Scale23"
  type: "Scale"
  bottom: "Convolution23"
  top: "Convolution23"
  scale_param {
    bias_term: true
  }
}
layer {
  name: "Convolution24"
  type: "Convolution"
  bottom: "Eltwise10"
  top: "Convolution24"
  param {
    lr_mult: 1
    decay_mult: 1
  }
  param {
    lr_mult: 2
    decay_mult: 0
  }
  convolution_param {
    num_output: 64
    pad: 1
    kernel_size: 3
    stride: 2
    weight_filler {
      type: "gaussian"
      std: 0.059
    }
    bias_filler {
      type: "constant"
      value: 0
    }
  }
}
layer {
  name: "BatchNorm24"
  type: "BatchNorm"
  bottom: "Convolution24"
  top: "Convolution24"
  param {
    lr_mult: 0
    decay_mult: 0
  }
  param {
    lr_mult: 0
    decay_mult: 0
  }
  param {
    lr_mult: 0
    decay_mult: 0
  }
}
layer {
  name: "Scale24"
  type: "Scale"
  bottom: "Convolution24"
  top: "Convolution24"
  scale_param {
    bias_term: true
  }
}
layer {
  name: "PReLU22"
  type: "PReLU"
  bottom: "Convolution24"
  top: "Convolution24"
}
layer {
  name: "Convolution25"
  type: "Convolution"
  bottom: "Convolution24"
  top: "Convolution25"
  param {
    lr_mult: 1
    decay_mult: 1
  }
  param {
    lr_mult: 2
    decay_mult: 0
  }
  convolution_param {
    num_output: 64
    pad: 1
    kernel_size: 3
    stride: 1
    weight_filler {
      type: "gaussian"
      std: 0.059
    }
    bias_filler {
      type: "constant"
      value: 0
    }
  }
}
layer {
  name: "BatchNorm25"
  type: "BatchNorm"
  bottom: "Convolution25"
  top: "Convolution25"
  param {
    lr_mult: 0
    decay_mult: 0
  }
  param {
    lr_mult: 0
    decay_mult: 0
  }
  param {
    lr_mult: 0
    decay_mult: 0
  }
}
layer {
  name: "Scale25"
  type: "Scale"
  bottom: "Convolution25"
  top: "Convolution25"
  scale_param {
    bias_term: true
  }
}
layer {
  name: "Eltwise11"
  type: "Eltwise"
  bottom: "Convolution23"
  bottom: "Convolution25"
  top: "Eltwise11"
  eltwise_param {
    operation: SUM
  }
}
layer {
  name: "PReLU23"
  type: "PReLU"
  bottom: "Eltwise11"
  top: "Eltwise11"
}
layer {
  name: "Convolution26"
  type: "Convolution"
  bottom: "Eltwise11"
  top: "Convolution26"
  param {
    lr_mult: 1
    decay_mult: 1
  }
  param {
    lr_mult: 2
    decay_mult: 0
  }
  convolution_param {
    num_output: 64
    pad: 1
    kernel_size: 3
    stride: 1
    weight_filler {
      type: "gaussian"
      std: 0.059
    }
    bias_filler {
      type: "constant"
      value: 0
    }
  }
}
layer {
  name: "BatchNorm26"
  type: "BatchNorm"
  bottom: "Convolution26"
  top: "Convolution26"
  param {
    lr_mult: 0
    decay_mult: 0
  }
  param {
    lr_mult: 0
    decay_mult: 0
  }
  param {
    lr_mult: 0
    decay_mult: 0
  }
}
layer {
  name: "Scale26"
  type: "Scale"
  bottom: "Convolution26"
  top: "Convolution26"
  scale_param {
    bias_term: true
  }
}
layer {
  name: "PReLU24"
  type: "PReLU"
  bottom: "Convolution26"
  top: "Convolution26"
}
layer {
  name: "Convolution27"
  type: "Convolution"
  bottom: "Convolution26"
  top: "Convolution27"
  param {
    lr_mult: 1
    decay_mult: 1
  }
  param {
    lr_mult: 2
    decay_mult: 0
  }
  convolution_param {
    num_output: 64
    pad: 1
    kernel_size: 3
    stride: 1
    weight_filler {
      type: "gaussian"
      std: 0.059
    }
    bias_filler {
      type: "constant"
      value: 0
    }
  }
}
layer {
  name: "BatchNorm27"
  type: "BatchNorm"
  bottom: "Convolution27"
  top: "Convolution27"
  param {
    lr_mult: 0
    decay_mult: 0
  }
  param {
    lr_mult: 0
    decay_mult: 0
  }
  param {
    lr_mult: 0
    decay_mult: 0
  }
}
layer {
  name: "Scale27"
  type: "Scale"
  bottom: "Convolution27"
  top: "Convolution27"
  scale_param {
    bias_term: true
  }
}
layer {
  name: "Eltwise12"
  type: "Eltwise"
  bottom: "Eltwise11"
  bottom: "Convolution27"
  top: "Eltwise12"
  eltwise_param {
    operation: SUM
  }
}
layer {
  name: "PReLU25"
  type: "PReLU"
  bottom: "Eltwise12"
  top: "Eltwise12"
}
layer {
  name: "Convolution28"
  type: "Convolution"
  bottom: "Eltwise12"
  top: "Convolution28"
  param {
    lr_mult: 1
    decay_mult: 1
  }
  param {
    lr_mult: 2
    decay_mult: 0
  }
  convolution_param {
    num_output: 64
    pad: 1
    kernel_size: 3
    stride: 1
    weight_filler {
      type: "gaussian"
      std: 0.059
    }
    bias_filler {
      type: "constant"
      value: 0
    }
  }
}
layer {
  name: "BatchNorm28"
  type: "BatchNorm"
  bottom: "Convolution28"
  top: "Convolution28"
  param {
    lr_mult: 0
    decay_mult: 0
  }
  param {
    lr_mult: 0
    decay_mult: 0
  }
  param {
    lr_mult: 0
    decay_mult: 0
  }
}
layer {
  name: "Scale28"
  type: "Scale"
  bottom: "Convolution28"
  top: "Convolution28"
  scale_param {
    bias_term: true
  }
}
layer {
  name: "PReLU26"
  type: "PReLU"
  bottom: "Convolution28"
  top: "Convolution28"
}
layer {
  name: "Convolution29"
  type: "Convolution"
  bottom: "Convolution28"
  top: "Convolution29"
  param {
    lr_mult: 1
    decay_mult: 1
  }
  param {
    lr_mult: 2
    decay_mult: 0
  }
  convolution_param {
    num_output: 64
    pad: 1
    kernel_size: 3
    stride: 1
    weight_filler {
      type: "gaussian"
      std: 0.059
    }
    bias_filler {
      type: "constant"
      value: 0
    }
  }
}
layer {
  name: "BatchNorm29"
  type: "BatchNorm"
  bottom: "Convolution29"
  top: "Convolution29"
  param {
    lr_mult: 0
    decay_mult: 0
  }
  param {
    lr_mult: 0
    decay_mult: 0
  }
  param {
    lr_mult: 0
    decay_mult: 0
  }
}
layer {
  name: "Scale29"
  type: "Scale"
  bottom: "Convolution29"
  top: "Convolution29"
  scale_param {
    bias_term: true
  }
}
layer {
  name: "Eltwise13"
  type: "Eltwise"
  bottom: "Eltwise12"
  bottom: "Convolution29"
  top: "Eltwise13"
  eltwise_param {
    operation: SUM
  }
}
layer {
  name: "PReLU27"
  type: "PReLU"
  bottom: "Eltwise13"
  top: "Eltwise13"
}
layer {
  name: "Convolution30"
  type: "Convolution"
  bottom: "Eltwise13"
  top: "Convolution30"
  param {
    lr_mult: 1
    decay_mult: 1
  }
  param {
    lr_mult: 2
    decay_mult: 0
  }
  convolution_param {
    num_output: 64
    pad: 1
    kernel_size: 3
    stride: 1
    weight_filler {
      type: "gaussian"
      std: 0.059
    }
    bias_filler {
      type: "constant"
      value: 0
    }
  }
}
layer {
  name: "BatchNorm30"
  type: "BatchNorm"
  bottom: "Convolution30"
  top: "Convolution30"
  param {
    lr_mult: 0
    decay_mult: 0
  }
  param {
    lr_mult: 0
    decay_mult: 0
  }
  param {
    lr_mult: 0
    decay_mult: 0
  }
}
layer {
  name: "Scale30"
  type: "Scale"
  bottom: "Convolution30"
  top: "Convolution30"
  scale_param {
    bias_term: true
  }
}
layer {
  name: "PReLU28"
  type: "PReLU"
  bottom: "Convolution30"
  top: "Convolution30"
}
layer {
  name: "Convolution31"
  type: "Convolution"
  bottom: "Convolution30"
  top: "Convolution31"
  param {
    lr_mult: 1
    decay_mult: 1
  }
  param {
    lr_mult: 2
    decay_mult: 0
  }
  convolution_param {
    num_output: 64
    pad: 1
    kernel_size: 3
    stride: 1
    weight_filler {
      type: "gaussian"
      std: 0.059
    }
    bias_filler {
      type: "constant"
      value: 0
    }
  }
}
layer {
  name: "BatchNorm31"
  type: "BatchNorm"
  bottom: "Convolution31"
  top: "Convolution31"
  param {
    lr_mult: 0
    decay_mult: 0
  }
  param {
    lr_mult: 0
    decay_mult: 0
  }
  param {
    lr_mult: 0
    decay_mult: 0
  }
}
layer {
  name: "Scale31"
  type: "Scale"
  bottom: "Convolution31"
  top: "Convolution31"
  scale_param {
    bias_term: true
  }
}
layer {
  name: "Eltwise14"
  type: "Eltwise"
  bottom: "Eltwise13"
  bottom: "Convolution31"
  top: "Eltwise14"
  eltwise_param {
    operation: SUM
  }
}
layer {
  name: "PReLU29"
  type: "PReLU"
  bottom: "Eltwise14"
  top: "Eltwise14"
}
layer {
  name: "Convolution32"
  type: "Convolution"
  bottom: "Eltwise14"
  top: "Convolution32"
  param {
    lr_mult: 1
    decay_mult: 1
  }
  param {
    lr_mult: 2
    decay_mult: 0
  }
  convolution_param {
    num_output: 64
    pad: 1
    kernel_size: 3
    stride: 1
    weight_filler {
      type: "gaussian"
      std: 0.059
    }
    bias_filler {
      type: "constant"
      value: 0
    
I1006 20:10:34.021384  3817 layer_factory.hpp:77] Creating layer Data1
I1006 20:10:34.021459  3817 db_lmdb.cpp:35] Opened lmdb /home/x306/caffe/xn/PENLU/data/cifar10/cifar10_train_lmdb
I1006 20:10:34.021479  3817 net.cpp:84] Creating Layer Data1
I1006 20:10:34.021484  3817 net.cpp:380] Data1 -> Data1
I1006 20:10:34.021502  3817 net.cpp:380] Data1 -> Data2
I1006 20:10:34.021514  3817 data_transformer.cpp:25] Loading mean file from: /home/x306/caffe/xn/PENLU/data/cifar10/mean.binaryproto
I1006 20:10:34.022927  3817 data_layer.cpp:45] output data size: 100,3,28,28
I1006 20:10:34.025241  3817 net.cpp:122] Setting up Data1
I1006 20:10:34.025254  3817 net.cpp:129] Top shape: 100 3 28 28 (235200)
I1006 20:10:34.025259  3817 net.cpp:129] Top shape: 100 (100)
I1006 20:10:34.025261  3817 net.cpp:137] Memory required for data: 941200
I1006 20:10:34.025267  3817 layer_factory.hpp:77] Creating layer Convolution1
I1006 20:10:34.025283  3817 net.cpp:84] Creating Layer Convolution1
I1006 20:10:34.025287  3817 net.cpp:406] Convolution1 <- Data1
I1006 20:10:34.025296  3817 net.cpp:380] Convolution1 -> Convolution1
I1006 20:10:34.171078  3817 net.cpp:122] Setting up Convolution1
I1006 20:10:34.171105  3817 net.cpp:129] Top shape: 100 16 28 28 (1254400)
I1006 20:10:34.171108  3817 net.cpp:137] Memory required for data: 5958800
I1006 20:10:34.171123  3817 layer_factory.hpp:77] Creating layer BatchNorm1
I1006 20:10:34.171135  3817 net.cpp:84] Creating Layer BatchNorm1
I1006 20:10:34.171150  3817 net.cpp:406] BatchNorm1 <- Convolution1
I1006 20:10:34.171188  3817 net.cpp:367] BatchNorm1 -> Convolution1 (in-place)
I1006 20:10:34.171335  3817 net.cpp:122] Setting up BatchNorm1
I1006 20:10:34.171341  3817 net.cpp:129] Top shape: 100 16 28 28 (1254400)
I1006 20:10:34.171344  3817 net.cpp:137] Memory required for data: 10976400
I1006 20:10:34.171351  3817 layer_factory.hpp:77] Creating layer Scale1
I1006 20:10:34.171362  3817 net.cpp:84] Creating Layer Scale1
I1006 20:10:34.171378  3817 net.cpp:406] Scale1 <- Convolution1
I1006 20:10:34.171383  3817 net.cpp:367] Scale1 -> Convolution1 (in-place)
I1006 20:10:34.171427  3817 layer_factory.hpp:77] Creating layer Scale1
I1006 20:10:34.171521  3817 net.cpp:122] Setting up Scale1
I1006 20:10:34.171526  3817 net.cpp:129] Top shape: 100 16 28 28 (1254400)
I1006 20:10:34.171528  3817 net.cpp:137] Memory required for data: 15994000
I1006 20:10:34.171532  3817 layer_factory.hpp:77] Creating layer PReLU1
I1006 20:10:34.171537  3817 net.cpp:84] Creating Layer PReLU1
I1006 20:10:34.171540  3817 net.cpp:406] PReLU1 <- Convolution1
I1006 20:10:34.171542  3817 net.cpp:367] PReLU1 -> Convolution1 (in-place)
I1006 20:10:34.172113  3817 net.cpp:122] Setting up PReLU1
I1006 20:10:34.172122  3817 net.cpp:129] Top shape: 100 16 28 28 (1254400)
I1006 20:10:34.172125  3817 net.cpp:137] Memory required for data: 21011600
I1006 20:10:34.172128  3817 layer_factory.hpp:77] Creating layer Convolution1_PReLU1_0_split
I1006 20:10:34.172133  3817 net.cpp:84] Creating Layer Convolution1_PReLU1_0_split
I1006 20:10:34.172137  3817 net.cpp:406] Convolution1_PReLU1_0_split <- Convolution1
I1006 20:10:34.172139  3817 net.cpp:380] Convolution1_PReLU1_0_split -> Convolution1_PReLU1_0_split_0
I1006 20:10:34.172154  3817 net.cpp:380] Convolution1_PReLU1_0_split -> Convolution1_PReLU1_0_split_1
I1006 20:10:34.172178  3817 net.cpp:122] Setting up Convolution1_PReLU1_0_split
I1006 20:10:34.172183  3817 net.cpp:129] Top shape: 100 16 28 28 (1254400)
I1006 20:10:34.172185  3817 net.cpp:129] Top shape: 100 16 28 28 (1254400)
I1006 20:10:34.172188  3817 net.cpp:137] Memory required for data: 31046800
I1006 20:10:34.172199  3817 layer_factory.hpp:77] Creating layer Convolution2
I1006 20:10:34.172216  3817 net.cpp:84] Creating Layer Convolution2
I1006 20:10:34.172220  3817 net.cpp:406] Convolution2 <- Convolution1_PReLU1_0_split_0
I1006 20:10:34.172224  3817 net.cpp:380] Convolution2 -> Convolution2
I1006 20:10:34.173058  3817 net.cpp:122] Setting up Convolution2
I1006 20:10:34.173069  3817 net.cpp:129] Top shape: 100 16 28 28 (1254400)
I1006 20:10:34.173072  3817 net.cpp:137] Memory required for data: 36064400
I1006 20:10:34.173089  3817 layer_factory.hpp:77] Creating layer BatchNorm2
I1006 20:10:34.173095  3817 net.cpp:84] Creating Layer BatchNorm2
I1006 20:10:34.173099  3817 net.cpp:406] BatchNorm2 <- Convolution2
I1006 20:10:34.173104  3817 net.cpp:367] BatchNorm2 -> Convolution2 (in-place)
I1006 20:10:34.173233  3817 net.cpp:122] Setting up BatchNorm2
I1006 20:10:34.173238  3817 net.cpp:129] Top shape: 100 16 28 28 (1254400)
I1006 20:10:34.173240  3817 net.cpp:137] Memory required for data: 41082000
I1006 20:10:34.173255  3817 layer_factory.hpp:77] Creating layer Scale2
I1006 20:10:34.173262  3817 net.cpp:84] Creating Layer Scale2
I1006 20:10:34.173265  3817 net.cpp:406] Scale2 <- Convolution2
I1006 20:10:34.173269  3817 net.cpp:367] Scale2 -> Convolution2 (in-place)
I1006 20:10:34.173305  3817 layer_factory.hpp:77] Creating layer Scale2
I1006 20:10:34.173396  3817 net.cpp:122] Setting up Scale2
I1006 20:10:34.173403  3817 net.cpp:129] Top shape: 100 16 28 28 (1254400)
I1006 20:10:34.173404  3817 net.cpp:137] Memory required for data: 46099600
I1006 20:10:34.173418  3817 layer_factory.hpp:77] Creating layer PReLU2
I1006 20:10:34.173424  3817 net.cpp:84] Creating Layer PReLU2
I1006 20:10:34.173426  3817 net.cpp:406] PReLU2 <- Convolution2
I1006 20:10:34.173429  3817 net.cpp:367] PReLU2 -> Convolution2 (in-place)
I1006 20:10:34.173493  3817 net.cpp:122] Setting up PReLU2
I1006 20:10:34.173498  3817 net.cpp:129] Top shape: 100 16 28 28 (1254400)
I1006 20:10:34.173508  3817 net.cpp:137] Memory required for data: 51117200
I1006 20:10:34.173512  3817 layer_factory.hpp:77] Creating layer Convolution3
I1006 20:10:34.173521  3817 net.cpp:84] Creating Layer Convolution3
I1006 20:10:34.173523  3817 net.cpp:406] Convolution3 <- Convolution2
I1006 20:10:34.173527  3817 net.cpp:380] Convolution3 -> Convolution3
I1006 20:10:34.174367  3817 net.cpp:122] Setting up Convolution3
I1006 20:10:34.174377  3817 net.cpp:129] Top shape: 100 16 28 28 (1254400)
I1006 20:10:34.174381  3817 net.cpp:137] Memory required for data: 56134800
I1006 20:10:34.174388  3817 layer_factory.hpp:77] Creating layer BatchNorm3
I1006 20:10:34.174393  3817 net.cpp:84] Creating Layer BatchNorm3
I1006 20:10:34.174397  3817 net.cpp:406] BatchNorm3 <- Convolution3
I1006 20:10:34.174401  3817 net.cpp:367] BatchNorm3 -> Convolution3 (in-place)
I1006 20:10:34.174517  3817 net.cpp:122] Setting up BatchNorm3
I1006 20:10:34.174522  3817 net.cpp:129] Top shape: 100 16 28 28 (1254400)
I1006 20:10:34.174525  3817 net.cpp:137] Memory required for data: 61152400
I1006 20:10:34.174530  3817 layer_factory.hpp:77] Creating layer Scale3
I1006 20:10:34.174535  3817 net.cpp:84] Creating Layer Scale3
I1006 20:10:34.174536  3817 net.cpp:406] Scale3 <- Convolution3
I1006 20:10:34.174540  3817 net.cpp:367] Scale3 -> Convolution3 (in-place)
I1006 20:10:34.174563  3817 layer_factory.hpp:77] Creating layer Scale3
I1006 20:10:34.174631  3817 net.cpp:122] Setting up Scale3
I1006 20:10:34.174636  3817 net.cpp:129] Top shape: 100 16 28 28 (1254400)
I1006 20:10:34.174638  3817 net.cpp:137] Memory required for data: 66170000
I1006 20:10:34.174643  3817 layer_factory.hpp:77] Creating layer Eltwise1
I1006 20:10:34.174648  3817 net.cpp:84] Creating Layer Eltwise1
I1006 20:10:34.174649  3817 net.cpp:406] Eltwise1 <- Convolution1_PReLU1_0_split_1
I1006 20:10:34.174652  3817 net.cpp:406] Eltwise1 <- Convolution3
I1006 20:10:34.174655  3817 net.cpp:380] Eltwise1 -> Eltwise1
I1006 20:10:34.174672  3817 net.cpp:122] Setting up Eltwise1
I1006 20:10:34.174676  3817 net.cpp:129] Top shape: 100 16 28 28 (1254400)
I1006 20:10:34.174679  3817 net.cpp:137] Memory required for data: 71187600
I1006 20:10:34.174681  3817 layer_factory.hpp:77] Creating layer PReLU3
I1006 20:10:34.174685  3817 net.cpp:84] Creating Layer PReLU3
I1006 20:10:34.174687  3817 net.cpp:406] PReLU3 <- Eltwise1
I1006 20:10:34.174690  3817 net.cpp:367] PReLU3 -> Eltwise1 (in-place)
I1006 20:10:34.174743  3817 net.cpp:122] Setting up PReLU3
I1006 20:10:34.174748  3817 net.cpp:129] Top shape: 100 16 28 28 (1254400)
I1006 20:10:34.174751  3817 net.cpp:137] Memory required for data: 76205200
I1006 20:10:34.174753  3817 layer_factory.hpp:77] Creating layer Eltwise1_PReLU3_0_split
I1006 20:10:34.174757  3817 net.cpp:84] Creating Layer Eltwise1_PReLU3_0_split
I1006 20:10:34.174762  3817 net.cpp:406] Eltwise1_PReLU3_0_split <- Eltwise1
I1006 20:10:34.174764  3817 net.cpp:380] Eltwise1_PReLU3_0_split -> Eltwise1_PReLU3_0_split_0
I1006 20:10:34.174768  3817 net.cpp:380] Eltwise1_PReLU3_0_split -> Eltwise1_PReLU3_0_split_1
I1006 20:10:34.174788  3817 net.cpp:122] Setting up Eltwise1_PReLU3_0_split
I1006 20:10:34.174793  3817 net.cpp:129] Top shape: 100 16 28 28 (1254400)
I1006 20:10:34.174796  3817 net.cpp:129] Top shape: 100 16 28 28 (1254400)
I1006 20:10:34.174799  3817 net.cpp:137] Memory required for data: 86240400
I1006 20:10:34.174801  3817 layer_factory.hpp:77] Creating layer Convolution4
I1006 20:10:34.174808  3817 net.cpp:84] Creating Layer Convolution4
I1006 20:10:34.174811  3817 net.cpp:406] Convolution4 <- Eltwise1_PReLU3_0_split_0
I1006 20:10:34.174815  3817 net.cpp:380] Convolution4 -> Convolution4
I1006 20:10:34.175626  3817 net.cpp:122] Setting up Convolution4
I1006 20:10:34.175637  3817 net.cpp:129] Top shape: 100 16 28 28 (1254400)
I1006 20:10:34.175639  3817 net.cpp:137] Memory required for data: 91258000
I1006 20:10:34.175644  3817 layer_factory.hpp:77] Creating layer BatchNorm4
I1006 20:10:34.175649  3817 net.cpp:84] Creating Layer BatchNorm4
I1006 20:10:34.175659  3817 net.cpp:406] BatchNorm4 <- Convolution4
I1006 20:10:34.175664  3817 net.cpp:367] BatchNorm4 -> Convolution4 (in-place)
I1006 20:10:34.175777  3817 net.cpp:122] Setting up BatchNorm4
I1006 20:10:34.175782  3817 net.cpp:129] Top shape: 100 16 28 28 (1254400)
I1006 20:10:34.175786  3817 net.cpp:137] Memory required for data: 96275600
I1006 20:10:34.175791  3817 layer_factory.hpp:77] Creating layer Scale4
I1006 20:10:34.175794  3817 net.cpp:84] Creating Layer Scale4
I1006 20:10:34.175798  3817 net.cpp:406] Scale4 <- Convolution4
I1006 20:10:34.175801  3817 net.cpp:367] Scale4 -> Convolution4 (in-place)
I1006 20:10:34.175825  3817 layer_factory.hpp:77] Creating layer Scale4
I1006 20:10:34.175892  3817 net.cpp:122] Setting up Scale4
I1006 20:10:34.175897  3817 net.cpp:129] Top shape: 100 16 28 28 (1254400)
I1006 20:10:34.175899  3817 net.cpp:137] Memory required for data: 101293200
I1006 20:10:34.175904  3817 layer_factory.hpp:77] Creating layer PReLU4
I1006 20:10:34.175907  3817 net.cpp:84] Creating Layer PReLU4
I1006 20:10:34.175910  3817 net.cpp:406] PReLU4 <- Convolution4
I1006 20:10:34.175914  3817 net.cpp:367] PReLU4 -> Convolution4 (in-place)
I1006 20:10:34.175964  3817 net.cpp:122] Setting up PReLU4
I1006 20:10:34.175969  3817 net.cpp:129] Top shape: 100 16 28 28 (1254400)
I1006 20:10:34.175971  3817 net.cpp:137] Memory required for data: 106310800
I1006 20:10:34.175974  3817 layer_factory.hpp:77] Creating layer Convolution5
I1006 20:10:34.175981  3817 net.cpp:84] Creating Layer Convolution5
I1006 20:10:34.175983  3817 net.cpp:406] Convolution5 <- Convolution4
I1006 20:10:34.175987  3817 net.cpp:380] Convolution5 -> Convolution5
I1006 20:10:34.176795  3817 net.cpp:122] Setting up Convolution5
I1006 20:10:34.176805  3817 net.cpp:129] Top shape: 100 16 28 28 (1254400)
I1006 20:10:34.176807  3817 net.cpp:137] Memory required for data: 111328400
I1006 20:10:34.176815  3817 layer_factory.hpp:77] Creating layer BatchNorm5
I1006 20:10:34.176820  3817 net.cpp:84] Creating Layer BatchNorm5
I1006 20:10:34.176823  3817 net.cpp:406] BatchNorm5 <- Convolution5
I1006 20:10:34.176827  3817 net.cpp:367] BatchNorm5 -> Convolution5 (in-place)
I1006 20:10:34.176939  3817 net.cpp:122] Setting up BatchNorm5
I1006 20:10:34.176944  3817 net.cpp:129] Top shape: 100 16 28 28 (1254400)
I1006 20:10:34.176947  3817 net.cpp:137] Memory required for data: 116346000
I1006 20:10:34.176951  3817 layer_factory.hpp:77] Creating layer Scale5
I1006 20:10:34.176956  3817 net.cpp:84] Creating Layer Scale5
I1006 20:10:34.176959  3817 net.cpp:406] Scale5 <- Convolution5
I1006 20:10:34.176964  3817 net.cpp:367] Scale5 -> Convolution5 (in-place)
I1006 20:10:34.176986  3817 layer_factory.hpp:77] Creating layer Scale5
I1006 20:10:34.177053  3817 net.cpp:122] Setting up Scale5
I1006 20:10:34.177058  3817 net.cpp:129] Top shape: 100 16 28 28 (1254400)
I1006 20:10:34.177060  3817 net.cpp:137] Memory required for data: 121363600
I1006 20:10:34.177064  3817 layer_factory.hpp:77] Creating layer Eltwise2
I1006 20:10:34.177069  3817 net.cpp:84] Creating Layer Eltwise2
I1006 20:10:34.177073  3817 net.cpp:406] Eltwise2 <- Eltwise1_PReLU3_0_split_1
I1006 20:10:34.177075  3817 net.cpp:406] Eltwise2 <- Convolution5
I1006 20:10:34.177078  3817 net.cpp:380] Eltwise2 -> Eltwise2
I1006 20:10:34.177093  3817 net.cpp:122] Setting up Eltwise2
I1006 20:10:34.177096  3817 net.cpp:129] Top shape: 100 16 28 28 (1254400)
I1006 20:10:34.177098  3817 net.cpp:137] Memory required for data: 126381200
I1006 20:10:34.177101  3817 layer_factory.hpp:77] Creating layer PReLU5
I1006 20:10:34.177104  3817 net.cpp:84] Creating Layer PReLU5
I1006 20:10:34.177106  3817 net.cpp:406] PReLU5 <- Eltwise2
I1006 20:10:34.177109  3817 net.cpp:367] PReLU5 -> Eltwise2 (in-place)
I1006 20:10:34.177162  3817 net.cpp:122] Setting up PReLU5
I1006 20:10:34.177167  3817 net.cpp:129] Top shape: 100 16 28 28 (1254400)
I1006 20:10:34.177170  3817 net.cpp:137] Memory required for data: 131398800
I1006 20:10:34.177172  3817 layer_factory.hpp:77] Creating layer Eltwise2_PReLU5_0_split
I1006 20:10:34.177182  3817 net.cpp:84] Creating Layer Eltwise2_PReLU5_0_split
I1006 20:10:34.177186  3817 net.cpp:406] Eltwise2_PReLU5_0_split <- Eltwise2
I1006 20:10:34.177188  3817 net.cpp:380] Eltwise2_PReLU5_0_split -> Eltwise2_PReLU5_0_split_0
I1006 20:10:34.177192  3817 net.cpp:380] Eltwise2_PReLU5_0_split -> Eltwise2_PReLU5_0_split_1
I1006 20:10:34.177214  3817 net.cpp:122] Setting up Eltwise2_PReLU5_0_split
I1006 20:10:34.177219  3817 net.cpp:129] Top shape: 100 16 28 28 (1254400)
I1006 20:10:34.177222  3817 net.cpp:129] Top shape: 100 16 28 28 (1254400)
I1006 20:10:34.177225  3817 net.cpp:137] Memory required for data: 141434000
I1006 20:10:34.177227  3817 layer_factory.hpp:77] Creating layer Convolution6
I1006 20:10:34.177233  3817 net.cpp:84] Creating Layer Convolution6
I1006 20:10:34.177237  3817 net.cpp:406] Convolution6 <- Eltwise2_PReLU5_0_split_0
I1006 20:10:34.177240  3817 net.cpp:380] Convolution6 -> Convolution6
I1006 20:10:34.178045  3817 net.cpp:122] Setting up Convolution6
I1006 20:10:34.178055  3817 net.cpp:129] Top shape: 100 16 28 28 (1254400)
I1006 20:10:34.178058  3817 net.cpp:137] Memory required for data: 146451600
I1006 20:10:34.178063  3817 layer_factory.hpp:77] Creating layer BatchNorm6
I1006 20:10:34.178068  3817 net.cpp:84] Creating Layer BatchNorm6
I1006 20:10:34.178071  3817 net.cpp:406] BatchNorm6 <- Convolution6
I1006 20:10:34.178076  3817 net.cpp:367] BatchNorm6 -> Convolution6 (in-place)
I1006 20:10:34.178190  3817 net.cpp:122] Setting up BatchNorm6
I1006 20:10:34.178195  3817 net.cpp:129] Top shape: 100 16 28 28 (1254400)
I1006 20:10:34.178197  3817 net.cpp:137] Memory required for data: 151469200
I1006 20:10:34.178202  3817 layer_factory.hpp:77] Creating layer Scale6
I1006 20:10:34.178206  3817 net.cpp:84] Creating Layer Scale6
I1006 20:10:34.178210  3817 net.cpp:406] Scale6 <- Convolution6
I1006 20:10:34.178213  3817 net.cpp:367] Scale6 -> Convolution6 (in-place)
I1006 20:10:34.178236  3817 layer_factory.hpp:77] Creating layer Scale6
I1006 20:10:34.178305  3817 net.cpp:122] Setting up Scale6
I1006 20:10:34.178310  3817 net.cpp:129] Top shape: 100 16 28 28 (1254400)
I1006 20:10:34.178313  3817 net.cpp:137] Memory required for data: 156486800
I1006 20:10:34.178316  3817 layer_factory.hpp:77] Creating layer PReLU6
I1006 20:10:34.178320  3817 net.cpp:84] Creating Layer PReLU6
I1006 20:10:34.178323  3817 net.cpp:406] PReLU6 <- Convolution6
I1006 20:10:34.178325  3817 net.cpp:367] PReLU6 -> Convolution6 (in-place)
I1006 20:10:34.178380  3817 net.cpp:122] Setting up PReLU6
I1006 20:10:34.178385  3817 net.cpp:129] Top shape: 100 16 28 28 (1254400)
I1006 20:10:34.178386  3817 net.cpp:137] Memory required for data: 161504400
I1006 20:10:34.178390  3817 layer_factory.hpp:77] Creating layer Convolution7
I1006 20:10:34.178395  3817 net.cpp:84] Creating Layer Convolution7
I1006 20:10:34.178398  3817 net.cpp:406] Convolution7 <- Convolution6
I1006 20:10:34.178401  3817 net.cpp:380] Convolution7 -> Convolution7
I1006 20:10:34.178887  3817 net.cpp:122] Setting up Convolution7
I1006 20:10:34.178896  3817 net.cpp:129] Top shape: 100 16 28 28 (1254400)
I1006 20:10:34.178900  3817 net.cpp:137] Memory required for data: 166522000
I1006 20:10:34.178903  3817 layer_factory.hpp:77] Creating layer BatchNorm7
I1006 20:10:34.178908  3817 net.cpp:84] Creating Layer BatchNorm7
I1006 20:10:34.178911  3817 net.cpp:406] BatchNorm7 <- Convolution7
I1006 20:10:34.178915  3817 net.cpp:367] BatchNorm7 -> Convolution7 (in-place)
I1006 20:10:34.179029  3817 net.cpp:122] Setting up BatchNorm7
I1006 20:10:34.179034  3817 net.cpp:129] Top shape: 100 16 28 28 (1254400)
I1006 20:10:34.179036  3817 net.cpp:137] Memory required for data: 171539600
I1006 20:10:34.179040  3817 layer_factory.hpp:77] Creating layer Scale7
I1006 20:10:34.179047  3817 net.cpp:84] Creating Layer Scale7
I1006 20:10:34.179050  3817 net.cpp:406] Scale7 <- Convolution7
I1006 20:10:34.179054  3817 net.cpp:367] Scale7 -> Convolution7 (in-place)
I1006 20:10:34.179076  3817 layer_factory.hpp:77] Creating layer Scale7
I1006 20:10:34.179142  3817 net.cpp:122] Setting up Scale7
I1006 20:10:34.179155  3817 net.cpp:129] Top shape: 100 16 28 28 (1254400)
I1006 20:10:34.179158  3817 net.cpp:137] Memory required for data: 176557200
I1006 20:10:34.179162  3817 layer_factory.hpp:77] Creating layer Eltwise3
I1006 20:10:34.179169  3817 net.cpp:84] Creating Layer Eltwise3
I1006 20:10:34.179172  3817 net.cpp:406] Eltwise3 <- Eltwise2_PReLU5_0_split_1
I1006 20:10:34.179175  3817 net.cpp:406] Eltwise3 <- Convolution7
I1006 20:10:34.179178  3817 net.cpp:380] Eltwise3 -> Eltwise3
I1006 20:10:34.179193  3817 net.cpp:122] Setting up Eltwise3
I1006 20:10:34.179198  3817 net.cpp:129] Top shape: 100 16 28 28 (1254400)
I1006 20:10:34.179200  3817 net.cpp:137] Memory required for data: 181574800
I1006 20:10:34.179203  3817 layer_factory.hpp:77] Creating layer PReLU7
I1006 20:10:34.179206  3817 net.cpp:84] Creating Layer PReLU7
I1006 20:10:34.179208  3817 net.cpp:406] PReLU7 <- Eltwise3
I1006 20:10:34.179211  3817 net.cpp:367] PReLU7 -> Eltwise3 (in-place)
I1006 20:10:34.179263  3817 net.cpp:122] Setting up PReLU7
I1006 20:10:34.179268  3817 net.cpp:129] Top shape: 100 16 28 28 (1254400)
I1006 20:10:34.179271  3817 net.cpp:137] Memory required for data: 186592400
I1006 20:10:34.179275  3817 layer_factory.hpp:77] Creating layer Eltwise3_PReLU7_0_split
I1006 20:10:34.179278  3817 net.cpp:84] Creating Layer Eltwise3_PReLU7_0_split
I1006 20:10:34.179281  3817 net.cpp:406] Eltwise3_PReLU7_0_split <- Eltwise3
I1006 20:10:34.179285  3817 net.cpp:380] Eltwise3_PReLU7_0_split -> Eltwise3_PReLU7_0_split_0
I1006 20:10:34.179288  3817 net.cpp:380] Eltwise3_PReLU7_0_split -> Eltwise3_PReLU7_0_split_1
I1006 20:10:34.179309  3817 net.cpp:122] Setting up Eltwise3_PReLU7_0_split
I1006 20:10:34.179313  3817 net.cpp:129] Top shape: 100 16 28 28 (1254400)
I1006 20:10:34.179316  3817 net.cpp:129] Top shape: 100 16 28 28 (1254400)
I1006 20:10:34.179318  3817 net.cpp:137] Memory required for data: 196627600
I1006 20:10:34.179321  3817 layer_factory.hpp:77] Creating layer Convolution8
I1006 20:10:34.179327  3817 net.cpp:84] Creating Layer Convolution8
I1006 20:10:34.179329  3817 net.cpp:406] Convolution8 <- Eltwise3_PReLU7_0_split_0
I1006 20:10:34.179333  3817 net.cpp:380] Convolution8 -> Convolution8
I1006 20:10:34.180150  3817 net.cpp:122] Setting up Convolution8
I1006 20:10:34.180160  3817 net.cpp:129] Top shape: 100 16 28 28 (1254400)
I1006 20:10:34.180163  3817 net.cpp:137] Memory required for data: 201645200
I1006 20:10:34.180167  3817 layer_factory.hpp:77] Creating layer BatchNorm8
I1006 20:10:34.180173  3817 net.cpp:84] Creating Layer BatchNorm8
I1006 20:10:34.180176  3817 net.cpp:406] BatchNorm8 <- Convolution8
I1006 20:10:34.180181  3817 net.cpp:367] BatchNorm8 -> Convolution8 (in-place)
I1006 20:10:34.180294  3817 net.cpp:122] Setting up BatchNorm8
I1006 20:10:34.180299  3817 net.cpp:129] Top shape: 100 16 28 28 (1254400)
I1006 20:10:34.180301  3817 net.cpp:137] Memory required for data: 206662800
I1006 20:10:34.180306  3817 layer_factory.hpp:77] Creating layer Scale8
I1006 20:10:34.180310  3817 net.cpp:84] Creating Layer Scale8
I1006 20:10:34.180313  3817 net.cpp:406] Scale8 <- Convolution8
I1006 20:10:34.180316  3817 net.cpp:367] Scale8 -> Convolution8 (in-place)
I1006 20:10:34.180339  3817 layer_factory.hpp:77] Creating layer Scale8
I1006 20:10:34.180408  3817 net.cpp:122] Setting up Scale8
I1006 20:10:34.180413  3817 net.cpp:129] Top shape: 100 16 28 28 (1254400)
I1006 20:10:34.180414  3817 net.cpp:137] Memory required for data: 211680400
I1006 20:10:34.180418  3817 layer_factory.hpp:77] Creating layer PReLU8
I1006 20:10:34.180423  3817 net.cpp:84] Creating Layer PReLU8
I1006 20:10:34.180424  3817 net.cpp:406] PReLU8 <- Convolution8
I1006 20:10:34.180428  3817 net.cpp:367] PReLU8 -> Convolution8 (in-place)
I1006 20:10:34.180481  3817 net.cpp:122] Setting up PReLU8
I1006 20:10:34.180486  3817 net.cpp:129] Top shape: 100 16 28 28 (1254400)
I1006 20:10:34.180488  3817 net.cpp:137] Memory required for data: 216698000
I1006 20:10:34.180491  3817 layer_factory.hpp:77] Creating layer Convolution9
I1006 20:10:34.180498  3817 net.cpp:84] Creating Layer Convolution9
I1006 20:10:34.180508  3817 net.cpp:406] Convolution9 <- Convolution8
I1006 20:10:34.180513  3817 net.cpp:380] Convolution9 -> Convolution9
I1006 20:10:34.181336  3817 net.cpp:122] Setting up Convolution9
I1006 20:10:34.181346  3817 net.cpp:129] Top shape: 100 16 28 28 (1254400)
I1006 20:10:34.181350  3817 net.cpp:137] Memory required for data: 221715600
I1006 20:10:34.181370  3817 layer_factory.hpp:77] Creating layer BatchNorm9
I1006 20:10:34.181375  3817 net.cpp:84] Creating Layer BatchNorm9
I1006 20:10:34.181378  3817 net.cpp:406] BatchNorm9 <- Convolution9
I1006 20:10:34.181381  3817 net.cpp:367] BatchNorm9 -> Convolution9 (in-place)
I1006 20:10:34.181517  3817 net.cpp:122] Setting up BatchNorm9
I1006 20:10:34.181522  3817 net.cpp:129] Top shape: 100 16 28 28 (1254400)
I1006 20:10:34.181524  3817 net.cpp:137] Memory required for data: 226733200
I1006 20:10:34.181529  3817 layer_factory.hpp:77] Creating layer Scale9
I1006 20:10:34.181535  3817 net.cpp:84] Creating Layer Scale9
I1006 20:10:34.181537  3817 net.cpp:406] Scale9 <- Convolution9
I1006 20:10:34.181541  3817 net.cpp:367] Scale9 -> Convolution9 (in-place)
I1006 20:10:34.181565  3817 layer_factory.hpp:77] Creating layer Scale9
I1006 20:10:34.181635  3817 net.cpp:122] Setting up Scale9
I1006 20:10:34.181640  3817 net.cpp:129] Top shape: 100 16 28 28 (1254400)
I1006 20:10:34.181643  3817 net.cpp:137] Memory required for data: 231750800
I1006 20:10:34.181646  3817 layer_factory.hpp:77] Creating layer Eltwise4
I1006 20:10:34.181651  3817 net.cpp:84] Creating Layer Eltwise4
I1006 20:10:34.181654  3817 net.cpp:406] Eltwise4 <- Eltwise3_PReLU7_0_split_1
I1006 20:10:34.181658  3817 net.cpp:406] Eltwise4 <- Convolution9
I1006 20:10:34.181661  3817 net.cpp:380] Eltwise4 -> Eltwise4
I1006 20:10:34.181676  3817 net.cpp:122] Setting up Eltwise4
I1006 20:10:34.181680  3817 net.cpp:129] Top shape: 100 16 28 28 (1254400)
I1006 20:10:34.181682  3817 net.cpp:137] Memory required for data: 236768400
I1006 20:10:34.181684  3817 layer_factory.hpp:77] Creating layer PReLU9
I1006 20:10:34.181689  3817 net.cpp:84] Creating Layer PReLU9
I1006 20:10:34.181690  3817 net.cpp:406] PReLU9 <- Eltwise4
I1006 20:10:34.181694  3817 net.cpp:367] PReLU9 -> Eltwise4 (in-place)
I1006 20:10:34.181749  3817 net.cpp:122] Setting up PReLU9
I1006 20:10:34.181754  3817 net.cpp:129] Top shape: 100 16 28 28 (1254400)
I1006 20:10:34.181756  3817 net.cpp:137] Memory required for data: 241786000
I1006 20:10:34.181759  3817 layer_factory.hpp:77] Creating layer Eltwise4_PReLU9_0_split
I1006 20:10:34.181763  3817 net.cpp:84] Creating Layer Eltwise4_PReLU9_0_split
I1006 20:10:34.181766  3817 net.cpp:406] Eltwise4_PReLU9_0_split <- Eltwise4
I1006 20:10:34.181769  3817 net.cpp:380] Eltwise4_PReLU9_0_split -> Eltwise4_PReLU9_0_split_0
I1006 20:10:34.181773  3817 net.cpp:380] Eltwise4_PReLU9_0_split -> Eltwise4_PReLU9_0_split_1
I1006 20:10:34.181794  3817 net.cpp:122] Setting up Eltwise4_PReLU9_0_split
I1006 20:10:34.181798  3817 net.cpp:129] Top shape: 100 16 28 28 (1254400)
I1006 20:10:34.181802  3817 net.cpp:129] Top shape: 100 16 28 28 (1254400)
I1006 20:10:34.181803  3817 net.cpp:137] Memory required for data: 251821200
I1006 20:10:34.181805  3817 layer_factory.hpp:77] Creating layer Convolution10
I1006 20:10:34.181812  3817 net.cpp:84] Creating Layer Convolution10
I1006 20:10:34.181814  3817 net.cpp:406] Convolution10 <- Eltwise4_PReLU9_0_split_0
I1006 20:10:34.181819  3817 net.cpp:380] Convolution10 -> Convolution10
I1006 20:10:34.182801  3817 net.cpp:122] Setting up Convolution10
I1006 20:10:34.182813  3817 net.cpp:129] Top shape: 100 16 28 28 (1254400)
I1006 20:10:34.182819  3817 net.cpp:137] Memory required for data: 256838800
I1006 20:10:34.182827  3817 layer_factory.hpp:77] Creating layer BatchNorm10
I1006 20:10:34.182853  3817 net.cpp:84] Creating Layer BatchNorm10
I1006 20:10:34.182859  3817 net.cpp:406] BatchNorm10 <- Convolution10
I1006 20:10:34.182867  3817 net.cpp:367] BatchNorm10 -> Convolution10 (in-place)
I1006 20:10:34.183010  3817 net.cpp:122] Setting up BatchNorm10
I1006 20:10:34.183024  3817 net.cpp:129] Top shape: 100 16 28 28 (1254400)
I1006 20:10:34.183029  3817 net.cpp:137] Memory required for data: 261856400
I1006 20:10:34.183038  3817 layer_factory.hpp:77] Creating layer Scale10
I1006 20:10:34.183045  3817 net.cpp:84] Creating Layer Scale10
I1006 20:10:34.183051  3817 net.cpp:406] Scale10 <- Convolution10
I1006 20:10:34.183058  3817 net.cpp:367] Scale10 -> Convolution10 (in-place)
I1006 20:10:34.183090  3817 layer_factory.hpp:77] Creating layer Scale10
I1006 20:10:34.183183  3817 net.cpp:122] Setting up Scale10
I1006 20:10:34.183192  3817 net.cpp:129] Top shape: 100 16 28 28 (1254400)
I1006 20:10:34.183195  3817 net.cpp:137] Memory required for data: 266874000
I1006 20:10:34.183212  3817 layer_factory.hpp:77] Creating layer PReLU10
I1006 20:10:34.183219  3817 net.cpp:84] Creating Layer PReLU10
I1006 20:10:34.183224  3817 net.cpp:406] PReLU10 <- Convolution10
I1006 20:10:34.183231  3817 net.cpp:367] PReLU10 -> Convolution10 (in-place)
I1006 20:10:34.183297  3817 net.cpp:122] Setting up PReLU10
I1006 20:10:34.183305  3817 net.cpp:129] Top shape: 100 16 28 28 (1254400)
I1006 20:10:34.183310  3817 net.cpp:137] Memory required for data: 271891600
I1006 20:10:34.183316  3817 layer_factory.hpp:77] Creating layer Convolution11
I1006 20:10:34.183327  3817 net.cpp:84] Creating Layer Convolution11
I1006 20:10:34.183331  3817 net.cpp:406] Convolution11 <- Convolution10
I1006 20:10:34.183338  3817 net.cpp:380] Convolution11 -> Convolution11
I1006 20:10:34.184190  3817 net.cpp:122] Setting up Convolution11
I1006 20:10:34.184201  3817 net.cpp:129] Top shape: 100 16 28 28 (1254400)
I1006 20:10:34.184206  3817 net.cpp:137] Memory required for data: 276909200
I1006 20:10:34.184224  3817 layer_factory.hpp:77] Creating layer BatchNorm11
I1006 20:10:34.184233  3817 net.cpp:84] Creating Layer BatchNorm11
I1006 20:10:34.184239  3817 net.cpp:406] BatchNorm11 <- Convolution11
I1006 20:10:34.184247  3817 net.cpp:367] BatchNorm11 -> Convolution11 (in-place)
I1006 20:10:34.184389  3817 net.cpp:122] Setting up BatchNorm11
I1006 20:10:34.184396  3817 net.cpp:129] Top shape: 100 16 28 28 (1254400)
I1006 20:10:34.184401  3817 net.cpp:137] Memory required for data: 281926800
I1006 20:10:34.184411  3817 layer_factory.hpp:77] Creating layer Scale11
I1006 20:10:34.184417  3817 net.cpp:84] Creating Layer Scale11
I1006 20:10:34.184423  3817 net.cpp:406] Scale11 <- Convolution11
I1006 20:10:34.184429  3817 net.cpp:367] Scale11 -> Convolution11 (in-place)
I1006 20:10:34.184460  3817 layer_factory.hpp:77] Creating layer Scale11
I1006 20:10:34.184536  3817 net.cpp:122] Setting up Scale11
I1006 20:10:34.184543  3817 net.cpp:129] Top shape: 100 16 28 28 (1254400)
I1006 20:10:34.184547  3817 net.cpp:137] Memory required for data: 286944400
I1006 20:10:34.184556  3817 layer_factory.hpp:77] Creating layer Eltwise5
I1006 20:10:34.184563  3817 net.cpp:84] Creating Layer Eltwise5
I1006 20:10:34.184568  3817 net.cpp:406] Eltwise5 <- Eltwise4_PReLU9_0_split_1
I1006 20:10:34.184574  3817 net.cpp:406] Eltwise5 <- Convolution11
I1006 20:10:34.184581  3817 net.cpp:380] Eltwise5 -> Eltwise5
I1006 20:10:34.184602  3817 net.cpp:122] Setting up Eltwise5
I1006 20:10:34.184607  3817 net.cpp:129] Top shape: 100 16 28 28 (1254400)
I1006 20:10:34.184613  3817 net.cpp:137] Memory required for data: 291962000
I1006 20:10:34.184618  3817 layer_factory.hpp:77] Creating layer PReLU11
I1006 20:10:34.184625  3817 net.cpp:84] Creating Layer PReLU11
I1006 20:10:34.184630  3817 net.cpp:406] PReLU11 <- Eltwise5
I1006 20:10:34.184636  3817 net.cpp:367] PReLU11 -> Eltwise5 (in-place)
I1006 20:10:34.184702  3817 net.cpp:122] Setting up PReLU11
I1006 20:10:34.184710  3817 net.cpp:129] Top shape: 100 16 28 28 (1254400)
I1006 20:10:34.184713  3817 net.cpp:137] Memory required for data: 296979600
I1006 20:10:34.184720  3817 layer_factory.hpp:77] Creating layer Eltwise5_PReLU11_0_split
I1006 20:10:34.184727  3817 net.cpp:84] Creating Layer Eltwise5_PReLU11_0_split
I1006 20:10:34.184732  3817 net.cpp:406] Eltwise5_PReLU11_0_split <- Eltwise5
I1006 20:10:34.184746  3817 net.cpp:380] Eltwise5_PReLU11_0_split -> Eltwise5_PReLU11_0_split_0
I1006 20:10:34.184756  3817 net.cpp:380] Eltwise5_PReLU11_0_split -> Eltwise5_PReLU11_0_split_1
I1006 20:10:34.184782  3817 net.cpp:122] Setting up Eltwise5_PReLU11_0_split
I1006 20:10:34.184789  3817 net.cpp:129] Top shape: 100 16 28 28 (1254400)
I1006 20:10:34.184797  3817 net.cpp:129] Top shape: 100 16 28 28 (1254400)
I1006 20:10:34.184801  3817 net.cpp:137] Memory required for data: 307014800
I1006 20:10:34.184806  3817 layer_factory.hpp:77] Creating layer Convolution12
I1006 20:10:34.184816  3817 net.cpp:84] Creating Layer Convolution12
I1006 20:10:34.184821  3817 net.cpp:406] Convolution12 <- Eltwise5_PReLU11_0_split_0
I1006 20:10:34.184828  3817 net.cpp:380] Convolution12 -> Convolution12
I1006 20:10:34.185937  3817 net.cpp:122] Setting up Convolution12
I1006 20:10:34.185948  3817 net.cpp:129] Top shape: 100 32 14 14 (627200)
I1006 20:10:34.185953  3817 net.cpp:137] Memory required for data: 309523600
I1006 20:10:34.185961  3817 layer_factory.hpp:77] Creating layer BatchNorm12
I1006 20:10:34.185971  3817 net.cpp:84] Creating Layer BatchNorm12
I1006 20:10:34.185976  3817 net.cpp:406] BatchNorm12 <- Convolution12
I1006 20:10:34.185983  3817 net.cpp:367] BatchNorm12 -> Convolution12 (in-place)
I1006 20:10:34.186115  3817 net.cpp:122] Setting up BatchNorm12
I1006 20:10:34.186122  3817 net.cpp:129] Top shape: 100 32 14 14 (627200)
I1006 20:10:34.186126  3817 net.cpp:137] Memory required for data: 312032400
I1006 20:10:34.186136  3817 layer_factory.hpp:77] Creating layer Scale12
I1006 20:10:34.186143  3817 net.cpp:84] Creating Layer Scale12
I1006 20:10:34.186149  3817 net.cpp:406] Scale12 <- Convolution12
I1006 20:10:34.186156  3817 net.cpp:367] Scale12 -> Convolution12 (in-place)
I1006 20:10:34.186187  3817 layer_factory.hpp:77] Creating layer Scale12
I1006 20:10:34.186264  3817 net.cpp:122] Setting up Scale12
I1006 20:10:34.186270  3817 net.cpp:129] Top shape: 100 32 14 14 (627200)
I1006 20:10:34.186275  3817 net.cpp:137] Memory required for data: 314541200
I1006 20:10:34.186283  3817 layer_factory.hpp:77] Creating layer Convolution13
I1006 20:10:34.186293  3817 net.cpp:84] Creating Layer Convolution13
I1006 20:10:34.186298  3817 net.cpp:406] Convolution13 <- Eltwise5_PReLU11_0_split_1
I1006 20:10:34.186305  3817 net.cpp:380] Convolution13 -> Convolution13
I1006 20:10:34.187530  3817 net.cpp:122] Setting up Convolution13
I1006 20:10:34.187541  3817 net.cpp:129] Top shape: 100 32 14 14 (627200)
I1006 20:10:34.187546  3817 net.cpp:137] Memory required for data: 317050000
I1006 20:10:34.187554  3817 layer_factory.hpp:77] Creating layer BatchNorm13
I1006 20:10:34.187562  3817 net.cpp:84] Creating Layer BatchNorm13
I1006 20:10:34.187569  3817 net.cpp:406] BatchNorm13 <- Convolution13
I1006 20:10:34.187577  3817 net.cpp:367] BatchNorm13 -> Convolution13 (in-place)
I1006 20:10:34.187705  3817 net.cpp:122] Setting up BatchNorm13
I1006 20:10:34.187713  3817 net.cpp:129] Top shape: 100 32 14 14 (627200)
I1006 20:10:34.187717  3817 net.cpp:137] Memory required for data: 319558800
I1006 20:10:34.187727  3817 layer_factory.hpp:77] Creating layer Scale13
I1006 20:10:34.187734  3817 net.cpp:84] Creating Layer Scale13
I1006 20:10:34.187739  3817 net.cpp:406] Scale13 <- Convolution13
I1006 20:10:34.187747  3817 net.cpp:367] Scale13 -> Convolution13 (in-place)
I1006 20:10:34.187778  3817 layer_factory.hpp:77] Creating layer Scale13
I1006 20:10:34.187855  3817 net.cpp:122] Setting up Scale13
I1006 20:10:34.187862  3817 net.cpp:129] Top shape: 100 32 14 14 (627200)
I1006 20:10:34.187866  3817 net.cpp:137] Memory required for data: 322067600
I1006 20:10:34.187875  3817 layer_factory.hpp:77] Creating layer PReLU12
I1006 20:10:34.187881  3817 net.cpp:84] Creating Layer PReLU12
I1006 20:10:34.187886  3817 net.cpp:406] PReLU12 <- Convolution13
I1006 20:10:34.187893  3817 net.cpp:367] PReLU12 -> Convolution13 (in-place)
I1006 20:10:34.187955  3817 net.cpp:122] Setting up PReLU12
I1006 20:10:34.187963  3817 net.cpp:129] Top shape: 100 32 14 14 (627200)
I1006 20:10:34.187975  3817 net.cpp:137] Memory required for data: 324576400
I1006 20:10:34.187983  3817 layer_factory.hpp:77] Creating layer Convolution14
I1006 20:10:34.187995  3817 net.cpp:84] Creating Layer Convolution14
I1006 20:10:34.187999  3817 net.cpp:406] Convolution14 <- Convolution13
I1006 20:10:34.188006  3817 net.cpp:380] Convolution14 -> Convolution14
I1006 20:10:34.189015  3817 net.cpp:122] Setting up Convolution14
I1006 20:10:34.189028  3817 net.cpp:129] Top shape: 100 32 14 14 (627200)
I1006 20:10:34.189033  3817 net.cpp:137] Memory required for data: 327085200
I1006 20:10:34.189040  3817 layer_factory.hpp:77] Creating layer BatchNorm14
I1006 20:10:34.189054  3817 net.cpp:84] Creating Layer BatchNorm14
I1006 20:10:34.189059  3817 net.cpp:406] BatchNorm14 <- Convolution14
I1006 20:10:34.189064  3817 net.cpp:367] BatchNorm14 -> Convolution14 (in-place)
I1006 20:10:34.189191  3817 net.cpp:122] Setting up BatchNorm14
I1006 20:10:34.189199  3817 net.cpp:129] Top shape: 100 32 14 14 (627200)
I1006 20:10:34.189203  3817 net.cpp:137] Memory required for data: 329594000
I1006 20:10:34.189213  3817 layer_factory.hpp:77] Creating layer Scale14
I1006 20:10:34.189220  3817 net.cpp:84] Creating Layer Scale14
I1006 20:10:34.189226  3817 net.cpp:406] Scale14 <- Convolution14
I1006 20:10:34.189231  3817 net.cpp:367] Scale14 -> Convolution14 (in-place)
I1006 20:10:34.189262  3817 layer_factory.hpp:77] Creating layer Scale14
I1006 20:10:34.189338  3817 net.cpp:122] Setting up Scale14
I1006 20:10:34.189345  3817 net.cpp:129] Top shape: 100 32 14 14 (627200)
I1006 20:10:34.189350  3817 net.cpp:137] Memory required for data: 332102800
I1006 20:10:34.189358  3817 layer_factory.hpp:77] Creating layer Eltwise6
I1006 20:10:34.189366  3817 net.cpp:84] Creating Layer Eltwise6
I1006 20:10:34.189371  3817 net.cpp:406] Eltwise6 <- Convolution12
I1006 20:10:34.189378  3817 net.cpp:406] Eltwise6 <- Convolution14
I1006 20:10:34.189383  3817 net.cpp:380] Eltwise6 -> Eltwise6
I1006 20:10:34.189399  3817 net.cpp:122] Setting up Eltwise6
I1006 20:10:34.189404  3817 net.cpp:129] Top shape: 100 32 14 14 (627200)
I1006 20:10:34.189405  3817 net.cpp:137] Memory required for data: 334611600
I1006 20:10:34.189407  3817 layer_factory.hpp:77] Creating layer PReLU13
I1006 20:10:34.189411  3817 net.cpp:84] Creating Layer PReLU13
I1006 20:10:34.189414  3817 net.cpp:406] PReLU13 <- Eltwise6
I1006 20:10:34.189416  3817 net.cpp:367] PReLU13 -> Eltwise6 (in-place)
I1006 20:10:34.189471  3817 net.cpp:122] Setting up PReLU13
I1006 20:10:34.189476  3817 net.cpp:129] Top shape: 100 32 14 14 (627200)
I1006 20:10:34.189477  3817 net.cpp:137] Memory required for data: 337120400
I1006 20:10:34.189481  3817 layer_factory.hpp:77] Creating layer Eltwise6_PReLU13_0_split
I1006 20:10:34.189484  3817 net.cpp:84] Creating Layer Eltwise6_PReLU13_0_split
I1006 20:10:34.189486  3817 net.cpp:406] Eltwise6_PReLU13_0_split <- Eltwise6
I1006 20:10:34.189489  3817 net.cpp:380] Eltwise6_PReLU13_0_split -> Eltwise6_PReLU13_0_split_0
I1006 20:10:34.189493  3817 net.cpp:380] Eltwise6_PReLU13_0_split -> Eltwise6_PReLU13_0_split_1
I1006 20:10:34.189514  3817 net.cpp:122] Setting up Eltwise6_PReLU13_0_split
I1006 20:10:34.189517  3817 net.cpp:129] Top shape: 100 32 14 14 (627200)
I1006 20:10:34.189520  3817 net.cpp:129] Top shape: 100 32 14 14 (627200)
I1006 20:10:34.189522  3817 net.cpp:137] Memory required for data: 342138000
I1006 20:10:34.189524  3817 layer_factory.hpp:77] Creating layer Convolution15
I1006 20:10:34.189530  3817 net.cpp:84] Creating Layer Convolution15
I1006 20:10:34.189533  3817 net.cpp:406] Convolution15 <- Eltwise6_PReLU13_0_split_0
I1006 20:10:34.189538  3817 net.cpp:380] Convolution15 -> Convolution15
I1006 20:10:34.190522  3817 net.cpp:122] Setting up Convolution15
I1006 20:10:34.190531  3817 net.cpp:129] Top shape: 100 32 14 14 (627200)
I1006 20:10:34.190533  3817 net.cpp:137] Memory required for data: 344646800
I1006 20:10:34.190538  3817 layer_factory.hpp:77] Creating layer BatchNorm15
I1006 20:10:34.190543  3817 net.cpp:84] Creating Layer BatchNorm15
I1006 20:10:34.190552  3817 net.cpp:406] BatchNorm15 <- Convolution15
I1006 20:10:34.190557  3817 net.cpp:367] BatchNorm15 -> Convolution15 (in-place)
I1006 20:10:34.190678  3817 net.cpp:122] Setting up BatchNorm15
I1006 20:10:34.190683  3817 net.cpp:129] Top shape: 100 32 14 14 (627200)
I1006 20:10:34.190685  3817 net.cpp:137] Memory required for data: 347155600
I1006 20:10:34.190690  3817 layer_factory.hpp:77] Creating layer Scale15
I1006 20:10:34.190693  3817 net.cpp:84] Creating Layer Scale15
I1006 20:10:34.190696  3817 net.cpp:406] Scale15 <- Convolution15
I1006 20:10:34.190699  3817 net.cpp:367] Scale15 -> Convolution15 (in-place)
I1006 20:10:34.190723  3817 layer_factory.hpp:77] Creating layer Scale15
I1006 20:10:34.190793  3817 net.cpp:122] Setting up Scale15
I1006 20:10:34.190796  3817 net.cpp:129] Top shape: 100 32 14 14 (627200)
I1006 20:10:34.190798  3817 net.cpp:137] Memory required for data: 349664400
I1006 20:10:34.190803  3817 layer_factory.hpp:77] Creating layer PReLU14
I1006 20:10:34.190805  3817 net.cpp:84] Creating Layer PReLU14
I1006 20:10:34.190809  3817 net.cpp:406] PReLU14 <- Convolution15
I1006 20:10:34.190811  3817 net.cpp:367] PReLU14 -> Convolution15 (in-place)
I1006 20:10:34.190865  3817 net.cpp:122] Setting up PReLU14
I1006 20:10:34.190868  3817 net.cpp:129] Top shape: 100 32 14 14 (627200)
I1006 20:10:34.190871  3817 net.cpp:137] Memory required for data: 352173200
I1006 20:10:34.190874  3817 layer_factory.hpp:77] Creating layer Convolution16
I1006 20:10:34.190881  3817 net.cpp:84] Creating Layer Convolution16
I1006 20:10:34.190882  3817 net.cpp:406] Convolution16 <- Convolution15
I1006 20:10:34.190886  3817 net.cpp:380] Convolution16 -> Convolution16
I1006 20:10:34.191898  3817 net.cpp:122] Setting up Convolution16
I1006 20:10:34.191907  3817 net.cpp:129] Top shape: 100 32 14 14 (627200)
I1006 20:10:34.191910  3817 net.cpp:137] Memory required for data: 354682000
I1006 20:10:34.191915  3817 layer_factory.hpp:77] Creating layer BatchNorm16
I1006 20:10:34.191920  3817 net.cpp:84] Creating Layer BatchNorm16
I1006 20:10:34.191923  3817 net.cpp:406] BatchNorm16 <- Convolution16
I1006 20:10:34.191926  3817 net.cpp:367] BatchNorm16 -> Convolution16 (in-place)
I1006 20:10:34.192049  3817 net.cpp:122] Setting up BatchNorm16
I1006 20:10:34.192054  3817 net.cpp:129] Top shape: 100 32 14 14 (627200)
I1006 20:10:34.192055  3817 net.cpp:137] Memory required for data: 357190800
I1006 20:10:34.192060  3817 layer_factory.hpp:77] Creating layer Scale16
I1006 20:10:34.192065  3817 net.cpp:84] Creating Layer Scale16
I1006 20:10:34.192066  3817 net.cpp:406] Scale16 <- Convolution16
I1006 20:10:34.192070  3817 net.cpp:367] Scale16 -> Convolution16 (in-place)
I1006 20:10:34.192093  3817 layer_factory.hpp:77] Creating layer Scale16
I1006 20:10:34.192162  3817 net.cpp:122] Setting up Scale16
I1006 20:10:34.192167  3817 net.cpp:129] Top shape: 100 32 14 14 (627200)
I1006 20:10:34.192168  3817 net.cpp:137] Memory required for data: 359699600
I1006 20:10:34.192173  3817 layer_factory.hpp:77] Creating layer Eltwise7
I1006 20:10:34.192175  3817 net.cpp:84] Creating Layer Eltwise7
I1006 20:10:34.192178  3817 net.cpp:406] Eltwise7 <- Eltwise6_PReLU13_0_split_1
I1006 20:10:34.192181  3817 net.cpp:406] Eltwise7 <- Convolution16
I1006 20:10:34.192184  3817 net.cpp:380] Eltwise7 -> Eltwise7
I1006 20:10:34.192199  3817 net.cpp:122] Setting up Eltwise7
I1006 20:10:34.192203  3817 net.cpp:129] Top shape: 100 32 14 14 (627200)
I1006 20:10:34.192204  3817 net.cpp:137] Memory required for data: 362208400
I1006 20:10:34.192206  3817 layer_factory.hpp:77] Creating layer PReLU15
I1006 20:10:34.192209  3817 net.cpp:84] Creating Layer PReLU15
I1006 20:10:34.192212  3817 net.cpp:406] PReLU15 <- Eltwise7
I1006 20:10:34.192215  3817 net.cpp:367] PReLU15 -> Eltwise7 (in-place)
I1006 20:10:34.192271  3817 net.cpp:122] Setting up PReLU15
I1006 20:10:34.192276  3817 net.cpp:129] Top shape: 100 32 14 14 (627200)
I1006 20:10:34.192277  3817 net.cpp:137] Memory required for data: 364717200
I1006 20:10:34.192281  3817 layer_factory.hpp:77] Creating layer Eltwise7_PReLU15_0_split
I1006 20:10:34.192291  3817 net.cpp:84] Creating Layer Eltwise7_PReLU15_0_split
I1006 20:10:34.192293  3817 net.cpp:406] Eltwise7_PReLU15_0_split <- Eltwise7
I1006 20:10:34.192297  3817 net.cpp:380] Eltwise7_PReLU15_0_split -> Eltwise7_PReLU15_0_split_0
I1006 20:10:34.192301  3817 net.cpp:380] Eltwise7_PReLU15_0_split -> Eltwise7_PReLU15_0_split_1
I1006 20:10:34.192323  3817 net.cpp:122] Setting up Eltwise7_PReLU15_0_split
I1006 20:10:34.192327  3817 net.cpp:129] Top shape: 100 32 14 14 (627200)
I1006 20:10:34.192329  3817 net.cpp:129] Top shape: 100 32 14 14 (627200)
I1006 20:10:34.192332  3817 net.cpp:137] Memory required for data: 369734800
I1006 20:10:34.192333  3817 layer_factory.hpp:77] Creating layer Convolution17
I1006 20:10:34.192339  3817 net.cpp:84] Creating Layer Convolution17
I1006 20:10:34.192342  3817 net.cpp:406] Convolution17 <- Eltwise7_PReLU15_0_split_0
I1006 20:10:34.192345  3817 net.cpp:380] Convolution17 -> Convolution17
I1006 20:10:34.193012  3817 net.cpp:122] Setting up Convolution17
I1006 20:10:34.193019  3817 net.cpp:129] Top shape: 100 32 14 14 (627200)
I1006 20:10:34.193022  3817 net.cpp:137] Memory required for data: 372243600
I1006 20:10:34.193034  3817 layer_factory.hpp:77] Creating layer BatchNorm17
I1006 20:10:34.193038  3817 net.cpp:84] Creating Layer BatchNorm17
I1006 20:10:34.193042  3817 net.cpp:406] BatchNorm17 <- Convolution17
I1006 20:10:34.193045  3817 net.cpp:367] BatchNorm17 -> Convolution17 (in-place)
I1006 20:10:34.193166  3817 net.cpp:122] Setting up BatchNorm17
I1006 20:10:34.193169  3817 net.cpp:129] Top shape: 100 32 14 14 (627200)
I1006 20:10:34.193171  3817 net.cpp:137] Memory required for data: 374752400
I1006 20:10:34.193176  3817 layer_factory.hpp:77] Creating layer Scale17
I1006 20:10:34.193181  3817 net.cpp:84] Creating Layer Scale17
I1006 20:10:34.193183  3817 net.cpp:406] Scale17 <- Convolution17
I1006 20:10:34.193186  3817 net.cpp:367] Scale17 -> Convolution17 (in-place)
I1006 20:10:34.193212  3817 layer_factory.hpp:77] Creating layer Scale17
I1006 20:10:34.193281  3817 net.cpp:122] Setting up Scale17
I1006 20:10:34.193285  3817 net.cpp:129] Top shape: 100 32 14 14 (627200)
I1006 20:10:34.193287  3817 net.cpp:137] Memory required for data: 377261200
I1006 20:10:34.193291  3817 layer_factory.hpp:77] Creating layer PReLU16
I1006 20:10:34.193295  3817 net.cpp:84] Creating Layer PReLU16
I1006 20:10:34.193296  3817 net.cpp:406] PReLU16 <- Convolution17
I1006 20:10:34.193300  3817 net.cpp:367] PReLU16 -> Convolution17 (in-place)
I1006 20:10:34.193353  3817 net.cpp:122] Setting up PReLU16
I1006 20:10:34.193357  3817 net.cpp:129] Top shape: 100 32 14 14 (627200)
I1006 20:10:34.193359  3817 net.cpp:137] Memory required for data: 379770000
I1006 20:10:34.193362  3817 layer_factory.hpp:77] Creating layer Convolution18
I1006 20:10:34.193368  3817 net.cpp:84] Creating Layer Convolution18
I1006 20:10:34.193372  3817 net.cpp:406] Convolution18 <- Convolution17
I1006 20:10:34.193374  3817 net.cpp:380] Convolution18 -> Convolution18
I1006 20:10:34.194356  3817 net.cpp:122] Setting up Convolution18
I1006 20:10:34.194365  3817 net.cpp:129] Top shape: 100 32 14 14 (627200)
I1006 20:10:34.194367  3817 net.cpp:137] Memory required for data: 382278800
I1006 20:10:34.194372  3817 layer_factory.hpp:77] Creating layer BatchNorm18
I1006 20:10:34.194376  3817 net.cpp:84] Creating Layer BatchNorm18
I1006 20:10:34.194380  3817 net.cpp:406] BatchNorm18 <- Convolution18
I1006 20:10:34.194382  3817 net.cpp:367] BatchNorm18 -> Convolution18 (in-place)
I1006 20:10:34.194501  3817 net.cpp:122] Setting up BatchNorm18
I1006 20:10:34.194505  3817 net.cpp:129] Top shape: 100 32 14 14 (627200)
I1006 20:10:34.194507  3817 net.cpp:137] Memory required for data: 384787600
I1006 20:10:34.194512  3817 layer_factory.hpp:77] Creating layer Scale18
I1006 20:10:34.194516  3817 net.cpp:84] Creating Layer Scale18
I1006 20:10:34.194519  3817 net.cpp:406] Scale18 <- Convolution18
I1006 20:10:34.194521  3817 net.cpp:367] Scale18 -> Convolution18 (in-place)
I1006 20:10:34.194545  3817 layer_factory.hpp:77] Creating layer Scale18
I1006 20:10:34.194622  3817 net.cpp:122] Setting up Scale18
I1006 20:10:34.194628  3817 net.cpp:129] Top shape: 100 32 14 14 (627200)
I1006 20:10:34.194629  3817 net.cpp:137] Memory required for data: 387296400
I1006 20:10:34.194633  3817 layer_factory.hpp:77] Creating layer Eltwise8
I1006 20:10:34.194636  3817 net.cpp:84] Creating Layer Eltwise8
I1006 20:10:34.194639  3817 net.cpp:406] Eltwise8 <- Eltwise7_PReLU15_0_split_1
I1006 20:10:34.194643  3817 net.cpp:406] Eltwise8 <- Convolution18
I1006 20:10:34.194645  3817 net.cpp:380] Eltwise8 -> Eltwise8
I1006 20:10:34.194659  3817 net.cpp:122] Setting up Eltwise8
I1006 20:10:34.194663  3817 net.cpp:129] Top shape: 100 32 14 14 (627200)
I1006 20:10:34.194664  3817 net.cpp:137] Memory required for data: 389805200
I1006 20:10:34.194666  3817 layer_factory.hpp:77] Creating layer PReLU17
I1006 20:10:34.194670  3817 net.cpp:84] Creating Layer PReLU17
I1006 20:10:34.194672  3817 net.cpp:406] PReLU17 <- Eltwise8
I1006 20:10:34.194684  3817 net.cpp:367] PReLU17 -> Eltwise8 (in-place)
I1006 20:10:34.194738  3817 net.cpp:122] Setting up PReLU17
I1006 20:10:34.194742  3817 net.cpp:129] Top shape: 100 32 14 14 (627200)
I1006 20:10:34.194744  3817 net.cpp:137] Memory required for data: 392314000
I1006 20:10:34.194747  3817 layer_factory.hpp:77] Creating layer Eltwise8_PReLU17_0_split
I1006 20:10:34.194751  3817 net.cpp:84] Creating Layer Eltwise8_PReLU17_0_split
I1006 20:10:34.194753  3817 net.cpp:406] Eltwise8_PReLU17_0_split <- Eltwise8
I1006 20:10:34.194756  3817 net.cpp:380] Eltwise8_PReLU17_0_split -> Eltwise8_PReLU17_0_split_0
I1006 20:10:34.194761  3817 net.cpp:380] Eltwise8_PReLU17_0_split -> Eltwise8_PReLU17_0_split_1
I1006 20:10:34.194782  3817 net.cpp:122] Setting up Eltwise8_PReLU17_0_split
I1006 20:10:34.194785  3817 net.cpp:129] Top shape: 100 32 14 14 (627200)
I1006 20:10:34.194787  3817 net.cpp:129] Top shape: 100 32 14 14 (627200)
I1006 20:10:34.194789  3817 net.cpp:137] Memory required for data: 397331600
I1006 20:10:34.194792  3817 layer_factory.hpp:77] Creating layer Convolution19
I1006 20:10:34.194797  3817 net.cpp:84] Creating Layer Convolution19
I1006 20:10:34.194799  3817 net.cpp:406] Convolution19 <- Eltwise8_PReLU17_0_split_0
I1006 20:10:34.194803  3817 net.cpp:380] Convolution19 -> Convolution19
I1006 20:10:34.196141  3817 net.cpp:122] Setting up Convolution19
I1006 20:10:34.196148  3817 net.cpp:129] Top shape: 100 32 14 14 (627200)
I1006 20:10:34.196151  3817 net.cpp:137] Memory required for data: 399840400
I1006 20:10:34.196156  3817 layer_factory.hpp:77] Creating layer BatchNorm19
I1006 20:10:34.196161  3817 net.cpp:84] Creating Layer BatchNorm19
I1006 20:10:34.196163  3817 net.cpp:406] BatchNorm19 <- Convolution19
I1006 20:10:34.196167  3817 net.cpp:367] BatchNorm19 -> Convolution19 (in-place)
I1006 20:10:34.196290  3817 net.cpp:122] Setting up BatchNorm19
I1006 20:10:34.196295  3817 net.cpp:129] Top shape: 100 32 14 14 (627200)
I1006 20:10:34.196297  3817 net.cpp:137] Memory required for data: 402349200
I1006 20:10:34.196301  3817 layer_factory.hpp:77] Creating layer Scale19
I1006 20:10:34.196305  3817 net.cpp:84] Creating Layer Scale19
I1006 20:10:34.196307  3817 net.cpp:406] Scale19 <- Convolution19
I1006 20:10:34.196310  3817 net.cpp:367] Scale19 -> Convolution19 (in-place)
I1006 20:10:34.196334  3817 layer_factory.hpp:77] Creating layer Scale19
I1006 20:10:34.196403  3817 net.cpp:122] Setting up Scale19
I1006 20:10:34.196406  3817 net.cpp:129] Top shape: 100 32 14 14 (627200)
I1006 20:10:34.196408  3817 net.cpp:137] Memory required for data: 404858000
I1006 20:10:34.196413  3817 layer_factory.hpp:77] Creating layer PReLU18
I1006 20:10:34.196415  3817 net.cpp:84] Creating Layer PReLU18
I1006 20:10:34.196418  3817 net.cpp:406] PReLU18 <- Convolution19
I1006 20:10:34.196420  3817 net.cpp:367] PReLU18 -> Convolution19 (in-place)
I1006 20:10:34.196475  3817 net.cpp:122] Setting up PReLU18
I1006 20:10:34.196478  3817 net.cpp:129] Top shape: 100 32 14 14 (627200)
I1006 20:10:34.196480  3817 net.cpp:137] Memory required for data: 407366800
I1006 20:10:34.196490  3817 layer_factory.hpp:77] Creating layer Convolution20
I1006 20:10:34.196496  3817 net.cpp:84] Creating Layer Convolution20
I1006 20:10:34.196498  3817 net.cpp:406] Convolution20 <- Convolution19
I1006 20:10:34.196502  3817 net.cpp:380] Convolution20 -> Convolution20
I1006 20:10:34.197572  3817 net.cpp:122] Setting up Convolution20
I1006 20:10:34.197582  3817 net.cpp:129] Top shape: 100 32 14 14 (627200)
I1006 20:10:34.197584  3817 net.cpp:137] Memory required for data: 409875600
I1006 20:10:34.197588  3817 layer_factory.hpp:77] Creating layer BatchNorm20
I1006 20:10:34.197593  3817 net.cpp:84] Creating Layer BatchNorm20
I1006 20:10:34.197597  3817 net.cpp:406] BatchNorm20 <- Convolution20
I1006 20:10:34.197600  3817 net.cpp:367] BatchNorm20 -> Convolution20 (in-place)
I1006 20:10:34.197723  3817 net.cpp:122] Setting up BatchNorm20
I1006 20:10:34.197727  3817 net.cpp:129] Top shape: 100 32 14 14 (627200)
I1006 20:10:34.197729  3817 net.cpp:137] Memory required for data: 412384400
I1006 20:10:34.197734  3817 layer_factory.hpp:77] Creating layer Scale20
I1006 20:10:34.197738  3817 net.cpp:84] Creating Layer Scale20
I1006 20:10:34.197741  3817 net.cpp:406] Scale20 <- Convolution20
I1006 20:10:34.197743  3817 net.cpp:367] Scale20 -> Convolution20 (in-place)
I1006 20:10:34.197768  3817 layer_factory.hpp:77] Creating layer Scale20
I1006 20:10:34.197839  3817 net.cpp:122] Setting up Scale20
I1006 20:10:34.197842  3817 net.cpp:129] Top shape: 100 32 14 14 (627200)
I1006 20:10:34.197844  3817 net.cpp:137] Memory required for data: 414893200
I1006 20:10:34.197849  3817 layer_factory.hpp:77] Creating layer Eltwise9
I1006 20:10:34.197852  3817 net.cpp:84] Creating Layer Eltwise9
I1006 20:10:34.197855  3817 net.cpp:406] Eltwise9 <- Eltwise8_PReLU17_0_split_1
I1006 20:10:34.197857  3817 net.cpp:406] Eltwise9 <- Convolution20
I1006 20:10:34.197861  3817 net.cpp:380] Eltwise9 -> Eltwise9
I1006 20:10:34.197875  3817 net.cpp:122] Setting up Eltwise9
I1006 20:10:34.197878  3817 net.cpp:129] Top shape: 100 32 14 14 (627200)
I1006 20:10:34.197880  3817 net.cpp:137] Memory required for data: 417402000
I1006 20:10:34.197882  3817 layer_factory.hpp:77] Creating layer PReLU19
I1006 20:10:34.197886  3817 net.cpp:84] Creating Layer PReLU19
I1006 20:10:34.197888  3817 net.cpp:406] PReLU19 <- Eltwise9
I1006 20:10:34.197891  3817 net.cpp:367] PReLU19 -> Eltwise9 (in-place)
I1006 20:10:34.197947  3817 net.cpp:122] Setting up PReLU19
I1006 20:10:34.197952  3817 net.cpp:129] Top shape: 100 32 14 14 (627200)
I1006 20:10:34.197953  3817 net.cpp:137] Memory required for data: 419910800
I1006 20:10:34.197957  3817 layer_factory.hpp:77] Creating layer Eltwise9_PReLU19_0_split
I1006 20:10:34.197960  3817 net.cpp:84] Creating Layer Eltwise9_PReLU19_0_split
I1006 20:10:34.197962  3817 net.cpp:406] Eltwise9_PReLU19_0_split <- Eltwise9
I1006 20:10:34.197965  3817 net.cpp:380] Eltwise9_PReLU19_0_split -> Eltwise9_PReLU19_0_split_0
I1006 20:10:34.197979  3817 net.cpp:380] Eltwise9_PReLU19_0_split -> Eltwise9_PReLU19_0_split_1
I1006 20:10:34.198009  3817 net.cpp:122] Setting up Eltwise9_PReLU19_0_split
I1006 20:10:34.198012  3817 net.cpp:129] Top shape: 100 32 14 14 (627200)
I1006 20:10:34.198015  3817 net.cpp:129] Top shape: 100 32 14 14 (627200)
I1006 20:10:34.198017  3817 net.cpp:137] Memory required for data: 424928400
I1006 20:10:34.198019  3817 layer_factory.hpp:77] Creating layer Convolution21
I1006 20:10:34.198025  3817 net.cpp:84] Creating Layer Convolution21
I1006 20:10:34.198027  3817 net.cpp:406] Convolution21 <- Eltwise9_PReLU19_0_split_0
I1006 20:10:34.198031  3817 net.cpp:380] Convolution21 -> Convolution21
I1006 20:10:34.199483  3817 net.cpp:122] Setting up Convolution21
I1006 20:10:34.199492  3817 net.cpp:129] Top shape: 100 32 14 14 (627200)
I1006 20:10:34.199496  3817 net.cpp:137] Memory required for data: 427437200
I1006 20:10:34.199499  3817 layer_factory.hpp:77] Creating layer BatchNorm21
I1006 20:10:34.199506  3817 net.cpp:84] Creating Layer BatchNorm21
I1006 20:10:34.199508  3817 net.cpp:406] BatchNorm21 <- Convolution21
I1006 20:10:34.199519  3817 net.cpp:367] BatchNorm21 -> Convolution21 (in-place)
I1006 20:10:34.199654  3817 net.cpp:122] Setting up BatchNorm21
I1006 20:10:34.199658  3817 net.cpp:129] Top shape: 100 32 14 14 (627200)
I1006 20:10:34.199661  3817 net.cpp:137] Memory required for data: 429946000
I1006 20:10:34.199666  3817 layer_factory.hpp:77] Creating layer Scale21
I1006 20:10:34.199671  3817 net.cpp:84] Creating Layer Scale21
I1006 20:10:34.199673  3817 net.cpp:406] Scale21 <- Convolution21
I1006 20:10:34.199676  3817 net.cpp:367] Scale21 -> Convolution21 (in-place)
I1006 20:10:34.199702  3817 layer_factory.hpp:77] Creating layer Scale21
I1006 20:10:34.199776  3817 net.cpp:122] Setting up Scale21
I1006 20:10:34.199780  3817 net.cpp:129] Top shape: 100 32 14 14 (627200)
I1006 20:10:34.199784  3817 net.cpp:137] Memory required for data: 432454800
I1006 20:10:34.199786  3817 layer_factory.hpp:77] Creating layer PReLU20
I1006 20:10:34.199790  3817 net.cpp:84] Creating Layer PReLU20
I1006 20:10:34.199793  3817 net.cpp:406] PReLU20 <- Convolution21
I1006 20:10:34.199796  3817 net.cpp:367] PReLU20 -> Convolution21 (in-place)
I1006 20:10:34.199853  3817 net.cpp:122] Setting up PReLU20
I1006 20:10:34.199857  3817 net.cpp:129] Top shape: 100 32 14 14 (627200)
I1006 20:10:34.199859  3817 net.cpp:137] Memory required for data: 434963600
I1006 20:10:34.199862  3817 layer_factory.hpp:77] Creating layer Convolution22
I1006 20:10:34.199868  3817 net.cpp:84] Creating Layer Convolution22
I1006 20:10:34.199872  3817 net.cpp:406] Convolution22 <- Convolution21
I1006 20:10:34.199875  3817 net.cpp:380] Convolution22 -> Convolution22
I1006 20:10:34.201001  3817 net.cpp:122] Setting up Convolution22
I1006 20:10:34.201010  3817 net.cpp:129] Top shape: 100 32 14 14 (627200)
I1006 20:10:34.201014  3817 net.cpp:137] Memory required for data: 437472400
I1006 20:10:34.201017  3817 layer_factory.hpp:77] Creating layer BatchNorm22
I1006 20:10:34.201023  3817 net.cpp:84] Creating Layer BatchNorm22
I1006 20:10:34.201026  3817 net.cpp:406] BatchNorm22 <- Convolution22
I1006 20:10:34.201030  3817 net.cpp:367] BatchNorm22 -> Convolution22 (in-place)
I1006 20:10:34.201166  3817 net.cpp:122] Setting up BatchNorm22
I1006 20:10:34.201170  3817 net.cpp:129] Top shape: 100 32 14 14 (627200)
I1006 20:10:34.201174  3817 net.cpp:137] Memory required for data: 439981200
I1006 20:10:34.201177  3817 layer_factory.hpp:77] Creating layer Scale22
I1006 20:10:34.201182  3817 net.cpp:84] Creating Layer Scale22
I1006 20:10:34.201185  3817 net.cpp:406] Scale22 <- Convolution22
I1006 20:10:34.201189  3817 net.cpp:367] Scale22 -> Convolution22 (in-place)
I1006 20:10:34.201215  3817 layer_factory.hpp:77] Creating layer Scale22
I1006 20:10:34.201292  3817 net.cpp:122] Setting up Scale22
I1006 20:10:34.201297  3817 net.cpp:129] Top shape: 100 32 14 14 (627200)
I1006 20:10:34.201298  3817 net.cpp:137] Memory required for data: 442490000
I1006 20:10:34.201303  3817 layer_factory.hpp:77] Creating layer Eltwise10
I1006 20:10:34.201308  3817 net.cpp:84] Creating Layer Eltwise10
I1006 20:10:34.201310  3817 net.cpp:406] Eltwise10 <- Eltwise9_PReLU19_0_split_1
I1006 20:10:34.201313  3817 net.cpp:406] Eltwise10 <- Convolution22
I1006 20:10:34.201316  3817 net.cpp:380] Eltwise10 -> Eltwise10
I1006 20:10:34.201333  3817 net.cpp:122] Setting up Eltwise10
I1006 20:10:34.201336  3817 net.cpp:129] Top shape: 100 32 14 14 (627200)
I1006 20:10:34.201339  3817 net.cpp:137] Memory required for data: 444998800
I1006 20:10:34.201340  3817 layer_factory.hpp:77] Creating layer PReLU21
I1006 20:10:34.201344  3817 net.cpp:84] Creating Layer PReLU21
I1006 20:10:34.201345  3817 net.cpp:406] PReLU21 <- Eltwise10
I1006 20:10:34.201349  3817 net.cpp:367] PReLU21 -> Eltwise10 (in-place)
I1006 20:10:34.201408  3817 net.cpp:122] Setting up PReLU21
I1006 20:10:34.201412  3817 net.cpp:129] Top shape: 100 32 14 14 (627200)
I1006 20:10:34.201414  3817 net.cpp:137] Memory required for data: 447507600
I1006 20:10:34.201417  3817 layer_factory.hpp:77] Creating layer Eltwise10_PReLU21_0_split
I1006 20:10:34.201427  3817 net.cpp:84] Creating Layer Eltwise10_PReLU21_0_split
I1006 20:10:34.201431  3817 net.cpp:406] Eltwise10_PReLU21_0_split <- Eltwise10
I1006 20:10:34.201433  3817 net.cpp:380] Eltwise10_PReLU21_0_split -> Eltwise10_PReLU21_0_split_0
I1006 20:10:34.201438  3817 net.cpp:380] Eltwise10_PReLU21_0_split -> Eltwise10_PReLU21_0_split_1
I1006 20:10:34.201463  3817 net.cpp:122] Setting up Eltwise10_PReLU21_0_split
I1006 20:10:34.201467  3817 net.cpp:129] Top shape: 100 32 14 14 (627200)
I1006 20:10:34.201470  3817 net.cpp:129] Top shape: 100 32 14 14 (627200)
I1006 20:10:34.201472  3817 net.cpp:137] Memory required for data: 452525200
I1006 20:10:34.201474  3817 layer_factory.hpp:77] Creating layer Convolution23
I1006 20:10:34.201481  3817 net.cpp:84] Creating Layer Convolution23
I1006 20:10:34.201484  3817 net.cpp:406] Convolution23 <- Eltwise10_PReLU21_0_split_0
I1006 20:10:34.201488  3817 net.cpp:380] Convolution23 -> Convolution23
I1006 20:10:34.202399  3817 net.cpp:122] Setting up Convolution23
I1006 20:10:34.202407  3817 net.cpp:129] Top shape: 100 64 7 7 (313600)
I1006 20:10:34.202409  3817 net.cpp:137] Memory required for data: 453779600
I1006 20:10:34.202414  3817 layer_factory.hpp:77] Creating layer BatchNorm23
I1006 20:10:34.202419  3817 net.cpp:84] Creating Layer BatchNorm23
I1006 20:10:34.202422  3817 net.cpp:406] BatchNorm23 <- Convolution23
I1006 20:10:34.202427  3817 net.cpp:367] BatchNorm23 -> Convolution23 (in-place)
I1006 20:10:34.202561  3817 net.cpp:122] Setting up BatchNorm23
I1006 20:10:34.202565  3817 net.cpp:129] Top shape: 100 64 7 7 (313600)
I1006 20:10:34.202569  3817 net.cpp:137] Memory required for data: 455034000
I1006 20:10:34.202574  3817 layer_factory.hpp:77] Creating layer Scale23
I1006 20:10:34.202579  3817 net.cpp:84] Creating Layer Scale23
I1006 20:10:34.202580  3817 net.cpp:406] Scale23 <- Convolution23
I1006 20:10:34.202584  3817 net.cpp:367] Scale23 -> Convolution23 (in-place)
I1006 20:10:34.202610  3817 layer_factory.hpp:77] Creating layer Scale23
I1006 20:10:34.202687  3817 net.cpp:122] Setting up Scale23
I1006 20:10:34.202692  3817 net.cpp:129] Top shape: 100 64 7 7 (313600)
I1006 20:10:34.202694  3817 net.cpp:137] Memory required for data: 456288400
I1006 20:10:34.202698  3817 layer_factory.hpp:77] Creating layer Convolution24
I1006 20:10:34.202704  3817 net.cpp:84] Creating Layer Convolution24
I1006 20:10:34.202708  3817 net.cpp:406] Convolution24 <- Eltwise10_PReLU21_0_split_1
I1006 20:10:34.202711  3817 net.cpp:380] Convolution24 -> Convolution24
I1006 20:10:34.204524  3817 net.cpp:122] Setting up Convolution24
I1006 20:10:34.204533  3817 net.cpp:129] Top shape: 100 64 7 7 (313600)
I1006 20:10:34.204536  3817 net.cpp:137] Memory required for data: 457542800
I1006 20:10:34.204540  3817 layer_factory.hpp:77] Creating layer BatchNorm24
I1006 20:10:34.204546  3817 net.cpp:84] Creating Layer BatchNorm24
I1006 20:10:34.204550  3817 net.cpp:406] BatchNorm24 <- Convolution24
I1006 20:10:34.204555  3817 net.cpp:367] BatchNorm24 -> Convolution24 (in-place)
I1006 20:10:34.204689  3817 net.cpp:122] Setting up BatchNorm24
I1006 20:10:34.204694  3817 net.cpp:129] Top shape: 100 64 7 7 (313600)
I1006 20:10:34.204696  3817 net.cpp:137] Memory required for data: 458797200
I1006 20:10:34.204701  3817 layer_factory.hpp:77] Creating layer Scale24
I1006 20:10:34.204705  3817 net.cpp:84] Creating Layer Scale24
I1006 20:10:34.204708  3817 net.cpp:406] Scale24 <- Convolution24
I1006 20:10:34.204711  3817 net.cpp:367] Scale24 -> Convolution24 (in-place)
I1006 20:10:34.204738  3817 layer_factory.hpp:77] Creating layer Scale24
I1006 20:10:34.204818  3817 net.cpp:122] Setting up Scale24
I1006 20:10:34.204823  3817 net.cpp:129] Top shape: 100 64 7 7 (313600)
I1006 20:10:34.204824  3817 net.cpp:137] Memory required for data: 460051600
I1006 20:10:34.204828  3817 layer_factory.hpp:77] Creating layer PReLU22
I1006 20:10:34.204831  3817 net.cpp:84] Creating Layer PReLU22
I1006 20:10:34.204834  3817 net.cpp:406] PReLU22 <- Convolution24
I1006 20:10:34.204838  3817 net.cpp:367] PReLU22 -> Convolution24 (in-place)
I1006 20:10:34.204905  3817 net.cpp:122] Setting up PReLU22
I1006 20:10:34.204910  3817 net.cpp:129] Top shape: 100 64 7 7 (313600)
I1006 20:10:34.204911  3817 net.cpp:137] Memory required for data: 461306000
I1006 20:10:34.204915  3817 layer_factory.hpp:77] Creating layer Convolution25
I1006 20:10:34.204922  3817 net.cpp:84] Creating Layer Convolution25
I1006 20:10:34.204926  3817 net.cpp:406] Convolution25 <- Convolution24
I1006 20:10:34.204929  3817 net.cpp:380] Convolution25 -> Convolution25
I1006 20:10:34.206929  3817 net.cpp:122] Setting up Convolution25
I1006 20:10:34.206939  3817 net.cpp:129] Top shape: 100 64 7 7 (313600)
I1006 20:10:34.206943  3817 net.cpp:137] Memory required for data: 462560400
I1006 20:10:34.206948  3817 layer_factory.hpp:77] Creating layer BatchNorm25
I1006 20:10:34.206951  3817 net.cpp:84] Creating Layer BatchNorm25
I1006 20:10:34.206954  3817 net.cpp:406] BatchNorm25 <- Convolution25
I1006 20:10:34.206959  3817 net.cpp:367] BatchNorm25 -> Convolution25 (in-place)
I1006 20:10:34.207105  3817 net.cpp:122] Setting up BatchNorm25
I1006 20:10:34.207110  3817 net.cpp:129] Top shape: 100 64 7 7 (313600)
I1006 20:10:34.207113  3817 net.cpp:137] Memory required for data: 463814800
I1006 20:10:34.207118  3817 layer_factory.hpp:77] Creating layer Scale25
I1006 20:10:34.207121  3817 net.cpp:84] Creating Layer Scale25
I1006 20:10:34.207123  3817 net.cpp:406] Scale25 <- Convolution25
I1006 20:10:34.207128  3817 net.cpp:367] Scale25 -> Convolution25 (in-place)
I1006 20:10:34.207154  3817 layer_factory.hpp:77] Creating layer Scale25
I1006 20:10:34.207257  3817 net.cpp:122] Setting up Scale25
I1006 20:10:34.207262  3817 net.cpp:129] Top shape: 100 64 7 7 (313600)
I1006 20:10:34.207264  3817 net.cpp:137] Memory required for data: 465069200
I1006 20:10:34.207268  3817 layer_factory.hpp:77] Creating layer Eltwise11
I1006 20:10:34.207271  3817 net.cpp:84] Creating Layer Eltwise11
I1006 20:10:34.207274  3817 net.cpp:406] Eltwise11 <- Convolution23
I1006 20:10:34.207276  3817 net.cpp:406] Eltwise11 <- Convolution25
I1006 20:10:34.207280  3817 net.cpp:380] Eltwise11 -> Eltwise11
I1006 20:10:34.207296  3817 net.cpp:122] Setting up Eltwise11
I1006 20:10:34.207300  3817 net.cpp:129] Top shape: 100 64 7 7 (313600)
I1006 20:10:34.207304  3817 net.cpp:137] Memory required for data: 466323600
I1006 20:10:34.207305  3817 layer_factory.hpp:77] Creating layer PReLU23
I1006 20:10:34.207309  3817 net.cpp:84] Creating Layer PReLU23
I1006 20:10:34.207310  3817 net.cpp:406] PReLU23 <- Eltwise11
I1006 20:10:34.207314  3817 net.cpp:367] PReLU23 -> Eltwise11 (in-place)
I1006 20:10:34.207373  3817 net.cpp:122] Setting up PReLU23
I1006 20:10:34.207377  3817 net.cpp:129] Top shape: 100 64 7 7 (313600)
I1006 20:10:34.207379  3817 net.cpp:137] Memory required for data: 467578000
I1006 20:10:34.207382  3817 layer_factory.hpp:77] Creating layer Eltwise11_PReLU23_0_split
I1006 20:10:34.207386  3817 net.cpp:84] Creating Layer Eltwise11_PReLU23_0_split
I1006 20:10:34.207388  3817 net.cpp:406] Eltwise11_PReLU23_0_split <- Eltwise11
I1006 20:10:34.207391  3817 net.cpp:380] Eltwise11_PReLU23_0_split -> Eltwise11_PReLU23_0_split_0
I1006 20:10:34.207396  3817 net.cpp:380] Eltwise11_PReLU23_0_split -> Eltwise11_PReLU23_0_split_1
I1006 20:10:34.207429  3817 net.cpp:122] Setting up Eltwise11_PReLU23_0_split
I1006 20:10:34.207433  3817 net.cpp:129] Top shape: 100 64 7 7 (313600)
I1006 20:10:34.207435  3817 net.cpp:129] Top shape: 100 64 7 7 (313600)
I1006 20:10:34.207438  3817 net.cpp:137] Memory required for data: 470086800
I1006 20:10:34.207440  3817 layer_factory.hpp:77] Creating layer Convolution26
I1006 20:10:34.207455  3817 net.cpp:84] Creating Layer Convolution26
I1006 20:10:34.207458  3817 net.cpp:406] Convolution26 <- Eltwise11_PReLU23_0_split_0
I1006 20:10:34.207463  3817 net.cpp:380] Convolution26 -> Convolution26
I1006 20:10:34.209113  3817 net.cpp:122] Setting up Convolution26
I1006 20:10:34.209121  3817 net.cpp:129] Top shape: 100 64 7 7 (313600)
I1006 20:10:34.209125  3817 net.cpp:137] Memory required for data: 471341200
I1006 20:10:34.209136  3817 layer_factory.hpp:77] Creating layer BatchNorm26
I1006 20:10:34.209141  3817 net.cpp:84] Creating Layer BatchNorm26
I1006 20:10:34.209144  3817 net.cpp:406] BatchNorm26 <- Convolution26
I1006 20:10:34.209149  3817 net.cpp:367] BatchNorm26 -> Convolution26 (in-place)
I1006 20:10:34.209283  3817 net.cpp:122] Setting up BatchNorm26
I1006 20:10:34.209287  3817 net.cpp:129] Top shape: 100 64 7 7 (313600)
I1006 20:10:34.209290  3817 net.cpp:137] Memory required for data: 472595600
I1006 20:10:34.209295  3817 layer_factory.hpp:77] Creating layer Scale26
I1006 20:10:34.209300  3817 net.cpp:84] Creating Layer Scale26
I1006 20:10:34.209301  3817 net.cpp:406] Scale26 <- Convolution26
I1006 20:10:34.209305  3817 net.cpp:367] Scale26 -> Convolution26 (in-place)
I1006 20:10:34.209331  3817 layer_factory.hpp:77] Creating layer Scale26
I1006 20:10:34.209408  3817 net.cpp:122] Setting up Scale26
I1006 20:10:34.209414  3817 net.cpp:129] Top shape: 100 64 7 7 (313600)
I1006 20:10:34.209415  3817 net.cpp:137] Memory required for data: 473850000
I1006 20:10:34.209419  3817 layer_factory.hpp:77] Creating layer PReLU24
I1006 20:10:34.209424  3817 net.cpp:84] Creating Layer PReLU24
I1006 20:10:34.209426  3817 net.cpp:406] PReLU24 <- Convolution26
I1006 20:10:34.209429  3817 net.cpp:367] PReLU24 -> Convolution26 (in-place)
I1006 20:10:34.209488  3817 net.cpp:122] Setting up PReLU24
I1006 20:10:34.209493  3817 net.cpp:129] Top shape: 100 64 7 7 (313600)
I1006 20:10:34.209496  3817 net.cpp:137] Memory required for data: 475104400
I1006 20:10:34.209497  3817 layer_factory.hpp:77] Creating layer Convolution27
I1006 20:10:34.209506  3817 net.cpp:84] Creating Layer Convolution27
I1006 20:10:34.209508  3817 net.cpp:406] Convolution27 <- Convolution26
I1006 20:10:34.209511  3817 net.cpp:380] Convolution27 -> Convolution27
I1006 20:10:34.211146  3817 net.cpp:122] Setting up Convolution27
I1006 20:10:34.211155  3817 net.cpp:129] Top shape: 100 64 7 7 (313600)
I1006 20:10:34.211158  3817 net.cpp:137] Memory required for data: 476358800
I1006 20:10:34.211168  3817 layer_factory.hpp:77] Creating layer BatchNorm27
I1006 20:10:34.211184  3817 net.cpp:84] Creating Layer BatchNorm27
I1006 20:10:34.211187  3817 net.cpp:406] BatchNorm27 <- Convolution27
I1006 20:10:34.211191  3817 net.cpp:367] BatchNorm27 -> Convolution27 (in-place)
I1006 20:10:34.211340  3817 net.cpp:122] Setting up BatchNorm27
I1006 20:10:34.211345  3817 net.cpp:129] Top shape: 100 64 7 7 (313600)
I1006 20:10:34.211347  3817 net.cpp:137] Memory required for data: 477613200
I1006 20:10:34.211352  3817 layer_factory.hpp:77] Creating layer Scale27
I1006 20:10:34.211364  3817 net.cpp:84] Creating Layer Scale27
I1006 20:10:34.211367  3817 net.cpp:406] Scale27 <- Convolution27
I1006 20:10:34.211370  3817 net.cpp:367] Scale27 -> Convolution27 (in-place)
I1006 20:10:34.211397  3817 layer_factory.hpp:77] Creating layer Scale27
I1006 20:10:34.211475  3817 net.cpp:122] Setting up Scale27
I1006 20:10:34.211480  3817 net.cpp:129] Top shape: 100 64 7 7 (313600)
I1006 20:10:34.211483  3817 net.cpp:137] Memory required for data: 478867600
I1006 20:10:34.211486  3817 layer_factory.hpp:77] Creating layer Eltwise12
I1006 20:10:34.211491  3817 net.cpp:84] Creating Layer Eltwise12
I1006 20:10:34.211493  3817 net.cpp:406] Eltwise12 <- Eltwise11_PReLU23_0_split_1
I1006 20:10:34.211496  3817 net.cpp:406] Eltwise12 <- Convolution27
I1006 20:10:34.211499  3817 net.cpp:380] Eltwise12 -> Eltwise12
I1006 20:10:34.211519  3817 net.cpp:122] Setting up Eltwise12
I1006 20:10:34.211524  3817 net.cpp:129] Top shape: 100 64 7 7 (313600)
I1006 20:10:34.211525  3817 net.cpp:137] Memory required for data: 480122000
I1006 20:10:34.211529  3817 layer_factory.hpp:77] Creating layer PReLU25
I1006 20:10:34.211531  3817 net.cpp:84] Creating Layer PReLU25
I1006 20:10:34.211534  3817 net.cpp:406] PReLU25 <- Eltwise12
I1006 20:10:34.211536  3817 net.cpp:367] PReLU25 -> Eltwise12 (in-place)
I1006 20:10:34.211597  3817 net.cpp:122] Setting up PReLU25
I1006 20:10:34.211602  3817 net.cpp:129] Top shape: 100 64 7 7 (313600)
I1006 20:10:34.211611  3817 net.cpp:137] Memory required for data: 481376400
I1006 20:10:34.211614  3817 layer_factory.hpp:77] Creating layer Eltwise12_PReLU25_0_split
I1006 20:10:34.211617  3817 net.cpp:84] Creating Layer Eltwise12_PReLU25_0_split
I1006 20:10:34.211619  3817 net.cpp:406] Eltwise12_PReLU25_0_split <- Eltwise12
I1006 20:10:34.211623  3817 net.cpp:380] Eltwise12_PReLU25_0_split -> Eltwise12_PReLU25_0_split_0
I1006 20:10:34.211627  3817 net.cpp:380] Eltwise12_PReLU25_0_split -> Eltwise12_PReLU25_0_split_1
I1006 20:10:34.211652  3817 net.cpp:122] Setting up Eltwise12_PReLU25_0_split
I1006 20:10:34.211658  3817 net.cpp:129] Top shape: 100 64 7 7 (313600)
I1006 20:10:34.211660  3817 net.cpp:129] Top shape: 100 64 7 7 (313600)
I1006 20:10:34.211663  3817 net.cpp:137] Memory required for data: 483885200
I1006 20:10:34.211664  3817 layer_factory.hpp:77] Creating layer Convolution28
I1006 20:10:34.211670  3817 net.cpp:84] Creating Layer Convolution28
I1006 20:10:34.211673  3817 net.cpp:406] Convolution28 <- Eltwise12_PReLU25_0_split_0
I1006 20:10:34.211676  3817 net.cpp:380] Convolution28 -> Convolution28
I1006 20:10:34.213318  3817 net.cpp:122] Setting up Convolution28
I1006 20:10:34.213328  3817 net.cpp:129] Top shape: 100 64 7 7 (313600)
I1006 20:10:34.213331  3817 net.cpp:137] Memory required for data: 485139600
I1006 20:10:34.213335  3817 layer_factory.hpp:77] Creating layer BatchNorm28
I1006 20:10:34.213340  3817 net.cpp:84] Creating Layer BatchNorm28
I1006 20:10:34.213343  3817 net.cpp:406] BatchNorm28 <- Convolution28
I1006 20:10:34.213347  3817 net.cpp:367] BatchNorm28 -> Convolution28 (in-place)
I1006 20:10:34.213485  3817 net.cpp:122] Setting up BatchNorm28
I1006 20:10:34.213488  3817 net.cpp:129] Top shape: 100 64 7 7 (313600)
I1006 20:10:34.213491  3817 net.cpp:137] Memory required for data: 486394000
I1006 20:10:34.213495  3817 layer_factory.hpp:77] Creating layer Scale28
I1006 20:10:34.213500  3817 net.cpp:84] Creating Layer Scale28
I1006 20:10:34.213502  3817 net.cpp:406] Scale28 <- Convolution28
I1006 20:10:34.213505  3817 net.cpp:367] Scale28 -> Convolution28 (in-place)
I1006 20:10:34.213531  3817 layer_factory.hpp:77] Creating layer Scale28
I1006 20:10:34.213610  3817 net.cpp:122] Setting up Scale28
I1006 20:10:34.213615  3817 net.cpp:129] Top shape: 100 64 7 7 (313600)
I1006 20:10:34.213618  3817 net.cpp:137] Memory required for data: 487648400
I1006 20:10:34.213621  3817 layer_factory.hpp:77] Creating layer PReLU26
I1006 20:10:34.213624  3817 net.cpp:84] Creating Layer PReLU26
I1006 20:10:34.213626  3817 net.cpp:406] PReLU26 <- Convolution28
I1006 20:10:34.213629  3817 net.cpp:367] PReLU26 -> Convolution28 (in-place)
I1006 20:10:34.213690  3817 net.cpp:122] Setting up PReLU26
I1006 20:10:34.213695  3817 net.cpp:129] Top shape: 100 64 7 7 (313600)
I1006 20:10:34.213696  3817 net.cpp:137] Memory required for data: 488902800
I1006 20:10:34.213699  3817 layer_factory.hpp:77] Creating layer Convolution29
I1006 20:10:34.213706  3817 net.cpp:84] Creating Layer Convolution29
I1006 20:10:34.213708  3817 net.cpp:406] Convolution29 <- Convolution28
I1006 20:10:34.213712  3817 net.cpp:380] Convolution29 -> Convolution29
I1006 20:10:34.215694  3817 net.cpp:122] Setting up Convolution29
I1006 20:10:34.215703  3817 net.cpp:129] Top shape: 100 64 7 7 (313600)
I1006 20:10:34.215706  3817 net.cpp:137] Memory required for data: 490157200
I1006 20:10:34.215711  3817 layer_factory.hpp:77] Creating layer BatchNorm29
I1006 20:10:34.215716  3817 net.cpp:84] Creating Layer BatchNorm29
I1006 20:10:34.215719  3817 net.cpp:406] BatchNorm29 <- Convolution29
I1006 20:10:34.215723  3817 net.cpp:367] BatchNorm29 -> Convolution29 (in-place)
I1006 20:10:34.215862  3817 net.cpp:122] Setting up BatchNorm29
I1006 20:10:34.215867  3817 net.cpp:129] Top shape: 100 64 7 7 (313600)
I1006 20:10:34.215868  3817 net.cpp:137] Memory required for data: 491411600
I1006 20:10:34.215873  3817 layer_factory.hpp:77] Creating layer Scale29
I1006 20:10:34.215878  3817 net.cpp:84] Creating Layer Scale29
I1006 20:10:34.215879  3817 net.cpp:406] Scale29 <- Convolution29
I1006 20:10:34.215889  3817 net.cpp:367] Scale29 -> Convolution29 (in-place)
I1006 20:10:34.215919  3817 layer_factory.hpp:77] Creating layer Scale29
I1006 20:10:34.215997  3817 net.cpp:122] Setting up Scale29
I1006 20:10:34.216002  3817 net.cpp:129] Top shape: 100 64 7 7 (313600)
I1006 20:10:34.216004  3817 net.cpp:137] Memory required for data: 492666000
I1006 20:10:34.216007  3817 layer_factory.hpp:77] Creating layer Eltwise13
I1006 20:10:34.216012  3817 net.cpp:84] Creating Layer Eltwise13
I1006 20:10:34.216015  3817 net.cpp:406] Eltwise13 <- Eltwise12_PReLU25_0_split_1
I1006 20:10:34.216017  3817 net.cpp:406] Eltwise13 <- Convolution29
I1006 20:10:34.216022  3817 net.cpp:380] Eltwise13 -> Eltwise13
I1006 20:10:34.216037  3817 net.cpp:122] Setting up Eltwise13
I1006 20:10:34.216042  3817 net.cpp:129] Top shape: 100 64 7 7 (313600)
I1006 20:10:34.216043  3817 net.cpp:137] Memory required for data: 493920400
I1006 20:10:34.216045  3817 layer_factory.hpp:77] Creating layer PReLU27
I1006 20:10:34.216048  3817 net.cpp:84] Creating Layer PReLU27
I1006 20:10:34.216050  3817 net.cpp:406] PReLU27 <- Eltwise13
I1006 20:10:34.216054  3817 net.cpp:367] PReLU27 -> Eltwise13 (in-place)
I1006 20:10:34.216115  3817 net.cpp:122] Setting up PReLU27
I1006 20:10:34.216120  3817 net.cpp:129] Top shape: 100 64 7 7 (313600)
I1006 20:10:34.216121  3817 net.cpp:137] Memory required for data: 495174800
I1006 20:10:34.216125  3817 layer_factory.hpp:77] Creating layer Eltwise13_PReLU27_0_split
I1006 20:10:34.216128  3817 net.cpp:84] Creating Layer Eltwise13_PReLU27_0_split
I1006 20:10:34.216130  3817 net.cpp:406] Eltwise13_PReLU27_0_split <- Eltwise13
I1006 20:10:34.216135  3817 net.cpp:380] Eltwise13_PReLU27_0_split -> Eltwise13_PReLU27_0_split_0
I1006 20:10:34.216138  3817 net.cpp:380] Eltwise13_PReLU27_0_split -> Eltwise13_PReLU27_0_split_1
I1006 20:10:34.216161  3817 net.cpp:122] Setting up Eltwise13_PReLU27_0_split
I1006 20:10:34.216166  3817 net.cpp:129] Top shape: 100 64 7 7 (313600)
I1006 20:10:34.216169  3817 net.cpp:129] Top shape: 100 64 7 7 (313600)
I1006 20:10:34.216171  3817 net.cpp:137] Memory required for data: 497683600
I1006 20:10:34.216173  3817 layer_factory.hpp:77] Creating layer Convolution30
I1006 20:10:34.216179  3817 net.cpp:84] Creating Layer Convolution30
I1006 20:10:34.216182  3817 net.cpp:406] Convolution30 <- Eltwise13_PReLU27_0_split_0
I1006 20:10:34.216187  3817 net.cpp:380] Convolution30 -> Convolution30
I1006 20:10:34.217836  3817 net.cpp:122] Setting up Convolution30
I1006 20:10:34.217844  3817 net.cpp:129] Top shape: 100 64 7 7 (313600)
I1006 20:10:34.217847  3817 net.cpp:137] Memory required for data: 498938000
I1006 20:10:34.217851  3817 layer_factory.hpp:77] Creating layer BatchNorm30
I1006 20:10:34.217857  3817 net.cpp:84] Creating Layer BatchNorm30
I1006 20:10:34.217860  3817 net.cpp:406] BatchNorm30 <- Convolution30
I1006 20:10:34.217864  3817 net.cpp:367] BatchNorm30 -> Convolution30 (in-place)
I1006 20:10:34.218000  3817 net.cpp:122] Setting up BatchNorm30
I1006 20:10:34.218004  3817 net.cpp:129] Top shape: 100 64 7 7 (313600)
I1006 20:10:34.218006  3817 net.cpp:137] Memory required for data: 500192400
I1006 20:10:34.218011  3817 layer_factory.hpp:77] Creating layer Scale30
I1006 20:10:34.218015  3817 net.cpp:84] Creating Layer Scale30
I1006 20:10:34.218017  3817 net.cpp:406] Scale30 <- Convolution30
I1006 20:10:34.218020  3817 net.cpp:367] Scale30 -> Convolution30 (in-place)
I1006 20:10:34.218049  3817 layer_factory.hpp:77] Creating layer Scale30
I1006 20:10:34.218124  3817 net.cpp:122] Setting up Scale30
I1006 20:10:34.218129  3817 net.cpp:129] Top shape: 100 64 7 7 (313600)
I1006 20:10:34.218132  3817 net.cpp:137] Memory required for data: 501446800
I1006 20:10:34.218135  3817 layer_factory.hpp:77] Creating layer PReLU28
I1006 20:10:34.218139  3817 net.cpp:84] Creating Layer PReLU28
I1006 20:10:34.218142  3817 net.cpp:406] PReLU28 <- Convolution30
I1006 20:10:34.218144  3817 net.cpp:367] PReLU28 -> Convolution30 (in-place)
I1006 20:10:34.218205  3817 net.cpp:122] Setting up PReLU28
I1006 20:10:34.218216  3817 net.cpp:129] Top shape: 100 64 7 7 (313600)
I1006 20:10:34.218219  3817 net.cpp:137] Memory required for data: 502701200
I1006 20:10:34.218221  3817 layer_factory.hpp:77] Creating layer Convolution31
I1006 20:10:34.218228  3817 net.cpp:84] Creating Layer Convolution31
I1006 20:10:34.218231  3817 net.cpp:406] Convolution31 <- Convolution30
I1006 20:10:34.218235  3817 net.cpp:380] Convolution31 -> Convolution31
I1006 20:10:34.220228  3817 net.cpp:122] Setting up Convolution31
I1006 20:10:34.220237  3817 net.cpp:129] Top shape: 100 64 7 7 (313600)
I1006 20:10:34.220239  3817 net.cpp:137] Memory required for data: 503955600
I1006 20:10:34.220244  3817 layer_factory.hpp:77] Creating layer BatchNorm31
I1006 20:10:34.220249  3817 net.cpp:84] Creating Layer BatchNorm31
I1006 20:10:34.220252  3817 net.cpp:406] BatchNorm31 <- Convolution31
I1006 20:10:34.220257  3817 net.cpp:367] BatchNorm31 -> Convolution31 (in-place)
I1006 20:10:34.220396  3817 net.cpp:122] Setting up BatchNorm31
I1006 20:10:34.220401  3817 net.cpp:129] Top shape: 100 64 7 7 (313600)
I1006 20:10:34.220402  3817 net.cpp:137] Memory required for data: 505210000
I1006 20:10:34.220407  3817 layer_factory.hpp:77] Creating layer Scale31
I1006 20:10:34.220412  3817 net.cpp:84] Creating Layer Scale31
I1006 20:10:34.220413  3817 net.cpp:406] Scale31 <- Convolution31
I1006 20:10:34.220417  3817 net.cpp:367] Scale31 -> Convolution31 (in-place)
I1006 20:10:34.220444  3817 layer_factory.hpp:77] Creating layer Scale31
I1006 20:10:34.220522  3817 net.cpp:122] Setting up Scale31
I1006 20:10:34.220527  3817 net.cpp:129] Top shape: 100 64 7 7 (313600)
I1006 20:10:34.220530  3817 net.cpp:137] Memory required for data: 506464400
I1006 20:10:34.220533  3817 layer_factory.hpp:77] Creating layer Eltwise14
I1006 20:10:34.220537  3817 net.cpp:84] Creating Layer Eltwise14
I1006 20:10:34.220541  3817 net.cpp:406] Eltwise14 <- Eltwise13_PReLU27_0_split_1
I1006 20:10:34.220542  3817 net.cpp:406] Eltwise14 <- Convolution31
I1006 20:10:34.220546  3817 net.cpp:380] Eltwise14 -> Eltwise14
I1006 20:10:34.220563  3817 net.cpp:122] Setting up Eltwise14
I1006 20:10:34.220567  3817 net.cpp:129] Top shape: 100 64 7 7 (313600)
I1006 20:10:34.220569  3817 net.cpp:137] Memory required for data: 507718800
I1006 20:10:34.220571  3817 layer_factory.hpp:77] Creating layer PReLU29
I1006 20:10:34.220574  3817 net.cpp:84] Creating Layer PReLU29
I1006 20:10:34.220577  3817 net.cpp:406] PReLU29 <- Eltwise14
I1006 20:10:34.220579  3817 net.cpp:367] PReLU29 -> Eltwise14 (in-place)
I1006 20:10:34.220641  3817 net.cpp:122] Setting up PReLU29
I1006 20:10:34.220645  3817 net.cpp:129] Top shape: 100 64 7 7 (313600)
I1006 20:10:34.220648  3817 net.cpp:137] Memory required for data: 508973200
I1006 20:10:34.220650  3817 layer_factory.hpp:77] Creating layer Eltwise14_PReLU29_0_split
I1006 20:10:34.220654  3817 net.cpp:84] Creating Layer Eltwise14_PReLU29_0_split
I1006 20:10:34.220656  3817 net.cpp:406] Eltwise14_PReLU29_0_split <- Eltwise14
I1006 20:10:34.220660  3817 net.cpp:380] Eltwise14_PReLU29_0_split -> Eltwise14_PReLU29_0_split_0
I1006 20:10:34.220664  3817 net.cpp:380] Eltwise14_PReLU29_0_split -> Eltwise14_PReLU29_0_split_1
I1006 20:10:34.220686  3817 net.cpp:122] Setting up Eltwise14_PReLU29_0_split
I1006 20:10:34.220690  3817 net.cpp:129] Top shape: 100 64 7 7 (313600)
I1006 20:10:34.220693  3817 net.cpp:129] Top shape: 100 64 7 7 (313600)
I1006 20:10:34.220695  3817 net.cpp:137] Memory required for data: 511482000
I1006 20:10:34.220697  3817 layer_factory.hpp:77] Creating layer Convolution32
I1006 20:10:34.220703  3817 net.cpp:84] Creating Layer Convolution32
I1006 20:10:34.220706  3817 net.cpp:406] Convolution32 <- Eltwise14_PReLU29_0_split_0
I1006 20:10:34.220710  3817 net.cpp:380] Convolution32 -> Convolution32
I1006 20:10:34.222373  3817 net.cpp:122] Setting up Convolution32
I1006 20:10:34.222383  3817 net.cpp:129] Top shape: 100 64 7 7 (313600)
I1006 20:10:34.222385  3817 net.cpp:137] Memory required for data: 512736400
I1006 20:10:34.222390  3817 layer_factory.hpp:77] Creating layer BatchNorm32
I1006 20:10:34.222401  3817 net.cpp:84] Creating Layer BatchNorm32
I1006 20:10:34.222404  3817 net.cpp:406] BatchNorm32 <- Convolution32
I1006 20:10:34.222409  3817 net.cpp:367] BatchNorm32 -> Convolution32 (in-place)
I1006 20:10:34.222550  3817 net.cpp:122] Setting up BatchNorm32
I1006 20:10:34.222554  3817 net.cpp:129] Top shape: 100 64 7 7 (313600)
I1006 20:10:34.222556  3817 net.cpp:137] Memory required for data: 513990800
I1006 20:10:34.222561  3817 layer_factory.hpp:77] Creating layer Scale32
I1006 20:10:34.222565  3817 net.cpp:84] Creating Layer Scale32
I1006 20:10:34.222568  3817 net.cpp:406] Scale32 <- Convolution32
I1006 20:10:34.222571  3817 net.cpp:367] Scale32 -> Convolution32 (in-place)
I1006 20:10:34.222599  3817 layer_factory.hpp:77] Creating layer Scale32
I1006 20:10:34.222678  3817 net.cpp:122] Setting up Scale32
I1006 20:10:34.222682  3817 net.cpp:129] Top shape: 100 64 7 7 (313600)
I1006 20:10:34.222684  3817 net.cpp:137] Memory required for data: 515245200
I1006 20:10:34.222688  3817 layer_factory.hpp:77] Creating layer PReLU30
I1006 20:10:34.222692  3817 net.cpp:84] Creating Layer PReLU30
I1006 20:10:34.222694  3817 net.cpp:406] PReLU30 <- Convolution32
I1006 20:10:34.222697  3817 net.cpp:367] PReLU30 -> Convolution32 (in-place)
I1006 20:10:34.222759  3817 net.cpp:122] Setting up PReLU30
I1006 20:10:34.222764  3817 net.cpp:129] Top shape: 100 64 7 7 (313600)
I1006 20:10:34.222765  3817 net.cpp:137] Memory required for data: 516499600
I1006 20:10:34.222769  3817 layer_factory.hpp:77] Creating layer Convolution33
I1006 20:10:34.222775  3817 net.cpp:84] Creating Layer Convolution33
I1006 20:10:34.222777  3817 net.cpp:406] Convolution33 <- Convolution32
I1006 20:10:34.222782  3817 net.cpp:380] Convolution33 -> Convolution33
I1006 20:10:34.224805  3817 net.cpp:122] Setting up Convolution33
I1006 20:10:34.224813  3817 net.cpp:129] Top shape: 100 64 7 7 (313600)
I1006 20:10:34.224817  3817 net.cpp:137] Memory required for data: 517754000
I1006 20:10:34.224822  3817 layer_factory.hpp:77] Creating layer BatchNorm33
I1006 20:10:34.224826  3817 net.cpp:84] Creating Layer BatchNorm33
I1006 20:10:34.224829  3817 net.cpp:406] BatchNorm33 <- Convolution33
I1006 20:10:34.224833  3817 net.cpp:367] BatchNorm33 -> Convolution33 (in-place)
I1006 20:10:34.224972  3817 net.cpp:122] Setting up BatchNorm33
I1006 20:10:34.224977  3817 net.cpp:129] Top shape: 100 64 7 7 (313600)
I1006 20:10:34.224978  3817 net.cpp:137] Memory required for data: 519008400
I1006 20:10:34.225002  3817 layer_factory.hpp:77] Creating layer Scale33
I1006 20:10:34.225005  3817 net.cpp:84] Creating Layer Scale33
I1006 20:10:34.225008  3817 net.cpp:406] Scale33 <- Convolution33
I1006 20:10:34.225011  3817 net.cpp:367] Scale33 -> Convolution33 (in-place)
I1006 20:10:34.225040  3817 layer_factory.hpp:77] Creating layer Scale33
I1006 20:10:34.225118  3817 net.cpp:122] Setting up Scale33
I1006 20:10:34.225122  3817 net.cpp:129] Top shape: 100 64 7 7 (313600)
I1006 20:10:34.225124  3817 net.cpp:137] Memory required for data: 520262800
I1006 20:10:34.225127  3817 layer_factory.hpp:77] Creating layer Eltwise15
I1006 20:10:34.225131  3817 net.cpp:84] Creating Layer Eltwise15
I1006 20:10:34.225133  3817 net.cpp:406] Eltwise15 <- Eltwise14_PReLU29_0_split_1
I1006 20:10:34.225136  3817 net.cpp:406] Eltwise15 <- Convolution33
I1006 20:10:34.225141  3817 net.cpp:380] Eltwise15 -> Eltwise15
I1006 20:10:34.225157  3817 net.cpp:122] Setting up Eltwise15
I1006 20:10:34.225160  3817 net.cpp:129] Top shape: 100 64 7 7 (313600)
I1006 20:10:34.225162  3817 net.cpp:137] Memory required for data: 521517200
I1006 20:10:34.225164  3817 layer_factory.hpp:77] Creating layer PReLU31
I1006 20:10:34.225167  3817 net.cpp:84] Creating Layer PReLU31
I1006 20:10:34.225169  3817 net.cpp:406] PReLU31 <- Eltwise15
I1006 20:10:34.225172  3817 net.cpp:367] PReLU31 -> Eltwise15 (in-place)
I1006 20:10:34.225235  3817 net.cpp:122] Setting up PReLU31
I1006 20:10:34.225240  3817 net.cpp:129] Top shape: 100 64 7 7 (313600)
I1006 20:10:34.225242  3817 net.cpp:137] Memory required for data: 522771600
I1006 20:10:34.225251  3817 layer_factory.hpp:77] Creating layer Pooling1
I1006 20:10:34.225256  3817 net.cpp:84] Creating Layer Pooling1
I1006 20:10:34.225258  3817 net.cpp:406] Pooling1 <- Eltwise15
I1006 20:10:34.225261  3817 net.cpp:380] Pooling1 -> Pooling1
I1006 20:10:34.225411  3817 net.cpp:122] Setting up Pooling1
I1006 20:10:34.225417  3817 net.cpp:129] Top shape: 100 64 1 1 (6400)
I1006 20:10:34.225419  3817 net.cpp:137] Memory required for data: 522797200
I1006 20:10:34.225421  3817 layer_factory.hpp:77] Creating layer InnerProduct1
I1006 20:10:34.225431  3817 net.cpp:84] Creating Layer InnerProduct1
I1006 20:10:34.225433  3817 net.cpp:406] InnerProduct1 <- Pooling1
I1006 20:10:34.225437  3817 net.cpp:380] InnerProduct1 -> InnerProduct1
I1006 20:10:34.225533  3817 net.cpp:122] Setting up InnerProduct1
I1006 20:10:34.225538  3817 net.cpp:129] Top shape: 100 10 (1000)
I1006 20:10:34.225539  3817 net.cpp:137] Memory required for data: 522801200
I1006 20:10:34.225543  3817 layer_factory.hpp:77] Creating layer SoftmaxWithLoss1
I1006 20:10:34.225546  3817 net.cpp:84] Creating Layer SoftmaxWithLoss1
I1006 20:10:34.225549  3817 net.cpp:406] SoftmaxWithLoss1 <- InnerProduct1
I1006 20:10:34.225551  3817 net.cpp:406] SoftmaxWithLoss1 <- Data2
I1006 20:10:34.225555  3817 net.cpp:380] SoftmaxWithLoss1 -> SoftmaxWithLoss1
…
I1006 20:10:34.228317  3817 net.cpp:294] The NetState phase (1) differed from the phase (0) specified by a rule in layer Data1
I1006 20:10:34.228862  3817 net.cpp:51] Initializing net from parameters: 
name: "resnet_cifar10"
state {
  phase: TEST
}
layer {
  name: "Data1"
  type: "Data"
  top: "Data1"
  top: "Data2"
  include {
    phase: TEST
  }
  transform_param {
    mean_file: "/home/x306/caffe/xn/PENLU/data/cifar10/mean.binaryproto"
  }
  data_param {
    source: "/home/x306/caffe/xn/PENLU/data/cifar10/cifar10_test_lmdb"
    batch_size: 100
    backend: LMDB
  }
}
layer {
  name: "Convolution1"
  type: "Convolution"
  bottom: "Data1"
  top: "Convolution1"
  param {
    lr_mult: 1
    decay_mult: 1
  }
  param {
    lr_mult: 2
    decay_mult: 0
  }
  convolution_param {
    num_output: 16
    pad: 1
    kernel_size: 3
    stride: 1
    weight_filler {
      type: "gaussian"
      std: 0.118
    }
    bias_filler {
      type: "constant"
      value: 0
    }
  }
}
layer {
  name: "BatchNorm1"
  type: "BatchNorm"
  bottom: "Convolution1"
  top: "Convolution1"
  param {
    lr_mult: 0
    decay_mult: 0
  }
  param {
    lr_mult: 0
    decay_mult: 0
  }
  param {
    lr_mult: 0
    decay_mult: 0
  }
}
layer {
  name: "Scale1"
  type: "Scale"
  bottom: "Convolution1"
  top: "Convolution1"
  scale_param {
    bias_term: true
  }
}
layer {
  name: "PReLU1"
  type: "PReLU"
  bottom: "Convolution1"
  top: "Convolution1"
}
layer {
  name: "Convolution2"
  type: "Convolution"
  bottom: "Convolution1"
  top: "Convolution2"
  param {
    lr_mult: 1
    decay_mult: 1
  }
  param {
    lr_mult: 2
    decay_mult: 0
  }
  convolution_param {
    num_output: 16
    pad: 1
    kernel_size: 3
    stride: 1
    weight_filler {
      type: "gaussian"
      std: 0.118
    }
    bias_filler {
      type: "constant"
      value: 0
    }
  }
}
layer {
  name: "BatchNorm2"
  type: "BatchNorm"
  bottom: "Convolution2"
  top: "Convolution2"
  param {
    lr_mult: 0
    decay_mult: 0
  }
  param {
    lr_mult: 0
    decay_mult: 0
  }
  param {
    lr_mult: 0
    decay_mult: 0
  }
}
layer {
  name: "Scale2"
  type: "Scale"
  bottom: "Convolution2"
  top: "Convolution2"
  scale_param {
    bias_term: true
  }
}
layer {
  name: "PReLU2"
  type: "PReLU"
  bottom: "Convolution2"
  top: "Convolution2"
}
layer {
  name: "Convolution3"
  type: "Convolution"
  bottom: "Convolution2"
  top: "Convolution3"
  param {
    lr_mult: 1
    decay_mult: 1
  }
  param {
    lr_mult: 2
    decay_mult: 0
  }
  convolution_param {
    num_output: 16
    pad: 1
    kernel_size: 3
    stride: 1
    weight_filler {
      type: "gaussian"
      std: 0.118
    }
    bias_filler {
      type: "constant"
      value: 0
    }
  }
}
layer {
  name: "BatchNorm3"
  type: "BatchNorm"
  bottom: "Convolution3"
  top: "Convolution3"
  param {
    lr_mult: 0
    decay_mult: 0
  }
  param {
    lr_mult: 0
    decay_mult: 0
  }
  param {
    lr_mult: 0
    decay_mult: 0
  }
}
layer {
  name: "Scale3"
  type: "Scale"
  bottom: "Convolution3"
  top: "Convolution3"
  scale_param {
    bias_term: true
  }
}
layer {
  name: "Eltwise1"
  type: "Eltwise"
  bottom: "Convolution1"
  bottom: "Convolution3"
  top: "Eltwise1"
  eltwise_param {
    operation: SUM
  }
}
layer {
  name: "PReLU3"
  type: "PReLU"
  bottom: "Eltwise1"
  top: "Eltwise1"
}
layer {
  name: "Convolution4"
  type: "Convolution"
  bottom: "Eltwise1"
  top: "Convolution4"
  param {
    lr_mult: 1
    decay_mult: 1
  }
  param {
    lr_mult: 2
    decay_mult: 0
  }
  convolution_param {
    num_output: 16
    pad: 1
    kernel_size: 3
    stride: 1
    weight_filler {
      type: "gaussian"
      std: 0.118
    }
    bias_filler {
      type: "constant"
      value: 0
    }
  }
}
layer {
  name: "BatchNorm4"
  type: "BatchNorm"
  bottom: "Convolution4"
  top: "Convolution4"
  param {
    lr_mult: 0
    decay_mult: 0
  }
  param {
    lr_mult: 0
    decay_mult: 0
  }
  param {
    lr_mult: 0
    decay_mult: 0
  }
}
layer {
  name: "Scale4"
  type: "Scale"
  bottom: "Convolution4"
  top: "Convolution4"
  scale_param {
    bias_term: true
  }
}
layer {
  name: "PReLU4"
  type: "PReLU"
  bottom: "Convolution4"
  top: "Convolution4"
}
layer {
  name: "Convolution5"
  type: "Convolution"
  bottom: "Convolution4"
  top: "Convolution5"
  param {
    lr_mult: 1
    decay_mult: 1
  }
  param {
    lr_mult: 2
    decay_mult: 0
  }
  convolution_param {
    num_output: 16
    pad: 1
    kernel_size: 3
    stride: 1
    weight_filler {
      type: "gaussian"
      std: 0.118
    }
    bias_filler {
      type: "constant"
      value: 0
    }
  }
}
layer {
  name: "BatchNorm5"
  type: "BatchNorm"
  bottom: "Convolution5"
  top: "Convolution5"
  param {
    lr_mult: 0
    decay_mult: 0
  }
  param {
    lr_mult: 0
    decay_mult: 0
  }
  param {
    lr_mult: 0
    decay_mult: 0
  }
}
layer {
  name: "Scale5"
  type: "Scale"
  bottom: "Convolution5"
  top: "Convolution5"
  scale_param {
    bias_term: true
  }
}
layer {
  name: "Eltwise2"
  type: "Eltwise"
  bottom: "Eltwise1"
  bottom: "Convolution5"
  top: "Eltwise2"
  eltwise_param {
    operation: SUM
  }
}
layer {
  name: "PReLU5"
  type: "PReLU"
  bottom: "Eltwise2"
  top: "Eltwise2"
}
layer {
  name: "Convolution6"
  type: "Convolution"
  bottom: "Eltwise2"
  top: "Convolution6"
  param {
    lr_mult: 1
    decay_mult: 1
  }
  param {
    lr_mult: 2
    decay_mult: 0
  }
  convolution_param {
    num_output: 16
    pad: 1
    kernel_size: 3
    stride: 1
    weight_filler {
      type: "gaussian"
      std: 0.118
    }
    bias_filler {
      type: "constant"
      value: 0
    }
  }
}
layer {
  name: "BatchNorm6"
  type: "BatchNorm"
  bottom: "Convolution6"
  top: "Convolution6"
  param {
    lr_mult: 0
    decay_mult: 0
  }
  param {
    lr_mult: 0
    decay_mult: 0
  }
  param {
    lr_mult: 0
    decay_mult: 0
  }
}
layer {
  name: "Scale6"
  type: "Scale"
  bottom: "Convolution6"
  top: "Convolution6"
  scale_param {
    bias_term: true
  }
}
layer {
  name: "PReLU6"
  type: "PReLU"
  bottom: "Convolution6"
  top: "Convolution6"
}
layer {
  name: "Convolution7"
  type: "Convolution"
  bottom: "Convolution6"
  top: "Convolution7"
  param {
    lr_mult: 1
    decay_mult: 1
  }
  param {
    lr_mult: 2
    decay_mult: 0
  }
  convolution_param {
    num_output: 16
    pad: 1
    kernel_size: 3
    stride: 1
    weight_filler {
      type: "gaussian"
      std: 0.118
    }
    bias_filler {
      type: "constant"
      value: 0
    }
  }
}
layer {
  name: "BatchNorm7"
  type: "BatchNorm"
  bottom: "Convolution7"
  top: "Convolution7"
  param {
    lr_mult: 0
    decay_mult: 0
  }
  param {
    lr_mult: 0
    decay_mult: 0
  }
  param {
    lr_mult: 0
    decay_mult: 0
  }
}
layer {
  name: "Scale7"
  type: "Scale"
  bottom: "Convolution7"
  top: "Convolution7"
  scale_param {
    bias_term: true
  }
}
layer {
  name: "Eltwise3"
  type: "Eltwise"
  bottom: "Eltwise2"
  bottom: "Convolution7"
  top: "Eltwise3"
  eltwise_param {
    operation: SUM
  }
}
layer {
  name: "PReLU7"
  type: "PReLU"
  bottom: "Eltwise3"
  top: "Eltwise3"
}
layer {
  name: "Convolution8"
  type: "Convolution"
  bottom: "Eltwise3"
  top: "Convolution8"
  param {
    lr_mult: 1
    decay_mult: 1
  }
  param {
    lr_mult: 2
    decay_mult: 0
  }
  convolution_param {
    num_output: 16
    pad: 1
    kernel_size: 3
    stride: 1
    weight_filler {
      type: "gaussian"
      std: 0.118
    }
    bias_filler {
      type: "constant"
      value: 0
    }
  }
}
layer {
  name: "BatchNorm8"
  type: "BatchNorm"
  bottom: "Convolution8"
  top: "Convolution8"
  param {
    lr_mult: 0
    decay_mult: 0
  }
  param {
    lr_mult: 0
    decay_mult: 0
  }
  param {
    lr_mult: 0
    decay_mult: 0
  }
}
layer {
  name: "Scale8"
  type: "Scale"
  bottom: "Convolution8"
  top: "Convolution8"
  scale_param {
    bias_term: true
  }
}
layer {
  name: "PReLU8"
  type: "PReLU"
  bottom: "Convolution8"
  top: "Convolution8"
}
layer {
  name: "Convolution9"
  type: "Convolution"
  bottom: "Convolution8"
  top: "Convolution9"
  param {
    lr_mult: 1
    decay_mult: 1
  }
  param {
    lr_mult: 2
    decay_mult: 0
  }
  convolution_param {
    num_output: 16
    pad: 1
    kernel_size: 3
    stride: 1
    weight_filler {
      type: "gaussian"
      std: 0.118
    }
    bias_filler {
      type: "constant"
      value: 0
    }
  }
}
layer {
  name: "BatchNorm9"
  type: "BatchNorm"
  bottom: "Convolution9"
  top: "Convolution9"
  param {
    lr_mult: 0
    decay_mult: 0
  }
  param {
    lr_mult: 0
    decay_mult: 0
  }
  param {
    lr_mult: 0
    decay_mult: 0
  }
}
layer {
  name: "Scale9"
  type: "Scale"
  bottom: "Convolution9"
  top: "Convolution9"
  scale_param {
    bias_term: true
  }
}
layer {
  name: "Eltwise4"
  type: "Eltwise"
  bottom: "Eltwise3"
  bottom: "Convolution9"
  top: "Eltwise4"
  eltwise_param {
    operation: SUM
  }
}
layer {
  name: "PReLU9"
  type: "PReLU"
  bottom: "Eltwise4"
  top: "Eltwise4"
}
layer {
  name: "Convolution10"
  type: "Convolution"
  bottom: "Eltwise4"
  top: "Convolution10"
  param {
    lr_mult: 1
    decay_mult: 1
  }
  param {
    lr_mult: 2
    decay_mult: 0
  }
  convolution_param {
    num_output: 16
    pad: 1
    kernel_size: 3
    stride: 1
    weight_filler {
      type: "gaussian"
      std: 0.118
    }
    bias_filler {
      type: "constant"
      value: 0
    }
  }
}
layer {
  name: "BatchNorm10"
  type: "BatchNorm"
  bottom: "Convolution10"
  top: "Convolution10"
  param {
    lr_mult: 0
    decay_mult: 0
  }
  param {
    lr_mult: 0
    decay_mult: 0
  }
  param {
    lr_mult: 0
    decay_mult: 0
  }
}
layer {
  name: "Scale10"
  type: "Scale"
  bottom: "Convolution10"
  top: "Convolution10"
  scale_param {
    bias_term: true
  }
}
layer {
  name: "PReLU10"
  type: "PReLU"
  bottom: "Convolution10"
  top: "Convolution10"
}
layer {
  name: "Convolution11"
  type: "Convolution"
  bottom: "Convolution10"
  top: "Convolution11"
  param {
    lr_mult: 1
    decay_mult: 1
  }
  param {
    lr_mult: 2
    decay_mult: 0
  }
  convolution_param {
    num_output: 16
    pad: 1
    kernel_size: 3
    stride: 1
    weight_filler {
      type: "gaussian"
      std: 0.118
    }
    bias_filler {
      type: "constant"
      value: 0
    }
  }
}
layer {
  name: "BatchNorm11"
  type: "BatchNorm"
  bottom: "Convolution11"
  top: "Convolution11"
  param {
    lr_mult: 0
    decay_mult: 0
  }
  param {
    lr_mult: 0
    decay_mult: 0
  }
  param {
    lr_mult: 0
    decay_mult: 0
  }
}
layer {
  name: "Scale11"
  type: "Scale"
  bottom: "Convolution11"
  top: "Convolution11"
  scale_param {
    bias_term: true
  }
}
layer {
  name: "Eltwise5"
  type: "Eltwise"
  bottom: "Eltwise4"
  bottom: "Convolution11"
  top: "Eltwise5"
  eltwise_param {
    operation: SUM
  }
}
layer {
  name: "PReLU11"
  type: "PReLU"
  bottom: "Eltwise5"
  top: "Eltwise5"
}
layer {
  name: "Convolution12"
  type: "Convolution"
  bottom: "Eltwise5"
  top: "Convolution12"
  param {
    lr_mult: 1
    decay_mult: 1
  }
  param {
    lr_mult: 2
    decay_mult: 0
  }
  convolution_param {
    num_output: 32
    pad: 0
    kernel_size: 1
    stride: 2
    weight_filler {
      type: "gaussian"
      std: 0.25
    }
    bias_filler {
      type: "constant"
      value: 0
    }
  }
}
layer {
  name: "BatchNorm12"
  type: "BatchNorm"
  bottom: "Convolution12"
  top: "Convolution12"
  param {
    lr_mult: 0
    decay_mult: 0
  }
  param {
    lr_mult: 0
    decay_mult: 0
  }
  param {
    lr_mult: 0
    decay_mult: 0
  }
}
layer {
  name: "Scale12"
  type: "Scale"
  bottom: "Convolution12"
  top: "Convolution12"
  scale_param {
    bias_term: true
  }
}
layer {
  name: "Convolution13"
  type: "Convolution"
  bottom: "Eltwise5"
  top: "Convolution13"
  param {
    lr_mult: 1
    decay_mult: 1
  }
  param {
    lr_mult: 2
    decay_mult: 0
  }
  convolution_param {
    num_output: 32
    pad: 1
    kernel_size: 3
    stride: 2
    weight_filler {
      type: "gaussian"
      std: 0.083
    }
    bias_filler {
      type: "constant"
      value: 0
    }
  }
}
layer {
  name: "BatchNorm13"
  type: "BatchNorm"
  bottom: "Convolution13"
  top: "Convolution13"
  param {
    lr_mult: 0
    decay_mult: 0
  }
  param {
    lr_mult: 0
    decay_mult: 0
  }
  param {
    lr_mult: 0
    decay_mult: 0
  }
}
layer {
  name: "Scale13"
  type: "Scale"
  bottom: "Convolution13"
  top: "Convolution13"
  scale_param {
    bias_term: true
  }
}
layer {
  name: "PReLU12"
  type: "PReLU"
  bottom: "Convolution13"
  top: "Convolution13"
}
layer {
  name: "Convolution14"
  type: "Convolution"
  bottom: "Convolution13"
  top: "Convolution14"
  param {
    lr_mult: 1
    decay_mult: 1
  }
  param {
    lr_mult: 2
    decay_mult: 0
  }
  convolution_param {
    num_output: 32
    pad: 1
    kernel_size: 3
    stride: 1
    weight_filler {
      type: "gaussian"
      std: 0.083
    }
    bias_filler {
      type: "constant"
      value: 0
    }
  }
}
layer {
  name: "BatchNorm14"
  type: "BatchNorm"
  bottom: "Convolution14"
  top: "Convolution14"
  param {
    lr_mult: 0
    decay_mult: 0
  }
  param {
    lr_mult: 0
    decay_mult: 0
  }
  param {
    lr_mult: 0
    decay_mult: 0
  }
}
layer {
  name: "Scale14"
  type: "Scale"
  bottom: "Convolution14"
  top: "Convolution14"
  scale_param {
    bias_term: true
  }
}
layer {
  name: "Eltwise6"
  type: "Eltwise"
  bottom: "Convolution12"
  bottom: "Convolution14"
  top: "Eltwise6"
  eltwise_param {
    operation: SUM
  }
}
layer {
  name: "PReLU13"
  type: "PReLU"
  bottom: "Eltwise6"
  top: "Eltwise6"
}
layer {
  name: "Convolution15"
  type: "Convolution"
  bottom: "Eltwise6"
  top: "Convolution15"
  param {
    lr_mult: 1
    decay_mult: 1
  }
  param {
    lr_mult: 2
    decay_mult: 0
  }
  convolution_param {
    num_output: 32
    pad: 1
    kernel_size: 3
    stride: 1
    weight_filler {
      type: "gaussian"
      std: 0.083
    }
    bias_filler {
      type: "constant"
      value: 0
    }
  }
}
layer {
  name: "BatchNorm15"
  type: "BatchNorm"
  bottom: "Convolution15"
  top: "Convolution15"
  param {
    lr_mult: 0
    decay_mult: 0
  }
  param {
    lr_mult: 0
    decay_mult: 0
  }
  param {
    lr_mult: 0
    decay_mult: 0
  }
}
layer {
  name: "Scale15"
  type: "Scale"
  bottom: "Convolution15"
  top: "Convolution15"
  scale_param {
    bias_term: true
  }
}
layer {
  name: "PReLU14"
  type: "PReLU"
  bottom: "Convolution15"
  top: "Convolution15"
}
layer {
  name: "Convolution16"
  type: "Convolution"
  bottom: "Convolution15"
  top: "Convolution16"
  param {
    lr_mult: 1
    decay_mult: 1
  }
  param {
    lr_mult: 2
    decay_mult: 0
  }
  convolution_param {
    num_output: 32
    pad: 1
    kernel_size: 3
    stride: 1
    weight_filler {
      type: "gaussian"
      std: 0.083
    }
    bias_filler {
      type: "constant"
      value: 0
    }
  }
}
layer {
  name: "BatchNorm16"
  type: "BatchNorm"
  bottom: "Convolution16"
  top: "Convolution16"
  param {
    lr_mult: 0
    decay_mult: 0
  }
  param {
    lr_mult: 0
    decay_mult: 0
  }
  param {
    lr_mult: 0
    decay_mult: 0
  }
}
layer {
  name: "Scale16"
  type: "Scale"
  bottom: "Convolution16"
  top: "Convolution16"
  scale_param {
    bias_term: true
  }
}
layer {
  name: "Eltwise7"
  type: "Eltwise"
  bottom: "Eltwise6"
  bottom: "Convolution16"
  top: "Eltwise7"
  eltwise_param {
    operation: SUM
  }
}
layer {
  name: "PReLU15"
  type: "PReLU"
  bottom: "Eltwise7"
  top: "Eltwise7"
}
layer {
  name: "Convolution17"
  type: "Convolution"
  bottom: "Eltwise7"
  top: "Convolution17"
  param {
    lr_mult: 1
    decay_mult: 1
  }
  param {
    lr_mult: 2
    decay_mult: 0
  }
  convolution_param {
    num_output: 32
    pad: 1
    kernel_size: 3
    stride: 1
    weight_filler {
      type: "gaussian"
      std: 0.083
    }
    bias_filler {
      type: "constant"
      value: 0
    }
  }
}
layer {
  name: "BatchNorm17"
  type: "BatchNorm"
  bottom: "Convolution17"
  top: "Convolution17"
  param {
    lr_mult: 0
    decay_mult: 0
  }
  param {
    lr_mult: 0
    decay_mult: 0
  }
  param {
    lr_mult: 0
    decay_mult: 0
  }
}
layer {
  name: "Scale17"
  type: "Scale"
  bottom: "Convolution17"
  top: "Convolution17"
  scale_param {
    bias_term: true
  }
}
layer {
  name: "PReLU16"
  type: "PReLU"
  bottom: "Convolution17"
  top: "Convolution17"
}
layer {
  name: "Convolution18"
  type: "Convolution"
  bottom: "Convolution17"
  top: "Convolution18"
  param {
    lr_mult: 1
    decay_mult: 1
  }
  param {
    lr_mult: 2
    decay_mult: 0
  }
  convolution_param {
    num_output: 32
    pad: 1
    kernel_size: 3
    stride: 1
    weight_filler {
      type: "gaussian"
      std: 0.083
    }
    bias_filler {
      type: "constant"
      value: 0
    }
  }
}
layer {
  name: "BatchNorm18"
  type: "BatchNorm"
  bottom: "Convolution18"
  top: "Convolution18"
  param {
    lr_mult: 0
    decay_mult: 0
  }
  param {
    lr_mult: 0
    decay_mult: 0
  }
  param {
    lr_mult: 0
    decay_mult: 0
  }
}
layer {
  name: "Scale18"
  type: "Scale"
  bottom: "Convolution18"
  top: "Convolution18"
  scale_param {
    bias_term: true
  }
}
layer {
  name: "Eltwise8"
  type: "Eltwise"
  bottom: "Eltwise7"
  bottom: "Convolution18"
  top: "Eltwise8"
  eltwise_param {
    operation: SUM
  }
}
layer {
  name: "PReLU17"
  type: "PReLU"
  bottom: "Eltwise8"
  top: "Eltwise8"
}
layer {
  name: "Convolution19"
  type: "Convolution"
  bottom: "Eltwise8"
  top: "Convolution19"
  param {
    lr_mult: 1
    decay_mult: 1
  }
  param {
    lr_mult: 2
    decay_mult: 0
  }
  convolution_param {
    num_output: 32
    pad: 1
    kernel_size: 3
    stride: 1
    weight_filler {
      type: "gaussian"
      std: 0.083
    }
    bias_filler {
      type: "constant"
      value: 0
    }
  }
}
layer {
  name: "BatchNorm19"
  type: "BatchNorm"
  bottom: "Convolution19"
  top: "Convolution19"
  param {
    lr_mult: 0
    decay_mult: 0
  }
  param {
    lr_mult: 0
    decay_mult: 0
  }
  param {
    lr_mult: 0
    decay_mult: 0
  }
}
layer {
  name: "Scale19"
  type: "Scale"
  bottom: "Convolution19"
  top: "Convolution19"
  scale_param {
    bias_term: true
  }
}
layer {
  name: "PReLU18"
  type: "PReLU"
  bottom: "Convolution19"
  top: "Convolution19"
}
layer {
  name: "Convolution20"
  type: "Convolution"
  bottom: "Convolution19"
  top: "Convolution20"
  param {
    lr_mult: 1
    decay_mult: 1
  }
  param {
    lr_mult: 2
    decay_mult: 0
  }
  convolution_param {
    num_output: 32
    pad: 1
    kernel_size: 3
    stride: 1
    weight_filler {
      type: "gaussian"
      std: 0.083
    }
    bias_filler {
      type: "constant"
      value: 0
    }
  }
}
layer {
  name: "BatchNorm20"
  type: "BatchNorm"
  bottom: "Convolution20"
  top: "Convolution20"
  param {
    lr_mult: 0
    decay_mult: 0
  }
  param {
    lr_mult: 0
    decay_mult: 0
  }
  param {
    lr_mult: 0
    decay_mult: 0
  }
}
layer {
  name: "Scale20"
  type: "Scale"
  bottom: "Convolution20"
  top: "Convolution20"
  scale_param {
    bias_term: true
  }
}
layer {
  name: "Eltwise9"
  type: "Eltwise"
  bottom: "Eltwise8"
  bottom: "Convolution20"
  top: "Eltwise9"
  eltwise_param {
    operation: SUM
  }
}
layer {
  name: "PReLU19"
  type: "PReLU"
  bottom: "Eltwise9"
  top: "Eltwise9"
}
layer {
  name: "Convolution21"
  type: "Convolution"
  bottom: "Eltwise9"
  top: "Convolution21"
  param {
    lr_mult: 1
    decay_mult: 1
  }
  param {
    lr_mult: 2
    decay_mult: 0
  }
  convolution_param {
    num_output: 32
    pad: 1
    kernel_size: 3
    stride: 1
    weight_filler {
      type: "gaussian"
      std: 0.083
    }
    bias_filler {
      type: "constant"
      value: 0
    }
  }
}
layer {
  name: "BatchNorm21"
  type: "BatchNorm"
  bottom: "Convolution21"
  top: "Convolution21"
  param {
    lr_mult: 0
    decay_mult: 0
  }
  param {
    lr_mult: 0
    decay_mult: 0
  }
  param {
    lr_mult: 0
    decay_mult: 0
  }
}
layer {
  name: "Scale21"
  type: "Scale"
  bottom: "Convolution21"
  top: "Convolution21"
  scale_param {
    bias_term: true
  }
}
layer {
  name: "PReLU20"
  type: "PReLU"
  bottom: "Convolution21"
  top: "Convolution21"
}
layer {
  name: "Convolution22"
  type: "Convolution"
  bottom: "Convolution21"
  top: "Convolution22"
  param {
    lr_mult: 1
    decay_mult: 1
  }
  param {
    lr_mult: 2
    decay_mult: 0
  }
  convolution_param {
    num_output: 32
    pad: 1
    kernel_size: 3
    stride: 1
    weight_filler {
      type: "gaussian"
      std: 0.083
    }
    bias_filler {
      type: "constant"
      value: 0
    }
  }
}
layer {
  name: "BatchNorm22"
  type: "BatchNorm"
  bottom: "Convolution22"
  top: "Convolution22"
  param {
    lr_mult: 0
    decay_mult: 0
  }
  param {
    lr_mult: 0
    decay_mult: 0
  }
  param {
    lr_mult: 0
    decay_mult: 0
  }
}
layer {
  name: "Scale22"
  type: "Scale"
  bottom: "Convolution22"
  top: "Convolution22"
  scale_param {
    bias_term: true
  }
}
layer {
  name: "Eltwise10"
  type: "Eltwise"
  bottom: "Eltwise9"
  bottom: "Convolution22"
  top: "Eltwise10"
  eltwise_param {
    operation: SUM
  }
}
layer {
  name: "PReLU21"
  type: "PReLU"
  bottom: "Eltwise10"
  top: "Eltwise10"
}
layer {
  name: "Convolution23"
  type: "Convolution"
  bottom: "Eltwise10"
  top: "Convolution23"
  param {
    lr_mult: 1
    decay_mult: 1
  }
  param {
    lr_mult: 2
    decay_mult: 0
  }
  convolution_param {
    num_output: 64
    pad: 0
    kernel_size: 1
    stride: 2
    weight_filler {
      type: "gaussian"
      std: 0.17677669
    }
    bias_filler {
      type: "constant"
      value: 0
    }
  }
}
layer {
  name: "BatchNorm23"
  type: "BatchNorm"
  bottom: "Convolution23"
  top: "Convolution23"
  param {
    lr_mult: 0
    decay_mult: 0
  }
  param {
    lr_mult: 0
    decay_mult: 0
  }
  param {
    lr_mult: 0
    decay_mult: 0
  }
}
layer {
  name: "Scale23"
  type: "Scale"
  bottom: "Convolution23"
  top: "Convolution23"
  scale_param {
    bias_term: true
  }
}
layer {
  name: "Convolution24"
  type: "Convolution"
  bottom: "Eltwise10"
  top: "Convolution24"
  param {
    lr_mult: 1
    decay_mult: 1
  }
  param {
    lr_mult: 2
    decay_mult: 0
  }
  convolution_param {
    num_output: 64
    pad: 1
    kernel_size: 3
    stride: 2
    weight_filler {
      type: "gaussian"
      std: 0.059
    }
    bias_filler {
      type: "constant"
      value: 0
    }
  }
}
layer {
  name: "BatchNorm24"
  type: "BatchNorm"
  bottom: "Convolution24"
  top: "Convolution24"
  param {
    lr_mult: 0
    decay_mult: 0
  }
  param {
    lr_mult: 0
    decay_mult: 0
  }
  param {
    lr_mult: 0
    decay_mult: 0
  }
}
layer {
  name: "Scale24"
  type: "Scale"
  bottom: "Convolution24"
  top: "Convolution24"
  scale_param {
    bias_term: true
  }
}
layer {
  name: "PReLU22"
  type: "PReLU"
  bottom: "Convolution24"
  top: "Convolution24"
}
layer {
  name: "Convolution25"
  type: "Convolution"
  bottom: "Convolution24"
  top: "Convolution25"
  param {
    lr_mult: 1
    decay_mult: 1
  }
  param {
    lr_mult: 2
    decay_mult: 0
  }
  convolution_param {
    num_output: 64
    pad: 1
    kernel_size: 3
    stride: 1
    weight_filler {
      type: "gaussian"
      std: 0.059
    }
    bias_filler {
      type: "constant"
      value: 0
    }
  }
}
layer {
  name: "BatchNorm25"
  type: "BatchNorm"
  bottom: "Convolution25"
  top: "Convolution25"
  param {
    lr_mult: 0
    decay_mult: 0
  }
  param {
    lr_mult: 0
    decay_mult: 0
  }
  param {
    lr_mult: 0
    decay_mult: 0
  }
}
layer {
  name: "Scale25"
  type: "Scale"
  bottom: "Convolution25"
  top: "Convolution25"
  scale_param {
    bias_term: true
  }
}
layer {
  name: "Eltwise11"
  type: "Eltwise"
  bottom: "Convolution23"
  bottom: "Convolution25"
  top: "Eltwise11"
  eltwise_param {
    operation: SUM
  }
}
layer {
  name: "PReLU23"
  type: "PReLU"
  bottom: "Eltwise11"
  top: "Eltwise11"
}
layer {
  name: "Convolution26"
  type: "Convolution"
  bottom: "Eltwise11"
  top: "Convolution26"
  param {
    lr_mult: 1
    decay_mult: 1
  }
  param {
    lr_mult: 2
    decay_mult: 0
  }
  convolution_param {
    num_output: 64
    pad: 1
    kernel_size: 3
    stride: 1
    weight_filler {
      type: "gaussian"
      std: 0.059
    }
    bias_filler {
      type: "constant"
      value: 0
    }
  }
}
layer {
  name: "BatchNorm26"
  type: "BatchNorm"
  bottom: "Convolution26"
  top: "Convolution26"
  param {
    lr_mult: 0
    decay_mult: 0
  }
  param {
    lr_mult: 0
    decay_mult: 0
  }
  param {
    lr_mult: 0
    decay_mult: 0
  }
}
layer {
  name: "Scale26"
  type: "Scale"
  bottom: "Convolution26"
  top: "Convolution26"
  scale_param {
    bias_term: true
  }
}
layer {
  name: "PReLU24"
  type: "PReLU"
  bottom: "Convolution26"
  top: "Convolution26"
}
layer {
  name: "Convolution27"
  type: "Convolution"
  bottom: "Convolution26"
  top: "Convolution27"
  param {
    lr_mult: 1
    decay_mult: 1
  }
  param {
    lr_mult: 2
    decay_mult: 0
  }
  convolution_param {
    num_output: 64
    pad: 1
    kernel_size: 3
    stride: 1
    weight_filler {
      type: "gaussian"
      std: 0.059
    }
    bias_filler {
      type: "constant"
      value: 0
    }
  }
}
layer {
  name: "BatchNorm27"
  type: "BatchNorm"
  bottom: "Convolution27"
  top: "Convolution27"
  param {
    lr_mult: 0
    decay_mult: 0
  }
  param {
    lr_mult: 0
    decay_mult: 0
  }
  param {
    lr_mult: 0
    decay_mult: 0
  }
}
layer {
  name: "Scale27"
  type: "Scale"
  bottom: "Convolution27"
  top: "Convolution27"
  scale_param {
    bias_term: true
  }
}
layer {
  name: "Eltwise12"
  type: "Eltwise"
  bottom: "Eltwise11"
  bottom: "Convolution27"
  top: "Eltwise12"
  eltwise_param {
    operation: SUM
  }
}
layer {
  name: "PReLU25"
  type: "PReLU"
  bottom: "Eltwise12"
  top: "Eltwise12"
}
layer {
  name: "Convolution28"
  type: "Convolution"
  bottom: "Eltwise12"
  top: "Convolution28"
  param {
    lr_mult: 1
    decay_mult: 1
  }
  param {
    lr_mult: 2
    decay_mult: 0
  }
  convolution_param {
    num_output: 64
    pad: 1
    kernel_size: 3
    stride: 1
    weight_filler {
      type: "gaussian"
      std: 0.059
    }
    bias_filler {
      type: "constant"
      value: 0
    }
  }
}
layer {
  name: "BatchNorm28"
  type: "BatchNorm"
  bottom: "Convolution28"
  top: "Convolution28"
  param {
    lr_mult: 0
    decay_mult: 0
  }
  param {
    lr_mult: 0
    decay_mult: 0
  }
  param {
    lr_mult: 0
    decay_mult: 0
  }
}
layer {
  name: "Scale28"
  type: "Scale"
  bottom: "Convolution28"
  top: "Convolution28"
  scale_param {
    bias_term: true
  }
}
layer {
  name: "PReLU26"
  type: "PReLU"
  bottom: "Convolution28"
  top: "Convolution28"
}
layer {
  name: "Convolution29"
  type: "Convolution"
  bottom: "Convolution28"
  top: "Convolution29"
  param {
    lr_mult: 1
    decay_mult: 1
  }
  param {
    lr_mult: 2
    decay_mult: 0
  }
  convolution_param {
    num_output: 64
    pad: 1
    kernel_size: 3
    stride: 1
    weight_filler {
      type: "gaussian"
      std: 0.059
    }
    bias_filler {
      type: "constant"
      value: 0
    }
  }
}
layer {
  name: "BatchNorm29"
  type: "BatchNorm"
  bottom: "Convolution29"
  top: "Convolution29"
  param {
    lr_mult: 0
    decay_mult: 0
  }
  param {
    lr_mult: 0
    decay_mult: 0
  }
  param {
    lr_mult: 0
    decay_mult: 0
  }
}
layer {
  name: "Scale29"
  type: "Scale"
  bottom: "Convolution29"
  top: "Convolution29"
  scale_param {
    bias_term: true
  }
}
layer {
  name: "Eltwise13"
  type: "Eltwise"
  bottom: "Eltwise12"
  bottom: "Convolution29"
  top: "Eltwise13"
  eltwise_param {
    operation: SUM
  }
}
layer {
  name: "PReLU27"
  type: "PReLU"
  bottom: "Eltwise13"
  top: "Eltwise13"
}
layer {
  name: "Convolution30"
  type: "Convolution"
  bottom: "Eltwise13"
  top: "Convolution30"
  param {
    lr_mult: 1
    decay_mult: 1
  }
  param {
    lr_mult: 2
    decay_mult: 0
  }
  convolution_param {
    num_output: 64
    pad: 1
    kernel_size: 3
    stride: 1
    weight_filler {
      type: "gaussian"
      std: 0.059
    }
    bias_filler {
      type: "constant"
      value: 0
    }
  }
}
layer {
  name: "BatchNorm30"
  type: "BatchNorm"
  bottom: "Convolution30"
  top: "Convolution30"
  param {
    lr_mult: 0
    decay_mult: 0
  }
  param {
    lr_mult: 0
    decay_mult: 0
  }
  param {
    lr_mult: 0
    decay_mult: 0
  }
}
layer {
  name: "Scale30"
  type: "Scale"
  bottom: "Convolution30"
  top: "Convolution30"
  scale_param {
    bias_term: true
  }
}
layer {
  name: "PReLU28"
  type: "PReLU"
  bottom: "Convolution30"
  top: "Convolution30"
}
layer {
  name: "Convolution31"
  type: "Convolution"
  bottom: "Convolution30"
  top: "Convolution31"
  param {
    lr_mult: 1
    decay_mult: 1
  }
  param {
    lr_mult: 2
    decay_mult: 0
  }
  convolution_param {
    num_output: 64
    pad: 1
    kernel_size: 3
    stride: 1
    weight_filler {
      type: "gaussian"
      std: 0.059
    }
    bias_filler {
      type: "constant"
      value: 0
    }
  }
}
layer {
  name: "BatchNorm31"
  type: "BatchNorm"
  bottom: "Convolution31"
  top: "Convolution31"
  param {
    lr_mult: 0
    decay_mult: 0
  }
  param {
    lr_mult: 0
    decay_mult: 0
  }
  param {
    lr_mult: 0
    decay_mult: 0
  }
}
layer {
  name: "Scale31"
  type: "Scale"
  bottom: "Convolution31"
  top: "Convolution31"
  scale_param {
    bias_term: true
  }
}
layer {
  name: "Eltwise14"
  type: "Eltwise"
  bottom: "Eltwise13"
  bottom: "Convolution31"
  top: "Eltwise14"
  eltwise_param {
    operation: SUM
  }
}
layer {
  name: "PReLU29"
  type: "PReLU"
  bottom: "Eltwise14"
  top: "Eltwise14"
}
layer {
  name: "Convolution32"
  type: "Convolution"
  bottom: "Eltwise14"
  top: "Convolution32"
  param {
    lr_mult: 1
    decay_mult: 1
  }
  param {
    lr_mult: 2
    decay_mult: 0
  }
  convolution_param {
    num_output: 64
    pad: 1
    kernel_size: 3
    stride: 1
    weight_filler {
      type: "gaussian"
      std: 0.059
    }
    bias_filler {
      type: "constant"
      value: 0
    }
  }
}
layer {
  name: "BatchNorm32"
  type: "BatchNorm"
  b
I1006 20:10:34.231823  3817 layer_factory.hpp:77] Creating layer Data1
I1006 20:10:34.259585  3817 db_lmdb.cpp:35] Opened lmdb /home/x306/caffe/xn/PENLU/data/cifar10/cifar10_test_lmdb
I1006 20:10:34.259604  3817 net.cpp:84] Creating Layer Data1
I1006 20:10:34.259613  3817 net.cpp:380] Data1 -> Data1
I1006 20:10:34.259625  3817 net.cpp:380] Data1 -> Data2
I1006 20:10:34.259631  3817 data_transformer.cpp:25] Loading mean file from: /home/x306/caffe/xn/PENLU/data/cifar10/mean.binaryproto
I1006 20:10:34.259804  3817 data_layer.cpp:45] output data size: 100,3,32,32
I1006 20:10:34.264394  3817 net.cpp:122] Setting up Data1
I1006 20:10:34.264413  3817 net.cpp:129] Top shape: 100 3 32 32 (307200)
I1006 20:10:34.264417  3817 net.cpp:129] Top shape: 100 (100)
…
I1006 20:10:34.326298  3817 net.cpp:129] Top shape: 100 32 16 16 (819200)
I1006 20:10:34.326300  3817 net.cpp:137] Memory required for data: 459982000
I1006 20:10:34.326304  3817 layer_factory.hpp:77] Creating layer Convolution16
I1006 20:10:34.326310  3817 net.cpp:84] Creating Layer Convolution16
I1006 20:10:34.326313  3817 net.cpp:406] Convolution16 <- Convolution15
I1006 20:10:34.326318  3817 net.cpp:380] Convolution16 -> Convolution16
I1006 20:10:34.327962  3817 net.cpp:122] Setting up Convolution16
I1006 20:10:34.327972  3817 net.cpp:129] Top shape: 100 32 16 16 (819200)
I1006 20:10:34.327975  3817 net.cpp:137] Memory required for data: 463258800
I1006 20:10:34.327980  3817 layer_factory.hpp:77] Creating layer BatchNorm16
I1006 20:10:34.327985  3817 net.cpp:84] Creating Layer BatchNorm16
I1006 20:10:34.327987  3817 net.cpp:406] BatchNorm16 <- Convolution16
I1006 20:10:34.327991  3817 net.cpp:367] BatchNorm16 -> Convolution16 (in-place)
I1006 20:10:34.328135  3817 net.cpp:122] Setting up BatchNorm16
I1006 20:10:34.328138  3817 net.cpp:129] Top shape: 100 32 16 16 (819200)
I1006 20:10:34.328140  3817 net.cpp:137] Memory required for data: 466535600
I1006 20:10:34.328145  3817 layer_factory.hpp:77] Creating layer Scale16
I1006 20:10:34.328150  3817 net.cpp:84] Creating Layer Scale16
I1006 20:10:34.328151  3817 net.cpp:406] Scale16 <- Convolution16
I1006 20:10:34.328155  3817 net.cpp:367] Scale16 -> Convolution16 (in-place)
I1006 20:10:34.328183  3817 layer_factory.hpp:77] Creating layer Scale16
I1006 20:10:34.328264  3817 net.cpp:122] Setting up Scale16
I1006 20:10:34.328269  3817 net.cpp:129] Top shape: 100 32 16 16 (819200)
I1006 20:10:34.328270  3817 net.cpp:137] Memory required for data: 469812400
I1006 20:10:34.328274  3817 layer_factory.hpp:77] Creating layer Eltwise7
I1006 20:10:34.328279  3817 net.cpp:84] Creating Layer Eltwise7
I1006 20:10:34.328282  3817 net.cpp:406] Eltwise7 <- Eltwise6_PReLU13_0_split_1
I1006 20:10:34.328285  3817 net.cpp:406] Eltwise7 <- Convolution16
I1006 20:10:34.328289  3817 net.cpp:380] Eltwise7 -> Eltwise7
I1006 20:10:34.328301  3817 net.cpp:122] Setting up Eltwise7
I1006 20:10:34.328305  3817 net.cpp:129] Top shape: 100 32 16 16 (819200)
I1006 20:10:34.328307  3817 net.cpp:137] Memory required for data: 473089200
I1006 20:10:34.328310  3817 layer_factory.hpp:77] Creating layer PReLU15
I1006 20:10:34.328315  3817 net.cpp:84] Creating Layer PReLU15
I1006 20:10:34.328317  3817 net.cpp:406] PReLU15 <- Eltwise7
I1006 20:10:34.328321  3817 net.cpp:367] PReLU15 -> Eltwise7 (in-place)
I1006 20:10:34.328385  3817 net.cpp:122] Setting up PReLU15
I1006 20:10:34.328390  3817 net.cpp:129] Top shape: 100 32 16 16 (819200)
I1006 20:10:34.328392  3817 net.cpp:137] Memory required for data: 476366000
I1006 20:10:34.328395  3817 layer_factory.hpp:77] Creating layer Eltwise7_PReLU15_0_split
I1006 20:10:34.328398  3817 net.cpp:84] Creating Layer Eltwise7_PReLU15_0_split
I1006 20:10:34.328400  3817 net.cpp:406] Eltwise7_PReLU15_0_split <- Eltwise7
I1006 20:10:34.328404  3817 net.cpp:380] Eltwise7_PReLU15_0_split -> Eltwise7_PReLU15_0_split_0
I1006 20:10:34.328408  3817 net.cpp:380] Eltwise7_PReLU15_0_split -> Eltwise7_PReLU15_0_split_1
I1006 20:10:34.328434  3817 net.cpp:122] Setting up Eltwise7_PReLU15_0_split
I1006 20:10:34.328438  3817 net.cpp:129] Top shape: 100 32 16 16 (819200)
I1006 20:10:34.328440  3817 net.cpp:129] Top shape: 100 32 16 16 (819200)
I1006 20:10:34.328443  3817 net.cpp:137] Memory required for data: 482919600
I1006 20:10:34.328444  3817 layer_factory.hpp:77] Creating layer Convolution17
I1006 20:10:34.328451  3817 net.cpp:84] Creating Layer Convolution17
I1006 20:10:34.328454  3817 net.cpp:406] Convolution17 <- Eltwise7_PReLU15_0_split_0
I1006 20:10:34.328459  3817 net.cpp:380] Convolution17 -> Convolution17
I1006 20:10:34.329540  3817 net.cpp:122] Setting up Convolution17
I1006 20:10:34.329548  3817 net.cpp:129] Top shape: 100 32 16 16 (819200)
I1006 20:10:34.329551  3817 net.cpp:137] Memory required for data: 486196400
I1006 20:10:34.329569  3817 layer_factory.hpp:77] Creating layer BatchNorm17
I1006 20:10:34.329581  3817 net.cpp:84] Creating Layer BatchNorm17
I1006 20:10:34.329586  3817 net.cpp:406] BatchNorm17 <- Convolution17
I1006 20:10:34.329589  3817 net.cpp:367] BatchNorm17 -> Convolution17 (in-place)
I1006 20:10:34.329736  3817 net.cpp:122] Setting up BatchNorm17
I1006 20:10:34.329741  3817 net.cpp:129] Top shape: 100 32 16 16 (819200)
I1006 20:10:34.329744  3817 net.cpp:137] Memory required for data: 489473200
I1006 20:10:34.329749  3817 layer_factory.hpp:77] Creating layer Scale17
I1006 20:10:34.329753  3817 net.cpp:84] Creating Layer Scale17
I1006 20:10:34.329756  3817 net.cpp:406] Scale17 <- Convolution17
I1006 20:10:34.329759  3817 net.cpp:367] Scale17 -> Convolution17 (in-place)
I1006 20:10:34.329789  3817 layer_factory.hpp:77] Creating layer Scale17
I1006 20:10:34.329872  3817 net.cpp:122] Setting up Scale17
I1006 20:10:34.329876  3817 net.cpp:129] Top shape: 100 32 16 16 (819200)
I1006 20:10:34.329879  3817 net.cpp:137] Memory required for data: 492750000
I1006 20:10:34.329882  3817 layer_factory.hpp:77] Creating layer PReLU16
I1006 20:10:34.329885  3817 net.cpp:84] Creating Layer PReLU16
I1006 20:10:34.329887  3817 net.cpp:406] PReLU16 <- Convolution17
I1006 20:10:34.329891  3817 net.cpp:367] PReLU16 -> Convolution17 (in-place)
I1006 20:10:34.329955  3817 net.cpp:122] Setting up PReLU16
I1006 20:10:34.329959  3817 net.cpp:129] Top shape: 100 32 16 16 (819200)
I1006 20:10:34.329962  3817 net.cpp:137] Memory required for data: 496026800
I1006 20:10:34.329964  3817 layer_factory.hpp:77] Creating layer Convolution18
I1006 20:10:34.329970  3817 net.cpp:84] Creating Layer Convolution18
I1006 20:10:34.329972  3817 net.cpp:406] Convolution18 <- Convolution17
I1006 20:10:34.329977  3817 net.cpp:380] Convolution18 -> Convolution18
I1006 20:10:34.331068  3817 net.cpp:122] Setting up Convolution18
I1006 20:10:34.331076  3817 net.cpp:129] Top shape: 100 32 16 16 (819200)
I1006 20:10:34.331079  3817 net.cpp:137] Memory required for data: 499303600
I1006 20:10:34.331084  3817 layer_factory.hpp:77] Creating layer BatchNorm18
I1006 20:10:34.331089  3817 net.cpp:84] Creating Layer BatchNorm18
I1006 20:10:34.331090  3817 net.cpp:406] BatchNorm18 <- Convolution18
I1006 20:10:34.331094  3817 net.cpp:367] BatchNorm18 -> Convolution18 (in-place)
I1006 20:10:34.331244  3817 net.cpp:122] Setting up BatchNorm18
I1006 20:10:34.331249  3817 net.cpp:129] Top shape: 100 32 16 16 (819200)
I1006 20:10:34.331252  3817 net.cpp:137] Memory required for data: 502580400
I1006 20:10:34.331256  3817 layer_factory.hpp:77] Creating layer Scale18
I1006 20:10:34.331261  3817 net.cpp:84] Creating Layer Scale18
I1006 20:10:34.331264  3817 net.cpp:406] Scale18 <- Convolution18
I1006 20:10:34.331267  3817 net.cpp:367] Scale18 -> Convolution18 (in-place)
I1006 20:10:34.331297  3817 layer_factory.hpp:77] Creating layer Scale18
I1006 20:10:34.331380  3817 net.cpp:122] Setting up Scale18
I1006 20:10:34.331384  3817 net.cpp:129] Top shape: 100 32 16 16 (819200)
I1006 20:10:34.331387  3817 net.cpp:137] Memory required for data: 505857200
I1006 20:10:34.331390  3817 layer_factory.hpp:77] Creating layer Eltwise8
I1006 20:10:34.331395  3817 net.cpp:84] Creating Layer Eltwise8
I1006 20:10:34.331398  3817 net.cpp:406] Eltwise8 <- Eltwise7_PReLU15_0_split_1
I1006 20:10:34.331401  3817 net.cpp:406] Eltwise8 <- Convolution18
I1006 20:10:34.331405  3817 net.cpp:380] Eltwise8 -> Eltwise8
I1006 20:10:34.331418  3817 net.cpp:122] Setting up Eltwise8
I1006 20:10:34.331423  3817 net.cpp:129] Top shape: 100 32 16 16 (819200)
I1006 20:10:34.331424  3817 net.cpp:137] Memory required for data: 509134000
I1006 20:10:34.331426  3817 layer_factory.hpp:77] Creating layer PReLU17
I1006 20:10:34.331429  3817 net.cpp:84] Creating Layer PReLU17
I1006 20:10:34.331431  3817 net.cpp:406] PReLU17 <- Eltwise8
I1006 20:10:34.331436  3817 net.cpp:367] PReLU17 -> Eltwise8 (in-place)
I1006 20:10:34.331501  3817 net.cpp:122] Setting up PReLU17
I1006 20:10:34.331504  3817 net.cpp:129] Top shape: 100 32 16 16 (819200)
I1006 20:10:34.331506  3817 net.cpp:137] Memory required for data: 512410800
I1006 20:10:34.331516  3817 layer_factory.hpp:77] Creating layer Eltwise8_PReLU17_0_split
I1006 20:10:34.331521  3817 net.cpp:84] Creating Layer Eltwise8_PReLU17_0_split
I1006 20:10:34.331523  3817 net.cpp:406] Eltwise8_PReLU17_0_split <- Eltwise8
I1006 20:10:34.331526  3817 net.cpp:380] Eltwise8_PReLU17_0_split -> Eltwise8_PReLU17_0_split_0
I1006 20:10:34.351056  3817 net.cpp:380] Eltwise8_PReLU17_0_split -> Eltwise8_PReLU17_0_split_1
I1006 20:10:34.351114  3817 net.cpp:122] Setting up Eltwise8_PReLU17_0_split
I1006 20:10:34.351121  3817 net.cpp:129] Top shape: 100 32 16 16 (819200)
I1006 20:10:34.351127  3817 net.cpp:129] Top shape: 100 32 16 16 (819200)
I1006 20:10:34.351131  3817 net.cpp:137] Memory required for data: 518964400
I1006 20:10:34.351135  3817 layer_factory.hpp:77] Creating layer Convolution19
I1006 20:10:34.351145  3817 net.cpp:84] Creating Layer Convolution19
I1006 20:10:34.351151  3817 net.cpp:406] Convolution19 <- Eltwise8_PReLU17_0_split_0
I1006 20:10:34.351158  3817 net.cpp:380] Convolution19 -> Convolution19
I1006 20:10:34.352396  3817 net.cpp:122] Setting up Convolution19
I1006 20:10:34.352406  3817 net.cpp:129] Top shape: 100 32 16 16 (819200)
I1006 20:10:34.352408  3817 net.cpp:137] Memory required for data: 522241200
I1006 20:10:34.352413  3817 layer_factory.hpp:77] Creating layer BatchNorm19
I1006 20:10:34.352419  3817 net.cpp:84] Creating Layer BatchNorm19
I1006 20:10:34.352422  3817 net.cpp:406] BatchNorm19 <- Convolution19
I1006 20:10:34.352427  3817 net.cpp:367] BatchNorm19 -> Convolution19 (in-place)
I1006 20:10:34.352628  3817 net.cpp:122] Setting up BatchNorm19
I1006 20:10:34.352638  3817 net.cpp:129] Top shape: 100 32 16 16 (819200)
I1006 20:10:34.352641  3817 net.cpp:137] Memory required for data: 525518000
I1006 20:10:34.352650  3817 layer_factory.hpp:77] Creating layer Scale19
I1006 20:10:34.352658  3817 net.cpp:84] Creating Layer Scale19
I1006 20:10:34.352663  3817 net.cpp:406] Scale19 <- Convolution19
I1006 20:10:34.352669  3817 net.cpp:367] Scale19 -> Convolution19 (in-place)
I1006 20:10:34.352708  3817 layer_factory.hpp:77] Creating layer Scale19
I1006 20:10:34.352864  3817 net.cpp:122] Setting up Scale19
I1006 20:10:34.352872  3817 net.cpp:129] Top shape: 100 32 16 16 (819200)
I1006 20:10:34.352874  3817 net.cpp:137] Memory required for data: 528794800
I1006 20:10:34.352879  3817 layer_factory.hpp:77] Creating layer PReLU18
I1006 20:10:34.352882  3817 net.cpp:84] Creating Layer PReLU18
I1006 20:10:34.352885  3817 net.cpp:406] PReLU18 <- Convolution19
I1006 20:10:34.352890  3817 net.cpp:367] PReLU18 -> Convolution19 (in-place)
I1006 20:10:34.352985  3817 net.cpp:122] Setting up PReLU18
I1006 20:10:34.352993  3817 net.cpp:129] Top shape: 100 32 16 16 (819200)
I1006 20:10:34.352996  3817 net.cpp:137] Memory required for data: 532071600
I1006 20:10:34.353001  3817 layer_factory.hpp:77] Creating layer Convolution20
I1006 20:10:34.353009  3817 net.cpp:84] Creating Layer Convolution20
I1006 20:10:34.353013  3817 net.cpp:406] Convolution20 <- Convolution19
I1006 20:10:34.353020  3817 net.cpp:380] Convolution20 -> Convolution20
I1006 20:10:34.353860  3817 net.cpp:122] Setting up Convolution20
I1006 20:10:34.353868  3817 net.cpp:129] Top shape: 100 32 16 16 (819200)
I1006 20:10:34.353871  3817 net.cpp:137] Memory required for data: 535348400
I1006 20:10:34.353878  3817 layer_factory.hpp:77] Creating layer BatchNorm20
I1006 20:10:34.353888  3817 net.cpp:84] Creating Layer BatchNorm20
I1006 20:10:34.353893  3817 net.cpp:406] BatchNorm20 <- Convolution20
I1006 20:10:34.353899  3817 net.cpp:367] BatchNorm20 -> Convolution20 (in-place)
I1006 20:10:34.354102  3817 net.cpp:122] Setting up BatchNorm20
I1006 20:10:34.354112  3817 net.cpp:129] Top shape: 100 32 16 16 (819200)
I1006 20:10:34.354116  3817 net.cpp:137] Memory required for data: 538625200
I1006 20:10:34.354125  3817 layer_factory.hpp:77] Creating layer Scale20
I1006 20:10:34.354130  3817 net.cpp:84] Creating Layer Scale20
I1006 20:10:34.354135  3817 net.cpp:406] Scale20 <- Convolution20
I1006 20:10:34.354151  3817 net.cpp:367] Scale20 -> Convolution20 (in-place)
I1006 20:10:34.354200  3817 layer_factory.hpp:77] Creating layer Scale20
I1006 20:10:34.354339  3817 net.cpp:122] Setting up Scale20
I1006 20:10:34.354351  3817 net.cpp:129] Top shape: 100 32 16 16 (819200)
I1006 20:10:34.354354  3817 net.cpp:137] Memory required for data: 541902000
I1006 20:10:34.354362  3817 layer_factory.hpp:77] Creating layer Eltwise9
I1006 20:10:34.354367  3817 net.cpp:84] Creating Layer Eltwise9
I1006 20:10:34.354372  3817 net.cpp:406] Eltwise9 <- Eltwise8_PReLU17_0_split_1
I1006 20:10:34.354377  3817 net.cpp:406] Eltwise9 <- Convolution20
I1006 20:10:34.354384  3817 net.cpp:380] Eltwise9 -> Eltwise9
I1006 20:10:34.354408  3817 net.cpp:122] Setting up Eltwise9
I1006 20:10:34.354413  3817 net.cpp:129] Top shape: 100 32 16 16 (819200)
I1006 20:10:34.354418  3817 net.cpp:137] Memory required for data: 545178800
I1006 20:10:34.354420  3817 layer_factory.hpp:77] Creating layer PReLU19
I1006 20:10:34.354426  3817 net.cpp:84] Creating Layer PReLU19
I1006 20:10:34.354430  3817 net.cpp:406] PReLU19 <- Eltwise9
I1006 20:10:34.354435  3817 net.cpp:367] PReLU19 -> Eltwise9 (in-place)
I1006 20:10:34.354540  3817 net.cpp:122] Setting up PReLU19
I1006 20:10:34.354550  3817 net.cpp:129] Top shape: 100 32 16 16 (819200)
I1006 20:10:34.354554  3817 net.cpp:137] Memory required for data: 548455600
I1006 20:10:34.354560  3817 layer_factory.hpp:77] Creating layer Eltwise9_PReLU19_0_split
I1006 20:10:34.354567  3817 net.cpp:84] Creating Layer Eltwise9_PReLU19_0_split
I1006 20:10:34.354570  3817 net.cpp:406] Eltwise9_PReLU19_0_split <- Eltwise9
I1006 20:10:34.354576  3817 net.cpp:380] Eltwise9_PReLU19_0_split -> Eltwise9_PReLU19_0_split_0
I1006 20:10:34.354583  3817 net.cpp:380] Eltwise9_PReLU19_0_split -> Eltwise9_PReLU19_0_split_1
I1006 20:10:34.354627  3817 net.cpp:122] Setting up Eltwise9_PReLU19_0_split
I1006 20:10:34.354637  3817 net.cpp:129] Top shape: 100 32 16 16 (819200)
I1006 20:10:34.354642  3817 net.cpp:129] Top shape: 100 32 16 16 (819200)
I1006 20:10:34.354646  3817 net.cpp:137] Memory required for data: 555009200
I1006 20:10:34.354650  3817 layer_factory.hpp:77] Creating layer Convolution21
I1006 20:10:34.354658  3817 net.cpp:84] Creating Layer Convolution21
I1006 20:10:34.354661  3817 net.cpp:406] Convolution21 <- Eltwise9_PReLU19_0_split_0
I1006 20:10:34.354666  3817 net.cpp:380] Convolution21 -> Convolution21
I1006 20:10:34.355799  3817 net.cpp:122] Setting up Convolution21
I1006 20:10:34.355808  3817 net.cpp:129] Top shape: 100 32 16 16 (819200)
I1006 20:10:34.355811  3817 net.cpp:137] Memory required for data: 558286000
I1006 20:10:34.355815  3817 layer_factory.hpp:77] Creating layer BatchNorm21
I1006 20:10:34.355821  3817 net.cpp:84] Creating Layer BatchNorm21
I1006 20:10:34.355824  3817 net.cpp:406] BatchNorm21 <- Convolution21
I1006 20:10:34.355828  3817 net.cpp:367] BatchNorm21 -> Convolution21 (in-place)
I1006 20:10:34.355973  3817 net.cpp:122] Setting up BatchNorm21
I1006 20:10:34.355978  3817 net.cpp:129] Top shape: 100 32 16 16 (819200)
I1006 20:10:34.355980  3817 net.cpp:137] Memory required for data: 561562800
I1006 20:10:34.355985  3817 layer_factory.hpp:77] Creating layer Scale21
I1006 20:10:34.355989  3817 net.cpp:84] Creating Layer Scale21
I1006 20:10:34.355993  3817 net.cpp:406] Scale21 <- Convolution21
I1006 20:10:34.355995  3817 net.cpp:367] Scale21 -> Convolution21 (in-place)
I1006 20:10:34.356025  3817 layer_factory.hpp:77] Creating layer Scale21
I1006 20:10:34.356111  3817 net.cpp:122] Setting up Scale21
I1006 20:10:34.356114  3817 net.cpp:129] Top shape: 100 32 16 16 (819200)
I1006 20:10:34.356117  3817 net.cpp:137] Memory required for data: 564839600
I1006 20:10:34.356120  3817 layer_factory.hpp:77] Creating layer PReLU20
I1006 20:10:34.356125  3817 net.cpp:84] Creating Layer PReLU20
I1006 20:10:34.356128  3817 net.cpp:406] PReLU20 <- Convolution21
I1006 20:10:34.356132  3817 net.cpp:367] PReLU20 -> Convolution21 (in-place)
I1006 20:10:34.356195  3817 net.cpp:122] Setting up PReLU20
I1006 20:10:34.356199  3817 net.cpp:129] Top shape: 100 32 16 16 (819200)
I1006 20:10:34.356209  3817 net.cpp:137] Memory required for data: 568116400
I1006 20:10:34.356212  3817 layer_factory.hpp:77] Creating layer Convolution22
I1006 20:10:34.356220  3817 net.cpp:84] Creating Layer Convolution22
I1006 20:10:34.356221  3817 net.cpp:406] Convolution22 <- Convolution21
I1006 20:10:34.356226  3817 net.cpp:380] Convolution22 -> Convolution22
I1006 20:10:34.357321  3817 net.cpp:122] Setting up Convolution22
I1006 20:10:34.357329  3817 net.cpp:129] Top shape: 100 32 16 16 (819200)
I1006 20:10:34.357332  3817 net.cpp:137] Memory required for data: 571393200
I1006 20:10:34.357336  3817 layer_factory.hpp:77] Creating layer BatchNorm22
I1006 20:10:34.357342  3817 net.cpp:84] Creating Layer BatchNorm22
I1006 20:10:34.357344  3817 net.cpp:406] BatchNorm22 <- Convolution22
I1006 20:10:34.357349  3817 net.cpp:367] BatchNorm22 -> Convolution22 (in-place)
I1006 20:10:34.357493  3817 net.cpp:122] Setting up BatchNorm22
I1006 20:10:34.357497  3817 net.cpp:129] Top shape: 100 32 16 16 (819200)
I1006 20:10:34.357499  3817 net.cpp:137] Memory required for data: 574670000
I1006 20:10:34.357504  3817 layer_factory.hpp:77] Creating layer Scale22
I1006 20:10:34.357508  3817 net.cpp:84] Creating Layer Scale22
I1006 20:10:34.357511  3817 net.cpp:406] Scale22 <- Convolution22
I1006 20:10:34.357516  3817 net.cpp:367] Scale22 -> Convolution22 (in-place)
I1006 20:10:34.357543  3817 layer_factory.hpp:77] Creating layer Scale22
I1006 20:10:34.357627  3817 net.cpp:122] Setting up Scale22
I1006 20:10:34.357631  3817 net.cpp:129] Top shape: 100 32 16 16 (819200)
I1006 20:10:34.357633  3817 net.cpp:137] Memory required for data: 577946800
I1006 20:10:34.357637  3817 layer_factory.hpp:77] Creating layer Eltwise10
I1006 20:10:34.357641  3817 net.cpp:84] Creating Layer Eltwise10
I1006 20:10:34.357643  3817 net.cpp:406] Eltwise10 <- Eltwise9_PReLU19_0_split_1
I1006 20:10:34.357646  3817 net.cpp:406] Eltwise10 <- Convolution22
I1006 20:10:34.357650  3817 net.cpp:380] Eltwise10 -> Eltwise10
I1006 20:10:34.357664  3817 net.cpp:122] Setting up Eltwise10
I1006 20:10:34.357668  3817 net.cpp:129] Top shape: 100 32 16 16 (819200)
I1006 20:10:34.357671  3817 net.cpp:137] Memory required for data: 581223600
I1006 20:10:34.357672  3817 layer_factory.hpp:77] Creating layer PReLU21
I1006 20:10:34.357676  3817 net.cpp:84] Creating Layer PReLU21
I1006 20:10:34.357678  3817 net.cpp:406] PReLU21 <- Eltwise10
I1006 20:10:34.357681  3817 net.cpp:367] PReLU21 -> Eltwise10 (in-place)
I1006 20:10:34.357750  3817 net.cpp:122] Setting up PReLU21
I1006 20:10:34.357754  3817 net.cpp:129] Top shape: 100 32 16 16 (819200)
I1006 20:10:34.357756  3817 net.cpp:137] Memory required for data: 584500400
I1006 20:10:34.357759  3817 layer_factory.hpp:77] Creating layer Eltwise10_PReLU21_0_split
I1006 20:10:34.357764  3817 net.cpp:84] Creating Layer Eltwise10_PReLU21_0_split
I1006 20:10:34.357766  3817 net.cpp:406] Eltwise10_PReLU21_0_split <- Eltwise10
I1006 20:10:34.357769  3817 net.cpp:380] Eltwise10_PReLU21_0_split -> Eltwise10_PReLU21_0_split_0
I1006 20:10:34.357775  3817 net.cpp:380] Eltwise10_PReLU21_0_split -> Eltwise10_PReLU21_0_split_1
I1006 20:10:34.357800  3817 net.cpp:122] Setting up Eltwise10_PReLU21_0_split
I1006 20:10:34.357805  3817 net.cpp:129] Top shape: 100 32 16 16 (819200)
I1006 20:10:34.357806  3817 net.cpp:129] Top shape: 100 32 16 16 (819200)
I1006 20:10:34.357808  3817 net.cpp:137] Memory required for data: 591054000
I1006 20:10:34.357811  3817 layer_factory.hpp:77] Creating layer Convolution23
I1006 20:10:34.357817  3817 net.cpp:84] Creating Layer Convolution23
I1006 20:10:34.357820  3817 net.cpp:406] Convolution23 <- Eltwise10_PReLU21_0_split_0
I1006 20:10:34.357825  3817 net.cpp:380] Convolution23 -> Convolution23
I1006 20:10:34.358781  3817 net.cpp:122] Setting up Convolution23
I1006 20:10:34.358790  3817 net.cpp:129] Top shape: 100 64 8 8 (409600)
I1006 20:10:34.358793  3817 net.cpp:137] Memory required for data: 592692400
I1006 20:10:34.358798  3817 layer_factory.hpp:77] Creating layer BatchNorm23
I1006 20:10:34.358808  3817 net.cpp:84] Creating Layer BatchNorm23
I1006 20:10:34.358811  3817 net.cpp:406] BatchNorm23 <- Convolution23
I1006 20:10:34.358816  3817 net.cpp:367] BatchNorm23 -> Convolution23 (in-place)
I1006 20:10:34.358966  3817 net.cpp:122] Setting up BatchNorm23
I1006 20:10:34.358971  3817 net.cpp:129] Top shape: 100 64 8 8 (409600)
I1006 20:10:34.358973  3817 net.cpp:137] Memory required for data: 594330800
I1006 20:10:34.358978  3817 layer_factory.hpp:77] Creating layer Scale23
I1006 20:10:34.358983  3817 net.cpp:84] Creating Layer Scale23
I1006 20:10:34.358985  3817 net.cpp:406] Scale23 <- Convolution23
I1006 20:10:34.358989  3817 net.cpp:367] Scale23 -> Convolution23 (in-place)
I1006 20:10:34.359017  3817 layer_factory.hpp:77] Creating layer Scale23
I1006 20:10:34.359104  3817 net.cpp:122] Setting up Scale23
I1006 20:10:34.359108  3817 net.cpp:129] Top shape: 100 64 8 8 (409600)
I1006 20:10:34.359112  3817 net.cpp:137] Memory required for data: 595969200
I1006 20:10:34.359114  3817 layer_factory.hpp:77] Creating layer Convolution24
I1006 20:10:34.359122  3817 net.cpp:84] Creating Layer Convolution24
I1006 20:10:34.359124  3817 net.cpp:406] Convolution24 <- Eltwise10_PReLU21_0_split_1
I1006 20:10:34.359129  3817 net.cpp:380] Convolution24 -> Convolution24
I1006 20:10:34.360473  3817 net.cpp:122] Setting up Convolution24
I1006 20:10:34.360482  3817 net.cpp:129] Top shape: 100 64 8 8 (409600)
I1006 20:10:34.360486  3817 net.cpp:137] Memory required for data: 597607600
I1006 20:10:34.360489  3817 layer_factory.hpp:77] Creating layer BatchNorm24
I1006 20:10:34.360494  3817 net.cpp:84] Creating Layer BatchNorm24
I1006 20:10:34.360497  3817 net.cpp:406] BatchNorm24 <- Convolution24
I1006 20:10:34.360502  3817 net.cpp:367] BatchNorm24 -> Convolution24 (in-place)
I1006 20:10:34.360653  3817 net.cpp:122] Setting up BatchNorm24
I1006 20:10:34.360657  3817 net.cpp:129] Top shape: 100 64 8 8 (409600)
I1006 20:10:34.360659  3817 net.cpp:137] Memory required for data: 599246000
I1006 20:10:34.360664  3817 layer_factory.hpp:77] Creating layer Scale24
I1006 20:10:34.360668  3817 net.cpp:84] Creating Layer Scale24
I1006 20:10:34.360671  3817 net.cpp:406] Scale24 <- Convolution24
I1006 20:10:34.360674  3817 net.cpp:367] Scale24 -> Convolution24 (in-place)
I1006 20:10:34.360704  3817 layer_factory.hpp:77] Creating layer Scale24
I1006 20:10:34.360790  3817 net.cpp:122] Setting up Scale24
I1006 20:10:34.360795  3817 net.cpp:129] Top shape: 100 64 8 8 (409600)
I1006 20:10:34.360796  3817 net.cpp:137] Memory required for data: 600884400
I1006 20:10:34.360800  3817 layer_factory.hpp:77] Creating layer PReLU22
I1006 20:10:34.360805  3817 net.cpp:84] Creating Layer PReLU22
I1006 20:10:34.360806  3817 net.cpp:406] PReLU22 <- Convolution24
I1006 20:10:34.360810  3817 net.cpp:367] PReLU22 -> Convolution24 (in-place)
I1006 20:10:34.360877  3817 net.cpp:122] Setting up PReLU22
I1006 20:10:34.360880  3817 net.cpp:129] Top shape: 100 64 8 8 (409600)
I1006 20:10:34.360882  3817 net.cpp:137] Memory required for data: 602522800
I1006 20:10:34.360885  3817 layer_factory.hpp:77] Creating layer Convolution25
I1006 20:10:34.360893  3817 net.cpp:84] Creating Layer Convolution25
I1006 20:10:34.360894  3817 net.cpp:406] Convolution25 <- Convolution24
I1006 20:10:34.360898  3817 net.cpp:380] Convolution25 -> Convolution25
I1006 20:10:34.362632  3817 net.cpp:122] Setting up Convolution25
I1006 20:10:34.362640  3817 net.cpp:129] Top shape: 100 64 8 8 (409600)
I1006 20:10:34.362643  3817 net.cpp:137] Memory required for data: 604161200
I1006 20:10:34.362648  3817 layer_factory.hpp:77] Creating layer BatchNorm25
I1006 20:10:34.362653  3817 net.cpp:84] Creating Layer BatchNorm25
I1006 20:10:34.362655  3817 net.cpp:406] BatchNorm25 <- Convolution25
I1006 20:10:34.362658  3817 net.cpp:367] BatchNorm25 -> Convolution25 (in-place)
I1006 20:10:34.362807  3817 net.cpp:122] Setting up BatchNorm25
I1006 20:10:34.362810  3817 net.cpp:129] Top shape: 100 64 8 8 (409600)
I1006 20:10:34.362812  3817 net.cpp:137] Memory required for data: 605799600
I1006 20:10:34.362824  3817 layer_factory.hpp:77] Creating layer Scale25
I1006 20:10:34.362830  3817 net.cpp:84] Creating Layer Scale25
I1006 20:10:34.362833  3817 net.cpp:406] Scale25 <- Convolution25
I1006 20:10:34.362836  3817 net.cpp:367] Scale25 -> Convolution25 (in-place)
I1006 20:10:34.382169  3817 layer_factory.hpp:77] Creating layer Scale25
I1006 20:10:34.382273  3817 net.cpp:122] Setting up Scale25
I1006 20:10:34.382279  3817 net.cpp:129] Top shape: 100 64 8 8 (409600)
I1006 20:10:34.382282  3817 net.cpp:137] Memory required for data: 607438000
I1006 20:10:34.382287  3817 layer_factory.hpp:77] Creating layer Eltwise11
I1006 20:10:34.382292  3817 net.cpp:84] Creating Layer Eltwise11
I1006 20:10:34.382295  3817 net.cpp:406] Eltwise11 <- Convolution23
I1006 20:10:34.382299  3817 net.cpp:406] Eltwise11 <- Convolution25
I1006 20:10:34.382302  3817 net.cpp:380] Eltwise11 -> Eltwise11
I1006 20:10:34.382323  3817 net.cpp:122] Setting up Eltwise11
I1006 20:10:34.382328  3817 net.cpp:129] Top shape: 100 64 8 8 (409600)
I1006 20:10:34.382330  3817 net.cpp:137] Memory required for data: 609076400
I1006 20:10:34.382333  3817 layer_factory.hpp:77] Creating layer PReLU23
I1006 20:10:34.382336  3817 net.cpp:84] Creating Layer PReLU23
I1006 20:10:34.382339  3817 net.cpp:406] PReLU23 <- Eltwise11
I1006 20:10:34.382344  3817 net.cpp:367] PReLU23 -> Eltwise11 (in-place)
I1006 20:10:34.382416  3817 net.cpp:122] Setting up PReLU23
I1006 20:10:34.382421  3817 net.cpp:129] Top shape: 100 64 8 8 (409600)
I1006 20:10:34.382423  3817 net.cpp:137] Memory required for data: 610714800
I1006 20:10:34.382427  3817 layer_factory.hpp:77] Creating layer Eltwise11_PReLU23_0_split
I1006 20:10:34.382431  3817 net.cpp:84] Creating Layer Eltwise11_PReLU23_0_split
I1006 20:10:34.382433  3817 net.cpp:406] Eltwise11_PReLU23_0_split <- Eltwise11
I1006 20:10:34.382436  3817 net.cpp:380] Eltwise11_PReLU23_0_split -> Eltwise11_PReLU23_0_split_0
I1006 20:10:34.382441  3817 net.cpp:380] Eltwise11_PReLU23_0_split -> Eltwise11_PReLU23_0_split_1
I1006 20:10:34.382469  3817 net.cpp:122] Setting up Eltwise11_PReLU23_0_split
I1006 20:10:34.382473  3817 net.cpp:129] Top shape: 100 64 8 8 (409600)
I1006 20:10:34.382477  3817 net.cpp:129] Top shape: 100 64 8 8 (409600)
I1006 20:10:34.382479  3817 net.cpp:137] Memory required for data: 613991600
I1006 20:10:34.382481  3817 layer_factory.hpp:77] Creating layer Convolution26
I1006 20:10:34.382489  3817 net.cpp:84] Creating Layer Convolution26
I1006 20:10:34.382493  3817 net.cpp:406] Convolution26 <- Eltwise11_PReLU23_0_split_0
I1006 20:10:34.382498  3817 net.cpp:380] Convolution26 -> Convolution26
I1006 20:10:34.384596  3817 net.cpp:122] Setting up Convolution26
I1006 20:10:34.384606  3817 net.cpp:129] Top shape: 100 64 8 8 (409600)
I1006 20:10:34.384608  3817 net.cpp:137] Memory required for data: 615630000
I1006 20:10:34.384613  3817 layer_factory.hpp:77] Creating layer BatchNorm26
I1006 20:10:34.384618  3817 net.cpp:84] Creating Layer BatchNorm26
I1006 20:10:34.384621  3817 net.cpp:406] BatchNorm26 <- Convolution26
I1006 20:10:34.384625  3817 net.cpp:367] BatchNorm26 -> Convolution26 (in-place)
I1006 20:10:34.384773  3817 net.cpp:122] Setting up BatchNorm26
I1006 20:10:34.384778  3817 net.cpp:129] Top shape: 100 64 8 8 (409600)
I1006 20:10:34.384779  3817 net.cpp:137] Memory required for data: 617268400
I1006 20:10:34.384784  3817 layer_factory.hpp:77] Creating layer Scale26
I1006 20:10:34.384788  3817 net.cpp:84] Creating Layer Scale26
I1006 20:10:34.384791  3817 net.cpp:406] Scale26 <- Convolution26
I1006 20:10:34.384794  3817 net.cpp:367] Scale26 -> Convolution26 (in-place)
I1006 20:10:34.384824  3817 layer_factory.hpp:77] Creating layer Scale26
I1006 20:10:34.384909  3817 net.cpp:122] Setting up Scale26
I1006 20:10:34.384913  3817 net.cpp:129] Top shape: 100 64 8 8 (409600)
I1006 20:10:34.384917  3817 net.cpp:137] Memory required for data: 618906800
I1006 20:10:34.384919  3817 layer_factory.hpp:77] Creating layer PReLU24
I1006 20:10:34.384923  3817 net.cpp:84] Creating Layer PReLU24
I1006 20:10:34.384927  3817 net.cpp:406] PReLU24 <- Convolution26
I1006 20:10:34.384935  3817 net.cpp:367] PReLU24 -> Convolution26 (in-place)
I1006 20:10:34.385004  3817 net.cpp:122] Setting up PReLU24
I1006 20:10:34.385009  3817 net.cpp:129] Top shape: 100 64 8 8 (409600)
I1006 20:10:34.385011  3817 net.cpp:137] Memory required for data: 620545200
I1006 20:10:34.385015  3817 layer_factory.hpp:77] Creating layer Convolution27
I1006 20:10:34.385020  3817 net.cpp:84] Creating Layer Convolution27
I1006 20:10:34.385022  3817 net.cpp:406] Convolution27 <- Convolution26
I1006 20:10:34.385026  3817 net.cpp:380] Convolution27 -> Convolution27
I1006 20:10:34.386931  3817 net.cpp:122] Setting up Convolution27
I1006 20:10:34.386941  3817 net.cpp:129] Top shape: 100 64 8 8 (409600)
I1006 20:10:34.386943  3817 net.cpp:137] Memory required for data: 622183600
I1006 20:10:34.386948  3817 layer_factory.hpp:77] Creating layer BatchNorm27
I1006 20:10:34.386966  3817 net.cpp:84] Creating Layer BatchNorm27
I1006 20:10:34.386970  3817 net.cpp:406] BatchNorm27 <- Convolution27
I1006 20:10:34.386973  3817 net.cpp:367] BatchNorm27 -> Convolution27 (in-place)
I1006 20:10:34.387121  3817 net.cpp:122] Setting up BatchNorm27
I1006 20:10:34.387125  3817 net.cpp:129] Top shape: 100 64 8 8 (409600)
I1006 20:10:34.387127  3817 net.cpp:137] Memory required for data: 623822000
I1006 20:10:34.387133  3817 layer_factory.hpp:77] Creating layer Scale27
I1006 20:10:34.387137  3817 net.cpp:84] Creating Layer Scale27
I1006 20:10:34.387140  3817 net.cpp:406] Scale27 <- Convolution27
I1006 20:10:34.387143  3817 net.cpp:367] Scale27 -> Convolution27 (in-place)
I1006 20:10:34.387188  3817 layer_factory.hpp:77] Creating layer Scale27
I1006 20:10:34.387293  3817 net.cpp:122] Setting up Scale27
I1006 20:10:34.387297  3817 net.cpp:129] Top shape: 100 64 8 8 (409600)
I1006 20:10:34.387300  3817 net.cpp:137] Memory required for data: 625460400
I1006 20:10:34.387303  3817 layer_factory.hpp:77] Creating layer Eltwise12
I1006 20:10:34.387307  3817 net.cpp:84] Creating Layer Eltwise12
I1006 20:10:34.387310  3817 net.cpp:406] Eltwise12 <- Eltwise11_PReLU23_0_split_1
I1006 20:10:34.387313  3817 net.cpp:406] Eltwise12 <- Convolution27
I1006 20:10:34.387317  3817 net.cpp:380] Eltwise12 -> Eltwise12
I1006 20:10:34.387334  3817 net.cpp:122] Setting up Eltwise12
I1006 20:10:34.387338  3817 net.cpp:129] Top shape: 100 64 8 8 (409600)
I1006 20:10:34.387341  3817 net.cpp:137] Memory required for data: 627098800
I1006 20:10:34.387342  3817 layer_factory.hpp:77] Creating layer PReLU25
I1006 20:10:34.387346  3817 net.cpp:84] Creating Layer PReLU25
I1006 20:10:34.387348  3817 net.cpp:406] PReLU25 <- Eltwise12
I1006 20:10:34.387351  3817 net.cpp:367] PReLU25 -> Eltwise12 (in-place)
I1006 20:10:34.387415  3817 net.cpp:122] Setting up PReLU25
I1006 20:10:34.387419  3817 net.cpp:129] Top shape: 100 64 8 8 (409600)
I1006 20:10:34.387421  3817 net.cpp:137] Memory required for data: 628737200
I1006 20:10:34.387424  3817 layer_factory.hpp:77] Creating layer Eltwise12_PReLU25_0_split
I1006 20:10:34.387428  3817 net.cpp:84] Creating Layer Eltwise12_PReLU25_0_split
I1006 20:10:34.387429  3817 net.cpp:406] Eltwise12_PReLU25_0_split <- Eltwise12
I1006 20:10:34.387434  3817 net.cpp:380] Eltwise12_PReLU25_0_split -> Eltwise12_PReLU25_0_split_0
I1006 20:10:34.387437  3817 net.cpp:380] Eltwise12_PReLU25_0_split -> Eltwise12_PReLU25_0_split_1
I1006 20:10:34.387462  3817 net.cpp:122] Setting up Eltwise12_PReLU25_0_split
I1006 20:10:34.387466  3817 net.cpp:129] Top shape: 100 64 8 8 (409600)
I1006 20:10:34.387470  3817 net.cpp:129] Top shape: 100 64 8 8 (409600)
I1006 20:10:34.387471  3817 net.cpp:137] Memory required for data: 632014000
I1006 20:10:34.387473  3817 layer_factory.hpp:77] Creating layer Convolution28
I1006 20:10:34.387480  3817 net.cpp:84] Creating Layer Convolution28
I1006 20:10:34.387482  3817 net.cpp:406] Convolution28 <- Eltwise12_PReLU25_0_split_0
I1006 20:10:34.387486  3817 net.cpp:380] Convolution28 -> Convolution28
I1006 20:10:34.389467  3817 net.cpp:122] Setting up Convolution28
I1006 20:10:34.389474  3817 net.cpp:129] Top shape: 100 64 8 8 (409600)
I1006 20:10:34.389484  3817 net.cpp:137] Memory required for data: 633652400
I1006 20:10:34.389489  3817 layer_factory.hpp:77] Creating layer BatchNorm28
I1006 20:10:34.389495  3817 net.cpp:84] Creating Layer BatchNorm28
I1006 20:10:34.389498  3817 net.cpp:406] BatchNorm28 <- Convolution28
I1006 20:10:34.389502  3817 net.cpp:367] BatchNorm28 -> Convolution28 (in-place)
I1006 20:10:34.389652  3817 net.cpp:122] Setting up BatchNorm28
I1006 20:10:34.389657  3817 net.cpp:129] Top shape: 100 64 8 8 (409600)
I1006 20:10:34.389658  3817 net.cpp:137] Memory required for data: 635290800
I1006 20:10:34.389663  3817 layer_factory.hpp:77] Creating layer Scale28
I1006 20:10:34.389668  3817 net.cpp:84] Creating Layer Scale28
I1006 20:10:34.389670  3817 net.cpp:406] Scale28 <- Convolution28
I1006 20:10:34.389673  3817 net.cpp:367] Scale28 -> Convolution28 (in-place)
I1006 20:10:34.389703  3817 layer_factory.hpp:77] Creating layer Scale28
I1006 20:10:34.389787  3817 net.cpp:122] Setting up Scale28
I1006 20:10:34.389791  3817 net.cpp:129] Top shape: 100 64 8 8 (409600)
I1006 20:10:34.389793  3817 net.cpp:137] Memory required for data: 636929200
I1006 20:10:34.389797  3817 layer_factory.hpp:77] Creating layer PReLU26
I1006 20:10:34.389801  3817 net.cpp:84] Creating Layer PReLU26
I1006 20:10:34.389803  3817 net.cpp:406] PReLU26 <- Convolution28
I1006 20:10:34.389806  3817 net.cpp:367] PReLU26 -> Convolution28 (in-place)
I1006 20:10:34.389871  3817 net.cpp:122] Setting up PReLU26
I1006 20:10:34.389875  3817 net.cpp:129] Top shape: 100 64 8 8 (409600)
I1006 20:10:34.389878  3817 net.cpp:137] Memory required for data: 638567600
I1006 20:10:34.389879  3817 layer_factory.hpp:77] Creating layer Convolution29
I1006 20:10:34.389886  3817 net.cpp:84] Creating Layer Convolution29
I1006 20:10:34.389889  3817 net.cpp:406] Convolution29 <- Convolution28
I1006 20:10:34.389892  3817 net.cpp:380] Convolution29 -> Convolution29
I1006 20:10:34.392119  3817 net.cpp:122] Setting up Convolution29
I1006 20:10:34.392128  3817 net.cpp:129] Top shape: 100 64 8 8 (409600)
I1006 20:10:34.392130  3817 net.cpp:137] Memory required for data: 640206000
I1006 20:10:34.392135  3817 layer_factory.hpp:77] Creating layer BatchNorm29
I1006 20:10:34.392140  3817 net.cpp:84] Creating Layer BatchNorm29
I1006 20:10:34.392143  3817 net.cpp:406] BatchNorm29 <- Convolution29
I1006 20:10:34.392148  3817 net.cpp:367] BatchNorm29 -> Convolution29 (in-place)
I1006 20:10:34.392318  3817 net.cpp:122] Setting up BatchNorm29
I1006 20:10:34.392321  3817 net.cpp:129] Top shape: 100 64 8 8 (409600)
I1006 20:10:34.392323  3817 net.cpp:137] Memory required for data: 641844400
I1006 20:10:34.392328  3817 layer_factory.hpp:77] Creating layer Scale29
I1006 20:10:34.392331  3817 net.cpp:84] Creating Layer Scale29
I1006 20:10:34.392334  3817 net.cpp:406] Scale29 <- Convolution29
I1006 20:10:34.392338  3817 net.cpp:367] Scale29 -> Convolution29 (in-place)
I1006 20:10:34.392367  3817 layer_factory.hpp:77] Creating layer Scale29
I1006 20:10:34.392452  3817 net.cpp:122] Setting up Scale29
I1006 20:10:34.392457  3817 net.cpp:129] Top shape: 100 64 8 8 (409600)
I1006 20:10:34.392458  3817 net.cpp:137] Memory required for data: 643482800
I1006 20:10:34.392462  3817 layer_factory.hpp:77] Creating layer Eltwise13
I1006 20:10:34.392467  3817 net.cpp:84] Creating Layer Eltwise13
I1006 20:10:34.392468  3817 net.cpp:406] Eltwise13 <- Eltwise12_PReLU25_0_split_1
I1006 20:10:34.392472  3817 net.cpp:406] Eltwise13 <- Convolution29
I1006 20:10:34.392474  3817 net.cpp:380] Eltwise13 -> Eltwise13
I1006 20:10:34.392493  3817 net.cpp:122] Setting up Eltwise13
I1006 20:10:34.392496  3817 net.cpp:129] Top shape: 100 64 8 8 (409600)
I1006 20:10:34.392498  3817 net.cpp:137] Memory required for data: 645121200
I1006 20:10:34.392500  3817 layer_factory.hpp:77] Creating layer PReLU27
I1006 20:10:34.392503  3817 net.cpp:84] Creating Layer PReLU27
I1006 20:10:34.392505  3817 net.cpp:406] PReLU27 <- Eltwise13
I1006 20:10:34.392509  3817 net.cpp:367] PReLU27 -> Eltwise13 (in-place)
I1006 20:10:34.392585  3817 net.cpp:122] Setting up PReLU27
I1006 20:10:34.392590  3817 net.cpp:129] Top shape: 100 64 8 8 (409600)
I1006 20:10:34.392592  3817 net.cpp:137] Memory required for data: 646759600
I1006 20:10:34.392596  3817 layer_factory.hpp:77] Creating layer Eltwise13_PReLU27_0_split
I1006 20:10:34.392601  3817 net.cpp:84] Creating Layer Eltwise13_PReLU27_0_split
I1006 20:10:34.392602  3817 net.cpp:406] Eltwise13_PReLU27_0_split <- Eltwise13
I1006 20:10:34.392606  3817 net.cpp:380] Eltwise13_PReLU27_0_split -> Eltwise13_PReLU27_0_split_0
I1006 20:10:34.392611  3817 net.cpp:380] Eltwise13_PReLU27_0_split -> Eltwise13_PReLU27_0_split_1
I1006 20:10:34.392637  3817 net.cpp:122] Setting up Eltwise13_PReLU27_0_split
I1006 20:10:34.392642  3817 net.cpp:129] Top shape: 100 64 8 8 (409600)
I1006 20:10:34.392643  3817 net.cpp:129] Top shape: 100 64 8 8 (409600)
I1006 20:10:34.392645  3817 net.cpp:137] Memory required for data: 650036400
I1006 20:10:34.392647  3817 layer_factory.hpp:77] Creating layer Convolution30
I1006 20:10:34.392654  3817 net.cpp:84] Creating Layer Convolution30
I1006 20:10:34.392657  3817 net.cpp:406] Convolution30 <- Eltwise13_PReLU27_0_split_0
I1006 20:10:34.392662  3817 net.cpp:380] Convolution30 -> Convolution30
I1006 20:10:34.394656  3817 net.cpp:122] Setting up Convolution30
I1006 20:10:34.394665  3817 net.cpp:129] Top shape: 100 64 8 8 (409600)
I1006 20:10:34.394667  3817 net.cpp:137] Memory required for data: 651674800
I1006 20:10:34.394672  3817 layer_factory.hpp:77] Creating layer BatchNorm30
I1006 20:10:34.394677  3817 net.cpp:84] Creating Layer BatchNorm30
I1006 20:10:34.394680  3817 net.cpp:406] BatchNorm30 <- Convolution30
I1006 20:10:34.394685  3817 net.cpp:367] BatchNorm30 -> Convolution30 (in-place)
I1006 20:10:34.394835  3817 net.cpp:122] Setting up BatchNorm30
I1006 20:10:34.394840  3817 net.cpp:129] Top shape: 100 64 8 8 (409600)
I1006 20:10:34.394841  3817 net.cpp:137] Memory required for data: 653313200
I1006 20:10:34.394846  3817 layer_factory.hpp:77] Creating layer Scale30
I1006 20:10:34.394851  3817 net.cpp:84] Creating Layer Scale30
I1006 20:10:34.394853  3817 net.cpp:406] Scale30 <- Convolution30
I1006 20:10:34.394856  3817 net.cpp:367] Scale30 -> Convolution30 (in-place)
I1006 20:10:34.394886  3817 layer_factory.hpp:77] Creating layer Scale30
I1006 20:10:34.394974  3817 net.cpp:122] Setting up Scale30
I1006 20:10:34.394979  3817 net.cpp:129] Top shape: 100 64 8 8 (409600)
I1006 20:10:34.394980  3817 net.cpp:137] Memory required for data: 654951600
I1006 20:10:34.394984  3817 layer_factory.hpp:77] Creating layer PReLU28
I1006 20:10:34.394987  3817 net.cpp:84] Creating Layer PReLU28
I1006 20:10:34.394989  3817 net.cpp:406] PReLU28 <- Convolution30
I1006 20:10:34.394994  3817 net.cpp:367] PReLU28 -> Convolution30 (in-place)
I1006 20:10:34.395059  3817 net.cpp:122] Setting up PReLU28
I1006 20:10:34.395063  3817 net.cpp:129] Top shape: 100 64 8 8 (409600)
I1006 20:10:34.395066  3817 net.cpp:137] Memory required for data: 656590000
I1006 20:10:34.395068  3817 layer_factory.hpp:77] Creating layer Convolution31
I1006 20:10:34.395076  3817 net.cpp:84] Creating Layer Convolution31
I1006 20:10:34.395077  3817 net.cpp:406] Convolution31 <- Convolution30
I1006 20:10:34.395081  3817 net.cpp:380] Convolution31 -> Convolution31
I1006 20:10:34.396800  3817 net.cpp:122] Setting up Convolution31
I1006 20:10:34.396808  3817 net.cpp:129] Top shape: 100 64 8 8 (409600)
I1006 20:10:34.396811  3817 net.cpp:137] Memory required for data: 658228400
I1006 20:10:34.396816  3817 layer_factory.hpp:77] Creating layer BatchNorm31
I1006 20:10:34.396821  3817 net.cpp:84] Creating Layer BatchNorm31
I1006 20:10:34.396824  3817 net.cpp:406] BatchNorm31 <- Convolution31
I1006 20:10:34.396827  3817 net.cpp:367] BatchNorm31 -> Convolution31 (in-place)
I1006 20:10:34.396975  3817 net.cpp:122] Setting up BatchNorm31
I1006 20:10:34.396980  3817 net.cpp:129] Top shape: 100 64 8 8 (409600)
I1006 20:10:34.396981  3817 net.cpp:137] Memory required for data: 659866800
I1006 20:10:34.396986  3817 layer_factory.hpp:77] Creating layer Scale31
I1006 20:10:34.396997  3817 net.cpp:84] Creating Layer Scale31
I1006 20:10:34.412295  3817 net.cpp:406] Scale31 <- Convolution31
I1006 20:10:34.412305  3817 net.cpp:367] Scale31 -> Convolution31 (in-place)
I1006 20:10:34.412353  3817 layer_factory.hpp:77] Creating layer Scale31
I1006 20:10:34.412452  3817 net.cpp:122] Setting up Scale31
I1006 20:10:34.412457  3817 net.cpp:129] Top shape: 100 64 8 8 (409600)
I1006 20:10:34.412459  3817 net.cpp:137] Memory required for data: 661505200
I1006 20:10:34.412464  3817 layer_factory.hpp:77] Creating layer Eltwise14
I1006 20:10:34.412468  3817 net.cpp:84] Creating Layer Eltwise14
I1006 20:10:34.412472  3817 net.cpp:406] Eltwise14 <- Eltwise13_PReLU27_0_split_1
I1006 20:10:34.412474  3817 net.cpp:406] Eltwise14 <- Convolution31
I1006 20:10:34.412478  3817 net.cpp:380] Eltwise14 -> Eltwise14
I1006 20:10:34.412498  3817 net.cpp:122] Setting up Eltwise14
I1006 20:10:34.412503  3817 net.cpp:129] Top shape: 100 64 8 8 (409600)
I1006 20:10:34.412504  3817 net.cpp:137] Memory required for data: 663143600
I1006 20:10:34.412506  3817 layer_factory.hpp:77] Creating layer PReLU29
I1006 20:10:34.412511  3817 net.cpp:84] Creating Layer PReLU29
I1006 20:10:34.412514  3817 net.cpp:406] PReLU29 <- Eltwise14
I1006 20:10:34.412518  3817 net.cpp:367] PReLU29 -> Eltwise14 (in-place)
I1006 20:10:34.412588  3817 net.cpp:122] Setting up PReLU29
I1006 20:10:34.412593  3817 net.cpp:129] Top shape: 100 64 8 8 (409600)
I1006 20:10:34.412595  3817 net.cpp:137] Memory required for data: 664782000
I1006 20:10:34.412598  3817 layer_factory.hpp:77] Creating layer Eltwise14_PReLU29_0_split
I1006 20:10:34.412601  3817 net.cpp:84] Creating Layer Eltwise14_PReLU29_0_split
I1006 20:10:34.412605  3817 net.cpp:406] Eltwise14_PReLU29_0_split <- Eltwise14
I1006 20:10:34.412608  3817 net.cpp:380] Eltwise14_PReLU29_0_split -> Eltwise14_PReLU29_0_split_0
I1006 20:10:34.412612  3817 net.cpp:380] Eltwise14_PReLU29_0_split -> Eltwise14_PReLU29_0_split_1
I1006 20:10:34.412641  3817 net.cpp:122] Setting up Eltwise14_PReLU29_0_split
I1006 20:10:34.412644  3817 net.cpp:129] Top shape: 100 64 8 8 (409600)
I1006 20:10:34.412648  3817 net.cpp:129] Top shape: 100 64 8 8 (409600)
I1006 20:10:34.412650  3817 net.cpp:137] Memory required for data: 668058800
I1006 20:10:34.412652  3817 layer_factory.hpp:77] Creating layer Convolution32
I1006 20:10:34.412659  3817 net.cpp:84] Creating Layer Convolution32
I1006 20:10:34.412662  3817 net.cpp:406] Convolution32 <- Eltwise14_PReLU29_0_split_0
I1006 20:10:34.412667  3817 net.cpp:380] Convolution32 -> Convolution32
I1006 20:10:34.415323  3817 net.cpp:122] Setting up Convolution32
I1006 20:10:34.415333  3817 net.cpp:129] Top shape: 100 64 8 8 (409600)
I1006 20:10:34.415335  3817 net.cpp:137] Memory required for data: 669697200
I1006 20:10:34.415340  3817 layer_factory.hpp:77] Creating layer BatchNorm32
I1006 20:10:34.415344  3817 net.cpp:84] Creating Layer BatchNorm32
I1006 20:10:34.415347  3817 net.cpp:406] BatchNorm32 <- Convolution32
I1006 20:10:34.415352  3817 net.cpp:367] BatchNorm32 -> Convolution32 (in-place)
I1006 20:10:34.415513  3817 net.cpp:122] Setting up BatchNorm32
I1006 20:10:34.415518  3817 net.cpp:129] Top shape: 100 64 8 8 (409600)
I1006 20:10:34.415519  3817 net.cpp:137] Memory required for data: 671335600
I1006 20:10:34.415524  3817 layer_factory.hpp:77] Creating layer Scale32
I1006 20:10:34.415529  3817 net.cpp:84] Creating Layer Scale32
I1006 20:10:34.415530  3817 net.cpp:406] Scale32 <- Convolution32
I1006 20:10:34.415535  3817 net.cpp:367] Scale32 -> Convolution32 (in-place)
I1006 20:10:34.415566  3817 layer_factory.hpp:77] Creating layer Scale32
I1006 20:10:34.415654  3817 net.cpp:122] Setting up Scale32
I1006 20:10:34.415658  3817 net.cpp:129] Top shape: 100 64 8 8 (409600)
I1006 20:10:34.415660  3817 net.cpp:137] Memory required for data: 672974000
I1006 20:10:34.415664  3817 layer_factory.hpp:77] Creating layer PReLU30
I1006 20:10:34.415668  3817 net.cpp:84] Creating Layer PReLU30
I1006 20:10:34.415670  3817 net.cpp:406] PReLU30 <- Convolution32
I1006 20:10:34.415680  3817 net.cpp:367] PReLU30 -> Convolution32 (in-place)
I1006 20:10:34.415751  3817 net.cpp:122] Setting up PReLU30
I1006 20:10:34.415755  3817 net.cpp:129] Top shape: 100 64 8 8 (409600)
I1006 20:10:34.415757  3817 net.cpp:137] Memory required for data: 674612400
I1006 20:10:34.415760  3817 layer_factory.hpp:77] Creating layer Convolution33
I1006 20:10:34.415767  3817 net.cpp:84] Creating Layer Convolution33
I1006 20:10:34.415771  3817 net.cpp:406] Convolution33 <- Convolution32
I1006 20:10:34.415774  3817 net.cpp:380] Convolution33 -> Convolution33
I1006 20:10:34.417697  3817 net.cpp:122] Setting up Convolution33
I1006 20:10:34.417706  3817 net.cpp:129] Top shape: 100 64 8 8 (409600)
I1006 20:10:34.417709  3817 net.cpp:137] Memory required for data: 676250800
I1006 20:10:34.417714  3817 layer_factory.hpp:77] Creating layer BatchNorm33
I1006 20:10:34.417719  3817 net.cpp:84] Creating Layer BatchNorm33
I1006 20:10:34.417722  3817 net.cpp:406] BatchNorm33 <- Convolution33
I1006 20:10:34.417726  3817 net.cpp:367] BatchNorm33 -> Convolution33 (in-place)
I1006 20:10:34.417924  3817 net.cpp:122] Setting up BatchNorm33
I1006 20:10:34.417933  3817 net.cpp:129] Top shape: 100 64 8 8 (409600)
I1006 20:10:34.417937  3817 net.cpp:137] Memory required for data: 677889200
I1006 20:10:34.417973  3817 layer_factory.hpp:77] Creating layer Scale33
I1006 20:10:34.417979  3817 net.cpp:84] Creating Layer Scale33
I1006 20:10:34.417984  3817 net.cpp:406] Scale33 <- Convolution33
I1006 20:10:34.417989  3817 net.cpp:367] Scale33 -> Convolution33 (in-place)
I1006 20:10:34.418035  3817 layer_factory.hpp:77] Creating layer Scale33
I1006 20:10:34.418160  3817 net.cpp:122] Setting up Scale33
I1006 20:10:34.418167  3817 net.cpp:129] Top shape: 100 64 8 8 (409600)
I1006 20:10:34.418171  3817 net.cpp:137] Memory required for data: 679527600
I1006 20:10:34.418177  3817 layer_factory.hpp:77] Creating layer Eltwise15
I1006 20:10:34.418185  3817 net.cpp:84] Creating Layer Eltwise15
I1006 20:10:34.418190  3817 net.cpp:406] Eltwise15 <- Eltwise14_PReLU29_0_split_1
I1006 20:10:34.418195  3817 net.cpp:406] Eltwise15 <- Convolution33
I1006 20:10:34.418200  3817 net.cpp:380] Eltwise15 -> Eltwise15
I1006 20:10:34.418226  3817 net.cpp:122] Setting up Eltwise15
I1006 20:10:34.418232  3817 net.cpp:129] Top shape: 100 64 8 8 (409600)
I1006 20:10:34.418236  3817 net.cpp:137] Memory required for data: 681166000
I1006 20:10:34.418238  3817 layer_factory.hpp:77] Creating layer PReLU31
I1006 20:10:34.418243  3817 net.cpp:84] Creating Layer PReLU31
I1006 20:10:34.418247  3817 net.cpp:406] PReLU31 <- Eltwise15
I1006 20:10:34.418253  3817 net.cpp:367] PReLU31 -> Eltwise15 (in-place)
I1006 20:10:34.418347  3817 net.cpp:122] Setting up PReLU31
I1006 20:10:34.418354  3817 net.cpp:129] Top shape: 100 64 8 8 (409600)
I1006 20:10:34.418357  3817 net.cpp:137] Memory required for data: 682804400
I1006 20:10:34.418362  3817 layer_factory.hpp:77] Creating layer Pooling1
I1006 20:10:34.418370  3817 net.cpp:84] Creating Layer Pooling1
I1006 20:10:34.418373  3817 net.cpp:406] Pooling1 <- Eltwise15
I1006 20:10:34.418380  3817 net.cpp:380] Pooling1 -> Pooling1
I1006 20:10:34.418620  3817 net.cpp:122] Setting up Pooling1
I1006 20:10:34.418643  3817 net.cpp:129] Top shape: 100 64 1 1 (6400)
I1006 20:10:34.418655  3817 net.cpp:137] Memory required for data: 682830000
I1006 20:10:34.418658  3817 layer_factory.hpp:77] Creating layer InnerProduct1
I1006 20:10:34.418664  3817 net.cpp:84] Creating Layer InnerProduct1
I1006 20:10:34.418682  3817 net.cpp:406] InnerProduct1 <- Pooling1
I1006 20:10:34.418699  3817 net.cpp:380] InnerProduct1 -> InnerProduct1
I1006 20:10:34.418936  3817 net.cpp:122] Setting up InnerProduct1
I1006 20:10:34.418942  3817 net.cpp:129] Top shape: 100 10 (1000)
I1006 20:10:34.418946  3817 net.cpp:137] Memory required for data: 682834000
I1006 20:10:34.418952  3817 layer_factory.hpp:77] Creating layer InnerProduct1_InnerProduct1_0_split
I1006 20:10:34.418959  3817 net.cpp:84] Creating Layer InnerProduct1_InnerProduct1_0_split
I1006 20:10:34.418963  3817 net.cpp:406] InnerProduct1_InnerProduct1_0_split <- InnerProduct1
I1006 20:10:34.418978  3817 net.cpp:380] InnerProduct1_InnerProduct1_0_split -> InnerProduct1_InnerProduct1_0_split_0
I1006 20:10:34.418987  3817 net.cpp:380] InnerProduct1_InnerProduct1_0_split -> InnerProduct1_InnerProduct1_0_split_1
I1006 20:10:34.419028  3817 net.cpp:122] Setting up InnerProduct1_InnerProduct1_0_split
I1006 20:10:34.419034  3817 net.cpp:129] Top shape: 100 10 (1000)
I1006 20:10:34.419039  3817 net.cpp:129] Top shape: 100 10 (1000)
I1006 20:10:34.419042  3817 net.cpp:137] Memory required for data: 682842000
I1006 20:10:34.419045  3817 layer_factory.hpp:77] Creating layer SoftmaxWithLoss1
I1006 20:10:34.419052  3817 net.cpp:84] Creating Layer SoftmaxWithLoss1
I1006 20:10:34.419056  3817 net.cpp:406] SoftmaxWithLoss1 <- InnerProduct1_InnerProduct1_0_split_0
I1006 20:10:34.419060  3817 net.cpp:406] SoftmaxWithLoss1 <- Data2_Data1_1_split_0
…
