…
I1007 22:17:01.915333  5322 net.cpp:294] The NetState phase (0) differed from the phase (1) specified by a rule in layer Accuracy1
I1007 22:17:01.915891  5322 net.cpp:51] Initializing net from parameters: 
name: "resnet_cifar10"
state {
  phase: TRAIN
  level: 0
  stage: ""
}
layer {
  name: "Data1"
  type: "Data"
  top: "Data1"
  top: "Data2"
  include {
    phase: TRAIN
  }
  transform_param {
    mirror: true
    crop_size: 28
    mean_file: "/home/x306/caffe/xn/PENLU/data/cifar10/mean.binaryproto"
  }
  data_param {
    source: "/home/x306/caffe/xn/PENLU/data/cifar10/cifar10_train_lmdb"
    batch_size: 100
    backend: LMDB
  }
}
layer {
  name: "Convolution1"
  type: "Convolution"
  bottom: "Data1"
  top: "Convolution1"
  param {
    lr_mult: 1
    decay_mult: 1
  }
  param {
    lr_mult: 2
    decay_mult: 0
  }
  convolution_param {
    num_output: 16
    pad: 1
    kernel_size: 3
    stride: 1
    weight_filler {
      type: "gaussian"
      std: 0.118
    }
    bias_filler {
      type: "constant"
      value: 0
    }
  }
}
layer {
  name: "BatchNorm1"
  type: "BatchNorm"
  bottom: "Convolution1"
  top: "Convolution1"
  param {
    lr_mult: 0
    decay_mult: 0
  }
  param {
    lr_mult: 0
    decay_mult: 0
  }
  param {
    lr_mult: 0
    decay_mult: 0
  }
}
layer {
  name: "Scale1"
  type: "Scale"
  bottom: "Convolution1"
  top: "Convolution1"
  scale_param {
    bias_term: true
  }
}
layer {
  name: "elu1"
  type: "ELU"
  bottom: "Convolution1"
  top: "Convolution1"
  elu_param {
    alpha: 0.25
  }
}
layer {
  name: "Convolution2"
  type: "Convolution"
  bottom: "Convolution1"
  top: "Convolution2"
  param {
    lr_mult: 1
    decay_mult: 1
  }
  param {
    lr_mult: 2
    decay_mult: 0
  }
  convolution_param {
    num_output: 16
    pad: 1
    kernel_size: 3
    stride: 1
    weight_filler {
      type: "gaussian"
      std: 0.118
    }
    bias_filler {
      type: "constant"
      value: 0
    }
  }
}
layer {
  name: "BatchNorm2"
  type: "BatchNorm"
  bottom: "Convolution2"
  top: "Convolution2"
  param {
    lr_mult: 0
    decay_mult: 0
  }
  param {
    lr_mult: 0
    decay_mult: 0
  }
  param {
    lr_mult: 0
    decay_mult: 0
  }
}
layer {
  name: "Scale2"
  type: "Scale"
  bottom: "Convolution2"
  top: "Convolution2"
  scale_param {
    bias_term: true
  }
}
layer {
  name: "elu2"
  type: "ELU"
  bottom: "Convolution2"
  top: "Convolution2"
  elu_param {
    alpha: 0.25
  }
}
layer {
  name: "Convolution3"
  type: "Convolution"
  bottom: "Convolution2"
  top: "Convolution3"
  param {
    lr_mult: 1
    decay_mult: 1
  }
  param {
    lr_mult: 2
    decay_mult: 0
  }
  convolution_param {
    num_output: 16
    pad: 1
    kernel_size: 3
    stride: 1
    weight_filler {
      type: "gaussian"
      std: 0.118
    }
    bias_filler {
      type: "constant"
      value: 0
    }
  }
}
layer {
  name: "BatchNorm3"
  type: "BatchNorm"
  bottom: "Convolution3"
  top: "Convolution3"
  param {
    lr_mult: 0
    decay_mult: 0
  }
  param {
    lr_mult: 0
    decay_mult: 0
  }
  param {
    lr_mult: 0
    decay_mult: 0
  }
}
layer {
  name: "Scale3"
  type: "Scale"
  bottom: "Convolution3"
  top: "Convolution3"
  scale_param {
    bias_term: true
  }
}
layer {
  name: "Eltwise1"
  type: "Eltwise"
  bottom: "Convolution1"
  bottom: "Convolution3"
  top: "Eltwise1"
  eltwise_param {
    operation: SUM
  }
}
layer {
  name: "elu3"
  type: "ELU"
  bottom: "Eltwise1"
  top: "Eltwise1"
  elu_param {
    alpha: 0.25
  }
}
layer {
  name: "Convolution4"
  type: "Convolution"
  bottom: "Eltwise1"
  top: "Convolution4"
  param {
    lr_mult: 1
    decay_mult: 1
  }
  param {
    lr_mult: 2
    decay_mult: 0
  }
  convolution_param {
    num_output: 16
    pad: 1
    kernel_size: 3
    stride: 1
    weight_filler {
      type: "gaussian"
      std: 0.118
    }
    bias_filler {
      type: "constant"
      value: 0
    }
  }
}
layer {
  name: "BatchNorm4"
  type: "BatchNorm"
  bottom: "Convolution4"
  top: "Convolution4"
  param {
    lr_mult: 0
    decay_mult: 0
  }
  param {
    lr_mult: 0
    decay_mult: 0
  }
  param {
    lr_mult: 0
    decay_mult: 0
  }
}
layer {
  name: "Scale4"
  type: "Scale"
  bottom: "Convolution4"
  top: "Convolution4"
  scale_param {
    bias_term: true
  }
}
layer {
  name: "elu4"
  type: "ELU"
  bottom: "Convolution4"
  top: "Convolution4"
  elu_param {
    alpha: 0.25
  }
}
layer {
  name: "Convolution5"
  type: "Convolution"
  bottom: "Convolution4"
  top: "Convolution5"
  param {
    lr_mult: 1
    decay_mult: 1
  }
  param {
    lr_mult: 2
    decay_mult: 0
  }
  convolution_param {
    num_output: 16
    pad: 1
    kernel_size: 3
    stride: 1
    weight_filler {
      type: "gaussian"
      std: 0.118
    }
    bias_filler {
      type: "constant"
      value: 0
    }
  }
}
layer {
  name: "BatchNorm5"
  type: "BatchNorm"
  bottom: "Convolution5"
  top: "Convolution5"
  param {
    lr_mult: 0
    decay_mult: 0
  }
  param {
    lr_mult: 0
    decay_mult: 0
  }
  param {
    lr_mult: 0
    decay_mult: 0
  }
}
layer {
  name: "Scale5"
  type: "Scale"
  bottom: "Convolution5"
  top: "Convolution5"
  scale_param {
    bias_term: true
  }
}
layer {
  name: "Eltwise2"
  type: "Eltwise"
  bottom: "Eltwise1"
  bottom: "Convolution5"
  top: "Eltwise2"
  eltwise_param {
    operation: SUM
  }
}
layer {
  name: "elu5"
  type: "ELU"
  bottom: "Eltwise2"
  top: "Eltwise2"
  elu_param {
    alpha: 0.25
  }
}
layer {
  name: "Convolution6"
  type: "Convolution"
  bottom: "Eltwise2"
  top: "Convolution6"
  param {
    lr_mult: 1
    decay_mult: 1
  }
  param {
    lr_mult: 2
    decay_mult: 0
  }
  convolution_param {
    num_output: 16
    pad: 1
    kernel_size: 3
    stride: 1
    weight_filler {
      type: "gaussian"
      std: 0.118
    }
    bias_filler {
      type: "constant"
      value: 0
    }
  }
}
layer {
  name: "BatchNorm6"
  type: "BatchNorm"
  bottom: "Convolution6"
  top: "Convolution6"
  param {
    lr_mult: 0
    decay_mult: 0
  }
  param {
    lr_mult: 0
    decay_mult: 0
  }
  param {
    lr_mult: 0
    decay_mult: 0
  }
}
layer {
  name: "Scale6"
  type: "Scale"
  bottom: "Convolution6"
  top: "Convolution6"
  scale_param {
    bias_term: true
  }
}
layer {
  name: "elu6"
  type: "ELU"
  bottom: "Convolution6"
  top: "Convolution6"
  elu_param {
    alpha: 0.25
  }
}
layer {
  name: "Convolution7"
  type: "Convolution"
  bottom: "Convolution6"
  top: "Convolution7"
  param {
    lr_mult: 1
    decay_mult: 1
  }
  param {
    lr_mult: 2
    decay_mult: 0
  }
  convolution_param {
    num_output: 16
    pad: 1
    kernel_size: 3
    stride: 1
    weight_filler {
      type: "gaussian"
      std: 0.118
    }
    bias_filler {
      type: "constant"
      value: 0
    }
  }
}
layer {
  name: "BatchNorm7"
  type: "BatchNorm"
  bottom: "Convolution7"
  top: "Convolution7"
  param {
    lr_mult: 0
    decay_mult: 0
  }
  param {
    lr_mult: 0
    decay_mult: 0
  }
  param {
    lr_mult: 0
    decay_mult: 0
  }
}
layer {
  name: "Scale7"
  type: "Scale"
  bottom: "Convolution7"
  top: "Convolution7"
  scale_param {
    bias_term: true
  }
}
layer {
  name: "Eltwise3"
  type: "Eltwise"
  bottom: "Eltwise2"
  bottom: "Convolution7"
  top: "Eltwise3"
  eltwise_param {
    operation: SUM
  }
}
layer {
  name: "elu7"
  type: "ELU"
  bottom: "Eltwise3"
  top: "Eltwise3"
  elu_param {
    alpha: 0.25
  }
}
layer {
  name: "Convolution8"
  type: "Convolution"
  bottom: "Eltwise3"
  top: "Convolution8"
  param {
    lr_mult: 1
    decay_mult: 1
  }
  param {
    lr_mult: 2
    decay_mult: 0
  }
  convolution_param {
    num_output: 16
    pad: 1
    kernel_size: 3
    stride: 1
    weight_filler {
      type: "gaussian"
      std: 0.118
    }
    bias_filler {
      type: "constant"
      value: 0
    }
  }
}
layer {
  name: "BatchNorm8"
  type: "BatchNorm"
  bottom: "Convolution8"
  top: "Convolution8"
  param {
    lr_mult: 0
    decay_mult: 0
  }
  param {
    lr_mult: 0
    decay_mult: 0
  }
  param {
    lr_mult: 0
    decay_mult: 0
  }
}
layer {
  name: "Scale8"
  type: "Scale"
  bottom: "Convolution8"
  top: "Convolution8"
  scale_param {
    bias_term: true
  }
}
layer {
  name: "elu8"
  type: "ELU"
  bottom: "Convolution8"
  top: "Convolution8"
  elu_param {
    alpha: 0.25
  }
}
layer {
  name: "Convolution9"
  type: "Convolution"
  bottom: "Convolution8"
  top: "Convolution9"
  param {
    lr_mult: 1
    decay_mult: 1
  }
  param {
    lr_mult: 2
    decay_mult: 0
  }
  convolution_param {
    num_output: 16
    pad: 1
    kernel_size: 3
    stride: 1
    weight_filler {
      type: "gaussian"
      std: 0.118
    }
    bias_filler {
      type: "constant"
      value: 0
    }
  }
}
layer {
  name: "BatchNorm9"
  type: "BatchNorm"
  bottom: "Convolution9"
  top: "Convolution9"
  param {
    lr_mult: 0
    decay_mult: 0
  }
  param {
    lr_mult: 0
    decay_mult: 0
  }
  param {
    lr_mult: 0
    decay_mult: 0
  }
}
layer {
  name: "Scale9"
  type: "Scale"
  bottom: "Convolution9"
  top: "Convolution9"
  scale_param {
    bias_term: true
  }
}
layer {
  name: "Eltwise4"
  type: "Eltwise"
  bottom: "Eltwise3"
  bottom: "Convolution9"
  top: "Eltwise4"
  eltwise_param {
    operation: SUM
  }
}
layer {
  name: "elu9"
  type: "ELU"
  bottom: "Eltwise4"
  top: "Eltwise4"
  elu_param {
    alpha: 0.25
  }
}
layer {
  name: "Convolution10"
  type: "Convolution"
  bottom: "Eltwise4"
  top: "Convolution10"
  param {
    lr_mult: 1
    decay_mult: 1
  }
  param {
    lr_mult: 2
    decay_mult: 0
  }
  convolution_param {
    num_output: 16
    pad: 1
    kernel_size: 3
    stride: 1
    weight_filler {
      type: "gaussian"
      std: 0.118
    }
    bias_filler {
      type: "constant"
      value: 0
    }
  }
}
layer {
  name: "BatchNorm10"
  type: "BatchNorm"
  bottom: "Convolution10"
  top: "Convolution10"
  param {
    lr_mult: 0
    decay_mult: 0
  }
  param {
    lr_mult: 0
    decay_mult: 0
  }
  param {
    lr_mult: 0
    decay_mult: 0
  }
}
layer {
  name: "Scale10"
  type: "Scale"
  bottom: "Convolution10"
  top: "Convolution10"
  scale_param {
    bias_term: true
  }
}
layer {
  name: "elu10"
  type: "ELU"
  bottom: "Convolution10"
  top: "Convolution10"
  elu_param {
    alpha: 0.25
  }
}
layer {
  name: "Convolution11"
  type: "Convolution"
  bottom: "Convolution10"
  top: "Convolution11"
  param {
    lr_mult: 1
    decay_mult: 1
  }
  param {
    lr_mult: 2
    decay_mult: 0
  }
  convolution_param {
    num_output: 16
    pad: 1
    kernel_size: 3
    stride: 1
    weight_filler {
      type: "gaussian"
      std: 0.118
    }
    bias_filler {
      type: "constant"
      value: 0
    }
  }
}
layer {
  name: "BatchNorm11"
  type: "BatchNorm"
  bottom: "Convolution11"
  top: "Convolution11"
  param {
    lr_mult: 0
    decay_mult: 0
  }
  param {
    lr_mult: 0
    decay_mult: 0
  }
  param {
    lr_mult: 0
    decay_mult: 0
  }
}
layer {
  name: "Scale11"
  type: "Scale"
  bottom: "Convolution11"
  top: "Convolution11"
  scale_param {
    bias_term: true
  }
}
layer {
  name: "Eltwise5"
  type: "Eltwise"
  bottom: "Eltwise4"
  bottom: "Convolution11"
  top: "Eltwise5"
  eltwise_param {
    operation: SUM
  }
}
layer {
  name: "elu11"
  type: "ELU"
  bottom: "Eltwise5"
  top: "Eltwise5"
  elu_param {
    alpha: 0.25
  }
}
layer {
  name: "Convolution12"
  type: "Convolution"
  bottom: "Eltwise5"
  top: "Convolution12"
  param {
    lr_mult: 1
    decay_mult: 1
  }
  param {
    lr_mult: 2
    decay_mult: 0
  }
  convolution_param {
    num_output: 32
    pad: 0
    kernel_size: 1
    stride: 2
    weight_filler {
      type: "gaussian"
      std: 0.25
    }
    bias_filler {
      type: "constant"
      value: 0
    }
  }
}
layer {
  name: "BatchNorm12"
  type: "BatchNorm"
  bottom: "Convolution12"
  top: "Convolution12"
  param {
    lr_mult: 0
    decay_mult: 0
  }
  param {
    lr_mult: 0
    decay_mult: 0
  }
  param {
    lr_mult: 0
    decay_mult: 0
  }
}
layer {
  name: "Scale12"
  type: "Scale"
  bottom: "Convolution12"
  top: "Convolution12"
  scale_param {
    bias_term: true
  }
}
layer {
  name: "Convolution13"
  type: "Convolution"
  bottom: "Eltwise5"
  top: "Convolution13"
  param {
    lr_mult: 1
    decay_mult: 1
  }
  param {
    lr_mult: 2
    decay_mult: 0
  }
  convolution_param {
    num_output: 32
    pad: 1
    kernel_size: 3
    stride: 2
    weight_filler {
      type: "gaussian"
      std: 0.083
    }
    bias_filler {
      type: "constant"
      value: 0
    }
  }
}
layer {
  name: "BatchNorm13"
  type: "BatchNorm"
  bottom: "Convolution13"
  top: "Convolution13"
  param {
    lr_mult: 0
    decay_mult: 0
  }
  param {
    lr_mult: 0
    decay_mult: 0
  }
  param {
    lr_mult: 0
    decay_mult: 0
  }
}
layer {
  name: "Scale13"
  type: "Scale"
  bottom: "Convolution13"
  top: "Convolution13"
  scale_param {
    bias_term: true
  }
}
layer {
  name: "elu12"
  type: "ELU"
  bottom: "Convolution13"
  top: "Convolution13"
  elu_param {
    alpha: 0.25
  }
}
layer {
  name: "Convolution14"
  type: "Convolution"
  bottom: "Convolution13"
  top: "Convolution14"
  param {
    lr_mult: 1
    decay_mult: 1
  }
  param {
    lr_mult: 2
    decay_mult: 0
  }
  convolution_param {
    num_output: 32
    pad: 1
    kernel_size: 3
    stride: 1
    weight_filler {
      type: "gaussian"
      std: 0.083
    }
    bias_filler {
      type: "constant"
      value: 0
    }
  }
}
layer {
  name: "BatchNorm14"
  type: "BatchNorm"
  bottom: "Convolution14"
  top: "Convolution14"
  param {
    lr_mult: 0
    decay_mult: 0
  }
  param {
    lr_mult: 0
    decay_mult: 0
  }
  param {
    lr_mult: 0
    decay_mult: 0
  }
}
layer {
  name: "Scale14"
  type: "Scale"
  bottom: "Convolution14"
  top: "Convolution14"
  scale_param {
    bias_term: true
  }
}
layer {
  name: "Eltwise6"
  type: "Eltwise"
  bottom: "Convolution12"
  bottom: "Convolution14"
  top: "Eltwise6"
  eltwise_param {
    operation: SUM
  }
}
layer {
  name: "elu13"
  type: "ELU"
  bottom: "Eltwise6"
  top: "Eltwise6"
  elu_param {
    alpha: 0.25
  }
}
layer {
  name: "Convolution15"
  type: "Convolution"
  bottom: "Eltwise6"
  top: "Convolution15"
  param {
    lr_mult: 1
    decay_mult: 1
  }
  param {
    lr_mult: 2
    decay_mult: 0
  }
  convolution_param {
    num_output: 32
    pad: 1
    kernel_size: 3
    stride: 1
    weight_filler {
      type: "gaussian"
      std: 0.083
    }
    bias_filler {
      type: "constant"
      value: 0
    }
  }
}
layer {
  name: "BatchNorm15"
  type: "BatchNorm"
  bottom: "Convolution15"
  top: "Convolution15"
  param {
    lr_mult: 0
    decay_mult: 0
  }
  param {
    lr_mult: 0
    decay_mult: 0
  }
  param {
    lr_mult: 0
    decay_mult: 0
  }
}
layer {
  name: "Scale15"
  type: "Scale"
  bottom: "Convolution15"
  top: "Convolution15"
  scale_param {
    bias_term: true
  }
}
layer {
  name: "elu14"
  type: "ELU"
  bottom: "Convolution15"
  top: "Convolution15"
  elu_param {
    alpha: 0.25
  }
}
layer {
  name: "Convolution16"
  type: "Convolution"
  bottom: "Convolution15"
  top: "Convolution16"
  param {
    lr_mult: 1
    decay_mult: 1
  }
  param {
    lr_mult: 2
    decay_mult: 0
  }
  convolution_param {
    num_output: 32
    pad: 1
    kernel_size: 3
    stride: 1
    weight_filler {
      type: "gaussian"
      std: 0.083
    }
    bias_filler {
      type: "constant"
      value: 0
    }
  }
}
layer {
  name: "BatchNorm16"
  type: "BatchNorm"
  bottom: "Convolution16"
  top: "Convolution16"
  param {
    lr_mult: 0
    decay_mult: 0
  }
  param {
    lr_mult: 0
    decay_mult: 0
  }
  param {
    lr_mult: 0
    decay_mult: 0
  }
}
layer {
  name: "Scale16"
  type: "Scale"
  bottom: "Convolution16"
  top: "Convolution16"
  scale_param {
    bias_term: true
  }
}
layer {
  name: "Eltwise7"
  type: "Eltwise"
  bottom: "Eltwise6"
  bottom: "Convolution16"
  top: "Eltwise7"
  eltwise_param {
    operation: SUM
  }
}
layer {
  name: "elu15"
  type: "ELU"
  bottom: "Eltwise7"
  top: "Eltwise7"
  elu_param {
    alpha: 0.25
  }
}
layer {
  name: "Convolution17"
  type: "Convolution"
  bottom: "Eltwise7"
  top: "Convolution17"
  param {
    lr_mult: 1
    decay_mult: 1
  }
  param {
    lr_mult: 2
    decay_mult: 0
  }
  convolution_param {
    num_output: 32
    pad: 1
    kernel_size: 3
    stride: 1
    weight_filler {
      type: "gaussian"
      std: 0.083
    }
    bias_filler {
      type: "constant"
      value: 0
    }
  }
}
layer {
  name: "BatchNorm17"
  type: "BatchNorm"
  bottom: "Convolution17"
  top: "Convolution17"
  param {
    lr_mult: 0
    decay_mult: 0
  }
  param {
    lr_mult: 0
    decay_mult: 0
  }
  param {
    lr_mult: 0
    decay_mult: 0
  }
}
layer {
  name: "Scale17"
  type: "Scale"
  bottom: "Convolution17"
  top: "Convolution17"
  scale_param {
    bias_term: true
  }
}
layer {
  name: "elu16"
  type: "ELU"
  bottom: "Convolution17"
  top: "Convolution17"
  elu_param {
    alpha: 0.25
  }
}
layer {
  name: "Convolution18"
  type: "Convolution"
  bottom: "Convolution17"
  top: "Convolution18"
  param {
    lr_mult: 1
    decay_mult: 1
  }
  param {
    lr_mult: 2
    decay_mult: 0
  }
  convolution_param {
    num_output: 32
    pad: 1
    kernel_size: 3
    stride: 1
    weight_filler {
      type: "gaussian"
      std: 0.083
    }
    bias_filler {
      type: "constant"
      value: 0
    }
  }
}
layer {
  name: "BatchNorm18"
  type: "BatchNorm"
  bottom: "Convolution18"
  top: "Convolution18"
  param {
    lr_mult: 0
    decay_mult: 0
  }
  param {
    lr_mult: 0
    decay_mult: 0
  }
  param {
    lr_mult: 0
    decay_mult: 0
  }
}
layer {
  name: "Scale18"
  type: "Scale"
  bottom: "Convolution18"
  top: "Convolution18"
  scale_param {
    bias_term: true
  }
}
layer {
  name: "Eltwise8"
  type: "Eltwise"
  bottom: "Eltwise7"
  bottom: "Convolution18"
  top: "Eltwise8"
  eltwise_param {
    operation: SUM
  }
}
layer {
  name: "elu17"
  type: "ELU"
  bottom: "Eltwise8"
  top: "Eltwise8"
  elu_param {
    alpha: 0.25
  }
}
layer {
  name: "Convolution19"
  type: "Convolution"
  bottom: "Eltwise8"
  top: "Convolution19"
  param {
    lr_mult: 1
    decay_mult: 1
  }
  param {
    lr_mult: 2
    decay_mult: 0
  }
  convolution_param {
    num_output: 32
    pad: 1
    kernel_size: 3
    stride: 1
    weight_filler {
      type: "gaussian"
      std: 0.083
    }
    bias_filler {
      type: "constant"
      value: 0
    }
  }
}
layer {
  name: "BatchNorm19"
  type: "BatchNorm"
  bottom: "Convolution19"
  top: "Convolution19"
  param {
    lr_mult: 0
    decay_mult: 0
  }
  param {
    lr_mult: 0
    decay_mult: 0
  }
  param {
    lr_mult: 0
    decay_mult: 0
  }
}
layer {
  name: "Scale19"
  type: "Scale"
  bottom: "Convolution19"
  top: "Convolution19"
  scale_param {
    bias_term: true
  }
}
layer {
  name: "elu18"
  type: "ELU"
  bottom: "Convolution19"
  top: "Convolution19"
  elu_param {
    alpha: 0.25
  }
}
layer {
  name: "Convolution20"
  type: "Convolution"
  bottom: "Convolution19"
  top: "Convolution20"
  param {
    lr_mult: 1
    decay_mult: 1
  }
  param {
    lr_mult: 2
    decay_mult: 0
  }
  convolution_param {
    num_output: 32
    pad: 1
    kernel_size: 3
    stride: 1
    weight_filler {
      type: "gaussian"
      std: 0.083
    }
    bias_filler {
      type: "constant"
      value: 0
    }
  }
}
layer {
  name: "BatchNorm20"
  type: "BatchNorm"
  bottom: "Convolution20"
  top: "Convolution20"
  param {
    lr_mult: 0
    decay_mult: 0
  }
  param {
    lr_mult: 0
    decay_mult: 0
  }
  param {
    lr_mult: 0
    decay_mult: 0
  }
}
layer {
  name: "Scale20"
  type: "Scale"
  bottom: "Convolution20"
  top: "Convolution20"
  scale_param {
    bias_term: true
  }
}
layer {
  name: "Eltwise9"
  type: "Eltwise"
  bottom: "Eltwise8"
  bottom: "Convolution20"
  top: "Eltwise9"
  eltwise_param {
    operation: SUM
  }
}
layer {
  name: "elu19"
  type: "ELU"
  bottom: "Eltwise9"
  top: "Eltwise9"
  elu_param {
    alpha: 0.25
  }
}
layer {
  name: "Convolution21"
  type: "Convolution"
  bottom: "Eltwise9"
  top: "Convolution21"
  param {
    lr_mult: 1
    decay_mult: 1
  }
  param {
    lr_mult: 2
    decay_mult: 0
  }
  convolution_param {
    num_output: 32
    pad: 1
    kernel_size: 3
    stride: 1
    weight_filler {
      type: "gaussian"
      std: 0.083
    }
    bias_filler {
      type: "constant"
      value: 0
    }
  }
}
layer {
  name: "BatchNorm21"
  type: "BatchNorm"
  bottom: "Convolution21"
  top: "Convolution21"
  param {
    lr_mult: 0
    decay_mult: 0
  }
  param {
    lr_mult: 0
    decay_mult: 0
  }
  param {
    lr_mult: 0
    decay_mult: 0
  }
}
layer {
  name: "Scale21"
  type: "Scale"
  bottom: "Convolution21"
  top: "Convolution21"
  scale_param {
    bias_term: true
  }
}
layer {
  name: "elu20"
  type: "ELU"
  bottom: "Convolution21"
  top: "Convolution21"
  elu_param {
    alpha: 0.25
  }
}
layer {
  name: "Convolution22"
  type: "Convolution"
  bottom: "Convolution21"
  top: "Convolution22"
  param {
    lr_mult: 1
    decay_mult: 1
  }
  param {
    lr_mult: 2
    decay_mult: 0
  }
  convolution_param {
    num_output: 32
    pad: 1
    kernel_size: 3
    stride: 1
    weight_filler {
      type: "gaussian"
      std: 0.083
    }
    bias_filler {
      type: "constant"
      value: 0
    }
  }
}
layer {
  name: "BatchNorm22"
  type: "BatchNorm"
  bottom: "Convolution22"
  top: "Convolution22"
  param {
    lr_mult: 0
    decay_mult: 0
  }
  param {
    lr_mult: 0
    decay_mult: 0
  }
  param {
    lr_mult: 0
    decay_mult: 0
  }
}
layer {
  name: "Scale22"
  type: "Scale"
  bottom: "Convolution22"
  top: "Convolution22"
  scale_param {
    bias_term: true
  }
}
layer {
  name: "Eltwise10"
  type: "Eltwise"
  bottom: "Eltwise9"
  bottom: "Convolution22"
  top: "Eltwise10"
  eltwise_param {
    operation: SUM
  }
}
layer {
  name: "elu21"
  type: "ELU"
  bottom: "Eltwise10"
  top: "Eltwise10"
  elu_param {
    alpha: 0.25
  }
}
layer {
  name: "Convolution23"
  type: "Convolution"
  bottom: "Eltwise10"
  top: "Convolution23"
  param {
    lr_mult: 1
    decay_mult: 1
  }
  param {
    lr_mult: 2
    decay_mult: 0
  }
  convolution_param {
    num_output: 64
    pad: 0
    kernel_size: 1
    stride: 2
    weight_filler {
      type: "gaussian"
      std: 0.17677669
    }
    bias_filler {
      type: "constant"
      value: 0
    }
  }
}
layer {
  name: "BatchNorm23"
  type: "BatchNorm"
  bottom: "Convolution23"
  top: "Convolution23"
  param {
    lr_mult: 0
    decay_mult: 0
  }
  param {
    lr_mult: 0
    decay_mult: 0
  }
  param {
    lr_mult: 0
    decay_mult: 0
  }
}
layer {
  name: "Scale23"
  type: "Scale"
  bottom: "Convolution23"
  top: "Convolution23"
  scale_param {
    bias_term: true
  }
}
layer {
  name: "Convolution24"
  type: "Convolution"
  bottom: "Eltwise10"
  top: "Convolution24"
  param {
    lr_mult: 1
    decay_mult: 1
  }
  param {
    lr_mult: 2
    decay_mult: 0
  }
  convolution_param {
    num_output: 64
    pad: 1
    kernel_size: 3
    stride: 2
    weight_filler {
      type: "gaussian"
      std: 0.059
    }
    bias_filler {
      type: "constant"
      value: 0
    }
  }
}
layer {
  name: "BatchNorm24"
  type: "BatchNorm"
  bottom: "Convolution24"
  top: "Convolution24"
  param {
    lr_mult: 0
    decay_mult: 0
  }
  param {
    lr_mult: 0
    decay_mult: 0
  }
  param {
    lr_mult: 0
    decay_mult: 0
  }
}
layer {
  name: "Scale24"
  type: "Scale"
  bottom: "Convolution24"
  top: "Convolution24"
  scale_param {
    bias_term: true
  }
}
layer {
  name: "elu22"
  type: "ELU"
  bottom: "Convolution24"
  top: "Convolution24"
  elu_param {
    alpha: 0.25
  }
}
layer {
  name: "Convolution25"
  type: "Convolution"
  bottom: "Convolution24"
  top: "Convolution25"
  param {
    lr_mult: 1
    decay_mult: 1
  }
  param {
    lr_mult: 2
    decay_mult: 0
  }
  convolution_param {
    num_output: 64
    pad: 1
    kernel_size: 3
    stride: 1
    weight_filler {
      type: "gaussian"
      std: 0.059
    }
    bias_filler {
      type: "constant"
      value: 0
    }
  }
}
layer {
  name: "BatchNorm25"
  type: "BatchNorm"
  bottom: "Convolution25"
  top: "Convolution25"
  param {
    lr_mult: 0
    decay_mult: 0
  }
  param {
    lr_mult: 0
    decay_mult: 0
  }
  param {
    lr_mult: 0
    decay_mult: 0
  }
}
layer {
  name: "Scale25"
  type: "Scale"
  bottom: "Convolution25"
  top: "Convolution25"
  scale_param {
    bias_term: true
  }
}
layer {
  name: "Eltwise11"
  type: "Eltwise"
  bottom: "Convolution23"
  bottom: "Convolution25"
  top: "Eltwise11"
  eltwise_param {
    operation: SUM
  }
}
layer {
  name: "elu23"
  type: "ELU"
  bottom: "Eltwise11"
  top: "Eltwise11"
  elu_param {
    alpha: 0.25
  }
}
layer {
  name: "Convolution26"
  type: "Convolution"
  bottom: "Eltwise11"
  top: "Convolution26"
  param {
    lr_mult: 1
    decay_mult: 1
  }
  param {
    lr_mult: 2
    decay_mult: 0
  }
  convolution_param {
    num_output: 64
    pad: 1
    kernel_size: 3
    stride: 1
    weight_filler {
      type: "gaussian"
      std: 0.059
    }
    bias_filler {
      type: "constant"
      value: 0
    }
  }
}
layer {
  name: "BatchNorm26"
  type: "BatchNorm"
  bottom: "Convolution26"
  top: "Convolution26"
  param {
    lr_mult: 0
    decay_mult: 0
  }
  param {
    lr_mult: 0
    decay_mult: 0
  }
  param {
    lr_mult: 0
    decay_mult: 0
  }
}
layer {
  name: "Scale26"
  type: "Scale"
  bottom: "Convolution26"
  top: "Convolution26"
  scale_param {
    bias_term: true
  }
}
layer {
  name: "elu24"
  type: "ELU"
  bottom: "Convolution26"
  top: "Convolution26"
  elu_param {
    alpha: 0.25
  }
}
layer {
  name: "Convolution27"
  type: "Convolution"
  bottom: "Convolution26"
  top: "Convolution27"
  param {
    lr_mult: 1
    decay_mult: 1
  }
  param {
    lr_mult: 2
    decay_mult: 0
  }
  convolution_param {
    num_output: 64
    pad: 1
    kernel_size: 3
    stride: 1
    weight_filler {
      type: "gaussian"
      std: 0.059
    }
    bias_filler {
      type: "constant"
      value: 0
    }
  }
}
layer {
  name: "BatchNorm27"
  type: "BatchNorm"
  bottom: "Convolution27"
  top: "Convolution27"
  param {
    lr_mult: 0
    decay_mult: 0
  }
  param {
    lr_mult: 0
    decay_mult: 0
  }
  param {
    lr_mult: 0
    decay_mult: 0
  }
}
layer {
  name: "Scale27"
  type: "Scale"
  bottom: "Convolution27"
  top: "Convolution27"
  scale_param {
    bias_term: true
  }
}
layer {
  name: "Eltwise12"
  type: "Eltwise"
  bottom: "Eltwise11"
  bottom: "Convolution27"
  top: "Eltwise12"
  eltwise_param {
    operation: SUM
  }
}
layer {
  name: "elu25"
  type: "ELU"
  bottom: "Eltwise12"
  top: "Eltwise12"
  elu_param {
    alpha: 0.25
  }
}
layer {
  name: "Convolution28"
  type: "Convolution"
  bottom: "Eltwise12"
  top: "Convolution28"
  param {
    lr_mult: 1
    decay_mult: 1
  }
  param {
    lr_mult: 2
    decay_mult: 0
  }
  convolution_param {
    num_output: 64
    pad: 1
    kernel_size: 3
    stride: 1
    weight_filler {
      type: "gaussian"
      std: 0.059
    }
    bias_filler {
      type: "constant"
      value: 0
    }
  }
}
layer {
  name: "BatchNorm28"
  type: "BatchNorm"
  bottom: "Convolution28"
  top: "Convolution28"
  param {
    lr_mult: 0
    decay_mult: 0
  }
  param {
    lr_mult: 0
    decay_mult: 0
  }
  param {
    lr_mult: 0
    decay_mult: 0
  }
}
layer {
  name: "Scale28"
  type: "Scale"
  bottom: "Convolution28"
  top: "Convolution28"
  scale_param {
    bias_term: true
  }
}
layer {
  name: "elu26"
  type: "ELU"
  bottom: "Convolution28"
  top: "Convolution28"
  elu_param {
    alpha: 0.25
  }
}
layer {
  name: "Convolution29"
  type: "Convolution"
  bottom: "Convolution28"
  top: "Convolution29"
  param {
    lr_mult: 1
    decay_mult: 1
  }
  param {
    lr_mult: 2
    decay_mult: 0
  }
  convolution_param {
    num_output: 64
    pad: 1
    kernel_size: 3
    stride: 1
    weight_filler {
      type: "gaussian"
      std: 0.059
    }
    bias_filler {
      type: "constant"
      value: 0
    }
  }
}
layer {
  name: "BatchNorm29"
  type: "BatchNorm"
  bottom: "Convolution29"
  top: "Convolution29"
  param {
    lr_mult: 0
    decay_mult: 0
  }
  param {
    lr_mult: 0
    decay_mult: 0
  }
  param {
    lr_mult: 0
    decay_mult: 0
  }
}
layer {
  name: "Scale29"
  type: "Scale"
  bottom: "Convolution29"
  top: "Convolution29"
  scale_param {
    bias_term: true
  }
}
layer {
  name: "Eltwise13"
  type: "Eltwise"
  bottom: "Eltwise12"
  bottom: "Convolution29"
  top: "Eltwise13"
  eltwise_param {
    operation: SUM
  }
}
layer {
  name: "elu27"
  type: "ELU"
  bottom: "Eltwise13"
  top: "Eltwise13"
  elu_param {
    alpha: 0.25
  }
}
layer {
  name: "Convolution30"
  type: "Convolution"
  bottom: "Eltwise13"
  top: "Convolution30"
  param {
    lr_mult: 1
    decay_mult: 1
  }
  param {
    lr_mult: 2
    decay_mult: 0
  }
  convolution_param {
    num_output: 64
    pad: 1
    kernel_size: 3
    stride: 1
    weight_filler {
      type: "gaussian"
      std: 0.059
    }
    bias_filler {
      type: "constant"
      value: 0
    }
  }
}
layer {
  name: "BatchNorm30"
  type: "BatchNorm"
  bottom: "Convolution30"
  top: "Convolution30"
  param {
    lr_mult: 0
    decay_mult: 0
  }
  param {
    lr_mult: 0
    decay_mult: 0
  }
  param {
    lr_mult: 0
    decay_mult: 0
  }
}
layer {
  name: "Scale30"
  type: "Scale"
  bottom: "Convolution30"
  top: "Convolution30"
  scale_param {
    bias_term: true
  }
}
layer {
  name: "elu28"
  type: "ELU"
  bottom: "Convolution30"
  top: "Convolution30"
  elu_param {
    alpha: 0.25
  }
}
layer {
  name: "Convolution31"
  type: "Convolution"
  bottom: "Convolution30"
  top: "Convolution31"
  param {
    lr_mult: 1
    decay_mult: 1
  }
  param {
    lr_mult: 2
    decay_mult: 0
  }
  convolution_param {
    num_output: 64
    pad: 1
    kernel_size: 3
    stride: 1
    weight_filler {
      type: "gaussian"
      std: 0.059
    }
    bias_filler {
      type: "constant"
      value: 0
    }
  }
}
layer {
  name: "BatchNorm31"
  type: "BatchNorm"
  bottom: "Convolution31"
  top: "Convolution31"
  param {
    lr_mult: 0
    decay_mult: 0
  }
  param {
    lr_mult: 0
    decay
I1007 22:17:01.916436  5322 layer_factory.hpp:77] Creating layer Data1
I1007 22:17:01.916523  5322 db_lmdb.cpp:35] Opened lmdb /home/x306/caffe/xn/PENLU/data/cifar10/cifar10_train_lmdb
I1007 22:17:01.916558  5322 net.cpp:84] Creating Layer Data1
I1007 22:17:01.916566  5322 net.cpp:380] Data1 -> Data1
I1007 22:17:01.916590  5322 net.cpp:380] Data1 -> Data2
I1007 22:17:01.916604  5322 data_transformer.cpp:25] Loading mean file from: /home/x306/caffe/xn/PENLU/data/cifar10/mean.binaryproto
I1007 22:17:01.918102  5322 data_layer.cpp:45] output data size: 100,3,28,28
I1007 22:17:01.927016  5322 net.cpp:122] Setting up Data1
I1007 22:17:01.927034  5322 net.cpp:129] Top shape: 100 3 28 28 (235200)
I1007 22:17:01.927038  5322 net.cpp:129] Top shape: 100 (100)
I1007 22:17:01.927042  5322 net.cpp:137] Memory required for data: 941200
I1007 22:17:01.927048  5322 layer_factory.hpp:77] Creating layer Convolution1
I1007 22:17:01.927067  5322 net.cpp:84] Creating Layer Convolution1
I1007 22:17:01.927072  5322 net.cpp:406] Convolution1 <- Data1
I1007 22:17:01.927081  5322 net.cpp:380] Convolution1 -> Convolution1
I1007 22:17:02.376924  5322 net.cpp:122] Setting up Convolution1
I1007 22:17:02.376957  5322 net.cpp:129] Top shape: 100 16 28 28 (1254400)
I1007 22:17:02.376960  5322 net.cpp:137] Memory required for data: 5958800
I1007 22:17:02.376976  5322 layer_factory.hpp:77] Creating layer BatchNorm1
I1007 22:17:02.376987  5322 net.cpp:84] Creating Layer BatchNorm1
I1007 22:17:02.377008  5322 net.cpp:406] BatchNorm1 <- Convolution1
I1007 22:17:02.377014  5322 net.cpp:367] BatchNorm1 -> Convolution1 (in-place)
I1007 22:17:02.377151  5322 net.cpp:122] Setting up BatchNorm1
I1007 22:17:02.377156  5322 net.cpp:129] Top shape: 100 16 28 28 (1254400)
I1007 22:17:02.377168  5322 net.cpp:137] Memory required for data: 10976400
I1007 22:17:02.377177  5322 layer_factory.hpp:77] Creating layer Scale1
I1007 22:17:02.377185  5322 net.cpp:84] Creating Layer Scale1
I1007 22:17:02.377188  5322 net.cpp:406] Scale1 <- Convolution1
I1007 22:17:02.377192  5322 net.cpp:367] Scale1 -> Convolution1 (in-place)
I1007 22:17:02.377223  5322 layer_factory.hpp:77] Creating layer Scale1
I1007 22:17:02.377315  5322 net.cpp:122] Setting up Scale1
I1007 22:17:02.377319  5322 net.cpp:129] Top shape: 100 16 28 28 (1254400)
I1007 22:17:02.377332  5322 net.cpp:137] Memory required for data: 15994000
I1007 22:17:02.377336  5322 layer_factory.hpp:77] Creating layer elu1
I1007 22:17:02.377342  5322 net.cpp:84] Creating Layer elu1
I1007 22:17:02.377344  5322 net.cpp:406] elu1 <- Convolution1
I1007 22:17:02.377347  5322 net.cpp:367] elu1 -> Convolution1 (in-place)
I1007 22:17:02.377353  5322 net.cpp:122] Setting up elu1
I1007 22:17:02.377357  5322 net.cpp:129] Top shape: 100 16 28 28 (1254400)
I1007 22:17:02.377358  5322 net.cpp:137] Memory required for data: 21011600
I1007 22:17:02.377360  5322 layer_factory.hpp:77] Creating layer Convolution1_elu1_0_split
I1007 22:17:02.377367  5322 net.cpp:84] Creating Layer Convolution1_elu1_0_split
I1007 22:17:02.377369  5322 net.cpp:406] Convolution1_elu1_0_split <- Convolution1
I1007 22:17:02.377372  5322 net.cpp:380] Convolution1_elu1_0_split -> Convolution1_elu1_0_split_0
I1007 22:17:02.377377  5322 net.cpp:380] Convolution1_elu1_0_split -> Convolution1_elu1_0_split_1
I1007 22:17:02.377399  5322 net.cpp:122] Setting up Convolution1_elu1_0_split
I1007 22:17:02.377404  5322 net.cpp:129] Top shape: 100 16 28 28 (1254400)
I1007 22:17:02.377410  5322 net.cpp:129] Top shape: 100 16 28 28 (1254400)
I1007 22:17:02.377413  5322 net.cpp:137] Memory required for data: 31046800
I1007 22:17:02.377418  5322 layer_factory.hpp:77] Creating layer Convolution2
I1007 22:17:02.377426  5322 net.cpp:84] Creating Layer Convolution2
I1007 22:17:02.377429  5322 net.cpp:406] Convolution2 <- Convolution1_elu1_0_split_0
I1007 22:17:02.377434  5322 net.cpp:380] Convolution2 -> Convolution2
I1007 22:17:02.389611  5322 net.cpp:122] Setting up Convolution2
I1007 22:17:02.389621  5322 net.cpp:129] Top shape: 100 16 28 28 (1254400)
I1007 22:17:02.389636  5322 net.cpp:137] Memory required for data: 36064400
I1007 22:17:02.389642  5322 layer_factory.hpp:77] Creating layer BatchNorm2
I1007 22:17:02.389647  5322 net.cpp:84] Creating Layer BatchNorm2
I1007 22:17:02.389650  5322 net.cpp:406] BatchNorm2 <- Convolution2
I1007 22:17:02.389653  5322 net.cpp:367] BatchNorm2 -> Convolution2 (in-place)
I1007 22:17:02.389777  5322 net.cpp:122] Setting up BatchNorm2
I1007 22:17:02.389782  5322 net.cpp:129] Top shape: 100 16 28 28 (1254400)
I1007 22:17:02.389796  5322 net.cpp:137] Memory required for data: 41082000
I1007 22:17:02.389801  5322 layer_factory.hpp:77] Creating layer Scale2
I1007 22:17:02.389806  5322 net.cpp:84] Creating Layer Scale2
I1007 22:17:02.389808  5322 net.cpp:406] Scale2 <- Convolution2
I1007 22:17:02.389811  5322 net.cpp:367] Scale2 -> Convolution2 (in-place)
I1007 22:17:02.389835  5322 layer_factory.hpp:77] Creating layer Scale2
I1007 22:17:02.389914  5322 net.cpp:122] Setting up Scale2
I1007 22:17:02.389919  5322 net.cpp:129] Top shape: 100 16 28 28 (1254400)
I1007 22:17:02.389930  5322 net.cpp:137] Memory required for data: 46099600
I1007 22:17:02.389935  5322 layer_factory.hpp:77] Creating layer elu2
I1007 22:17:02.389938  5322 net.cpp:84] Creating Layer elu2
I1007 22:17:02.389941  5322 net.cpp:406] elu2 <- Convolution2
I1007 22:17:02.389945  5322 net.cpp:367] elu2 -> Convolution2 (in-place)
I1007 22:17:02.389948  5322 net.cpp:122] Setting up elu2
I1007 22:17:02.389951  5322 net.cpp:129] Top shape: 100 16 28 28 (1254400)
I1007 22:17:02.389961  5322 net.cpp:137] Memory required for data: 51117200
I1007 22:17:02.389963  5322 layer_factory.hpp:77] Creating layer Convolution3
I1007 22:17:02.389971  5322 net.cpp:84] Creating Layer Convolution3
I1007 22:17:02.389973  5322 net.cpp:406] Convolution3 <- Convolution2
I1007 22:17:02.389976  5322 net.cpp:380] Convolution3 -> Convolution3
I1007 22:17:02.402945  5322 net.cpp:122] Setting up Convolution3
I1007 22:17:02.402956  5322 net.cpp:129] Top shape: 100 16 28 28 (1254400)
I1007 22:17:02.402969  5322 net.cpp:137] Memory required for data: 56134800
I1007 22:17:02.402974  5322 layer_factory.hpp:77] Creating layer BatchNorm3
I1007 22:17:02.402979  5322 net.cpp:84] Creating Layer BatchNorm3
I1007 22:17:02.402982  5322 net.cpp:406] BatchNorm3 <- Convolution3
I1007 22:17:02.402987  5322 net.cpp:367] BatchNorm3 -> Convolution3 (in-place)
I1007 22:17:02.403105  5322 net.cpp:122] Setting up BatchNorm3
I1007 22:17:02.403110  5322 net.cpp:129] Top shape: 100 16 28 28 (1254400)
I1007 22:17:02.403112  5322 net.cpp:137] Memory required for data: 61152400
I1007 22:17:02.403120  5322 layer_factory.hpp:77] Creating layer Scale3
I1007 22:17:02.403125  5322 net.cpp:84] Creating Layer Scale3
I1007 22:17:02.403127  5322 net.cpp:406] Scale3 <- Convolution3
I1007 22:17:02.403131  5322 net.cpp:367] Scale3 -> Convolution3 (in-place)
I1007 22:17:02.403154  5322 layer_factory.hpp:77] Creating layer Scale3
I1007 22:17:02.403234  5322 net.cpp:122] Setting up Scale3
I1007 22:17:02.403241  5322 net.cpp:129] Top shape: 100 16 28 28 (1254400)
I1007 22:17:02.403244  5322 net.cpp:137] Memory required for data: 66170000
I1007 22:17:02.403247  5322 layer_factory.hpp:77] Creating layer Eltwise1
I1007 22:17:02.403252  5322 net.cpp:84] Creating Layer Eltwise1
I1007 22:17:02.403255  5322 net.cpp:406] Eltwise1 <- Convolution1_elu1_0_split_1
I1007 22:17:02.403259  5322 net.cpp:406] Eltwise1 <- Convolution3
I1007 22:17:02.403261  5322 net.cpp:380] Eltwise1 -> Eltwise1
I1007 22:17:02.403278  5322 net.cpp:122] Setting up Eltwise1
I1007 22:17:02.403285  5322 net.cpp:129] Top shape: 100 16 28 28 (1254400)
I1007 22:17:02.403287  5322 net.cpp:137] Memory required for data: 71187600
I1007 22:17:02.403290  5322 layer_factory.hpp:77] Creating layer elu3
I1007 22:17:02.403293  5322 net.cpp:84] Creating Layer elu3
I1007 22:17:02.403295  5322 net.cpp:406] elu3 <- Eltwise1
I1007 22:17:02.403298  5322 net.cpp:367] elu3 -> Eltwise1 (in-place)
I1007 22:17:02.403302  5322 net.cpp:122] Setting up elu3
I1007 22:17:02.403306  5322 net.cpp:129] Top shape: 100 16 28 28 (1254400)
I1007 22:17:02.403308  5322 net.cpp:137] Memory required for data: 76205200
I1007 22:17:02.403311  5322 layer_factory.hpp:77] Creating layer Eltwise1_elu3_0_split
I1007 22:17:02.403313  5322 net.cpp:84] Creating Layer Eltwise1_elu3_0_split
I1007 22:17:02.403316  5322 net.cpp:406] Eltwise1_elu3_0_split <- Eltwise1
I1007 22:17:02.403318  5322 net.cpp:380] Eltwise1_elu3_0_split -> Eltwise1_elu3_0_split_0
I1007 22:17:02.403323  5322 net.cpp:380] Eltwise1_elu3_0_split -> Eltwise1_elu3_0_split_1
I1007 22:17:02.403343  5322 net.cpp:122] Setting up Eltwise1_elu3_0_split
I1007 22:17:02.403348  5322 net.cpp:129] Top shape: 100 16 28 28 (1254400)
I1007 22:17:02.403352  5322 net.cpp:129] Top shape: 100 16 28 28 (1254400)
I1007 22:17:02.403353  5322 net.cpp:137] Memory required for data: 86240400
I1007 22:17:02.403355  5322 layer_factory.hpp:77] Creating layer Convolution4
I1007 22:17:02.403363  5322 net.cpp:84] Creating Layer Convolution4
I1007 22:17:02.403365  5322 net.cpp:406] Convolution4 <- Eltwise1_elu3_0_split_0
I1007 22:17:02.403370  5322 net.cpp:380] Convolution4 -> Convolution4
I1007 22:17:02.411850  5322 net.cpp:122] Setting up Convolution4
I1007 22:17:02.411862  5322 net.cpp:129] Top shape: 100 16 28 28 (1254400)
I1007 22:17:02.411875  5322 net.cpp:137] Memory required for data: 91258000
I1007 22:17:02.411880  5322 layer_factory.hpp:77] Creating layer BatchNorm4
I1007 22:17:02.411885  5322 net.cpp:84] Creating Layer BatchNorm4
I1007 22:17:02.411888  5322 net.cpp:406] BatchNorm4 <- Convolution4
I1007 22:17:02.411901  5322 net.cpp:367] BatchNorm4 -> Convolution4 (in-place)
I1007 22:17:02.412029  5322 net.cpp:122] Setting up BatchNorm4
I1007 22:17:02.412034  5322 net.cpp:129] Top shape: 100 16 28 28 (1254400)
I1007 22:17:02.412046  5322 net.cpp:137] Memory required for data: 96275600
I1007 22:17:02.412051  5322 layer_factory.hpp:77] Creating layer Scale4
I1007 22:17:02.412056  5322 net.cpp:84] Creating Layer Scale4
I1007 22:17:02.412060  5322 net.cpp:406] Scale4 <- Convolution4
I1007 22:17:02.412062  5322 net.cpp:367] Scale4 -> Convolution4 (in-place)
I1007 22:17:02.412087  5322 layer_factory.hpp:77] Creating layer Scale4
I1007 22:17:02.412168  5322 net.cpp:122] Setting up Scale4
I1007 22:17:02.412173  5322 net.cpp:129] Top shape: 100 16 28 28 (1254400)
I1007 22:17:02.412174  5322 net.cpp:137] Memory required for data: 101293200
I1007 22:17:02.412189  5322 layer_factory.hpp:77] Creating layer elu4
I1007 22:17:02.412194  5322 net.cpp:84] Creating Layer elu4
I1007 22:17:02.412195  5322 net.cpp:406] elu4 <- Convolution4
I1007 22:17:02.412199  5322 net.cpp:367] elu4 -> Convolution4 (in-place)
I1007 22:17:02.412204  5322 net.cpp:122] Setting up elu4
I1007 22:17:02.412207  5322 net.cpp:129] Top shape: 100 16 28 28 (1254400)
I1007 22:17:02.412209  5322 net.cpp:137] Memory required for data: 106310800
I1007 22:17:02.412211  5322 layer_factory.hpp:77] Creating layer Convolution5
I1007 22:17:02.412219  5322 net.cpp:84] Creating Layer Convolution5
I1007 22:17:02.412221  5322 net.cpp:406] Convolution5 <- Convolution4
I1007 22:17:02.412225  5322 net.cpp:380] Convolution5 -> Convolution5
I1007 22:17:02.418541  5322 net.cpp:122] Setting up Convolution5
I1007 22:17:02.418552  5322 net.cpp:129] Top shape: 100 16 28 28 (1254400)
I1007 22:17:02.418555  5322 net.cpp:137] Memory required for data: 111328400
I1007 22:17:02.418560  5322 layer_factory.hpp:77] Creating layer BatchNorm5
I1007 22:17:02.418565  5322 net.cpp:84] Creating Layer BatchNorm5
I1007 22:17:02.418568  5322 net.cpp:406] BatchNorm5 <- Convolution5
I1007 22:17:02.418572  5322 net.cpp:367] BatchNorm5 -> Convolution5 (in-place)
I1007 22:17:02.418700  5322 net.cpp:122] Setting up BatchNorm5
I1007 22:17:02.418705  5322 net.cpp:129] Top shape: 100 16 28 28 (1254400)
I1007 22:17:02.418717  5322 net.cpp:137] Memory required for data: 116346000
I1007 22:17:02.418725  5322 layer_factory.hpp:77] Creating layer Scale5
I1007 22:17:02.418730  5322 net.cpp:84] Creating Layer Scale5
I1007 22:17:02.418733  5322 net.cpp:406] Scale5 <- Convolution5
I1007 22:17:02.418737  5322 net.cpp:367] Scale5 -> Convolution5 (in-place)
I1007 22:17:02.418762  5322 layer_factory.hpp:77] Creating layer Scale5
I1007 22:17:02.418834  5322 net.cpp:122] Setting up Scale5
I1007 22:17:02.418839  5322 net.cpp:129] Top shape: 100 16 28 28 (1254400)
I1007 22:17:02.418841  5322 net.cpp:137] Memory required for data: 121363600
I1007 22:17:02.418845  5322 layer_factory.hpp:77] Creating layer Eltwise2
I1007 22:17:02.418850  5322 net.cpp:84] Creating Layer Eltwise2
I1007 22:17:02.418853  5322 net.cpp:406] Eltwise2 <- Eltwise1_elu3_0_split_1
I1007 22:17:02.418856  5322 net.cpp:406] Eltwise2 <- Convolution5
I1007 22:17:02.418860  5322 net.cpp:380] Eltwise2 -> Eltwise2
I1007 22:17:02.418874  5322 net.cpp:122] Setting up Eltwise2
I1007 22:17:02.418879  5322 net.cpp:129] Top shape: 100 16 28 28 (1254400)
I1007 22:17:02.418882  5322 net.cpp:137] Memory required for data: 126381200
I1007 22:17:02.418884  5322 layer_factory.hpp:77] Creating layer elu5
I1007 22:17:02.418889  5322 net.cpp:84] Creating Layer elu5
I1007 22:17:02.418891  5322 net.cpp:406] elu5 <- Eltwise2
I1007 22:17:02.418895  5322 net.cpp:367] elu5 -> Eltwise2 (in-place)
I1007 22:17:02.418900  5322 net.cpp:122] Setting up elu5
I1007 22:17:02.418903  5322 net.cpp:129] Top shape: 100 16 28 28 (1254400)
I1007 22:17:02.418905  5322 net.cpp:137] Memory required for data: 131398800
I1007 22:17:02.418907  5322 layer_factory.hpp:77] Creating layer Eltwise2_elu5_0_split
I1007 22:17:02.418911  5322 net.cpp:84] Creating Layer Eltwise2_elu5_0_split
I1007 22:17:02.418921  5322 net.cpp:406] Eltwise2_elu5_0_split <- Eltwise2
I1007 22:17:02.418926  5322 net.cpp:380] Eltwise2_elu5_0_split -> Eltwise2_elu5_0_split_0
I1007 22:17:02.418929  5322 net.cpp:380] Eltwise2_elu5_0_split -> Eltwise2_elu5_0_split_1
I1007 22:17:02.418951  5322 net.cpp:122] Setting up Eltwise2_elu5_0_split
I1007 22:17:02.418956  5322 net.cpp:129] Top shape: 100 16 28 28 (1254400)
I1007 22:17:02.418959  5322 net.cpp:129] Top shape: 100 16 28 28 (1254400)
I1007 22:17:02.418962  5322 net.cpp:137] Memory required for data: 141434000
I1007 22:17:02.418964  5322 layer_factory.hpp:77] Creating layer Convolution6
I1007 22:17:02.418970  5322 net.cpp:84] Creating Layer Convolution6
I1007 22:17:02.418974  5322 net.cpp:406] Convolution6 <- Eltwise2_elu5_0_split_0
I1007 22:17:02.418978  5322 net.cpp:380] Convolution6 -> Convolution6
I1007 22:17:02.425310  5322 net.cpp:122] Setting up Convolution6
I1007 22:17:02.425320  5322 net.cpp:129] Top shape: 100 16 28 28 (1254400)
I1007 22:17:02.425324  5322 net.cpp:137] Memory required for data: 146451600
I1007 22:17:02.425329  5322 layer_factory.hpp:77] Creating layer BatchNorm6
I1007 22:17:02.425335  5322 net.cpp:84] Creating Layer BatchNorm6
I1007 22:17:02.425339  5322 net.cpp:406] BatchNorm6 <- Convolution6
I1007 22:17:02.425343  5322 net.cpp:367] BatchNorm6 -> Convolution6 (in-place)
I1007 22:17:02.425467  5322 net.cpp:122] Setting up BatchNorm6
I1007 22:17:02.425472  5322 net.cpp:129] Top shape: 100 16 28 28 (1254400)
I1007 22:17:02.425475  5322 net.cpp:137] Memory required for data: 151469200
I1007 22:17:02.425480  5322 layer_factory.hpp:77] Creating layer Scale6
I1007 22:17:02.425484  5322 net.cpp:84] Creating Layer Scale6
I1007 22:17:02.425487  5322 net.cpp:406] Scale6 <- Convolution6
I1007 22:17:02.425490  5322 net.cpp:367] Scale6 -> Convolution6 (in-place)
I1007 22:17:02.425515  5322 layer_factory.hpp:77] Creating layer Scale6
I1007 22:17:02.425587  5322 net.cpp:122] Setting up Scale6
I1007 22:17:02.425592  5322 net.cpp:129] Top shape: 100 16 28 28 (1254400)
I1007 22:17:02.425595  5322 net.cpp:137] Memory required for data: 156486800
I1007 22:17:02.425598  5322 layer_factory.hpp:77] Creating layer elu6
I1007 22:17:02.425603  5322 net.cpp:84] Creating Layer elu6
I1007 22:17:02.425606  5322 net.cpp:406] elu6 <- Convolution6
I1007 22:17:02.425611  5322 net.cpp:367] elu6 -> Convolution6 (in-place)
I1007 22:17:02.425614  5322 net.cpp:122] Setting up elu6
I1007 22:17:02.425617  5322 net.cpp:129] Top shape: 100 16 28 28 (1254400)
I1007 22:17:02.425619  5322 net.cpp:137] Memory required for data: 161504400
I1007 22:17:02.425622  5322 layer_factory.hpp:77] Creating layer Convolution7
I1007 22:17:02.425628  5322 net.cpp:84] Creating Layer Convolution7
I1007 22:17:02.425631  5322 net.cpp:406] Convolution7 <- Convolution6
I1007 22:17:02.425635  5322 net.cpp:380] Convolution7 -> Convolution7
I1007 22:17:02.432037  5322 net.cpp:122] Setting up Convolution7
I1007 22:17:02.432047  5322 net.cpp:129] Top shape: 100 16 28 28 (1254400)
I1007 22:17:02.432050  5322 net.cpp:137] Memory required for data: 166522000
I1007 22:17:02.432054  5322 layer_factory.hpp:77] Creating layer BatchNorm7
I1007 22:17:02.432060  5322 net.cpp:84] Creating Layer BatchNorm7
I1007 22:17:02.432062  5322 net.cpp:406] BatchNorm7 <- Convolution7
I1007 22:17:02.432066  5322 net.cpp:367] BatchNorm7 -> Convolution7 (in-place)
I1007 22:17:02.432190  5322 net.cpp:122] Setting up BatchNorm7
I1007 22:17:02.432195  5322 net.cpp:129] Top shape: 100 16 28 28 (1254400)
I1007 22:17:02.432198  5322 net.cpp:137] Memory required for data: 171539600
I1007 22:17:02.432202  5322 layer_factory.hpp:77] Creating layer Scale7
I1007 22:17:02.432209  5322 net.cpp:84] Creating Layer Scale7
I1007 22:17:02.432212  5322 net.cpp:406] Scale7 <- Convolution7
I1007 22:17:02.432216  5322 net.cpp:367] Scale7 -> Convolution7 (in-place)
I1007 22:17:02.432240  5322 layer_factory.hpp:77] Creating layer Scale7
I1007 22:17:02.432312  5322 net.cpp:122] Setting up Scale7
I1007 22:17:02.432317  5322 net.cpp:129] Top shape: 100 16 28 28 (1254400)
I1007 22:17:02.432327  5322 net.cpp:137] Memory required for data: 176557200
I1007 22:17:02.432332  5322 layer_factory.hpp:77] Creating layer Eltwise3
I1007 22:17:02.432337  5322 net.cpp:84] Creating Layer Eltwise3
I1007 22:17:02.432340  5322 net.cpp:406] Eltwise3 <- Eltwise2_elu5_0_split_1
I1007 22:17:02.432343  5322 net.cpp:406] Eltwise3 <- Convolution7
I1007 22:17:02.432348  5322 net.cpp:380] Eltwise3 -> Eltwise3
I1007 22:17:02.432363  5322 net.cpp:122] Setting up Eltwise3
I1007 22:17:02.432368  5322 net.cpp:129] Top shape: 100 16 28 28 (1254400)
I1007 22:17:02.432370  5322 net.cpp:137] Memory required for data: 181574800
I1007 22:17:02.432373  5322 layer_factory.hpp:77] Creating layer elu7
I1007 22:17:02.432376  5322 net.cpp:84] Creating Layer elu7
I1007 22:17:02.432379  5322 net.cpp:406] elu7 <- Eltwise3
I1007 22:17:02.432381  5322 net.cpp:367] elu7 -> Eltwise3 (in-place)
I1007 22:17:02.432386  5322 net.cpp:122] Setting up elu7
I1007 22:17:02.432390  5322 net.cpp:129] Top shape: 100 16 28 28 (1254400)
I1007 22:17:02.432392  5322 net.cpp:137] Memory required for data: 186592400
I1007 22:17:02.432394  5322 layer_factory.hpp:77] Creating layer Eltwise3_elu7_0_split
I1007 22:17:02.432399  5322 net.cpp:84] Creating Layer Eltwise3_elu7_0_split
I1007 22:17:02.432400  5322 net.cpp:406] Eltwise3_elu7_0_split <- Eltwise3
I1007 22:17:02.432404  5322 net.cpp:380] Eltwise3_elu7_0_split -> Eltwise3_elu7_0_split_0
I1007 22:17:02.432409  5322 net.cpp:380] Eltwise3_elu7_0_split -> Eltwise3_elu7_0_split_1
I1007 22:17:02.432430  5322 net.cpp:122] Setting up Eltwise3_elu7_0_split
I1007 22:17:02.432433  5322 net.cpp:129] Top shape: 100 16 28 28 (1254400)
I1007 22:17:02.432436  5322 net.cpp:129] Top shape: 100 16 28 28 (1254400)
I1007 22:17:02.432440  5322 net.cpp:137] Memory required for data: 196627600
I1007 22:17:02.432441  5322 layer_factory.hpp:77] Creating layer Convolution8
I1007 22:17:02.432447  5322 net.cpp:84] Creating Layer Convolution8
I1007 22:17:02.432451  5322 net.cpp:406] Convolution8 <- Eltwise3_elu7_0_split_0
I1007 22:17:02.432456  5322 net.cpp:380] Convolution8 -> Convolution8
I1007 22:17:02.438730  5322 net.cpp:122] Setting up Convolution8
I1007 22:17:02.438740  5322 net.cpp:129] Top shape: 100 16 28 28 (1254400)
I1007 22:17:02.438742  5322 net.cpp:137] Memory required for data: 201645200
I1007 22:17:02.438747  5322 layer_factory.hpp:77] Creating layer BatchNorm8
I1007 22:17:02.438752  5322 net.cpp:84] Creating Layer BatchNorm8
I1007 22:17:02.438755  5322 net.cpp:406] BatchNorm8 <- Convolution8
I1007 22:17:02.438760  5322 net.cpp:367] BatchNorm8 -> Convolution8 (in-place)
I1007 22:17:02.438884  5322 net.cpp:122] Setting up BatchNorm8
I1007 22:17:02.438889  5322 net.cpp:129] Top shape: 100 16 28 28 (1254400)
I1007 22:17:02.438891  5322 net.cpp:137] Memory required for data: 206662800
I1007 22:17:02.438896  5322 layer_factory.hpp:77] Creating layer Scale8
I1007 22:17:02.438901  5322 net.cpp:84] Creating Layer Scale8
I1007 22:17:02.438905  5322 net.cpp:406] Scale8 <- Convolution8
I1007 22:17:02.438907  5322 net.cpp:367] Scale8 -> Convolution8 (in-place)
I1007 22:17:02.438932  5322 layer_factory.hpp:77] Creating layer Scale8
I1007 22:17:02.439005  5322 net.cpp:122] Setting up Scale8
I1007 22:17:02.439010  5322 net.cpp:129] Top shape: 100 16 28 28 (1254400)
I1007 22:17:02.439013  5322 net.cpp:137] Memory required for data: 211680400
I1007 22:17:02.439016  5322 layer_factory.hpp:77] Creating layer elu8
I1007 22:17:02.439020  5322 net.cpp:84] Creating Layer elu8
I1007 22:17:02.439024  5322 net.cpp:406] elu8 <- Convolution8
I1007 22:17:02.439028  5322 net.cpp:367] elu8 -> Convolution8 (in-place)
I1007 22:17:02.439031  5322 net.cpp:122] Setting up elu8
I1007 22:17:02.439035  5322 net.cpp:129] Top shape: 100 16 28 28 (1254400)
I1007 22:17:02.439038  5322 net.cpp:137] Memory required for data: 216698000
I1007 22:17:02.439039  5322 layer_factory.hpp:77] Creating layer Convolution9
I1007 22:17:02.439046  5322 net.cpp:84] Creating Layer Convolution9
I1007 22:17:02.439049  5322 net.cpp:406] Convolution9 <- Convolution8
I1007 22:17:02.439054  5322 net.cpp:380] Convolution9 -> Convolution9
I1007 22:17:02.441915  5322 net.cpp:122] Setting up Convolution9
I1007 22:17:02.441926  5322 net.cpp:129] Top shape: 100 16 28 28 (1254400)
I1007 22:17:02.441929  5322 net.cpp:137] Memory required for data: 221715600
I1007 22:17:02.441934  5322 layer_factory.hpp:77] Creating layer BatchNorm9
I1007 22:17:02.441942  5322 net.cpp:84] Creating Layer BatchNorm9
I1007 22:17:02.441946  5322 net.cpp:406] BatchNorm9 <- Convolution9
I1007 22:17:02.441951  5322 net.cpp:367] BatchNorm9 -> Convolution9 (in-place)
I1007 22:17:02.442076  5322 net.cpp:122] Setting up BatchNorm9
I1007 22:17:02.442081  5322 net.cpp:129] Top shape: 100 16 28 28 (1254400)
I1007 22:17:02.442085  5322 net.cpp:137] Memory required for data: 226733200
I1007 22:17:02.442090  5322 layer_factory.hpp:77] Creating layer Scale9
I1007 22:17:02.442095  5322 net.cpp:84] Creating Layer Scale9
I1007 22:17:02.442097  5322 net.cpp:406] Scale9 <- Convolution9
I1007 22:17:02.442101  5322 net.cpp:367] Scale9 -> Convolution9 (in-place)
I1007 22:17:02.442126  5322 layer_factory.hpp:77] Creating layer Scale9
I1007 22:17:02.442200  5322 net.cpp:122] Setting up Scale9
I1007 22:17:02.442205  5322 net.cpp:129] Top shape: 100 16 28 28 (1254400)
I1007 22:17:02.442209  5322 net.cpp:137] Memory required for data: 231750800
I1007 22:17:02.442212  5322 layer_factory.hpp:77] Creating layer Eltwise4
I1007 22:17:02.442219  5322 net.cpp:84] Creating Layer Eltwise4
I1007 22:17:02.442221  5322 net.cpp:406] Eltwise4 <- Eltwise3_elu7_0_split_1
I1007 22:17:02.442224  5322 net.cpp:406] Eltwise4 <- Convolution9
I1007 22:17:02.442227  5322 net.cpp:380] Eltwise4 -> Eltwise4
I1007 22:17:02.442241  5322 net.cpp:122] Setting up Eltwise4
I1007 22:17:02.442246  5322 net.cpp:129] Top shape: 100 16 28 28 (1254400)
I1007 22:17:02.442248  5322 net.cpp:137] Memory required for data: 236768400
I1007 22:17:02.442250  5322 layer_factory.hpp:77] Creating layer elu9
I1007 22:17:02.442255  5322 net.cpp:84] Creating Layer elu9
I1007 22:17:02.442256  5322 net.cpp:406] elu9 <- Eltwise4
I1007 22:17:02.442260  5322 net.cpp:367] elu9 -> Eltwise4 (in-place)
I1007 22:17:02.442263  5322 net.cpp:122] Setting up elu9
I1007 22:17:02.442267  5322 net.cpp:129] Top shape: 100 16 28 28 (1254400)
I1007 22:17:02.442270  5322 net.cpp:137] Memory required for data: 241786000
I1007 22:17:02.442271  5322 layer_factory.hpp:77] Creating layer Eltwise4_elu9_0_split
I1007 22:17:02.442276  5322 net.cpp:84] Creating Layer Eltwise4_elu9_0_split
I1007 22:17:02.442277  5322 net.cpp:406] Eltwise4_elu9_0_split <- Eltwise4
I1007 22:17:02.442281  5322 net.cpp:380] Eltwise4_elu9_0_split -> Eltwise4_elu9_0_split_0
I1007 22:17:02.442284  5322 net.cpp:380] Eltwise4_elu9_0_split -> Eltwise4_elu9_0_split_1
I1007 22:17:02.442306  5322 net.cpp:122] Setting up Eltwise4_elu9_0_split
I1007 22:17:02.442311  5322 net.cpp:129] Top shape: 100 16 28 28 (1254400)
I1007 22:17:02.442313  5322 net.cpp:129] Top shape: 100 16 28 28 (1254400)
I1007 22:17:02.442315  5322 net.cpp:137] Memory required for data: 251821200
I1007 22:17:02.442317  5322 layer_factory.hpp:77] Creating layer Convolution10
I1007 22:17:02.442323  5322 net.cpp:84] Creating Layer Convolution10
I1007 22:17:02.442327  5322 net.cpp:406] Convolution10 <- Eltwise4_elu9_0_split_0
I1007 22:17:02.442332  5322 net.cpp:380] Convolution10 -> Convolution10
I1007 22:17:02.443188  5322 net.cpp:122] Setting up Convolution10
I1007 22:17:02.443198  5322 net.cpp:129] Top shape: 100 16 28 28 (1254400)
I1007 22:17:02.443202  5322 net.cpp:137] Memory required for data: 256838800
I1007 22:17:02.443213  5322 layer_factory.hpp:77] Creating layer BatchNorm10
I1007 22:17:02.443219  5322 net.cpp:84] Creating Layer BatchNorm10
I1007 22:17:02.443222  5322 net.cpp:406] BatchNorm10 <- Convolution10
I1007 22:17:02.443228  5322 net.cpp:367] BatchNorm10 -> Convolution10 (in-place)
I1007 22:17:02.443358  5322 net.cpp:122] Setting up BatchNorm10
I1007 22:17:02.443364  5322 net.cpp:129] Top shape: 100 16 28 28 (1254400)
I1007 22:17:02.443367  5322 net.cpp:137] Memory required for data: 261856400
I1007 22:17:02.443379  5322 layer_factory.hpp:77] Creating layer Scale10
I1007 22:17:02.443385  5322 net.cpp:84] Creating Layer Scale10
I1007 22:17:02.443388  5322 net.cpp:406] Scale10 <- Convolution10
I1007 22:17:02.443393  5322 net.cpp:367] Scale10 -> Convolution10 (in-place)
I1007 22:17:02.443420  5322 layer_factory.hpp:77] Creating layer Scale10
I1007 22:17:02.443500  5322 net.cpp:122] Setting up Scale10
I1007 22:17:02.443506  5322 net.cpp:129] Top shape: 100 16 28 28 (1254400)
I1007 22:17:02.443508  5322 net.cpp:137] Memory required for data: 266874000
I1007 22:17:02.443513  5322 layer_factory.hpp:77] Creating layer elu10
I1007 22:17:02.443517  5322 net.cpp:84] Creating Layer elu10
I1007 22:17:02.443521  5322 net.cpp:406] elu10 <- Convolution10
I1007 22:17:02.443526  5322 net.cpp:367] elu10 -> Convolution10 (in-place)
I1007 22:17:02.443529  5322 net.cpp:122] Setting up elu10
I1007 22:17:02.443532  5322 net.cpp:129] Top shape: 100 16 28 28 (1254400)
I1007 22:17:02.443534  5322 net.cpp:137] Memory required for data: 271891600
I1007 22:17:02.443537  5322 layer_factory.hpp:77] Creating layer Convolution11
I1007 22:17:02.443543  5322 net.cpp:84] Creating Layer Convolution11
I1007 22:17:02.443547  5322 net.cpp:406] Convolution11 <- Convolution10
I1007 22:17:02.443550  5322 net.cpp:380] Convolution11 -> Convolution11
I1007 22:17:02.444406  5322 net.cpp:122] Setting up Convolution11
I1007 22:17:02.444427  5322 net.cpp:129] Top shape: 100 16 28 28 (1254400)
I1007 22:17:02.444429  5322 net.cpp:137] Memory required for data: 276909200
I1007 22:17:02.444433  5322 layer_factory.hpp:77] Creating layer BatchNorm11
I1007 22:17:02.444439  5322 net.cpp:84] Creating Layer BatchNorm11
I1007 22:17:02.444443  5322 net.cpp:406] BatchNorm11 <- Convolution11
I1007 22:17:02.444447  5322 net.cpp:367] BatchNorm11 -> Convolution11 (in-place)
I1007 22:17:02.444597  5322 net.cpp:122] Setting up BatchNorm11
I1007 22:17:02.444602  5322 net.cpp:129] Top shape: 100 16 28 28 (1254400)
I1007 22:17:02.444604  5322 net.cpp:137] Memory required for data: 281926800
I1007 22:17:02.444609  5322 layer_factory.hpp:77] Creating layer Scale11
I1007 22:17:02.444614  5322 net.cpp:84] Creating Layer Scale11
I1007 22:17:02.444617  5322 net.cpp:406] Scale11 <- Convolution11
I1007 22:17:02.444620  5322 net.cpp:367] Scale11 -> Convolution11 (in-place)
I1007 22:17:02.444646  5322 layer_factory.hpp:77] Creating layer Scale11
I1007 22:17:02.444723  5322 net.cpp:122] Setting up Scale11
I1007 22:17:02.444730  5322 net.cpp:129] Top shape: 100 16 28 28 (1254400)
I1007 22:17:02.444731  5322 net.cpp:137] Memory required for data: 286944400
I1007 22:17:02.444736  5322 layer_factory.hpp:77] Creating layer Eltwise5
I1007 22:17:02.444739  5322 net.cpp:84] Creating Layer Eltwise5
I1007 22:17:02.444741  5322 net.cpp:406] Eltwise5 <- Eltwise4_elu9_0_split_1
I1007 22:17:02.444744  5322 net.cpp:406] Eltwise5 <- Convolution11
I1007 22:17:02.444748  5322 net.cpp:380] Eltwise5 -> Eltwise5
I1007 22:17:02.444764  5322 net.cpp:122] Setting up Eltwise5
I1007 22:17:02.444768  5322 net.cpp:129] Top shape: 100 16 28 28 (1254400)
I1007 22:17:02.444772  5322 net.cpp:137] Memory required for data: 291962000
I1007 22:17:02.444773  5322 layer_factory.hpp:77] Creating layer elu11
I1007 22:17:02.444778  5322 net.cpp:84] Creating Layer elu11
I1007 22:17:02.444780  5322 net.cpp:406] elu11 <- Eltwise5
I1007 22:17:02.444783  5322 net.cpp:367] elu11 -> Eltwise5 (in-place)
I1007 22:17:02.444787  5322 net.cpp:122] Setting up elu11
I1007 22:17:02.444790  5322 net.cpp:129] Top shape: 100 16 28 28 (1254400)
I1007 22:17:02.444792  5322 net.cpp:137] Memory required for data: 296979600
I1007 22:17:02.444794  5322 layer_factory.hpp:77] Creating layer Eltwise5_elu11_0_split
I1007 22:17:02.444798  5322 net.cpp:84] Creating Layer Eltwise5_elu11_0_split
I1007 22:17:02.444800  5322 net.cpp:406] Eltwise5_elu11_0_split <- Eltwise5
I1007 22:17:02.444803  5322 net.cpp:380] Eltwise5_elu11_0_split -> Eltwise5_elu11_0_split_0
I1007 22:17:02.444808  5322 net.cpp:380] Eltwise5_elu11_0_split -> Eltwise5_elu11_0_split_1
I1007 22:17:02.444838  5322 net.cpp:122] Setting up Eltwise5_elu11_0_split
I1007 22:17:02.444842  5322 net.cpp:129] Top shape: 100 16 28 28 (1254400)
I1007 22:17:02.444845  5322 net.cpp:129] Top shape: 100 16 28 28 (1254400)
I1007 22:17:02.444847  5322 net.cpp:137] Memory required for data: 307014800
I1007 22:17:02.444850  5322 layer_factory.hpp:77] Creating layer Convolution12
I1007 22:17:02.444861  5322 net.cpp:84] Creating Layer Convolution12
I1007 22:17:02.444867  5322 net.cpp:406] Convolution12 <- Eltwise5_elu11_0_split_0
I1007 22:17:02.444875  5322 net.cpp:380] Convolution12 -> Convolution12
I1007 22:17:02.449573  5322 net.cpp:122] Setting up Convolution12
I1007 22:17:02.449585  5322 net.cpp:129] Top shape: 100 32 14 14 (627200)
I1007 22:17:02.449590  5322 net.cpp:137] Memory required for data: 309523600
I1007 22:17:02.449597  5322 layer_factory.hpp:77] Creating layer BatchNorm12
I1007 22:17:02.449607  5322 net.cpp:84] Creating Layer BatchNorm12
I1007 22:17:02.449612  5322 net.cpp:406] BatchNorm12 <- Convolution12
I1007 22:17:02.449620  5322 net.cpp:367] BatchNorm12 -> Convolution12 (in-place)
I1007 22:17:02.449816  5322 net.cpp:122] Setting up BatchNorm12
I1007 22:17:02.449825  5322 net.cpp:129] Top shape: 100 32 14 14 (627200)
I1007 22:17:02.449829  5322 net.cpp:137] Memory required for data: 312032400
I1007 22:17:02.449837  5322 layer_factory.hpp:77] Creating layer Scale12
I1007 22:17:02.449844  5322 net.cpp:84] Creating Layer Scale12
I1007 22:17:02.449849  5322 net.cpp:406] Scale12 <- Convolution12
I1007 22:17:02.449856  5322 net.cpp:367] Scale12 -> Convolution12 (in-place)
I1007 22:17:02.449893  5322 layer_factory.hpp:77] Creating layer Scale12
I1007 22:17:02.450002  5322 net.cpp:122] Setting up Scale12
I1007 22:17:02.450011  5322 net.cpp:129] Top shape: 100 32 14 14 (627200)
I1007 22:17:02.450016  5322 net.cpp:137] Memory required for data: 314541200
I1007 22:17:02.450022  5322 layer_factory.hpp:77] Creating layer Convolution13
I1007 22:17:02.450033  5322 net.cpp:84] Creating Layer Convolution13
I1007 22:17:02.450038  5322 net.cpp:406] Convolution13 <- Eltwise5_elu11_0_split_1
I1007 22:17:02.450047  5322 net.cpp:380] Convolution13 -> Convolution13
I1007 22:17:02.456296  5322 net.cpp:122] Setting up Convolution13
I1007 22:17:02.456310  5322 net.cpp:129] Top shape: 100 32 14 14 (627200)
I1007 22:17:02.456315  5322 net.cpp:137] Memory required for data: 317050000
I1007 22:17:02.456322  5322 layer_factory.hpp:77] Creating layer BatchNorm13
I1007 22:17:02.456331  5322 net.cpp:84] Creating Layer BatchNorm13
I1007 22:17:02.456336  5322 net.cpp:406] BatchNorm13 <- Convolution13
I1007 22:17:02.456342  5322 net.cpp:367] BatchNorm13 -> Convolution13 (in-place)
I1007 22:17:02.456537  5322 net.cpp:122] Setting up BatchNorm13
I1007 22:17:02.456545  5322 net.cpp:129] Top shape: 100 32 14 14 (627200)
I1007 22:17:02.456549  5322 net.cpp:137] Memory required for data: 319558800
I1007 22:17:02.456557  5322 layer_factory.hpp:77] Creating layer Scale13
I1007 22:17:02.456565  5322 net.cpp:84] Creating Layer Scale13
I1007 22:17:02.456570  5322 net.cpp:406] Scale13 <- Convolution13
I1007 22:17:02.456578  5322 net.cpp:367] Scale13 -> Convolution13 (in-place)
I1007 22:17:02.456616  5322 layer_factory.hpp:77] Creating layer Scale13
I1007 22:17:02.456729  5322 net.cpp:122] Setting up Scale13
I1007 22:17:02.456737  5322 net.cpp:129] Top shape: 100 32 14 14 (627200)
I1007 22:17:02.456742  5322 net.cpp:137] Memory required for data: 322067600
I1007 22:17:02.456748  5322 layer_factory.hpp:77] Creating layer elu12
I1007 22:17:02.456755  5322 net.cpp:84] Creating Layer elu12
I1007 22:17:02.456760  5322 net.cpp:406] elu12 <- Convolution13
I1007 22:17:02.456766  5322 net.cpp:367] elu12 -> Convolution13 (in-place)
I1007 22:17:02.456773  5322 net.cpp:122] Setting up elu12
I1007 22:17:02.456779  5322 net.cpp:129] Top shape: 100 32 14 14 (627200)
I1007 22:17:02.456784  5322 net.cpp:137] Memory required for data: 324576400
I1007 22:17:02.456787  5322 layer_factory.hpp:77] Creating layer Convolution14
I1007 22:17:02.456799  5322 net.cpp:84] Creating Layer Convolution14
I1007 22:17:02.456814  5322 net.cpp:406] Convolution14 <- Convolution13
I1007 22:17:02.456822  5322 net.cpp:380] Convolution14 -> Convolution14
I1007 22:17:02.462584  5322 net.cpp:122] Setting up Convolution14
I1007 22:17:02.462599  5322 net.cpp:129] Top shape: 100 32 14 14 (627200)
I1007 22:17:02.462604  5322 net.cpp:137] Memory required for data: 327085200
I1007 22:17:02.462611  5322 layer_factory.hpp:77] Creating layer BatchNorm14
I1007 22:17:02.462626  5322 net.cpp:84] Creating Layer BatchNorm14
I1007 22:17:02.462631  5322 net.cpp:406] BatchNorm14 <- Convolution14
I1007 22:17:02.462638  5322 net.cpp:367] BatchNorm14 -> Convolution14 (in-place)
I1007 22:17:02.462831  5322 net.cpp:122] Setting up BatchNorm14
I1007 22:17:02.462839  5322 net.cpp:129] Top shape: 100 32 14 14 (627200)
I1007 22:17:02.462844  5322 net.cpp:137] Memory required for data: 329594000
I1007 22:17:02.462852  5322 layer_factory.hpp:77] Creating layer Scale14
I1007 22:17:02.462859  5322 net.cpp:84] Creating Layer Scale14
I1007 22:17:02.462864  5322 net.cpp:406] Scale14 <- Convolution14
I1007 22:17:02.462870  5322 net.cpp:367] Scale14 -> Convolution14 (in-place)
I1007 22:17:02.462908  5322 layer_factory.hpp:77] Creating layer Scale14
I1007 22:17:02.463018  5322 net.cpp:122] Setting up Scale14
I1007 22:17:02.463027  5322 net.cpp:129] Top shape: 100 32 14 14 (627200)
I1007 22:17:02.463030  5322 net.cpp:137] Memory required for data: 332102800
I1007 22:17:02.463037  5322 layer_factory.hpp:77] Creating layer Eltwise6
I1007 22:17:02.463044  5322 net.cpp:84] Creating Layer Eltwise6
I1007 22:17:02.463049  5322 net.cpp:406] Eltwise6 <- Convolution12
I1007 22:17:02.463054  5322 net.cpp:406] Eltwise6 <- Convolution14
I1007 22:17:02.463063  5322 net.cpp:380] Eltwise6 -> Eltwise6
I1007 22:17:02.463086  5322 net.cpp:122] Setting up Eltwise6
I1007 22:17:02.463093  5322 net.cpp:129] Top shape: 100 32 14 14 (627200)
I1007 22:17:02.463099  5322 net.cpp:137] Memory required for data: 334611600
I1007 22:17:02.463101  5322 layer_factory.hpp:77] Creating layer elu13
I1007 22:17:02.463109  5322 net.cpp:84] Creating Layer elu13
I1007 22:17:02.463114  5322 net.cpp:406] elu13 <- Eltwise6
I1007 22:17:02.463119  5322 net.cpp:367] elu13 -> Eltwise6 (in-place)
I1007 22:17:02.463124  5322 net.cpp:122] Setting up elu13
I1007 22:17:02.463130  5322 net.cpp:129] Top shape: 100 32 14 14 (627200)
I1007 22:17:02.463135  5322 net.cpp:137] Memory required for data: 337120400
I1007 22:17:02.463140  5322 layer_factory.hpp:77] Creating layer Eltwise6_elu13_0_split
I1007 22:17:02.463146  5322 net.cpp:84] Creating Layer Eltwise6_elu13_0_split
I1007 22:17:02.463151  5322 net.cpp:406] Eltwise6_elu13_0_split <- Eltwise6
I1007 22:17:02.463156  5322 net.cpp:380] Eltwise6_elu13_0_split -> Eltwise6_elu13_0_split_0
I1007 22:17:02.463167  5322 net.cpp:380] Eltwise6_elu13_0_split -> Eltwise6_elu13_0_split_1
I1007 22:17:02.463204  5322 net.cpp:122] Setting up Eltwise6_elu13_0_split
I1007 22:17:02.463212  5322 net.cpp:129] Top shape: 100 32 14 14 (627200)
I1007 22:17:02.463218  5322 net.cpp:129] Top shape: 100 32 14 14 (627200)
I1007 22:17:02.463222  5322 net.cpp:137] Memory required for data: 342138000
I1007 22:17:02.463227  5322 layer_factory.hpp:77] Creating layer Convolution15
I1007 22:17:02.463237  5322 net.cpp:84] Creating Layer Convolution15
I1007 22:17:02.463241  5322 net.cpp:406] Convolution15 <- Eltwise6_elu13_0_split_0
I1007 22:17:02.463249  5322 net.cpp:380] Convolution15 -> Convolution15
I1007 22:17:02.464918  5322 net.cpp:122] Setting up Convolution15
I1007 22:17:02.464931  5322 net.cpp:129] Top shape: 100 32 14 14 (627200)
I1007 22:17:02.464936  5322 net.cpp:137] Memory required for data: 344646800
I1007 22:17:02.464943  5322 layer_factory.hpp:77] Creating layer BatchNorm15
I1007 22:17:02.464953  5322 net.cpp:84] Creating Layer BatchNorm15
I1007 22:17:02.464959  5322 net.cpp:406] BatchNorm15 <- Convolution15
I1007 22:17:02.464965  5322 net.cpp:367] BatchNorm15 -> Convolution15 (in-place)
I1007 22:17:02.465167  5322 net.cpp:122] Setting up BatchNorm15
I1007 22:17:02.465175  5322 net.cpp:129] Top shape: 100 32 14 14 (627200)
I1007 22:17:02.465190  5322 net.cpp:137] Memory required for data: 347155600
I1007 22:17:02.465199  5322 layer_factory.hpp:77] Creating layer Scale15
I1007 22:17:02.465207  5322 net.cpp:84] Creating Layer Scale15
I1007 22:17:02.465214  5322 net.cpp:406] Scale15 <- Convolution15
I1007 22:17:02.465219  5322 net.cpp:367] Scale15 -> Convolution15 (in-place)
I1007 22:17:02.465262  5322 layer_factory.hpp:77] Creating layer Scale15
I1007 22:17:02.465378  5322 net.cpp:122] Setting up Scale15
I1007 22:17:02.465386  5322 net.cpp:129] Top shape: 100 32 14 14 (627200)
I1007 22:17:02.465391  5322 net.cpp:137] Memory required for data: 349664400
I1007 22:17:02.465399  5322 layer_factory.hpp:77] Creating layer elu14
I1007 22:17:02.465407  5322 net.cpp:84] Creating Layer elu14
I1007 22:17:02.465412  5322 net.cpp:406] elu14 <- Convolution15
I1007 22:17:02.465417  5322 net.cpp:367] elu14 -> Convolution15 (in-place)
I1007 22:17:02.465425  5322 net.cpp:122] Setting up elu14
I1007 22:17:02.465431  5322 net.cpp:129] Top shape: 100 32 14 14 (627200)
I1007 22:17:02.465436  5322 net.cpp:137] Memory required for data: 352173200
I1007 22:17:02.465441  5322 layer_factory.hpp:77] Creating layer Convolution16
I1007 22:17:02.465452  5322 net.cpp:84] Creating Layer Convolution16
I1007 22:17:02.465457  5322 net.cpp:406] Convolution16 <- Convolution15
I1007 22:17:02.465466  5322 net.cpp:380] Convolution16 -> Convolution16
I1007 22:17:02.478026  5322 net.cpp:122] Setting up Convolution16
I1007 22:17:02.478050  5322 net.cpp:129] Top shape: 100 32 14 14 (627200)
I1007 22:17:02.478054  5322 net.cpp:137] Memory required for data: 354682000
I1007 22:17:02.478068  5322 layer_factory.hpp:77] Creating layer BatchNorm16
I1007 22:17:02.478075  5322 net.cpp:84] Creating Layer BatchNorm16
I1007 22:17:02.478080  5322 net.cpp:406] BatchNorm16 <- Convolution16
I1007 22:17:02.478083  5322 net.cpp:367] BatchNorm16 -> Convolution16 (in-place)
I1007 22:17:02.478232  5322 net.cpp:122] Setting up BatchNorm16
I1007 22:17:02.478237  5322 net.cpp:129] Top shape: 100 32 14 14 (627200)
I1007 22:17:02.478240  5322 net.cpp:137] Memory required for data: 357190800
I1007 22:17:02.478245  5322 layer_factory.hpp:77] Creating layer Scale16
I1007 22:17:02.478267  5322 net.cpp:84] Creating Layer Scale16
I1007 22:17:02.478271  5322 net.cpp:406] Scale16 <- Convolution16
I1007 22:17:02.478274  5322 net.cpp:367] Scale16 -> Convolution16 (in-place)
I1007 22:17:02.478317  5322 layer_factory.hpp:77] Creating layer Scale16
I1007 22:17:02.478405  5322 net.cpp:122] Setting up Scale16
I1007 22:17:02.478410  5322 net.cpp:129] Top shape: 100 32 14 14 (627200)
I1007 22:17:02.478412  5322 net.cpp:137] Memory required for data: 359699600
I1007 22:17:02.478417  5322 layer_factory.hpp:77] Creating layer Eltwise7
I1007 22:17:02.478422  5322 net.cpp:84] Creating Layer Eltwise7
I1007 22:17:02.478425  5322 net.cpp:406] Eltwise7 <- Eltwise6_elu13_0_split_1
I1007 22:17:02.478428  5322 net.cpp:406] Eltwise7 <- Convolution16
I1007 22:17:02.478432  5322 net.cpp:380] Eltwise7 -> Eltwise7
I1007 22:17:02.478448  5322 net.cpp:122] Setting up Eltwise7
I1007 22:17:02.478453  5322 net.cpp:129] Top shape: 100 32 14 14 (627200)
I1007 22:17:02.478456  5322 net.cpp:137] Memory required for data: 362208400
I1007 22:17:02.478457  5322 layer_factory.hpp:77] Creating layer elu15
I1007 22:17:02.478461  5322 net.cpp:84] Creating Layer elu15
I1007 22:17:02.478463  5322 net.cpp:406] elu15 <- Eltwise7
I1007 22:17:02.478467  5322 net.cpp:367] elu15 -> Eltwise7 (in-place)
I1007 22:17:02.478471  5322 net.cpp:122] Setting up elu15
I1007 22:17:02.478474  5322 net.cpp:129] Top shape: 100 32 14 14 (627200)
I1007 22:17:02.478477  5322 net.cpp:137] Memory required for data: 364717200
I1007 22:17:02.478479  5322 layer_factory.hpp:77] Creating layer Eltwise7_elu15_0_split
I1007 22:17:02.478483  5322 net.cpp:84] Creating Layer Eltwise7_elu15_0_split
I1007 22:17:02.478485  5322 net.cpp:406] Eltwise7_elu15_0_split <- Eltwise7
I1007 22:17:02.478488  5322 net.cpp:380] Eltwise7_elu15_0_split -> Eltwise7_elu15_0_split_0
I1007 22:17:02.478502  5322 net.cpp:380] Eltwise7_elu15_0_split -> Eltwise7_elu15_0_split_1
I1007 22:17:02.478526  5322 net.cpp:122] Setting up Eltwise7_elu15_0_split
I1007 22:17:02.478531  5322 net.cpp:129] Top shape: 100 32 14 14 (627200)
I1007 22:17:02.478534  5322 net.cpp:129] Top shape: 100 32 14 14 (627200)
I1007 22:17:02.478536  5322 net.cpp:137] Memory required for data: 369734800
I1007 22:17:02.478538  5322 layer_factory.hpp:77] Creating layer Convolution17
I1007 22:17:02.478544  5322 net.cpp:84] Creating Layer Convolution17
I1007 22:17:02.478549  5322 net.cpp:406] Convolution17 <- Eltwise7_elu15_0_split_0
I1007 22:17:02.478552  5322 net.cpp:380] Convolution17 -> Convolution17
I1007 22:17:02.491245  5322 net.cpp:122] Setting up Convolution17
I1007 22:17:02.491255  5322 net.cpp:129] Top shape: 100 32 14 14 (627200)
I1007 22:17:02.491257  5322 net.cpp:137] Memory required for data: 372243600
I1007 22:17:02.491261  5322 layer_factory.hpp:77] Creating layer BatchNorm17
I1007 22:17:02.491267  5322 net.cpp:84] Creating Layer BatchNorm17
I1007 22:17:02.491271  5322 net.cpp:406] BatchNorm17 <- Convolution17
I1007 22:17:02.491273  5322 net.cpp:367] BatchNorm17 -> Convolution17 (in-place)
I1007 22:17:02.491406  5322 net.cpp:122] Setting up BatchNorm17
I1007 22:17:02.491411  5322 net.cpp:129] Top shape: 100 32 14 14 (627200)
I1007 22:17:02.491413  5322 net.cpp:137] Memory required for data: 374752400
I1007 22:17:02.491418  5322 layer_factory.hpp:77] Creating layer Scale17
I1007 22:17:02.491425  5322 net.cpp:84] Creating Layer Scale17
I1007 22:17:02.491427  5322 net.cpp:406] Scale17 <- Convolution17
I1007 22:17:02.491431  5322 net.cpp:367] Scale17 -> Convolution17 (in-place)
I1007 22:17:02.491457  5322 layer_factory.hpp:77] Creating layer Scale17
I1007 22:17:02.491534  5322 net.cpp:122] Setting up Scale17
I1007 22:17:02.491539  5322 net.cpp:129] Top shape: 100 32 14 14 (627200)
I1007 22:17:02.491542  5322 net.cpp:137] Memory required for data: 377261200
I1007 22:17:02.491546  5322 layer_factory.hpp:77] Creating layer elu16
I1007 22:17:02.491552  5322 net.cpp:84] Creating Layer elu16
I1007 22:17:02.491555  5322 net.cpp:406] elu16 <- Convolution17
I1007 22:17:02.491559  5322 net.cpp:367] elu16 -> Convolution17 (in-place)
I1007 22:17:02.491562  5322 net.cpp:122] Setting up elu16
I1007 22:17:02.491565  5322 net.cpp:129] Top shape: 100 32 14 14 (627200)
I1007 22:17:02.491567  5322 net.cpp:137] Memory required for data: 379770000
I1007 22:17:02.491569  5322 layer_factory.hpp:77] Creating layer Convolution18
I1007 22:17:02.491576  5322 net.cpp:84] Creating Layer Convolution18
I1007 22:17:02.491580  5322 net.cpp:406] Convolution18 <- Convolution17
I1007 22:17:02.491585  5322 net.cpp:380] Convolution18 -> Convolution18
I1007 22:17:02.504340  5322 net.cpp:122] Setting up Convolution18
I1007 22:17:02.504351  5322 net.cpp:129] Top shape: 100 32 14 14 (627200)
I1007 22:17:02.504354  5322 net.cpp:137] Memory required for data: 382278800
I1007 22:17:02.504369  5322 layer_factory.hpp:77] Creating layer BatchNorm18
I1007 22:17:02.504374  5322 net.cpp:84] Creating Layer BatchNorm18
I1007 22:17:02.504379  5322 net.cpp:406] BatchNorm18 <- Convolution18
I1007 22:17:02.504381  5322 net.cpp:367] BatchNorm18 -> Convolution18 (in-place)
I1007 22:17:02.504523  5322 net.cpp:122] Setting up BatchNorm18
I1007 22:17:02.504528  5322 net.cpp:129] Top shape: 100 32 14 14 (627200)
I1007 22:17:02.504530  5322 net.cpp:137] Memory required for data: 384787600
I1007 22:17:02.504545  5322 layer_factory.hpp:77] Creating layer Scale18
I1007 22:17:02.504550  5322 net.cpp:84] Creating Layer Scale18
I1007 22:17:02.504554  5322 net.cpp:406] Scale18 <- Convolution18
I1007 22:17:02.504556  5322 net.cpp:367] Scale18 -> Convolution18 (in-place)
I1007 22:17:02.504595  5322 layer_factory.hpp:77] Creating layer Scale18
I1007 22:17:02.504680  5322 net.cpp:122] Setting up Scale18
I1007 22:17:02.504685  5322 net.cpp:129] Top shape: 100 32 14 14 (627200)
I1007 22:17:02.504688  5322 net.cpp:137] Memory required for data: 387296400
I1007 22:17:02.504693  5322 layer_factory.hpp:77] Creating layer Eltwise8
I1007 22:17:02.504704  5322 net.cpp:84] Creating Layer Eltwise8
I1007 22:17:02.504709  5322 net.cpp:406] Eltwise8 <- Eltwise7_elu15_0_split_1
I1007 22:17:02.504711  5322 net.cpp:406] Eltwise8 <- Convolution18
I1007 22:17:02.504714  5322 net.cpp:380] Eltwise8 -> Eltwise8
I1007 22:17:02.504732  5322 net.cpp:122] Setting up Eltwise8
I1007 22:17:02.504736  5322 net.cpp:129] Top shape: 100 32 14 14 (627200)
I1007 22:17:02.504739  5322 net.cpp:137] Memory required for data: 389805200
I1007 22:17:02.504741  5322 layer_factory.hpp:77] Creating layer elu17
I1007 22:17:02.504745  5322 net.cpp:84] Creating Layer elu17
I1007 22:17:02.504747  5322 net.cpp:406] elu17 <- Eltwise8
I1007 22:17:02.504750  5322 net.cpp:367] elu17 -> Eltwise8 (in-place)
I1007 22:17:02.504755  5322 net.cpp:122] Setting up elu17
I1007 22:17:02.504758  5322 net.cpp:129] Top shape: 100 32 14 14 (627200)
I1007 22:17:02.504760  5322 net.cpp:137] Memory required for data: 392314000
I1007 22:17:02.504763  5322 layer_factory.hpp:77] Creating layer Eltwise8_elu17_0_split
I1007 22:17:02.504766  5322 net.cpp:84] Creating Layer Eltwise8_elu17_0_split
I1007 22:17:02.504768  5322 net.cpp:406] Eltwise8_elu17_0_split <- Eltwise8
I1007 22:17:02.504772  5322 net.cpp:380] Eltwise8_elu17_0_split -> Eltwise8_elu17_0_split_0
I1007 22:17:02.504776  5322 net.cpp:380] Eltwise8_elu17_0_split -> Eltwise8_elu17_0_split_1
I1007 22:17:02.504798  5322 net.cpp:122] Setting up Eltwise8_elu17_0_split
I1007 22:17:02.504803  5322 net.cpp:129] Top shape: 100 32 14 14 (627200)
I1007 22:17:02.504806  5322 net.cpp:129] Top shape: 100 32 14 14 (627200)
I1007 22:17:02.504808  5322 net.cpp:137] Memory required for data: 397331600
I1007 22:17:02.504811  5322 layer_factory.hpp:77] Creating layer Convolution19
I1007 22:17:02.504817  5322 net.cpp:84] Creating Layer Convolution19
I1007 22:17:02.504820  5322 net.cpp:406] Convolution19 <- Eltwise8_elu17_0_split_0
I1007 22:17:02.504824  5322 net.cpp:380] Convolution19 -> Convolution19
I1007 22:17:02.512835  5322 net.cpp:122] Setting up Convolution19
I1007 22:17:02.512847  5322 net.cpp:129] Top shape: 100 32 14 14 (627200)
I1007 22:17:02.512850  5322 net.cpp:137] Memory required for data: 399840400
I1007 22:17:02.512866  5322 layer_factory.hpp:77] Creating layer BatchNorm19
I1007 22:17:02.512871  5322 net.cpp:84] Creating Layer BatchNorm19
I1007 22:17:02.512874  5322 net.cpp:406] BatchNorm19 <- Convolution19
I1007 22:17:02.512879  5322 net.cpp:367] BatchNorm19 -> Convolution19 (in-place)
I1007 22:17:02.513027  5322 net.cpp:122] Setting up BatchNorm19
I1007 22:17:02.513032  5322 net.cpp:129] Top shape: 100 32 14 14 (627200)
I1007 22:17:02.513036  5322 net.cpp:137] Memory required for data: 402349200
I1007 22:17:02.513062  5322 layer_factory.hpp:77] Creating layer Scale19
I1007 22:17:02.513077  5322 net.cpp:84] Creating Layer Scale19
I1007 22:17:02.513080  5322 net.cpp:406] Scale19 <- Convolution19
I1007 22:17:02.513085  5322 net.cpp:367] Scale19 -> Convolution19 (in-place)
I1007 22:17:02.513125  5322 layer_factory.hpp:77] Creating layer Scale19
I1007 22:17:02.513206  5322 net.cpp:122] Setting up Scale19
I1007 22:17:02.513211  5322 net.cpp:129] Top shape: 100 32 14 14 (627200)
I1007 22:17:02.513212  5322 net.cpp:137] Memory required for data: 404858000
I1007 22:17:02.513217  5322 layer_factory.hpp:77] Creating layer elu18
I1007 22:17:02.513221  5322 net.cpp:84] Creating Layer elu18
I1007 22:17:02.513223  5322 net.cpp:406] elu18 <- Convolution19
I1007 22:17:02.513226  5322 net.cpp:367] elu18 -> Convolution19 (in-place)
I1007 22:17:02.513231  5322 net.cpp:122] Setting up elu18
I1007 22:17:02.513233  5322 net.cpp:129] Top shape: 100 32 14 14 (627200)
I1007 22:17:02.513236  5322 net.cpp:137] Memory required for data: 407366800
I1007 22:17:02.513237  5322 layer_factory.hpp:77] Creating layer Convolution20
I1007 22:17:02.513244  5322 net.cpp:84] Creating Layer Convolution20
I1007 22:17:02.513247  5322 net.cpp:406] Convolution20 <- Convolution19
I1007 22:17:02.513252  5322 net.cpp:380] Convolution20 -> Convolution20
I1007 22:17:02.521339  5322 net.cpp:122] Setting up Convolution20
I1007 22:17:02.521356  5322 net.cpp:129] Top shape: 100 32 14 14 (627200)
I1007 22:17:02.521360  5322 net.cpp:137] Memory required for data: 409875600
I1007 22:17:02.521364  5322 layer_factory.hpp:77] Creating layer BatchNorm20
I1007 22:17:02.521369  5322 net.cpp:84] Creating Layer BatchNorm20
I1007 22:17:02.521373  5322 net.cpp:406] BatchNorm20 <- Convolution20
I1007 22:17:02.521376  5322 net.cpp:367] BatchNorm20 -> Convolution20 (in-place)
I1007 22:17:02.521513  5322 net.cpp:122] Setting up BatchNorm20
I1007 22:17:02.521519  5322 net.cpp:129] Top shape: 100 32 14 14 (627200)
I1007 22:17:02.521522  5322 net.cpp:137] Memory required for data: 412384400
I1007 22:17:02.521526  5322 layer_factory.hpp:77] Creating layer Scale20
I1007 22:17:02.521530  5322 net.cpp:84] Creating Layer Scale20
I1007 22:17:02.521533  5322 net.cpp:406] Scale20 <- Convolution20
I1007 22:17:02.521538  5322 net.cpp:367] Scale20 -> Convolution20 (in-place)
I1007 22:17:02.521564  5322 layer_factory.hpp:77] Creating layer Scale20
I1007 22:17:02.521643  5322 net.cpp:122] Setting up Scale20
I1007 22:17:02.521648  5322 net.cpp:129] Top shape: 100 32 14 14 (627200)
I1007 22:17:02.521651  5322 net.cpp:137] Memory required for data: 414893200
I1007 22:17:02.521654  5322 layer_factory.hpp:77] Creating layer Eltwise9
I1007 22:17:02.521658  5322 net.cpp:84] Creating Layer Eltwise9
I1007 22:17:02.521661  5322 net.cpp:406] Eltwise9 <- Eltwise8_elu17_0_split_1
I1007 22:17:02.521664  5322 net.cpp:406] Eltwise9 <- Convolution20
I1007 22:17:02.521668  5322 net.cpp:380] Eltwise9 -> Eltwise9
I1007 22:17:02.521684  5322 net.cpp:122] Setting up Eltwise9
I1007 22:17:02.521689  5322 net.cpp:129] Top shape: 100 32 14 14 (627200)
I1007 22:17:02.521692  5322 net.cpp:137] Memory required for data: 417402000
I1007 22:17:02.521693  5322 layer_factory.hpp:77] Creating layer elu19
I1007 22:17:02.521697  5322 net.cpp:84] Creating Layer elu19
I1007 22:17:02.521699  5322 net.cpp:406] elu19 <- Eltwise9
I1007 22:17:02.521703  5322 net.cpp:367] elu19 -> Eltwise9 (in-place)
I1007 22:17:02.521706  5322 net.cpp:122] Setting up elu19
I1007 22:17:02.521709  5322 net.cpp:129] Top shape: 100 32 14 14 (627200)
I1007 22:17:02.521711  5322 net.cpp:137] Memory required for data: 419910800
I1007 22:17:02.521713  5322 layer_factory.hpp:77] Creating layer Eltwise9_elu19_0_split
I1007 22:17:02.521718  5322 net.cpp:84] Creating Layer Eltwise9_elu19_0_split
I1007 22:17:02.521719  5322 net.cpp:406] Eltwise9_elu19_0_split <- Eltwise9
I1007 22:17:02.521724  5322 net.cpp:380] Eltwise9_elu19_0_split -> Eltwise9_elu19_0_split_0
I1007 22:17:02.521729  5322 net.cpp:380] Eltwise9_elu19_0_split -> Eltwise9_elu19_0_split_1
I1007 22:17:02.521751  5322 net.cpp:122] Setting up Eltwise9_elu19_0_split
I1007 22:17:02.521756  5322 net.cpp:129] Top shape: 100 32 14 14 (627200)
I1007 22:17:02.521759  5322 net.cpp:129] Top shape: 100 32 14 14 (627200)
I1007 22:17:02.521762  5322 net.cpp:137] Memory required for data: 424928400
I1007 22:17:02.521764  5322 layer_factory.hpp:77] Creating layer Convolution21
I1007 22:17:02.521770  5322 net.cpp:84] Creating Layer Convolution21
I1007 22:17:02.521773  5322 net.cpp:406] Convolution21 <- Eltwise9_elu19_0_split_0
I1007 22:17:02.521778  5322 net.cpp:380] Convolution21 -> Convolution21
I1007 22:17:02.534754  5322 net.cpp:122] Setting up Convolution21
I1007 22:17:02.534766  5322 net.cpp:129] Top shape: 100 32 14 14 (627200)
I1007 22:17:02.534770  5322 net.cpp:137] Memory required for data: 427437200
I1007 22:17:02.534773  5322 layer_factory.hpp:77] Creating layer BatchNorm21
I1007 22:17:02.534780  5322 net.cpp:84] Creating Layer BatchNorm21
I1007 22:17:02.534788  5322 net.cpp:406] BatchNorm21 <- Convolution21
I1007 22:17:02.534792  5322 net.cpp:367] BatchNorm21 -> Convolution21 (in-place)
I1007 22:17:02.534934  5322 net.cpp:122] Setting up BatchNorm21
I1007 22:17:02.534940  5322 net.cpp:129] Top shape: 100 32 14 14 (627200)
I1007 22:17:02.534941  5322 net.cpp:137] Memory required for data: 429946000
I1007 22:17:02.534946  5322 layer_factory.hpp:77] Creating layer Scale21
I1007 22:17:02.534960  5322 net.cpp:84] Creating Layer Scale21
I1007 22:17:02.534962  5322 net.cpp:406] Scale21 <- Convolution21
I1007 22:17:02.534976  5322 net.cpp:367] Scale21 -> Convolution21 (in-place)
I1007 22:17:02.535015  5322 layer_factory.hpp:77] Creating layer Scale21
I1007 22:17:02.535094  5322 net.cpp:122] Setting up Scale21
I1007 22:17:02.535099  5322 net.cpp:129] Top shape: 100 32 14 14 (627200)
I1007 22:17:02.535102  5322 net.cpp:137] Memory required for data: 432454800
I1007 22:17:02.535106  5322 layer_factory.hpp:77] Creating layer elu20
I1007 22:17:02.535110  5322 net.cpp:84] Creating Layer elu20
I1007 22:17:02.535112  5322 net.cpp:406] elu20 <- Convolution21
I1007 22:17:02.535116  5322 net.cpp:367] elu20 -> Convolution21 (in-place)
I1007 22:17:02.535120  5322 net.cpp:122] Setting up elu20
I1007 22:17:02.535125  5322 net.cpp:129] Top shape: 100 32 14 14 (627200)
I1007 22:17:02.535127  5322 net.cpp:137] Memory required for data: 434963600
I1007 22:17:02.535130  5322 layer_factory.hpp:77] Creating layer Convolution22
I1007 22:17:02.535136  5322 net.cpp:84] Creating Layer Convolution22
I1007 22:17:02.535140  5322 net.cpp:406] Convolution22 <- Convolution21
I1007 22:17:02.535143  5322 net.cpp:380] Convolution22 -> Convolution22
I1007 22:17:02.548141  5322 net.cpp:122] Setting up Convolution22
I1007 22:17:02.548151  5322 net.cpp:129] Top shape: 100 32 14 14 (627200)
I1007 22:17:02.548153  5322 net.cpp:137] Memory required for data: 437472400
I1007 22:17:02.548168  5322 layer_factory.hpp:77] Creating layer BatchNorm22
I1007 22:17:02.548176  5322 net.cpp:84] Creating Layer BatchNorm22
I1007 22:17:02.548182  5322 net.cpp:406] BatchNorm22 <- Convolution22
I1007 22:17:02.548197  5322 net.cpp:367] BatchNorm22 -> Convolution22 (in-place)
I1007 22:17:02.548337  5322 net.cpp:122] Setting up BatchNorm22
I1007 22:17:02.548343  5322 net.cpp:129] Top shape: 100 32 14 14 (627200)
I1007 22:17:02.548346  5322 net.cpp:137] Memory required for data: 439981200
I1007 22:17:02.548365  5322 layer_factory.hpp:77] Creating layer Scale22
I1007 22:17:02.548372  5322 net.cpp:84] Creating Layer Scale22
I1007 22:17:02.548375  5322 net.cpp:406] Scale22 <- Convolution22
I1007 22:17:02.548378  5322 net.cpp:367] Scale22 -> Convolution22 (in-place)
I1007 22:17:02.548420  5322 layer_factory.hpp:77] Creating layer Scale22
I1007 22:17:02.548502  5322 net.cpp:122] Setting up Scale22
I1007 22:17:02.548508  5322 net.cpp:129] Top shape: 100 32 14 14 (627200)
I1007 22:17:02.548511  5322 net.cpp:137] Memory required for data: 442490000
I1007 22:17:02.548528  5322 layer_factory.hpp:77] Creating layer Eltwise10
I1007 22:17:02.548534  5322 net.cpp:84] Creating Layer Eltwise10
I1007 22:17:02.548537  5322 net.cpp:406] Eltwise10 <- Eltwise9_elu19_0_split_1
I1007 22:17:02.548540  5322 net.cpp:406] Eltwise10 <- Convolution22
I1007 22:17:02.548545  5322 net.cpp:380] Eltwise10 -> Eltwise10
I1007 22:17:02.548563  5322 net.cpp:122] Setting up Eltwise10
I1007 22:17:02.548578  5322 net.cpp:129] Top shape: 100 32 14 14 (627200)
I1007 22:17:02.548579  5322 net.cpp:137] Memory required for data: 444998800
I1007 22:17:02.548581  5322 layer_factory.hpp:77] Creating layer elu21
I1007 22:17:02.548595  5322 net.cpp:84] Creating Layer elu21
I1007 22:17:02.548599  5322 net.cpp:406] elu21 <- Eltwise10
I1007 22:17:02.548602  5322 net.cpp:367] elu21 -> Eltwise10 (in-place)
I1007 22:17:02.548605  5322 net.cpp:122] Setting up elu21
I1007 22:17:02.548609  5322 net.cpp:129] Top shape: 100 32 14 14 (627200)
I1007 22:17:02.548611  5322 net.cpp:137] Memory required for data: 447507600
I1007 22:17:02.548614  5322 layer_factory.hpp:77] Creating layer Eltwise10_elu21_0_split
I1007 22:17:02.548617  5322 net.cpp:84] Creating Layer Eltwise10_elu21_0_split
I1007 22:17:02.548619  5322 net.cpp:406] Eltwise10_elu21_0_split <- Eltwise10
I1007 22:17:02.548622  5322 net.cpp:380] Eltwise10_elu21_0_split -> Eltwise10_elu21_0_split_0
I1007 22:17:02.548626  5322 net.cpp:380] Eltwise10_elu21_0_split -> Eltwise10_elu21_0_split_1
I1007 22:17:02.548650  5322 net.cpp:122] Setting up Eltwise10_elu21_0_split
I1007 22:17:02.548662  5322 net.cpp:129] Top shape: 100 32 14 14 (627200)
I1007 22:17:02.548666  5322 net.cpp:129] Top shape: 100 32 14 14 (627200)
I1007 22:17:02.548668  5322 net.cpp:137] Memory required for data: 452525200
I1007 22:17:02.548671  5322 layer_factory.hpp:77] Creating layer Convolution23
I1007 22:17:02.548678  5322 net.cpp:84] Creating Layer Convolution23
I1007 22:17:02.548681  5322 net.cpp:406] Convolution23 <- Eltwise10_elu21_0_split_0
I1007 22:17:02.548686  5322 net.cpp:380] Convolution23 -> Convolution23
I1007 22:17:02.561270  5322 net.cpp:122] Setting up Convolution23
I1007 22:17:02.561280  5322 net.cpp:129] Top shape: 100 64 7 7 (313600)
I1007 22:17:02.561283  5322 net.cpp:137] Memory required for data: 453779600
I1007 22:17:02.561290  5322 layer_factory.hpp:77] Creating layer BatchNorm23
I1007 22:17:02.561297  5322 net.cpp:84] Creating Layer BatchNorm23
I1007 22:17:02.561302  5322 net.cpp:406] BatchNorm23 <- Convolution23
I1007 22:17:02.561309  5322 net.cpp:367] BatchNorm23 -> Convolution23 (in-place)
I1007 22:17:02.561450  5322 net.cpp:122] Setting up BatchNorm23
I1007 22:17:02.561456  5322 net.cpp:129] Top shape: 100 64 7 7 (313600)
I1007 22:17:02.561460  5322 net.cpp:137] Memory required for data: 455034000
I1007 22:17:02.561470  5322 layer_factory.hpp:77] Creating layer Scale23
I1007 22:17:02.561475  5322 net.cpp:84] Creating Layer Scale23
I1007 22:17:02.561478  5322 net.cpp:406] Scale23 <- Convolution23
I1007 22:17:02.561486  5322 net.cpp:367] Scale23 -> Convolution23 (in-place)
I1007 22:17:02.561517  5322 layer_factory.hpp:77] Creating layer Scale23
I1007 22:17:02.561599  5322 net.cpp:122] Setting up Scale23
I1007 22:17:02.561604  5322 net.cpp:129] Top shape: 100 64 7 7 (313600)
I1007 22:17:02.561609  5322 net.cpp:137] Memory required for data: 456288400
I1007 22:17:02.561615  5322 layer_factory.hpp:77] Creating layer Convolution24
I1007 22:17:02.561625  5322 net.cpp:84] Creating Layer Convolution24
I1007 22:17:02.561630  5322 net.cpp:406] Convolution24 <- Eltwise10_elu21_0_split_1
I1007 22:17:02.561636  5322 net.cpp:380] Convolution24 -> Convolution24
I1007 22:17:02.574920  5322 net.cpp:122] Setting up Convolution24
I1007 22:17:02.574932  5322 net.cpp:129] Top shape: 100 64 7 7 (313600)
I1007 22:17:02.574936  5322 net.cpp:137] Memory required for data: 457542800
I1007 22:17:02.574944  5322 layer_factory.hpp:77] Creating layer BatchNorm24
I1007 22:17:02.574964  5322 net.cpp:84] Creating Layer BatchNorm24
I1007 22:17:02.574967  5322 net.cpp:406] BatchNorm24 <- Convolution24
I1007 22:17:02.574971  5322 net.cpp:367] BatchNorm24 -> Convolution24 (in-place)
I1007 22:17:02.575117  5322 net.cpp:122] Setting up BatchNorm24
I1007 22:17:02.575124  5322 net.cpp:129] Top shape: 100 64 7 7 (313600)
I1007 22:17:02.575125  5322 net.cpp:137] Memory required for data: 458797200
I1007 22:17:02.575145  5322 layer_factory.hpp:77] Creating layer Scale24
I1007 22:17:02.575150  5322 net.cpp:84] Creating Layer Scale24
I1007 22:17:02.575152  5322 net.cpp:406] Scale24 <- Convolution24
I1007 22:17:02.575157  5322 net.cpp:367] Scale24 -> Convolution24 (in-place)
I1007 22:17:02.575196  5322 layer_factory.hpp:77] Creating layer Scale24
I1007 22:17:02.575280  5322 net.cpp:122] Setting up Scale24
I1007 22:17:02.575286  5322 net.cpp:129] Top shape: 100 64 7 7 (313600)
I1007 22:17:02.575289  5322 net.cpp:137] Memory required for data: 460051600
I1007 22:17:02.575295  5322 layer_factory.hpp:77] Creating layer elu22
I1007 22:17:02.575300  5322 net.cpp:84] Creating Layer elu22
I1007 22:17:02.575304  5322 net.cpp:406] elu22 <- Convolution24
I1007 22:17:02.575307  5322 net.cpp:367] elu22 -> Convolution24 (in-place)
I1007 22:17:02.575312  5322 net.cpp:122] Setting up elu22
I1007 22:17:02.575316  5322 net.cpp:129] Top shape: 100 64 7 7 (313600)
I1007 22:17:02.575318  5322 net.cpp:137] Memory required for data: 461306000
I1007 22:17:02.575321  5322 layer_factory.hpp:77] Creating layer Convolution25
I1007 22:17:02.575330  5322 net.cpp:84] Creating Layer Convolution25
I1007 22:17:02.575333  5322 net.cpp:406] Convolution25 <- Convolution24
I1007 22:17:02.575350  5322 net.cpp:380] Convolution25 -> Convolution25
I1007 22:17:02.582332  5322 net.cpp:122] Setting up Convolution25
I1007 22:17:02.582342  5322 net.cpp:129] Top shape: 100 64 7 7 (313600)
I1007 22:17:02.582346  5322 net.cpp:137] Memory required for data: 462560400
I1007 22:17:02.582355  5322 layer_factory.hpp:77] Creating layer BatchNorm25
I1007 22:17:02.582361  5322 net.cpp:84] Creating Layer BatchNorm25
I1007 22:17:02.582375  5322 net.cpp:406] BatchNorm25 <- Convolution25
I1007 22:17:02.582381  5322 net.cpp:367] BatchNorm25 -> Convolution25 (in-place)
I1007 22:17:02.582537  5322 net.cpp:122] Setting up BatchNorm25
I1007 22:17:02.582543  5322 net.cpp:129] Top shape: 100 64 7 7 (313600)
I1007 22:17:02.582548  5322 net.cpp:137] Memory required for data: 463814800
I1007 22:17:02.582556  5322 layer_factory.hpp:77] Creating layer Scale25
I1007 22:17:02.582561  5322 net.cpp:84] Creating Layer Scale25
I1007 22:17:02.582566  5322 net.cpp:406] Scale25 <- Convolution25
I1007 22:17:02.582572  5322 net.cpp:367] Scale25 -> Convolution25 (in-place)
I1007 22:17:02.582603  5322 layer_factory.hpp:77] Creating layer Scale25
I1007 22:17:02.582689  5322 net.cpp:122] Setting up Scale25
I1007 22:17:02.582693  5322 net.cpp:129] Top shape: 100 64 7 7 (313600)
I1007 22:17:02.582698  5322 net.cpp:137] Memory required for data: 465069200
I1007 22:17:02.582705  5322 layer_factory.hpp:77] Creating layer Eltwise11
I1007 22:17:02.582710  5322 net.cpp:84] Creating Layer Eltwise11
I1007 22:17:02.582715  5322 net.cpp:406] Eltwise11 <- Convolution23
I1007 22:17:02.582720  5322 net.cpp:406] Eltwise11 <- Convolution25
I1007 22:17:02.582727  5322 net.cpp:380] Eltwise11 -> Eltwise11
I1007 22:17:02.582748  5322 net.cpp:122] Setting up Eltwise11
I1007 22:17:02.582753  5322 net.cpp:129] Top shape: 100 64 7 7 (313600)
I1007 22:17:02.582757  5322 net.cpp:137] Memory required for data: 466323600
I1007 22:17:02.582762  5322 layer_factory.hpp:77] Creating layer elu23
I1007 22:17:02.582767  5322 net.cpp:84] Creating Layer elu23
I1007 22:17:02.582772  5322 net.cpp:406] elu23 <- Eltwise11
I1007 22:17:02.582775  5322 net.cpp:367] elu23 -> Eltwise11 (in-place)
I1007 22:17:02.582782  5322 net.cpp:122] Setting up elu23
I1007 22:17:02.582787  5322 net.cpp:129] Top shape: 100 64 7 7 (313600)
I1007 22:17:02.582790  5322 net.cpp:137] Memory required for data: 467578000
I1007 22:17:02.582795  5322 layer_factory.hpp:77] Creating layer Eltwise11_elu23_0_split
I1007 22:17:02.582801  5322 net.cpp:84] Creating Layer Eltwise11_elu23_0_split
I1007 22:17:02.582805  5322 net.cpp:406] Eltwise11_elu23_0_split <- Eltwise11
I1007 22:17:02.582809  5322 net.cpp:380] Eltwise11_elu23_0_split -> Eltwise11_elu23_0_split_0
I1007 22:17:02.582816  5322 net.cpp:380] Eltwise11_elu23_0_split -> Eltwise11_elu23_0_split_1
I1007 22:17:02.582844  5322 net.cpp:122] Setting up Eltwise11_elu23_0_split
I1007 22:17:02.582849  5322 net.cpp:129] Top shape: 100 64 7 7 (313600)
I1007 22:17:02.582854  5322 net.cpp:129] Top shape: 100 64 7 7 (313600)
I1007 22:17:02.582857  5322 net.cpp:137] Memory required for data: 470086800
I1007 22:17:02.582860  5322 layer_factory.hpp:77] Creating layer Convolution26
I1007 22:17:02.582870  5322 net.cpp:84] Creating Layer Convolution26
I1007 22:17:02.582872  5322 net.cpp:406] Convolution26 <- Eltwise11_elu23_0_split_0
I1007 22:17:02.582880  5322 net.cpp:380] Convolution26 -> Convolution26
I1007 22:17:02.588771  5322 net.cpp:122] Setting up Convolution26
I1007 22:17:02.588783  5322 net.cpp:129] Top shape: 100 64 7 7 (313600)
I1007 22:17:02.588786  5322 net.cpp:137] Memory required for data: 471341200
I1007 22:17:02.588793  5322 layer_factory.hpp:77] Creating layer BatchNorm26
I1007 22:17:02.588799  5322 net.cpp:84] Creating Layer BatchNorm26
I1007 22:17:02.588804  5322 net.cpp:406] BatchNorm26 <- Convolution26
I1007 22:17:02.588807  5322 net.cpp:367] BatchNorm26 -> Convolution26 (in-place)
I1007 22:17:02.588946  5322 net.cpp:122] Setting up BatchNorm26
I1007 22:17:02.588953  5322 net.cpp:129] Top shape: 100 64 7 7 (313600)
I1007 22:17:02.588963  5322 net.cpp:137] Memory required for data: 472595600
I1007 22:17:02.588968  5322 layer_factory.hpp:77] Creating layer Scale26
I1007 22:17:02.588973  5322 net.cpp:84] Creating Layer Scale26
I1007 22:17:02.588975  5322 net.cpp:406] Scale26 <- Convolution26
I1007 22:17:02.588979  5322 net.cpp:367] Scale26 -> Convolution26 (in-place)
I1007 22:17:02.589009  5322 layer_factory.hpp:77] Creating layer Scale26
I1007 22:17:02.589088  5322 net.cpp:122] Setting up Scale26
I1007 22:17:02.589093  5322 net.cpp:129] Top shape: 100 64 7 7 (313600)
I1007 22:17:02.589095  5322 net.cpp:137] Memory required for data: 473850000
I1007 22:17:02.589099  5322 layer_factory.hpp:77] Creating layer elu24
I1007 22:17:02.589104  5322 net.cpp:84] Creating Layer elu24
I1007 22:17:02.589107  5322 net.cpp:406] elu24 <- Convolution26
I1007 22:17:02.589110  5322 net.cpp:367] elu24 -> Convolution26 (in-place)
I1007 22:17:02.589114  5322 net.cpp:122] Setting up elu24
I1007 22:17:02.589118  5322 net.cpp:129] Top shape: 100 64 7 7 (313600)
I1007 22:17:02.589119  5322 net.cpp:137] Memory required for data: 475104400
I1007 22:17:02.589123  5322 layer_factory.hpp:77] Creating layer Convolution27
I1007 22:17:02.589129  5322 net.cpp:84] Creating Layer Convolution27
I1007 22:17:02.589133  5322 net.cpp:406] Convolution27 <- Convolution26
I1007 22:17:02.589138  5322 net.cpp:380] Convolution27 -> Convolution27
I1007 22:17:02.596200  5322 net.cpp:122] Setting up Convolution27
I1007 22:17:02.596212  5322 net.cpp:129] Top shape: 100 64 7 7 (313600)
I1007 22:17:02.596215  5322 net.cpp:137] Memory required for data: 476358800
I1007 22:17:02.596230  5322 layer_factory.hpp:77] Creating layer BatchNorm27
I1007 22:17:02.596246  5322 net.cpp:84] Creating Layer BatchNorm27
I1007 22:17:02.596248  5322 net.cpp:406] BatchNorm27 <- Convolution27
I1007 22:17:02.596253  5322 net.cpp:367] BatchNorm27 -> Convolution27 (in-place)
I1007 22:17:02.596398  5322 net.cpp:122] Setting up BatchNorm27
I1007 22:17:02.596405  5322 net.cpp:129] Top shape: 100 64 7 7 (313600)
I1007 22:17:02.596406  5322 net.cpp:137] Memory required for data: 477613200
I1007 22:17:02.596411  5322 layer_factory.hpp:77] Creating layer Scale27
I1007 22:17:02.596428  5322 net.cpp:84] Creating Layer Scale27
I1007 22:17:02.596431  5322 net.cpp:406] Scale27 <- Convolution27
I1007 22:17:02.596436  5322 net.cpp:367] Scale27 -> Convolution27 (in-place)
I1007 22:17:02.596464  5322 layer_factory.hpp:77] Creating layer Scale27
I1007 22:17:02.596546  5322 net.cpp:122] Setting up Scale27
I1007 22:17:02.596551  5322 net.cpp:129] Top shape: 100 64 7 7 (313600)
I1007 22:17:02.596554  5322 net.cpp:137] Memory required for data: 478867600
I1007 22:17:02.596559  5322 layer_factory.hpp:77] Creating layer Eltwise12
I1007 22:17:02.596563  5322 net.cpp:84] Creating Layer Eltwise12
I1007 22:17:02.596566  5322 net.cpp:406] Eltwise12 <- Eltwise11_elu23_0_split_1
I1007 22:17:02.596570  5322 net.cpp:406] Eltwise12 <- Convolution27
I1007 22:17:02.596573  5322 net.cpp:380] Eltwise12 -> Eltwise12
I1007 22:17:02.596597  5322 net.cpp:122] Setting up Eltwise12
I1007 22:17:02.596603  5322 net.cpp:129] Top shape: 100 64 7 7 (313600)
I1007 22:17:02.596607  5322 net.cpp:137] Memory required for data: 480122000
I1007 22:17:02.596612  5322 layer_factory.hpp:77] Creating layer elu25
I1007 22:17:02.596621  5322 net.cpp:84] Creating Layer elu25
I1007 22:17:02.596626  5322 net.cpp:406] elu25 <- Eltwise12
I1007 22:17:02.596629  5322 net.cpp:367] elu25 -> Eltwise12 (in-place)
I1007 22:17:02.596637  5322 net.cpp:122] Setting up elu25
I1007 22:17:02.596642  5322 net.cpp:129] Top shape: 100 64 7 7 (313600)
I1007 22:17:02.596647  5322 net.cpp:137] Memory required for data: 481376400
I1007 22:17:02.596650  5322 layer_factory.hpp:77] Creating layer Eltwise12_elu25_0_split
I1007 22:17:02.596657  5322 net.cpp:84] Creating Layer Eltwise12_elu25_0_split
I1007 22:17:02.596662  5322 net.cpp:406] Eltwise12_elu25_0_split <- Eltwise12
I1007 22:17:02.596666  5322 net.cpp:380] Eltwise12_elu25_0_split -> Eltwise12_elu25_0_split_0
I1007 22:17:02.596673  5322 net.cpp:380] Eltwise12_elu25_0_split -> Eltwise12_elu25_0_split_1
I1007 22:17:02.596709  5322 net.cpp:122] Setting up Eltwise12_elu25_0_split
I1007 22:17:02.596714  5322 net.cpp:129] Top shape: 100 64 7 7 (313600)
I1007 22:17:02.596717  5322 net.cpp:129] Top shape: 100 64 7 7 (313600)
I1007 22:17:02.596719  5322 net.cpp:137] Memory required for data: 483885200
I1007 22:17:02.596721  5322 layer_factory.hpp:77] Creating layer Convolution28
I1007 22:17:02.596729  5322 net.cpp:84] Creating Layer Convolution28
I1007 22:17:02.596732  5322 net.cpp:406] Convolution28 <- Eltwise12_elu25_0_split_0
I1007 22:17:02.596736  5322 net.cpp:380] Convolution28 -> Convolution28
I1007 22:17:02.602867  5322 net.cpp:122] Setting up Convolution28
I1007 22:17:02.602879  5322 net.cpp:129] Top shape: 100 64 7 7 (313600)
I1007 22:17:02.602881  5322 net.cpp:137] Memory required for data: 485139600
I1007 22:17:02.602885  5322 layer_factory.hpp:77] Creating layer BatchNorm28
I1007 22:17:02.602890  5322 net.cpp:84] Creating Layer BatchNorm28
I1007 22:17:02.602893  5322 net.cpp:406] BatchNorm28 <- Convolution28
I1007 22:17:02.602897  5322 net.cpp:367] BatchNorm28 -> Convolution28 (in-place)
I1007 22:17:02.603037  5322 net.cpp:122] Setting up BatchNorm28
I1007 22:17:02.603042  5322 net.cpp:129] Top shape: 100 64 7 7 (313600)
I1007 22:17:02.603044  5322 net.cpp:137] Memory required for data: 486394000
I1007 22:17:02.603049  5322 layer_factory.hpp:77] Creating layer Scale28
I1007 22:17:02.603055  5322 net.cpp:84] Creating Layer Scale28
I1007 22:17:02.603057  5322 net.cpp:406] Scale28 <- Convolution28
I1007 22:17:02.603061  5322 net.cpp:367] Scale28 -> Convolution28 (in-place)
I1007 22:17:02.603090  5322 layer_factory.hpp:77] Creating layer Scale28
I1007 22:17:02.603176  5322 net.cpp:122] Setting up Scale28
I1007 22:17:02.603183  5322 net.cpp:129] Top shape: 100 64 7 7 (313600)
I1007 22:17:02.603185  5322 net.cpp:137] Memory required for data: 487648400
I1007 22:17:02.603189  5322 layer_factory.hpp:77] Creating layer elu26
I1007 22:17:02.603193  5322 net.cpp:84] Creating Layer elu26
I1007 22:17:02.603196  5322 net.cpp:406] elu26 <- Convolution28
I1007 22:17:02.603200  5322 net.cpp:367] elu26 -> Convolution28 (in-place)
I1007 22:17:02.603204  5322 net.cpp:122] Setting up elu26
I1007 22:17:02.603209  5322 net.cpp:129] Top shape: 100 64 7 7 (313600)
I1007 22:17:02.603210  5322 net.cpp:137] Memory required for data: 488902800
I1007 22:17:02.603212  5322 layer_factory.hpp:77] Creating layer Convolution29
I1007 22:17:02.603219  5322 net.cpp:84] Creating Layer Convolution29
I1007 22:17:02.603221  5322 net.cpp:406] Convolution29 <- Convolution28
I1007 22:17:02.603225  5322 net.cpp:380] Convolution29 -> Convolution29
I1007 22:17:02.609848  5322 net.cpp:122] Setting up Convolution29
I1007 22:17:02.609858  5322 net.cpp:129] Top shape: 100 64 7 7 (313600)
I1007 22:17:02.609860  5322 net.cpp:137] Memory required for data: 490157200
I1007 22:17:02.609865  5322 layer_factory.hpp:77] Creating layer BatchNorm29
I1007 22:17:02.609871  5322 net.cpp:84] Creating Layer BatchNorm29
I1007 22:17:02.609874  5322 net.cpp:406] BatchNorm29 <- Convolution29
I1007 22:17:02.609879  5322 net.cpp:367] BatchNorm29 -> Convolution29 (in-place)
I1007 22:17:02.610023  5322 net.cpp:122] Setting up BatchNorm29
I1007 22:17:02.610028  5322 net.cpp:129] Top shape: 100 64 7 7 (313600)
I1007 22:17:02.610030  5322 net.cpp:137] Memory required for data: 491411600
I1007 22:17:02.610036  5322 layer_factory.hpp:77] Creating layer Scale29
I1007 22:17:02.610040  5322 net.cpp:84] Creating Layer Scale29
I1007 22:17:02.610044  5322 net.cpp:406] Scale29 <- Convolution29
I1007 22:17:02.610047  5322 net.cpp:367] Scale29 -> Convolution29 (in-place)
I1007 22:17:02.610075  5322 layer_factory.hpp:77] Creating layer Scale29
I1007 22:17:02.610157  5322 net.cpp:122] Setting up Scale29
I1007 22:17:02.610162  5322 net.cpp:129] Top shape: 100 64 7 7 (313600)
I1007 22:17:02.610164  5322 net.cpp:137] Memory required for data: 492666000
I1007 22:17:02.610168  5322 layer_factory.hpp:77] Creating layer Eltwise13
I1007 22:17:02.610172  5322 net.cpp:84] Creating Layer Eltwise13
I1007 22:17:02.610183  5322 net.cpp:406] Eltwise13 <- Eltwise12_elu25_0_split_1
I1007 22:17:02.610186  5322 net.cpp:406] Eltwise13 <- Convolution29
I1007 22:17:02.610191  5322 net.cpp:380] Eltwise13 -> Eltwise13
I1007 22:17:02.610209  5322 net.cpp:122] Setting up Eltwise13
I1007 22:17:02.610214  5322 net.cpp:129] Top shape: 100 64 7 7 (313600)
I1007 22:17:02.610216  5322 net.cpp:137] Memory required for data: 493920400
I1007 22:17:02.610219  5322 layer_factory.hpp:77] Creating layer elu27
I1007 22:17:02.610224  5322 net.cpp:84] Creating Layer elu27
I1007 22:17:02.610225  5322 net.cpp:406] elu27 <- Eltwise13
I1007 22:17:02.610229  5322 net.cpp:367] elu27 -> Eltwise13 (in-place)
I1007 22:17:02.610232  5322 net.cpp:122] Setting up elu27
I1007 22:17:02.610235  5322 net.cpp:129] Top shape: 100 64 7 7 (313600)
I1007 22:17:02.610237  5322 net.cpp:137] Memory required for data: 495174800
I1007 22:17:02.610239  5322 layer_factory.hpp:77] Creating layer Eltwise13_elu27_0_split
I1007 22:17:02.610244  5322 net.cpp:84] Creating Layer Eltwise13_elu27_0_split
I1007 22:17:02.610246  5322 net.cpp:406] Eltwise13_elu27_0_split <- Eltwise13
I1007 22:17:02.610249  5322 net.cpp:380] Eltwise13_elu27_0_split -> Eltwise13_elu27_0_split_0
I1007 22:17:02.610254  5322 net.cpp:380] Eltwise13_elu27_0_split -> Eltwise13_elu27_0_split_1
I1007 22:17:02.610277  5322 net.cpp:122] Setting up Eltwise13_elu27_0_split
I1007 22:17:02.610282  5322 net.cpp:129] Top shape: 100 64 7 7 (313600)
I1007 22:17:02.610285  5322 net.cpp:129] Top shape: 100 64 7 7 (313600)
I1007 22:17:02.610287  5322 net.cpp:137] Memory required for data: 497683600
I1007 22:17:02.610290  5322 layer_factory.hpp:77] Creating layer Convolution30
I1007 22:17:02.610296  5322 net.cpp:84] Creating Layer Convolution30
I1007 22:17:02.610299  5322 net.cpp:406] Convolution30 <- Eltwise13_elu27_0_split_0
I1007 22:17:02.610304  5322 net.cpp:380] Convolution30 -> Convolution30
I1007 22:17:02.612170  5322 net.cpp:122] Setting up Convolution30
I1007 22:17:02.612181  5322 net.cpp:129] Top shape: 100 64 7 7 (313600)
I1007 22:17:02.612185  5322 net.cpp:137] Memory required for data: 498938000
I1007 22:17:02.612188  5322 layer_factory.hpp:77] Creating layer BatchNorm30
I1007 22:17:02.612195  5322 net.cpp:84] Creating Layer BatchNorm30
I1007 22:17:02.612197  5322 net.cpp:406] BatchNorm30 <- Convolution30
I1007 22:17:02.612201  5322 net.cpp:367] BatchNorm30 -> Convolution30 (in-place)
I1007 22:17:02.612340  5322 net.cpp:122] Setting up BatchNorm30
I1007 22:17:02.612346  5322 net.cpp:129] Top shape: 100 64 7 7 (313600)
I1007 22:17:02.612349  5322 net.cpp:137] Memory required for data: 500192400
I1007 22:17:02.612354  5322 layer_factory.hpp:77] Creating layer Scale30
I1007 22:17:02.612359  5322 net.cpp:84] Creating Layer Scale30
I1007 22:17:02.612360  5322 net.cpp:406] Scale30 <- Convolution30
I1007 22:17:02.612363  5322 net.cpp:367] Scale30 -> Convolution30 (in-place)
I1007 22:17:02.612392  5322 layer_factory.hpp:77] Creating layer Scale30
I1007 22:17:02.612473  5322 net.cpp:122] Setting up Scale30
I1007 22:17:02.612478  5322 net.cpp:129] Top shape: 100 64 7 7 (313600)
I1007 22:17:02.612480  5322 net.cpp:137] Memory required for data: 501446800
I1007 22:17:02.612484  5322 layer_factory.hpp:77] Creating layer elu28
I1007 22:17:02.612488  5322 net.cpp:84] Creating Layer elu28
I1007 22:17:02.612491  5322 net.cpp:406] elu28 <- Convolution30
I1007 22:17:02.612495  5322 net.cpp:367] elu28 -> Convolution30 (in-place)
I1007 22:17:02.612499  5322 net.cpp:122] Setting up elu28
I1007 22:17:02.612504  5322 net.cpp:129] Top shape: 100 64 7 7 (313600)
I1007 22:17:02.612505  5322 net.cpp:137] Memory required for data: 502701200
I1007 22:17:02.612507  5322 layer_factory.hpp:77] Creating layer Convolution31
I1007 22:17:02.612515  5322 net.cpp:84] Creating Layer Convolution31
I1007 22:17:02.612519  5322 net.cpp:406] Convolution31 <- Convolution30
I1007 22:17:02.612522  5322 net.cpp:380] Convolution31 -> Convolution31
I1007 22:17:02.614460  5322 net.cpp:122] Setting up Convolution31
I1007 22:17:02.614477  5322 net.cpp:129] Top shape: 100 64 7 7 (313600)
I1007 22:17:02.614490  5322 net.cpp:137] Memory required for data: 503955600
I1007 22:17:02.614495  5322 layer_factory.hpp:77] Creating layer BatchNorm31
I1007 22:17:02.614501  5322 net.cpp:84] Creating Layer BatchNorm31
I1007 22:17:02.614504  5322 net.cpp:406] BatchNorm31 <- Convolution31
I1007 22:17:02.614508  5322 net.cpp:367] BatchNorm31 -> Convolution31 (in-place)
I1007 22:17:02.614679  5322 net.cpp:122] Setting up BatchNorm31
I1007 22:17:02.614686  5322 net.cpp:129] Top shape: 100 64 7 7 (313600)
I1007 22:17:02.614697  5322 net.cpp:137] Memory required for data: 505210000
I1007 22:17:02.614702  5322 layer_factory.hpp:77] Creating layer Scale31
I1007 22:17:02.614706  5322 net.cpp:84] Creating Layer Scale31
I1007 22:17:02.614709  5322 net.cpp:406] Scale31 <- Convolution31
I1007 22:17:02.614712  5322 net.cpp:367] Scale31 -> Convolution31 (in-place)
I1007 22:17:02.614742  5322 layer_factory.hpp:77] Creating layer Scale31
I1007 22:17:02.614825  5322 net.cpp:122] Setting up Scale31
I1007 22:17:02.614830  5322 net.cpp:129] Top shape: 100 64 7 7 (313600)
I1007 22:17:02.614831  5322 net.cpp:137] Memory required for data: 506464400
I1007 22:17:02.614835  5322 layer_factory.hpp:77] Creating layer Eltwise14
I1007 22:17:02.614840  5322 net.cpp:84] Creating Layer Eltwise14
I1007 22:17:02.614843  5322 net.cpp:406] Eltwise14 <- Eltwise13_elu27_0_split_1
I1007 22:17:02.614846  5322 net.cpp:406] Eltwise14 <- Convolution31
I1007 22:17:02.614850  5322 net.cpp:380] Eltwise14 -> Eltwise14
I1007 22:17:02.614866  5322 net.cpp:122] Setting up Eltwise14
I1007 22:17:02.614871  5322 net.cpp:129] Top shape: 100 64 7 7 (313600)
I1007 22:17:02.614873  5322 net.cpp:137] Memory required for data: 507718800
I1007 22:17:02.614876  5322 layer_factory.hpp:77] Creating layer elu29
I1007 22:17:02.614879  5322 net.cpp:84] Creating Layer elu29
I1007 22:17:02.614881  5322 net.cpp:406] elu29 <- Eltwise14
I1007 22:17:02.614886  5322 net.cpp:367] elu29 -> Eltwise14 (in-place)
I1007 22:17:02.614889  5322 net.cpp:122] Setting up elu29
I1007 22:17:02.614892  5322 net.cpp:129] Top shape: 100 64 7 7 (313600)
I1007 22:17:02.614894  5322 net.cpp:137] Memory required for data: 508973200
I1007 22:17:02.614897  5322 layer_factory.hpp:77] Creating layer Eltwise14_elu29_0_split
I1007 22:17:02.614900  5322 net.cpp:84] Creating Layer Eltwise14_elu29_0_split
I1007 22:17:02.614902  5322 net.cpp:406] Eltwise14_elu29_0_split <- Eltwise14
I1007 22:17:02.614905  5322 net.cpp:380] Eltwise14_elu29_0_split -> Eltwise14_elu29_0_split_0
I1007 22:17:02.614909  5322 net.cpp:380] Eltwise14_elu29_0_split -> Eltwise14_elu29_0_split_1
I1007 22:17:02.614933  5322 net.cpp:122] Setting up Eltwise14_elu29_0_split
I1007 22:17:02.614938  5322 net.cpp:129] Top shape: 100 64 7 7 (313600)
I1007 22:17:02.614940  5322 net.cpp:129] Top shape: 100 64 7 7 (313600)
I1007 22:17:02.614943  5322 net.cpp:137] Memory required for data: 511482000
I1007 22:17:02.614944  5322 layer_factory.hpp:77] Creating layer Convolution32
I1007 22:17:02.614951  5322 net.cpp:84] Creating Layer Convolution32
I1007 22:17:02.614954  5322 net.cpp:406] Convolution32 <- Eltwise14_elu29_0_split_0
I1007 22:17:02.614958  5322 net.cpp:380] Convolution32 -> Convolution32
I1007 22:17:02.619362  5322 net.cpp:122] Setting up Convolution32
I1007 22:17:02.619376  5322 net.cpp:129] Top shape: 100 64 7 7 (313600)
I1007 22:17:02.619381  5322 net.cpp:137] Memory required for data: 512736400
I1007 22:17:02.619388  5322 layer_factory.hpp:77] Creating layer BatchNorm32
I1007 22:17:02.619397  5322 net.cpp:84] Creating Layer BatchNorm32
I1007 22:17:02.619403  5322 net.cpp:406] BatchNorm32 <- Convolution32
I1007 22:17:02.619410  5322 net.cpp:367] BatchNorm32 -> Convolution32 (in-place)
I1007 22:17:02.619619  5322 net.cpp:122] Setting up BatchNorm32
I1007 22:17:02.619627  5322 net.cpp:129] Top shape: 100 64 7 7 (313600)
I1007 22:17:02.619632  5322 net.cpp:137] Memory required for data: 513990800
I1007 22:17:02.619642  5322 layer_factory.hpp:77] Creating layer Scale32
I1007 22:17:02.619650  5322 net.cpp:84] Creating Layer Scale32
I1007 22:17:02.619663  5322 net.cpp:406] Scale32 <- Convolution32
I1007 22:17:02.619670  5322 net.cpp:367] Scale32 -> Convolution32 (in-place)
I1007 22:17:02.619715  5322 layer_factory.hpp:77] Creating layer Scale32
I1007 22:17:02.619838  5322 net.cpp:122] Setting up Scale32
I1007 22:17:02.619846  5322 net.cpp:129] Top shape: 100 64 7 7 (313600)
I1007 22:17:02.619851  5322 net.cpp:137] Memory required for data: 515245200
I1007 22:17:02.619858  5322 layer_factory.hpp:77] Creating layer elu30
I1007 22:17:02.619865  5322 net.cpp:84] Creating Layer elu30
I1007 22:17:02.619870  5322 net.cpp:406] elu30 <- Convolution32
I1007 22:17:02.619875  5322 net.cpp:367] elu30 -> Convolution32 (in-place)
I1007 22:17:02.619882  5322 net.cpp:122] Setting up elu30
I1007 22:17:02.619889  5322 net.cpp:129] Top shape: 100 64 7 7 (313600)
I1007 22:17:02.619894  5322 net.cpp:137] Memory required for data: 516499600
I1007 22:17:02.619897  5322 layer_factory.hpp:77] Creating layer Convolution33
I1007 22:17:02.619910  5322 net.cpp:84] Creating Layer Convolution33
I1007 22:17:02.619915  5322 net.cpp:406] Convolution33 <- Convolution32
I1007 22:17:02.619925  5322 net.cpp:380] Convolution33 -> Convolution33
I1007 22:17:02.626914  5322 net.cpp:122] Setting up Convolution33
I1007 22:17:02.626929  5322 net.cpp:129] Top shape: 100 64 7 7 (313600)
I1007 22:17:02.626933  5322 net.cpp:137] Memory required for data: 517754000
I1007 22:17:02.626941  5322 layer_factory.hpp:77] Creating layer BatchNorm33
I1007 22:17:02.626951  5322 net.cpp:84] Creating Layer BatchNorm33
I1007 22:17:02.626956  5322 net.cpp:406] BatchNorm33 <- Convolution33
I1007 22:17:02.626963  5322 net.cpp:367] BatchNorm33 -> Convolution33 (in-place)
I1007 22:17:02.627182  5322 net.cpp:122] Setting up BatchNorm33
I1007 22:17:02.627192  5322 net.cpp:129] Top shape: 100 64 7 7 (313600)
I1007 22:17:02.627195  5322 net.cpp:137] Memory required for data: 519008400
I1007 22:17:02.627204  5322 layer_factory.hpp:77] Creating layer Scale33
I1007 22:17:02.627213  5322 net.cpp:84] Creating Layer Scale33
I1007 22:17:02.627218  5322 net.cpp:406] Scale33 <- Convolution33
I1007 22:17:02.627223  5322 net.cpp:367] Scale33 -> Convolution33 (in-place)
I1007 22:17:02.627267  5322 layer_factory.hpp:77] Creating layer Scale33
I1007 22:17:02.627390  5322 net.cpp:122] Setting up Scale33
I1007 22:17:02.627398  5322 net.cpp:129] Top shape: 100 64 7 7 (313600)
I1007 22:17:02.627403  5322 net.cpp:137] Memory required for data: 520262800
I1007 22:17:02.627409  5322 layer_factory.hpp:77] Creating layer Eltwise15
I1007 22:17:02.627418  5322 net.cpp:84] Creating Layer Eltwise15
I1007 22:17:02.627424  5322 net.cpp:406] Eltwise15 <- Eltwise14_elu29_0_split_1
I1007 22:17:02.627429  5322 net.cpp:406] Eltwise15 <- Convolution33
I1007 22:17:02.627435  5322 net.cpp:380] Eltwise15 -> Eltwise15
I1007 22:17:02.627460  5322 net.cpp:122] Setting up Eltwise15
I1007 22:17:02.627468  5322 net.cpp:129] Top shape: 100 64 7 7 (313600)
I1007 22:17:02.627472  5322 net.cpp:137] Memory required for data: 521517200
I1007 22:17:02.627476  5322 layer_factory.hpp:77] Creating layer elu31
I1007 22:17:02.627483  5322 net.cpp:84] Creating Layer elu31
I1007 22:17:02.627488  5322 net.cpp:406] elu31 <- Eltwise15
I1007 22:17:02.627495  5322 net.cpp:367] elu31 -> Eltwise15 (in-place)
I1007 22:17:02.627501  5322 net.cpp:122] Setting up elu31
I1007 22:17:02.627507  5322 net.cpp:129] Top shape: 100 64 7 7 (313600)
I1007 22:17:02.627511  5322 net.cpp:137] Memory required for data: 522771600
I1007 22:17:02.627516  5322 layer_factory.hpp:77] Creating layer Pooling1
I1007 22:17:02.627523  5322 net.cpp:84] Creating Layer Pooling1
I1007 22:17:02.627527  5322 net.cpp:406] Pooling1 <- Eltwise15
I1007 22:17:02.627533  5322 net.cpp:380] Pooling1 -> Pooling1
I1007 22:17:02.628830  5322 net.cpp:122] Setting up Pooling1
I1007 22:17:02.628840  5322 net.cpp:129] Top shape: 100 64 1 1 (6400)
I1007 22:17:02.628845  5322 net.cpp:137] Memory required for data: 522797200
I1007 22:17:02.628849  5322 layer_factory.hpp:77] Creating layer InnerProduct1
I1007 22:17:02.628872  5322 net.cpp:84] Creating Layer InnerProduct1
I1007 22:17:02.628877  5322 net.cpp:406] InnerProduct1 <- Pooling1
I1007 22:17:02.628885  5322 net.cpp:380] InnerProduct1 -> InnerProduct1
I1007 22:17:02.629034  5322 net.cpp:122] Setting up InnerProduct1
I1007 22:17:02.629042  5322 net.cpp:129] Top shape: 100 10 (1000)
I1007 22:17:02.629047  5322 net.cpp:137] Memory required for data: 522801200
I1007 22:17:02.629053  5322 layer_factory.hpp:77] Creating layer SoftmaxWithLoss1
I1007 22:17:02.629061  5322 net.cpp:84] Creating Layer SoftmaxWithLoss1
I1007 22:17:02.629066  5322 net.cpp:406] SoftmaxWithLoss1 <- InnerProduct1
I1007 22:17:02.629071  5322 net.cpp:406] SoftmaxWithLoss1 <- Data2
I1007 22:17:02.629079  5322 net.cpp:380] SoftmaxWithLoss1 -> SoftmaxWithLoss1
…
I1007 22:17:02.635769  5322 net.cpp:294] The NetState phase (1) differed from the phase (0) specified by a rule in layer Data1
I1007 22:17:02.636713  5322 net.cpp:51] Initializing net from parameters: 
name: "resnet_cifar10"
state {
  phase: TEST
}
layer {
  name: "Data1"
  type: "Data"
  top: "Data1"
  top: "Data2"
  include {
    phase: TEST
  }
  transform_param {
    mean_file: "/home/x306/caffe/xn/PENLU/data/cifar10/mean.binaryproto"
  }
  data_param {
    source: "/home/x306/caffe/xn/PENLU/data/cifar10/cifar10_test_lmdb"
    batch_size: 100
    backend: LMDB
  }
}
layer {
  name: "Convolution1"
  type: "Convolution"
  bottom: "Data1"
  top: "Convolution1"
  param {
    lr_mult: 1
    decay_mult: 1
  }
  param {
    lr_mult: 2
    decay_mult: 0
  }
  convolution_param {
    num_output: 16
    pad: 1
    kernel_size: 3
    stride: 1
    weight_filler {
      type: "gaussian"
      std: 0.118
    }
    bias_filler {
      type: "constant"
      value: 0
    }
  }
}
layer {
  name: "BatchNorm1"
  type: "BatchNorm"
  bottom: "Convolution1"
  top: "Convolution1"
  param {
    lr_mult: 0
    decay_mult: 0
  }
  param {
    lr_mult: 0
    decay_mult: 0
  }
  param {
    lr_mult: 0
    decay_mult: 0
  }
}
layer {
  name: "Scale1"
  type: "Scale"
  bottom: "Convolution1"
  top: "Convolution1"
  scale_param {
    bias_term: true
  }
}
layer {
  name: "elu1"
  type: "ELU"
  bottom: "Convolution1"
  top: "Convolution1"
  elu_param {
    alpha: 0.25
  }
}
layer {
  name: "Convolution2"
  type: "Convolution"
  bottom: "Convolution1"
  top: "Convolution2"
  param {
    lr_mult: 1
    decay_mult: 1
  }
  param {
    lr_mult: 2
    decay_mult: 0
  }
  convolution_param {
    num_output: 16
    pad: 1
    kernel_size: 3
    stride: 1
    weight_filler {
      type: "gaussian"
      std: 0.118
    }
    bias_filler {
      type: "constant"
      value: 0
    }
  }
}
layer {
  name: "BatchNorm2"
  type: "BatchNorm"
  bottom: "Convolution2"
  top: "Convolution2"
  param {
    lr_mult: 0
    decay_mult: 0
  }
  param {
    lr_mult: 0
    decay_mult: 0
  }
  param {
    lr_mult: 0
    decay_mult: 0
  }
}
layer {
  name: "Scale2"
  type: "Scale"
  bottom: "Convolution2"
  top: "Convolution2"
  scale_param {
    bias_term: true
  }
}
layer {
  name: "elu2"
  type: "ELU"
  bottom: "Convolution2"
  top: "Convolution2"
  elu_param {
    alpha: 0.25
  }
}
layer {
  name: "Convolution3"
  type: "Convolution"
  bottom: "Convolution2"
  top: "Convolution3"
  param {
    lr_mult: 1
    decay_mult: 1
  }
  param {
    lr_mult: 2
    decay_mult: 0
  }
  convolution_param {
    num_output: 16
    pad: 1
    kernel_size: 3
    stride: 1
    weight_filler {
      type: "gaussian"
      std: 0.118
    }
    bias_filler {
      type: "constant"
      value: 0
    }
  }
}
layer {
  name: "BatchNorm3"
  type: "BatchNorm"
  bottom: "Convolution3"
  top: "Convolution3"
  param {
    lr_mult: 0
    decay_mult: 0
  }
  param {
    lr_mult: 0
    decay_mult: 0
  }
  param {
    lr_mult: 0
    decay_mult: 0
  }
}
layer {
  name: "Scale3"
  type: "Scale"
  bottom: "Convolution3"
  top: "Convolution3"
  scale_param {
    bias_term: true
  }
}
layer {
  name: "Eltwise1"
  type: "Eltwise"
  bottom: "Convolution1"
  bottom: "Convolution3"
  top: "Eltwise1"
  eltwise_param {
    operation: SUM
  }
}
layer {
  name: "elu3"
  type: "ELU"
  bottom: "Eltwise1"
  top: "Eltwise1"
  elu_param {
    alpha: 0.25
  }
}
layer {
  name: "Convolution4"
  type: "Convolution"
  bottom: "Eltwise1"
  top: "Convolution4"
  param {
    lr_mult: 1
    decay_mult: 1
  }
  param {
    lr_mult: 2
    decay_mult: 0
  }
  convolution_param {
    num_output: 16
    pad: 1
    kernel_size: 3
    stride: 1
    weight_filler {
      type: "gaussian"
      std: 0.118
    }
    bias_filler {
      type: "constant"
      value: 0
    }
  }
}
layer {
  name: "BatchNorm4"
  type: "BatchNorm"
  bottom: "Convolution4"
  top: "Convolution4"
  param {
    lr_mult: 0
    decay_mult: 0
  }
  param {
    lr_mult: 0
    decay_mult: 0
  }
  param {
    lr_mult: 0
    decay_mult: 0
  }
}
layer {
  name: "Scale4"
  type: "Scale"
  bottom: "Convolution4"
  top: "Convolution4"
  scale_param {
    bias_term: true
  }
}
layer {
  name: "elu4"
  type: "ELU"
  bottom: "Convolution4"
  top: "Convolution4"
  elu_param {
    alpha: 0.25
  }
}
layer {
  name: "Convolution5"
  type: "Convolution"
  bottom: "Convolution4"
  top: "Convolution5"
  param {
    lr_mult: 1
    decay_mult: 1
  }
  param {
    lr_mult: 2
    decay_mult: 0
  }
  convolution_param {
    num_output: 16
    pad: 1
    kernel_size: 3
    stride: 1
    weight_filler {
      type: "gaussian"
      std: 0.118
    }
    bias_filler {
      type: "constant"
      value: 0
    }
  }
}
layer {
  name: "BatchNorm5"
  type: "BatchNorm"
  bottom: "Convolution5"
  top: "Convolution5"
  param {
    lr_mult: 0
    decay_mult: 0
  }
  param {
    lr_mult: 0
    decay_mult: 0
  }
  param {
    lr_mult: 0
    decay_mult: 0
  }
}
layer {
  name: "Scale5"
  type: "Scale"
  bottom: "Convolution5"
  top: "Convolution5"
  scale_param {
    bias_term: true
  }
}
layer {
  name: "Eltwise2"
  type: "Eltwise"
  bottom: "Eltwise1"
  bottom: "Convolution5"
  top: "Eltwise2"
  eltwise_param {
    operation: SUM
  }
}
layer {
  name: "elu5"
  type: "ELU"
  bottom: "Eltwise2"
  top: "Eltwise2"
  elu_param {
    alpha: 0.25
  }
}
layer {
  name: "Convolution6"
  type: "Convolution"
  bottom: "Eltwise2"
  top: "Convolution6"
  param {
    lr_mult: 1
    decay_mult: 1
  }
  param {
    lr_mult: 2
    decay_mult: 0
  }
  convolution_param {
    num_output: 16
    pad: 1
    kernel_size: 3
    stride: 1
    weight_filler {
      type: "gaussian"
      std: 0.118
    }
    bias_filler {
      type: "constant"
      value: 0
    }
  }
}
layer {
  name: "BatchNorm6"
  type: "BatchNorm"
  bottom: "Convolution6"
  top: "Convolution6"
  param {
    lr_mult: 0
    decay_mult: 0
  }
  param {
    lr_mult: 0
    decay_mult: 0
  }
  param {
    lr_mult: 0
    decay_mult: 0
  }
}
layer {
  name: "Scale6"
  type: "Scale"
  bottom: "Convolution6"
  top: "Convolution6"
  scale_param {
    bias_term: true
  }
}
layer {
  name: "elu6"
  type: "ELU"
  bottom: "Convolution6"
  top: "Convolution6"
  elu_param {
    alpha: 0.25
  }
}
layer {
  name: "Convolution7"
  type: "Convolution"
  bottom: "Convolution6"
  top: "Convolution7"
  param {
    lr_mult: 1
    decay_mult: 1
  }
  param {
    lr_mult: 2
    decay_mult: 0
  }
  convolution_param {
    num_output: 16
    pad: 1
    kernel_size: 3
    stride: 1
    weight_filler {
      type: "gaussian"
      std: 0.118
    }
    bias_filler {
      type: "constant"
      value: 0
    }
  }
}
layer {
  name: "BatchNorm7"
  type: "BatchNorm"
  bottom: "Convolution7"
  top: "Convolution7"
  param {
    lr_mult: 0
    decay_mult: 0
  }
  param {
    lr_mult: 0
    decay_mult: 0
  }
  param {
    lr_mult: 0
    decay_mult: 0
  }
}
layer {
  name: "Scale7"
  type: "Scale"
  bottom: "Convolution7"
  top: "Convolution7"
  scale_param {
    bias_term: true
  }
}
layer {
  name: "Eltwise3"
  type: "Eltwise"
  bottom: "Eltwise2"
  bottom: "Convolution7"
  top: "Eltwise3"
  eltwise_param {
    operation: SUM
  }
}
layer {
  name: "elu7"
  type: "ELU"
  bottom: "Eltwise3"
  top: "Eltwise3"
  elu_param {
    alpha: 0.25
  }
}
layer {
  name: "Convolution8"
  type: "Convolution"
  bottom: "Eltwise3"
  top: "Convolution8"
  param {
    lr_mult: 1
    decay_mult: 1
  }
  param {
    lr_mult: 2
    decay_mult: 0
  }
  convolution_param {
    num_output: 16
    pad: 1
    kernel_size: 3
    stride: 1
    weight_filler {
      type: "gaussian"
      std: 0.118
    }
    bias_filler {
      type: "constant"
      value: 0
    }
  }
}
layer {
  name: "BatchNorm8"
  type: "BatchNorm"
  bottom: "Convolution8"
  top: "Convolution8"
  param {
    lr_mult: 0
    decay_mult: 0
  }
  param {
    lr_mult: 0
    decay_mult: 0
  }
  param {
    lr_mult: 0
    decay_mult: 0
  }
}
layer {
  name: "Scale8"
  type: "Scale"
  bottom: "Convolution8"
  top: "Convolution8"
  scale_param {
    bias_term: true
  }
}
layer {
  name: "elu8"
  type: "ELU"
  bottom: "Convolution8"
  top: "Convolution8"
  elu_param {
    alpha: 0.25
  }
}
layer {
  name: "Convolution9"
  type: "Convolution"
  bottom: "Convolution8"
  top: "Convolution9"
  param {
    lr_mult: 1
    decay_mult: 1
  }
  param {
    lr_mult: 2
    decay_mult: 0
  }
  convolution_param {
    num_output: 16
    pad: 1
    kernel_size: 3
    stride: 1
    weight_filler {
      type: "gaussian"
      std: 0.118
    }
    bias_filler {
      type: "constant"
      value: 0
    }
  }
}
layer {
  name: "BatchNorm9"
  type: "BatchNorm"
  bottom: "Convolution9"
  top: "Convolution9"
  param {
    lr_mult: 0
    decay_mult: 0
  }
  param {
    lr_mult: 0
    decay_mult: 0
  }
  param {
    lr_mult: 0
    decay_mult: 0
  }
}
layer {
  name: "Scale9"
  type: "Scale"
  bottom: "Convolution9"
  top: "Convolution9"
  scale_param {
    bias_term: true
  }
}
layer {
  name: "Eltwise4"
  type: "Eltwise"
  bottom: "Eltwise3"
  bottom: "Convolution9"
  top: "Eltwise4"
  eltwise_param {
    operation: SUM
  }
}
layer {
  name: "elu9"
  type: "ELU"
  bottom: "Eltwise4"
  top: "Eltwise4"
  elu_param {
    alpha: 0.25
  }
}
layer {
  name: "Convolution10"
  type: "Convolution"
  bottom: "Eltwise4"
  top: "Convolution10"
  param {
    lr_mult: 1
    decay_mult: 1
  }
  param {
    lr_mult: 2
    decay_mult: 0
  }
  convolution_param {
    num_output: 16
    pad: 1
    kernel_size: 3
    stride: 1
    weight_filler {
      type: "gaussian"
      std: 0.118
    }
    bias_filler {
      type: "constant"
      value: 0
    }
  }
}
layer {
  name: "BatchNorm10"
  type: "BatchNorm"
  bottom: "Convolution10"
  top: "Convolution10"
  param {
    lr_mult: 0
    decay_mult: 0
  }
  param {
    lr_mult: 0
    decay_mult: 0
  }
  param {
    lr_mult: 0
    decay_mult: 0
  }
}
layer {
  name: "Scale10"
  type: "Scale"
  bottom: "Convolution10"
  top: "Convolution10"
  scale_param {
    bias_term: true
  }
}
layer {
  name: "elu10"
  type: "ELU"
  bottom: "Convolution10"
  top: "Convolution10"
  elu_param {
    alpha: 0.25
  }
}
layer {
  name: "Convolution11"
  type: "Convolution"
  bottom: "Convolution10"
  top: "Convolution11"
  param {
    lr_mult: 1
    decay_mult: 1
  }
  param {
    lr_mult: 2
    decay_mult: 0
  }
  convolution_param {
    num_output: 16
    pad: 1
    kernel_size: 3
    stride: 1
    weight_filler {
      type: "gaussian"
      std: 0.118
    }
    bias_filler {
      type: "constant"
      value: 0
    }
  }
}
layer {
  name: "BatchNorm11"
  type: "BatchNorm"
  bottom: "Convolution11"
  top: "Convolution11"
  param {
    lr_mult: 0
    decay_mult: 0
  }
  param {
    lr_mult: 0
    decay_mult: 0
  }
  param {
    lr_mult: 0
    decay_mult: 0
  }
}
layer {
  name: "Scale11"
  type: "Scale"
  bottom: "Convolution11"
  top: "Convolution11"
  scale_param {
    bias_term: true
  }
}
layer {
  name: "Eltwise5"
  type: "Eltwise"
  bottom: "Eltwise4"
  bottom: "Convolution11"
  top: "Eltwise5"
  eltwise_param {
    operation: SUM
  }
}
layer {
  name: "elu11"
  type: "ELU"
  bottom: "Eltwise5"
  top: "Eltwise5"
  elu_param {
    alpha: 0.25
  }
}
layer {
  name: "Convolution12"
  type: "Convolution"
  bottom: "Eltwise5"
  top: "Convolution12"
  param {
    lr_mult: 1
    decay_mult: 1
  }
  param {
    lr_mult: 2
    decay_mult: 0
  }
  convolution_param {
    num_output: 32
    pad: 0
    kernel_size: 1
    stride: 2
    weight_filler {
      type: "gaussian"
      std: 0.25
    }
    bias_filler {
      type: "constant"
      value: 0
    }
  }
}
layer {
  name: "BatchNorm12"
  type: "BatchNorm"
  bottom: "Convolution12"
  top: "Convolution12"
  param {
    lr_mult: 0
    decay_mult: 0
  }
  param {
    lr_mult: 0
    decay_mult: 0
  }
  param {
    lr_mult: 0
    decay_mult: 0
  }
}
layer {
  name: "Scale12"
  type: "Scale"
  bottom: "Convolution12"
  top: "Convolution12"
  scale_param {
    bias_term: true
  }
}
layer {
  name: "Convolution13"
  type: "Convolution"
  bottom: "Eltwise5"
  top: "Convolution13"
  param {
    lr_mult: 1
    decay_mult: 1
  }
  param {
    lr_mult: 2
    decay_mult: 0
  }
  convolution_param {
    num_output: 32
    pad: 1
    kernel_size: 3
    stride: 2
    weight_filler {
      type: "gaussian"
      std: 0.083
    }
    bias_filler {
      type: "constant"
      value: 0
    }
  }
}
layer {
  name: "BatchNorm13"
  type: "BatchNorm"
  bottom: "Convolution13"
  top: "Convolution13"
  param {
    lr_mult: 0
    decay_mult: 0
  }
  param {
    lr_mult: 0
    decay_mult: 0
  }
  param {
    lr_mult: 0
    decay_mult: 0
  }
}
layer {
  name: "Scale13"
  type: "Scale"
  bottom: "Convolution13"
  top: "Convolution13"
  scale_param {
    bias_term: true
  }
}
layer {
  name: "elu12"
  type: "ELU"
  bottom: "Convolution13"
  top: "Convolution13"
  elu_param {
    alpha: 0.25
  }
}
layer {
  name: "Convolution14"
  type: "Convolution"
  bottom: "Convolution13"
  top: "Convolution14"
  param {
    lr_mult: 1
    decay_mult: 1
  }
  param {
    lr_mult: 2
    decay_mult: 0
  }
  convolution_param {
    num_output: 32
    pad: 1
    kernel_size: 3
    stride: 1
    weight_filler {
      type: "gaussian"
      std: 0.083
    }
    bias_filler {
      type: "constant"
      value: 0
    }
  }
}
layer {
  name: "BatchNorm14"
  type: "BatchNorm"
  bottom: "Convolution14"
  top: "Convolution14"
  param {
    lr_mult: 0
    decay_mult: 0
  }
  param {
    lr_mult: 0
    decay_mult: 0
  }
  param {
    lr_mult: 0
    decay_mult: 0
  }
}
layer {
  name: "Scale14"
  type: "Scale"
  bottom: "Convolution14"
  top: "Convolution14"
  scale_param {
    bias_term: true
  }
}
layer {
  name: "Eltwise6"
  type: "Eltwise"
  bottom: "Convolution12"
  bottom: "Convolution14"
  top: "Eltwise6"
  eltwise_param {
    operation: SUM
  }
}
layer {
  name: "elu13"
  type: "ELU"
  bottom: "Eltwise6"
  top: "Eltwise6"
  elu_param {
    alpha: 0.25
  }
}
layer {
  name: "Convolution15"
  type: "Convolution"
  bottom: "Eltwise6"
  top: "Convolution15"
  param {
    lr_mult: 1
    decay_mult: 1
  }
  param {
    lr_mult: 2
    decay_mult: 0
  }
  convolution_param {
    num_output: 32
    pad: 1
    kernel_size: 3
    stride: 1
    weight_filler {
      type: "gaussian"
      std: 0.083
    }
    bias_filler {
      type: "constant"
      value: 0
    }
  }
}
layer {
  name: "BatchNorm15"
  type: "BatchNorm"
  bottom: "Convolution15"
  top: "Convolution15"
  param {
    lr_mult: 0
    decay_mult: 0
  }
  param {
    lr_mult: 0
    decay_mult: 0
  }
  param {
    lr_mult: 0
    decay_mult: 0
  }
}
layer {
  name: "Scale15"
  type: "Scale"
  bottom: "Convolution15"
  top: "Convolution15"
  scale_param {
    bias_term: true
  }
}
layer {
  name: "elu14"
  type: "ELU"
  bottom: "Convolution15"
  top: "Convolution15"
  elu_param {
    alpha: 0.25
  }
}
layer {
  name: "Convolution16"
  type: "Convolution"
  bottom: "Convolution15"
  top: "Convolution16"
  param {
    lr_mult: 1
    decay_mult: 1
  }
  param {
    lr_mult: 2
    decay_mult: 0
  }
  convolution_param {
    num_output: 32
    pad: 1
    kernel_size: 3
    stride: 1
    weight_filler {
      type: "gaussian"
      std: 0.083
    }
    bias_filler {
      type: "constant"
      value: 0
    }
  }
}
layer {
  name: "BatchNorm16"
  type: "BatchNorm"
  bottom: "Convolution16"
  top: "Convolution16"
  param {
    lr_mult: 0
    decay_mult: 0
  }
  param {
    lr_mult: 0
    decay_mult: 0
  }
  param {
    lr_mult: 0
    decay_mult: 0
  }
}
layer {
  name: "Scale16"
  type: "Scale"
  bottom: "Convolution16"
  top: "Convolution16"
  scale_param {
    bias_term: true
  }
}
layer {
  name: "Eltwise7"
  type: "Eltwise"
  bottom: "Eltwise6"
  bottom: "Convolution16"
  top: "Eltwise7"
  eltwise_param {
    operation: SUM
  }
}
layer {
  name: "elu15"
  type: "ELU"
  bottom: "Eltwise7"
  top: "Eltwise7"
  elu_param {
    alpha: 0.25
  }
}
layer {
  name: "Convolution17"
  type: "Convolution"
  bottom: "Eltwise7"
  top: "Convolution17"
  param {
    lr_mult: 1
    decay_mult: 1
  }
  param {
    lr_mult: 2
    decay_mult: 0
  }
  convolution_param {
    num_output: 32
    pad: 1
    kernel_size: 3
    stride: 1
    weight_filler {
      type: "gaussian"
      std: 0.083
    }
    bias_filler {
      type: "constant"
      value: 0
    }
  }
}
layer {
  name: "BatchNorm17"
  type: "BatchNorm"
  bottom: "Convolution17"
  top: "Convolution17"
  param {
    lr_mult: 0
    decay_mult: 0
  }
  param {
    lr_mult: 0
    decay_mult: 0
  }
  param {
    lr_mult: 0
    decay_mult: 0
  }
}
layer {
  name: "Scale17"
  type: "Scale"
  bottom: "Convolution17"
  top: "Convolution17"
  scale_param {
    bias_term: true
  }
}
layer {
  name: "elu16"
  type: "ELU"
  bottom: "Convolution17"
  top: "Convolution17"
  elu_param {
    alpha: 0.25
  }
}
layer {
  name: "Convolution18"
  type: "Convolution"
  bottom: "Convolution17"
  top: "Convolution18"
  param {
    lr_mult: 1
    decay_mult: 1
  }
  param {
    lr_mult: 2
    decay_mult: 0
  }
  convolution_param {
    num_output: 32
    pad: 1
    kernel_size: 3
    stride: 1
    weight_filler {
      type: "gaussian"
      std: 0.083
    }
    bias_filler {
      type: "constant"
      value: 0
    }
  }
}
layer {
  name: "BatchNorm18"
  type: "BatchNorm"
  bottom: "Convolution18"
  top: "Convolution18"
  param {
    lr_mult: 0
    decay_mult: 0
  }
  param {
    lr_mult: 0
    decay_mult: 0
  }
  param {
    lr_mult: 0
    decay_mult: 0
  }
}
layer {
  name: "Scale18"
  type: "Scale"
  bottom: "Convolution18"
  top: "Convolution18"
  scale_param {
    bias_term: true
  }
}
layer {
  name: "Eltwise8"
  type: "Eltwise"
  bottom: "Eltwise7"
  bottom: "Convolution18"
  top: "Eltwise8"
  eltwise_param {
    operation: SUM
  }
}
layer {
  name: "elu17"
  type: "ELU"
  bottom: "Eltwise8"
  top: "Eltwise8"
  elu_param {
    alpha: 0.25
  }
}
layer {
  name: "Convolution19"
  type: "Convolution"
  bottom: "Eltwise8"
  top: "Convolution19"
  param {
    lr_mult: 1
    decay_mult: 1
  }
  param {
    lr_mult: 2
    decay_mult: 0
  }
  convolution_param {
    num_output: 32
    pad: 1
    kernel_size: 3
    stride: 1
    weight_filler {
      type: "gaussian"
      std: 0.083
    }
    bias_filler {
      type: "constant"
      value: 0
    }
  }
}
layer {
  name: "BatchNorm19"
  type: "BatchNorm"
  bottom: "Convolution19"
  top: "Convolution19"
  param {
    lr_mult: 0
    decay_mult: 0
  }
  param {
    lr_mult: 0
    decay_mult: 0
  }
  param {
    lr_mult: 0
    decay_mult: 0
  }
}
layer {
  name: "Scale19"
  type: "Scale"
  bottom: "Convolution19"
  top: "Convolution19"
  scale_param {
    bias_term: true
  }
}
layer {
  name: "elu18"
  type: "ELU"
  bottom: "Convolution19"
  top: "Convolution19"
  elu_param {
    alpha: 0.25
  }
}
layer {
  name: "Convolution20"
  type: "Convolution"
  bottom: "Convolution19"
  top: "Convolution20"
  param {
    lr_mult: 1
    decay_mult: 1
  }
  param {
    lr_mult: 2
    decay_mult: 0
  }
  convolution_param {
    num_output: 32
    pad: 1
    kernel_size: 3
    stride: 1
    weight_filler {
      type: "gaussian"
      std: 0.083
    }
    bias_filler {
      type: "constant"
      value: 0
    }
  }
}
layer {
  name: "BatchNorm20"
  type: "BatchNorm"
  bottom: "Convolution20"
  top: "Convolution20"
  param {
    lr_mult: 0
    decay_mult: 0
  }
  param {
    lr_mult: 0
    decay_mult: 0
  }
  param {
    lr_mult: 0
    decay_mult: 0
  }
}
layer {
  name: "Scale20"
  type: "Scale"
  bottom: "Convolution20"
  top: "Convolution20"
  scale_param {
    bias_term: true
  }
}
layer {
  name: "Eltwise9"
  type: "Eltwise"
  bottom: "Eltwise8"
  bottom: "Convolution20"
  top: "Eltwise9"
  eltwise_param {
    operation: SUM
  }
}
layer {
  name: "elu19"
  type: "ELU"
  bottom: "Eltwise9"
  top: "Eltwise9"
  elu_param {
    alpha: 0.25
  }
}
layer {
  name: "Convolution21"
  type: "Convolution"
  bottom: "Eltwise9"
  top: "Convolution21"
  param {
    lr_mult: 1
    decay_mult: 1
  }
  param {
    lr_mult: 2
    decay_mult: 0
  }
  convolution_param {
    num_output: 32
    pad: 1
    kernel_size: 3
    stride: 1
    weight_filler {
      type: "gaussian"
      std: 0.083
    }
    bias_filler {
      type: "constant"
      value: 0
    }
  }
}
layer {
  name: "BatchNorm21"
  type: "BatchNorm"
  bottom: "Convolution21"
  top: "Convolution21"
  param {
    lr_mult: 0
    decay_mult: 0
  }
  param {
    lr_mult: 0
    decay_mult: 0
  }
  param {
    lr_mult: 0
    decay_mult: 0
  }
}
layer {
  name: "Scale21"
  type: "Scale"
  bottom: "Convolution21"
  top: "Convolution21"
  scale_param {
    bias_term: true
  }
}
layer {
  name: "elu20"
  type: "ELU"
  bottom: "Convolution21"
  top: "Convolution21"
  elu_param {
    alpha: 0.25
  }
}
layer {
  name: "Convolution22"
  type: "Convolution"
  bottom: "Convolution21"
  top: "Convolution22"
  param {
    lr_mult: 1
    decay_mult: 1
  }
  param {
    lr_mult: 2
    decay_mult: 0
  }
  convolution_param {
    num_output: 32
    pad: 1
    kernel_size: 3
    stride: 1
    weight_filler {
      type: "gaussian"
      std: 0.083
    }
    bias_filler {
      type: "constant"
      value: 0
    }
  }
}
layer {
  name: "BatchNorm22"
  type: "BatchNorm"
  bottom: "Convolution22"
  top: "Convolution22"
  param {
    lr_mult: 0
    decay_mult: 0
  }
  param {
    lr_mult: 0
    decay_mult: 0
  }
  param {
    lr_mult: 0
    decay_mult: 0
  }
}
layer {
  name: "Scale22"
  type: "Scale"
  bottom: "Convolution22"
  top: "Convolution22"
  scale_param {
    bias_term: true
  }
}
layer {
  name: "Eltwise10"
  type: "Eltwise"
  bottom: "Eltwise9"
  bottom: "Convolution22"
  top: "Eltwise10"
  eltwise_param {
    operation: SUM
  }
}
layer {
  name: "elu21"
  type: "ELU"
  bottom: "Eltwise10"
  top: "Eltwise10"
  elu_param {
    alpha: 0.25
  }
}
layer {
  name: "Convolution23"
  type: "Convolution"
  bottom: "Eltwise10"
  top: "Convolution23"
  param {
    lr_mult: 1
    decay_mult: 1
  }
  param {
    lr_mult: 2
    decay_mult: 0
  }
  convolution_param {
    num_output: 64
    pad: 0
    kernel_size: 1
    stride: 2
    weight_filler {
      type: "gaussian"
      std: 0.17677669
    }
    bias_filler {
      type: "constant"
      value: 0
    }
  }
}
layer {
  name: "BatchNorm23"
  type: "BatchNorm"
  bottom: "Convolution23"
  top: "Convolution23"
  param {
    lr_mult: 0
    decay_mult: 0
  }
  param {
    lr_mult: 0
    decay_mult: 0
  }
  param {
    lr_mult: 0
    decay_mult: 0
  }
}
layer {
  name: "Scale23"
  type: "Scale"
  bottom: "Convolution23"
  top: "Convolution23"
  scale_param {
    bias_term: true
  }
}
layer {
  name: "Convolution24"
  type: "Convolution"
  bottom: "Eltwise10"
  top: "Convolution24"
  param {
    lr_mult: 1
    decay_mult: 1
  }
  param {
    lr_mult: 2
    decay_mult: 0
  }
  convolution_param {
    num_output: 64
    pad: 1
    kernel_size: 3
    stride: 2
    weight_filler {
      type: "gaussian"
      std: 0.059
    }
    bias_filler {
      type: "constant"
      value: 0
    }
  }
}
layer {
  name: "BatchNorm24"
  type: "BatchNorm"
  bottom: "Convolution24"
  top: "Convolution24"
  param {
    lr_mult: 0
    decay_mult: 0
  }
  param {
    lr_mult: 0
    decay_mult: 0
  }
  param {
    lr_mult: 0
    decay_mult: 0
  }
}
layer {
  name: "Scale24"
  type: "Scale"
  bottom: "Convolution24"
  top: "Convolution24"
  scale_param {
    bias_term: true
  }
}
layer {
  name: "elu22"
  type: "ELU"
  bottom: "Convolution24"
  top: "Convolution24"
  elu_param {
    alpha: 0.25
  }
}
layer {
  name: "Convolution25"
  type: "Convolution"
  bottom: "Convolution24"
  top: "Convolution25"
  param {
    lr_mult: 1
    decay_mult: 1
  }
  param {
    lr_mult: 2
    decay_mult: 0
  }
  convolution_param {
    num_output: 64
    pad: 1
    kernel_size: 3
    stride: 1
    weight_filler {
      type: "gaussian"
      std: 0.059
    }
    bias_filler {
      type: "constant"
      value: 0
    }
  }
}
layer {
  name: "BatchNorm25"
  type: "BatchNorm"
  bottom: "Convolution25"
  top: "Convolution25"
  param {
    lr_mult: 0
    decay_mult: 0
  }
  param {
    lr_mult: 0
    decay_mult: 0
  }
  param {
    lr_mult: 0
    decay_mult: 0
  }
}
layer {
  name: "Scale25"
  type: "Scale"
  bottom: "Convolution25"
  top: "Convolution25"
  scale_param {
    bias_term: true
  }
}
layer {
  name: "Eltwise11"
  type: "Eltwise"
  bottom: "Convolution23"
  bottom: "Convolution25"
  top: "Eltwise11"
  eltwise_param {
    operation: SUM
  }
}
layer {
  name: "elu23"
  type: "ELU"
  bottom: "Eltwise11"
  top: "Eltwise11"
  elu_param {
    alpha: 0.25
  }
}
layer {
  name: "Convolution26"
  type: "Convolution"
  bottom: "Eltwise11"
  top: "Convolution26"
  param {
    lr_mult: 1
    decay_mult: 1
  }
  param {
    lr_mult: 2
    decay_mult: 0
  }
  convolution_param {
    num_output: 64
    pad: 1
    kernel_size: 3
    stride: 1
    weight_filler {
      type: "gaussian"
      std: 0.059
    }
    bias_filler {
      type: "constant"
      value: 0
    }
  }
}
layer {
  name: "BatchNorm26"
  type: "BatchNorm"
  bottom: "Convolution26"
  top: "Convolution26"
  param {
    lr_mult: 0
    decay_mult: 0
  }
  param {
    lr_mult: 0
    decay_mult: 0
  }
  param {
    lr_mult: 0
    decay_mult: 0
  }
}
layer {
  name: "Scale26"
  type: "Scale"
  bottom: "Convolution26"
  top: "Convolution26"
  scale_param {
    bias_term: true
  }
}
layer {
  name: "elu24"
  type: "ELU"
  bottom: "Convolution26"
  top: "Convolution26"
  elu_param {
    alpha: 0.25
  }
}
layer {
  name: "Convolution27"
  type: "Convolution"
  bottom: "Convolution26"
  top: "Convolution27"
  param {
    lr_mult: 1
    decay_mult: 1
  }
  param {
    lr_mult: 2
    decay_mult: 0
  }
  convolution_param {
    num_output: 64
    pad: 1
    kernel_size: 3
    stride: 1
    weight_filler {
      type: "gaussian"
      std: 0.059
    }
    bias_filler {
      type: "constant"
      value: 0
    }
  }
}
layer {
  name: "BatchNorm27"
  type: "BatchNorm"
  bottom: "Convolution27"
  top: "Convolution27"
  param {
    lr_mult: 0
    decay_mult: 0
  }
  param {
    lr_mult: 0
    decay_mult: 0
  }
  param {
    lr_mult: 0
    decay_mult: 0
  }
}
layer {
  name: "Scale27"
  type: "Scale"
  bottom: "Convolution27"
  top: "Convolution27"
  scale_param {
    bias_term: true
  }
}
layer {
  name: "Eltwise12"
  type: "Eltwise"
  bottom: "Eltwise11"
  bottom: "Convolution27"
  top: "Eltwise12"
  eltwise_param {
    operation: SUM
  }
}
layer {
  name: "elu25"
  type: "ELU"
  bottom: "Eltwise12"
  top: "Eltwise12"
  elu_param {
    alpha: 0.25
  }
}
layer {
  name: "Convolution28"
  type: "Convolution"
  bottom: "Eltwise12"
  top: "Convolution28"
  param {
    lr_mult: 1
    decay_mult: 1
  }
  param {
    lr_mult: 2
    decay_mult: 0
  }
  convolution_param {
    num_output: 64
    pad: 1
    kernel_size: 3
    stride: 1
    weight_filler {
      type: "gaussian"
      std: 0.059
    }
    bias_filler {
      type: "constant"
      value: 0
    }
  }
}
layer {
  name: "BatchNorm28"
  type: "BatchNorm"
  bottom: "Convolution28"
  top: "Convolution28"
  param {
    lr_mult: 0
    decay_mult: 0
  }
  param {
    lr_mult: 0
    decay_mult: 0
  }
  param {
    lr_mult: 0
    decay_mult: 0
  }
}
layer {
  name: "Scale28"
  type: "Scale"
  bottom: "Convolution28"
  top: "Convolution28"
  scale_param {
    bias_term: true
  }
}
layer {
  name: "elu26"
  type: "ELU"
  bottom: "Convolution28"
  top: "Convolution28"
  elu_param {
    alpha: 0.25
  }
}
layer {
  name: "Convolution29"
  type: "Convolution"
  bottom: "Convolution28"
  top: "Convolution29"
  param {
    lr_mult: 1
    decay_mult: 1
  }
  param {
    lr_mult: 2
    decay_mult: 0
  }
  convolution_param {
    num_output: 64
    pad: 1
    kernel_size: 3
    stride: 1
    weight_filler {
      type: "gaussian"
      std: 0.059
    }
    bias_filler {
      type: "constant"
      value: 0
    }
  }
}
layer {
  name: "BatchNorm29"
  type: "BatchNorm"
  bottom: "Convolution29"
  top: "Convolution29"
  param {
    lr_mult: 0
    decay_mult: 0
  }
  param {
    lr_mult: 0
    decay_mult: 0
  }
  param {
    lr_mult: 0
    decay_mult: 0
  }
}
layer {
  name: "Scale29"
  type: "Scale"
  bottom: "Convolution29"
  top: "Convolution29"
  scale_param {
    bias_term: true
  }
}
layer {
  name: "Eltwise13"
  type: "Eltwise"
  bottom: "Eltwise12"
  bottom: "Convolution29"
  top: "Eltwise13"
  eltwise_param {
    operation: SUM
  }
}
layer {
  name: "elu27"
  type: "ELU"
  bottom: "Eltwise13"
  top: "Eltwise13"
  elu_param {
    alpha: 0.25
  }
}
layer {
  name: "Convolution30"
  type: "Convolution"
  bottom: "Eltwise13"
  top: "Convolution30"
  param {
    lr_mult: 1
    decay_mult: 1
  }
  param {
    lr_mult: 2
    decay_mult: 0
  }
  convolution_param {
    num_output: 64
    pad: 1
    kernel_size: 3
    stride: 1
    weight_filler {
      type: "gaussian"
      std: 0.059
    }
    bias_filler {
      type: "constant"
      value: 0
    }
  }
}
layer {
  name: "BatchNorm30"
  type: "BatchNorm"
  bottom: "Convolution30"
  top: "Convolution30"
  param {
    lr_mult: 0
    decay_mult: 0
  }
  param {
    lr_mult: 0
    decay_mult: 0
  }
  param {
    lr_mult: 0
    decay_mult: 0
  }
}
layer {
  name: "Scale30"
  type: "Scale"
  bottom: "Convolution30"
  top: "Convolution30"
  scale_param {
    bias_term: true
  }
}
layer {
  name: "elu28"
  type: "ELU"
  bottom: "Convolution30"
  top: "Convolution30"
  elu_param {
    alpha: 0.25
  }
}
layer {
  name: "Convolution31"
  type: "Convolution"
  bottom: "Convolution30"
  top: "Convolution31"
  param {
    lr_mult: 1
    decay_mult: 1
  }
  param {
    lr_mult: 2
    decay_mult: 0
  }
  convolution_param {
    num_output: 64
    pad: 1
    kernel_size: 3
    stride: 1
    weight_filler {
      type: "gaussian"
      std: 0.059
    }
    bias_filler {
      type: "constant"
      value: 0
    }
  }
}
layer {
  name: "BatchNorm31"
  type: "BatchNorm"
  bottom: "Convolution31"
  top: "Convolution31"
  param {
    lr_mult: 0
    decay_mult: 0
  }
  param {
    lr_mult: 0
    decay_mult: 0
  }
  param {
    lr_mult: 0
    decay_mult: 0
  }
}
I1007 22:17:02.637084  5322 layer_factory.hpp:77] Creating layer Data1
I1007 22:17:02.637121  5322 db_lmdb.cpp:35] Opened lmdb /home/x306/caffe/xn/PENLU/data/cifar10/cifar10_test_lmdb
I1007 22:17:02.637138  5322 net.cpp:84] Creating Layer Data1
I1007 22:17:02.637142  5322 net.cpp:380] Data1 -> Data1
I1007 22:17:02.637150  5322 net.cpp:380] Data1 -> Data2
I1007 22:17:02.637154  5322 data_transformer.cpp:25] Loading mean file from: /home/x306/caffe/xn/PENLU/data/cifar10/mean.binaryproto
I1007 22:17:02.637275  5322 data_layer.cpp:45] output data size: 100,3,32,32
I1007 22:17:02.657068  5322 net.cpp:122] Setting up Data1
I1007 22:17:02.657088  5322 net.cpp:129] Top shape: 100 3 32 32 (307200)
I1007 22:17:02.657091  5322 net.cpp:129] Top shape: 100 (100)
I1007 22:17:02.657094  5322 net.cpp:137] Memory required for data: 1229200
I1007 22:17:02.657099  5322 layer_factory.hpp:77] Creating layer Data2_Data1_1_split
I1007 22:17:02.657107  5322 net.cpp:84] Creating Layer Data2_Data1_1_split
I1007 22:17:02.657110  5322 net.cpp:406] Data2_Data1_1_split <- Data2
I1007 22:17:02.657115  5322 net.cpp:380] Data2_Data1_1_split -> Data2_Data1_1_split_0
I1007 22:17:02.657124  5322 net.cpp:380] Data2_Data1_1_split -> Data2_Data1_1_split_1
I1007 22:17:02.657166  5322 net.cpp:122] Setting up Data2_Data1_1_split
I1007 22:17:02.657181  5322 net.cpp:129] Top shape: 100 (100)
I1007 22:17:02.657183  5322 net.cpp:129] Top shape: 100 (100)
…
I1007 22:17:02.788666  5322 layer_factory.hpp:77] Creating layer elu14
I1007 22:17:02.788674  5322 net.cpp:84] Creating Layer elu14
I1007 22:17:02.788678  5322 net.cpp:406] elu14 <- Convolution15
I1007 22:17:02.788684  5322 net.cpp:367] elu14 -> Convolution15 (in-place)
I1007 22:17:02.788691  5322 net.cpp:122] Setting up elu14
I1007 22:17:02.788697  5322 net.cpp:129] Top shape: 100 32 16 16 (819200)
I1007 22:17:02.788700  5322 net.cpp:137] Memory required for data: 459982000
I1007 22:17:02.788705  5322 layer_factory.hpp:77] Creating layer Convolution16
I1007 22:17:02.788715  5322 net.cpp:84] Creating Layer Convolution16
I1007 22:17:02.788720  5322 net.cpp:406] Convolution16 <- Convolution15
I1007 22:17:02.788727  5322 net.cpp:380] Convolution16 -> Convolution16
I1007 22:17:02.794692  5322 net.cpp:122] Setting up Convolution16
I1007 22:17:02.794704  5322 net.cpp:129] Top shape: 100 32 16 16 (819200)
I1007 22:17:02.794708  5322 net.cpp:137] Memory required for data: 463258800
I1007 22:17:02.794715  5322 layer_factory.hpp:77] Creating layer BatchNorm16
I1007 22:17:02.794724  5322 net.cpp:84] Creating Layer BatchNorm16
I1007 22:17:02.794729  5322 net.cpp:406] BatchNorm16 <- Convolution16
I1007 22:17:02.794739  5322 net.cpp:367] BatchNorm16 -> Convolution16 (in-place)
I1007 22:17:02.794965  5322 net.cpp:122] Setting up BatchNorm16
I1007 22:17:02.794973  5322 net.cpp:129] Top shape: 100 32 16 16 (819200)
I1007 22:17:02.794977  5322 net.cpp:137] Memory required for data: 466535600
I1007 22:17:02.794986  5322 layer_factory.hpp:77] Creating layer Scale16
I1007 22:17:02.794994  5322 net.cpp:84] Creating Layer Scale16
I1007 22:17:02.794999  5322 net.cpp:406] Scale16 <- Convolution16
I1007 22:17:02.795004  5322 net.cpp:367] Scale16 -> Convolution16 (in-place)
I1007 22:17:02.795049  5322 layer_factory.hpp:77] Creating layer Scale16
I1007 22:17:02.795182  5322 net.cpp:122] Setting up Scale16
I1007 22:17:02.795192  5322 net.cpp:129] Top shape: 100 32 16 16 (819200)
I1007 22:17:02.795195  5322 net.cpp:137] Memory required for data: 469812400
I1007 22:17:02.795202  5322 layer_factory.hpp:77] Creating layer Eltwise7
I1007 22:17:02.795209  5322 net.cpp:84] Creating Layer Eltwise7
I1007 22:17:02.795214  5322 net.cpp:406] Eltwise7 <- Eltwise6_elu13_0_split_1
I1007 22:17:02.795219  5322 net.cpp:406] Eltwise7 <- Convolution16
I1007 22:17:02.795227  5322 net.cpp:380] Eltwise7 -> Eltwise7
I1007 22:17:02.795248  5322 net.cpp:122] Setting up Eltwise7
I1007 22:17:02.795255  5322 net.cpp:129] Top shape: 100 32 16 16 (819200)
I1007 22:17:02.795260  5322 net.cpp:137] Memory required for data: 473089200
I1007 22:17:02.795264  5322 layer_factory.hpp:77] Creating layer elu15
I1007 22:17:02.795271  5322 net.cpp:84] Creating Layer elu15
I1007 22:17:02.795276  5322 net.cpp:406] elu15 <- Eltwise7
I1007 22:17:02.795281  5322 net.cpp:367] elu15 -> Eltwise7 (in-place)
I1007 22:17:02.795289  5322 net.cpp:122] Setting up elu15
I1007 22:17:02.795295  5322 net.cpp:129] Top shape: 100 32 16 16 (819200)
I1007 22:17:02.795298  5322 net.cpp:137] Memory required for data: 476366000
I1007 22:17:02.795302  5322 layer_factory.hpp:77] Creating layer Eltwise7_elu15_0_split
I1007 22:17:02.795310  5322 net.cpp:84] Creating Layer Eltwise7_elu15_0_split
I1007 22:17:02.795313  5322 net.cpp:406] Eltwise7_elu15_0_split <- Eltwise7
I1007 22:17:02.795320  5322 net.cpp:380] Eltwise7_elu15_0_split -> Eltwise7_elu15_0_split_0
I1007 22:17:02.795326  5322 net.cpp:380] Eltwise7_elu15_0_split -> Eltwise7_elu15_0_split_1
I1007 22:17:02.795364  5322 net.cpp:122] Setting up Eltwise7_elu15_0_split
I1007 22:17:02.795372  5322 net.cpp:129] Top shape: 100 32 16 16 (819200)
I1007 22:17:02.795377  5322 net.cpp:129] Top shape: 100 32 16 16 (819200)
I1007 22:17:02.795382  5322 net.cpp:137] Memory required for data: 482919600
I1007 22:17:02.795385  5322 layer_factory.hpp:77] Creating layer Convolution17
I1007 22:17:02.795397  5322 net.cpp:84] Creating Layer Convolution17
I1007 22:17:02.795402  5322 net.cpp:406] Convolution17 <- Eltwise7_elu15_0_split_0
I1007 22:17:02.795408  5322 net.cpp:380] Convolution17 -> Convolution17
I1007 22:17:02.801316  5322 net.cpp:122] Setting up Convolution17
I1007 22:17:02.801331  5322 net.cpp:129] Top shape: 100 32 16 16 (819200)
I1007 22:17:02.801336  5322 net.cpp:137] Memory required for data: 486196400
I1007 22:17:02.801342  5322 layer_factory.hpp:77] Creating layer BatchNorm17
I1007 22:17:02.801352  5322 net.cpp:84] Creating Layer BatchNorm17
I1007 22:17:02.801358  5322 net.cpp:406] BatchNorm17 <- Convolution17
I1007 22:17:02.801365  5322 net.cpp:367] BatchNorm17 -> Convolution17 (in-place)
I1007 22:17:02.801581  5322 net.cpp:122] Setting up BatchNorm17
I1007 22:17:02.801589  5322 net.cpp:129] Top shape: 100 32 16 16 (819200)
I1007 22:17:02.801594  5322 net.cpp:137] Memory required for data: 489473200
I1007 22:17:02.801602  5322 layer_factory.hpp:77] Creating layer Scale17
I1007 22:17:02.801610  5322 net.cpp:84] Creating Layer Scale17
I1007 22:17:02.801615  5322 net.cpp:406] Scale17 <- Convolution17
I1007 22:17:02.801621  5322 net.cpp:367] Scale17 -> Convolution17 (in-place)
I1007 22:17:02.801666  5322 layer_factory.hpp:77] Creating layer Scale17
I1007 22:17:02.801793  5322 net.cpp:122] Setting up Scale17
I1007 22:17:02.801801  5322 net.cpp:129] Top shape: 100 32 16 16 (819200)
I1007 22:17:02.801805  5322 net.cpp:137] Memory required for data: 492750000
I1007 22:17:02.801822  5322 layer_factory.hpp:77] Creating layer elu16
I1007 22:17:02.801829  5322 net.cpp:84] Creating Layer elu16
I1007 22:17:02.801834  5322 net.cpp:406] elu16 <- Convolution17
I1007 22:17:02.801841  5322 net.cpp:367] elu16 -> Convolution17 (in-place)
I1007 22:17:02.801848  5322 net.cpp:122] Setting up elu16
I1007 22:17:02.801854  5322 net.cpp:129] Top shape: 100 32 16 16 (819200)
I1007 22:17:02.801859  5322 net.cpp:137] Memory required for data: 496026800
I1007 22:17:02.801863  5322 layer_factory.hpp:77] Creating layer Convolution18
I1007 22:17:02.801873  5322 net.cpp:84] Creating Layer Convolution18
I1007 22:17:02.801878  5322 net.cpp:406] Convolution18 <- Convolution17
I1007 22:17:02.801885  5322 net.cpp:380] Convolution18 -> Convolution18
I1007 22:17:02.805748  5322 net.cpp:122] Setting up Convolution18
I1007 22:17:02.805763  5322 net.cpp:129] Top shape: 100 32 16 16 (819200)
I1007 22:17:02.805766  5322 net.cpp:137] Memory required for data: 499303600
I1007 22:17:02.805773  5322 layer_factory.hpp:77] Creating layer BatchNorm18
I1007 22:17:02.805793  5322 net.cpp:84] Creating Layer BatchNorm18
I1007 22:17:02.805797  5322 net.cpp:406] BatchNorm18 <- Convolution18
I1007 22:17:02.805805  5322 net.cpp:367] BatchNorm18 -> Convolution18 (in-place)
I1007 22:17:02.806046  5322 net.cpp:122] Setting up BatchNorm18
I1007 22:17:02.806056  5322 net.cpp:129] Top shape: 100 32 16 16 (819200)
I1007 22:17:02.806059  5322 net.cpp:137] Memory required for data: 502580400
I1007 22:17:02.806069  5322 layer_factory.hpp:77] Creating layer Scale18
I1007 22:17:02.806077  5322 net.cpp:84] Creating Layer Scale18
I1007 22:17:02.806082  5322 net.cpp:406] Scale18 <- Convolution18
I1007 22:17:02.806088  5322 net.cpp:367] Scale18 -> Convolution18 (in-place)
I1007 22:17:02.806133  5322 layer_factory.hpp:77] Creating layer Scale18
I1007 22:17:02.806258  5322 net.cpp:122] Setting up Scale18
I1007 22:17:02.806267  5322 net.cpp:129] Top shape: 100 32 16 16 (819200)
I1007 22:17:02.806270  5322 net.cpp:137] Memory required for data: 505857200
I1007 22:17:02.806277  5322 layer_factory.hpp:77] Creating layer Eltwise8
I1007 22:17:02.806283  5322 net.cpp:84] Creating Layer Eltwise8
I1007 22:17:02.806288  5322 net.cpp:406] Eltwise8 <- Eltwise7_elu15_0_split_1
I1007 22:17:02.806293  5322 net.cpp:406] Eltwise8 <- Convolution18
I1007 22:17:02.806299  5322 net.cpp:380] Eltwise8 -> Eltwise8
I1007 22:17:02.806321  5322 net.cpp:122] Setting up Eltwise8
I1007 22:17:02.806329  5322 net.cpp:129] Top shape: 100 32 16 16 (819200)
I1007 22:17:02.806334  5322 net.cpp:137] Memory required for data: 509134000
I1007 22:17:02.806337  5322 layer_factory.hpp:77] Creating layer elu17
I1007 22:17:02.806342  5322 net.cpp:84] Creating Layer elu17
I1007 22:17:02.806347  5322 net.cpp:406] elu17 <- Eltwise8
I1007 22:17:02.806354  5322 net.cpp:367] elu17 -> Eltwise8 (in-place)
I1007 22:17:02.806360  5322 net.cpp:122] Setting up elu17
I1007 22:17:02.806366  5322 net.cpp:129] Top shape: 100 32 16 16 (819200)
I1007 22:17:02.806371  5322 net.cpp:137] Memory required for data: 512410800
I1007 22:17:02.806375  5322 layer_factory.hpp:77] Creating layer Eltwise8_elu17_0_split
I1007 22:17:02.806381  5322 net.cpp:84] Creating Layer Eltwise8_elu17_0_split
I1007 22:17:02.806385  5322 net.cpp:406] Eltwise8_elu17_0_split <- Eltwise8
I1007 22:17:02.806391  5322 net.cpp:380] Eltwise8_elu17_0_split -> Eltwise8_elu17_0_split_0
I1007 22:17:02.806397  5322 net.cpp:380] Eltwise8_elu17_0_split -> Eltwise8_elu17_0_split_1
I1007 22:17:02.806437  5322 net.cpp:122] Setting up Eltwise8_elu17_0_split
I1007 22:17:02.806453  5322 net.cpp:129] Top shape: 100 32 16 16 (819200)
I1007 22:17:02.806459  5322 net.cpp:129] Top shape: 100 32 16 16 (819200)
I1007 22:17:02.806463  5322 net.cpp:137] Memory required for data: 518964400
I1007 22:17:02.806468  5322 layer_factory.hpp:77] Creating layer Convolution19
I1007 22:17:02.806479  5322 net.cpp:84] Creating Layer Convolution19
I1007 22:17:02.806485  5322 net.cpp:406] Convolution19 <- Eltwise8_elu17_0_split_0
I1007 22:17:02.806502  5322 net.cpp:380] Convolution19 -> Convolution19
I1007 22:17:02.812760  5322 net.cpp:122] Setting up Convolution19
I1007 22:17:02.812774  5322 net.cpp:129] Top shape: 100 32 16 16 (819200)
I1007 22:17:02.812777  5322 net.cpp:137] Memory required for data: 522241200
I1007 22:17:02.812783  5322 layer_factory.hpp:77] Creating layer BatchNorm19
I1007 22:17:02.812800  5322 net.cpp:84] Creating Layer BatchNorm19
I1007 22:17:02.812808  5322 net.cpp:406] BatchNorm19 <- Convolution19
I1007 22:17:02.812824  5322 net.cpp:367] BatchNorm19 -> Convolution19 (in-place)
I1007 22:17:02.812978  5322 net.cpp:122] Setting up BatchNorm19
I1007 22:17:02.812984  5322 net.cpp:129] Top shape: 100 32 16 16 (819200)
I1007 22:17:02.812988  5322 net.cpp:137] Memory required for data: 525518000
I1007 22:17:02.813007  5322 layer_factory.hpp:77] Creating layer Scale19
I1007 22:17:02.813014  5322 net.cpp:84] Creating Layer Scale19
I1007 22:17:02.813019  5322 net.cpp:406] Scale19 <- Convolution19
I1007 22:17:02.813024  5322 net.cpp:367] Scale19 -> Convolution19 (in-place)
I1007 22:17:02.813063  5322 layer_factory.hpp:77] Creating layer Scale19
I1007 22:17:02.813153  5322 net.cpp:122] Setting up Scale19
I1007 22:17:02.813158  5322 net.cpp:129] Top shape: 100 32 16 16 (819200)
I1007 22:17:02.813161  5322 net.cpp:137] Memory required for data: 528794800
I1007 22:17:02.813169  5322 layer_factory.hpp:77] Creating layer elu18
I1007 22:17:02.813174  5322 net.cpp:84] Creating Layer elu18
I1007 22:17:02.813177  5322 net.cpp:406] elu18 <- Convolution19
I1007 22:17:02.813182  5322 net.cpp:367] elu18 -> Convolution19 (in-place)
I1007 22:17:02.813189  5322 net.cpp:122] Setting up elu18
I1007 22:17:02.813194  5322 net.cpp:129] Top shape: 100 32 16 16 (819200)
I1007 22:17:02.813197  5322 net.cpp:137] Memory required for data: 532071600
I1007 22:17:02.813201  5322 layer_factory.hpp:77] Creating layer Convolution20
I1007 22:17:02.813210  5322 net.cpp:84] Creating Layer Convolution20
I1007 22:17:02.813215  5322 net.cpp:406] Convolution20 <- Convolution19
I1007 22:17:02.813220  5322 net.cpp:380] Convolution20 -> Convolution20
I1007 22:17:02.825891  5322 net.cpp:122] Setting up Convolution20
I1007 22:17:02.825901  5322 net.cpp:129] Top shape: 100 32 16 16 (819200)
I1007 22:17:02.825903  5322 net.cpp:137] Memory required for data: 535348400
I1007 22:17:02.825909  5322 layer_factory.hpp:77] Creating layer BatchNorm20
I1007 22:17:02.825917  5322 net.cpp:84] Creating Layer BatchNorm20
I1007 22:17:02.825922  5322 net.cpp:406] BatchNorm20 <- Convolution20
I1007 22:17:02.825927  5322 net.cpp:367] BatchNorm20 -> Convolution20 (in-place)
I1007 22:17:02.826076  5322 net.cpp:122] Setting up BatchNorm20
I1007 22:17:02.826081  5322 net.cpp:129] Top shape: 100 32 16 16 (819200)
I1007 22:17:02.826083  5322 net.cpp:137] Memory required for data: 538625200
I1007 22:17:02.826092  5322 layer_factory.hpp:77] Creating layer Scale20
I1007 22:17:02.826097  5322 net.cpp:84] Creating Layer Scale20
I1007 22:17:02.826102  5322 net.cpp:406] Scale20 <- Convolution20
I1007 22:17:02.826107  5322 net.cpp:367] Scale20 -> Convolution20 (in-place)
I1007 22:17:02.826140  5322 layer_factory.hpp:77] Creating layer Scale20
I1007 22:17:02.826228  5322 net.cpp:122] Setting up Scale20
I1007 22:17:02.826234  5322 net.cpp:129] Top shape: 100 32 16 16 (819200)
I1007 22:17:02.826236  5322 net.cpp:137] Memory required for data: 541902000
I1007 22:17:02.826243  5322 layer_factory.hpp:77] Creating layer Eltwise9
I1007 22:17:02.826251  5322 net.cpp:84] Creating Layer Eltwise9
I1007 22:17:02.826256  5322 net.cpp:406] Eltwise9 <- Eltwise8_elu17_0_split_1
I1007 22:17:02.826258  5322 net.cpp:406] Eltwise9 <- Convolution20
I1007 22:17:02.826263  5322 net.cpp:380] Eltwise9 -> Eltwise9
I1007 22:17:02.826283  5322 net.cpp:122] Setting up Eltwise9
I1007 22:17:02.826288  5322 net.cpp:129] Top shape: 100 32 16 16 (819200)
I1007 22:17:02.826292  5322 net.cpp:137] Memory required for data: 545178800
I1007 22:17:02.826295  5322 layer_factory.hpp:77] Creating layer elu19
I1007 22:17:02.826301  5322 net.cpp:84] Creating Layer elu19
I1007 22:17:02.826313  5322 net.cpp:406] elu19 <- Eltwise9
I1007 22:17:02.826319  5322 net.cpp:367] elu19 -> Eltwise9 (in-place)
I1007 22:17:02.826325  5322 net.cpp:122] Setting up elu19
I1007 22:17:02.826330  5322 net.cpp:129] Top shape: 100 32 16 16 (819200)
I1007 22:17:02.826333  5322 net.cpp:137] Memory required for data: 548455600
I1007 22:17:02.826339  5322 layer_factory.hpp:77] Creating layer Eltwise9_elu19_0_split
I1007 22:17:02.826344  5322 net.cpp:84] Creating Layer Eltwise9_elu19_0_split
I1007 22:17:02.826347  5322 net.cpp:406] Eltwise9_elu19_0_split <- Eltwise9
I1007 22:17:02.826354  5322 net.cpp:380] Eltwise9_elu19_0_split -> Eltwise9_elu19_0_split_0
I1007 22:17:02.826359  5322 net.cpp:380] Eltwise9_elu19_0_split -> Eltwise9_elu19_0_split_1
I1007 22:17:02.826390  5322 net.cpp:122] Setting up Eltwise9_elu19_0_split
I1007 22:17:02.826395  5322 net.cpp:129] Top shape: 100 32 16 16 (819200)
I1007 22:17:02.826400  5322 net.cpp:129] Top shape: 100 32 16 16 (819200)
I1007 22:17:02.826403  5322 net.cpp:137] Memory required for data: 555009200
I1007 22:17:02.826406  5322 layer_factory.hpp:77] Creating layer Convolution21
I1007 22:17:02.826416  5322 net.cpp:84] Creating Layer Convolution21
I1007 22:17:02.826421  5322 net.cpp:406] Convolution21 <- Eltwise9_elu19_0_split_0
I1007 22:17:02.826426  5322 net.cpp:380] Convolution21 -> Convolution21
I1007 22:17:02.838954  5322 net.cpp:122] Setting up Convolution21
I1007 22:17:02.838965  5322 net.cpp:129] Top shape: 100 32 16 16 (819200)
I1007 22:17:02.838968  5322 net.cpp:137] Memory required for data: 558286000
I1007 22:17:02.838976  5322 layer_factory.hpp:77] Creating layer BatchNorm21
I1007 22:17:02.838985  5322 net.cpp:84] Creating Layer BatchNorm21
I1007 22:17:02.838991  5322 net.cpp:406] BatchNorm21 <- Convolution21
I1007 22:17:02.838999  5322 net.cpp:367] BatchNorm21 -> Convolution21 (in-place)
I1007 22:17:02.839156  5322 net.cpp:122] Setting up BatchNorm21
I1007 22:17:02.839166  5322 net.cpp:129] Top shape: 100 32 16 16 (819200)
I1007 22:17:02.839171  5322 net.cpp:137] Memory required for data: 561562800
I1007 22:17:02.839180  5322 layer_factory.hpp:77] Creating layer Scale21
I1007 22:17:02.839187  5322 net.cpp:84] Creating Layer Scale21
I1007 22:17:02.839192  5322 net.cpp:406] Scale21 <- Convolution21
I1007 22:17:02.839195  5322 net.cpp:367] Scale21 -> Convolution21 (in-place)
I1007 22:17:02.839233  5322 layer_factory.hpp:77] Creating layer Scale21
I1007 22:17:02.839334  5322 net.cpp:122] Setting up Scale21
I1007 22:17:02.839340  5322 net.cpp:129] Top shape: 100 32 16 16 (819200)
I1007 22:17:02.839342  5322 net.cpp:137] Memory required for data: 564839600
I1007 22:17:02.839349  5322 layer_factory.hpp:77] Creating layer elu20
I1007 22:17:02.839365  5322 net.cpp:84] Creating Layer elu20
I1007 22:17:02.839367  5322 net.cpp:406] elu20 <- Convolution21
I1007 22:17:02.839375  5322 net.cpp:367] elu20 -> Convolution21 (in-place)
I1007 22:17:02.839381  5322 net.cpp:122] Setting up elu20
I1007 22:17:02.839385  5322 net.cpp:129] Top shape: 100 32 16 16 (819200)
I1007 22:17:02.839390  5322 net.cpp:137] Memory required for data: 568116400
I1007 22:17:02.839392  5322 layer_factory.hpp:77] Creating layer Convolution22
I1007 22:17:02.839399  5322 net.cpp:84] Creating Layer Convolution22
I1007 22:17:02.839403  5322 net.cpp:406] Convolution22 <- Convolution21
I1007 22:17:02.839406  5322 net.cpp:380] Convolution22 -> Convolution22
I1007 22:17:02.851274  5322 net.cpp:122] Setting up Convolution22
I1007 22:17:02.851284  5322 net.cpp:129] Top shape: 100 32 16 16 (819200)
I1007 22:17:02.851287  5322 net.cpp:137] Memory required for data: 571393200
I1007 22:17:02.851301  5322 layer_factory.hpp:77] Creating layer BatchNorm22
I1007 22:17:02.851308  5322 net.cpp:84] Creating Layer BatchNorm22
I1007 22:17:02.851315  5322 net.cpp:406] BatchNorm22 <- Convolution22
I1007 22:17:02.851320  5322 net.cpp:367] BatchNorm22 -> Convolution22 (in-place)
I1007 22:17:02.851480  5322 net.cpp:122] Setting up BatchNorm22
I1007 22:17:02.851486  5322 net.cpp:129] Top shape: 100 32 16 16 (819200)
I1007 22:17:02.851507  5322 net.cpp:137] Memory required for data: 574670000
I1007 22:17:02.851513  5322 layer_factory.hpp:77] Creating layer Scale22
I1007 22:17:02.851518  5322 net.cpp:84] Creating Layer Scale22
I1007 22:17:02.851521  5322 net.cpp:406] Scale22 <- Convolution22
I1007 22:17:02.851526  5322 net.cpp:367] Scale22 -> Convolution22 (in-place)
I1007 22:17:02.851562  5322 layer_factory.hpp:77] Creating layer Scale22
I1007 22:17:02.851655  5322 net.cpp:122] Setting up Scale22
I1007 22:17:02.851661  5322 net.cpp:129] Top shape: 100 32 16 16 (819200)
I1007 22:17:02.851663  5322 net.cpp:137] Memory required for data: 577946800
I1007 22:17:02.851670  5322 layer_factory.hpp:77] Creating layer Eltwise10
I1007 22:17:02.851676  5322 net.cpp:84] Creating Layer Eltwise10
I1007 22:17:02.851680  5322 net.cpp:406] Eltwise10 <- Eltwise9_elu19_0_split_1
I1007 22:17:02.851685  5322 net.cpp:406] Eltwise10 <- Convolution22
I1007 22:17:02.851693  5322 net.cpp:380] Eltwise10 -> Eltwise10
I1007 22:17:02.851713  5322 net.cpp:122] Setting up Eltwise10
I1007 22:17:02.851718  5322 net.cpp:129] Top shape: 100 32 16 16 (819200)
I1007 22:17:02.851721  5322 net.cpp:137] Memory required for data: 581223600
I1007 22:17:02.851724  5322 layer_factory.hpp:77] Creating layer elu21
I1007 22:17:02.851732  5322 net.cpp:84] Creating Layer elu21
I1007 22:17:02.851735  5322 net.cpp:406] elu21 <- Eltwise10
I1007 22:17:02.851739  5322 net.cpp:367] elu21 -> Eltwise10 (in-place)
I1007 22:17:02.851745  5322 net.cpp:122] Setting up elu21
I1007 22:17:02.851750  5322 net.cpp:129] Top shape: 100 32 16 16 (819200)
I1007 22:17:02.851753  5322 net.cpp:137] Memory required for data: 584500400
I1007 22:17:02.851758  5322 layer_factory.hpp:77] Creating layer Eltwise10_elu21_0_split
I1007 22:17:02.851763  5322 net.cpp:84] Creating Layer Eltwise10_elu21_0_split
I1007 22:17:02.851768  5322 net.cpp:406] Eltwise10_elu21_0_split <- Eltwise10
I1007 22:17:02.851773  5322 net.cpp:380] Eltwise10_elu21_0_split -> Eltwise10_elu21_0_split_0
I1007 22:17:02.851779  5322 net.cpp:380] Eltwise10_elu21_0_split -> Eltwise10_elu21_0_split_1
I1007 22:17:02.851811  5322 net.cpp:122] Setting up Eltwise10_elu21_0_split
I1007 22:17:02.851816  5322 net.cpp:129] Top shape: 100 32 16 16 (819200)
I1007 22:17:02.851820  5322 net.cpp:129] Top shape: 100 32 16 16 (819200)
I1007 22:17:02.851824  5322 net.cpp:137] Memory required for data: 591054000
I1007 22:17:02.851827  5322 layer_factory.hpp:77] Creating layer Convolution23
I1007 22:17:02.851838  5322 net.cpp:84] Creating Layer Convolution23
I1007 22:17:02.851841  5322 net.cpp:406] Convolution23 <- Eltwise10_elu21_0_split_0
I1007 22:17:02.851847  5322 net.cpp:380] Convolution23 -> Convolution23
I1007 22:17:02.857928  5322 net.cpp:122] Setting up Convolution23
I1007 22:17:02.857939  5322 net.cpp:129] Top shape: 100 64 8 8 (409600)
I1007 22:17:02.857942  5322 net.cpp:137] Memory required for data: 592692400
I1007 22:17:02.857949  5322 layer_factory.hpp:77] Creating layer BatchNorm23
I1007 22:17:02.857957  5322 net.cpp:84] Creating Layer BatchNorm23
I1007 22:17:02.857962  5322 net.cpp:406] BatchNorm23 <- Convolution23
I1007 22:17:02.857967  5322 net.cpp:367] BatchNorm23 -> Convolution23 (in-place)
I1007 22:17:02.858126  5322 net.cpp:122] Setting up BatchNorm23
I1007 22:17:02.858134  5322 net.cpp:129] Top shape: 100 64 8 8 (409600)
I1007 22:17:02.858136  5322 net.cpp:137] Memory required for data: 594330800
I1007 22:17:02.858144  5322 layer_factory.hpp:77] Creating layer Scale23
I1007 22:17:02.858150  5322 net.cpp:84] Creating Layer Scale23
I1007 22:17:02.858155  5322 net.cpp:406] Scale23 <- Convolution23
I1007 22:17:02.858160  5322 net.cpp:367] Scale23 -> Convolution23 (in-place)
I1007 22:17:02.858196  5322 layer_factory.hpp:77] Creating layer Scale23
I1007 22:17:02.858286  5322 net.cpp:122] Setting up Scale23
I1007 22:17:02.858292  5322 net.cpp:129] Top shape: 100 64 8 8 (409600)
I1007 22:17:02.858295  5322 net.cpp:137] Memory required for data: 595969200
I1007 22:17:02.858301  5322 layer_factory.hpp:77] Creating layer Convolution24
I1007 22:17:02.858312  5322 net.cpp:84] Creating Layer Convolution24
I1007 22:17:02.858324  5322 net.cpp:406] Convolution24 <- Eltwise10_elu21_0_split_1
I1007 22:17:02.858331  5322 net.cpp:380] Convolution24 -> Convolution24
I1007 22:17:02.868854  5322 net.cpp:122] Setting up Convolution24
I1007 22:17:02.868865  5322 net.cpp:129] Top shape: 100 64 8 8 (409600)
I1007 22:17:02.868868  5322 net.cpp:137] Memory required for data: 597607600
I1007 22:17:02.868876  5322 layer_factory.hpp:77] Creating layer BatchNorm24
I1007 22:17:02.868885  5322 net.cpp:84] Creating Layer BatchNorm24
I1007 22:17:02.868891  5322 net.cpp:406] BatchNorm24 <- Convolution24
I1007 22:17:02.868896  5322 net.cpp:367] BatchNorm24 -> Convolution24 (in-place)
I1007 22:17:02.869052  5322 net.cpp:122] Setting up BatchNorm24
I1007 22:17:02.869058  5322 net.cpp:129] Top shape: 100 64 8 8 (409600)
I1007 22:17:02.869061  5322 net.cpp:137] Memory required for data: 599246000
I1007 22:17:02.869069  5322 layer_factory.hpp:77] Creating layer Scale24
I1007 22:17:02.869076  5322 net.cpp:84] Creating Layer Scale24
I1007 22:17:02.869079  5322 net.cpp:406] Scale24 <- Convolution24
I1007 22:17:02.869084  5322 net.cpp:367] Scale24 -> Convolution24 (in-place)
I1007 22:17:02.869122  5322 layer_factory.hpp:77] Creating layer Scale24
I1007 22:17:02.869222  5322 net.cpp:122] Setting up Scale24
I1007 22:17:02.869230  5322 net.cpp:129] Top shape: 100 64 8 8 (409600)
I1007 22:17:02.869232  5322 net.cpp:137] Memory required for data: 600884400
I1007 22:17:02.869248  5322 layer_factory.hpp:77] Creating layer elu22
I1007 22:17:02.869252  5322 net.cpp:84] Creating Layer elu22
I1007 22:17:02.869256  5322 net.cpp:406] elu22 <- Convolution24
I1007 22:17:02.869258  5322 net.cpp:367] elu22 -> Convolution24 (in-place)
I1007 22:17:02.869262  5322 net.cpp:122] Setting up elu22
I1007 22:17:02.869266  5322 net.cpp:129] Top shape: 100 64 8 8 (409600)
I1007 22:17:02.869268  5322 net.cpp:137] Memory required for data: 602522800
I1007 22:17:02.869271  5322 layer_factory.hpp:77] Creating layer Convolution25
I1007 22:17:02.869277  5322 net.cpp:84] Creating Layer Convolution25
I1007 22:17:02.869279  5322 net.cpp:406] Convolution25 <- Convolution24
I1007 22:17:02.869284  5322 net.cpp:380] Convolution25 -> Convolution25
I1007 22:17:02.882506  5322 net.cpp:122] Setting up Convolution25
I1007 22:17:02.882516  5322 net.cpp:129] Top shape: 100 64 8 8 (409600)
I1007 22:17:02.882519  5322 net.cpp:137] Memory required for data: 604161200
I1007 22:17:02.882527  5322 layer_factory.hpp:77] Creating layer BatchNorm25
I1007 22:17:02.882546  5322 net.cpp:84] Creating Layer BatchNorm25
I1007 22:17:02.882550  5322 net.cpp:406] BatchNorm25 <- Convolution25
I1007 22:17:02.882555  5322 net.cpp:367] BatchNorm25 -> Convolution25 (in-place)
I1007 22:17:02.882714  5322 net.cpp:122] Setting up BatchNorm25
I1007 22:17:02.882720  5322 net.cpp:129] Top shape: 100 64 8 8 (409600)
I1007 22:17:02.882724  5322 net.cpp:137] Memory required for data: 605799600
I1007 22:17:02.882728  5322 layer_factory.hpp:77] Creating layer Scale25
I1007 22:17:02.882736  5322 net.cpp:84] Creating Layer Scale25
I1007 22:17:02.882742  5322 net.cpp:406] Scale25 <- Convolution25
I1007 22:17:02.882746  5322 net.cpp:367] Scale25 -> Convolution25 (in-place)
I1007 22:17:02.882782  5322 layer_factory.hpp:77] Creating layer Scale25
I1007 22:17:02.882872  5322 net.cpp:122] Setting up Scale25
I1007 22:17:02.882877  5322 net.cpp:129] Top shape: 100 64 8 8 (409600)
I1007 22:17:02.882880  5322 net.cpp:137] Memory required for data: 607438000
I1007 22:17:02.882884  5322 layer_factory.hpp:77] Creating layer Eltwise11
I1007 22:17:02.882889  5322 net.cpp:84] Creating Layer Eltwise11
I1007 22:17:02.882894  5322 net.cpp:406] Eltwise11 <- Convolution23
I1007 22:17:02.882899  5322 net.cpp:406] Eltwise11 <- Convolution25
I1007 22:17:02.882905  5322 net.cpp:380] Eltwise11 -> Eltwise11
I1007 22:17:02.882927  5322 net.cpp:122] Setting up Eltwise11
I1007 22:17:02.882932  5322 net.cpp:129] Top shape: 100 64 8 8 (409600)
I1007 22:17:02.882935  5322 net.cpp:137] Memory required for data: 609076400
I1007 22:17:02.882949  5322 layer_factory.hpp:77] Creating layer elu23
I1007 22:17:02.882954  5322 net.cpp:84] Creating Layer elu23
I1007 22:17:02.882956  5322 net.cpp:406] elu23 <- Eltwise11
I1007 22:17:02.882961  5322 net.cpp:367] elu23 -> Eltwise11 (in-place)
I1007 22:17:02.882966  5322 net.cpp:122] Setting up elu23
I1007 22:17:02.882969  5322 net.cpp:129] Top shape: 100 64 8 8 (409600)
I1007 22:17:02.882972  5322 net.cpp:137] Memory required for data: 610714800
I1007 22:17:02.882974  5322 layer_factory.hpp:77] Creating layer Eltwise11_elu23_0_split
I1007 22:17:02.882977  5322 net.cpp:84] Creating Layer Eltwise11_elu23_0_split
I1007 22:17:02.882980  5322 net.cpp:406] Eltwise11_elu23_0_split <- Eltwise11
I1007 22:17:02.882983  5322 net.cpp:380] Eltwise11_elu23_0_split -> Eltwise11_elu23_0_split_0
I1007 22:17:02.882987  5322 net.cpp:380] Eltwise11_elu23_0_split -> Eltwise11_elu23_0_split_1
I1007 22:17:02.883016  5322 net.cpp:122] Setting up Eltwise11_elu23_0_split
I1007 22:17:02.883021  5322 net.cpp:129] Top shape: 100 64 8 8 (409600)
I1007 22:17:02.883024  5322 net.cpp:129] Top shape: 100 64 8 8 (409600)
I1007 22:17:02.883026  5322 net.cpp:137] Memory required for data: 613991600
I1007 22:17:02.883028  5322 layer_factory.hpp:77] Creating layer Convolution26
I1007 22:17:02.883034  5322 net.cpp:84] Creating Layer Convolution26
I1007 22:17:02.883038  5322 net.cpp:406] Convolution26 <- Eltwise11_elu23_0_split_0
I1007 22:17:02.883043  5322 net.cpp:380] Convolution26 -> Convolution26
I1007 22:17:02.895638  5322 net.cpp:122] Setting up Convolution26
I1007 22:17:02.895650  5322 net.cpp:129] Top shape: 100 64 8 8 (409600)
I1007 22:17:02.895653  5322 net.cpp:137] Memory required for data: 615630000
I1007 22:17:02.895658  5322 layer_factory.hpp:77] Creating layer BatchNorm26
I1007 22:17:02.895664  5322 net.cpp:84] Creating Layer BatchNorm26
I1007 22:17:02.895668  5322 net.cpp:406] BatchNorm26 <- Convolution26
I1007 22:17:02.895671  5322 net.cpp:367] BatchNorm26 -> Convolution26 (in-place)
I1007 22:17:02.895825  5322 net.cpp:122] Setting up BatchNorm26
I1007 22:17:02.895830  5322 net.cpp:129] Top shape: 100 64 8 8 (409600)
I1007 22:17:02.895833  5322 net.cpp:137] Memory required for data: 617268400
I1007 22:17:02.895838  5322 layer_factory.hpp:77] Creating layer Scale26
I1007 22:17:02.895843  5322 net.cpp:84] Creating Layer Scale26
I1007 22:17:02.895846  5322 net.cpp:406] Scale26 <- Convolution26
I1007 22:17:02.895850  5322 net.cpp:367] Scale26 -> Convolution26 (in-place)
I1007 22:17:02.895881  5322 layer_factory.hpp:77] Creating layer Scale26
I1007 22:17:02.895970  5322 net.cpp:122] Setting up Scale26
I1007 22:17:02.895975  5322 net.cpp:129] Top shape: 100 64 8 8 (409600)
I1007 22:17:02.895977  5322 net.cpp:137] Memory required for data: 618906800
I1007 22:17:02.895982  5322 layer_factory.hpp:77] Creating layer elu24
I1007 22:17:02.895985  5322 net.cpp:84] Creating Layer elu24
I1007 22:17:02.895988  5322 net.cpp:406] elu24 <- Convolution26
I1007 22:17:02.895992  5322 net.cpp:367] elu24 -> Convolution26 (in-place)
I1007 22:17:02.895995  5322 net.cpp:122] Setting up elu24
I1007 22:17:02.895999  5322 net.cpp:129] Top shape: 100 64 8 8 (409600)
I1007 22:17:02.896001  5322 net.cpp:137] Memory required for data: 620545200
I1007 22:17:02.896004  5322 layer_factory.hpp:77] Creating layer Convolution27
I1007 22:17:02.896014  5322 net.cpp:84] Creating Layer Convolution27
I1007 22:17:02.896018  5322 net.cpp:406] Convolution27 <- Convolution26
I1007 22:17:02.896023  5322 net.cpp:380] Convolution27 -> Convolution27
I1007 22:17:02.909315  5322 net.cpp:122] Setting up Convolution27
I1007 22:17:02.909327  5322 net.cpp:129] Top shape: 100 64 8 8 (409600)
I1007 22:17:02.909328  5322 net.cpp:137] Memory required for data: 622183600
I1007 22:17:02.909343  5322 layer_factory.hpp:77] Creating layer BatchNorm27
I1007 22:17:02.909376  5322 net.cpp:84] Creating Layer BatchNorm27
I1007 22:17:02.909384  5322 net.cpp:406] BatchNorm27 <- Convolution27
I1007 22:17:02.909402  5322 net.cpp:367] BatchNorm27 -> Convolution27 (in-place)
I1007 22:17:02.909576  5322 net.cpp:122] Setting up BatchNorm27
I1007 22:17:02.909590  5322 net.cpp:129] Top shape: 100 64 8 8 (409600)
I1007 22:17:02.909593  5322 net.cpp:137] Memory required for data: 623822000
I1007 22:17:02.909611  5322 layer_factory.hpp:77] Creating layer Scale27
I1007 22:17:02.909620  5322 net.cpp:84] Creating Layer Scale27
I1007 22:17:02.909634  5322 net.cpp:406] Scale27 <- Convolution27
I1007 22:17:02.909638  5322 net.cpp:367] Scale27 -> Convolution27 (in-place)
I1007 22:17:02.909706  5322 layer_factory.hpp:77] Creating layer Scale27
I1007 22:17:02.909822  5322 net.cpp:122] Setting up Scale27
I1007 22:17:02.909829  5322 net.cpp:129] Top shape: 100 64 8 8 (409600)
I1007 22:17:02.909832  5322 net.cpp:137] Memory required for data: 625460400
I1007 22:17:02.909840  5322 layer_factory.hpp:77] Creating layer Eltwise12
I1007 22:17:02.909848  5322 net.cpp:84] Creating Layer Eltwise12
I1007 22:17:02.909854  5322 net.cpp:406] Eltwise12 <- Eltwise11_elu23_0_split_1
I1007 22:17:02.909862  5322 net.cpp:406] Eltwise12 <- Convolution27
I1007 22:17:02.909869  5322 net.cpp:380] Eltwise12 -> Eltwise12
I1007 22:17:02.909895  5322 net.cpp:122] Setting up Eltwise12
I1007 22:17:02.909900  5322 net.cpp:129] Top shape: 100 64 8 8 (409600)
I1007 22:17:02.909903  5322 net.cpp:137] Memory required for data: 627098800
I1007 22:17:02.909905  5322 layer_factory.hpp:77] Creating layer elu25
I1007 22:17:02.909910  5322 net.cpp:84] Creating Layer elu25
I1007 22:17:02.909912  5322 net.cpp:406] elu25 <- Eltwise12
I1007 22:17:02.909915  5322 net.cpp:367] elu25 -> Eltwise12 (in-place)
I1007 22:17:02.909919  5322 net.cpp:122] Setting up elu25
I1007 22:17:02.909924  5322 net.cpp:129] Top shape: 100 64 8 8 (409600)
I1007 22:17:02.909925  5322 net.cpp:137] Memory required for data: 628737200
I1007 22:17:02.909927  5322 layer_factory.hpp:77] Creating layer Eltwise12_elu25_0_split
I1007 22:17:02.909931  5322 net.cpp:84] Creating Layer Eltwise12_elu25_0_split
I1007 22:17:02.909934  5322 net.cpp:406] Eltwise12_elu25_0_split <- Eltwise12
I1007 22:17:02.909936  5322 net.cpp:380] Eltwise12_elu25_0_split -> Eltwise12_elu25_0_split_0
I1007 22:17:02.909940  5322 net.cpp:380] Eltwise12_elu25_0_split -> Eltwise12_elu25_0_split_1
I1007 22:17:02.909967  5322 net.cpp:122] Setting up Eltwise12_elu25_0_split
I1007 22:17:02.909972  5322 net.cpp:129] Top shape: 100 64 8 8 (409600)
I1007 22:17:02.909976  5322 net.cpp:129] Top shape: 100 64 8 8 (409600)
I1007 22:17:02.909977  5322 net.cpp:137] Memory required for data: 632014000
I1007 22:17:02.909979  5322 layer_factory.hpp:77] Creating layer Convolution28
I1007 22:17:02.909986  5322 net.cpp:84] Creating Layer Convolution28
I1007 22:17:02.909991  5322 net.cpp:406] Convolution28 <- Eltwise12_elu25_0_split_0
I1007 22:17:02.909994  5322 net.cpp:380] Convolution28 -> Convolution28
I1007 22:17:02.918546  5322 net.cpp:122] Setting up Convolution28
I1007 22:17:02.918556  5322 net.cpp:129] Top shape: 100 64 8 8 (409600)
I1007 22:17:02.918560  5322 net.cpp:137] Memory required for data: 633652400
I1007 22:17:02.918565  5322 layer_factory.hpp:77] Creating layer BatchNorm28
I1007 22:17:02.918570  5322 net.cpp:84] Creating Layer BatchNorm28
I1007 22:17:02.918575  5322 net.cpp:406] BatchNorm28 <- Convolution28
I1007 22:17:02.918578  5322 net.cpp:367] BatchNorm28 -> Convolution28 (in-place)
I1007 22:17:02.918736  5322 net.cpp:122] Setting up BatchNorm28
I1007 22:17:02.918742  5322 net.cpp:129] Top shape: 100 64 8 8 (409600)
I1007 22:17:02.918745  5322 net.cpp:137] Memory required for data: 635290800
I1007 22:17:02.918750  5322 layer_factory.hpp:77] Creating layer Scale28
I1007 22:17:02.918754  5322 net.cpp:84] Creating Layer Scale28
I1007 22:17:02.918757  5322 net.cpp:406] Scale28 <- Convolution28
I1007 22:17:02.918761  5322 net.cpp:367] Scale28 -> Convolution28 (in-place)
I1007 22:17:02.918792  5322 layer_factory.hpp:77] Creating layer Scale28
I1007 22:17:02.918884  5322 net.cpp:122] Setting up Scale28
I1007 22:17:02.918889  5322 net.cpp:129] Top shape: 100 64 8 8 (409600)
I1007 22:17:02.918890  5322 net.cpp:137] Memory required for data: 636929200
I1007 22:17:02.918902  5322 layer_factory.hpp:77] Creating layer elu26
I1007 22:17:02.918907  5322 net.cpp:84] Creating Layer elu26
I1007 22:17:02.918910  5322 net.cpp:406] elu26 <- Convolution28
I1007 22:17:02.918913  5322 net.cpp:367] elu26 -> Convolution28 (in-place)
I1007 22:17:02.918917  5322 net.cpp:122] Setting up elu26
I1007 22:17:02.918920  5322 net.cpp:129] Top shape: 100 64 8 8 (409600)
I1007 22:17:02.918922  5322 net.cpp:137] Memory required for data: 638567600
I1007 22:17:02.918926  5322 layer_factory.hpp:77] Creating layer Convolution29
I1007 22:17:02.918931  5322 net.cpp:84] Creating Layer Convolution29
I1007 22:17:02.918934  5322 net.cpp:406] Convolution29 <- Convolution28
I1007 22:17:02.918939  5322 net.cpp:380] Convolution29 -> Convolution29
I1007 22:17:02.924932  5322 net.cpp:122] Setting up Convolution29
I1007 22:17:02.924942  5322 net.cpp:129] Top shape: 100 64 8 8 (409600)
I1007 22:17:02.924945  5322 net.cpp:137] Memory required for data: 640206000
I1007 22:17:02.924950  5322 layer_factory.hpp:77] Creating layer BatchNorm29
I1007 22:17:02.924957  5322 net.cpp:84] Creating Layer BatchNorm29
I1007 22:17:02.924960  5322 net.cpp:406] BatchNorm29 <- Convolution29
I1007 22:17:02.924964  5322 net.cpp:367] BatchNorm29 -> Convolution29 (in-place)
I1007 22:17:02.925123  5322 net.cpp:122] Setting up BatchNorm29
I1007 22:17:02.925129  5322 net.cpp:129] Top shape: 100 64 8 8 (409600)
I1007 22:17:02.925132  5322 net.cpp:137] Memory required for data: 641844400
I1007 22:17:02.925137  5322 layer_factory.hpp:77] Creating layer Scale29
I1007 22:17:02.925142  5322 net.cpp:84] Creating Layer Scale29
I1007 22:17:02.925144  5322 net.cpp:406] Scale29 <- Convolution29
I1007 22:17:02.925148  5322 net.cpp:367] Scale29 -> Convolution29 (in-place)
I1007 22:17:02.925180  5322 layer_factory.hpp:77] Creating layer Scale29
I1007 22:17:02.925271  5322 net.cpp:122] Setting up Scale29
I1007 22:17:02.925277  5322 net.cpp:129] Top shape: 100 64 8 8 (409600)
I1007 22:17:02.925279  5322 net.cpp:137] Memory required for data: 643482800
I1007 22:17:02.925283  5322 layer_factory.hpp:77] Creating layer Eltwise13
I1007 22:17:02.925288  5322 net.cpp:84] Creating Layer Eltwise13
I1007 22:17:02.925290  5322 net.cpp:406] Eltwise13 <- Eltwise12_elu25_0_split_1
I1007 22:17:02.925294  5322 net.cpp:406] Eltwise13 <- Convolution29
I1007 22:17:02.925297  5322 net.cpp:380] Eltwise13 -> Eltwise13
I1007 22:17:02.925318  5322 net.cpp:122] Setting up Eltwise13
I1007 22:17:02.925323  5322 net.cpp:129] Top shape: 100 64 8 8 (409600)
I1007 22:17:02.925324  5322 net.cpp:137] Memory required for data: 645121200
I1007 22:17:02.925328  5322 layer_factory.hpp:77] Creating layer elu27
I1007 22:17:02.925330  5322 net.cpp:84] Creating Layer elu27
I1007 22:17:02.925333  5322 net.cpp:406] elu27 <- Eltwise13
I1007 22:17:02.925336  5322 net.cpp:367] elu27 -> Eltwise13 (in-place)
I1007 22:17:02.925340  5322 net.cpp:122] Setting up elu27
I1007 22:17:02.925344  5322 net.cpp:129] Top shape: 100 64 8 8 (409600)
I1007 22:17:02.925346  5322 net.cpp:137] Memory required for data: 646759600
I1007 22:17:02.925348  5322 layer_factory.hpp:77] Creating layer Eltwise13_elu27_0_split
I1007 22:17:02.925353  5322 net.cpp:84] Creating Layer Eltwise13_elu27_0_split
I1007 22:17:02.925354  5322 net.cpp:406] Eltwise13_elu27_0_split <- Eltwise13
I1007 22:17:02.925357  5322 net.cpp:380] Eltwise13_elu27_0_split -> Eltwise13_elu27_0_split_0
I1007 22:17:02.925361  5322 net.cpp:380] Eltwise13_elu27_0_split -> Eltwise13_elu27_0_split_1
I1007 22:17:02.925388  5322 net.cpp:122] Setting up Eltwise13_elu27_0_split
I1007 22:17:02.925393  5322 net.cpp:129] Top shape: 100 64 8 8 (409600)
I1007 22:17:02.925396  5322 net.cpp:129] Top shape: 100 64 8 8 (409600)
I1007 22:17:02.925398  5322 net.cpp:137] Memory required for data: 650036400
I1007 22:17:02.925400  5322 layer_factory.hpp:77] Creating layer Convolution30
I1007 22:17:02.925407  5322 net.cpp:84] Creating Layer Convolution30
I1007 22:17:02.925410  5322 net.cpp:406] Convolution30 <- Eltwise13_elu27_0_split_0
I1007 22:17:02.925415  5322 net.cpp:380] Convolution30 -> Convolution30
I1007 22:17:02.932562  5322 net.cpp:122] Setting up Convolution30
I1007 22:17:02.932575  5322 net.cpp:129] Top shape: 100 64 8 8 (409600)
I1007 22:17:02.932579  5322 net.cpp:137] Memory required for data: 651674800
I1007 22:17:02.932595  5322 layer_factory.hpp:77] Creating layer BatchNorm30
I1007 22:17:02.932610  5322 net.cpp:84] Creating Layer BatchNorm30
I1007 22:17:02.932615  5322 net.cpp:406] BatchNorm30 <- Convolution30
I1007 22:17:02.932621  5322 net.cpp:367] BatchNorm30 -> Convolution30 (in-place)
I1007 22:17:02.932792  5322 net.cpp:122] Setting up BatchNorm30
I1007 22:17:02.932798  5322 net.cpp:129] Top shape: 100 64 8 8 (409600)
I1007 22:17:02.932801  5322 net.cpp:137] Memory required for data: 653313200
I1007 22:17:02.932816  5322 layer_factory.hpp:77] Creating layer Scale30
I1007 22:17:02.932821  5322 net.cpp:84] Creating Layer Scale30
I1007 22:17:02.932823  5322 net.cpp:406] Scale30 <- Convolution30
I1007 22:17:02.932826  5322 net.cpp:367] Scale30 -> Convolution30 (in-place)
I1007 22:17:02.932864  5322 layer_factory.hpp:77] Creating layer Scale30
I1007 22:17:02.932957  5322 net.cpp:122] Setting up Scale30
I1007 22:17:02.932963  5322 net.cpp:129] Top shape: 100 64 8 8 (409600)
I1007 22:17:02.932965  5322 net.cpp:137] Memory required for data: 654951600
I1007 22:17:02.932970  5322 layer_factory.hpp:77] Creating layer elu28
I1007 22:17:02.932973  5322 net.cpp:84] Creating Layer elu28
I1007 22:17:02.932976  5322 net.cpp:406] elu28 <- Convolution30
I1007 22:17:02.932979  5322 net.cpp:367] elu28 -> Convolution30 (in-place)
I1007 22:17:02.932983  5322 net.cpp:122] Setting up elu28
I1007 22:17:02.932986  5322 net.cpp:129] Top shape: 100 64 8 8 (409600)
I1007 22:17:02.932988  5322 net.cpp:137] Memory required for data: 656590000
I1007 22:17:02.932991  5322 layer_factory.hpp:77] Creating layer Convolution31
I1007 22:17:02.932998  5322 net.cpp:84] Creating Layer Convolution31
I1007 22:17:02.933001  5322 net.cpp:406] Convolution31 <- Convolution30
I1007 22:17:02.933007  5322 net.cpp:380] Convolution31 -> Convolution31
I1007 22:17:02.939045  5322 net.cpp:122] Setting up Convolution31
I1007 22:17:02.939056  5322 net.cpp:129] Top shape: 100 64 8 8 (409600)
I1007 22:17:02.939059  5322 net.cpp:137] Memory required for data: 658228400
I1007 22:17:02.939064  5322 layer_factory.hpp:77] Creating layer BatchNorm31
I1007 22:17:02.939070  5322 net.cpp:84] Creating Layer BatchNorm31
I1007 22:17:02.939074  5322 net.cpp:406] BatchNorm31 <- Convolution31
I1007 22:17:02.939079  5322 net.cpp:367] BatchNorm31 -> Convolution31 (in-place)
I1007 22:17:02.939242  5322 net.cpp:122] Setting up BatchNorm31
I1007 22:17:02.939249  5322 net.cpp:129] Top shape: 100 64 8 8 (409600)
I1007 22:17:02.939251  5322 net.cpp:137] Memory required for data: 659866800
I1007 22:17:02.939256  5322 layer_factory.hpp:77] Creating layer Scale31
I1007 22:17:02.939261  5322 net.cpp:84] Creating Layer Scale31
I1007 22:17:02.939265  5322 net.cpp:406] Scale31 <- Convolution31
I1007 22:17:02.939267  5322 net.cpp:367] Scale31 -> Convolution31 (in-place)
I1007 22:17:02.939299  5322 layer_factory.hpp:77] Creating layer Scale31
I1007 22:17:02.939391  5322 net.cpp:122] Setting up Scale31
I1007 22:17:02.939396  5322 net.cpp:129] Top shape: 100 64 8 8 (409600)
I1007 22:17:02.939399  5322 net.cpp:137] Memory required for data: 661505200
I1007 22:17:02.939402  5322 layer_factory.hpp:77] Creating layer Eltwise14
I1007 22:17:02.939407  5322 net.cpp:84] Creating Layer Eltwise14
I1007 22:17:02.939410  5322 net.cpp:406] Eltwise14 <- Eltwise13_elu27_0_split_1
I1007 22:17:02.939414  5322 net.cpp:406] Eltwise14 <- Convolution31
I1007 22:17:02.939417  5322 net.cpp:380] Eltwise14 -> Eltwise14
I1007 22:17:02.939436  5322 net.cpp:122] Setting up Eltwise14
I1007 22:17:02.939441  5322 net.cpp:129] Top shape: 100 64 8 8 (409600)
I1007 22:17:02.939443  5322 net.cpp:137] Memory required for data: 663143600
I1007 22:17:02.939445  5322 layer_factory.hpp:77] Creating layer elu29
I1007 22:17:02.939450  5322 net.cpp:84] Creating Layer elu29
I1007 22:17:02.939452  5322 net.cpp:406] elu29 <- Eltwise14
I1007 22:17:02.939465  5322 net.cpp:367] elu29 -> Eltwise14 (in-place)
I1007 22:17:02.939471  5322 net.cpp:122] Setting up elu29
I1007 22:17:02.939473  5322 net.cpp:129] Top shape: 100 64 8 8 (409600)
I1007 22:17:02.939476  5322 net.cpp:137] Memory required for data: 664782000
I1007 22:17:02.939478  5322 layer_factory.hpp:77] Creating layer Eltwise14_elu29_0_split
I1007 22:17:02.939482  5322 net.cpp:84] Creating Layer Eltwise14_elu29_0_split
I1007 22:17:02.939484  5322 net.cpp:406] Eltwise14_elu29_0_split <- Eltwise14
I1007 22:17:02.939487  5322 net.cpp:380] Eltwise14_elu29_0_split -> Eltwise14_elu29_0_split_0
I1007 22:17:02.939491  5322 net.cpp:380] Eltwise14_elu29_0_split -> Eltwise14_elu29_0_split_1
I1007 22:17:02.939519  5322 net.cpp:122] Setting up Eltwise14_elu29_0_split
I1007 22:17:02.939524  5322 net.cpp:129] Top shape: 100 64 8 8 (409600)
I1007 22:17:02.939527  5322 net.cpp:129] Top shape: 100 64 8 8 (409600)
I1007 22:17:02.939529  5322 net.cpp:137] Memory required for data: 668058800
I1007 22:17:02.939532  5322 layer_factory.hpp:77] Creating layer Convolution32
I1007 22:17:02.939538  5322 net.cpp:84] Creating Layer Convolution32
I1007 22:17:02.939541  5322 net.cpp:406] Convolution32 <- Eltwise14_elu29_0_split_0
I1007 22:17:02.939546  5322 net.cpp:380] Convolution32 -> Convolution32
I1007 22:17:02.946075  5322 net.cpp:122] Setting up Convolution32
I1007 22:17:02.946086  5322 net.cpp:129] Top shape: 100 64 8 8 (409600)
I1007 22:17:02.946089  5322 net.cpp:137] Memory required for data: 669697200
I1007 22:17:02.946094  5322 layer_factory.hpp:77] Creating layer BatchNorm32
I1007 22:17:02.946099  5322 net.cpp:84] Creating Layer BatchNorm32
I1007 22:17:02.946104  5322 net.cpp:406] BatchNorm32 <- Convolution32
I1007 22:17:02.946107  5322 net.cpp:367] BatchNorm32 -> Convolution32 (in-place)
I1007 22:17:02.946272  5322 net.cpp:122] Setting up BatchNorm32
I1007 22:17:02.946279  5322 net.cpp:129] Top shape: 100 64 8 8 (409600)
I1007 22:17:02.946280  5322 net.cpp:137] Memory required for data: 671335600
I1007 22:17:02.946285  5322 layer_factory.hpp:77] Creating layer Scale32
I1007 22:17:02.946291  5322 net.cpp:84] Creating Layer Scale32
I1007 22:17:02.946295  5322 net.cpp:406] Scale32 <- Convolution32
I1007 22:17:02.946298  5322 net.cpp:367] Scale32 -> Convolution32 (in-place)
I1007 22:17:02.946331  5322 layer_factory.hpp:77] Creating layer Scale32
I1007 22:17:02.946422  5322 net.cpp:122] Setting up Scale32
I1007 22:17:02.946427  5322 net.cpp:129] Top shape: 100 64 8 8 (409600)
I1007 22:17:02.946429  5322 net.cpp:137] Memory required for data: 672974000
I1007 22:17:02.946434  5322 layer_factory.hpp:77] Creating layer elu30
I1007 22:17:02.946439  5322 net.cpp:84] Creating Layer elu30
I1007 22:17:02.946442  5322 net.cpp:406] elu30 <- Convolution32
I1007 22:17:02.946446  5322 net.cpp:367] elu30 -> Convolution32 (in-place)
I1007 22:17:02.946450  5322 net.cpp:122] Setting up elu30
I1007 22:17:02.946455  5322 net.cpp:129] Top shape: 100 64 8 8 (409600)
I1007 22:17:02.946456  5322 net.cpp:137] Memory required for data: 674612400
I1007 22:17:02.946458  5322 layer_factory.hpp:77] Creating layer Convolution33
I1007 22:17:02.946465  5322 net.cpp:84] Creating Layer Convolution33
I1007 22:17:02.946467  5322 net.cpp:406] Convolution33 <- Convolution32
I1007 22:17:02.946471  5322 net.cpp:380] Convolution33 -> Convolution33
I1007 22:17:02.952126  5322 net.cpp:122] Setting up Convolution33
I1007 22:17:02.952137  5322 net.cpp:129] Top shape: 100 64 8 8 (409600)
I1007 22:17:02.952141  5322 net.cpp:137] Memory required for data: 676250800
I1007 22:17:02.952145  5322 layer_factory.hpp:77] Creating layer BatchNorm33
I1007 22:17:02.952152  5322 net.cpp:84] Creating Layer BatchNorm33
I1007 22:17:02.952154  5322 net.cpp:406] BatchNorm33 <- Convolution33
I1007 22:17:02.952159  5322 net.cpp:367] BatchNorm33 -> Convolution33 (in-place)
I1007 22:17:02.952322  5322 net.cpp:122] Setting up BatchNorm33
I1007 22:17:02.952327  5322 net.cpp:129] Top shape: 100 64 8 8 (409600)
I1007 22:17:02.952328  5322 net.cpp:137] Memory required for data: 677889200
I1007 22:17:02.952342  5322 layer_factory.hpp:77] Creating layer Scale33
I1007 22:17:02.952347  5322 net.cpp:84] Creating Layer Scale33
I1007 22:17:02.952348  5322 net.cpp:406] Scale33 <- Convolution33
I1007 22:17:02.952353  5322 net.cpp:367] Scale33 -> Convolution33 (in-place)
I1007 22:17:02.952386  5322 layer_factory.hpp:77] Creating layer Scale33
I1007 22:17:02.952478  5322 net.cpp:122] Setting up Scale33
I1007 22:17:02.952484  5322 net.cpp:129] Top shape: 100 64 8 8 (409600)
I1007 22:17:02.952486  5322 net.cpp:137] Memory required for data: 679527600
I1007 22:17:02.952491  5322 layer_factory.hpp:77] Creating layer Eltwise15
I1007 22:17:02.952494  5322 net.cpp:84] Creating Layer Eltwise15
I1007 22:17:02.952497  5322 net.cpp:406] Eltwise15 <- Eltwise14_elu29_0_split_1
I1007 22:17:02.952502  5322 net.cpp:406] Eltwise15 <- Convolution33
I1007 22:17:02.952504  5322 net.cpp:380] Eltwise15 -> Eltwise15
I1007 22:17:02.952524  5322 net.cpp:122] Setting up Eltwise15
I1007 22:17:02.952529  5322 net.cpp:129] Top shape: 100 64 8 8 (409600)
I1007 22:17:02.952531  5322 net.cpp:137] Memory required for data: 681166000
I1007 22:17:02.952533  5322 layer_factory.hpp:77] Creating layer elu31
I1007 22:17:02.952538  5322 net.cpp:84] Creating Layer elu31
I1007 22:17:02.952540  5322 net.cpp:406] elu31 <- Eltwise15
I1007 22:17:02.952543  5322 net.cpp:367] elu31 -> Eltwise15 (in-place)
I1007 22:17:02.952548  5322 net.cpp:122] Setting up elu31
I1007 22:17:02.952550  5322 net.cpp:129] Top shape: 100 64 8 8 (409600)
I1007 22:17:02.952553  5322 net.cpp:137] Memory required for data: 682804400
I1007 22:17:02.952554  5322 layer_factory.hpp:77] Creating layer Pooling1
I1007 22:17:02.952559  5322 net.cpp:84] Creating Layer Pooling1
I1007 22:17:02.952561  5322 net.cpp:406] Pooling1 <- Eltwise15
I1007 22:17:02.952565  5322 net.cpp:380] Pooling1 -> Pooling1
I1007 22:17:02.952713  5322 net.cpp:122] Setting up Pooling1
I1007 22:17:02.952720  5322 net.cpp:129] Top shape: 100 64 1 1 (6400)
I1007 22:17:02.952723  5322 net.cpp:137] Memory required for data: 682830000
I1007 22:17:02.952725  5322 layer_factory.hpp:77] Creating layer InnerProduct1
I1007 22:17:02.952731  5322 net.cpp:84] Creating Layer InnerProduct1
I1007 22:17:02.952734  5322 net.cpp:406] InnerProduct1 <- Pooling1
I1007 22:17:02.952739  5322 net.cpp:380] InnerProduct1 -> InnerProduct1
I1007 22:17:02.952849  5322 net.cpp:122] Setting up InnerProduct1
I1007 22:17:02.952854  5322 net.cpp:129] Top shape: 100 10 (1000)
I1007 22:17:02.952857  5322 net.cpp:137] Memory required for data: 682834000
I1007 22:17:02.952860  5322 layer_factory.hpp:77] Creating layer InnerProduct1_InnerProduct1_0_split
I1007 22:17:02.952864  5322 net.cpp:84] Creating Layer InnerProduct1_InnerProduct1_0_split
I1007 22:17:02.952867  5322 net.cpp:406] InnerProduct1_InnerProduct1_0_split <- InnerProduct1
I1007 22:17:02.952872  5322 net.cpp:380] InnerProduct1_InnerProduct1_0_split -> InnerProduct1_InnerProduct1_0_split_0
I1007 22:17:02.952877  5322 net.cpp:380] InnerProduct1_InnerProduct1_0_split -> InnerProduct1_InnerProduct1_0_split_1
I1007 22:17:02.952908  5322 net.cpp:122] Setting up InnerProduct1_InnerProduct1_0_split
I1007 22:17:02.952913  5322 net.cpp:129] Top shape: 100 10 (1000)
I1007 22:17:02.952915  5322 net.cpp:129] Top shape: 100 10 (1000)
I1007 22:17:02.952917  5322 net.cpp:137] Memory required for data: 682842000
I1007 22:17:02.952919  5322 layer_factory.hpp:77] Creating layer SoftmaxWithLoss1
I1007 22:17:02.952924  5322 net.cpp:84] Creating Layer SoftmaxWithLoss1
I1007 22:17:02.952927  5322 net.cpp:406] SoftmaxWithLoss1 <- InnerProduct1_InnerProduct1_0_split_0
I1007 22:17:02.952930  5322 net.cpp:406] SoftmaxWithLoss1 <- Data2_Data1_1_split_0
…
