…
I1007 17:39:01.193305  5078 net.cpp:294] The NetState phase (0) differed from the phase (1) specified by a rule in layer Accuracy1
I1007 17:39:01.194011  5078 net.cpp:51] Initializing net from parameters: 
name: "resnet_cifar10"
state {
  phase: TRAIN
  level: 0
  stage: ""
}
layer {
  name: "Data1"
  type: "Data"
  top: "Data1"
  top: "Data2"
  include {
    phase: TRAIN
  }
  transform_param {
    mirror: true
    crop_size: 28
    mean_file: "/home/x306/caffe/xn/PENLU/data/cifar10/mean.binaryproto"
  }
  data_param {
    source: "/home/x306/caffe/xn/PENLU/data/cifar10/cifar10_train_lmdb"
    batch_size: 100
    backend: LMDB
  }
}
layer {
  name: "Convolution1"
  type: "Convolution"
  bottom: "Data1"
  top: "Convolution1"
  param {
    lr_mult: 1
    decay_mult: 1
  }
  param {
    lr_mult: 2
    decay_mult: 0
  }
  convolution_param {
    num_output: 16
    pad: 1
    kernel_size: 3
    stride: 1
    weight_filler {
      type: "gaussian"
      std: 0.118
    }
    bias_filler {
      type: "constant"
      value: 0
    }
  }
}
layer {
  name: "BatchNorm1"
  type: "BatchNorm"
  bottom: "Convolution1"
  top: "Convolution1"
  param {
    lr_mult: 0
    decay_mult: 0
  }
  param {
    lr_mult: 0
    decay_mult: 0
  }
  param {
    lr_mult: 0
    decay_mult: 0
  }
}
layer {
  name: "Scale1"
  type: "Scale"
  bottom: "Convolution1"
  top: "Convolution1"
  scale_param {
    bias_term: true
  }
}
layer {
  name: "penlu1"
  type: "PENLU"
  bottom: "Convolution1"
  top: "Convolution1"
  param {
    lr_mult: 2
    decay_mult: 2
  }
  param {
    lr_mult: 2
    decay_mult: 2
  }
  param {
    lr_mult: 0
    decay_mult: 0
  }
  penlu_param {
    alpha_filler {
      type: "constant"
      value: 2
    }
    beta_filler {
      type: "constant"
      value: 1
    }
    eta_filler {
      type: "constant"
      value: 1
    }
  }
}
layer {
  name: "Convolution2"
  type: "Convolution"
  bottom: "Convolution1"
  top: "Convolution2"
  param {
    lr_mult: 1
    decay_mult: 1
  }
  param {
    lr_mult: 2
    decay_mult: 0
  }
  convolution_param {
    num_output: 16
    pad: 1
    kernel_size: 3
    stride: 1
    weight_filler {
      type: "gaussian"
      std: 0.118
    }
    bias_filler {
      type: "constant"
      value: 0
    }
  }
}
layer {
  name: "BatchNorm2"
  type: "BatchNorm"
  bottom: "Convolution2"
  top: "Convolution2"
  param {
    lr_mult: 0
    decay_mult: 0
  }
  param {
    lr_mult: 0
    decay_mult: 0
  }
  param {
    lr_mult: 0
    decay_mult: 0
  }
}
layer {
  name: "Scale2"
  type: "Scale"
  bottom: "Convolution2"
  top: "Convolution2"
  scale_param {
    bias_term: true
  }
}
layer {
  name: "penlu2"
  type: "PENLU"
  bottom: "Convolution2"
  top: "Convolution2"
  param {
    lr_mult: 2
    decay_mult: 2
  }
  param {
    lr_mult: 2
    decay_mult: 2
  }
  param {
    lr_mult: 0
    decay_mult: 0
  }
  penlu_param {
    alpha_filler {
      type: "constant"
      value: 2
    }
    beta_filler {
      type: "constant"
      value: 1
    }
    eta_filler {
      type: "constant"
      value: 1
    }
  }
}
layer {
  name: "Convolution3"
  type: "Convolution"
  bottom: "Convolution2"
  top: "Convolution3"
  param {
    lr_mult: 1
    decay_mult: 1
  }
  param {
    lr_mult: 2
    decay_mult: 0
  }
  convolution_param {
    num_output: 16
    pad: 1
    kernel_size: 3
    stride: 1
    weight_filler {
      type: "gaussian"
      std: 0.118
    }
    bias_filler {
      type: "constant"
      value: 0
    }
  }
}
layer {
  name: "BatchNorm3"
  type: "BatchNorm"
  bottom: "Convolution3"
  top: "Convolution3"
  param {
    lr_mult: 0
    decay_mult: 0
  }
  param {
    lr_mult: 0
    decay_mult: 0
  }
  param {
    lr_mult: 0
    decay_mult: 0
  }
}
layer {
  name: "Scale3"
  type: "Scale"
  bottom: "Convolution3"
  top: "Convolution3"
  scale_param {
    bias_term: true
  }
}
layer {
  name: "Eltwise1"
  type: "Eltwise"
  bottom: "Convolution1"
  bottom: "Convolution3"
  top: "Eltwise1"
  eltwise_param {
    operation: SUM
  }
}
layer {
  name: "penlu3"
  type: "PENLU"
  bottom: "Eltwise1"
  top: "Eltwise1"
  param {
    lr_mult: 2
    decay_mult: 2
  }
  param {
    lr_mult: 2
    decay_mult: 2
  }
  param {
    lr_mult: 0
    decay_mult: 0
  }
  penlu_param {
    alpha_filler {
      type: "constant"
      value: 2
    }
    beta_filler {
      type: "constant"
      value: 1
    }
    eta_filler {
      type: "constant"
      value: 1
    }
  }
}
layer {
  name: "Convolution4"
  type: "Convolution"
  bottom: "Eltwise1"
  top: "Convolution4"
  param {
    lr_mult: 1
    decay_mult: 1
  }
  param {
    lr_mult: 2
    decay_mult: 0
  }
  convolution_param {
    num_output: 16
    pad: 1
    kernel_size: 3
    stride: 1
    weight_filler {
      type: "gaussian"
      std: 0.118
    }
    bias_filler {
      type: "constant"
      value: 0
    }
  }
}
layer {
  name: "BatchNorm4"
  type: "BatchNorm"
  bottom: "Convolution4"
  top: "Convolution4"
  param {
    lr_mult: 0
    decay_mult: 0
  }
  param {
    lr_mult: 0
    decay_mult: 0
  }
  param {
    lr_mult: 0
    decay_mult: 0
  }
}
layer {
  name: "Scale4"
  type: "Scale"
  bottom: "Convolution4"
  top: "Convolution4"
  scale_param {
    bias_term: true
  }
}
layer {
  name: "penlu4"
  type: "PENLU"
  bottom: "Convolution4"
  top: "Convolution4"
  param {
    lr_mult: 2
    decay_mult: 2
  }
  param {
    lr_mult: 2
    decay_mult: 2
  }
  param {
    lr_mult: 0
    decay_mult: 0
  }
  penlu_param {
    alpha_filler {
      type: "constant"
      value: 2
    }
    beta_filler {
      type: "constant"
      value: 1
    }
    eta_filler {
      type: "constant"
      value: 1
    }
  }
}
layer {
  name: "Convolution5"
  type: "Convolution"
  bottom: "Convolution4"
  top: "Convolution5"
  param {
    lr_mult: 1
    decay_mult: 1
  }
  param {
    lr_mult: 2
    decay_mult: 0
  }
  convolution_param {
    num_output: 16
    pad: 1
    kernel_size: 3
    stride: 1
    weight_filler {
      type: "gaussian"
      std: 0.118
    }
    bias_filler {
      type: "constant"
      value: 0
    }
  }
}
layer {
  name: "BatchNorm5"
  type: "BatchNorm"
  bottom: "Convolution5"
  top: "Convolution5"
  param {
    lr_mult: 0
    decay_mult: 0
  }
  param {
    lr_mult: 0
    decay_mult: 0
  }
  param {
    lr_mult: 0
    decay_mult: 0
  }
}
layer {
  name: "Scale5"
  type: "Scale"
  bottom: "Convolution5"
  top: "Convolution5"
  scale_param {
    bias_term: true
  }
}
layer {
  name: "Eltwise2"
  type: "Eltwise"
  bottom: "Eltwise1"
  bottom: "Convolution5"
  top: "Eltwise2"
  eltwise_param {
    operation: SUM
  }
}
layer {
  name: "penlu5"
  type: "PENLU"
  bottom: "Eltwise2"
  top: "Eltwise2"
  param {
    lr_mult: 2
    decay_mult: 2
  }
  param {
    lr_mult: 2
    decay_mult: 2
  }
  param {
    lr_mult: 0
    decay_mult: 0
  }
  penlu_param {
    alpha_filler {
      type: "constant"
      value: 2
    }
    beta_filler {
      type: "constant"
      value: 1
    }
    eta_filler {
      type: "constant"
      value: 1
    }
  }
}
layer {
  name: "Convolution6"
  type: "Convolution"
  bottom: "Eltwise2"
  top: "Convolution6"
  param {
    lr_mult: 1
    decay_mult: 1
  }
  param {
    lr_mult: 2
    decay_mult: 0
  }
  convolution_param {
    num_output: 16
    pad: 1
    kernel_size: 3
    stride: 1
    weight_filler {
      type: "gaussian"
      std: 0.118
    }
    bias_filler {
      type: "constant"
      value: 0
    }
  }
}
layer {
  name: "BatchNorm6"
  type: "BatchNorm"
  bottom: "Convolution6"
  top: "Convolution6"
  param {
    lr_mult: 0
    decay_mult: 0
  }
  param {
    lr_mult: 0
    decay_mult: 0
  }
  param {
    lr_mult: 0
    decay_mult: 0
  }
}
layer {
  name: "Scale6"
  type: "Scale"
  bottom: "Convolution6"
  top: "Convolution6"
  scale_param {
    bias_term: true
  }
}
layer {
  name: "penlu6"
  type: "PENLU"
  bottom: "Convolution6"
  top: "Convolution6"
  param {
    lr_mult: 2
    decay_mult: 2
  }
  param {
    lr_mult: 2
    decay_mult: 2
  }
  param {
    lr_mult: 0
    decay_mult: 0
  }
  penlu_param {
    alpha_filler {
      type: "constant"
      value: 2
    }
    beta_filler {
      type: "constant"
      value: 1
    }
    eta_filler {
      type: "constant"
      value: 1
    }
  }
}
layer {
  name: "Convolution7"
  type: "Convolution"
  bottom: "Convolution6"
  top: "Convolution7"
  param {
    lr_mult: 1
    decay_mult: 1
  }
  param {
    lr_mult: 2
    decay_mult: 0
  }
  convolution_param {
    num_output: 16
    pad: 1
    kernel_size: 3
    stride: 1
    weight_filler {
      type: "gaussian"
      std: 0.118
    }
    bias_filler {
      type: "constant"
      value: 0
    }
  }
}
layer {
  name: "BatchNorm7"
  type: "BatchNorm"
  bottom: "Convolution7"
  top: "Convolution7"
  param {
    lr_mult: 0
    decay_mult: 0
  }
  param {
    lr_mult: 0
    decay_mult: 0
  }
  param {
    lr_mult: 0
    decay_mult: 0
  }
}
layer {
  name: "Scale7"
  type: "Scale"
  bottom: "Convolution7"
  top: "Convolution7"
  scale_param {
    bias_term: true
  }
}
layer {
  name: "Eltwise3"
  type: "Eltwise"
  bottom: "Eltwise2"
  bottom: "Convolution7"
  top: "Eltwise3"
  eltwise_param {
    operation: SUM
  }
}
layer {
  name: "penlu7"
  type: "PENLU"
  bottom: "Eltwise3"
  top: "Eltwise3"
  param {
    lr_mult: 2
    decay_mult: 2
  }
  param {
    lr_mult: 2
    decay_mult: 2
  }
  param {
    lr_mult: 0
    decay_mult: 0
  }
  penlu_param {
    alpha_filler {
      type: "constant"
      value: 2
    }
    beta_filler {
      type: "constant"
      value: 1
    }
    eta_filler {
      type: "constant"
      value: 1
    }
  }
}
layer {
  name: "Convolution8"
  type: "Convolution"
  bottom: "Eltwise3"
  top: "Convolution8"
  param {
    lr_mult: 1
    decay_mult: 1
  }
  param {
    lr_mult: 2
    decay_mult: 0
  }
  convolution_param {
    num_output: 16
    pad: 1
    kernel_size: 3
    stride: 1
    weight_filler {
      type: "gaussian"
      std: 0.118
    }
    bias_filler {
      type: "constant"
      value: 0
    }
  }
}
layer {
  name: "BatchNorm8"
  type: "BatchNorm"
  bottom: "Convolution8"
  top: "Convolution8"
  param {
    lr_mult: 0
    decay_mult: 0
  }
  param {
    lr_mult: 0
    decay_mult: 0
  }
  param {
    lr_mult: 0
    decay_mult: 0
  }
}
layer {
  name: "Scale8"
  type: "Scale"
  bottom: "Convolution8"
  top: "Convolution8"
  scale_param {
    bias_term: true
  }
}
layer {
  name: "penlu8"
  type: "PENLU"
  bottom: "Convolution8"
  top: "Convolution8"
  param {
    lr_mult: 2
    decay_mult: 2
  }
  param {
    lr_mult: 2
    decay_mult: 2
  }
  param {
    lr_mult: 0
    decay_mult: 0
  }
  penlu_param {
    alpha_filler {
      type: "constant"
      value: 2
    }
    beta_filler {
      type: "constant"
      value: 1
    }
    eta_filler {
      type: "constant"
      value: 1
    }
  }
}
layer {
  name: "Convolution9"
  type: "Convolution"
  bottom: "Convolution8"
  top: "Convolution9"
  param {
    lr_mult: 1
    decay_mult: 1
  }
  param {
    lr_mult: 2
    decay_mult: 0
  }
  convolution_param {
    num_output: 16
    pad: 1
    kernel_size: 3
    stride: 1
    weight_filler {
      type: "gaussian"
      std: 0.118
    }
    bias_filler {
      type: "constant"
      value: 0
    }
  }
}
layer {
  name: "BatchNorm9"
  type: "BatchNorm"
  bottom: "Convolution9"
  top: "Convolution9"
  param {
    lr_mult: 0
    decay_mult: 0
  }
  param {
    lr_mult: 0
    decay_mult: 0
  }
  param {
    lr_mult: 0
    decay_mult: 0
  }
}
layer {
  name: "Scale9"
  type: "Scale"
  bottom: "Convolution9"
  top: "Convolution9"
  scale_param {
    bias_term: true
  }
}
layer {
  name: "Eltwise4"
  type: "Eltwise"
  bottom: "Eltwise3"
  bottom: "Convolution9"
  top: "Eltwise4"
  eltwise_param {
    operation: SUM
  }
}
layer {
  name: "penlu9"
  type: "PENLU"
  bottom: "Eltwise4"
  top: "Eltwise4"
  param {
    lr_mult: 2
    decay_mult: 2
  }
  param {
    lr_mult: 2
    decay_mult: 2
  }
  param {
    lr_mult: 0
    decay_mult: 0
  }
  penlu_param {
    alpha_filler {
      type: "constant"
      value: 2
    }
    beta_filler {
      type: "constant"
      value: 1
    }
    eta_filler {
      type: "constant"
      value: 1
    }
  }
}
layer {
  name: "Convolution10"
  type: "Convolution"
  bottom: "Eltwise4"
  top: "Convolution10"
  param {
    lr_mult: 1
    decay_mult: 1
  }
  param {
    lr_mult: 2
    decay_mult: 0
  }
  convolution_param {
    num_output: 16
    pad: 1
    kernel_size: 3
    stride: 1
    weight_filler {
      type: "gaussian"
      std: 0.118
    }
    bias_filler {
      type: "constant"
      value: 0
    }
  }
}
layer {
  name: "BatchNorm10"
  type: "BatchNorm"
  bottom: "Convolution10"
  top: "Convolution10"
  param {
    lr_mult: 0
    decay_mult: 0
  }
  param {
    lr_mult: 0
    decay_mult: 0
  }
  param {
    lr_mult: 0
    decay_mult: 0
  }
}
layer {
  name: "Scale10"
  type: "Scale"
  bottom: "Convolution10"
  top: "Convolution10"
  scale_param {
    bias_term: true
  }
}
layer {
  name: "penlu10"
  type: "PENLU"
  bottom: "Convolution10"
  top: "Convolution10"
  param {
    lr_mult: 2
    decay_mult: 2
  }
  param {
    lr_mult: 2
    decay_mult: 2
  }
  param {
    lr_mult: 0
    decay_mult: 0
  }
  penlu_param {
    alpha_filler {
      type: "constant"
      value: 2
    }
    beta_filler {
      type: "constant"
      value: 1
    }
    eta_filler {
      type: "constant"
      value: 1
    }
  }
}
layer {
  name: "Convolution11"
  type: "Convolution"
  bottom: "Convolution10"
  top: "Convolution11"
  param {
    lr_mult: 1
    decay_mult: 1
  }
  param {
    lr_mult: 2
    decay_mult: 0
  }
  convolution_param {
    num_output: 16
    pad: 1
    kernel_size: 3
    stride: 1
    weight_filler {
      type: "gaussian"
      std: 0.118
    }
    bias_filler {
      type: "constant"
      value: 0
    }
  }
}
layer {
  name: "BatchNorm11"
  type: "BatchNorm"
  bottom: "Convolution11"
  top: "Convolution11"
  param {
    lr_mult: 0
    decay_mult: 0
  }
  param {
    lr_mult: 0
    decay_mult: 0
  }
  param {
    lr_mult: 0
    decay_mult: 0
  }
}
layer {
  name: "Scale11"
  type: "Scale"
  bottom: "Convolution11"
  top: "Convolution11"
  scale_param {
    bias_term: true
  }
}
layer {
  name: "Eltwise5"
  type: "Eltwise"
  bottom: "Eltwise4"
  bottom: "Convolution11"
  top: "Eltwise5"
  eltwise_param {
    operation: SUM
  }
}
layer {
  name: "penlu11"
  type: "PENLU"
  bottom: "Eltwise5"
  top: "Eltwise5"
  param {
    lr_mult: 2
    decay_mult: 2
  }
  param {
    lr_mult: 2
    decay_mult: 2
  }
  param {
    lr_mult: 0
    decay_mult: 0
  }
  penlu_param {
    alpha_filler {
      type: "constant"
      value: 2
    }
    beta_filler {
      type: "constant"
      value: 1
    }
    eta_filler {
      type: "constant"
      value: 1
    }
  }
}
layer {
  name: "Convolution12"
  type: "Convolution"
  bottom: "Eltwise5"
  top: "Convolution12"
  param {
    lr_mult: 1
    decay_mult: 1
  }
  param {
    lr_mult: 2
    decay_mult: 0
  }
  convolution_param {
    num_output: 32
    pad: 0
    kernel_size: 1
    stride: 2
    weight_filler {
      type: "gaussian"
      std: 0.25
    }
    bias_filler {
      type: "constant"
      value: 0
    }
  }
}
layer {
  name: "BatchNorm12"
  type: "BatchNorm"
  bottom: "Convolution12"
  top: "Convolution12"
  param {
    lr_mult: 0
    decay_mult: 0
  }
  param {
    lr_mult: 0
    decay_mult: 0
  }
  param {
    lr_mult: 0
    decay_mult: 0
  }
}
layer {
  name: "Scale12"
  type: "Scale"
  bottom: "Convolution12"
  top: "Convolution12"
  scale_param {
    bias_term: true
  }
}
layer {
  name: "Convolution13"
  type: "Convolution"
  bottom: "Eltwise5"
  top: "Convolution13"
  param {
    lr_mult: 1
    decay_mult: 1
  }
  param {
    lr_mult: 2
    decay_mult: 0
  }
  convolution_param {
    num_output: 32
    pad: 1
    kernel_size: 3
    stride: 2
    weight_filler {
      type: "gaussian"
      std: 0.083
    }
    bias_filler {
      type: "constant"
      value: 0
    }
  }
}
layer {
  name: "BatchNorm13"
  type: "BatchNorm"
  bottom: "Convolution13"
  top: "Convolution13"
  param {
    lr_mult: 0
    decay_mult: 0
  }
  param {
    lr_mult: 0
    decay_mult: 0
  }
  param {
    lr_mult: 0
    decay_mult: 0
  }
}
layer {
  name: "Scale13"
  type: "Scale"
  bottom: "Convolution13"
  top: "Convolution13"
  scale_param {
    bias_term: true
  }
}
layer {
  name: "penlu12"
  type: "PENLU"
  bottom: "Convolution13"
  top: "Convolution13"
  param {
    lr_mult: 2
    decay_mult: 2
  }
  param {
    lr_mult: 2
    decay_mult: 2
  }
  param {
    lr_mult: 0
    decay_mult: 0
  }
  penlu_param {
    alpha_filler {
      type: "constant"
      value: 2
    }
    beta_filler {
      type: "constant"
      value: 1
    }
    eta_filler {
      type: "constant"
      value: 1
    }
  }
}
layer {
  name: "Convolution14"
  type: "Convolution"
  bottom: "Convolution13"
  top: "Convolution14"
  param {
    lr_mult: 1
    decay_mult: 1
  }
  param {
    lr_mult: 2
    decay_mult: 0
  }
  convolution_param {
    num_output: 32
    pad: 1
    kernel_size: 3
    stride: 1
    weight_filler {
      type: "gaussian"
      std: 0.083
    }
    bias_filler {
      type: "constant"
      value: 0
    }
  }
}
layer {
  name: "BatchNorm14"
  type: "BatchNorm"
  bottom: "Convolution14"
  top: "Convolution14"
  param {
    lr_mult: 0
    decay_mult: 0
  }
  param {
    lr_mult: 0
    decay_mult: 0
  }
  param {
    lr_mult: 0
    decay_mult: 0
  }
}
layer {
  name: "Scale14"
  type: "Scale"
  bottom: "Convolution14"
  top: "Convolution14"
  scale_param {
    bias_term: true
  }
}
layer {
  name: "Eltwise6"
  type: "Eltwise"
  bottom: "Convolution12"
  bottom: "Convolution14"
  top: "Eltwise6"
  eltwise_param {
    operation: SUM
  }
}
layer {
  name: "penlu13"
  type: "PENLU"
  bottom: "Eltwise6"
  top: "Eltwise6"
  param {
    lr_mult: 2
    decay_mult: 2
  }
  param {
    lr_mult: 2
    decay_mult: 2
  }
  param {
    lr_mult: 0
    decay_mult: 0
  }
  penlu_param {
    alpha_filler {
      type: "constant"
      value: 2
    }
    beta_filler {
      type: "constant"
      value: 1
    }
    eta_filler {
      type: "constant"
      value: 1
    }
  }
}
layer {
  name: "Convolution15"
  type: "Convolution"
  bottom: "Eltwise6"
  top: "Convolution15"
  param {
    lr_mult: 1
    decay_mult: 1
  }
  param {
    lr_mult: 2
    decay_mult: 0
  }
  convolution_param {
    num_output: 32
    pad: 1
    kernel_size: 3
    stride: 1
    weight_filler {
      type: "gaussian"
      std: 0.083
    }
    bias_filler {
      type: "constant"
      value: 0
    }
  }
}
layer {
  name: "BatchNorm15"
  type: "BatchNorm"
  bottom: "Convolution15"
  top: "Convolution15"
  param {
    lr_mult: 0
    decay_mult: 0
  }
  param {
    lr_mult: 0
    decay_mult: 0
  }
  param {
    lr_mult: 0
    decay_mult: 0
  }
}
layer {
  name: "Scale15"
  type: "Scale"
  bottom: "Convolution15"
  top: "Convolution15"
  scale_param {
    bias_term: true
  }
}
layer {
  name: "penlu14"
  type: "PENLU"
  bottom: "Convolution15"
  top: "Convolution15"
  param {
    lr_mult: 2
    decay_mult: 2
  }
  param {
    lr_mult: 2
    decay_mult: 2
  }
  param {
    lr_mult: 0
    decay_mult: 0
  }
  penlu_param {
    alpha_filler {
      type: "constant"
      value: 2
    }
    beta_filler {
      type: "constant"
      value: 1
    }
    eta_filler {
      type: "constant"
      value: 1
    }
  }
}
layer {
  name: "Convolution16"
  type: "Convolution"
  bottom: "Convolution15"
  top: "Convolution16"
  param {
    lr_mult: 1
    decay_mult: 1
  }
  param {
    lr_mult: 2
    decay_mult: 0
  }
  convolution_param {
    num_output: 32
    pad: 1
    kernel_size: 3
    stride: 1
    weight_filler {
      type: "gaussian"
      std: 0.083
    }
    bias_filler {
      type: "constant"
      value: 0
    }
  }
}
layer {
  name: "BatchNorm16"
  type: "BatchNorm"
  bottom: "Convolution16"
  top: "Convolution16"
  param {
    lr_mult: 0
    decay_mult: 0
  }
  param {
    lr_mult: 0
    decay_mult: 0
  }
  param {
    lr_mult: 0
    decay_mult: 0
  }
}
layer {
  name: "Scale16"
  type: "Scale"
  bottom: "Convolution16"
  top: "Convolution16"
  scale_param {
    bias_term: true
  }
}
layer {
  name: "Eltwise7"
  type: "Eltwise"
  bottom: "Eltwise6"
  bottom: "Convolution16"
  top: "Eltwise7"
  eltwise_param {
    operation: SUM
  }
}
layer {
  name: "penlu15"
  type: "PENLU"
  bottom: "Eltwise7"
  top: "Eltwise7"
  param {
    lr_mult: 2
    decay_mult: 2
  }
  param {
    lr_mult: 2
    decay_mult: 2
  }
  param {
    lr_mult: 0
    decay_mult: 0
  }
  penlu_param {
    alpha_filler {
      type: "constant"
      value: 2
    }
    beta_filler {
      type: "constant"
      value: 1
    }
    eta_filler {
      type: "constant"
      value: 1
    }
  }
}
layer {
  name: "Convolution17"
  type: "Convolution"
  bottom: "Eltwise7"
  top: "Convolution17"
  param {
    lr_mult: 1
    decay_mult: 1
  }
  param {
    lr_mult: 2
    decay_mult: 0
  }
  convolution_param {
    num_output: 32
    pad: 1
    kernel_size: 3
    stride: 1
    weight_filler {
      type: "gaussian"
      std: 0.083
    }
    bias_filler {
      type: "constant"
      value: 0
    }
  }
}
layer {
  name: "BatchNorm17"
  type: "BatchNorm"
  bottom: "Convolution17"
  top: "Convolution17"
  param {
    lr_mult: 0
    decay_mult: 0
  }
  param {
    lr_mult: 0
    decay_mult: 0
  }
  param {
    lr_mult: 0
    decay_mult: 0
  }
}
layer {
  name: "Scale17"
  type: "Scale"
  bottom: "Convolution17"
  top: "Convolution17"
  scale_param {
    bias_term: true
  }
}
layer {
  name: "penlu16"
  type: "PENLU"
  bottom: "Convolution17"
  top: "Convolution17"
  param {
    lr_mult: 2
    decay_mult: 2
  }
  param {
    lr_mult: 2
    decay_mult: 2
  }
  param {
    lr_mult: 0
    decay_mult: 0
  }
  penlu_param {
    alpha_filler {
      type: "constant"
      value: 2
    }
    beta_filler {
      type: "constant"
      value: 1
    }
    eta_filler {
      type: "constant"
      value: 1
    }
  }
}
layer {
  name: "Convolution18"
  type: "Convolution"
  bottom: "Convolution17"
  top: "Convolution18"
  param {
    lr_mult: 1
    decay_mult: 1
  }
  param {
    lr_mult: 2
    decay_mult: 0
  }
  convolution_param {
    num_output: 32
    pad: 1
    kernel_size: 3
    stride: 1
    weight_filler {
      type: "gaussian"
      std: 0.083
    }
    bias_filler {
      type: "constant"
      value: 0
    }
  }
}
layer {
  name: "BatchNorm18"
  type: "BatchNorm"
  bottom: "Convolution18"
  top: "Convolution18"
  param {
    lr_mult: 0
    decay_mult: 0
  }
  param {
    lr_mult: 0
    decay_mult: 0
  }
  param {
    lr_mult: 0
    decay_mult: 0
  }
}
layer {
  name: "Scale18"
  type: "Scale"
  bottom: "Convolution18"
  top: "Convolution18"
  scale_param {
    bias_term: true
  }
}
layer {
  name: "Eltwise8"
  type: "Eltwise"
  bottom: "Eltwise7"
  bottom: "Convolution18"
  top: "Eltwise8"
  eltwise_param {
    operation: SUM
  }
}
layer {
  name: "penlu17"
  type: "PENLU"
  bottom: "Eltwise8"
  top: "Eltwise8"
  param {
    lr_mult: 2
    decay_mult: 2
  }
  param {
    lr_mult: 2
    decay_mult: 2
  }
  param {
    lr_mult: 0
    decay_mult: 0
  }
  penlu_param {
    alpha_filler {
      type: "constant"
      value: 2
    }
    beta_filler {
      type: "constant"
      value: 1
    }
    eta_filler {
      type: "constant"
      value: 1
    }
  }
}
layer {
  name: "Convolution19"
  type: "Convolution"
  bottom: "Eltwise8"
  top: "Convolution19"
  param {
    lr_mult: 1
    decay_mult: 1
  }
  param {
    lr_mult: 2
    decay_mult: 0
  }
  convolution_param {
    num_output: 32
    pad: 1
    kernel_size: 3
    stride: 1
    weight_filler {
      type: "gaussian"
      std: 0.083
    }
    bias_filler {
      type: "constant"
      value: 0
    }
  }
}
layer {
  name: "BatchNorm19"
  type: "BatchNorm"
  bottom: "Convolution19"
  top: "Convolution19"
  param {
    lr_mult: 0
    decay_mult: 0
  }
  param {
    lr_mult: 0
    decay_mult: 0
  }
  param {
    lr_mult: 0
    decay_mult: 0
  }
}
layer {
  name: "Scale19"
  type: "Scale"
  bottom: "Convolution19"
  top: "Convolution19"
  scale_param {
    bias_term: true
  }
}
layer {
  name: "penlu18"
  type: "PENLU"
  bottom: "Convolution19"
  top: "Convolution19"
  param {
    lr_mult: 2
    decay_mult: 2
  }
  param {
    lr_mult: 2
    decay_mult: 2
  }
  param {
    lr_mult: 0
    decay_mult: 0
  }
  penlu_param {
    alpha_filler {
      type: "constant"
      value: 2
    }
    beta_filler {
      type: "constant"
      value: 1
    }
    eta_filler {
      type: "constant"
      value: 1
    }
  }
}
layer {
  name: "Convolution20"
  type: "Convolution"
  bottom: "Convolution19"
  top: "Convolution20"
  param {
    lr_mult: 1
    decay_mult: 1
  }
  param {
    lr_mult: 2
    decay_mult: 0
  }
  convolution_param {
    num_output: 32
    pad: 1
    kernel_size: 3
    stride: 1
    weight_filler {
      type: "gaussian"
      std: 0.083
    }
    bias_filler {
      type: "constant"
      value: 0
    }
  }
}
layer {
  name: "BatchNorm20"
  type: "BatchNorm"
  bottom: "Convolution20"
  top: "Convolution20"
  param {
    lr_mult: 0
    decay_mult: 0
  }
  param {
    lr_mult: 0
    decay_mult: 0
  }
  param {
    lr_mult: 0
    decay_mult: 0
  }
}
layer {
  name: "Scale20"
  type: "Scale"
  bottom: "Convolution20"
  top: "Convolution20"
  scale_param {
    bias_term: true
  }
}
layer {
  name: "Eltwise9"
  type: "Eltwise"
  bottom: "Eltwise8"
  bottom: "Convolution20"
  top: "Eltwise9"
  eltwise_param {
    operation: SUM
  }
}
layer {
  name: "penlu19"
  type: "PENLU"
  bottom: "Eltwise9"
  top: "Eltwise9"
  param {
    lr_mult: 2
    decay_mult: 2
  }
  param {
    lr_mult: 2
    decay_mult: 2
  }
  param {
    lr_mult: 0
    decay_mult: 0
  }
  penlu_param {
    alpha_filler {
      type: "constant"
      value: 2
    }
    beta_filler {
      type: "constant"
      value: 1
    }
    eta_filler {
      type: "constant"
      value: 1
    }
  }
}
layer {
  name: "Convolution21"
  type: "Convolution"
  bottom: "Eltwise9"
  top: "Convolution21"
  param {
    lr_mult: 1
    decay_mult: 1
  }
  param {
    lr_mult: 2
    decay_mult: 0
  }
  convolution_param {
    num_output: 32
    pad: 1
    kernel_size: 3
    stride: 1
    weight_filler {
      type: "gaussian"
      std: 0.083
    }
    bias_filler {
      type: "constant"
      value: 0
    }
  }
}
layer {
  name: "BatchNorm21"
  type: "BatchNorm"
  bottom: "Convolution21"
  top: "Convolution21"
  param {
    lr_mult: 0
    decay_mult: 0
  }
  param {
    lr_mult: 0
    decay_mult: 0
  }
  param {
    lr_mult: 0
    decay_mult: 0
  }
}
layer {
  name: "Scale21"
  type: "Scale"
  bottom: "Convolution21"
  top: "Convolution21"
  scale_param {
    bias_term: true
  }
}
layer {
  name: "penlu20"
  type: "PENLU"
  bottom: "Convolution21"
  top: "Convolution21"
  param {
    lr_mult: 2
    decay_mult: 2
  }
  param {
    lr_mult: 2
    decay_mult: 2
  }
  param {
    lr_mult: 0
    decay_mult: 0
  }
  penlu_param {
    alpha_filler {
      type: "constant"
      value: 2
    }
    beta_filler {
      type: "constant"
      value: 1
    }
    eta_filler {
      type: "constant"
      value: 1
    }
  }
}
layer {
  name: "Convolution22"
  type: "Convolution"
  bottom: "Convolution21"
  top: "Convolution22"
  param {
    lr_mult: 1
    decay_mult: 1
  }
  param {
    lr_mult: 2
    decay_mult: 0
  }
  convolution_param {
    num_output: 32
    pad: 1
    kernel_size: 3
    stride: 1
    weight_filler {
      type: "gaussian"
      std: 0.083
    }
    bias_filler {
      type: "constant"
      value: 0
    }
  }
}
layer {
  name: "BatchNorm22"
  type: "BatchNorm"
  bottom: "Convolution22"
  top: "Convolution22"
  param {
    lr_mult: 0
    decay_mult: 0
  }
  param {
    lr_mult: 0
    decay_mult: 0
  }
  param {
    lr_mult: 0
    decay_mult: 0
  }
}
layer {
  name: "Scale22"
  type: "Scale"
  bottom: "Convolution22"
  top: "Convolution22"
  scale_param {
    bias_term: true
  }
}
layer {
  name: "Eltwise10"
  type: "Eltwise"
  bottom: "Eltwise9"
  bottom: "Convolution22"
  top: "Eltwise10"
  eltwise_param {
    operation: SUM
  }
}
layer {
  name: "penlu21"
  type: "PENLU"
  bottom: "Eltwise10"
  top: "Eltwise10"
  param {
    lr_mult: 2
    decay_mult: 2
  }
  param {
    lr_mult: 2
    decay_mult: 2
  }
  param {
    lr_mult: 0
    decay_mult: 0
  }
  penlu_param {
    alpha_filler {
      type: "constant"
      value: 2
    }
    beta_filler {
      type: "constant"
      value: 1
    }
    eta_filler {
      type: "constant"
      value: 1
    }
  }
}
layer {
  name: "Convolution23"
  type: "Convolution"
  bottom: "Eltwise10"
  top: "Convolution23"
  param {
    lr_mult: 1
    decay_mult: 1
  }
  param {
    lr_mult: 2
    decay_mult: 0
  }
  convolution_param {
    num_output: 64
    pad: 0
    kernel_size: 1
    stride: 2
    weight_filler {
      type: "gaussian"
      std: 0.17677669
    }
    bias_filler {
      type: "constant"
      value: 0
    }
  }
}
layer {
  name: "BatchNorm23"
  type: "BatchNorm"
  bottom: "Convolution23"
  top: "Convolution23"
  param {
    lr_mult: 0
    decay_mult: 0
  }
  param {
    lr_mult: 0
    decay_mult: 0
  }
  param {
    lr_mult: 0
    decay_mult: 0
  }
}
layer {
  name: "Scale23"
  type: "Scale"
  bottom: "Convolution23"
  top: "Convolution23"
  scale_param {
    bias_term: true
  }
}
layer {
  name: "Convolution24"
  type: "Convolution"
  bottom: "Eltwise10"
  top: "Convolution24"
  param {
    lr_mult: 1
    decay_mult: 1
  }
  param {
    lr_mult: 2
    decay_mult: 0
  }
  convolution_param {
    num_output: 64
    pad: 1
    kernel_size: 3
    stride: 2
    weight_filler {
      type: "gaussian"
      std: 0.059
    }
    bias_filler {
      type: "constant"
      value: 0
    }
  }
}
layer {
  name: "BatchNorm24"
  type: "BatchNorm"
  bottom: "Convolution24"
  top: "Convolution24"
  param {
    lr_mult: 0
    decay_mult: 0
  }
  param {
    lr_mult: 0
    decay_mult: 0
  }
  param {
    lr_mult: 0
    decay_mult: 0
  }
}
layer {
  name: "Scale24"
  type: "Scale"
  bottom: "Convolution24"
  top: "Convolution24"
  scale_param {
    bias
I1007 17:39:01.194478  5078 layer_factory.hpp:77] Creating layer Data1
I1007 17:39:01.194555  5078 db_lmdb.cpp:35] Opened lmdb /home/x306/caffe/xn/PENLU/data/cifar10/cifar10_train_lmdb
I1007 17:39:01.194573  5078 net.cpp:84] Creating Layer Data1
I1007 17:39:01.194579  5078 net.cpp:380] Data1 -> Data1
I1007 17:39:01.194597  5078 net.cpp:380] Data1 -> Data2
I1007 17:39:01.194604  5078 data_transformer.cpp:25] Loading mean file from: /home/x306/caffe/xn/PENLU/data/cifar10/mean.binaryproto
I1007 17:39:01.195979  5078 data_layer.cpp:45] output data size: 100,3,28,28
I1007 17:39:01.198207  5078 net.cpp:122] Setting up Data1
I1007 17:39:01.198220  5078 net.cpp:129] Top shape: 100 3 28 28 (235200)
I1007 17:39:01.198225  5078 net.cpp:129] Top shape: 100 (100)
I1007 17:39:01.198226  5078 net.cpp:137] Memory required for data: 941200
I1007 17:39:01.198232  5078 layer_factory.hpp:77] Creating layer Convolution1
I1007 17:39:01.198249  5078 net.cpp:84] Creating Layer Convolution1
I1007 17:39:01.198253  5078 net.cpp:406] Convolution1 <- Data1
I1007 17:39:01.198262  5078 net.cpp:380] Convolution1 -> Convolution1
I1007 17:39:01.343250  5078 net.cpp:122] Setting up Convolution1
I1007 17:39:01.343273  5078 net.cpp:129] Top shape: 100 16 28 28 (1254400)
I1007 17:39:01.343277  5078 net.cpp:137] Memory required for data: 5958800
I1007 17:39:01.343291  5078 layer_factory.hpp:77] Creating layer BatchNorm1
I1007 17:39:01.343312  5078 net.cpp:84] Creating Layer BatchNorm1
I1007 17:39:01.343336  5078 net.cpp:406] BatchNorm1 <- Convolution1
I1007 17:39:01.343344  5078 net.cpp:367] BatchNorm1 -> Convolution1 (in-place)
I1007 17:39:01.343492  5078 net.cpp:122] Setting up BatchNorm1
I1007 17:39:01.343497  5078 net.cpp:129] Top shape: 100 16 28 28 (1254400)
I1007 17:39:01.343498  5078 net.cpp:137] Memory required for data: 10976400
I1007 17:39:01.343508  5078 layer_factory.hpp:77] Creating layer Scale1
I1007 17:39:01.343526  5078 net.cpp:84] Creating Layer Scale1
I1007 17:39:01.343528  5078 net.cpp:406] Scale1 <- Convolution1
I1007 17:39:01.343533  5078 net.cpp:367] Scale1 -> Convolution1 (in-place)
I1007 17:39:01.343585  5078 layer_factory.hpp:77] Creating layer Scale1
I1007 17:39:01.343719  5078 net.cpp:122] Setting up Scale1
I1007 17:39:01.343724  5078 net.cpp:129] Top shape: 100 16 28 28 (1254400)
I1007 17:39:01.343736  5078 net.cpp:137] Memory required for data: 15994000
I1007 17:39:01.343740  5078 layer_factory.hpp:77] Creating layer penlu1
I1007 17:39:01.343761  5078 net.cpp:84] Creating Layer penlu1
I1007 17:39:01.343766  5078 net.cpp:406] penlu1 <- Convolution1
I1007 17:39:01.343775  5078 net.cpp:367] penlu1 -> Convolution1 (in-place)
I1007 17:39:01.344386  5078 net.cpp:122] Setting up penlu1
I1007 17:39:01.344395  5078 net.cpp:129] Top shape: 100 16 28 28 (1254400)
I1007 17:39:01.344408  5078 net.cpp:137] Memory required for data: 21011600
I1007 17:39:01.344415  5078 layer_factory.hpp:77] Creating layer Convolution1_penlu1_0_split
I1007 17:39:01.344436  5078 net.cpp:84] Creating Layer Convolution1_penlu1_0_split
I1007 17:39:01.344439  5078 net.cpp:406] Convolution1_penlu1_0_split <- Convolution1
I1007 17:39:01.344444  5078 net.cpp:380] Convolution1_penlu1_0_split -> Convolution1_penlu1_0_split_0
I1007 17:39:01.344451  5078 net.cpp:380] Convolution1_penlu1_0_split -> Convolution1_penlu1_0_split_1
I1007 17:39:01.344488  5078 net.cpp:122] Setting up Convolution1_penlu1_0_split
I1007 17:39:01.344494  5078 net.cpp:129] Top shape: 100 16 28 28 (1254400)
I1007 17:39:01.344511  5078 net.cpp:129] Top shape: 100 16 28 28 (1254400)
I1007 17:39:01.344513  5078 net.cpp:137] Memory required for data: 31046800
I1007 17:39:01.344516  5078 layer_factory.hpp:77] Creating layer Convolution2
I1007 17:39:01.344535  5078 net.cpp:84] Creating Layer Convolution2
I1007 17:39:01.344550  5078 net.cpp:406] Convolution2 <- Convolution1_penlu1_0_split_0
I1007 17:39:01.344557  5078 net.cpp:380] Convolution2 -> Convolution2
I1007 17:39:01.345448  5078 net.cpp:122] Setting up Convolution2
I1007 17:39:01.345459  5078 net.cpp:129] Top shape: 100 16 28 28 (1254400)
I1007 17:39:01.345464  5078 net.cpp:137] Memory required for data: 36064400
I1007 17:39:01.345482  5078 layer_factory.hpp:77] Creating layer BatchNorm2
I1007 17:39:01.345491  5078 net.cpp:84] Creating Layer BatchNorm2
I1007 17:39:01.345495  5078 net.cpp:406] BatchNorm2 <- Convolution2
I1007 17:39:01.345502  5078 net.cpp:367] BatchNorm2 -> Convolution2 (in-place)
I1007 17:39:01.345638  5078 net.cpp:122] Setting up BatchNorm2
I1007 17:39:01.345644  5078 net.cpp:129] Top shape: 100 16 28 28 (1254400)
I1007 17:39:01.345649  5078 net.cpp:137] Memory required for data: 41082000
I1007 17:39:01.345667  5078 layer_factory.hpp:77] Creating layer Scale2
I1007 17:39:01.345675  5078 net.cpp:84] Creating Layer Scale2
I1007 17:39:01.345679  5078 net.cpp:406] Scale2 <- Convolution2
I1007 17:39:01.345685  5078 net.cpp:367] Scale2 -> Convolution2 (in-place)
I1007 17:39:01.345718  5078 layer_factory.hpp:77] Creating layer Scale2
I1007 17:39:01.345796  5078 net.cpp:122] Setting up Scale2
I1007 17:39:01.345803  5078 net.cpp:129] Top shape: 100 16 28 28 (1254400)
I1007 17:39:01.345808  5078 net.cpp:137] Memory required for data: 46099600
I1007 17:39:01.345818  5078 layer_factory.hpp:77] Creating layer penlu2
I1007 17:39:01.345825  5078 net.cpp:84] Creating Layer penlu2
I1007 17:39:01.345829  5078 net.cpp:406] penlu2 <- Convolution2
I1007 17:39:01.345836  5078 net.cpp:367] penlu2 -> Convolution2 (in-place)
I1007 17:39:01.345937  5078 net.cpp:122] Setting up penlu2
I1007 17:39:01.345950  5078 net.cpp:129] Top shape: 100 16 28 28 (1254400)
I1007 17:39:01.345955  5078 net.cpp:137] Memory required for data: 51117200
I1007 17:39:01.345963  5078 layer_factory.hpp:77] Creating layer Convolution3
I1007 17:39:01.345973  5078 net.cpp:84] Creating Layer Convolution3
I1007 17:39:01.345976  5078 net.cpp:406] Convolution3 <- Convolution2
I1007 17:39:01.345983  5078 net.cpp:380] Convolution3 -> Convolution3
I1007 17:39:01.346880  5078 net.cpp:122] Setting up Convolution3
I1007 17:39:01.346892  5078 net.cpp:129] Top shape: 100 16 28 28 (1254400)
I1007 17:39:01.346897  5078 net.cpp:137] Memory required for data: 56134800
I1007 17:39:01.346905  5078 layer_factory.hpp:77] Creating layer BatchNorm3
I1007 17:39:01.346915  5078 net.cpp:84] Creating Layer BatchNorm3
I1007 17:39:01.346918  5078 net.cpp:406] BatchNorm3 <- Convolution3
I1007 17:39:01.346925  5078 net.cpp:367] BatchNorm3 -> Convolution3 (in-place)
I1007 17:39:01.347054  5078 net.cpp:122] Setting up BatchNorm3
I1007 17:39:01.347060  5078 net.cpp:129] Top shape: 100 16 28 28 (1254400)
I1007 17:39:01.347064  5078 net.cpp:137] Memory required for data: 61152400
I1007 17:39:01.347072  5078 layer_factory.hpp:77] Creating layer Scale3
I1007 17:39:01.347079  5078 net.cpp:84] Creating Layer Scale3
I1007 17:39:01.347084  5078 net.cpp:406] Scale3 <- Convolution3
I1007 17:39:01.347090  5078 net.cpp:367] Scale3 -> Convolution3 (in-place)
I1007 17:39:01.347118  5078 layer_factory.hpp:77] Creating layer Scale3
I1007 17:39:01.347220  5078 net.cpp:122] Setting up Scale3
I1007 17:39:01.347228  5078 net.cpp:129] Top shape: 100 16 28 28 (1254400)
I1007 17:39:01.347231  5078 net.cpp:137] Memory required for data: 66170000
I1007 17:39:01.347239  5078 layer_factory.hpp:77] Creating layer Eltwise1
I1007 17:39:01.347246  5078 net.cpp:84] Creating Layer Eltwise1
I1007 17:39:01.347249  5078 net.cpp:406] Eltwise1 <- Convolution1_penlu1_0_split_1
I1007 17:39:01.347254  5078 net.cpp:406] Eltwise1 <- Convolution3
I1007 17:39:01.347259  5078 net.cpp:380] Eltwise1 -> Eltwise1
I1007 17:39:01.347280  5078 net.cpp:122] Setting up Eltwise1
I1007 17:39:01.347285  5078 net.cpp:129] Top shape: 100 16 28 28 (1254400)
I1007 17:39:01.347288  5078 net.cpp:137] Memory required for data: 71187600
I1007 17:39:01.347292  5078 layer_factory.hpp:77] Creating layer penlu3
I1007 17:39:01.347301  5078 net.cpp:84] Creating Layer penlu3
I1007 17:39:01.347304  5078 net.cpp:406] penlu3 <- Eltwise1
I1007 17:39:01.347309  5078 net.cpp:367] penlu3 -> Eltwise1 (in-place)
I1007 17:39:01.347409  5078 net.cpp:122] Setting up penlu3
I1007 17:39:01.347414  5078 net.cpp:129] Top shape: 100 16 28 28 (1254400)
I1007 17:39:01.347419  5078 net.cpp:137] Memory required for data: 76205200
I1007 17:39:01.347425  5078 layer_factory.hpp:77] Creating layer Eltwise1_penlu3_0_split
I1007 17:39:01.347429  5078 net.cpp:84] Creating Layer Eltwise1_penlu3_0_split
I1007 17:39:01.347434  5078 net.cpp:406] Eltwise1_penlu3_0_split <- Eltwise1
I1007 17:39:01.347439  5078 net.cpp:380] Eltwise1_penlu3_0_split -> Eltwise1_penlu3_0_split_0
I1007 17:39:01.347445  5078 net.cpp:380] Eltwise1_penlu3_0_split -> Eltwise1_penlu3_0_split_1
I1007 17:39:01.347470  5078 net.cpp:122] Setting up Eltwise1_penlu3_0_split
I1007 17:39:01.347476  5078 net.cpp:129] Top shape: 100 16 28 28 (1254400)
I1007 17:39:01.347481  5078 net.cpp:129] Top shape: 100 16 28 28 (1254400)
I1007 17:39:01.347484  5078 net.cpp:137] Memory required for data: 86240400
I1007 17:39:01.347487  5078 layer_factory.hpp:77] Creating layer Convolution4
I1007 17:39:01.347497  5078 net.cpp:84] Creating Layer Convolution4
I1007 17:39:01.347501  5078 net.cpp:406] Convolution4 <- Eltwise1_penlu3_0_split_0
I1007 17:39:01.347506  5078 net.cpp:380] Convolution4 -> Convolution4
I1007 17:39:01.348347  5078 net.cpp:122] Setting up Convolution4
I1007 17:39:01.348358  5078 net.cpp:129] Top shape: 100 16 28 28 (1254400)
I1007 17:39:01.348363  5078 net.cpp:137] Memory required for data: 91258000
I1007 17:39:01.348371  5078 layer_factory.hpp:77] Creating layer BatchNorm4
I1007 17:39:01.348378  5078 net.cpp:84] Creating Layer BatchNorm4
I1007 17:39:01.348389  5078 net.cpp:406] BatchNorm4 <- Convolution4
I1007 17:39:01.348395  5078 net.cpp:367] BatchNorm4 -> Convolution4 (in-place)
I1007 17:39:01.348515  5078 net.cpp:122] Setting up BatchNorm4
I1007 17:39:01.348521  5078 net.cpp:129] Top shape: 100 16 28 28 (1254400)
I1007 17:39:01.348526  5078 net.cpp:137] Memory required for data: 96275600
I1007 17:39:01.348536  5078 layer_factory.hpp:77] Creating layer Scale4
I1007 17:39:01.348541  5078 net.cpp:84] Creating Layer Scale4
I1007 17:39:01.348546  5078 net.cpp:406] Scale4 <- Convolution4
I1007 17:39:01.348551  5078 net.cpp:367] Scale4 -> Convolution4 (in-place)
I1007 17:39:01.348579  5078 layer_factory.hpp:77] Creating layer Scale4
I1007 17:39:01.348651  5078 net.cpp:122] Setting up Scale4
I1007 17:39:01.348657  5078 net.cpp:129] Top shape: 100 16 28 28 (1254400)
I1007 17:39:01.348661  5078 net.cpp:137] Memory required for data: 101293200
I1007 17:39:01.348668  5078 layer_factory.hpp:77] Creating layer penlu4
I1007 17:39:01.348675  5078 net.cpp:84] Creating Layer penlu4
I1007 17:39:01.348680  5078 net.cpp:406] penlu4 <- Convolution4
I1007 17:39:01.348685  5078 net.cpp:367] penlu4 -> Convolution4 (in-place)
I1007 17:39:01.348779  5078 net.cpp:122] Setting up penlu4
I1007 17:39:01.348785  5078 net.cpp:129] Top shape: 100 16 28 28 (1254400)
I1007 17:39:01.348789  5078 net.cpp:137] Memory required for data: 106310800
I1007 17:39:01.348796  5078 layer_factory.hpp:77] Creating layer Convolution5
I1007 17:39:01.348805  5078 net.cpp:84] Creating Layer Convolution5
I1007 17:39:01.348809  5078 net.cpp:406] Convolution5 <- Convolution4
I1007 17:39:01.348814  5078 net.cpp:380] Convolution5 -> Convolution5
I1007 17:39:01.349656  5078 net.cpp:122] Setting up Convolution5
I1007 17:39:01.349668  5078 net.cpp:129] Top shape: 100 16 28 28 (1254400)
I1007 17:39:01.349673  5078 net.cpp:137] Memory required for data: 111328400
I1007 17:39:01.349680  5078 layer_factory.hpp:77] Creating layer BatchNorm5
I1007 17:39:01.349689  5078 net.cpp:84] Creating Layer BatchNorm5
I1007 17:39:01.349692  5078 net.cpp:406] BatchNorm5 <- Convolution5
I1007 17:39:01.349699  5078 net.cpp:367] BatchNorm5 -> Convolution5 (in-place)
I1007 17:39:01.349822  5078 net.cpp:122] Setting up BatchNorm5
I1007 17:39:01.349828  5078 net.cpp:129] Top shape: 100 16 28 28 (1254400)
I1007 17:39:01.349833  5078 net.cpp:137] Memory required for data: 116346000
I1007 17:39:01.349839  5078 layer_factory.hpp:77] Creating layer Scale5
I1007 17:39:01.349844  5078 net.cpp:84] Creating Layer Scale5
I1007 17:39:01.349848  5078 net.cpp:406] Scale5 <- Convolution5
I1007 17:39:01.349854  5078 net.cpp:367] Scale5 -> Convolution5 (in-place)
I1007 17:39:01.349882  5078 layer_factory.hpp:77] Creating layer Scale5
I1007 17:39:01.349958  5078 net.cpp:122] Setting up Scale5
I1007 17:39:01.349964  5078 net.cpp:129] Top shape: 100 16 28 28 (1254400)
I1007 17:39:01.349968  5078 net.cpp:137] Memory required for data: 121363600
I1007 17:39:01.349974  5078 layer_factory.hpp:77] Creating layer Eltwise2
I1007 17:39:01.349979  5078 net.cpp:84] Creating Layer Eltwise2
I1007 17:39:01.349983  5078 net.cpp:406] Eltwise2 <- Eltwise1_penlu3_0_split_1
I1007 17:39:01.349988  5078 net.cpp:406] Eltwise2 <- Convolution5
I1007 17:39:01.349995  5078 net.cpp:380] Eltwise2 -> Eltwise2
I1007 17:39:01.350013  5078 net.cpp:122] Setting up Eltwise2
I1007 17:39:01.350018  5078 net.cpp:129] Top shape: 100 16 28 28 (1254400)
I1007 17:39:01.350021  5078 net.cpp:137] Memory required for data: 126381200
I1007 17:39:01.350024  5078 layer_factory.hpp:77] Creating layer penlu5
I1007 17:39:01.350033  5078 net.cpp:84] Creating Layer penlu5
I1007 17:39:01.350036  5078 net.cpp:406] penlu5 <- Eltwise2
I1007 17:39:01.350041  5078 net.cpp:367] penlu5 -> Eltwise2 (in-place)
I1007 17:39:01.350143  5078 net.cpp:122] Setting up penlu5
I1007 17:39:01.350149  5078 net.cpp:129] Top shape: 100 16 28 28 (1254400)
I1007 17:39:01.350153  5078 net.cpp:137] Memory required for data: 131398800
I1007 17:39:01.350160  5078 layer_factory.hpp:77] Creating layer Eltwise2_penlu5_0_split
I1007 17:39:01.350172  5078 net.cpp:84] Creating Layer Eltwise2_penlu5_0_split
I1007 17:39:01.350177  5078 net.cpp:406] Eltwise2_penlu5_0_split <- Eltwise2
I1007 17:39:01.350181  5078 net.cpp:380] Eltwise2_penlu5_0_split -> Eltwise2_penlu5_0_split_0
I1007 17:39:01.350188  5078 net.cpp:380] Eltwise2_penlu5_0_split -> Eltwise2_penlu5_0_split_1
I1007 17:39:01.350211  5078 net.cpp:122] Setting up Eltwise2_penlu5_0_split
I1007 17:39:01.350216  5078 net.cpp:129] Top shape: 100 16 28 28 (1254400)
I1007 17:39:01.350221  5078 net.cpp:129] Top shape: 100 16 28 28 (1254400)
I1007 17:39:01.350225  5078 net.cpp:137] Memory required for data: 141434000
I1007 17:39:01.350229  5078 layer_factory.hpp:77] Creating layer Convolution6
I1007 17:39:01.350239  5078 net.cpp:84] Creating Layer Convolution6
I1007 17:39:01.350242  5078 net.cpp:406] Convolution6 <- Eltwise2_penlu5_0_split_0
I1007 17:39:01.350248  5078 net.cpp:380] Convolution6 -> Convolution6
I1007 17:39:01.351092  5078 net.cpp:122] Setting up Convolution6
I1007 17:39:01.351104  5078 net.cpp:129] Top shape: 100 16 28 28 (1254400)
I1007 17:39:01.351109  5078 net.cpp:137] Memory required for data: 146451600
I1007 17:39:01.351116  5078 layer_factory.hpp:77] Creating layer BatchNorm6
I1007 17:39:01.351124  5078 net.cpp:84] Creating Layer BatchNorm6
I1007 17:39:01.351127  5078 net.cpp:406] BatchNorm6 <- Convolution6
I1007 17:39:01.351135  5078 net.cpp:367] BatchNorm6 -> Convolution6 (in-place)
I1007 17:39:01.351294  5078 net.cpp:122] Setting up BatchNorm6
I1007 17:39:01.351300  5078 net.cpp:129] Top shape: 100 16 28 28 (1254400)
I1007 17:39:01.351305  5078 net.cpp:137] Memory required for data: 151469200
I1007 17:39:01.351311  5078 layer_factory.hpp:77] Creating layer Scale6
I1007 17:39:01.351318  5078 net.cpp:84] Creating Layer Scale6
I1007 17:39:01.351322  5078 net.cpp:406] Scale6 <- Convolution6
I1007 17:39:01.351327  5078 net.cpp:367] Scale6 -> Convolution6 (in-place)
I1007 17:39:01.351356  5078 layer_factory.hpp:77] Creating layer Scale6
I1007 17:39:01.351430  5078 net.cpp:122] Setting up Scale6
I1007 17:39:01.351436  5078 net.cpp:129] Top shape: 100 16 28 28 (1254400)
I1007 17:39:01.351440  5078 net.cpp:137] Memory required for data: 156486800
I1007 17:39:01.351446  5078 layer_factory.hpp:77] Creating layer penlu6
I1007 17:39:01.351454  5078 net.cpp:84] Creating Layer penlu6
I1007 17:39:01.351459  5078 net.cpp:406] penlu6 <- Convolution6
I1007 17:39:01.351464  5078 net.cpp:367] penlu6 -> Convolution6 (in-place)
I1007 17:39:01.351567  5078 net.cpp:122] Setting up penlu6
I1007 17:39:01.351572  5078 net.cpp:129] Top shape: 100 16 28 28 (1254400)
I1007 17:39:01.351577  5078 net.cpp:137] Memory required for data: 161504400
I1007 17:39:01.351583  5078 layer_factory.hpp:77] Creating layer Convolution7
I1007 17:39:01.351593  5078 net.cpp:84] Creating Layer Convolution7
I1007 17:39:01.351595  5078 net.cpp:406] Convolution7 <- Convolution6
I1007 17:39:01.351601  5078 net.cpp:380] Convolution7 -> Convolution7
I1007 17:39:01.352131  5078 net.cpp:122] Setting up Convolution7
I1007 17:39:01.352144  5078 net.cpp:129] Top shape: 100 16 28 28 (1254400)
I1007 17:39:01.352149  5078 net.cpp:137] Memory required for data: 166522000
I1007 17:39:01.352154  5078 layer_factory.hpp:77] Creating layer BatchNorm7
I1007 17:39:01.352160  5078 net.cpp:84] Creating Layer BatchNorm7
I1007 17:39:01.352164  5078 net.cpp:406] BatchNorm7 <- Convolution7
I1007 17:39:01.352170  5078 net.cpp:367] BatchNorm7 -> Convolution7 (in-place)
I1007 17:39:01.352293  5078 net.cpp:122] Setting up BatchNorm7
I1007 17:39:01.352299  5078 net.cpp:129] Top shape: 100 16 28 28 (1254400)
I1007 17:39:01.352304  5078 net.cpp:137] Memory required for data: 171539600
I1007 17:39:01.352316  5078 layer_factory.hpp:77] Creating layer Scale7
I1007 17:39:01.352324  5078 net.cpp:84] Creating Layer Scale7
I1007 17:39:01.352327  5078 net.cpp:406] Scale7 <- Convolution7
I1007 17:39:01.352332  5078 net.cpp:367] Scale7 -> Convolution7 (in-place)
I1007 17:39:01.352360  5078 layer_factory.hpp:77] Creating layer Scale7
I1007 17:39:01.352442  5078 net.cpp:122] Setting up Scale7
I1007 17:39:01.352449  5078 net.cpp:129] Top shape: 100 16 28 28 (1254400)
I1007 17:39:01.352453  5078 net.cpp:137] Memory required for data: 176557200
I1007 17:39:01.352459  5078 layer_factory.hpp:77] Creating layer Eltwise3
I1007 17:39:01.352464  5078 net.cpp:84] Creating Layer Eltwise3
I1007 17:39:01.352468  5078 net.cpp:406] Eltwise3 <- Eltwise2_penlu5_0_split_1
I1007 17:39:01.352473  5078 net.cpp:406] Eltwise3 <- Convolution7
I1007 17:39:01.352480  5078 net.cpp:380] Eltwise3 -> Eltwise3
I1007 17:39:01.352497  5078 net.cpp:122] Setting up Eltwise3
I1007 17:39:01.352502  5078 net.cpp:129] Top shape: 100 16 28 28 (1254400)
I1007 17:39:01.352506  5078 net.cpp:137] Memory required for data: 181574800
I1007 17:39:01.352509  5078 layer_factory.hpp:77] Creating layer penlu7
I1007 17:39:01.352516  5078 net.cpp:84] Creating Layer penlu7
I1007 17:39:01.352520  5078 net.cpp:406] penlu7 <- Eltwise3
I1007 17:39:01.352526  5078 net.cpp:367] penlu7 -> Eltwise3 (in-place)
I1007 17:39:01.352627  5078 net.cpp:122] Setting up penlu7
I1007 17:39:01.352633  5078 net.cpp:129] Top shape: 100 16 28 28 (1254400)
I1007 17:39:01.352638  5078 net.cpp:137] Memory required for data: 186592400
I1007 17:39:01.352644  5078 layer_factory.hpp:77] Creating layer Eltwise3_penlu7_0_split
I1007 17:39:01.352649  5078 net.cpp:84] Creating Layer Eltwise3_penlu7_0_split
I1007 17:39:01.352653  5078 net.cpp:406] Eltwise3_penlu7_0_split <- Eltwise3
I1007 17:39:01.352658  5078 net.cpp:380] Eltwise3_penlu7_0_split -> Eltwise3_penlu7_0_split_0
I1007 17:39:01.352664  5078 net.cpp:380] Eltwise3_penlu7_0_split -> Eltwise3_penlu7_0_split_1
I1007 17:39:01.352689  5078 net.cpp:122] Setting up Eltwise3_penlu7_0_split
I1007 17:39:01.352694  5078 net.cpp:129] Top shape: 100 16 28 28 (1254400)
I1007 17:39:01.352699  5078 net.cpp:129] Top shape: 100 16 28 28 (1254400)
I1007 17:39:01.352702  5078 net.cpp:137] Memory required for data: 196627600
I1007 17:39:01.352706  5078 layer_factory.hpp:77] Creating layer Convolution8
I1007 17:39:01.352715  5078 net.cpp:84] Creating Layer Convolution8
I1007 17:39:01.352720  5078 net.cpp:406] Convolution8 <- Eltwise3_penlu7_0_split_0
I1007 17:39:01.352725  5078 net.cpp:380] Convolution8 -> Convolution8
I1007 17:39:01.353588  5078 net.cpp:122] Setting up Convolution8
I1007 17:39:01.353600  5078 net.cpp:129] Top shape: 100 16 28 28 (1254400)
I1007 17:39:01.353615  5078 net.cpp:137] Memory required for data: 201645200
I1007 17:39:01.353622  5078 layer_factory.hpp:77] Creating layer BatchNorm8
I1007 17:39:01.353628  5078 net.cpp:84] Creating Layer BatchNorm8
I1007 17:39:01.353632  5078 net.cpp:406] BatchNorm8 <- Convolution8
I1007 17:39:01.353648  5078 net.cpp:367] BatchNorm8 -> Convolution8 (in-place)
I1007 17:39:01.353773  5078 net.cpp:122] Setting up BatchNorm8
I1007 17:39:01.353780  5078 net.cpp:129] Top shape: 100 16 28 28 (1254400)
I1007 17:39:01.353785  5078 net.cpp:137] Memory required for data: 206662800
I1007 17:39:01.353792  5078 layer_factory.hpp:77] Creating layer Scale8
I1007 17:39:01.353797  5078 net.cpp:84] Creating Layer Scale8
I1007 17:39:01.353802  5078 net.cpp:406] Scale8 <- Convolution8
I1007 17:39:01.353809  5078 net.cpp:367] Scale8 -> Convolution8 (in-place)
I1007 17:39:01.353835  5078 layer_factory.hpp:77] Creating layer Scale8
I1007 17:39:01.353924  5078 net.cpp:122] Setting up Scale8
I1007 17:39:01.353930  5078 net.cpp:129] Top shape: 100 16 28 28 (1254400)
I1007 17:39:01.353935  5078 net.cpp:137] Memory required for data: 211680400
I1007 17:39:01.353941  5078 layer_factory.hpp:77] Creating layer penlu8
I1007 17:39:01.353950  5078 net.cpp:84] Creating Layer penlu8
I1007 17:39:01.353952  5078 net.cpp:406] penlu8 <- Convolution8
I1007 17:39:01.353958  5078 net.cpp:367] penlu8 -> Convolution8 (in-place)
I1007 17:39:01.354059  5078 net.cpp:122] Setting up penlu8
I1007 17:39:01.354068  5078 net.cpp:129] Top shape: 100 16 28 28 (1254400)
I1007 17:39:01.354071  5078 net.cpp:137] Memory required for data: 216698000
I1007 17:39:01.354079  5078 layer_factory.hpp:77] Creating layer Convolution9
I1007 17:39:01.354094  5078 net.cpp:84] Creating Layer Convolution9
I1007 17:39:01.354097  5078 net.cpp:406] Convolution9 <- Convolution8
I1007 17:39:01.354104  5078 net.cpp:380] Convolution9 -> Convolution9
I1007 17:39:01.355059  5078 net.cpp:122] Setting up Convolution9
I1007 17:39:01.355072  5078 net.cpp:129] Top shape: 100 16 28 28 (1254400)
I1007 17:39:01.355077  5078 net.cpp:137] Memory required for data: 221715600
I1007 17:39:01.355084  5078 layer_factory.hpp:77] Creating layer BatchNorm9
I1007 17:39:01.355096  5078 net.cpp:84] Creating Layer BatchNorm9
I1007 17:39:01.355103  5078 net.cpp:406] BatchNorm9 <- Convolution9
I1007 17:39:01.355108  5078 net.cpp:367] BatchNorm9 -> Convolution9 (in-place)
I1007 17:39:01.355267  5078 net.cpp:122] Setting up BatchNorm9
I1007 17:39:01.355275  5078 net.cpp:129] Top shape: 100 16 28 28 (1254400)
I1007 17:39:01.355279  5078 net.cpp:137] Memory required for data: 226733200
I1007 17:39:01.355288  5078 layer_factory.hpp:77] Creating layer Scale9
I1007 17:39:01.355295  5078 net.cpp:84] Creating Layer Scale9
I1007 17:39:01.355300  5078 net.cpp:406] Scale9 <- Convolution9
I1007 17:39:01.355306  5078 net.cpp:367] Scale9 -> Convolution9 (in-place)
I1007 17:39:01.355340  5078 layer_factory.hpp:77] Creating layer Scale9
I1007 17:39:01.355420  5078 net.cpp:122] Setting up Scale9
I1007 17:39:01.355428  5078 net.cpp:129] Top shape: 100 16 28 28 (1254400)
I1007 17:39:01.355433  5078 net.cpp:137] Memory required for data: 231750800
I1007 17:39:01.355442  5078 layer_factory.hpp:77] Creating layer Eltwise4
I1007 17:39:01.355448  5078 net.cpp:84] Creating Layer Eltwise4
I1007 17:39:01.355453  5078 net.cpp:406] Eltwise4 <- Eltwise3_penlu7_0_split_1
I1007 17:39:01.355459  5078 net.cpp:406] Eltwise4 <- Convolution9
I1007 17:39:01.355466  5078 net.cpp:380] Eltwise4 -> Eltwise4
I1007 17:39:01.355487  5078 net.cpp:122] Setting up Eltwise4
I1007 17:39:01.355494  5078 net.cpp:129] Top shape: 100 16 28 28 (1254400)
I1007 17:39:01.355497  5078 net.cpp:137] Memory required for data: 236768400
I1007 17:39:01.355504  5078 layer_factory.hpp:77] Creating layer penlu9
I1007 17:39:01.355515  5078 net.cpp:84] Creating Layer penlu9
I1007 17:39:01.355518  5078 net.cpp:406] penlu9 <- Eltwise4
I1007 17:39:01.355525  5078 net.cpp:367] penlu9 -> Eltwise4 (in-place)
I1007 17:39:01.355635  5078 net.cpp:122] Setting up penlu9
I1007 17:39:01.355643  5078 net.cpp:129] Top shape: 100 16 28 28 (1254400)
I1007 17:39:01.355648  5078 net.cpp:137] Memory required for data: 241786000
I1007 17:39:01.355655  5078 layer_factory.hpp:77] Creating layer Eltwise4_penlu9_0_split
I1007 17:39:01.355662  5078 net.cpp:84] Creating Layer Eltwise4_penlu9_0_split
I1007 17:39:01.355669  5078 net.cpp:406] Eltwise4_penlu9_0_split <- Eltwise4
I1007 17:39:01.355674  5078 net.cpp:380] Eltwise4_penlu9_0_split -> Eltwise4_penlu9_0_split_0
I1007 17:39:01.355681  5078 net.cpp:380] Eltwise4_penlu9_0_split -> Eltwise4_penlu9_0_split_1
I1007 17:39:01.355708  5078 net.cpp:122] Setting up Eltwise4_penlu9_0_split
I1007 17:39:01.355715  5078 net.cpp:129] Top shape: 100 16 28 28 (1254400)
I1007 17:39:01.355721  5078 net.cpp:129] Top shape: 100 16 28 28 (1254400)
I1007 17:39:01.355726  5078 net.cpp:137] Memory required for data: 251821200
I1007 17:39:01.355731  5078 layer_factory.hpp:77] Creating layer Convolution10
I1007 17:39:01.355741  5078 net.cpp:84] Creating Layer Convolution10
I1007 17:39:01.355744  5078 net.cpp:406] Convolution10 <- Eltwise4_penlu9_0_split_0
I1007 17:39:01.355752  5078 net.cpp:380] Convolution10 -> Convolution10
I1007 17:39:01.356633  5078 net.cpp:122] Setting up Convolution10
I1007 17:39:01.356645  5078 net.cpp:129] Top shape: 100 16 28 28 (1254400)
I1007 17:39:01.356650  5078 net.cpp:137] Memory required for data: 256838800
I1007 17:39:01.356657  5078 layer_factory.hpp:77] Creating layer BatchNorm10
I1007 17:39:01.356667  5078 net.cpp:84] Creating Layer BatchNorm10
I1007 17:39:01.356673  5078 net.cpp:406] BatchNorm10 <- Convolution10
I1007 17:39:01.356679  5078 net.cpp:367] BatchNorm10 -> Convolution10 (in-place)
I1007 17:39:01.356820  5078 net.cpp:122] Setting up BatchNorm10
I1007 17:39:01.356828  5078 net.cpp:129] Top shape: 100 16 28 28 (1254400)
I1007 17:39:01.356833  5078 net.cpp:137] Memory required for data: 261856400
I1007 17:39:01.356843  5078 layer_factory.hpp:77] Creating layer Scale10
I1007 17:39:01.356850  5078 net.cpp:84] Creating Layer Scale10
I1007 17:39:01.356856  5078 net.cpp:406] Scale10 <- Convolution10
I1007 17:39:01.356863  5078 net.cpp:367] Scale10 -> Convolution10 (in-place)
I1007 17:39:01.356896  5078 layer_factory.hpp:77] Creating layer Scale10
I1007 17:39:01.356978  5078 net.cpp:122] Setting up Scale10
I1007 17:39:01.356987  5078 net.cpp:129] Top shape: 100 16 28 28 (1254400)
I1007 17:39:01.356992  5078 net.cpp:137] Memory required for data: 266874000
I1007 17:39:01.357002  5078 layer_factory.hpp:77] Creating layer penlu10
I1007 17:39:01.357010  5078 net.cpp:84] Creating Layer penlu10
I1007 17:39:01.357015  5078 net.cpp:406] penlu10 <- Convolution10
I1007 17:39:01.357023  5078 net.cpp:367] penlu10 -> Convolution10 (in-place)
I1007 17:39:01.357134  5078 net.cpp:122] Setting up penlu10
I1007 17:39:01.357142  5078 net.cpp:129] Top shape: 100 16 28 28 (1254400)
I1007 17:39:01.357146  5078 net.cpp:137] Memory required for data: 271891600
I1007 17:39:01.357156  5078 layer_factory.hpp:77] Creating layer Convolution11
I1007 17:39:01.357167  5078 net.cpp:84] Creating Layer Convolution11
I1007 17:39:01.357172  5078 net.cpp:406] Convolution11 <- Convolution10
I1007 17:39:01.357180  5078 net.cpp:380] Convolution11 -> Convolution11
I1007 17:39:01.358069  5078 net.cpp:122] Setting up Convolution11
I1007 17:39:01.358080  5078 net.cpp:129] Top shape: 100 16 28 28 (1254400)
I1007 17:39:01.358085  5078 net.cpp:137] Memory required for data: 276909200
I1007 17:39:01.358093  5078 layer_factory.hpp:77] Creating layer BatchNorm11
I1007 17:39:01.358103  5078 net.cpp:84] Creating Layer BatchNorm11
I1007 17:39:01.358108  5078 net.cpp:406] BatchNorm11 <- Convolution11
I1007 17:39:01.358114  5078 net.cpp:367] BatchNorm11 -> Convolution11 (in-place)
I1007 17:39:01.358249  5078 net.cpp:122] Setting up BatchNorm11
I1007 17:39:01.358258  5078 net.cpp:129] Top shape: 100 16 28 28 (1254400)
I1007 17:39:01.358263  5078 net.cpp:137] Memory required for data: 281926800
I1007 17:39:01.358270  5078 layer_factory.hpp:77] Creating layer Scale11
I1007 17:39:01.358278  5078 net.cpp:84] Creating Layer Scale11
I1007 17:39:01.358283  5078 net.cpp:406] Scale11 <- Convolution11
I1007 17:39:01.358289  5078 net.cpp:367] Scale11 -> Convolution11 (in-place)
I1007 17:39:01.358324  5078 layer_factory.hpp:77] Creating layer Scale11
I1007 17:39:01.358407  5078 net.cpp:122] Setting up Scale11
I1007 17:39:01.358414  5078 net.cpp:129] Top shape: 100 16 28 28 (1254400)
I1007 17:39:01.358418  5078 net.cpp:137] Memory required for data: 286944400
I1007 17:39:01.358425  5078 layer_factory.hpp:77] Creating layer Eltwise5
I1007 17:39:01.358433  5078 net.cpp:84] Creating Layer Eltwise5
I1007 17:39:01.358439  5078 net.cpp:406] Eltwise5 <- Eltwise4_penlu9_0_split_1
I1007 17:39:01.358444  5078 net.cpp:406] Eltwise5 <- Convolution11
I1007 17:39:01.358451  5078 net.cpp:380] Eltwise5 -> Eltwise5
I1007 17:39:01.358474  5078 net.cpp:122] Setting up Eltwise5
I1007 17:39:01.358481  5078 net.cpp:129] Top shape: 100 16 28 28 (1254400)
I1007 17:39:01.358485  5078 net.cpp:137] Memory required for data: 291962000
I1007 17:39:01.358491  5078 layer_factory.hpp:77] Creating layer penlu11
I1007 17:39:01.358500  5078 net.cpp:84] Creating Layer penlu11
I1007 17:39:01.358505  5078 net.cpp:406] penlu11 <- Eltwise5
I1007 17:39:01.358511  5078 net.cpp:367] penlu11 -> Eltwise5 (in-place)
I1007 17:39:01.358626  5078 net.cpp:122] Setting up penlu11
I1007 17:39:01.358633  5078 net.cpp:129] Top shape: 100 16 28 28 (1254400)
I1007 17:39:01.358638  5078 net.cpp:137] Memory required for data: 296979600
I1007 17:39:01.358645  5078 layer_factory.hpp:77] Creating layer Eltwise5_penlu11_0_split
I1007 17:39:01.358654  5078 net.cpp:84] Creating Layer Eltwise5_penlu11_0_split
I1007 17:39:01.358659  5078 net.cpp:406] Eltwise5_penlu11_0_split <- Eltwise5
I1007 17:39:01.358672  5078 net.cpp:380] Eltwise5_penlu11_0_split -> Eltwise5_penlu11_0_split_0
I1007 17:39:01.358681  5078 net.cpp:380] Eltwise5_penlu11_0_split -> Eltwise5_penlu11_0_split_1
I1007 17:39:01.358711  5078 net.cpp:122] Setting up Eltwise5_penlu11_0_split
I1007 17:39:01.358718  5078 net.cpp:129] Top shape: 100 16 28 28 (1254400)
I1007 17:39:01.358724  5078 net.cpp:129] Top shape: 100 16 28 28 (1254400)
I1007 17:39:01.358729  5078 net.cpp:137] Memory required for data: 307014800
I1007 17:39:01.358733  5078 layer_factory.hpp:77] Creating layer Convolution12
I1007 17:39:01.358743  5078 net.cpp:84] Creating Layer Convolution12
I1007 17:39:01.358748  5078 net.cpp:406] Convolution12 <- Eltwise5_penlu11_0_split_0
I1007 17:39:01.358757  5078 net.cpp:380] Convolution12 -> Convolution12
I1007 17:39:01.359951  5078 net.cpp:122] Setting up Convolution12
I1007 17:39:01.359963  5078 net.cpp:129] Top shape: 100 32 14 14 (627200)
I1007 17:39:01.359968  5078 net.cpp:137] Memory required for data: 309523600
I1007 17:39:01.359977  5078 layer_factory.hpp:77] Creating layer BatchNorm12
I1007 17:39:01.359987  5078 net.cpp:84] Creating Layer BatchNorm12
I1007 17:39:01.359992  5078 net.cpp:406] BatchNorm12 <- Convolution12
I1007 17:39:01.359998  5078 net.cpp:367] BatchNorm12 -> Convolution12 (in-place)
I1007 17:39:01.360139  5078 net.cpp:122] Setting up BatchNorm12
I1007 17:39:01.360147  5078 net.cpp:129] Top shape: 100 32 14 14 (627200)
I1007 17:39:01.360152  5078 net.cpp:137] Memory required for data: 312032400
I1007 17:39:01.360162  5078 layer_factory.hpp:77] Creating layer Scale12
I1007 17:39:01.360170  5078 net.cpp:84] Creating Layer Scale12
I1007 17:39:01.360175  5078 net.cpp:406] Scale12 <- Convolution12
I1007 17:39:01.360183  5078 net.cpp:367] Scale12 -> Convolution12 (in-place)
I1007 17:39:01.360214  5078 layer_factory.hpp:77] Creating layer Scale12
I1007 17:39:01.360296  5078 net.cpp:122] Setting up Scale12
I1007 17:39:01.360302  5078 net.cpp:129] Top shape: 100 32 14 14 (627200)
I1007 17:39:01.360306  5078 net.cpp:137] Memory required for data: 314541200
I1007 17:39:01.360313  5078 layer_factory.hpp:77] Creating layer Convolution13
I1007 17:39:01.360325  5078 net.cpp:84] Creating Layer Convolution13
I1007 17:39:01.360330  5078 net.cpp:406] Convolution13 <- Eltwise5_penlu11_0_split_1
I1007 17:39:01.360338  5078 net.cpp:380] Convolution13 -> Convolution13
I1007 17:39:01.361595  5078 net.cpp:122] Setting up Convolution13
I1007 17:39:01.361606  5078 net.cpp:129] Top shape: 100 32 14 14 (627200)
I1007 17:39:01.361611  5078 net.cpp:137] Memory required for data: 317050000
I1007 17:39:01.361619  5078 layer_factory.hpp:77] Creating layer BatchNorm13
I1007 17:39:01.361629  5078 net.cpp:84] Creating Layer BatchNorm13
I1007 17:39:01.361634  5078 net.cpp:406] BatchNorm13 <- Convolution13
I1007 17:39:01.361642  5078 net.cpp:367] BatchNorm13 -> Convolution13 (in-place)
I1007 17:39:01.361779  5078 net.cpp:122] Setting up BatchNorm13
I1007 17:39:01.361786  5078 net.cpp:129] Top shape: 100 32 14 14 (627200)
I1007 17:39:01.361791  5078 net.cpp:137] Memory required for data: 319558800
I1007 17:39:01.361801  5078 layer_factory.hpp:77] Creating layer Scale13
I1007 17:39:01.361809  5078 net.cpp:84] Creating Layer Scale13
I1007 17:39:01.361814  5078 net.cpp:406] Scale13 <- Convolution13
I1007 17:39:01.361824  5078 net.cpp:367] Scale13 -> Convolution13 (in-place)
I1007 17:39:01.361855  5078 layer_factory.hpp:77] Creating layer Scale13
I1007 17:39:01.361937  5078 net.cpp:122] Setting up Scale13
I1007 17:39:01.361944  5078 net.cpp:129] Top shape: 100 32 14 14 (627200)
I1007 17:39:01.361948  5078 net.cpp:137] Memory required for data: 322067600
I1007 17:39:01.361955  5078 layer_factory.hpp:77] Creating layer penlu12
I1007 17:39:01.361965  5078 net.cpp:84] Creating Layer penlu12
I1007 17:39:01.361971  5078 net.cpp:406] penlu12 <- Convolution13
I1007 17:39:01.361979  5078 net.cpp:367] penlu12 -> Convolution13 (in-place)
I1007 17:39:01.362088  5078 net.cpp:122] Setting up penlu12
I1007 17:39:01.362097  5078 net.cpp:129] Top shape: 100 32 14 14 (627200)
I1007 17:39:01.362108  5078 net.cpp:137] Memory required for data: 324576400
I1007 17:39:01.362119  5078 layer_factory.hpp:77] Creating layer Convolution14
I1007 17:39:01.362130  5078 net.cpp:84] Creating Layer Convolution14
I1007 17:39:01.362135  5078 net.cpp:406] Convolution14 <- Convolution13
I1007 17:39:01.362143  5078 net.cpp:380] Convolution14 -> Convolution14
I1007 17:39:01.363211  5078 net.cpp:122] Setting up Convolution14
I1007 17:39:01.363224  5078 net.cpp:129] Top shape: 100 32 14 14 (627200)
I1007 17:39:01.363229  5078 net.cpp:137] Memory required for data: 327085200
I1007 17:39:01.363248  5078 layer_factory.hpp:77] Creating layer BatchNorm14
I1007 17:39:01.363262  5078 net.cpp:84] Creating Layer BatchNorm14
I1007 17:39:01.363267  5078 net.cpp:406] BatchNorm14 <- Convolution14
I1007 17:39:01.363274  5078 net.cpp:367] BatchNorm14 -> Convolution14 (in-place)
I1007 17:39:01.363430  5078 net.cpp:122] Setting up BatchNorm14
I1007 17:39:01.363437  5078 net.cpp:129] Top shape: 100 32 14 14 (627200)
I1007 17:39:01.363441  5078 net.cpp:137] Memory required for data: 329594000
I1007 17:39:01.363451  5078 layer_factory.hpp:77] Creating layer Scale14
I1007 17:39:01.363461  5078 net.cpp:84] Creating Layer Scale14
I1007 17:39:01.363466  5078 net.cpp:406] Scale14 <- Convolution14
I1007 17:39:01.363471  5078 net.cpp:367] Scale14 -> Convolution14 (in-place)
I1007 17:39:01.363503  5078 layer_factory.hpp:77] Creating layer Scale14
I1007 17:39:01.363584  5078 net.cpp:122] Setting up Scale14
I1007 17:39:01.363590  5078 net.cpp:129] Top shape: 100 32 14 14 (627200)
I1007 17:39:01.363595  5078 net.cpp:137] Memory required for data: 332102800
I1007 17:39:01.363601  5078 layer_factory.hpp:77] Creating layer Eltwise6
I1007 17:39:01.363610  5078 net.cpp:84] Creating Layer Eltwise6
I1007 17:39:01.363615  5078 net.cpp:406] Eltwise6 <- Convolution12
I1007 17:39:01.363620  5078 net.cpp:406] Eltwise6 <- Convolution14
I1007 17:39:01.363625  5078 net.cpp:380] Eltwise6 -> Eltwise6
I1007 17:39:01.363642  5078 net.cpp:122] Setting up Eltwise6
I1007 17:39:01.363646  5078 net.cpp:129] Top shape: 100 32 14 14 (627200)
I1007 17:39:01.363648  5078 net.cpp:137] Memory required for data: 334611600
I1007 17:39:01.363651  5078 layer_factory.hpp:77] Creating layer penlu13
I1007 17:39:01.363656  5078 net.cpp:84] Creating Layer penlu13
I1007 17:39:01.363657  5078 net.cpp:406] penlu13 <- Eltwise6
I1007 17:39:01.363662  5078 net.cpp:367] penlu13 -> Eltwise6 (in-place)
I1007 17:39:01.363780  5078 net.cpp:122] Setting up penlu13
I1007 17:39:01.363785  5078 net.cpp:129] Top shape: 100 32 14 14 (627200)
I1007 17:39:01.363786  5078 net.cpp:137] Memory required for data: 337120400
I1007 17:39:01.363790  5078 layer_factory.hpp:77] Creating layer Eltwise6_penlu13_0_split
I1007 17:39:01.363793  5078 net.cpp:84] Creating Layer Eltwise6_penlu13_0_split
I1007 17:39:01.363796  5078 net.cpp:406] Eltwise6_penlu13_0_split <- Eltwise6
I1007 17:39:01.363800  5078 net.cpp:380] Eltwise6_penlu13_0_split -> Eltwise6_penlu13_0_split_0
I1007 17:39:01.363803  5078 net.cpp:380] Eltwise6_penlu13_0_split -> Eltwise6_penlu13_0_split_1
I1007 17:39:01.363824  5078 net.cpp:122] Setting up Eltwise6_penlu13_0_split
I1007 17:39:01.363827  5078 net.cpp:129] Top shape: 100 32 14 14 (627200)
I1007 17:39:01.363831  5078 net.cpp:129] Top shape: 100 32 14 14 (627200)
I1007 17:39:01.363832  5078 net.cpp:137] Memory required for data: 342138000
I1007 17:39:01.363834  5078 layer_factory.hpp:77] Creating layer Convolution15
I1007 17:39:01.363840  5078 net.cpp:84] Creating Layer Convolution15
I1007 17:39:01.363843  5078 net.cpp:406] Convolution15 <- Eltwise6_penlu13_0_split_0
I1007 17:39:01.363847  5078 net.cpp:380] Convolution15 -> Convolution15
I1007 17:39:01.364854  5078 net.cpp:122] Setting up Convolution15
I1007 17:39:01.364863  5078 net.cpp:129] Top shape: 100 32 14 14 (627200)
I1007 17:39:01.364866  5078 net.cpp:137] Memory required for data: 344646800
I1007 17:39:01.364869  5078 layer_factory.hpp:77] Creating layer BatchNorm15
I1007 17:39:01.364876  5078 net.cpp:84] Creating Layer BatchNorm15
I1007 17:39:01.364883  5078 net.cpp:406] BatchNorm15 <- Convolution15
I1007 17:39:01.364887  5078 net.cpp:367] BatchNorm15 -> Convolution15 (in-place)
I1007 17:39:01.365013  5078 net.cpp:122] Setting up BatchNorm15
I1007 17:39:01.365017  5078 net.cpp:129] Top shape: 100 32 14 14 (627200)
I1007 17:39:01.365020  5078 net.cpp:137] Memory required for data: 347155600
I1007 17:39:01.365025  5078 layer_factory.hpp:77] Creating layer Scale15
I1007 17:39:01.365030  5078 net.cpp:84] Creating Layer Scale15
I1007 17:39:01.365031  5078 net.cpp:406] Scale15 <- Convolution15
I1007 17:39:01.365034  5078 net.cpp:367] Scale15 -> Convolution15 (in-place)
I1007 17:39:01.365059  5078 layer_factory.hpp:77] Creating layer Scale15
I1007 17:39:01.365129  5078 net.cpp:122] Setting up Scale15
I1007 17:39:01.365134  5078 net.cpp:129] Top shape: 100 32 14 14 (627200)
I1007 17:39:01.365135  5078 net.cpp:137] Memory required for data: 349664400
I1007 17:39:01.365139  5078 layer_factory.hpp:77] Creating layer penlu14
I1007 17:39:01.365145  5078 net.cpp:84] Creating Layer penlu14
I1007 17:39:01.365147  5078 net.cpp:406] penlu14 <- Convolution15
I1007 17:39:01.365151  5078 net.cpp:367] penlu14 -> Convolution15 (in-place)
I1007 17:39:01.365252  5078 net.cpp:122] Setting up penlu14
I1007 17:39:01.365255  5078 net.cpp:129] Top shape: 100 32 14 14 (627200)
I1007 17:39:01.365257  5078 net.cpp:137] Memory required for data: 352173200
I1007 17:39:01.365262  5078 layer_factory.hpp:77] Creating layer Convolution16
I1007 17:39:01.365268  5078 net.cpp:84] Creating Layer Convolution16
I1007 17:39:01.365270  5078 net.cpp:406] Convolution16 <- Convolution15
I1007 17:39:01.365274  5078 net.cpp:380] Convolution16 -> Convolution16
I1007 17:39:01.366281  5078 net.cpp:122] Setting up Convolution16
I1007 17:39:01.366288  5078 net.cpp:129] Top shape: 100 32 14 14 (627200)
I1007 17:39:01.366291  5078 net.cpp:137] Memory required for data: 354682000
I1007 17:39:01.366297  5078 layer_factory.hpp:77] Creating layer BatchNorm16
I1007 17:39:01.366300  5078 net.cpp:84] Creating Layer BatchNorm16
I1007 17:39:01.366303  5078 net.cpp:406] BatchNorm16 <- Convolution16
I1007 17:39:01.366307  5078 net.cpp:367] BatchNorm16 -> Convolution16 (in-place)
I1007 17:39:01.366431  5078 net.cpp:122] Setting up BatchNorm16
I1007 17:39:01.366436  5078 net.cpp:129] Top shape: 100 32 14 14 (627200)
I1007 17:39:01.366437  5078 net.cpp:137] Memory required for data: 357190800
I1007 17:39:01.366442  5078 layer_factory.hpp:77] Creating layer Scale16
I1007 17:39:01.366446  5078 net.cpp:84] Creating Layer Scale16
I1007 17:39:01.366448  5078 net.cpp:406] Scale16 <- Convolution16
I1007 17:39:01.366452  5078 net.cpp:367] Scale16 -> Convolution16 (in-place)
I1007 17:39:01.366477  5078 layer_factory.hpp:77] Creating layer Scale16
I1007 17:39:01.366549  5078 net.cpp:122] Setting up Scale16
I1007 17:39:01.366552  5078 net.cpp:129] Top shape: 100 32 14 14 (627200)
I1007 17:39:01.366554  5078 net.cpp:137] Memory required for data: 359699600
I1007 17:39:01.366559  5078 layer_factory.hpp:77] Creating layer Eltwise7
I1007 17:39:01.366561  5078 net.cpp:84] Creating Layer Eltwise7
I1007 17:39:01.366564  5078 net.cpp:406] Eltwise7 <- Eltwise6_penlu13_0_split_1
I1007 17:39:01.366566  5078 net.cpp:406] Eltwise7 <- Convolution16
I1007 17:39:01.366570  5078 net.cpp:380] Eltwise7 -> Eltwise7
I1007 17:39:01.366585  5078 net.cpp:122] Setting up Eltwise7
I1007 17:39:01.366590  5078 net.cpp:129] Top shape: 100 32 14 14 (627200)
I1007 17:39:01.366591  5078 net.cpp:137] Memory required for data: 362208400
I1007 17:39:01.366593  5078 layer_factory.hpp:77] Creating layer penlu15
I1007 17:39:01.366597  5078 net.cpp:84] Creating Layer penlu15
I1007 17:39:01.366600  5078 net.cpp:406] penlu15 <- Eltwise7
I1007 17:39:01.366603  5078 net.cpp:367] penlu15 -> Eltwise7 (in-place)
I1007 17:39:01.366704  5078 net.cpp:122] Setting up penlu15
I1007 17:39:01.366709  5078 net.cpp:129] Top shape: 100 32 14 14 (627200)
I1007 17:39:01.366711  5078 net.cpp:137] Memory required for data: 364717200
I1007 17:39:01.366721  5078 layer_factory.hpp:77] Creating layer Eltwise7_penlu15_0_split
I1007 17:39:01.366724  5078 net.cpp:84] Creating Layer Eltwise7_penlu15_0_split
I1007 17:39:01.366727  5078 net.cpp:406] Eltwise7_penlu15_0_split <- Eltwise7
I1007 17:39:01.366730  5078 net.cpp:380] Eltwise7_penlu15_0_split -> Eltwise7_penlu15_0_split_0
I1007 17:39:01.366734  5078 net.cpp:380] Eltwise7_penlu15_0_split -> Eltwise7_penlu15_0_split_1
I1007 17:39:01.366757  5078 net.cpp:122] Setting up Eltwise7_penlu15_0_split
I1007 17:39:01.366760  5078 net.cpp:129] Top shape: 100 32 14 14 (627200)
I1007 17:39:01.366763  5078 net.cpp:129] Top shape: 100 32 14 14 (627200)
I1007 17:39:01.366765  5078 net.cpp:137] Memory required for data: 369734800
I1007 17:39:01.366767  5078 layer_factory.hpp:77] Creating layer Convolution17
I1007 17:39:01.366773  5078 net.cpp:84] Creating Layer Convolution17
I1007 17:39:01.366775  5078 net.cpp:406] Convolution17 <- Eltwise7_penlu15_0_split_0
I1007 17:39:01.366780  5078 net.cpp:380] Convolution17 -> Convolution17
I1007 17:39:01.367482  5078 net.cpp:122] Setting up Convolution17
I1007 17:39:01.367491  5078 net.cpp:129] Top shape: 100 32 14 14 (627200)
I1007 17:39:01.367492  5078 net.cpp:137] Memory required for data: 372243600
I1007 17:39:01.367496  5078 layer_factory.hpp:77] Creating layer BatchNorm17
I1007 17:39:01.367501  5078 net.cpp:84] Creating Layer BatchNorm17
I1007 17:39:01.367504  5078 net.cpp:406] BatchNorm17 <- Convolution17
I1007 17:39:01.367508  5078 net.cpp:367] BatchNorm17 -> Convolution17 (in-place)
I1007 17:39:01.367631  5078 net.cpp:122] Setting up BatchNorm17
I1007 17:39:01.367635  5078 net.cpp:129] Top shape: 100 32 14 14 (627200)
I1007 17:39:01.367637  5078 net.cpp:137] Memory required for data: 374752400
I1007 17:39:01.367641  5078 layer_factory.hpp:77] Creating layer Scale17
I1007 17:39:01.367645  5078 net.cpp:84] Creating Layer Scale17
I1007 17:39:01.367648  5078 net.cpp:406] Scale17 <- Convolution17
I1007 17:39:01.367651  5078 net.cpp:367] Scale17 -> Convolution17 (in-place)
I1007 17:39:01.367676  5078 layer_factory.hpp:77] Creating layer Scale17
I1007 17:39:01.367748  5078 net.cpp:122] Setting up Scale17
I1007 17:39:01.367751  5078 net.cpp:129] Top shape: 100 32 14 14 (627200)
I1007 17:39:01.367753  5078 net.cpp:137] Memory required for data: 377261200
I1007 17:39:01.367758  5078 layer_factory.hpp:77] Creating layer penlu16
I1007 17:39:01.367763  5078 net.cpp:84] Creating Layer penlu16
I1007 17:39:01.367765  5078 net.cpp:406] penlu16 <- Convolution17
I1007 17:39:01.367769  5078 net.cpp:367] penlu16 -> Convolution17 (in-place)
I1007 17:39:01.367868  5078 net.cpp:122] Setting up penlu16
I1007 17:39:01.367872  5078 net.cpp:129] Top shape: 100 32 14 14 (627200)
I1007 17:39:01.367874  5078 net.cpp:137] Memory required for data: 379770000
I1007 17:39:01.367878  5078 layer_factory.hpp:77] Creating layer Convolution18
I1007 17:39:01.367884  5078 net.cpp:84] Creating Layer Convolution18
I1007 17:39:01.367887  5078 net.cpp:406] Convolution18 <- Convolution17
I1007 17:39:01.367890  5078 net.cpp:380] Convolution18 -> Convolution18
I1007 17:39:01.368896  5078 net.cpp:122] Setting up Convolution18
I1007 17:39:01.368904  5078 net.cpp:129] Top shape: 100 32 14 14 (627200)
I1007 17:39:01.368907  5078 net.cpp:137] Memory required for data: 382278800
I1007 17:39:01.368911  5078 layer_factory.hpp:77] Creating layer BatchNorm18
I1007 17:39:01.368916  5078 net.cpp:84] Creating Layer BatchNorm18
I1007 17:39:01.368919  5078 net.cpp:406] BatchNorm18 <- Convolution18
I1007 17:39:01.368923  5078 net.cpp:367] BatchNorm18 -> Convolution18 (in-place)
I1007 17:39:01.369047  5078 net.cpp:122] Setting up BatchNorm18
I1007 17:39:01.369051  5078 net.cpp:129] Top shape: 100 32 14 14 (627200)
I1007 17:39:01.369053  5078 net.cpp:137] Memory required for data: 384787600
I1007 17:39:01.369058  5078 layer_factory.hpp:77] Creating layer Scale18
I1007 17:39:01.369063  5078 net.cpp:84] Creating Layer Scale18
I1007 17:39:01.369065  5078 net.cpp:406] Scale18 <- Convolution18
I1007 17:39:01.369068  5078 net.cpp:367] Scale18 -> Convolution18 (in-place)
I1007 17:39:01.369102  5078 layer_factory.hpp:77] Creating layer Scale18
I1007 17:39:01.369196  5078 net.cpp:122] Setting up Scale18
I1007 17:39:01.369201  5078 net.cpp:129] Top shape: 100 32 14 14 (627200)
I1007 17:39:01.369204  5078 net.cpp:137] Memory required for data: 387296400
I1007 17:39:01.369217  5078 layer_factory.hpp:77] Creating layer Eltwise8
I1007 17:39:01.369223  5078 net.cpp:84] Creating Layer Eltwise8
I1007 17:39:01.369236  5078 net.cpp:406] Eltwise8 <- Eltwise7_penlu15_0_split_1
I1007 17:39:01.369240  5078 net.cpp:406] Eltwise8 <- Convolution18
I1007 17:39:01.369257  5078 net.cpp:380] Eltwise8 -> Eltwise8
I1007 17:39:01.369290  5078 net.cpp:122] Setting up Eltwise8
I1007 17:39:01.369295  5078 net.cpp:129] Top shape: 100 32 14 14 (627200)
I1007 17:39:01.369299  5078 net.cpp:137] Memory required for data: 389805200
I1007 17:39:01.369303  5078 layer_factory.hpp:77] Creating layer penlu17
I1007 17:39:01.369312  5078 net.cpp:84] Creating Layer penlu17
I1007 17:39:01.369315  5078 net.cpp:406] penlu17 <- Eltwise8
I1007 17:39:01.369320  5078 net.cpp:367] penlu17 -> Eltwise8 (in-place)
I1007 17:39:01.369441  5078 net.cpp:122] Setting up penlu17
I1007 17:39:01.369446  5078 net.cpp:129] Top shape: 100 32 14 14 (627200)
I1007 17:39:01.369447  5078 net.cpp:137] Memory required for data: 392314000
I1007 17:39:01.369452  5078 layer_factory.hpp:77] Creating layer Eltwise8_penlu17_0_split
I1007 17:39:01.369457  5078 net.cpp:84] Creating Layer Eltwise8_penlu17_0_split
I1007 17:39:01.369458  5078 net.cpp:406] Eltwise8_penlu17_0_split <- Eltwise8
I1007 17:39:01.369462  5078 net.cpp:380] Eltwise8_penlu17_0_split -> Eltwise8_penlu17_0_split_0
I1007 17:39:01.369467  5078 net.cpp:380] Eltwise8_penlu17_0_split -> Eltwise8_penlu17_0_split_1
I1007 17:39:01.369490  5078 net.cpp:122] Setting up Eltwise8_penlu17_0_split
I1007 17:39:01.369494  5078 net.cpp:129] Top shape: 100 32 14 14 (627200)
I1007 17:39:01.369498  5078 net.cpp:129] Top shape: 100 32 14 14 (627200)
I1007 17:39:01.369499  5078 net.cpp:137] Memory required for data: 397331600
I1007 17:39:01.369501  5078 layer_factory.hpp:77] Creating layer Convolution19
I1007 17:39:01.369509  5078 net.cpp:84] Creating Layer Convolution19
I1007 17:39:01.369511  5078 net.cpp:406] Convolution19 <- Eltwise8_penlu17_0_split_0
I1007 17:39:01.369515  5078 net.cpp:380] Convolution19 -> Convolution19
I1007 17:39:01.370954  5078 net.cpp:122] Setting up Convolution19
I1007 17:39:01.370965  5078 net.cpp:129] Top shape: 100 32 14 14 (627200)
I1007 17:39:01.370967  5078 net.cpp:137] Memory required for data: 399840400
I1007 17:39:01.370972  5078 layer_factory.hpp:77] Creating layer BatchNorm19
I1007 17:39:01.370976  5078 net.cpp:84] Creating Layer BatchNorm19
I1007 17:39:01.370980  5078 net.cpp:406] BatchNorm19 <- Convolution19
I1007 17:39:01.370983  5078 net.cpp:367] BatchNorm19 -> Convolution19 (in-place)
I1007 17:39:01.371124  5078 net.cpp:122] Setting up BatchNorm19
I1007 17:39:01.371127  5078 net.cpp:129] Top shape: 100 32 14 14 (627200)
I1007 17:39:01.371130  5078 net.cpp:137] Memory required for data: 402349200
I1007 17:39:01.371135  5078 layer_factory.hpp:77] Creating layer Scale19
I1007 17:39:01.371140  5078 net.cpp:84] Creating Layer Scale19
I1007 17:39:01.371141  5078 net.cpp:406] Scale19 <- Convolution19
I1007 17:39:01.371145  5078 net.cpp:367] Scale19 -> Convolution19 (in-place)
I1007 17:39:01.371177  5078 layer_factory.hpp:77] Creating layer Scale19
I1007 17:39:01.371266  5078 net.cpp:122] Setting up Scale19
I1007 17:39:01.371284  5078 net.cpp:129] Top shape: 100 32 14 14 (627200)
I1007 17:39:01.371289  5078 net.cpp:137] Memory required for data: 404858000
I1007 17:39:01.371295  5078 layer_factory.hpp:77] Creating layer penlu18
I1007 17:39:01.371314  5078 net.cpp:84] Creating Layer penlu18
I1007 17:39:01.371327  5078 net.cpp:406] penlu18 <- Convolution19
I1007 17:39:01.371332  5078 net.cpp:367] penlu18 -> Convolution19 (in-place)
I1007 17:39:01.371462  5078 net.cpp:122] Setting up penlu18
I1007 17:39:01.371471  5078 net.cpp:129] Top shape: 100 32 14 14 (627200)
I1007 17:39:01.371484  5078 net.cpp:137] Memory required for data: 407366800
I1007 17:39:01.371493  5078 layer_factory.hpp:77] Creating layer Convolution20
I1007 17:39:01.371507  5078 net.cpp:84] Creating Layer Convolution20
I1007 17:39:01.371512  5078 net.cpp:406] Convolution20 <- Convolution19
I1007 17:39:01.371520  5078 net.cpp:380] Convolution20 -> Convolution20
I1007 17:39:01.372607  5078 net.cpp:122] Setting up Convolution20
I1007 17:39:01.372619  5078 net.cpp:129] Top shape: 100 32 14 14 (627200)
I1007 17:39:01.372624  5078 net.cpp:137] Memory required for data: 409875600
I1007 17:39:01.372632  5078 layer_factory.hpp:77] Creating layer BatchNorm20
I1007 17:39:01.372643  5078 net.cpp:84] Creating Layer BatchNorm20
I1007 17:39:01.372648  5078 net.cpp:406] BatchNorm20 <- Convolution20
I1007 17:39:01.372655  5078 net.cpp:367] BatchNorm20 -> Convolution20 (in-place)
I1007 17:39:01.372802  5078 net.cpp:122] Setting up BatchNorm20
I1007 17:39:01.372809  5078 net.cpp:129] Top shape: 100 32 14 14 (627200)
I1007 17:39:01.372813  5078 net.cpp:137] Memory required for data: 412384400
I1007 17:39:01.372822  5078 layer_factory.hpp:77] Creating layer Scale20
I1007 17:39:01.372830  5078 net.cpp:84] Creating Layer Scale20
I1007 17:39:01.372836  5078 net.cpp:406] Scale20 <- Convolution20
I1007 17:39:01.372843  5078 net.cpp:367] Scale20 -> Convolution20 (in-place)
I1007 17:39:01.372874  5078 layer_factory.hpp:77] Creating layer Scale20
I1007 17:39:01.372953  5078 net.cpp:122] Setting up Scale20
I1007 17:39:01.372957  5078 net.cpp:129] Top shape: 100 32 14 14 (627200)
I1007 17:39:01.372959  5078 net.cpp:137] Memory required for data: 414893200
I1007 17:39:01.372963  5078 layer_factory.hpp:77] Creating layer Eltwise9
I1007 17:39:01.372968  5078 net.cpp:84] Creating Layer Eltwise9
I1007 17:39:01.372972  5078 net.cpp:406] Eltwise9 <- Eltwise8_penlu17_0_split_1
I1007 17:39:01.372974  5078 net.cpp:406] Eltwise9 <- Convolution20
I1007 17:39:01.372977  5078 net.cpp:380] Eltwise9 -> Eltwise9
I1007 17:39:01.372993  5078 net.cpp:122] Setting up Eltwise9
I1007 17:39:01.372997  5078 net.cpp:129] Top shape: 100 32 14 14 (627200)
I1007 17:39:01.372999  5078 net.cpp:137] Memory required for data: 417402000
I1007 17:39:01.373001  5078 layer_factory.hpp:77] Creating layer penlu19
I1007 17:39:01.373006  5078 net.cpp:84] Creating Layer penlu19
I1007 17:39:01.373009  5078 net.cpp:406] penlu19 <- Eltwise9
I1007 17:39:01.373013  5078 net.cpp:367] penlu19 -> Eltwise9 (in-place)
I1007 17:39:01.373121  5078 net.cpp:122] Setting up penlu19
I1007 17:39:01.373126  5078 net.cpp:129] Top shape: 100 32 14 14 (627200)
I1007 17:39:01.373127  5078 net.cpp:137] Memory required for data: 419910800
I1007 17:39:01.373131  5078 layer_factory.hpp:77] Creating layer Eltwise9_penlu19_0_split
I1007 17:39:01.373136  5078 net.cpp:84] Creating Layer Eltwise9_penlu19_0_split
I1007 17:39:01.373138  5078 net.cpp:406] Eltwise9_penlu19_0_split <- Eltwise9
I1007 17:39:01.373142  5078 net.cpp:380] Eltwise9_penlu19_0_split -> Eltwise9_penlu19_0_split_0
I1007 17:39:01.373145  5078 net.cpp:380] Eltwise9_penlu19_0_split -> Eltwise9_penlu19_0_split_1
I1007 17:39:01.373168  5078 net.cpp:122] Setting up Eltwise9_penlu19_0_split
I1007 17:39:01.373172  5078 net.cpp:129] Top shape: 100 32 14 14 (627200)
I1007 17:39:01.373175  5078 net.cpp:129] Top shape: 100 32 14 14 (627200)
I1007 17:39:01.373178  5078 net.cpp:137] Memory required for data: 424928400
I1007 17:39:01.373179  5078 layer_factory.hpp:77] Creating layer Convolution21
I1007 17:39:01.373184  5078 net.cpp:84] Creating Layer Convolution21
I1007 17:39:01.373188  5078 net.cpp:406] Convolution21 <- Eltwise9_penlu19_0_split_0
I1007 17:39:01.373191  5078 net.cpp:380] Convolution21 -> Convolution21
I1007 17:39:01.374579  5078 net.cpp:122] Setting up Convolution21
I1007 17:39:01.374588  5078 net.cpp:129] Top shape: 100 32 14 14 (627200)
I1007 17:39:01.374590  5078 net.cpp:137] Memory required for data: 427437200
I1007 17:39:01.374595  5078 layer_factory.hpp:77] Creating layer BatchNorm21
I1007 17:39:01.374600  5078 net.cpp:84] Creating Layer BatchNorm21
I1007 17:39:01.374610  5078 net.cpp:406] BatchNorm21 <- Convolution21
I1007 17:39:01.374615  5078 net.cpp:367] BatchNorm21 -> Convolution21 (in-place)
I1007 17:39:01.374752  5078 net.cpp:122] Setting up BatchNorm21
I1007 17:39:01.374756  5078 net.cpp:129] Top shape: 100 32 14 14 (627200)
I1007 17:39:01.374759  5078 net.cpp:137] Memory required for data: 429946000
I1007 17:39:01.374763  5078 layer_factory.hpp:77] Creating layer Scale21
I1007 17:39:01.374768  5078 net.cpp:84] Creating Layer Scale21
I1007 17:39:01.374771  5078 net.cpp:406] Scale21 <- Convolution21
I1007 17:39:01.374774  5078 net.cpp:367] Scale21 -> Convolution21 (in-place)
I1007 17:39:01.374800  5078 layer_factory.hpp:77] Creating layer Scale21
I1007 17:39:01.374876  5078 net.cpp:122] Setting up Scale21
I1007 17:39:01.374881  5078 net.cpp:129] Top shape: 100 32 14 14 (627200)
I1007 17:39:01.374883  5078 net.cpp:137] Memory required for data: 432454800
I1007 17:39:01.374886  5078 layer_factory.hpp:77] Creating layer penlu20
I1007 17:39:01.374892  5078 net.cpp:84] Creating Layer penlu20
I1007 17:39:01.374894  5078 net.cpp:406] penlu20 <- Convolution21
I1007 17:39:01.374898  5078 net.cpp:367] penlu20 -> Convolution21 (in-place)
I1007 17:39:01.375007  5078 net.cpp:122] Setting up penlu20
I1007 17:39:01.375011  5078 net.cpp:129] Top shape: 100 32 14 14 (627200)
I1007 17:39:01.375013  5078 net.cpp:137] Memory required for data: 434963600
I1007 17:39:01.375018  5078 layer_factory.hpp:77] Creating layer Convolution22
I1007 17:39:01.375025  5078 net.cpp:84] Creating Layer Convolution22
I1007 17:39:01.375027  5078 net.cpp:406] Convolution22 <- Convolution21
I1007 17:39:01.375030  5078 net.cpp:380] Convolution22 -> Convolution22
I1007 17:39:01.376112  5078 net.cpp:122] Setting up Convolution22
I1007 17:39:01.376122  5078 net.cpp:129] Top shape: 100 32 14 14 (627200)
I1007 17:39:01.376126  5078 net.cpp:137] Memory required for data: 437472400
I1007 17:39:01.376129  5078 layer_factory.hpp:77] Creating layer BatchNorm22
I1007 17:39:01.376134  5078 net.cpp:84] Creating Layer BatchNorm22
I1007 17:39:01.376137  5078 net.cpp:406] BatchNorm22 <- Convolution22
I1007 17:39:01.376142  5078 net.cpp:367] BatchNorm22 -> Convolution22 (in-place)
I1007 17:39:01.376277  5078 net.cpp:122] Setting up BatchNorm22
I1007 17:39:01.376282  5078 net.cpp:129] Top shape: 100 32 14 14 (627200)
I1007 17:39:01.376284  5078 net.cpp:137] Memory required for data: 439981200
I1007 17:39:01.376289  5078 layer_factory.hpp:77] Creating layer Scale22
I1007 17:39:01.376293  5078 net.cpp:84] Creating Layer Scale22
I1007 17:39:01.376296  5078 net.cpp:406] Scale22 <- Convolution22
I1007 17:39:01.376299  5078 net.cpp:367] Scale22 -> Convolution22 (in-place)
I1007 17:39:01.376325  5078 layer_factory.hpp:77] Creating layer Scale22
I1007 17:39:01.376401  5078 net.cpp:122] Setting up Scale22
I1007 17:39:01.376405  5078 net.cpp:129] Top shape: 100 32 14 14 (627200)
I1007 17:39:01.376407  5078 net.cpp:137] Memory required for data: 442490000
I1007 17:39:01.376411  5078 layer_factory.hpp:77] Creating layer Eltwise10
I1007 17:39:01.376415  5078 net.cpp:84] Creating Layer Eltwise10
I1007 17:39:01.376417  5078 net.cpp:406] Eltwise10 <- Eltwise9_penlu19_0_split_1
I1007 17:39:01.376420  5078 net.cpp:406] Eltwise10 <- Convolution22
I1007 17:39:01.376425  5078 net.cpp:380] Eltwise10 -> Eltwise10
I1007 17:39:01.376440  5078 net.cpp:122] Setting up Eltwise10
I1007 17:39:01.376444  5078 net.cpp:129] Top shape: 100 32 14 14 (627200)
I1007 17:39:01.376446  5078 net.cpp:137] Memory required for data: 444998800
I1007 17:39:01.376448  5078 layer_factory.hpp:77] Creating layer penlu21
I1007 17:39:01.376452  5078 net.cpp:84] Creating Layer penlu21
I1007 17:39:01.376456  5078 net.cpp:406] penlu21 <- Eltwise10
I1007 17:39:01.376458  5078 net.cpp:367] penlu21 -> Eltwise10 (in-place)
I1007 17:39:01.376566  5078 net.cpp:122] Setting up penlu21
I1007 17:39:01.376571  5078 net.cpp:129] Top shape: 100 32 14 14 (627200)
I1007 17:39:01.376574  5078 net.cpp:137] Memory required for data: 447507600
I1007 17:39:01.376577  5078 layer_factory.hpp:77] Creating layer Eltwise10_penlu21_0_split
I1007 17:39:01.376587  5078 net.cpp:84] Creating Layer Eltwise10_penlu21_0_split
I1007 17:39:01.376590  5078 net.cpp:406] Eltwise10_penlu21_0_split <- Eltwise10
I1007 17:39:01.376593  5078 net.cpp:380] Eltwise10_penlu21_0_split -> Eltwise10_penlu21_0_split_0
I1007 17:39:01.376597  5078 net.cpp:380] Eltwise10_penlu21_0_split -> Eltwise10_penlu21_0_split_1
I1007 17:39:01.376621  5078 net.cpp:122] Setting up Eltwise10_penlu21_0_split
I1007 17:39:01.376626  5078 net.cpp:129] Top shape: 100 32 14 14 (627200)
I1007 17:39:01.376628  5078 net.cpp:129] Top shape: 100 32 14 14 (627200)
I1007 17:39:01.376631  5078 net.cpp:137] Memory required for data: 452525200
I1007 17:39:01.376632  5078 layer_factory.hpp:77] Creating layer Convolution23
I1007 17:39:01.376638  5078 net.cpp:84] Creating Layer Convolution23
I1007 17:39:01.376641  5078 net.cpp:406] Convolution23 <- Eltwise10_penlu21_0_split_0
I1007 17:39:01.376646  5078 net.cpp:380] Convolution23 -> Convolution23
I1007 17:39:01.377539  5078 net.cpp:122] Setting up Convolution23
I1007 17:39:01.377548  5078 net.cpp:129] Top shape: 100 64 7 7 (313600)
I1007 17:39:01.377552  5078 net.cpp:137] Memory required for data: 453779600
I1007 17:39:01.377555  5078 layer_factory.hpp:77] Creating layer BatchNorm23
I1007 17:39:01.377560  5078 net.cpp:84] Creating Layer BatchNorm23
I1007 17:39:01.377563  5078 net.cpp:406] BatchNorm23 <- Convolution23
I1007 17:39:01.377568  5078 net.cpp:367] BatchNorm23 -> Convolution23 (in-place)
I1007 17:39:01.377699  5078 net.cpp:122] Setting up BatchNorm23
I1007 17:39:01.377704  5078 net.cpp:129] Top shape: 100 64 7 7 (313600)
I1007 17:39:01.377707  5078 net.cpp:137] Memory required for data: 455034000
I1007 17:39:01.377710  5078 layer_factory.hpp:77] Creating layer Scale23
I1007 17:39:01.377714  5078 net.cpp:84] Creating Layer Scale23
I1007 17:39:01.377717  5078 net.cpp:406] Scale23 <- Convolution23
I1007 17:39:01.377720  5078 net.cpp:367] Scale23 -> Convolution23 (in-place)
I1007 17:39:01.377746  5078 layer_factory.hpp:77] Creating layer Scale23
I1007 17:39:01.377826  5078 net.cpp:122] Setting up Scale23
I1007 17:39:01.377830  5078 net.cpp:129] Top shape: 100 64 7 7 (313600)
I1007 17:39:01.377832  5078 net.cpp:137] Memory required for data: 456288400
I1007 17:39:01.377836  5078 layer_factory.hpp:77] Creating layer Convolution24
I1007 17:39:01.377843  5078 net.cpp:84] Creating Layer Convolution24
I1007 17:39:01.377846  5078 net.cpp:406] Convolution24 <- Eltwise10_penlu21_0_split_1
I1007 17:39:01.377851  5078 net.cpp:380] Convolution24 -> Convolution24
I1007 17:39:01.379688  5078 net.cpp:122] Setting up Convolution24
I1007 17:39:01.379698  5078 net.cpp:129] Top shape: 100 64 7 7 (313600)
I1007 17:39:01.379700  5078 net.cpp:137] Memory required for data: 457542800
I1007 17:39:01.379704  5078 layer_factory.hpp:77] Creating layer BatchNorm24
I1007 17:39:01.379709  5078 net.cpp:84] Creating Layer BatchNorm24
I1007 17:39:01.379711  5078 net.cpp:406] BatchNorm24 <- Convolution24
I1007 17:39:01.379716  5078 net.cpp:367] BatchNorm24 -> Convolution24 (in-place)
I1007 17:39:01.379851  5078 net.cpp:122] Setting up BatchNorm24
I1007 17:39:01.379856  5078 net.cpp:129] Top shape: 100 64 7 7 (313600)
I1007 17:39:01.379858  5078 net.cpp:137] Memory required for data: 458797200
I1007 17:39:01.379863  5078 layer_factory.hpp:77] Creating layer Scale24
I1007 17:39:01.379868  5078 net.cpp:84] Creating Layer Scale24
I1007 17:39:01.379869  5078 net.cpp:406] Scale24 <- Convolution24
I1007 17:39:01.379873  5078 net.cpp:367] Scale24 -> Convolution24 (in-place)
I1007 17:39:01.379899  5078 layer_factory.hpp:77] Creating layer Scale24
I1007 17:39:01.379976  5078 net.cpp:122] Setting up Scale24
I1007 17:39:01.379981  5078 net.cpp:129] Top shape: 100 64 7 7 (313600)
I1007 17:39:01.379983  5078 net.cpp:137] Memory required for data: 460051600
I1007 17:39:01.379987  5078 layer_factory.hpp:77] Creating layer penlu22
I1007 17:39:01.379993  5078 net.cpp:84] Creating Layer penlu22
I1007 17:39:01.379995  5078 net.cpp:406] penlu22 <- Convolution24
I1007 17:39:01.380007  5078 net.cpp:367] penlu22 -> Convolution24 (in-place)
I1007 17:39:01.380115  5078 net.cpp:122] Setting up penlu22
I1007 17:39:01.380120  5078 net.cpp:129] Top shape: 100 64 7 7 (313600)
I1007 17:39:01.380122  5078 net.cpp:137] Memory required for data: 461306000
I1007 17:39:01.380127  5078 layer_factory.hpp:77] Creating layer Convolution25
I1007 17:39:01.380133  5078 net.cpp:84] Creating Layer Convolution25
I1007 17:39:01.380136  5078 net.cpp:406] Convolution25 <- Convolution24
I1007 17:39:01.380141  5078 net.cpp:380] Convolution25 -> Convolution25
I1007 17:39:01.382110  5078 net.cpp:122] Setting up Convolution25
I1007 17:39:01.382119  5078 net.cpp:129] Top shape: 100 64 7 7 (313600)
I1007 17:39:01.382122  5078 net.cpp:137] Memory required for data: 462560400
I1007 17:39:01.382127  5078 layer_factory.hpp:77] Creating layer BatchNorm25
I1007 17:39:01.382133  5078 net.cpp:84] Creating Layer BatchNorm25
I1007 17:39:01.382134  5078 net.cpp:406] BatchNorm25 <- Convolution25
I1007 17:39:01.382139  5078 net.cpp:367] BatchNorm25 -> Convolution25 (in-place)
I1007 17:39:01.382278  5078 net.cpp:122] Setting up BatchNorm25
I1007 17:39:01.382282  5078 net.cpp:129] Top shape: 100 64 7 7 (313600)
I1007 17:39:01.382284  5078 net.cpp:137] Memory required for data: 463814800
I1007 17:39:01.382289  5078 layer_factory.hpp:77] Creating layer Scale25
I1007 17:39:01.382294  5078 net.cpp:84] Creating Layer Scale25
I1007 17:39:01.382297  5078 net.cpp:406] Scale25 <- Convolution25
I1007 17:39:01.382299  5078 net.cpp:367] Scale25 -> Convolution25 (in-place)
I1007 17:39:01.382326  5078 layer_factory.hpp:77] Creating layer Scale25
I1007 17:39:01.382406  5078 net.cpp:122] Setting up Scale25
I1007 17:39:01.382411  5078 net.cpp:129] Top shape: 100 64 7 7 (313600)
I1007 17:39:01.382412  5078 net.cpp:137] Memory required for data: 465069200
I1007 17:39:01.382416  5078 layer_factory.hpp:77] Creating layer Eltwise11
I1007 17:39:01.382421  5078 net.cpp:84] Creating Layer Eltwise11
I1007 17:39:01.382423  5078 net.cpp:406] Eltwise11 <- Convolution23
I1007 17:39:01.382426  5078 net.cpp:406] Eltwise11 <- Convolution25
I1007 17:39:01.382431  5078 net.cpp:380] Eltwise11 -> Eltwise11
I1007 17:39:01.382446  5078 net.cpp:122] Setting up Eltwise11
I1007 17:39:01.382449  5078 net.cpp:129] Top shape: 100 64 7 7 (313600)
I1007 17:39:01.382452  5078 net.cpp:137] Memory required for data: 466323600
I1007 17:39:01.382453  5078 layer_factory.hpp:77] Creating layer penlu23
I1007 17:39:01.382458  5078 net.cpp:84] Creating Layer penlu23
I1007 17:39:01.382462  5078 net.cpp:406] penlu23 <- Eltwise11
I1007 17:39:01.382464  5078 net.cpp:367] penlu23 -> Eltwise11 (in-place)
I1007 17:39:01.382572  5078 net.cpp:122] Setting up penlu23
I1007 17:39:01.382576  5078 net.cpp:129] Top shape: 100 64 7 7 (313600)
I1007 17:39:01.382578  5078 net.cpp:137] Memory required for data: 467578000
I1007 17:39:01.382583  5078 layer_factory.hpp:77] Creating layer Eltwise11_penlu23_0_split
I1007 17:39:01.382586  5078 net.cpp:84] Creating Layer Eltwise11_penlu23_0_split
I1007 17:39:01.382588  5078 net.cpp:406] Eltwise11_penlu23_0_split <- Eltwise11
I1007 17:39:01.382592  5078 net.cpp:380] Eltwise11_penlu23_0_split -> Eltwise11_penlu23_0_split_0
I1007 17:39:01.382596  5078 net.cpp:380] Eltwise11_penlu23_0_split -> Eltwise11_penlu23_0_split_1
I1007 17:39:01.382618  5078 net.cpp:122] Setting up Eltwise11_penlu23_0_split
I1007 17:39:01.382622  5078 net.cpp:129] Top shape: 100 64 7 7 (313600)
I1007 17:39:01.382625  5078 net.cpp:129] Top shape: 100 64 7 7 (313600)
I1007 17:39:01.382627  5078 net.cpp:137] Memory required for data: 470086800
I1007 17:39:01.382629  5078 layer_factory.hpp:77] Creating layer Convolution26
I1007 17:39:01.382637  5078 net.cpp:84] Creating Layer Convolution26
I1007 17:39:01.382639  5078 net.cpp:406] Convolution26 <- Eltwise11_penlu23_0_split_0
I1007 17:39:01.382643  5078 net.cpp:380] Convolution26 -> Convolution26
I1007 17:39:01.384330  5078 net.cpp:122] Setting up Convolution26
I1007 17:39:01.384340  5078 net.cpp:129] Top shape: 100 64 7 7 (313600)
I1007 17:39:01.384341  5078 net.cpp:137] Memory required for data: 471341200
I1007 17:39:01.384352  5078 layer_factory.hpp:77] Creating layer BatchNorm26
I1007 17:39:01.384358  5078 net.cpp:84] Creating Layer BatchNorm26
I1007 17:39:01.384361  5078 net.cpp:406] BatchNorm26 <- Convolution26
I1007 17:39:01.384366  5078 net.cpp:367] BatchNorm26 -> Convolution26 (in-place)
I1007 17:39:01.384501  5078 net.cpp:122] Setting up BatchNorm26
I1007 17:39:01.384506  5078 net.cpp:129] Top shape: 100 64 7 7 (313600)
I1007 17:39:01.384508  5078 net.cpp:137] Memory required for data: 472595600
I1007 17:39:01.384513  5078 layer_factory.hpp:77] Creating layer Scale26
I1007 17:39:01.384517  5078 net.cpp:84] Creating Layer Scale26
I1007 17:39:01.384521  5078 net.cpp:406] Scale26 <- Convolution26
I1007 17:39:01.384523  5078 net.cpp:367] Scale26 -> Convolution26 (in-place)
I1007 17:39:01.384551  5078 layer_factory.hpp:77] Creating layer Scale26
I1007 17:39:01.384627  5078 net.cpp:122] Setting up Scale26
I1007 17:39:01.384632  5078 net.cpp:129] Top shape: 100 64 7 7 (313600)
I1007 17:39:01.384634  5078 net.cpp:137] Memory required for data: 473850000
I1007 17:39:01.384639  5078 layer_factory.hpp:77] Creating layer penlu24
I1007 17:39:01.384644  5078 net.cpp:84] Creating Layer penlu24
I1007 17:39:01.384646  5078 net.cpp:406] penlu24 <- Convolution26
I1007 17:39:01.384649  5078 net.cpp:367] penlu24 -> Convolution26 (in-place)
I1007 17:39:01.384758  5078 net.cpp:122] Setting up penlu24
I1007 17:39:01.384763  5078 net.cpp:129] Top shape: 100 64 7 7 (313600)
I1007 17:39:01.384764  5078 net.cpp:137] Memory required for data: 475104400
I1007 17:39:01.384769  5078 layer_factory.hpp:77] Creating layer Convolution27
I1007 17:39:01.384775  5078 net.cpp:84] Creating Layer Convolution27
I1007 17:39:01.384778  5078 net.cpp:406] Convolution27 <- Convolution26
I1007 17:39:01.384781  5078 net.cpp:380] Convolution27 -> Convolution27
I1007 17:39:01.386430  5078 net.cpp:122] Setting up Convolution27
I1007 17:39:01.386437  5078 net.cpp:129] Top shape: 100 64 7 7 (313600)
I1007 17:39:01.386440  5078 net.cpp:137] Memory required for data: 476358800
I1007 17:39:01.386445  5078 layer_factory.hpp:77] Creating layer BatchNorm27
I1007 17:39:01.386451  5078 net.cpp:84] Creating Layer BatchNorm27
I1007 17:39:01.386453  5078 net.cpp:406] BatchNorm27 <- Convolution27
I1007 17:39:01.386456  5078 net.cpp:367] BatchNorm27 -> Convolution27 (in-place)
I1007 17:39:01.386597  5078 net.cpp:122] Setting up BatchNorm27
I1007 17:39:01.386601  5078 net.cpp:129] Top shape: 100 64 7 7 (313600)
I1007 17:39:01.386605  5078 net.cpp:137] Memory required for data: 477613200
I1007 17:39:01.386628  5078 layer_factory.hpp:77] Creating layer Scale27
I1007 17:39:01.386641  5078 net.cpp:84] Creating Layer Scale27
I1007 17:39:01.386644  5078 net.cpp:406] Scale27 <- Convolution27
I1007 17:39:01.386648  5078 net.cpp:367] Scale27 -> Convolution27 (in-place)
I1007 17:39:01.386677  5078 layer_factory.hpp:77] Creating layer Scale27
I1007 17:39:01.386755  5078 net.cpp:122] Setting up Scale27
I1007 17:39:01.386759  5078 net.cpp:129] Top shape: 100 64 7 7 (313600)
I1007 17:39:01.386761  5078 net.cpp:137] Memory required for data: 478867600
I1007 17:39:01.386765  5078 layer_factory.hpp:77] Creating layer Eltwise12
I1007 17:39:01.386770  5078 net.cpp:84] Creating Layer Eltwise12
I1007 17:39:01.386772  5078 net.cpp:406] Eltwise12 <- Eltwise11_penlu23_0_split_1
I1007 17:39:01.386775  5078 net.cpp:406] Eltwise12 <- Convolution27
I1007 17:39:01.386778  5078 net.cpp:380] Eltwise12 -> Eltwise12
I1007 17:39:01.386798  5078 net.cpp:122] Setting up Eltwise12
I1007 17:39:01.386803  5078 net.cpp:129] Top shape: 100 64 7 7 (313600)
I1007 17:39:01.386806  5078 net.cpp:137] Memory required for data: 480122000
I1007 17:39:01.386807  5078 layer_factory.hpp:77] Creating layer penlu25
I1007 17:39:01.386812  5078 net.cpp:84] Creating Layer penlu25
I1007 17:39:01.386816  5078 net.cpp:406] penlu25 <- Eltwise12
I1007 17:39:01.386818  5078 net.cpp:367] penlu25 -> Eltwise12 (in-place)
I1007 17:39:01.386929  5078 net.cpp:122] Setting up penlu25
I1007 17:39:01.386940  5078 net.cpp:129] Top shape: 100 64 7 7 (313600)
I1007 17:39:01.386942  5078 net.cpp:137] Memory required for data: 481376400
I1007 17:39:01.386947  5078 layer_factory.hpp:77] Creating layer Eltwise12_penlu25_0_split
I1007 17:39:01.386951  5078 net.cpp:84] Creating Layer Eltwise12_penlu25_0_split
I1007 17:39:01.386953  5078 net.cpp:406] Eltwise12_penlu25_0_split <- Eltwise12
I1007 17:39:01.386958  5078 net.cpp:380] Eltwise12_penlu25_0_split -> Eltwise12_penlu25_0_split_0
I1007 17:39:01.386962  5078 net.cpp:380] Eltwise12_penlu25_0_split -> Eltwise12_penlu25_0_split_1
I1007 17:39:01.386986  5078 net.cpp:122] Setting up Eltwise12_penlu25_0_split
I1007 17:39:01.386991  5078 net.cpp:129] Top shape: 100 64 7 7 (313600)
I1007 17:39:01.386992  5078 net.cpp:129] Top shape: 100 64 7 7 (313600)
I1007 17:39:01.386994  5078 net.cpp:137] Memory required for data: 483885200
I1007 17:39:01.386997  5078 layer_factory.hpp:77] Creating layer Convolution28
I1007 17:39:01.387003  5078 net.cpp:84] Creating Layer Convolution28
I1007 17:39:01.387006  5078 net.cpp:406] Convolution28 <- Eltwise12_penlu25_0_split_0
I1007 17:39:01.387009  5078 net.cpp:380] Convolution28 -> Convolution28
I1007 17:39:01.388689  5078 net.cpp:122] Setting up Convolution28
I1007 17:39:01.388698  5078 net.cpp:129] Top shape: 100 64 7 7 (313600)
I1007 17:39:01.388701  5078 net.cpp:137] Memory required for data: 485139600
I1007 17:39:01.388705  5078 layer_factory.hpp:77] Creating layer BatchNorm28
I1007 17:39:01.388711  5078 net.cpp:84] Creating Layer BatchNorm28
I1007 17:39:01.388715  5078 net.cpp:406] BatchNorm28 <- Convolution28
I1007 17:39:01.388718  5078 net.cpp:367] BatchNorm28 -> Convolution28 (in-place)
I1007 17:39:01.388856  5078 net.cpp:122] Setting up BatchNorm28
I1007 17:39:01.388861  5078 net.cpp:129] Top shape: 100 64 7 7 (313600)
I1007 17:39:01.388864  5078 net.cpp:137] Memory required for data: 486394000
I1007 17:39:01.388869  5078 layer_factory.hpp:77] Creating layer Scale28
I1007 17:39:01.388872  5078 net.cpp:84] Creating Layer Scale28
I1007 17:39:01.388875  5078 net.cpp:406] Scale28 <- Convolution28
I1007 17:39:01.388878  5078 net.cpp:367] Scale28 -> Convolution28 (in-place)
I1007 17:39:01.388906  5078 layer_factory.hpp:77] Creating layer Scale28
I1007 17:39:01.388984  5078 net.cpp:122] Setting up Scale28
I1007 17:39:01.388988  5078 net.cpp:129] Top shape: 100 64 7 7 (313600)
I1007 17:39:01.388990  5078 net.cpp:137] Memory required for data: 487648400
I1007 17:39:01.388994  5078 layer_factory.hpp:77] Creating layer penlu26
I1007 17:39:01.389000  5078 net.cpp:84] Creating Layer penlu26
I1007 17:39:01.389003  5078 net.cpp:406] penlu26 <- Convolution28
I1007 17:39:01.389006  5078 net.cpp:367] penlu26 -> Convolution28 (in-place)
I1007 17:39:01.389117  5078 net.cpp:122] Setting up penlu26
I1007 17:39:01.389122  5078 net.cpp:129] Top shape: 100 64 7 7 (313600)
I1007 17:39:01.389124  5078 net.cpp:137] Memory required for data: 488902800
I1007 17:39:01.389128  5078 layer_factory.hpp:77] Creating layer Convolution29
I1007 17:39:01.389135  5078 net.cpp:84] Creating Layer Convolution29
I1007 17:39:01.389137  5078 net.cpp:406] Convolution29 <- Convolution28
I1007 17:39:01.389142  5078 net.cpp:380] Convolution29 -> Convolution29
I1007 17:39:01.391113  5078 net.cpp:122] Setting up Convolution29
I1007 17:39:01.391122  5078 net.cpp:129] Top shape: 100 64 7 7 (313600)
I1007 17:39:01.391125  5078 net.cpp:137] Memory required for data: 490157200
I1007 17:39:01.391129  5078 layer_factory.hpp:77] Creating layer BatchNorm29
I1007 17:39:01.391134  5078 net.cpp:84] Creating Layer BatchNorm29
I1007 17:39:01.391137  5078 net.cpp:406] BatchNorm29 <- Convolution29
I1007 17:39:01.391141  5078 net.cpp:367] BatchNorm29 -> Convolution29 (in-place)
I1007 17:39:01.391310  5078 net.cpp:122] Setting up BatchNorm29
I1007 17:39:01.391316  5078 net.cpp:129] Top shape: 100 64 7 7 (313600)
I1007 17:39:01.391319  5078 net.cpp:137] Memory required for data: 491411600
I1007 17:39:01.391324  5078 layer_factory.hpp:77] Creating layer Scale29
I1007 17:39:01.391327  5078 net.cpp:84] Creating Layer Scale29
I1007 17:39:01.391337  5078 net.cpp:406] Scale29 <- Convolution29
I1007 17:39:01.391341  5078 net.cpp:367] Scale29 -> Convolution29 (in-place)
I1007 17:39:01.391371  5078 layer_factory.hpp:77] Creating layer Scale29
I1007 17:39:01.391450  5078 net.cpp:122] Setting up Scale29
I1007 17:39:01.391455  5078 net.cpp:129] Top shape: 100 64 7 7 (313600)
I1007 17:39:01.391458  5078 net.cpp:137] Memory required for data: 492666000
I1007 17:39:01.391461  5078 layer_factory.hpp:77] Creating layer Eltwise13
I1007 17:39:01.391465  5078 net.cpp:84] Creating Layer Eltwise13
I1007 17:39:01.391468  5078 net.cpp:406] Eltwise13 <- Eltwise12_penlu25_0_split_1
I1007 17:39:01.391470  5078 net.cpp:406] Eltwise13 <- Convolution29
I1007 17:39:01.391474  5078 net.cpp:380] Eltwise13 -> Eltwise13
I1007 17:39:01.391490  5078 net.cpp:122] Setting up Eltwise13
I1007 17:39:01.391494  5078 net.cpp:129] Top shape: 100 64 7 7 (313600)
I1007 17:39:01.391496  5078 net.cpp:137] Memory required for data: 493920400
I1007 17:39:01.391499  5078 layer_factory.hpp:77] Creating layer penlu27
I1007 17:39:01.391504  5078 net.cpp:84] Creating Layer penlu27
I1007 17:39:01.391505  5078 net.cpp:406] penlu27 <- Eltwise13
I1007 17:39:01.391510  5078 net.cpp:367] penlu27 -> Eltwise13 (in-place)
I1007 17:39:01.391623  5078 net.cpp:122] Setting up penlu27
I1007 17:39:01.391628  5078 net.cpp:129] Top shape: 100 64 7 7 (313600)
I1007 17:39:01.391629  5078 net.cpp:137] Memory required for data: 495174800
I1007 17:39:01.391634  5078 layer_factory.hpp:77] Creating layer Eltwise13_penlu27_0_split
I1007 17:39:01.391638  5078 net.cpp:84] Creating Layer Eltwise13_penlu27_0_split
I1007 17:39:01.391640  5078 net.cpp:406] Eltwise13_penlu27_0_split <- Eltwise13
I1007 17:39:01.391644  5078 net.cpp:380] Eltwise13_penlu27_0_split -> Eltwise13_penlu27_0_split_0
I1007 17:39:01.391647  5078 net.cpp:380] Eltwise13_penlu27_0_split -> Eltwise13_penlu27_0_split_1
I1007 17:39:01.391671  5078 net.cpp:122] Setting up Eltwise13_penlu27_0_split
I1007 17:39:01.391675  5078 net.cpp:129] Top shape: 100 64 7 7 (313600)
I1007 17:39:01.391677  5078 net.cpp:129] Top shape: 100 64 7 7 (313600)
I1007 17:39:01.391680  5078 net.cpp:137] Memory required for data: 497683600
I1007 17:39:01.391682  5078 layer_factory.hpp:77] Creating layer Convolution30
I1007 17:39:01.391688  5078 net.cpp:84] Creating Layer Convolution30
I1007 17:39:01.391691  5078 net.cpp:406] Convolution30 <- Eltwise13_penlu27_0_split_0
I1007 17:39:01.391695  5078 net.cpp:380] Convolution30 -> Convolution30
I1007 17:39:01.393357  5078 net.cpp:122] Setting up Convolution30
I1007 17:39:01.393368  5078 net.cpp:129] Top shape: 100 64 7 7 (313600)
I1007 17:39:01.393370  5078 net.cpp:137] Memory required for data: 498938000
I1007 17:39:01.393374  5078 layer_factory.hpp:77] Creating layer BatchNorm30
I1007 17:39:01.393379  5078 net.cpp:84] Creating Layer BatchNorm30
I1007 17:39:01.393383  5078 net.cpp:406] BatchNorm30 <- Convolution30
I1007 17:39:01.393386  5078 net.cpp:367] BatchNorm30 -> Convolution30 (in-place)
I1007 17:39:01.393525  5078 net.cpp:122] Setting up BatchNorm30
I1007 17:39:01.393529  5078 net.cpp:129] Top shape: 100 64 7 7 (313600)
I1007 17:39:01.393532  5078 net.cpp:137] Memory required for data: 500192400
I1007 17:39:01.393537  5078 layer_factory.hpp:77] Creating layer Scale30
I1007 17:39:01.393540  5078 net.cpp:84] Creating Layer Scale30
I1007 17:39:01.393543  5078 net.cpp:406] Scale30 <- Convolution30
I1007 17:39:01.393548  5078 net.cpp:367] Scale30 -> Convolution30 (in-place)
I1007 17:39:01.393573  5078 layer_factory.hpp:77] Creating layer Scale30
I1007 17:39:01.393653  5078 net.cpp:122] Setting up Scale30
I1007 17:39:01.393657  5078 net.cpp:129] Top shape: 100 64 7 7 (313600)
I1007 17:39:01.393659  5078 net.cpp:137] Memory required for data: 501446800
I1007 17:39:01.393663  5078 layer_factory.hpp:77] Creating layer penlu28
I1007 17:39:01.393668  5078 net.cpp:84] Creating Layer penlu28
I1007 17:39:01.393671  5078 net.cpp:406] penlu28 <- Convolution30
I1007 17:39:01.393674  5078 net.cpp:367] penlu28 -> Convolution30 (in-place)
I1007 17:39:01.393795  5078 net.cpp:122] Setting up penlu28
I1007 17:39:01.393800  5078 net.cpp:129] Top shape: 100 64 7 7 (313600)
I1007 17:39:01.393801  5078 net.cpp:137] Memory required for data: 502701200
I1007 17:39:01.393806  5078 layer_factory.hpp:77] Creating layer Convolution31
I1007 17:39:01.393812  5078 net.cpp:84] Creating Layer Convolution31
I1007 17:39:01.393815  5078 net.cpp:406] Convolution31 <- Convolution30
I1007 17:39:01.393820  5078 net.cpp:380] Convolution31 -> Convolution31
I1007 17:39:01.395825  5078 net.cpp:122] Setting up Convolution31
I1007 17:39:01.395834  5078 net.cpp:129] Top shape: 100 64 7 7 (313600)
I1007 17:39:01.395836  5078 net.cpp:137] Memory required for data: 503955600
I1007 17:39:01.395841  5078 layer_factory.hpp:77] Creating layer BatchNorm31
I1007 17:39:01.395846  5078 net.cpp:84] Creating Layer BatchNorm31
I1007 17:39:01.395849  5078 net.cpp:406] BatchNorm31 <- Convolution31
I1007 17:39:01.395853  5078 net.cpp:367] BatchNorm31 -> Convolution31 (in-place)
I1007 17:39:01.395995  5078 net.cpp:122] Setting up BatchNorm31
I1007 17:39:01.396000  5078 net.cpp:129] Top shape: 100 64 7 7 (313600)
I1007 17:39:01.396003  5078 net.cpp:137] Memory required for data: 505210000
I1007 17:39:01.396008  5078 layer_factory.hpp:77] Creating layer Scale31
I1007 17:39:01.396011  5078 net.cpp:84] Creating Layer Scale31
I1007 17:39:01.396013  5078 net.cpp:406] Scale31 <- Convolution31
I1007 17:39:01.396016  5078 net.cpp:367] Scale31 -> Convolution31 (in-place)
I1007 17:39:01.396044  5078 layer_factory.hpp:77] Creating layer Scale31
I1007 17:39:01.396126  5078 net.cpp:122] Setting up Scale31
I1007 17:39:01.396131  5078 net.cpp:129] Top shape: 100 64 7 7 (313600)
I1007 17:39:01.396132  5078 net.cpp:137] Memory required for data: 506464400
I1007 17:39:01.396136  5078 layer_factory.hpp:77] Creating layer Eltwise14
I1007 17:39:01.396142  5078 net.cpp:84] Creating Layer Eltwise14
I1007 17:39:01.396144  5078 net.cpp:406] Eltwise14 <- Eltwise13_penlu27_0_split_1
I1007 17:39:01.396147  5078 net.cpp:406] Eltwise14 <- Convolution31
I1007 17:39:01.396150  5078 net.cpp:380] Eltwise14 -> Eltwise14
I1007 17:39:01.396167  5078 net.cpp:122] Setting up Eltwise14
I1007 17:39:01.396170  5078 net.cpp:129] Top shape: 100 64 7 7 (313600)
I1007 17:39:01.396173  5078 net.cpp:137] Memory required for data: 507718800
I1007 17:39:01.396174  5078 layer_factory.hpp:77] Creating layer penlu29
I1007 17:39:01.396179  5078 net.cpp:84] Creating Layer penlu29
I1007 17:39:01.396181  5078 net.cpp:406] penlu29 <- Eltwise14
I1007 17:39:01.396185  5078 net.cpp:367] penlu29 -> Eltwise14 (in-place)
I1007 17:39:01.396297  5078 net.cpp:122] Setting up penlu29
I1007 17:39:01.396301  5078 net.cpp:129] Top shape: 100 64 7 7 (313600)
I1007 17:39:01.396303  5078 net.cpp:137] Memory required for data: 508973200
I1007 17:39:01.396307  5078 layer_factory.hpp:77] Creating layer Eltwise14_penlu29_0_split
I1007 17:39:01.396311  5078 net.cpp:84] Creating Layer Eltwise14_penlu29_0_split
I1007 17:39:01.396314  5078 net.cpp:406] Eltwise14_penlu29_0_split <- Eltwise14
I1007 17:39:01.396317  5078 net.cpp:380] Eltwise14_penlu29_0_split -> Eltwise14_penlu29_0_split_0
I1007 17:39:01.396322  5078 net.cpp:380] Eltwise14_penlu29_0_split -> Eltwise14_penlu29_0_split_1
I1007 17:39:01.396344  5078 net.cpp:122] Setting up Eltwise14_penlu29_0_split
I1007 17:39:01.396348  5078 net.cpp:129] Top shape: 100 64 7 7 (313600)
I1007 17:39:01.396351  5078 net.cpp:129] Top shape: 100 64 7 7 (313600)
I1007 17:39:01.396353  5078 net.cpp:137] Memory required for data: 511482000
I1007 17:39:01.396355  5078 layer_factory.hpp:77] Creating layer Convolution32
I1007 17:39:01.396360  5078 net.cpp:84] Creating Layer Convolution32
I1007 17:39:01.396363  5078 net.cpp:406] Convolution32 <- Eltwise14_penlu29_0_split_0
I1007 17:39:01.396368  5078 net.cpp:380] Convolution32 -> Convolution32
I1007 17:39:01.398071  5078 net.cpp:122] Setting up Convolution32
I1007 17:39:01.398078  5078 net.cpp:129] Top shape: 100 64 7 7 (313600)
I1007 17:39:01.398082  5078 net.cpp:137] Memory required for data: 512736400
I1007 17:39:01.398092  5078 layer_factory.hpp:77] Creating layer BatchNorm32
I1007 17:39:01.398098  5078 net.cpp:84] Creating Layer BatchNorm32
I1007 17:39:01.398100  5078 net.cpp:406] BatchNorm32 <- Convolution32
I1007 17:39:01.398104  5078 net.cpp:367] BatchNorm32 -> Convolution32 (in-place)
I1007 17:39:01.398247  5078 net.cpp:122] Setting up BatchNorm32
I1007 17:39:01.398252  5078 net.cpp:129] Top shape: 100 64 7 7 (313600)
I1007 17:39:01.398253  5078 net.cpp:137] Memory required for data: 513990800
I1007 17:39:01.398258  5078 layer_factory.hpp:77] Creating layer Scale32
I1007 17:39:01.398262  5078 net.cpp:84] Creating Layer Scale32
I1007 17:39:01.398264  5078 net.cpp:406] Scale32 <- Convolution32
I1007 17:39:01.398267  5078 net.cpp:367] Scale32 -> Convolution32 (in-place)
I1007 17:39:01.398296  5078 layer_factory.hpp:77] Creating layer Scale32
I1007 17:39:01.398375  5078 net.cpp:122] Setting up Scale32
I1007 17:39:01.398380  5078 net.cpp:129] Top shape: 100 64 7 7 (313600)
I1007 17:39:01.398381  5078 net.cpp:137] Memory required for data: 515245200
I1007 17:39:01.398386  5078 layer_factory.hpp:77] Creating layer penlu30
I1007 17:39:01.398391  5078 net.cpp:84] Creating Layer penlu30
I1007 17:39:01.398393  5078 net.cpp:406] penlu30 <- Convolution32
I1007 17:39:01.398397  5078 net.cpp:367] penlu30 -> Convolution32 (in-place)
I1007 17:39:01.398509  5078 net.cpp:122] Setting up penlu30
I1007 17:39:01.398514  5078 net.cpp:129] Top shape: 100 64 7 7 (313600)
I1007 17:39:01.398515  5078 net.cpp:137] Memory required for data: 516499600
I1007 17:39:01.398519  5078 layer_factory.hpp:77] Creating layer Convolution33
I1007 17:39:01.398526  5078 net.cpp:84] Creating Layer Convolution33
I1007 17:39:01.398528  5078 net.cpp:406] Convolution33 <- Convolution32
I1007 17:39:01.398533  5078 net.cpp:380] Convolution33 -> Convolution33
I1007 17:39:01.400542  5078 net.cpp:122] Setting up Convolution33
I1007 17:39:01.400550  5078 net.cpp:129] Top shape: 100 64 7 7 (313600)
I1007 17:39:01.400553  5078 net.cpp:137] Memory required for data: 517754000
I1007 17:39:01.400558  5078 layer_factory.hpp:77] Creating layer BatchNorm33
I1007 17:39:01.400563  5078 net.cpp:84] Creating Layer BatchNorm33
I1007 17:39:01.400566  5078 net.cpp:406] BatchNorm33 <- Convolution33
I1007 17:39:01.400569  5078 net.cpp:367] BatchNorm33 -> Convolution33 (in-place)
I1007 17:39:01.400712  5078 net.cpp:122] Setting up BatchNorm33
I1007 17:39:01.400717  5078 net.cpp:129] Top shape: 100 64 7 7 (313600)
I1007 17:39:01.400718  5078 net.cpp:137] Memory required for data: 519008400
I1007 17:39:01.400723  5078 layer_factory.hpp:77] Creating layer Scale33
I1007 17:39:01.400727  5078 net.cpp:84] Creating Layer Scale33
I1007 17:39:01.400730  5078 net.cpp:406] Scale33 <- Convolution33
I1007 17:39:01.400733  5078 net.cpp:367] Scale33 -> Convolution33 (in-place)
I1007 17:39:01.400760  5078 layer_factory.hpp:77] Creating layer Scale33
I1007 17:39:01.400840  5078 net.cpp:122] Setting up Scale33
I1007 17:39:01.400845  5078 net.cpp:129] Top shape: 100 64 7 7 (313600)
I1007 17:39:01.400846  5078 net.cpp:137] Memory required for data: 520262800
I1007 17:39:01.400851  5078 layer_factory.hpp:77] Creating layer Eltwise15
I1007 17:39:01.400854  5078 net.cpp:84] Creating Layer Eltwise15
I1007 17:39:01.400857  5078 net.cpp:406] Eltwise15 <- Eltwise14_penlu29_0_split_1
I1007 17:39:01.400861  5078 net.cpp:406] Eltwise15 <- Convolution33
I1007 17:39:01.400863  5078 net.cpp:380] Eltwise15 -> Eltwise15
I1007 17:39:01.400880  5078 net.cpp:122] Setting up Eltwise15
I1007 17:39:01.400883  5078 net.cpp:129] Top shape: 100 64 7 7 (313600)
I1007 17:39:01.400885  5078 net.cpp:137] Memory required for data: 521517200
I1007 17:39:01.400888  5078 layer_factory.hpp:77] Creating layer penlu31
I1007 17:39:01.400893  5078 net.cpp:84] Creating Layer penlu31
I1007 17:39:01.400895  5078 net.cpp:406] penlu31 <- Eltwise15
I1007 17:39:01.400899  5078 net.cpp:367] penlu31 -> Eltwise15 (in-place)
I1007 17:39:01.401008  5078 net.cpp:122] Setting up penlu31
I1007 17:39:01.401012  5078 net.cpp:129] Top shape: 100 64 7 7 (313600)
I1007 17:39:01.401021  5078 net.cpp:137] Memory required for data: 522771600
I1007 17:39:01.401026  5078 layer_factory.hpp:77] Creating layer Pooling1
I1007 17:39:01.401031  5078 net.cpp:84] Creating Layer Pooling1
I1007 17:39:01.401033  5078 net.cpp:406] Pooling1 <- Eltwise15
I1007 17:39:01.401037  5078 net.cpp:380] Pooling1 -> Pooling1
I1007 17:39:01.401192  5078 net.cpp:122] Setting up Pooling1
I1007 17:39:01.401198  5078 net.cpp:129] Top shape: 100 64 1 1 (6400)
I1007 17:39:01.401201  5078 net.cpp:137] Memory required for data: 522797200
I1007 17:39:01.401202  5078 layer_factory.hpp:77] Creating layer InnerProduct1
I1007 17:39:01.401212  5078 net.cpp:84] Creating Layer InnerProduct1
I1007 17:39:01.401216  5078 net.cpp:406] InnerProduct1 <- Pooling1
I1007 17:39:01.401218  5078 net.cpp:380] InnerProduct1 -> InnerProduct1
I1007 17:39:01.401315  5078 net.cpp:122] Setting up InnerProduct1
I1007 17:39:01.401320  5078 net.cpp:129] Top shape: 100 10 (1000)
I1007 17:39:01.401322  5078 net.cpp:137] Memory required for data: 522801200
I1007 17:39:01.401326  5078 layer_factory.hpp:77] Creating layer SoftmaxWithLoss1
I1007 17:39:01.401330  5078 net.cpp:84] Creating Layer SoftmaxWithLoss1
I1007 17:39:01.401334  5078 net.cpp:406] SoftmaxWithLoss1 <- InnerProduct1
I1007 17:39:01.401336  5078 net.cpp:406] SoftmaxWithLoss1 <- Data2
I1007 17:39:01.401340  5078 net.cpp:380] SoftmaxWithLoss1 -> SoftmaxWithLoss1
…
I1007 17:39:01.405077  5078 net.cpp:294] The NetState phase (1) differed from the phase (0) specified by a rule in layer Data1
I1007 17:39:01.405838  5078 net.cpp:51] Initializing net from parameters: 
name: "resnet_cifar10"
state {
  phase: TEST
}
layer {
  name: "Data1"
  type: "Data"
  top: "Data1"
  top: "Data2"
  include {
    phase: TEST
  }
  transform_param {
    mean_file: "/home/x306/caffe/xn/PENLU/data/cifar10/mean.binaryproto"
  }
  data_param {
    source: "/home/x306/caffe/xn/PENLU/data/cifar10/cifar10_test_lmdb"
    batch_size: 100
    backend: LMDB
  }
}
layer {
  name: "Convolution1"
  type: "Convolution"
  bottom: "Data1"
  top: "Convolution1"
  param {
    lr_mult: 1
    decay_mult: 1
  }
  param {
    lr_mult: 2
    decay_mult: 0
  }
  convolution_param {
    num_output: 16
    pad: 1
    kernel_size: 3
    stride: 1
    weight_filler {
      type: "gaussian"
      std: 0.118
    }
    bias_filler {
      type: "constant"
      value: 0
    }
  }
}
layer {
  name: "BatchNorm1"
  type: "BatchNorm"
  bottom: "Convolution1"
  top: "Convolution1"
  param {
    lr_mult: 0
    decay_mult: 0
  }
  param {
    lr_mult: 0
    decay_mult: 0
  }
  param {
    lr_mult: 0
    decay_mult: 0
  }
}
layer {
  name: "Scale1"
  type: "Scale"
  bottom: "Convolution1"
  top: "Convolution1"
  scale_param {
    bias_term: true
  }
}
layer {
  name: "penlu1"
  type: "PENLU"
  bottom: "Convolution1"
  top: "Convolution1"
  param {
    lr_mult: 2
    decay_mult: 2
  }
  param {
    lr_mult: 2
    decay_mult: 2
  }
  param {
    lr_mult: 0
    decay_mult: 0
  }
  penlu_param {
    alpha_filler {
      type: "constant"
      value: 2
    }
    beta_filler {
      type: "constant"
      value: 1
    }
    eta_filler {
      type: "constant"
      value: 1
    }
  }
}
layer {
  name: "Convolution2"
  type: "Convolution"
  bottom: "Convolution1"
  top: "Convolution2"
  param {
    lr_mult: 1
    decay_mult: 1
  }
  param {
    lr_mult: 2
    decay_mult: 0
  }
  convolution_param {
    num_output: 16
    pad: 1
    kernel_size: 3
    stride: 1
    weight_filler {
      type: "gaussian"
      std: 0.118
    }
    bias_filler {
      type: "constant"
      value: 0
    }
  }
}
layer {
  name: "BatchNorm2"
  type: "BatchNorm"
  bottom: "Convolution2"
  top: "Convolution2"
  param {
    lr_mult: 0
    decay_mult: 0
  }
  param {
    lr_mult: 0
    decay_mult: 0
  }
  param {
    lr_mult: 0
    decay_mult: 0
  }
}
layer {
  name: "Scale2"
  type: "Scale"
  bottom: "Convolution2"
  top: "Convolution2"
  scale_param {
    bias_term: true
  }
}
layer {
  name: "penlu2"
  type: "PENLU"
  bottom: "Convolution2"
  top: "Convolution2"
  param {
    lr_mult: 2
    decay_mult: 2
  }
  param {
    lr_mult: 2
    decay_mult: 2
  }
  param {
    lr_mult: 0
    decay_mult: 0
  }
  penlu_param {
    alpha_filler {
      type: "constant"
      value: 2
    }
    beta_filler {
      type: "constant"
      value: 1
    }
    eta_filler {
      type: "constant"
      value: 1
    }
  }
}
layer {
  name: "Convolution3"
  type: "Convolution"
  bottom: "Convolution2"
  top: "Convolution3"
  param {
    lr_mult: 1
    decay_mult: 1
  }
  param {
    lr_mult: 2
    decay_mult: 0
  }
  convolution_param {
    num_output: 16
    pad: 1
    kernel_size: 3
    stride: 1
    weight_filler {
      type: "gaussian"
      std: 0.118
    }
    bias_filler {
      type: "constant"
      value: 0
    }
  }
}
layer {
  name: "BatchNorm3"
  type: "BatchNorm"
  bottom: "Convolution3"
  top: "Convolution3"
  param {
    lr_mult: 0
    decay_mult: 0
  }
  param {
    lr_mult: 0
    decay_mult: 0
  }
  param {
    lr_mult: 0
    decay_mult: 0
  }
}
layer {
  name: "Scale3"
  type: "Scale"
  bottom: "Convolution3"
  top: "Convolution3"
  scale_param {
    bias_term: true
  }
}
layer {
  name: "Eltwise1"
  type: "Eltwise"
  bottom: "Convolution1"
  bottom: "Convolution3"
  top: "Eltwise1"
  eltwise_param {
    operation: SUM
  }
}
layer {
  name: "penlu3"
  type: "PENLU"
  bottom: "Eltwise1"
  top: "Eltwise1"
  param {
    lr_mult: 2
    decay_mult: 2
  }
  param {
    lr_mult: 2
    decay_mult: 2
  }
  param {
    lr_mult: 0
    decay_mult: 0
  }
  penlu_param {
    alpha_filler {
      type: "constant"
      value: 2
    }
    beta_filler {
      type: "constant"
      value: 1
    }
    eta_filler {
      type: "constant"
      value: 1
    }
  }
}
layer {
  name: "Convolution4"
  type: "Convolution"
  bottom: "Eltwise1"
  top: "Convolution4"
  param {
    lr_mult: 1
    decay_mult: 1
  }
  param {
    lr_mult: 2
    decay_mult: 0
  }
  convolution_param {
    num_output: 16
    pad: 1
    kernel_size: 3
    stride: 1
    weight_filler {
      type: "gaussian"
      std: 0.118
    }
    bias_filler {
      type: "constant"
      value: 0
    }
  }
}
layer {
  name: "BatchNorm4"
  type: "BatchNorm"
  bottom: "Convolution4"
  top: "Convolution4"
  param {
    lr_mult: 0
    decay_mult: 0
  }
  param {
    lr_mult: 0
    decay_mult: 0
  }
  param {
    lr_mult: 0
    decay_mult: 0
  }
}
layer {
  name: "Scale4"
  type: "Scale"
  bottom: "Convolution4"
  top: "Convolution4"
  scale_param {
    bias_term: true
  }
}
layer {
  name: "penlu4"
  type: "PENLU"
  bottom: "Convolution4"
  top: "Convolution4"
  param {
    lr_mult: 2
    decay_mult: 2
  }
  param {
    lr_mult: 2
    decay_mult: 2
  }
  param {
    lr_mult: 0
    decay_mult: 0
  }
  penlu_param {
    alpha_filler {
      type: "constant"
      value: 2
    }
    beta_filler {
      type: "constant"
      value: 1
    }
    eta_filler {
      type: "constant"
      value: 1
    }
  }
}
layer {
  name: "Convolution5"
  type: "Convolution"
  bottom: "Convolution4"
  top: "Convolution5"
  param {
    lr_mult: 1
    decay_mult: 1
  }
  param {
    lr_mult: 2
    decay_mult: 0
  }
  convolution_param {
    num_output: 16
    pad: 1
    kernel_size: 3
    stride: 1
    weight_filler {
      type: "gaussian"
      std: 0.118
    }
    bias_filler {
      type: "constant"
      value: 0
    }
  }
}
layer {
  name: "BatchNorm5"
  type: "BatchNorm"
  bottom: "Convolution5"
  top: "Convolution5"
  param {
    lr_mult: 0
    decay_mult: 0
  }
  param {
    lr_mult: 0
    decay_mult: 0
  }
  param {
    lr_mult: 0
    decay_mult: 0
  }
}
layer {
  name: "Scale5"
  type: "Scale"
  bottom: "Convolution5"
  top: "Convolution5"
  scale_param {
    bias_term: true
  }
}
layer {
  name: "Eltwise2"
  type: "Eltwise"
  bottom: "Eltwise1"
  bottom: "Convolution5"
  top: "Eltwise2"
  eltwise_param {
    operation: SUM
  }
}
layer {
  name: "penlu5"
  type: "PENLU"
  bottom: "Eltwise2"
  top: "Eltwise2"
  param {
    lr_mult: 2
    decay_mult: 2
  }
  param {
    lr_mult: 2
    decay_mult: 2
  }
  param {
    lr_mult: 0
    decay_mult: 0
  }
  penlu_param {
    alpha_filler {
      type: "constant"
      value: 2
    }
    beta_filler {
      type: "constant"
      value: 1
    }
    eta_filler {
      type: "constant"
      value: 1
    }
  }
}
layer {
  name: "Convolution6"
  type: "Convolution"
  bottom: "Eltwise2"
  top: "Convolution6"
  param {
    lr_mult: 1
    decay_mult: 1
  }
  param {
    lr_mult: 2
    decay_mult: 0
  }
  convolution_param {
    num_output: 16
    pad: 1
    kernel_size: 3
    stride: 1
    weight_filler {
      type: "gaussian"
      std: 0.118
    }
    bias_filler {
      type: "constant"
      value: 0
    }
  }
}
layer {
  name: "BatchNorm6"
  type: "BatchNorm"
  bottom: "Convolution6"
  top: "Convolution6"
  param {
    lr_mult: 0
    decay_mult: 0
  }
  param {
    lr_mult: 0
    decay_mult: 0
  }
  param {
    lr_mult: 0
    decay_mult: 0
  }
}
layer {
  name: "Scale6"
  type: "Scale"
  bottom: "Convolution6"
  top: "Convolution6"
  scale_param {
    bias_term: true
  }
}
layer {
  name: "penlu6"
  type: "PENLU"
  bottom: "Convolution6"
  top: "Convolution6"
  param {
    lr_mult: 2
    decay_mult: 2
  }
  param {
    lr_mult: 2
    decay_mult: 2
  }
  param {
    lr_mult: 0
    decay_mult: 0
  }
  penlu_param {
    alpha_filler {
      type: "constant"
      value: 2
    }
    beta_filler {
      type: "constant"
      value: 1
    }
    eta_filler {
      type: "constant"
      value: 1
    }
  }
}
layer {
  name: "Convolution7"
  type: "Convolution"
  bottom: "Convolution6"
  top: "Convolution7"
  param {
    lr_mult: 1
    decay_mult: 1
  }
  param {
    lr_mult: 2
    decay_mult: 0
  }
  convolution_param {
    num_output: 16
    pad: 1
    kernel_size: 3
    stride: 1
    weight_filler {
      type: "gaussian"
      std: 0.118
    }
    bias_filler {
      type: "constant"
      value: 0
    }
  }
}
layer {
  name: "BatchNorm7"
  type: "BatchNorm"
  bottom: "Convolution7"
  top: "Convolution7"
  param {
    lr_mult: 0
    decay_mult: 0
  }
  param {
    lr_mult: 0
    decay_mult: 0
  }
  param {
    lr_mult: 0
    decay_mult: 0
  }
}
layer {
  name: "Scale7"
  type: "Scale"
  bottom: "Convolution7"
  top: "Convolution7"
  scale_param {
    bias_term: true
  }
}
layer {
  name: "Eltwise3"
  type: "Eltwise"
  bottom: "Eltwise2"
  bottom: "Convolution7"
  top: "Eltwise3"
  eltwise_param {
    operation: SUM
  }
}
layer {
  name: "penlu7"
  type: "PENLU"
  bottom: "Eltwise3"
  top: "Eltwise3"
  param {
    lr_mult: 2
    decay_mult: 2
  }
  param {
    lr_mult: 2
    decay_mult: 2
  }
  param {
    lr_mult: 0
    decay_mult: 0
  }
  penlu_param {
    alpha_filler {
      type: "constant"
      value: 2
    }
    beta_filler {
      type: "constant"
      value: 1
    }
    eta_filler {
      type: "constant"
      value: 1
    }
  }
}
layer {
  name: "Convolution8"
  type: "Convolution"
  bottom: "Eltwise3"
  top: "Convolution8"
  param {
    lr_mult: 1
    decay_mult: 1
  }
  param {
    lr_mult: 2
    decay_mult: 0
  }
  convolution_param {
    num_output: 16
    pad: 1
    kernel_size: 3
    stride: 1
    weight_filler {
      type: "gaussian"
      std: 0.118
    }
    bias_filler {
      type: "constant"
      value: 0
    }
  }
}
layer {
  name: "BatchNorm8"
  type: "BatchNorm"
  bottom: "Convolution8"
  top: "Convolution8"
  param {
    lr_mult: 0
    decay_mult: 0
  }
  param {
    lr_mult: 0
    decay_mult: 0
  }
  param {
    lr_mult: 0
    decay_mult: 0
  }
}
layer {
  name: "Scale8"
  type: "Scale"
  bottom: "Convolution8"
  top: "Convolution8"
  scale_param {
    bias_term: true
  }
}
layer {
  name: "penlu8"
  type: "PENLU"
  bottom: "Convolution8"
  top: "Convolution8"
  param {
    lr_mult: 2
    decay_mult: 2
  }
  param {
    lr_mult: 2
    decay_mult: 2
  }
  param {
    lr_mult: 0
    decay_mult: 0
  }
  penlu_param {
    alpha_filler {
      type: "constant"
      value: 2
    }
    beta_filler {
      type: "constant"
      value: 1
    }
    eta_filler {
      type: "constant"
      value: 1
    }
  }
}
layer {
  name: "Convolution9"
  type: "Convolution"
  bottom: "Convolution8"
  top: "Convolution9"
  param {
    lr_mult: 1
    decay_mult: 1
  }
  param {
    lr_mult: 2
    decay_mult: 0
  }
  convolution_param {
    num_output: 16
    pad: 1
    kernel_size: 3
    stride: 1
    weight_filler {
      type: "gaussian"
      std: 0.118
    }
    bias_filler {
      type: "constant"
      value: 0
    }
  }
}
layer {
  name: "BatchNorm9"
  type: "BatchNorm"
  bottom: "Convolution9"
  top: "Convolution9"
  param {
    lr_mult: 0
    decay_mult: 0
  }
  param {
    lr_mult: 0
    decay_mult: 0
  }
  param {
    lr_mult: 0
    decay_mult: 0
  }
}
layer {
  name: "Scale9"
  type: "Scale"
  bottom: "Convolution9"
  top: "Convolution9"
  scale_param {
    bias_term: true
  }
}
layer {
  name: "Eltwise4"
  type: "Eltwise"
  bottom: "Eltwise3"
  bottom: "Convolution9"
  top: "Eltwise4"
  eltwise_param {
    operation: SUM
  }
}
layer {
  name: "penlu9"
  type: "PENLU"
  bottom: "Eltwise4"
  top: "Eltwise4"
  param {
    lr_mult: 2
    decay_mult: 2
  }
  param {
    lr_mult: 2
    decay_mult: 2
  }
  param {
    lr_mult: 0
    decay_mult: 0
  }
  penlu_param {
    alpha_filler {
      type: "constant"
      value: 2
    }
    beta_filler {
      type: "constant"
      value: 1
    }
    eta_filler {
      type: "constant"
      value: 1
    }
  }
}
layer {
  name: "Convolution10"
  type: "Convolution"
  bottom: "Eltwise4"
  top: "Convolution10"
  param {
    lr_mult: 1
    decay_mult: 1
  }
  param {
    lr_mult: 2
    decay_mult: 0
  }
  convolution_param {
    num_output: 16
    pad: 1
    kernel_size: 3
    stride: 1
    weight_filler {
      type: "gaussian"
      std: 0.118
    }
    bias_filler {
      type: "constant"
      value: 0
    }
  }
}
layer {
  name: "BatchNorm10"
  type: "BatchNorm"
  bottom: "Convolution10"
  top: "Convolution10"
  param {
    lr_mult: 0
    decay_mult: 0
  }
  param {
    lr_mult: 0
    decay_mult: 0
  }
  param {
    lr_mult: 0
    decay_mult: 0
  }
}
layer {
  name: "Scale10"
  type: "Scale"
  bottom: "Convolution10"
  top: "Convolution10"
  scale_param {
    bias_term: true
  }
}
layer {
  name: "penlu10"
  type: "PENLU"
  bottom: "Convolution10"
  top: "Convolution10"
  param {
    lr_mult: 2
    decay_mult: 2
  }
  param {
    lr_mult: 2
    decay_mult: 2
  }
  param {
    lr_mult: 0
    decay_mult: 0
  }
  penlu_param {
    alpha_filler {
      type: "constant"
      value: 2
    }
    beta_filler {
      type: "constant"
      value: 1
    }
    eta_filler {
      type: "constant"
      value: 1
    }
  }
}
layer {
  name: "Convolution11"
  type: "Convolution"
  bottom: "Convolution10"
  top: "Convolution11"
  param {
    lr_mult: 1
    decay_mult: 1
  }
  param {
    lr_mult: 2
    decay_mult: 0
  }
  convolution_param {
    num_output: 16
    pad: 1
    kernel_size: 3
    stride: 1
    weight_filler {
      type: "gaussian"
      std: 0.118
    }
    bias_filler {
      type: "constant"
      value: 0
    }
  }
}
layer {
  name: "BatchNorm11"
  type: "BatchNorm"
  bottom: "Convolution11"
  top: "Convolution11"
  param {
    lr_mult: 0
    decay_mult: 0
  }
  param {
    lr_mult: 0
    decay_mult: 0
  }
  param {
    lr_mult: 0
    decay_mult: 0
  }
}
layer {
  name: "Scale11"
  type: "Scale"
  bottom: "Convolution11"
  top: "Convolution11"
  scale_param {
    bias_term: true
  }
}
layer {
  name: "Eltwise5"
  type: "Eltwise"
  bottom: "Eltwise4"
  bottom: "Convolution11"
  top: "Eltwise5"
  eltwise_param {
    operation: SUM
  }
}
layer {
  name: "penlu11"
  type: "PENLU"
  bottom: "Eltwise5"
  top: "Eltwise5"
  param {
    lr_mult: 2
    decay_mult: 2
  }
  param {
    lr_mult: 2
    decay_mult: 2
  }
  param {
    lr_mult: 0
    decay_mult: 0
  }
  penlu_param {
    alpha_filler {
      type: "constant"
      value: 2
    }
    beta_filler {
      type: "constant"
      value: 1
    }
    eta_filler {
      type: "constant"
      value: 1
    }
  }
}
layer {
  name: "Convolution12"
  type: "Convolution"
  bottom: "Eltwise5"
  top: "Convolution12"
  param {
    lr_mult: 1
    decay_mult: 1
  }
  param {
    lr_mult: 2
    decay_mult: 0
  }
  convolution_param {
    num_output: 32
    pad: 0
    kernel_size: 1
    stride: 2
    weight_filler {
      type: "gaussian"
      std: 0.25
    }
    bias_filler {
      type: "constant"
      value: 0
    }
  }
}
layer {
  name: "BatchNorm12"
  type: "BatchNorm"
  bottom: "Convolution12"
  top: "Convolution12"
  param {
    lr_mult: 0
    decay_mult: 0
  }
  param {
    lr_mult: 0
    decay_mult: 0
  }
  param {
    lr_mult: 0
    decay_mult: 0
  }
}
layer {
  name: "Scale12"
  type: "Scale"
  bottom: "Convolution12"
  top: "Convolution12"
  scale_param {
    bias_term: true
  }
}
layer {
  name: "Convolution13"
  type: "Convolution"
  bottom: "Eltwise5"
  top: "Convolution13"
  param {
    lr_mult: 1
    decay_mult: 1
  }
  param {
    lr_mult: 2
    decay_mult: 0
  }
  convolution_param {
    num_output: 32
    pad: 1
    kernel_size: 3
    stride: 2
    weight_filler {
      type: "gaussian"
      std: 0.083
    }
    bias_filler {
      type: "constant"
      value: 0
    }
  }
}
layer {
  name: "BatchNorm13"
  type: "BatchNorm"
  bottom: "Convolution13"
  top: "Convolution13"
  param {
    lr_mult: 0
    decay_mult: 0
  }
  param {
    lr_mult: 0
    decay_mult: 0
  }
  param {
    lr_mult: 0
    decay_mult: 0
  }
}
layer {
  name: "Scale13"
  type: "Scale"
  bottom: "Convolution13"
  top: "Convolution13"
  scale_param {
    bias_term: true
  }
}
layer {
  name: "penlu12"
  type: "PENLU"
  bottom: "Convolution13"
  top: "Convolution13"
  param {
    lr_mult: 2
    decay_mult: 2
  }
  param {
    lr_mult: 2
    decay_mult: 2
  }
  param {
    lr_mult: 0
    decay_mult: 0
  }
  penlu_param {
    alpha_filler {
      type: "constant"
      value: 2
    }
    beta_filler {
      type: "constant"
      value: 1
    }
    eta_filler {
      type: "constant"
      value: 1
    }
  }
}
layer {
  name: "Convolution14"
  type: "Convolution"
  bottom: "Convolution13"
  top: "Convolution14"
  param {
    lr_mult: 1
    decay_mult: 1
  }
  param {
    lr_mult: 2
    decay_mult: 0
  }
  convolution_param {
    num_output: 32
    pad: 1
    kernel_size: 3
    stride: 1
    weight_filler {
      type: "gaussian"
      std: 0.083
    }
    bias_filler {
      type: "constant"
      value: 0
    }
  }
}
layer {
  name: "BatchNorm14"
  type: "BatchNorm"
  bottom: "Convolution14"
  top: "Convolution14"
  param {
    lr_mult: 0
    decay_mult: 0
  }
  param {
    lr_mult: 0
    decay_mult: 0
  }
  param {
    lr_mult: 0
    decay_mult: 0
  }
}
layer {
  name: "Scale14"
  type: "Scale"
  bottom: "Convolution14"
  top: "Convolution14"
  scale_param {
    bias_term: true
  }
}
layer {
  name: "Eltwise6"
  type: "Eltwise"
  bottom: "Convolution12"
  bottom: "Convolution14"
  top: "Eltwise6"
  eltwise_param {
    operation: SUM
  }
}
layer {
  name: "penlu13"
  type: "PENLU"
  bottom: "Eltwise6"
  top: "Eltwise6"
  param {
    lr_mult: 2
    decay_mult: 2
  }
  param {
    lr_mult: 2
    decay_mult: 2
  }
  param {
    lr_mult: 0
    decay_mult: 0
  }
  penlu_param {
    alpha_filler {
      type: "constant"
      value: 2
    }
    beta_filler {
      type: "constant"
      value: 1
    }
    eta_filler {
      type: "constant"
      value: 1
    }
  }
}
layer {
  name: "Convolution15"
  type: "Convolution"
  bottom: "Eltwise6"
  top: "Convolution15"
  param {
    lr_mult: 1
    decay_mult: 1
  }
  param {
    lr_mult: 2
    decay_mult: 0
  }
  convolution_param {
    num_output: 32
    pad: 1
    kernel_size: 3
    stride: 1
    weight_filler {
      type: "gaussian"
      std: 0.083
    }
    bias_filler {
      type: "constant"
      value: 0
    }
  }
}
layer {
  name: "BatchNorm15"
  type: "BatchNorm"
  bottom: "Convolution15"
  top: "Convolution15"
  param {
    lr_mult: 0
    decay_mult: 0
  }
  param {
    lr_mult: 0
    decay_mult: 0
  }
  param {
    lr_mult: 0
    decay_mult: 0
  }
}
layer {
  name: "Scale15"
  type: "Scale"
  bottom: "Convolution15"
  top: "Convolution15"
  scale_param {
    bias_term: true
  }
}
layer {
  name: "penlu14"
  type: "PENLU"
  bottom: "Convolution15"
  top: "Convolution15"
  param {
    lr_mult: 2
    decay_mult: 2
  }
  param {
    lr_mult: 2
    decay_mult: 2
  }
  param {
    lr_mult: 0
    decay_mult: 0
  }
  penlu_param {
    alpha_filler {
      type: "constant"
      value: 2
    }
    beta_filler {
      type: "constant"
      value: 1
    }
    eta_filler {
      type: "constant"
      value: 1
    }
  }
}
layer {
  name: "Convolution16"
  type: "Convolution"
  bottom: "Convolution15"
  top: "Convolution16"
  param {
    lr_mult: 1
    decay_mult: 1
  }
  param {
    lr_mult: 2
    decay_mult: 0
  }
  convolution_param {
    num_output: 32
    pad: 1
    kernel_size: 3
    stride: 1
    weight_filler {
      type: "gaussian"
      std: 0.083
    }
    bias_filler {
      type: "constant"
      value: 0
    }
  }
}
layer {
  name: "BatchNorm16"
  type: "BatchNorm"
  bottom: "Convolution16"
  top: "Convolution16"
  param {
    lr_mult: 0
    decay_mult: 0
  }
  param {
    lr_mult: 0
    decay_mult: 0
  }
  param {
    lr_mult: 0
    decay_mult: 0
  }
}
layer {
  name: "Scale16"
  type: "Scale"
  bottom: "Convolution16"
  top: "Convolution16"
  scale_param {
    bias_term: true
  }
}
layer {
  name: "Eltwise7"
  type: "Eltwise"
  bottom: "Eltwise6"
  bottom: "Convolution16"
  top: "Eltwise7"
  eltwise_param {
    operation: SUM
  }
}
layer {
  name: "penlu15"
  type: "PENLU"
  bottom: "Eltwise7"
  top: "Eltwise7"
  param {
    lr_mult: 2
    decay_mult: 2
  }
  param {
    lr_mult: 2
    decay_mult: 2
  }
  param {
    lr_mult: 0
    decay_mult: 0
  }
  penlu_param {
    alpha_filler {
      type: "constant"
      value: 2
    }
    beta_filler {
      type: "constant"
      value: 1
    }
    eta_filler {
      type: "constant"
      value: 1
    }
  }
}
layer {
  name: "Convolution17"
  type: "Convolution"
  bottom: "Eltwise7"
  top: "Convolution17"
  param {
    lr_mult: 1
    decay_mult: 1
  }
  param {
    lr_mult: 2
    decay_mult: 0
  }
  convolution_param {
    num_output: 32
    pad: 1
    kernel_size: 3
    stride: 1
    weight_filler {
      type: "gaussian"
      std: 0.083
    }
    bias_filler {
      type: "constant"
      value: 0
    }
  }
}
layer {
  name: "BatchNorm17"
  type: "BatchNorm"
  bottom: "Convolution17"
  top: "Convolution17"
  param {
    lr_mult: 0
    decay_mult: 0
  }
  param {
    lr_mult: 0
    decay_mult: 0
  }
  param {
    lr_mult: 0
    decay_mult: 0
  }
}
layer {
  name: "Scale17"
  type: "Scale"
  bottom: "Convolution17"
  top: "Convolution17"
  scale_param {
    bias_term: true
  }
}
layer {
  name: "penlu16"
  type: "PENLU"
  bottom: "Convolution17"
  top: "Convolution17"
  param {
    lr_mult: 2
    decay_mult: 2
  }
  param {
    lr_mult: 2
    decay_mult: 2
  }
  param {
    lr_mult: 0
    decay_mult: 0
  }
  penlu_param {
    alpha_filler {
      type: "constant"
      value: 2
    }
    beta_filler {
      type: "constant"
      value: 1
    }
    eta_filler {
      type: "constant"
      value: 1
    }
  }
}
layer {
  name: "Convolution18"
  type: "Convolution"
  bottom: "Convolution17"
  top: "Convolution18"
  param {
    lr_mult: 1
    decay_mult: 1
  }
  param {
    lr_mult: 2
    decay_mult: 0
  }
  convolution_param {
    num_output: 32
    pad: 1
    kernel_size: 3
    stride: 1
    weight_filler {
      type: "gaussian"
      std: 0.083
    }
    bias_filler {
      type: "constant"
      value: 0
    }
  }
}
layer {
  name: "BatchNorm18"
  type: "BatchNorm"
  bottom: "Convolution18"
  top: "Convolution18"
  param {
    lr_mult: 0
    decay_mult: 0
  }
  param {
    lr_mult: 0
    decay_mult: 0
  }
  param {
    lr_mult: 0
    decay_mult: 0
  }
}
layer {
  name: "Scale18"
  type: "Scale"
  bottom: "Convolution18"
  top: "Convolution18"
  scale_param {
    bias_term: true
  }
}
layer {
  name: "Eltwise8"
  type: "Eltwise"
  bottom: "Eltwise7"
  bottom: "Convolution18"
  top: "Eltwise8"
  eltwise_param {
    operation: SUM
  }
}
layer {
  name: "penlu17"
  type: "PENLU"
  bottom: "Eltwise8"
  top: "Eltwise8"
  param {
    lr_mult: 2
    decay_mult: 2
  }
  param {
    lr_mult: 2
    decay_mult: 2
  }
  param {
    lr_mult: 0
    decay_mult: 0
  }
  penlu_param {
    alpha_filler {
      type: "constant"
      value: 2
    }
    beta_filler {
      type: "constant"
      value: 1
    }
    eta_filler {
      type: "constant"
      value: 1
    }
  }
}
layer {
  name: "Convolution19"
  type: "Convolution"
  bottom: "Eltwise8"
  top: "Convolution19"
  param {
    lr_mult: 1
    decay_mult: 1
  }
  param {
    lr_mult: 2
    decay_mult: 0
  }
  convolution_param {
    num_output: 32
    pad: 1
    kernel_size: 3
    stride: 1
    weight_filler {
      type: "gaussian"
      std: 0.083
    }
    bias_filler {
      type: "constant"
      value: 0
    }
  }
}
layer {
  name: "BatchNorm19"
  type: "BatchNorm"
  bottom: "Convolution19"
  top: "Convolution19"
  param {
    lr_mult: 0
    decay_mult: 0
  }
  param {
    lr_mult: 0
    decay_mult: 0
  }
  param {
    lr_mult: 0
    decay_mult: 0
  }
}
layer {
  name: "Scale19"
  type: "Scale"
  bottom: "Convolution19"
  top: "Convolution19"
  scale_param {
    bias_term: true
  }
}
layer {
  name: "penlu18"
  type: "PENLU"
  bottom: "Convolution19"
  top: "Convolution19"
  param {
    lr_mult: 2
    decay_mult: 2
  }
  param {
    lr_mult: 2
    decay_mult: 2
  }
  param {
    lr_mult: 0
    decay_mult: 0
  }
  penlu_param {
    alpha_filler {
      type: "constant"
      value: 2
    }
    beta_filler {
      type: "constant"
      value: 1
    }
    eta_filler {
      type: "constant"
      value: 1
    }
  }
}
layer {
  name: "Convolution20"
  type: "Convolution"
  bottom: "Convolution19"
  top: "Convolution20"
  param {
    lr_mult: 1
    decay_mult: 1
  }
  param {
    lr_mult: 2
    decay_mult: 0
  }
  convolution_param {
    num_output: 32
    pad: 1
    kernel_size: 3
    stride: 1
    weight_filler {
      type: "gaussian"
      std: 0.083
    }
    bias_filler {
      type: "constant"
      value: 0
    }
  }
}
layer {
  name: "BatchNorm20"
  type: "BatchNorm"
  bottom: "Convolution20"
  top: "Convolution20"
  param {
    lr_mult: 0
    decay_mult: 0
  }
  param {
    lr_mult: 0
    decay_mult: 0
  }
  param {
    lr_mult: 0
    decay_mult: 0
  }
}
layer {
  name: "Scale20"
  type: "Scale"
  bottom: "Convolution20"
  top: "Convolution20"
  scale_param {
    bias_term: true
  }
}
layer {
  name: "Eltwise9"
  type: "Eltwise"
  bottom: "Eltwise8"
  bottom: "Convolution20"
  top: "Eltwise9"
  eltwise_param {
    operation: SUM
  }
}
layer {
  name: "penlu19"
  type: "PENLU"
  bottom: "Eltwise9"
  top: "Eltwise9"
  param {
    lr_mult: 2
    decay_mult: 2
  }
  param {
    lr_mult: 2
    decay_mult: 2
  }
  param {
    lr_mult: 0
    decay_mult: 0
  }
  penlu_param {
    alpha_filler {
      type: "constant"
      value: 2
    }
    beta_filler {
      type: "constant"
      value: 1
    }
    eta_filler {
      type: "constant"
      value: 1
    }
  }
}
layer {
  name: "Convolution21"
  type: "Convolution"
  bottom: "Eltwise9"
  top: "Convolution21"
  param {
    lr_mult: 1
    decay_mult: 1
  }
  param {
    lr_mult: 2
    decay_mult: 0
  }
  convolution_param {
    num_output: 32
    pad: 1
    kernel_size: 3
    stride: 1
    weight_filler {
      type: "gaussian"
      std: 0.083
    }
    bias_filler {
      type: "constant"
      value: 0
    }
  }
}
layer {
  name: "BatchNorm21"
  type: "BatchNorm"
  bottom: "Convolution21"
  top: "Convolution21"
  param {
    lr_mult: 0
    decay_mult: 0
  }
  param {
    lr_mult: 0
    decay_mult: 0
  }
  param {
    lr_mult: 0
    decay_mult: 0
  }
}
layer {
  name: "Scale21"
  type: "Scale"
  bottom: "Convolution21"
  top: "Convolution21"
  scale_param {
    bias_term: true
  }
}
layer {
  name: "penlu20"
  type: "PENLU"
  bottom: "Convolution21"
  top: "Convolution21"
  param {
    lr_mult: 2
    decay_mult: 2
  }
  param {
    lr_mult: 2
    decay_mult: 2
  }
  param {
    lr_mult: 0
    decay_mult: 0
  }
  penlu_param {
    alpha_filler {
      type: "constant"
      value: 2
    }
    beta_filler {
      type: "constant"
      value: 1
    }
    eta_filler {
      type: "constant"
      value: 1
    }
  }
}
layer {
  name: "Convolution22"
  type: "Convolution"
  bottom: "Convolution21"
  top: "Convolution22"
  param {
    lr_mult: 1
    decay_mult: 1
  }
  param {
    lr_mult: 2
    decay_mult: 0
  }
  convolution_param {
    num_output: 32
    pad: 1
    kernel_size: 3
    stride: 1
    weight_filler {
      type: "gaussian"
      std: 0.083
    }
    bias_filler {
      type: "constant"
      value: 0
    }
  }
}
layer {
  name: "BatchNorm22"
  type: "BatchNorm"
  bottom: "Convolution22"
  top: "Convolution22"
  param {
    lr_mult: 0
    decay_mult: 0
  }
  param {
    lr_mult: 0
    decay_mult: 0
  }
  param {
    lr_mult: 0
    decay_mult: 0
  }
}
layer {
  name: "Scale22"
  type: "Scale"
  bottom: "Convolution22"
  top: "Convolution22"
  scale_param {
    bias_term: true
  }
}
layer {
  name: "Eltwise10"
  type: "Eltwise"
  bottom: "Eltwise9"
  bottom: "Convolution22"
  top: "Eltwise10"
  eltwise_param {
    operation: SUM
  }
}
layer {
  name: "penlu21"
  type: "PENLU"
  bottom: "Eltwise10"
  top: "Eltwise10"
  param {
    lr_mult: 2
    decay_mult: 2
  }
  param {
    lr_mult: 2
    decay_mult: 2
  }
  param {
    lr_mult: 0
    decay_mult: 0
  }
  penlu_param {
    alpha_filler {
      type: "constant"
      value: 2
    }
    beta_filler {
      type: "constant"
      value: 1
    }
    eta_filler {
      type: "constant"
      value: 1
    }
  }
}
layer {
  name: "Convolution23"
  type: "Convolution"
  bottom: "Eltwise10"
  top: "Convolution23"
  param {
    lr_mult: 1
    decay_mult: 1
  }
  param {
    lr_mult: 2
    decay_mult: 0
  }
  convolution_param {
    num_output: 64
    pad: 0
    kernel_size: 1
    stride: 2
    weight_filler {
      type: "gaussian"
      std: 0.17677669
    }
    bias_filler {
      type: "constant"
      value: 0
    }
  }
}
layer {
  name: "BatchNorm23"
  type: "BatchNorm"
  bottom: "Convolution23"
  top: "Convolution23"
  param {
    lr_mult: 0
    decay_mult: 0
  }
  param {
    lr_mult: 0
    decay_mult: 0
  }
  param {
    lr_mult: 0
    decay_mult: 0
  }
}
layer {
  name: "Scale23"
  type: "Scale"
  bottom: "Convolution23"
  top: "Convolution23"
  scale_param {
    bias_term: true
  }
}
layer {
  name: "Convolution24"
  type: "Convolution"
  bottom: "Eltwise10"
  top: "Convolution24"
  param {
    lr_mult: 1
    decay_mult: 1
  }
  param {
    lr_mult: 2
    decay_mult: 0
  }
  convolution_param {
    num_output: 64
    pad: 1
    kernel_size: 3
    stride: 2
    weight_filler {
      type: "gaussian"
      std: 0.059
    }
    bias_filler {
      type: "constant"
      value: 0
    }
  }
}
layer {
  name: "BatchNorm24"
  type: "BatchNorm"
  bottom: "Convolution24"
  top: "Convolution24"
  param {
    lr_mult: 0
    decay_mult: 0
  }
  param {
    lr_mult: 0
    decay_mult: 0
  }
  param {
    lr_mult: 0
    decay_mult: 0
  }
}
layer {
  name: "Scale24"
  type: "Scale"
  bottom: "Convolution24"
  top: "Convolution24"
  scale_param {
    bias_term: true
  }
}
layer {
  name: "penlu22"
  type: "PENLU"
 
I1007 17:39:01.406260  5078 layer_factory.hpp:77] Creating layer Data1
I1007 17:39:01.431890  5078 db_lmdb.cpp:35] Opened lmdb /home/x306/caffe/xn/PENLU/data/cifar10/cifar10_test_lmdb
I1007 17:39:01.431906  5078 net.cpp:84] Creating Layer Data1
I1007 17:39:01.431913  5078 net.cpp:380] Data1 -> Data1
I1007 17:39:01.431922  5078 net.cpp:380] Data1 -> Data2
I1007 17:39:01.431928  5078 data_transformer.cpp:25] Loading mean file from: /home/x306/caffe/xn/PENLU/data/cifar10/mean.binaryproto
I1007 17:39:01.432078  5078 data_layer.cpp:45] output data size: 100,3,32,32
I1007 17:39:01.436520  5078 net.cpp:122] Setting up Data1
I1007 17:39:01.436542  5078 net.cpp:129] Top shape: 100 3 32 32 (307200)
I1007 17:39:01.436547  5078 net.cpp:129] Top shape: 100 (100)
…
I1007 17:39:01.498421  5078 net.cpp:129] Top shape: 100 32 16 16 (819200)
I1007 17:39:01.498423  5078 net.cpp:137] Memory required for data: 459982000
I1007 17:39:01.498427  5078 layer_factory.hpp:77] Creating layer Convolution16
I1007 17:39:01.498435  5078 net.cpp:84] Creating Layer Convolution16
I1007 17:39:01.498437  5078 net.cpp:406] Convolution16 <- Convolution15
I1007 17:39:01.498441  5078 net.cpp:380] Convolution16 -> Convolution16
I1007 17:39:01.500108  5078 net.cpp:122] Setting up Convolution16
I1007 17:39:01.500118  5078 net.cpp:129] Top shape: 100 32 16 16 (819200)
I1007 17:39:01.500120  5078 net.cpp:137] Memory required for data: 463258800
I1007 17:39:01.500125  5078 layer_factory.hpp:77] Creating layer BatchNorm16
I1007 17:39:01.500131  5078 net.cpp:84] Creating Layer BatchNorm16
I1007 17:39:01.500134  5078 net.cpp:406] BatchNorm16 <- Convolution16
I1007 17:39:01.500138  5078 net.cpp:367] BatchNorm16 -> Convolution16 (in-place)
I1007 17:39:01.500284  5078 net.cpp:122] Setting up BatchNorm16
I1007 17:39:01.500289  5078 net.cpp:129] Top shape: 100 32 16 16 (819200)
I1007 17:39:01.500291  5078 net.cpp:137] Memory required for data: 466535600
I1007 17:39:01.500296  5078 layer_factory.hpp:77] Creating layer Scale16
I1007 17:39:01.500301  5078 net.cpp:84] Creating Layer Scale16
I1007 17:39:01.500303  5078 net.cpp:406] Scale16 <- Convolution16
I1007 17:39:01.500306  5078 net.cpp:367] Scale16 -> Convolution16 (in-place)
I1007 17:39:01.500336  5078 layer_factory.hpp:77] Creating layer Scale16
I1007 17:39:01.500421  5078 net.cpp:122] Setting up Scale16
I1007 17:39:01.500424  5078 net.cpp:129] Top shape: 100 32 16 16 (819200)
I1007 17:39:01.500427  5078 net.cpp:137] Memory required for data: 469812400
I1007 17:39:01.500430  5078 layer_factory.hpp:77] Creating layer Eltwise7
I1007 17:39:01.500434  5078 net.cpp:84] Creating Layer Eltwise7
I1007 17:39:01.500437  5078 net.cpp:406] Eltwise7 <- Eltwise6_penlu13_0_split_1
I1007 17:39:01.500440  5078 net.cpp:406] Eltwise7 <- Convolution16
I1007 17:39:01.500444  5078 net.cpp:380] Eltwise7 -> Eltwise7
I1007 17:39:01.500458  5078 net.cpp:122] Setting up Eltwise7
I1007 17:39:01.500461  5078 net.cpp:129] Top shape: 100 32 16 16 (819200)
I1007 17:39:01.500463  5078 net.cpp:137] Memory required for data: 473089200
I1007 17:39:01.500465  5078 layer_factory.hpp:77] Creating layer penlu15
I1007 17:39:01.500470  5078 net.cpp:84] Creating Layer penlu15
I1007 17:39:01.500473  5078 net.cpp:406] penlu15 <- Eltwise7
I1007 17:39:01.500478  5078 net.cpp:367] penlu15 -> Eltwise7 (in-place)
I1007 17:39:01.500599  5078 net.cpp:122] Setting up penlu15
I1007 17:39:01.500604  5078 net.cpp:129] Top shape: 100 32 16 16 (819200)
I1007 17:39:01.500607  5078 net.cpp:137] Memory required for data: 476366000
I1007 17:39:01.500612  5078 layer_factory.hpp:77] Creating layer Eltwise7_penlu15_0_split
I1007 17:39:01.500614  5078 net.cpp:84] Creating Layer Eltwise7_penlu15_0_split
I1007 17:39:01.500617  5078 net.cpp:406] Eltwise7_penlu15_0_split <- Eltwise7
I1007 17:39:01.500620  5078 net.cpp:380] Eltwise7_penlu15_0_split -> Eltwise7_penlu15_0_split_0
I1007 17:39:01.500624  5078 net.cpp:380] Eltwise7_penlu15_0_split -> Eltwise7_penlu15_0_split_1
I1007 17:39:01.500650  5078 net.cpp:122] Setting up Eltwise7_penlu15_0_split
I1007 17:39:01.500654  5078 net.cpp:129] Top shape: 100 32 16 16 (819200)
I1007 17:39:01.500658  5078 net.cpp:129] Top shape: 100 32 16 16 (819200)
I1007 17:39:01.500659  5078 net.cpp:137] Memory required for data: 482919600
I1007 17:39:01.500661  5078 layer_factory.hpp:77] Creating layer Convolution17
I1007 17:39:01.500668  5078 net.cpp:84] Creating Layer Convolution17
I1007 17:39:01.500670  5078 net.cpp:406] Convolution17 <- Eltwise7_penlu15_0_split_0
I1007 17:39:01.500674  5078 net.cpp:380] Convolution17 -> Convolution17
I1007 17:39:01.501791  5078 net.cpp:122] Setting up Convolution17
I1007 17:39:01.501801  5078 net.cpp:129] Top shape: 100 32 16 16 (819200)
I1007 17:39:01.501804  5078 net.cpp:137] Memory required for data: 486196400
I1007 17:39:01.501816  5078 layer_factory.hpp:77] Creating layer BatchNorm17
I1007 17:39:01.501821  5078 net.cpp:84] Creating Layer BatchNorm17
I1007 17:39:01.501823  5078 net.cpp:406] BatchNorm17 <- Convolution17
I1007 17:39:01.501828  5078 net.cpp:367] BatchNorm17 -> Convolution17 (in-place)
I1007 17:39:01.501976  5078 net.cpp:122] Setting up BatchNorm17
I1007 17:39:01.501981  5078 net.cpp:129] Top shape: 100 32 16 16 (819200)
I1007 17:39:01.501983  5078 net.cpp:137] Memory required for data: 489473200
I1007 17:39:01.501988  5078 layer_factory.hpp:77] Creating layer Scale17
I1007 17:39:01.501992  5078 net.cpp:84] Creating Layer Scale17
I1007 17:39:01.501996  5078 net.cpp:406] Scale17 <- Convolution17
I1007 17:39:01.501998  5078 net.cpp:367] Scale17 -> Convolution17 (in-place)
I1007 17:39:01.502028  5078 layer_factory.hpp:77] Creating layer Scale17
I1007 17:39:01.502112  5078 net.cpp:122] Setting up Scale17
I1007 17:39:01.502116  5078 net.cpp:129] Top shape: 100 32 16 16 (819200)
I1007 17:39:01.502120  5078 net.cpp:137] Memory required for data: 492750000
I1007 17:39:01.502123  5078 layer_factory.hpp:77] Creating layer penlu16
I1007 17:39:01.502130  5078 net.cpp:84] Creating Layer penlu16
I1007 17:39:01.502131  5078 net.cpp:406] penlu16 <- Convolution17
I1007 17:39:01.502135  5078 net.cpp:367] penlu16 -> Convolution17 (in-place)
I1007 17:39:01.502252  5078 net.cpp:122] Setting up penlu16
I1007 17:39:01.502257  5078 net.cpp:129] Top shape: 100 32 16 16 (819200)
I1007 17:39:01.502259  5078 net.cpp:137] Memory required for data: 496026800
I1007 17:39:01.502264  5078 layer_factory.hpp:77] Creating layer Convolution18
I1007 17:39:01.502270  5078 net.cpp:84] Creating Layer Convolution18
I1007 17:39:01.502274  5078 net.cpp:406] Convolution18 <- Convolution17
I1007 17:39:01.502276  5078 net.cpp:380] Convolution18 -> Convolution18
I1007 17:39:01.503407  5078 net.cpp:122] Setting up Convolution18
I1007 17:39:01.503417  5078 net.cpp:129] Top shape: 100 32 16 16 (819200)
I1007 17:39:01.503419  5078 net.cpp:137] Memory required for data: 499303600
I1007 17:39:01.503423  5078 layer_factory.hpp:77] Creating layer BatchNorm18
I1007 17:39:01.503429  5078 net.cpp:84] Creating Layer BatchNorm18
I1007 17:39:01.503432  5078 net.cpp:406] BatchNorm18 <- Convolution18
I1007 17:39:01.503435  5078 net.cpp:367] BatchNorm18 -> Convolution18 (in-place)
I1007 17:39:01.503582  5078 net.cpp:122] Setting up BatchNorm18
I1007 17:39:01.503587  5078 net.cpp:129] Top shape: 100 32 16 16 (819200)
I1007 17:39:01.503589  5078 net.cpp:137] Memory required for data: 502580400
I1007 17:39:01.503593  5078 layer_factory.hpp:77] Creating layer Scale18
I1007 17:39:01.503597  5078 net.cpp:84] Creating Layer Scale18
I1007 17:39:01.503600  5078 net.cpp:406] Scale18 <- Convolution18
I1007 17:39:01.503603  5078 net.cpp:367] Scale18 -> Convolution18 (in-place)
I1007 17:39:01.503633  5078 layer_factory.hpp:77] Creating layer Scale18
I1007 17:39:01.503717  5078 net.cpp:122] Setting up Scale18
I1007 17:39:01.503722  5078 net.cpp:129] Top shape: 100 32 16 16 (819200)
I1007 17:39:01.503724  5078 net.cpp:137] Memory required for data: 505857200
I1007 17:39:01.503728  5078 layer_factory.hpp:77] Creating layer Eltwise8
I1007 17:39:01.503732  5078 net.cpp:84] Creating Layer Eltwise8
I1007 17:39:01.503736  5078 net.cpp:406] Eltwise8 <- Eltwise7_penlu15_0_split_1
I1007 17:39:01.503738  5078 net.cpp:406] Eltwise8 <- Convolution18
I1007 17:39:01.503741  5078 net.cpp:380] Eltwise8 -> Eltwise8
I1007 17:39:01.503756  5078 net.cpp:122] Setting up Eltwise8
I1007 17:39:01.503759  5078 net.cpp:129] Top shape: 100 32 16 16 (819200)
I1007 17:39:01.503762  5078 net.cpp:137] Memory required for data: 509134000
I1007 17:39:01.503763  5078 layer_factory.hpp:77] Creating layer penlu17
I1007 17:39:01.503768  5078 net.cpp:84] Creating Layer penlu17
I1007 17:39:01.503772  5078 net.cpp:406] penlu17 <- Eltwise8
I1007 17:39:01.503775  5078 net.cpp:367] penlu17 -> Eltwise8 (in-place)
I1007 17:39:01.503896  5078 net.cpp:122] Setting up penlu17
I1007 17:39:01.503901  5078 net.cpp:129] Top shape: 100 32 16 16 (819200)
I1007 17:39:01.503909  5078 net.cpp:137] Memory required for data: 512410800
I1007 17:39:01.503914  5078 layer_factory.hpp:77] Creating layer Eltwise8_penlu17_0_split
I1007 17:39:01.503917  5078 net.cpp:84] Creating Layer Eltwise8_penlu17_0_split
I1007 17:39:01.503921  5078 net.cpp:406] Eltwise8_penlu17_0_split <- Eltwise8
I1007 17:39:01.503924  5078 net.cpp:380] Eltwise8_penlu17_0_split -> Eltwise8_penlu17_0_split_0
I1007 17:39:01.523115  5078 net.cpp:380] Eltwise8_penlu17_0_split -> Eltwise8_penlu17_0_split_1
I1007 17:39:01.523177  5078 net.cpp:122] Setting up Eltwise8_penlu17_0_split
I1007 17:39:01.523186  5078 net.cpp:129] Top shape: 100 32 16 16 (819200)
I1007 17:39:01.523192  5078 net.cpp:129] Top shape: 100 32 16 16 (819200)
I1007 17:39:01.523196  5078 net.cpp:137] Memory required for data: 518964400
I1007 17:39:01.523200  5078 layer_factory.hpp:77] Creating layer Convolution19
I1007 17:39:01.523212  5078 net.cpp:84] Creating Layer Convolution19
I1007 17:39:01.523217  5078 net.cpp:406] Convolution19 <- Eltwise8_penlu17_0_split_0
I1007 17:39:01.523224  5078 net.cpp:380] Convolution19 -> Convolution19
I1007 17:39:01.524485  5078 net.cpp:122] Setting up Convolution19
I1007 17:39:01.524498  5078 net.cpp:129] Top shape: 100 32 16 16 (819200)
I1007 17:39:01.524503  5078 net.cpp:137] Memory required for data: 522241200
I1007 17:39:01.524511  5078 layer_factory.hpp:77] Creating layer BatchNorm19
I1007 17:39:01.524520  5078 net.cpp:84] Creating Layer BatchNorm19
I1007 17:39:01.524525  5078 net.cpp:406] BatchNorm19 <- Convolution19
I1007 17:39:01.524531  5078 net.cpp:367] BatchNorm19 -> Convolution19 (in-place)
I1007 17:39:01.524689  5078 net.cpp:122] Setting up BatchNorm19
I1007 17:39:01.524694  5078 net.cpp:129] Top shape: 100 32 16 16 (819200)
I1007 17:39:01.524696  5078 net.cpp:137] Memory required for data: 525518000
I1007 17:39:01.524701  5078 layer_factory.hpp:77] Creating layer Scale19
I1007 17:39:01.524706  5078 net.cpp:84] Creating Layer Scale19
I1007 17:39:01.524709  5078 net.cpp:406] Scale19 <- Convolution19
I1007 17:39:01.524713  5078 net.cpp:367] Scale19 -> Convolution19 (in-place)
I1007 17:39:01.524744  5078 layer_factory.hpp:77] Creating layer Scale19
I1007 17:39:01.524853  5078 net.cpp:122] Setting up Scale19
I1007 17:39:01.524860  5078 net.cpp:129] Top shape: 100 32 16 16 (819200)
I1007 17:39:01.524864  5078 net.cpp:137] Memory required for data: 528794800
I1007 17:39:01.524870  5078 layer_factory.hpp:77] Creating layer penlu18
I1007 17:39:01.524879  5078 net.cpp:84] Creating Layer penlu18
I1007 17:39:01.524884  5078 net.cpp:406] penlu18 <- Convolution19
I1007 17:39:01.524893  5078 net.cpp:367] penlu18 -> Convolution19 (in-place)
I1007 17:39:01.525059  5078 net.cpp:122] Setting up penlu18
I1007 17:39:01.525066  5078 net.cpp:129] Top shape: 100 32 16 16 (819200)
I1007 17:39:01.525070  5078 net.cpp:137] Memory required for data: 532071600
I1007 17:39:01.525077  5078 layer_factory.hpp:77] Creating layer Convolution20
I1007 17:39:01.525086  5078 net.cpp:84] Creating Layer Convolution20
I1007 17:39:01.525090  5078 net.cpp:406] Convolution20 <- Convolution19
I1007 17:39:01.525097  5078 net.cpp:380] Convolution20 -> Convolution20
I1007 17:39:01.525898  5078 net.cpp:122] Setting up Convolution20
I1007 17:39:01.525907  5078 net.cpp:129] Top shape: 100 32 16 16 (819200)
I1007 17:39:01.525918  5078 net.cpp:137] Memory required for data: 535348400
I1007 17:39:01.525923  5078 layer_factory.hpp:77] Creating layer BatchNorm20
I1007 17:39:01.525929  5078 net.cpp:84] Creating Layer BatchNorm20
I1007 17:39:01.525931  5078 net.cpp:406] BatchNorm20 <- Convolution20
I1007 17:39:01.525936  5078 net.cpp:367] BatchNorm20 -> Convolution20 (in-place)
I1007 17:39:01.526083  5078 net.cpp:122] Setting up BatchNorm20
I1007 17:39:01.526087  5078 net.cpp:129] Top shape: 100 32 16 16 (819200)
I1007 17:39:01.526090  5078 net.cpp:137] Memory required for data: 538625200
I1007 17:39:01.526094  5078 layer_factory.hpp:77] Creating layer Scale20
I1007 17:39:01.526098  5078 net.cpp:84] Creating Layer Scale20
I1007 17:39:01.526101  5078 net.cpp:406] Scale20 <- Convolution20
I1007 17:39:01.526113  5078 net.cpp:367] Scale20 -> Convolution20 (in-place)
I1007 17:39:01.526144  5078 layer_factory.hpp:77] Creating layer Scale20
I1007 17:39:01.526228  5078 net.cpp:122] Setting up Scale20
I1007 17:39:01.526233  5078 net.cpp:129] Top shape: 100 32 16 16 (819200)
I1007 17:39:01.526235  5078 net.cpp:137] Memory required for data: 541902000
I1007 17:39:01.526238  5078 layer_factory.hpp:77] Creating layer Eltwise9
I1007 17:39:01.526242  5078 net.cpp:84] Creating Layer Eltwise9
I1007 17:39:01.526245  5078 net.cpp:406] Eltwise9 <- Eltwise8_penlu17_0_split_1
I1007 17:39:01.526248  5078 net.cpp:406] Eltwise9 <- Convolution20
I1007 17:39:01.526252  5078 net.cpp:380] Eltwise9 -> Eltwise9
I1007 17:39:01.526265  5078 net.cpp:122] Setting up Eltwise9
I1007 17:39:01.526269  5078 net.cpp:129] Top shape: 100 32 16 16 (819200)
I1007 17:39:01.526271  5078 net.cpp:137] Memory required for data: 545178800
I1007 17:39:01.526273  5078 layer_factory.hpp:77] Creating layer penlu19
I1007 17:39:01.526278  5078 net.cpp:84] Creating Layer penlu19
I1007 17:39:01.526281  5078 net.cpp:406] penlu19 <- Eltwise9
I1007 17:39:01.526285  5078 net.cpp:367] penlu19 -> Eltwise9 (in-place)
I1007 17:39:01.526409  5078 net.cpp:122] Setting up penlu19
I1007 17:39:01.526413  5078 net.cpp:129] Top shape: 100 32 16 16 (819200)
I1007 17:39:01.526415  5078 net.cpp:137] Memory required for data: 548455600
I1007 17:39:01.526420  5078 layer_factory.hpp:77] Creating layer Eltwise9_penlu19_0_split
I1007 17:39:01.526425  5078 net.cpp:84] Creating Layer Eltwise9_penlu19_0_split
I1007 17:39:01.526427  5078 net.cpp:406] Eltwise9_penlu19_0_split <- Eltwise9
I1007 17:39:01.526440  5078 net.cpp:380] Eltwise9_penlu19_0_split -> Eltwise9_penlu19_0_split_0
I1007 17:39:01.526444  5078 net.cpp:380] Eltwise9_penlu19_0_split -> Eltwise9_penlu19_0_split_1
I1007 17:39:01.526471  5078 net.cpp:122] Setting up Eltwise9_penlu19_0_split
I1007 17:39:01.526475  5078 net.cpp:129] Top shape: 100 32 16 16 (819200)
I1007 17:39:01.526479  5078 net.cpp:129] Top shape: 100 32 16 16 (819200)
I1007 17:39:01.526480  5078 net.cpp:137] Memory required for data: 555009200
I1007 17:39:01.526482  5078 layer_factory.hpp:77] Creating layer Convolution21
I1007 17:39:01.526497  5078 net.cpp:84] Creating Layer Convolution21
I1007 17:39:01.526499  5078 net.cpp:406] Convolution21 <- Eltwise9_penlu19_0_split_0
I1007 17:39:01.526504  5078 net.cpp:380] Convolution21 -> Convolution21
I1007 17:39:01.527639  5078 net.cpp:122] Setting up Convolution21
I1007 17:39:01.527648  5078 net.cpp:129] Top shape: 100 32 16 16 (819200)
I1007 17:39:01.527652  5078 net.cpp:137] Memory required for data: 558286000
I1007 17:39:01.527655  5078 layer_factory.hpp:77] Creating layer BatchNorm21
I1007 17:39:01.527660  5078 net.cpp:84] Creating Layer BatchNorm21
I1007 17:39:01.527663  5078 net.cpp:406] BatchNorm21 <- Convolution21
I1007 17:39:01.527667  5078 net.cpp:367] BatchNorm21 -> Convolution21 (in-place)
I1007 17:39:01.527813  5078 net.cpp:122] Setting up BatchNorm21
I1007 17:39:01.527818  5078 net.cpp:129] Top shape: 100 32 16 16 (819200)
I1007 17:39:01.527820  5078 net.cpp:137] Memory required for data: 561562800
I1007 17:39:01.527824  5078 layer_factory.hpp:77] Creating layer Scale21
I1007 17:39:01.527829  5078 net.cpp:84] Creating Layer Scale21
I1007 17:39:01.527832  5078 net.cpp:406] Scale21 <- Convolution21
I1007 17:39:01.527835  5078 net.cpp:367] Scale21 -> Convolution21 (in-place)
I1007 17:39:01.527864  5078 layer_factory.hpp:77] Creating layer Scale21
I1007 17:39:01.527950  5078 net.cpp:122] Setting up Scale21
I1007 17:39:01.527954  5078 net.cpp:129] Top shape: 100 32 16 16 (819200)
I1007 17:39:01.527956  5078 net.cpp:137] Memory required for data: 564839600
I1007 17:39:01.527959  5078 layer_factory.hpp:77] Creating layer penlu20
I1007 17:39:01.527966  5078 net.cpp:84] Creating Layer penlu20
I1007 17:39:01.527968  5078 net.cpp:406] penlu20 <- Convolution21
I1007 17:39:01.527972  5078 net.cpp:367] penlu20 -> Convolution21 (in-place)
I1007 17:39:01.528090  5078 net.cpp:122] Setting up penlu20
I1007 17:39:01.528100  5078 net.cpp:129] Top shape: 100 32 16 16 (819200)
I1007 17:39:01.528103  5078 net.cpp:137] Memory required for data: 568116400
I1007 17:39:01.528107  5078 layer_factory.hpp:77] Creating layer Convolution22
I1007 17:39:01.528115  5078 net.cpp:84] Creating Layer Convolution22
I1007 17:39:01.528117  5078 net.cpp:406] Convolution22 <- Convolution21
I1007 17:39:01.528121  5078 net.cpp:380] Convolution22 -> Convolution22
I1007 17:39:01.529227  5078 net.cpp:122] Setting up Convolution22
I1007 17:39:01.529235  5078 net.cpp:129] Top shape: 100 32 16 16 (819200)
I1007 17:39:01.529237  5078 net.cpp:137] Memory required for data: 571393200
I1007 17:39:01.529242  5078 layer_factory.hpp:77] Creating layer BatchNorm22
I1007 17:39:01.529247  5078 net.cpp:84] Creating Layer BatchNorm22
I1007 17:39:01.529249  5078 net.cpp:406] BatchNorm22 <- Convolution22
I1007 17:39:01.529253  5078 net.cpp:367] BatchNorm22 -> Convolution22 (in-place)
I1007 17:39:01.529402  5078 net.cpp:122] Setting up BatchNorm22
I1007 17:39:01.529405  5078 net.cpp:129] Top shape: 100 32 16 16 (819200)
I1007 17:39:01.529408  5078 net.cpp:137] Memory required for data: 574670000
I1007 17:39:01.529412  5078 layer_factory.hpp:77] Creating layer Scale22
I1007 17:39:01.529417  5078 net.cpp:84] Creating Layer Scale22
I1007 17:39:01.529419  5078 net.cpp:406] Scale22 <- Convolution22
I1007 17:39:01.529422  5078 net.cpp:367] Scale22 -> Convolution22 (in-place)
I1007 17:39:01.529451  5078 layer_factory.hpp:77] Creating layer Scale22
I1007 17:39:01.529536  5078 net.cpp:122] Setting up Scale22
I1007 17:39:01.529539  5078 net.cpp:129] Top shape: 100 32 16 16 (819200)
I1007 17:39:01.529542  5078 net.cpp:137] Memory required for data: 577946800
I1007 17:39:01.529546  5078 layer_factory.hpp:77] Creating layer Eltwise10
I1007 17:39:01.529551  5078 net.cpp:84] Creating Layer Eltwise10
I1007 17:39:01.529553  5078 net.cpp:406] Eltwise10 <- Eltwise9_penlu19_0_split_1
I1007 17:39:01.529556  5078 net.cpp:406] Eltwise10 <- Convolution22
I1007 17:39:01.529559  5078 net.cpp:380] Eltwise10 -> Eltwise10
I1007 17:39:01.529573  5078 net.cpp:122] Setting up Eltwise10
I1007 17:39:01.529577  5078 net.cpp:129] Top shape: 100 32 16 16 (819200)
I1007 17:39:01.529579  5078 net.cpp:137] Memory required for data: 581223600
I1007 17:39:01.529582  5078 layer_factory.hpp:77] Creating layer penlu21
I1007 17:39:01.529587  5078 net.cpp:84] Creating Layer penlu21
I1007 17:39:01.529589  5078 net.cpp:406] penlu21 <- Eltwise10
I1007 17:39:01.529593  5078 net.cpp:367] penlu21 -> Eltwise10 (in-place)
I1007 17:39:01.529716  5078 net.cpp:122] Setting up penlu21
I1007 17:39:01.529721  5078 net.cpp:129] Top shape: 100 32 16 16 (819200)
I1007 17:39:01.529722  5078 net.cpp:137] Memory required for data: 584500400
I1007 17:39:01.529726  5078 layer_factory.hpp:77] Creating layer Eltwise10_penlu21_0_split
I1007 17:39:01.529731  5078 net.cpp:84] Creating Layer Eltwise10_penlu21_0_split
I1007 17:39:01.529732  5078 net.cpp:406] Eltwise10_penlu21_0_split <- Eltwise10
I1007 17:39:01.529736  5078 net.cpp:380] Eltwise10_penlu21_0_split -> Eltwise10_penlu21_0_split_0
I1007 17:39:01.529741  5078 net.cpp:380] Eltwise10_penlu21_0_split -> Eltwise10_penlu21_0_split_1
I1007 17:39:01.529765  5078 net.cpp:122] Setting up Eltwise10_penlu21_0_split
I1007 17:39:01.529769  5078 net.cpp:129] Top shape: 100 32 16 16 (819200)
I1007 17:39:01.529772  5078 net.cpp:129] Top shape: 100 32 16 16 (819200)
I1007 17:39:01.529774  5078 net.cpp:137] Memory required for data: 591054000
I1007 17:39:01.529777  5078 layer_factory.hpp:77] Creating layer Convolution23
I1007 17:39:01.529783  5078 net.cpp:84] Creating Layer Convolution23
I1007 17:39:01.529785  5078 net.cpp:406] Convolution23 <- Eltwise10_penlu21_0_split_0
I1007 17:39:01.529788  5078 net.cpp:380] Convolution23 -> Convolution23
I1007 17:39:01.530757  5078 net.cpp:122] Setting up Convolution23
I1007 17:39:01.530766  5078 net.cpp:129] Top shape: 100 64 8 8 (409600)
I1007 17:39:01.530768  5078 net.cpp:137] Memory required for data: 592692400
I1007 17:39:01.530773  5078 layer_factory.hpp:77] Creating layer BatchNorm23
I1007 17:39:01.530786  5078 net.cpp:84] Creating Layer BatchNorm23
I1007 17:39:01.530788  5078 net.cpp:406] BatchNorm23 <- Convolution23
I1007 17:39:01.530792  5078 net.cpp:367] BatchNorm23 -> Convolution23 (in-place)
I1007 17:39:01.530942  5078 net.cpp:122] Setting up BatchNorm23
I1007 17:39:01.530947  5078 net.cpp:129] Top shape: 100 64 8 8 (409600)
I1007 17:39:01.530949  5078 net.cpp:137] Memory required for data: 594330800
I1007 17:39:01.530954  5078 layer_factory.hpp:77] Creating layer Scale23
I1007 17:39:01.530958  5078 net.cpp:84] Creating Layer Scale23
I1007 17:39:01.530961  5078 net.cpp:406] Scale23 <- Convolution23
I1007 17:39:01.530963  5078 net.cpp:367] Scale23 -> Convolution23 (in-place)
I1007 17:39:01.530994  5078 layer_factory.hpp:77] Creating layer Scale23
I1007 17:39:01.531080  5078 net.cpp:122] Setting up Scale23
I1007 17:39:01.531085  5078 net.cpp:129] Top shape: 100 64 8 8 (409600)
I1007 17:39:01.531086  5078 net.cpp:137] Memory required for data: 595969200
I1007 17:39:01.531090  5078 layer_factory.hpp:77] Creating layer Convolution24
I1007 17:39:01.531096  5078 net.cpp:84] Creating Layer Convolution24
I1007 17:39:01.531100  5078 net.cpp:406] Convolution24 <- Eltwise10_penlu21_0_split_1
I1007 17:39:01.531105  5078 net.cpp:380] Convolution24 -> Convolution24
I1007 17:39:01.532447  5078 net.cpp:122] Setting up Convolution24
I1007 17:39:01.532457  5078 net.cpp:129] Top shape: 100 64 8 8 (409600)
I1007 17:39:01.532459  5078 net.cpp:137] Memory required for data: 597607600
I1007 17:39:01.532464  5078 layer_factory.hpp:77] Creating layer BatchNorm24
I1007 17:39:01.532469  5078 net.cpp:84] Creating Layer BatchNorm24
I1007 17:39:01.532472  5078 net.cpp:406] BatchNorm24 <- Convolution24
I1007 17:39:01.532476  5078 net.cpp:367] BatchNorm24 -> Convolution24 (in-place)
I1007 17:39:01.532627  5078 net.cpp:122] Setting up BatchNorm24
I1007 17:39:01.532632  5078 net.cpp:129] Top shape: 100 64 8 8 (409600)
I1007 17:39:01.532634  5078 net.cpp:137] Memory required for data: 599246000
I1007 17:39:01.532639  5078 layer_factory.hpp:77] Creating layer Scale24
I1007 17:39:01.532644  5078 net.cpp:84] Creating Layer Scale24
I1007 17:39:01.532645  5078 net.cpp:406] Scale24 <- Convolution24
I1007 17:39:01.532649  5078 net.cpp:367] Scale24 -> Convolution24 (in-place)
I1007 17:39:01.532680  5078 layer_factory.hpp:77] Creating layer Scale24
I1007 17:39:01.532766  5078 net.cpp:122] Setting up Scale24
I1007 17:39:01.532771  5078 net.cpp:129] Top shape: 100 64 8 8 (409600)
I1007 17:39:01.532773  5078 net.cpp:137] Memory required for data: 600884400
I1007 17:39:01.532778  5078 layer_factory.hpp:77] Creating layer penlu22
I1007 17:39:01.532781  5078 net.cpp:84] Creating Layer penlu22
I1007 17:39:01.532784  5078 net.cpp:406] penlu22 <- Convolution24
I1007 17:39:01.532788  5078 net.cpp:367] penlu22 -> Convolution24 (in-place)
I1007 17:39:01.532910  5078 net.cpp:122] Setting up penlu22
I1007 17:39:01.532914  5078 net.cpp:129] Top shape: 100 64 8 8 (409600)
I1007 17:39:01.532917  5078 net.cpp:137] Memory required for data: 602522800
I1007 17:39:01.532922  5078 layer_factory.hpp:77] Creating layer Convolution25
I1007 17:39:01.532928  5078 net.cpp:84] Creating Layer Convolution25
I1007 17:39:01.532930  5078 net.cpp:406] Convolution25 <- Convolution24
I1007 17:39:01.532934  5078 net.cpp:380] Convolution25 -> Convolution25
I1007 17:39:01.534664  5078 net.cpp:122] Setting up Convolution25
I1007 17:39:01.534672  5078 net.cpp:129] Top shape: 100 64 8 8 (409600)
I1007 17:39:01.534675  5078 net.cpp:137] Memory required for data: 604161200
I1007 17:39:01.534679  5078 layer_factory.hpp:77] Creating layer BatchNorm25
I1007 17:39:01.534685  5078 net.cpp:84] Creating Layer BatchNorm25
I1007 17:39:01.534688  5078 net.cpp:406] BatchNorm25 <- Convolution25
I1007 17:39:01.534692  5078 net.cpp:367] BatchNorm25 -> Convolution25 (in-place)
I1007 17:39:01.534842  5078 net.cpp:122] Setting up BatchNorm25
I1007 17:39:01.534847  5078 net.cpp:129] Top shape: 100 64 8 8 (409600)
I1007 17:39:01.534848  5078 net.cpp:137] Memory required for data: 605799600
I1007 17:39:01.534860  5078 layer_factory.hpp:77] Creating layer Scale25
I1007 17:39:01.534864  5078 net.cpp:84] Creating Layer Scale25
I1007 17:39:01.534868  5078 net.cpp:406] Scale25 <- Convolution25
I1007 17:39:01.534870  5078 net.cpp:367] Scale25 -> Convolution25 (in-place)
I1007 17:39:01.554013  5078 layer_factory.hpp:77] Creating layer Scale25
I1007 17:39:01.554127  5078 net.cpp:122] Setting up Scale25
I1007 17:39:01.554133  5078 net.cpp:129] Top shape: 100 64 8 8 (409600)
I1007 17:39:01.554136  5078 net.cpp:137] Memory required for data: 607438000
I1007 17:39:01.554141  5078 layer_factory.hpp:77] Creating layer Eltwise11
I1007 17:39:01.554147  5078 net.cpp:84] Creating Layer Eltwise11
I1007 17:39:01.554150  5078 net.cpp:406] Eltwise11 <- Convolution23
I1007 17:39:01.554154  5078 net.cpp:406] Eltwise11 <- Convolution25
I1007 17:39:01.554157  5078 net.cpp:380] Eltwise11 -> Eltwise11
I1007 17:39:01.554178  5078 net.cpp:122] Setting up Eltwise11
I1007 17:39:01.554183  5078 net.cpp:129] Top shape: 100 64 8 8 (409600)
I1007 17:39:01.554184  5078 net.cpp:137] Memory required for data: 609076400
I1007 17:39:01.554188  5078 layer_factory.hpp:77] Creating layer penlu23
I1007 17:39:01.554193  5078 net.cpp:84] Creating Layer penlu23
I1007 17:39:01.554195  5078 net.cpp:406] penlu23 <- Eltwise11
I1007 17:39:01.554199  5078 net.cpp:367] penlu23 -> Eltwise11 (in-place)
I1007 17:39:01.554332  5078 net.cpp:122] Setting up penlu23
I1007 17:39:01.554335  5078 net.cpp:129] Top shape: 100 64 8 8 (409600)
I1007 17:39:01.554338  5078 net.cpp:137] Memory required for data: 610714800
I1007 17:39:01.554342  5078 layer_factory.hpp:77] Creating layer Eltwise11_penlu23_0_split
I1007 17:39:01.554347  5078 net.cpp:84] Creating Layer Eltwise11_penlu23_0_split
I1007 17:39:01.554349  5078 net.cpp:406] Eltwise11_penlu23_0_split <- Eltwise11
I1007 17:39:01.554353  5078 net.cpp:380] Eltwise11_penlu23_0_split -> Eltwise11_penlu23_0_split_0
I1007 17:39:01.554358  5078 net.cpp:380] Eltwise11_penlu23_0_split -> Eltwise11_penlu23_0_split_1
I1007 17:39:01.554385  5078 net.cpp:122] Setting up Eltwise11_penlu23_0_split
I1007 17:39:01.554391  5078 net.cpp:129] Top shape: 100 64 8 8 (409600)
I1007 17:39:01.554394  5078 net.cpp:129] Top shape: 100 64 8 8 (409600)
I1007 17:39:01.554396  5078 net.cpp:137] Memory required for data: 613991600
I1007 17:39:01.554399  5078 layer_factory.hpp:77] Creating layer Convolution26
I1007 17:39:01.554404  5078 net.cpp:84] Creating Layer Convolution26
I1007 17:39:01.554407  5078 net.cpp:406] Convolution26 <- Eltwise11_penlu23_0_split_0
I1007 17:39:01.554411  5078 net.cpp:380] Convolution26 -> Convolution26
I1007 17:39:01.556337  5078 net.cpp:122] Setting up Convolution26
I1007 17:39:01.556347  5078 net.cpp:129] Top shape: 100 64 8 8 (409600)
I1007 17:39:01.556350  5078 net.cpp:137] Memory required for data: 615630000
I1007 17:39:01.556355  5078 layer_factory.hpp:77] Creating layer BatchNorm26
I1007 17:39:01.556360  5078 net.cpp:84] Creating Layer BatchNorm26
I1007 17:39:01.556362  5078 net.cpp:406] BatchNorm26 <- Convolution26
I1007 17:39:01.556366  5078 net.cpp:367] BatchNorm26 -> Convolution26 (in-place)
I1007 17:39:01.556519  5078 net.cpp:122] Setting up BatchNorm26
I1007 17:39:01.556522  5078 net.cpp:129] Top shape: 100 64 8 8 (409600)
I1007 17:39:01.556524  5078 net.cpp:137] Memory required for data: 617268400
I1007 17:39:01.556529  5078 layer_factory.hpp:77] Creating layer Scale26
I1007 17:39:01.556533  5078 net.cpp:84] Creating Layer Scale26
I1007 17:39:01.556535  5078 net.cpp:406] Scale26 <- Convolution26
I1007 17:39:01.556538  5078 net.cpp:367] Scale26 -> Convolution26 (in-place)
I1007 17:39:01.556568  5078 layer_factory.hpp:77] Creating layer Scale26
I1007 17:39:01.556665  5078 net.cpp:122] Setting up Scale26
I1007 17:39:01.556670  5078 net.cpp:129] Top shape: 100 64 8 8 (409600)
I1007 17:39:01.556673  5078 net.cpp:137] Memory required for data: 618906800
I1007 17:39:01.556676  5078 layer_factory.hpp:77] Creating layer penlu24
I1007 17:39:01.556681  5078 net.cpp:84] Creating Layer penlu24
I1007 17:39:01.556689  5078 net.cpp:406] penlu24 <- Convolution26
I1007 17:39:01.556694  5078 net.cpp:367] penlu24 -> Convolution26 (in-place)
I1007 17:39:01.556840  5078 net.cpp:122] Setting up penlu24
I1007 17:39:01.556844  5078 net.cpp:129] Top shape: 100 64 8 8 (409600)
I1007 17:39:01.556848  5078 net.cpp:137] Memory required for data: 620545200
I1007 17:39:01.556851  5078 layer_factory.hpp:77] Creating layer Convolution27
I1007 17:39:01.556859  5078 net.cpp:84] Creating Layer Convolution27
I1007 17:39:01.556861  5078 net.cpp:406] Convolution27 <- Convolution26
I1007 17:39:01.556865  5078 net.cpp:380] Convolution27 -> Convolution27
I1007 17:39:01.558616  5078 net.cpp:122] Setting up Convolution27
I1007 17:39:01.558625  5078 net.cpp:129] Top shape: 100 64 8 8 (409600)
I1007 17:39:01.558629  5078 net.cpp:137] Memory required for data: 622183600
I1007 17:39:01.558632  5078 layer_factory.hpp:77] Creating layer BatchNorm27
I1007 17:39:01.558646  5078 net.cpp:84] Creating Layer BatchNorm27
I1007 17:39:01.558650  5078 net.cpp:406] BatchNorm27 <- Convolution27
I1007 17:39:01.558655  5078 net.cpp:367] BatchNorm27 -> Convolution27 (in-place)
I1007 17:39:01.558809  5078 net.cpp:122] Setting up BatchNorm27
I1007 17:39:01.558814  5078 net.cpp:129] Top shape: 100 64 8 8 (409600)
I1007 17:39:01.558815  5078 net.cpp:137] Memory required for data: 623822000
I1007 17:39:01.558840  5078 layer_factory.hpp:77] Creating layer Scale27
I1007 17:39:01.558845  5078 net.cpp:84] Creating Layer Scale27
I1007 17:39:01.558847  5078 net.cpp:406] Scale27 <- Convolution27
I1007 17:39:01.558851  5078 net.cpp:367] Scale27 -> Convolution27 (in-place)
I1007 17:39:01.558881  5078 layer_factory.hpp:77] Creating layer Scale27
I1007 17:39:01.558969  5078 net.cpp:122] Setting up Scale27
I1007 17:39:01.558972  5078 net.cpp:129] Top shape: 100 64 8 8 (409600)
I1007 17:39:01.558974  5078 net.cpp:137] Memory required for data: 625460400
I1007 17:39:01.558979  5078 layer_factory.hpp:77] Creating layer Eltwise12
I1007 17:39:01.558982  5078 net.cpp:84] Creating Layer Eltwise12
I1007 17:39:01.558985  5078 net.cpp:406] Eltwise12 <- Eltwise11_penlu23_0_split_1
I1007 17:39:01.558990  5078 net.cpp:406] Eltwise12 <- Convolution27
I1007 17:39:01.558992  5078 net.cpp:380] Eltwise12 -> Eltwise12
I1007 17:39:01.559011  5078 net.cpp:122] Setting up Eltwise12
I1007 17:39:01.559015  5078 net.cpp:129] Top shape: 100 64 8 8 (409600)
I1007 17:39:01.559016  5078 net.cpp:137] Memory required for data: 627098800
I1007 17:39:01.559018  5078 layer_factory.hpp:77] Creating layer penlu25
I1007 17:39:01.559026  5078 net.cpp:84] Creating Layer penlu25
I1007 17:39:01.559028  5078 net.cpp:406] penlu25 <- Eltwise12
I1007 17:39:01.559031  5078 net.cpp:367] penlu25 -> Eltwise12 (in-place)
I1007 17:39:01.559156  5078 net.cpp:122] Setting up penlu25
I1007 17:39:01.559160  5078 net.cpp:129] Top shape: 100 64 8 8 (409600)
I1007 17:39:01.559162  5078 net.cpp:137] Memory required for data: 628737200
I1007 17:39:01.559171  5078 layer_factory.hpp:77] Creating layer Eltwise12_penlu25_0_split
I1007 17:39:01.559175  5078 net.cpp:84] Creating Layer Eltwise12_penlu25_0_split
I1007 17:39:01.559177  5078 net.cpp:406] Eltwise12_penlu25_0_split <- Eltwise12
I1007 17:39:01.559180  5078 net.cpp:380] Eltwise12_penlu25_0_split -> Eltwise12_penlu25_0_split_0
I1007 17:39:01.559185  5078 net.cpp:380] Eltwise12_penlu25_0_split -> Eltwise12_penlu25_0_split_1
I1007 17:39:01.559212  5078 net.cpp:122] Setting up Eltwise12_penlu25_0_split
I1007 17:39:01.559216  5078 net.cpp:129] Top shape: 100 64 8 8 (409600)
I1007 17:39:01.559218  5078 net.cpp:129] Top shape: 100 64 8 8 (409600)
I1007 17:39:01.559221  5078 net.cpp:137] Memory required for data: 632014000
I1007 17:39:01.559223  5078 layer_factory.hpp:77] Creating layer Convolution28
I1007 17:39:01.559229  5078 net.cpp:84] Creating Layer Convolution28
I1007 17:39:01.559232  5078 net.cpp:406] Convolution28 <- Eltwise12_penlu25_0_split_0
I1007 17:39:01.559236  5078 net.cpp:380] Convolution28 -> Convolution28
I1007 17:39:01.561283  5078 net.cpp:122] Setting up Convolution28
I1007 17:39:01.561298  5078 net.cpp:129] Top shape: 100 64 8 8 (409600)
I1007 17:39:01.561301  5078 net.cpp:137] Memory required for data: 633652400
I1007 17:39:01.561306  5078 layer_factory.hpp:77] Creating layer BatchNorm28
I1007 17:39:01.561312  5078 net.cpp:84] Creating Layer BatchNorm28
I1007 17:39:01.561316  5078 net.cpp:406] BatchNorm28 <- Convolution28
I1007 17:39:01.561318  5078 net.cpp:367] BatchNorm28 -> Convolution28 (in-place)
I1007 17:39:01.561475  5078 net.cpp:122] Setting up BatchNorm28
I1007 17:39:01.561480  5078 net.cpp:129] Top shape: 100 64 8 8 (409600)
I1007 17:39:01.561481  5078 net.cpp:137] Memory required for data: 635290800
I1007 17:39:01.561486  5078 layer_factory.hpp:77] Creating layer Scale28
I1007 17:39:01.561491  5078 net.cpp:84] Creating Layer Scale28
I1007 17:39:01.561492  5078 net.cpp:406] Scale28 <- Convolution28
I1007 17:39:01.561496  5078 net.cpp:367] Scale28 -> Convolution28 (in-place)
I1007 17:39:01.561527  5078 layer_factory.hpp:77] Creating layer Scale28
I1007 17:39:01.561614  5078 net.cpp:122] Setting up Scale28
I1007 17:39:01.561619  5078 net.cpp:129] Top shape: 100 64 8 8 (409600)
I1007 17:39:01.561620  5078 net.cpp:137] Memory required for data: 636929200
I1007 17:39:01.561625  5078 layer_factory.hpp:77] Creating layer penlu26
I1007 17:39:01.561630  5078 net.cpp:84] Creating Layer penlu26
I1007 17:39:01.561632  5078 net.cpp:406] penlu26 <- Convolution28
I1007 17:39:01.561635  5078 net.cpp:367] penlu26 -> Convolution28 (in-place)
I1007 17:39:01.561758  5078 net.cpp:122] Setting up penlu26
I1007 17:39:01.561763  5078 net.cpp:129] Top shape: 100 64 8 8 (409600)
I1007 17:39:01.561764  5078 net.cpp:137] Memory required for data: 638567600
I1007 17:39:01.561769  5078 layer_factory.hpp:77] Creating layer Convolution29
I1007 17:39:01.561775  5078 net.cpp:84] Creating Layer Convolution29
I1007 17:39:01.561777  5078 net.cpp:406] Convolution29 <- Convolution28
I1007 17:39:01.561781  5078 net.cpp:380] Convolution29 -> Convolution29
I1007 17:39:01.564026  5078 net.cpp:122] Setting up Convolution29
I1007 17:39:01.564035  5078 net.cpp:129] Top shape: 100 64 8 8 (409600)
I1007 17:39:01.564038  5078 net.cpp:137] Memory required for data: 640206000
I1007 17:39:01.564043  5078 layer_factory.hpp:77] Creating layer BatchNorm29
I1007 17:39:01.564049  5078 net.cpp:84] Creating Layer BatchNorm29
I1007 17:39:01.564051  5078 net.cpp:406] BatchNorm29 <- Convolution29
I1007 17:39:01.564054  5078 net.cpp:367] BatchNorm29 -> Convolution29 (in-place)
I1007 17:39:01.564215  5078 net.cpp:122] Setting up BatchNorm29
I1007 17:39:01.564219  5078 net.cpp:129] Top shape: 100 64 8 8 (409600)
I1007 17:39:01.564221  5078 net.cpp:137] Memory required for data: 641844400
I1007 17:39:01.564226  5078 layer_factory.hpp:77] Creating layer Scale29
I1007 17:39:01.564230  5078 net.cpp:84] Creating Layer Scale29
I1007 17:39:01.564232  5078 net.cpp:406] Scale29 <- Convolution29
I1007 17:39:01.564236  5078 net.cpp:367] Scale29 -> Convolution29 (in-place)
I1007 17:39:01.564266  5078 layer_factory.hpp:77] Creating layer Scale29
I1007 17:39:01.564353  5078 net.cpp:122] Setting up Scale29
I1007 17:39:01.564357  5078 net.cpp:129] Top shape: 100 64 8 8 (409600)
I1007 17:39:01.564359  5078 net.cpp:137] Memory required for data: 643482800
I1007 17:39:01.564363  5078 layer_factory.hpp:77] Creating layer Eltwise13
I1007 17:39:01.564368  5078 net.cpp:84] Creating Layer Eltwise13
I1007 17:39:01.564369  5078 net.cpp:406] Eltwise13 <- Eltwise12_penlu25_0_split_1
I1007 17:39:01.564373  5078 net.cpp:406] Eltwise13 <- Convolution29
I1007 17:39:01.564376  5078 net.cpp:380] Eltwise13 -> Eltwise13
I1007 17:39:01.564394  5078 net.cpp:122] Setting up Eltwise13
I1007 17:39:01.564399  5078 net.cpp:129] Top shape: 100 64 8 8 (409600)
I1007 17:39:01.564400  5078 net.cpp:137] Memory required for data: 645121200
I1007 17:39:01.564402  5078 layer_factory.hpp:77] Creating layer penlu27
I1007 17:39:01.564406  5078 net.cpp:84] Creating Layer penlu27
I1007 17:39:01.564409  5078 net.cpp:406] penlu27 <- Eltwise13
I1007 17:39:01.564414  5078 net.cpp:367] penlu27 -> Eltwise13 (in-place)
I1007 17:39:01.564543  5078 net.cpp:122] Setting up penlu27
I1007 17:39:01.564548  5078 net.cpp:129] Top shape: 100 64 8 8 (409600)
I1007 17:39:01.564550  5078 net.cpp:137] Memory required for data: 646759600
I1007 17:39:01.564554  5078 layer_factory.hpp:77] Creating layer Eltwise13_penlu27_0_split
I1007 17:39:01.564558  5078 net.cpp:84] Creating Layer Eltwise13_penlu27_0_split
I1007 17:39:01.564560  5078 net.cpp:406] Eltwise13_penlu27_0_split <- Eltwise13
I1007 17:39:01.564563  5078 net.cpp:380] Eltwise13_penlu27_0_split -> Eltwise13_penlu27_0_split_0
I1007 17:39:01.564568  5078 net.cpp:380] Eltwise13_penlu27_0_split -> Eltwise13_penlu27_0_split_1
I1007 17:39:01.564594  5078 net.cpp:122] Setting up Eltwise13_penlu27_0_split
I1007 17:39:01.564597  5078 net.cpp:129] Top shape: 100 64 8 8 (409600)
I1007 17:39:01.564600  5078 net.cpp:129] Top shape: 100 64 8 8 (409600)
I1007 17:39:01.564602  5078 net.cpp:137] Memory required for data: 650036400
I1007 17:39:01.564604  5078 layer_factory.hpp:77] Creating layer Convolution30
I1007 17:39:01.564610  5078 net.cpp:84] Creating Layer Convolution30
I1007 17:39:01.564613  5078 net.cpp:406] Convolution30 <- Eltwise13_penlu27_0_split_0
I1007 17:39:01.564617  5078 net.cpp:380] Convolution30 -> Convolution30
I1007 17:39:01.566630  5078 net.cpp:122] Setting up Convolution30
I1007 17:39:01.566639  5078 net.cpp:129] Top shape: 100 64 8 8 (409600)
I1007 17:39:01.566642  5078 net.cpp:137] Memory required for data: 651674800
I1007 17:39:01.566646  5078 layer_factory.hpp:77] Creating layer BatchNorm30
I1007 17:39:01.566651  5078 net.cpp:84] Creating Layer BatchNorm30
I1007 17:39:01.566654  5078 net.cpp:406] BatchNorm30 <- Convolution30
I1007 17:39:01.566658  5078 net.cpp:367] BatchNorm30 -> Convolution30 (in-place)
I1007 17:39:01.566812  5078 net.cpp:122] Setting up BatchNorm30
I1007 17:39:01.566817  5078 net.cpp:129] Top shape: 100 64 8 8 (409600)
I1007 17:39:01.566819  5078 net.cpp:137] Memory required for data: 653313200
I1007 17:39:01.566833  5078 layer_factory.hpp:77] Creating layer Scale30
I1007 17:39:01.566836  5078 net.cpp:84] Creating Layer Scale30
I1007 17:39:01.566839  5078 net.cpp:406] Scale30 <- Convolution30
I1007 17:39:01.566843  5078 net.cpp:367] Scale30 -> Convolution30 (in-place)
I1007 17:39:01.566875  5078 layer_factory.hpp:77] Creating layer Scale30
I1007 17:39:01.566967  5078 net.cpp:122] Setting up Scale30
I1007 17:39:01.566970  5078 net.cpp:129] Top shape: 100 64 8 8 (409600)
I1007 17:39:01.566972  5078 net.cpp:137] Memory required for data: 654951600
I1007 17:39:01.566977  5078 layer_factory.hpp:77] Creating layer penlu28
I1007 17:39:01.566982  5078 net.cpp:84] Creating Layer penlu28
I1007 17:39:01.566984  5078 net.cpp:406] penlu28 <- Convolution30
I1007 17:39:01.566988  5078 net.cpp:367] penlu28 -> Convolution30 (in-place)
I1007 17:39:01.567116  5078 net.cpp:122] Setting up penlu28
I1007 17:39:01.567121  5078 net.cpp:129] Top shape: 100 64 8 8 (409600)
I1007 17:39:01.567122  5078 net.cpp:137] Memory required for data: 656590000
I1007 17:39:01.567126  5078 layer_factory.hpp:77] Creating layer Convolution31
I1007 17:39:01.567133  5078 net.cpp:84] Creating Layer Convolution31
I1007 17:39:01.567136  5078 net.cpp:406] Convolution31 <- Convolution30
I1007 17:39:01.567139  5078 net.cpp:380] Convolution31 -> Convolution31
I1007 17:39:01.568856  5078 net.cpp:122] Setting up Convolution31
I1007 17:39:01.568864  5078 net.cpp:129] Top shape: 100 64 8 8 (409600)
I1007 17:39:01.568867  5078 net.cpp:137] Memory required for data: 658228400
I1007 17:39:01.568872  5078 layer_factory.hpp:77] Creating layer BatchNorm31
I1007 17:39:01.568877  5078 net.cpp:84] Creating Layer BatchNorm31
I1007 17:39:01.568881  5078 net.cpp:406] BatchNorm31 <- Convolution31
I1007 17:39:01.568884  5078 net.cpp:367] BatchNorm31 -> Convolution31 (in-place)
I1007 17:39:01.569039  5078 net.cpp:122] Setting up BatchNorm31
I1007 17:39:01.569044  5078 net.cpp:129] Top shape: 100 64 8 8 (409600)
I1007 17:39:01.569046  5078 net.cpp:137] Memory required for data: 659866800
I1007 17:39:01.569051  5078 layer_factory.hpp:77] Creating layer Scale31
I1007 17:39:01.569061  5078 net.cpp:84] Creating Layer Scale31
I1007 17:39:01.584877  5078 net.cpp:406] Scale31 <- Convolution31
I1007 17:39:01.584890  5078 net.cpp:367] Scale31 -> Convolution31 (in-place)
I1007 17:39:01.584949  5078 layer_factory.hpp:77] Creating layer Scale31
I1007 17:39:01.585053  5078 net.cpp:122] Setting up Scale31
I1007 17:39:01.585058  5078 net.cpp:129] Top shape: 100 64 8 8 (409600)
I1007 17:39:01.585062  5078 net.cpp:137] Memory required for data: 661505200
I1007 17:39:01.585065  5078 layer_factory.hpp:77] Creating layer Eltwise14
I1007 17:39:01.585070  5078 net.cpp:84] Creating Layer Eltwise14
I1007 17:39:01.585073  5078 net.cpp:406] Eltwise14 <- Eltwise13_penlu27_0_split_1
I1007 17:39:01.585078  5078 net.cpp:406] Eltwise14 <- Convolution31
I1007 17:39:01.585080  5078 net.cpp:380] Eltwise14 -> Eltwise14
I1007 17:39:01.585100  5078 net.cpp:122] Setting up Eltwise14
I1007 17:39:01.585105  5078 net.cpp:129] Top shape: 100 64 8 8 (409600)
I1007 17:39:01.585108  5078 net.cpp:137] Memory required for data: 663143600
I1007 17:39:01.585109  5078 layer_factory.hpp:77] Creating layer penlu29
I1007 17:39:01.585115  5078 net.cpp:84] Creating Layer penlu29
I1007 17:39:01.585119  5078 net.cpp:406] penlu29 <- Eltwise14
I1007 17:39:01.585121  5078 net.cpp:367] penlu29 -> Eltwise14 (in-place)
I1007 17:39:01.585258  5078 net.cpp:122] Setting up penlu29
I1007 17:39:01.585261  5078 net.cpp:129] Top shape: 100 64 8 8 (409600)
I1007 17:39:01.585264  5078 net.cpp:137] Memory required for data: 664782000
I1007 17:39:01.585269  5078 layer_factory.hpp:77] Creating layer Eltwise14_penlu29_0_split
I1007 17:39:01.585273  5078 net.cpp:84] Creating Layer Eltwise14_penlu29_0_split
I1007 17:39:01.585275  5078 net.cpp:406] Eltwise14_penlu29_0_split <- Eltwise14
I1007 17:39:01.585281  5078 net.cpp:380] Eltwise14_penlu29_0_split -> Eltwise14_penlu29_0_split_0
I1007 17:39:01.585285  5078 net.cpp:380] Eltwise14_penlu29_0_split -> Eltwise14_penlu29_0_split_1
I1007 17:39:01.585314  5078 net.cpp:122] Setting up Eltwise14_penlu29_0_split
I1007 17:39:01.585319  5078 net.cpp:129] Top shape: 100 64 8 8 (409600)
I1007 17:39:01.585321  5078 net.cpp:129] Top shape: 100 64 8 8 (409600)
I1007 17:39:01.585325  5078 net.cpp:137] Memory required for data: 668058800
I1007 17:39:01.585326  5078 layer_factory.hpp:77] Creating layer Convolution32
I1007 17:39:01.585335  5078 net.cpp:84] Creating Layer Convolution32
I1007 17:39:01.585337  5078 net.cpp:406] Convolution32 <- Eltwise14_penlu29_0_split_0
I1007 17:39:01.585341  5078 net.cpp:380] Convolution32 -> Convolution32
I1007 17:39:01.587733  5078 net.cpp:122] Setting up Convolution32
I1007 17:39:01.587741  5078 net.cpp:129] Top shape: 100 64 8 8 (409600)
I1007 17:39:01.587744  5078 net.cpp:137] Memory required for data: 669697200
I1007 17:39:01.587749  5078 layer_factory.hpp:77] Creating layer BatchNorm32
I1007 17:39:01.587754  5078 net.cpp:84] Creating Layer BatchNorm32
I1007 17:39:01.587756  5078 net.cpp:406] BatchNorm32 <- Convolution32
I1007 17:39:01.587761  5078 net.cpp:367] BatchNorm32 -> Convolution32 (in-place)
I1007 17:39:01.587923  5078 net.cpp:122] Setting up BatchNorm32
I1007 17:39:01.587926  5078 net.cpp:129] Top shape: 100 64 8 8 (409600)
I1007 17:39:01.587929  5078 net.cpp:137] Memory required for data: 671335600
I1007 17:39:01.587934  5078 layer_factory.hpp:77] Creating layer Scale32
I1007 17:39:01.587937  5078 net.cpp:84] Creating Layer Scale32
I1007 17:39:01.587940  5078 net.cpp:406] Scale32 <- Convolution32
I1007 17:39:01.587944  5078 net.cpp:367] Scale32 -> Convolution32 (in-place)
I1007 17:39:01.587975  5078 layer_factory.hpp:77] Creating layer Scale32
I1007 17:39:01.588063  5078 net.cpp:122] Setting up Scale32
I1007 17:39:01.588068  5078 net.cpp:129] Top shape: 100 64 8 8 (409600)
I1007 17:39:01.588070  5078 net.cpp:137] Memory required for data: 672974000
I1007 17:39:01.588073  5078 layer_factory.hpp:77] Creating layer penlu30
I1007 17:39:01.588089  5078 net.cpp:84] Creating Layer penlu30
I1007 17:39:01.588093  5078 net.cpp:406] penlu30 <- Convolution32
I1007 17:39:01.588104  5078 net.cpp:367] penlu30 -> Convolution32 (in-place)
I1007 17:39:01.588233  5078 net.cpp:122] Setting up penlu30
I1007 17:39:01.588238  5078 net.cpp:129] Top shape: 100 64 8 8 (409600)
I1007 17:39:01.588240  5078 net.cpp:137] Memory required for data: 674612400
I1007 17:39:01.588245  5078 layer_factory.hpp:77] Creating layer Convolution33
I1007 17:39:01.588251  5078 net.cpp:84] Creating Layer Convolution33
I1007 17:39:01.588254  5078 net.cpp:406] Convolution33 <- Convolution32
I1007 17:39:01.588259  5078 net.cpp:380] Convolution33 -> Convolution33
I1007 17:39:01.590008  5078 net.cpp:122] Setting up Convolution33
I1007 17:39:01.590018  5078 net.cpp:129] Top shape: 100 64 8 8 (409600)
I1007 17:39:01.590020  5078 net.cpp:137] Memory required for data: 676250800
I1007 17:39:01.590024  5078 layer_factory.hpp:77] Creating layer BatchNorm33
I1007 17:39:01.590029  5078 net.cpp:84] Creating Layer BatchNorm33
I1007 17:39:01.590032  5078 net.cpp:406] BatchNorm33 <- Convolution33
I1007 17:39:01.590037  5078 net.cpp:367] BatchNorm33 -> Convolution33 (in-place)
I1007 17:39:01.590193  5078 net.cpp:122] Setting up BatchNorm33
I1007 17:39:01.590196  5078 net.cpp:129] Top shape: 100 64 8 8 (409600)
I1007 17:39:01.590198  5078 net.cpp:137] Memory required for data: 677889200
I1007 17:39:01.590204  5078 layer_factory.hpp:77] Creating layer Scale33
I1007 17:39:01.590207  5078 net.cpp:84] Creating Layer Scale33
I1007 17:39:01.590210  5078 net.cpp:406] Scale33 <- Convolution33
I1007 17:39:01.590214  5078 net.cpp:367] Scale33 -> Convolution33 (in-place)
I1007 17:39:01.590245  5078 layer_factory.hpp:77] Creating layer Scale33
I1007 17:39:01.590335  5078 net.cpp:122] Setting up Scale33
I1007 17:39:01.590340  5078 net.cpp:129] Top shape: 100 64 8 8 (409600)
I1007 17:39:01.590342  5078 net.cpp:137] Memory required for data: 679527600
I1007 17:39:01.590346  5078 layer_factory.hpp:77] Creating layer Eltwise15
I1007 17:39:01.590349  5078 net.cpp:84] Creating Layer Eltwise15
I1007 17:39:01.590353  5078 net.cpp:406] Eltwise15 <- Eltwise14_penlu29_0_split_1
I1007 17:39:01.590355  5078 net.cpp:406] Eltwise15 <- Convolution33
I1007 17:39:01.590359  5078 net.cpp:380] Eltwise15 -> Eltwise15
I1007 17:39:01.590378  5078 net.cpp:122] Setting up Eltwise15
I1007 17:39:01.590384  5078 net.cpp:129] Top shape: 100 64 8 8 (409600)
I1007 17:39:01.590385  5078 net.cpp:137] Memory required for data: 681166000
I1007 17:39:01.590387  5078 layer_factory.hpp:77] Creating layer penlu31
I1007 17:39:01.590392  5078 net.cpp:84] Creating Layer penlu31
I1007 17:39:01.590394  5078 net.cpp:406] penlu31 <- Eltwise15
I1007 17:39:01.590399  5078 net.cpp:367] penlu31 -> Eltwise15 (in-place)
I1007 17:39:01.590520  5078 net.cpp:122] Setting up penlu31
I1007 17:39:01.590525  5078 net.cpp:129] Top shape: 100 64 8 8 (409600)
I1007 17:39:01.590528  5078 net.cpp:137] Memory required for data: 682804400
I1007 17:39:01.590531  5078 layer_factory.hpp:77] Creating layer Pooling1
I1007 17:39:01.590536  5078 net.cpp:84] Creating Layer Pooling1
I1007 17:39:01.590538  5078 net.cpp:406] Pooling1 <- Eltwise15
I1007 17:39:01.590543  5078 net.cpp:380] Pooling1 -> Pooling1
I1007 17:39:01.590687  5078 net.cpp:122] Setting up Pooling1
I1007 17:39:01.590693  5078 net.cpp:129] Top shape: 100 64 1 1 (6400)
I1007 17:39:01.590695  5078 net.cpp:137] Memory required for data: 682830000
I1007 17:39:01.590698  5078 layer_factory.hpp:77] Creating layer InnerProduct1
I1007 17:39:01.590704  5078 net.cpp:84] Creating Layer InnerProduct1
I1007 17:39:01.590706  5078 net.cpp:406] InnerProduct1 <- Pooling1
I1007 17:39:01.590710  5078 net.cpp:380] InnerProduct1 -> InnerProduct1
I1007 17:39:01.590818  5078 net.cpp:122] Setting up InnerProduct1
I1007 17:39:01.590823  5078 net.cpp:129] Top shape: 100 10 (1000)
I1007 17:39:01.590826  5078 net.cpp:137] Memory required for data: 682834000
I1007 17:39:01.590829  5078 layer_factory.hpp:77] Creating layer InnerProduct1_InnerProduct1_0_split
I1007 17:39:01.590833  5078 net.cpp:84] Creating Layer InnerProduct1_InnerProduct1_0_split
I1007 17:39:01.590842  5078 net.cpp:406] InnerProduct1_InnerProduct1_0_split <- InnerProduct1
I1007 17:39:01.590847  5078 net.cpp:380] InnerProduct1_InnerProduct1_0_split -> InnerProduct1_InnerProduct1_0_split_0
I1007 17:39:01.590852  5078 net.cpp:380] InnerProduct1_InnerProduct1_0_split -> InnerProduct1_InnerProduct1_0_split_1
I1007 17:39:01.590880  5078 net.cpp:122] Setting up InnerProduct1_InnerProduct1_0_split
I1007 17:39:01.590884  5078 net.cpp:129] Top shape: 100 10 (1000)
I1007 17:39:01.590886  5078 net.cpp:129] Top shape: 100 10 (1000)
I1007 17:39:01.590889  5078 net.cpp:137] Memory required for data: 682842000
I1007 17:39:01.590891  5078 layer_factory.hpp:77] Creating layer SoftmaxWithLoss1
I1007 17:39:01.590895  5078 net.cpp:84] Creating Layer SoftmaxWithLoss1
I1007 17:39:01.590898  5078 net.cpp:406] SoftmaxWithLoss1 <- InnerProduct1_InnerProduct1_0_split_0
I1007 17:39:01.590901  5078 net.cpp:406] SoftmaxWithLoss1 <- Data2_Data1_1_split_0
…
