…
I1005 20:35:19.254072 10142 net.cpp:294] The NetState phase (0) differed from the phase (1) specified by a rule in layer Accuracy1
I1005 20:35:19.254609 10142 net.cpp:51] Initializing net from parameters: 
name: "resnet_cifar10"
state {
  phase: TRAIN
  level: 0
  stage: ""
}
layer {
  name: "Data1"
  type: "Data"
  top: "Data1"
  top: "Data2"
  include {
    phase: TRAIN
  }
  transform_param {
    mirror: true
    crop_size: 28
    mean_file: "/home/x306/caffe/xn/PENLU/data/cifar10/mean.binaryproto"
  }
  data_param {
    source: "/home/x306/caffe/xn/PENLU/data/cifar10/cifar10_train_lmdb"
    batch_size: 100
    backend: LMDB
  }
}
layer {
  name: "Convolution1"
  type: "Convolution"
  bottom: "Data1"
  top: "Convolution1"
  param {
    lr_mult: 1
    decay_mult: 1
  }
  param {
    lr_mult: 2
    decay_mult: 0
  }
  convolution_param {
    num_output: 16
    pad: 1
    kernel_size: 3
    stride: 1
    weight_filler {
      type: "gaussian"
      std: 0.118
    }
    bias_filler {
      type: "constant"
      value: 0
    }
  }
}
layer {
  name: "BatchNorm1"
  type: "BatchNorm"
  bottom: "Convolution1"
  top: "Convolution1"
  param {
    lr_mult: 0
    decay_mult: 0
  }
  param {
    lr_mult: 0
    decay_mult: 0
  }
  param {
    lr_mult: 0
    decay_mult: 0
  }
}
layer {
  name: "Scale1"
  type: "Scale"
  bottom: "Convolution1"
  top: "Convolution1"
  scale_param {
    bias_term: true
  }
}
layer {
  name: "ReLU1"
  type: "ReLU"
  bottom: "Convolution1"
  top: "Convolution1"
}
layer {
  name: "Convolution2"
  type: "Convolution"
  bottom: "Convolution1"
  top: "Convolution2"
  param {
    lr_mult: 1
    decay_mult: 1
  }
  param {
    lr_mult: 2
    decay_mult: 0
  }
  convolution_param {
    num_output: 16
    pad: 1
    kernel_size: 3
    stride: 1
    weight_filler {
      type: "gaussian"
      std: 0.118
    }
    bias_filler {
      type: "constant"
      value: 0
    }
  }
}
layer {
  name: "BatchNorm2"
  type: "BatchNorm"
  bottom: "Convolution2"
  top: "Convolution2"
  param {
    lr_mult: 0
    decay_mult: 0
  }
  param {
    lr_mult: 0
    decay_mult: 0
  }
  param {
    lr_mult: 0
    decay_mult: 0
  }
}
layer {
  name: "Scale2"
  type: "Scale"
  bottom: "Convolution2"
  top: "Convolution2"
  scale_param {
    bias_term: true
  }
}
layer {
  name: "ReLU2"
  type: "ReLU"
  bottom: "Convolution2"
  top: "Convolution2"
}
layer {
  name: "Convolution3"
  type: "Convolution"
  bottom: "Convolution2"
  top: "Convolution3"
  param {
    lr_mult: 1
    decay_mult: 1
  }
  param {
    lr_mult: 2
    decay_mult: 0
  }
  convolution_param {
    num_output: 16
    pad: 1
    kernel_size: 3
    stride: 1
    weight_filler {
      type: "gaussian"
      std: 0.118
    }
    bias_filler {
      type: "constant"
      value: 0
    }
  }
}
layer {
  name: "BatchNorm3"
  type: "BatchNorm"
  bottom: "Convolution3"
  top: "Convolution3"
  param {
    lr_mult: 0
    decay_mult: 0
  }
  param {
    lr_mult: 0
    decay_mult: 0
  }
  param {
    lr_mult: 0
    decay_mult: 0
  }
}
layer {
  name: "Scale3"
  type: "Scale"
  bottom: "Convolution3"
  top: "Convolution3"
  scale_param {
    bias_term: true
  }
}
layer {
  name: "Eltwise1"
  type: "Eltwise"
  bottom: "Convolution1"
  bottom: "Convolution3"
  top: "Eltwise1"
  eltwise_param {
    operation: SUM
  }
}
layer {
  name: "ReLU3"
  type: "ReLU"
  bottom: "Eltwise1"
  top: "Eltwise1"
}
layer {
  name: "Convolution4"
  type: "Convolution"
  bottom: "Eltwise1"
  top: "Convolution4"
  param {
    lr_mult: 1
    decay_mult: 1
  }
  param {
    lr_mult: 2
    decay_mult: 0
  }
  convolution_param {
    num_output: 16
    pad: 1
    kernel_size: 3
    stride: 1
    weight_filler {
      type: "gaussian"
      std: 0.118
    }
    bias_filler {
      type: "constant"
      value: 0
    }
  }
}
layer {
  name: "BatchNorm4"
  type: "BatchNorm"
  bottom: "Convolution4"
  top: "Convolution4"
  param {
    lr_mult: 0
    decay_mult: 0
  }
  param {
    lr_mult: 0
    decay_mult: 0
  }
  param {
    lr_mult: 0
    decay_mult: 0
  }
}
layer {
  name: "Scale4"
  type: "Scale"
  bottom: "Convolution4"
  top: "Convolution4"
  scale_param {
    bias_term: true
  }
}
layer {
  name: "ReLU4"
  type: "ReLU"
  bottom: "Convolution4"
  top: "Convolution4"
}
layer {
  name: "Convolution5"
  type: "Convolution"
  bottom: "Convolution4"
  top: "Convolution5"
  param {
    lr_mult: 1
    decay_mult: 1
  }
  param {
    lr_mult: 2
    decay_mult: 0
  }
  convolution_param {
    num_output: 16
    pad: 1
    kernel_size: 3
    stride: 1
    weight_filler {
      type: "gaussian"
      std: 0.118
    }
    bias_filler {
      type: "constant"
      value: 0
    }
  }
}
layer {
  name: "BatchNorm5"
  type: "BatchNorm"
  bottom: "Convolution5"
  top: "Convolution5"
  param {
    lr_mult: 0
    decay_mult: 0
  }
  param {
    lr_mult: 0
    decay_mult: 0
  }
  param {
    lr_mult: 0
    decay_mult: 0
  }
}
layer {
  name: "Scale5"
  type: "Scale"
  bottom: "Convolution5"
  top: "Convolution5"
  scale_param {
    bias_term: true
  }
}
layer {
  name: "Eltwise2"
  type: "Eltwise"
  bottom: "Eltwise1"
  bottom: "Convolution5"
  top: "Eltwise2"
  eltwise_param {
    operation: SUM
  }
}
layer {
  name: "ReLU5"
  type: "ReLU"
  bottom: "Eltwise2"
  top: "Eltwise2"
}
layer {
  name: "Convolution6"
  type: "Convolution"
  bottom: "Eltwise2"
  top: "Convolution6"
  param {
    lr_mult: 1
    decay_mult: 1
  }
  param {
    lr_mult: 2
    decay_mult: 0
  }
  convolution_param {
    num_output: 16
    pad: 1
    kernel_size: 3
    stride: 1
    weight_filler {
      type: "gaussian"
      std: 0.118
    }
    bias_filler {
      type: "constant"
      value: 0
    }
  }
}
layer {
  name: "BatchNorm6"
  type: "BatchNorm"
  bottom: "Convolution6"
  top: "Convolution6"
  param {
    lr_mult: 0
    decay_mult: 0
  }
  param {
    lr_mult: 0
    decay_mult: 0
  }
  param {
    lr_mult: 0
    decay_mult: 0
  }
}
layer {
  name: "Scale6"
  type: "Scale"
  bottom: "Convolution6"
  top: "Convolution6"
  scale_param {
    bias_term: true
  }
}
layer {
  name: "ReLU6"
  type: "ReLU"
  bottom: "Convolution6"
  top: "Convolution6"
}
layer {
  name: "Convolution7"
  type: "Convolution"
  bottom: "Convolution6"
  top: "Convolution7"
  param {
    lr_mult: 1
    decay_mult: 1
  }
  param {
    lr_mult: 2
    decay_mult: 0
  }
  convolution_param {
    num_output: 16
    pad: 1
    kernel_size: 3
    stride: 1
    weight_filler {
      type: "gaussian"
      std: 0.118
    }
    bias_filler {
      type: "constant"
      value: 0
    }
  }
}
layer {
  name: "BatchNorm7"
  type: "BatchNorm"
  bottom: "Convolution7"
  top: "Convolution7"
  param {
    lr_mult: 0
    decay_mult: 0
  }
  param {
    lr_mult: 0
    decay_mult: 0
  }
  param {
    lr_mult: 0
    decay_mult: 0
  }
}
layer {
  name: "Scale7"
  type: "Scale"
  bottom: "Convolution7"
  top: "Convolution7"
  scale_param {
    bias_term: true
  }
}
layer {
  name: "Eltwise3"
  type: "Eltwise"
  bottom: "Eltwise2"
  bottom: "Convolution7"
  top: "Eltwise3"
  eltwise_param {
    operation: SUM
  }
}
layer {
  name: "ReLU7"
  type: "ReLU"
  bottom: "Eltwise3"
  top: "Eltwise3"
}
layer {
  name: "Convolution8"
  type: "Convolution"
  bottom: "Eltwise3"
  top: "Convolution8"
  param {
    lr_mult: 1
    decay_mult: 1
  }
  param {
    lr_mult: 2
    decay_mult: 0
  }
  convolution_param {
    num_output: 16
    pad: 1
    kernel_size: 3
    stride: 1
    weight_filler {
      type: "gaussian"
      std: 0.118
    }
    bias_filler {
      type: "constant"
      value: 0
    }
  }
}
layer {
  name: "BatchNorm8"
  type: "BatchNorm"
  bottom: "Convolution8"
  top: "Convolution8"
  param {
    lr_mult: 0
    decay_mult: 0
  }
  param {
    lr_mult: 0
    decay_mult: 0
  }
  param {
    lr_mult: 0
    decay_mult: 0
  }
}
layer {
  name: "Scale8"
  type: "Scale"
  bottom: "Convolution8"
  top: "Convolution8"
  scale_param {
    bias_term: true
  }
}
layer {
  name: "ReLU8"
  type: "ReLU"
  bottom: "Convolution8"
  top: "Convolution8"
}
layer {
  name: "Convolution9"
  type: "Convolution"
  bottom: "Convolution8"
  top: "Convolution9"
  param {
    lr_mult: 1
    decay_mult: 1
  }
  param {
    lr_mult: 2
    decay_mult: 0
  }
  convolution_param {
    num_output: 16
    pad: 1
    kernel_size: 3
    stride: 1
    weight_filler {
      type: "gaussian"
      std: 0.118
    }
    bias_filler {
      type: "constant"
      value: 0
    }
  }
}
layer {
  name: "BatchNorm9"
  type: "BatchNorm"
  bottom: "Convolution9"
  top: "Convolution9"
  param {
    lr_mult: 0
    decay_mult: 0
  }
  param {
    lr_mult: 0
    decay_mult: 0
  }
  param {
    lr_mult: 0
    decay_mult: 0
  }
}
layer {
  name: "Scale9"
  type: "Scale"
  bottom: "Convolution9"
  top: "Convolution9"
  scale_param {
    bias_term: true
  }
}
layer {
  name: "Eltwise4"
  type: "Eltwise"
  bottom: "Eltwise3"
  bottom: "Convolution9"
  top: "Eltwise4"
  eltwise_param {
    operation: SUM
  }
}
layer {
  name: "ReLU9"
  type: "ReLU"
  bottom: "Eltwise4"
  top: "Eltwise4"
}
layer {
  name: "Convolution10"
  type: "Convolution"
  bottom: "Eltwise4"
  top: "Convolution10"
  param {
    lr_mult: 1
    decay_mult: 1
  }
  param {
    lr_mult: 2
    decay_mult: 0
  }
  convolution_param {
    num_output: 16
    pad: 1
    kernel_size: 3
    stride: 1
    weight_filler {
      type: "gaussian"
      std: 0.118
    }
    bias_filler {
      type: "constant"
      value: 0
    }
  }
}
layer {
  name: "BatchNorm10"
  type: "BatchNorm"
  bottom: "Convolution10"
  top: "Convolution10"
  param {
    lr_mult: 0
    decay_mult: 0
  }
  param {
    lr_mult: 0
    decay_mult: 0
  }
  param {
    lr_mult: 0
    decay_mult: 0
  }
}
layer {
  name: "Scale10"
  type: "Scale"
  bottom: "Convolution10"
  top: "Convolution10"
  scale_param {
    bias_term: true
  }
}
layer {
  name: "ReLU10"
  type: "ReLU"
  bottom: "Convolution10"
  top: "Convolution10"
}
layer {
  name: "Convolution11"
  type: "Convolution"
  bottom: "Convolution10"
  top: "Convolution11"
  param {
    lr_mult: 1
    decay_mult: 1
  }
  param {
    lr_mult: 2
    decay_mult: 0
  }
  convolution_param {
    num_output: 16
    pad: 1
    kernel_size: 3
    stride: 1
    weight_filler {
      type: "gaussian"
      std: 0.118
    }
    bias_filler {
      type: "constant"
      value: 0
    }
  }
}
layer {
  name: "BatchNorm11"
  type: "BatchNorm"
  bottom: "Convolution11"
  top: "Convolution11"
  param {
    lr_mult: 0
    decay_mult: 0
  }
  param {
    lr_mult: 0
    decay_mult: 0
  }
  param {
    lr_mult: 0
    decay_mult: 0
  }
}
layer {
  name: "Scale11"
  type: "Scale"
  bottom: "Convolution11"
  top: "Convolution11"
  scale_param {
    bias_term: true
  }
}
layer {
  name: "Eltwise5"
  type: "Eltwise"
  bottom: "Eltwise4"
  bottom: "Convolution11"
  top: "Eltwise5"
  eltwise_param {
    operation: SUM
  }
}
layer {
  name: "ReLU11"
  type: "ReLU"
  bottom: "Eltwise5"
  top: "Eltwise5"
}
layer {
  name: "Convolution12"
  type: "Convolution"
  bottom: "Eltwise5"
  top: "Convolution12"
  param {
    lr_mult: 1
    decay_mult: 1
  }
  param {
    lr_mult: 2
    decay_mult: 0
  }
  convolution_param {
    num_output: 32
    pad: 0
    kernel_size: 1
    stride: 2
    weight_filler {
      type: "gaussian"
      std: 0.25
    }
    bias_filler {
      type: "constant"
      value: 0
    }
  }
}
layer {
  name: "BatchNorm12"
  type: "BatchNorm"
  bottom: "Convolution12"
  top: "Convolution12"
  param {
    lr_mult: 0
    decay_mult: 0
  }
  param {
    lr_mult: 0
    decay_mult: 0
  }
  param {
    lr_mult: 0
    decay_mult: 0
  }
}
layer {
  name: "Scale12"
  type: "Scale"
  bottom: "Convolution12"
  top: "Convolution12"
  scale_param {
    bias_term: true
  }
}
layer {
  name: "Convolution13"
  type: "Convolution"
  bottom: "Eltwise5"
  top: "Convolution13"
  param {
    lr_mult: 1
    decay_mult: 1
  }
  param {
    lr_mult: 2
    decay_mult: 0
  }
  convolution_param {
    num_output: 32
    pad: 1
    kernel_size: 3
    stride: 2
    weight_filler {
      type: "gaussian"
      std: 0.083
    }
    bias_filler {
      type: "constant"
      value: 0
    }
  }
}
layer {
  name: "BatchNorm13"
  type: "BatchNorm"
  bottom: "Convolution13"
  top: "Convolution13"
  param {
    lr_mult: 0
    decay_mult: 0
  }
  param {
    lr_mult: 0
    decay_mult: 0
  }
  param {
    lr_mult: 0
    decay_mult: 0
  }
}
layer {
  name: "Scale13"
  type: "Scale"
  bottom: "Convolution13"
  top: "Convolution13"
  scale_param {
    bias_term: true
  }
}
layer {
  name: "ReLU12"
  type: "ReLU"
  bottom: "Convolution13"
  top: "Convolution13"
}
layer {
  name: "Convolution14"
  type: "Convolution"
  bottom: "Convolution13"
  top: "Convolution14"
  param {
    lr_mult: 1
    decay_mult: 1
  }
  param {
    lr_mult: 2
    decay_mult: 0
  }
  convolution_param {
    num_output: 32
    pad: 1
    kernel_size: 3
    stride: 1
    weight_filler {
      type: "gaussian"
      std: 0.083
    }
    bias_filler {
      type: "constant"
      value: 0
    }
  }
}
layer {
  name: "BatchNorm14"
  type: "BatchNorm"
  bottom: "Convolution14"
  top: "Convolution14"
  param {
    lr_mult: 0
    decay_mult: 0
  }
  param {
    lr_mult: 0
    decay_mult: 0
  }
  param {
    lr_mult: 0
    decay_mult: 0
  }
}
layer {
  name: "Scale14"
  type: "Scale"
  bottom: "Convolution14"
  top: "Convolution14"
  scale_param {
    bias_term: true
  }
}
layer {
  name: "Eltwise6"
  type: "Eltwise"
  bottom: "Convolution12"
  bottom: "Convolution14"
  top: "Eltwise6"
  eltwise_param {
    operation: SUM
  }
}
layer {
  name: "ReLU13"
  type: "ReLU"
  bottom: "Eltwise6"
  top: "Eltwise6"
}
layer {
  name: "Convolution15"
  type: "Convolution"
  bottom: "Eltwise6"
  top: "Convolution15"
  param {
    lr_mult: 1
    decay_mult: 1
  }
  param {
    lr_mult: 2
    decay_mult: 0
  }
  convolution_param {
    num_output: 32
    pad: 1
    kernel_size: 3
    stride: 1
    weight_filler {
      type: "gaussian"
      std: 0.083
    }
    bias_filler {
      type: "constant"
      value: 0
    }
  }
}
layer {
  name: "BatchNorm15"
  type: "BatchNorm"
  bottom: "Convolution15"
  top: "Convolution15"
  param {
    lr_mult: 0
    decay_mult: 0
  }
  param {
    lr_mult: 0
    decay_mult: 0
  }
  param {
    lr_mult: 0
    decay_mult: 0
  }
}
layer {
  name: "Scale15"
  type: "Scale"
  bottom: "Convolution15"
  top: "Convolution15"
  scale_param {
    bias_term: true
  }
}
layer {
  name: "ReLU14"
  type: "ReLU"
  bottom: "Convolution15"
  top: "Convolution15"
}
layer {
  name: "Convolution16"
  type: "Convolution"
  bottom: "Convolution15"
  top: "Convolution16"
  param {
    lr_mult: 1
    decay_mult: 1
  }
  param {
    lr_mult: 2
    decay_mult: 0
  }
  convolution_param {
    num_output: 32
    pad: 1
    kernel_size: 3
    stride: 1
    weight_filler {
      type: "gaussian"
      std: 0.083
    }
    bias_filler {
      type: "constant"
      value: 0
    }
  }
}
layer {
  name: "BatchNorm16"
  type: "BatchNorm"
  bottom: "Convolution16"
  top: "Convolution16"
  param {
    lr_mult: 0
    decay_mult: 0
  }
  param {
    lr_mult: 0
    decay_mult: 0
  }
  param {
    lr_mult: 0
    decay_mult: 0
  }
}
layer {
  name: "Scale16"
  type: "Scale"
  bottom: "Convolution16"
  top: "Convolution16"
  scale_param {
    bias_term: true
  }
}
layer {
  name: "Eltwise7"
  type: "Eltwise"
  bottom: "Eltwise6"
  bottom: "Convolution16"
  top: "Eltwise7"
  eltwise_param {
    operation: SUM
  }
}
layer {
  name: "ReLU15"
  type: "ReLU"
  bottom: "Eltwise7"
  top: "Eltwise7"
}
layer {
  name: "Convolution17"
  type: "Convolution"
  bottom: "Eltwise7"
  top: "Convolution17"
  param {
    lr_mult: 1
    decay_mult: 1
  }
  param {
    lr_mult: 2
    decay_mult: 0
  }
  convolution_param {
    num_output: 32
    pad: 1
    kernel_size: 3
    stride: 1
    weight_filler {
      type: "gaussian"
      std: 0.083
    }
    bias_filler {
      type: "constant"
      value: 0
    }
  }
}
layer {
  name: "BatchNorm17"
  type: "BatchNorm"
  bottom: "Convolution17"
  top: "Convolution17"
  param {
    lr_mult: 0
    decay_mult: 0
  }
  param {
    lr_mult: 0
    decay_mult: 0
  }
  param {
    lr_mult: 0
    decay_mult: 0
  }
}
layer {
  name: "Scale17"
  type: "Scale"
  bottom: "Convolution17"
  top: "Convolution17"
  scale_param {
    bias_term: true
  }
}
layer {
  name: "ReLU16"
  type: "ReLU"
  bottom: "Convolution17"
  top: "Convolution17"
}
layer {
  name: "Convolution18"
  type: "Convolution"
  bottom: "Convolution17"
  top: "Convolution18"
  param {
    lr_mult: 1
    decay_mult: 1
  }
  param {
    lr_mult: 2
    decay_mult: 0
  }
  convolution_param {
    num_output: 32
    pad: 1
    kernel_size: 3
    stride: 1
    weight_filler {
      type: "gaussian"
      std: 0.083
    }
    bias_filler {
      type: "constant"
      value: 0
    }
  }
}
layer {
  name: "BatchNorm18"
  type: "BatchNorm"
  bottom: "Convolution18"
  top: "Convolution18"
  param {
    lr_mult: 0
    decay_mult: 0
  }
  param {
    lr_mult: 0
    decay_mult: 0
  }
  param {
    lr_mult: 0
    decay_mult: 0
  }
}
layer {
  name: "Scale18"
  type: "Scale"
  bottom: "Convolution18"
  top: "Convolution18"
  scale_param {
    bias_term: true
  }
}
layer {
  name: "Eltwise8"
  type: "Eltwise"
  bottom: "Eltwise7"
  bottom: "Convolution18"
  top: "Eltwise8"
  eltwise_param {
    operation: SUM
  }
}
layer {
  name: "ReLU17"
  type: "ReLU"
  bottom: "Eltwise8"
  top: "Eltwise8"
}
layer {
  name: "Convolution19"
  type: "Convolution"
  bottom: "Eltwise8"
  top: "Convolution19"
  param {
    lr_mult: 1
    decay_mult: 1
  }
  param {
    lr_mult: 2
    decay_mult: 0
  }
  convolution_param {
    num_output: 32
    pad: 1
    kernel_size: 3
    stride: 1
    weight_filler {
      type: "gaussian"
      std: 0.083
    }
    bias_filler {
      type: "constant"
      value: 0
    }
  }
}
layer {
  name: "BatchNorm19"
  type: "BatchNorm"
  bottom: "Convolution19"
  top: "Convolution19"
  param {
    lr_mult: 0
    decay_mult: 0
  }
  param {
    lr_mult: 0
    decay_mult: 0
  }
  param {
    lr_mult: 0
    decay_mult: 0
  }
}
layer {
  name: "Scale19"
  type: "Scale"
  bottom: "Convolution19"
  top: "Convolution19"
  scale_param {
    bias_term: true
  }
}
layer {
  name: "ReLU18"
  type: "ReLU"
  bottom: "Convolution19"
  top: "Convolution19"
}
layer {
  name: "Convolution20"
  type: "Convolution"
  bottom: "Convolution19"
  top: "Convolution20"
  param {
    lr_mult: 1
    decay_mult: 1
  }
  param {
    lr_mult: 2
    decay_mult: 0
  }
  convolution_param {
    num_output: 32
    pad: 1
    kernel_size: 3
    stride: 1
    weight_filler {
      type: "gaussian"
      std: 0.083
    }
    bias_filler {
      type: "constant"
      value: 0
    }
  }
}
layer {
  name: "BatchNorm20"
  type: "BatchNorm"
  bottom: "Convolution20"
  top: "Convolution20"
  param {
    lr_mult: 0
    decay_mult: 0
  }
  param {
    lr_mult: 0
    decay_mult: 0
  }
  param {
    lr_mult: 0
    decay_mult: 0
  }
}
layer {
  name: "Scale20"
  type: "Scale"
  bottom: "Convolution20"
  top: "Convolution20"
  scale_param {
    bias_term: true
  }
}
layer {
  name: "Eltwise9"
  type: "Eltwise"
  bottom: "Eltwise8"
  bottom: "Convolution20"
  top: "Eltwise9"
  eltwise_param {
    operation: SUM
  }
}
layer {
  name: "ReLU19"
  type: "ReLU"
  bottom: "Eltwise9"
  top: "Eltwise9"
}
layer {
  name: "Convolution21"
  type: "Convolution"
  bottom: "Eltwise9"
  top: "Convolution21"
  param {
    lr_mult: 1
    decay_mult: 1
  }
  param {
    lr_mult: 2
    decay_mult: 0
  }
  convolution_param {
    num_output: 32
    pad: 1
    kernel_size: 3
    stride: 1
    weight_filler {
      type: "gaussian"
      std: 0.083
    }
    bias_filler {
      type: "constant"
      value: 0
    }
  }
}
layer {
  name: "BatchNorm21"
  type: "BatchNorm"
  bottom: "Convolution21"
  top: "Convolution21"
  param {
    lr_mult: 0
    decay_mult: 0
  }
  param {
    lr_mult: 0
    decay_mult: 0
  }
  param {
    lr_mult: 0
    decay_mult: 0
  }
}
layer {
  name: "Scale21"
  type: "Scale"
  bottom: "Convolution21"
  top: "Convolution21"
  scale_param {
    bias_term: true
  }
}
layer {
  name: "ReLU20"
  type: "ReLU"
  bottom: "Convolution21"
  top: "Convolution21"
}
layer {
  name: "Convolution22"
  type: "Convolution"
  bottom: "Convolution21"
  top: "Convolution22"
  param {
    lr_mult: 1
    decay_mult: 1
  }
  param {
    lr_mult: 2
    decay_mult: 0
  }
  convolution_param {
    num_output: 32
    pad: 1
    kernel_size: 3
    stride: 1
    weight_filler {
      type: "gaussian"
      std: 0.083
    }
    bias_filler {
      type: "constant"
      value: 0
    }
  }
}
layer {
  name: "BatchNorm22"
  type: "BatchNorm"
  bottom: "Convolution22"
  top: "Convolution22"
  param {
    lr_mult: 0
    decay_mult: 0
  }
  param {
    lr_mult: 0
    decay_mult: 0
  }
  param {
    lr_mult: 0
    decay_mult: 0
  }
}
layer {
  name: "Scale22"
  type: "Scale"
  bottom: "Convolution22"
  top: "Convolution22"
  scale_param {
    bias_term: true
  }
}
layer {
  name: "Eltwise10"
  type: "Eltwise"
  bottom: "Eltwise9"
  bottom: "Convolution22"
  top: "Eltwise10"
  eltwise_param {
    operation: SUM
  }
}
layer {
  name: "ReLU21"
  type: "ReLU"
  bottom: "Eltwise10"
  top: "Eltwise10"
}
layer {
  name: "Convolution23"
  type: "Convolution"
  bottom: "Eltwise10"
  top: "Convolution23"
  param {
    lr_mult: 1
    decay_mult: 1
  }
  param {
    lr_mult: 2
    decay_mult: 0
  }
  convolution_param {
    num_output: 64
    pad: 0
    kernel_size: 1
    stride: 2
    weight_filler {
      type: "gaussian"
      std: 0.17677669
    }
    bias_filler {
      type: "constant"
      value: 0
    }
  }
}
layer {
  name: "BatchNorm23"
  type: "BatchNorm"
  bottom: "Convolution23"
  top: "Convolution23"
  param {
    lr_mult: 0
    decay_mult: 0
  }
  param {
    lr_mult: 0
    decay_mult: 0
  }
  param {
    lr_mult: 0
    decay_mult: 0
  }
}
layer {
  name: "Scale23"
  type: "Scale"
  bottom: "Convolution23"
  top: "Convolution23"
  scale_param {
    bias_term: true
  }
}
layer {
  name: "Convolution24"
  type: "Convolution"
  bottom: "Eltwise10"
  top: "Convolution24"
  param {
    lr_mult: 1
    decay_mult: 1
  }
  param {
    lr_mult: 2
    decay_mult: 0
  }
  convolution_param {
    num_output: 64
    pad: 1
    kernel_size: 3
    stride: 2
    weight_filler {
      type: "gaussian"
      std: 0.059
    }
    bias_filler {
      type: "constant"
      value: 0
    }
  }
}
layer {
  name: "BatchNorm24"
  type: "BatchNorm"
  bottom: "Convolution24"
  top: "Convolution24"
  param {
    lr_mult: 0
    decay_mult: 0
  }
  param {
    lr_mult: 0
    decay_mult: 0
  }
  param {
    lr_mult: 0
    decay_mult: 0
  }
}
layer {
  name: "Scale24"
  type: "Scale"
  bottom: "Convolution24"
  top: "Convolution24"
  scale_param {
    bias_term: true
  }
}
layer {
  name: "ReLU22"
  type: "ReLU"
  bottom: "Convolution24"
  top: "Convolution24"
}
layer {
  name: "Convolution25"
  type: "Convolution"
  bottom: "Convolution24"
  top: "Convolution25"
  param {
    lr_mult: 1
    decay_mult: 1
  }
  param {
    lr_mult: 2
    decay_mult: 0
  }
  convolution_param {
    num_output: 64
    pad: 1
    kernel_size: 3
    stride: 1
    weight_filler {
      type: "gaussian"
      std: 0.059
    }
    bias_filler {
      type: "constant"
      value: 0
    }
  }
}
layer {
  name: "BatchNorm25"
  type: "BatchNorm"
  bottom: "Convolution25"
  top: "Convolution25"
  param {
    lr_mult: 0
    decay_mult: 0
  }
  param {
    lr_mult: 0
    decay_mult: 0
  }
  param {
    lr_mult: 0
    decay_mult: 0
  }
}
layer {
  name: "Scale25"
  type: "Scale"
  bottom: "Convolution25"
  top: "Convolution25"
  scale_param {
    bias_term: true
  }
}
layer {
  name: "Eltwise11"
  type: "Eltwise"
  bottom: "Convolution23"
  bottom: "Convolution25"
  top: "Eltwise11"
  eltwise_param {
    operation: SUM
  }
}
layer {
  name: "ReLU23"
  type: "ReLU"
  bottom: "Eltwise11"
  top: "Eltwise11"
}
layer {
  name: "Convolution26"
  type: "Convolution"
  bottom: "Eltwise11"
  top: "Convolution26"
  param {
    lr_mult: 1
    decay_mult: 1
  }
  param {
    lr_mult: 2
    decay_mult: 0
  }
  convolution_param {
    num_output: 64
    pad: 1
    kernel_size: 3
    stride: 1
    weight_filler {
      type: "gaussian"
      std: 0.059
    }
    bias_filler {
      type: "constant"
      value: 0
    }
  }
}
layer {
  name: "BatchNorm26"
  type: "BatchNorm"
  bottom: "Convolution26"
  top: "Convolution26"
  param {
    lr_mult: 0
    decay_mult: 0
  }
  param {
    lr_mult: 0
    decay_mult: 0
  }
  param {
    lr_mult: 0
    decay_mult: 0
  }
}
layer {
  name: "Scale26"
  type: "Scale"
  bottom: "Convolution26"
  top: "Convolution26"
  scale_param {
    bias_term: true
  }
}
layer {
  name: "ReLU24"
  type: "ReLU"
  bottom: "Convolution26"
  top: "Convolution26"
}
layer {
  name: "Convolution27"
  type: "Convolution"
  bottom: "Convolution26"
  top: "Convolution27"
  param {
    lr_mult: 1
    decay_mult: 1
  }
  param {
    lr_mult: 2
    decay_mult: 0
  }
  convolution_param {
    num_output: 64
    pad: 1
    kernel_size: 3
    stride: 1
    weight_filler {
      type: "gaussian"
      std: 0.059
    }
    bias_filler {
      type: "constant"
      value: 0
    }
  }
}
layer {
  name: "BatchNorm27"
  type: "BatchNorm"
  bottom: "Convolution27"
  top: "Convolution27"
  param {
    lr_mult: 0
    decay_mult: 0
  }
  param {
    lr_mult: 0
    decay_mult: 0
  }
  param {
    lr_mult: 0
    decay_mult: 0
  }
}
layer {
  name: "Scale27"
  type: "Scale"
  bottom: "Convolution27"
  top: "Convolution27"
  scale_param {
    bias_term: true
  }
}
layer {
  name: "Eltwise12"
  type: "Eltwise"
  bottom: "Eltwise11"
  bottom: "Convolution27"
  top: "Eltwise12"
  eltwise_param {
    operation: SUM
  }
}
layer {
  name: "ReLU25"
  type: "ReLU"
  bottom: "Eltwise12"
  top: "Eltwise12"
}
layer {
  name: "Convolution28"
  type: "Convolution"
  bottom: "Eltwise12"
  top: "Convolution28"
  param {
    lr_mult: 1
    decay_mult: 1
  }
  param {
    lr_mult: 2
    decay_mult: 0
  }
  convolution_param {
    num_output: 64
    pad: 1
    kernel_size: 3
    stride: 1
    weight_filler {
      type: "gaussian"
      std: 0.059
    }
    bias_filler {
      type: "constant"
      value: 0
    }
  }
}
layer {
  name: "BatchNorm28"
  type: "BatchNorm"
  bottom: "Convolution28"
  top: "Convolution28"
  param {
    lr_mult: 0
    decay_mult: 0
  }
  param {
    lr_mult: 0
    decay_mult: 0
  }
  param {
    lr_mult: 0
    decay_mult: 0
  }
}
layer {
  name: "Scale28"
  type: "Scale"
  bottom: "Convolution28"
  top: "Convolution28"
  scale_param {
    bias_term: true
  }
}
layer {
  name: "ReLU26"
  type: "ReLU"
  bottom: "Convolution28"
  top: "Convolution28"
}
layer {
  name: "Convolution29"
  type: "Convolution"
  bottom: "Convolution28"
  top: "Convolution29"
  param {
    lr_mult: 1
    decay_mult: 1
  }
  param {
    lr_mult: 2
    decay_mult: 0
  }
  convolution_param {
    num_output: 64
    pad: 1
    kernel_size: 3
    stride: 1
    weight_filler {
      type: "gaussian"
      std: 0.059
    }
    bias_filler {
      type: "constant"
      value: 0
    }
  }
}
layer {
  name: "BatchNorm29"
  type: "BatchNorm"
  bottom: "Convolution29"
  top: "Convolution29"
  param {
    lr_mult: 0
    decay_mult: 0
  }
  param {
    lr_mult: 0
    decay_mult: 0
  }
  param {
    lr_mult: 0
    decay_mult: 0
  }
}
layer {
  name: "Scale29"
  type: "Scale"
  bottom: "Convolution29"
  top: "Convolution29"
  scale_param {
    bias_term: true
  }
}
layer {
  name: "Eltwise13"
  type: "Eltwise"
  bottom: "Eltwise12"
  bottom: "Convolution29"
  top: "Eltwise13"
  eltwise_param {
    operation: SUM
  }
}
layer {
  name: "ReLU27"
  type: "ReLU"
  bottom: "Eltwise13"
  top: "Eltwise13"
}
layer {
  name: "Convolution30"
  type: "Convolution"
  bottom: "Eltwise13"
  top: "Convolution30"
  param {
    lr_mult: 1
    decay_mult: 1
  }
  param {
    lr_mult: 2
    decay_mult: 0
  }
  convolution_param {
    num_output: 64
    pad: 1
    kernel_size: 3
    stride: 1
    weight_filler {
      type: "gaussian"
      std: 0.059
    }
    bias_filler {
      type: "constant"
      value: 0
    }
  }
}
layer {
  name: "BatchNorm30"
  type: "BatchNorm"
  bottom: "Convolution30"
  top: "Convolution30"
  param {
    lr_mult: 0
    decay_mult: 0
  }
  param {
    lr_mult: 0
    decay_mult: 0
  }
  param {
    lr_mult: 0
    decay_mult: 0
  }
}
layer {
  name: "Scale30"
  type: "Scale"
  bottom: "Convolution30"
  top: "Convolution30"
  scale_param {
    bias_term: true
  }
}
layer {
  name: "ReLU28"
  type: "ReLU"
  bottom: "Convolution30"
  top: "Convolution30"
}
layer {
  name: "Convolution31"
  type: "Convolution"
  bottom: "Convolution30"
  top: "Convolution31"
  param {
    lr_mult: 1
    decay_mult: 1
  }
  param {
    lr_mult: 2
    decay_mult: 0
  }
  convolution_param {
    num_output: 64
    pad: 1
    kernel_size: 3
    stride: 1
    weight_filler {
      type: "gaussian"
      std: 0.059
    }
    bias_filler {
      type: "constant"
      value: 0
    }
  }
}
layer {
  name: "BatchNorm31"
  type: "BatchNorm"
  bottom: "Convolution31"
  top: "Convolution31"
  param {
    lr_mult: 0
    decay_mult: 0
  }
  param {
    lr_mult: 0
    decay_mult: 0
  }
  param {
    lr_mult: 0
    decay_mult: 0
  }
}
layer {
  name: "Scale31"
  type: "Scale"
  bottom: "Convolution31"
  top: "Convolution31"
  scale_param {
    bias_term: true
  }
}
layer {
  name: "Eltwise14"
  type: "Eltwise"
  bottom: "Eltwise13"
  bottom: "Convolution31"
  top: "Eltwise14"
  eltwise_param {
    operation: SUM
  }
}
layer {
  name: "ReLU29"
  type: "ReLU"
  bottom: "Eltwise14"
  top: "Eltwise14"
}
layer {
  name: "Convolution32"
  type: "Convolution"
  bottom: "Eltwise14"
  top: "Convolution32"
  param {
    lr_mult: 1
    decay_mult: 1
  }
  param {
    lr_mult: 2
    decay_mult: 0
  }
  convolution_param {
    num_output: 64
    pad: 1
    kernel_size: 3
    stride: 1
    weight_filler {
      type: "gaussian"
      std: 0.059
    }
    bias_filler {
      type: "constant"
      value: 0
    }
  }
}
layer {
  name: "BatchNorm32"
  type: "BatchNorm"
I1005 20:35:19.255118 10142 layer_factory.hpp:77] Creating layer Data1
I1005 20:35:19.255187 10142 db_lmdb.cpp:35] Opened lmdb /home/x306/caffe/xn/PENLU/data/cifar10/cifar10_train_lmdb
I1005 20:35:19.255213 10142 net.cpp:84] Creating Layer Data1
I1005 20:35:19.255219 10142 net.cpp:380] Data1 -> Data1
I1005 20:35:19.255236 10142 net.cpp:380] Data1 -> Data2
I1005 20:35:19.255245 10142 data_transformer.cpp:25] Loading mean file from: /home/x306/caffe/xn/PENLU/data/cifar10/mean.binaryproto
I1005 20:35:19.256686 10142 data_layer.cpp:45] output data size: 100,3,28,28
I1005 20:35:19.275344 10142 net.cpp:122] Setting up Data1
I1005 20:35:19.275375 10142 net.cpp:129] Top shape: 100 3 28 28 (235200)
I1005 20:35:19.275380 10142 net.cpp:129] Top shape: 100 (100)
I1005 20:35:19.275383 10142 net.cpp:137] Memory required for data: 941200
I1005 20:35:19.275390 10142 layer_factory.hpp:77] Creating layer Convolution1
I1005 20:35:19.275413 10142 net.cpp:84] Creating Layer Convolution1
I1005 20:35:19.275418 10142 net.cpp:406] Convolution1 <- Data1
I1005 20:35:19.275427 10142 net.cpp:380] Convolution1 -> Convolution1
I1005 20:35:19.593055 10142 net.cpp:122] Setting up Convolution1
I1005 20:35:19.593080 10142 net.cpp:129] Top shape: 100 16 28 28 (1254400)
I1005 20:35:19.593082 10142 net.cpp:137] Memory required for data: 5958800
I1005 20:35:19.593098 10142 layer_factory.hpp:77] Creating layer BatchNorm1
I1005 20:35:19.593119 10142 net.cpp:84] Creating Layer BatchNorm1
I1005 20:35:19.593123 10142 net.cpp:406] BatchNorm1 <- Convolution1
I1005 20:35:19.593143 10142 net.cpp:367] BatchNorm1 -> Convolution1 (in-place)
I1005 20:35:19.593281 10142 net.cpp:122] Setting up BatchNorm1
I1005 20:35:19.593287 10142 net.cpp:129] Top shape: 100 16 28 28 (1254400)
I1005 20:35:19.593289 10142 net.cpp:137] Memory required for data: 10976400
I1005 20:35:19.593297 10142 layer_factory.hpp:77] Creating layer Scale1
I1005 20:35:19.593307 10142 net.cpp:84] Creating Layer Scale1
I1005 20:35:19.593310 10142 net.cpp:406] Scale1 <- Convolution1
I1005 20:35:19.593323 10142 net.cpp:367] Scale1 -> Convolution1 (in-place)
I1005 20:35:19.593364 10142 layer_factory.hpp:77] Creating layer Scale1
I1005 20:35:19.593461 10142 net.cpp:122] Setting up Scale1
I1005 20:35:19.593466 10142 net.cpp:129] Top shape: 100 16 28 28 (1254400)
I1005 20:35:19.593469 10142 net.cpp:137] Memory required for data: 15994000
I1005 20:35:19.593473 10142 layer_factory.hpp:77] Creating layer ReLU1
I1005 20:35:19.593488 10142 net.cpp:84] Creating Layer ReLU1
I1005 20:35:19.593492 10142 net.cpp:406] ReLU1 <- Convolution1
I1005 20:35:19.593495 10142 net.cpp:367] ReLU1 -> Convolution1 (in-place)
I1005 20:35:19.594804 10142 net.cpp:122] Setting up ReLU1
I1005 20:35:19.594810 10142 net.cpp:129] Top shape: 100 16 28 28 (1254400)
I1005 20:35:19.594813 10142 net.cpp:137] Memory required for data: 21011600
I1005 20:35:19.594816 10142 layer_factory.hpp:77] Creating layer Convolution1_ReLU1_0_split
I1005 20:35:19.594833 10142 net.cpp:84] Creating Layer Convolution1_ReLU1_0_split
I1005 20:35:19.594836 10142 net.cpp:406] Convolution1_ReLU1_0_split <- Convolution1
I1005 20:35:19.594841 10142 net.cpp:380] Convolution1_ReLU1_0_split -> Convolution1_ReLU1_0_split_0
I1005 20:35:19.594846 10142 net.cpp:380] Convolution1_ReLU1_0_split -> Convolution1_ReLU1_0_split_1
I1005 20:35:19.594871 10142 net.cpp:122] Setting up Convolution1_ReLU1_0_split
I1005 20:35:19.594877 10142 net.cpp:129] Top shape: 100 16 28 28 (1254400)
I1005 20:35:19.594888 10142 net.cpp:129] Top shape: 100 16 28 28 (1254400)
I1005 20:35:19.594890 10142 net.cpp:137] Memory required for data: 31046800
I1005 20:35:19.594892 10142 layer_factory.hpp:77] Creating layer Convolution2
I1005 20:35:19.594911 10142 net.cpp:84] Creating Layer Convolution2
I1005 20:35:19.594914 10142 net.cpp:406] Convolution2 <- Convolution1_ReLU1_0_split_0
I1005 20:35:19.594919 10142 net.cpp:380] Convolution2 -> Convolution2
I1005 20:35:19.601517 10142 net.cpp:122] Setting up Convolution2
I1005 20:35:19.601527 10142 net.cpp:129] Top shape: 100 16 28 28 (1254400)
I1005 20:35:19.601531 10142 net.cpp:137] Memory required for data: 36064400
I1005 20:35:19.601547 10142 layer_factory.hpp:77] Creating layer BatchNorm2
I1005 20:35:19.601554 10142 net.cpp:84] Creating Layer BatchNorm2
I1005 20:35:19.601558 10142 net.cpp:406] BatchNorm2 <- Convolution2
I1005 20:35:19.601562 10142 net.cpp:367] BatchNorm2 -> Convolution2 (in-place)
I1005 20:35:19.601692 10142 net.cpp:122] Setting up BatchNorm2
I1005 20:35:19.601698 10142 net.cpp:129] Top shape: 100 16 28 28 (1254400)
I1005 20:35:19.601701 10142 net.cpp:137] Memory required for data: 41082000
I1005 20:35:19.601716 10142 layer_factory.hpp:77] Creating layer Scale2
I1005 20:35:19.601722 10142 net.cpp:84] Creating Layer Scale2
I1005 20:35:19.601724 10142 net.cpp:406] Scale2 <- Convolution2
I1005 20:35:19.601727 10142 net.cpp:367] Scale2 -> Convolution2 (in-place)
I1005 20:35:19.601753 10142 layer_factory.hpp:77] Creating layer Scale2
I1005 20:35:19.601855 10142 net.cpp:122] Setting up Scale2
I1005 20:35:19.601861 10142 net.cpp:129] Top shape: 100 16 28 28 (1254400)
I1005 20:35:19.601862 10142 net.cpp:137] Memory required for data: 46099600
I1005 20:35:19.601866 10142 layer_factory.hpp:77] Creating layer ReLU2
I1005 20:35:19.601881 10142 net.cpp:84] Creating Layer ReLU2
I1005 20:35:19.601883 10142 net.cpp:406] ReLU2 <- Convolution2
I1005 20:35:19.601886 10142 net.cpp:367] ReLU2 -> Convolution2 (in-place)
I1005 20:35:19.603643 10142 net.cpp:122] Setting up ReLU2
I1005 20:35:19.603653 10142 net.cpp:129] Top shape: 100 16 28 28 (1254400)
I1005 20:35:19.603673 10142 net.cpp:137] Memory required for data: 51117200
I1005 20:35:19.603677 10142 layer_factory.hpp:77] Creating layer Convolution3
I1005 20:35:19.603687 10142 net.cpp:84] Creating Layer Convolution3
I1005 20:35:19.603689 10142 net.cpp:406] Convolution3 <- Convolution2
I1005 20:35:19.603694 10142 net.cpp:380] Convolution3 -> Convolution3
I1005 20:35:19.610487 10142 net.cpp:122] Setting up Convolution3
I1005 20:35:19.610510 10142 net.cpp:129] Top shape: 100 16 28 28 (1254400)
I1005 20:35:19.610513 10142 net.cpp:137] Memory required for data: 56134800
I1005 20:35:19.610519 10142 layer_factory.hpp:77] Creating layer BatchNorm3
I1005 20:35:19.610539 10142 net.cpp:84] Creating Layer BatchNorm3
I1005 20:35:19.610543 10142 net.cpp:406] BatchNorm3 <- Convolution3
I1005 20:35:19.610546 10142 net.cpp:367] BatchNorm3 -> Convolution3 (in-place)
I1005 20:35:19.610687 10142 net.cpp:122] Setting up BatchNorm3
I1005 20:35:19.610692 10142 net.cpp:129] Top shape: 100 16 28 28 (1254400)
I1005 20:35:19.610704 10142 net.cpp:137] Memory required for data: 61152400
I1005 20:35:19.610713 10142 layer_factory.hpp:77] Creating layer Scale3
I1005 20:35:19.610729 10142 net.cpp:84] Creating Layer Scale3
I1005 20:35:19.610733 10142 net.cpp:406] Scale3 <- Convolution3
I1005 20:35:19.610736 10142 net.cpp:367] Scale3 -> Convolution3 (in-place)
I1005 20:35:19.610774 10142 layer_factory.hpp:77] Creating layer Scale3
I1005 20:35:19.610896 10142 net.cpp:122] Setting up Scale3
I1005 20:35:19.610901 10142 net.cpp:129] Top shape: 100 16 28 28 (1254400)
I1005 20:35:19.610903 10142 net.cpp:137] Memory required for data: 66170000
I1005 20:35:19.610918 10142 layer_factory.hpp:77] Creating layer Eltwise1
I1005 20:35:19.610924 10142 net.cpp:84] Creating Layer Eltwise1
I1005 20:35:19.610926 10142 net.cpp:406] Eltwise1 <- Convolution1_ReLU1_0_split_1
I1005 20:35:19.610939 10142 net.cpp:406] Eltwise1 <- Convolution3
I1005 20:35:19.610945 10142 net.cpp:380] Eltwise1 -> Eltwise1
I1005 20:35:19.610972 10142 net.cpp:122] Setting up Eltwise1
I1005 20:35:19.610976 10142 net.cpp:129] Top shape: 100 16 28 28 (1254400)
I1005 20:35:19.610978 10142 net.cpp:137] Memory required for data: 71187600
I1005 20:35:19.610980 10142 layer_factory.hpp:77] Creating layer ReLU3
I1005 20:35:19.610996 10142 net.cpp:84] Creating Layer ReLU3
I1005 20:35:19.610998 10142 net.cpp:406] ReLU3 <- Eltwise1
I1005 20:35:19.611011 10142 net.cpp:367] ReLU3 -> Eltwise1 (in-place)
I1005 20:35:19.612632 10142 net.cpp:122] Setting up ReLU3
I1005 20:35:19.612643 10142 net.cpp:129] Top shape: 100 16 28 28 (1254400)
I1005 20:35:19.612655 10142 net.cpp:137] Memory required for data: 76205200
I1005 20:35:19.612658 10142 layer_factory.hpp:77] Creating layer Eltwise1_ReLU3_0_split
I1005 20:35:19.612663 10142 net.cpp:84] Creating Layer Eltwise1_ReLU3_0_split
I1005 20:35:19.612665 10142 net.cpp:406] Eltwise1_ReLU3_0_split <- Eltwise1
I1005 20:35:19.612679 10142 net.cpp:380] Eltwise1_ReLU3_0_split -> Eltwise1_ReLU3_0_split_0
I1005 20:35:19.612685 10142 net.cpp:380] Eltwise1_ReLU3_0_split -> Eltwise1_ReLU3_0_split_1
I1005 20:35:19.612722 10142 net.cpp:122] Setting up Eltwise1_ReLU3_0_split
I1005 20:35:19.612726 10142 net.cpp:129] Top shape: 100 16 28 28 (1254400)
I1005 20:35:19.612740 10142 net.cpp:129] Top shape: 100 16 28 28 (1254400)
I1005 20:35:19.612741 10142 net.cpp:137] Memory required for data: 86240400
I1005 20:35:19.612743 10142 layer_factory.hpp:77] Creating layer Convolution4
I1005 20:35:19.612762 10142 net.cpp:84] Creating Layer Convolution4
I1005 20:35:19.612766 10142 net.cpp:406] Convolution4 <- Eltwise1_ReLU3_0_split_0
I1005 20:35:19.612778 10142 net.cpp:380] Convolution4 -> Convolution4
I1005 20:35:19.618882 10142 net.cpp:122] Setting up Convolution4
I1005 20:35:19.618892 10142 net.cpp:129] Top shape: 100 16 28 28 (1254400)
I1005 20:35:19.618906 10142 net.cpp:137] Memory required for data: 91258000
I1005 20:35:19.618909 10142 layer_factory.hpp:77] Creating layer BatchNorm4
I1005 20:35:19.618916 10142 net.cpp:84] Creating Layer BatchNorm4
I1005 20:35:19.618917 10142 net.cpp:406] BatchNorm4 <- Convolution4
I1005 20:35:19.618940 10142 net.cpp:367] BatchNorm4 -> Convolution4 (in-place)
I1005 20:35:19.619086 10142 net.cpp:122] Setting up BatchNorm4
I1005 20:35:19.619091 10142 net.cpp:129] Top shape: 100 16 28 28 (1254400)
I1005 20:35:19.619102 10142 net.cpp:137] Memory required for data: 96275600
I1005 20:35:19.619107 10142 layer_factory.hpp:77] Creating layer Scale4
I1005 20:35:19.619112 10142 net.cpp:84] Creating Layer Scale4
I1005 20:35:19.619124 10142 net.cpp:406] Scale4 <- Convolution4
I1005 20:35:19.619128 10142 net.cpp:367] Scale4 -> Convolution4 (in-place)
I1005 20:35:19.619164 10142 layer_factory.hpp:77] Creating layer Scale4
I1005 20:35:19.619258 10142 net.cpp:122] Setting up Scale4
I1005 20:35:19.619263 10142 net.cpp:129] Top shape: 100 16 28 28 (1254400)
I1005 20:35:19.619266 10142 net.cpp:137] Memory required for data: 101293200
I1005 20:35:19.619280 10142 layer_factory.hpp:77] Creating layer ReLU4
I1005 20:35:19.619284 10142 net.cpp:84] Creating Layer ReLU4
I1005 20:35:19.619287 10142 net.cpp:406] ReLU4 <- Convolution4
I1005 20:35:19.619290 10142 net.cpp:367] ReLU4 -> Convolution4 (in-place)
I1005 20:35:19.619403 10142 net.cpp:122] Setting up ReLU4
I1005 20:35:19.619410 10142 net.cpp:129] Top shape: 100 16 28 28 (1254400)
I1005 20:35:19.619412 10142 net.cpp:137] Memory required for data: 106310800
I1005 20:35:19.619415 10142 layer_factory.hpp:77] Creating layer Convolution5
I1005 20:35:19.619423 10142 net.cpp:84] Creating Layer Convolution5
I1005 20:35:19.619426 10142 net.cpp:406] Convolution5 <- Convolution4
I1005 20:35:19.619431 10142 net.cpp:380] Convolution5 -> Convolution5
I1005 20:35:19.620368 10142 net.cpp:122] Setting up Convolution5
I1005 20:35:19.620378 10142 net.cpp:129] Top shape: 100 16 28 28 (1254400)
I1005 20:35:19.620381 10142 net.cpp:137] Memory required for data: 111328400
I1005 20:35:19.620386 10142 layer_factory.hpp:77] Creating layer BatchNorm5
I1005 20:35:19.620393 10142 net.cpp:84] Creating Layer BatchNorm5
I1005 20:35:19.620398 10142 net.cpp:406] BatchNorm5 <- Convolution5
I1005 20:35:19.620402 10142 net.cpp:367] BatchNorm5 -> Convolution5 (in-place)
I1005 20:35:19.620529 10142 net.cpp:122] Setting up BatchNorm5
I1005 20:35:19.620535 10142 net.cpp:129] Top shape: 100 16 28 28 (1254400)
I1005 20:35:19.620538 10142 net.cpp:137] Memory required for data: 116346000
I1005 20:35:19.620548 10142 layer_factory.hpp:77] Creating layer Scale5
I1005 20:35:19.620551 10142 net.cpp:84] Creating Layer Scale5
I1005 20:35:19.620555 10142 net.cpp:406] Scale5 <- Convolution5
I1005 20:35:19.620559 10142 net.cpp:367] Scale5 -> Convolution5 (in-place)
I1005 20:35:19.620586 10142 layer_factory.hpp:77] Creating layer Scale5
I1005 20:35:19.620663 10142 net.cpp:122] Setting up Scale5
I1005 20:35:19.620669 10142 net.cpp:129] Top shape: 100 16 28 28 (1254400)
I1005 20:35:19.620671 10142 net.cpp:137] Memory required for data: 121363600
I1005 20:35:19.620676 10142 layer_factory.hpp:77] Creating layer Eltwise2
I1005 20:35:19.620681 10142 net.cpp:84] Creating Layer Eltwise2
I1005 20:35:19.620683 10142 net.cpp:406] Eltwise2 <- Eltwise1_ReLU3_0_split_1
I1005 20:35:19.620687 10142 net.cpp:406] Eltwise2 <- Convolution5
I1005 20:35:19.620690 10142 net.cpp:380] Eltwise2 -> Eltwise2
I1005 20:35:19.620707 10142 net.cpp:122] Setting up Eltwise2
I1005 20:35:19.620710 10142 net.cpp:129] Top shape: 100 16 28 28 (1254400)
I1005 20:35:19.620712 10142 net.cpp:137] Memory required for data: 126381200
I1005 20:35:19.620715 10142 layer_factory.hpp:77] Creating layer ReLU5
I1005 20:35:19.620719 10142 net.cpp:84] Creating Layer ReLU5
I1005 20:35:19.620721 10142 net.cpp:406] ReLU5 <- Eltwise2
I1005 20:35:19.620724 10142 net.cpp:367] ReLU5 -> Eltwise2 (in-place)
I1005 20:35:19.622261 10142 net.cpp:122] Setting up ReLU5
I1005 20:35:19.622268 10142 net.cpp:129] Top shape: 100 16 28 28 (1254400)
I1005 20:35:19.622270 10142 net.cpp:137] Memory required for data: 131398800
I1005 20:35:19.622273 10142 layer_factory.hpp:77] Creating layer Eltwise2_ReLU5_0_split
I1005 20:35:19.622277 10142 net.cpp:84] Creating Layer Eltwise2_ReLU5_0_split
I1005 20:35:19.622287 10142 net.cpp:406] Eltwise2_ReLU5_0_split <- Eltwise2
I1005 20:35:19.622292 10142 net.cpp:380] Eltwise2_ReLU5_0_split -> Eltwise2_ReLU5_0_split_0
I1005 20:35:19.622297 10142 net.cpp:380] Eltwise2_ReLU5_0_split -> Eltwise2_ReLU5_0_split_1
I1005 20:35:19.622323 10142 net.cpp:122] Setting up Eltwise2_ReLU5_0_split
I1005 20:35:19.622328 10142 net.cpp:129] Top shape: 100 16 28 28 (1254400)
I1005 20:35:19.622331 10142 net.cpp:129] Top shape: 100 16 28 28 (1254400)
I1005 20:35:19.622334 10142 net.cpp:137] Memory required for data: 141434000
I1005 20:35:19.622335 10142 layer_factory.hpp:77] Creating layer Convolution6
I1005 20:35:19.622342 10142 net.cpp:84] Creating Layer Convolution6
I1005 20:35:19.622346 10142 net.cpp:406] Convolution6 <- Eltwise2_ReLU5_0_split_0
I1005 20:35:19.622350 10142 net.cpp:380] Convolution6 -> Convolution6
I1005 20:35:19.629915 10142 net.cpp:122] Setting up Convolution6
I1005 20:35:19.629936 10142 net.cpp:129] Top shape: 100 16 28 28 (1254400)
I1005 20:35:19.629940 10142 net.cpp:137] Memory required for data: 146451600
I1005 20:35:19.629945 10142 layer_factory.hpp:77] Creating layer BatchNorm6
I1005 20:35:19.629959 10142 net.cpp:84] Creating Layer BatchNorm6
I1005 20:35:19.629962 10142 net.cpp:406] BatchNorm6 <- Convolution6
I1005 20:35:19.629966 10142 net.cpp:367] BatchNorm6 -> Convolution6 (in-place)
I1005 20:35:19.630108 10142 net.cpp:122] Setting up BatchNorm6
I1005 20:35:19.630115 10142 net.cpp:129] Top shape: 100 16 28 28 (1254400)
I1005 20:35:19.630126 10142 net.cpp:137] Memory required for data: 151469200
I1005 20:35:19.630131 10142 layer_factory.hpp:77] Creating layer Scale6
I1005 20:35:19.630146 10142 net.cpp:84] Creating Layer Scale6
I1005 20:35:19.630151 10142 net.cpp:406] Scale6 <- Convolution6
I1005 20:35:19.630153 10142 net.cpp:367] Scale6 -> Convolution6 (in-place)
I1005 20:35:19.630198 10142 layer_factory.hpp:77] Creating layer Scale6
I1005 20:35:19.630313 10142 net.cpp:122] Setting up Scale6
I1005 20:35:19.630318 10142 net.cpp:129] Top shape: 100 16 28 28 (1254400)
I1005 20:35:19.630321 10142 net.cpp:137] Memory required for data: 156486800
I1005 20:35:19.630326 10142 layer_factory.hpp:77] Creating layer ReLU6
I1005 20:35:19.630331 10142 net.cpp:84] Creating Layer ReLU6
I1005 20:35:19.630333 10142 net.cpp:406] ReLU6 <- Convolution6
I1005 20:35:19.630337 10142 net.cpp:367] ReLU6 -> Convolution6 (in-place)
I1005 20:35:19.632053 10142 net.cpp:122] Setting up ReLU6
I1005 20:35:19.632061 10142 net.cpp:129] Top shape: 100 16 28 28 (1254400)
I1005 20:35:19.632063 10142 net.cpp:137] Memory required for data: 161504400
I1005 20:35:19.632076 10142 layer_factory.hpp:77] Creating layer Convolution7
I1005 20:35:19.632086 10142 net.cpp:84] Creating Layer Convolution7
I1005 20:35:19.632088 10142 net.cpp:406] Convolution7 <- Convolution6
I1005 20:35:19.632092 10142 net.cpp:380] Convolution7 -> Convolution7
I1005 20:35:19.635856 10142 net.cpp:122] Setting up Convolution7
I1005 20:35:19.635879 10142 net.cpp:129] Top shape: 100 16 28 28 (1254400)
I1005 20:35:19.635881 10142 net.cpp:137] Memory required for data: 166522000
I1005 20:35:19.635885 10142 layer_factory.hpp:77] Creating layer BatchNorm7
I1005 20:35:19.635901 10142 net.cpp:84] Creating Layer BatchNorm7
I1005 20:35:19.635905 10142 net.cpp:406] BatchNorm7 <- Convolution7
I1005 20:35:19.635908 10142 net.cpp:367] BatchNorm7 -> Convolution7 (in-place)
I1005 20:35:19.636052 10142 net.cpp:122] Setting up BatchNorm7
I1005 20:35:19.636057 10142 net.cpp:129] Top shape: 100 16 28 28 (1254400)
I1005 20:35:19.636070 10142 net.cpp:137] Memory required for data: 171539600
I1005 20:35:19.636075 10142 layer_factory.hpp:77] Creating layer Scale7
I1005 20:35:19.636091 10142 net.cpp:84] Creating Layer Scale7
I1005 20:35:19.636093 10142 net.cpp:406] Scale7 <- Convolution7
I1005 20:35:19.636096 10142 net.cpp:367] Scale7 -> Convolution7 (in-place)
I1005 20:35:19.636134 10142 layer_factory.hpp:77] Creating layer Scale7
I1005 20:35:19.636229 10142 net.cpp:122] Setting up Scale7
I1005 20:35:19.636234 10142 net.cpp:129] Top shape: 100 16 28 28 (1254400)
I1005 20:35:19.636255 10142 net.cpp:137] Memory required for data: 176557200
I1005 20:35:19.636258 10142 layer_factory.hpp:77] Creating layer Eltwise3
I1005 20:35:19.636263 10142 net.cpp:84] Creating Layer Eltwise3
I1005 20:35:19.636276 10142 net.cpp:406] Eltwise3 <- Eltwise2_ReLU5_0_split_1
I1005 20:35:19.636279 10142 net.cpp:406] Eltwise3 <- Convolution7
I1005 20:35:19.636283 10142 net.cpp:380] Eltwise3 -> Eltwise3
I1005 20:35:19.636319 10142 net.cpp:122] Setting up Eltwise3
I1005 20:35:19.636323 10142 net.cpp:129] Top shape: 100 16 28 28 (1254400)
I1005 20:35:19.636325 10142 net.cpp:137] Memory required for data: 181574800
I1005 20:35:19.636337 10142 layer_factory.hpp:77] Creating layer ReLU7
I1005 20:35:19.636342 10142 net.cpp:84] Creating Layer ReLU7
I1005 20:35:19.636343 10142 net.cpp:406] ReLU7 <- Eltwise3
I1005 20:35:19.636355 10142 net.cpp:367] ReLU7 -> Eltwise3 (in-place)
I1005 20:35:19.637970 10142 net.cpp:122] Setting up ReLU7
I1005 20:35:19.637977 10142 net.cpp:129] Top shape: 100 16 28 28 (1254400)
I1005 20:35:19.637989 10142 net.cpp:137] Memory required for data: 186592400
I1005 20:35:19.637991 10142 layer_factory.hpp:77] Creating layer Eltwise3_ReLU7_0_split
I1005 20:35:19.637996 10142 net.cpp:84] Creating Layer Eltwise3_ReLU7_0_split
I1005 20:35:19.638008 10142 net.cpp:406] Eltwise3_ReLU7_0_split <- Eltwise3
I1005 20:35:19.638012 10142 net.cpp:380] Eltwise3_ReLU7_0_split -> Eltwise3_ReLU7_0_split_0
I1005 20:35:19.638016 10142 net.cpp:380] Eltwise3_ReLU7_0_split -> Eltwise3_ReLU7_0_split_1
I1005 20:35:19.638072 10142 net.cpp:122] Setting up Eltwise3_ReLU7_0_split
I1005 20:35:19.638077 10142 net.cpp:129] Top shape: 100 16 28 28 (1254400)
I1005 20:35:19.638088 10142 net.cpp:129] Top shape: 100 16 28 28 (1254400)
I1005 20:35:19.638090 10142 net.cpp:137] Memory required for data: 196627600
I1005 20:35:19.638092 10142 layer_factory.hpp:77] Creating layer Convolution8
I1005 20:35:19.638108 10142 net.cpp:84] Creating Layer Convolution8
I1005 20:35:19.638111 10142 net.cpp:406] Convolution8 <- Eltwise3_ReLU7_0_split_0
I1005 20:35:19.638125 10142 net.cpp:380] Convolution8 -> Convolution8
I1005 20:35:19.644642 10142 net.cpp:122] Setting up Convolution8
I1005 20:35:19.644652 10142 net.cpp:129] Top shape: 100 16 28 28 (1254400)
I1005 20:35:19.644665 10142 net.cpp:137] Memory required for data: 201645200
I1005 20:35:19.644670 10142 layer_factory.hpp:77] Creating layer BatchNorm8
I1005 20:35:19.644675 10142 net.cpp:84] Creating Layer BatchNorm8
I1005 20:35:19.644678 10142 net.cpp:406] BatchNorm8 <- Convolution8
I1005 20:35:19.644682 10142 net.cpp:367] BatchNorm8 -> Convolution8 (in-place)
I1005 20:35:19.644847 10142 net.cpp:122] Setting up BatchNorm8
I1005 20:35:19.644851 10142 net.cpp:129] Top shape: 100 16 28 28 (1254400)
I1005 20:35:19.644865 10142 net.cpp:137] Memory required for data: 206662800
I1005 20:35:19.644870 10142 layer_factory.hpp:77] Creating layer Scale8
I1005 20:35:19.644873 10142 net.cpp:84] Creating Layer Scale8
I1005 20:35:19.644886 10142 net.cpp:406] Scale8 <- Convolution8
I1005 20:35:19.644889 10142 net.cpp:367] Scale8 -> Convolution8 (in-place)
I1005 20:35:19.644925 10142 layer_factory.hpp:77] Creating layer Scale8
I1005 20:35:19.645031 10142 net.cpp:122] Setting up Scale8
I1005 20:35:19.645036 10142 net.cpp:129] Top shape: 100 16 28 28 (1254400)
I1005 20:35:19.645050 10142 net.cpp:137] Memory required for data: 211680400
I1005 20:35:19.645053 10142 layer_factory.hpp:77] Creating layer ReLU8
I1005 20:35:19.645057 10142 net.cpp:84] Creating Layer ReLU8
I1005 20:35:19.645059 10142 net.cpp:406] ReLU8 <- Convolution8
I1005 20:35:19.645063 10142 net.cpp:367] ReLU8 -> Convolution8 (in-place)
I1005 20:35:19.646786 10142 net.cpp:122] Setting up ReLU8
I1005 20:35:19.646796 10142 net.cpp:129] Top shape: 100 16 28 28 (1254400)
I1005 20:35:19.646808 10142 net.cpp:137] Memory required for data: 216698000
I1005 20:35:19.646811 10142 layer_factory.hpp:77] Creating layer Convolution9
I1005 20:35:19.646818 10142 net.cpp:84] Creating Layer Convolution9
I1005 20:35:19.646831 10142 net.cpp:406] Convolution9 <- Convolution8
I1005 20:35:19.646844 10142 net.cpp:380] Convolution9 -> Convolution9
I1005 20:35:19.653429 10142 net.cpp:122] Setting up Convolution9
I1005 20:35:19.653439 10142 net.cpp:129] Top shape: 100 16 28 28 (1254400)
I1005 20:35:19.653440 10142 net.cpp:137] Memory required for data: 221715600
I1005 20:35:19.653445 10142 layer_factory.hpp:77] Creating layer BatchNorm9
I1005 20:35:19.653462 10142 net.cpp:84] Creating Layer BatchNorm9
I1005 20:35:19.653465 10142 net.cpp:406] BatchNorm9 <- Convolution9
I1005 20:35:19.653470 10142 net.cpp:367] BatchNorm9 -> Convolution9 (in-place)
I1005 20:35:19.653604 10142 net.cpp:122] Setting up BatchNorm9
I1005 20:35:19.653609 10142 net.cpp:129] Top shape: 100 16 28 28 (1254400)
I1005 20:35:19.653611 10142 net.cpp:137] Memory required for data: 226733200
I1005 20:35:19.653626 10142 layer_factory.hpp:77] Creating layer Scale9
I1005 20:35:19.653632 10142 net.cpp:84] Creating Layer Scale9
I1005 20:35:19.653635 10142 net.cpp:406] Scale9 <- Convolution9
I1005 20:35:19.653638 10142 net.cpp:367] Scale9 -> Convolution9 (in-place)
I1005 20:35:19.653673 10142 layer_factory.hpp:77] Creating layer Scale9
I1005 20:35:19.653769 10142 net.cpp:122] Setting up Scale9
I1005 20:35:19.653774 10142 net.cpp:129] Top shape: 100 16 28 28 (1254400)
I1005 20:35:19.653776 10142 net.cpp:137] Memory required for data: 231750800
I1005 20:35:19.653790 10142 layer_factory.hpp:77] Creating layer Eltwise4
I1005 20:35:19.653795 10142 net.cpp:84] Creating Layer Eltwise4
I1005 20:35:19.653800 10142 net.cpp:406] Eltwise4 <- Eltwise3_ReLU7_0_split_1
I1005 20:35:19.653802 10142 net.cpp:406] Eltwise4 <- Convolution9
I1005 20:35:19.653805 10142 net.cpp:380] Eltwise4 -> Eltwise4
I1005 20:35:19.653821 10142 net.cpp:122] Setting up Eltwise4
I1005 20:35:19.653825 10142 net.cpp:129] Top shape: 100 16 28 28 (1254400)
I1005 20:35:19.653827 10142 net.cpp:137] Memory required for data: 236768400
I1005 20:35:19.653831 10142 layer_factory.hpp:77] Creating layer ReLU9
I1005 20:35:19.653833 10142 net.cpp:84] Creating Layer ReLU9
I1005 20:35:19.653836 10142 net.cpp:406] ReLU9 <- Eltwise4
I1005 20:35:19.653839 10142 net.cpp:367] ReLU9 -> Eltwise4 (in-place)
I1005 20:35:19.655570 10142 net.cpp:122] Setting up ReLU9
I1005 20:35:19.655578 10142 net.cpp:129] Top shape: 100 16 28 28 (1254400)
I1005 20:35:19.655581 10142 net.cpp:137] Memory required for data: 241786000
I1005 20:35:19.655585 10142 layer_factory.hpp:77] Creating layer Eltwise4_ReLU9_0_split
I1005 20:35:19.655589 10142 net.cpp:84] Creating Layer Eltwise4_ReLU9_0_split
I1005 20:35:19.655593 10142 net.cpp:406] Eltwise4_ReLU9_0_split <- Eltwise4
I1005 20:35:19.655597 10142 net.cpp:380] Eltwise4_ReLU9_0_split -> Eltwise4_ReLU9_0_split_0
I1005 20:35:19.655602 10142 net.cpp:380] Eltwise4_ReLU9_0_split -> Eltwise4_ReLU9_0_split_1
I1005 20:35:19.655632 10142 net.cpp:122] Setting up Eltwise4_ReLU9_0_split
I1005 20:35:19.655637 10142 net.cpp:129] Top shape: 100 16 28 28 (1254400)
I1005 20:35:19.655639 10142 net.cpp:129] Top shape: 100 16 28 28 (1254400)
I1005 20:35:19.655642 10142 net.cpp:137] Memory required for data: 251821200
I1005 20:35:19.655644 10142 layer_factory.hpp:77] Creating layer Convolution10
I1005 20:35:19.655652 10142 net.cpp:84] Creating Layer Convolution10
I1005 20:35:19.655655 10142 net.cpp:406] Convolution10 <- Eltwise4_ReLU9_0_split_0
I1005 20:35:19.655660 10142 net.cpp:380] Convolution10 -> Convolution10
I1005 20:35:19.663058 10142 net.cpp:122] Setting up Convolution10
I1005 20:35:19.663069 10142 net.cpp:129] Top shape: 100 16 28 28 (1254400)
I1005 20:35:19.663081 10142 net.cpp:137] Memory required for data: 256838800
I1005 20:35:19.663105 10142 layer_factory.hpp:77] Creating layer BatchNorm10
I1005 20:35:19.663111 10142 net.cpp:84] Creating Layer BatchNorm10
I1005 20:35:19.663115 10142 net.cpp:406] BatchNorm10 <- Convolution10
I1005 20:35:19.663120 10142 net.cpp:367] BatchNorm10 -> Convolution10 (in-place)
I1005 20:35:19.663285 10142 net.cpp:122] Setting up BatchNorm10
I1005 20:35:19.663290 10142 net.cpp:129] Top shape: 100 16 28 28 (1254400)
I1005 20:35:19.663311 10142 net.cpp:137] Memory required for data: 261856400
I1005 20:35:19.663327 10142 layer_factory.hpp:77] Creating layer Scale10
I1005 20:35:19.663332 10142 net.cpp:84] Creating Layer Scale10
I1005 20:35:19.663336 10142 net.cpp:406] Scale10 <- Convolution10
I1005 20:35:19.663339 10142 net.cpp:367] Scale10 -> Convolution10 (in-place)
I1005 20:35:19.663378 10142 layer_factory.hpp:77] Creating layer Scale10
I1005 20:35:19.663503 10142 net.cpp:122] Setting up Scale10
I1005 20:35:19.663508 10142 net.cpp:129] Top shape: 100 16 28 28 (1254400)
I1005 20:35:19.663520 10142 net.cpp:137] Memory required for data: 266874000
I1005 20:35:19.663524 10142 layer_factory.hpp:77] Creating layer ReLU10
I1005 20:35:19.663528 10142 net.cpp:84] Creating Layer ReLU10
I1005 20:35:19.663530 10142 net.cpp:406] ReLU10 <- Convolution10
I1005 20:35:19.663544 10142 net.cpp:367] ReLU10 -> Convolution10 (in-place)
I1005 20:35:19.665191 10142 net.cpp:122] Setting up ReLU10
I1005 20:35:19.665199 10142 net.cpp:129] Top shape: 100 16 28 28 (1254400)
I1005 20:35:19.665210 10142 net.cpp:137] Memory required for data: 271891600
I1005 20:35:19.665213 10142 layer_factory.hpp:77] Creating layer Convolution11
I1005 20:35:19.665220 10142 net.cpp:84] Creating Layer Convolution11
I1005 20:35:19.665232 10142 net.cpp:406] Convolution11 <- Convolution10
I1005 20:35:19.665237 10142 net.cpp:380] Convolution11 -> Convolution11
I1005 20:35:19.671775 10142 net.cpp:122] Setting up Convolution11
I1005 20:35:19.671784 10142 net.cpp:129] Top shape: 100 16 28 28 (1254400)
I1005 20:35:19.671797 10142 net.cpp:137] Memory required for data: 276909200
I1005 20:35:19.671802 10142 layer_factory.hpp:77] Creating layer BatchNorm11
I1005 20:35:19.671808 10142 net.cpp:84] Creating Layer BatchNorm11
I1005 20:35:19.671820 10142 net.cpp:406] BatchNorm11 <- Convolution11
I1005 20:35:19.671824 10142 net.cpp:367] BatchNorm11 -> Convolution11 (in-place)
I1005 20:35:19.671972 10142 net.cpp:122] Setting up BatchNorm11
I1005 20:35:19.671977 10142 net.cpp:129] Top shape: 100 16 28 28 (1254400)
I1005 20:35:19.671989 10142 net.cpp:137] Memory required for data: 281926800
I1005 20:35:19.671994 10142 layer_factory.hpp:77] Creating layer Scale11
I1005 20:35:19.672009 10142 net.cpp:84] Creating Layer Scale11
I1005 20:35:19.672013 10142 net.cpp:406] Scale11 <- Convolution11
I1005 20:35:19.672016 10142 net.cpp:367] Scale11 -> Convolution11 (in-place)
I1005 20:35:19.672051 10142 layer_factory.hpp:77] Creating layer Scale11
I1005 20:35:19.672175 10142 net.cpp:122] Setting up Scale11
I1005 20:35:19.672180 10142 net.cpp:129] Top shape: 100 16 28 28 (1254400)
I1005 20:35:19.672193 10142 net.cpp:137] Memory required for data: 286944400
I1005 20:35:19.672196 10142 layer_factory.hpp:77] Creating layer Eltwise5
I1005 20:35:19.672211 10142 net.cpp:84] Creating Layer Eltwise5
I1005 20:35:19.672215 10142 net.cpp:406] Eltwise5 <- Eltwise4_ReLU9_0_split_1
I1005 20:35:19.672219 10142 net.cpp:406] Eltwise5 <- Convolution11
I1005 20:35:19.672221 10142 net.cpp:380] Eltwise5 -> Eltwise5
I1005 20:35:19.672247 10142 net.cpp:122] Setting up Eltwise5
I1005 20:35:19.672251 10142 net.cpp:129] Top shape: 100 16 28 28 (1254400)
I1005 20:35:19.672253 10142 net.cpp:137] Memory required for data: 291962000
I1005 20:35:19.672255 10142 layer_factory.hpp:77] Creating layer ReLU11
I1005 20:35:19.672268 10142 net.cpp:84] Creating Layer ReLU11
I1005 20:35:19.672271 10142 net.cpp:406] ReLU11 <- Eltwise5
I1005 20:35:19.672283 10142 net.cpp:367] ReLU11 -> Eltwise5 (in-place)
I1005 20:35:19.673398 10142 net.cpp:122] Setting up ReLU11
I1005 20:35:19.673405 10142 net.cpp:129] Top shape: 100 16 28 28 (1254400)
I1005 20:35:19.673408 10142 net.cpp:137] Memory required for data: 296979600
I1005 20:35:19.673410 10142 layer_factory.hpp:77] Creating layer Eltwise5_ReLU11_0_split
I1005 20:35:19.673414 10142 net.cpp:84] Creating Layer Eltwise5_ReLU11_0_split
I1005 20:35:19.673418 10142 net.cpp:406] Eltwise5_ReLU11_0_split <- Eltwise5
I1005 20:35:19.673430 10142 net.cpp:380] Eltwise5_ReLU11_0_split -> Eltwise5_ReLU11_0_split_0
I1005 20:35:19.673442 10142 net.cpp:380] Eltwise5_ReLU11_0_split -> Eltwise5_ReLU11_0_split_1
I1005 20:35:19.673480 10142 net.cpp:122] Setting up Eltwise5_ReLU11_0_split
I1005 20:35:19.673485 10142 net.cpp:129] Top shape: 100 16 28 28 (1254400)
I1005 20:35:19.673488 10142 net.cpp:129] Top shape: 100 16 28 28 (1254400)
I1005 20:35:19.673501 10142 net.cpp:137] Memory required for data: 307014800
I1005 20:35:19.673504 10142 layer_factory.hpp:77] Creating layer Convolution12
I1005 20:35:19.673511 10142 net.cpp:84] Creating Layer Convolution12
I1005 20:35:19.673514 10142 net.cpp:406] Convolution12 <- Eltwise5_ReLU11_0_split_0
I1005 20:35:19.673519 10142 net.cpp:380] Convolution12 -> Convolution12
I1005 20:35:19.674732 10142 net.cpp:122] Setting up Convolution12
I1005 20:35:19.674741 10142 net.cpp:129] Top shape: 100 32 14 14 (627200)
I1005 20:35:19.674744 10142 net.cpp:137] Memory required for data: 309523600
I1005 20:35:19.674759 10142 layer_factory.hpp:77] Creating layer BatchNorm12
I1005 20:35:19.674764 10142 net.cpp:84] Creating Layer BatchNorm12
I1005 20:35:19.674768 10142 net.cpp:406] BatchNorm12 <- Convolution12
I1005 20:35:19.674772 10142 net.cpp:367] BatchNorm12 -> Convolution12 (in-place)
I1005 20:35:19.674922 10142 net.cpp:122] Setting up BatchNorm12
I1005 20:35:19.674927 10142 net.cpp:129] Top shape: 100 32 14 14 (627200)
I1005 20:35:19.674929 10142 net.cpp:137] Memory required for data: 312032400
I1005 20:35:19.674944 10142 layer_factory.hpp:77] Creating layer Scale12
I1005 20:35:19.674949 10142 net.cpp:84] Creating Layer Scale12
I1005 20:35:19.674952 10142 net.cpp:406] Scale12 <- Convolution12
I1005 20:35:19.674957 10142 net.cpp:367] Scale12 -> Convolution12 (in-place)
I1005 20:35:19.674991 10142 layer_factory.hpp:77] Creating layer Scale12
I1005 20:35:19.675088 10142 net.cpp:122] Setting up Scale12
I1005 20:35:19.675093 10142 net.cpp:129] Top shape: 100 32 14 14 (627200)
I1005 20:35:19.675096 10142 net.cpp:137] Memory required for data: 314541200
I1005 20:35:19.675109 10142 layer_factory.hpp:77] Creating layer Convolution13
I1005 20:35:19.675118 10142 net.cpp:84] Creating Layer Convolution13
I1005 20:35:19.675122 10142 net.cpp:406] Convolution13 <- Eltwise5_ReLU11_0_split_1
I1005 20:35:19.675127 10142 net.cpp:380] Convolution13 -> Convolution13
I1005 20:35:19.679438 10142 net.cpp:122] Setting up Convolution13
I1005 20:35:19.679450 10142 net.cpp:129] Top shape: 100 32 14 14 (627200)
I1005 20:35:19.679452 10142 net.cpp:137] Memory required for data: 317050000
I1005 20:35:19.679467 10142 layer_factory.hpp:77] Creating layer BatchNorm13
I1005 20:35:19.679474 10142 net.cpp:84] Creating Layer BatchNorm13
I1005 20:35:19.679477 10142 net.cpp:406] BatchNorm13 <- Convolution13
I1005 20:35:19.679481 10142 net.cpp:367] BatchNorm13 -> Convolution13 (in-place)
I1005 20:35:19.679626 10142 net.cpp:122] Setting up BatchNorm13
I1005 20:35:19.679632 10142 net.cpp:129] Top shape: 100 32 14 14 (627200)
I1005 20:35:19.679635 10142 net.cpp:137] Memory required for data: 319558800
I1005 20:35:19.679649 10142 layer_factory.hpp:77] Creating layer Scale13
I1005 20:35:19.679656 10142 net.cpp:84] Creating Layer Scale13
I1005 20:35:19.679658 10142 net.cpp:406] Scale13 <- Convolution13
I1005 20:35:19.679672 10142 net.cpp:367] Scale13 -> Convolution13 (in-place)
I1005 20:35:19.679719 10142 layer_factory.hpp:77] Creating layer Scale13
I1005 20:35:19.679816 10142 net.cpp:122] Setting up Scale13
I1005 20:35:19.679821 10142 net.cpp:129] Top shape: 100 32 14 14 (627200)
I1005 20:35:19.679823 10142 net.cpp:137] Memory required for data: 322067600
I1005 20:35:19.679836 10142 layer_factory.hpp:77] Creating layer ReLU12
I1005 20:35:19.679842 10142 net.cpp:84] Creating Layer ReLU12
I1005 20:35:19.679846 10142 net.cpp:406] ReLU12 <- Convolution13
I1005 20:35:19.679848 10142 net.cpp:367] ReLU12 -> Convolution13 (in-place)
I1005 20:35:19.681239 10142 net.cpp:122] Setting up ReLU12
I1005 20:35:19.681247 10142 net.cpp:129] Top shape: 100 32 14 14 (627200)
I1005 20:35:19.681251 10142 net.cpp:137] Memory required for data: 324576400
I1005 20:35:19.681253 10142 layer_factory.hpp:77] Creating layer Convolution14
I1005 20:35:19.681269 10142 net.cpp:84] Creating Layer Convolution14
I1005 20:35:19.681273 10142 net.cpp:406] Convolution14 <- Convolution13
I1005 20:35:19.681277 10142 net.cpp:380] Convolution14 -> Convolution14
I1005 20:35:19.687106 10142 net.cpp:122] Setting up Convolution14
I1005 20:35:19.687116 10142 net.cpp:129] Top shape: 100 32 14 14 (627200)
I1005 20:35:19.687119 10142 net.cpp:137] Memory required for data: 327085200
I1005 20:35:19.687134 10142 layer_factory.hpp:77] Creating layer BatchNorm14
I1005 20:35:19.687144 10142 net.cpp:84] Creating Layer BatchNorm14
I1005 20:35:19.687149 10142 net.cpp:406] BatchNorm14 <- Convolution14
I1005 20:35:19.687151 10142 net.cpp:367] BatchNorm14 -> Convolution14 (in-place)
I1005 20:35:19.687294 10142 net.cpp:122] Setting up BatchNorm14
I1005 20:35:19.687299 10142 net.cpp:129] Top shape: 100 32 14 14 (627200)
I1005 20:35:19.687301 10142 net.cpp:137] Memory required for data: 329594000
I1005 20:35:19.687316 10142 layer_factory.hpp:77] Creating layer Scale14
I1005 20:35:19.687322 10142 net.cpp:84] Creating Layer Scale14
I1005 20:35:19.687325 10142 net.cpp:406] Scale14 <- Convolution14
I1005 20:35:19.687328 10142 net.cpp:367] Scale14 -> Convolution14 (in-place)
I1005 20:35:19.687366 10142 layer_factory.hpp:77] Creating layer Scale14
I1005 20:35:19.687461 10142 net.cpp:122] Setting up Scale14
I1005 20:35:19.687466 10142 net.cpp:129] Top shape: 100 32 14 14 (627200)
I1005 20:35:19.687469 10142 net.cpp:137] Memory required for data: 332102800
I1005 20:35:19.687484 10142 layer_factory.hpp:77] Creating layer Eltwise6
I1005 20:35:19.687489 10142 net.cpp:84] Creating Layer Eltwise6
I1005 20:35:19.687492 10142 net.cpp:406] Eltwise6 <- Convolution12
I1005 20:35:19.687495 10142 net.cpp:406] Eltwise6 <- Convolution14
I1005 20:35:19.687500 10142 net.cpp:380] Eltwise6 -> Eltwise6
I1005 20:35:19.687516 10142 net.cpp:122] Setting up Eltwise6
I1005 20:35:19.687530 10142 net.cpp:129] Top shape: 100 32 14 14 (627200)
I1005 20:35:19.687532 10142 net.cpp:137] Memory required for data: 334611600
I1005 20:35:19.687535 10142 layer_factory.hpp:77] Creating layer ReLU13
I1005 20:35:19.687549 10142 net.cpp:84] Creating Layer ReLU13
I1005 20:35:19.687552 10142 net.cpp:406] ReLU13 <- Eltwise6
I1005 20:35:19.687556 10142 net.cpp:367] ReLU13 -> Eltwise6 (in-place)
I1005 20:35:19.687705 10142 net.cpp:122] Setting up ReLU13
I1005 20:35:19.687711 10142 net.cpp:129] Top shape: 100 32 14 14 (627200)
I1005 20:35:19.687714 10142 net.cpp:137] Memory required for data: 337120400
I1005 20:35:19.687716 10142 layer_factory.hpp:77] Creating layer Eltwise6_ReLU13_0_split
I1005 20:35:19.687721 10142 net.cpp:84] Creating Layer Eltwise6_ReLU13_0_split
I1005 20:35:19.687724 10142 net.cpp:406] Eltwise6_ReLU13_0_split <- Eltwise6
I1005 20:35:19.687727 10142 net.cpp:380] Eltwise6_ReLU13_0_split -> Eltwise6_ReLU13_0_split_0
I1005 20:35:19.687732 10142 net.cpp:380] Eltwise6_ReLU13_0_split -> Eltwise6_ReLU13_0_split_1
I1005 20:35:19.687759 10142 net.cpp:122] Setting up Eltwise6_ReLU13_0_split
I1005 20:35:19.687764 10142 net.cpp:129] Top shape: 100 32 14 14 (627200)
I1005 20:35:19.687767 10142 net.cpp:129] Top shape: 100 32 14 14 (627200)
I1005 20:35:19.687769 10142 net.cpp:137] Memory required for data: 342138000
I1005 20:35:19.687772 10142 layer_factory.hpp:77] Creating layer Convolution15
I1005 20:35:19.687778 10142 net.cpp:84] Creating Layer Convolution15
I1005 20:35:19.687782 10142 net.cpp:406] Convolution15 <- Eltwise6_ReLU13_0_split_0
I1005 20:35:19.687786 10142 net.cpp:380] Convolution15 -> Convolution15
I1005 20:35:19.692587 10142 net.cpp:122] Setting up Convolution15
I1005 20:35:19.692600 10142 net.cpp:129] Top shape: 100 32 14 14 (627200)
I1005 20:35:19.692602 10142 net.cpp:137] Memory required for data: 344646800
I1005 20:35:19.692607 10142 layer_factory.hpp:77] Creating layer BatchNorm15
I1005 20:35:19.692613 10142 net.cpp:84] Creating Layer BatchNorm15
I1005 20:35:19.692616 10142 net.cpp:406] BatchNorm15 <- Convolution15
I1005 20:35:19.692620 10142 net.cpp:367] BatchNorm15 -> Convolution15 (in-place)
I1005 20:35:19.692765 10142 net.cpp:122] Setting up BatchNorm15
I1005 20:35:19.692771 10142 net.cpp:129] Top shape: 100 32 14 14 (627200)
I1005 20:35:19.692775 10142 net.cpp:137] Memory required for data: 347155600
I1005 20:35:19.692780 10142 layer_factory.hpp:77] Creating layer Scale15
I1005 20:35:19.692785 10142 net.cpp:84] Creating Layer Scale15
I1005 20:35:19.692788 10142 net.cpp:406] Scale15 <- Convolution15
I1005 20:35:19.692792 10142 net.cpp:367] Scale15 -> Convolution15 (in-place)
I1005 20:35:19.692822 10142 layer_factory.hpp:77] Creating layer Scale15
I1005 20:35:19.692900 10142 net.cpp:122] Setting up Scale15
I1005 20:35:19.692906 10142 net.cpp:129] Top shape: 100 32 14 14 (627200)
I1005 20:35:19.692909 10142 net.cpp:137] Memory required for data: 349664400
I1005 20:35:19.692914 10142 layer_factory.hpp:77] Creating layer ReLU14
I1005 20:35:19.692919 10142 net.cpp:84] Creating Layer ReLU14
I1005 20:35:19.692921 10142 net.cpp:406] ReLU14 <- Convolution15
I1005 20:35:19.692924 10142 net.cpp:367] ReLU14 -> Convolution15 (in-place)
I1005 20:35:19.694732 10142 net.cpp:122] Setting up ReLU14
I1005 20:35:19.694739 10142 net.cpp:129] Top shape: 100 32 14 14 (627200)
I1005 20:35:19.694742 10142 net.cpp:137] Memory required for data: 352173200
I1005 20:35:19.694744 10142 layer_factory.hpp:77] Creating layer Convolution16
I1005 20:35:19.694751 10142 net.cpp:84] Creating Layer Convolution16
I1005 20:35:19.694756 10142 net.cpp:406] Convolution16 <- Convolution15
I1005 20:35:19.694761 10142 net.cpp:380] Convolution16 -> Convolution16
I1005 20:35:19.701356 10142 net.cpp:122] Setting up Convolution16
I1005 20:35:19.701378 10142 net.cpp:129] Top shape: 100 32 14 14 (627200)
I1005 20:35:19.701381 10142 net.cpp:137] Memory required for data: 354682000
I1005 20:35:19.701386 10142 layer_factory.hpp:77] Creating layer BatchNorm16
I1005 20:35:19.701390 10142 net.cpp:84] Creating Layer BatchNorm16
I1005 20:35:19.701393 10142 net.cpp:406] BatchNorm16 <- Convolution16
I1005 20:35:19.701407 10142 net.cpp:367] BatchNorm16 -> Convolution16 (in-place)
I1005 20:35:19.701550 10142 net.cpp:122] Setting up BatchNorm16
I1005 20:35:19.701555 10142 net.cpp:129] Top shape: 100 32 14 14 (627200)
I1005 20:35:19.701557 10142 net.cpp:137] Memory required for data: 357190800
I1005 20:35:19.701561 10142 layer_factory.hpp:77] Creating layer Scale16
I1005 20:35:19.701566 10142 net.cpp:84] Creating Layer Scale16
I1005 20:35:19.701570 10142 net.cpp:406] Scale16 <- Convolution16
I1005 20:35:19.701573 10142 net.cpp:367] Scale16 -> Convolution16 (in-place)
I1005 20:35:19.701601 10142 layer_factory.hpp:77] Creating layer Scale16
I1005 20:35:19.701678 10142 net.cpp:122] Setting up Scale16
I1005 20:35:19.701683 10142 net.cpp:129] Top shape: 100 32 14 14 (627200)
I1005 20:35:19.701684 10142 net.cpp:137] Memory required for data: 359699600
I1005 20:35:19.701689 10142 layer_factory.hpp:77] Creating layer Eltwise7
I1005 20:35:19.701694 10142 net.cpp:84] Creating Layer Eltwise7
I1005 20:35:19.701696 10142 net.cpp:406] Eltwise7 <- Eltwise6_ReLU13_0_split_1
I1005 20:35:19.701699 10142 net.cpp:406] Eltwise7 <- Convolution16
I1005 20:35:19.701704 10142 net.cpp:380] Eltwise7 -> Eltwise7
I1005 20:35:19.701720 10142 net.cpp:122] Setting up Eltwise7
I1005 20:35:19.701725 10142 net.cpp:129] Top shape: 100 32 14 14 (627200)
I1005 20:35:19.701727 10142 net.cpp:137] Memory required for data: 362208400
I1005 20:35:19.701730 10142 layer_factory.hpp:77] Creating layer ReLU15
I1005 20:35:19.701733 10142 net.cpp:84] Creating Layer ReLU15
I1005 20:35:19.701735 10142 net.cpp:406] ReLU15 <- Eltwise7
I1005 20:35:19.701738 10142 net.cpp:367] ReLU15 -> Eltwise7 (in-place)
I1005 20:35:19.703776 10142 net.cpp:122] Setting up ReLU15
I1005 20:35:19.703785 10142 net.cpp:129] Top shape: 100 32 14 14 (627200)
I1005 20:35:19.703788 10142 net.cpp:137] Memory required for data: 364717200
I1005 20:35:19.703790 10142 layer_factory.hpp:77] Creating layer Eltwise7_ReLU15_0_split
I1005 20:35:19.703795 10142 net.cpp:84] Creating Layer Eltwise7_ReLU15_0_split
I1005 20:35:19.703799 10142 net.cpp:406] Eltwise7_ReLU15_0_split <- Eltwise7
I1005 20:35:19.703809 10142 net.cpp:380] Eltwise7_ReLU15_0_split -> Eltwise7_ReLU15_0_split_0
I1005 20:35:19.703816 10142 net.cpp:380] Eltwise7_ReLU15_0_split -> Eltwise7_ReLU15_0_split_1
I1005 20:35:19.703846 10142 net.cpp:122] Setting up Eltwise7_ReLU15_0_split
I1005 20:35:19.703851 10142 net.cpp:129] Top shape: 100 32 14 14 (627200)
I1005 20:35:19.703855 10142 net.cpp:129] Top shape: 100 32 14 14 (627200)
I1005 20:35:19.703856 10142 net.cpp:137] Memory required for data: 369734800
I1005 20:35:19.703860 10142 layer_factory.hpp:77] Creating layer Convolution17
I1005 20:35:19.703866 10142 net.cpp:84] Creating Layer Convolution17
I1005 20:35:19.703869 10142 net.cpp:406] Convolution17 <- Eltwise7_ReLU15_0_split_0
I1005 20:35:19.703873 10142 net.cpp:380] Convolution17 -> Convolution17
I1005 20:35:19.710141 10142 net.cpp:122] Setting up Convolution17
I1005 20:35:19.710150 10142 net.cpp:129] Top shape: 100 32 14 14 (627200)
I1005 20:35:19.710162 10142 net.cpp:137] Memory required for data: 372243600
I1005 20:35:19.710167 10142 layer_factory.hpp:77] Creating layer BatchNorm17
I1005 20:35:19.710173 10142 net.cpp:84] Creating Layer BatchNorm17
I1005 20:35:19.710175 10142 net.cpp:406] BatchNorm17 <- Convolution17
I1005 20:35:19.710180 10142 net.cpp:367] BatchNorm17 -> Convolution17 (in-place)
I1005 20:35:19.710310 10142 net.cpp:122] Setting up BatchNorm17
I1005 20:35:19.710315 10142 net.cpp:129] Top shape: 100 32 14 14 (627200)
I1005 20:35:19.710317 10142 net.cpp:137] Memory required for data: 374752400
I1005 20:35:19.710322 10142 layer_factory.hpp:77] Creating layer Scale17
I1005 20:35:19.710327 10142 net.cpp:84] Creating Layer Scale17
I1005 20:35:19.710330 10142 net.cpp:406] Scale17 <- Convolution17
I1005 20:35:19.710333 10142 net.cpp:367] Scale17 -> Convolution17 (in-place)
I1005 20:35:19.710381 10142 layer_factory.hpp:77] Creating layer Scale17
I1005 20:35:19.710477 10142 net.cpp:122] Setting up Scale17
I1005 20:35:19.710484 10142 net.cpp:129] Top shape: 100 32 14 14 (627200)
I1005 20:35:19.710495 10142 net.cpp:137] Memory required for data: 377261200
I1005 20:35:19.710500 10142 layer_factory.hpp:77] Creating layer ReLU16
I1005 20:35:19.710505 10142 net.cpp:84] Creating Layer ReLU16
I1005 20:35:19.710508 10142 net.cpp:406] ReLU16 <- Convolution17
I1005 20:35:19.710511 10142 net.cpp:367] ReLU16 -> Convolution17 (in-place)
I1005 20:35:19.712296 10142 net.cpp:122] Setting up ReLU16
I1005 20:35:19.712306 10142 net.cpp:129] Top shape: 100 32 14 14 (627200)
I1005 20:35:19.712318 10142 net.cpp:137] Memory required for data: 379770000
I1005 20:35:19.712321 10142 layer_factory.hpp:77] Creating layer Convolution18
I1005 20:35:19.712329 10142 net.cpp:84] Creating Layer Convolution18
I1005 20:35:19.712333 10142 net.cpp:406] Convolution18 <- Convolution17
I1005 20:35:19.712337 10142 net.cpp:380] Convolution18 -> Convolution18
I1005 20:35:19.719583 10142 net.cpp:122] Setting up Convolution18
I1005 20:35:19.719604 10142 net.cpp:129] Top shape: 100 32 14 14 (627200)
I1005 20:35:19.719617 10142 net.cpp:137] Memory required for data: 382278800
I1005 20:35:19.719622 10142 layer_factory.hpp:77] Creating layer BatchNorm18
I1005 20:35:19.719629 10142 net.cpp:84] Creating Layer BatchNorm18
I1005 20:35:19.719630 10142 net.cpp:406] BatchNorm18 <- Convolution18
I1005 20:35:19.719645 10142 net.cpp:367] BatchNorm18 -> Convolution18 (in-place)
I1005 20:35:19.719825 10142 net.cpp:122] Setting up BatchNorm18
I1005 20:35:19.719830 10142 net.cpp:129] Top shape: 100 32 14 14 (627200)
I1005 20:35:19.719842 10142 net.cpp:137] Memory required for data: 384787600
I1005 20:35:19.719847 10142 layer_factory.hpp:77] Creating layer Scale18
I1005 20:35:19.719852 10142 net.cpp:84] Creating Layer Scale18
I1005 20:35:19.719856 10142 net.cpp:406] Scale18 <- Convolution18
I1005 20:35:19.719858 10142 net.cpp:367] Scale18 -> Convolution18 (in-place)
I1005 20:35:19.719897 10142 layer_factory.hpp:77] Creating layer Scale18
I1005 20:35:19.719992 10142 net.cpp:122] Setting up Scale18
I1005 20:35:19.719997 10142 net.cpp:129] Top shape: 100 32 14 14 (627200)
I1005 20:35:19.720017 10142 net.cpp:137] Memory required for data: 387296400
I1005 20:35:19.720022 10142 layer_factory.hpp:77] Creating layer Eltwise8
I1005 20:35:19.720027 10142 net.cpp:84] Creating Layer Eltwise8
I1005 20:35:19.720031 10142 net.cpp:406] Eltwise8 <- Eltwise7_ReLU15_0_split_1
I1005 20:35:19.720034 10142 net.cpp:406] Eltwise8 <- Convolution18
I1005 20:35:19.720039 10142 net.cpp:380] Eltwise8 -> Eltwise8
I1005 20:35:19.720055 10142 net.cpp:122] Setting up Eltwise8
I1005 20:35:19.720060 10142 net.cpp:129] Top shape: 100 32 14 14 (627200)
I1005 20:35:19.720062 10142 net.cpp:137] Memory required for data: 389805200
I1005 20:35:19.720064 10142 layer_factory.hpp:77] Creating layer ReLU17
I1005 20:35:19.720069 10142 net.cpp:84] Creating Layer ReLU17
I1005 20:35:19.720072 10142 net.cpp:406] ReLU17 <- Eltwise8
I1005 20:35:19.720075 10142 net.cpp:367] ReLU17 -> Eltwise8 (in-place)
I1005 20:35:19.721979 10142 net.cpp:122] Setting up ReLU17
I1005 20:35:19.721987 10142 net.cpp:129] Top shape: 100 32 14 14 (627200)
I1005 20:35:19.721989 10142 net.cpp:137] Memory required for data: 392314000
I1005 20:35:19.721992 10142 layer_factory.hpp:77] Creating layer Eltwise8_ReLU17_0_split
I1005 20:35:19.721997 10142 net.cpp:84] Creating Layer Eltwise8_ReLU17_0_split
I1005 20:35:19.721999 10142 net.cpp:406] Eltwise8_ReLU17_0_split <- Eltwise8
I1005 20:35:19.722004 10142 net.cpp:380] Eltwise8_ReLU17_0_split -> Eltwise8_ReLU17_0_split_0
I1005 20:35:19.722009 10142 net.cpp:380] Eltwise8_ReLU17_0_split -> Eltwise8_ReLU17_0_split_1
I1005 20:35:19.722035 10142 net.cpp:122] Setting up Eltwise8_ReLU17_0_split
I1005 20:35:19.722039 10142 net.cpp:129] Top shape: 100 32 14 14 (627200)
I1005 20:35:19.722043 10142 net.cpp:129] Top shape: 100 32 14 14 (627200)
I1005 20:35:19.722044 10142 net.cpp:137] Memory required for data: 397331600
I1005 20:35:19.722046 10142 layer_factory.hpp:77] Creating layer Convolution19
I1005 20:35:19.722054 10142 net.cpp:84] Creating Layer Convolution19
I1005 20:35:19.722056 10142 net.cpp:406] Convolution19 <- Eltwise8_ReLU17_0_split_0
I1005 20:35:19.722061 10142 net.cpp:380] Convolution19 -> Convolution19
I1005 20:35:19.728358 10142 net.cpp:122] Setting up Convolution19
I1005 20:35:19.728368 10142 net.cpp:129] Top shape: 100 32 14 14 (627200)
I1005 20:35:19.728370 10142 net.cpp:137] Memory required for data: 399840400
I1005 20:35:19.728375 10142 layer_factory.hpp:77] Creating layer BatchNorm19
I1005 20:35:19.728390 10142 net.cpp:84] Creating Layer BatchNorm19
I1005 20:35:19.728394 10142 net.cpp:406] BatchNorm19 <- Convolution19
I1005 20:35:19.728399 10142 net.cpp:367] BatchNorm19 -> Convolution19 (in-place)
I1005 20:35:19.728554 10142 net.cpp:122] Setting up BatchNorm19
I1005 20:35:19.728559 10142 net.cpp:129] Top shape: 100 32 14 14 (627200)
I1005 20:35:19.728571 10142 net.cpp:137] Memory required for data: 402349200
I1005 20:35:19.728598 10142 layer_factory.hpp:77] Creating layer Scale19
I1005 20:35:19.728605 10142 net.cpp:84] Creating Layer Scale19
I1005 20:35:19.728607 10142 net.cpp:406] Scale19 <- Convolution19
I1005 20:35:19.728610 10142 net.cpp:367] Scale19 -> Convolution19 (in-place)
I1005 20:35:19.728683 10142 layer_factory.hpp:77] Creating layer Scale19
I1005 20:35:19.728801 10142 net.cpp:122] Setting up Scale19
I1005 20:35:19.728806 10142 net.cpp:129] Top shape: 100 32 14 14 (627200)
I1005 20:35:19.728818 10142 net.cpp:137] Memory required for data: 404858000
I1005 20:35:19.728821 10142 layer_factory.hpp:77] Creating layer ReLU18
I1005 20:35:19.728826 10142 net.cpp:84] Creating Layer ReLU18
I1005 20:35:19.728829 10142 net.cpp:406] ReLU18 <- Convolution19
I1005 20:35:19.728842 10142 net.cpp:367] ReLU18 -> Convolution19 (in-place)
I1005 20:35:19.729001 10142 net.cpp:122] Setting up ReLU18
I1005 20:35:19.729008 10142 net.cpp:129] Top shape: 100 32 14 14 (627200)
I1005 20:35:19.729020 10142 net.cpp:137] Memory required for data: 407366800
I1005 20:35:19.729023 10142 layer_factory.hpp:77] Creating layer Convolution20
I1005 20:35:19.729030 10142 net.cpp:84] Creating Layer Convolution20
I1005 20:35:19.729039 10142 net.cpp:406] Convolution20 <- Convolution19
I1005 20:35:19.729044 10142 net.cpp:380] Convolution20 -> Convolution20
I1005 20:35:19.733741 10142 net.cpp:122] Setting up Convolution20
I1005 20:35:19.733750 10142 net.cpp:129] Top shape: 100 32 14 14 (627200)
I1005 20:35:19.733753 10142 net.cpp:137] Memory required for data: 409875600
I1005 20:35:19.733758 10142 layer_factory.hpp:77] Creating layer BatchNorm20
I1005 20:35:19.733765 10142 net.cpp:84] Creating Layer BatchNorm20
I1005 20:35:19.733768 10142 net.cpp:406] BatchNorm20 <- Convolution20
I1005 20:35:19.733773 10142 net.cpp:367] BatchNorm20 -> Convolution20 (in-place)
I1005 20:35:19.733913 10142 net.cpp:122] Setting up BatchNorm20
I1005 20:35:19.733918 10142 net.cpp:129] Top shape: 100 32 14 14 (627200)
I1005 20:35:19.733922 10142 net.cpp:137] Memory required for data: 412384400
I1005 20:35:19.733927 10142 layer_factory.hpp:77] Creating layer Scale20
I1005 20:35:19.733932 10142 net.cpp:84] Creating Layer Scale20
I1005 20:35:19.733934 10142 net.cpp:406] Scale20 <- Convolution20
I1005 20:35:19.733938 10142 net.cpp:367] Scale20 -> Convolution20 (in-place)
I1005 20:35:19.733965 10142 layer_factory.hpp:77] Creating layer Scale20
I1005 20:35:19.734046 10142 net.cpp:122] Setting up Scale20
I1005 20:35:19.734052 10142 net.cpp:129] Top shape: 100 32 14 14 (627200)
I1005 20:35:19.734055 10142 net.cpp:137] Memory required for data: 414893200
I1005 20:35:19.734058 10142 layer_factory.hpp:77] Creating layer Eltwise9
I1005 20:35:19.734064 10142 net.cpp:84] Creating Layer Eltwise9
I1005 20:35:19.734067 10142 net.cpp:406] Eltwise9 <- Eltwise8_ReLU17_0_split_1
I1005 20:35:19.734071 10142 net.cpp:406] Eltwise9 <- Convolution20
I1005 20:35:19.734074 10142 net.cpp:380] Eltwise9 -> Eltwise9
I1005 20:35:19.734091 10142 net.cpp:122] Setting up Eltwise9
I1005 20:35:19.734097 10142 net.cpp:129] Top shape: 100 32 14 14 (627200)
I1005 20:35:19.734098 10142 net.cpp:137] Memory required for data: 417402000
I1005 20:35:19.734100 10142 layer_factory.hpp:77] Creating layer ReLU19
I1005 20:35:19.734105 10142 net.cpp:84] Creating Layer ReLU19
I1005 20:35:19.734108 10142 net.cpp:406] ReLU19 <- Eltwise9
I1005 20:35:19.734112 10142 net.cpp:367] ReLU19 -> Eltwise9 (in-place)
I1005 20:35:19.735838 10142 net.cpp:122] Setting up ReLU19
I1005 20:35:19.735846 10142 net.cpp:129] Top shape: 100 32 14 14 (627200)
I1005 20:35:19.735847 10142 net.cpp:137] Memory required for data: 419910800
I1005 20:35:19.735851 10142 layer_factory.hpp:77] Creating layer Eltwise9_ReLU19_0_split
I1005 20:35:19.735855 10142 net.cpp:84] Creating Layer Eltwise9_ReLU19_0_split
I1005 20:35:19.735858 10142 net.cpp:406] Eltwise9_ReLU19_0_split <- Eltwise9
I1005 20:35:19.735862 10142 net.cpp:380] Eltwise9_ReLU19_0_split -> Eltwise9_ReLU19_0_split_0
I1005 20:35:19.735867 10142 net.cpp:380] Eltwise9_ReLU19_0_split -> Eltwise9_ReLU19_0_split_1
I1005 20:35:19.735894 10142 net.cpp:122] Setting up Eltwise9_ReLU19_0_split
I1005 20:35:19.735899 10142 net.cpp:129] Top shape: 100 32 14 14 (627200)
I1005 20:35:19.735903 10142 net.cpp:129] Top shape: 100 32 14 14 (627200)
I1005 20:35:19.735904 10142 net.cpp:137] Memory required for data: 424928400
I1005 20:35:19.735906 10142 layer_factory.hpp:77] Creating layer Convolution21
I1005 20:35:19.735913 10142 net.cpp:84] Creating Layer Convolution21
I1005 20:35:19.735916 10142 net.cpp:406] Convolution21 <- Eltwise9_ReLU19_0_split_0
I1005 20:35:19.735921 10142 net.cpp:380] Convolution21 -> Convolution21
I1005 20:35:19.741757 10142 net.cpp:122] Setting up Convolution21
I1005 20:35:19.741767 10142 net.cpp:129] Top shape: 100 32 14 14 (627200)
I1005 20:35:19.741780 10142 net.cpp:137] Memory required for data: 427437200
I1005 20:35:19.741785 10142 layer_factory.hpp:77] Creating layer BatchNorm21
I1005 20:35:19.741789 10142 net.cpp:84] Creating Layer BatchNorm21
I1005 20:35:19.741792 10142 net.cpp:406] BatchNorm21 <- Convolution21
I1005 20:35:19.741806 10142 net.cpp:367] BatchNorm21 -> Convolution21 (in-place)
I1005 20:35:19.741955 10142 net.cpp:122] Setting up BatchNorm21
I1005 20:35:19.741961 10142 net.cpp:129] Top shape: 100 32 14 14 (627200)
I1005 20:35:19.741979 10142 net.cpp:137] Memory required for data: 429946000
I1005 20:35:19.741986 10142 layer_factory.hpp:77] Creating layer Scale21
I1005 20:35:19.741991 10142 net.cpp:84] Creating Layer Scale21
I1005 20:35:19.741993 10142 net.cpp:406] Scale21 <- Convolution21
I1005 20:35:19.741997 10142 net.cpp:367] Scale21 -> Convolution21 (in-place)
I1005 20:35:19.742028 10142 layer_factory.hpp:77] Creating layer Scale21
I1005 20:35:19.742107 10142 net.cpp:122] Setting up Scale21
I1005 20:35:19.742115 10142 net.cpp:129] Top shape: 100 32 14 14 (627200)
I1005 20:35:19.742116 10142 net.cpp:137] Memory required for data: 432454800
I1005 20:35:19.742121 10142 layer_factory.hpp:77] Creating layer ReLU20
I1005 20:35:19.742125 10142 net.cpp:84] Creating Layer ReLU20
I1005 20:35:19.742127 10142 net.cpp:406] ReLU20 <- Convolution21
I1005 20:35:19.742130 10142 net.cpp:367] ReLU20 -> Convolution21 (in-place)
I1005 20:35:19.742252 10142 net.cpp:122] Setting up ReLU20
I1005 20:35:19.742260 10142 net.cpp:129] Top shape: 100 32 14 14 (627200)
I1005 20:35:19.742264 10142 net.cpp:137] Memory required for data: 434963600
I1005 20:35:19.742265 10142 layer_factory.hpp:77] Creating layer Convolution22
I1005 20:35:19.742272 10142 net.cpp:84] Creating Layer Convolution22
I1005 20:35:19.742275 10142 net.cpp:406] Convolution22 <- Convolution21
I1005 20:35:19.742280 10142 net.cpp:380] Convolution22 -> Convolution22
I1005 20:35:19.748569 10142 net.cpp:122] Setting up Convolution22
I1005 20:35:19.748580 10142 net.cpp:129] Top shape: 100 32 14 14 (627200)
I1005 20:35:19.748584 10142 net.cpp:137] Memory required for data: 437472400
I1005 20:35:19.748598 10142 layer_factory.hpp:77] Creating layer BatchNorm22
I1005 20:35:19.748603 10142 net.cpp:84] Creating Layer BatchNorm22
I1005 20:35:19.748606 10142 net.cpp:406] BatchNorm22 <- Convolution22
I1005 20:35:19.748611 10142 net.cpp:367] BatchNorm22 -> Convolution22 (in-place)
I1005 20:35:19.748759 10142 net.cpp:122] Setting up BatchNorm22
I1005 20:35:19.748764 10142 net.cpp:129] Top shape: 100 32 14 14 (627200)
I1005 20:35:19.748767 10142 net.cpp:137] Memory required for data: 439981200
I1005 20:35:19.748771 10142 layer_factory.hpp:77] Creating layer Scale22
I1005 20:35:19.748786 10142 net.cpp:84] Creating Layer Scale22
I1005 20:35:19.748790 10142 net.cpp:406] Scale22 <- Convolution22
I1005 20:35:19.748792 10142 net.cpp:367] Scale22 -> Convolution22 (in-place)
I1005 20:35:19.748829 10142 layer_factory.hpp:77] Creating layer Scale22
I1005 20:35:19.748929 10142 net.cpp:122] Setting up Scale22
I1005 20:35:19.748934 10142 net.cpp:129] Top shape: 100 32 14 14 (627200)
I1005 20:35:19.748937 10142 net.cpp:137] Memory required for data: 442490000
I1005 20:35:19.748950 10142 layer_factory.hpp:77] Creating layer Eltwise10
I1005 20:35:19.748956 10142 net.cpp:84] Creating Layer Eltwise10
I1005 20:35:19.748960 10142 net.cpp:406] Eltwise10 <- Eltwise9_ReLU19_0_split_1
I1005 20:35:19.748962 10142 net.cpp:406] Eltwise10 <- Convolution22
I1005 20:35:19.748966 10142 net.cpp:380] Eltwise10 -> Eltwise10
I1005 20:35:19.748983 10142 net.cpp:122] Setting up Eltwise10
I1005 20:35:19.748988 10142 net.cpp:129] Top shape: 100 32 14 14 (627200)
I1005 20:35:19.748991 10142 net.cpp:137] Memory required for data: 444998800
I1005 20:35:19.748992 10142 layer_factory.hpp:77] Creating layer ReLU21
I1005 20:35:19.748996 10142 net.cpp:84] Creating Layer ReLU21
I1005 20:35:19.748999 10142 net.cpp:406] ReLU21 <- Eltwise10
I1005 20:35:19.749002 10142 net.cpp:367] ReLU21 -> Eltwise10 (in-place)
I1005 20:35:19.751297 10142 net.cpp:122] Setting up ReLU21
I1005 20:35:19.751307 10142 net.cpp:129] Top shape: 100 32 14 14 (627200)
I1005 20:35:19.751310 10142 net.cpp:137] Memory required for data: 447507600
I1005 20:35:19.751313 10142 layer_factory.hpp:77] Creating layer Eltwise10_ReLU21_0_split
I1005 20:35:19.751318 10142 net.cpp:84] Creating Layer Eltwise10_ReLU21_0_split
I1005 20:35:19.751322 10142 net.cpp:406] Eltwise10_ReLU21_0_split <- Eltwise10
I1005 20:35:19.751325 10142 net.cpp:380] Eltwise10_ReLU21_0_split -> Eltwise10_ReLU21_0_split_0
I1005 20:35:19.751340 10142 net.cpp:380] Eltwise10_ReLU21_0_split -> Eltwise10_ReLU21_0_split_1
I1005 20:35:19.751372 10142 net.cpp:122] Setting up Eltwise10_ReLU21_0_split
I1005 20:35:19.751377 10142 net.cpp:129] Top shape: 100 32 14 14 (627200)
I1005 20:35:19.751380 10142 net.cpp:129] Top shape: 100 32 14 14 (627200)
I1005 20:35:19.751382 10142 net.cpp:137] Memory required for data: 452525200
I1005 20:35:19.751385 10142 layer_factory.hpp:77] Creating layer Convolution23
I1005 20:35:19.751392 10142 net.cpp:84] Creating Layer Convolution23
I1005 20:35:19.751396 10142 net.cpp:406] Convolution23 <- Eltwise10_ReLU21_0_split_0
I1005 20:35:19.751401 10142 net.cpp:380] Convolution23 -> Convolution23
I1005 20:35:19.758240 10142 net.cpp:122] Setting up Convolution23
I1005 20:35:19.758249 10142 net.cpp:129] Top shape: 100 64 7 7 (313600)
I1005 20:35:19.758261 10142 net.cpp:137] Memory required for data: 453779600
I1005 20:35:19.758266 10142 layer_factory.hpp:77] Creating layer BatchNorm23
I1005 20:35:19.758271 10142 net.cpp:84] Creating Layer BatchNorm23
I1005 20:35:19.758275 10142 net.cpp:406] BatchNorm23 <- Convolution23
I1005 20:35:19.758278 10142 net.cpp:367] BatchNorm23 -> Convolution23 (in-place)
I1005 20:35:19.758424 10142 net.cpp:122] Setting up BatchNorm23
I1005 20:35:19.758430 10142 net.cpp:129] Top shape: 100 64 7 7 (313600)
I1005 20:35:19.758441 10142 net.cpp:137] Memory required for data: 455034000
I1005 20:35:19.758446 10142 layer_factory.hpp:77] Creating layer Scale23
I1005 20:35:19.758451 10142 net.cpp:84] Creating Layer Scale23
I1005 20:35:19.758455 10142 net.cpp:406] Scale23 <- Convolution23
I1005 20:35:19.758457 10142 net.cpp:367] Scale23 -> Convolution23 (in-place)
I1005 20:35:19.758496 10142 layer_factory.hpp:77] Creating layer Scale23
I1005 20:35:19.758599 10142 net.cpp:122] Setting up Scale23
I1005 20:35:19.758605 10142 net.cpp:129] Top shape: 100 64 7 7 (313600)
I1005 20:35:19.758606 10142 net.cpp:137] Memory required for data: 456288400
I1005 20:35:19.758620 10142 layer_factory.hpp:77] Creating layer Convolution24
I1005 20:35:19.758628 10142 net.cpp:84] Creating Layer Convolution24
I1005 20:35:19.758631 10142 net.cpp:406] Convolution24 <- Eltwise10_ReLU21_0_split_1
I1005 20:35:19.758635 10142 net.cpp:380] Convolution24 -> Convolution24
I1005 20:35:19.764914 10142 net.cpp:122] Setting up Convolution24
I1005 20:35:19.764925 10142 net.cpp:129] Top shape: 100 64 7 7 (313600)
I1005 20:35:19.764937 10142 net.cpp:137] Memory required for data: 457542800
I1005 20:35:19.764942 10142 layer_factory.hpp:77] Creating layer BatchNorm24
I1005 20:35:19.764948 10142 net.cpp:84] Creating Layer BatchNorm24
I1005 20:35:19.764951 10142 net.cpp:406] BatchNorm24 <- Convolution24
I1005 20:35:19.764956 10142 net.cpp:367] BatchNorm24 -> Convolution24 (in-place)
I1005 20:35:19.765102 10142 net.cpp:122] Setting up BatchNorm24
I1005 20:35:19.765107 10142 net.cpp:129] Top shape: 100 64 7 7 (313600)
I1005 20:35:19.765110 10142 net.cpp:137] Memory required for data: 458797200
I1005 20:35:19.765125 10142 layer_factory.hpp:77] Creating layer Scale24
I1005 20:35:19.765130 10142 net.cpp:84] Creating Layer Scale24
I1005 20:35:19.765132 10142 net.cpp:406] Scale24 <- Convolution24
I1005 20:35:19.765136 10142 net.cpp:367] Scale24 -> Convolution24 (in-place)
I1005 20:35:19.765174 10142 layer_factory.hpp:77] Creating layer Scale24
I1005 20:35:19.765283 10142 net.cpp:122] Setting up Scale24
I1005 20:35:19.765288 10142 net.cpp:129] Top shape: 100 64 7 7 (313600)
I1005 20:35:19.765290 10142 net.cpp:137] Memory required for data: 460051600
I1005 20:35:19.765295 10142 layer_factory.hpp:77] Creating layer ReLU22
I1005 20:35:19.765300 10142 net.cpp:84] Creating Layer ReLU22
I1005 20:35:19.765302 10142 net.cpp:406] ReLU22 <- Convolution24
I1005 20:35:19.765305 10142 net.cpp:367] ReLU22 -> Convolution24 (in-place)
I1005 20:35:19.767053 10142 net.cpp:122] Setting up ReLU22
I1005 20:35:19.767062 10142 net.cpp:129] Top shape: 100 64 7 7 (313600)
I1005 20:35:19.767074 10142 net.cpp:137] Memory required for data: 461306000
I1005 20:35:19.767086 10142 layer_factory.hpp:77] Creating layer Convolution25
I1005 20:35:19.767097 10142 net.cpp:84] Creating Layer Convolution25
I1005 20:35:19.767101 10142 net.cpp:406] Convolution25 <- Convolution24
I1005 20:35:19.767107 10142 net.cpp:380] Convolution25 -> Convolution25
I1005 20:35:19.774005 10142 net.cpp:122] Setting up Convolution25
I1005 20:35:19.774015 10142 net.cpp:129] Top shape: 100 64 7 7 (313600)
I1005 20:35:19.774029 10142 net.cpp:137] Memory required for data: 462560400
I1005 20:35:19.774034 10142 layer_factory.hpp:77] Creating layer BatchNorm25
I1005 20:35:19.774039 10142 net.cpp:84] Creating Layer BatchNorm25
I1005 20:35:19.774042 10142 net.cpp:406] BatchNorm25 <- Convolution25
I1005 20:35:19.774046 10142 net.cpp:367] BatchNorm25 -> Convolution25 (in-place)
I1005 20:35:19.774197 10142 net.cpp:122] Setting up BatchNorm25
I1005 20:35:19.774204 10142 net.cpp:129] Top shape: 100 64 7 7 (313600)
I1005 20:35:19.774205 10142 net.cpp:137] Memory required for data: 463814800
I1005 20:35:19.774220 10142 layer_factory.hpp:77] Creating layer Scale25
I1005 20:35:19.774224 10142 net.cpp:84] Creating Layer Scale25
I1005 20:35:19.774227 10142 net.cpp:406] Scale25 <- Convolution25
I1005 20:35:19.774231 10142 net.cpp:367] Scale25 -> Convolution25 (in-place)
I1005 20:35:19.774268 10142 layer_factory.hpp:77] Creating layer Scale25
I1005 20:35:19.774379 10142 net.cpp:122] Setting up Scale25
I1005 20:35:19.774384 10142 net.cpp:129] Top shape: 100 64 7 7 (313600)
I1005 20:35:19.774386 10142 net.cpp:137] Memory required for data: 465069200
I1005 20:35:19.774390 10142 layer_factory.hpp:77] Creating layer Eltwise11
I1005 20:35:19.774395 10142 net.cpp:84] Creating Layer Eltwise11
I1005 20:35:19.774399 10142 net.cpp:406] Eltwise11 <- Convolution23
I1005 20:35:19.774402 10142 net.cpp:406] Eltwise11 <- Convolution25
I1005 20:35:19.774407 10142 net.cpp:380] Eltwise11 -> Eltwise11
I1005 20:35:19.774425 10142 net.cpp:122] Setting up Eltwise11
I1005 20:35:19.774438 10142 net.cpp:129] Top shape: 100 64 7 7 (313600)
I1005 20:35:19.774441 10142 net.cpp:137] Memory required for data: 466323600
I1005 20:35:19.774442 10142 layer_factory.hpp:77] Creating layer ReLU23
I1005 20:35:19.774457 10142 net.cpp:84] Creating Layer ReLU23
I1005 20:35:19.774461 10142 net.cpp:406] ReLU23 <- Eltwise11
I1005 20:35:19.774463 10142 net.cpp:367] ReLU23 -> Eltwise11 (in-place)
I1005 20:35:19.775811 10142 net.cpp:122] Setting up ReLU23
I1005 20:35:19.775820 10142 net.cpp:129] Top shape: 100 64 7 7 (313600)
I1005 20:35:19.775831 10142 net.cpp:137] Memory required for data: 467578000
I1005 20:35:19.775835 10142 layer_factory.hpp:77] Creating layer Eltwise11_ReLU23_0_split
I1005 20:35:19.775840 10142 net.cpp:84] Creating Layer Eltwise11_ReLU23_0_split
I1005 20:35:19.775842 10142 net.cpp:406] Eltwise11_ReLU23_0_split <- Eltwise11
I1005 20:35:19.775846 10142 net.cpp:380] Eltwise11_ReLU23_0_split -> Eltwise11_ReLU23_0_split_0
I1005 20:35:19.775851 10142 net.cpp:380] Eltwise11_ReLU23_0_split -> Eltwise11_ReLU23_0_split_1
I1005 20:35:19.775888 10142 net.cpp:122] Setting up Eltwise11_ReLU23_0_split
I1005 20:35:19.775893 10142 net.cpp:129] Top shape: 100 64 7 7 (313600)
I1005 20:35:19.775907 10142 net.cpp:129] Top shape: 100 64 7 7 (313600)
I1005 20:35:19.775908 10142 net.cpp:137] Memory required for data: 470086800
I1005 20:35:19.775910 10142 layer_factory.hpp:77] Creating layer Convolution26
I1005 20:35:19.775918 10142 net.cpp:84] Creating Layer Convolution26
I1005 20:35:19.775919 10142 net.cpp:406] Convolution26 <- Eltwise11_ReLU23_0_split_0
I1005 20:35:19.775924 10142 net.cpp:380] Convolution26 -> Convolution26
I1005 20:35:19.782467 10142 net.cpp:122] Setting up Convolution26
I1005 20:35:19.782481 10142 net.cpp:129] Top shape: 100 64 7 7 (313600)
I1005 20:35:19.782485 10142 net.cpp:137] Memory required for data: 471341200
I1005 20:35:19.782490 10142 layer_factory.hpp:77] Creating layer BatchNorm26
I1005 20:35:19.782495 10142 net.cpp:84] Creating Layer BatchNorm26
I1005 20:35:19.782498 10142 net.cpp:406] BatchNorm26 <- Convolution26
I1005 20:35:19.782513 10142 net.cpp:367] BatchNorm26 -> Convolution26 (in-place)
I1005 20:35:19.782712 10142 net.cpp:122] Setting up BatchNorm26
I1005 20:35:19.782719 10142 net.cpp:129] Top shape: 100 64 7 7 (313600)
I1005 20:35:19.782722 10142 net.cpp:137] Memory required for data: 472595600
I1005 20:35:19.782732 10142 layer_factory.hpp:77] Creating layer Scale26
I1005 20:35:19.782749 10142 net.cpp:84] Creating Layer Scale26
I1005 20:35:19.782752 10142 net.cpp:406] Scale26 <- Convolution26
I1005 20:35:19.782755 10142 net.cpp:367] Scale26 -> Convolution26 (in-place)
I1005 20:35:19.782799 10142 layer_factory.hpp:77] Creating layer Scale26
I1005 20:35:19.782901 10142 net.cpp:122] Setting up Scale26
I1005 20:35:19.782905 10142 net.cpp:129] Top shape: 100 64 7 7 (313600)
I1005 20:35:19.782907 10142 net.cpp:137] Memory required for data: 473850000
I1005 20:35:19.782920 10142 layer_factory.hpp:77] Creating layer ReLU24
I1005 20:35:19.782925 10142 net.cpp:84] Creating Layer ReLU24
I1005 20:35:19.782928 10142 net.cpp:406] ReLU24 <- Convolution26
I1005 20:35:19.782932 10142 net.cpp:367] ReLU24 -> Convolution26 (in-place)
I1005 20:35:19.783066 10142 net.cpp:122] Setting up ReLU24
I1005 20:35:19.783071 10142 net.cpp:129] Top shape: 100 64 7 7 (313600)
I1005 20:35:19.783074 10142 net.cpp:137] Memory required for data: 475104400
I1005 20:35:19.783077 10142 layer_factory.hpp:77] Creating layer Convolution27
I1005 20:35:19.783093 10142 net.cpp:84] Creating Layer Convolution27
I1005 20:35:19.783097 10142 net.cpp:406] Convolution27 <- Convolution26
I1005 20:35:19.783102 10142 net.cpp:380] Convolution27 -> Convolution27
I1005 20:35:19.788564 10142 net.cpp:122] Setting up Convolution27
I1005 20:35:19.788574 10142 net.cpp:129] Top shape: 100 64 7 7 (313600)
I1005 20:35:19.788578 10142 net.cpp:137] Memory required for data: 476358800
I1005 20:35:19.788594 10142 layer_factory.hpp:77] Creating layer BatchNorm27
I1005 20:35:19.788599 10142 net.cpp:84] Creating Layer BatchNorm27
I1005 20:35:19.788602 10142 net.cpp:406] BatchNorm27 <- Convolution27
I1005 20:35:19.788606 10142 net.cpp:367] BatchNorm27 -> Convolution27 (in-place)
I1005 20:35:19.788759 10142 net.cpp:122] Setting up BatchNorm27
I1005 20:35:19.788765 10142 net.cpp:129] Top shape: 100 64 7 7 (313600)
I1005 20:35:19.788767 10142 net.cpp:137] Memory required for data: 477613200
I1005 20:35:19.788782 10142 layer_factory.hpp:77] Creating layer Scale27
I1005 20:35:19.788800 10142 net.cpp:84] Creating Layer Scale27
I1005 20:35:19.788802 10142 net.cpp:406] Scale27 <- Convolution27
I1005 20:35:19.788806 10142 net.cpp:367] Scale27 -> Convolution27 (in-place)
I1005 20:35:19.788857 10142 layer_factory.hpp:77] Creating layer Scale27
I1005 20:35:19.788969 10142 net.cpp:122] Setting up Scale27
I1005 20:35:19.788974 10142 net.cpp:129] Top shape: 100 64 7 7 (313600)
I1005 20:35:19.788975 10142 net.cpp:137] Memory required for data: 478867600
I1005 20:35:19.788990 10142 layer_factory.hpp:77] Creating layer Eltwise12
I1005 20:35:19.788995 10142 net.cpp:84] Creating Layer Eltwise12
I1005 20:35:19.789000 10142 net.cpp:406] Eltwise12 <- Eltwise11_ReLU23_0_split_1
I1005 20:35:19.789003 10142 net.cpp:406] Eltwise12 <- Convolution27
I1005 20:35:19.789007 10142 net.cpp:380] Eltwise12 -> Eltwise12
I1005 20:35:19.789041 10142 net.cpp:122] Setting up Eltwise12
I1005 20:35:19.789047 10142 net.cpp:129] Top shape: 100 64 7 7 (313600)
I1005 20:35:19.789049 10142 net.cpp:137] Memory required for data: 480122000
I1005 20:35:19.789052 10142 layer_factory.hpp:77] Creating layer ReLU25
I1005 20:35:19.789055 10142 net.cpp:84] Creating Layer ReLU25
I1005 20:35:19.789058 10142 net.cpp:406] ReLU25 <- Eltwise12
I1005 20:35:19.789062 10142 net.cpp:367] ReLU25 -> Eltwise12 (in-place)
I1005 20:35:19.790351 10142 net.cpp:122] Setting up ReLU25
I1005 20:35:19.790359 10142 net.cpp:129] Top shape: 100 64 7 7 (313600)
I1005 20:35:19.790360 10142 net.cpp:137] Memory required for data: 481376400
I1005 20:35:19.790364 10142 layer_factory.hpp:77] Creating layer Eltwise12_ReLU25_0_split
I1005 20:35:19.790367 10142 net.cpp:84] Creating Layer Eltwise12_ReLU25_0_split
I1005 20:35:19.790379 10142 net.cpp:406] Eltwise12_ReLU25_0_split <- Eltwise12
I1005 20:35:19.790382 10142 net.cpp:380] Eltwise12_ReLU25_0_split -> Eltwise12_ReLU25_0_split_0
I1005 20:35:19.790387 10142 net.cpp:380] Eltwise12_ReLU25_0_split -> Eltwise12_ReLU25_0_split_1
I1005 20:35:19.790417 10142 net.cpp:122] Setting up Eltwise12_ReLU25_0_split
I1005 20:35:19.790422 10142 net.cpp:129] Top shape: 100 64 7 7 (313600)
I1005 20:35:19.790426 10142 net.cpp:129] Top shape: 100 64 7 7 (313600)
I1005 20:35:19.790428 10142 net.cpp:137] Memory required for data: 483885200
I1005 20:35:19.790431 10142 layer_factory.hpp:77] Creating layer Convolution28
I1005 20:35:19.790438 10142 net.cpp:84] Creating Layer Convolution28
I1005 20:35:19.790442 10142 net.cpp:406] Convolution28 <- Eltwise12_ReLU25_0_split_0
I1005 20:35:19.790446 10142 net.cpp:380] Convolution28 -> Convolution28
I1005 20:35:19.796228 10142 net.cpp:122] Setting up Convolution28
I1005 20:35:19.796238 10142 net.cpp:129] Top shape: 100 64 7 7 (313600)
I1005 20:35:19.796241 10142 net.cpp:137] Memory required for data: 485139600
I1005 20:35:19.796247 10142 layer_factory.hpp:77] Creating layer BatchNorm28
I1005 20:35:19.796252 10142 net.cpp:84] Creating Layer BatchNorm28
I1005 20:35:19.796254 10142 net.cpp:406] BatchNorm28 <- Convolution28
I1005 20:35:19.796258 10142 net.cpp:367] BatchNorm28 -> Convolution28 (in-place)
I1005 20:35:19.796398 10142 net.cpp:122] Setting up BatchNorm28
I1005 20:35:19.796404 10142 net.cpp:129] Top shape: 100 64 7 7 (313600)
I1005 20:35:19.796406 10142 net.cpp:137] Memory required for data: 486394000
I1005 20:35:19.796411 10142 layer_factory.hpp:77] Creating layer Scale28
I1005 20:35:19.796417 10142 net.cpp:84] Creating Layer Scale28
I1005 20:35:19.796420 10142 net.cpp:406] Scale28 <- Convolution28
I1005 20:35:19.796424 10142 net.cpp:367] Scale28 -> Convolution28 (in-place)
I1005 20:35:19.796452 10142 layer_factory.hpp:77] Creating layer Scale28
I1005 20:35:19.796532 10142 net.cpp:122] Setting up Scale28
I1005 20:35:19.796538 10142 net.cpp:129] Top shape: 100 64 7 7 (313600)
I1005 20:35:19.796540 10142 net.cpp:137] Memory required for data: 487648400
I1005 20:35:19.796545 10142 layer_factory.hpp:77] Creating layer ReLU26
I1005 20:35:19.796550 10142 net.cpp:84] Creating Layer ReLU26
I1005 20:35:19.796552 10142 net.cpp:406] ReLU26 <- Convolution28
I1005 20:35:19.796555 10142 net.cpp:367] ReLU26 -> Convolution28 (in-place)
I1005 20:35:19.796676 10142 net.cpp:122] Setting up ReLU26
I1005 20:35:19.796684 10142 net.cpp:129] Top shape: 100 64 7 7 (313600)
I1005 20:35:19.796686 10142 net.cpp:137] Memory required for data: 488902800
I1005 20:35:19.796689 10142 layer_factory.hpp:77] Creating layer Convolution29
I1005 20:35:19.796696 10142 net.cpp:84] Creating Layer Convolution29
I1005 20:35:19.796700 10142 net.cpp:406] Convolution29 <- Convolution28
I1005 20:35:19.796703 10142 net.cpp:380] Convolution29 -> Convolution29
I1005 20:35:19.803267 10142 net.cpp:122] Setting up Convolution29
I1005 20:35:19.803277 10142 net.cpp:129] Top shape: 100 64 7 7 (313600)
I1005 20:35:19.803278 10142 net.cpp:137] Memory required for data: 490157200
I1005 20:35:19.803283 10142 layer_factory.hpp:77] Creating layer BatchNorm29
I1005 20:35:19.803298 10142 net.cpp:84] Creating Layer BatchNorm29
I1005 20:35:19.803303 10142 net.cpp:406] BatchNorm29 <- Convolution29
I1005 20:35:19.803306 10142 net.cpp:367] BatchNorm29 -> Convolution29 (in-place)
I1005 20:35:19.803459 10142 net.cpp:122] Setting up BatchNorm29
I1005 20:35:19.803465 10142 net.cpp:129] Top shape: 100 64 7 7 (313600)
I1005 20:35:19.803467 10142 net.cpp:137] Memory required for data: 491411600
I1005 20:35:19.803472 10142 layer_factory.hpp:77] Creating layer Scale29
I1005 20:35:19.803477 10142 net.cpp:84] Creating Layer Scale29
I1005 20:35:19.803479 10142 net.cpp:406] Scale29 <- Convolution29
I1005 20:35:19.803483 10142 net.cpp:367] Scale29 -> Convolution29 (in-place)
I1005 20:35:19.803511 10142 layer_factory.hpp:77] Creating layer Scale29
I1005 20:35:19.803593 10142 net.cpp:122] Setting up Scale29
I1005 20:35:19.803606 10142 net.cpp:129] Top shape: 100 64 7 7 (313600)
I1005 20:35:19.803608 10142 net.cpp:137] Memory required for data: 492666000
I1005 20:35:19.803612 10142 layer_factory.hpp:77] Creating layer Eltwise13
I1005 20:35:19.803617 10142 net.cpp:84] Creating Layer Eltwise13
I1005 20:35:19.803620 10142 net.cpp:406] Eltwise13 <- Eltwise12_ReLU25_0_split_1
I1005 20:35:19.803623 10142 net.cpp:406] Eltwise13 <- Convolution29
I1005 20:35:19.803628 10142 net.cpp:380] Eltwise13 -> Eltwise13
I1005 20:35:19.803647 10142 net.cpp:122] Setting up Eltwise13
I1005 20:35:19.803653 10142 net.cpp:129] Top shape: 100 64 7 7 (313600)
I1005 20:35:19.803654 10142 net.cpp:137] Memory required for data: 493920400
I1005 20:35:19.803656 10142 layer_factory.hpp:77] Creating layer ReLU27
I1005 20:35:19.803660 10142 net.cpp:84] Creating Layer ReLU27
I1005 20:35:19.803663 10142 net.cpp:406] ReLU27 <- Eltwise13
I1005 20:35:19.803666 10142 net.cpp:367] ReLU27 -> Eltwise13 (in-place)
I1005 20:35:19.805080 10142 net.cpp:122] Setting up ReLU27
I1005 20:35:19.805088 10142 net.cpp:129] Top shape: 100 64 7 7 (313600)
I1005 20:35:19.805090 10142 net.cpp:137] Memory required for data: 495174800
I1005 20:35:19.805093 10142 layer_factory.hpp:77] Creating layer Eltwise13_ReLU27_0_split
I1005 20:35:19.805096 10142 net.cpp:84] Creating Layer Eltwise13_ReLU27_0_split
I1005 20:35:19.805099 10142 net.cpp:406] Eltwise13_ReLU27_0_split <- Eltwise13
I1005 20:35:19.805104 10142 net.cpp:380] Eltwise13_ReLU27_0_split -> Eltwise13_ReLU27_0_split_0
I1005 20:35:19.805109 10142 net.cpp:380] Eltwise13_ReLU27_0_split -> Eltwise13_ReLU27_0_split_1
I1005 20:35:19.805137 10142 net.cpp:122] Setting up Eltwise13_ReLU27_0_split
I1005 20:35:19.805142 10142 net.cpp:129] Top shape: 100 64 7 7 (313600)
I1005 20:35:19.805145 10142 net.cpp:129] Top shape: 100 64 7 7 (313600)
I1005 20:35:19.805147 10142 net.cpp:137] Memory required for data: 497683600
I1005 20:35:19.805150 10142 layer_factory.hpp:77] Creating layer Convolution30
I1005 20:35:19.805158 10142 net.cpp:84] Creating Layer Convolution30
I1005 20:35:19.805161 10142 net.cpp:406] Convolution30 <- Eltwise13_ReLU27_0_split_0
I1005 20:35:19.805166 10142 net.cpp:380] Convolution30 -> Convolution30
I1005 20:35:19.812383 10142 net.cpp:122] Setting up Convolution30
I1005 20:35:19.812407 10142 net.cpp:129] Top shape: 100 64 7 7 (313600)
I1005 20:35:19.812410 10142 net.cpp:137] Memory required for data: 498938000
I1005 20:35:19.812415 10142 layer_factory.hpp:77] Creating layer BatchNorm30
I1005 20:35:19.812422 10142 net.cpp:84] Creating Layer BatchNorm30
I1005 20:35:19.812436 10142 net.cpp:406] BatchNorm30 <- Convolution30
I1005 20:35:19.812441 10142 net.cpp:367] BatchNorm30 -> Convolution30 (in-place)
I1005 20:35:19.812616 10142 net.cpp:122] Setting up BatchNorm30
I1005 20:35:19.812623 10142 net.cpp:129] Top shape: 100 64 7 7 (313600)
I1005 20:35:19.812624 10142 net.cpp:137] Memory required for data: 500192400
I1005 20:35:19.812629 10142 layer_factory.hpp:77] Creating layer Scale30
I1005 20:35:19.812635 10142 net.cpp:84] Creating Layer Scale30
I1005 20:35:19.812639 10142 net.cpp:406] Scale30 <- Convolution30
I1005 20:35:19.812642 10142 net.cpp:367] Scale30 -> Convolution30 (in-place)
I1005 20:35:19.812672 10142 layer_factory.hpp:77] Creating layer Scale30
I1005 20:35:19.812754 10142 net.cpp:122] Setting up Scale30
I1005 20:35:19.812759 10142 net.cpp:129] Top shape: 100 64 7 7 (313600)
I1005 20:35:19.812762 10142 net.cpp:137] Memory required for data: 501446800
I1005 20:35:19.812765 10142 layer_factory.hpp:77] Creating layer ReLU28
I1005 20:35:19.812772 10142 net.cpp:84] Creating Layer ReLU28
I1005 20:35:19.812774 10142 net.cpp:406] ReLU28 <- Convolution30
I1005 20:35:19.812777 10142 net.cpp:367] ReLU28 -> Convolution30 (in-place)
I1005 20:35:19.814762 10142 net.cpp:122] Setting up ReLU28
I1005 20:35:19.814771 10142 net.cpp:129] Top shape: 100 64 7 7 (313600)
I1005 20:35:19.814774 10142 net.cpp:137] Memory required for data: 502701200
I1005 20:35:19.814777 10142 layer_factory.hpp:77] Creating layer Convolution31
I1005 20:35:19.814795 10142 net.cpp:84] Creating Layer Convolution31
I1005 20:35:19.814808 10142 net.cpp:406] Convolution31 <- Convolution30
I1005 20:35:19.814815 10142 net.cpp:380] Convolution31 -> Convolution31
I1005 20:35:19.821787 10142 net.cpp:122] Setting up Convolution31
I1005 20:35:19.821796 10142 net.cpp:129] Top shape: 100 64 7 7 (313600)
I1005 20:35:19.821810 10142 net.cpp:137] Memory required for data: 503955600
I1005 20:35:19.821815 10142 layer_factory.hpp:77] Creating layer BatchNorm31
I1005 20:35:19.821821 10142 net.cpp:84] Creating Layer BatchNorm31
I1005 20:35:19.821823 10142 net.cpp:406] BatchNorm31 <- Convolution31
I1005 20:35:19.821827 10142 net.cpp:367] BatchNorm31 -> Convolution31 (in-place)
I1005 20:35:19.821974 10142 net.cpp:122] Setting up BatchNorm31
I1005 20:35:19.821979 10142 net.cpp:129] Top shape: 100 64 7 7 (313600)
I1005 20:35:19.821981 10142 net.cpp:137] Memory required for data: 505210000
I1005 20:35:19.821986 10142 layer_factory.hpp:77] Creating layer Scale31
I1005 20:35:19.821991 10142 net.cpp:84] Creating Layer Scale31
I1005 20:35:19.821995 10142 net.cpp:406] Scale31 <- Convolution31
I1005 20:35:19.821997 10142 net.cpp:367] Scale31 -> Convolution31 (in-place)
I1005 20:35:19.822027 10142 layer_factory.hpp:77] Creating layer Scale31
I1005 20:35:19.822109 10142 net.cpp:122] Setting up Scale31
I1005 20:35:19.822115 10142 net.cpp:129] Top shape: 100 64 7 7 (313600)
I1005 20:35:19.822118 10142 net.cpp:137] Memory required for data: 506464400
I1005 20:35:19.822121 10142 layer_factory.hpp:77] Creating layer Eltwise14
I1005 20:35:19.822126 10142 net.cpp:84] Creating Layer Eltwise14
I1005 20:35:19.822130 10142 net.cpp:406] Eltwise14 <- Eltwise13_ReLU27_0_split_1
I1005 20:35:19.822134 10142 net.cpp:406] Eltwise14 <- Convolution31
I1005 20:35:19.822137 10142 net.cpp:380] Eltwise14 -> Eltwise14
I1005 20:35:19.822154 10142 net.cpp:122] Setting up Eltwise14
I1005 20:35:19.822160 10142 net.cpp:129] Top shape: 100 64 7 7 (313600)
I1005 20:35:19.822161 10142 net.cpp:137] Memory required for data: 507718800
I1005 20:35:19.822163 10142 layer_factory.hpp:77] Creating layer ReLU29
I1005 20:35:19.822167 10142 net.cpp:84] Creating Layer ReLU29
I1005 20:35:19.822170 10142 net.cpp:406] ReLU29 <- Eltwise14
I1005 20:35:19.822173 10142 net.cpp:367] ReLU29 -> Eltwise14 (in-place)
I1005 20:35:19.823606 10142 net.cpp:122] Setting up ReLU29
I1005 20:35:19.823613 10142 net.cpp:129] Top shape: 100 64 7 7 (313600)
I1005 20:35:19.823616 10142 net.cpp:137] Memory required for data: 508973200
I1005 20:35:19.823618 10142 layer_factory.hpp:77] Creating layer Eltwise14_ReLU29_0_split
I1005 20:35:19.823622 10142 net.cpp:84] Creating Layer Eltwise14_ReLU29_0_split
I1005 20:35:19.823626 10142 net.cpp:406] Eltwise14_ReLU29_0_split <- Eltwise14
I1005 20:35:19.823629 10142 net.cpp:380] Eltwise14_ReLU29_0_split -> Eltwise14_ReLU29_0_split_0
I1005 20:35:19.823634 10142 net.cpp:380] Eltwise14_ReLU29_0_split -> Eltwise14_ReLU29_0_split_1
I1005 20:35:19.823664 10142 net.cpp:122] Setting up Eltwise14_ReLU29_0_split
I1005 20:35:19.823669 10142 net.cpp:129] Top shape: 100 64 7 7 (313600)
I1005 20:35:19.823673 10142 net.cpp:129] Top shape: 100 64 7 7 (313600)
I1005 20:35:19.823674 10142 net.cpp:137] Memory required for data: 511482000
I1005 20:35:19.823676 10142 layer_factory.hpp:77] Creating layer Convolution32
I1005 20:35:19.823683 10142 net.cpp:84] Creating Layer Convolution32
I1005 20:35:19.823686 10142 net.cpp:406] Convolution32 <- Eltwise14_ReLU29_0_split_0
I1005 20:35:19.823690 10142 net.cpp:380] Convolution32 -> Convolution32
I1005 20:35:19.830329 10142 net.cpp:122] Setting up Convolution32
I1005 20:35:19.830339 10142 net.cpp:129] Top shape: 100 64 7 7 (313600)
I1005 20:35:19.830343 10142 net.cpp:137] Memory required for data: 512736400
I1005 20:35:19.830358 10142 layer_factory.hpp:77] Creating layer BatchNorm32
I1005 20:35:19.830363 10142 net.cpp:84] Creating Layer BatchNorm32
I1005 20:35:19.830366 10142 net.cpp:406] BatchNorm32 <- Convolution32
I1005 20:35:19.830370 10142 net.cpp:367] BatchNorm32 -> Convolution32 (in-place)
I1005 20:35:19.830530 10142 net.cpp:122] Setting up BatchNorm32
I1005 20:35:19.830543 10142 net.cpp:129] Top shape: 100 64 7 7 (313600)
I1005 20:35:19.830546 10142 net.cpp:137] Memory required for data: 513990800
I1005 20:35:19.830551 10142 layer_factory.hpp:77] Creating layer Scale32
I1005 20:35:19.830556 10142 net.cpp:84] Creating Layer Scale32
I1005 20:35:19.830559 10142 net.cpp:406] Scale32 <- Convolution32
I1005 20:35:19.830564 10142 net.cpp:367] Scale32 -> Convolution32 (in-place)
I1005 20:35:19.830595 10142 layer_factory.hpp:77] Creating layer Scale32
I1005 20:35:19.830677 10142 net.cpp:122] Setting up Scale32
I1005 20:35:19.830682 10142 net.cpp:129] Top shape: 100 64 7 7 (313600)
I1005 20:35:19.830684 10142 net.cpp:137] Memory required for data: 515245200
I1005 20:35:19.830688 10142 layer_factory.hpp:77] Creating layer ReLU30
I1005 20:35:19.830693 10142 net.cpp:84] Creating Layer ReLU30
I1005 20:35:19.830695 10142 net.cpp:406] ReLU30 <- Convolution32
I1005 20:35:19.830700 10142 net.cpp:367] ReLU30 -> Convolution32 (in-place)
I1005 20:35:19.832464 10142 net.cpp:122] Setting up ReLU30
I1005 20:35:19.832471 10142 net.cpp:129] Top shape: 100 64 7 7 (313600)
I1005 20:35:19.832474 10142 net.cpp:137] Memory required for data: 516499600
I1005 20:35:19.832476 10142 layer_factory.hpp:77] Creating layer Convolution33
I1005 20:35:19.832484 10142 net.cpp:84] Creating Layer Convolution33
I1005 20:35:19.832486 10142 net.cpp:406] Convolution33 <- Convolution32
I1005 20:35:19.832491 10142 net.cpp:380] Convolution33 -> Convolution33
I1005 20:35:19.836932 10142 net.cpp:122] Setting up Convolution33
I1005 20:35:19.836942 10142 net.cpp:129] Top shape: 100 64 7 7 (313600)
I1005 20:35:19.836946 10142 net.cpp:137] Memory required for data: 517754000
I1005 20:35:19.836951 10142 layer_factory.hpp:77] Creating layer BatchNorm33
I1005 20:35:19.836956 10142 net.cpp:84] Creating Layer BatchNorm33
I1005 20:35:19.836961 10142 net.cpp:406] BatchNorm33 <- Convolution33
I1005 20:35:19.836964 10142 net.cpp:367] BatchNorm33 -> Convolution33 (in-place)
I1005 20:35:19.837112 10142 net.cpp:122] Setting up BatchNorm33
I1005 20:35:19.837118 10142 net.cpp:129] Top shape: 100 64 7 7 (313600)
I1005 20:35:19.837121 10142 net.cpp:137] Memory required for data: 519008400
I1005 20:35:19.837126 10142 layer_factory.hpp:77] Creating layer Scale33
I1005 20:35:19.837131 10142 net.cpp:84] Creating Layer Scale33
I1005 20:35:19.837133 10142 net.cpp:406] Scale33 <- Convolution33
I1005 20:35:19.837137 10142 net.cpp:367] Scale33 -> Convolution33 (in-place)
I1005 20:35:19.837167 10142 layer_factory.hpp:77] Creating layer Scale33
I1005 20:35:19.837250 10142 net.cpp:122] Setting up Scale33
I1005 20:35:19.837256 10142 net.cpp:129] Top shape: 100 64 7 7 (313600)
I1005 20:35:19.837260 10142 net.cpp:137] Memory required for data: 520262800
I1005 20:35:19.837273 10142 layer_factory.hpp:77] Creating layer Eltwise15
I1005 20:35:19.837278 10142 net.cpp:84] Creating Layer Eltwise15
I1005 20:35:19.837281 10142 net.cpp:406] Eltwise15 <- Eltwise14_ReLU29_0_split_1
I1005 20:35:19.837285 10142 net.cpp:406] Eltwise15 <- Convolution33
I1005 20:35:19.837297 10142 net.cpp:380] Eltwise15 -> Eltwise15
I1005 20:35:19.837326 10142 net.cpp:122] Setting up Eltwise15
I1005 20:35:19.837340 10142 net.cpp:129] Top shape: 100 64 7 7 (313600)
I1005 20:35:19.837342 10142 net.cpp:137] Memory required for data: 521517200
I1005 20:35:19.837344 10142 layer_factory.hpp:77] Creating layer ReLU31
I1005 20:35:19.837348 10142 net.cpp:84] Creating Layer ReLU31
I1005 20:35:19.837350 10142 net.cpp:406] ReLU31 <- Eltwise15
I1005 20:35:19.837354 10142 net.cpp:367] ReLU31 -> Eltwise15 (in-place)
I1005 20:35:19.837534 10142 net.cpp:122] Setting up ReLU31
I1005 20:35:19.837540 10142 net.cpp:129] Top shape: 100 64 7 7 (313600)
I1005 20:35:19.837553 10142 net.cpp:137] Memory required for data: 522771600
I1005 20:35:19.837555 10142 layer_factory.hpp:77] Creating layer Pooling1
I1005 20:35:19.837559 10142 net.cpp:84] Creating Layer Pooling1
I1005 20:35:19.837563 10142 net.cpp:406] Pooling1 <- Eltwise15
I1005 20:35:19.837568 10142 net.cpp:380] Pooling1 -> Pooling1
I1005 20:35:19.837733 10142 net.cpp:122] Setting up Pooling1
I1005 20:35:19.837740 10142 net.cpp:129] Top shape: 100 64 1 1 (6400)
I1005 20:35:19.837752 10142 net.cpp:137] Memory required for data: 522797200
I1005 20:35:19.837754 10142 layer_factory.hpp:77] Creating layer InnerProduct1
I1005 20:35:19.837765 10142 net.cpp:84] Creating Layer InnerProduct1
I1005 20:35:19.837769 10142 net.cpp:406] InnerProduct1 <- Pooling1
I1005 20:35:19.837783 10142 net.cpp:380] InnerProduct1 -> InnerProduct1
I1005 20:35:19.837900 10142 net.cpp:122] Setting up InnerProduct1
I1005 20:35:19.837905 10142 net.cpp:129] Top shape: 100 10 (1000)
I1005 20:35:19.837908 10142 net.cpp:137] Memory required for data: 522801200
I1005 20:35:19.837913 10142 layer_factory.hpp:77] Creating layer SoftmaxWithLoss1
I1005 20:35:19.837918 10142 net.cpp:84] Creating Layer SoftmaxWithLoss1
I1005 20:35:19.837923 10142 net.cpp:406] SoftmaxWithLoss1 <- InnerProduct1
I1005 20:35:19.837925 10142 net.cpp:406] SoftmaxWithLoss1 <- Data2
I1005 20:35:19.837930 10142 net.cpp:380] SoftmaxWithLoss1 -> SoftmaxWithLoss1
…
I1005 20:35:19.842660 10142 net.cpp:294] The NetState phase (1) differed from the phase (0) specified by a rule in layer Data1
I1005 20:35:19.843236 10142 net.cpp:51] Initializing net from parameters: 
name: "resnet_cifar10"
state {
  phase: TEST
}
layer {
  name: "Data1"
  type: "Data"
  top: "Data1"
  top: "Data2"
  include {
    phase: TEST
  }
  transform_param {
    mean_file: "/home/x306/caffe/xn/PENLU/data/cifar10/mean.binaryproto"
  }
  data_param {
    source: "/home/x306/caffe/xn/PENLU/data/cifar10/cifar10_test_lmdb"
    batch_size: 100
    backend: LMDB
  }
}
layer {
  name: "Convolution1"
  type: "Convolution"
  bottom: "Data1"
  top: "Convolution1"
  param {
    lr_mult: 1
    decay_mult: 1
  }
  param {
    lr_mult: 2
    decay_mult: 0
  }
  convolution_param {
    num_output: 16
    pad: 1
    kernel_size: 3
    stride: 1
    weight_filler {
      type: "gaussian"
      std: 0.118
    }
    bias_filler {
      type: "constant"
      value: 0
    }
  }
}
layer {
  name: "BatchNorm1"
  type: "BatchNorm"
  bottom: "Convolution1"
  top: "Convolution1"
  param {
    lr_mult: 0
    decay_mult: 0
  }
  param {
    lr_mult: 0
    decay_mult: 0
  }
  param {
    lr_mult: 0
    decay_mult: 0
  }
}
layer {
  name: "Scale1"
  type: "Scale"
  bottom: "Convolution1"
  top: "Convolution1"
  scale_param {
    bias_term: true
  }
}
layer {
  name: "ReLU1"
  type: "ReLU"
  bottom: "Convolution1"
  top: "Convolution1"
}
layer {
  name: "Convolution2"
  type: "Convolution"
  bottom: "Convolution1"
  top: "Convolution2"
  param {
    lr_mult: 1
    decay_mult: 1
  }
  param {
    lr_mult: 2
    decay_mult: 0
  }
  convolution_param {
    num_output: 16
    pad: 1
    kernel_size: 3
    stride: 1
    weight_filler {
      type: "gaussian"
      std: 0.118
    }
    bias_filler {
      type: "constant"
      value: 0
    }
  }
}
layer {
  name: "BatchNorm2"
  type: "BatchNorm"
  bottom: "Convolution2"
  top: "Convolution2"
  param {
    lr_mult: 0
    decay_mult: 0
  }
  param {
    lr_mult: 0
    decay_mult: 0
  }
  param {
    lr_mult: 0
    decay_mult: 0
  }
}
layer {
  name: "Scale2"
  type: "Scale"
  bottom: "Convolution2"
  top: "Convolution2"
  scale_param {
    bias_term: true
  }
}
layer {
  name: "ReLU2"
  type: "ReLU"
  bottom: "Convolution2"
  top: "Convolution2"
}
layer {
  name: "Convolution3"
  type: "Convolution"
  bottom: "Convolution2"
  top: "Convolution3"
  param {
    lr_mult: 1
    decay_mult: 1
  }
  param {
    lr_mult: 2
    decay_mult: 0
  }
  convolution_param {
    num_output: 16
    pad: 1
    kernel_size: 3
    stride: 1
    weight_filler {
      type: "gaussian"
      std: 0.118
    }
    bias_filler {
      type: "constant"
      value: 0
    }
  }
}
layer {
  name: "BatchNorm3"
  type: "BatchNorm"
  bottom: "Convolution3"
  top: "Convolution3"
  param {
    lr_mult: 0
    decay_mult: 0
  }
  param {
    lr_mult: 0
    decay_mult: 0
  }
  param {
    lr_mult: 0
    decay_mult: 0
  }
}
layer {
  name: "Scale3"
  type: "Scale"
  bottom: "Convolution3"
  top: "Convolution3"
  scale_param {
    bias_term: true
  }
}
layer {
  name: "Eltwise1"
  type: "Eltwise"
  bottom: "Convolution1"
  bottom: "Convolution3"
  top: "Eltwise1"
  eltwise_param {
    operation: SUM
  }
}
layer {
  name: "ReLU3"
  type: "ReLU"
  bottom: "Eltwise1"
  top: "Eltwise1"
}
layer {
  name: "Convolution4"
  type: "Convolution"
  bottom: "Eltwise1"
  top: "Convolution4"
  param {
    lr_mult: 1
    decay_mult: 1
  }
  param {
    lr_mult: 2
    decay_mult: 0
  }
  convolution_param {
    num_output: 16
    pad: 1
    kernel_size: 3
    stride: 1
    weight_filler {
      type: "gaussian"
      std: 0.118
    }
    bias_filler {
      type: "constant"
      value: 0
    }
  }
}
layer {
  name: "BatchNorm4"
  type: "BatchNorm"
  bottom: "Convolution4"
  top: "Convolution4"
  param {
    lr_mult: 0
    decay_mult: 0
  }
  param {
    lr_mult: 0
    decay_mult: 0
  }
  param {
    lr_mult: 0
    decay_mult: 0
  }
}
layer {
  name: "Scale4"
  type: "Scale"
  bottom: "Convolution4"
  top: "Convolution4"
  scale_param {
    bias_term: true
  }
}
layer {
  name: "ReLU4"
  type: "ReLU"
  bottom: "Convolution4"
  top: "Convolution4"
}
layer {
  name: "Convolution5"
  type: "Convolution"
  bottom: "Convolution4"
  top: "Convolution5"
  param {
    lr_mult: 1
    decay_mult: 1
  }
  param {
    lr_mult: 2
    decay_mult: 0
  }
  convolution_param {
    num_output: 16
    pad: 1
    kernel_size: 3
    stride: 1
    weight_filler {
      type: "gaussian"
      std: 0.118
    }
    bias_filler {
      type: "constant"
      value: 0
    }
  }
}
layer {
  name: "BatchNorm5"
  type: "BatchNorm"
  bottom: "Convolution5"
  top: "Convolution5"
  param {
    lr_mult: 0
    decay_mult: 0
  }
  param {
    lr_mult: 0
    decay_mult: 0
  }
  param {
    lr_mult: 0
    decay_mult: 0
  }
}
layer {
  name: "Scale5"
  type: "Scale"
  bottom: "Convolution5"
  top: "Convolution5"
  scale_param {
    bias_term: true
  }
}
layer {
  name: "Eltwise2"
  type: "Eltwise"
  bottom: "Eltwise1"
  bottom: "Convolution5"
  top: "Eltwise2"
  eltwise_param {
    operation: SUM
  }
}
layer {
  name: "ReLU5"
  type: "ReLU"
  bottom: "Eltwise2"
  top: "Eltwise2"
}
layer {
  name: "Convolution6"
  type: "Convolution"
  bottom: "Eltwise2"
  top: "Convolution6"
  param {
    lr_mult: 1
    decay_mult: 1
  }
  param {
    lr_mult: 2
    decay_mult: 0
  }
  convolution_param {
    num_output: 16
    pad: 1
    kernel_size: 3
    stride: 1
    weight_filler {
      type: "gaussian"
      std: 0.118
    }
    bias_filler {
      type: "constant"
      value: 0
    }
  }
}
layer {
  name: "BatchNorm6"
  type: "BatchNorm"
  bottom: "Convolution6"
  top: "Convolution6"
  param {
    lr_mult: 0
    decay_mult: 0
  }
  param {
    lr_mult: 0
    decay_mult: 0
  }
  param {
    lr_mult: 0
    decay_mult: 0
  }
}
layer {
  name: "Scale6"
  type: "Scale"
  bottom: "Convolution6"
  top: "Convolution6"
  scale_param {
    bias_term: true
  }
}
layer {
  name: "ReLU6"
  type: "ReLU"
  bottom: "Convolution6"
  top: "Convolution6"
}
layer {
  name: "Convolution7"
  type: "Convolution"
  bottom: "Convolution6"
  top: "Convolution7"
  param {
    lr_mult: 1
    decay_mult: 1
  }
  param {
    lr_mult: 2
    decay_mult: 0
  }
  convolution_param {
    num_output: 16
    pad: 1
    kernel_size: 3
    stride: 1
    weight_filler {
      type: "gaussian"
      std: 0.118
    }
    bias_filler {
      type: "constant"
      value: 0
    }
  }
}
layer {
  name: "BatchNorm7"
  type: "BatchNorm"
  bottom: "Convolution7"
  top: "Convolution7"
  param {
    lr_mult: 0
    decay_mult: 0
  }
  param {
    lr_mult: 0
    decay_mult: 0
  }
  param {
    lr_mult: 0
    decay_mult: 0
  }
}
layer {
  name: "Scale7"
  type: "Scale"
  bottom: "Convolution7"
  top: "Convolution7"
  scale_param {
    bias_term: true
  }
}
layer {
  name: "Eltwise3"
  type: "Eltwise"
  bottom: "Eltwise2"
  bottom: "Convolution7"
  top: "Eltwise3"
  eltwise_param {
    operation: SUM
  }
}
layer {
  name: "ReLU7"
  type: "ReLU"
  bottom: "Eltwise3"
  top: "Eltwise3"
}
layer {
  name: "Convolution8"
  type: "Convolution"
  bottom: "Eltwise3"
  top: "Convolution8"
  param {
    lr_mult: 1
    decay_mult: 1
  }
  param {
    lr_mult: 2
    decay_mult: 0
  }
  convolution_param {
    num_output: 16
    pad: 1
    kernel_size: 3
    stride: 1
    weight_filler {
      type: "gaussian"
      std: 0.118
    }
    bias_filler {
      type: "constant"
      value: 0
    }
  }
}
layer {
  name: "BatchNorm8"
  type: "BatchNorm"
  bottom: "Convolution8"
  top: "Convolution8"
  param {
    lr_mult: 0
    decay_mult: 0
  }
  param {
    lr_mult: 0
    decay_mult: 0
  }
  param {
    lr_mult: 0
    decay_mult: 0
  }
}
layer {
  name: "Scale8"
  type: "Scale"
  bottom: "Convolution8"
  top: "Convolution8"
  scale_param {
    bias_term: true
  }
}
layer {
  name: "ReLU8"
  type: "ReLU"
  bottom: "Convolution8"
  top: "Convolution8"
}
layer {
  name: "Convolution9"
  type: "Convolution"
  bottom: "Convolution8"
  top: "Convolution9"
  param {
    lr_mult: 1
    decay_mult: 1
  }
  param {
    lr_mult: 2
    decay_mult: 0
  }
  convolution_param {
    num_output: 16
    pad: 1
    kernel_size: 3
    stride: 1
    weight_filler {
      type: "gaussian"
      std: 0.118
    }
    bias_filler {
      type: "constant"
      value: 0
    }
  }
}
layer {
  name: "BatchNorm9"
  type: "BatchNorm"
  bottom: "Convolution9"
  top: "Convolution9"
  param {
    lr_mult: 0
    decay_mult: 0
  }
  param {
    lr_mult: 0
    decay_mult: 0
  }
  param {
    lr_mult: 0
    decay_mult: 0
  }
}
layer {
  name: "Scale9"
  type: "Scale"
  bottom: "Convolution9"
  top: "Convolution9"
  scale_param {
    bias_term: true
  }
}
layer {
  name: "Eltwise4"
  type: "Eltwise"
  bottom: "Eltwise3"
  bottom: "Convolution9"
  top: "Eltwise4"
  eltwise_param {
    operation: SUM
  }
}
layer {
  name: "ReLU9"
  type: "ReLU"
  bottom: "Eltwise4"
  top: "Eltwise4"
}
layer {
  name: "Convolution10"
  type: "Convolution"
  bottom: "Eltwise4"
  top: "Convolution10"
  param {
    lr_mult: 1
    decay_mult: 1
  }
  param {
    lr_mult: 2
    decay_mult: 0
  }
  convolution_param {
    num_output: 16
    pad: 1
    kernel_size: 3
    stride: 1
    weight_filler {
      type: "gaussian"
      std: 0.118
    }
    bias_filler {
      type: "constant"
      value: 0
    }
  }
}
layer {
  name: "BatchNorm10"
  type: "BatchNorm"
  bottom: "Convolution10"
  top: "Convolution10"
  param {
    lr_mult: 0
    decay_mult: 0
  }
  param {
    lr_mult: 0
    decay_mult: 0
  }
  param {
    lr_mult: 0
    decay_mult: 0
  }
}
layer {
  name: "Scale10"
  type: "Scale"
  bottom: "Convolution10"
  top: "Convolution10"
  scale_param {
    bias_term: true
  }
}
layer {
  name: "ReLU10"
  type: "ReLU"
  bottom: "Convolution10"
  top: "Convolution10"
}
layer {
  name: "Convolution11"
  type: "Convolution"
  bottom: "Convolution10"
  top: "Convolution11"
  param {
    lr_mult: 1
    decay_mult: 1
  }
  param {
    lr_mult: 2
    decay_mult: 0
  }
  convolution_param {
    num_output: 16
    pad: 1
    kernel_size: 3
    stride: 1
    weight_filler {
      type: "gaussian"
      std: 0.118
    }
    bias_filler {
      type: "constant"
      value: 0
    }
  }
}
layer {
  name: "BatchNorm11"
  type: "BatchNorm"
  bottom: "Convolution11"
  top: "Convolution11"
  param {
    lr_mult: 0
    decay_mult: 0
  }
  param {
    lr_mult: 0
    decay_mult: 0
  }
  param {
    lr_mult: 0
    decay_mult: 0
  }
}
layer {
  name: "Scale11"
  type: "Scale"
  bottom: "Convolution11"
  top: "Convolution11"
  scale_param {
    bias_term: true
  }
}
layer {
  name: "Eltwise5"
  type: "Eltwise"
  bottom: "Eltwise4"
  bottom: "Convolution11"
  top: "Eltwise5"
  eltwise_param {
    operation: SUM
  }
}
layer {
  name: "ReLU11"
  type: "ReLU"
  bottom: "Eltwise5"
  top: "Eltwise5"
}
layer {
  name: "Convolution12"
  type: "Convolution"
  bottom: "Eltwise5"
  top: "Convolution12"
  param {
    lr_mult: 1
    decay_mult: 1
  }
  param {
    lr_mult: 2
    decay_mult: 0
  }
  convolution_param {
    num_output: 32
    pad: 0
    kernel_size: 1
    stride: 2
    weight_filler {
      type: "gaussian"
      std: 0.25
    }
    bias_filler {
      type: "constant"
      value: 0
    }
  }
}
layer {
  name: "BatchNorm12"
  type: "BatchNorm"
  bottom: "Convolution12"
  top: "Convolution12"
  param {
    lr_mult: 0
    decay_mult: 0
  }
  param {
    lr_mult: 0
    decay_mult: 0
  }
  param {
    lr_mult: 0
    decay_mult: 0
  }
}
layer {
  name: "Scale12"
  type: "Scale"
  bottom: "Convolution12"
  top: "Convolution12"
  scale_param {
    bias_term: true
  }
}
layer {
  name: "Convolution13"
  type: "Convolution"
  bottom: "Eltwise5"
  top: "Convolution13"
  param {
    lr_mult: 1
    decay_mult: 1
  }
  param {
    lr_mult: 2
    decay_mult: 0
  }
  convolution_param {
    num_output: 32
    pad: 1
    kernel_size: 3
    stride: 2
    weight_filler {
      type: "gaussian"
      std: 0.083
    }
    bias_filler {
      type: "constant"
      value: 0
    }
  }
}
layer {
  name: "BatchNorm13"
  type: "BatchNorm"
  bottom: "Convolution13"
  top: "Convolution13"
  param {
    lr_mult: 0
    decay_mult: 0
  }
  param {
    lr_mult: 0
    decay_mult: 0
  }
  param {
    lr_mult: 0
    decay_mult: 0
  }
}
layer {
  name: "Scale13"
  type: "Scale"
  bottom: "Convolution13"
  top: "Convolution13"
  scale_param {
    bias_term: true
  }
}
layer {
  name: "ReLU12"
  type: "ReLU"
  bottom: "Convolution13"
  top: "Convolution13"
}
layer {
  name: "Convolution14"
  type: "Convolution"
  bottom: "Convolution13"
  top: "Convolution14"
  param {
    lr_mult: 1
    decay_mult: 1
  }
  param {
    lr_mult: 2
    decay_mult: 0
  }
  convolution_param {
    num_output: 32
    pad: 1
    kernel_size: 3
    stride: 1
    weight_filler {
      type: "gaussian"
      std: 0.083
    }
    bias_filler {
      type: "constant"
      value: 0
    }
  }
}
layer {
  name: "BatchNorm14"
  type: "BatchNorm"
  bottom: "Convolution14"
  top: "Convolution14"
  param {
    lr_mult: 0
    decay_mult: 0
  }
  param {
    lr_mult: 0
    decay_mult: 0
  }
  param {
    lr_mult: 0
    decay_mult: 0
  }
}
layer {
  name: "Scale14"
  type: "Scale"
  bottom: "Convolution14"
  top: "Convolution14"
  scale_param {
    bias_term: true
  }
}
layer {
  name: "Eltwise6"
  type: "Eltwise"
  bottom: "Convolution12"
  bottom: "Convolution14"
  top: "Eltwise6"
  eltwise_param {
    operation: SUM
  }
}
layer {
  name: "ReLU13"
  type: "ReLU"
  bottom: "Eltwise6"
  top: "Eltwise6"
}
layer {
  name: "Convolution15"
  type: "Convolution"
  bottom: "Eltwise6"
  top: "Convolution15"
  param {
    lr_mult: 1
    decay_mult: 1
  }
  param {
    lr_mult: 2
    decay_mult: 0
  }
  convolution_param {
    num_output: 32
    pad: 1
    kernel_size: 3
    stride: 1
    weight_filler {
      type: "gaussian"
      std: 0.083
    }
    bias_filler {
      type: "constant"
      value: 0
    }
  }
}
layer {
  name: "BatchNorm15"
  type: "BatchNorm"
  bottom: "Convolution15"
  top: "Convolution15"
  param {
    lr_mult: 0
    decay_mult: 0
  }
  param {
    lr_mult: 0
    decay_mult: 0
  }
  param {
    lr_mult: 0
    decay_mult: 0
  }
}
layer {
  name: "Scale15"
  type: "Scale"
  bottom: "Convolution15"
  top: "Convolution15"
  scale_param {
    bias_term: true
  }
}
layer {
  name: "ReLU14"
  type: "ReLU"
  bottom: "Convolution15"
  top: "Convolution15"
}
layer {
  name: "Convolution16"
  type: "Convolution"
  bottom: "Convolution15"
  top: "Convolution16"
  param {
    lr_mult: 1
    decay_mult: 1
  }
  param {
    lr_mult: 2
    decay_mult: 0
  }
  convolution_param {
    num_output: 32
    pad: 1
    kernel_size: 3
    stride: 1
    weight_filler {
      type: "gaussian"
      std: 0.083
    }
    bias_filler {
      type: "constant"
      value: 0
    }
  }
}
layer {
  name: "BatchNorm16"
  type: "BatchNorm"
  bottom: "Convolution16"
  top: "Convolution16"
  param {
    lr_mult: 0
    decay_mult: 0
  }
  param {
    lr_mult: 0
    decay_mult: 0
  }
  param {
    lr_mult: 0
    decay_mult: 0
  }
}
layer {
  name: "Scale16"
  type: "Scale"
  bottom: "Convolution16"
  top: "Convolution16"
  scale_param {
    bias_term: true
  }
}
layer {
  name: "Eltwise7"
  type: "Eltwise"
  bottom: "Eltwise6"
  bottom: "Convolution16"
  top: "Eltwise7"
  eltwise_param {
    operation: SUM
  }
}
layer {
  name: "ReLU15"
  type: "ReLU"
  bottom: "Eltwise7"
  top: "Eltwise7"
}
layer {
  name: "Convolution17"
  type: "Convolution"
  bottom: "Eltwise7"
  top: "Convolution17"
  param {
    lr_mult: 1
    decay_mult: 1
  }
  param {
    lr_mult: 2
    decay_mult: 0
  }
  convolution_param {
    num_output: 32
    pad: 1
    kernel_size: 3
    stride: 1
    weight_filler {
      type: "gaussian"
      std: 0.083
    }
    bias_filler {
      type: "constant"
      value: 0
    }
  }
}
layer {
  name: "BatchNorm17"
  type: "BatchNorm"
  bottom: "Convolution17"
  top: "Convolution17"
  param {
    lr_mult: 0
    decay_mult: 0
  }
  param {
    lr_mult: 0
    decay_mult: 0
  }
  param {
    lr_mult: 0
    decay_mult: 0
  }
}
layer {
  name: "Scale17"
  type: "Scale"
  bottom: "Convolution17"
  top: "Convolution17"
  scale_param {
    bias_term: true
  }
}
layer {
  name: "ReLU16"
  type: "ReLU"
  bottom: "Convolution17"
  top: "Convolution17"
}
layer {
  name: "Convolution18"
  type: "Convolution"
  bottom: "Convolution17"
  top: "Convolution18"
  param {
    lr_mult: 1
    decay_mult: 1
  }
  param {
    lr_mult: 2
    decay_mult: 0
  }
  convolution_param {
    num_output: 32
    pad: 1
    kernel_size: 3
    stride: 1
    weight_filler {
      type: "gaussian"
      std: 0.083
    }
    bias_filler {
      type: "constant"
      value: 0
    }
  }
}
layer {
  name: "BatchNorm18"
  type: "BatchNorm"
  bottom: "Convolution18"
  top: "Convolution18"
  param {
    lr_mult: 0
    decay_mult: 0
  }
  param {
    lr_mult: 0
    decay_mult: 0
  }
  param {
    lr_mult: 0
    decay_mult: 0
  }
}
layer {
  name: "Scale18"
  type: "Scale"
  bottom: "Convolution18"
  top: "Convolution18"
  scale_param {
    bias_term: true
  }
}
layer {
  name: "Eltwise8"
  type: "Eltwise"
  bottom: "Eltwise7"
  bottom: "Convolution18"
  top: "Eltwise8"
  eltwise_param {
    operation: SUM
  }
}
layer {
  name: "ReLU17"
  type: "ReLU"
  bottom: "Eltwise8"
  top: "Eltwise8"
}
layer {
  name: "Convolution19"
  type: "Convolution"
  bottom: "Eltwise8"
  top: "Convolution19"
  param {
    lr_mult: 1
    decay_mult: 1
  }
  param {
    lr_mult: 2
    decay_mult: 0
  }
  convolution_param {
    num_output: 32
    pad: 1
    kernel_size: 3
    stride: 1
    weight_filler {
      type: "gaussian"
      std: 0.083
    }
    bias_filler {
      type: "constant"
      value: 0
    }
  }
}
layer {
  name: "BatchNorm19"
  type: "BatchNorm"
  bottom: "Convolution19"
  top: "Convolution19"
  param {
    lr_mult: 0
    decay_mult: 0
  }
  param {
    lr_mult: 0
    decay_mult: 0
  }
  param {
    lr_mult: 0
    decay_mult: 0
  }
}
layer {
  name: "Scale19"
  type: "Scale"
  bottom: "Convolution19"
  top: "Convolution19"
  scale_param {
    bias_term: true
  }
}
layer {
  name: "ReLU18"
  type: "ReLU"
  bottom: "Convolution19"
  top: "Convolution19"
}
layer {
  name: "Convolution20"
  type: "Convolution"
  bottom: "Convolution19"
  top: "Convolution20"
  param {
    lr_mult: 1
    decay_mult: 1
  }
  param {
    lr_mult: 2
    decay_mult: 0
  }
  convolution_param {
    num_output: 32
    pad: 1
    kernel_size: 3
    stride: 1
    weight_filler {
      type: "gaussian"
      std: 0.083
    }
    bias_filler {
      type: "constant"
      value: 0
    }
  }
}
layer {
  name: "BatchNorm20"
  type: "BatchNorm"
  bottom: "Convolution20"
  top: "Convolution20"
  param {
    lr_mult: 0
    decay_mult: 0
  }
  param {
    lr_mult: 0
    decay_mult: 0
  }
  param {
    lr_mult: 0
    decay_mult: 0
  }
}
layer {
  name: "Scale20"
  type: "Scale"
  bottom: "Convolution20"
  top: "Convolution20"
  scale_param {
    bias_term: true
  }
}
layer {
  name: "Eltwise9"
  type: "Eltwise"
  bottom: "Eltwise8"
  bottom: "Convolution20"
  top: "Eltwise9"
  eltwise_param {
    operation: SUM
  }
}
layer {
  name: "ReLU19"
  type: "ReLU"
  bottom: "Eltwise9"
  top: "Eltwise9"
}
layer {
  name: "Convolution21"
  type: "Convolution"
  bottom: "Eltwise9"
  top: "Convolution21"
  param {
    lr_mult: 1
    decay_mult: 1
  }
  param {
    lr_mult: 2
    decay_mult: 0
  }
  convolution_param {
    num_output: 32
    pad: 1
    kernel_size: 3
    stride: 1
    weight_filler {
      type: "gaussian"
      std: 0.083
    }
    bias_filler {
      type: "constant"
      value: 0
    }
  }
}
layer {
  name: "BatchNorm21"
  type: "BatchNorm"
  bottom: "Convolution21"
  top: "Convolution21"
  param {
    lr_mult: 0
    decay_mult: 0
  }
  param {
    lr_mult: 0
    decay_mult: 0
  }
  param {
    lr_mult: 0
    decay_mult: 0
  }
}
layer {
  name: "Scale21"
  type: "Scale"
  bottom: "Convolution21"
  top: "Convolution21"
  scale_param {
    bias_term: true
  }
}
layer {
  name: "ReLU20"
  type: "ReLU"
  bottom: "Convolution21"
  top: "Convolution21"
}
layer {
  name: "Convolution22"
  type: "Convolution"
  bottom: "Convolution21"
  top: "Convolution22"
  param {
    lr_mult: 1
    decay_mult: 1
  }
  param {
    lr_mult: 2
    decay_mult: 0
  }
  convolution_param {
    num_output: 32
    pad: 1
    kernel_size: 3
    stride: 1
    weight_filler {
      type: "gaussian"
      std: 0.083
    }
    bias_filler {
      type: "constant"
      value: 0
    }
  }
}
layer {
  name: "BatchNorm22"
  type: "BatchNorm"
  bottom: "Convolution22"
  top: "Convolution22"
  param {
    lr_mult: 0
    decay_mult: 0
  }
  param {
    lr_mult: 0
    decay_mult: 0
  }
  param {
    lr_mult: 0
    decay_mult: 0
  }
}
layer {
  name: "Scale22"
  type: "Scale"
  bottom: "Convolution22"
  top: "Convolution22"
  scale_param {
    bias_term: true
  }
}
layer {
  name: "Eltwise10"
  type: "Eltwise"
  bottom: "Eltwise9"
  bottom: "Convolution22"
  top: "Eltwise10"
  eltwise_param {
    operation: SUM
  }
}
layer {
  name: "ReLU21"
  type: "ReLU"
  bottom: "Eltwise10"
  top: "Eltwise10"
}
layer {
  name: "Convolution23"
  type: "Convolution"
  bottom: "Eltwise10"
  top: "Convolution23"
  param {
    lr_mult: 1
    decay_mult: 1
  }
  param {
    lr_mult: 2
    decay_mult: 0
  }
  convolution_param {
    num_output: 64
    pad: 0
    kernel_size: 1
    stride: 2
    weight_filler {
      type: "gaussian"
      std: 0.17677669
    }
    bias_filler {
      type: "constant"
      value: 0
    }
  }
}
layer {
  name: "BatchNorm23"
  type: "BatchNorm"
  bottom: "Convolution23"
  top: "Convolution23"
  param {
    lr_mult: 0
    decay_mult: 0
  }
  param {
    lr_mult: 0
    decay_mult: 0
  }
  param {
    lr_mult: 0
    decay_mult: 0
  }
}
layer {
  name: "Scale23"
  type: "Scale"
  bottom: "Convolution23"
  top: "Convolution23"
  scale_param {
    bias_term: true
  }
}
layer {
  name: "Convolution24"
  type: "Convolution"
  bottom: "Eltwise10"
  top: "Convolution24"
  param {
    lr_mult: 1
    decay_mult: 1
  }
  param {
    lr_mult: 2
    decay_mult: 0
  }
  convolution_param {
    num_output: 64
    pad: 1
    kernel_size: 3
    stride: 2
    weight_filler {
      type: "gaussian"
      std: 0.059
    }
    bias_filler {
      type: "constant"
      value: 0
    }
  }
}
layer {
  name: "BatchNorm24"
  type: "BatchNorm"
  bottom: "Convolution24"
  top: "Convolution24"
  param {
    lr_mult: 0
    decay_mult: 0
  }
  param {
    lr_mult: 0
    decay_mult: 0
  }
  param {
    lr_mult: 0
    decay_mult: 0
  }
}
layer {
  name: "Scale24"
  type: "Scale"
  bottom: "Convolution24"
  top: "Convolution24"
  scale_param {
    bias_term: true
  }
}
layer {
  name: "ReLU22"
  type: "ReLU"
  bottom: "Convolution24"
  top: "Convolution24"
}
layer {
  name: "Convolution25"
  type: "Convolution"
  bottom: "Convolution24"
  top: "Convolution25"
  param {
    lr_mult: 1
    decay_mult: 1
  }
  param {
    lr_mult: 2
    decay_mult: 0
  }
  convolution_param {
    num_output: 64
    pad: 1
    kernel_size: 3
    stride: 1
    weight_filler {
      type: "gaussian"
      std: 0.059
    }
    bias_filler {
      type: "constant"
      value: 0
    }
  }
}
layer {
  name: "BatchNorm25"
  type: "BatchNorm"
  bottom: "Convolution25"
  top: "Convolution25"
  param {
    lr_mult: 0
    decay_mult: 0
  }
  param {
    lr_mult: 0
    decay_mult: 0
  }
  param {
    lr_mult: 0
    decay_mult: 0
  }
}
layer {
  name: "Scale25"
  type: "Scale"
  bottom: "Convolution25"
  top: "Convolution25"
  scale_param {
    bias_term: true
  }
}
layer {
  name: "Eltwise11"
  type: "Eltwise"
  bottom: "Convolution23"
  bottom: "Convolution25"
  top: "Eltwise11"
  eltwise_param {
    operation: SUM
  }
}
layer {
  name: "ReLU23"
  type: "ReLU"
  bottom: "Eltwise11"
  top: "Eltwise11"
}
layer {
  name: "Convolution26"
  type: "Convolution"
  bottom: "Eltwise11"
  top: "Convolution26"
  param {
    lr_mult: 1
    decay_mult: 1
  }
  param {
    lr_mult: 2
    decay_mult: 0
  }
  convolution_param {
    num_output: 64
    pad: 1
    kernel_size: 3
    stride: 1
    weight_filler {
      type: "gaussian"
      std: 0.059
    }
    bias_filler {
      type: "constant"
      value: 0
    }
  }
}
layer {
  name: "BatchNorm26"
  type: "BatchNorm"
  bottom: "Convolution26"
  top: "Convolution26"
  param {
    lr_mult: 0
    decay_mult: 0
  }
  param {
    lr_mult: 0
    decay_mult: 0
  }
  param {
    lr_mult: 0
    decay_mult: 0
  }
}
layer {
  name: "Scale26"
  type: "Scale"
  bottom: "Convolution26"
  top: "Convolution26"
  scale_param {
    bias_term: true
  }
}
layer {
  name: "ReLU24"
  type: "ReLU"
  bottom: "Convolution26"
  top: "Convolution26"
}
layer {
  name: "Convolution27"
  type: "Convolution"
  bottom: "Convolution26"
  top: "Convolution27"
  param {
    lr_mult: 1
    decay_mult: 1
  }
  param {
    lr_mult: 2
    decay_mult: 0
  }
  convolution_param {
    num_output: 64
    pad: 1
    kernel_size: 3
    stride: 1
    weight_filler {
      type: "gaussian"
      std: 0.059
    }
    bias_filler {
      type: "constant"
      value: 0
    }
  }
}
layer {
  name: "BatchNorm27"
  type: "BatchNorm"
  bottom: "Convolution27"
  top: "Convolution27"
  param {
    lr_mult: 0
    decay_mult: 0
  }
  param {
    lr_mult: 0
    decay_mult: 0
  }
  param {
    lr_mult: 0
    decay_mult: 0
  }
}
layer {
  name: "Scale27"
  type: "Scale"
  bottom: "Convolution27"
  top: "Convolution27"
  scale_param {
    bias_term: true
  }
}
layer {
  name: "Eltwise12"
  type: "Eltwise"
  bottom: "Eltwise11"
  bottom: "Convolution27"
  top: "Eltwise12"
  eltwise_param {
    operation: SUM
  }
}
layer {
  name: "ReLU25"
  type: "ReLU"
  bottom: "Eltwise12"
  top: "Eltwise12"
}
layer {
  name: "Convolution28"
  type: "Convolution"
  bottom: "Eltwise12"
  top: "Convolution28"
  param {
    lr_mult: 1
    decay_mult: 1
  }
  param {
    lr_mult: 2
    decay_mult: 0
  }
  convolution_param {
    num_output: 64
    pad: 1
    kernel_size: 3
    stride: 1
    weight_filler {
      type: "gaussian"
      std: 0.059
    }
    bias_filler {
      type: "constant"
      value: 0
    }
  }
}
layer {
  name: "BatchNorm28"
  type: "BatchNorm"
  bottom: "Convolution28"
  top: "Convolution28"
  param {
    lr_mult: 0
    decay_mult: 0
  }
  param {
    lr_mult: 0
    decay_mult: 0
  }
  param {
    lr_mult: 0
    decay_mult: 0
  }
}
layer {
  name: "Scale28"
  type: "Scale"
  bottom: "Convolution28"
  top: "Convolution28"
  scale_param {
    bias_term: true
  }
}
layer {
  name: "ReLU26"
  type: "ReLU"
  bottom: "Convolution28"
  top: "Convolution28"
}
layer {
  name: "Convolution29"
  type: "Convolution"
  bottom: "Convolution28"
  top: "Convolution29"
  param {
    lr_mult: 1
    decay_mult: 1
  }
  param {
    lr_mult: 2
    decay_mult: 0
  }
  convolution_param {
    num_output: 64
    pad: 1
    kernel_size: 3
    stride: 1
    weight_filler {
      type: "gaussian"
      std: 0.059
    }
    bias_filler {
      type: "constant"
      value: 0
    }
  }
}
layer {
  name: "BatchNorm29"
  type: "BatchNorm"
  bottom: "Convolution29"
  top: "Convolution29"
  param {
    lr_mult: 0
    decay_mult: 0
  }
  param {
    lr_mult: 0
    decay_mult: 0
  }
  param {
    lr_mult: 0
    decay_mult: 0
  }
}
layer {
  name: "Scale29"
  type: "Scale"
  bottom: "Convolution29"
  top: "Convolution29"
  scale_param {
    bias_term: true
  }
}
layer {
  name: "Eltwise13"
  type: "Eltwise"
  bottom: "Eltwise12"
  bottom: "Convolution29"
  top: "Eltwise13"
  eltwise_param {
    operation: SUM
  }
}
layer {
  name: "ReLU27"
  type: "ReLU"
  bottom: "Eltwise13"
  top: "Eltwise13"
}
layer {
  name: "Convolution30"
  type: "Convolution"
  bottom: "Eltwise13"
  top: "Convolution30"
  param {
    lr_mult: 1
    decay_mult: 1
  }
  param {
    lr_mult: 2
    decay_mult: 0
  }
  convolution_param {
    num_output: 64
    pad: 1
    kernel_size: 3
    stride: 1
    weight_filler {
      type: "gaussian"
      std: 0.059
    }
    bias_filler {
      type: "constant"
      value: 0
    }
  }
}
layer {
  name: "BatchNorm30"
  type: "BatchNorm"
  bottom: "Convolution30"
  top: "Convolution30"
  param {
    lr_mult: 0
    decay_mult: 0
  }
  param {
    lr_mult: 0
    decay_mult: 0
  }
  param {
    lr_mult: 0
    decay_mult: 0
  }
}
layer {
  name: "Scale30"
  type: "Scale"
  bottom: "Convolution30"
  top: "Convolution30"
  scale_param {
    bias_term: true
  }
}
layer {
  name: "ReLU28"
  type: "ReLU"
  bottom: "Convolution30"
  top: "Convolution30"
}
layer {
  name: "Convolution31"
  type: "Convolution"
  bottom: "Convolution30"
  top: "Convolution31"
  param {
    lr_mult: 1
    decay_mult: 1
  }
  param {
    lr_mult: 2
    decay_mult: 0
  }
  convolution_param {
    num_output: 64
    pad: 1
    kernel_size: 3
    stride: 1
    weight_filler {
      type: "gaussian"
      std: 0.059
    }
    bias_filler {
      type: "constant"
      value: 0
    }
  }
}
layer {
  name: "BatchNorm31"
  type: "BatchNorm"
  bottom: "Convolution31"
  top: "Convolution31"
  param {
    lr_mult: 0
    decay_mult: 0
  }
  param {
    lr_mult: 0
    decay_mult: 0
  }
  param {
    lr_mult: 0
    decay_mult: 0
  }
}
layer {
  name: "Scale31"
  type: "Scale"
  bottom: "Convolution31"
  top: "Convolution31"
  scale_param {
    bias_term: true
  }
}
layer {
  name: "Eltwise14"
  type: "Eltwise"
  bottom: "Eltwise13"
  bottom: "Convolution31"
  top: "Eltwise14"
  eltwise_param {
    operation: SUM
  }
}
layer {
  name: "ReLU29"
  type: "ReLU"
  bottom: "Eltwise14"
  top: "Eltwise14"
}
layer {
  name: "Convolution32"
  type: "Convolution"
  bottom: "Eltwise14"
  top: "Convolution32"
  param {
    lr_mult: 1
    decay_mult: 1
  }
  param {
    lr_mult: 2
    decay_mult: 0
  }
  convolution_param {
    num_output: 64
    pad: 1
    kernel_size: 3
    stride: 1
    weight_filler {
      type: "gaussian"
      std: 0.059
    }
    bias_filler {
      type: "constant"
      value: 0
    }
  }
}
layer {
  name: "BatchNorm32"
  type: "BatchNorm"
  bottom: "Convolution32"
  top: "Convolution32"
  param {
  
I1005 20:35:19.843636 10142 layer_factory.hpp:77] Creating layer Data1
I1005 20:35:19.843672 10142 db_lmdb.cpp:35] Opened lmdb /home/x306/caffe/xn/PENLU/data/cifar10/cifar10_test_lmdb
I1005 20:35:19.843689 10142 net.cpp:84] Creating Layer Data1
I1005 20:35:19.843694 10142 net.cpp:380] Data1 -> Data1
I1005 20:35:19.843700 10142 net.cpp:380] Data1 -> Data2
I1005 20:35:19.843706 10142 data_transformer.cpp:25] Loading mean file from: /home/x306/caffe/xn/PENLU/data/cifar10/mean.binaryproto
I1005 20:35:19.843837 10142 data_layer.cpp:45] output data size: 100,3,32,32
I1005 20:35:19.853328 10142 net.cpp:122] Setting up Data1
I1005 20:35:19.853349 10142 net.cpp:129] Top shape: 100 3 32 32 (307200)
I1005 20:35:19.853353 10142 net.cpp:129] Top shape: 100 (100)
I1005 20:35:19.853355 10142 net.cpp:137] Memory required for data: 1229200
I1005 20:35:19.853360 10142 layer_factory.hpp:77] Creating layer Data2_Data1_1_split
I1005 20:35:19.853369 10142 net.cpp:84] Creating Layer Data2_Data1_1_split
I1005 20:35:19.853373 10142 net.cpp:406] Data2_Data1_1_split <- Data2
…
I1005 20:35:19.966512 10142 net.cpp:367] ReLU14 -> Convolution15 (in-place)
I1005 20:35:19.968221 10142 net.cpp:122] Setting up ReLU14
I1005 20:35:19.968247 10142 net.cpp:129] Top shape: 100 32 16 16 (819200)
I1005 20:35:19.968250 10142 net.cpp:137] Memory required for data: 459982000
I1005 20:35:19.968253 10142 layer_factory.hpp:77] Creating layer Convolution16
I1005 20:35:19.968266 10142 net.cpp:84] Creating Layer Convolution16
I1005 20:35:19.968278 10142 net.cpp:406] Convolution16 <- Convolution15
I1005 20:35:19.968284 10142 net.cpp:380] Convolution16 -> Convolution16
I1005 20:35:19.975144 10142 net.cpp:122] Setting up Convolution16
I1005 20:35:19.975172 10142 net.cpp:129] Top shape: 100 32 16 16 (819200)
I1005 20:35:19.975175 10142 net.cpp:137] Memory required for data: 463258800
I1005 20:35:19.975181 10142 layer_factory.hpp:77] Creating layer BatchNorm16
I1005 20:35:19.975188 10142 net.cpp:84] Creating Layer BatchNorm16
I1005 20:35:19.975191 10142 net.cpp:406] BatchNorm16 <- Convolution16
I1005 20:35:19.975195 10142 net.cpp:367] BatchNorm16 -> Convolution16 (in-place)
I1005 20:35:19.975347 10142 net.cpp:122] Setting up BatchNorm16
I1005 20:35:19.975352 10142 net.cpp:129] Top shape: 100 32 16 16 (819200)
I1005 20:35:19.975353 10142 net.cpp:137] Memory required for data: 466535600
I1005 20:35:19.975359 10142 layer_factory.hpp:77] Creating layer Scale16
I1005 20:35:19.975364 10142 net.cpp:84] Creating Layer Scale16
I1005 20:35:19.975366 10142 net.cpp:406] Scale16 <- Convolution16
I1005 20:35:19.975369 10142 net.cpp:367] Scale16 -> Convolution16 (in-place)
I1005 20:35:19.975404 10142 layer_factory.hpp:77] Creating layer Scale16
I1005 20:35:19.975491 10142 net.cpp:122] Setting up Scale16
I1005 20:35:19.975494 10142 net.cpp:129] Top shape: 100 32 16 16 (819200)
I1005 20:35:19.975497 10142 net.cpp:137] Memory required for data: 469812400
I1005 20:35:19.975500 10142 layer_factory.hpp:77] Creating layer Eltwise7
I1005 20:35:19.975505 10142 net.cpp:84] Creating Layer Eltwise7
I1005 20:35:19.975508 10142 net.cpp:406] Eltwise7 <- Eltwise6_ReLU13_0_split_1
I1005 20:35:19.975512 10142 net.cpp:406] Eltwise7 <- Convolution16
I1005 20:35:19.975515 10142 net.cpp:380] Eltwise7 -> Eltwise7
I1005 20:35:19.975529 10142 net.cpp:122] Setting up Eltwise7
I1005 20:35:19.975533 10142 net.cpp:129] Top shape: 100 32 16 16 (819200)
I1005 20:35:19.975535 10142 net.cpp:137] Memory required for data: 473089200
I1005 20:35:19.975538 10142 layer_factory.hpp:77] Creating layer ReLU15
I1005 20:35:19.975541 10142 net.cpp:84] Creating Layer ReLU15
I1005 20:35:19.975543 10142 net.cpp:406] ReLU15 <- Eltwise7
I1005 20:35:19.975548 10142 net.cpp:367] ReLU15 -> Eltwise7 (in-place)
I1005 20:35:19.977257 10142 net.cpp:122] Setting up ReLU15
I1005 20:35:19.977262 10142 net.cpp:129] Top shape: 100 32 16 16 (819200)
I1005 20:35:19.977264 10142 net.cpp:137] Memory required for data: 476366000
I1005 20:35:19.977267 10142 layer_factory.hpp:77] Creating layer Eltwise7_ReLU15_0_split
I1005 20:35:19.977272 10142 net.cpp:84] Creating Layer Eltwise7_ReLU15_0_split
I1005 20:35:19.977273 10142 net.cpp:406] Eltwise7_ReLU15_0_split <- Eltwise7
I1005 20:35:19.977277 10142 net.cpp:380] Eltwise7_ReLU15_0_split -> Eltwise7_ReLU15_0_split_0
I1005 20:35:19.977282 10142 net.cpp:380] Eltwise7_ReLU15_0_split -> Eltwise7_ReLU15_0_split_1
I1005 20:35:19.977311 10142 net.cpp:122] Setting up Eltwise7_ReLU15_0_split
I1005 20:35:19.977315 10142 net.cpp:129] Top shape: 100 32 16 16 (819200)
I1005 20:35:19.977319 10142 net.cpp:129] Top shape: 100 32 16 16 (819200)
I1005 20:35:19.977319 10142 net.cpp:137] Memory required for data: 482919600
I1005 20:35:19.977322 10142 layer_factory.hpp:77] Creating layer Convolution17
I1005 20:35:19.977330 10142 net.cpp:84] Creating Layer Convolution17
I1005 20:35:19.977334 10142 net.cpp:406] Convolution17 <- Eltwise7_ReLU15_0_split_0
I1005 20:35:19.977337 10142 net.cpp:380] Convolution17 -> Convolution17
I1005 20:35:19.983952 10142 net.cpp:122] Setting up Convolution17
I1005 20:35:19.983961 10142 net.cpp:129] Top shape: 100 32 16 16 (819200)
I1005 20:35:19.983964 10142 net.cpp:137] Memory required for data: 486196400
I1005 20:35:19.983968 10142 layer_factory.hpp:77] Creating layer BatchNorm17
I1005 20:35:19.983973 10142 net.cpp:84] Creating Layer BatchNorm17
I1005 20:35:19.983976 10142 net.cpp:406] BatchNorm17 <- Convolution17
I1005 20:35:19.983980 10142 net.cpp:367] BatchNorm17 -> Convolution17 (in-place)
I1005 20:35:19.984125 10142 net.cpp:122] Setting up BatchNorm17
I1005 20:35:19.984130 10142 net.cpp:129] Top shape: 100 32 16 16 (819200)
I1005 20:35:19.984133 10142 net.cpp:137] Memory required for data: 489473200
I1005 20:35:19.984136 10142 layer_factory.hpp:77] Creating layer Scale17
I1005 20:35:19.984148 10142 net.cpp:84] Creating Layer Scale17
I1005 20:35:19.984151 10142 net.cpp:406] Scale17 <- Convolution17
I1005 20:35:19.984154 10142 net.cpp:367] Scale17 -> Convolution17 (in-place)
I1005 20:35:19.984186 10142 layer_factory.hpp:77] Creating layer Scale17
I1005 20:35:19.984271 10142 net.cpp:122] Setting up Scale17
I1005 20:35:19.984275 10142 net.cpp:129] Top shape: 100 32 16 16 (819200)
I1005 20:35:19.984277 10142 net.cpp:137] Memory required for data: 492750000
I1005 20:35:19.984280 10142 layer_factory.hpp:77] Creating layer ReLU16
I1005 20:35:19.984284 10142 net.cpp:84] Creating Layer ReLU16
I1005 20:35:19.984287 10142 net.cpp:406] ReLU16 <- Convolution17
I1005 20:35:19.984290 10142 net.cpp:367] ReLU16 -> Convolution17 (in-place)
I1005 20:35:19.986066 10142 net.cpp:122] Setting up ReLU16
I1005 20:35:19.986073 10142 net.cpp:129] Top shape: 100 32 16 16 (819200)
I1005 20:35:19.986074 10142 net.cpp:137] Memory required for data: 496026800
I1005 20:35:19.986078 10142 layer_factory.hpp:77] Creating layer Convolution18
I1005 20:35:19.986085 10142 net.cpp:84] Creating Layer Convolution18
I1005 20:35:19.986088 10142 net.cpp:406] Convolution18 <- Convolution17
I1005 20:35:19.986093 10142 net.cpp:380] Convolution18 -> Convolution18
I1005 20:35:19.992804 10142 net.cpp:122] Setting up Convolution18
I1005 20:35:19.992815 10142 net.cpp:129] Top shape: 100 32 16 16 (819200)
I1005 20:35:19.992817 10142 net.cpp:137] Memory required for data: 499303600
I1005 20:35:19.992821 10142 layer_factory.hpp:77] Creating layer BatchNorm18
I1005 20:35:19.992827 10142 net.cpp:84] Creating Layer BatchNorm18
I1005 20:35:19.992830 10142 net.cpp:406] BatchNorm18 <- Convolution18
I1005 20:35:19.992835 10142 net.cpp:367] BatchNorm18 -> Convolution18 (in-place)
I1005 20:35:19.992990 10142 net.cpp:122] Setting up BatchNorm18
I1005 20:35:19.992995 10142 net.cpp:129] Top shape: 100 32 16 16 (819200)
I1005 20:35:19.992996 10142 net.cpp:137] Memory required for data: 502580400
I1005 20:35:19.993001 10142 layer_factory.hpp:77] Creating layer Scale18
I1005 20:35:19.993005 10142 net.cpp:84] Creating Layer Scale18
I1005 20:35:19.993008 10142 net.cpp:406] Scale18 <- Convolution18
I1005 20:35:19.993011 10142 net.cpp:367] Scale18 -> Convolution18 (in-place)
I1005 20:35:19.993042 10142 layer_factory.hpp:77] Creating layer Scale18
I1005 20:35:19.993129 10142 net.cpp:122] Setting up Scale18
I1005 20:35:19.993134 10142 net.cpp:129] Top shape: 100 32 16 16 (819200)
I1005 20:35:19.993137 10142 net.cpp:137] Memory required for data: 505857200
I1005 20:35:19.993140 10142 layer_factory.hpp:77] Creating layer Eltwise8
I1005 20:35:19.993144 10142 net.cpp:84] Creating Layer Eltwise8
I1005 20:35:19.993147 10142 net.cpp:406] Eltwise8 <- Eltwise7_ReLU15_0_split_1
I1005 20:35:19.993150 10142 net.cpp:406] Eltwise8 <- Convolution18
I1005 20:35:19.993154 10142 net.cpp:380] Eltwise8 -> Eltwise8
I1005 20:35:19.993168 10142 net.cpp:122] Setting up Eltwise8
I1005 20:35:19.993172 10142 net.cpp:129] Top shape: 100 32 16 16 (819200)
I1005 20:35:19.993175 10142 net.cpp:137] Memory required for data: 509134000
I1005 20:35:19.993176 10142 layer_factory.hpp:77] Creating layer ReLU17
I1005 20:35:19.993180 10142 net.cpp:84] Creating Layer ReLU17
I1005 20:35:19.993182 10142 net.cpp:406] ReLU17 <- Eltwise8
I1005 20:35:19.993186 10142 net.cpp:367] ReLU17 -> Eltwise8 (in-place)
I1005 20:35:19.994905 10142 net.cpp:122] Setting up ReLU17
I1005 20:35:19.994912 10142 net.cpp:129] Top shape: 100 32 16 16 (819200)
I1005 20:35:19.994915 10142 net.cpp:137] Memory required for data: 512410800
I1005 20:35:19.994917 10142 layer_factory.hpp:77] Creating layer Eltwise8_ReLU17_0_split
I1005 20:35:19.994921 10142 net.cpp:84] Creating Layer Eltwise8_ReLU17_0_split
I1005 20:35:19.994923 10142 net.cpp:406] Eltwise8_ReLU17_0_split <- Eltwise8
I1005 20:35:19.994927 10142 net.cpp:380] Eltwise8_ReLU17_0_split -> Eltwise8_ReLU17_0_split_0
I1005 20:35:19.994932 10142 net.cpp:380] Eltwise8_ReLU17_0_split -> Eltwise8_ReLU17_0_split_1
I1005 20:35:19.994963 10142 net.cpp:122] Setting up Eltwise8_ReLU17_0_split
I1005 20:35:19.994976 10142 net.cpp:129] Top shape: 100 32 16 16 (819200)
I1005 20:35:19.994981 10142 net.cpp:129] Top shape: 100 32 16 16 (819200)
I1005 20:35:19.994982 10142 net.cpp:137] Memory required for data: 518964400
I1005 20:35:19.994984 10142 layer_factory.hpp:77] Creating layer Convolution19
I1005 20:35:19.994992 10142 net.cpp:84] Creating Layer Convolution19
I1005 20:35:19.994994 10142 net.cpp:406] Convolution19 <- Eltwise8_ReLU17_0_split_0
I1005 20:35:19.994998 10142 net.cpp:380] Convolution19 -> Convolution19
I1005 20:35:20.000177 10142 net.cpp:122] Setting up Convolution19
I1005 20:35:20.000187 10142 net.cpp:129] Top shape: 100 32 16 16 (819200)
I1005 20:35:20.000200 10142 net.cpp:137] Memory required for data: 522241200
I1005 20:35:20.000205 10142 layer_factory.hpp:77] Creating layer BatchNorm19
I1005 20:35:20.000211 10142 net.cpp:84] Creating Layer BatchNorm19
I1005 20:35:20.000224 10142 net.cpp:406] BatchNorm19 <- Convolution19
I1005 20:35:20.000229 10142 net.cpp:367] BatchNorm19 -> Convolution19 (in-place)
I1005 20:35:20.000401 10142 net.cpp:122] Setting up BatchNorm19
I1005 20:35:20.000407 10142 net.cpp:129] Top shape: 100 32 16 16 (819200)
I1005 20:35:20.000421 10142 net.cpp:137] Memory required for data: 525518000
I1005 20:35:20.000438 10142 layer_factory.hpp:77] Creating layer Scale19
I1005 20:35:20.000443 10142 net.cpp:84] Creating Layer Scale19
I1005 20:35:20.000455 10142 net.cpp:406] Scale19 <- Convolution19
I1005 20:35:20.000458 10142 net.cpp:367] Scale19 -> Convolution19 (in-place)
I1005 20:35:20.000514 10142 layer_factory.hpp:77] Creating layer Scale19
I1005 20:35:20.000624 10142 net.cpp:122] Setting up Scale19
I1005 20:35:20.000629 10142 net.cpp:129] Top shape: 100 32 16 16 (819200)
I1005 20:35:20.000641 10142 net.cpp:137] Memory required for data: 528794800
I1005 20:35:20.000645 10142 layer_factory.hpp:77] Creating layer ReLU18
I1005 20:35:20.000651 10142 net.cpp:84] Creating Layer ReLU18
I1005 20:35:20.000656 10142 net.cpp:406] ReLU18 <- Convolution19
I1005 20:35:20.000661 10142 net.cpp:367] ReLU18 -> Convolution19 (in-place)
I1005 20:35:20.001133 10142 net.cpp:122] Setting up ReLU18
I1005 20:35:20.001143 10142 net.cpp:129] Top shape: 100 32 16 16 (819200)
I1005 20:35:20.001157 10142 net.cpp:137] Memory required for data: 532071600
I1005 20:35:20.001159 10142 layer_factory.hpp:77] Creating layer Convolution20
I1005 20:35:20.001168 10142 net.cpp:84] Creating Layer Convolution20
I1005 20:35:20.001174 10142 net.cpp:406] Convolution20 <- Convolution19
I1005 20:35:20.001181 10142 net.cpp:380] Convolution20 -> Convolution20
I1005 20:35:20.005838 10142 net.cpp:122] Setting up Convolution20
I1005 20:35:20.005859 10142 net.cpp:129] Top shape: 100 32 16 16 (819200)
I1005 20:35:20.005862 10142 net.cpp:137] Memory required for data: 535348400
I1005 20:35:20.005868 10142 layer_factory.hpp:77] Creating layer BatchNorm20
I1005 20:35:20.005875 10142 net.cpp:84] Creating Layer BatchNorm20
I1005 20:35:20.005880 10142 net.cpp:406] BatchNorm20 <- Convolution20
I1005 20:35:20.005887 10142 net.cpp:367] BatchNorm20 -> Convolution20 (in-place)
I1005 20:35:20.006052 10142 net.cpp:122] Setting up BatchNorm20
I1005 20:35:20.006058 10142 net.cpp:129] Top shape: 100 32 16 16 (819200)
I1005 20:35:20.006070 10142 net.cpp:137] Memory required for data: 538625200
I1005 20:35:20.006076 10142 layer_factory.hpp:77] Creating layer Scale20
I1005 20:35:20.006083 10142 net.cpp:84] Creating Layer Scale20
I1005 20:35:20.006088 10142 net.cpp:406] Scale20 <- Convolution20
I1005 20:35:20.006093 10142 net.cpp:367] Scale20 -> Convolution20 (in-place)
I1005 20:35:20.006129 10142 layer_factory.hpp:77] Creating layer Scale20
I1005 20:35:20.006222 10142 net.cpp:122] Setting up Scale20
I1005 20:35:20.006228 10142 net.cpp:129] Top shape: 100 32 16 16 (819200)
I1005 20:35:20.006232 10142 net.cpp:137] Memory required for data: 541902000
I1005 20:35:20.006239 10142 layer_factory.hpp:77] Creating layer Eltwise9
I1005 20:35:20.006244 10142 net.cpp:84] Creating Layer Eltwise9
I1005 20:35:20.006248 10142 net.cpp:406] Eltwise9 <- Eltwise8_ReLU17_0_split_1
I1005 20:35:20.006263 10142 net.cpp:406] Eltwise9 <- Convolution20
I1005 20:35:20.006271 10142 net.cpp:380] Eltwise9 -> Eltwise9
I1005 20:35:20.006290 10142 net.cpp:122] Setting up Eltwise9
I1005 20:35:20.006295 10142 net.cpp:129] Top shape: 100 32 16 16 (819200)
I1005 20:35:20.006299 10142 net.cpp:137] Memory required for data: 545178800
I1005 20:35:20.006301 10142 layer_factory.hpp:77] Creating layer ReLU19
I1005 20:35:20.006309 10142 net.cpp:84] Creating Layer ReLU19
I1005 20:35:20.006312 10142 net.cpp:406] ReLU19 <- Eltwise9
I1005 20:35:20.006316 10142 net.cpp:367] ReLU19 -> Eltwise9 (in-place)
I1005 20:35:20.007958 10142 net.cpp:122] Setting up ReLU19
I1005 20:35:20.007967 10142 net.cpp:129] Top shape: 100 32 16 16 (819200)
I1005 20:35:20.007972 10142 net.cpp:137] Memory required for data: 548455600
I1005 20:35:20.007977 10142 layer_factory.hpp:77] Creating layer Eltwise9_ReLU19_0_split
I1005 20:35:20.007984 10142 net.cpp:84] Creating Layer Eltwise9_ReLU19_0_split
I1005 20:35:20.007988 10142 net.cpp:406] Eltwise9_ReLU19_0_split <- Eltwise9
I1005 20:35:20.007993 10142 net.cpp:380] Eltwise9_ReLU19_0_split -> Eltwise9_ReLU19_0_split_0
I1005 20:35:20.007999 10142 net.cpp:380] Eltwise9_ReLU19_0_split -> Eltwise9_ReLU19_0_split_1
I1005 20:35:20.008035 10142 net.cpp:122] Setting up Eltwise9_ReLU19_0_split
I1005 20:35:20.008040 10142 net.cpp:129] Top shape: 100 32 16 16 (819200)
I1005 20:35:20.008045 10142 net.cpp:129] Top shape: 100 32 16 16 (819200)
I1005 20:35:20.008049 10142 net.cpp:137] Memory required for data: 555009200
I1005 20:35:20.008052 10142 layer_factory.hpp:77] Creating layer Convolution21
I1005 20:35:20.008062 10142 net.cpp:84] Creating Layer Convolution21
I1005 20:35:20.008066 10142 net.cpp:406] Convolution21 <- Eltwise9_ReLU19_0_split_0
I1005 20:35:20.008074 10142 net.cpp:380] Convolution21 -> Convolution21
I1005 20:35:20.013691 10142 net.cpp:122] Setting up Convolution21
I1005 20:35:20.013702 10142 net.cpp:129] Top shape: 100 32 16 16 (819200)
I1005 20:35:20.013706 10142 net.cpp:137] Memory required for data: 558286000
I1005 20:35:20.013711 10142 layer_factory.hpp:77] Creating layer BatchNorm21
I1005 20:35:20.013716 10142 net.cpp:84] Creating Layer BatchNorm21
I1005 20:35:20.013720 10142 net.cpp:406] BatchNorm21 <- Convolution21
I1005 20:35:20.013723 10142 net.cpp:367] BatchNorm21 -> Convolution21 (in-place)
I1005 20:35:20.013873 10142 net.cpp:122] Setting up BatchNorm21
I1005 20:35:20.013878 10142 net.cpp:129] Top shape: 100 32 16 16 (819200)
I1005 20:35:20.013880 10142 net.cpp:137] Memory required for data: 561562800
I1005 20:35:20.013885 10142 layer_factory.hpp:77] Creating layer Scale21
I1005 20:35:20.013890 10142 net.cpp:84] Creating Layer Scale21
I1005 20:35:20.013892 10142 net.cpp:406] Scale21 <- Convolution21
I1005 20:35:20.013895 10142 net.cpp:367] Scale21 -> Convolution21 (in-place)
I1005 20:35:20.013926 10142 layer_factory.hpp:77] Creating layer Scale21
I1005 20:35:20.014012 10142 net.cpp:122] Setting up Scale21
I1005 20:35:20.014016 10142 net.cpp:129] Top shape: 100 32 16 16 (819200)
I1005 20:35:20.014019 10142 net.cpp:137] Memory required for data: 564839600
I1005 20:35:20.014022 10142 layer_factory.hpp:77] Creating layer ReLU20
I1005 20:35:20.014026 10142 net.cpp:84] Creating Layer ReLU20
I1005 20:35:20.014029 10142 net.cpp:406] ReLU20 <- Convolution21
I1005 20:35:20.014032 10142 net.cpp:367] ReLU20 -> Convolution21 (in-place)
I1005 20:35:20.014158 10142 net.cpp:122] Setting up ReLU20
I1005 20:35:20.014164 10142 net.cpp:129] Top shape: 100 32 16 16 (819200)
I1005 20:35:20.014166 10142 net.cpp:137] Memory required for data: 568116400
I1005 20:35:20.014168 10142 layer_factory.hpp:77] Creating layer Convolution22
I1005 20:35:20.014176 10142 net.cpp:84] Creating Layer Convolution22
I1005 20:35:20.014179 10142 net.cpp:406] Convolution22 <- Convolution21
I1005 20:35:20.014183 10142 net.cpp:380] Convolution22 -> Convolution22
I1005 20:35:20.020431 10142 net.cpp:122] Setting up Convolution22
I1005 20:35:20.020440 10142 net.cpp:129] Top shape: 100 32 16 16 (819200)
I1005 20:35:20.020449 10142 net.cpp:137] Memory required for data: 571393200
I1005 20:35:20.020454 10142 layer_factory.hpp:77] Creating layer BatchNorm22
I1005 20:35:20.020462 10142 net.cpp:84] Creating Layer BatchNorm22
I1005 20:35:20.020464 10142 net.cpp:406] BatchNorm22 <- Convolution22
I1005 20:35:20.020468 10142 net.cpp:367] BatchNorm22 -> Convolution22 (in-place)
I1005 20:35:20.020620 10142 net.cpp:122] Setting up BatchNorm22
I1005 20:35:20.020625 10142 net.cpp:129] Top shape: 100 32 16 16 (819200)
I1005 20:35:20.020627 10142 net.cpp:137] Memory required for data: 574670000
I1005 20:35:20.020632 10142 layer_factory.hpp:77] Creating layer Scale22
I1005 20:35:20.020637 10142 net.cpp:84] Creating Layer Scale22
I1005 20:35:20.020638 10142 net.cpp:406] Scale22 <- Convolution22
I1005 20:35:20.020642 10142 net.cpp:367] Scale22 -> Convolution22 (in-place)
I1005 20:35:20.020673 10142 layer_factory.hpp:77] Creating layer Scale22
I1005 20:35:20.020759 10142 net.cpp:122] Setting up Scale22
I1005 20:35:20.020764 10142 net.cpp:129] Top shape: 100 32 16 16 (819200)
I1005 20:35:20.020766 10142 net.cpp:137] Memory required for data: 577946800
I1005 20:35:20.020769 10142 layer_factory.hpp:77] Creating layer Eltwise10
I1005 20:35:20.020773 10142 net.cpp:84] Creating Layer Eltwise10
I1005 20:35:20.020776 10142 net.cpp:406] Eltwise10 <- Eltwise9_ReLU19_0_split_1
I1005 20:35:20.020779 10142 net.cpp:406] Eltwise10 <- Convolution22
I1005 20:35:20.020782 10142 net.cpp:380] Eltwise10 -> Eltwise10
I1005 20:35:20.020798 10142 net.cpp:122] Setting up Eltwise10
I1005 20:35:20.020802 10142 net.cpp:129] Top shape: 100 32 16 16 (819200)
I1005 20:35:20.020803 10142 net.cpp:137] Memory required for data: 581223600
I1005 20:35:20.020805 10142 layer_factory.hpp:77] Creating layer ReLU21
I1005 20:35:20.020809 10142 net.cpp:84] Creating Layer ReLU21
I1005 20:35:20.020812 10142 net.cpp:406] ReLU21 <- Eltwise10
I1005 20:35:20.020815 10142 net.cpp:367] ReLU21 -> Eltwise10 (in-place)
I1005 20:35:20.022527 10142 net.cpp:122] Setting up ReLU21
I1005 20:35:20.022536 10142 net.cpp:129] Top shape: 100 32 16 16 (819200)
I1005 20:35:20.022538 10142 net.cpp:137] Memory required for data: 584500400
I1005 20:35:20.022541 10142 layer_factory.hpp:77] Creating layer Eltwise10_ReLU21_0_split
I1005 20:35:20.022545 10142 net.cpp:84] Creating Layer Eltwise10_ReLU21_0_split
I1005 20:35:20.022547 10142 net.cpp:406] Eltwise10_ReLU21_0_split <- Eltwise10
I1005 20:35:20.022552 10142 net.cpp:380] Eltwise10_ReLU21_0_split -> Eltwise10_ReLU21_0_split_0
I1005 20:35:20.022557 10142 net.cpp:380] Eltwise10_ReLU21_0_split -> Eltwise10_ReLU21_0_split_1
I1005 20:35:20.022589 10142 net.cpp:122] Setting up Eltwise10_ReLU21_0_split
I1005 20:35:20.022593 10142 net.cpp:129] Top shape: 100 32 16 16 (819200)
I1005 20:35:20.022596 10142 net.cpp:129] Top shape: 100 32 16 16 (819200)
I1005 20:35:20.022598 10142 net.cpp:137] Memory required for data: 591054000
I1005 20:35:20.022600 10142 layer_factory.hpp:77] Creating layer Convolution23
I1005 20:35:20.022608 10142 net.cpp:84] Creating Layer Convolution23
I1005 20:35:20.022609 10142 net.cpp:406] Convolution23 <- Eltwise10_ReLU21_0_split_0
I1005 20:35:20.022614 10142 net.cpp:380] Convolution23 -> Convolution23
I1005 20:35:20.029856 10142 net.cpp:122] Setting up Convolution23
I1005 20:35:20.029883 10142 net.cpp:129] Top shape: 100 64 8 8 (409600)
I1005 20:35:20.029886 10142 net.cpp:137] Memory required for data: 592692400
I1005 20:35:20.029892 10142 layer_factory.hpp:77] Creating layer BatchNorm23
I1005 20:35:20.029899 10142 net.cpp:84] Creating Layer BatchNorm23
I1005 20:35:20.029903 10142 net.cpp:406] BatchNorm23 <- Convolution23
I1005 20:35:20.029907 10142 net.cpp:367] BatchNorm23 -> Convolution23 (in-place)
I1005 20:35:20.030092 10142 net.cpp:122] Setting up BatchNorm23
I1005 20:35:20.030097 10142 net.cpp:129] Top shape: 100 64 8 8 (409600)
I1005 20:35:20.030099 10142 net.cpp:137] Memory required for data: 594330800
I1005 20:35:20.030105 10142 layer_factory.hpp:77] Creating layer Scale23
I1005 20:35:20.030110 10142 net.cpp:84] Creating Layer Scale23
I1005 20:35:20.030123 10142 net.cpp:406] Scale23 <- Convolution23
I1005 20:35:20.030128 10142 net.cpp:367] Scale23 -> Convolution23 (in-place)
I1005 20:35:20.030164 10142 layer_factory.hpp:77] Creating layer Scale23
I1005 20:35:20.030256 10142 net.cpp:122] Setting up Scale23
I1005 20:35:20.030261 10142 net.cpp:129] Top shape: 100 64 8 8 (409600)
I1005 20:35:20.030263 10142 net.cpp:137] Memory required for data: 595969200
I1005 20:35:20.030267 10142 layer_factory.hpp:77] Creating layer Convolution24
I1005 20:35:20.030275 10142 net.cpp:84] Creating Layer Convolution24
I1005 20:35:20.030279 10142 net.cpp:406] Convolution24 <- Eltwise10_ReLU21_0_split_1
I1005 20:35:20.030283 10142 net.cpp:380] Convolution24 -> Convolution24
I1005 20:35:20.036734 10142 net.cpp:122] Setting up Convolution24
I1005 20:35:20.036746 10142 net.cpp:129] Top shape: 100 64 8 8 (409600)
I1005 20:35:20.036747 10142 net.cpp:137] Memory required for data: 597607600
I1005 20:35:20.036752 10142 layer_factory.hpp:77] Creating layer BatchNorm24
I1005 20:35:20.036768 10142 net.cpp:84] Creating Layer BatchNorm24
I1005 20:35:20.036772 10142 net.cpp:406] BatchNorm24 <- Convolution24
I1005 20:35:20.036777 10142 net.cpp:367] BatchNorm24 -> Convolution24 (in-place)
I1005 20:35:20.036942 10142 net.cpp:122] Setting up BatchNorm24
I1005 20:35:20.036947 10142 net.cpp:129] Top shape: 100 64 8 8 (409600)
I1005 20:35:20.036950 10142 net.cpp:137] Memory required for data: 599246000
I1005 20:35:20.036965 10142 layer_factory.hpp:77] Creating layer Scale24
I1005 20:35:20.036972 10142 net.cpp:84] Creating Layer Scale24
I1005 20:35:20.036975 10142 net.cpp:406] Scale24 <- Convolution24
I1005 20:35:20.036978 10142 net.cpp:367] Scale24 -> Convolution24 (in-place)
I1005 20:35:20.037021 10142 layer_factory.hpp:77] Creating layer Scale24
I1005 20:35:20.037123 10142 net.cpp:122] Setting up Scale24
I1005 20:35:20.037129 10142 net.cpp:129] Top shape: 100 64 8 8 (409600)
I1005 20:35:20.037132 10142 net.cpp:137] Memory required for data: 600884400
I1005 20:35:20.037137 10142 layer_factory.hpp:77] Creating layer ReLU22
I1005 20:35:20.037140 10142 net.cpp:84] Creating Layer ReLU22
I1005 20:35:20.037143 10142 net.cpp:406] ReLU22 <- Convolution24
I1005 20:35:20.037147 10142 net.cpp:367] ReLU22 -> Convolution24 (in-place)
I1005 20:35:20.038825 10142 net.cpp:122] Setting up ReLU22
I1005 20:35:20.038833 10142 net.cpp:129] Top shape: 100 64 8 8 (409600)
I1005 20:35:20.038836 10142 net.cpp:137] Memory required for data: 602522800
I1005 20:35:20.038838 10142 layer_factory.hpp:77] Creating layer Convolution25
I1005 20:35:20.038846 10142 net.cpp:84] Creating Layer Convolution25
I1005 20:35:20.038851 10142 net.cpp:406] Convolution25 <- Convolution24
I1005 20:35:20.038856 10142 net.cpp:380] Convolution25 -> Convolution25
I1005 20:35:20.045469 10142 net.cpp:122] Setting up Convolution25
I1005 20:35:20.045480 10142 net.cpp:129] Top shape: 100 64 8 8 (409600)
I1005 20:35:20.045481 10142 net.cpp:137] Memory required for data: 604161200
I1005 20:35:20.045496 10142 layer_factory.hpp:77] Creating layer BatchNorm25
I1005 20:35:20.045502 10142 net.cpp:84] Creating Layer BatchNorm25
I1005 20:35:20.045506 10142 net.cpp:406] BatchNorm25 <- Convolution25
I1005 20:35:20.045509 10142 net.cpp:367] BatchNorm25 -> Convolution25 (in-place)
I1005 20:35:20.045676 10142 net.cpp:122] Setting up BatchNorm25
I1005 20:35:20.045681 10142 net.cpp:129] Top shape: 100 64 8 8 (409600)
I1005 20:35:20.045684 10142 net.cpp:137] Memory required for data: 605799600
I1005 20:35:20.045698 10142 layer_factory.hpp:77] Creating layer Scale25
I1005 20:35:20.045703 10142 net.cpp:84] Creating Layer Scale25
I1005 20:35:20.045706 10142 net.cpp:406] Scale25 <- Convolution25
I1005 20:35:20.045719 10142 net.cpp:367] Scale25 -> Convolution25 (in-place)
I1005 20:35:20.045770 10142 layer_factory.hpp:77] Creating layer Scale25
I1005 20:35:20.045871 10142 net.cpp:122] Setting up Scale25
I1005 20:35:20.045876 10142 net.cpp:129] Top shape: 100 64 8 8 (409600)
I1005 20:35:20.045879 10142 net.cpp:137] Memory required for data: 607438000
I1005 20:35:20.045892 10142 layer_factory.hpp:77] Creating layer Eltwise11
I1005 20:35:20.045898 10142 net.cpp:84] Creating Layer Eltwise11
I1005 20:35:20.045902 10142 net.cpp:406] Eltwise11 <- Convolution23
I1005 20:35:20.045904 10142 net.cpp:406] Eltwise11 <- Convolution25
I1005 20:35:20.045908 10142 net.cpp:380] Eltwise11 -> Eltwise11
I1005 20:35:20.045930 10142 net.cpp:122] Setting up Eltwise11
I1005 20:35:20.045935 10142 net.cpp:129] Top shape: 100 64 8 8 (409600)
I1005 20:35:20.045938 10142 net.cpp:137] Memory required for data: 609076400
I1005 20:35:20.045940 10142 layer_factory.hpp:77] Creating layer ReLU23
I1005 20:35:20.045944 10142 net.cpp:84] Creating Layer ReLU23
I1005 20:35:20.045948 10142 net.cpp:406] ReLU23 <- Eltwise11
I1005 20:35:20.045953 10142 net.cpp:367] ReLU23 -> Eltwise11 (in-place)
I1005 20:35:20.047607 10142 net.cpp:122] Setting up ReLU23
I1005 20:35:20.047616 10142 net.cpp:129] Top shape: 100 64 8 8 (409600)
I1005 20:35:20.047618 10142 net.cpp:137] Memory required for data: 610714800
I1005 20:35:20.047621 10142 layer_factory.hpp:77] Creating layer Eltwise11_ReLU23_0_split
I1005 20:35:20.047626 10142 net.cpp:84] Creating Layer Eltwise11_ReLU23_0_split
I1005 20:35:20.047627 10142 net.cpp:406] Eltwise11_ReLU23_0_split <- Eltwise11
I1005 20:35:20.047632 10142 net.cpp:380] Eltwise11_ReLU23_0_split -> Eltwise11_ReLU23_0_split_0
I1005 20:35:20.047637 10142 net.cpp:380] Eltwise11_ReLU23_0_split -> Eltwise11_ReLU23_0_split_1
I1005 20:35:20.047680 10142 net.cpp:122] Setting up Eltwise11_ReLU23_0_split
I1005 20:35:20.047685 10142 net.cpp:129] Top shape: 100 64 8 8 (409600)
I1005 20:35:20.047689 10142 net.cpp:129] Top shape: 100 64 8 8 (409600)
I1005 20:35:20.047703 10142 net.cpp:137] Memory required for data: 613991600
I1005 20:35:20.047704 10142 layer_factory.hpp:77] Creating layer Convolution26
I1005 20:35:20.047713 10142 net.cpp:84] Creating Layer Convolution26
I1005 20:35:20.047718 10142 net.cpp:406] Convolution26 <- Eltwise11_ReLU23_0_split_0
I1005 20:35:20.047730 10142 net.cpp:380] Convolution26 -> Convolution26
I1005 20:35:20.053750 10142 net.cpp:122] Setting up Convolution26
I1005 20:35:20.053771 10142 net.cpp:129] Top shape: 100 64 8 8 (409600)
I1005 20:35:20.053773 10142 net.cpp:137] Memory required for data: 615630000
I1005 20:35:20.053778 10142 layer_factory.hpp:77] Creating layer BatchNorm26
I1005 20:35:20.053793 10142 net.cpp:84] Creating Layer BatchNorm26
I1005 20:35:20.053797 10142 net.cpp:406] BatchNorm26 <- Convolution26
I1005 20:35:20.053802 10142 net.cpp:367] BatchNorm26 -> Convolution26 (in-place)
I1005 20:35:20.053983 10142 net.cpp:122] Setting up BatchNorm26
I1005 20:35:20.053988 10142 net.cpp:129] Top shape: 100 64 8 8 (409600)
I1005 20:35:20.054000 10142 net.cpp:137] Memory required for data: 617268400
I1005 20:35:20.054006 10142 layer_factory.hpp:77] Creating layer Scale26
I1005 20:35:20.054010 10142 net.cpp:84] Creating Layer Scale26
I1005 20:35:20.054013 10142 net.cpp:406] Scale26 <- Convolution26
I1005 20:35:20.054016 10142 net.cpp:367] Scale26 -> Convolution26 (in-place)
I1005 20:35:20.054049 10142 layer_factory.hpp:77] Creating layer Scale26
I1005 20:35:20.054141 10142 net.cpp:122] Setting up Scale26
I1005 20:35:20.054147 10142 net.cpp:129] Top shape: 100 64 8 8 (409600)
I1005 20:35:20.054149 10142 net.cpp:137] Memory required for data: 618906800
I1005 20:35:20.054153 10142 layer_factory.hpp:77] Creating layer ReLU24
I1005 20:35:20.054159 10142 net.cpp:84] Creating Layer ReLU24
I1005 20:35:20.054162 10142 net.cpp:406] ReLU24 <- Convolution26
I1005 20:35:20.054165 10142 net.cpp:367] ReLU24 -> Convolution26 (in-place)
I1005 20:35:20.054636 10142 net.cpp:122] Setting up ReLU24
I1005 20:35:20.054646 10142 net.cpp:129] Top shape: 100 64 8 8 (409600)
I1005 20:35:20.054649 10142 net.cpp:137] Memory required for data: 620545200
I1005 20:35:20.054651 10142 layer_factory.hpp:77] Creating layer Convolution27
I1005 20:35:20.054659 10142 net.cpp:84] Creating Layer Convolution27
I1005 20:35:20.054671 10142 net.cpp:406] Convolution27 <- Convolution26
I1005 20:35:20.054677 10142 net.cpp:380] Convolution27 -> Convolution27
I1005 20:35:20.059962 10142 net.cpp:122] Setting up Convolution27
I1005 20:35:20.059978 10142 net.cpp:129] Top shape: 100 64 8 8 (409600)
I1005 20:35:20.059980 10142 net.cpp:137] Memory required for data: 622183600
I1005 20:35:20.059986 10142 layer_factory.hpp:77] Creating layer BatchNorm27
I1005 20:35:20.060008 10142 net.cpp:84] Creating Layer BatchNorm27
I1005 20:35:20.060012 10142 net.cpp:406] BatchNorm27 <- Convolution27
I1005 20:35:20.060016 10142 net.cpp:367] BatchNorm27 -> Convolution27 (in-place)
I1005 20:35:20.060178 10142 net.cpp:122] Setting up BatchNorm27
I1005 20:35:20.060184 10142 net.cpp:129] Top shape: 100 64 8 8 (409600)
I1005 20:35:20.060195 10142 net.cpp:137] Memory required for data: 623822000
I1005 20:35:20.060201 10142 layer_factory.hpp:77] Creating layer Scale27
I1005 20:35:20.060216 10142 net.cpp:84] Creating Layer Scale27
I1005 20:35:20.060220 10142 net.cpp:406] Scale27 <- Convolution27
I1005 20:35:20.060222 10142 net.cpp:367] Scale27 -> Convolution27 (in-place)
I1005 20:35:20.060268 10142 layer_factory.hpp:77] Creating layer Scale27
I1005 20:35:20.060372 10142 net.cpp:122] Setting up Scale27
I1005 20:35:20.060379 10142 net.cpp:129] Top shape: 100 64 8 8 (409600)
I1005 20:35:20.060380 10142 net.cpp:137] Memory required for data: 625460400
I1005 20:35:20.060384 10142 layer_factory.hpp:77] Creating layer Eltwise12
I1005 20:35:20.060391 10142 net.cpp:84] Creating Layer Eltwise12
I1005 20:35:20.060395 10142 net.cpp:406] Eltwise12 <- Eltwise11_ReLU23_0_split_1
I1005 20:35:20.060398 10142 net.cpp:406] Eltwise12 <- Convolution27
I1005 20:35:20.060403 10142 net.cpp:380] Eltwise12 -> Eltwise12
I1005 20:35:20.060425 10142 net.cpp:122] Setting up Eltwise12
I1005 20:35:20.060428 10142 net.cpp:129] Top shape: 100 64 8 8 (409600)
I1005 20:35:20.060431 10142 net.cpp:137] Memory required for data: 627098800
I1005 20:35:20.060433 10142 layer_factory.hpp:77] Creating layer ReLU25
I1005 20:35:20.060438 10142 net.cpp:84] Creating Layer ReLU25
I1005 20:35:20.060442 10142 net.cpp:406] ReLU25 <- Eltwise12
I1005 20:35:20.060446 10142 net.cpp:367] ReLU25 -> Eltwise12 (in-place)
I1005 20:35:20.062358 10142 net.cpp:122] Setting up ReLU25
I1005 20:35:20.062368 10142 net.cpp:129] Top shape: 100 64 8 8 (409600)
I1005 20:35:20.062372 10142 net.cpp:137] Memory required for data: 628737200
I1005 20:35:20.062376 10142 layer_factory.hpp:77] Creating layer Eltwise12_ReLU25_0_split
I1005 20:35:20.062381 10142 net.cpp:84] Creating Layer Eltwise12_ReLU25_0_split
I1005 20:35:20.062383 10142 net.cpp:406] Eltwise12_ReLU25_0_split <- Eltwise12
I1005 20:35:20.062387 10142 net.cpp:380] Eltwise12_ReLU25_0_split -> Eltwise12_ReLU25_0_split_0
I1005 20:35:20.062392 10142 net.cpp:380] Eltwise12_ReLU25_0_split -> Eltwise12_ReLU25_0_split_1
I1005 20:35:20.062428 10142 net.cpp:122] Setting up Eltwise12_ReLU25_0_split
I1005 20:35:20.062433 10142 net.cpp:129] Top shape: 100 64 8 8 (409600)
I1005 20:35:20.062438 10142 net.cpp:129] Top shape: 100 64 8 8 (409600)
I1005 20:35:20.062439 10142 net.cpp:137] Memory required for data: 632014000
I1005 20:35:20.062443 10142 layer_factory.hpp:77] Creating layer Convolution28
I1005 20:35:20.062450 10142 net.cpp:84] Creating Layer Convolution28
I1005 20:35:20.062454 10142 net.cpp:406] Convolution28 <- Eltwise12_ReLU25_0_split_0
I1005 20:35:20.062459 10142 net.cpp:380] Convolution28 -> Convolution28
I1005 20:35:20.068475 10142 net.cpp:122] Setting up Convolution28
I1005 20:35:20.068485 10142 net.cpp:129] Top shape: 100 64 8 8 (409600)
I1005 20:35:20.068487 10142 net.cpp:137] Memory required for data: 633652400
I1005 20:35:20.068492 10142 layer_factory.hpp:77] Creating layer BatchNorm28
I1005 20:35:20.068498 10142 net.cpp:84] Creating Layer BatchNorm28
I1005 20:35:20.068501 10142 net.cpp:406] BatchNorm28 <- Convolution28
I1005 20:35:20.068506 10142 net.cpp:367] BatchNorm28 -> Convolution28 (in-place)
I1005 20:35:20.068670 10142 net.cpp:122] Setting up BatchNorm28
I1005 20:35:20.068675 10142 net.cpp:129] Top shape: 100 64 8 8 (409600)
I1005 20:35:20.068677 10142 net.cpp:137] Memory required for data: 635290800
I1005 20:35:20.068693 10142 layer_factory.hpp:77] Creating layer Scale28
I1005 20:35:20.068699 10142 net.cpp:84] Creating Layer Scale28
I1005 20:35:20.068702 10142 net.cpp:406] Scale28 <- Convolution28
I1005 20:35:20.068706 10142 net.cpp:367] Scale28 -> Convolution28 (in-place)
I1005 20:35:20.068740 10142 layer_factory.hpp:77] Creating layer Scale28
I1005 20:35:20.068832 10142 net.cpp:122] Setting up Scale28
I1005 20:35:20.068837 10142 net.cpp:129] Top shape: 100 64 8 8 (409600)
I1005 20:35:20.068840 10142 net.cpp:137] Memory required for data: 636929200
I1005 20:35:20.068845 10142 layer_factory.hpp:77] Creating layer ReLU26
I1005 20:35:20.068848 10142 net.cpp:84] Creating Layer ReLU26
I1005 20:35:20.068852 10142 net.cpp:406] ReLU26 <- Convolution28
I1005 20:35:20.068856 10142 net.cpp:367] ReLU26 -> Convolution28 (in-place)
I1005 20:35:20.068989 10142 net.cpp:122] Setting up ReLU26
I1005 20:35:20.068996 10142 net.cpp:129] Top shape: 100 64 8 8 (409600)
I1005 20:35:20.069000 10142 net.cpp:137] Memory required for data: 638567600
I1005 20:35:20.069001 10142 layer_factory.hpp:77] Creating layer Convolution29
I1005 20:35:20.069008 10142 net.cpp:84] Creating Layer Convolution29
I1005 20:35:20.069012 10142 net.cpp:406] Convolution29 <- Convolution28
I1005 20:35:20.069017 10142 net.cpp:380] Convolution29 -> Convolution29
I1005 20:35:20.074903 10142 net.cpp:122] Setting up Convolution29
I1005 20:35:20.074913 10142 net.cpp:129] Top shape: 100 64 8 8 (409600)
I1005 20:35:20.074916 10142 net.cpp:137] Memory required for data: 640206000
I1005 20:35:20.074921 10142 layer_factory.hpp:77] Creating layer BatchNorm29
I1005 20:35:20.074937 10142 net.cpp:84] Creating Layer BatchNorm29
I1005 20:35:20.074941 10142 net.cpp:406] BatchNorm29 <- Convolution29
I1005 20:35:20.074946 10142 net.cpp:367] BatchNorm29 -> Convolution29 (in-place)
I1005 20:35:20.075115 10142 net.cpp:122] Setting up BatchNorm29
I1005 20:35:20.075121 10142 net.cpp:129] Top shape: 100 64 8 8 (409600)
I1005 20:35:20.075124 10142 net.cpp:137] Memory required for data: 641844400
I1005 20:35:20.075129 10142 layer_factory.hpp:77] Creating layer Scale29
I1005 20:35:20.075134 10142 net.cpp:84] Creating Layer Scale29
I1005 20:35:20.075136 10142 net.cpp:406] Scale29 <- Convolution29
I1005 20:35:20.075139 10142 net.cpp:367] Scale29 -> Convolution29 (in-place)
I1005 20:35:20.075175 10142 layer_factory.hpp:77] Creating layer Scale29
I1005 20:35:20.075275 10142 net.cpp:122] Setting up Scale29
I1005 20:35:20.075281 10142 net.cpp:129] Top shape: 100 64 8 8 (409600)
I1005 20:35:20.075284 10142 net.cpp:137] Memory required for data: 643482800
I1005 20:35:20.075287 10142 layer_factory.hpp:77] Creating layer Eltwise13
I1005 20:35:20.075294 10142 net.cpp:84] Creating Layer Eltwise13
I1005 20:35:20.075297 10142 net.cpp:406] Eltwise13 <- Eltwise12_ReLU25_0_split_1
I1005 20:35:20.075300 10142 net.cpp:406] Eltwise13 <- Convolution29
I1005 20:35:20.075304 10142 net.cpp:380] Eltwise13 -> Eltwise13
I1005 20:35:20.075333 10142 net.cpp:122] Setting up Eltwise13
I1005 20:35:20.075338 10142 net.cpp:129] Top shape: 100 64 8 8 (409600)
I1005 20:35:20.075340 10142 net.cpp:137] Memory required for data: 645121200
I1005 20:35:20.075342 10142 layer_factory.hpp:77] Creating layer ReLU27
I1005 20:35:20.075346 10142 net.cpp:84] Creating Layer ReLU27
I1005 20:35:20.075348 10142 net.cpp:406] ReLU27 <- Eltwise13
I1005 20:35:20.075352 10142 net.cpp:367] ReLU27 -> Eltwise13 (in-place)
I1005 20:35:20.077030 10142 net.cpp:122] Setting up ReLU27
I1005 20:35:20.077038 10142 net.cpp:129] Top shape: 100 64 8 8 (409600)
I1005 20:35:20.077040 10142 net.cpp:137] Memory required for data: 646759600
I1005 20:35:20.077042 10142 layer_factory.hpp:77] Creating layer Eltwise13_ReLU27_0_split
I1005 20:35:20.077047 10142 net.cpp:84] Creating Layer Eltwise13_ReLU27_0_split
I1005 20:35:20.077050 10142 net.cpp:406] Eltwise13_ReLU27_0_split <- Eltwise13
I1005 20:35:20.077054 10142 net.cpp:380] Eltwise13_ReLU27_0_split -> Eltwise13_ReLU27_0_split_0
I1005 20:35:20.077059 10142 net.cpp:380] Eltwise13_ReLU27_0_split -> Eltwise13_ReLU27_0_split_1
I1005 20:35:20.077101 10142 net.cpp:122] Setting up Eltwise13_ReLU27_0_split
I1005 20:35:20.077107 10142 net.cpp:129] Top shape: 100 64 8 8 (409600)
I1005 20:35:20.077111 10142 net.cpp:129] Top shape: 100 64 8 8 (409600)
I1005 20:35:20.077113 10142 net.cpp:137] Memory required for data: 650036400
I1005 20:35:20.077116 10142 layer_factory.hpp:77] Creating layer Convolution30
I1005 20:35:20.077123 10142 net.cpp:84] Creating Layer Convolution30
I1005 20:35:20.077126 10142 net.cpp:406] Convolution30 <- Eltwise13_ReLU27_0_split_0
I1005 20:35:20.077131 10142 net.cpp:380] Convolution30 -> Convolution30
I1005 20:35:20.083966 10142 net.cpp:122] Setting up Convolution30
I1005 20:35:20.083976 10142 net.cpp:129] Top shape: 100 64 8 8 (409600)
I1005 20:35:20.083979 10142 net.cpp:137] Memory required for data: 651674800
I1005 20:35:20.083984 10142 layer_factory.hpp:77] Creating layer BatchNorm30
I1005 20:35:20.083992 10142 net.cpp:84] Creating Layer BatchNorm30
I1005 20:35:20.083994 10142 net.cpp:406] BatchNorm30 <- Convolution30
I1005 20:35:20.083998 10142 net.cpp:367] BatchNorm30 -> Convolution30 (in-place)
I1005 20:35:20.084183 10142 net.cpp:122] Setting up BatchNorm30
I1005 20:35:20.084189 10142 net.cpp:129] Top shape: 100 64 8 8 (409600)
I1005 20:35:20.084192 10142 net.cpp:137] Memory required for data: 653313200
I1005 20:35:20.084206 10142 layer_factory.hpp:77] Creating layer Scale30
I1005 20:35:20.084211 10142 net.cpp:84] Creating Layer Scale30
I1005 20:35:20.084214 10142 net.cpp:406] Scale30 <- Convolution30
I1005 20:35:20.084218 10142 net.cpp:367] Scale30 -> Convolution30 (in-place)
I1005 20:35:20.084261 10142 layer_factory.hpp:77] Creating layer Scale30
I1005 20:35:20.084353 10142 net.cpp:122] Setting up Scale30
I1005 20:35:20.084358 10142 net.cpp:129] Top shape: 100 64 8 8 (409600)
I1005 20:35:20.084362 10142 net.cpp:137] Memory required for data: 654951600
I1005 20:35:20.084365 10142 layer_factory.hpp:77] Creating layer ReLU28
I1005 20:35:20.084369 10142 net.cpp:84] Creating Layer ReLU28
I1005 20:35:20.084373 10142 net.cpp:406] ReLU28 <- Convolution30
I1005 20:35:20.084377 10142 net.cpp:367] ReLU28 -> Convolution30 (in-place)
I1005 20:35:20.085746 10142 net.cpp:122] Setting up ReLU28
I1005 20:35:20.085753 10142 net.cpp:129] Top shape: 100 64 8 8 (409600)
I1005 20:35:20.085757 10142 net.cpp:137] Memory required for data: 656590000
I1005 20:35:20.085758 10142 layer_factory.hpp:77] Creating layer Convolution31
I1005 20:35:20.085777 10142 net.cpp:84] Creating Layer Convolution31
I1005 20:35:20.085779 10142 net.cpp:406] Convolution31 <- Convolution30
I1005 20:35:20.085784 10142 net.cpp:380] Convolution31 -> Convolution31
I1005 20:35:20.093430 10142 net.cpp:122] Setting up Convolution31
I1005 20:35:20.093453 10142 net.cpp:129] Top shape: 100 64 8 8 (409600)
I1005 20:35:20.093456 10142 net.cpp:137] Memory required for data: 658228400
I1005 20:35:20.093462 10142 layer_factory.hpp:77] Creating layer BatchNorm31
I1005 20:35:20.093469 10142 net.cpp:84] Creating Layer BatchNorm31
I1005 20:35:20.093483 10142 net.cpp:406] BatchNorm31 <- Convolution31
I1005 20:35:20.093488 10142 net.cpp:367] BatchNorm31 -> Convolution31 (in-place)
I1005 20:35:20.093665 10142 net.cpp:122] Setting up BatchNorm31
I1005 20:35:20.093670 10142 net.cpp:129] Top shape: 100 64 8 8 (409600)
I1005 20:35:20.093683 10142 net.cpp:137] Memory required for data: 659866800
I1005 20:35:20.093688 10142 layer_factory.hpp:77] Creating layer Scale31
I1005 20:35:20.093693 10142 net.cpp:84] Creating Layer Scale31
I1005 20:35:20.093695 10142 net.cpp:406] Scale31 <- Convolution31
I1005 20:35:20.093698 10142 net.cpp:367] Scale31 -> Convolution31 (in-place)
I1005 20:35:20.093744 10142 layer_factory.hpp:77] Creating layer Scale31
I1005 20:35:20.093852 10142 net.cpp:122] Setting up Scale31
I1005 20:35:20.093858 10142 net.cpp:129] Top shape: 100 64 8 8 (409600)
I1005 20:35:20.093869 10142 net.cpp:137] Memory required for data: 661505200
I1005 20:35:20.093873 10142 layer_factory.hpp:77] Creating layer Eltwise14
I1005 20:35:20.093878 10142 net.cpp:84] Creating Layer Eltwise14
I1005 20:35:20.093892 10142 net.cpp:406] Eltwise14 <- Eltwise13_ReLU27_0_split_1
I1005 20:35:20.093896 10142 net.cpp:406] Eltwise14 <- Convolution31
I1005 20:35:20.093899 10142 net.cpp:380] Eltwise14 -> Eltwise14
I1005 20:35:20.093922 10142 net.cpp:122] Setting up Eltwise14
I1005 20:35:20.093936 10142 net.cpp:129] Top shape: 100 64 8 8 (409600)
I1005 20:35:20.093938 10142 net.cpp:137] Memory required for data: 663143600
I1005 20:35:20.093940 10142 layer_factory.hpp:77] Creating layer ReLU29
I1005 20:35:20.093953 10142 net.cpp:84] Creating Layer ReLU29
I1005 20:35:20.093956 10142 net.cpp:406] ReLU29 <- Eltwise14
I1005 20:35:20.093961 10142 net.cpp:367] ReLU29 -> Eltwise14 (in-place)
I1005 20:35:20.095814 10142 net.cpp:122] Setting up ReLU29
I1005 20:35:20.095824 10142 net.cpp:129] Top shape: 100 64 8 8 (409600)
I1005 20:35:20.095835 10142 net.cpp:137] Memory required for data: 664782000
I1005 20:35:20.095839 10142 layer_factory.hpp:77] Creating layer Eltwise14_ReLU29_0_split
I1005 20:35:20.095854 10142 net.cpp:84] Creating Layer Eltwise14_ReLU29_0_split
I1005 20:35:20.095857 10142 net.cpp:406] Eltwise14_ReLU29_0_split <- Eltwise14
I1005 20:35:20.095861 10142 net.cpp:380] Eltwise14_ReLU29_0_split -> Eltwise14_ReLU29_0_split_0
I1005 20:35:20.095866 10142 net.cpp:380] Eltwise14_ReLU29_0_split -> Eltwise14_ReLU29_0_split_1
I1005 20:35:20.095912 10142 net.cpp:122] Setting up Eltwise14_ReLU29_0_split
I1005 20:35:20.095917 10142 net.cpp:129] Top shape: 100 64 8 8 (409600)
I1005 20:35:20.095921 10142 net.cpp:129] Top shape: 100 64 8 8 (409600)
I1005 20:35:20.095923 10142 net.cpp:137] Memory required for data: 668058800
I1005 20:35:20.095935 10142 layer_factory.hpp:77] Creating layer Convolution32
I1005 20:35:20.095943 10142 net.cpp:84] Creating Layer Convolution32
I1005 20:35:20.095947 10142 net.cpp:406] Convolution32 <- Eltwise14_ReLU29_0_split_0
I1005 20:35:20.095952 10142 net.cpp:380] Convolution32 -> Convolution32
I1005 20:35:20.102423 10142 net.cpp:122] Setting up Convolution32
I1005 20:35:20.102433 10142 net.cpp:129] Top shape: 100 64 8 8 (409600)
I1005 20:35:20.102437 10142 net.cpp:137] Memory required for data: 669697200
I1005 20:35:20.102442 10142 layer_factory.hpp:77] Creating layer BatchNorm32
I1005 20:35:20.102447 10142 net.cpp:84] Creating Layer BatchNorm32
I1005 20:35:20.102452 10142 net.cpp:406] BatchNorm32 <- Convolution32
I1005 20:35:20.102454 10142 net.cpp:367] BatchNorm32 -> Convolution32 (in-place)
I1005 20:35:20.102632 10142 net.cpp:122] Setting up BatchNorm32
I1005 20:35:20.102638 10142 net.cpp:129] Top shape: 100 64 8 8 (409600)
I1005 20:35:20.102643 10142 net.cpp:137] Memory required for data: 671335600
I1005 20:35:20.102648 10142 layer_factory.hpp:77] Creating layer Scale32
I1005 20:35:20.102653 10142 net.cpp:84] Creating Layer Scale32
I1005 20:35:20.102656 10142 net.cpp:406] Scale32 <- Convolution32
I1005 20:35:20.102659 10142 net.cpp:367] Scale32 -> Convolution32 (in-place)
I1005 20:35:20.102694 10142 layer_factory.hpp:77] Creating layer Scale32
I1005 20:35:20.102787 10142 net.cpp:122] Setting up Scale32
I1005 20:35:20.102792 10142 net.cpp:129] Top shape: 100 64 8 8 (409600)
I1005 20:35:20.102794 10142 net.cpp:137] Memory required for data: 672974000
I1005 20:35:20.102798 10142 layer_factory.hpp:77] Creating layer ReLU30
I1005 20:35:20.102803 10142 net.cpp:84] Creating Layer ReLU30
I1005 20:35:20.102807 10142 net.cpp:406] ReLU30 <- Convolution32
I1005 20:35:20.102810 10142 net.cpp:367] ReLU30 -> Convolution32 (in-place)
I1005 20:35:20.104228 10142 net.cpp:122] Setting up ReLU30
I1005 20:35:20.104238 10142 net.cpp:129] Top shape: 100 64 8 8 (409600)
I1005 20:35:20.104240 10142 net.cpp:137] Memory required for data: 674612400
I1005 20:35:20.104243 10142 layer_factory.hpp:77] Creating layer Convolution33
I1005 20:35:20.104251 10142 net.cpp:84] Creating Layer Convolution33
I1005 20:35:20.104254 10142 net.cpp:406] Convolution33 <- Convolution32
I1005 20:35:20.104260 10142 net.cpp:380] Convolution33 -> Convolution33
I1005 20:35:20.108095 10142 net.cpp:122] Setting up Convolution33
I1005 20:35:20.108105 10142 net.cpp:129] Top shape: 100 64 8 8 (409600)
I1005 20:35:20.108115 10142 net.cpp:137] Memory required for data: 676250800
I1005 20:35:20.108120 10142 layer_factory.hpp:77] Creating layer BatchNorm33
I1005 20:35:20.108126 10142 net.cpp:84] Creating Layer BatchNorm33
I1005 20:35:20.108130 10142 net.cpp:406] BatchNorm33 <- Convolution33
I1005 20:35:20.108134 10142 net.cpp:367] BatchNorm33 -> Convolution33 (in-place)
I1005 20:35:20.108309 10142 net.cpp:122] Setting up BatchNorm33
I1005 20:35:20.108314 10142 net.cpp:129] Top shape: 100 64 8 8 (409600)
I1005 20:35:20.108316 10142 net.cpp:137] Memory required for data: 677889200
I1005 20:35:20.108321 10142 layer_factory.hpp:77] Creating layer Scale33
I1005 20:35:20.108326 10142 net.cpp:84] Creating Layer Scale33
I1005 20:35:20.108330 10142 net.cpp:406] Scale33 <- Convolution33
I1005 20:35:20.108333 10142 net.cpp:367] Scale33 -> Convolution33 (in-place)
I1005 20:35:20.108366 10142 layer_factory.hpp:77] Creating layer Scale33
I1005 20:35:20.108458 10142 net.cpp:122] Setting up Scale33
I1005 20:35:20.108464 10142 net.cpp:129] Top shape: 100 64 8 8 (409600)
I1005 20:35:20.108466 10142 net.cpp:137] Memory required for data: 679527600
I1005 20:35:20.108470 10142 layer_factory.hpp:77] Creating layer Eltwise15
I1005 20:35:20.108475 10142 net.cpp:84] Creating Layer Eltwise15
I1005 20:35:20.108479 10142 net.cpp:406] Eltwise15 <- Eltwise14_ReLU29_0_split_1
I1005 20:35:20.108481 10142 net.cpp:406] Eltwise15 <- Convolution33
I1005 20:35:20.108487 10142 net.cpp:380] Eltwise15 -> Eltwise15
I1005 20:35:20.108506 10142 net.cpp:122] Setting up Eltwise15
I1005 20:35:20.108510 10142 net.cpp:129] Top shape: 100 64 8 8 (409600)
I1005 20:35:20.108513 10142 net.cpp:137] Memory required for data: 681166000
I1005 20:35:20.108515 10142 layer_factory.hpp:77] Creating layer ReLU31
I1005 20:35:20.108520 10142 net.cpp:84] Creating Layer ReLU31
I1005 20:35:20.108523 10142 net.cpp:406] ReLU31 <- Eltwise15
I1005 20:35:20.108526 10142 net.cpp:367] ReLU31 -> Eltwise15 (in-place)
I1005 20:35:20.108989 10142 net.cpp:122] Setting up ReLU31
I1005 20:35:20.108999 10142 net.cpp:129] Top shape: 100 64 8 8 (409600)
I1005 20:35:20.109002 10142 net.cpp:137] Memory required for data: 682804400
I1005 20:35:20.109005 10142 layer_factory.hpp:77] Creating layer Pooling1
I1005 20:35:20.109010 10142 net.cpp:84] Creating Layer Pooling1
I1005 20:35:20.109014 10142 net.cpp:406] Pooling1 <- Eltwise15
I1005 20:35:20.109017 10142 net.cpp:380] Pooling1 -> Pooling1
I1005 20:35:20.109166 10142 net.cpp:122] Setting up Pooling1
I1005 20:35:20.109174 10142 net.cpp:129] Top shape: 100 64 1 1 (6400)
I1005 20:35:20.109177 10142 net.cpp:137] Memory required for data: 682830000
I1005 20:35:20.109179 10142 layer_factory.hpp:77] Creating layer InnerProduct1
I1005 20:35:20.109185 10142 net.cpp:84] Creating Layer InnerProduct1
I1005 20:35:20.109189 10142 net.cpp:406] InnerProduct1 <- Pooling1
I1005 20:35:20.109194 10142 net.cpp:380] InnerProduct1 -> InnerProduct1
I1005 20:35:20.109311 10142 net.cpp:122] Setting up InnerProduct1
I1005 20:35:20.109318 10142 net.cpp:129] Top shape: 100 10 (1000)
I1005 20:35:20.109319 10142 net.cpp:137] Memory required for data: 682834000
I1005 20:35:20.109324 10142 layer_factory.hpp:77] Creating layer InnerProduct1_InnerProduct1_0_split
I1005 20:35:20.109328 10142 net.cpp:84] Creating Layer InnerProduct1_InnerProduct1_0_split
I1005 20:35:20.109331 10142 net.cpp:406] InnerProduct1_InnerProduct1_0_split <- InnerProduct1
I1005 20:35:20.109335 10142 net.cpp:380] InnerProduct1_InnerProduct1_0_split -> InnerProduct1_InnerProduct1_0_split_0
I1005 20:35:20.109340 10142 net.cpp:380] InnerProduct1_InnerProduct1_0_split -> InnerProduct1_InnerProduct1_0_split_1
I1005 20:35:20.109371 10142 net.cpp:122] Setting up InnerProduct1_InnerProduct1_0_split
I1005 20:35:20.109376 10142 net.cpp:129] Top shape: 100 10 (1000)
I1005 20:35:20.109380 10142 net.cpp:129] Top shape: 100 10 (1000)
I1005 20:35:20.109382 10142 net.cpp:137] Memory required for data: 682842000
I1005 20:35:20.109385 10142 layer_factory.hpp:77] Creating layer SoftmaxWithLoss1
I1005 20:35:20.109396 10142 net.cpp:84] Creating Layer SoftmaxWithLoss1
I1005 20:35:20.109400 10142 net.cpp:406] SoftmaxWithLoss1 <- InnerProduct1_InnerProduct1_0_split_0
I1005 20:35:20.109405 10142 net.cpp:406] SoftmaxWithLoss1 <- Data2_Data1_1_split_0
…
