…
I1006 15:09:05.551585  2964 net.cpp:294] The NetState phase (0) differed from the phase (1) specified by a rule in layer Accuracy1
I1006 15:09:05.552304  2964 net.cpp:51] Initializing net from parameters: 
name: "resnet_cifar10"
state {
  phase: TRAIN
  level: 0
  stage: ""
}
layer {
  name: "Data1"
  type: "Data"
  top: "Data1"
  top: "Data2"
  include {
    phase: TRAIN
  }
  transform_param {
    mirror: true
    crop_size: 28
    mean_file: "/home/x306/caffe/xn/PENLU/data/cifar10/mean.binaryproto"
  }
  data_param {
    source: "/home/x306/caffe/xn/PENLU/data/cifar10/cifar10_train_lmdb"
    batch_size: 100
    backend: LMDB
  }
}
layer {
  name: "Convolution1"
  type: "Convolution"
  bottom: "Data1"
  top: "Convolution1"
  param {
    lr_mult: 1
    decay_mult: 1
  }
  param {
    lr_mult: 2
    decay_mult: 0
  }
  convolution_param {
    num_output: 16
    pad: 1
    kernel_size: 3
    stride: 1
    weight_filler {
      type: "gaussian"
      std: 0.118
    }
    bias_filler {
      type: "constant"
      value: 0
    }
  }
}
layer {
  name: "BatchNorm1"
  type: "BatchNorm"
  bottom: "Convolution1"
  top: "Convolution1"
  param {
    lr_mult: 0
    decay_mult: 0
  }
  param {
    lr_mult: 0
    decay_mult: 0
  }
  param {
    lr_mult: 0
    decay_mult: 0
  }
}
layer {
  name: "Scale1"
  type: "Scale"
  bottom: "Convolution1"
  top: "Convolution1"
  scale_param {
    bias_term: true
  }
}
layer {
  name: "penlu1"
  type: "PENLU"
  bottom: "Convolution1"
  top: "Convolution1"
  param {
    lr_mult: 2
    decay_mult: 2
  }
  param {
    lr_mult: 2
    decay_mult: 2
  }
  param {
    lr_mult: 0
    decay_mult: 0
  }
  penlu_param {
    alpha_filler {
      type: "constant"
      value: 0.25
    }
    beta_filler {
      type: "constant"
      value: 1
    }
    eta_filler {
      type: "constant"
      value: 1
    }
  }
}
layer {
  name: "Convolution2"
  type: "Convolution"
  bottom: "Convolution1"
  top: "Convolution2"
  param {
    lr_mult: 1
    decay_mult: 1
  }
  param {
    lr_mult: 2
    decay_mult: 0
  }
  convolution_param {
    num_output: 16
    pad: 1
    kernel_size: 3
    stride: 1
    weight_filler {
      type: "gaussian"
      std: 0.118
    }
    bias_filler {
      type: "constant"
      value: 0
    }
  }
}
layer {
  name: "BatchNorm2"
  type: "BatchNorm"
  bottom: "Convolution2"
  top: "Convolution2"
  param {
    lr_mult: 0
    decay_mult: 0
  }
  param {
    lr_mult: 0
    decay_mult: 0
  }
  param {
    lr_mult: 0
    decay_mult: 0
  }
}
layer {
  name: "Scale2"
  type: "Scale"
  bottom: "Convolution2"
  top: "Convolution2"
  scale_param {
    bias_term: true
  }
}
layer {
  name: "penlu2"
  type: "PENLU"
  bottom: "Convolution2"
  top: "Convolution2"
  param {
    lr_mult: 2
    decay_mult: 2
  }
  param {
    lr_mult: 2
    decay_mult: 2
  }
  param {
    lr_mult: 0
    decay_mult: 0
  }
  penlu_param {
    alpha_filler {
      type: "constant"
      value: 0.25
    }
    beta_filler {
      type: "constant"
      value: 1
    }
    eta_filler {
      type: "constant"
      value: 1
    }
  }
}
layer {
  name: "Convolution3"
  type: "Convolution"
  bottom: "Convolution2"
  top: "Convolution3"
  param {
    lr_mult: 1
    decay_mult: 1
  }
  param {
    lr_mult: 2
    decay_mult: 0
  }
  convolution_param {
    num_output: 16
    pad: 1
    kernel_size: 3
    stride: 1
    weight_filler {
      type: "gaussian"
      std: 0.118
    }
    bias_filler {
      type: "constant"
      value: 0
    }
  }
}
layer {
  name: "BatchNorm3"
  type: "BatchNorm"
  bottom: "Convolution3"
  top: "Convolution3"
  param {
    lr_mult: 0
    decay_mult: 0
  }
  param {
    lr_mult: 0
    decay_mult: 0
  }
  param {
    lr_mult: 0
    decay_mult: 0
  }
}
layer {
  name: "Scale3"
  type: "Scale"
  bottom: "Convolution3"
  top: "Convolution3"
  scale_param {
    bias_term: true
  }
}
layer {
  name: "Eltwise1"
  type: "Eltwise"
  bottom: "Convolution1"
  bottom: "Convolution3"
  top: "Eltwise1"
  eltwise_param {
    operation: SUM
  }
}
layer {
  name: "penlu3"
  type: "PENLU"
  bottom: "Eltwise1"
  top: "Eltwise1"
  param {
    lr_mult: 2
    decay_mult: 2
  }
  param {
    lr_mult: 2
    decay_mult: 2
  }
  param {
    lr_mult: 0
    decay_mult: 0
  }
  penlu_param {
    alpha_filler {
      type: "constant"
      value: 0.25
    }
    beta_filler {
      type: "constant"
      value: 1
    }
    eta_filler {
      type: "constant"
      value: 1
    }
  }
}
layer {
  name: "Convolution4"
  type: "Convolution"
  bottom: "Eltwise1"
  top: "Convolution4"
  param {
    lr_mult: 1
    decay_mult: 1
  }
  param {
    lr_mult: 2
    decay_mult: 0
  }
  convolution_param {
    num_output: 16
    pad: 1
    kernel_size: 3
    stride: 1
    weight_filler {
      type: "gaussian"
      std: 0.118
    }
    bias_filler {
      type: "constant"
      value: 0
    }
  }
}
layer {
  name: "BatchNorm4"
  type: "BatchNorm"
  bottom: "Convolution4"
  top: "Convolution4"
  param {
    lr_mult: 0
    decay_mult: 0
  }
  param {
    lr_mult: 0
    decay_mult: 0
  }
  param {
    lr_mult: 0
    decay_mult: 0
  }
}
layer {
  name: "Scale4"
  type: "Scale"
  bottom: "Convolution4"
  top: "Convolution4"
  scale_param {
    bias_term: true
  }
}
layer {
  name: "penlu4"
  type: "PENLU"
  bottom: "Convolution4"
  top: "Convolution4"
  param {
    lr_mult: 2
    decay_mult: 2
  }
  param {
    lr_mult: 2
    decay_mult: 2
  }
  param {
    lr_mult: 0
    decay_mult: 0
  }
  penlu_param {
    alpha_filler {
      type: "constant"
      value: 0.25
    }
    beta_filler {
      type: "constant"
      value: 1
    }
    eta_filler {
      type: "constant"
      value: 1
    }
  }
}
layer {
  name: "Convolution5"
  type: "Convolution"
  bottom: "Convolution4"
  top: "Convolution5"
  param {
    lr_mult: 1
    decay_mult: 1
  }
  param {
    lr_mult: 2
    decay_mult: 0
  }
  convolution_param {
    num_output: 16
    pad: 1
    kernel_size: 3
    stride: 1
    weight_filler {
      type: "gaussian"
      std: 0.118
    }
    bias_filler {
      type: "constant"
      value: 0
    }
  }
}
layer {
  name: "BatchNorm5"
  type: "BatchNorm"
  bottom: "Convolution5"
  top: "Convolution5"
  param {
    lr_mult: 0
    decay_mult: 0
  }
  param {
    lr_mult: 0
    decay_mult: 0
  }
  param {
    lr_mult: 0
    decay_mult: 0
  }
}
layer {
  name: "Scale5"
  type: "Scale"
  bottom: "Convolution5"
  top: "Convolution5"
  scale_param {
    bias_term: true
  }
}
layer {
  name: "Eltwise2"
  type: "Eltwise"
  bottom: "Eltwise1"
  bottom: "Convolution5"
  top: "Eltwise2"
  eltwise_param {
    operation: SUM
  }
}
layer {
  name: "penlu5"
  type: "PENLU"
  bottom: "Eltwise2"
  top: "Eltwise2"
  param {
    lr_mult: 2
    decay_mult: 2
  }
  param {
    lr_mult: 2
    decay_mult: 2
  }
  param {
    lr_mult: 0
    decay_mult: 0
  }
  penlu_param {
    alpha_filler {
      type: "constant"
      value: 0.25
    }
    beta_filler {
      type: "constant"
      value: 1
    }
    eta_filler {
      type: "constant"
      value: 1
    }
  }
}
layer {
  name: "Convolution6"
  type: "Convolution"
  bottom: "Eltwise2"
  top: "Convolution6"
  param {
    lr_mult: 1
    decay_mult: 1
  }
  param {
    lr_mult: 2
    decay_mult: 0
  }
  convolution_param {
    num_output: 16
    pad: 1
    kernel_size: 3
    stride: 1
    weight_filler {
      type: "gaussian"
      std: 0.118
    }
    bias_filler {
      type: "constant"
      value: 0
    }
  }
}
layer {
  name: "BatchNorm6"
  type: "BatchNorm"
  bottom: "Convolution6"
  top: "Convolution6"
  param {
    lr_mult: 0
    decay_mult: 0
  }
  param {
    lr_mult: 0
    decay_mult: 0
  }
  param {
    lr_mult: 0
    decay_mult: 0
  }
}
layer {
  name: "Scale6"
  type: "Scale"
  bottom: "Convolution6"
  top: "Convolution6"
  scale_param {
    bias_term: true
  }
}
layer {
  name: "penlu6"
  type: "PENLU"
  bottom: "Convolution6"
  top: "Convolution6"
  param {
    lr_mult: 2
    decay_mult: 2
  }
  param {
    lr_mult: 2
    decay_mult: 2
  }
  param {
    lr_mult: 0
    decay_mult: 0
  }
  penlu_param {
    alpha_filler {
      type: "constant"
      value: 0.25
    }
    beta_filler {
      type: "constant"
      value: 1
    }
    eta_filler {
      type: "constant"
      value: 1
    }
  }
}
layer {
  name: "Convolution7"
  type: "Convolution"
  bottom: "Convolution6"
  top: "Convolution7"
  param {
    lr_mult: 1
    decay_mult: 1
  }
  param {
    lr_mult: 2
    decay_mult: 0
  }
  convolution_param {
    num_output: 16
    pad: 1
    kernel_size: 3
    stride: 1
    weight_filler {
      type: "gaussian"
      std: 0.118
    }
    bias_filler {
      type: "constant"
      value: 0
    }
  }
}
layer {
  name: "BatchNorm7"
  type: "BatchNorm"
  bottom: "Convolution7"
  top: "Convolution7"
  param {
    lr_mult: 0
    decay_mult: 0
  }
  param {
    lr_mult: 0
    decay_mult: 0
  }
  param {
    lr_mult: 0
    decay_mult: 0
  }
}
layer {
  name: "Scale7"
  type: "Scale"
  bottom: "Convolution7"
  top: "Convolution7"
  scale_param {
    bias_term: true
  }
}
layer {
  name: "Eltwise3"
  type: "Eltwise"
  bottom: "Eltwise2"
  bottom: "Convolution7"
  top: "Eltwise3"
  eltwise_param {
    operation: SUM
  }
}
layer {
  name: "penlu7"
  type: "PENLU"
  bottom: "Eltwise3"
  top: "Eltwise3"
  param {
    lr_mult: 2
    decay_mult: 2
  }
  param {
    lr_mult: 2
    decay_mult: 2
  }
  param {
    lr_mult: 0
    decay_mult: 0
  }
  penlu_param {
    alpha_filler {
      type: "constant"
      value: 0.25
    }
    beta_filler {
      type: "constant"
      value: 1
    }
    eta_filler {
      type: "constant"
      value: 1
    }
  }
}
layer {
  name: "Convolution8"
  type: "Convolution"
  bottom: "Eltwise3"
  top: "Convolution8"
  param {
    lr_mult: 1
    decay_mult: 1
  }
  param {
    lr_mult: 2
    decay_mult: 0
  }
  convolution_param {
    num_output: 16
    pad: 1
    kernel_size: 3
    stride: 1
    weight_filler {
      type: "gaussian"
      std: 0.118
    }
    bias_filler {
      type: "constant"
      value: 0
    }
  }
}
layer {
  name: "BatchNorm8"
  type: "BatchNorm"
  bottom: "Convolution8"
  top: "Convolution8"
  param {
    lr_mult: 0
    decay_mult: 0
  }
  param {
    lr_mult: 0
    decay_mult: 0
  }
  param {
    lr_mult: 0
    decay_mult: 0
  }
}
layer {
  name: "Scale8"
  type: "Scale"
  bottom: "Convolution8"
  top: "Convolution8"
  scale_param {
    bias_term: true
  }
}
layer {
  name: "penlu8"
  type: "PENLU"
  bottom: "Convolution8"
  top: "Convolution8"
  param {
    lr_mult: 2
    decay_mult: 2
  }
  param {
    lr_mult: 2
    decay_mult: 2
  }
  param {
    lr_mult: 0
    decay_mult: 0
  }
  penlu_param {
    alpha_filler {
      type: "constant"
      value: 0.25
    }
    beta_filler {
      type: "constant"
      value: 1
    }
    eta_filler {
      type: "constant"
      value: 1
    }
  }
}
layer {
  name: "Convolution9"
  type: "Convolution"
  bottom: "Convolution8"
  top: "Convolution9"
  param {
    lr_mult: 1
    decay_mult: 1
  }
  param {
    lr_mult: 2
    decay_mult: 0
  }
  convolution_param {
    num_output: 16
    pad: 1
    kernel_size: 3
    stride: 1
    weight_filler {
      type: "gaussian"
      std: 0.118
    }
    bias_filler {
      type: "constant"
      value: 0
    }
  }
}
layer {
  name: "BatchNorm9"
  type: "BatchNorm"
  bottom: "Convolution9"
  top: "Convolution9"
  param {
    lr_mult: 0
    decay_mult: 0
  }
  param {
    lr_mult: 0
    decay_mult: 0
  }
  param {
    lr_mult: 0
    decay_mult: 0
  }
}
layer {
  name: "Scale9"
  type: "Scale"
  bottom: "Convolution9"
  top: "Convolution9"
  scale_param {
    bias_term: true
  }
}
layer {
  name: "Eltwise4"
  type: "Eltwise"
  bottom: "Eltwise3"
  bottom: "Convolution9"
  top: "Eltwise4"
  eltwise_param {
    operation: SUM
  }
}
layer {
  name: "penlu9"
  type: "PENLU"
  bottom: "Eltwise4"
  top: "Eltwise4"
  param {
    lr_mult: 2
    decay_mult: 2
  }
  param {
    lr_mult: 2
    decay_mult: 2
  }
  param {
    lr_mult: 0
    decay_mult: 0
  }
  penlu_param {
    alpha_filler {
      type: "constant"
      value: 0.25
    }
    beta_filler {
      type: "constant"
      value: 1
    }
    eta_filler {
      type: "constant"
      value: 1
    }
  }
}
layer {
  name: "Convolution10"
  type: "Convolution"
  bottom: "Eltwise4"
  top: "Convolution10"
  param {
    lr_mult: 1
    decay_mult: 1
  }
  param {
    lr_mult: 2
    decay_mult: 0
  }
  convolution_param {
    num_output: 16
    pad: 1
    kernel_size: 3
    stride: 1
    weight_filler {
      type: "gaussian"
      std: 0.118
    }
    bias_filler {
      type: "constant"
      value: 0
    }
  }
}
layer {
  name: "BatchNorm10"
  type: "BatchNorm"
  bottom: "Convolution10"
  top: "Convolution10"
  param {
    lr_mult: 0
    decay_mult: 0
  }
  param {
    lr_mult: 0
    decay_mult: 0
  }
  param {
    lr_mult: 0
    decay_mult: 0
  }
}
layer {
  name: "Scale10"
  type: "Scale"
  bottom: "Convolution10"
  top: "Convolution10"
  scale_param {
    bias_term: true
  }
}
layer {
  name: "penlu10"
  type: "PENLU"
  bottom: "Convolution10"
  top: "Convolution10"
  param {
    lr_mult: 2
    decay_mult: 2
  }
  param {
    lr_mult: 2
    decay_mult: 2
  }
  param {
    lr_mult: 0
    decay_mult: 0
  }
  penlu_param {
    alpha_filler {
      type: "constant"
      value: 0.25
    }
    beta_filler {
      type: "constant"
      value: 1
    }
    eta_filler {
      type: "constant"
      value: 1
    }
  }
}
layer {
  name: "Convolution11"
  type: "Convolution"
  bottom: "Convolution10"
  top: "Convolution11"
  param {
    lr_mult: 1
    decay_mult: 1
  }
  param {
    lr_mult: 2
    decay_mult: 0
  }
  convolution_param {
    num_output: 16
    pad: 1
    kernel_size: 3
    stride: 1
    weight_filler {
      type: "gaussian"
      std: 0.118
    }
    bias_filler {
      type: "constant"
      value: 0
    }
  }
}
layer {
  name: "BatchNorm11"
  type: "BatchNorm"
  bottom: "Convolution11"
  top: "Convolution11"
  param {
    lr_mult: 0
    decay_mult: 0
  }
  param {
    lr_mult: 0
    decay_mult: 0
  }
  param {
    lr_mult: 0
    decay_mult: 0
  }
}
layer {
  name: "Scale11"
  type: "Scale"
  bottom: "Convolution11"
  top: "Convolution11"
  scale_param {
    bias_term: true
  }
}
layer {
  name: "Eltwise5"
  type: "Eltwise"
  bottom: "Eltwise4"
  bottom: "Convolution11"
  top: "Eltwise5"
  eltwise_param {
    operation: SUM
  }
}
layer {
  name: "penlu11"
  type: "PENLU"
  bottom: "Eltwise5"
  top: "Eltwise5"
  param {
    lr_mult: 2
    decay_mult: 2
  }
  param {
    lr_mult: 2
    decay_mult: 2
  }
  param {
    lr_mult: 0
    decay_mult: 0
  }
  penlu_param {
    alpha_filler {
      type: "constant"
      value: 0.25
    }
    beta_filler {
      type: "constant"
      value: 1
    }
    eta_filler {
      type: "constant"
      value: 1
    }
  }
}
layer {
  name: "Convolution12"
  type: "Convolution"
  bottom: "Eltwise5"
  top: "Convolution12"
  param {
    lr_mult: 1
    decay_mult: 1
  }
  param {
    lr_mult: 2
    decay_mult: 0
  }
  convolution_param {
    num_output: 32
    pad: 0
    kernel_size: 1
    stride: 2
    weight_filler {
      type: "gaussian"
      std: 0.25
    }
    bias_filler {
      type: "constant"
      value: 0
    }
  }
}
layer {
  name: "BatchNorm12"
  type: "BatchNorm"
  bottom: "Convolution12"
  top: "Convolution12"
  param {
    lr_mult: 0
    decay_mult: 0
  }
  param {
    lr_mult: 0
    decay_mult: 0
  }
  param {
    lr_mult: 0
    decay_mult: 0
  }
}
layer {
  name: "Scale12"
  type: "Scale"
  bottom: "Convolution12"
  top: "Convolution12"
  scale_param {
    bias_term: true
  }
}
layer {
  name: "Convolution13"
  type: "Convolution"
  bottom: "Eltwise5"
  top: "Convolution13"
  param {
    lr_mult: 1
    decay_mult: 1
  }
  param {
    lr_mult: 2
    decay_mult: 0
  }
  convolution_param {
    num_output: 32
    pad: 1
    kernel_size: 3
    stride: 2
    weight_filler {
      type: "gaussian"
      std: 0.083
    }
    bias_filler {
      type: "constant"
      value: 0
    }
  }
}
layer {
  name: "BatchNorm13"
  type: "BatchNorm"
  bottom: "Convolution13"
  top: "Convolution13"
  param {
    lr_mult: 0
    decay_mult: 0
  }
  param {
    lr_mult: 0
    decay_mult: 0
  }
  param {
    lr_mult: 0
    decay_mult: 0
  }
}
layer {
  name: "Scale13"
  type: "Scale"
  bottom: "Convolution13"
  top: "Convolution13"
  scale_param {
    bias_term: true
  }
}
layer {
  name: "penlu12"
  type: "PENLU"
  bottom: "Convolution13"
  top: "Convolution13"
  param {
    lr_mult: 2
    decay_mult: 2
  }
  param {
    lr_mult: 2
    decay_mult: 2
  }
  param {
    lr_mult: 0
    decay_mult: 0
  }
  penlu_param {
    alpha_filler {
      type: "constant"
      value: 0.25
    }
    beta_filler {
      type: "constant"
      value: 1
    }
    eta_filler {
      type: "constant"
      value: 1
    }
  }
}
layer {
  name: "Convolution14"
  type: "Convolution"
  bottom: "Convolution13"
  top: "Convolution14"
  param {
    lr_mult: 1
    decay_mult: 1
  }
  param {
    lr_mult: 2
    decay_mult: 0
  }
  convolution_param {
    num_output: 32
    pad: 1
    kernel_size: 3
    stride: 1
    weight_filler {
      type: "gaussian"
      std: 0.083
    }
    bias_filler {
      type: "constant"
      value: 0
    }
  }
}
layer {
  name: "BatchNorm14"
  type: "BatchNorm"
  bottom: "Convolution14"
  top: "Convolution14"
  param {
    lr_mult: 0
    decay_mult: 0
  }
  param {
    lr_mult: 0
    decay_mult: 0
  }
  param {
    lr_mult: 0
    decay_mult: 0
  }
}
layer {
  name: "Scale14"
  type: "Scale"
  bottom: "Convolution14"
  top: "Convolution14"
  scale_param {
    bias_term: true
  }
}
layer {
  name: "Eltwise6"
  type: "Eltwise"
  bottom: "Convolution12"
  bottom: "Convolution14"
  top: "Eltwise6"
  eltwise_param {
    operation: SUM
  }
}
layer {
  name: "penlu13"
  type: "PENLU"
  bottom: "Eltwise6"
  top: "Eltwise6"
  param {
    lr_mult: 2
    decay_mult: 2
  }
  param {
    lr_mult: 2
    decay_mult: 2
  }
  param {
    lr_mult: 0
    decay_mult: 0
  }
  penlu_param {
    alpha_filler {
      type: "constant"
      value: 0.25
    }
    beta_filler {
      type: "constant"
      value: 1
    }
    eta_filler {
      type: "constant"
      value: 1
    }
  }
}
layer {
  name: "Convolution15"
  type: "Convolution"
  bottom: "Eltwise6"
  top: "Convolution15"
  param {
    lr_mult: 1
    decay_mult: 1
  }
  param {
    lr_mult: 2
    decay_mult: 0
  }
  convolution_param {
    num_output: 32
    pad: 1
    kernel_size: 3
    stride: 1
    weight_filler {
      type: "gaussian"
      std: 0.083
    }
    bias_filler {
      type: "constant"
      value: 0
    }
  }
}
layer {
  name: "BatchNorm15"
  type: "BatchNorm"
  bottom: "Convolution15"
  top: "Convolution15"
  param {
    lr_mult: 0
    decay_mult: 0
  }
  param {
    lr_mult: 0
    decay_mult: 0
  }
  param {
    lr_mult: 0
    decay_mult: 0
  }
}
layer {
  name: "Scale15"
  type: "Scale"
  bottom: "Convolution15"
  top: "Convolution15"
  scale_param {
    bias_term: true
  }
}
layer {
  name: "penlu14"
  type: "PENLU"
  bottom: "Convolution15"
  top: "Convolution15"
  param {
    lr_mult: 2
    decay_mult: 2
  }
  param {
    lr_mult: 2
    decay_mult: 2
  }
  param {
    lr_mult: 0
    decay_mult: 0
  }
  penlu_param {
    alpha_filler {
      type: "constant"
      value: 0.25
    }
    beta_filler {
      type: "constant"
      value: 1
    }
    eta_filler {
      type: "constant"
      value: 1
    }
  }
}
layer {
  name: "Convolution16"
  type: "Convolution"
  bottom: "Convolution15"
  top: "Convolution16"
  param {
    lr_mult: 1
    decay_mult: 1
  }
  param {
    lr_mult: 2
    decay_mult: 0
  }
  convolution_param {
    num_output: 32
    pad: 1
    kernel_size: 3
    stride: 1
    weight_filler {
      type: "gaussian"
      std: 0.083
    }
    bias_filler {
      type: "constant"
      value: 0
    }
  }
}
layer {
  name: "BatchNorm16"
  type: "BatchNorm"
  bottom: "Convolution16"
  top: "Convolution16"
  param {
    lr_mult: 0
    decay_mult: 0
  }
  param {
    lr_mult: 0
    decay_mult: 0
  }
  param {
    lr_mult: 0
    decay_mult: 0
  }
}
layer {
  name: "Scale16"
  type: "Scale"
  bottom: "Convolution16"
  top: "Convolution16"
  scale_param {
    bias_term: true
  }
}
layer {
  name: "Eltwise7"
  type: "Eltwise"
  bottom: "Eltwise6"
  bottom: "Convolution16"
  top: "Eltwise7"
  eltwise_param {
    operation: SUM
  }
}
layer {
  name: "penlu15"
  type: "PENLU"
  bottom: "Eltwise7"
  top: "Eltwise7"
  param {
    lr_mult: 2
    decay_mult: 2
  }
  param {
    lr_mult: 2
    decay_mult: 2
  }
  param {
    lr_mult: 0
    decay_mult: 0
  }
  penlu_param {
    alpha_filler {
      type: "constant"
      value: 0.25
    }
    beta_filler {
      type: "constant"
      value: 1
    }
    eta_filler {
      type: "constant"
      value: 1
    }
  }
}
layer {
  name: "Convolution17"
  type: "Convolution"
  bottom: "Eltwise7"
  top: "Convolution17"
  param {
    lr_mult: 1
    decay_mult: 1
  }
  param {
    lr_mult: 2
    decay_mult: 0
  }
  convolution_param {
    num_output: 32
    pad: 1
    kernel_size: 3
    stride: 1
    weight_filler {
      type: "gaussian"
      std: 0.083
    }
    bias_filler {
      type: "constant"
      value: 0
    }
  }
}
layer {
  name: "BatchNorm17"
  type: "BatchNorm"
  bottom: "Convolution17"
  top: "Convolution17"
  param {
    lr_mult: 0
    decay_mult: 0
  }
  param {
    lr_mult: 0
    decay_mult: 0
  }
  param {
    lr_mult: 0
    decay_mult: 0
  }
}
layer {
  name: "Scale17"
  type: "Scale"
  bottom: "Convolution17"
  top: "Convolution17"
  scale_param {
    bias_term: true
  }
}
layer {
  name: "penlu16"
  type: "PENLU"
  bottom: "Convolution17"
  top: "Convolution17"
  param {
    lr_mult: 2
    decay_mult: 2
  }
  param {
    lr_mult: 2
    decay_mult: 2
  }
  param {
    lr_mult: 0
    decay_mult: 0
  }
  penlu_param {
    alpha_filler {
      type: "constant"
      value: 0.25
    }
    beta_filler {
      type: "constant"
      value: 1
    }
    eta_filler {
      type: "constant"
      value: 1
    }
  }
}
layer {
  name: "Convolution18"
  type: "Convolution"
  bottom: "Convolution17"
  top: "Convolution18"
  param {
    lr_mult: 1
    decay_mult: 1
  }
  param {
    lr_mult: 2
    decay_mult: 0
  }
  convolution_param {
    num_output: 32
    pad: 1
    kernel_size: 3
    stride: 1
    weight_filler {
      type: "gaussian"
      std: 0.083
    }
    bias_filler {
      type: "constant"
      value: 0
    }
  }
}
layer {
  name: "BatchNorm18"
  type: "BatchNorm"
  bottom: "Convolution18"
  top: "Convolution18"
  param {
    lr_mult: 0
    decay_mult: 0
  }
  param {
    lr_mult: 0
    decay_mult: 0
  }
  param {
    lr_mult: 0
    decay_mult: 0
  }
}
layer {
  name: "Scale18"
  type: "Scale"
  bottom: "Convolution18"
  top: "Convolution18"
  scale_param {
    bias_term: true
  }
}
layer {
  name: "Eltwise8"
  type: "Eltwise"
  bottom: "Eltwise7"
  bottom: "Convolution18"
  top: "Eltwise8"
  eltwise_param {
    operation: SUM
  }
}
layer {
  name: "penlu17"
  type: "PENLU"
  bottom: "Eltwise8"
  top: "Eltwise8"
  param {
    lr_mult: 2
    decay_mult: 2
  }
  param {
    lr_mult: 2
    decay_mult: 2
  }
  param {
    lr_mult: 0
    decay_mult: 0
  }
  penlu_param {
    alpha_filler {
      type: "constant"
      value: 0.25
    }
    beta_filler {
      type: "constant"
      value: 1
    }
    eta_filler {
      type: "constant"
      value: 1
    }
  }
}
layer {
  name: "Convolution19"
  type: "Convolution"
  bottom: "Eltwise8"
  top: "Convolution19"
  param {
    lr_mult: 1
    decay_mult: 1
  }
  param {
    lr_mult: 2
    decay_mult: 0
  }
  convolution_param {
    num_output: 32
    pad: 1
    kernel_size: 3
    stride: 1
    weight_filler {
      type: "gaussian"
      std: 0.083
    }
    bias_filler {
      type: "constant"
      value: 0
    }
  }
}
layer {
  name: "BatchNorm19"
  type: "BatchNorm"
  bottom: "Convolution19"
  top: "Convolution19"
  param {
    lr_mult: 0
    decay_mult: 0
  }
  param {
    lr_mult: 0
    decay_mult: 0
  }
  param {
    lr_mult: 0
    decay_mult: 0
  }
}
layer {
  name: "Scale19"
  type: "Scale"
  bottom: "Convolution19"
  top: "Convolution19"
  scale_param {
    bias_term: true
  }
}
layer {
  name: "penlu18"
  type: "PENLU"
  bottom: "Convolution19"
  top: "Convolution19"
  param {
    lr_mult: 2
    decay_mult: 2
  }
  param {
    lr_mult: 2
    decay_mult: 2
  }
  param {
    lr_mult: 0
    decay_mult: 0
  }
  penlu_param {
    alpha_filler {
      type: "constant"
      value: 0.25
    }
    beta_filler {
      type: "constant"
      value: 1
    }
    eta_filler {
      type: "constant"
      value: 1
    }
  }
}
layer {
  name: "Convolution20"
  type: "Convolution"
  bottom: "Convolution19"
  top: "Convolution20"
  param {
    lr_mult: 1
    decay_mult: 1
  }
  param {
    lr_mult: 2
    decay_mult: 0
  }
  convolution_param {
    num_output: 32
    pad: 1
    kernel_size: 3
    stride: 1
    weight_filler {
      type: "gaussian"
      std: 0.083
    }
    bias_filler {
      type: "constant"
      value: 0
    }
  }
}
layer {
  name: "BatchNorm20"
  type: "BatchNorm"
  bottom: "Convolution20"
  top: "Convolution20"
  param {
    lr_mult: 0
    decay_mult: 0
  }
  param {
    lr_mult: 0
    decay_mult: 0
  }
  param {
    lr_mult: 0
    decay_mult: 0
  }
}
layer {
  name: "Scale20"
  type: "Scale"
  bottom: "Convolution20"
  top: "Convolution20"
  scale_param {
    bias_term: true
  }
}
layer {
  name: "Eltwise9"
  type: "Eltwise"
  bottom: "Eltwise8"
  bottom: "Convolution20"
  top: "Eltwise9"
  eltwise_param {
    operation: SUM
  }
}
layer {
  name: "penlu19"
  type: "PENLU"
  bottom: "Eltwise9"
  top: "Eltwise9"
  param {
    lr_mult: 2
    decay_mult: 2
  }
  param {
    lr_mult: 2
    decay_mult: 2
  }
  param {
    lr_mult: 0
    decay_mult: 0
  }
  penlu_param {
    alpha_filler {
      type: "constant"
      value: 0.25
    }
    beta_filler {
      type: "constant"
      value: 1
    }
    eta_filler {
      type: "constant"
      value: 1
    }
  }
}
layer {
  name: "Convolution21"
  type: "Convolution"
  bottom: "Eltwise9"
  top: "Convolution21"
  param {
    lr_mult: 1
    decay_mult: 1
  }
  param {
    lr_mult: 2
    decay_mult: 0
  }
  convolution_param {
    num_output: 32
    pad: 1
    kernel_size: 3
    stride: 1
    weight_filler {
      type: "gaussian"
      std: 0.083
    }
    bias_filler {
      type: "constant"
      value: 0
    }
  }
}
layer {
  name: "BatchNorm21"
  type: "BatchNorm"
  bottom: "Convolution21"
  top: "Convolution21"
  param {
    lr_mult: 0
    decay_mult: 0
  }
  param {
    lr_mult: 0
    decay_mult: 0
  }
  param {
    lr_mult: 0
    decay_mult: 0
  }
}
layer {
  name: "Scale21"
  type: "Scale"
  bottom: "Convolution21"
  top: "Convolution21"
  scale_param {
    bias_term: true
  }
}
layer {
  name: "penlu20"
  type: "PENLU"
  bottom: "Convolution21"
  top: "Convolution21"
  param {
    lr_mult: 2
    decay_mult: 2
  }
  param {
    lr_mult: 2
    decay_mult: 2
  }
  param {
    lr_mult: 0
    decay_mult: 0
  }
  penlu_param {
    alpha_filler {
      type: "constant"
      value: 0.25
    }
    beta_filler {
      type: "constant"
      value: 1
    }
    eta_filler {
      type: "constant"
      value: 1
    }
  }
}
layer {
  name: "Convolution22"
  type: "Convolution"
  bottom: "Convolution21"
  top: "Convolution22"
  param {
    lr_mult: 1
    decay_mult: 1
  }
  param {
    lr_mult: 2
    decay_mult: 0
  }
  convolution_param {
    num_output: 32
    pad: 1
    kernel_size: 3
    stride: 1
    weight_filler {
      type: "gaussian"
      std: 0.083
    }
    bias_filler {
      type: "constant"
      value: 0
    }
  }
}
layer {
  name: "BatchNorm22"
  type: "BatchNorm"
  bottom: "Convolution22"
  top: "Convolution22"
  param {
    lr_mult: 0
    decay_mult: 0
  }
  param {
    lr_mult: 0
    decay_mult: 0
  }
  param {
    lr_mult: 0
    decay_mult: 0
  }
}
layer {
  name: "Scale22"
  type: "Scale"
  bottom: "Convolution22"
  top: "Convolution22"
  scale_param {
    bias_term: true
  }
}
layer {
  name: "Eltwise10"
  type: "Eltwise"
  bottom: "Eltwise9"
  bottom: "Convolution22"
  top: "Eltwise10"
  eltwise_param {
    operation: SUM
  }
}
layer {
  name: "penlu21"
  type: "PENLU"
  bottom: "Eltwise10"
  top: "Eltwise10"
  param {
    lr_mult: 2
    decay_mult: 2
  }
  param {
    lr_mult: 2
    decay_mult: 2
  }
  param {
    lr_mult: 0
    decay_mult: 0
  }
  penlu_param {
    alpha_filler {
      type: "constant"
      value: 0.25
    }
    beta_filler {
      type: "constant"
      value: 1
    }
    eta_filler {
      type: "constant"
      value: 1
    }
  }
}
layer {
  name: "Convolution23"
  type: "Convolution"
  bottom: "Eltwise10"
  top: "Convolution23"
  param {
    lr_mult: 1
    decay_mult: 1
  }
  param {
    lr_mult: 2
    decay_mult: 0
  }
  convolution_param {
    num_output: 64
    pad: 0
    kernel_size: 1
    stride: 2
    weight_filler {
      type: "gaussian"
      std: 0.17677669
    }
    bias_filler {
      type: "constant"
      value: 0
    }
  }
}
layer {
  name: "BatchNorm23"
  type: "BatchNorm"
  bottom: "Convolution23"
  top: "Convolution23"
  param {
    lr_mult: 0
    decay_mult: 0
  }
  param {
    lr_mult: 0
    decay_mult: 0
  }
  param {
    lr_mult: 0
    decay_mult: 0
  }
}
layer {
  name: "Scale23"
  type: "Scale"
  bottom: "Convolution23"
  top: "Convolution23"
  scale_param {
    bias_term: true
  }
}
layer {
  name: "Convolution24"
  type: "Convolution"
  bottom: "Eltwise10"
  top: "Convolution24"
  param {
    lr_mult: 1
    decay_mult: 1
  }
  param {
    lr_mult: 2
    decay_mult: 0
  }
  convolution_param {
    num_output: 64
    pad: 1
    kernel_size: 3
    stride: 2
    weight_filler {
      type: "gaussian"
      std: 0.059
    }
    bias_filler {
      type: "constant"
      value: 0
    }
  }
}
layer {
  name: "BatchNorm24"
  type: "BatchNorm"
  bottom: "Convolution24"
  top: "Convolution24"
  param {
    lr_mult: 0
    decay_mult: 0
  }
  param {
    lr_mult: 0
    decay_mult: 0
  }
  param {
    lr_mult: 0
    decay_mult: 0
  }
}
layer {
  name: "Scale24"
  type: "Scale"
  bottom: 
I1006 15:09:05.552814  2964 layer_factory.hpp:77] Creating layer Data1
I1006 15:09:05.552892  2964 db_lmdb.cpp:35] Opened lmdb /home/x306/caffe/xn/PENLU/data/cifar10/cifar10_train_lmdb
I1006 15:09:05.552911  2964 net.cpp:84] Creating Layer Data1
I1006 15:09:05.552917  2964 net.cpp:380] Data1 -> Data1
I1006 15:09:05.552932  2964 net.cpp:380] Data1 -> Data2
I1006 15:09:05.552940  2964 data_transformer.cpp:25] Loading mean file from: /home/x306/caffe/xn/PENLU/data/cifar10/mean.binaryproto
I1006 15:09:05.554330  2964 data_layer.cpp:45] output data size: 100,3,28,28
I1006 15:09:05.556682  2964 net.cpp:122] Setting up Data1
I1006 15:09:05.556696  2964 net.cpp:129] Top shape: 100 3 28 28 (235200)
I1006 15:09:05.556700  2964 net.cpp:129] Top shape: 100 (100)
I1006 15:09:05.556702  2964 net.cpp:137] Memory required for data: 941200
I1006 15:09:05.556708  2964 layer_factory.hpp:77] Creating layer Convolution1
I1006 15:09:05.556725  2964 net.cpp:84] Creating Layer Convolution1
I1006 15:09:05.556731  2964 net.cpp:406] Convolution1 <- Data1
I1006 15:09:05.556740  2964 net.cpp:380] Convolution1 -> Convolution1
I1006 15:09:05.703609  2964 net.cpp:122] Setting up Convolution1
I1006 15:09:05.703644  2964 net.cpp:129] Top shape: 100 16 28 28 (1254400)
I1006 15:09:05.703647  2964 net.cpp:137] Memory required for data: 5958800
I1006 15:09:05.703662  2964 layer_factory.hpp:77] Creating layer BatchNorm1
I1006 15:09:05.703675  2964 net.cpp:84] Creating Layer BatchNorm1
I1006 15:09:05.703692  2964 net.cpp:406] BatchNorm1 <- Convolution1
I1006 15:09:05.703701  2964 net.cpp:367] BatchNorm1 -> Convolution1 (in-place)
I1006 15:09:05.703845  2964 net.cpp:122] Setting up BatchNorm1
I1006 15:09:05.703851  2964 net.cpp:129] Top shape: 100 16 28 28 (1254400)
I1006 15:09:05.703863  2964 net.cpp:137] Memory required for data: 10976400
I1006 15:09:05.703872  2964 layer_factory.hpp:77] Creating layer Scale1
I1006 15:09:05.703883  2964 net.cpp:84] Creating Layer Scale1
I1006 15:09:05.703889  2964 net.cpp:406] Scale1 <- Convolution1
I1006 15:09:05.703903  2964 net.cpp:367] Scale1 -> Convolution1 (in-place)
I1006 15:09:05.703963  2964 layer_factory.hpp:77] Creating layer Scale1
I1006 15:09:05.704068  2964 net.cpp:122] Setting up Scale1
I1006 15:09:05.704074  2964 net.cpp:129] Top shape: 100 16 28 28 (1254400)
I1006 15:09:05.704087  2964 net.cpp:137] Memory required for data: 15994000
I1006 15:09:05.704092  2964 layer_factory.hpp:77] Creating layer penlu1
I1006 15:09:05.704103  2964 net.cpp:84] Creating Layer penlu1
I1006 15:09:05.704109  2964 net.cpp:406] penlu1 <- Convolution1
I1006 15:09:05.704116  2964 net.cpp:367] penlu1 -> Convolution1 (in-place)
I1006 15:09:05.704728  2964 net.cpp:122] Setting up penlu1
I1006 15:09:05.704737  2964 net.cpp:129] Top shape: 100 16 28 28 (1254400)
I1006 15:09:05.704742  2964 net.cpp:137] Memory required for data: 21011600
I1006 15:09:05.704753  2964 layer_factory.hpp:77] Creating layer Convolution1_penlu1_0_split
I1006 15:09:05.704762  2964 net.cpp:84] Creating Layer Convolution1_penlu1_0_split
I1006 15:09:05.704766  2964 net.cpp:406] Convolution1_penlu1_0_split <- Convolution1
I1006 15:09:05.704773  2964 net.cpp:380] Convolution1_penlu1_0_split -> Convolution1_penlu1_0_split_0
I1006 15:09:05.704793  2964 net.cpp:380] Convolution1_penlu1_0_split -> Convolution1_penlu1_0_split_1
I1006 15:09:05.704845  2964 net.cpp:122] Setting up Convolution1_penlu1_0_split
I1006 15:09:05.704864  2964 net.cpp:129] Top shape: 100 16 28 28 (1254400)
I1006 15:09:05.704879  2964 net.cpp:129] Top shape: 100 16 28 28 (1254400)
I1006 15:09:05.704882  2964 net.cpp:137] Memory required for data: 31046800
I1006 15:09:05.704885  2964 layer_factory.hpp:77] Creating layer Convolution2
I1006 15:09:05.704896  2964 net.cpp:84] Creating Layer Convolution2
I1006 15:09:05.704902  2964 net.cpp:406] Convolution2 <- Convolution1_penlu1_0_split_0
I1006 15:09:05.704917  2964 net.cpp:380] Convolution2 -> Convolution2
I1006 15:09:05.705796  2964 net.cpp:122] Setting up Convolution2
I1006 15:09:05.705807  2964 net.cpp:129] Top shape: 100 16 28 28 (1254400)
I1006 15:09:05.705821  2964 net.cpp:137] Memory required for data: 36064400
I1006 15:09:05.705826  2964 layer_factory.hpp:77] Creating layer BatchNorm2
I1006 15:09:05.705834  2964 net.cpp:84] Creating Layer BatchNorm2
I1006 15:09:05.705840  2964 net.cpp:406] BatchNorm2 <- Convolution2
I1006 15:09:05.705847  2964 net.cpp:367] BatchNorm2 -> Convolution2 (in-place)
I1006 15:09:05.705976  2964 net.cpp:122] Setting up BatchNorm2
I1006 15:09:05.705983  2964 net.cpp:129] Top shape: 100 16 28 28 (1254400)
I1006 15:09:05.705987  2964 net.cpp:137] Memory required for data: 41082000
I1006 15:09:05.705997  2964 layer_factory.hpp:77] Creating layer Scale2
I1006 15:09:05.706007  2964 net.cpp:84] Creating Layer Scale2
I1006 15:09:05.706012  2964 net.cpp:406] Scale2 <- Convolution2
I1006 15:09:05.706019  2964 net.cpp:367] Scale2 -> Convolution2 (in-place)
I1006 15:09:05.706054  2964 layer_factory.hpp:77] Creating layer Scale2
I1006 15:09:05.706137  2964 net.cpp:122] Setting up Scale2
I1006 15:09:05.706145  2964 net.cpp:129] Top shape: 100 16 28 28 (1254400)
I1006 15:09:05.706148  2964 net.cpp:137] Memory required for data: 46099600
I1006 15:09:05.706158  2964 layer_factory.hpp:77] Creating layer penlu2
I1006 15:09:05.706168  2964 net.cpp:84] Creating Layer penlu2
I1006 15:09:05.706174  2964 net.cpp:406] penlu2 <- Convolution2
I1006 15:09:05.706179  2964 net.cpp:367] penlu2 -> Convolution2 (in-place)
I1006 15:09:05.706279  2964 net.cpp:122] Setting up penlu2
I1006 15:09:05.706292  2964 net.cpp:129] Top shape: 100 16 28 28 (1254400)
I1006 15:09:05.706295  2964 net.cpp:137] Memory required for data: 51117200
I1006 15:09:05.706300  2964 layer_factory.hpp:77] Creating layer Convolution3
I1006 15:09:05.706308  2964 net.cpp:84] Creating Layer Convolution3
I1006 15:09:05.706311  2964 net.cpp:406] Convolution3 <- Convolution2
I1006 15:09:05.706315  2964 net.cpp:380] Convolution3 -> Convolution3
I1006 15:09:05.707204  2964 net.cpp:122] Setting up Convolution3
I1006 15:09:05.707216  2964 net.cpp:129] Top shape: 100 16 28 28 (1254400)
I1006 15:09:05.707219  2964 net.cpp:137] Memory required for data: 56134800
I1006 15:09:05.707223  2964 layer_factory.hpp:77] Creating layer BatchNorm3
I1006 15:09:05.707229  2964 net.cpp:84] Creating Layer BatchNorm3
I1006 15:09:05.707232  2964 net.cpp:406] BatchNorm3 <- Convolution3
I1006 15:09:05.707237  2964 net.cpp:367] BatchNorm3 -> Convolution3 (in-place)
I1006 15:09:05.707365  2964 net.cpp:122] Setting up BatchNorm3
I1006 15:09:05.707370  2964 net.cpp:129] Top shape: 100 16 28 28 (1254400)
I1006 15:09:05.707373  2964 net.cpp:137] Memory required for data: 61152400
I1006 15:09:05.707378  2964 layer_factory.hpp:77] Creating layer Scale3
I1006 15:09:05.707383  2964 net.cpp:84] Creating Layer Scale3
I1006 15:09:05.707386  2964 net.cpp:406] Scale3 <- Convolution3
I1006 15:09:05.707391  2964 net.cpp:367] Scale3 -> Convolution3 (in-place)
I1006 15:09:05.707415  2964 layer_factory.hpp:77] Creating layer Scale3
I1006 15:09:05.707490  2964 net.cpp:122] Setting up Scale3
I1006 15:09:05.707495  2964 net.cpp:129] Top shape: 100 16 28 28 (1254400)
I1006 15:09:05.707499  2964 net.cpp:137] Memory required for data: 66170000
I1006 15:09:05.707502  2964 layer_factory.hpp:77] Creating layer Eltwise1
I1006 15:09:05.707507  2964 net.cpp:84] Creating Layer Eltwise1
I1006 15:09:05.707510  2964 net.cpp:406] Eltwise1 <- Convolution1_penlu1_0_split_1
I1006 15:09:05.707514  2964 net.cpp:406] Eltwise1 <- Convolution3
I1006 15:09:05.707517  2964 net.cpp:380] Eltwise1 -> Eltwise1
I1006 15:09:05.707535  2964 net.cpp:122] Setting up Eltwise1
I1006 15:09:05.707540  2964 net.cpp:129] Top shape: 100 16 28 28 (1254400)
I1006 15:09:05.707542  2964 net.cpp:137] Memory required for data: 71187600
I1006 15:09:05.707545  2964 layer_factory.hpp:77] Creating layer penlu3
I1006 15:09:05.707550  2964 net.cpp:84] Creating Layer penlu3
I1006 15:09:05.707552  2964 net.cpp:406] penlu3 <- Eltwise1
I1006 15:09:05.707557  2964 net.cpp:367] penlu3 -> Eltwise1 (in-place)
I1006 15:09:05.707659  2964 net.cpp:122] Setting up penlu3
I1006 15:09:05.707664  2964 net.cpp:129] Top shape: 100 16 28 28 (1254400)
I1006 15:09:05.707665  2964 net.cpp:137] Memory required for data: 76205200
I1006 15:09:05.707670  2964 layer_factory.hpp:77] Creating layer Eltwise1_penlu3_0_split
I1006 15:09:05.707674  2964 net.cpp:84] Creating Layer Eltwise1_penlu3_0_split
I1006 15:09:05.707677  2964 net.cpp:406] Eltwise1_penlu3_0_split <- Eltwise1
I1006 15:09:05.707680  2964 net.cpp:380] Eltwise1_penlu3_0_split -> Eltwise1_penlu3_0_split_0
I1006 15:09:05.707686  2964 net.cpp:380] Eltwise1_penlu3_0_split -> Eltwise1_penlu3_0_split_1
I1006 15:09:05.707707  2964 net.cpp:122] Setting up Eltwise1_penlu3_0_split
I1006 15:09:05.707712  2964 net.cpp:129] Top shape: 100 16 28 28 (1254400)
I1006 15:09:05.707716  2964 net.cpp:129] Top shape: 100 16 28 28 (1254400)
I1006 15:09:05.707718  2964 net.cpp:137] Memory required for data: 86240400
I1006 15:09:05.707720  2964 layer_factory.hpp:77] Creating layer Convolution4
I1006 15:09:05.707728  2964 net.cpp:84] Creating Layer Convolution4
I1006 15:09:05.707731  2964 net.cpp:406] Convolution4 <- Eltwise1_penlu3_0_split_0
I1006 15:09:05.707736  2964 net.cpp:380] Convolution4 -> Convolution4
I1006 15:09:05.708622  2964 net.cpp:122] Setting up Convolution4
I1006 15:09:05.708633  2964 net.cpp:129] Top shape: 100 16 28 28 (1254400)
I1006 15:09:05.708636  2964 net.cpp:137] Memory required for data: 91258000
I1006 15:09:05.708642  2964 layer_factory.hpp:77] Creating layer BatchNorm4
I1006 15:09:05.708647  2964 net.cpp:84] Creating Layer BatchNorm4
I1006 15:09:05.708657  2964 net.cpp:406] BatchNorm4 <- Convolution4
I1006 15:09:05.708662  2964 net.cpp:367] BatchNorm4 -> Convolution4 (in-place)
I1006 15:09:05.708786  2964 net.cpp:122] Setting up BatchNorm4
I1006 15:09:05.708791  2964 net.cpp:129] Top shape: 100 16 28 28 (1254400)
I1006 15:09:05.708794  2964 net.cpp:137] Memory required for data: 96275600
I1006 15:09:05.708802  2964 layer_factory.hpp:77] Creating layer Scale4
I1006 15:09:05.708807  2964 net.cpp:84] Creating Layer Scale4
I1006 15:09:05.708811  2964 net.cpp:406] Scale4 <- Convolution4
I1006 15:09:05.708814  2964 net.cpp:367] Scale4 -> Convolution4 (in-place)
I1006 15:09:05.708840  2964 layer_factory.hpp:77] Creating layer Scale4
I1006 15:09:05.708914  2964 net.cpp:122] Setting up Scale4
I1006 15:09:05.708920  2964 net.cpp:129] Top shape: 100 16 28 28 (1254400)
I1006 15:09:05.708922  2964 net.cpp:137] Memory required for data: 101293200
I1006 15:09:05.708926  2964 layer_factory.hpp:77] Creating layer penlu4
I1006 15:09:05.708932  2964 net.cpp:84] Creating Layer penlu4
I1006 15:09:05.708935  2964 net.cpp:406] penlu4 <- Convolution4
I1006 15:09:05.708940  2964 net.cpp:367] penlu4 -> Convolution4 (in-place)
I1006 15:09:05.709038  2964 net.cpp:122] Setting up penlu4
I1006 15:09:05.709043  2964 net.cpp:129] Top shape: 100 16 28 28 (1254400)
I1006 15:09:05.709046  2964 net.cpp:137] Memory required for data: 106310800
I1006 15:09:05.709051  2964 layer_factory.hpp:77] Creating layer Convolution5
I1006 15:09:05.709059  2964 net.cpp:84] Creating Layer Convolution5
I1006 15:09:05.709061  2964 net.cpp:406] Convolution5 <- Convolution4
I1006 15:09:05.709065  2964 net.cpp:380] Convolution5 -> Convolution5
I1006 15:09:05.709956  2964 net.cpp:122] Setting up Convolution5
I1006 15:09:05.709967  2964 net.cpp:129] Top shape: 100 16 28 28 (1254400)
I1006 15:09:05.709970  2964 net.cpp:137] Memory required for data: 111328400
I1006 15:09:05.709975  2964 layer_factory.hpp:77] Creating layer BatchNorm5
I1006 15:09:05.709980  2964 net.cpp:84] Creating Layer BatchNorm5
I1006 15:09:05.709983  2964 net.cpp:406] BatchNorm5 <- Convolution5
I1006 15:09:05.709988  2964 net.cpp:367] BatchNorm5 -> Convolution5 (in-place)
I1006 15:09:05.710115  2964 net.cpp:122] Setting up BatchNorm5
I1006 15:09:05.710120  2964 net.cpp:129] Top shape: 100 16 28 28 (1254400)
I1006 15:09:05.710124  2964 net.cpp:137] Memory required for data: 116346000
I1006 15:09:05.710129  2964 layer_factory.hpp:77] Creating layer Scale5
I1006 15:09:05.710134  2964 net.cpp:84] Creating Layer Scale5
I1006 15:09:05.710136  2964 net.cpp:406] Scale5 <- Convolution5
I1006 15:09:05.710139  2964 net.cpp:367] Scale5 -> Convolution5 (in-place)
I1006 15:09:05.710165  2964 layer_factory.hpp:77] Creating layer Scale5
I1006 15:09:05.710242  2964 net.cpp:122] Setting up Scale5
I1006 15:09:05.710247  2964 net.cpp:129] Top shape: 100 16 28 28 (1254400)
I1006 15:09:05.710248  2964 net.cpp:137] Memory required for data: 121363600
I1006 15:09:05.710253  2964 layer_factory.hpp:77] Creating layer Eltwise2
I1006 15:09:05.710258  2964 net.cpp:84] Creating Layer Eltwise2
I1006 15:09:05.710260  2964 net.cpp:406] Eltwise2 <- Eltwise1_penlu3_0_split_1
I1006 15:09:05.710263  2964 net.cpp:406] Eltwise2 <- Convolution5
I1006 15:09:05.710266  2964 net.cpp:380] Eltwise2 -> Eltwise2
I1006 15:09:05.710283  2964 net.cpp:122] Setting up Eltwise2
I1006 15:09:05.710288  2964 net.cpp:129] Top shape: 100 16 28 28 (1254400)
I1006 15:09:05.710289  2964 net.cpp:137] Memory required for data: 126381200
I1006 15:09:05.710291  2964 layer_factory.hpp:77] Creating layer penlu5
I1006 15:09:05.710297  2964 net.cpp:84] Creating Layer penlu5
I1006 15:09:05.710300  2964 net.cpp:406] penlu5 <- Eltwise2
I1006 15:09:05.710304  2964 net.cpp:367] penlu5 -> Eltwise2 (in-place)
I1006 15:09:05.710407  2964 net.cpp:122] Setting up penlu5
I1006 15:09:05.710412  2964 net.cpp:129] Top shape: 100 16 28 28 (1254400)
I1006 15:09:05.710414  2964 net.cpp:137] Memory required for data: 131398800
I1006 15:09:05.710419  2964 layer_factory.hpp:77] Creating layer Eltwise2_penlu5_0_split
I1006 15:09:05.710430  2964 net.cpp:84] Creating Layer Eltwise2_penlu5_0_split
I1006 15:09:05.710433  2964 net.cpp:406] Eltwise2_penlu5_0_split <- Eltwise2
I1006 15:09:05.710438  2964 net.cpp:380] Eltwise2_penlu5_0_split -> Eltwise2_penlu5_0_split_0
I1006 15:09:05.710441  2964 net.cpp:380] Eltwise2_penlu5_0_split -> Eltwise2_penlu5_0_split_1
I1006 15:09:05.710466  2964 net.cpp:122] Setting up Eltwise2_penlu5_0_split
I1006 15:09:05.710470  2964 net.cpp:129] Top shape: 100 16 28 28 (1254400)
I1006 15:09:05.710474  2964 net.cpp:129] Top shape: 100 16 28 28 (1254400)
I1006 15:09:05.710476  2964 net.cpp:137] Memory required for data: 141434000
I1006 15:09:05.710479  2964 layer_factory.hpp:77] Creating layer Convolution6
I1006 15:09:05.710485  2964 net.cpp:84] Creating Layer Convolution6
I1006 15:09:05.710489  2964 net.cpp:406] Convolution6 <- Eltwise2_penlu5_0_split_0
I1006 15:09:05.710492  2964 net.cpp:380] Convolution6 -> Convolution6
I1006 15:09:05.711395  2964 net.cpp:122] Setting up Convolution6
I1006 15:09:05.711405  2964 net.cpp:129] Top shape: 100 16 28 28 (1254400)
I1006 15:09:05.711410  2964 net.cpp:137] Memory required for data: 146451600
I1006 15:09:05.711414  2964 layer_factory.hpp:77] Creating layer BatchNorm6
I1006 15:09:05.711421  2964 net.cpp:84] Creating Layer BatchNorm6
I1006 15:09:05.711423  2964 net.cpp:406] BatchNorm6 <- Convolution6
I1006 15:09:05.711427  2964 net.cpp:367] BatchNorm6 -> Convolution6 (in-place)
I1006 15:09:05.711560  2964 net.cpp:122] Setting up BatchNorm6
I1006 15:09:05.711565  2964 net.cpp:129] Top shape: 100 16 28 28 (1254400)
I1006 15:09:05.711567  2964 net.cpp:137] Memory required for data: 151469200
I1006 15:09:05.711572  2964 layer_factory.hpp:77] Creating layer Scale6
I1006 15:09:05.711580  2964 net.cpp:84] Creating Layer Scale6
I1006 15:09:05.711583  2964 net.cpp:406] Scale6 <- Convolution6
I1006 15:09:05.711586  2964 net.cpp:367] Scale6 -> Convolution6 (in-place)
I1006 15:09:05.711613  2964 layer_factory.hpp:77] Creating layer Scale6
I1006 15:09:05.711689  2964 net.cpp:122] Setting up Scale6
I1006 15:09:05.711694  2964 net.cpp:129] Top shape: 100 16 28 28 (1254400)
I1006 15:09:05.711697  2964 net.cpp:137] Memory required for data: 156486800
I1006 15:09:05.711700  2964 layer_factory.hpp:77] Creating layer penlu6
I1006 15:09:05.711707  2964 net.cpp:84] Creating Layer penlu6
I1006 15:09:05.711710  2964 net.cpp:406] penlu6 <- Convolution6
I1006 15:09:05.711714  2964 net.cpp:367] penlu6 -> Convolution6 (in-place)
I1006 15:09:05.711817  2964 net.cpp:122] Setting up penlu6
I1006 15:09:05.711822  2964 net.cpp:129] Top shape: 100 16 28 28 (1254400)
I1006 15:09:05.711825  2964 net.cpp:137] Memory required for data: 161504400
I1006 15:09:05.711829  2964 layer_factory.hpp:77] Creating layer Convolution7
I1006 15:09:05.711838  2964 net.cpp:84] Creating Layer Convolution7
I1006 15:09:05.711840  2964 net.cpp:406] Convolution7 <- Convolution6
I1006 15:09:05.711844  2964 net.cpp:380] Convolution7 -> Convolution7
I1006 15:09:05.712407  2964 net.cpp:122] Setting up Convolution7
I1006 15:09:05.712416  2964 net.cpp:129] Top shape: 100 16 28 28 (1254400)
I1006 15:09:05.712419  2964 net.cpp:137] Memory required for data: 166522000
I1006 15:09:05.712424  2964 layer_factory.hpp:77] Creating layer BatchNorm7
I1006 15:09:05.712430  2964 net.cpp:84] Creating Layer BatchNorm7
I1006 15:09:05.712433  2964 net.cpp:406] BatchNorm7 <- Convolution7
I1006 15:09:05.712436  2964 net.cpp:367] BatchNorm7 -> Convolution7 (in-place)
I1006 15:09:05.712566  2964 net.cpp:122] Setting up BatchNorm7
I1006 15:09:05.712571  2964 net.cpp:129] Top shape: 100 16 28 28 (1254400)
I1006 15:09:05.712574  2964 net.cpp:137] Memory required for data: 171539600
I1006 15:09:05.712584  2964 layer_factory.hpp:77] Creating layer Scale7
I1006 15:09:05.712591  2964 net.cpp:84] Creating Layer Scale7
I1006 15:09:05.712594  2964 net.cpp:406] Scale7 <- Convolution7
I1006 15:09:05.712597  2964 net.cpp:367] Scale7 -> Convolution7 (in-place)
I1006 15:09:05.712625  2964 layer_factory.hpp:77] Creating layer Scale7
I1006 15:09:05.712710  2964 net.cpp:122] Setting up Scale7
I1006 15:09:05.712718  2964 net.cpp:129] Top shape: 100 16 28 28 (1254400)
I1006 15:09:05.712720  2964 net.cpp:137] Memory required for data: 176557200
I1006 15:09:05.712724  2964 layer_factory.hpp:77] Creating layer Eltwise3
I1006 15:09:05.712728  2964 net.cpp:84] Creating Layer Eltwise3
I1006 15:09:05.712731  2964 net.cpp:406] Eltwise3 <- Eltwise2_penlu5_0_split_1
I1006 15:09:05.712734  2964 net.cpp:406] Eltwise3 <- Convolution7
I1006 15:09:05.712738  2964 net.cpp:380] Eltwise3 -> Eltwise3
I1006 15:09:05.712754  2964 net.cpp:122] Setting up Eltwise3
I1006 15:09:05.712759  2964 net.cpp:129] Top shape: 100 16 28 28 (1254400)
I1006 15:09:05.712760  2964 net.cpp:137] Memory required for data: 181574800
I1006 15:09:05.712762  2964 layer_factory.hpp:77] Creating layer penlu7
I1006 15:09:05.712767  2964 net.cpp:84] Creating Layer penlu7
I1006 15:09:05.712770  2964 net.cpp:406] penlu7 <- Eltwise3
I1006 15:09:05.712775  2964 net.cpp:367] penlu7 -> Eltwise3 (in-place)
I1006 15:09:05.712882  2964 net.cpp:122] Setting up penlu7
I1006 15:09:05.712888  2964 net.cpp:129] Top shape: 100 16 28 28 (1254400)
I1006 15:09:05.712889  2964 net.cpp:137] Memory required for data: 186592400
I1006 15:09:05.712894  2964 layer_factory.hpp:77] Creating layer Eltwise3_penlu7_0_split
I1006 15:09:05.712899  2964 net.cpp:84] Creating Layer Eltwise3_penlu7_0_split
I1006 15:09:05.712903  2964 net.cpp:406] Eltwise3_penlu7_0_split <- Eltwise3
I1006 15:09:05.712905  2964 net.cpp:380] Eltwise3_penlu7_0_split -> Eltwise3_penlu7_0_split_0
I1006 15:09:05.712909  2964 net.cpp:380] Eltwise3_penlu7_0_split -> Eltwise3_penlu7_0_split_1
I1006 15:09:05.712932  2964 net.cpp:122] Setting up Eltwise3_penlu7_0_split
I1006 15:09:05.712936  2964 net.cpp:129] Top shape: 100 16 28 28 (1254400)
I1006 15:09:05.712939  2964 net.cpp:129] Top shape: 100 16 28 28 (1254400)
I1006 15:09:05.712942  2964 net.cpp:137] Memory required for data: 196627600
I1006 15:09:05.712944  2964 layer_factory.hpp:77] Creating layer Convolution8
I1006 15:09:05.712950  2964 net.cpp:84] Creating Layer Convolution8
I1006 15:09:05.712954  2964 net.cpp:406] Convolution8 <- Eltwise3_penlu7_0_split_0
I1006 15:09:05.712958  2964 net.cpp:380] Convolution8 -> Convolution8
I1006 15:09:05.713845  2964 net.cpp:122] Setting up Convolution8
I1006 15:09:05.713855  2964 net.cpp:129] Top shape: 100 16 28 28 (1254400)
I1006 15:09:05.713857  2964 net.cpp:137] Memory required for data: 201645200
I1006 15:09:05.713862  2964 layer_factory.hpp:77] Creating layer BatchNorm8
I1006 15:09:05.713867  2964 net.cpp:84] Creating Layer BatchNorm8
I1006 15:09:05.713871  2964 net.cpp:406] BatchNorm8 <- Convolution8
I1006 15:09:05.713876  2964 net.cpp:367] BatchNorm8 -> Convolution8 (in-place)
I1006 15:09:05.714005  2964 net.cpp:122] Setting up BatchNorm8
I1006 15:09:05.714010  2964 net.cpp:129] Top shape: 100 16 28 28 (1254400)
I1006 15:09:05.714013  2964 net.cpp:137] Memory required for data: 206662800
I1006 15:09:05.714018  2964 layer_factory.hpp:77] Creating layer Scale8
I1006 15:09:05.714022  2964 net.cpp:84] Creating Layer Scale8
I1006 15:09:05.714025  2964 net.cpp:406] Scale8 <- Convolution8
I1006 15:09:05.714030  2964 net.cpp:367] Scale8 -> Convolution8 (in-place)
I1006 15:09:05.714056  2964 layer_factory.hpp:77] Creating layer Scale8
I1006 15:09:05.714133  2964 net.cpp:122] Setting up Scale8
I1006 15:09:05.714138  2964 net.cpp:129] Top shape: 100 16 28 28 (1254400)
I1006 15:09:05.714140  2964 net.cpp:137] Memory required for data: 211680400
I1006 15:09:05.714145  2964 layer_factory.hpp:77] Creating layer penlu8
I1006 15:09:05.714150  2964 net.cpp:84] Creating Layer penlu8
I1006 15:09:05.714154  2964 net.cpp:406] penlu8 <- Convolution8
I1006 15:09:05.714157  2964 net.cpp:367] penlu8 -> Convolution8 (in-place)
I1006 15:09:05.714284  2964 net.cpp:122] Setting up penlu8
I1006 15:09:05.714293  2964 net.cpp:129] Top shape: 100 16 28 28 (1254400)
I1006 15:09:05.714298  2964 net.cpp:137] Memory required for data: 216698000
I1006 15:09:05.714306  2964 layer_factory.hpp:77] Creating layer Convolution9
I1006 15:09:05.714326  2964 net.cpp:84] Creating Layer Convolution9
I1006 15:09:05.714332  2964 net.cpp:406] Convolution9 <- Convolution8
I1006 15:09:05.714340  2964 net.cpp:380] Convolution9 -> Convolution9
I1006 15:09:05.715613  2964 net.cpp:122] Setting up Convolution9
I1006 15:09:05.715627  2964 net.cpp:129] Top shape: 100 16 28 28 (1254400)
I1006 15:09:05.715633  2964 net.cpp:137] Memory required for data: 221715600
I1006 15:09:05.715641  2964 layer_factory.hpp:77] Creating layer BatchNorm9
I1006 15:09:05.715651  2964 net.cpp:84] Creating Layer BatchNorm9
I1006 15:09:05.715656  2964 net.cpp:406] BatchNorm9 <- Convolution9
I1006 15:09:05.715662  2964 net.cpp:367] BatchNorm9 -> Convolution9 (in-place)
I1006 15:09:05.715852  2964 net.cpp:122] Setting up BatchNorm9
I1006 15:09:05.715864  2964 net.cpp:129] Top shape: 100 16 28 28 (1254400)
I1006 15:09:05.715868  2964 net.cpp:137] Memory required for data: 226733200
I1006 15:09:05.715876  2964 layer_factory.hpp:77] Creating layer Scale9
I1006 15:09:05.715885  2964 net.cpp:84] Creating Layer Scale9
I1006 15:09:05.715890  2964 net.cpp:406] Scale9 <- Convolution9
I1006 15:09:05.715898  2964 net.cpp:367] Scale9 -> Convolution9 (in-place)
I1006 15:09:05.715943  2964 layer_factory.hpp:77] Creating layer Scale9
I1006 15:09:05.716065  2964 net.cpp:122] Setting up Scale9
I1006 15:09:05.716074  2964 net.cpp:129] Top shape: 100 16 28 28 (1254400)
I1006 15:09:05.716076  2964 net.cpp:137] Memory required for data: 231750800
I1006 15:09:05.716081  2964 layer_factory.hpp:77] Creating layer Eltwise4
I1006 15:09:05.716086  2964 net.cpp:84] Creating Layer Eltwise4
I1006 15:09:05.716089  2964 net.cpp:406] Eltwise4 <- Eltwise3_penlu7_0_split_1
I1006 15:09:05.716092  2964 net.cpp:406] Eltwise4 <- Convolution9
I1006 15:09:05.716097  2964 net.cpp:380] Eltwise4 -> Eltwise4
I1006 15:09:05.716115  2964 net.cpp:122] Setting up Eltwise4
I1006 15:09:05.716120  2964 net.cpp:129] Top shape: 100 16 28 28 (1254400)
I1006 15:09:05.716122  2964 net.cpp:137] Memory required for data: 236768400
I1006 15:09:05.716125  2964 layer_factory.hpp:77] Creating layer penlu9
I1006 15:09:05.716130  2964 net.cpp:84] Creating Layer penlu9
I1006 15:09:05.716133  2964 net.cpp:406] penlu9 <- Eltwise4
I1006 15:09:05.716137  2964 net.cpp:367] penlu9 -> Eltwise4 (in-place)
I1006 15:09:05.716248  2964 net.cpp:122] Setting up penlu9
I1006 15:09:05.716253  2964 net.cpp:129] Top shape: 100 16 28 28 (1254400)
I1006 15:09:05.716255  2964 net.cpp:137] Memory required for data: 241786000
I1006 15:09:05.716260  2964 layer_factory.hpp:77] Creating layer Eltwise4_penlu9_0_split
I1006 15:09:05.716264  2964 net.cpp:84] Creating Layer Eltwise4_penlu9_0_split
I1006 15:09:05.716267  2964 net.cpp:406] Eltwise4_penlu9_0_split <- Eltwise4
I1006 15:09:05.716272  2964 net.cpp:380] Eltwise4_penlu9_0_split -> Eltwise4_penlu9_0_split_0
I1006 15:09:05.716276  2964 net.cpp:380] Eltwise4_penlu9_0_split -> Eltwise4_penlu9_0_split_1
I1006 15:09:05.716298  2964 net.cpp:122] Setting up Eltwise4_penlu9_0_split
I1006 15:09:05.716303  2964 net.cpp:129] Top shape: 100 16 28 28 (1254400)
I1006 15:09:05.716306  2964 net.cpp:129] Top shape: 100 16 28 28 (1254400)
I1006 15:09:05.716308  2964 net.cpp:137] Memory required for data: 251821200
I1006 15:09:05.716311  2964 layer_factory.hpp:77] Creating layer Convolution10
I1006 15:09:05.716318  2964 net.cpp:84] Creating Layer Convolution10
I1006 15:09:05.716321  2964 net.cpp:406] Convolution10 <- Eltwise4_penlu9_0_split_0
I1006 15:09:05.716326  2964 net.cpp:380] Convolution10 -> Convolution10
I1006 15:09:05.717233  2964 net.cpp:122] Setting up Convolution10
I1006 15:09:05.717244  2964 net.cpp:129] Top shape: 100 16 28 28 (1254400)
I1006 15:09:05.717247  2964 net.cpp:137] Memory required for data: 256838800
I1006 15:09:05.717252  2964 layer_factory.hpp:77] Creating layer BatchNorm10
I1006 15:09:05.717258  2964 net.cpp:84] Creating Layer BatchNorm10
I1006 15:09:05.717262  2964 net.cpp:406] BatchNorm10 <- Convolution10
I1006 15:09:05.717267  2964 net.cpp:367] BatchNorm10 -> Convolution10 (in-place)
I1006 15:09:05.717406  2964 net.cpp:122] Setting up BatchNorm10
I1006 15:09:05.717411  2964 net.cpp:129] Top shape: 100 16 28 28 (1254400)
I1006 15:09:05.717414  2964 net.cpp:137] Memory required for data: 261856400
I1006 15:09:05.717419  2964 layer_factory.hpp:77] Creating layer Scale10
I1006 15:09:05.717424  2964 net.cpp:84] Creating Layer Scale10
I1006 15:09:05.717427  2964 net.cpp:406] Scale10 <- Convolution10
I1006 15:09:05.717432  2964 net.cpp:367] Scale10 -> Convolution10 (in-place)
I1006 15:09:05.717458  2964 layer_factory.hpp:77] Creating layer Scale10
I1006 15:09:05.717535  2964 net.cpp:122] Setting up Scale10
I1006 15:09:05.717540  2964 net.cpp:129] Top shape: 100 16 28 28 (1254400)
I1006 15:09:05.717543  2964 net.cpp:137] Memory required for data: 266874000
I1006 15:09:05.717547  2964 layer_factory.hpp:77] Creating layer penlu10
I1006 15:09:05.717553  2964 net.cpp:84] Creating Layer penlu10
I1006 15:09:05.717556  2964 net.cpp:406] penlu10 <- Convolution10
I1006 15:09:05.717561  2964 net.cpp:367] penlu10 -> Convolution10 (in-place)
I1006 15:09:05.717667  2964 net.cpp:122] Setting up penlu10
I1006 15:09:05.717672  2964 net.cpp:129] Top shape: 100 16 28 28 (1254400)
I1006 15:09:05.717675  2964 net.cpp:137] Memory required for data: 271891600
I1006 15:09:05.717680  2964 layer_factory.hpp:77] Creating layer Convolution11
I1006 15:09:05.717689  2964 net.cpp:84] Creating Layer Convolution11
I1006 15:09:05.717691  2964 net.cpp:406] Convolution11 <- Convolution10
I1006 15:09:05.717695  2964 net.cpp:380] Convolution11 -> Convolution11
I1006 15:09:05.718617  2964 net.cpp:122] Setting up Convolution11
I1006 15:09:05.718627  2964 net.cpp:129] Top shape: 100 16 28 28 (1254400)
I1006 15:09:05.718639  2964 net.cpp:137] Memory required for data: 276909200
I1006 15:09:05.718644  2964 layer_factory.hpp:77] Creating layer BatchNorm11
I1006 15:09:05.718650  2964 net.cpp:84] Creating Layer BatchNorm11
I1006 15:09:05.718654  2964 net.cpp:406] BatchNorm11 <- Convolution11
I1006 15:09:05.718658  2964 net.cpp:367] BatchNorm11 -> Convolution11 (in-place)
I1006 15:09:05.718798  2964 net.cpp:122] Setting up BatchNorm11
I1006 15:09:05.718804  2964 net.cpp:129] Top shape: 100 16 28 28 (1254400)
I1006 15:09:05.718806  2964 net.cpp:137] Memory required for data: 281926800
I1006 15:09:05.718821  2964 layer_factory.hpp:77] Creating layer Scale11
I1006 15:09:05.718827  2964 net.cpp:84] Creating Layer Scale11
I1006 15:09:05.718829  2964 net.cpp:406] Scale11 <- Convolution11
I1006 15:09:05.718832  2964 net.cpp:367] Scale11 -> Convolution11 (in-place)
I1006 15:09:05.718868  2964 layer_factory.hpp:77] Creating layer Scale11
I1006 15:09:05.718966  2964 net.cpp:122] Setting up Scale11
I1006 15:09:05.718969  2964 net.cpp:129] Top shape: 100 16 28 28 (1254400)
I1006 15:09:05.718972  2964 net.cpp:137] Memory required for data: 286944400
I1006 15:09:05.718986  2964 layer_factory.hpp:77] Creating layer Eltwise5
I1006 15:09:05.718989  2964 net.cpp:84] Creating Layer Eltwise5
I1006 15:09:05.718992  2964 net.cpp:406] Eltwise5 <- Eltwise4_penlu9_0_split_1
I1006 15:09:05.718996  2964 net.cpp:406] Eltwise5 <- Convolution11
I1006 15:09:05.718999  2964 net.cpp:380] Eltwise5 -> Eltwise5
I1006 15:09:05.719015  2964 net.cpp:122] Setting up Eltwise5
I1006 15:09:05.719019  2964 net.cpp:129] Top shape: 100 16 28 28 (1254400)
I1006 15:09:05.719022  2964 net.cpp:137] Memory required for data: 291962000
I1006 15:09:05.719024  2964 layer_factory.hpp:77] Creating layer penlu11
I1006 15:09:05.719029  2964 net.cpp:84] Creating Layer penlu11
I1006 15:09:05.719033  2964 net.cpp:406] penlu11 <- Eltwise5
I1006 15:09:05.719036  2964 net.cpp:367] penlu11 -> Eltwise5 (in-place)
I1006 15:09:05.719146  2964 net.cpp:122] Setting up penlu11
I1006 15:09:05.719151  2964 net.cpp:129] Top shape: 100 16 28 28 (1254400)
I1006 15:09:05.719154  2964 net.cpp:137] Memory required for data: 296979600
I1006 15:09:05.719158  2964 layer_factory.hpp:77] Creating layer Eltwise5_penlu11_0_split
I1006 15:09:05.719167  2964 net.cpp:84] Creating Layer Eltwise5_penlu11_0_split
I1006 15:09:05.719172  2964 net.cpp:406] Eltwise5_penlu11_0_split <- Eltwise5
I1006 15:09:05.719182  2964 net.cpp:380] Eltwise5_penlu11_0_split -> Eltwise5_penlu11_0_split_0
I1006 15:09:05.719188  2964 net.cpp:380] Eltwise5_penlu11_0_split -> Eltwise5_penlu11_0_split_1
I1006 15:09:05.719213  2964 net.cpp:122] Setting up Eltwise5_penlu11_0_split
I1006 15:09:05.719218  2964 net.cpp:129] Top shape: 100 16 28 28 (1254400)
I1006 15:09:05.719221  2964 net.cpp:129] Top shape: 100 16 28 28 (1254400)
I1006 15:09:05.719223  2964 net.cpp:137] Memory required for data: 307014800
I1006 15:09:05.719226  2964 layer_factory.hpp:77] Creating layer Convolution12
I1006 15:09:05.719233  2964 net.cpp:84] Creating Layer Convolution12
I1006 15:09:05.719236  2964 net.cpp:406] Convolution12 <- Eltwise5_penlu11_0_split_0
I1006 15:09:05.719240  2964 net.cpp:380] Convolution12 -> Convolution12
I1006 15:09:05.720433  2964 net.cpp:122] Setting up Convolution12
I1006 15:09:05.720444  2964 net.cpp:129] Top shape: 100 32 14 14 (627200)
I1006 15:09:05.720448  2964 net.cpp:137] Memory required for data: 309523600
I1006 15:09:05.720453  2964 layer_factory.hpp:77] Creating layer BatchNorm12
I1006 15:09:05.720458  2964 net.cpp:84] Creating Layer BatchNorm12
I1006 15:09:05.720461  2964 net.cpp:406] BatchNorm12 <- Convolution12
I1006 15:09:05.720465  2964 net.cpp:367] BatchNorm12 -> Convolution12 (in-place)
I1006 15:09:05.720610  2964 net.cpp:122] Setting up BatchNorm12
I1006 15:09:05.720615  2964 net.cpp:129] Top shape: 100 32 14 14 (627200)
I1006 15:09:05.720619  2964 net.cpp:137] Memory required for data: 312032400
I1006 15:09:05.720624  2964 layer_factory.hpp:77] Creating layer Scale12
I1006 15:09:05.720629  2964 net.cpp:84] Creating Layer Scale12
I1006 15:09:05.720633  2964 net.cpp:406] Scale12 <- Convolution12
I1006 15:09:05.720636  2964 net.cpp:367] Scale12 -> Convolution12 (in-place)
I1006 15:09:05.720662  2964 layer_factory.hpp:77] Creating layer Scale12
I1006 15:09:05.720739  2964 net.cpp:122] Setting up Scale12
I1006 15:09:05.720744  2964 net.cpp:129] Top shape: 100 32 14 14 (627200)
I1006 15:09:05.720747  2964 net.cpp:137] Memory required for data: 314541200
I1006 15:09:05.720752  2964 layer_factory.hpp:77] Creating layer Convolution13
I1006 15:09:05.720758  2964 net.cpp:84] Creating Layer Convolution13
I1006 15:09:05.720762  2964 net.cpp:406] Convolution13 <- Eltwise5_penlu11_0_split_1
I1006 15:09:05.720767  2964 net.cpp:380] Convolution13 -> Convolution13
I1006 15:09:05.722046  2964 net.cpp:122] Setting up Convolution13
I1006 15:09:05.722056  2964 net.cpp:129] Top shape: 100 32 14 14 (627200)
I1006 15:09:05.722059  2964 net.cpp:137] Memory required for data: 317050000
I1006 15:09:05.722065  2964 layer_factory.hpp:77] Creating layer BatchNorm13
I1006 15:09:05.722071  2964 net.cpp:84] Creating Layer BatchNorm13
I1006 15:09:05.722074  2964 net.cpp:406] BatchNorm13 <- Convolution13
I1006 15:09:05.722079  2964 net.cpp:367] BatchNorm13 -> Convolution13 (in-place)
I1006 15:09:05.722216  2964 net.cpp:122] Setting up BatchNorm13
I1006 15:09:05.722221  2964 net.cpp:129] Top shape: 100 32 14 14 (627200)
I1006 15:09:05.722224  2964 net.cpp:137] Memory required for data: 319558800
I1006 15:09:05.722229  2964 layer_factory.hpp:77] Creating layer Scale13
I1006 15:09:05.722234  2964 net.cpp:84] Creating Layer Scale13
I1006 15:09:05.722237  2964 net.cpp:406] Scale13 <- Convolution13
I1006 15:09:05.722241  2964 net.cpp:367] Scale13 -> Convolution13 (in-place)
I1006 15:09:05.722268  2964 layer_factory.hpp:77] Creating layer Scale13
I1006 15:09:05.722345  2964 net.cpp:122] Setting up Scale13
I1006 15:09:05.722350  2964 net.cpp:129] Top shape: 100 32 14 14 (627200)
I1006 15:09:05.722353  2964 net.cpp:137] Memory required for data: 322067600
I1006 15:09:05.722357  2964 layer_factory.hpp:77] Creating layer penlu12
I1006 15:09:05.722362  2964 net.cpp:84] Creating Layer penlu12
I1006 15:09:05.722365  2964 net.cpp:406] penlu12 <- Convolution13
I1006 15:09:05.722370  2964 net.cpp:367] penlu12 -> Convolution13 (in-place)
I1006 15:09:05.722478  2964 net.cpp:122] Setting up penlu12
I1006 15:09:05.722483  2964 net.cpp:129] Top shape: 100 32 14 14 (627200)
I1006 15:09:05.722493  2964 net.cpp:137] Memory required for data: 324576400
I1006 15:09:05.722498  2964 layer_factory.hpp:77] Creating layer Convolution14
I1006 15:09:05.722506  2964 net.cpp:84] Creating Layer Convolution14
I1006 15:09:05.722509  2964 net.cpp:406] Convolution14 <- Convolution13
I1006 15:09:05.722514  2964 net.cpp:380] Convolution14 -> Convolution14
I1006 15:09:05.723595  2964 net.cpp:122] Setting up Convolution14
I1006 15:09:05.723606  2964 net.cpp:129] Top shape: 100 32 14 14 (627200)
I1006 15:09:05.723609  2964 net.cpp:137] Memory required for data: 327085200
I1006 15:09:05.723625  2964 layer_factory.hpp:77] Creating layer BatchNorm14
I1006 15:09:05.723635  2964 net.cpp:84] Creating Layer BatchNorm14
I1006 15:09:05.723639  2964 net.cpp:406] BatchNorm14 <- Convolution14
I1006 15:09:05.723642  2964 net.cpp:367] BatchNorm14 -> Convolution14 (in-place)
I1006 15:09:05.723778  2964 net.cpp:122] Setting up BatchNorm14
I1006 15:09:05.723783  2964 net.cpp:129] Top shape: 100 32 14 14 (627200)
I1006 15:09:05.723785  2964 net.cpp:137] Memory required for data: 329594000
I1006 15:09:05.723791  2964 layer_factory.hpp:77] Creating layer Scale14
I1006 15:09:05.723796  2964 net.cpp:84] Creating Layer Scale14
I1006 15:09:05.723799  2964 net.cpp:406] Scale14 <- Convolution14
I1006 15:09:05.723803  2964 net.cpp:367] Scale14 -> Convolution14 (in-place)
I1006 15:09:05.723829  2964 layer_factory.hpp:77] Creating layer Scale14
I1006 15:09:05.723906  2964 net.cpp:122] Setting up Scale14
I1006 15:09:05.723911  2964 net.cpp:129] Top shape: 100 32 14 14 (627200)
I1006 15:09:05.723913  2964 net.cpp:137] Memory required for data: 332102800
I1006 15:09:05.723917  2964 layer_factory.hpp:77] Creating layer Eltwise6
I1006 15:09:05.723922  2964 net.cpp:84] Creating Layer Eltwise6
I1006 15:09:05.723924  2964 net.cpp:406] Eltwise6 <- Convolution12
I1006 15:09:05.723927  2964 net.cpp:406] Eltwise6 <- Convolution14
I1006 15:09:05.723932  2964 net.cpp:380] Eltwise6 -> Eltwise6
I1006 15:09:05.723948  2964 net.cpp:122] Setting up Eltwise6
I1006 15:09:05.723951  2964 net.cpp:129] Top shape: 100 32 14 14 (627200)
I1006 15:09:05.723953  2964 net.cpp:137] Memory required for data: 334611600
I1006 15:09:05.723955  2964 layer_factory.hpp:77] Creating layer penlu13
I1006 15:09:05.723960  2964 net.cpp:84] Creating Layer penlu13
I1006 15:09:05.723963  2964 net.cpp:406] penlu13 <- Eltwise6
I1006 15:09:05.723966  2964 net.cpp:367] penlu13 -> Eltwise6 (in-place)
I1006 15:09:05.724073  2964 net.cpp:122] Setting up penlu13
I1006 15:09:05.724077  2964 net.cpp:129] Top shape: 100 32 14 14 (627200)
I1006 15:09:05.724079  2964 net.cpp:137] Memory required for data: 337120400
I1006 15:09:05.724084  2964 layer_factory.hpp:77] Creating layer Eltwise6_penlu13_0_split
I1006 15:09:05.724087  2964 net.cpp:84] Creating Layer Eltwise6_penlu13_0_split
I1006 15:09:05.724090  2964 net.cpp:406] Eltwise6_penlu13_0_split <- Eltwise6
I1006 15:09:05.724093  2964 net.cpp:380] Eltwise6_penlu13_0_split -> Eltwise6_penlu13_0_split_0
I1006 15:09:05.724097  2964 net.cpp:380] Eltwise6_penlu13_0_split -> Eltwise6_penlu13_0_split_1
I1006 15:09:05.724119  2964 net.cpp:122] Setting up Eltwise6_penlu13_0_split
I1006 15:09:05.724123  2964 net.cpp:129] Top shape: 100 32 14 14 (627200)
I1006 15:09:05.724126  2964 net.cpp:129] Top shape: 100 32 14 14 (627200)
I1006 15:09:05.724128  2964 net.cpp:137] Memory required for data: 342138000
I1006 15:09:05.724130  2964 layer_factory.hpp:77] Creating layer Convolution15
I1006 15:09:05.724136  2964 net.cpp:84] Creating Layer Convolution15
I1006 15:09:05.724138  2964 net.cpp:406] Convolution15 <- Eltwise6_penlu13_0_split_0
I1006 15:09:05.724143  2964 net.cpp:380] Convolution15 -> Convolution15
I1006 15:09:05.725205  2964 net.cpp:122] Setting up Convolution15
I1006 15:09:05.725215  2964 net.cpp:129] Top shape: 100 32 14 14 (627200)
I1006 15:09:05.725217  2964 net.cpp:137] Memory required for data: 344646800
I1006 15:09:05.725222  2964 layer_factory.hpp:77] Creating layer BatchNorm15
I1006 15:09:05.725227  2964 net.cpp:84] Creating Layer BatchNorm15
I1006 15:09:05.725236  2964 net.cpp:406] BatchNorm15 <- Convolution15
I1006 15:09:05.725241  2964 net.cpp:367] BatchNorm15 -> Convolution15 (in-place)
I1006 15:09:05.725378  2964 net.cpp:122] Setting up BatchNorm15
I1006 15:09:05.725383  2964 net.cpp:129] Top shape: 100 32 14 14 (627200)
I1006 15:09:05.725384  2964 net.cpp:137] Memory required for data: 347155600
I1006 15:09:05.725389  2964 layer_factory.hpp:77] Creating layer Scale15
I1006 15:09:05.725394  2964 net.cpp:84] Creating Layer Scale15
I1006 15:09:05.725396  2964 net.cpp:406] Scale15 <- Convolution15
I1006 15:09:05.725400  2964 net.cpp:367] Scale15 -> Convolution15 (in-place)
I1006 15:09:05.725425  2964 layer_factory.hpp:77] Creating layer Scale15
I1006 15:09:05.725502  2964 net.cpp:122] Setting up Scale15
I1006 15:09:05.725507  2964 net.cpp:129] Top shape: 100 32 14 14 (627200)
I1006 15:09:05.725508  2964 net.cpp:137] Memory required for data: 349664400
I1006 15:09:05.725512  2964 layer_factory.hpp:77] Creating layer penlu14
I1006 15:09:05.725517  2964 net.cpp:84] Creating Layer penlu14
I1006 15:09:05.725519  2964 net.cpp:406] penlu14 <- Convolution15
I1006 15:09:05.725523  2964 net.cpp:367] penlu14 -> Convolution15 (in-place)
I1006 15:09:05.725630  2964 net.cpp:122] Setting up penlu14
I1006 15:09:05.725634  2964 net.cpp:129] Top shape: 100 32 14 14 (627200)
I1006 15:09:05.725636  2964 net.cpp:137] Memory required for data: 352173200
I1006 15:09:05.725641  2964 layer_factory.hpp:77] Creating layer Convolution16
I1006 15:09:05.725647  2964 net.cpp:84] Creating Layer Convolution16
I1006 15:09:05.725651  2964 net.cpp:406] Convolution16 <- Convolution15
I1006 15:09:05.725654  2964 net.cpp:380] Convolution16 -> Convolution16
I1006 15:09:05.726714  2964 net.cpp:122] Setting up Convolution16
I1006 15:09:05.726723  2964 net.cpp:129] Top shape: 100 32 14 14 (627200)
I1006 15:09:05.726727  2964 net.cpp:137] Memory required for data: 354682000
I1006 15:09:05.726732  2964 layer_factory.hpp:77] Creating layer BatchNorm16
I1006 15:09:05.726737  2964 net.cpp:84] Creating Layer BatchNorm16
I1006 15:09:05.726739  2964 net.cpp:406] BatchNorm16 <- Convolution16
I1006 15:09:05.726743  2964 net.cpp:367] BatchNorm16 -> Convolution16 (in-place)
I1006 15:09:05.726877  2964 net.cpp:122] Setting up BatchNorm16
I1006 15:09:05.726882  2964 net.cpp:129] Top shape: 100 32 14 14 (627200)
I1006 15:09:05.726884  2964 net.cpp:137] Memory required for data: 357190800
I1006 15:09:05.726889  2964 layer_factory.hpp:77] Creating layer Scale16
I1006 15:09:05.726893  2964 net.cpp:84] Creating Layer Scale16
I1006 15:09:05.726897  2964 net.cpp:406] Scale16 <- Convolution16
I1006 15:09:05.726899  2964 net.cpp:367] Scale16 -> Convolution16 (in-place)
I1006 15:09:05.726925  2964 layer_factory.hpp:77] Creating layer Scale16
I1006 15:09:05.727002  2964 net.cpp:122] Setting up Scale16
I1006 15:09:05.727006  2964 net.cpp:129] Top shape: 100 32 14 14 (627200)
I1006 15:09:05.727010  2964 net.cpp:137] Memory required for data: 359699600
I1006 15:09:05.727012  2964 layer_factory.hpp:77] Creating layer Eltwise7
I1006 15:09:05.727016  2964 net.cpp:84] Creating Layer Eltwise7
I1006 15:09:05.727020  2964 net.cpp:406] Eltwise7 <- Eltwise6_penlu13_0_split_1
I1006 15:09:05.727022  2964 net.cpp:406] Eltwise7 <- Convolution16
I1006 15:09:05.727025  2964 net.cpp:380] Eltwise7 -> Eltwise7
I1006 15:09:05.727041  2964 net.cpp:122] Setting up Eltwise7
I1006 15:09:05.727044  2964 net.cpp:129] Top shape: 100 32 14 14 (627200)
I1006 15:09:05.727046  2964 net.cpp:137] Memory required for data: 362208400
I1006 15:09:05.727048  2964 layer_factory.hpp:77] Creating layer penlu15
I1006 15:09:05.727054  2964 net.cpp:84] Creating Layer penlu15
I1006 15:09:05.727056  2964 net.cpp:406] penlu15 <- Eltwise7
I1006 15:09:05.727061  2964 net.cpp:367] penlu15 -> Eltwise7 (in-place)
I1006 15:09:05.727177  2964 net.cpp:122] Setting up penlu15
I1006 15:09:05.727182  2964 net.cpp:129] Top shape: 100 32 14 14 (627200)
I1006 15:09:05.727185  2964 net.cpp:137] Memory required for data: 364717200
I1006 15:09:05.727195  2964 layer_factory.hpp:77] Creating layer Eltwise7_penlu15_0_split
I1006 15:09:05.727200  2964 net.cpp:84] Creating Layer Eltwise7_penlu15_0_split
I1006 15:09:05.727203  2964 net.cpp:406] Eltwise7_penlu15_0_split <- Eltwise7
I1006 15:09:05.727206  2964 net.cpp:380] Eltwise7_penlu15_0_split -> Eltwise7_penlu15_0_split_0
I1006 15:09:05.727210  2964 net.cpp:380] Eltwise7_penlu15_0_split -> Eltwise7_penlu15_0_split_1
I1006 15:09:05.727236  2964 net.cpp:122] Setting up Eltwise7_penlu15_0_split
I1006 15:09:05.727239  2964 net.cpp:129] Top shape: 100 32 14 14 (627200)
I1006 15:09:05.727242  2964 net.cpp:129] Top shape: 100 32 14 14 (627200)
I1006 15:09:05.727244  2964 net.cpp:137] Memory required for data: 369734800
I1006 15:09:05.727246  2964 layer_factory.hpp:77] Creating layer Convolution17
I1006 15:09:05.727252  2964 net.cpp:84] Creating Layer Convolution17
I1006 15:09:05.727254  2964 net.cpp:406] Convolution17 <- Eltwise7_penlu15_0_split_0
I1006 15:09:05.727259  2964 net.cpp:380] Convolution17 -> Convolution17
I1006 15:09:05.727993  2964 net.cpp:122] Setting up Convolution17
I1006 15:09:05.727999  2964 net.cpp:129] Top shape: 100 32 14 14 (627200)
I1006 15:09:05.728001  2964 net.cpp:137] Memory required for data: 372243600
I1006 15:09:05.728006  2964 layer_factory.hpp:77] Creating layer BatchNorm17
I1006 15:09:05.728011  2964 net.cpp:84] Creating Layer BatchNorm17
I1006 15:09:05.728013  2964 net.cpp:406] BatchNorm17 <- Convolution17
I1006 15:09:05.728018  2964 net.cpp:367] BatchNorm17 -> Convolution17 (in-place)
I1006 15:09:05.728152  2964 net.cpp:122] Setting up BatchNorm17
I1006 15:09:05.728155  2964 net.cpp:129] Top shape: 100 32 14 14 (627200)
I1006 15:09:05.728157  2964 net.cpp:137] Memory required for data: 374752400
I1006 15:09:05.728163  2964 layer_factory.hpp:77] Creating layer Scale17
I1006 15:09:05.728168  2964 net.cpp:84] Creating Layer Scale17
I1006 15:09:05.728169  2964 net.cpp:406] Scale17 <- Convolution17
I1006 15:09:05.728173  2964 net.cpp:367] Scale17 -> Convolution17 (in-place)
I1006 15:09:05.728199  2964 layer_factory.hpp:77] Creating layer Scale17
I1006 15:09:05.728276  2964 net.cpp:122] Setting up Scale17
I1006 15:09:05.728281  2964 net.cpp:129] Top shape: 100 32 14 14 (627200)
I1006 15:09:05.728282  2964 net.cpp:137] Memory required for data: 377261200
I1006 15:09:05.728286  2964 layer_factory.hpp:77] Creating layer penlu16
I1006 15:09:05.728291  2964 net.cpp:84] Creating Layer penlu16
I1006 15:09:05.728293  2964 net.cpp:406] penlu16 <- Convolution17
I1006 15:09:05.728298  2964 net.cpp:367] penlu16 -> Convolution17 (in-place)
I1006 15:09:05.728404  2964 net.cpp:122] Setting up penlu16
I1006 15:09:05.728408  2964 net.cpp:129] Top shape: 100 32 14 14 (627200)
I1006 15:09:05.728410  2964 net.cpp:137] Memory required for data: 379770000
I1006 15:09:05.728415  2964 layer_factory.hpp:77] Creating layer Convolution18
I1006 15:09:05.728421  2964 net.cpp:84] Creating Layer Convolution18
I1006 15:09:05.728425  2964 net.cpp:406] Convolution18 <- Convolution17
I1006 15:09:05.728427  2964 net.cpp:380] Convolution18 -> Convolution18
I1006 15:09:05.729490  2964 net.cpp:122] Setting up Convolution18
I1006 15:09:05.729498  2964 net.cpp:129] Top shape: 100 32 14 14 (627200)
I1006 15:09:05.729501  2964 net.cpp:137] Memory required for data: 382278800
I1006 15:09:05.729506  2964 layer_factory.hpp:77] Creating layer BatchNorm18
I1006 15:09:05.729511  2964 net.cpp:84] Creating Layer BatchNorm18
I1006 15:09:05.729514  2964 net.cpp:406] BatchNorm18 <- Convolution18
I1006 15:09:05.729517  2964 net.cpp:367] BatchNorm18 -> Convolution18 (in-place)
I1006 15:09:05.729652  2964 net.cpp:122] Setting up BatchNorm18
I1006 15:09:05.729656  2964 net.cpp:129] Top shape: 100 32 14 14 (627200)
I1006 15:09:05.729660  2964 net.cpp:137] Memory required for data: 384787600
I1006 15:09:05.729663  2964 layer_factory.hpp:77] Creating layer Scale18
I1006 15:09:05.729667  2964 net.cpp:84] Creating Layer Scale18
I1006 15:09:05.729671  2964 net.cpp:406] Scale18 <- Convolution18
I1006 15:09:05.729676  2964 net.cpp:367] Scale18 -> Convolution18 (in-place)
I1006 15:09:05.729708  2964 layer_factory.hpp:77] Creating layer Scale18
I1006 15:09:05.729789  2964 net.cpp:122] Setting up Scale18
I1006 15:09:05.729794  2964 net.cpp:129] Top shape: 100 32 14 14 (627200)
I1006 15:09:05.729795  2964 net.cpp:137] Memory required for data: 387296400
I1006 15:09:05.729799  2964 layer_factory.hpp:77] Creating layer Eltwise8
I1006 15:09:05.729804  2964 net.cpp:84] Creating Layer Eltwise8
I1006 15:09:05.729806  2964 net.cpp:406] Eltwise8 <- Eltwise7_penlu15_0_split_1
I1006 15:09:05.729810  2964 net.cpp:406] Eltwise8 <- Convolution18
I1006 15:09:05.729813  2964 net.cpp:380] Eltwise8 -> Eltwise8
I1006 15:09:05.729830  2964 net.cpp:122] Setting up Eltwise8
I1006 15:09:05.729833  2964 net.cpp:129] Top shape: 100 32 14 14 (627200)
I1006 15:09:05.729835  2964 net.cpp:137] Memory required for data: 389805200
I1006 15:09:05.729837  2964 layer_factory.hpp:77] Creating layer penlu17
I1006 15:09:05.729842  2964 net.cpp:84] Creating Layer penlu17
I1006 15:09:05.729846  2964 net.cpp:406] penlu17 <- Eltwise8
I1006 15:09:05.729848  2964 net.cpp:367] penlu17 -> Eltwise8 (in-place)
I1006 15:09:05.729955  2964 net.cpp:122] Setting up penlu17
I1006 15:09:05.729959  2964 net.cpp:129] Top shape: 100 32 14 14 (627200)
I1006 15:09:05.729961  2964 net.cpp:137] Memory required for data: 392314000
I1006 15:09:05.729966  2964 layer_factory.hpp:77] Creating layer Eltwise8_penlu17_0_split
I1006 15:09:05.729970  2964 net.cpp:84] Creating Layer Eltwise8_penlu17_0_split
I1006 15:09:05.729972  2964 net.cpp:406] Eltwise8_penlu17_0_split <- Eltwise8
I1006 15:09:05.729975  2964 net.cpp:380] Eltwise8_penlu17_0_split -> Eltwise8_penlu17_0_split_0
I1006 15:09:05.729979  2964 net.cpp:380] Eltwise8_penlu17_0_split -> Eltwise8_penlu17_0_split_1
I1006 15:09:05.730002  2964 net.cpp:122] Setting up Eltwise8_penlu17_0_split
I1006 15:09:05.730006  2964 net.cpp:129] Top shape: 100 32 14 14 (627200)
I1006 15:09:05.730010  2964 net.cpp:129] Top shape: 100 32 14 14 (627200)
I1006 15:09:05.730011  2964 net.cpp:137] Memory required for data: 397331600
I1006 15:09:05.730013  2964 layer_factory.hpp:77] Creating layer Convolution19
I1006 15:09:05.730020  2964 net.cpp:84] Creating Layer Convolution19
I1006 15:09:05.730022  2964 net.cpp:406] Convolution19 <- Eltwise8_penlu17_0_split_0
I1006 15:09:05.730026  2964 net.cpp:380] Convolution19 -> Convolution19
I1006 15:09:05.731935  2964 net.cpp:122] Setting up Convolution19
I1006 15:09:05.731946  2964 net.cpp:129] Top shape: 100 32 14 14 (627200)
I1006 15:09:05.731950  2964 net.cpp:137] Memory required for data: 399840400
I1006 15:09:05.731957  2964 layer_factory.hpp:77] Creating layer BatchNorm19
I1006 15:09:05.731966  2964 net.cpp:84] Creating Layer BatchNorm19
I1006 15:09:05.731969  2964 net.cpp:406] BatchNorm19 <- Convolution19
I1006 15:09:05.731976  2964 net.cpp:367] BatchNorm19 -> Convolution19 (in-place)
I1006 15:09:05.732178  2964 net.cpp:122] Setting up BatchNorm19
I1006 15:09:05.732188  2964 net.cpp:129] Top shape: 100 32 14 14 (627200)
I1006 15:09:05.732192  2964 net.cpp:137] Memory required for data: 402349200
I1006 15:09:05.732200  2964 layer_factory.hpp:77] Creating layer Scale19
I1006 15:09:05.732208  2964 net.cpp:84] Creating Layer Scale19
I1006 15:09:05.732211  2964 net.cpp:406] Scale19 <- Convolution19
I1006 15:09:05.732218  2964 net.cpp:367] Scale19 -> Convolution19 (in-place)
I1006 15:09:05.732259  2964 layer_factory.hpp:77] Creating layer Scale19
I1006 15:09:05.732378  2964 net.cpp:122] Setting up Scale19
I1006 15:09:05.732388  2964 net.cpp:129] Top shape: 100 32 14 14 (627200)
I1006 15:09:05.732391  2964 net.cpp:137] Memory required for data: 404858000
I1006 15:09:05.732398  2964 layer_factory.hpp:77] Creating layer penlu18
I1006 15:09:05.732416  2964 net.cpp:84] Creating Layer penlu18
I1006 15:09:05.732420  2964 net.cpp:406] penlu18 <- Convolution19
I1006 15:09:05.732427  2964 net.cpp:367] penlu18 -> Convolution19 (in-place)
I1006 15:09:05.732602  2964 net.cpp:122] Setting up penlu18
I1006 15:09:05.732620  2964 net.cpp:129] Top shape: 100 32 14 14 (627200)
I1006 15:09:05.732643  2964 net.cpp:137] Memory required for data: 407366800
I1006 15:09:05.732652  2964 layer_factory.hpp:77] Creating layer Convolution20
I1006 15:09:05.732663  2964 net.cpp:84] Creating Layer Convolution20
I1006 15:09:05.732668  2964 net.cpp:406] Convolution20 <- Convolution19
I1006 15:09:05.732676  2964 net.cpp:380] Convolution20 -> Convolution20
I1006 15:09:05.733925  2964 net.cpp:122] Setting up Convolution20
I1006 15:09:05.733935  2964 net.cpp:129] Top shape: 100 32 14 14 (627200)
I1006 15:09:05.733948  2964 net.cpp:137] Memory required for data: 409875600
I1006 15:09:05.733952  2964 layer_factory.hpp:77] Creating layer BatchNorm20
I1006 15:09:05.733969  2964 net.cpp:84] Creating Layer BatchNorm20
I1006 15:09:05.733974  2964 net.cpp:406] BatchNorm20 <- Convolution20
I1006 15:09:05.733978  2964 net.cpp:367] BatchNorm20 -> Convolution20 (in-place)
I1006 15:09:05.734127  2964 net.cpp:122] Setting up BatchNorm20
I1006 15:09:05.734133  2964 net.cpp:129] Top shape: 100 32 14 14 (627200)
I1006 15:09:05.734144  2964 net.cpp:137] Memory required for data: 412384400
I1006 15:09:05.734149  2964 layer_factory.hpp:77] Creating layer Scale20
I1006 15:09:05.734154  2964 net.cpp:84] Creating Layer Scale20
I1006 15:09:05.734156  2964 net.cpp:406] Scale20 <- Convolution20
I1006 15:09:05.734170  2964 net.cpp:367] Scale20 -> Convolution20 (in-place)
I1006 15:09:05.734207  2964 layer_factory.hpp:77] Creating layer Scale20
I1006 15:09:05.734284  2964 net.cpp:122] Setting up Scale20
I1006 15:09:05.734288  2964 net.cpp:129] Top shape: 100 32 14 14 (627200)
I1006 15:09:05.734290  2964 net.cpp:137] Memory required for data: 414893200
I1006 15:09:05.734294  2964 layer_factory.hpp:77] Creating layer Eltwise9
I1006 15:09:05.734298  2964 net.cpp:84] Creating Layer Eltwise9
I1006 15:09:05.734300  2964 net.cpp:406] Eltwise9 <- Eltwise8_penlu17_0_split_1
I1006 15:09:05.734303  2964 net.cpp:406] Eltwise9 <- Convolution20
I1006 15:09:05.734308  2964 net.cpp:380] Eltwise9 -> Eltwise9
I1006 15:09:05.734323  2964 net.cpp:122] Setting up Eltwise9
I1006 15:09:05.734325  2964 net.cpp:129] Top shape: 100 32 14 14 (627200)
I1006 15:09:05.734328  2964 net.cpp:137] Memory required for data: 417402000
I1006 15:09:05.734329  2964 layer_factory.hpp:77] Creating layer penlu19
I1006 15:09:05.734335  2964 net.cpp:84] Creating Layer penlu19
I1006 15:09:05.734338  2964 net.cpp:406] penlu19 <- Eltwise9
I1006 15:09:05.734340  2964 net.cpp:367] penlu19 -> Eltwise9 (in-place)
I1006 15:09:05.734447  2964 net.cpp:122] Setting up penlu19
I1006 15:09:05.734450  2964 net.cpp:129] Top shape: 100 32 14 14 (627200)
I1006 15:09:05.734452  2964 net.cpp:137] Memory required for data: 419910800
I1006 15:09:05.734457  2964 layer_factory.hpp:77] Creating layer Eltwise9_penlu19_0_split
I1006 15:09:05.734460  2964 net.cpp:84] Creating Layer Eltwise9_penlu19_0_split
I1006 15:09:05.734462  2964 net.cpp:406] Eltwise9_penlu19_0_split <- Eltwise9
I1006 15:09:05.734467  2964 net.cpp:380] Eltwise9_penlu19_0_split -> Eltwise9_penlu19_0_split_0
I1006 15:09:05.734470  2964 net.cpp:380] Eltwise9_penlu19_0_split -> Eltwise9_penlu19_0_split_1
I1006 15:09:05.734491  2964 net.cpp:122] Setting up Eltwise9_penlu19_0_split
I1006 15:09:05.734495  2964 net.cpp:129] Top shape: 100 32 14 14 (627200)
I1006 15:09:05.734498  2964 net.cpp:129] Top shape: 100 32 14 14 (627200)
I1006 15:09:05.734500  2964 net.cpp:137] Memory required for data: 424928400
I1006 15:09:05.734503  2964 layer_factory.hpp:77] Creating layer Convolution21
I1006 15:09:05.734508  2964 net.cpp:84] Creating Layer Convolution21
I1006 15:09:05.734520  2964 net.cpp:406] Convolution21 <- Eltwise9_penlu19_0_split_0
I1006 15:09:05.734524  2964 net.cpp:380] Convolution21 -> Convolution21
I1006 15:09:05.735950  2964 net.cpp:122] Setting up Convolution21
I1006 15:09:05.735960  2964 net.cpp:129] Top shape: 100 32 14 14 (627200)
I1006 15:09:05.735962  2964 net.cpp:137] Memory required for data: 427437200
I1006 15:09:05.735966  2964 layer_factory.hpp:77] Creating layer BatchNorm21
I1006 15:09:05.735971  2964 net.cpp:84] Creating Layer BatchNorm21
I1006 15:09:05.735980  2964 net.cpp:406] BatchNorm21 <- Convolution21
I1006 15:09:05.735985  2964 net.cpp:367] BatchNorm21 -> Convolution21 (in-place)
I1006 15:09:05.736120  2964 net.cpp:122] Setting up BatchNorm21
I1006 15:09:05.736124  2964 net.cpp:129] Top shape: 100 32 14 14 (627200)
I1006 15:09:05.736126  2964 net.cpp:137] Memory required for data: 429946000
I1006 15:09:05.736131  2964 layer_factory.hpp:77] Creating layer Scale21
I1006 15:09:05.736135  2964 net.cpp:84] Creating Layer Scale21
I1006 15:09:05.736137  2964 net.cpp:406] Scale21 <- Convolution21
I1006 15:09:05.736142  2964 net.cpp:367] Scale21 -> Convolution21 (in-place)
I1006 15:09:05.736168  2964 layer_factory.hpp:77] Creating layer Scale21
I1006 15:09:05.736243  2964 net.cpp:122] Setting up Scale21
I1006 15:09:05.736248  2964 net.cpp:129] Top shape: 100 32 14 14 (627200)
I1006 15:09:05.736249  2964 net.cpp:137] Memory required for data: 432454800
I1006 15:09:05.736253  2964 layer_factory.hpp:77] Creating layer penlu20
I1006 15:09:05.736258  2964 net.cpp:84] Creating Layer penlu20
I1006 15:09:05.736261  2964 net.cpp:406] penlu20 <- Convolution21
I1006 15:09:05.736264  2964 net.cpp:367] penlu20 -> Convolution21 (in-place)
I1006 15:09:05.736371  2964 net.cpp:122] Setting up penlu20
I1006 15:09:05.736376  2964 net.cpp:129] Top shape: 100 32 14 14 (627200)
I1006 15:09:05.736377  2964 net.cpp:137] Memory required for data: 434963600
I1006 15:09:05.736382  2964 layer_factory.hpp:77] Creating layer Convolution22
I1006 15:09:05.736388  2964 net.cpp:84] Creating Layer Convolution22
I1006 15:09:05.736390  2964 net.cpp:406] Convolution22 <- Convolution21
I1006 15:09:05.736394  2964 net.cpp:380] Convolution22 -> Convolution22
I1006 15:09:05.737431  2964 net.cpp:122] Setting up Convolution22
I1006 15:09:05.737439  2964 net.cpp:129] Top shape: 100 32 14 14 (627200)
I1006 15:09:05.737442  2964 net.cpp:137] Memory required for data: 437472400
I1006 15:09:05.737447  2964 layer_factory.hpp:77] Creating layer BatchNorm22
I1006 15:09:05.737452  2964 net.cpp:84] Creating Layer BatchNorm22
I1006 15:09:05.737454  2964 net.cpp:406] BatchNorm22 <- Convolution22
I1006 15:09:05.737457  2964 net.cpp:367] BatchNorm22 -> Convolution22 (in-place)
I1006 15:09:05.737589  2964 net.cpp:122] Setting up BatchNorm22
I1006 15:09:05.737593  2964 net.cpp:129] Top shape: 100 32 14 14 (627200)
I1006 15:09:05.737596  2964 net.cpp:137] Memory required for data: 439981200
I1006 15:09:05.737601  2964 layer_factory.hpp:77] Creating layer Scale22
I1006 15:09:05.737604  2964 net.cpp:84] Creating Layer Scale22
I1006 15:09:05.737607  2964 net.cpp:406] Scale22 <- Convolution22
I1006 15:09:05.737609  2964 net.cpp:367] Scale22 -> Convolution22 (in-place)
I1006 15:09:05.737635  2964 layer_factory.hpp:77] Creating layer Scale22
I1006 15:09:05.737709  2964 net.cpp:122] Setting up Scale22
I1006 15:09:05.737713  2964 net.cpp:129] Top shape: 100 32 14 14 (627200)
I1006 15:09:05.737715  2964 net.cpp:137] Memory required for data: 442490000
I1006 15:09:05.737720  2964 layer_factory.hpp:77] Creating layer Eltwise10
I1006 15:09:05.737723  2964 net.cpp:84] Creating Layer Eltwise10
I1006 15:09:05.737726  2964 net.cpp:406] Eltwise10 <- Eltwise9_penlu19_0_split_1
I1006 15:09:05.737730  2964 net.cpp:406] Eltwise10 <- Convolution22
I1006 15:09:05.737732  2964 net.cpp:380] Eltwise10 -> Eltwise10
I1006 15:09:05.737748  2964 net.cpp:122] Setting up Eltwise10
I1006 15:09:05.737751  2964 net.cpp:129] Top shape: 100 32 14 14 (627200)
I1006 15:09:05.737753  2964 net.cpp:137] Memory required for data: 444998800
I1006 15:09:05.737756  2964 layer_factory.hpp:77] Creating layer penlu21
I1006 15:09:05.737761  2964 net.cpp:84] Creating Layer penlu21
I1006 15:09:05.737762  2964 net.cpp:406] penlu21 <- Eltwise10
I1006 15:09:05.737766  2964 net.cpp:367] penlu21 -> Eltwise10 (in-place)
I1006 15:09:05.737871  2964 net.cpp:122] Setting up penlu21
I1006 15:09:05.737875  2964 net.cpp:129] Top shape: 100 32 14 14 (627200)
I1006 15:09:05.737877  2964 net.cpp:137] Memory required for data: 447507600
I1006 15:09:05.737881  2964 layer_factory.hpp:77] Creating layer Eltwise10_penlu21_0_split
I1006 15:09:05.737892  2964 net.cpp:84] Creating Layer Eltwise10_penlu21_0_split
I1006 15:09:05.737895  2964 net.cpp:406] Eltwise10_penlu21_0_split <- Eltwise10
I1006 15:09:05.737898  2964 net.cpp:380] Eltwise10_penlu21_0_split -> Eltwise10_penlu21_0_split_0
I1006 15:09:05.737902  2964 net.cpp:380] Eltwise10_penlu21_0_split -> Eltwise10_penlu21_0_split_1
I1006 15:09:05.737927  2964 net.cpp:122] Setting up Eltwise10_penlu21_0_split
I1006 15:09:05.737931  2964 net.cpp:129] Top shape: 100 32 14 14 (627200)
I1006 15:09:05.737933  2964 net.cpp:129] Top shape: 100 32 14 14 (627200)
I1006 15:09:05.737936  2964 net.cpp:137] Memory required for data: 452525200
I1006 15:09:05.737938  2964 layer_factory.hpp:77] Creating layer Convolution23
I1006 15:09:05.737943  2964 net.cpp:84] Creating Layer Convolution23
I1006 15:09:05.737946  2964 net.cpp:406] Convolution23 <- Eltwise10_penlu21_0_split_0
I1006 15:09:05.737951  2964 net.cpp:380] Convolution23 -> Convolution23
I1006 15:09:05.738826  2964 net.cpp:122] Setting up Convolution23
I1006 15:09:05.738836  2964 net.cpp:129] Top shape: 100 64 7 7 (313600)
I1006 15:09:05.738838  2964 net.cpp:137] Memory required for data: 453779600
I1006 15:09:05.738842  2964 layer_factory.hpp:77] Creating layer BatchNorm23
I1006 15:09:05.738847  2964 net.cpp:84] Creating Layer BatchNorm23
I1006 15:09:05.738850  2964 net.cpp:406] BatchNorm23 <- Convolution23
I1006 15:09:05.738853  2964 net.cpp:367] BatchNorm23 -> Convolution23 (in-place)
I1006 15:09:05.738982  2964 net.cpp:122] Setting up BatchNorm23
I1006 15:09:05.738986  2964 net.cpp:129] Top shape: 100 64 7 7 (313600)
I1006 15:09:05.738988  2964 net.cpp:137] Memory required for data: 455034000
I1006 15:09:05.738993  2964 layer_factory.hpp:77] Creating layer Scale23
I1006 15:09:05.738997  2964 net.cpp:84] Creating Layer Scale23
I1006 15:09:05.738999  2964 net.cpp:406] Scale23 <- Convolution23
I1006 15:09:05.739002  2964 net.cpp:367] Scale23 -> Convolution23 (in-place)
I1006 15:09:05.739028  2964 layer_factory.hpp:77] Creating layer Scale23
I1006 15:09:05.739102  2964 net.cpp:122] Setting up Scale23
I1006 15:09:05.739106  2964 net.cpp:129] Top shape: 100 64 7 7 (313600)
I1006 15:09:05.739109  2964 net.cpp:137] Memory required for data: 456288400
I1006 15:09:05.739112  2964 layer_factory.hpp:77] Creating layer Convolution24
I1006 15:09:05.739120  2964 net.cpp:84] Creating Layer Convolution24
I1006 15:09:05.739121  2964 net.cpp:406] Convolution24 <- Eltwise10_penlu21_0_split_1
I1006 15:09:05.739126  2964 net.cpp:380] Convolution24 -> Convolution24
I1006 15:09:05.740873  2964 net.cpp:122] Setting up Convolution24
I1006 15:09:05.740882  2964 net.cpp:129] Top shape: 100 64 7 7 (313600)
I1006 15:09:05.740885  2964 net.cpp:137] Memory required for data: 457542800
I1006 15:09:05.740890  2964 layer_factory.hpp:77] Creating layer BatchNorm24
I1006 15:09:05.740895  2964 net.cpp:84] Creating Layer BatchNorm24
I1006 15:09:05.740898  2964 net.cpp:406] BatchNorm24 <- Convolution24
I1006 15:09:05.740901  2964 net.cpp:367] BatchNorm24 -> Convolution24 (in-place)
I1006 15:09:05.741037  2964 net.cpp:122] Setting up BatchNorm24
I1006 15:09:05.741042  2964 net.cpp:129] Top shape: 100 64 7 7 (313600)
I1006 15:09:05.741044  2964 net.cpp:137] Memory required for data: 458797200
I1006 15:09:05.741048  2964 layer_factory.hpp:77] Creating layer Scale24
I1006 15:09:05.741052  2964 net.cpp:84] Creating Layer Scale24
I1006 15:09:05.741055  2964 net.cpp:406] Scale24 <- Convolution24
I1006 15:09:05.741058  2964 net.cpp:367] Scale24 -> Convolution24 (in-place)
I1006 15:09:05.741086  2964 layer_factory.hpp:77] Creating layer Scale24
I1006 15:09:05.741163  2964 net.cpp:122] Setting up Scale24
I1006 15:09:05.741168  2964 net.cpp:129] Top shape: 100 64 7 7 (313600)
I1006 15:09:05.741170  2964 net.cpp:137] Memory required for data: 460051600
I1006 15:09:05.741174  2964 layer_factory.hpp:77] Creating layer penlu22
I1006 15:09:05.741179  2964 net.cpp:84] Creating Layer penlu22
I1006 15:09:05.741183  2964 net.cpp:406] penlu22 <- Convolution24
I1006 15:09:05.741194  2964 net.cpp:367] penlu22 -> Convolution24 (in-place)
I1006 15:09:05.741304  2964 net.cpp:122] Setting up penlu22
I1006 15:09:05.741309  2964 net.cpp:129] Top shape: 100 64 7 7 (313600)
I1006 15:09:05.741312  2964 net.cpp:137] Memory required for data: 461306000
I1006 15:09:05.741315  2964 layer_factory.hpp:77] Creating layer Convolution25
I1006 15:09:05.741322  2964 net.cpp:84] Creating Layer Convolution25
I1006 15:09:05.741325  2964 net.cpp:406] Convolution25 <- Convolution24
I1006 15:09:05.741329  2964 net.cpp:380] Convolution25 -> Convolution25
I1006 15:09:05.743283  2964 net.cpp:122] Setting up Convolution25
I1006 15:09:05.743293  2964 net.cpp:129] Top shape: 100 64 7 7 (313600)
I1006 15:09:05.743294  2964 net.cpp:137] Memory required for data: 462560400
I1006 15:09:05.743299  2964 layer_factory.hpp:77] Creating layer BatchNorm25
I1006 15:09:05.743304  2964 net.cpp:84] Creating Layer BatchNorm25
I1006 15:09:05.743307  2964 net.cpp:406] BatchNorm25 <- Convolution25
I1006 15:09:05.743311  2964 net.cpp:367] BatchNorm25 -> Convolution25 (in-place)
I1006 15:09:05.743448  2964 net.cpp:122] Setting up BatchNorm25
I1006 15:09:05.743453  2964 net.cpp:129] Top shape: 100 64 7 7 (313600)
I1006 15:09:05.743454  2964 net.cpp:137] Memory required for data: 463814800
I1006 15:09:05.743459  2964 layer_factory.hpp:77] Creating layer Scale25
I1006 15:09:05.743463  2964 net.cpp:84] Creating Layer Scale25
I1006 15:09:05.743466  2964 net.cpp:406] Scale25 <- Convolution25
I1006 15:09:05.743469  2964 net.cpp:367] Scale25 -> Convolution25 (in-place)
I1006 15:09:05.743495  2964 layer_factory.hpp:77] Creating layer Scale25
I1006 15:09:05.743572  2964 net.cpp:122] Setting up Scale25
I1006 15:09:05.743577  2964 net.cpp:129] Top shape: 100 64 7 7 (313600)
I1006 15:09:05.743578  2964 net.cpp:137] Memory required for data: 465069200
I1006 15:09:05.743582  2964 layer_factory.hpp:77] Creating layer Eltwise11
I1006 15:09:05.743585  2964 net.cpp:84] Creating Layer Eltwise11
I1006 15:09:05.743587  2964 net.cpp:406] Eltwise11 <- Convolution23
I1006 15:09:05.743590  2964 net.cpp:406] Eltwise11 <- Convolution25
I1006 15:09:05.743594  2964 net.cpp:380] Eltwise11 -> Eltwise11
I1006 15:09:05.743610  2964 net.cpp:122] Setting up Eltwise11
I1006 15:09:05.743614  2964 net.cpp:129] Top shape: 100 64 7 7 (313600)
I1006 15:09:05.743616  2964 net.cpp:137] Memory required for data: 466323600
I1006 15:09:05.743618  2964 layer_factory.hpp:77] Creating layer penlu23
I1006 15:09:05.743623  2964 net.cpp:84] Creating Layer penlu23
I1006 15:09:05.743625  2964 net.cpp:406] penlu23 <- Eltwise11
I1006 15:09:05.743629  2964 net.cpp:367] penlu23 -> Eltwise11 (in-place)
I1006 15:09:05.743736  2964 net.cpp:122] Setting up penlu23
I1006 15:09:05.743741  2964 net.cpp:129] Top shape: 100 64 7 7 (313600)
I1006 15:09:05.743742  2964 net.cpp:137] Memory required for data: 467578000
I1006 15:09:05.743746  2964 layer_factory.hpp:77] Creating layer Eltwise11_penlu23_0_split
I1006 15:09:05.743749  2964 net.cpp:84] Creating Layer Eltwise11_penlu23_0_split
I1006 15:09:05.743752  2964 net.cpp:406] Eltwise11_penlu23_0_split <- Eltwise11
I1006 15:09:05.743755  2964 net.cpp:380] Eltwise11_penlu23_0_split -> Eltwise11_penlu23_0_split_0
I1006 15:09:05.743759  2964 net.cpp:380] Eltwise11_penlu23_0_split -> Eltwise11_penlu23_0_split_1
I1006 15:09:05.743782  2964 net.cpp:122] Setting up Eltwise11_penlu23_0_split
I1006 15:09:05.743784  2964 net.cpp:129] Top shape: 100 64 7 7 (313600)
I1006 15:09:05.743788  2964 net.cpp:129] Top shape: 100 64 7 7 (313600)
I1006 15:09:05.743789  2964 net.cpp:137] Memory required for data: 470086800
I1006 15:09:05.743791  2964 layer_factory.hpp:77] Creating layer Convolution26
I1006 15:09:05.743798  2964 net.cpp:84] Creating Layer Convolution26
I1006 15:09:05.743800  2964 net.cpp:406] Convolution26 <- Eltwise11_penlu23_0_split_0
I1006 15:09:05.743803  2964 net.cpp:380] Convolution26 -> Convolution26
I1006 15:09:05.745425  2964 net.cpp:122] Setting up Convolution26
I1006 15:09:05.745434  2964 net.cpp:129] Top shape: 100 64 7 7 (313600)
I1006 15:09:05.745442  2964 net.cpp:137] Memory required for data: 471341200
I1006 15:09:05.745447  2964 layer_factory.hpp:77] Creating layer BatchNorm26
I1006 15:09:05.745453  2964 net.cpp:84] Creating Layer BatchNorm26
I1006 15:09:05.745456  2964 net.cpp:406] BatchNorm26 <- Convolution26
I1006 15:09:05.745460  2964 net.cpp:367] BatchNorm26 -> Convolution26 (in-place)
I1006 15:09:05.745594  2964 net.cpp:122] Setting up BatchNorm26
I1006 15:09:05.745599  2964 net.cpp:129] Top shape: 100 64 7 7 (313600)
I1006 15:09:05.745601  2964 net.cpp:137] Memory required for data: 472595600
I1006 15:09:05.745606  2964 layer_factory.hpp:77] Creating layer Scale26
I1006 15:09:05.745610  2964 net.cpp:84] Creating Layer Scale26
I1006 15:09:05.745613  2964 net.cpp:406] Scale26 <- Convolution26
I1006 15:09:05.745616  2964 net.cpp:367] Scale26 -> Convolution26 (in-place)
I1006 15:09:05.745643  2964 layer_factory.hpp:77] Creating layer Scale26
I1006 15:09:05.745721  2964 net.cpp:122] Setting up Scale26
I1006 15:09:05.745725  2964 net.cpp:129] Top shape: 100 64 7 7 (313600)
I1006 15:09:05.745728  2964 net.cpp:137] Memory required for data: 473850000
I1006 15:09:05.745731  2964 layer_factory.hpp:77] Creating layer penlu24
I1006 15:09:05.745736  2964 net.cpp:84] Creating Layer penlu24
I1006 15:09:05.745739  2964 net.cpp:406] penlu24 <- Convolution26
I1006 15:09:05.745743  2964 net.cpp:367] penlu24 -> Convolution26 (in-place)
I1006 15:09:05.745851  2964 net.cpp:122] Setting up penlu24
I1006 15:09:05.745854  2964 net.cpp:129] Top shape: 100 64 7 7 (313600)
I1006 15:09:05.745857  2964 net.cpp:137] Memory required for data: 475104400
I1006 15:09:05.745862  2964 layer_factory.hpp:77] Creating layer Convolution27
I1006 15:09:05.745867  2964 net.cpp:84] Creating Layer Convolution27
I1006 15:09:05.745869  2964 net.cpp:406] Convolution27 <- Convolution26
I1006 15:09:05.745873  2964 net.cpp:380] Convolution27 -> Convolution27
I1006 15:09:05.747491  2964 net.cpp:122] Setting up Convolution27
I1006 15:09:05.747500  2964 net.cpp:129] Top shape: 100 64 7 7 (313600)
I1006 15:09:05.747503  2964 net.cpp:137] Memory required for data: 476358800
I1006 15:09:05.747508  2964 layer_factory.hpp:77] Creating layer BatchNorm27
I1006 15:09:05.747514  2964 net.cpp:84] Creating Layer BatchNorm27
I1006 15:09:05.747515  2964 net.cpp:406] BatchNorm27 <- Convolution27
I1006 15:09:05.747519  2964 net.cpp:367] BatchNorm27 -> Convolution27 (in-place)
I1006 15:09:05.747656  2964 net.cpp:122] Setting up BatchNorm27
I1006 15:09:05.747661  2964 net.cpp:129] Top shape: 100 64 7 7 (313600)
I1006 15:09:05.747663  2964 net.cpp:137] Memory required for data: 477613200
I1006 15:09:05.747689  2964 layer_factory.hpp:77] Creating layer Scale27
I1006 15:09:05.747700  2964 net.cpp:84] Creating Layer Scale27
I1006 15:09:05.747704  2964 net.cpp:406] Scale27 <- Convolution27
I1006 15:09:05.747706  2964 net.cpp:367] Scale27 -> Convolution27 (in-place)
I1006 15:09:05.747735  2964 layer_factory.hpp:77] Creating layer Scale27
I1006 15:09:05.747812  2964 net.cpp:122] Setting up Scale27
I1006 15:09:05.747815  2964 net.cpp:129] Top shape: 100 64 7 7 (313600)
I1006 15:09:05.747817  2964 net.cpp:137] Memory required for data: 478867600
I1006 15:09:05.747822  2964 layer_factory.hpp:77] Creating layer Eltwise12
I1006 15:09:05.747826  2964 net.cpp:84] Creating Layer Eltwise12
I1006 15:09:05.747828  2964 net.cpp:406] Eltwise12 <- Eltwise11_penlu23_0_split_1
I1006 15:09:05.747831  2964 net.cpp:406] Eltwise12 <- Convolution27
I1006 15:09:05.747834  2964 net.cpp:380] Eltwise12 -> Eltwise12
I1006 15:09:05.747854  2964 net.cpp:122] Setting up Eltwise12
I1006 15:09:05.747859  2964 net.cpp:129] Top shape: 100 64 7 7 (313600)
I1006 15:09:05.747860  2964 net.cpp:137] Memory required for data: 480122000
I1006 15:09:05.747862  2964 layer_factory.hpp:77] Creating layer penlu25
I1006 15:09:05.747867  2964 net.cpp:84] Creating Layer penlu25
I1006 15:09:05.747869  2964 net.cpp:406] penlu25 <- Eltwise12
I1006 15:09:05.747874  2964 net.cpp:367] penlu25 -> Eltwise12 (in-place)
I1006 15:09:05.747984  2964 net.cpp:122] Setting up penlu25
I1006 15:09:05.747997  2964 net.cpp:129] Top shape: 100 64 7 7 (313600)
I1006 15:09:05.747998  2964 net.cpp:137] Memory required for data: 481376400
I1006 15:09:05.748003  2964 layer_factory.hpp:77] Creating layer Eltwise12_penlu25_0_split
I1006 15:09:05.748006  2964 net.cpp:84] Creating Layer Eltwise12_penlu25_0_split
I1006 15:09:05.748008  2964 net.cpp:406] Eltwise12_penlu25_0_split <- Eltwise12
I1006 15:09:05.748013  2964 net.cpp:380] Eltwise12_penlu25_0_split -> Eltwise12_penlu25_0_split_0
I1006 15:09:05.748016  2964 net.cpp:380] Eltwise12_penlu25_0_split -> Eltwise12_penlu25_0_split_1
I1006 15:09:05.748040  2964 net.cpp:122] Setting up Eltwise12_penlu25_0_split
I1006 15:09:05.748044  2964 net.cpp:129] Top shape: 100 64 7 7 (313600)
I1006 15:09:05.748047  2964 net.cpp:129] Top shape: 100 64 7 7 (313600)
I1006 15:09:05.748049  2964 net.cpp:137] Memory required for data: 483885200
I1006 15:09:05.748051  2964 layer_factory.hpp:77] Creating layer Convolution28
I1006 15:09:05.748057  2964 net.cpp:84] Creating Layer Convolution28
I1006 15:09:05.748059  2964 net.cpp:406] Convolution28 <- Eltwise12_penlu25_0_split_0
I1006 15:09:05.748064  2964 net.cpp:380] Convolution28 -> Convolution28
I1006 15:09:05.749680  2964 net.cpp:122] Setting up Convolution28
I1006 15:09:05.749689  2964 net.cpp:129] Top shape: 100 64 7 7 (313600)
I1006 15:09:05.749691  2964 net.cpp:137] Memory required for data: 485139600
I1006 15:09:05.749696  2964 layer_factory.hpp:77] Creating layer BatchNorm28
I1006 15:09:05.749701  2964 net.cpp:84] Creating Layer BatchNorm28
I1006 15:09:05.749704  2964 net.cpp:406] BatchNorm28 <- Convolution28
I1006 15:09:05.749708  2964 net.cpp:367] BatchNorm28 -> Convolution28 (in-place)
I1006 15:09:05.749845  2964 net.cpp:122] Setting up BatchNorm28
I1006 15:09:05.749848  2964 net.cpp:129] Top shape: 100 64 7 7 (313600)
I1006 15:09:05.749850  2964 net.cpp:137] Memory required for data: 486394000
I1006 15:09:05.749855  2964 layer_factory.hpp:77] Creating layer Scale28
I1006 15:09:05.749858  2964 net.cpp:84] Creating Layer Scale28
I1006 15:09:05.749861  2964 net.cpp:406] Scale28 <- Convolution28
I1006 15:09:05.749864  2964 net.cpp:367] Scale28 -> Convolution28 (in-place)
I1006 15:09:05.749891  2964 layer_factory.hpp:77] Creating layer Scale28
I1006 15:09:05.749969  2964 net.cpp:122] Setting up Scale28
I1006 15:09:05.749972  2964 net.cpp:129] Top shape: 100 64 7 7 (313600)
I1006 15:09:05.749974  2964 net.cpp:137] Memory required for data: 487648400
I1006 15:09:05.749977  2964 layer_factory.hpp:77] Creating layer penlu26
I1006 15:09:05.749982  2964 net.cpp:84] Creating Layer penlu26
I1006 15:09:05.749985  2964 net.cpp:406] penlu26 <- Convolution28
I1006 15:09:05.749989  2964 net.cpp:367] penlu26 -> Convolution28 (in-place)
I1006 15:09:05.750100  2964 net.cpp:122] Setting up penlu26
I1006 15:09:05.750104  2964 net.cpp:129] Top shape: 100 64 7 7 (313600)
I1006 15:09:05.750107  2964 net.cpp:137] Memory required for data: 488902800
I1006 15:09:05.750110  2964 layer_factory.hpp:77] Creating layer Convolution29
I1006 15:09:05.750116  2964 net.cpp:84] Creating Layer Convolution29
I1006 15:09:05.750119  2964 net.cpp:406] Convolution29 <- Convolution28
I1006 15:09:05.750123  2964 net.cpp:380] Convolution29 -> Convolution29
I1006 15:09:05.752063  2964 net.cpp:122] Setting up Convolution29
I1006 15:09:05.752070  2964 net.cpp:129] Top shape: 100 64 7 7 (313600)
I1006 15:09:05.752074  2964 net.cpp:137] Memory required for data: 490157200
I1006 15:09:05.752079  2964 layer_factory.hpp:77] Creating layer BatchNorm29
I1006 15:09:05.752084  2964 net.cpp:84] Creating Layer BatchNorm29
I1006 15:09:05.752086  2964 net.cpp:406] BatchNorm29 <- Convolution29
I1006 15:09:05.752089  2964 net.cpp:367] BatchNorm29 -> Convolution29 (in-place)
I1006 15:09:05.752231  2964 net.cpp:122] Setting up BatchNorm29
I1006 15:09:05.752235  2964 net.cpp:129] Top shape: 100 64 7 7 (313600)
I1006 15:09:05.752238  2964 net.cpp:137] Memory required for data: 491411600
I1006 15:09:05.752243  2964 layer_factory.hpp:77] Creating layer Scale29
I1006 15:09:05.752246  2964 net.cpp:84] Creating Layer Scale29
I1006 15:09:05.752255  2964 net.cpp:406] Scale29 <- Convolution29
I1006 15:09:05.752259  2964 net.cpp:367] Scale29 -> Convolution29 (in-place)
I1006 15:09:05.752288  2964 layer_factory.hpp:77] Creating layer Scale29
I1006 15:09:05.752369  2964 net.cpp:122] Setting up Scale29
I1006 15:09:05.752374  2964 net.cpp:129] Top shape: 100 64 7 7 (313600)
I1006 15:09:05.752377  2964 net.cpp:137] Memory required for data: 492666000
I1006 15:09:05.752380  2964 layer_factory.hpp:77] Creating layer Eltwise13
I1006 15:09:05.752384  2964 net.cpp:84] Creating Layer Eltwise13
I1006 15:09:05.752387  2964 net.cpp:406] Eltwise13 <- Eltwise12_penlu25_0_split_1
I1006 15:09:05.752389  2964 net.cpp:406] Eltwise13 <- Convolution29
I1006 15:09:05.752393  2964 net.cpp:380] Eltwise13 -> Eltwise13
I1006 15:09:05.752409  2964 net.cpp:122] Setting up Eltwise13
I1006 15:09:05.752413  2964 net.cpp:129] Top shape: 100 64 7 7 (313600)
I1006 15:09:05.752414  2964 net.cpp:137] Memory required for data: 493920400
I1006 15:09:05.752416  2964 layer_factory.hpp:77] Creating layer penlu27
I1006 15:09:05.752423  2964 net.cpp:84] Creating Layer penlu27
I1006 15:09:05.752424  2964 net.cpp:406] penlu27 <- Eltwise13
I1006 15:09:05.752429  2964 net.cpp:367] penlu27 -> Eltwise13 (in-place)
I1006 15:09:05.752539  2964 net.cpp:122] Setting up penlu27
I1006 15:09:05.752543  2964 net.cpp:129] Top shape: 100 64 7 7 (313600)
I1006 15:09:05.752545  2964 net.cpp:137] Memory required for data: 495174800
I1006 15:09:05.752549  2964 layer_factory.hpp:77] Creating layer Eltwise13_penlu27_0_split
I1006 15:09:05.752553  2964 net.cpp:84] Creating Layer Eltwise13_penlu27_0_split
I1006 15:09:05.752555  2964 net.cpp:406] Eltwise13_penlu27_0_split <- Eltwise13
I1006 15:09:05.752558  2964 net.cpp:380] Eltwise13_penlu27_0_split -> Eltwise13_penlu27_0_split_0
I1006 15:09:05.752562  2964 net.cpp:380] Eltwise13_penlu27_0_split -> Eltwise13_penlu27_0_split_1
I1006 15:09:05.752585  2964 net.cpp:122] Setting up Eltwise13_penlu27_0_split
I1006 15:09:05.752589  2964 net.cpp:129] Top shape: 100 64 7 7 (313600)
I1006 15:09:05.752591  2964 net.cpp:129] Top shape: 100 64 7 7 (313600)
I1006 15:09:05.752593  2964 net.cpp:137] Memory required for data: 497683600
I1006 15:09:05.752595  2964 layer_factory.hpp:77] Creating layer Convolution30
I1006 15:09:05.752601  2964 net.cpp:84] Creating Layer Convolution30
I1006 15:09:05.752604  2964 net.cpp:406] Convolution30 <- Eltwise13_penlu27_0_split_0
I1006 15:09:05.752609  2964 net.cpp:380] Convolution30 -> Convolution30
I1006 15:09:05.754238  2964 net.cpp:122] Setting up Convolution30
I1006 15:09:05.754247  2964 net.cpp:129] Top shape: 100 64 7 7 (313600)
I1006 15:09:05.754250  2964 net.cpp:137] Memory required for data: 498938000
I1006 15:09:05.754254  2964 layer_factory.hpp:77] Creating layer BatchNorm30
I1006 15:09:05.754259  2964 net.cpp:84] Creating Layer BatchNorm30
I1006 15:09:05.754262  2964 net.cpp:406] BatchNorm30 <- Convolution30
I1006 15:09:05.754266  2964 net.cpp:367] BatchNorm30 -> Convolution30 (in-place)
I1006 15:09:05.754405  2964 net.cpp:122] Setting up BatchNorm30
I1006 15:09:05.754410  2964 net.cpp:129] Top shape: 100 64 7 7 (313600)
I1006 15:09:05.754411  2964 net.cpp:137] Memory required for data: 500192400
I1006 15:09:05.754416  2964 layer_factory.hpp:77] Creating layer Scale30
I1006 15:09:05.754420  2964 net.cpp:84] Creating Layer Scale30
I1006 15:09:05.754422  2964 net.cpp:406] Scale30 <- Convolution30
I1006 15:09:05.754426  2964 net.cpp:367] Scale30 -> Convolution30 (in-place)
I1006 15:09:05.754453  2964 layer_factory.hpp:77] Creating layer Scale30
I1006 15:09:05.754531  2964 net.cpp:122] Setting up Scale30
I1006 15:09:05.754536  2964 net.cpp:129] Top shape: 100 64 7 7 (313600)
I1006 15:09:05.754539  2964 net.cpp:137] Memory required for data: 501446800
I1006 15:09:05.754542  2964 layer_factory.hpp:77] Creating layer penlu28
I1006 15:09:05.754546  2964 net.cpp:84] Creating Layer penlu28
I1006 15:09:05.754549  2964 net.cpp:406] penlu28 <- Convolution30
I1006 15:09:05.754554  2964 net.cpp:367] penlu28 -> Convolution30 (in-place)
I1006 15:09:05.754672  2964 net.cpp:122] Setting up penlu28
I1006 15:09:05.754676  2964 net.cpp:129] Top shape: 100 64 7 7 (313600)
I1006 15:09:05.754678  2964 net.cpp:137] Memory required for data: 502701200
I1006 15:09:05.754683  2964 layer_factory.hpp:77] Creating layer Convolution31
I1006 15:09:05.754688  2964 net.cpp:84] Creating Layer Convolution31
I1006 15:09:05.754691  2964 net.cpp:406] Convolution31 <- Convolution30
I1006 15:09:05.754695  2964 net.cpp:380] Convolution31 -> Convolution31
I1006 15:09:05.756642  2964 net.cpp:122] Setting up Convolution31
I1006 15:09:05.756651  2964 net.cpp:129] Top shape: 100 64 7 7 (313600)
I1006 15:09:05.756654  2964 net.cpp:137] Memory required for data: 503955600
I1006 15:09:05.756659  2964 layer_factory.hpp:77] Creating layer BatchNorm31
I1006 15:09:05.756664  2964 net.cpp:84] Creating Layer BatchNorm31
I1006 15:09:05.756666  2964 net.cpp:406] BatchNorm31 <- Convolution31
I1006 15:09:05.756670  2964 net.cpp:367] BatchNorm31 -> Convolution31 (in-place)
I1006 15:09:05.756810  2964 net.cpp:122] Setting up BatchNorm31
I1006 15:09:05.756814  2964 net.cpp:129] Top shape: 100 64 7 7 (313600)
I1006 15:09:05.756817  2964 net.cpp:137] Memory required for data: 505210000
I1006 15:09:05.756822  2964 layer_factory.hpp:77] Creating layer Scale31
I1006 15:09:05.756826  2964 net.cpp:84] Creating Layer Scale31
I1006 15:09:05.756829  2964 net.cpp:406] Scale31 <- Convolution31
I1006 15:09:05.756832  2964 net.cpp:367] Scale31 -> Convolution31 (in-place)
I1006 15:09:05.756860  2964 layer_factory.hpp:77] Creating layer Scale31
I1006 15:09:05.756937  2964 net.cpp:122] Setting up Scale31
I1006 15:09:05.756942  2964 net.cpp:129] Top shape: 100 64 7 7 (313600)
I1006 15:09:05.756944  2964 net.cpp:137] Memory required for data: 506464400
I1006 15:09:05.756947  2964 layer_factory.hpp:77] Creating layer Eltwise14
I1006 15:09:05.756953  2964 net.cpp:84] Creating Layer Eltwise14
I1006 15:09:05.756954  2964 net.cpp:406] Eltwise14 <- Eltwise13_penlu27_0_split_1
I1006 15:09:05.756958  2964 net.cpp:406] Eltwise14 <- Convolution31
I1006 15:09:05.756961  2964 net.cpp:380] Eltwise14 -> Eltwise14
I1006 15:09:05.756976  2964 net.cpp:122] Setting up Eltwise14
I1006 15:09:05.756980  2964 net.cpp:129] Top shape: 100 64 7 7 (313600)
I1006 15:09:05.756981  2964 net.cpp:137] Memory required for data: 507718800
I1006 15:09:05.756983  2964 layer_factory.hpp:77] Creating layer penlu29
I1006 15:09:05.756989  2964 net.cpp:84] Creating Layer penlu29
I1006 15:09:05.756992  2964 net.cpp:406] penlu29 <- Eltwise14
I1006 15:09:05.756995  2964 net.cpp:367] penlu29 -> Eltwise14 (in-place)
I1006 15:09:05.757105  2964 net.cpp:122] Setting up penlu29
I1006 15:09:05.757109  2964 net.cpp:129] Top shape: 100 64 7 7 (313600)
I1006 15:09:05.757112  2964 net.cpp:137] Memory required for data: 508973200
I1006 15:09:05.757115  2964 layer_factory.hpp:77] Creating layer Eltwise14_penlu29_0_split
I1006 15:09:05.757118  2964 net.cpp:84] Creating Layer Eltwise14_penlu29_0_split
I1006 15:09:05.757122  2964 net.cpp:406] Eltwise14_penlu29_0_split <- Eltwise14
I1006 15:09:05.757124  2964 net.cpp:380] Eltwise14_penlu29_0_split -> Eltwise14_penlu29_0_split_0
I1006 15:09:05.757128  2964 net.cpp:380] Eltwise14_penlu29_0_split -> Eltwise14_penlu29_0_split_1
I1006 15:09:05.757150  2964 net.cpp:122] Setting up Eltwise14_penlu29_0_split
I1006 15:09:05.757154  2964 net.cpp:129] Top shape: 100 64 7 7 (313600)
I1006 15:09:05.757158  2964 net.cpp:129] Top shape: 100 64 7 7 (313600)
I1006 15:09:05.757158  2964 net.cpp:137] Memory required for data: 511482000
I1006 15:09:05.757160  2964 layer_factory.hpp:77] Creating layer Convolution32
I1006 15:09:05.757167  2964 net.cpp:84] Creating Layer Convolution32
I1006 15:09:05.757169  2964 net.cpp:406] Convolution32 <- Eltwise14_penlu29_0_split_0
I1006 15:09:05.757174  2964 net.cpp:380] Convolution32 -> Convolution32
I1006 15:09:05.758806  2964 net.cpp:122] Setting up Convolution32
I1006 15:09:05.758816  2964 net.cpp:129] Top shape: 100 64 7 7 (313600)
I1006 15:09:05.758817  2964 net.cpp:137] Memory required for data: 512736400
I1006 15:09:05.758829  2964 layer_factory.hpp:77] Creating layer BatchNorm32
I1006 15:09:05.758836  2964 net.cpp:84] Creating Layer BatchNorm32
I1006 15:09:05.758838  2964 net.cpp:406] BatchNorm32 <- Convolution32
I1006 15:09:05.758841  2964 net.cpp:367] BatchNorm32 -> Convolution32 (in-place)
I1006 15:09:05.758981  2964 net.cpp:122] Setting up BatchNorm32
I1006 15:09:05.758985  2964 net.cpp:129] Top shape: 100 64 7 7 (313600)
I1006 15:09:05.758988  2964 net.cpp:137] Memory required for data: 513990800
I1006 15:09:05.758992  2964 layer_factory.hpp:77] Creating layer Scale32
I1006 15:09:05.758996  2964 net.cpp:84] Creating Layer Scale32
I1006 15:09:05.758999  2964 net.cpp:406] Scale32 <- Convolution32
I1006 15:09:05.759002  2964 net.cpp:367] Scale32 -> Convolution32 (in-place)
I1006 15:09:05.759032  2964 layer_factory.hpp:77] Creating layer Scale32
I1006 15:09:05.759109  2964 net.cpp:122] Setting up Scale32
I1006 15:09:05.759114  2964 net.cpp:129] Top shape: 100 64 7 7 (313600)
I1006 15:09:05.759116  2964 net.cpp:137] Memory required for data: 515245200
I1006 15:09:05.759120  2964 layer_factory.hpp:77] Creating layer penlu30
I1006 15:09:05.759125  2964 net.cpp:84] Creating Layer penlu30
I1006 15:09:05.759129  2964 net.cpp:406] penlu30 <- Convolution32
I1006 15:09:05.759131  2964 net.cpp:367] penlu30 -> Convolution32 (in-place)
I1006 15:09:05.759250  2964 net.cpp:122] Setting up penlu30
I1006 15:09:05.759255  2964 net.cpp:129] Top shape: 100 64 7 7 (313600)
I1006 15:09:05.759258  2964 net.cpp:137] Memory required for data: 516499600
I1006 15:09:05.759263  2964 layer_factory.hpp:77] Creating layer Convolution33
I1006 15:09:05.759268  2964 net.cpp:84] Creating Layer Convolution33
I1006 15:09:05.759271  2964 net.cpp:406] Convolution33 <- Convolution32
I1006 15:09:05.759275  2964 net.cpp:380] Convolution33 -> Convolution33
I1006 15:09:05.761215  2964 net.cpp:122] Setting up Convolution33
I1006 15:09:05.761224  2964 net.cpp:129] Top shape: 100 64 7 7 (313600)
I1006 15:09:05.761225  2964 net.cpp:137] Memory required for data: 517754000
I1006 15:09:05.761230  2964 layer_factory.hpp:77] Creating layer BatchNorm33
I1006 15:09:05.761234  2964 net.cpp:84] Creating Layer BatchNorm33
I1006 15:09:05.761237  2964 net.cpp:406] BatchNorm33 <- Convolution33
I1006 15:09:05.761241  2964 net.cpp:367] BatchNorm33 -> Convolution33 (in-place)
I1006 15:09:05.761384  2964 net.cpp:122] Setting up BatchNorm33
I1006 15:09:05.761387  2964 net.cpp:129] Top shape: 100 64 7 7 (313600)
I1006 15:09:05.761389  2964 net.cpp:137] Memory required for data: 519008400
I1006 15:09:05.761394  2964 layer_factory.hpp:77] Creating layer Scale33
I1006 15:09:05.761399  2964 net.cpp:84] Creating Layer Scale33
I1006 15:09:05.761400  2964 net.cpp:406] Scale33 <- Convolution33
I1006 15:09:05.761404  2964 net.cpp:367] Scale33 -> Convolution33 (in-place)
I1006 15:09:05.761431  2964 layer_factory.hpp:77] Creating layer Scale33
I1006 15:09:05.761509  2964 net.cpp:122] Setting up Scale33
I1006 15:09:05.761514  2964 net.cpp:129] Top shape: 100 64 7 7 (313600)
I1006 15:09:05.761517  2964 net.cpp:137] Memory required for data: 520262800
I1006 15:09:05.761519  2964 layer_factory.hpp:77] Creating layer Eltwise15
I1006 15:09:05.761523  2964 net.cpp:84] Creating Layer Eltwise15
I1006 15:09:05.761526  2964 net.cpp:406] Eltwise15 <- Eltwise14_penlu29_0_split_1
I1006 15:09:05.761528  2964 net.cpp:406] Eltwise15 <- Convolution33
I1006 15:09:05.761533  2964 net.cpp:380] Eltwise15 -> Eltwise15
I1006 15:09:05.761549  2964 net.cpp:122] Setting up Eltwise15
I1006 15:09:05.761553  2964 net.cpp:129] Top shape: 100 64 7 7 (313600)
I1006 15:09:05.761554  2964 net.cpp:137] Memory required for data: 521517200
I1006 15:09:05.761556  2964 layer_factory.hpp:77] Creating layer penlu31
I1006 15:09:05.761561  2964 net.cpp:84] Creating Layer penlu31
I1006 15:09:05.761564  2964 net.cpp:406] penlu31 <- Eltwise15
I1006 15:09:05.761567  2964 net.cpp:367] penlu31 -> Eltwise15 (in-place)
I1006 15:09:05.761678  2964 net.cpp:122] Setting up penlu31
I1006 15:09:05.761682  2964 net.cpp:129] Top shape: 100 64 7 7 (313600)
I1006 15:09:05.761690  2964 net.cpp:137] Memory required for data: 522771600
I1006 15:09:05.761695  2964 layer_factory.hpp:77] Creating layer Pooling1
I1006 15:09:05.761700  2964 net.cpp:84] Creating Layer Pooling1
I1006 15:09:05.761703  2964 net.cpp:406] Pooling1 <- Eltwise15
I1006 15:09:05.761705  2964 net.cpp:380] Pooling1 -> Pooling1
I1006 15:09:05.761859  2964 net.cpp:122] Setting up Pooling1
I1006 15:09:05.761865  2964 net.cpp:129] Top shape: 100 64 1 1 (6400)
I1006 15:09:05.761868  2964 net.cpp:137] Memory required for data: 522797200
I1006 15:09:05.761870  2964 layer_factory.hpp:77] Creating layer InnerProduct1
I1006 15:09:05.761880  2964 net.cpp:84] Creating Layer InnerProduct1
I1006 15:09:05.761883  2964 net.cpp:406] InnerProduct1 <- Pooling1
I1006 15:09:05.761888  2964 net.cpp:380] InnerProduct1 -> InnerProduct1
I1006 15:09:05.761981  2964 net.cpp:122] Setting up InnerProduct1
I1006 15:09:05.761987  2964 net.cpp:129] Top shape: 100 10 (1000)
I1006 15:09:05.761989  2964 net.cpp:137] Memory required for data: 522801200
I1006 15:09:05.761992  2964 layer_factory.hpp:77] Creating layer SoftmaxWithLoss1
I1006 15:09:05.761997  2964 net.cpp:84] Creating Layer SoftmaxWithLoss1
I1006 15:09:05.761999  2964 net.cpp:406] SoftmaxWithLoss1 <- InnerProduct1
I1006 15:09:05.762002  2964 net.cpp:406] SoftmaxWithLoss1 <- Data2
I1006 15:09:05.762006  2964 net.cpp:380] SoftmaxWithLoss1 -> SoftmaxWithLoss1
…
I1006 15:09:05.766763  2964 net.cpp:294] The NetState phase (1) differed from the phase (0) specified by a rule in layer Data1
I1006 15:09:05.767624  2964 net.cpp:51] Initializing net from parameters: 
name: "resnet_cifar10"
state {
  phase: TEST
}
layer {
  name: "Data1"
  type: "Data"
  top: "Data1"
  top: "Data2"
  include {
    phase: TEST
  }
  transform_param {
    mean_file: "/home/x306/caffe/xn/PENLU/data/cifar10/mean.binaryproto"
  }
  data_param {
    source: "/home/x306/caffe/xn/PENLU/data/cifar10/cifar10_test_lmdb"
    batch_size: 100
    backend: LMDB
  }
}
layer {
  name: "Convolution1"
  type: "Convolution"
  bottom: "Data1"
  top: "Convolution1"
  param {
    lr_mult: 1
    decay_mult: 1
  }
  param {
    lr_mult: 2
    decay_mult: 0
  }
  convolution_param {
    num_output: 16
    pad: 1
    kernel_size: 3
    stride: 1
    weight_filler {
      type: "gaussian"
      std: 0.118
    }
    bias_filler {
      type: "constant"
      value: 0
    }
  }
}
layer {
  name: "BatchNorm1"
  type: "BatchNorm"
  bottom: "Convolution1"
  top: "Convolution1"
  param {
    lr_mult: 0
    decay_mult: 0
  }
  param {
    lr_mult: 0
    decay_mult: 0
  }
  param {
    lr_mult: 0
    decay_mult: 0
  }
}
layer {
  name: "Scale1"
  type: "Scale"
  bottom: "Convolution1"
  top: "Convolution1"
  scale_param {
    bias_term: true
  }
}
layer {
  name: "penlu1"
  type: "PENLU"
  bottom: "Convolution1"
  top: "Convolution1"
  param {
    lr_mult: 2
    decay_mult: 2
  }
  param {
    lr_mult: 2
    decay_mult: 2
  }
  param {
    lr_mult: 0
    decay_mult: 0
  }
  penlu_param {
    alpha_filler {
      type: "constant"
      value: 0.25
    }
    beta_filler {
      type: "constant"
      value: 1
    }
    eta_filler {
      type: "constant"
      value: 1
    }
  }
}
layer {
  name: "Convolution2"
  type: "Convolution"
  bottom: "Convolution1"
  top: "Convolution2"
  param {
    lr_mult: 1
    decay_mult: 1
  }
  param {
    lr_mult: 2
    decay_mult: 0
  }
  convolution_param {
    num_output: 16
    pad: 1
    kernel_size: 3
    stride: 1
    weight_filler {
      type: "gaussian"
      std: 0.118
    }
    bias_filler {
      type: "constant"
      value: 0
    }
  }
}
layer {
  name: "BatchNorm2"
  type: "BatchNorm"
  bottom: "Convolution2"
  top: "Convolution2"
  param {
    lr_mult: 0
    decay_mult: 0
  }
  param {
    lr_mult: 0
    decay_mult: 0
  }
  param {
    lr_mult: 0
    decay_mult: 0
  }
}
layer {
  name: "Scale2"
  type: "Scale"
  bottom: "Convolution2"
  top: "Convolution2"
  scale_param {
    bias_term: true
  }
}
layer {
  name: "penlu2"
  type: "PENLU"
  bottom: "Convolution2"
  top: "Convolution2"
  param {
    lr_mult: 2
    decay_mult: 2
  }
  param {
    lr_mult: 2
    decay_mult: 2
  }
  param {
    lr_mult: 0
    decay_mult: 0
  }
  penlu_param {
    alpha_filler {
      type: "constant"
      value: 0.25
    }
    beta_filler {
      type: "constant"
      value: 1
    }
    eta_filler {
      type: "constant"
      value: 1
    }
  }
}
layer {
  name: "Convolution3"
  type: "Convolution"
  bottom: "Convolution2"
  top: "Convolution3"
  param {
    lr_mult: 1
    decay_mult: 1
  }
  param {
    lr_mult: 2
    decay_mult: 0
  }
  convolution_param {
    num_output: 16
    pad: 1
    kernel_size: 3
    stride: 1
    weight_filler {
      type: "gaussian"
      std: 0.118
    }
    bias_filler {
      type: "constant"
      value: 0
    }
  }
}
layer {
  name: "BatchNorm3"
  type: "BatchNorm"
  bottom: "Convolution3"
  top: "Convolution3"
  param {
    lr_mult: 0
    decay_mult: 0
  }
  param {
    lr_mult: 0
    decay_mult: 0
  }
  param {
    lr_mult: 0
    decay_mult: 0
  }
}
layer {
  name: "Scale3"
  type: "Scale"
  bottom: "Convolution3"
  top: "Convolution3"
  scale_param {
    bias_term: true
  }
}
layer {
  name: "Eltwise1"
  type: "Eltwise"
  bottom: "Convolution1"
  bottom: "Convolution3"
  top: "Eltwise1"
  eltwise_param {
    operation: SUM
  }
}
layer {
  name: "penlu3"
  type: "PENLU"
  bottom: "Eltwise1"
  top: "Eltwise1"
  param {
    lr_mult: 2
    decay_mult: 2
  }
  param {
    lr_mult: 2
    decay_mult: 2
  }
  param {
    lr_mult: 0
    decay_mult: 0
  }
  penlu_param {
    alpha_filler {
      type: "constant"
      value: 0.25
    }
    beta_filler {
      type: "constant"
      value: 1
    }
    eta_filler {
      type: "constant"
      value: 1
    }
  }
}
layer {
  name: "Convolution4"
  type: "Convolution"
  bottom: "Eltwise1"
  top: "Convolution4"
  param {
    lr_mult: 1
    decay_mult: 1
  }
  param {
    lr_mult: 2
    decay_mult: 0
  }
  convolution_param {
    num_output: 16
    pad: 1
    kernel_size: 3
    stride: 1
    weight_filler {
      type: "gaussian"
      std: 0.118
    }
    bias_filler {
      type: "constant"
      value: 0
    }
  }
}
layer {
  name: "BatchNorm4"
  type: "BatchNorm"
  bottom: "Convolution4"
  top: "Convolution4"
  param {
    lr_mult: 0
    decay_mult: 0
  }
  param {
    lr_mult: 0
    decay_mult: 0
  }
  param {
    lr_mult: 0
    decay_mult: 0
  }
}
layer {
  name: "Scale4"
  type: "Scale"
  bottom: "Convolution4"
  top: "Convolution4"
  scale_param {
    bias_term: true
  }
}
layer {
  name: "penlu4"
  type: "PENLU"
  bottom: "Convolution4"
  top: "Convolution4"
  param {
    lr_mult: 2
    decay_mult: 2
  }
  param {
    lr_mult: 2
    decay_mult: 2
  }
  param {
    lr_mult: 0
    decay_mult: 0
  }
  penlu_param {
    alpha_filler {
      type: "constant"
      value: 0.25
    }
    beta_filler {
      type: "constant"
      value: 1
    }
    eta_filler {
      type: "constant"
      value: 1
    }
  }
}
layer {
  name: "Convolution5"
  type: "Convolution"
  bottom: "Convolution4"
  top: "Convolution5"
  param {
    lr_mult: 1
    decay_mult: 1
  }
  param {
    lr_mult: 2
    decay_mult: 0
  }
  convolution_param {
    num_output: 16
    pad: 1
    kernel_size: 3
    stride: 1
    weight_filler {
      type: "gaussian"
      std: 0.118
    }
    bias_filler {
      type: "constant"
      value: 0
    }
  }
}
layer {
  name: "BatchNorm5"
  type: "BatchNorm"
  bottom: "Convolution5"
  top: "Convolution5"
  param {
    lr_mult: 0
    decay_mult: 0
  }
  param {
    lr_mult: 0
    decay_mult: 0
  }
  param {
    lr_mult: 0
    decay_mult: 0
  }
}
layer {
  name: "Scale5"
  type: "Scale"
  bottom: "Convolution5"
  top: "Convolution5"
  scale_param {
    bias_term: true
  }
}
layer {
  name: "Eltwise2"
  type: "Eltwise"
  bottom: "Eltwise1"
  bottom: "Convolution5"
  top: "Eltwise2"
  eltwise_param {
    operation: SUM
  }
}
layer {
  name: "penlu5"
  type: "PENLU"
  bottom: "Eltwise2"
  top: "Eltwise2"
  param {
    lr_mult: 2
    decay_mult: 2
  }
  param {
    lr_mult: 2
    decay_mult: 2
  }
  param {
    lr_mult: 0
    decay_mult: 0
  }
  penlu_param {
    alpha_filler {
      type: "constant"
      value: 0.25
    }
    beta_filler {
      type: "constant"
      value: 1
    }
    eta_filler {
      type: "constant"
      value: 1
    }
  }
}
layer {
  name: "Convolution6"
  type: "Convolution"
  bottom: "Eltwise2"
  top: "Convolution6"
  param {
    lr_mult: 1
    decay_mult: 1
  }
  param {
    lr_mult: 2
    decay_mult: 0
  }
  convolution_param {
    num_output: 16
    pad: 1
    kernel_size: 3
    stride: 1
    weight_filler {
      type: "gaussian"
      std: 0.118
    }
    bias_filler {
      type: "constant"
      value: 0
    }
  }
}
layer {
  name: "BatchNorm6"
  type: "BatchNorm"
  bottom: "Convolution6"
  top: "Convolution6"
  param {
    lr_mult: 0
    decay_mult: 0
  }
  param {
    lr_mult: 0
    decay_mult: 0
  }
  param {
    lr_mult: 0
    decay_mult: 0
  }
}
layer {
  name: "Scale6"
  type: "Scale"
  bottom: "Convolution6"
  top: "Convolution6"
  scale_param {
    bias_term: true
  }
}
layer {
  name: "penlu6"
  type: "PENLU"
  bottom: "Convolution6"
  top: "Convolution6"
  param {
    lr_mult: 2
    decay_mult: 2
  }
  param {
    lr_mult: 2
    decay_mult: 2
  }
  param {
    lr_mult: 0
    decay_mult: 0
  }
  penlu_param {
    alpha_filler {
      type: "constant"
      value: 0.25
    }
    beta_filler {
      type: "constant"
      value: 1
    }
    eta_filler {
      type: "constant"
      value: 1
    }
  }
}
layer {
  name: "Convolution7"
  type: "Convolution"
  bottom: "Convolution6"
  top: "Convolution7"
  param {
    lr_mult: 1
    decay_mult: 1
  }
  param {
    lr_mult: 2
    decay_mult: 0
  }
  convolution_param {
    num_output: 16
    pad: 1
    kernel_size: 3
    stride: 1
    weight_filler {
      type: "gaussian"
      std: 0.118
    }
    bias_filler {
      type: "constant"
      value: 0
    }
  }
}
layer {
  name: "BatchNorm7"
  type: "BatchNorm"
  bottom: "Convolution7"
  top: "Convolution7"
  param {
    lr_mult: 0
    decay_mult: 0
  }
  param {
    lr_mult: 0
    decay_mult: 0
  }
  param {
    lr_mult: 0
    decay_mult: 0
  }
}
layer {
  name: "Scale7"
  type: "Scale"
  bottom: "Convolution7"
  top: "Convolution7"
  scale_param {
    bias_term: true
  }
}
layer {
  name: "Eltwise3"
  type: "Eltwise"
  bottom: "Eltwise2"
  bottom: "Convolution7"
  top: "Eltwise3"
  eltwise_param {
    operation: SUM
  }
}
layer {
  name: "penlu7"
  type: "PENLU"
  bottom: "Eltwise3"
  top: "Eltwise3"
  param {
    lr_mult: 2
    decay_mult: 2
  }
  param {
    lr_mult: 2
    decay_mult: 2
  }
  param {
    lr_mult: 0
    decay_mult: 0
  }
  penlu_param {
    alpha_filler {
      type: "constant"
      value: 0.25
    }
    beta_filler {
      type: "constant"
      value: 1
    }
    eta_filler {
      type: "constant"
      value: 1
    }
  }
}
layer {
  name: "Convolution8"
  type: "Convolution"
  bottom: "Eltwise3"
  top: "Convolution8"
  param {
    lr_mult: 1
    decay_mult: 1
  }
  param {
    lr_mult: 2
    decay_mult: 0
  }
  convolution_param {
    num_output: 16
    pad: 1
    kernel_size: 3
    stride: 1
    weight_filler {
      type: "gaussian"
      std: 0.118
    }
    bias_filler {
      type: "constant"
      value: 0
    }
  }
}
layer {
  name: "BatchNorm8"
  type: "BatchNorm"
  bottom: "Convolution8"
  top: "Convolution8"
  param {
    lr_mult: 0
    decay_mult: 0
  }
  param {
    lr_mult: 0
    decay_mult: 0
  }
  param {
    lr_mult: 0
    decay_mult: 0
  }
}
layer {
  name: "Scale8"
  type: "Scale"
  bottom: "Convolution8"
  top: "Convolution8"
  scale_param {
    bias_term: true
  }
}
layer {
  name: "penlu8"
  type: "PENLU"
  bottom: "Convolution8"
  top: "Convolution8"
  param {
    lr_mult: 2
    decay_mult: 2
  }
  param {
    lr_mult: 2
    decay_mult: 2
  }
  param {
    lr_mult: 0
    decay_mult: 0
  }
  penlu_param {
    alpha_filler {
      type: "constant"
      value: 0.25
    }
    beta_filler {
      type: "constant"
      value: 1
    }
    eta_filler {
      type: "constant"
      value: 1
    }
  }
}
layer {
  name: "Convolution9"
  type: "Convolution"
  bottom: "Convolution8"
  top: "Convolution9"
  param {
    lr_mult: 1
    decay_mult: 1
  }
  param {
    lr_mult: 2
    decay_mult: 0
  }
  convolution_param {
    num_output: 16
    pad: 1
    kernel_size: 3
    stride: 1
    weight_filler {
      type: "gaussian"
      std: 0.118
    }
    bias_filler {
      type: "constant"
      value: 0
    }
  }
}
layer {
  name: "BatchNorm9"
  type: "BatchNorm"
  bottom: "Convolution9"
  top: "Convolution9"
  param {
    lr_mult: 0
    decay_mult: 0
  }
  param {
    lr_mult: 0
    decay_mult: 0
  }
  param {
    lr_mult: 0
    decay_mult: 0
  }
}
layer {
  name: "Scale9"
  type: "Scale"
  bottom: "Convolution9"
  top: "Convolution9"
  scale_param {
    bias_term: true
  }
}
layer {
  name: "Eltwise4"
  type: "Eltwise"
  bottom: "Eltwise3"
  bottom: "Convolution9"
  top: "Eltwise4"
  eltwise_param {
    operation: SUM
  }
}
layer {
  name: "penlu9"
  type: "PENLU"
  bottom: "Eltwise4"
  top: "Eltwise4"
  param {
    lr_mult: 2
    decay_mult: 2
  }
  param {
    lr_mult: 2
    decay_mult: 2
  }
  param {
    lr_mult: 0
    decay_mult: 0
  }
  penlu_param {
    alpha_filler {
      type: "constant"
      value: 0.25
    }
    beta_filler {
      type: "constant"
      value: 1
    }
    eta_filler {
      type: "constant"
      value: 1
    }
  }
}
layer {
  name: "Convolution10"
  type: "Convolution"
  bottom: "Eltwise4"
  top: "Convolution10"
  param {
    lr_mult: 1
    decay_mult: 1
  }
  param {
    lr_mult: 2
    decay_mult: 0
  }
  convolution_param {
    num_output: 16
    pad: 1
    kernel_size: 3
    stride: 1
    weight_filler {
      type: "gaussian"
      std: 0.118
    }
    bias_filler {
      type: "constant"
      value: 0
    }
  }
}
layer {
  name: "BatchNorm10"
  type: "BatchNorm"
  bottom: "Convolution10"
  top: "Convolution10"
  param {
    lr_mult: 0
    decay_mult: 0
  }
  param {
    lr_mult: 0
    decay_mult: 0
  }
  param {
    lr_mult: 0
    decay_mult: 0
  }
}
layer {
  name: "Scale10"
  type: "Scale"
  bottom: "Convolution10"
  top: "Convolution10"
  scale_param {
    bias_term: true
  }
}
layer {
  name: "penlu10"
  type: "PENLU"
  bottom: "Convolution10"
  top: "Convolution10"
  param {
    lr_mult: 2
    decay_mult: 2
  }
  param {
    lr_mult: 2
    decay_mult: 2
  }
  param {
    lr_mult: 0
    decay_mult: 0
  }
  penlu_param {
    alpha_filler {
      type: "constant"
      value: 0.25
    }
    beta_filler {
      type: "constant"
      value: 1
    }
    eta_filler {
      type: "constant"
      value: 1
    }
  }
}
layer {
  name: "Convolution11"
  type: "Convolution"
  bottom: "Convolution10"
  top: "Convolution11"
  param {
    lr_mult: 1
    decay_mult: 1
  }
  param {
    lr_mult: 2
    decay_mult: 0
  }
  convolution_param {
    num_output: 16
    pad: 1
    kernel_size: 3
    stride: 1
    weight_filler {
      type: "gaussian"
      std: 0.118
    }
    bias_filler {
      type: "constant"
      value: 0
    }
  }
}
layer {
  name: "BatchNorm11"
  type: "BatchNorm"
  bottom: "Convolution11"
  top: "Convolution11"
  param {
    lr_mult: 0
    decay_mult: 0
  }
  param {
    lr_mult: 0
    decay_mult: 0
  }
  param {
    lr_mult: 0
    decay_mult: 0
  }
}
layer {
  name: "Scale11"
  type: "Scale"
  bottom: "Convolution11"
  top: "Convolution11"
  scale_param {
    bias_term: true
  }
}
layer {
  name: "Eltwise5"
  type: "Eltwise"
  bottom: "Eltwise4"
  bottom: "Convolution11"
  top: "Eltwise5"
  eltwise_param {
    operation: SUM
  }
}
layer {
  name: "penlu11"
  type: "PENLU"
  bottom: "Eltwise5"
  top: "Eltwise5"
  param {
    lr_mult: 2
    decay_mult: 2
  }
  param {
    lr_mult: 2
    decay_mult: 2
  }
  param {
    lr_mult: 0
    decay_mult: 0
  }
  penlu_param {
    alpha_filler {
      type: "constant"
      value: 0.25
    }
    beta_filler {
      type: "constant"
      value: 1
    }
    eta_filler {
      type: "constant"
      value: 1
    }
  }
}
layer {
  name: "Convolution12"
  type: "Convolution"
  bottom: "Eltwise5"
  top: "Convolution12"
  param {
    lr_mult: 1
    decay_mult: 1
  }
  param {
    lr_mult: 2
    decay_mult: 0
  }
  convolution_param {
    num_output: 32
    pad: 0
    kernel_size: 1
    stride: 2
    weight_filler {
      type: "gaussian"
      std: 0.25
    }
    bias_filler {
      type: "constant"
      value: 0
    }
  }
}
layer {
  name: "BatchNorm12"
  type: "BatchNorm"
  bottom: "Convolution12"
  top: "Convolution12"
  param {
    lr_mult: 0
    decay_mult: 0
  }
  param {
    lr_mult: 0
    decay_mult: 0
  }
  param {
    lr_mult: 0
    decay_mult: 0
  }
}
layer {
  name: "Scale12"
  type: "Scale"
  bottom: "Convolution12"
  top: "Convolution12"
  scale_param {
    bias_term: true
  }
}
layer {
  name: "Convolution13"
  type: "Convolution"
  bottom: "Eltwise5"
  top: "Convolution13"
  param {
    lr_mult: 1
    decay_mult: 1
  }
  param {
    lr_mult: 2
    decay_mult: 0
  }
  convolution_param {
    num_output: 32
    pad: 1
    kernel_size: 3
    stride: 2
    weight_filler {
      type: "gaussian"
      std: 0.083
    }
    bias_filler {
      type: "constant"
      value: 0
    }
  }
}
layer {
  name: "BatchNorm13"
  type: "BatchNorm"
  bottom: "Convolution13"
  top: "Convolution13"
  param {
    lr_mult: 0
    decay_mult: 0
  }
  param {
    lr_mult: 0
    decay_mult: 0
  }
  param {
    lr_mult: 0
    decay_mult: 0
  }
}
layer {
  name: "Scale13"
  type: "Scale"
  bottom: "Convolution13"
  top: "Convolution13"
  scale_param {
    bias_term: true
  }
}
layer {
  name: "penlu12"
  type: "PENLU"
  bottom: "Convolution13"
  top: "Convolution13"
  param {
    lr_mult: 2
    decay_mult: 2
  }
  param {
    lr_mult: 2
    decay_mult: 2
  }
  param {
    lr_mult: 0
    decay_mult: 0
  }
  penlu_param {
    alpha_filler {
      type: "constant"
      value: 0.25
    }
    beta_filler {
      type: "constant"
      value: 1
    }
    eta_filler {
      type: "constant"
      value: 1
    }
  }
}
layer {
  name: "Convolution14"
  type: "Convolution"
  bottom: "Convolution13"
  top: "Convolution14"
  param {
    lr_mult: 1
    decay_mult: 1
  }
  param {
    lr_mult: 2
    decay_mult: 0
  }
  convolution_param {
    num_output: 32
    pad: 1
    kernel_size: 3
    stride: 1
    weight_filler {
      type: "gaussian"
      std: 0.083
    }
    bias_filler {
      type: "constant"
      value: 0
    }
  }
}
layer {
  name: "BatchNorm14"
  type: "BatchNorm"
  bottom: "Convolution14"
  top: "Convolution14"
  param {
    lr_mult: 0
    decay_mult: 0
  }
  param {
    lr_mult: 0
    decay_mult: 0
  }
  param {
    lr_mult: 0
    decay_mult: 0
  }
}
layer {
  name: "Scale14"
  type: "Scale"
  bottom: "Convolution14"
  top: "Convolution14"
  scale_param {
    bias_term: true
  }
}
layer {
  name: "Eltwise6"
  type: "Eltwise"
  bottom: "Convolution12"
  bottom: "Convolution14"
  top: "Eltwise6"
  eltwise_param {
    operation: SUM
  }
}
layer {
  name: "penlu13"
  type: "PENLU"
  bottom: "Eltwise6"
  top: "Eltwise6"
  param {
    lr_mult: 2
    decay_mult: 2
  }
  param {
    lr_mult: 2
    decay_mult: 2
  }
  param {
    lr_mult: 0
    decay_mult: 0
  }
  penlu_param {
    alpha_filler {
      type: "constant"
      value: 0.25
    }
    beta_filler {
      type: "constant"
      value: 1
    }
    eta_filler {
      type: "constant"
      value: 1
    }
  }
}
layer {
  name: "Convolution15"
  type: "Convolution"
  bottom: "Eltwise6"
  top: "Convolution15"
  param {
    lr_mult: 1
    decay_mult: 1
  }
  param {
    lr_mult: 2
    decay_mult: 0
  }
  convolution_param {
    num_output: 32
    pad: 1
    kernel_size: 3
    stride: 1
    weight_filler {
      type: "gaussian"
      std: 0.083
    }
    bias_filler {
      type: "constant"
      value: 0
    }
  }
}
layer {
  name: "BatchNorm15"
  type: "BatchNorm"
  bottom: "Convolution15"
  top: "Convolution15"
  param {
    lr_mult: 0
    decay_mult: 0
  }
  param {
    lr_mult: 0
    decay_mult: 0
  }
  param {
    lr_mult: 0
    decay_mult: 0
  }
}
layer {
  name: "Scale15"
  type: "Scale"
  bottom: "Convolution15"
  top: "Convolution15"
  scale_param {
    bias_term: true
  }
}
layer {
  name: "penlu14"
  type: "PENLU"
  bottom: "Convolution15"
  top: "Convolution15"
  param {
    lr_mult: 2
    decay_mult: 2
  }
  param {
    lr_mult: 2
    decay_mult: 2
  }
  param {
    lr_mult: 0
    decay_mult: 0
  }
  penlu_param {
    alpha_filler {
      type: "constant"
      value: 0.25
    }
    beta_filler {
      type: "constant"
      value: 1
    }
    eta_filler {
      type: "constant"
      value: 1
    }
  }
}
layer {
  name: "Convolution16"
  type: "Convolution"
  bottom: "Convolution15"
  top: "Convolution16"
  param {
    lr_mult: 1
    decay_mult: 1
  }
  param {
    lr_mult: 2
    decay_mult: 0
  }
  convolution_param {
    num_output: 32
    pad: 1
    kernel_size: 3
    stride: 1
    weight_filler {
      type: "gaussian"
      std: 0.083
    }
    bias_filler {
      type: "constant"
      value: 0
    }
  }
}
layer {
  name: "BatchNorm16"
  type: "BatchNorm"
  bottom: "Convolution16"
  top: "Convolution16"
  param {
    lr_mult: 0
    decay_mult: 0
  }
  param {
    lr_mult: 0
    decay_mult: 0
  }
  param {
    lr_mult: 0
    decay_mult: 0
  }
}
layer {
  name: "Scale16"
  type: "Scale"
  bottom: "Convolution16"
  top: "Convolution16"
  scale_param {
    bias_term: true
  }
}
layer {
  name: "Eltwise7"
  type: "Eltwise"
  bottom: "Eltwise6"
  bottom: "Convolution16"
  top: "Eltwise7"
  eltwise_param {
    operation: SUM
  }
}
layer {
  name: "penlu15"
  type: "PENLU"
  bottom: "Eltwise7"
  top: "Eltwise7"
  param {
    lr_mult: 2
    decay_mult: 2
  }
  param {
    lr_mult: 2
    decay_mult: 2
  }
  param {
    lr_mult: 0
    decay_mult: 0
  }
  penlu_param {
    alpha_filler {
      type: "constant"
      value: 0.25
    }
    beta_filler {
      type: "constant"
      value: 1
    }
    eta_filler {
      type: "constant"
      value: 1
    }
  }
}
layer {
  name: "Convolution17"
  type: "Convolution"
  bottom: "Eltwise7"
  top: "Convolution17"
  param {
    lr_mult: 1
    decay_mult: 1
  }
  param {
    lr_mult: 2
    decay_mult: 0
  }
  convolution_param {
    num_output: 32
    pad: 1
    kernel_size: 3
    stride: 1
    weight_filler {
      type: "gaussian"
      std: 0.083
    }
    bias_filler {
      type: "constant"
      value: 0
    }
  }
}
layer {
  name: "BatchNorm17"
  type: "BatchNorm"
  bottom: "Convolution17"
  top: "Convolution17"
  param {
    lr_mult: 0
    decay_mult: 0
  }
  param {
    lr_mult: 0
    decay_mult: 0
  }
  param {
    lr_mult: 0
    decay_mult: 0
  }
}
layer {
  name: "Scale17"
  type: "Scale"
  bottom: "Convolution17"
  top: "Convolution17"
  scale_param {
    bias_term: true
  }
}
layer {
  name: "penlu16"
  type: "PENLU"
  bottom: "Convolution17"
  top: "Convolution17"
  param {
    lr_mult: 2
    decay_mult: 2
  }
  param {
    lr_mult: 2
    decay_mult: 2
  }
  param {
    lr_mult: 0
    decay_mult: 0
  }
  penlu_param {
    alpha_filler {
      type: "constant"
      value: 0.25
    }
    beta_filler {
      type: "constant"
      value: 1
    }
    eta_filler {
      type: "constant"
      value: 1
    }
  }
}
layer {
  name: "Convolution18"
  type: "Convolution"
  bottom: "Convolution17"
  top: "Convolution18"
  param {
    lr_mult: 1
    decay_mult: 1
  }
  param {
    lr_mult: 2
    decay_mult: 0
  }
  convolution_param {
    num_output: 32
    pad: 1
    kernel_size: 3
    stride: 1
    weight_filler {
      type: "gaussian"
      std: 0.083
    }
    bias_filler {
      type: "constant"
      value: 0
    }
  }
}
layer {
  name: "BatchNorm18"
  type: "BatchNorm"
  bottom: "Convolution18"
  top: "Convolution18"
  param {
    lr_mult: 0
    decay_mult: 0
  }
  param {
    lr_mult: 0
    decay_mult: 0
  }
  param {
    lr_mult: 0
    decay_mult: 0
  }
}
layer {
  name: "Scale18"
  type: "Scale"
  bottom: "Convolution18"
  top: "Convolution18"
  scale_param {
    bias_term: true
  }
}
layer {
  name: "Eltwise8"
  type: "Eltwise"
  bottom: "Eltwise7"
  bottom: "Convolution18"
  top: "Eltwise8"
  eltwise_param {
    operation: SUM
  }
}
layer {
  name: "penlu17"
  type: "PENLU"
  bottom: "Eltwise8"
  top: "Eltwise8"
  param {
    lr_mult: 2
    decay_mult: 2
  }
  param {
    lr_mult: 2
    decay_mult: 2
  }
  param {
    lr_mult: 0
    decay_mult: 0
  }
  penlu_param {
    alpha_filler {
      type: "constant"
      value: 0.25
    }
    beta_filler {
      type: "constant"
      value: 1
    }
    eta_filler {
      type: "constant"
      value: 1
    }
  }
}
layer {
  name: "Convolution19"
  type: "Convolution"
  bottom: "Eltwise8"
  top: "Convolution19"
  param {
    lr_mult: 1
    decay_mult: 1
  }
  param {
    lr_mult: 2
    decay_mult: 0
  }
  convolution_param {
    num_output: 32
    pad: 1
    kernel_size: 3
    stride: 1
    weight_filler {
      type: "gaussian"
      std: 0.083
    }
    bias_filler {
      type: "constant"
      value: 0
    }
  }
}
layer {
  name: "BatchNorm19"
  type: "BatchNorm"
  bottom: "Convolution19"
  top: "Convolution19"
  param {
    lr_mult: 0
    decay_mult: 0
  }
  param {
    lr_mult: 0
    decay_mult: 0
  }
  param {
    lr_mult: 0
    decay_mult: 0
  }
}
layer {
  name: "Scale19"
  type: "Scale"
  bottom: "Convolution19"
  top: "Convolution19"
  scale_param {
    bias_term: true
  }
}
layer {
  name: "penlu18"
  type: "PENLU"
  bottom: "Convolution19"
  top: "Convolution19"
  param {
    lr_mult: 2
    decay_mult: 2
  }
  param {
    lr_mult: 2
    decay_mult: 2
  }
  param {
    lr_mult: 0
    decay_mult: 0
  }
  penlu_param {
    alpha_filler {
      type: "constant"
      value: 0.25
    }
    beta_filler {
      type: "constant"
      value: 1
    }
    eta_filler {
      type: "constant"
      value: 1
    }
  }
}
layer {
  name: "Convolution20"
  type: "Convolution"
  bottom: "Convolution19"
  top: "Convolution20"
  param {
    lr_mult: 1
    decay_mult: 1
  }
  param {
    lr_mult: 2
    decay_mult: 0
  }
  convolution_param {
    num_output: 32
    pad: 1
    kernel_size: 3
    stride: 1
    weight_filler {
      type: "gaussian"
      std: 0.083
    }
    bias_filler {
      type: "constant"
      value: 0
    }
  }
}
layer {
  name: "BatchNorm20"
  type: "BatchNorm"
  bottom: "Convolution20"
  top: "Convolution20"
  param {
    lr_mult: 0
    decay_mult: 0
  }
  param {
    lr_mult: 0
    decay_mult: 0
  }
  param {
    lr_mult: 0
    decay_mult: 0
  }
}
layer {
  name: "Scale20"
  type: "Scale"
  bottom: "Convolution20"
  top: "Convolution20"
  scale_param {
    bias_term: true
  }
}
layer {
  name: "Eltwise9"
  type: "Eltwise"
  bottom: "Eltwise8"
  bottom: "Convolution20"
  top: "Eltwise9"
  eltwise_param {
    operation: SUM
  }
}
layer {
  name: "penlu19"
  type: "PENLU"
  bottom: "Eltwise9"
  top: "Eltwise9"
  param {
    lr_mult: 2
    decay_mult: 2
  }
  param {
    lr_mult: 2
    decay_mult: 2
  }
  param {
    lr_mult: 0
    decay_mult: 0
  }
  penlu_param {
    alpha_filler {
      type: "constant"
      value: 0.25
    }
    beta_filler {
      type: "constant"
      value: 1
    }
    eta_filler {
      type: "constant"
      value: 1
    }
  }
}
layer {
  name: "Convolution21"
  type: "Convolution"
  bottom: "Eltwise9"
  top: "Convolution21"
  param {
    lr_mult: 1
    decay_mult: 1
  }
  param {
    lr_mult: 2
    decay_mult: 0
  }
  convolution_param {
    num_output: 32
    pad: 1
    kernel_size: 3
    stride: 1
    weight_filler {
      type: "gaussian"
      std: 0.083
    }
    bias_filler {
      type: "constant"
      value: 0
    }
  }
}
layer {
  name: "BatchNorm21"
  type: "BatchNorm"
  bottom: "Convolution21"
  top: "Convolution21"
  param {
    lr_mult: 0
    decay_mult: 0
  }
  param {
    lr_mult: 0
    decay_mult: 0
  }
  param {
    lr_mult: 0
    decay_mult: 0
  }
}
layer {
  name: "Scale21"
  type: "Scale"
  bottom: "Convolution21"
  top: "Convolution21"
  scale_param {
    bias_term: true
  }
}
layer {
  name: "penlu20"
  type: "PENLU"
  bottom: "Convolution21"
  top: "Convolution21"
  param {
    lr_mult: 2
    decay_mult: 2
  }
  param {
    lr_mult: 2
    decay_mult: 2
  }
  param {
    lr_mult: 0
    decay_mult: 0
  }
  penlu_param {
    alpha_filler {
      type: "constant"
      value: 0.25
    }
    beta_filler {
      type: "constant"
      value: 1
    }
    eta_filler {
      type: "constant"
      value: 1
    }
  }
}
layer {
  name: "Convolution22"
  type: "Convolution"
  bottom: "Convolution21"
  top: "Convolution22"
  param {
    lr_mult: 1
    decay_mult: 1
  }
  param {
    lr_mult: 2
    decay_mult: 0
  }
  convolution_param {
    num_output: 32
    pad: 1
    kernel_size: 3
    stride: 1
    weight_filler {
      type: "gaussian"
      std: 0.083
    }
    bias_filler {
      type: "constant"
      value: 0
    }
  }
}
layer {
  name: "BatchNorm22"
  type: "BatchNorm"
  bottom: "Convolution22"
  top: "Convolution22"
  param {
    lr_mult: 0
    decay_mult: 0
  }
  param {
    lr_mult: 0
    decay_mult: 0
  }
  param {
    lr_mult: 0
    decay_mult: 0
  }
}
layer {
  name: "Scale22"
  type: "Scale"
  bottom: "Convolution22"
  top: "Convolution22"
  scale_param {
    bias_term: true
  }
}
layer {
  name: "Eltwise10"
  type: "Eltwise"
  bottom: "Eltwise9"
  bottom: "Convolution22"
  top: "Eltwise10"
  eltwise_param {
    operation: SUM
  }
}
layer {
  name: "penlu21"
  type: "PENLU"
  bottom: "Eltwise10"
  top: "Eltwise10"
  param {
    lr_mult: 2
    decay_mult: 2
  }
  param {
    lr_mult: 2
    decay_mult: 2
  }
  param {
    lr_mult: 0
    decay_mult: 0
  }
  penlu_param {
    alpha_filler {
      type: "constant"
      value: 0.25
    }
    beta_filler {
      type: "constant"
      value: 1
    }
    eta_filler {
      type: "constant"
      value: 1
    }
  }
}
layer {
  name: "Convolution23"
  type: "Convolution"
  bottom: "Eltwise10"
  top: "Convolution23"
  param {
    lr_mult: 1
    decay_mult: 1
  }
  param {
    lr_mult: 2
    decay_mult: 0
  }
  convolution_param {
    num_output: 64
    pad: 0
    kernel_size: 1
    stride: 2
    weight_filler {
      type: "gaussian"
      std: 0.17677669
    }
    bias_filler {
      type: "constant"
      value: 0
    }
  }
}
layer {
  name: "BatchNorm23"
  type: "BatchNorm"
  bottom: "Convolution23"
  top: "Convolution23"
  param {
    lr_mult: 0
    decay_mult: 0
  }
  param {
    lr_mult: 0
    decay_mult: 0
  }
  param {
    lr_mult: 0
    decay_mult: 0
  }
}
layer {
  name: "Scale23"
  type: "Scale"
  bottom: "Convolution23"
  top: "Convolution23"
  scale_param {
    bias_term: true
  }
}
layer {
  name: "Convolution24"
  type: "Convolution"
  bottom: "Eltwise10"
  top: "Convolution24"
  param {
    lr_mult: 1
    decay_mult: 1
  }
  param {
    lr_mult: 2
    decay_mult: 0
  }
  convolution_param {
    num_output: 64
    pad: 1
    kernel_size: 3
    stride: 2
    weight_filler {
      type: "gaussian"
      std: 0.059
    }
    bias_filler {
      type: "constant"
      value: 0
    }
  }
}
layer {
  name: "BatchNorm24"
  type: "BatchNorm"
  bottom: "Convolution24"
  top: "Convolution24"
  param {
    lr_mult: 0
    decay_mult: 0
  }
  param {
    lr_mult: 0
    decay_mult: 0
  }
  param {
    lr_mult: 0
    decay_mult: 0
  }
}
layer {
  name: "Scale24"
  type: "Scale"
  bottom: "Convolution24"
  top: "Convolution24"
  scale_param {
    bi
I1006 15:09:05.768033  2964 layer_factory.hpp:77] Creating layer Data1
I1006 15:09:05.794373  2964 db_lmdb.cpp:35] Opened lmdb /home/x306/caffe/xn/PENLU/data/cifar10/cifar10_test_lmdb
I1006 15:09:05.794390  2964 net.cpp:84] Creating Layer Data1
I1006 15:09:05.794399  2964 net.cpp:380] Data1 -> Data1
I1006 15:09:05.794409  2964 net.cpp:380] Data1 -> Data2
I1006 15:09:05.794419  2964 data_transformer.cpp:25] Loading mean file from: /home/x306/caffe/xn/PENLU/data/cifar10/mean.binaryproto
I1006 15:09:05.794617  2964 data_layer.cpp:45] output data size: 100,3,32,32
I1006 15:09:05.799949  2964 net.cpp:122] Setting up Data1
I1006 15:09:05.799969  2964 net.cpp:129] Top shape: 100 3 32 32 (307200)
I1006 15:09:05.799973  2964 net.cpp:129] Top shape: 100 (100)
…
I1006 15:09:05.862143  2964 net.cpp:129] Top shape: 100 32 16 16 (819200)
I1006 15:09:05.862145  2964 net.cpp:137] Memory required for data: 459982000
I1006 15:09:05.862150  2964 layer_factory.hpp:77] Creating layer Convolution16
I1006 15:09:05.862157  2964 net.cpp:84] Creating Layer Convolution16
I1006 15:09:05.862159  2964 net.cpp:406] Convolution16 <- Convolution15
I1006 15:09:05.862164  2964 net.cpp:380] Convolution16 -> Convolution16
I1006 15:09:05.863796  2964 net.cpp:122] Setting up Convolution16
I1006 15:09:05.863806  2964 net.cpp:129] Top shape: 100 32 16 16 (819200)
I1006 15:09:05.863808  2964 net.cpp:137] Memory required for data: 463258800
I1006 15:09:05.863813  2964 layer_factory.hpp:77] Creating layer BatchNorm16
I1006 15:09:05.863818  2964 net.cpp:84] Creating Layer BatchNorm16
I1006 15:09:05.863821  2964 net.cpp:406] BatchNorm16 <- Convolution16
I1006 15:09:05.863826  2964 net.cpp:367] BatchNorm16 -> Convolution16 (in-place)
I1006 15:09:05.863970  2964 net.cpp:122] Setting up BatchNorm16
I1006 15:09:05.863973  2964 net.cpp:129] Top shape: 100 32 16 16 (819200)
I1006 15:09:05.863976  2964 net.cpp:137] Memory required for data: 466535600
I1006 15:09:05.863981  2964 layer_factory.hpp:77] Creating layer Scale16
I1006 15:09:05.863986  2964 net.cpp:84] Creating Layer Scale16
I1006 15:09:05.863987  2964 net.cpp:406] Scale16 <- Convolution16
I1006 15:09:05.863991  2964 net.cpp:367] Scale16 -> Convolution16 (in-place)
I1006 15:09:05.864020  2964 layer_factory.hpp:77] Creating layer Scale16
I1006 15:09:05.864104  2964 net.cpp:122] Setting up Scale16
I1006 15:09:05.864109  2964 net.cpp:129] Top shape: 100 32 16 16 (819200)
I1006 15:09:05.864110  2964 net.cpp:137] Memory required for data: 469812400
I1006 15:09:05.864114  2964 layer_factory.hpp:77] Creating layer Eltwise7
I1006 15:09:05.864118  2964 net.cpp:84] Creating Layer Eltwise7
I1006 15:09:05.864121  2964 net.cpp:406] Eltwise7 <- Eltwise6_penlu13_0_split_1
I1006 15:09:05.864125  2964 net.cpp:406] Eltwise7 <- Convolution16
I1006 15:09:05.864127  2964 net.cpp:380] Eltwise7 -> Eltwise7
I1006 15:09:05.864142  2964 net.cpp:122] Setting up Eltwise7
I1006 15:09:05.864146  2964 net.cpp:129] Top shape: 100 32 16 16 (819200)
I1006 15:09:05.864148  2964 net.cpp:137] Memory required for data: 473089200
I1006 15:09:05.864151  2964 layer_factory.hpp:77] Creating layer penlu15
I1006 15:09:05.864156  2964 net.cpp:84] Creating Layer penlu15
I1006 15:09:05.864158  2964 net.cpp:406] penlu15 <- Eltwise7
I1006 15:09:05.864161  2964 net.cpp:367] penlu15 -> Eltwise7 (in-place)
I1006 15:09:05.864279  2964 net.cpp:122] Setting up penlu15
I1006 15:09:05.864284  2964 net.cpp:129] Top shape: 100 32 16 16 (819200)
I1006 15:09:05.864286  2964 net.cpp:137] Memory required for data: 476366000
I1006 15:09:05.864290  2964 layer_factory.hpp:77] Creating layer Eltwise7_penlu15_0_split
I1006 15:09:05.864295  2964 net.cpp:84] Creating Layer Eltwise7_penlu15_0_split
I1006 15:09:05.864296  2964 net.cpp:406] Eltwise7_penlu15_0_split <- Eltwise7
I1006 15:09:05.864300  2964 net.cpp:380] Eltwise7_penlu15_0_split -> Eltwise7_penlu15_0_split_0
I1006 15:09:05.864305  2964 net.cpp:380] Eltwise7_penlu15_0_split -> Eltwise7_penlu15_0_split_1
I1006 15:09:05.864328  2964 net.cpp:122] Setting up Eltwise7_penlu15_0_split
I1006 15:09:05.864333  2964 net.cpp:129] Top shape: 100 32 16 16 (819200)
I1006 15:09:05.864336  2964 net.cpp:129] Top shape: 100 32 16 16 (819200)
I1006 15:09:05.864338  2964 net.cpp:137] Memory required for data: 482919600
I1006 15:09:05.864341  2964 layer_factory.hpp:77] Creating layer Convolution17
I1006 15:09:05.864346  2964 net.cpp:84] Creating Layer Convolution17
I1006 15:09:05.864348  2964 net.cpp:406] Convolution17 <- Eltwise7_penlu15_0_split_0
I1006 15:09:05.864352  2964 net.cpp:380] Convolution17 -> Convolution17
I1006 15:09:05.865447  2964 net.cpp:122] Setting up Convolution17
I1006 15:09:05.865455  2964 net.cpp:129] Top shape: 100 32 16 16 (819200)
I1006 15:09:05.865458  2964 net.cpp:137] Memory required for data: 486196400
I1006 15:09:05.865468  2964 layer_factory.hpp:77] Creating layer BatchNorm17
I1006 15:09:05.865475  2964 net.cpp:84] Creating Layer BatchNorm17
I1006 15:09:05.865478  2964 net.cpp:406] BatchNorm17 <- Convolution17
I1006 15:09:05.865483  2964 net.cpp:367] BatchNorm17 -> Convolution17 (in-place)
I1006 15:09:05.865629  2964 net.cpp:122] Setting up BatchNorm17
I1006 15:09:05.865633  2964 net.cpp:129] Top shape: 100 32 16 16 (819200)
I1006 15:09:05.865636  2964 net.cpp:137] Memory required for data: 489473200
I1006 15:09:05.865641  2964 layer_factory.hpp:77] Creating layer Scale17
I1006 15:09:05.865646  2964 net.cpp:84] Creating Layer Scale17
I1006 15:09:05.865648  2964 net.cpp:406] Scale17 <- Convolution17
I1006 15:09:05.865651  2964 net.cpp:367] Scale17 -> Convolution17 (in-place)
I1006 15:09:05.865681  2964 layer_factory.hpp:77] Creating layer Scale17
I1006 15:09:05.865766  2964 net.cpp:122] Setting up Scale17
I1006 15:09:05.865769  2964 net.cpp:129] Top shape: 100 32 16 16 (819200)
I1006 15:09:05.865772  2964 net.cpp:137] Memory required for data: 492750000
I1006 15:09:05.865775  2964 layer_factory.hpp:77] Creating layer penlu16
I1006 15:09:05.865780  2964 net.cpp:84] Creating Layer penlu16
I1006 15:09:05.865783  2964 net.cpp:406] penlu16 <- Convolution17
I1006 15:09:05.865787  2964 net.cpp:367] penlu16 -> Convolution17 (in-place)
I1006 15:09:05.865902  2964 net.cpp:122] Setting up penlu16
I1006 15:09:05.865906  2964 net.cpp:129] Top shape: 100 32 16 16 (819200)
I1006 15:09:05.865908  2964 net.cpp:137] Memory required for data: 496026800
I1006 15:09:05.865912  2964 layer_factory.hpp:77] Creating layer Convolution18
I1006 15:09:05.865919  2964 net.cpp:84] Creating Layer Convolution18
I1006 15:09:05.865922  2964 net.cpp:406] Convolution18 <- Convolution17
I1006 15:09:05.865926  2964 net.cpp:380] Convolution18 -> Convolution18
I1006 15:09:05.867024  2964 net.cpp:122] Setting up Convolution18
I1006 15:09:05.867033  2964 net.cpp:129] Top shape: 100 32 16 16 (819200)
I1006 15:09:05.867035  2964 net.cpp:137] Memory required for data: 499303600
I1006 15:09:05.867040  2964 layer_factory.hpp:77] Creating layer BatchNorm18
I1006 15:09:05.867045  2964 net.cpp:84] Creating Layer BatchNorm18
I1006 15:09:05.867048  2964 net.cpp:406] BatchNorm18 <- Convolution18
I1006 15:09:05.867053  2964 net.cpp:367] BatchNorm18 -> Convolution18 (in-place)
I1006 15:09:05.867207  2964 net.cpp:122] Setting up BatchNorm18
I1006 15:09:05.867211  2964 net.cpp:129] Top shape: 100 32 16 16 (819200)
I1006 15:09:05.867213  2964 net.cpp:137] Memory required for data: 502580400
I1006 15:09:05.867218  2964 layer_factory.hpp:77] Creating layer Scale18
I1006 15:09:05.867223  2964 net.cpp:84] Creating Layer Scale18
I1006 15:09:05.867225  2964 net.cpp:406] Scale18 <- Convolution18
I1006 15:09:05.867228  2964 net.cpp:367] Scale18 -> Convolution18 (in-place)
I1006 15:09:05.867259  2964 layer_factory.hpp:77] Creating layer Scale18
I1006 15:09:05.867346  2964 net.cpp:122] Setting up Scale18
I1006 15:09:05.867349  2964 net.cpp:129] Top shape: 100 32 16 16 (819200)
I1006 15:09:05.867352  2964 net.cpp:137] Memory required for data: 505857200
I1006 15:09:05.867355  2964 layer_factory.hpp:77] Creating layer Eltwise8
I1006 15:09:05.867358  2964 net.cpp:84] Creating Layer Eltwise8
I1006 15:09:05.867362  2964 net.cpp:406] Eltwise8 <- Eltwise7_penlu15_0_split_1
I1006 15:09:05.867364  2964 net.cpp:406] Eltwise8 <- Convolution18
I1006 15:09:05.867368  2964 net.cpp:380] Eltwise8 -> Eltwise8
I1006 15:09:05.867382  2964 net.cpp:122] Setting up Eltwise8
I1006 15:09:05.867385  2964 net.cpp:129] Top shape: 100 32 16 16 (819200)
I1006 15:09:05.867388  2964 net.cpp:137] Memory required for data: 509134000
I1006 15:09:05.867389  2964 layer_factory.hpp:77] Creating layer penlu17
I1006 15:09:05.867395  2964 net.cpp:84] Creating Layer penlu17
I1006 15:09:05.867398  2964 net.cpp:406] penlu17 <- Eltwise8
I1006 15:09:05.867401  2964 net.cpp:367] penlu17 -> Eltwise8 (in-place)
I1006 15:09:05.867523  2964 net.cpp:122] Setting up penlu17
I1006 15:09:05.867527  2964 net.cpp:129] Top shape: 100 32 16 16 (819200)
I1006 15:09:05.867537  2964 net.cpp:137] Memory required for data: 512410800
I1006 15:09:05.867542  2964 layer_factory.hpp:77] Creating layer Eltwise8_penlu17_0_split
I1006 15:09:05.867545  2964 net.cpp:84] Creating Layer Eltwise8_penlu17_0_split
I1006 15:09:05.867547  2964 net.cpp:406] Eltwise8_penlu17_0_split <- Eltwise8
I1006 15:09:05.867552  2964 net.cpp:380] Eltwise8_penlu17_0_split -> Eltwise8_penlu17_0_split_0
I1006 15:09:05.886263  2964 net.cpp:380] Eltwise8_penlu17_0_split -> Eltwise8_penlu17_0_split_1
I1006 15:09:05.886320  2964 net.cpp:122] Setting up Eltwise8_penlu17_0_split
I1006 15:09:05.886329  2964 net.cpp:129] Top shape: 100 32 16 16 (819200)
I1006 15:09:05.886334  2964 net.cpp:129] Top shape: 100 32 16 16 (819200)
I1006 15:09:05.886338  2964 net.cpp:137] Memory required for data: 518964400
I1006 15:09:05.886343  2964 layer_factory.hpp:77] Creating layer Convolution19
I1006 15:09:05.886353  2964 net.cpp:84] Creating Layer Convolution19
I1006 15:09:05.886358  2964 net.cpp:406] Convolution19 <- Eltwise8_penlu17_0_split_0
I1006 15:09:05.886366  2964 net.cpp:380] Convolution19 -> Convolution19
I1006 15:09:05.888054  2964 net.cpp:122] Setting up Convolution19
I1006 15:09:05.888067  2964 net.cpp:129] Top shape: 100 32 16 16 (819200)
I1006 15:09:05.888072  2964 net.cpp:137] Memory required for data: 522241200
I1006 15:09:05.888078  2964 layer_factory.hpp:77] Creating layer BatchNorm19
I1006 15:09:05.888087  2964 net.cpp:84] Creating Layer BatchNorm19
I1006 15:09:05.888092  2964 net.cpp:406] BatchNorm19 <- Convolution19
I1006 15:09:05.888099  2964 net.cpp:367] BatchNorm19 -> Convolution19 (in-place)
I1006 15:09:05.888314  2964 net.cpp:122] Setting up BatchNorm19
I1006 15:09:05.888324  2964 net.cpp:129] Top shape: 100 32 16 16 (819200)
I1006 15:09:05.888327  2964 net.cpp:137] Memory required for data: 525518000
I1006 15:09:05.888335  2964 layer_factory.hpp:77] Creating layer Scale19
I1006 15:09:05.888342  2964 net.cpp:84] Creating Layer Scale19
I1006 15:09:05.888346  2964 net.cpp:406] Scale19 <- Convolution19
I1006 15:09:05.888355  2964 net.cpp:367] Scale19 -> Convolution19 (in-place)
I1006 15:09:05.888411  2964 layer_factory.hpp:77] Creating layer Scale19
I1006 15:09:05.888548  2964 net.cpp:122] Setting up Scale19
I1006 15:09:05.888558  2964 net.cpp:129] Top shape: 100 32 16 16 (819200)
I1006 15:09:05.888562  2964 net.cpp:137] Memory required for data: 528794800
I1006 15:09:05.888569  2964 layer_factory.hpp:77] Creating layer penlu18
I1006 15:09:05.888576  2964 net.cpp:84] Creating Layer penlu18
I1006 15:09:05.888581  2964 net.cpp:406] penlu18 <- Convolution19
I1006 15:09:05.888589  2964 net.cpp:367] penlu18 -> Convolution19 (in-place)
I1006 15:09:05.888801  2964 net.cpp:122] Setting up penlu18
I1006 15:09:05.888811  2964 net.cpp:129] Top shape: 100 32 16 16 (819200)
I1006 15:09:05.888816  2964 net.cpp:137] Memory required for data: 532071600
I1006 15:09:05.888824  2964 layer_factory.hpp:77] Creating layer Convolution20
I1006 15:09:05.888845  2964 net.cpp:84] Creating Layer Convolution20
I1006 15:09:05.888851  2964 net.cpp:406] Convolution20 <- Convolution19
I1006 15:09:05.888859  2964 net.cpp:380] Convolution20 -> Convolution20
I1006 15:09:05.889726  2964 net.cpp:122] Setting up Convolution20
I1006 15:09:05.889735  2964 net.cpp:129] Top shape: 100 32 16 16 (819200)
I1006 15:09:05.889737  2964 net.cpp:137] Memory required for data: 535348400
I1006 15:09:05.889742  2964 layer_factory.hpp:77] Creating layer BatchNorm20
I1006 15:09:05.889747  2964 net.cpp:84] Creating Layer BatchNorm20
I1006 15:09:05.889750  2964 net.cpp:406] BatchNorm20 <- Convolution20
I1006 15:09:05.889755  2964 net.cpp:367] BatchNorm20 -> Convolution20 (in-place)
I1006 15:09:05.889902  2964 net.cpp:122] Setting up BatchNorm20
I1006 15:09:05.889907  2964 net.cpp:129] Top shape: 100 32 16 16 (819200)
I1006 15:09:05.889909  2964 net.cpp:137] Memory required for data: 538625200
I1006 15:09:05.889914  2964 layer_factory.hpp:77] Creating layer Scale20
I1006 15:09:05.889917  2964 net.cpp:84] Creating Layer Scale20
I1006 15:09:05.889920  2964 net.cpp:406] Scale20 <- Convolution20
I1006 15:09:05.889930  2964 net.cpp:367] Scale20 -> Convolution20 (in-place)
I1006 15:09:05.889962  2964 layer_factory.hpp:77] Creating layer Scale20
I1006 15:09:05.890046  2964 net.cpp:122] Setting up Scale20
I1006 15:09:05.890051  2964 net.cpp:129] Top shape: 100 32 16 16 (819200)
I1006 15:09:05.890053  2964 net.cpp:137] Memory required for data: 541902000
I1006 15:09:05.890058  2964 layer_factory.hpp:77] Creating layer Eltwise9
I1006 15:09:05.890061  2964 net.cpp:84] Creating Layer Eltwise9
I1006 15:09:05.890064  2964 net.cpp:406] Eltwise9 <- Eltwise8_penlu17_0_split_1
I1006 15:09:05.890067  2964 net.cpp:406] Eltwise9 <- Convolution20
I1006 15:09:05.890070  2964 net.cpp:380] Eltwise9 -> Eltwise9
I1006 15:09:05.890084  2964 net.cpp:122] Setting up Eltwise9
I1006 15:09:05.890087  2964 net.cpp:129] Top shape: 100 32 16 16 (819200)
I1006 15:09:05.890089  2964 net.cpp:137] Memory required for data: 545178800
I1006 15:09:05.890091  2964 layer_factory.hpp:77] Creating layer penlu19
I1006 15:09:05.890097  2964 net.cpp:84] Creating Layer penlu19
I1006 15:09:05.890100  2964 net.cpp:406] penlu19 <- Eltwise9
I1006 15:09:05.890103  2964 net.cpp:367] penlu19 -> Eltwise9 (in-place)
I1006 15:09:05.890259  2964 net.cpp:122] Setting up penlu19
I1006 15:09:05.890264  2964 net.cpp:129] Top shape: 100 32 16 16 (819200)
I1006 15:09:05.890266  2964 net.cpp:137] Memory required for data: 548455600
I1006 15:09:05.890270  2964 layer_factory.hpp:77] Creating layer Eltwise9_penlu19_0_split
I1006 15:09:05.890274  2964 net.cpp:84] Creating Layer Eltwise9_penlu19_0_split
I1006 15:09:05.890276  2964 net.cpp:406] Eltwise9_penlu19_0_split <- Eltwise9
I1006 15:09:05.890290  2964 net.cpp:380] Eltwise9_penlu19_0_split -> Eltwise9_penlu19_0_split_0
I1006 15:09:05.890295  2964 net.cpp:380] Eltwise9_penlu19_0_split -> Eltwise9_penlu19_0_split_1
I1006 15:09:05.890319  2964 net.cpp:122] Setting up Eltwise9_penlu19_0_split
I1006 15:09:05.890322  2964 net.cpp:129] Top shape: 100 32 16 16 (819200)
I1006 15:09:05.890326  2964 net.cpp:129] Top shape: 100 32 16 16 (819200)
I1006 15:09:05.890327  2964 net.cpp:137] Memory required for data: 555009200
I1006 15:09:05.890329  2964 layer_factory.hpp:77] Creating layer Convolution21
I1006 15:09:05.890337  2964 net.cpp:84] Creating Layer Convolution21
I1006 15:09:05.890339  2964 net.cpp:406] Convolution21 <- Eltwise9_penlu19_0_split_0
I1006 15:09:05.890343  2964 net.cpp:380] Convolution21 -> Convolution21
I1006 15:09:05.891518  2964 net.cpp:122] Setting up Convolution21
I1006 15:09:05.891528  2964 net.cpp:129] Top shape: 100 32 16 16 (819200)
I1006 15:09:05.891530  2964 net.cpp:137] Memory required for data: 558286000
I1006 15:09:05.891535  2964 layer_factory.hpp:77] Creating layer BatchNorm21
I1006 15:09:05.891541  2964 net.cpp:84] Creating Layer BatchNorm21
I1006 15:09:05.891543  2964 net.cpp:406] BatchNorm21 <- Convolution21
I1006 15:09:05.891547  2964 net.cpp:367] BatchNorm21 -> Convolution21 (in-place)
I1006 15:09:05.891693  2964 net.cpp:122] Setting up BatchNorm21
I1006 15:09:05.891698  2964 net.cpp:129] Top shape: 100 32 16 16 (819200)
I1006 15:09:05.891700  2964 net.cpp:137] Memory required for data: 561562800
I1006 15:09:05.891705  2964 layer_factory.hpp:77] Creating layer Scale21
I1006 15:09:05.891710  2964 net.cpp:84] Creating Layer Scale21
I1006 15:09:05.891711  2964 net.cpp:406] Scale21 <- Convolution21
I1006 15:09:05.891716  2964 net.cpp:367] Scale21 -> Convolution21 (in-place)
I1006 15:09:05.891746  2964 layer_factory.hpp:77] Creating layer Scale21
I1006 15:09:05.891829  2964 net.cpp:122] Setting up Scale21
I1006 15:09:05.891834  2964 net.cpp:129] Top shape: 100 32 16 16 (819200)
I1006 15:09:05.891835  2964 net.cpp:137] Memory required for data: 564839600
I1006 15:09:05.891839  2964 layer_factory.hpp:77] Creating layer penlu20
I1006 15:09:05.891844  2964 net.cpp:84] Creating Layer penlu20
I1006 15:09:05.891847  2964 net.cpp:406] penlu20 <- Convolution21
I1006 15:09:05.891851  2964 net.cpp:367] penlu20 -> Convolution21 (in-place)
I1006 15:09:05.891968  2964 net.cpp:122] Setting up penlu20
I1006 15:09:05.891979  2964 net.cpp:129] Top shape: 100 32 16 16 (819200)
I1006 15:09:05.891981  2964 net.cpp:137] Memory required for data: 568116400
I1006 15:09:05.891986  2964 layer_factory.hpp:77] Creating layer Convolution22
I1006 15:09:05.891993  2964 net.cpp:84] Creating Layer Convolution22
I1006 15:09:05.891995  2964 net.cpp:406] Convolution22 <- Convolution21
I1006 15:09:05.892000  2964 net.cpp:380] Convolution22 -> Convolution22
I1006 15:09:05.893105  2964 net.cpp:122] Setting up Convolution22
I1006 15:09:05.893115  2964 net.cpp:129] Top shape: 100 32 16 16 (819200)
I1006 15:09:05.893116  2964 net.cpp:137] Memory required for data: 571393200
I1006 15:09:05.893121  2964 layer_factory.hpp:77] Creating layer BatchNorm22
I1006 15:09:05.893126  2964 net.cpp:84] Creating Layer BatchNorm22
I1006 15:09:05.893129  2964 net.cpp:406] BatchNorm22 <- Convolution22
I1006 15:09:05.893132  2964 net.cpp:367] BatchNorm22 -> Convolution22 (in-place)
I1006 15:09:05.893280  2964 net.cpp:122] Setting up BatchNorm22
I1006 15:09:05.893285  2964 net.cpp:129] Top shape: 100 32 16 16 (819200)
I1006 15:09:05.893286  2964 net.cpp:137] Memory required for data: 574670000
I1006 15:09:05.893291  2964 layer_factory.hpp:77] Creating layer Scale22
I1006 15:09:05.893296  2964 net.cpp:84] Creating Layer Scale22
I1006 15:09:05.893298  2964 net.cpp:406] Scale22 <- Convolution22
I1006 15:09:05.893301  2964 net.cpp:367] Scale22 -> Convolution22 (in-place)
I1006 15:09:05.893332  2964 layer_factory.hpp:77] Creating layer Scale22
I1006 15:09:05.893416  2964 net.cpp:122] Setting up Scale22
I1006 15:09:05.893420  2964 net.cpp:129] Top shape: 100 32 16 16 (819200)
I1006 15:09:05.893422  2964 net.cpp:137] Memory required for data: 577946800
I1006 15:09:05.893426  2964 layer_factory.hpp:77] Creating layer Eltwise10
I1006 15:09:05.893431  2964 net.cpp:84] Creating Layer Eltwise10
I1006 15:09:05.893434  2964 net.cpp:406] Eltwise10 <- Eltwise9_penlu19_0_split_1
I1006 15:09:05.893436  2964 net.cpp:406] Eltwise10 <- Convolution22
I1006 15:09:05.893440  2964 net.cpp:380] Eltwise10 -> Eltwise10
I1006 15:09:05.893455  2964 net.cpp:122] Setting up Eltwise10
I1006 15:09:05.893458  2964 net.cpp:129] Top shape: 100 32 16 16 (819200)
I1006 15:09:05.893460  2964 net.cpp:137] Memory required for data: 581223600
I1006 15:09:05.893462  2964 layer_factory.hpp:77] Creating layer penlu21
I1006 15:09:05.893468  2964 net.cpp:84] Creating Layer penlu21
I1006 15:09:05.893471  2964 net.cpp:406] penlu21 <- Eltwise10
I1006 15:09:05.893474  2964 net.cpp:367] penlu21 -> Eltwise10 (in-place)
I1006 15:09:05.893596  2964 net.cpp:122] Setting up penlu21
I1006 15:09:05.893601  2964 net.cpp:129] Top shape: 100 32 16 16 (819200)
I1006 15:09:05.893604  2964 net.cpp:137] Memory required for data: 584500400
I1006 15:09:05.893607  2964 layer_factory.hpp:77] Creating layer Eltwise10_penlu21_0_split
I1006 15:09:05.893610  2964 net.cpp:84] Creating Layer Eltwise10_penlu21_0_split
I1006 15:09:05.893613  2964 net.cpp:406] Eltwise10_penlu21_0_split <- Eltwise10
I1006 15:09:05.893616  2964 net.cpp:380] Eltwise10_penlu21_0_split -> Eltwise10_penlu21_0_split_0
I1006 15:09:05.893620  2964 net.cpp:380] Eltwise10_penlu21_0_split -> Eltwise10_penlu21_0_split_1
I1006 15:09:05.893646  2964 net.cpp:122] Setting up Eltwise10_penlu21_0_split
I1006 15:09:05.893649  2964 net.cpp:129] Top shape: 100 32 16 16 (819200)
I1006 15:09:05.893652  2964 net.cpp:129] Top shape: 100 32 16 16 (819200)
I1006 15:09:05.893654  2964 net.cpp:137] Memory required for data: 591054000
I1006 15:09:05.893656  2964 layer_factory.hpp:77] Creating layer Convolution23
I1006 15:09:05.893662  2964 net.cpp:84] Creating Layer Convolution23
I1006 15:09:05.893666  2964 net.cpp:406] Convolution23 <- Eltwise10_penlu21_0_split_0
I1006 15:09:05.893669  2964 net.cpp:380] Convolution23 -> Convolution23
I1006 15:09:05.894637  2964 net.cpp:122] Setting up Convolution23
I1006 15:09:05.894646  2964 net.cpp:129] Top shape: 100 64 8 8 (409600)
I1006 15:09:05.894649  2964 net.cpp:137] Memory required for data: 592692400
I1006 15:09:05.894654  2964 layer_factory.hpp:77] Creating layer BatchNorm23
I1006 15:09:05.894665  2964 net.cpp:84] Creating Layer BatchNorm23
I1006 15:09:05.894668  2964 net.cpp:406] BatchNorm23 <- Convolution23
I1006 15:09:05.894673  2964 net.cpp:367] BatchNorm23 -> Convolution23 (in-place)
I1006 15:09:05.894824  2964 net.cpp:122] Setting up BatchNorm23
I1006 15:09:05.894829  2964 net.cpp:129] Top shape: 100 64 8 8 (409600)
I1006 15:09:05.894830  2964 net.cpp:137] Memory required for data: 594330800
I1006 15:09:05.894835  2964 layer_factory.hpp:77] Creating layer Scale23
I1006 15:09:05.894840  2964 net.cpp:84] Creating Layer Scale23
I1006 15:09:05.894842  2964 net.cpp:406] Scale23 <- Convolution23
I1006 15:09:05.894845  2964 net.cpp:367] Scale23 -> Convolution23 (in-place)
I1006 15:09:05.894876  2964 layer_factory.hpp:77] Creating layer Scale23
I1006 15:09:05.894963  2964 net.cpp:122] Setting up Scale23
I1006 15:09:05.894966  2964 net.cpp:129] Top shape: 100 64 8 8 (409600)
I1006 15:09:05.894968  2964 net.cpp:137] Memory required for data: 595969200
I1006 15:09:05.894973  2964 layer_factory.hpp:77] Creating layer Convolution24
I1006 15:09:05.894979  2964 net.cpp:84] Creating Layer Convolution24
I1006 15:09:05.894982  2964 net.cpp:406] Convolution24 <- Eltwise10_penlu21_0_split_1
I1006 15:09:05.894986  2964 net.cpp:380] Convolution24 -> Convolution24
I1006 15:09:05.896317  2964 net.cpp:122] Setting up Convolution24
I1006 15:09:05.896327  2964 net.cpp:129] Top shape: 100 64 8 8 (409600)
I1006 15:09:05.896329  2964 net.cpp:137] Memory required for data: 597607600
I1006 15:09:05.896333  2964 layer_factory.hpp:77] Creating layer BatchNorm24
I1006 15:09:05.896338  2964 net.cpp:84] Creating Layer BatchNorm24
I1006 15:09:05.896342  2964 net.cpp:406] BatchNorm24 <- Convolution24
I1006 15:09:05.896345  2964 net.cpp:367] BatchNorm24 -> Convolution24 (in-place)
I1006 15:09:05.896498  2964 net.cpp:122] Setting up BatchNorm24
I1006 15:09:05.896503  2964 net.cpp:129] Top shape: 100 64 8 8 (409600)
I1006 15:09:05.896505  2964 net.cpp:137] Memory required for data: 599246000
I1006 15:09:05.896509  2964 layer_factory.hpp:77] Creating layer Scale24
I1006 15:09:05.896514  2964 net.cpp:84] Creating Layer Scale24
I1006 15:09:05.896517  2964 net.cpp:406] Scale24 <- Convolution24
I1006 15:09:05.896520  2964 net.cpp:367] Scale24 -> Convolution24 (in-place)
I1006 15:09:05.896550  2964 layer_factory.hpp:77] Creating layer Scale24
I1006 15:09:05.896637  2964 net.cpp:122] Setting up Scale24
I1006 15:09:05.896641  2964 net.cpp:129] Top shape: 100 64 8 8 (409600)
I1006 15:09:05.896643  2964 net.cpp:137] Memory required for data: 600884400
I1006 15:09:05.896647  2964 layer_factory.hpp:77] Creating layer penlu22
I1006 15:09:05.896652  2964 net.cpp:84] Creating Layer penlu22
I1006 15:09:05.896654  2964 net.cpp:406] penlu22 <- Convolution24
I1006 15:09:05.896658  2964 net.cpp:367] penlu22 -> Convolution24 (in-place)
I1006 15:09:05.896777  2964 net.cpp:122] Setting up penlu22
I1006 15:09:05.896781  2964 net.cpp:129] Top shape: 100 64 8 8 (409600)
I1006 15:09:05.896783  2964 net.cpp:137] Memory required for data: 602522800
I1006 15:09:05.896788  2964 layer_factory.hpp:77] Creating layer Convolution25
I1006 15:09:05.896795  2964 net.cpp:84] Creating Layer Convolution25
I1006 15:09:05.896797  2964 net.cpp:406] Convolution25 <- Convolution24
I1006 15:09:05.896801  2964 net.cpp:380] Convolution25 -> Convolution25
I1006 15:09:05.898526  2964 net.cpp:122] Setting up Convolution25
I1006 15:09:05.898535  2964 net.cpp:129] Top shape: 100 64 8 8 (409600)
I1006 15:09:05.898537  2964 net.cpp:137] Memory required for data: 604161200
I1006 15:09:05.898541  2964 layer_factory.hpp:77] Creating layer BatchNorm25
I1006 15:09:05.898546  2964 net.cpp:84] Creating Layer BatchNorm25
I1006 15:09:05.898550  2964 net.cpp:406] BatchNorm25 <- Convolution25
I1006 15:09:05.898555  2964 net.cpp:367] BatchNorm25 -> Convolution25 (in-place)
I1006 15:09:05.898705  2964 net.cpp:122] Setting up BatchNorm25
I1006 15:09:05.898708  2964 net.cpp:129] Top shape: 100 64 8 8 (409600)
I1006 15:09:05.898710  2964 net.cpp:137] Memory required for data: 605799600
I1006 15:09:05.898722  2964 layer_factory.hpp:77] Creating layer Scale25
I1006 15:09:05.898728  2964 net.cpp:84] Creating Layer Scale25
I1006 15:09:05.898731  2964 net.cpp:406] Scale25 <- Convolution25
I1006 15:09:05.898735  2964 net.cpp:367] Scale25 -> Convolution25 (in-place)
I1006 15:09:05.917361  2964 layer_factory.hpp:77] Creating layer Scale25
I1006 15:09:05.917502  2964 net.cpp:122] Setting up Scale25
I1006 15:09:05.917511  2964 net.cpp:129] Top shape: 100 64 8 8 (409600)
I1006 15:09:05.917515  2964 net.cpp:137] Memory required for data: 607438000
I1006 15:09:05.917523  2964 layer_factory.hpp:77] Creating layer Eltwise11
I1006 15:09:05.917531  2964 net.cpp:84] Creating Layer Eltwise11
I1006 15:09:05.917536  2964 net.cpp:406] Eltwise11 <- Convolution23
I1006 15:09:05.917541  2964 net.cpp:406] Eltwise11 <- Convolution25
I1006 15:09:05.917548  2964 net.cpp:380] Eltwise11 -> Eltwise11
I1006 15:09:05.917577  2964 net.cpp:122] Setting up Eltwise11
I1006 15:09:05.917583  2964 net.cpp:129] Top shape: 100 64 8 8 (409600)
I1006 15:09:05.917587  2964 net.cpp:137] Memory required for data: 609076400
I1006 15:09:05.917592  2964 layer_factory.hpp:77] Creating layer penlu23
I1006 15:09:05.917600  2964 net.cpp:84] Creating Layer penlu23
I1006 15:09:05.917605  2964 net.cpp:406] penlu23 <- Eltwise11
I1006 15:09:05.917611  2964 net.cpp:367] penlu23 -> Eltwise11 (in-place)
I1006 15:09:05.917801  2964 net.cpp:122] Setting up penlu23
I1006 15:09:05.917809  2964 net.cpp:129] Top shape: 100 64 8 8 (409600)
I1006 15:09:05.917814  2964 net.cpp:137] Memory required for data: 610714800
I1006 15:09:05.917822  2964 layer_factory.hpp:77] Creating layer Eltwise11_penlu23_0_split
I1006 15:09:05.917829  2964 net.cpp:84] Creating Layer Eltwise11_penlu23_0_split
I1006 15:09:05.917834  2964 net.cpp:406] Eltwise11_penlu23_0_split <- Eltwise11
I1006 15:09:05.917840  2964 net.cpp:380] Eltwise11_penlu23_0_split -> Eltwise11_penlu23_0_split_0
I1006 15:09:05.917847  2964 net.cpp:380] Eltwise11_penlu23_0_split -> Eltwise11_penlu23_0_split_1
I1006 15:09:05.917888  2964 net.cpp:122] Setting up Eltwise11_penlu23_0_split
I1006 15:09:05.917896  2964 net.cpp:129] Top shape: 100 64 8 8 (409600)
I1006 15:09:05.917901  2964 net.cpp:129] Top shape: 100 64 8 8 (409600)
I1006 15:09:05.917906  2964 net.cpp:137] Memory required for data: 613991600
I1006 15:09:05.917909  2964 layer_factory.hpp:77] Creating layer Convolution26
I1006 15:09:05.917920  2964 net.cpp:84] Creating Layer Convolution26
I1006 15:09:05.917927  2964 net.cpp:406] Convolution26 <- Eltwise11_penlu23_0_split_0
I1006 15:09:05.917933  2964 net.cpp:380] Convolution26 -> Convolution26
I1006 15:09:05.920502  2964 net.cpp:122] Setting up Convolution26
I1006 15:09:05.920512  2964 net.cpp:129] Top shape: 100 64 8 8 (409600)
I1006 15:09:05.920514  2964 net.cpp:137] Memory required for data: 615630000
I1006 15:09:05.920519  2964 layer_factory.hpp:77] Creating layer BatchNorm26
I1006 15:09:05.920524  2964 net.cpp:84] Creating Layer BatchNorm26
I1006 15:09:05.920527  2964 net.cpp:406] BatchNorm26 <- Convolution26
I1006 15:09:05.920531  2964 net.cpp:367] BatchNorm26 -> Convolution26 (in-place)
I1006 15:09:05.920678  2964 net.cpp:122] Setting up BatchNorm26
I1006 15:09:05.920683  2964 net.cpp:129] Top shape: 100 64 8 8 (409600)
I1006 15:09:05.920686  2964 net.cpp:137] Memory required for data: 617268400
I1006 15:09:05.920689  2964 layer_factory.hpp:77] Creating layer Scale26
I1006 15:09:05.920693  2964 net.cpp:84] Creating Layer Scale26
I1006 15:09:05.920696  2964 net.cpp:406] Scale26 <- Convolution26
I1006 15:09:05.920699  2964 net.cpp:367] Scale26 -> Convolution26 (in-place)
I1006 15:09:05.920730  2964 layer_factory.hpp:77] Creating layer Scale26
I1006 15:09:05.920814  2964 net.cpp:122] Setting up Scale26
I1006 15:09:05.920819  2964 net.cpp:129] Top shape: 100 64 8 8 (409600)
I1006 15:09:05.920820  2964 net.cpp:137] Memory required for data: 618906800
I1006 15:09:05.920825  2964 layer_factory.hpp:77] Creating layer penlu24
I1006 15:09:05.920830  2964 net.cpp:84] Creating Layer penlu24
I1006 15:09:05.920838  2964 net.cpp:406] penlu24 <- Convolution26
I1006 15:09:05.920843  2964 net.cpp:367] penlu24 -> Convolution26 (in-place)
I1006 15:09:05.920964  2964 net.cpp:122] Setting up penlu24
I1006 15:09:05.920969  2964 net.cpp:129] Top shape: 100 64 8 8 (409600)
I1006 15:09:05.920971  2964 net.cpp:137] Memory required for data: 620545200
I1006 15:09:05.920975  2964 layer_factory.hpp:77] Creating layer Convolution27
I1006 15:09:05.920982  2964 net.cpp:84] Creating Layer Convolution27
I1006 15:09:05.920985  2964 net.cpp:406] Convolution27 <- Convolution26
I1006 15:09:05.920989  2964 net.cpp:380] Convolution27 -> Convolution27
I1006 15:09:05.922854  2964 net.cpp:122] Setting up Convolution27
I1006 15:09:05.922863  2964 net.cpp:129] Top shape: 100 64 8 8 (409600)
I1006 15:09:05.922865  2964 net.cpp:137] Memory required for data: 622183600
I1006 15:09:05.922870  2964 layer_factory.hpp:77] Creating layer BatchNorm27
I1006 15:09:05.922886  2964 net.cpp:84] Creating Layer BatchNorm27
I1006 15:09:05.922889  2964 net.cpp:406] BatchNorm27 <- Convolution27
I1006 15:09:05.922894  2964 net.cpp:367] BatchNorm27 -> Convolution27 (in-place)
I1006 15:09:05.923046  2964 net.cpp:122] Setting up BatchNorm27
I1006 15:09:05.923051  2964 net.cpp:129] Top shape: 100 64 8 8 (409600)
I1006 15:09:05.923053  2964 net.cpp:137] Memory required for data: 623822000
I1006 15:09:05.923077  2964 layer_factory.hpp:77] Creating layer Scale27
I1006 15:09:05.923082  2964 net.cpp:84] Creating Layer Scale27
I1006 15:09:05.923085  2964 net.cpp:406] Scale27 <- Convolution27
I1006 15:09:05.923089  2964 net.cpp:367] Scale27 -> Convolution27 (in-place)
I1006 15:09:05.923121  2964 layer_factory.hpp:77] Creating layer Scale27
I1006 15:09:05.923239  2964 net.cpp:122] Setting up Scale27
I1006 15:09:05.923245  2964 net.cpp:129] Top shape: 100 64 8 8 (409600)
I1006 15:09:05.923247  2964 net.cpp:137] Memory required for data: 625460400
I1006 15:09:05.923251  2964 layer_factory.hpp:77] Creating layer Eltwise12
I1006 15:09:05.923255  2964 net.cpp:84] Creating Layer Eltwise12
I1006 15:09:05.923259  2964 net.cpp:406] Eltwise12 <- Eltwise11_penlu23_0_split_1
I1006 15:09:05.923261  2964 net.cpp:406] Eltwise12 <- Convolution27
I1006 15:09:05.923264  2964 net.cpp:380] Eltwise12 -> Eltwise12
I1006 15:09:05.923283  2964 net.cpp:122] Setting up Eltwise12
I1006 15:09:05.923287  2964 net.cpp:129] Top shape: 100 64 8 8 (409600)
I1006 15:09:05.923290  2964 net.cpp:137] Memory required for data: 627098800
I1006 15:09:05.923291  2964 layer_factory.hpp:77] Creating layer penlu25
I1006 15:09:05.923296  2964 net.cpp:84] Creating Layer penlu25
I1006 15:09:05.923300  2964 net.cpp:406] penlu25 <- Eltwise12
I1006 15:09:05.923302  2964 net.cpp:367] penlu25 -> Eltwise12 (in-place)
I1006 15:09:05.923426  2964 net.cpp:122] Setting up penlu25
I1006 15:09:05.923430  2964 net.cpp:129] Top shape: 100 64 8 8 (409600)
I1006 15:09:05.923432  2964 net.cpp:137] Memory required for data: 628737200
I1006 15:09:05.923436  2964 layer_factory.hpp:77] Creating layer Eltwise12_penlu25_0_split
I1006 15:09:05.923440  2964 net.cpp:84] Creating Layer Eltwise12_penlu25_0_split
I1006 15:09:05.923442  2964 net.cpp:406] Eltwise12_penlu25_0_split <- Eltwise12
I1006 15:09:05.923446  2964 net.cpp:380] Eltwise12_penlu25_0_split -> Eltwise12_penlu25_0_split_0
I1006 15:09:05.923450  2964 net.cpp:380] Eltwise12_penlu25_0_split -> Eltwise12_penlu25_0_split_1
I1006 15:09:05.923476  2964 net.cpp:122] Setting up Eltwise12_penlu25_0_split
I1006 15:09:05.923480  2964 net.cpp:129] Top shape: 100 64 8 8 (409600)
I1006 15:09:05.923483  2964 net.cpp:129] Top shape: 100 64 8 8 (409600)
I1006 15:09:05.923485  2964 net.cpp:137] Memory required for data: 632014000
I1006 15:09:05.923487  2964 layer_factory.hpp:77] Creating layer Convolution28
I1006 15:09:05.923492  2964 net.cpp:84] Creating Layer Convolution28
I1006 15:09:05.923496  2964 net.cpp:406] Convolution28 <- Eltwise12_penlu25_0_split_0
I1006 15:09:05.923501  2964 net.cpp:380] Convolution28 -> Convolution28
I1006 15:09:05.925547  2964 net.cpp:122] Setting up Convolution28
I1006 15:09:05.925562  2964 net.cpp:129] Top shape: 100 64 8 8 (409600)
I1006 15:09:05.925566  2964 net.cpp:137] Memory required for data: 633652400
I1006 15:09:05.925570  2964 layer_factory.hpp:77] Creating layer BatchNorm28
I1006 15:09:05.925577  2964 net.cpp:84] Creating Layer BatchNorm28
I1006 15:09:05.925580  2964 net.cpp:406] BatchNorm28 <- Convolution28
I1006 15:09:05.925585  2964 net.cpp:367] BatchNorm28 -> Convolution28 (in-place)
I1006 15:09:05.925740  2964 net.cpp:122] Setting up BatchNorm28
I1006 15:09:05.925745  2964 net.cpp:129] Top shape: 100 64 8 8 (409600)
I1006 15:09:05.925746  2964 net.cpp:137] Memory required for data: 635290800
I1006 15:09:05.925751  2964 layer_factory.hpp:77] Creating layer Scale28
I1006 15:09:05.925756  2964 net.cpp:84] Creating Layer Scale28
I1006 15:09:05.925758  2964 net.cpp:406] Scale28 <- Convolution28
I1006 15:09:05.925761  2964 net.cpp:367] Scale28 -> Convolution28 (in-place)
I1006 15:09:05.925792  2964 layer_factory.hpp:77] Creating layer Scale28
I1006 15:09:05.925880  2964 net.cpp:122] Setting up Scale28
I1006 15:09:05.925885  2964 net.cpp:129] Top shape: 100 64 8 8 (409600)
I1006 15:09:05.925887  2964 net.cpp:137] Memory required for data: 636929200
I1006 15:09:05.925890  2964 layer_factory.hpp:77] Creating layer penlu26
I1006 15:09:05.925896  2964 net.cpp:84] Creating Layer penlu26
I1006 15:09:05.925899  2964 net.cpp:406] penlu26 <- Convolution28
I1006 15:09:05.925902  2964 net.cpp:367] penlu26 -> Convolution28 (in-place)
I1006 15:09:05.926025  2964 net.cpp:122] Setting up penlu26
I1006 15:09:05.926030  2964 net.cpp:129] Top shape: 100 64 8 8 (409600)
I1006 15:09:05.926033  2964 net.cpp:137] Memory required for data: 638567600
I1006 15:09:05.926036  2964 layer_factory.hpp:77] Creating layer Convolution29
I1006 15:09:05.926043  2964 net.cpp:84] Creating Layer Convolution29
I1006 15:09:05.926046  2964 net.cpp:406] Convolution29 <- Convolution28
I1006 15:09:05.926049  2964 net.cpp:380] Convolution29 -> Convolution29
I1006 15:09:05.928351  2964 net.cpp:122] Setting up Convolution29
I1006 15:09:05.928360  2964 net.cpp:129] Top shape: 100 64 8 8 (409600)
I1006 15:09:05.928364  2964 net.cpp:137] Memory required for data: 640206000
I1006 15:09:05.928367  2964 layer_factory.hpp:77] Creating layer BatchNorm29
I1006 15:09:05.928373  2964 net.cpp:84] Creating Layer BatchNorm29
I1006 15:09:05.928376  2964 net.cpp:406] BatchNorm29 <- Convolution29
I1006 15:09:05.928380  2964 net.cpp:367] BatchNorm29 -> Convolution29 (in-place)
I1006 15:09:05.928536  2964 net.cpp:122] Setting up BatchNorm29
I1006 15:09:05.928541  2964 net.cpp:129] Top shape: 100 64 8 8 (409600)
I1006 15:09:05.928544  2964 net.cpp:137] Memory required for data: 641844400
I1006 15:09:05.928548  2964 layer_factory.hpp:77] Creating layer Scale29
I1006 15:09:05.928551  2964 net.cpp:84] Creating Layer Scale29
I1006 15:09:05.928555  2964 net.cpp:406] Scale29 <- Convolution29
I1006 15:09:05.928557  2964 net.cpp:367] Scale29 -> Convolution29 (in-place)
I1006 15:09:05.928589  2964 layer_factory.hpp:77] Creating layer Scale29
I1006 15:09:05.928678  2964 net.cpp:122] Setting up Scale29
I1006 15:09:05.928683  2964 net.cpp:129] Top shape: 100 64 8 8 (409600)
I1006 15:09:05.928685  2964 net.cpp:137] Memory required for data: 643482800
I1006 15:09:05.928689  2964 layer_factory.hpp:77] Creating layer Eltwise13
I1006 15:09:05.928692  2964 net.cpp:84] Creating Layer Eltwise13
I1006 15:09:05.928695  2964 net.cpp:406] Eltwise13 <- Eltwise12_penlu25_0_split_1
I1006 15:09:05.928699  2964 net.cpp:406] Eltwise13 <- Convolution29
I1006 15:09:05.928701  2964 net.cpp:380] Eltwise13 -> Eltwise13
I1006 15:09:05.928720  2964 net.cpp:122] Setting up Eltwise13
I1006 15:09:05.928725  2964 net.cpp:129] Top shape: 100 64 8 8 (409600)
I1006 15:09:05.928726  2964 net.cpp:137] Memory required for data: 645121200
I1006 15:09:05.928728  2964 layer_factory.hpp:77] Creating layer penlu27
I1006 15:09:05.928733  2964 net.cpp:84] Creating Layer penlu27
I1006 15:09:05.928735  2964 net.cpp:406] penlu27 <- Eltwise13
I1006 15:09:05.928740  2964 net.cpp:367] penlu27 -> Eltwise13 (in-place)
I1006 15:09:05.928874  2964 net.cpp:122] Setting up penlu27
I1006 15:09:05.928879  2964 net.cpp:129] Top shape: 100 64 8 8 (409600)
I1006 15:09:05.928882  2964 net.cpp:137] Memory required for data: 646759600
I1006 15:09:05.928886  2964 layer_factory.hpp:77] Creating layer Eltwise13_penlu27_0_split
I1006 15:09:05.928890  2964 net.cpp:84] Creating Layer Eltwise13_penlu27_0_split
I1006 15:09:05.928894  2964 net.cpp:406] Eltwise13_penlu27_0_split <- Eltwise13
I1006 15:09:05.928896  2964 net.cpp:380] Eltwise13_penlu27_0_split -> Eltwise13_penlu27_0_split_0
I1006 15:09:05.928900  2964 net.cpp:380] Eltwise13_penlu27_0_split -> Eltwise13_penlu27_0_split_1
I1006 15:09:05.928927  2964 net.cpp:122] Setting up Eltwise13_penlu27_0_split
I1006 15:09:05.928931  2964 net.cpp:129] Top shape: 100 64 8 8 (409600)
I1006 15:09:05.928935  2964 net.cpp:129] Top shape: 100 64 8 8 (409600)
I1006 15:09:05.928936  2964 net.cpp:137] Memory required for data: 650036400
I1006 15:09:05.928938  2964 layer_factory.hpp:77] Creating layer Convolution30
I1006 15:09:05.928944  2964 net.cpp:84] Creating Layer Convolution30
I1006 15:09:05.928946  2964 net.cpp:406] Convolution30 <- Eltwise13_penlu27_0_split_0
I1006 15:09:05.928951  2964 net.cpp:380] Convolution30 -> Convolution30
I1006 15:09:05.930994  2964 net.cpp:122] Setting up Convolution30
I1006 15:09:05.931002  2964 net.cpp:129] Top shape: 100 64 8 8 (409600)
I1006 15:09:05.931005  2964 net.cpp:137] Memory required for data: 651674800
I1006 15:09:05.931010  2964 layer_factory.hpp:77] Creating layer BatchNorm30
I1006 15:09:05.931015  2964 net.cpp:84] Creating Layer BatchNorm30
I1006 15:09:05.931017  2964 net.cpp:406] BatchNorm30 <- Convolution30
I1006 15:09:05.931021  2964 net.cpp:367] BatchNorm30 -> Convolution30 (in-place)
I1006 15:09:05.931211  2964 net.cpp:122] Setting up BatchNorm30
I1006 15:09:05.931217  2964 net.cpp:129] Top shape: 100 64 8 8 (409600)
I1006 15:09:05.931219  2964 net.cpp:137] Memory required for data: 653313200
I1006 15:09:05.931224  2964 layer_factory.hpp:77] Creating layer Scale30
I1006 15:09:05.931229  2964 net.cpp:84] Creating Layer Scale30
I1006 15:09:05.931232  2964 net.cpp:406] Scale30 <- Convolution30
I1006 15:09:05.931236  2964 net.cpp:367] Scale30 -> Convolution30 (in-place)
I1006 15:09:05.931269  2964 layer_factory.hpp:77] Creating layer Scale30
I1006 15:09:05.931361  2964 net.cpp:122] Setting up Scale30
I1006 15:09:05.931365  2964 net.cpp:129] Top shape: 100 64 8 8 (409600)
I1006 15:09:05.931367  2964 net.cpp:137] Memory required for data: 654951600
I1006 15:09:05.931371  2964 layer_factory.hpp:77] Creating layer penlu28
I1006 15:09:05.931376  2964 net.cpp:84] Creating Layer penlu28
I1006 15:09:05.931380  2964 net.cpp:406] penlu28 <- Convolution30
I1006 15:09:05.931382  2964 net.cpp:367] penlu28 -> Convolution30 (in-place)
I1006 15:09:05.931506  2964 net.cpp:122] Setting up penlu28
I1006 15:09:05.931510  2964 net.cpp:129] Top shape: 100 64 8 8 (409600)
I1006 15:09:05.931512  2964 net.cpp:137] Memory required for data: 656590000
I1006 15:09:05.931516  2964 layer_factory.hpp:77] Creating layer Convolution31
I1006 15:09:05.931524  2964 net.cpp:84] Creating Layer Convolution31
I1006 15:09:05.931526  2964 net.cpp:406] Convolution31 <- Convolution30
I1006 15:09:05.931530  2964 net.cpp:380] Convolution31 -> Convolution31
I1006 15:09:05.933248  2964 net.cpp:122] Setting up Convolution31
I1006 15:09:05.933257  2964 net.cpp:129] Top shape: 100 64 8 8 (409600)
I1006 15:09:05.933259  2964 net.cpp:137] Memory required for data: 658228400
I1006 15:09:05.933264  2964 layer_factory.hpp:77] Creating layer BatchNorm31
I1006 15:09:05.933269  2964 net.cpp:84] Creating Layer BatchNorm31
I1006 15:09:05.933272  2964 net.cpp:406] BatchNorm31 <- Convolution31
I1006 15:09:05.933277  2964 net.cpp:367] BatchNorm31 -> Convolution31 (in-place)
I1006 15:09:05.933432  2964 net.cpp:122] Setting up BatchNorm31
I1006 15:09:05.933437  2964 net.cpp:129] Top shape: 100 64 8 8 (409600)
I1006 15:09:05.933439  2964 net.cpp:137] Memory required for data: 659866800
I1006 15:09:05.933451  2964 layer_factory.hpp:77] Creating layer Scale31
I1006 15:09:05.933456  2964 net.cpp:84] Creating Layer Scale31
I1006 15:09:05.947502  2964 net.cpp:406] Scale31 <- Convolution31
I1006 15:09:05.947515  2964 net.cpp:367] Scale31 -> Convolution31 (in-place)
I1006 15:09:05.947577  2964 layer_factory.hpp:77] Creating layer Scale31
I1006 15:09:05.947721  2964 net.cpp:122] Setting up Scale31
I1006 15:09:05.947728  2964 net.cpp:129] Top shape: 100 64 8 8 (409600)
I1006 15:09:05.947732  2964 net.cpp:137] Memory required for data: 661505200
I1006 15:09:05.947739  2964 layer_factory.hpp:77] Creating layer Eltwise14
I1006 15:09:05.947747  2964 net.cpp:84] Creating Layer Eltwise14
I1006 15:09:05.947752  2964 net.cpp:406] Eltwise14 <- Eltwise13_penlu27_0_split_1
I1006 15:09:05.947757  2964 net.cpp:406] Eltwise14 <- Convolution31
I1006 15:09:05.947762  2964 net.cpp:380] Eltwise14 -> Eltwise14
I1006 15:09:05.947791  2964 net.cpp:122] Setting up Eltwise14
I1006 15:09:05.947798  2964 net.cpp:129] Top shape: 100 64 8 8 (409600)
I1006 15:09:05.947803  2964 net.cpp:137] Memory required for data: 663143600
I1006 15:09:05.947808  2964 layer_factory.hpp:77] Creating layer penlu29
I1006 15:09:05.947816  2964 net.cpp:84] Creating Layer penlu29
I1006 15:09:05.947820  2964 net.cpp:406] penlu29 <- Eltwise14
I1006 15:09:05.947826  2964 net.cpp:367] penlu29 -> Eltwise14 (in-place)
I1006 15:09:05.948019  2964 net.cpp:122] Setting up penlu29
I1006 15:09:05.948026  2964 net.cpp:129] Top shape: 100 64 8 8 (409600)
I1006 15:09:05.948030  2964 net.cpp:137] Memory required for data: 664782000
I1006 15:09:05.948038  2964 layer_factory.hpp:77] Creating layer Eltwise14_penlu29_0_split
I1006 15:09:05.948045  2964 net.cpp:84] Creating Layer Eltwise14_penlu29_0_split
I1006 15:09:05.948050  2964 net.cpp:406] Eltwise14_penlu29_0_split <- Eltwise14
I1006 15:09:05.948055  2964 net.cpp:380] Eltwise14_penlu29_0_split -> Eltwise14_penlu29_0_split_0
I1006 15:09:05.948062  2964 net.cpp:380] Eltwise14_penlu29_0_split -> Eltwise14_penlu29_0_split_1
I1006 15:09:05.948109  2964 net.cpp:122] Setting up Eltwise14_penlu29_0_split
I1006 15:09:05.948119  2964 net.cpp:129] Top shape: 100 64 8 8 (409600)
I1006 15:09:05.948125  2964 net.cpp:129] Top shape: 100 64 8 8 (409600)
I1006 15:09:05.948129  2964 net.cpp:137] Memory required for data: 668058800
I1006 15:09:05.948133  2964 layer_factory.hpp:77] Creating layer Convolution32
I1006 15:09:05.948144  2964 net.cpp:84] Creating Layer Convolution32
I1006 15:09:05.948149  2964 net.cpp:406] Convolution32 <- Eltwise14_penlu29_0_split_0
I1006 15:09:05.948158  2964 net.cpp:380] Convolution32 -> Convolution32
I1006 15:09:05.951053  2964 net.cpp:122] Setting up Convolution32
I1006 15:09:05.951063  2964 net.cpp:129] Top shape: 100 64 8 8 (409600)
I1006 15:09:05.951076  2964 net.cpp:137] Memory required for data: 669697200
I1006 15:09:05.951083  2964 layer_factory.hpp:77] Creating layer BatchNorm32
I1006 15:09:05.951090  2964 net.cpp:84] Creating Layer BatchNorm32
I1006 15:09:05.951093  2964 net.cpp:406] BatchNorm32 <- Convolution32
I1006 15:09:05.951097  2964 net.cpp:367] BatchNorm32 -> Convolution32 (in-place)
I1006 15:09:05.951380  2964 net.cpp:122] Setting up BatchNorm32
I1006 15:09:05.951397  2964 net.cpp:129] Top shape: 100 64 8 8 (409600)
I1006 15:09:05.951400  2964 net.cpp:137] Memory required for data: 671335600
I1006 15:09:05.951405  2964 layer_factory.hpp:77] Creating layer Scale32
I1006 15:09:05.951409  2964 net.cpp:84] Creating Layer Scale32
I1006 15:09:05.951411  2964 net.cpp:406] Scale32 <- Convolution32
I1006 15:09:05.951416  2964 net.cpp:367] Scale32 -> Convolution32 (in-place)
I1006 15:09:05.951448  2964 layer_factory.hpp:77] Creating layer Scale32
I1006 15:09:05.951536  2964 net.cpp:122] Setting up Scale32
I1006 15:09:05.951541  2964 net.cpp:129] Top shape: 100 64 8 8 (409600)
I1006 15:09:05.951544  2964 net.cpp:137] Memory required for data: 672974000
I1006 15:09:05.951547  2964 layer_factory.hpp:77] Creating layer penlu30
I1006 15:09:05.951551  2964 net.cpp:84] Creating Layer penlu30
I1006 15:09:05.951555  2964 net.cpp:406] penlu30 <- Convolution32
I1006 15:09:05.951565  2964 net.cpp:367] penlu30 -> Convolution32 (in-place)
I1006 15:09:05.951690  2964 net.cpp:122] Setting up penlu30
I1006 15:09:05.951694  2964 net.cpp:129] Top shape: 100 64 8 8 (409600)
I1006 15:09:05.951696  2964 net.cpp:137] Memory required for data: 674612400
I1006 15:09:05.951701  2964 layer_factory.hpp:77] Creating layer Convolution33
I1006 15:09:05.951707  2964 net.cpp:84] Creating Layer Convolution33
I1006 15:09:05.951710  2964 net.cpp:406] Convolution33 <- Convolution32
I1006 15:09:05.951715  2964 net.cpp:380] Convolution33 -> Convolution33
I1006 15:09:05.953620  2964 net.cpp:122] Setting up Convolution33
I1006 15:09:05.953629  2964 net.cpp:129] Top shape: 100 64 8 8 (409600)
I1006 15:09:05.953632  2964 net.cpp:137] Memory required for data: 676250800
I1006 15:09:05.953636  2964 layer_factory.hpp:77] Creating layer BatchNorm33
I1006 15:09:05.953641  2964 net.cpp:84] Creating Layer BatchNorm33
I1006 15:09:05.953644  2964 net.cpp:406] BatchNorm33 <- Convolution33
I1006 15:09:05.953649  2964 net.cpp:367] BatchNorm33 -> Convolution33 (in-place)
I1006 15:09:05.953801  2964 net.cpp:122] Setting up BatchNorm33
I1006 15:09:05.953805  2964 net.cpp:129] Top shape: 100 64 8 8 (409600)
I1006 15:09:05.953807  2964 net.cpp:137] Memory required for data: 677889200
I1006 15:09:05.953812  2964 layer_factory.hpp:77] Creating layer Scale33
I1006 15:09:05.953816  2964 net.cpp:84] Creating Layer Scale33
I1006 15:09:05.953819  2964 net.cpp:406] Scale33 <- Convolution33
I1006 15:09:05.953821  2964 net.cpp:367] Scale33 -> Convolution33 (in-place)
I1006 15:09:05.953852  2964 layer_factory.hpp:77] Creating layer Scale33
I1006 15:09:05.953940  2964 net.cpp:122] Setting up Scale33
I1006 15:09:05.953945  2964 net.cpp:129] Top shape: 100 64 8 8 (409600)
I1006 15:09:05.953946  2964 net.cpp:137] Memory required for data: 679527600
I1006 15:09:05.953950  2964 layer_factory.hpp:77] Creating layer Eltwise15
I1006 15:09:05.953955  2964 net.cpp:84] Creating Layer Eltwise15
I1006 15:09:05.953958  2964 net.cpp:406] Eltwise15 <- Eltwise14_penlu29_0_split_1
I1006 15:09:05.953961  2964 net.cpp:406] Eltwise15 <- Convolution33
I1006 15:09:05.953964  2964 net.cpp:380] Eltwise15 -> Eltwise15
I1006 15:09:05.953984  2964 net.cpp:122] Setting up Eltwise15
I1006 15:09:05.953987  2964 net.cpp:129] Top shape: 100 64 8 8 (409600)
I1006 15:09:05.953989  2964 net.cpp:137] Memory required for data: 681166000
I1006 15:09:05.953991  2964 layer_factory.hpp:77] Creating layer penlu31
I1006 15:09:05.953996  2964 net.cpp:84] Creating Layer penlu31
I1006 15:09:05.953999  2964 net.cpp:406] penlu31 <- Eltwise15
I1006 15:09:05.954002  2964 net.cpp:367] penlu31 -> Eltwise15 (in-place)
I1006 15:09:05.954123  2964 net.cpp:122] Setting up penlu31
I1006 15:09:05.954128  2964 net.cpp:129] Top shape: 100 64 8 8 (409600)
I1006 15:09:05.954129  2964 net.cpp:137] Memory required for data: 682804400
I1006 15:09:05.954134  2964 layer_factory.hpp:77] Creating layer Pooling1
I1006 15:09:05.954139  2964 net.cpp:84] Creating Layer Pooling1
I1006 15:09:05.954141  2964 net.cpp:406] Pooling1 <- Eltwise15
I1006 15:09:05.954145  2964 net.cpp:380] Pooling1 -> Pooling1
I1006 15:09:05.954285  2964 net.cpp:122] Setting up Pooling1
I1006 15:09:05.954293  2964 net.cpp:129] Top shape: 100 64 1 1 (6400)
I1006 15:09:05.954295  2964 net.cpp:137] Memory required for data: 682830000
I1006 15:09:05.954298  2964 layer_factory.hpp:77] Creating layer InnerProduct1
I1006 15:09:05.954303  2964 net.cpp:84] Creating Layer InnerProduct1
I1006 15:09:05.954305  2964 net.cpp:406] InnerProduct1 <- Pooling1
I1006 15:09:05.954310  2964 net.cpp:380] InnerProduct1 -> InnerProduct1
I1006 15:09:05.954416  2964 net.cpp:122] Setting up InnerProduct1
I1006 15:09:05.954421  2964 net.cpp:129] Top shape: 100 10 (1000)
I1006 15:09:05.954422  2964 net.cpp:137] Memory required for data: 682834000
I1006 15:09:05.954427  2964 layer_factory.hpp:77] Creating layer InnerProduct1_InnerProduct1_0_split
I1006 15:09:05.954432  2964 net.cpp:84] Creating Layer InnerProduct1_InnerProduct1_0_split
I1006 15:09:05.954439  2964 net.cpp:406] InnerProduct1_InnerProduct1_0_split <- InnerProduct1
I1006 15:09:05.954444  2964 net.cpp:380] InnerProduct1_InnerProduct1_0_split -> InnerProduct1_InnerProduct1_0_split_0
I1006 15:09:05.954448  2964 net.cpp:380] InnerProduct1_InnerProduct1_0_split -> InnerProduct1_InnerProduct1_0_split_1
I1006 15:09:05.954478  2964 net.cpp:122] Setting up InnerProduct1_InnerProduct1_0_split
I1006 15:09:05.954483  2964 net.cpp:129] Top shape: 100 10 (1000)
I1006 15:09:05.954484  2964 net.cpp:129] Top shape: 100 10 (1000)
I1006 15:09:05.954486  2964 net.cpp:137] Memory required for data: 682842000
I1006 15:09:05.954488  2964 layer_factory.hpp:77] Creating layer SoftmaxWithLoss1
I1006 15:09:05.954493  2964 net.cpp:84] Creating Layer SoftmaxWithLoss1
I1006 15:09:05.954494  2964 net.cpp:406] SoftmaxWithLoss1 <- InnerProduct1_InnerProduct1_0_split_0
I1006 15:09:05.954497  2964 net.cpp:406] SoftmaxWithLoss1 <- Data2_Data1_1_split_0
…
