…
I1006 21:21:49.930099  4081 net.cpp:294] The NetState phase (0) differed from the phase (1) specified by a rule in layer Accuracy1
I1006 21:21:49.930817  4081 net.cpp:51] Initializing net from parameters: 
name: "resnet_cifar10"
state {
  phase: TRAIN
  level: 0
  stage: ""
}
layer {
  name: "Data1"
  type: "Data"
  top: "Data1"
  top: "Data2"
  include {
    phase: TRAIN
  }
  transform_param {
    mirror: true
    crop_size: 28
    mean_file: "/home/x306/caffe/xn/PENLU/data/cifar10/mean.binaryproto"
  }
  data_param {
    source: "/home/x306/caffe/xn/PENLU/data/cifar10/cifar10_train_lmdb"
    batch_size: 100
    backend: LMDB
  }
}
layer {
  name: "Convolution1"
  type: "Convolution"
  bottom: "Data1"
  top: "Convolution1"
  param {
    lr_mult: 1
    decay_mult: 1
  }
  param {
    lr_mult: 2
    decay_mult: 0
  }
  convolution_param {
    num_output: 16
    pad: 1
    kernel_size: 3
    stride: 1
    weight_filler {
      type: "gaussian"
      std: 0.118
    }
    bias_filler {
      type: "constant"
      value: 0
    }
  }
}
layer {
  name: "BatchNorm1"
  type: "BatchNorm"
  bottom: "Convolution1"
  top: "Convolution1"
  param {
    lr_mult: 0
    decay_mult: 0
  }
  param {
    lr_mult: 0
    decay_mult: 0
  }
  param {
    lr_mult: 0
    decay_mult: 0
  }
}
layer {
  name: "Scale1"
  type: "Scale"
  bottom: "Convolution1"
  top: "Convolution1"
  scale_param {
    bias_term: true
  }
}
layer {
  name: "penlu1"
  type: "PENLU"
  bottom: "Convolution1"
  top: "Convolution1"
  param {
    lr_mult: 2
    decay_mult: 0
  }
  param {
    lr_mult: 2
    decay_mult: 0
  }
  param {
    lr_mult: 0
    decay_mult: 0
  }
  penlu_param {
    alpha_filler {
      type: "constant"
      value: 1
    }
    beta_filler {
      type: "constant"
      value: 1
    }
    eta_filler {
      type: "constant"
      value: 1
    }
  }
}
layer {
  name: "Convolution2"
  type: "Convolution"
  bottom: "Convolution1"
  top: "Convolution2"
  param {
    lr_mult: 1
    decay_mult: 1
  }
  param {
    lr_mult: 2
    decay_mult: 0
  }
  convolution_param {
    num_output: 16
    pad: 1
    kernel_size: 3
    stride: 1
    weight_filler {
      type: "gaussian"
      std: 0.118
    }
    bias_filler {
      type: "constant"
      value: 0
    }
  }
}
layer {
  name: "BatchNorm2"
  type: "BatchNorm"
  bottom: "Convolution2"
  top: "Convolution2"
  param {
    lr_mult: 0
    decay_mult: 0
  }
  param {
    lr_mult: 0
    decay_mult: 0
  }
  param {
    lr_mult: 0
    decay_mult: 0
  }
}
layer {
  name: "Scale2"
  type: "Scale"
  bottom: "Convolution2"
  top: "Convolution2"
  scale_param {
    bias_term: true
  }
}
layer {
  name: "penlu2"
  type: "PENLU"
  bottom: "Convolution2"
  top: "Convolution2"
  param {
    lr_mult: 2
    decay_mult: 0
  }
  param {
    lr_mult: 2
    decay_mult: 0
  }
  param {
    lr_mult: 0
    decay_mult: 0
  }
  penlu_param {
    alpha_filler {
      type: "constant"
      value: 1
    }
    beta_filler {
      type: "constant"
      value: 1
    }
    eta_filler {
      type: "constant"
      value: 1
    }
  }
}
layer {
  name: "Convolution3"
  type: "Convolution"
  bottom: "Convolution2"
  top: "Convolution3"
  param {
    lr_mult: 1
    decay_mult: 1
  }
  param {
    lr_mult: 2
    decay_mult: 0
  }
  convolution_param {
    num_output: 16
    pad: 1
    kernel_size: 3
    stride: 1
    weight_filler {
      type: "gaussian"
      std: 0.118
    }
    bias_filler {
      type: "constant"
      value: 0
    }
  }
}
layer {
  name: "BatchNorm3"
  type: "BatchNorm"
  bottom: "Convolution3"
  top: "Convolution3"
  param {
    lr_mult: 0
    decay_mult: 0
  }
  param {
    lr_mult: 0
    decay_mult: 0
  }
  param {
    lr_mult: 0
    decay_mult: 0
  }
}
layer {
  name: "Scale3"
  type: "Scale"
  bottom: "Convolution3"
  top: "Convolution3"
  scale_param {
    bias_term: true
  }
}
layer {
  name: "Eltwise1"
  type: "Eltwise"
  bottom: "Convolution1"
  bottom: "Convolution3"
  top: "Eltwise1"
  eltwise_param {
    operation: SUM
  }
}
layer {
  name: "penlu3"
  type: "PENLU"
  bottom: "Eltwise1"
  top: "Eltwise1"
  param {
    lr_mult: 2
    decay_mult: 0
  }
  param {
    lr_mult: 2
    decay_mult: 0
  }
  param {
    lr_mult: 0
    decay_mult: 0
  }
  penlu_param {
    alpha_filler {
      type: "constant"
      value: 1
    }
    beta_filler {
      type: "constant"
      value: 1
    }
    eta_filler {
      type: "constant"
      value: 1
    }
  }
}
layer {
  name: "Convolution4"
  type: "Convolution"
  bottom: "Eltwise1"
  top: "Convolution4"
  param {
    lr_mult: 1
    decay_mult: 1
  }
  param {
    lr_mult: 2
    decay_mult: 0
  }
  convolution_param {
    num_output: 16
    pad: 1
    kernel_size: 3
    stride: 1
    weight_filler {
      type: "gaussian"
      std: 0.118
    }
    bias_filler {
      type: "constant"
      value: 0
    }
  }
}
layer {
  name: "BatchNorm4"
  type: "BatchNorm"
  bottom: "Convolution4"
  top: "Convolution4"
  param {
    lr_mult: 0
    decay_mult: 0
  }
  param {
    lr_mult: 0
    decay_mult: 0
  }
  param {
    lr_mult: 0
    decay_mult: 0
  }
}
layer {
  name: "Scale4"
  type: "Scale"
  bottom: "Convolution4"
  top: "Convolution4"
  scale_param {
    bias_term: true
  }
}
layer {
  name: "penlu4"
  type: "PENLU"
  bottom: "Convolution4"
  top: "Convolution4"
  param {
    lr_mult: 2
    decay_mult: 0
  }
  param {
    lr_mult: 2
    decay_mult: 0
  }
  param {
    lr_mult: 0
    decay_mult: 0
  }
  penlu_param {
    alpha_filler {
      type: "constant"
      value: 1
    }
    beta_filler {
      type: "constant"
      value: 1
    }
    eta_filler {
      type: "constant"
      value: 1
    }
  }
}
layer {
  name: "Convolution5"
  type: "Convolution"
  bottom: "Convolution4"
  top: "Convolution5"
  param {
    lr_mult: 1
    decay_mult: 1
  }
  param {
    lr_mult: 2
    decay_mult: 0
  }
  convolution_param {
    num_output: 16
    pad: 1
    kernel_size: 3
    stride: 1
    weight_filler {
      type: "gaussian"
      std: 0.118
    }
    bias_filler {
      type: "constant"
      value: 0
    }
  }
}
layer {
  name: "BatchNorm5"
  type: "BatchNorm"
  bottom: "Convolution5"
  top: "Convolution5"
  param {
    lr_mult: 0
    decay_mult: 0
  }
  param {
    lr_mult: 0
    decay_mult: 0
  }
  param {
    lr_mult: 0
    decay_mult: 0
  }
}
layer {
  name: "Scale5"
  type: "Scale"
  bottom: "Convolution5"
  top: "Convolution5"
  scale_param {
    bias_term: true
  }
}
layer {
  name: "Eltwise2"
  type: "Eltwise"
  bottom: "Eltwise1"
  bottom: "Convolution5"
  top: "Eltwise2"
  eltwise_param {
    operation: SUM
  }
}
layer {
  name: "penlu5"
  type: "PENLU"
  bottom: "Eltwise2"
  top: "Eltwise2"
  param {
    lr_mult: 2
    decay_mult: 0
  }
  param {
    lr_mult: 2
    decay_mult: 0
  }
  param {
    lr_mult: 0
    decay_mult: 0
  }
  penlu_param {
    alpha_filler {
      type: "constant"
      value: 1
    }
    beta_filler {
      type: "constant"
      value: 1
    }
    eta_filler {
      type: "constant"
      value: 1
    }
  }
}
layer {
  name: "Convolution6"
  type: "Convolution"
  bottom: "Eltwise2"
  top: "Convolution6"
  param {
    lr_mult: 1
    decay_mult: 1
  }
  param {
    lr_mult: 2
    decay_mult: 0
  }
  convolution_param {
    num_output: 16
    pad: 1
    kernel_size: 3
    stride: 1
    weight_filler {
      type: "gaussian"
      std: 0.118
    }
    bias_filler {
      type: "constant"
      value: 0
    }
  }
}
layer {
  name: "BatchNorm6"
  type: "BatchNorm"
  bottom: "Convolution6"
  top: "Convolution6"
  param {
    lr_mult: 0
    decay_mult: 0
  }
  param {
    lr_mult: 0
    decay_mult: 0
  }
  param {
    lr_mult: 0
    decay_mult: 0
  }
}
layer {
  name: "Scale6"
  type: "Scale"
  bottom: "Convolution6"
  top: "Convolution6"
  scale_param {
    bias_term: true
  }
}
layer {
  name: "penlu6"
  type: "PENLU"
  bottom: "Convolution6"
  top: "Convolution6"
  param {
    lr_mult: 2
    decay_mult: 0
  }
  param {
    lr_mult: 2
    decay_mult: 0
  }
  param {
    lr_mult: 0
    decay_mult: 0
  }
  penlu_param {
    alpha_filler {
      type: "constant"
      value: 1
    }
    beta_filler {
      type: "constant"
      value: 1
    }
    eta_filler {
      type: "constant"
      value: 1
    }
  }
}
layer {
  name: "Convolution7"
  type: "Convolution"
  bottom: "Convolution6"
  top: "Convolution7"
  param {
    lr_mult: 1
    decay_mult: 1
  }
  param {
    lr_mult: 2
    decay_mult: 0
  }
  convolution_param {
    num_output: 16
    pad: 1
    kernel_size: 3
    stride: 1
    weight_filler {
      type: "gaussian"
      std: 0.118
    }
    bias_filler {
      type: "constant"
      value: 0
    }
  }
}
layer {
  name: "BatchNorm7"
  type: "BatchNorm"
  bottom: "Convolution7"
  top: "Convolution7"
  param {
    lr_mult: 0
    decay_mult: 0
  }
  param {
    lr_mult: 0
    decay_mult: 0
  }
  param {
    lr_mult: 0
    decay_mult: 0
  }
}
layer {
  name: "Scale7"
  type: "Scale"
  bottom: "Convolution7"
  top: "Convolution7"
  scale_param {
    bias_term: true
  }
}
layer {
  name: "Eltwise3"
  type: "Eltwise"
  bottom: "Eltwise2"
  bottom: "Convolution7"
  top: "Eltwise3"
  eltwise_param {
    operation: SUM
  }
}
layer {
  name: "penlu7"
  type: "PENLU"
  bottom: "Eltwise3"
  top: "Eltwise3"
  param {
    lr_mult: 2
    decay_mult: 0
  }
  param {
    lr_mult: 2
    decay_mult: 0
  }
  param {
    lr_mult: 0
    decay_mult: 0
  }
  penlu_param {
    alpha_filler {
      type: "constant"
      value: 1
    }
    beta_filler {
      type: "constant"
      value: 1
    }
    eta_filler {
      type: "constant"
      value: 1
    }
  }
}
layer {
  name: "Convolution8"
  type: "Convolution"
  bottom: "Eltwise3"
  top: "Convolution8"
  param {
    lr_mult: 1
    decay_mult: 1
  }
  param {
    lr_mult: 2
    decay_mult: 0
  }
  convolution_param {
    num_output: 16
    pad: 1
    kernel_size: 3
    stride: 1
    weight_filler {
      type: "gaussian"
      std: 0.118
    }
    bias_filler {
      type: "constant"
      value: 0
    }
  }
}
layer {
  name: "BatchNorm8"
  type: "BatchNorm"
  bottom: "Convolution8"
  top: "Convolution8"
  param {
    lr_mult: 0
    decay_mult: 0
  }
  param {
    lr_mult: 0
    decay_mult: 0
  }
  param {
    lr_mult: 0
    decay_mult: 0
  }
}
layer {
  name: "Scale8"
  type: "Scale"
  bottom: "Convolution8"
  top: "Convolution8"
  scale_param {
    bias_term: true
  }
}
layer {
  name: "penlu8"
  type: "PENLU"
  bottom: "Convolution8"
  top: "Convolution8"
  param {
    lr_mult: 2
    decay_mult: 0
  }
  param {
    lr_mult: 2
    decay_mult: 0
  }
  param {
    lr_mult: 0
    decay_mult: 0
  }
  penlu_param {
    alpha_filler {
      type: "constant"
      value: 1
    }
    beta_filler {
      type: "constant"
      value: 1
    }
    eta_filler {
      type: "constant"
      value: 1
    }
  }
}
layer {
  name: "Convolution9"
  type: "Convolution"
  bottom: "Convolution8"
  top: "Convolution9"
  param {
    lr_mult: 1
    decay_mult: 1
  }
  param {
    lr_mult: 2
    decay_mult: 0
  }
  convolution_param {
    num_output: 16
    pad: 1
    kernel_size: 3
    stride: 1
    weight_filler {
      type: "gaussian"
      std: 0.118
    }
    bias_filler {
      type: "constant"
      value: 0
    }
  }
}
layer {
  name: "BatchNorm9"
  type: "BatchNorm"
  bottom: "Convolution9"
  top: "Convolution9"
  param {
    lr_mult: 0
    decay_mult: 0
  }
  param {
    lr_mult: 0
    decay_mult: 0
  }
  param {
    lr_mult: 0
    decay_mult: 0
  }
}
layer {
  name: "Scale9"
  type: "Scale"
  bottom: "Convolution9"
  top: "Convolution9"
  scale_param {
    bias_term: true
  }
}
layer {
  name: "Eltwise4"
  type: "Eltwise"
  bottom: "Eltwise3"
  bottom: "Convolution9"
  top: "Eltwise4"
  eltwise_param {
    operation: SUM
  }
}
layer {
  name: "penlu9"
  type: "PENLU"
  bottom: "Eltwise4"
  top: "Eltwise4"
  param {
    lr_mult: 2
    decay_mult: 0
  }
  param {
    lr_mult: 2
    decay_mult: 0
  }
  param {
    lr_mult: 0
    decay_mult: 0
  }
  penlu_param {
    alpha_filler {
      type: "constant"
      value: 1
    }
    beta_filler {
      type: "constant"
      value: 1
    }
    eta_filler {
      type: "constant"
      value: 1
    }
  }
}
layer {
  name: "Convolution10"
  type: "Convolution"
  bottom: "Eltwise4"
  top: "Convolution10"
  param {
    lr_mult: 1
    decay_mult: 1
  }
  param {
    lr_mult: 2
    decay_mult: 0
  }
  convolution_param {
    num_output: 16
    pad: 1
    kernel_size: 3
    stride: 1
    weight_filler {
      type: "gaussian"
      std: 0.118
    }
    bias_filler {
      type: "constant"
      value: 0
    }
  }
}
layer {
  name: "BatchNorm10"
  type: "BatchNorm"
  bottom: "Convolution10"
  top: "Convolution10"
  param {
    lr_mult: 0
    decay_mult: 0
  }
  param {
    lr_mult: 0
    decay_mult: 0
  }
  param {
    lr_mult: 0
    decay_mult: 0
  }
}
layer {
  name: "Scale10"
  type: "Scale"
  bottom: "Convolution10"
  top: "Convolution10"
  scale_param {
    bias_term: true
  }
}
layer {
  name: "penlu10"
  type: "PENLU"
  bottom: "Convolution10"
  top: "Convolution10"
  param {
    lr_mult: 2
    decay_mult: 0
  }
  param {
    lr_mult: 2
    decay_mult: 0
  }
  param {
    lr_mult: 0
    decay_mult: 0
  }
  penlu_param {
    alpha_filler {
      type: "constant"
      value: 1
    }
    beta_filler {
      type: "constant"
      value: 1
    }
    eta_filler {
      type: "constant"
      value: 1
    }
  }
}
layer {
  name: "Convolution11"
  type: "Convolution"
  bottom: "Convolution10"
  top: "Convolution11"
  param {
    lr_mult: 1
    decay_mult: 1
  }
  param {
    lr_mult: 2
    decay_mult: 0
  }
  convolution_param {
    num_output: 16
    pad: 1
    kernel_size: 3
    stride: 1
    weight_filler {
      type: "gaussian"
      std: 0.118
    }
    bias_filler {
      type: "constant"
      value: 0
    }
  }
}
layer {
  name: "BatchNorm11"
  type: "BatchNorm"
  bottom: "Convolution11"
  top: "Convolution11"
  param {
    lr_mult: 0
    decay_mult: 0
  }
  param {
    lr_mult: 0
    decay_mult: 0
  }
  param {
    lr_mult: 0
    decay_mult: 0
  }
}
layer {
  name: "Scale11"
  type: "Scale"
  bottom: "Convolution11"
  top: "Convolution11"
  scale_param {
    bias_term: true
  }
}
layer {
  name: "Eltwise5"
  type: "Eltwise"
  bottom: "Eltwise4"
  bottom: "Convolution11"
  top: "Eltwise5"
  eltwise_param {
    operation: SUM
  }
}
layer {
  name: "penlu11"
  type: "PENLU"
  bottom: "Eltwise5"
  top: "Eltwise5"
  param {
    lr_mult: 2
    decay_mult: 0
  }
  param {
    lr_mult: 2
    decay_mult: 0
  }
  param {
    lr_mult: 0
    decay_mult: 0
  }
  penlu_param {
    alpha_filler {
      type: "constant"
      value: 1
    }
    beta_filler {
      type: "constant"
      value: 1
    }
    eta_filler {
      type: "constant"
      value: 1
    }
  }
}
layer {
  name: "Convolution12"
  type: "Convolution"
  bottom: "Eltwise5"
  top: "Convolution12"
  param {
    lr_mult: 1
    decay_mult: 1
  }
  param {
    lr_mult: 2
    decay_mult: 0
  }
  convolution_param {
    num_output: 32
    pad: 0
    kernel_size: 1
    stride: 2
    weight_filler {
      type: "gaussian"
      std: 0.25
    }
    bias_filler {
      type: "constant"
      value: 0
    }
  }
}
layer {
  name: "BatchNorm12"
  type: "BatchNorm"
  bottom: "Convolution12"
  top: "Convolution12"
  param {
    lr_mult: 0
    decay_mult: 0
  }
  param {
    lr_mult: 0
    decay_mult: 0
  }
  param {
    lr_mult: 0
    decay_mult: 0
  }
}
layer {
  name: "Scale12"
  type: "Scale"
  bottom: "Convolution12"
  top: "Convolution12"
  scale_param {
    bias_term: true
  }
}
layer {
  name: "Convolution13"
  type: "Convolution"
  bottom: "Eltwise5"
  top: "Convolution13"
  param {
    lr_mult: 1
    decay_mult: 1
  }
  param {
    lr_mult: 2
    decay_mult: 0
  }
  convolution_param {
    num_output: 32
    pad: 1
    kernel_size: 3
    stride: 2
    weight_filler {
      type: "gaussian"
      std: 0.083
    }
    bias_filler {
      type: "constant"
      value: 0
    }
  }
}
layer {
  name: "BatchNorm13"
  type: "BatchNorm"
  bottom: "Convolution13"
  top: "Convolution13"
  param {
    lr_mult: 0
    decay_mult: 0
  }
  param {
    lr_mult: 0
    decay_mult: 0
  }
  param {
    lr_mult: 0
    decay_mult: 0
  }
}
layer {
  name: "Scale13"
  type: "Scale"
  bottom: "Convolution13"
  top: "Convolution13"
  scale_param {
    bias_term: true
  }
}
layer {
  name: "penlu12"
  type: "PENLU"
  bottom: "Convolution13"
  top: "Convolution13"
  param {
    lr_mult: 2
    decay_mult: 0
  }
  param {
    lr_mult: 2
    decay_mult: 0
  }
  param {
    lr_mult: 0
    decay_mult: 0
  }
  penlu_param {
    alpha_filler {
      type: "constant"
      value: 1
    }
    beta_filler {
      type: "constant"
      value: 1
    }
    eta_filler {
      type: "constant"
      value: 1
    }
  }
}
layer {
  name: "Convolution14"
  type: "Convolution"
  bottom: "Convolution13"
  top: "Convolution14"
  param {
    lr_mult: 1
    decay_mult: 1
  }
  param {
    lr_mult: 2
    decay_mult: 0
  }
  convolution_param {
    num_output: 32
    pad: 1
    kernel_size: 3
    stride: 1
    weight_filler {
      type: "gaussian"
      std: 0.083
    }
    bias_filler {
      type: "constant"
      value: 0
    }
  }
}
layer {
  name: "BatchNorm14"
  type: "BatchNorm"
  bottom: "Convolution14"
  top: "Convolution14"
  param {
    lr_mult: 0
    decay_mult: 0
  }
  param {
    lr_mult: 0
    decay_mult: 0
  }
  param {
    lr_mult: 0
    decay_mult: 0
  }
}
layer {
  name: "Scale14"
  type: "Scale"
  bottom: "Convolution14"
  top: "Convolution14"
  scale_param {
    bias_term: true
  }
}
layer {
  name: "Eltwise6"
  type: "Eltwise"
  bottom: "Convolution12"
  bottom: "Convolution14"
  top: "Eltwise6"
  eltwise_param {
    operation: SUM
  }
}
layer {
  name: "penlu13"
  type: "PENLU"
  bottom: "Eltwise6"
  top: "Eltwise6"
  param {
    lr_mult: 2
    decay_mult: 0
  }
  param {
    lr_mult: 2
    decay_mult: 0
  }
  param {
    lr_mult: 0
    decay_mult: 0
  }
  penlu_param {
    alpha_filler {
      type: "constant"
      value: 1
    }
    beta_filler {
      type: "constant"
      value: 1
    }
    eta_filler {
      type: "constant"
      value: 1
    }
  }
}
layer {
  name: "Convolution15"
  type: "Convolution"
  bottom: "Eltwise6"
  top: "Convolution15"
  param {
    lr_mult: 1
    decay_mult: 1
  }
  param {
    lr_mult: 2
    decay_mult: 0
  }
  convolution_param {
    num_output: 32
    pad: 1
    kernel_size: 3
    stride: 1
    weight_filler {
      type: "gaussian"
      std: 0.083
    }
    bias_filler {
      type: "constant"
      value: 0
    }
  }
}
layer {
  name: "BatchNorm15"
  type: "BatchNorm"
  bottom: "Convolution15"
  top: "Convolution15"
  param {
    lr_mult: 0
    decay_mult: 0
  }
  param {
    lr_mult: 0
    decay_mult: 0
  }
  param {
    lr_mult: 0
    decay_mult: 0
  }
}
layer {
  name: "Scale15"
  type: "Scale"
  bottom: "Convolution15"
  top: "Convolution15"
  scale_param {
    bias_term: true
  }
}
layer {
  name: "penlu14"
  type: "PENLU"
  bottom: "Convolution15"
  top: "Convolution15"
  param {
    lr_mult: 2
    decay_mult: 0
  }
  param {
    lr_mult: 2
    decay_mult: 0
  }
  param {
    lr_mult: 0
    decay_mult: 0
  }
  penlu_param {
    alpha_filler {
      type: "constant"
      value: 1
    }
    beta_filler {
      type: "constant"
      value: 1
    }
    eta_filler {
      type: "constant"
      value: 1
    }
  }
}
layer {
  name: "Convolution16"
  type: "Convolution"
  bottom: "Convolution15"
  top: "Convolution16"
  param {
    lr_mult: 1
    decay_mult: 1
  }
  param {
    lr_mult: 2
    decay_mult: 0
  }
  convolution_param {
    num_output: 32
    pad: 1
    kernel_size: 3
    stride: 1
    weight_filler {
      type: "gaussian"
      std: 0.083
    }
    bias_filler {
      type: "constant"
      value: 0
    }
  }
}
layer {
  name: "BatchNorm16"
  type: "BatchNorm"
  bottom: "Convolution16"
  top: "Convolution16"
  param {
    lr_mult: 0
    decay_mult: 0
  }
  param {
    lr_mult: 0
    decay_mult: 0
  }
  param {
    lr_mult: 0
    decay_mult: 0
  }
}
layer {
  name: "Scale16"
  type: "Scale"
  bottom: "Convolution16"
  top: "Convolution16"
  scale_param {
    bias_term: true
  }
}
layer {
  name: "Eltwise7"
  type: "Eltwise"
  bottom: "Eltwise6"
  bottom: "Convolution16"
  top: "Eltwise7"
  eltwise_param {
    operation: SUM
  }
}
layer {
  name: "penlu15"
  type: "PENLU"
  bottom: "Eltwise7"
  top: "Eltwise7"
  param {
    lr_mult: 2
    decay_mult: 0
  }
  param {
    lr_mult: 2
    decay_mult: 0
  }
  param {
    lr_mult: 0
    decay_mult: 0
  }
  penlu_param {
    alpha_filler {
      type: "constant"
      value: 1
    }
    beta_filler {
      type: "constant"
      value: 1
    }
    eta_filler {
      type: "constant"
      value: 1
    }
  }
}
layer {
  name: "Convolution17"
  type: "Convolution"
  bottom: "Eltwise7"
  top: "Convolution17"
  param {
    lr_mult: 1
    decay_mult: 1
  }
  param {
    lr_mult: 2
    decay_mult: 0
  }
  convolution_param {
    num_output: 32
    pad: 1
    kernel_size: 3
    stride: 1
    weight_filler {
      type: "gaussian"
      std: 0.083
    }
    bias_filler {
      type: "constant"
      value: 0
    }
  }
}
layer {
  name: "BatchNorm17"
  type: "BatchNorm"
  bottom: "Convolution17"
  top: "Convolution17"
  param {
    lr_mult: 0
    decay_mult: 0
  }
  param {
    lr_mult: 0
    decay_mult: 0
  }
  param {
    lr_mult: 0
    decay_mult: 0
  }
}
layer {
  name: "Scale17"
  type: "Scale"
  bottom: "Convolution17"
  top: "Convolution17"
  scale_param {
    bias_term: true
  }
}
layer {
  name: "penlu16"
  type: "PENLU"
  bottom: "Convolution17"
  top: "Convolution17"
  param {
    lr_mult: 2
    decay_mult: 0
  }
  param {
    lr_mult: 2
    decay_mult: 0
  }
  param {
    lr_mult: 0
    decay_mult: 0
  }
  penlu_param {
    alpha_filler {
      type: "constant"
      value: 1
    }
    beta_filler {
      type: "constant"
      value: 1
    }
    eta_filler {
      type: "constant"
      value: 1
    }
  }
}
layer {
  name: "Convolution18"
  type: "Convolution"
  bottom: "Convolution17"
  top: "Convolution18"
  param {
    lr_mult: 1
    decay_mult: 1
  }
  param {
    lr_mult: 2
    decay_mult: 0
  }
  convolution_param {
    num_output: 32
    pad: 1
    kernel_size: 3
    stride: 1
    weight_filler {
      type: "gaussian"
      std: 0.083
    }
    bias_filler {
      type: "constant"
      value: 0
    }
  }
}
layer {
  name: "BatchNorm18"
  type: "BatchNorm"
  bottom: "Convolution18"
  top: "Convolution18"
  param {
    lr_mult: 0
    decay_mult: 0
  }
  param {
    lr_mult: 0
    decay_mult: 0
  }
  param {
    lr_mult: 0
    decay_mult: 0
  }
}
layer {
  name: "Scale18"
  type: "Scale"
  bottom: "Convolution18"
  top: "Convolution18"
  scale_param {
    bias_term: true
  }
}
layer {
  name: "Eltwise8"
  type: "Eltwise"
  bottom: "Eltwise7"
  bottom: "Convolution18"
  top: "Eltwise8"
  eltwise_param {
    operation: SUM
  }
}
layer {
  name: "penlu17"
  type: "PENLU"
  bottom: "Eltwise8"
  top: "Eltwise8"
  param {
    lr_mult: 2
    decay_mult: 0
  }
  param {
    lr_mult: 2
    decay_mult: 0
  }
  param {
    lr_mult: 0
    decay_mult: 0
  }
  penlu_param {
    alpha_filler {
      type: "constant"
      value: 1
    }
    beta_filler {
      type: "constant"
      value: 1
    }
    eta_filler {
      type: "constant"
      value: 1
    }
  }
}
layer {
  name: "Convolution19"
  type: "Convolution"
  bottom: "Eltwise8"
  top: "Convolution19"
  param {
    lr_mult: 1
    decay_mult: 1
  }
  param {
    lr_mult: 2
    decay_mult: 0
  }
  convolution_param {
    num_output: 32
    pad: 1
    kernel_size: 3
    stride: 1
    weight_filler {
      type: "gaussian"
      std: 0.083
    }
    bias_filler {
      type: "constant"
      value: 0
    }
  }
}
layer {
  name: "BatchNorm19"
  type: "BatchNorm"
  bottom: "Convolution19"
  top: "Convolution19"
  param {
    lr_mult: 0
    decay_mult: 0
  }
  param {
    lr_mult: 0
    decay_mult: 0
  }
  param {
    lr_mult: 0
    decay_mult: 0
  }
}
layer {
  name: "Scale19"
  type: "Scale"
  bottom: "Convolution19"
  top: "Convolution19"
  scale_param {
    bias_term: true
  }
}
layer {
  name: "penlu18"
  type: "PENLU"
  bottom: "Convolution19"
  top: "Convolution19"
  param {
    lr_mult: 2
    decay_mult: 0
  }
  param {
    lr_mult: 2
    decay_mult: 0
  }
  param {
    lr_mult: 0
    decay_mult: 0
  }
  penlu_param {
    alpha_filler {
      type: "constant"
      value: 1
    }
    beta_filler {
      type: "constant"
      value: 1
    }
    eta_filler {
      type: "constant"
      value: 1
    }
  }
}
layer {
  name: "Convolution20"
  type: "Convolution"
  bottom: "Convolution19"
  top: "Convolution20"
  param {
    lr_mult: 1
    decay_mult: 1
  }
  param {
    lr_mult: 2
    decay_mult: 0
  }
  convolution_param {
    num_output: 32
    pad: 1
    kernel_size: 3
    stride: 1
    weight_filler {
      type: "gaussian"
      std: 0.083
    }
    bias_filler {
      type: "constant"
      value: 0
    }
  }
}
layer {
  name: "BatchNorm20"
  type: "BatchNorm"
  bottom: "Convolution20"
  top: "Convolution20"
  param {
    lr_mult: 0
    decay_mult: 0
  }
  param {
    lr_mult: 0
    decay_mult: 0
  }
  param {
    lr_mult: 0
    decay_mult: 0
  }
}
layer {
  name: "Scale20"
  type: "Scale"
  bottom: "Convolution20"
  top: "Convolution20"
  scale_param {
    bias_term: true
  }
}
layer {
  name: "Eltwise9"
  type: "Eltwise"
  bottom: "Eltwise8"
  bottom: "Convolution20"
  top: "Eltwise9"
  eltwise_param {
    operation: SUM
  }
}
layer {
  name: "penlu19"
  type: "PENLU"
  bottom: "Eltwise9"
  top: "Eltwise9"
  param {
    lr_mult: 2
    decay_mult: 0
  }
  param {
    lr_mult: 2
    decay_mult: 0
  }
  param {
    lr_mult: 0
    decay_mult: 0
  }
  penlu_param {
    alpha_filler {
      type: "constant"
      value: 1
    }
    beta_filler {
      type: "constant"
      value: 1
    }
    eta_filler {
      type: "constant"
      value: 1
    }
  }
}
layer {
  name: "Convolution21"
  type: "Convolution"
  bottom: "Eltwise9"
  top: "Convolution21"
  param {
    lr_mult: 1
    decay_mult: 1
  }
  param {
    lr_mult: 2
    decay_mult: 0
  }
  convolution_param {
    num_output: 32
    pad: 1
    kernel_size: 3
    stride: 1
    weight_filler {
      type: "gaussian"
      std: 0.083
    }
    bias_filler {
      type: "constant"
      value: 0
    }
  }
}
layer {
  name: "BatchNorm21"
  type: "BatchNorm"
  bottom: "Convolution21"
  top: "Convolution21"
  param {
    lr_mult: 0
    decay_mult: 0
  }
  param {
    lr_mult: 0
    decay_mult: 0
  }
  param {
    lr_mult: 0
    decay_mult: 0
  }
}
layer {
  name: "Scale21"
  type: "Scale"
  bottom: "Convolution21"
  top: "Convolution21"
  scale_param {
    bias_term: true
  }
}
layer {
  name: "penlu20"
  type: "PENLU"
  bottom: "Convolution21"
  top: "Convolution21"
  param {
    lr_mult: 2
    decay_mult: 0
  }
  param {
    lr_mult: 2
    decay_mult: 0
  }
  param {
    lr_mult: 0
    decay_mult: 0
  }
  penlu_param {
    alpha_filler {
      type: "constant"
      value: 1
    }
    beta_filler {
      type: "constant"
      value: 1
    }
    eta_filler {
      type: "constant"
      value: 1
    }
  }
}
layer {
  name: "Convolution22"
  type: "Convolution"
  bottom: "Convolution21"
  top: "Convolution22"
  param {
    lr_mult: 1
    decay_mult: 1
  }
  param {
    lr_mult: 2
    decay_mult: 0
  }
  convolution_param {
    num_output: 32
    pad: 1
    kernel_size: 3
    stride: 1
    weight_filler {
      type: "gaussian"
      std: 0.083
    }
    bias_filler {
      type: "constant"
      value: 0
    }
  }
}
layer {
  name: "BatchNorm22"
  type: "BatchNorm"
  bottom: "Convolution22"
  top: "Convolution22"
  param {
    lr_mult: 0
    decay_mult: 0
  }
  param {
    lr_mult: 0
    decay_mult: 0
  }
  param {
    lr_mult: 0
    decay_mult: 0
  }
}
layer {
  name: "Scale22"
  type: "Scale"
  bottom: "Convolution22"
  top: "Convolution22"
  scale_param {
    bias_term: true
  }
}
layer {
  name: "Eltwise10"
  type: "Eltwise"
  bottom: "Eltwise9"
  bottom: "Convolution22"
  top: "Eltwise10"
  eltwise_param {
    operation: SUM
  }
}
layer {
  name: "penlu21"
  type: "PENLU"
  bottom: "Eltwise10"
  top: "Eltwise10"
  param {
    lr_mult: 2
    decay_mult: 0
  }
  param {
    lr_mult: 2
    decay_mult: 0
  }
  param {
    lr_mult: 0
    decay_mult: 0
  }
  penlu_param {
    alpha_filler {
      type: "constant"
      value: 1
    }
    beta_filler {
      type: "constant"
      value: 1
    }
    eta_filler {
      type: "constant"
      value: 1
    }
  }
}
layer {
  name: "Convolution23"
  type: "Convolution"
  bottom: "Eltwise10"
  top: "Convolution23"
  param {
    lr_mult: 1
    decay_mult: 1
  }
  param {
    lr_mult: 2
    decay_mult: 0
  }
  convolution_param {
    num_output: 64
    pad: 0
    kernel_size: 1
    stride: 2
    weight_filler {
      type: "gaussian"
      std: 0.17677669
    }
    bias_filler {
      type: "constant"
      value: 0
    }
  }
}
layer {
  name: "BatchNorm23"
  type: "BatchNorm"
  bottom: "Convolution23"
  top: "Convolution23"
  param {
    lr_mult: 0
    decay_mult: 0
  }
  param {
    lr_mult: 0
    decay_mult: 0
  }
  param {
    lr_mult: 0
    decay_mult: 0
  }
}
layer {
  name: "Scale23"
  type: "Scale"
  bottom: "Convolution23"
  top: "Convolution23"
  scale_param {
    bias_term: true
  }
}
layer {
  name: "Convolution24"
  type: "Convolution"
  bottom: "Eltwise10"
  top: "Convolution24"
  param {
    lr_mult: 1
    decay_mult: 1
  }
  param {
    lr_mult: 2
    decay_mult: 0
  }
  convolution_param {
    num_output: 64
    pad: 1
    kernel_size: 3
    stride: 2
    weight_filler {
      type: "gaussian"
      std: 0.059
    }
    bias_filler {
      type: "constant"
      value: 0
    }
  }
}
layer {
  name: "BatchNorm24"
  type: "BatchNorm"
  bottom: "Convolution24"
  top: "Convolution24"
  param {
    lr_mult: 0
    decay_mult: 0
  }
  param {
    lr_mult: 0
    decay_mult: 0
  }
  param {
    lr_mult: 0
    decay_mult: 0
  }
}
layer {
  name: "Scale24"
  type: "Scale"
  bottom: "Convolution24"
  top: "Convolution24"
  scale_param {
    bias
I1006 21:21:49.931298  4081 layer_factory.hpp:77] Creating layer Data1
I1006 21:21:49.931367  4081 db_lmdb.cpp:35] Opened lmdb /home/x306/caffe/xn/PENLU/data/cifar10/cifar10_train_lmdb
I1006 21:21:49.931396  4081 net.cpp:84] Creating Layer Data1
I1006 21:21:49.931401  4081 net.cpp:380] Data1 -> Data1
I1006 21:21:49.931421  4081 net.cpp:380] Data1 -> Data2
I1006 21:21:49.931428  4081 data_transformer.cpp:25] Loading mean file from: /home/x306/caffe/xn/PENLU/data/cifar10/mean.binaryproto
I1006 21:21:49.932870  4081 data_layer.cpp:45] output data size: 100,3,28,28
I1006 21:21:49.952076  4081 net.cpp:122] Setting up Data1
I1006 21:21:49.952111  4081 net.cpp:129] Top shape: 100 3 28 28 (235200)
I1006 21:21:49.952114  4081 net.cpp:129] Top shape: 100 (100)
I1006 21:21:49.952117  4081 net.cpp:137] Memory required for data: 941200
I1006 21:21:49.952124  4081 layer_factory.hpp:77] Creating layer Convolution1
I1006 21:21:49.952155  4081 net.cpp:84] Creating Layer Convolution1
I1006 21:21:49.952162  4081 net.cpp:406] Convolution1 <- Data1
I1006 21:21:49.952180  4081 net.cpp:380] Convolution1 -> Convolution1
I1006 21:21:50.268852  4081 net.cpp:122] Setting up Convolution1
I1006 21:21:50.268887  4081 net.cpp:129] Top shape: 100 16 28 28 (1254400)
I1006 21:21:50.268889  4081 net.cpp:137] Memory required for data: 5958800
I1006 21:21:50.268905  4081 layer_factory.hpp:77] Creating layer BatchNorm1
I1006 21:21:50.268924  4081 net.cpp:84] Creating Layer BatchNorm1
I1006 21:21:50.268952  4081 net.cpp:406] BatchNorm1 <- Convolution1
I1006 21:21:50.268970  4081 net.cpp:367] BatchNorm1 -> Convolution1 (in-place)
I1006 21:21:50.269116  4081 net.cpp:122] Setting up BatchNorm1
I1006 21:21:50.269124  4081 net.cpp:129] Top shape: 100 16 28 28 (1254400)
I1006 21:21:50.269136  4081 net.cpp:137] Memory required for data: 10976400
I1006 21:21:50.269145  4081 layer_factory.hpp:77] Creating layer Scale1
I1006 21:21:50.269155  4081 net.cpp:84] Creating Layer Scale1
I1006 21:21:50.269160  4081 net.cpp:406] Scale1 <- Convolution1
I1006 21:21:50.269165  4081 net.cpp:367] Scale1 -> Convolution1 (in-place)
I1006 21:21:50.269213  4081 layer_factory.hpp:77] Creating layer Scale1
I1006 21:21:50.269325  4081 net.cpp:122] Setting up Scale1
I1006 21:21:50.269332  4081 net.cpp:129] Top shape: 100 16 28 28 (1254400)
I1006 21:21:50.269345  4081 net.cpp:137] Memory required for data: 15994000
I1006 21:21:50.269349  4081 layer_factory.hpp:77] Creating layer penlu1
I1006 21:21:50.269361  4081 net.cpp:84] Creating Layer penlu1
I1006 21:21:50.269366  4081 net.cpp:406] penlu1 <- Convolution1
I1006 21:21:50.269373  4081 net.cpp:367] penlu1 -> Convolution1 (in-place)
I1006 21:21:50.269995  4081 net.cpp:122] Setting up penlu1
I1006 21:21:50.270005  4081 net.cpp:129] Top shape: 100 16 28 28 (1254400)
I1006 21:21:50.270018  4081 net.cpp:137] Memory required for data: 21011600
I1006 21:21:50.270025  4081 layer_factory.hpp:77] Creating layer Convolution1_penlu1_0_split
I1006 21:21:50.270031  4081 net.cpp:84] Creating Layer Convolution1_penlu1_0_split
I1006 21:21:50.270036  4081 net.cpp:406] Convolution1_penlu1_0_split <- Convolution1
I1006 21:21:50.270043  4081 net.cpp:380] Convolution1_penlu1_0_split -> Convolution1_penlu1_0_split_0
I1006 21:21:50.270052  4081 net.cpp:380] Convolution1_penlu1_0_split -> Convolution1_penlu1_0_split_1
I1006 21:21:50.270123  4081 net.cpp:122] Setting up Convolution1_penlu1_0_split
I1006 21:21:50.270130  4081 net.cpp:129] Top shape: 100 16 28 28 (1254400)
I1006 21:21:50.270143  4081 net.cpp:129] Top shape: 100 16 28 28 (1254400)
I1006 21:21:50.270145  4081 net.cpp:137] Memory required for data: 31046800
I1006 21:21:50.270148  4081 layer_factory.hpp:77] Creating layer Convolution2
I1006 21:21:50.270167  4081 net.cpp:84] Creating Layer Convolution2
I1006 21:21:50.270171  4081 net.cpp:406] Convolution2 <- Convolution1_penlu1_0_split_0
I1006 21:21:50.270179  4081 net.cpp:380] Convolution2 -> Convolution2
I1006 21:21:50.273627  4081 net.cpp:122] Setting up Convolution2
I1006 21:21:50.273638  4081 net.cpp:129] Top shape: 100 16 28 28 (1254400)
I1006 21:21:50.273643  4081 net.cpp:137] Memory required for data: 36064400
I1006 21:21:50.273653  4081 layer_factory.hpp:77] Creating layer BatchNorm2
I1006 21:21:50.273672  4081 net.cpp:84] Creating Layer BatchNorm2
I1006 21:21:50.273679  4081 net.cpp:406] BatchNorm2 <- Convolution2
I1006 21:21:50.273696  4081 net.cpp:367] BatchNorm2 -> Convolution2 (in-place)
I1006 21:21:50.273849  4081 net.cpp:122] Setting up BatchNorm2
I1006 21:21:50.273856  4081 net.cpp:129] Top shape: 100 16 28 28 (1254400)
I1006 21:21:50.273859  4081 net.cpp:137] Memory required for data: 41082000
I1006 21:21:50.273875  4081 layer_factory.hpp:77] Creating layer Scale2
I1006 21:21:50.273885  4081 net.cpp:84] Creating Layer Scale2
I1006 21:21:50.273892  4081 net.cpp:406] Scale2 <- Convolution2
I1006 21:21:50.273900  4081 net.cpp:367] Scale2 -> Convolution2 (in-place)
I1006 21:21:50.273947  4081 layer_factory.hpp:77] Creating layer Scale2
I1006 21:21:50.274051  4081 net.cpp:122] Setting up Scale2
I1006 21:21:50.274057  4081 net.cpp:129] Top shape: 100 16 28 28 (1254400)
I1006 21:21:50.274060  4081 net.cpp:137] Memory required for data: 46099600
I1006 21:21:50.274080  4081 layer_factory.hpp:77] Creating layer penlu2
I1006 21:21:50.274101  4081 net.cpp:84] Creating Layer penlu2
I1006 21:21:50.274106  4081 net.cpp:406] penlu2 <- Convolution2
I1006 21:21:50.274113  4081 net.cpp:367] penlu2 -> Convolution2 (in-place)
I1006 21:21:50.274212  4081 net.cpp:122] Setting up penlu2
I1006 21:21:50.274219  4081 net.cpp:129] Top shape: 100 16 28 28 (1254400)
I1006 21:21:50.274230  4081 net.cpp:137] Memory required for data: 51117200
I1006 21:21:50.274235  4081 layer_factory.hpp:77] Creating layer Convolution3
I1006 21:21:50.274242  4081 net.cpp:84] Creating Layer Convolution3
I1006 21:21:50.274245  4081 net.cpp:406] Convolution3 <- Convolution2
I1006 21:21:50.274250  4081 net.cpp:380] Convolution3 -> Convolution3
I1006 21:21:50.278184  4081 net.cpp:122] Setting up Convolution3
I1006 21:21:50.278194  4081 net.cpp:129] Top shape: 100 16 28 28 (1254400)
I1006 21:21:50.278198  4081 net.cpp:137] Memory required for data: 56134800
I1006 21:21:50.278203  4081 layer_factory.hpp:77] Creating layer BatchNorm3
I1006 21:21:50.278208  4081 net.cpp:84] Creating Layer BatchNorm3
I1006 21:21:50.278213  4081 net.cpp:406] BatchNorm3 <- Convolution3
I1006 21:21:50.278216  4081 net.cpp:367] BatchNorm3 -> Convolution3 (in-place)
I1006 21:21:50.278339  4081 net.cpp:122] Setting up BatchNorm3
I1006 21:21:50.278344  4081 net.cpp:129] Top shape: 100 16 28 28 (1254400)
I1006 21:21:50.278348  4081 net.cpp:137] Memory required for data: 61152400
I1006 21:21:50.278352  4081 layer_factory.hpp:77] Creating layer Scale3
I1006 21:21:50.278358  4081 net.cpp:84] Creating Layer Scale3
I1006 21:21:50.278362  4081 net.cpp:406] Scale3 <- Convolution3
I1006 21:21:50.278365  4081 net.cpp:367] Scale3 -> Convolution3 (in-place)
I1006 21:21:50.278389  4081 layer_factory.hpp:77] Creating layer Scale3
I1006 21:21:50.278465  4081 net.cpp:122] Setting up Scale3
I1006 21:21:50.278470  4081 net.cpp:129] Top shape: 100 16 28 28 (1254400)
I1006 21:21:50.278473  4081 net.cpp:137] Memory required for data: 66170000
I1006 21:21:50.278477  4081 layer_factory.hpp:77] Creating layer Eltwise1
I1006 21:21:50.278482  4081 net.cpp:84] Creating Layer Eltwise1
I1006 21:21:50.278486  4081 net.cpp:406] Eltwise1 <- Convolution1_penlu1_0_split_1
I1006 21:21:50.278488  4081 net.cpp:406] Eltwise1 <- Convolution3
I1006 21:21:50.278492  4081 net.cpp:380] Eltwise1 -> Eltwise1
I1006 21:21:50.278511  4081 net.cpp:122] Setting up Eltwise1
I1006 21:21:50.278515  4081 net.cpp:129] Top shape: 100 16 28 28 (1254400)
I1006 21:21:50.278517  4081 net.cpp:137] Memory required for data: 71187600
I1006 21:21:50.278519  4081 layer_factory.hpp:77] Creating layer penlu3
I1006 21:21:50.278524  4081 net.cpp:84] Creating Layer penlu3
I1006 21:21:50.278527  4081 net.cpp:406] penlu3 <- Eltwise1
I1006 21:21:50.278532  4081 net.cpp:367] penlu3 -> Eltwise1 (in-place)
I1006 21:21:50.278632  4081 net.cpp:122] Setting up penlu3
I1006 21:21:50.278637  4081 net.cpp:129] Top shape: 100 16 28 28 (1254400)
I1006 21:21:50.278640  4081 net.cpp:137] Memory required for data: 76205200
I1006 21:21:50.278645  4081 layer_factory.hpp:77] Creating layer Eltwise1_penlu3_0_split
I1006 21:21:50.278650  4081 net.cpp:84] Creating Layer Eltwise1_penlu3_0_split
I1006 21:21:50.278652  4081 net.cpp:406] Eltwise1_penlu3_0_split <- Eltwise1
I1006 21:21:50.278656  4081 net.cpp:380] Eltwise1_penlu3_0_split -> Eltwise1_penlu3_0_split_0
I1006 21:21:50.278661  4081 net.cpp:380] Eltwise1_penlu3_0_split -> Eltwise1_penlu3_0_split_1
I1006 21:21:50.278682  4081 net.cpp:122] Setting up Eltwise1_penlu3_0_split
I1006 21:21:50.278687  4081 net.cpp:129] Top shape: 100 16 28 28 (1254400)
I1006 21:21:50.278692  4081 net.cpp:129] Top shape: 100 16 28 28 (1254400)
I1006 21:21:50.278693  4081 net.cpp:137] Memory required for data: 86240400
I1006 21:21:50.278695  4081 layer_factory.hpp:77] Creating layer Convolution4
I1006 21:21:50.278703  4081 net.cpp:84] Creating Layer Convolution4
I1006 21:21:50.278707  4081 net.cpp:406] Convolution4 <- Eltwise1_penlu3_0_split_0
I1006 21:21:50.278710  4081 net.cpp:380] Convolution4 -> Convolution4
I1006 21:21:50.284863  4081 net.cpp:122] Setting up Convolution4
I1006 21:21:50.284888  4081 net.cpp:129] Top shape: 100 16 28 28 (1254400)
I1006 21:21:50.284893  4081 net.cpp:137] Memory required for data: 91258000
I1006 21:21:50.284899  4081 layer_factory.hpp:77] Creating layer BatchNorm4
I1006 21:21:50.284909  4081 net.cpp:84] Creating Layer BatchNorm4
I1006 21:21:50.284934  4081 net.cpp:406] BatchNorm4 <- Convolution4
I1006 21:21:50.284952  4081 net.cpp:367] BatchNorm4 -> Convolution4 (in-place)
I1006 21:21:50.285091  4081 net.cpp:122] Setting up BatchNorm4
I1006 21:21:50.285099  4081 net.cpp:129] Top shape: 100 16 28 28 (1254400)
I1006 21:21:50.285110  4081 net.cpp:137] Memory required for data: 96275600
I1006 21:21:50.285121  4081 layer_factory.hpp:77] Creating layer Scale4
I1006 21:21:50.285130  4081 net.cpp:84] Creating Layer Scale4
I1006 21:21:50.285135  4081 net.cpp:406] Scale4 <- Convolution4
I1006 21:21:50.285141  4081 net.cpp:367] Scale4 -> Convolution4 (in-place)
I1006 21:21:50.285177  4081 layer_factory.hpp:77] Creating layer Scale4
I1006 21:21:50.285264  4081 net.cpp:122] Setting up Scale4
I1006 21:21:50.285270  4081 net.cpp:129] Top shape: 100 16 28 28 (1254400)
I1006 21:21:50.285274  4081 net.cpp:137] Memory required for data: 101293200
I1006 21:21:50.285282  4081 layer_factory.hpp:77] Creating layer penlu4
I1006 21:21:50.285292  4081 net.cpp:84] Creating Layer penlu4
I1006 21:21:50.285298  4081 net.cpp:406] penlu4 <- Convolution4
I1006 21:21:50.285306  4081 net.cpp:367] penlu4 -> Convolution4 (in-place)
I1006 21:21:50.285415  4081 net.cpp:122] Setting up penlu4
I1006 21:21:50.285423  4081 net.cpp:129] Top shape: 100 16 28 28 (1254400)
I1006 21:21:50.285426  4081 net.cpp:137] Memory required for data: 106310800
I1006 21:21:50.285435  4081 layer_factory.hpp:77] Creating layer Convolution5
I1006 21:21:50.285447  4081 net.cpp:84] Creating Layer Convolution5
I1006 21:21:50.285454  4081 net.cpp:406] Convolution5 <- Convolution4
I1006 21:21:50.285461  4081 net.cpp:380] Convolution5 -> Convolution5
I1006 21:21:50.291488  4081 net.cpp:122] Setting up Convolution5
I1006 21:21:50.291498  4081 net.cpp:129] Top shape: 100 16 28 28 (1254400)
I1006 21:21:50.291503  4081 net.cpp:137] Memory required for data: 111328400
I1006 21:21:50.291512  4081 layer_factory.hpp:77] Creating layer BatchNorm5
I1006 21:21:50.291522  4081 net.cpp:84] Creating Layer BatchNorm5
I1006 21:21:50.291528  4081 net.cpp:406] BatchNorm5 <- Convolution5
I1006 21:21:50.291537  4081 net.cpp:367] BatchNorm5 -> Convolution5 (in-place)
I1006 21:21:50.291671  4081 net.cpp:122] Setting up BatchNorm5
I1006 21:21:50.291677  4081 net.cpp:129] Top shape: 100 16 28 28 (1254400)
I1006 21:21:50.291682  4081 net.cpp:137] Memory required for data: 116346000
I1006 21:21:50.291692  4081 layer_factory.hpp:77] Creating layer Scale5
I1006 21:21:50.291702  4081 net.cpp:84] Creating Layer Scale5
I1006 21:21:50.291707  4081 net.cpp:406] Scale5 <- Convolution5
I1006 21:21:50.291713  4081 net.cpp:367] Scale5 -> Convolution5 (in-place)
I1006 21:21:50.291749  4081 layer_factory.hpp:77] Creating layer Scale5
I1006 21:21:50.291834  4081 net.cpp:122] Setting up Scale5
I1006 21:21:50.291841  4081 net.cpp:129] Top shape: 100 16 28 28 (1254400)
I1006 21:21:50.291846  4081 net.cpp:137] Memory required for data: 121363600
I1006 21:21:50.291852  4081 layer_factory.hpp:77] Creating layer Eltwise2
I1006 21:21:50.291862  4081 net.cpp:84] Creating Layer Eltwise2
I1006 21:21:50.291867  4081 net.cpp:406] Eltwise2 <- Eltwise1_penlu3_0_split_1
I1006 21:21:50.291873  4081 net.cpp:406] Eltwise2 <- Convolution5
I1006 21:21:50.291882  4081 net.cpp:380] Eltwise2 -> Eltwise2
I1006 21:21:50.291904  4081 net.cpp:122] Setting up Eltwise2
I1006 21:21:50.291909  4081 net.cpp:129] Top shape: 100 16 28 28 (1254400)
I1006 21:21:50.291913  4081 net.cpp:137] Memory required for data: 126381200
I1006 21:21:50.291918  4081 layer_factory.hpp:77] Creating layer penlu5
I1006 21:21:50.291929  4081 net.cpp:84] Creating Layer penlu5
I1006 21:21:50.291935  4081 net.cpp:406] penlu5 <- Eltwise2
I1006 21:21:50.291942  4081 net.cpp:367] penlu5 -> Eltwise2 (in-place)
I1006 21:21:50.292049  4081 net.cpp:122] Setting up penlu5
I1006 21:21:50.292054  4081 net.cpp:129] Top shape: 100 16 28 28 (1254400)
I1006 21:21:50.292057  4081 net.cpp:137] Memory required for data: 131398800
I1006 21:21:50.292062  4081 layer_factory.hpp:77] Creating layer Eltwise2_penlu5_0_split
I1006 21:21:50.292073  4081 net.cpp:84] Creating Layer Eltwise2_penlu5_0_split
I1006 21:21:50.292076  4081 net.cpp:406] Eltwise2_penlu5_0_split <- Eltwise2
I1006 21:21:50.292080  4081 net.cpp:380] Eltwise2_penlu5_0_split -> Eltwise2_penlu5_0_split_0
I1006 21:21:50.292084  4081 net.cpp:380] Eltwise2_penlu5_0_split -> Eltwise2_penlu5_0_split_1
I1006 21:21:50.292109  4081 net.cpp:122] Setting up Eltwise2_penlu5_0_split
I1006 21:21:50.292114  4081 net.cpp:129] Top shape: 100 16 28 28 (1254400)
I1006 21:21:50.292116  4081 net.cpp:129] Top shape: 100 16 28 28 (1254400)
I1006 21:21:50.292119  4081 net.cpp:137] Memory required for data: 141434000
I1006 21:21:50.292121  4081 layer_factory.hpp:77] Creating layer Convolution6
I1006 21:21:50.292129  4081 net.cpp:84] Creating Layer Convolution6
I1006 21:21:50.292131  4081 net.cpp:406] Convolution6 <- Eltwise2_penlu5_0_split_0
I1006 21:21:50.292135  4081 net.cpp:380] Convolution6 -> Convolution6
I1006 21:21:50.298105  4081 net.cpp:122] Setting up Convolution6
I1006 21:21:50.298116  4081 net.cpp:129] Top shape: 100 16 28 28 (1254400)
I1006 21:21:50.298120  4081 net.cpp:137] Memory required for data: 146451600
I1006 21:21:50.298125  4081 layer_factory.hpp:77] Creating layer BatchNorm6
I1006 21:21:50.298131  4081 net.cpp:84] Creating Layer BatchNorm6
I1006 21:21:50.298135  4081 net.cpp:406] BatchNorm6 <- Convolution6
I1006 21:21:50.298140  4081 net.cpp:367] BatchNorm6 -> Convolution6 (in-place)
I1006 21:21:50.298271  4081 net.cpp:122] Setting up BatchNorm6
I1006 21:21:50.298277  4081 net.cpp:129] Top shape: 100 16 28 28 (1254400)
I1006 21:21:50.298280  4081 net.cpp:137] Memory required for data: 151469200
I1006 21:21:50.298285  4081 layer_factory.hpp:77] Creating layer Scale6
I1006 21:21:50.298292  4081 net.cpp:84] Creating Layer Scale6
I1006 21:21:50.298295  4081 net.cpp:406] Scale6 <- Convolution6
I1006 21:21:50.298300  4081 net.cpp:367] Scale6 -> Convolution6 (in-place)
I1006 21:21:50.298327  4081 layer_factory.hpp:77] Creating layer Scale6
I1006 21:21:50.298440  4081 net.cpp:122] Setting up Scale6
I1006 21:21:50.298449  4081 net.cpp:129] Top shape: 100 16 28 28 (1254400)
I1006 21:21:50.298452  4081 net.cpp:137] Memory required for data: 156486800
I1006 21:21:50.298460  4081 layer_factory.hpp:77] Creating layer penlu6
I1006 21:21:50.298482  4081 net.cpp:84] Creating Layer penlu6
I1006 21:21:50.298488  4081 net.cpp:406] penlu6 <- Convolution6
I1006 21:21:50.298506  4081 net.cpp:367] penlu6 -> Convolution6 (in-place)
I1006 21:21:50.298641  4081 net.cpp:122] Setting up penlu6
I1006 21:21:50.298648  4081 net.cpp:129] Top shape: 100 16 28 28 (1254400)
I1006 21:21:50.298651  4081 net.cpp:137] Memory required for data: 161504400
I1006 21:21:50.298667  4081 layer_factory.hpp:77] Creating layer Convolution7
I1006 21:21:50.298689  4081 net.cpp:84] Creating Layer Convolution7
I1006 21:21:50.298696  4081 net.cpp:406] Convolution7 <- Convolution6
I1006 21:21:50.298703  4081 net.cpp:380] Convolution7 -> Convolution7
I1006 21:21:50.305356  4081 net.cpp:122] Setting up Convolution7
I1006 21:21:50.305366  4081 net.cpp:129] Top shape: 100 16 28 28 (1254400)
I1006 21:21:50.305371  4081 net.cpp:137] Memory required for data: 166522000
I1006 21:21:50.305379  4081 layer_factory.hpp:77] Creating layer BatchNorm7
I1006 21:21:50.305389  4081 net.cpp:84] Creating Layer BatchNorm7
I1006 21:21:50.305395  4081 net.cpp:406] BatchNorm7 <- Convolution7
I1006 21:21:50.305403  4081 net.cpp:367] BatchNorm7 -> Convolution7 (in-place)
I1006 21:21:50.305541  4081 net.cpp:122] Setting up BatchNorm7
I1006 21:21:50.305548  4081 net.cpp:129] Top shape: 100 16 28 28 (1254400)
I1006 21:21:50.305552  4081 net.cpp:137] Memory required for data: 171539600
I1006 21:21:50.305570  4081 layer_factory.hpp:77] Creating layer Scale7
I1006 21:21:50.305583  4081 net.cpp:84] Creating Layer Scale7
I1006 21:21:50.305589  4081 net.cpp:406] Scale7 <- Convolution7
I1006 21:21:50.305596  4081 net.cpp:367] Scale7 -> Convolution7 (in-place)
I1006 21:21:50.305635  4081 layer_factory.hpp:77] Creating layer Scale7
I1006 21:21:50.305723  4081 net.cpp:122] Setting up Scale7
I1006 21:21:50.305738  4081 net.cpp:129] Top shape: 100 16 28 28 (1254400)
I1006 21:21:50.305742  4081 net.cpp:137] Memory required for data: 176557200
I1006 21:21:50.305750  4081 layer_factory.hpp:77] Creating layer Eltwise3
I1006 21:21:50.305768  4081 net.cpp:84] Creating Layer Eltwise3
I1006 21:21:50.305774  4081 net.cpp:406] Eltwise3 <- Eltwise2_penlu5_0_split_1
I1006 21:21:50.305780  4081 net.cpp:406] Eltwise3 <- Convolution7
I1006 21:21:50.305786  4081 net.cpp:380] Eltwise3 -> Eltwise3
I1006 21:21:50.305822  4081 net.cpp:122] Setting up Eltwise3
I1006 21:21:50.305829  4081 net.cpp:129] Top shape: 100 16 28 28 (1254400)
I1006 21:21:50.305831  4081 net.cpp:137] Memory required for data: 181574800
I1006 21:21:50.305845  4081 layer_factory.hpp:77] Creating layer penlu7
I1006 21:21:50.305852  4081 net.cpp:84] Creating Layer penlu7
I1006 21:21:50.305867  4081 net.cpp:406] penlu7 <- Eltwise3
I1006 21:21:50.305876  4081 net.cpp:367] penlu7 -> Eltwise3 (in-place)
I1006 21:21:50.305994  4081 net.cpp:122] Setting up penlu7
I1006 21:21:50.306000  4081 net.cpp:129] Top shape: 100 16 28 28 (1254400)
I1006 21:21:50.306004  4081 net.cpp:137] Memory required for data: 186592400
I1006 21:21:50.306008  4081 layer_factory.hpp:77] Creating layer Eltwise3_penlu7_0_split
I1006 21:21:50.306013  4081 net.cpp:84] Creating Layer Eltwise3_penlu7_0_split
I1006 21:21:50.306016  4081 net.cpp:406] Eltwise3_penlu7_0_split <- Eltwise3
I1006 21:21:50.306020  4081 net.cpp:380] Eltwise3_penlu7_0_split -> Eltwise3_penlu7_0_split_0
I1006 21:21:50.306025  4081 net.cpp:380] Eltwise3_penlu7_0_split -> Eltwise3_penlu7_0_split_1
I1006 21:21:50.306048  4081 net.cpp:122] Setting up Eltwise3_penlu7_0_split
I1006 21:21:50.306053  4081 net.cpp:129] Top shape: 100 16 28 28 (1254400)
I1006 21:21:50.306056  4081 net.cpp:129] Top shape: 100 16 28 28 (1254400)
I1006 21:21:50.306059  4081 net.cpp:137] Memory required for data: 196627600
I1006 21:21:50.306061  4081 layer_factory.hpp:77] Creating layer Convolution8
I1006 21:21:50.306067  4081 net.cpp:84] Creating Layer Convolution8
I1006 21:21:50.306071  4081 net.cpp:406] Convolution8 <- Eltwise3_penlu7_0_split_0
I1006 21:21:50.306076  4081 net.cpp:380] Convolution8 -> Convolution8
I1006 21:21:50.311885  4081 net.cpp:122] Setting up Convolution8
I1006 21:21:50.311897  4081 net.cpp:129] Top shape: 100 16 28 28 (1254400)
I1006 21:21:50.311900  4081 net.cpp:137] Memory required for data: 201645200
I1006 21:21:50.311904  4081 layer_factory.hpp:77] Creating layer BatchNorm8
I1006 21:21:50.311910  4081 net.cpp:84] Creating Layer BatchNorm8
I1006 21:21:50.311914  4081 net.cpp:406] BatchNorm8 <- Convolution8
I1006 21:21:50.311919  4081 net.cpp:367] BatchNorm8 -> Convolution8 (in-place)
I1006 21:21:50.312045  4081 net.cpp:122] Setting up BatchNorm8
I1006 21:21:50.312050  4081 net.cpp:129] Top shape: 100 16 28 28 (1254400)
I1006 21:21:50.312053  4081 net.cpp:137] Memory required for data: 206662800
I1006 21:21:50.312058  4081 layer_factory.hpp:77] Creating layer Scale8
I1006 21:21:50.312063  4081 net.cpp:84] Creating Layer Scale8
I1006 21:21:50.312067  4081 net.cpp:406] Scale8 <- Convolution8
I1006 21:21:50.312070  4081 net.cpp:367] Scale8 -> Convolution8 (in-place)
I1006 21:21:50.312096  4081 layer_factory.hpp:77] Creating layer Scale8
I1006 21:21:50.312171  4081 net.cpp:122] Setting up Scale8
I1006 21:21:50.312176  4081 net.cpp:129] Top shape: 100 16 28 28 (1254400)
I1006 21:21:50.312180  4081 net.cpp:137] Memory required for data: 211680400
I1006 21:21:50.312183  4081 layer_factory.hpp:77] Creating layer penlu8
I1006 21:21:50.312189  4081 net.cpp:84] Creating Layer penlu8
I1006 21:21:50.312192  4081 net.cpp:406] penlu8 <- Convolution8
I1006 21:21:50.312196  4081 net.cpp:367] penlu8 -> Convolution8 (in-place)
I1006 21:21:50.312300  4081 net.cpp:122] Setting up penlu8
I1006 21:21:50.312306  4081 net.cpp:129] Top shape: 100 16 28 28 (1254400)
I1006 21:21:50.312309  4081 net.cpp:137] Memory required for data: 216698000
I1006 21:21:50.312312  4081 layer_factory.hpp:77] Creating layer Convolution9
I1006 21:21:50.312337  4081 net.cpp:84] Creating Layer Convolution9
I1006 21:21:50.312341  4081 net.cpp:406] Convolution9 <- Convolution8
I1006 21:21:50.312346  4081 net.cpp:380] Convolution9 -> Convolution9
I1006 21:21:50.318542  4081 net.cpp:122] Setting up Convolution9
I1006 21:21:50.318552  4081 net.cpp:129] Top shape: 100 16 28 28 (1254400)
I1006 21:21:50.318555  4081 net.cpp:137] Memory required for data: 221715600
I1006 21:21:50.318560  4081 layer_factory.hpp:77] Creating layer BatchNorm9
I1006 21:21:50.318565  4081 net.cpp:84] Creating Layer BatchNorm9
I1006 21:21:50.318569  4081 net.cpp:406] BatchNorm9 <- Convolution9
I1006 21:21:50.318573  4081 net.cpp:367] BatchNorm9 -> Convolution9 (in-place)
I1006 21:21:50.318701  4081 net.cpp:122] Setting up BatchNorm9
I1006 21:21:50.318706  4081 net.cpp:129] Top shape: 100 16 28 28 (1254400)
I1006 21:21:50.318709  4081 net.cpp:137] Memory required for data: 226733200
I1006 21:21:50.318714  4081 layer_factory.hpp:77] Creating layer Scale9
I1006 21:21:50.318719  4081 net.cpp:84] Creating Layer Scale9
I1006 21:21:50.318722  4081 net.cpp:406] Scale9 <- Convolution9
I1006 21:21:50.318725  4081 net.cpp:367] Scale9 -> Convolution9 (in-place)
I1006 21:21:50.318752  4081 layer_factory.hpp:77] Creating layer Scale9
I1006 21:21:50.318830  4081 net.cpp:122] Setting up Scale9
I1006 21:21:50.318835  4081 net.cpp:129] Top shape: 100 16 28 28 (1254400)
I1006 21:21:50.318840  4081 net.cpp:137] Memory required for data: 231750800
I1006 21:21:50.318843  4081 layer_factory.hpp:77] Creating layer Eltwise4
I1006 21:21:50.318848  4081 net.cpp:84] Creating Layer Eltwise4
I1006 21:21:50.318851  4081 net.cpp:406] Eltwise4 <- Eltwise3_penlu7_0_split_1
I1006 21:21:50.318855  4081 net.cpp:406] Eltwise4 <- Convolution9
I1006 21:21:50.318857  4081 net.cpp:380] Eltwise4 -> Eltwise4
I1006 21:21:50.318873  4081 net.cpp:122] Setting up Eltwise4
I1006 21:21:50.318877  4081 net.cpp:129] Top shape: 100 16 28 28 (1254400)
I1006 21:21:50.318879  4081 net.cpp:137] Memory required for data: 236768400
I1006 21:21:50.318882  4081 layer_factory.hpp:77] Creating layer penlu9
I1006 21:21:50.318886  4081 net.cpp:84] Creating Layer penlu9
I1006 21:21:50.318891  4081 net.cpp:406] penlu9 <- Eltwise4
I1006 21:21:50.318893  4081 net.cpp:367] penlu9 -> Eltwise4 (in-place)
I1006 21:21:50.319000  4081 net.cpp:122] Setting up penlu9
I1006 21:21:50.319005  4081 net.cpp:129] Top shape: 100 16 28 28 (1254400)
I1006 21:21:50.319007  4081 net.cpp:137] Memory required for data: 241786000
I1006 21:21:50.319012  4081 layer_factory.hpp:77] Creating layer Eltwise4_penlu9_0_split
I1006 21:21:50.319016  4081 net.cpp:84] Creating Layer Eltwise4_penlu9_0_split
I1006 21:21:50.319020  4081 net.cpp:406] Eltwise4_penlu9_0_split <- Eltwise4
I1006 21:21:50.319023  4081 net.cpp:380] Eltwise4_penlu9_0_split -> Eltwise4_penlu9_0_split_0
I1006 21:21:50.319028  4081 net.cpp:380] Eltwise4_penlu9_0_split -> Eltwise4_penlu9_0_split_1
I1006 21:21:50.319049  4081 net.cpp:122] Setting up Eltwise4_penlu9_0_split
I1006 21:21:50.319053  4081 net.cpp:129] Top shape: 100 16 28 28 (1254400)
I1006 21:21:50.319056  4081 net.cpp:129] Top shape: 100 16 28 28 (1254400)
I1006 21:21:50.319059  4081 net.cpp:137] Memory required for data: 251821200
I1006 21:21:50.319062  4081 layer_factory.hpp:77] Creating layer Convolution10
I1006 21:21:50.319068  4081 net.cpp:84] Creating Layer Convolution10
I1006 21:21:50.319072  4081 net.cpp:406] Convolution10 <- Eltwise4_penlu9_0_split_0
I1006 21:21:50.319075  4081 net.cpp:380] Convolution10 -> Convolution10
I1006 21:21:50.325122  4081 net.cpp:122] Setting up Convolution10
I1006 21:21:50.325132  4081 net.cpp:129] Top shape: 100 16 28 28 (1254400)
I1006 21:21:50.325136  4081 net.cpp:137] Memory required for data: 256838800
I1006 21:21:50.325141  4081 layer_factory.hpp:77] Creating layer BatchNorm10
I1006 21:21:50.325147  4081 net.cpp:84] Creating Layer BatchNorm10
I1006 21:21:50.325150  4081 net.cpp:406] BatchNorm10 <- Convolution10
I1006 21:21:50.325155  4081 net.cpp:367] BatchNorm10 -> Convolution10 (in-place)
I1006 21:21:50.325283  4081 net.cpp:122] Setting up BatchNorm10
I1006 21:21:50.325294  4081 net.cpp:129] Top shape: 100 16 28 28 (1254400)
I1006 21:21:50.325297  4081 net.cpp:137] Memory required for data: 261856400
I1006 21:21:50.325302  4081 layer_factory.hpp:77] Creating layer Scale10
I1006 21:21:50.325307  4081 net.cpp:84] Creating Layer Scale10
I1006 21:21:50.325310  4081 net.cpp:406] Scale10 <- Convolution10
I1006 21:21:50.325314  4081 net.cpp:367] Scale10 -> Convolution10 (in-place)
I1006 21:21:50.325342  4081 layer_factory.hpp:77] Creating layer Scale10
I1006 21:21:50.325417  4081 net.cpp:122] Setting up Scale10
I1006 21:21:50.325423  4081 net.cpp:129] Top shape: 100 16 28 28 (1254400)
I1006 21:21:50.325426  4081 net.cpp:137] Memory required for data: 266874000
I1006 21:21:50.325430  4081 layer_factory.hpp:77] Creating layer penlu10
I1006 21:21:50.325436  4081 net.cpp:84] Creating Layer penlu10
I1006 21:21:50.325439  4081 net.cpp:406] penlu10 <- Convolution10
I1006 21:21:50.325444  4081 net.cpp:367] penlu10 -> Convolution10 (in-place)
I1006 21:21:50.325552  4081 net.cpp:122] Setting up penlu10
I1006 21:21:50.325557  4081 net.cpp:129] Top shape: 100 16 28 28 (1254400)
I1006 21:21:50.325561  4081 net.cpp:137] Memory required for data: 271891600
I1006 21:21:50.325565  4081 layer_factory.hpp:77] Creating layer Convolution11
I1006 21:21:50.325573  4081 net.cpp:84] Creating Layer Convolution11
I1006 21:21:50.325577  4081 net.cpp:406] Convolution11 <- Convolution10
I1006 21:21:50.325580  4081 net.cpp:380] Convolution11 -> Convolution11
I1006 21:21:50.331735  4081 net.cpp:122] Setting up Convolution11
I1006 21:21:50.331746  4081 net.cpp:129] Top shape: 100 16 28 28 (1254400)
I1006 21:21:50.331759  4081 net.cpp:137] Memory required for data: 276909200
I1006 21:21:50.331764  4081 layer_factory.hpp:77] Creating layer BatchNorm11
I1006 21:21:50.331770  4081 net.cpp:84] Creating Layer BatchNorm11
I1006 21:21:50.331773  4081 net.cpp:406] BatchNorm11 <- Convolution11
I1006 21:21:50.331778  4081 net.cpp:367] BatchNorm11 -> Convolution11 (in-place)
I1006 21:21:50.331912  4081 net.cpp:122] Setting up BatchNorm11
I1006 21:21:50.331918  4081 net.cpp:129] Top shape: 100 16 28 28 (1254400)
I1006 21:21:50.331919  4081 net.cpp:137] Memory required for data: 281926800
I1006 21:21:50.331924  4081 layer_factory.hpp:77] Creating layer Scale11
I1006 21:21:50.331930  4081 net.cpp:84] Creating Layer Scale11
I1006 21:21:50.331933  4081 net.cpp:406] Scale11 <- Convolution11
I1006 21:21:50.331938  4081 net.cpp:367] Scale11 -> Convolution11 (in-place)
I1006 21:21:50.331969  4081 layer_factory.hpp:77] Creating layer Scale11
I1006 21:21:50.332078  4081 net.cpp:122] Setting up Scale11
I1006 21:21:50.332089  4081 net.cpp:129] Top shape: 100 16 28 28 (1254400)
I1006 21:21:50.332095  4081 net.cpp:137] Memory required for data: 286944400
I1006 21:21:50.332104  4081 layer_factory.hpp:77] Creating layer Eltwise5
I1006 21:21:50.332109  4081 net.cpp:84] Creating Layer Eltwise5
I1006 21:21:50.332113  4081 net.cpp:406] Eltwise5 <- Eltwise4_penlu9_0_split_1
I1006 21:21:50.332116  4081 net.cpp:406] Eltwise5 <- Convolution11
I1006 21:21:50.332121  4081 net.cpp:380] Eltwise5 -> Eltwise5
I1006 21:21:50.332140  4081 net.cpp:122] Setting up Eltwise5
I1006 21:21:50.332144  4081 net.cpp:129] Top shape: 100 16 28 28 (1254400)
I1006 21:21:50.332147  4081 net.cpp:137] Memory required for data: 291962000
I1006 21:21:50.332150  4081 layer_factory.hpp:77] Creating layer penlu11
I1006 21:21:50.332155  4081 net.cpp:84] Creating Layer penlu11
I1006 21:21:50.332159  4081 net.cpp:406] penlu11 <- Eltwise5
I1006 21:21:50.332162  4081 net.cpp:367] penlu11 -> Eltwise5 (in-place)
I1006 21:21:50.332273  4081 net.cpp:122] Setting up penlu11
I1006 21:21:50.332279  4081 net.cpp:129] Top shape: 100 16 28 28 (1254400)
I1006 21:21:50.332283  4081 net.cpp:137] Memory required for data: 296979600
I1006 21:21:50.332286  4081 layer_factory.hpp:77] Creating layer Eltwise5_penlu11_0_split
I1006 21:21:50.332291  4081 net.cpp:84] Creating Layer Eltwise5_penlu11_0_split
I1006 21:21:50.332294  4081 net.cpp:406] Eltwise5_penlu11_0_split <- Eltwise5
I1006 21:21:50.332306  4081 net.cpp:380] Eltwise5_penlu11_0_split -> Eltwise5_penlu11_0_split_0
I1006 21:21:50.332311  4081 net.cpp:380] Eltwise5_penlu11_0_split -> Eltwise5_penlu11_0_split_1
I1006 21:21:50.332334  4081 net.cpp:122] Setting up Eltwise5_penlu11_0_split
I1006 21:21:50.332340  4081 net.cpp:129] Top shape: 100 16 28 28 (1254400)
I1006 21:21:50.332343  4081 net.cpp:129] Top shape: 100 16 28 28 (1254400)
I1006 21:21:50.332345  4081 net.cpp:137] Memory required for data: 307014800
I1006 21:21:50.332348  4081 layer_factory.hpp:77] Creating layer Convolution12
I1006 21:21:50.332355  4081 net.cpp:84] Creating Layer Convolution12
I1006 21:21:50.332358  4081 net.cpp:406] Convolution12 <- Eltwise5_penlu11_0_split_0
I1006 21:21:50.332362  4081 net.cpp:380] Convolution12 -> Convolution12
I1006 21:21:50.337785  4081 net.cpp:122] Setting up Convolution12
I1006 21:21:50.337795  4081 net.cpp:129] Top shape: 100 32 14 14 (627200)
I1006 21:21:50.337800  4081 net.cpp:137] Memory required for data: 309523600
I1006 21:21:50.337805  4081 layer_factory.hpp:77] Creating layer BatchNorm12
I1006 21:21:50.337810  4081 net.cpp:84] Creating Layer BatchNorm12
I1006 21:21:50.337813  4081 net.cpp:406] BatchNorm12 <- Convolution12
I1006 21:21:50.337818  4081 net.cpp:367] BatchNorm12 -> Convolution12 (in-place)
I1006 21:21:50.337960  4081 net.cpp:122] Setting up BatchNorm12
I1006 21:21:50.337965  4081 net.cpp:129] Top shape: 100 32 14 14 (627200)
I1006 21:21:50.337968  4081 net.cpp:137] Memory required for data: 312032400
I1006 21:21:50.337973  4081 layer_factory.hpp:77] Creating layer Scale12
I1006 21:21:50.337978  4081 net.cpp:84] Creating Layer Scale12
I1006 21:21:50.337981  4081 net.cpp:406] Scale12 <- Convolution12
I1006 21:21:50.337985  4081 net.cpp:367] Scale12 -> Convolution12 (in-place)
I1006 21:21:50.338011  4081 layer_factory.hpp:77] Creating layer Scale12
I1006 21:21:50.338086  4081 net.cpp:122] Setting up Scale12
I1006 21:21:50.338093  4081 net.cpp:129] Top shape: 100 32 14 14 (627200)
I1006 21:21:50.338095  4081 net.cpp:137] Memory required for data: 314541200
I1006 21:21:50.338099  4081 layer_factory.hpp:77] Creating layer Convolution13
I1006 21:21:50.338106  4081 net.cpp:84] Creating Layer Convolution13
I1006 21:21:50.338110  4081 net.cpp:406] Convolution13 <- Eltwise5_penlu11_0_split_1
I1006 21:21:50.338115  4081 net.cpp:380] Convolution13 -> Convolution13
I1006 21:21:50.341476  4081 net.cpp:122] Setting up Convolution13
I1006 21:21:50.341488  4081 net.cpp:129] Top shape: 100 32 14 14 (627200)
I1006 21:21:50.341492  4081 net.cpp:137] Memory required for data: 317050000
I1006 21:21:50.341497  4081 layer_factory.hpp:77] Creating layer BatchNorm13
I1006 21:21:50.341503  4081 net.cpp:84] Creating Layer BatchNorm13
I1006 21:21:50.341506  4081 net.cpp:406] BatchNorm13 <- Convolution13
I1006 21:21:50.341511  4081 net.cpp:367] BatchNorm13 -> Convolution13 (in-place)
I1006 21:21:50.341646  4081 net.cpp:122] Setting up BatchNorm13
I1006 21:21:50.341652  4081 net.cpp:129] Top shape: 100 32 14 14 (627200)
I1006 21:21:50.341655  4081 net.cpp:137] Memory required for data: 319558800
I1006 21:21:50.341660  4081 layer_factory.hpp:77] Creating layer Scale13
I1006 21:21:50.341665  4081 net.cpp:84] Creating Layer Scale13
I1006 21:21:50.341667  4081 net.cpp:406] Scale13 <- Convolution13
I1006 21:21:50.341671  4081 net.cpp:367] Scale13 -> Convolution13 (in-place)
I1006 21:21:50.341698  4081 layer_factory.hpp:77] Creating layer Scale13
I1006 21:21:50.341774  4081 net.cpp:122] Setting up Scale13
I1006 21:21:50.341779  4081 net.cpp:129] Top shape: 100 32 14 14 (627200)
I1006 21:21:50.341784  4081 net.cpp:137] Memory required for data: 322067600
I1006 21:21:50.341787  4081 layer_factory.hpp:77] Creating layer penlu12
I1006 21:21:50.341794  4081 net.cpp:84] Creating Layer penlu12
I1006 21:21:50.341796  4081 net.cpp:406] penlu12 <- Convolution13
I1006 21:21:50.341800  4081 net.cpp:367] penlu12 -> Convolution13 (in-place)
I1006 21:21:50.341907  4081 net.cpp:122] Setting up penlu12
I1006 21:21:50.341912  4081 net.cpp:129] Top shape: 100 32 14 14 (627200)
I1006 21:21:50.341922  4081 net.cpp:137] Memory required for data: 324576400
I1006 21:21:50.341928  4081 layer_factory.hpp:77] Creating layer Convolution14
I1006 21:21:50.341935  4081 net.cpp:84] Creating Layer Convolution14
I1006 21:21:50.341938  4081 net.cpp:406] Convolution14 <- Convolution13
I1006 21:21:50.341943  4081 net.cpp:380] Convolution14 -> Convolution14
I1006 21:21:50.347740  4081 net.cpp:122] Setting up Convolution14
I1006 21:21:50.347753  4081 net.cpp:129] Top shape: 100 32 14 14 (627200)
I1006 21:21:50.347755  4081 net.cpp:137] Memory required for data: 327085200
I1006 21:21:50.347774  4081 layer_factory.hpp:77] Creating layer BatchNorm14
I1006 21:21:50.347784  4081 net.cpp:84] Creating Layer BatchNorm14
I1006 21:21:50.347787  4081 net.cpp:406] BatchNorm14 <- Convolution14
I1006 21:21:50.347791  4081 net.cpp:367] BatchNorm14 -> Convolution14 (in-place)
I1006 21:21:50.347921  4081 net.cpp:122] Setting up BatchNorm14
I1006 21:21:50.347928  4081 net.cpp:129] Top shape: 100 32 14 14 (627200)
I1006 21:21:50.347929  4081 net.cpp:137] Memory required for data: 329594000
I1006 21:21:50.347935  4081 layer_factory.hpp:77] Creating layer Scale14
I1006 21:21:50.347940  4081 net.cpp:84] Creating Layer Scale14
I1006 21:21:50.347944  4081 net.cpp:406] Scale14 <- Convolution14
I1006 21:21:50.347947  4081 net.cpp:367] Scale14 -> Convolution14 (in-place)
I1006 21:21:50.347973  4081 layer_factory.hpp:77] Creating layer Scale14
I1006 21:21:50.348048  4081 net.cpp:122] Setting up Scale14
I1006 21:21:50.348054  4081 net.cpp:129] Top shape: 100 32 14 14 (627200)
I1006 21:21:50.348057  4081 net.cpp:137] Memory required for data: 332102800
I1006 21:21:50.348062  4081 layer_factory.hpp:77] Creating layer Eltwise6
I1006 21:21:50.348065  4081 net.cpp:84] Creating Layer Eltwise6
I1006 21:21:50.348069  4081 net.cpp:406] Eltwise6 <- Convolution12
I1006 21:21:50.348071  4081 net.cpp:406] Eltwise6 <- Convolution14
I1006 21:21:50.348076  4081 net.cpp:380] Eltwise6 -> Eltwise6
I1006 21:21:50.348093  4081 net.cpp:122] Setting up Eltwise6
I1006 21:21:50.348098  4081 net.cpp:129] Top shape: 100 32 14 14 (627200)
I1006 21:21:50.348100  4081 net.cpp:137] Memory required for data: 334611600
I1006 21:21:50.348103  4081 layer_factory.hpp:77] Creating layer penlu13
I1006 21:21:50.348107  4081 net.cpp:84] Creating Layer penlu13
I1006 21:21:50.348110  4081 net.cpp:406] penlu13 <- Eltwise6
I1006 21:21:50.348114  4081 net.cpp:367] penlu13 -> Eltwise6 (in-place)
I1006 21:21:50.348219  4081 net.cpp:122] Setting up penlu13
I1006 21:21:50.348225  4081 net.cpp:129] Top shape: 100 32 14 14 (627200)
I1006 21:21:50.348228  4081 net.cpp:137] Memory required for data: 337120400
I1006 21:21:50.348232  4081 layer_factory.hpp:77] Creating layer Eltwise6_penlu13_0_split
I1006 21:21:50.348237  4081 net.cpp:84] Creating Layer Eltwise6_penlu13_0_split
I1006 21:21:50.348240  4081 net.cpp:406] Eltwise6_penlu13_0_split <- Eltwise6
I1006 21:21:50.348244  4081 net.cpp:380] Eltwise6_penlu13_0_split -> Eltwise6_penlu13_0_split_0
I1006 21:21:50.348249  4081 net.cpp:380] Eltwise6_penlu13_0_split -> Eltwise6_penlu13_0_split_1
I1006 21:21:50.348273  4081 net.cpp:122] Setting up Eltwise6_penlu13_0_split
I1006 21:21:50.348278  4081 net.cpp:129] Top shape: 100 32 14 14 (627200)
I1006 21:21:50.348281  4081 net.cpp:129] Top shape: 100 32 14 14 (627200)
I1006 21:21:50.348284  4081 net.cpp:137] Memory required for data: 342138000
I1006 21:21:50.348287  4081 layer_factory.hpp:77] Creating layer Convolution15
I1006 21:21:50.348294  4081 net.cpp:84] Creating Layer Convolution15
I1006 21:21:50.348296  4081 net.cpp:406] Convolution15 <- Eltwise6_penlu13_0_split_0
I1006 21:21:50.348300  4081 net.cpp:380] Convolution15 -> Convolution15
I1006 21:21:50.354385  4081 net.cpp:122] Setting up Convolution15
I1006 21:21:50.354395  4081 net.cpp:129] Top shape: 100 32 14 14 (627200)
I1006 21:21:50.354399  4081 net.cpp:137] Memory required for data: 344646800
I1006 21:21:50.354404  4081 layer_factory.hpp:77] Creating layer BatchNorm15
I1006 21:21:50.354409  4081 net.cpp:84] Creating Layer BatchNorm15
I1006 21:21:50.354419  4081 net.cpp:406] BatchNorm15 <- Convolution15
I1006 21:21:50.354425  4081 net.cpp:367] BatchNorm15 -> Convolution15 (in-place)
I1006 21:21:50.354558  4081 net.cpp:122] Setting up BatchNorm15
I1006 21:21:50.354564  4081 net.cpp:129] Top shape: 100 32 14 14 (627200)
I1006 21:21:50.354568  4081 net.cpp:137] Memory required for data: 347155600
I1006 21:21:50.354573  4081 layer_factory.hpp:77] Creating layer Scale15
I1006 21:21:50.354578  4081 net.cpp:84] Creating Layer Scale15
I1006 21:21:50.354581  4081 net.cpp:406] Scale15 <- Convolution15
I1006 21:21:50.354585  4081 net.cpp:367] Scale15 -> Convolution15 (in-place)
I1006 21:21:50.354611  4081 layer_factory.hpp:77] Creating layer Scale15
I1006 21:21:50.354686  4081 net.cpp:122] Setting up Scale15
I1006 21:21:50.354691  4081 net.cpp:129] Top shape: 100 32 14 14 (627200)
I1006 21:21:50.354694  4081 net.cpp:137] Memory required for data: 349664400
I1006 21:21:50.354698  4081 layer_factory.hpp:77] Creating layer penlu14
I1006 21:21:50.354704  4081 net.cpp:84] Creating Layer penlu14
I1006 21:21:50.354708  4081 net.cpp:406] penlu14 <- Convolution15
I1006 21:21:50.354712  4081 net.cpp:367] penlu14 -> Convolution15 (in-place)
I1006 21:21:50.354815  4081 net.cpp:122] Setting up penlu14
I1006 21:21:50.354821  4081 net.cpp:129] Top shape: 100 32 14 14 (627200)
I1006 21:21:50.354825  4081 net.cpp:137] Memory required for data: 352173200
I1006 21:21:50.354830  4081 layer_factory.hpp:77] Creating layer Convolution16
I1006 21:21:50.354835  4081 net.cpp:84] Creating Layer Convolution16
I1006 21:21:50.354840  4081 net.cpp:406] Convolution16 <- Convolution15
I1006 21:21:50.354843  4081 net.cpp:380] Convolution16 -> Convolution16
I1006 21:21:50.359344  4081 net.cpp:122] Setting up Convolution16
I1006 21:21:50.359359  4081 net.cpp:129] Top shape: 100 32 14 14 (627200)
I1006 21:21:50.359365  4081 net.cpp:137] Memory required for data: 354682000
I1006 21:21:50.359374  4081 layer_factory.hpp:77] Creating layer BatchNorm16
I1006 21:21:50.359381  4081 net.cpp:84] Creating Layer BatchNorm16
I1006 21:21:50.359387  4081 net.cpp:406] BatchNorm16 <- Convolution16
I1006 21:21:50.359395  4081 net.cpp:367] BatchNorm16 -> Convolution16 (in-place)
I1006 21:21:50.359583  4081 net.cpp:122] Setting up BatchNorm16
I1006 21:21:50.359592  4081 net.cpp:129] Top shape: 100 32 14 14 (627200)
I1006 21:21:50.359597  4081 net.cpp:137] Memory required for data: 357190800
I1006 21:21:50.359607  4081 layer_factory.hpp:77] Creating layer Scale16
I1006 21:21:50.359614  4081 net.cpp:84] Creating Layer Scale16
I1006 21:21:50.359619  4081 net.cpp:406] Scale16 <- Convolution16
I1006 21:21:50.359627  4081 net.cpp:367] Scale16 -> Convolution16 (in-place)
I1006 21:21:50.359664  4081 layer_factory.hpp:77] Creating layer Scale16
I1006 21:21:50.359771  4081 net.cpp:122] Setting up Scale16
I1006 21:21:50.359779  4081 net.cpp:129] Top shape: 100 32 14 14 (627200)
I1006 21:21:50.359784  4081 net.cpp:137] Memory required for data: 359699600
I1006 21:21:50.359791  4081 layer_factory.hpp:77] Creating layer Eltwise7
I1006 21:21:50.359799  4081 net.cpp:84] Creating Layer Eltwise7
I1006 21:21:50.359804  4081 net.cpp:406] Eltwise7 <- Eltwise6_penlu13_0_split_1
I1006 21:21:50.359810  4081 net.cpp:406] Eltwise7 <- Convolution16
I1006 21:21:50.359818  4081 net.cpp:380] Eltwise7 -> Eltwise7
I1006 21:21:50.359840  4081 net.cpp:122] Setting up Eltwise7
I1006 21:21:50.359849  4081 net.cpp:129] Top shape: 100 32 14 14 (627200)
I1006 21:21:50.359854  4081 net.cpp:137] Memory required for data: 362208400
I1006 21:21:50.359858  4081 layer_factory.hpp:77] Creating layer penlu15
I1006 21:21:50.359868  4081 net.cpp:84] Creating Layer penlu15
I1006 21:21:50.359872  4081 net.cpp:406] penlu15 <- Eltwise7
I1006 21:21:50.359880  4081 net.cpp:367] penlu15 -> Eltwise7 (in-place)
I1006 21:21:50.360034  4081 net.cpp:122] Setting up penlu15
I1006 21:21:50.360044  4081 net.cpp:129] Top shape: 100 32 14 14 (627200)
I1006 21:21:50.360049  4081 net.cpp:137] Memory required for data: 364717200
I1006 21:21:50.360057  4081 layer_factory.hpp:77] Creating layer Eltwise7_penlu15_0_split
I1006 21:21:50.360072  4081 net.cpp:84] Creating Layer Eltwise7_penlu15_0_split
I1006 21:21:50.360077  4081 net.cpp:406] Eltwise7_penlu15_0_split <- Eltwise7
I1006 21:21:50.360085  4081 net.cpp:380] Eltwise7_penlu15_0_split -> Eltwise7_penlu15_0_split_0
I1006 21:21:50.360091  4081 net.cpp:380] Eltwise7_penlu15_0_split -> Eltwise7_penlu15_0_split_1
I1006 21:21:50.360128  4081 net.cpp:122] Setting up Eltwise7_penlu15_0_split
I1006 21:21:50.360137  4081 net.cpp:129] Top shape: 100 32 14 14 (627200)
I1006 21:21:50.360144  4081 net.cpp:129] Top shape: 100 32 14 14 (627200)
I1006 21:21:50.360148  4081 net.cpp:137] Memory required for data: 369734800
I1006 21:21:50.360154  4081 layer_factory.hpp:77] Creating layer Convolution17
I1006 21:21:50.360164  4081 net.cpp:84] Creating Layer Convolution17
I1006 21:21:50.360170  4081 net.cpp:406] Convolution17 <- Eltwise7_penlu15_0_split_0
I1006 21:21:50.360179  4081 net.cpp:380] Convolution17 -> Convolution17
I1006 21:21:50.364353  4081 net.cpp:122] Setting up Convolution17
I1006 21:21:50.364374  4081 net.cpp:129] Top shape: 100 32 14 14 (627200)
I1006 21:21:50.364377  4081 net.cpp:137] Memory required for data: 372243600
I1006 21:21:50.364382  4081 layer_factory.hpp:77] Creating layer BatchNorm17
I1006 21:21:50.364388  4081 net.cpp:84] Creating Layer BatchNorm17
I1006 21:21:50.364392  4081 net.cpp:406] BatchNorm17 <- Convolution17
I1006 21:21:50.364397  4081 net.cpp:367] BatchNorm17 -> Convolution17 (in-place)
I1006 21:21:50.364545  4081 net.cpp:122] Setting up BatchNorm17
I1006 21:21:50.364552  4081 net.cpp:129] Top shape: 100 32 14 14 (627200)
I1006 21:21:50.364564  4081 net.cpp:137] Memory required for data: 374752400
I1006 21:21:50.364569  4081 layer_factory.hpp:77] Creating layer Scale17
I1006 21:21:50.364575  4081 net.cpp:84] Creating Layer Scale17
I1006 21:21:50.364578  4081 net.cpp:406] Scale17 <- Convolution17
I1006 21:21:50.364583  4081 net.cpp:367] Scale17 -> Convolution17 (in-place)
I1006 21:21:50.364609  4081 layer_factory.hpp:77] Creating layer Scale17
I1006 21:21:50.364687  4081 net.cpp:122] Setting up Scale17
I1006 21:21:50.364692  4081 net.cpp:129] Top shape: 100 32 14 14 (627200)
I1006 21:21:50.364694  4081 net.cpp:137] Memory required for data: 377261200
I1006 21:21:50.364699  4081 layer_factory.hpp:77] Creating layer penlu16
I1006 21:21:50.364706  4081 net.cpp:84] Creating Layer penlu16
I1006 21:21:50.364708  4081 net.cpp:406] penlu16 <- Convolution17
I1006 21:21:50.364712  4081 net.cpp:367] penlu16 -> Convolution17 (in-place)
I1006 21:21:50.364819  4081 net.cpp:122] Setting up penlu16
I1006 21:21:50.364825  4081 net.cpp:129] Top shape: 100 32 14 14 (627200)
I1006 21:21:50.364827  4081 net.cpp:137] Memory required for data: 379770000
I1006 21:21:50.364831  4081 layer_factory.hpp:77] Creating layer Convolution18
I1006 21:21:50.364840  4081 net.cpp:84] Creating Layer Convolution18
I1006 21:21:50.364842  4081 net.cpp:406] Convolution18 <- Convolution17
I1006 21:21:50.364846  4081 net.cpp:380] Convolution18 -> Convolution18
I1006 21:21:50.371117  4081 net.cpp:122] Setting up Convolution18
I1006 21:21:50.371127  4081 net.cpp:129] Top shape: 100 32 14 14 (627200)
I1006 21:21:50.371131  4081 net.cpp:137] Memory required for data: 382278800
I1006 21:21:50.371136  4081 layer_factory.hpp:77] Creating layer BatchNorm18
I1006 21:21:50.371142  4081 net.cpp:84] Creating Layer BatchNorm18
I1006 21:21:50.371145  4081 net.cpp:406] BatchNorm18 <- Convolution18
I1006 21:21:50.371150  4081 net.cpp:367] BatchNorm18 -> Convolution18 (in-place)
I1006 21:21:50.371285  4081 net.cpp:122] Setting up BatchNorm18
I1006 21:21:50.371291  4081 net.cpp:129] Top shape: 100 32 14 14 (627200)
I1006 21:21:50.371294  4081 net.cpp:137] Memory required for data: 384787600
I1006 21:21:50.371299  4081 layer_factory.hpp:77] Creating layer Scale18
I1006 21:21:50.371304  4081 net.cpp:84] Creating Layer Scale18
I1006 21:21:50.371307  4081 net.cpp:406] Scale18 <- Convolution18
I1006 21:21:50.371311  4081 net.cpp:367] Scale18 -> Convolution18 (in-place)
I1006 21:21:50.371346  4081 layer_factory.hpp:77] Creating layer Scale18
I1006 21:21:50.371425  4081 net.cpp:122] Setting up Scale18
I1006 21:21:50.371430  4081 net.cpp:129] Top shape: 100 32 14 14 (627200)
I1006 21:21:50.371433  4081 net.cpp:137] Memory required for data: 387296400
I1006 21:21:50.371438  4081 layer_factory.hpp:77] Creating layer Eltwise8
I1006 21:21:50.371443  4081 net.cpp:84] Creating Layer Eltwise8
I1006 21:21:50.371446  4081 net.cpp:406] Eltwise8 <- Eltwise7_penlu15_0_split_1
I1006 21:21:50.371449  4081 net.cpp:406] Eltwise8 <- Convolution18
I1006 21:21:50.371454  4081 net.cpp:380] Eltwise8 -> Eltwise8
I1006 21:21:50.371472  4081 net.cpp:122] Setting up Eltwise8
I1006 21:21:50.371477  4081 net.cpp:129] Top shape: 100 32 14 14 (627200)
I1006 21:21:50.371480  4081 net.cpp:137] Memory required for data: 389805200
I1006 21:21:50.371484  4081 layer_factory.hpp:77] Creating layer penlu17
I1006 21:21:50.371489  4081 net.cpp:84] Creating Layer penlu17
I1006 21:21:50.371492  4081 net.cpp:406] penlu17 <- Eltwise8
I1006 21:21:50.371495  4081 net.cpp:367] penlu17 -> Eltwise8 (in-place)
I1006 21:21:50.371601  4081 net.cpp:122] Setting up penlu17
I1006 21:21:50.371606  4081 net.cpp:129] Top shape: 100 32 14 14 (627200)
I1006 21:21:50.371609  4081 net.cpp:137] Memory required for data: 392314000
I1006 21:21:50.371614  4081 layer_factory.hpp:77] Creating layer Eltwise8_penlu17_0_split
I1006 21:21:50.371619  4081 net.cpp:84] Creating Layer Eltwise8_penlu17_0_split
I1006 21:21:50.371623  4081 net.cpp:406] Eltwise8_penlu17_0_split <- Eltwise8
I1006 21:21:50.371625  4081 net.cpp:380] Eltwise8_penlu17_0_split -> Eltwise8_penlu17_0_split_0
I1006 21:21:50.371630  4081 net.cpp:380] Eltwise8_penlu17_0_split -> Eltwise8_penlu17_0_split_1
I1006 21:21:50.371654  4081 net.cpp:122] Setting up Eltwise8_penlu17_0_split
I1006 21:21:50.371659  4081 net.cpp:129] Top shape: 100 32 14 14 (627200)
I1006 21:21:50.371662  4081 net.cpp:129] Top shape: 100 32 14 14 (627200)
I1006 21:21:50.371666  4081 net.cpp:137] Memory required for data: 397331600
I1006 21:21:50.371668  4081 layer_factory.hpp:77] Creating layer Convolution19
I1006 21:21:50.371675  4081 net.cpp:84] Creating Layer Convolution19
I1006 21:21:50.371678  4081 net.cpp:406] Convolution19 <- Eltwise8_penlu17_0_split_0
I1006 21:21:50.371682  4081 net.cpp:380] Convolution19 -> Convolution19
I1006 21:21:50.377951  4081 net.cpp:122] Setting up Convolution19
I1006 21:21:50.377961  4081 net.cpp:129] Top shape: 100 32 14 14 (627200)
I1006 21:21:50.377965  4081 net.cpp:137] Memory required for data: 399840400
I1006 21:21:50.377971  4081 layer_factory.hpp:77] Creating layer BatchNorm19
I1006 21:21:50.377976  4081 net.cpp:84] Creating Layer BatchNorm19
I1006 21:21:50.377980  4081 net.cpp:406] BatchNorm19 <- Convolution19
I1006 21:21:50.377985  4081 net.cpp:367] BatchNorm19 -> Convolution19 (in-place)
I1006 21:21:50.378121  4081 net.cpp:122] Setting up BatchNorm19
I1006 21:21:50.378126  4081 net.cpp:129] Top shape: 100 32 14 14 (627200)
I1006 21:21:50.378130  4081 net.cpp:137] Memory required for data: 402349200
I1006 21:21:50.378134  4081 layer_factory.hpp:77] Creating layer Scale19
I1006 21:21:50.378139  4081 net.cpp:84] Creating Layer Scale19
I1006 21:21:50.378144  4081 net.cpp:406] Scale19 <- Convolution19
I1006 21:21:50.378147  4081 net.cpp:367] Scale19 -> Convolution19 (in-place)
I1006 21:21:50.378175  4081 layer_factory.hpp:77] Creating layer Scale19
I1006 21:21:50.378252  4081 net.cpp:122] Setting up Scale19
I1006 21:21:50.378258  4081 net.cpp:129] Top shape: 100 32 14 14 (627200)
I1006 21:21:50.378262  4081 net.cpp:137] Memory required for data: 404858000
I1006 21:21:50.378265  4081 layer_factory.hpp:77] Creating layer penlu18
I1006 21:21:50.378270  4081 net.cpp:84] Creating Layer penlu18
I1006 21:21:50.378274  4081 net.cpp:406] penlu18 <- Convolution19
I1006 21:21:50.378278  4081 net.cpp:367] penlu18 -> Convolution19 (in-place)
I1006 21:21:50.378386  4081 net.cpp:122] Setting up penlu18
I1006 21:21:50.378391  4081 net.cpp:129] Top shape: 100 32 14 14 (627200)
I1006 21:21:50.378393  4081 net.cpp:137] Memory required for data: 407366800
I1006 21:21:50.378406  4081 layer_factory.hpp:77] Creating layer Convolution20
I1006 21:21:50.378413  4081 net.cpp:84] Creating Layer Convolution20
I1006 21:21:50.378417  4081 net.cpp:406] Convolution20 <- Convolution19
I1006 21:21:50.378423  4081 net.cpp:380] Convolution20 -> Convolution20
I1006 21:21:50.384227  4081 net.cpp:122] Setting up Convolution20
I1006 21:21:50.384239  4081 net.cpp:129] Top shape: 100 32 14 14 (627200)
I1006 21:21:50.384243  4081 net.cpp:137] Memory required for data: 409875600
I1006 21:21:50.384248  4081 layer_factory.hpp:77] Creating layer BatchNorm20
I1006 21:21:50.384253  4081 net.cpp:84] Creating Layer BatchNorm20
I1006 21:21:50.384256  4081 net.cpp:406] BatchNorm20 <- Convolution20
I1006 21:21:50.384260  4081 net.cpp:367] BatchNorm20 -> Convolution20 (in-place)
I1006 21:21:50.384394  4081 net.cpp:122] Setting up BatchNorm20
I1006 21:21:50.384399  4081 net.cpp:129] Top shape: 100 32 14 14 (627200)
I1006 21:21:50.384402  4081 net.cpp:137] Memory required for data: 412384400
I1006 21:21:50.384407  4081 layer_factory.hpp:77] Creating layer Scale20
I1006 21:21:50.384412  4081 net.cpp:84] Creating Layer Scale20
I1006 21:21:50.384415  4081 net.cpp:406] Scale20 <- Convolution20
I1006 21:21:50.384418  4081 net.cpp:367] Scale20 -> Convolution20 (in-place)
I1006 21:21:50.384445  4081 layer_factory.hpp:77] Creating layer Scale20
I1006 21:21:50.384523  4081 net.cpp:122] Setting up Scale20
I1006 21:21:50.384528  4081 net.cpp:129] Top shape: 100 32 14 14 (627200)
I1006 21:21:50.384531  4081 net.cpp:137] Memory required for data: 414893200
I1006 21:21:50.384534  4081 layer_factory.hpp:77] Creating layer Eltwise9
I1006 21:21:50.384539  4081 net.cpp:84] Creating Layer Eltwise9
I1006 21:21:50.384543  4081 net.cpp:406] Eltwise9 <- Eltwise8_penlu17_0_split_1
I1006 21:21:50.384546  4081 net.cpp:406] Eltwise9 <- Convolution20
I1006 21:21:50.384549  4081 net.cpp:380] Eltwise9 -> Eltwise9
I1006 21:21:50.384565  4081 net.cpp:122] Setting up Eltwise9
I1006 21:21:50.384570  4081 net.cpp:129] Top shape: 100 32 14 14 (627200)
I1006 21:21:50.384573  4081 net.cpp:137] Memory required for data: 417402000
I1006 21:21:50.384575  4081 layer_factory.hpp:77] Creating layer penlu19
I1006 21:21:50.384582  4081 net.cpp:84] Creating Layer penlu19
I1006 21:21:50.384585  4081 net.cpp:406] penlu19 <- Eltwise9
I1006 21:21:50.384588  4081 net.cpp:367] penlu19 -> Eltwise9 (in-place)
I1006 21:21:50.384697  4081 net.cpp:122] Setting up penlu19
I1006 21:21:50.384702  4081 net.cpp:129] Top shape: 100 32 14 14 (627200)
I1006 21:21:50.384706  4081 net.cpp:137] Memory required for data: 419910800
I1006 21:21:50.384711  4081 layer_factory.hpp:77] Creating layer Eltwise9_penlu19_0_split
I1006 21:21:50.384714  4081 net.cpp:84] Creating Layer Eltwise9_penlu19_0_split
I1006 21:21:50.384717  4081 net.cpp:406] Eltwise9_penlu19_0_split <- Eltwise9
I1006 21:21:50.384722  4081 net.cpp:380] Eltwise9_penlu19_0_split -> Eltwise9_penlu19_0_split_0
I1006 21:21:50.384727  4081 net.cpp:380] Eltwise9_penlu19_0_split -> Eltwise9_penlu19_0_split_1
I1006 21:21:50.384749  4081 net.cpp:122] Setting up Eltwise9_penlu19_0_split
I1006 21:21:50.384754  4081 net.cpp:129] Top shape: 100 32 14 14 (627200)
I1006 21:21:50.384758  4081 net.cpp:129] Top shape: 100 32 14 14 (627200)
I1006 21:21:50.384763  4081 net.cpp:137] Memory required for data: 424928400
I1006 21:21:50.384764  4081 layer_factory.hpp:77] Creating layer Convolution21
I1006 21:21:50.384773  4081 net.cpp:84] Creating Layer Convolution21
I1006 21:21:50.384775  4081 net.cpp:406] Convolution21 <- Eltwise9_penlu19_0_split_0
I1006 21:21:50.384780  4081 net.cpp:380] Convolution21 -> Convolution21
I1006 21:21:50.391295  4081 net.cpp:122] Setting up Convolution21
I1006 21:21:50.391309  4081 net.cpp:129] Top shape: 100 32 14 14 (627200)
I1006 21:21:50.391315  4081 net.cpp:137] Memory required for data: 427437200
I1006 21:21:50.391324  4081 layer_factory.hpp:77] Creating layer BatchNorm21
I1006 21:21:50.391331  4081 net.cpp:84] Creating Layer BatchNorm21
I1006 21:21:50.391345  4081 net.cpp:406] BatchNorm21 <- Convolution21
I1006 21:21:50.391352  4081 net.cpp:367] BatchNorm21 -> Convolution21 (in-place)
I1006 21:21:50.391546  4081 net.cpp:122] Setting up BatchNorm21
I1006 21:21:50.391554  4081 net.cpp:129] Top shape: 100 32 14 14 (627200)
I1006 21:21:50.391559  4081 net.cpp:137] Memory required for data: 429946000
I1006 21:21:50.391569  4081 layer_factory.hpp:77] Creating layer Scale21
I1006 21:21:50.391577  4081 net.cpp:84] Creating Layer Scale21
I1006 21:21:50.391582  4081 net.cpp:406] Scale21 <- Convolution21
I1006 21:21:50.391592  4081 net.cpp:367] Scale21 -> Convolution21 (in-place)
I1006 21:21:50.391629  4081 layer_factory.hpp:77] Creating layer Scale21
I1006 21:21:50.391743  4081 net.cpp:122] Setting up Scale21
I1006 21:21:50.391752  4081 net.cpp:129] Top shape: 100 32 14 14 (627200)
I1006 21:21:50.391757  4081 net.cpp:137] Memory required for data: 432454800
I1006 21:21:50.391765  4081 layer_factory.hpp:77] Creating layer penlu20
I1006 21:21:50.391775  4081 net.cpp:84] Creating Layer penlu20
I1006 21:21:50.391780  4081 net.cpp:406] penlu20 <- Convolution21
I1006 21:21:50.391788  4081 net.cpp:367] penlu20 -> Convolution21 (in-place)
I1006 21:21:50.391943  4081 net.cpp:122] Setting up penlu20
I1006 21:21:50.391952  4081 net.cpp:129] Top shape: 100 32 14 14 (627200)
I1006 21:21:50.391957  4081 net.cpp:137] Memory required for data: 434963600
I1006 21:21:50.391965  4081 layer_factory.hpp:77] Creating layer Convolution22
I1006 21:21:50.391976  4081 net.cpp:84] Creating Layer Convolution22
I1006 21:21:50.391981  4081 net.cpp:406] Convolution22 <- Convolution21
I1006 21:21:50.391990  4081 net.cpp:380] Convolution22 -> Convolution22
I1006 21:21:50.397809  4081 net.cpp:122] Setting up Convolution22
I1006 21:21:50.397830  4081 net.cpp:129] Top shape: 100 32 14 14 (627200)
I1006 21:21:50.397833  4081 net.cpp:137] Memory required for data: 437472400
I1006 21:21:50.397837  4081 layer_factory.hpp:77] Creating layer BatchNorm22
I1006 21:21:50.397843  4081 net.cpp:84] Creating Layer BatchNorm22
I1006 21:21:50.397846  4081 net.cpp:406] BatchNorm22 <- Convolution22
I1006 21:21:50.397850  4081 net.cpp:367] BatchNorm22 -> Convolution22 (in-place)
I1006 21:21:50.398006  4081 net.cpp:122] Setting up BatchNorm22
I1006 21:21:50.398013  4081 net.cpp:129] Top shape: 100 32 14 14 (627200)
I1006 21:21:50.398025  4081 net.cpp:137] Memory required for data: 439981200
I1006 21:21:50.398030  4081 layer_factory.hpp:77] Creating layer Scale22
I1006 21:21:50.398035  4081 net.cpp:84] Creating Layer Scale22
I1006 21:21:50.398038  4081 net.cpp:406] Scale22 <- Convolution22
I1006 21:21:50.398041  4081 net.cpp:367] Scale22 -> Convolution22 (in-place)
I1006 21:21:50.398072  4081 layer_factory.hpp:77] Creating layer Scale22
I1006 21:21:50.398149  4081 net.cpp:122] Setting up Scale22
I1006 21:21:50.398155  4081 net.cpp:129] Top shape: 100 32 14 14 (627200)
I1006 21:21:50.398159  4081 net.cpp:137] Memory required for data: 442490000
I1006 21:21:50.398162  4081 layer_factory.hpp:77] Creating layer Eltwise10
I1006 21:21:50.398166  4081 net.cpp:84] Creating Layer Eltwise10
I1006 21:21:50.398170  4081 net.cpp:406] Eltwise10 <- Eltwise9_penlu19_0_split_1
I1006 21:21:50.398174  4081 net.cpp:406] Eltwise10 <- Convolution22
I1006 21:21:50.398176  4081 net.cpp:380] Eltwise10 -> Eltwise10
I1006 21:21:50.398195  4081 net.cpp:122] Setting up Eltwise10
I1006 21:21:50.398200  4081 net.cpp:129] Top shape: 100 32 14 14 (627200)
I1006 21:21:50.398201  4081 net.cpp:137] Memory required for data: 444998800
I1006 21:21:50.398205  4081 layer_factory.hpp:77] Creating layer penlu21
I1006 21:21:50.398210  4081 net.cpp:84] Creating Layer penlu21
I1006 21:21:50.398212  4081 net.cpp:406] penlu21 <- Eltwise10
I1006 21:21:50.398216  4081 net.cpp:367] penlu21 -> Eltwise10 (in-place)
I1006 21:21:50.398329  4081 net.cpp:122] Setting up penlu21
I1006 21:21:50.398334  4081 net.cpp:129] Top shape: 100 32 14 14 (627200)
I1006 21:21:50.398336  4081 net.cpp:137] Memory required for data: 447507600
I1006 21:21:50.398340  4081 layer_factory.hpp:77] Creating layer Eltwise10_penlu21_0_split
I1006 21:21:50.398353  4081 net.cpp:84] Creating Layer Eltwise10_penlu21_0_split
I1006 21:21:50.398357  4081 net.cpp:406] Eltwise10_penlu21_0_split <- Eltwise10
I1006 21:21:50.398360  4081 net.cpp:380] Eltwise10_penlu21_0_split -> Eltwise10_penlu21_0_split_0
I1006 21:21:50.398365  4081 net.cpp:380] Eltwise10_penlu21_0_split -> Eltwise10_penlu21_0_split_1
I1006 21:21:50.398391  4081 net.cpp:122] Setting up Eltwise10_penlu21_0_split
I1006 21:21:50.398396  4081 net.cpp:129] Top shape: 100 32 14 14 (627200)
I1006 21:21:50.398399  4081 net.cpp:129] Top shape: 100 32 14 14 (627200)
I1006 21:21:50.398401  4081 net.cpp:137] Memory required for data: 452525200
I1006 21:21:50.398404  4081 layer_factory.hpp:77] Creating layer Convolution23
I1006 21:21:50.398411  4081 net.cpp:84] Creating Layer Convolution23
I1006 21:21:50.398413  4081 net.cpp:406] Convolution23 <- Eltwise10_penlu21_0_split_0
I1006 21:21:50.398418  4081 net.cpp:380] Convolution23 -> Convolution23
I1006 21:21:50.404623  4081 net.cpp:122] Setting up Convolution23
I1006 21:21:50.404634  4081 net.cpp:129] Top shape: 100 64 7 7 (313600)
I1006 21:21:50.404637  4081 net.cpp:137] Memory required for data: 453779600
I1006 21:21:50.404642  4081 layer_factory.hpp:77] Creating layer BatchNorm23
I1006 21:21:50.404649  4081 net.cpp:84] Creating Layer BatchNorm23
I1006 21:21:50.404652  4081 net.cpp:406] BatchNorm23 <- Convolution23
I1006 21:21:50.404656  4081 net.cpp:367] BatchNorm23 -> Convolution23 (in-place)
I1006 21:21:50.404790  4081 net.cpp:122] Setting up BatchNorm23
I1006 21:21:50.404796  4081 net.cpp:129] Top shape: 100 64 7 7 (313600)
I1006 21:21:50.404799  4081 net.cpp:137] Memory required for data: 455034000
I1006 21:21:50.404804  4081 layer_factory.hpp:77] Creating layer Scale23
I1006 21:21:50.404809  4081 net.cpp:84] Creating Layer Scale23
I1006 21:21:50.404812  4081 net.cpp:406] Scale23 <- Convolution23
I1006 21:21:50.404815  4081 net.cpp:367] Scale23 -> Convolution23 (in-place)
I1006 21:21:50.404844  4081 layer_factory.hpp:77] Creating layer Scale23
I1006 21:21:50.404920  4081 net.cpp:122] Setting up Scale23
I1006 21:21:50.404927  4081 net.cpp:129] Top shape: 100 64 7 7 (313600)
I1006 21:21:50.404929  4081 net.cpp:137] Memory required for data: 456288400
I1006 21:21:50.404933  4081 layer_factory.hpp:77] Creating layer Convolution24
I1006 21:21:50.404942  4081 net.cpp:84] Creating Layer Convolution24
I1006 21:21:50.404944  4081 net.cpp:406] Convolution24 <- Eltwise10_penlu21_0_split_1
I1006 21:21:50.404948  4081 net.cpp:380] Convolution24 -> Convolution24
I1006 21:21:50.411221  4081 net.cpp:122] Setting up Convolution24
I1006 21:21:50.411232  4081 net.cpp:129] Top shape: 100 64 7 7 (313600)
I1006 21:21:50.411236  4081 net.cpp:137] Memory required for data: 457542800
I1006 21:21:50.411240  4081 layer_factory.hpp:77] Creating layer BatchNorm24
I1006 21:21:50.411247  4081 net.cpp:84] Creating Layer BatchNorm24
I1006 21:21:50.411250  4081 net.cpp:406] BatchNorm24 <- Convolution24
I1006 21:21:50.411257  4081 net.cpp:367] BatchNorm24 -> Convolution24 (in-place)
I1006 21:21:50.411391  4081 net.cpp:122] Setting up BatchNorm24
I1006 21:21:50.411397  4081 net.cpp:129] Top shape: 100 64 7 7 (313600)
I1006 21:21:50.411401  4081 net.cpp:137] Memory required for data: 458797200
I1006 21:21:50.411406  4081 layer_factory.hpp:77] Creating layer Scale24
I1006 21:21:50.411411  4081 net.cpp:84] Creating Layer Scale24
I1006 21:21:50.411413  4081 net.cpp:406] Scale24 <- Convolution24
I1006 21:21:50.411417  4081 net.cpp:367] Scale24 -> Convolution24 (in-place)
I1006 21:21:50.411447  4081 layer_factory.hpp:77] Creating layer Scale24
I1006 21:21:50.411526  4081 net.cpp:122] Setting up Scale24
I1006 21:21:50.411531  4081 net.cpp:129] Top shape: 100 64 7 7 (313600)
I1006 21:21:50.411535  4081 net.cpp:137] Memory required for data: 460051600
I1006 21:21:50.411538  4081 layer_factory.hpp:77] Creating layer penlu22
I1006 21:21:50.411545  4081 net.cpp:84] Creating Layer penlu22
I1006 21:21:50.411547  4081 net.cpp:406] penlu22 <- Convolution24
I1006 21:21:50.411552  4081 net.cpp:367] penlu22 -> Convolution24 (in-place)
I1006 21:21:50.411671  4081 net.cpp:122] Setting up penlu22
I1006 21:21:50.411677  4081 net.cpp:129] Top shape: 100 64 7 7 (313600)
I1006 21:21:50.411680  4081 net.cpp:137] Memory required for data: 461306000
I1006 21:21:50.411685  4081 layer_factory.hpp:77] Creating layer Convolution25
I1006 21:21:50.411694  4081 net.cpp:84] Creating Layer Convolution25
I1006 21:21:50.411696  4081 net.cpp:406] Convolution25 <- Convolution24
I1006 21:21:50.411701  4081 net.cpp:380] Convolution25 -> Convolution25
I1006 21:21:50.418050  4081 net.cpp:122] Setting up Convolution25
I1006 21:21:50.418061  4081 net.cpp:129] Top shape: 100 64 7 7 (313600)
I1006 21:21:50.418063  4081 net.cpp:137] Memory required for data: 462560400
I1006 21:21:50.418068  4081 layer_factory.hpp:77] Creating layer BatchNorm25
I1006 21:21:50.418076  4081 net.cpp:84] Creating Layer BatchNorm25
I1006 21:21:50.418079  4081 net.cpp:406] BatchNorm25 <- Convolution25
I1006 21:21:50.418082  4081 net.cpp:367] BatchNorm25 -> Convolution25 (in-place)
I1006 21:21:50.418225  4081 net.cpp:122] Setting up BatchNorm25
I1006 21:21:50.418229  4081 net.cpp:129] Top shape: 100 64 7 7 (313600)
I1006 21:21:50.418232  4081 net.cpp:137] Memory required for data: 463814800
I1006 21:21:50.418237  4081 layer_factory.hpp:77] Creating layer Scale25
I1006 21:21:50.418243  4081 net.cpp:84] Creating Layer Scale25
I1006 21:21:50.418246  4081 net.cpp:406] Scale25 <- Convolution25
I1006 21:21:50.418251  4081 net.cpp:367] Scale25 -> Convolution25 (in-place)
I1006 21:21:50.418279  4081 layer_factory.hpp:77] Creating layer Scale25
I1006 21:21:50.418359  4081 net.cpp:122] Setting up Scale25
I1006 21:21:50.418365  4081 net.cpp:129] Top shape: 100 64 7 7 (313600)
I1006 21:21:50.418367  4081 net.cpp:137] Memory required for data: 465069200
I1006 21:21:50.418371  4081 layer_factory.hpp:77] Creating layer Eltwise11
I1006 21:21:50.418377  4081 net.cpp:84] Creating Layer Eltwise11
I1006 21:21:50.418380  4081 net.cpp:406] Eltwise11 <- Convolution23
I1006 21:21:50.418383  4081 net.cpp:406] Eltwise11 <- Convolution25
I1006 21:21:50.418387  4081 net.cpp:380] Eltwise11 -> Eltwise11
I1006 21:21:50.418404  4081 net.cpp:122] Setting up Eltwise11
I1006 21:21:50.418409  4081 net.cpp:129] Top shape: 100 64 7 7 (313600)
I1006 21:21:50.418412  4081 net.cpp:137] Memory required for data: 466323600
I1006 21:21:50.418414  4081 layer_factory.hpp:77] Creating layer penlu23
I1006 21:21:50.418421  4081 net.cpp:84] Creating Layer penlu23
I1006 21:21:50.418423  4081 net.cpp:406] penlu23 <- Eltwise11
I1006 21:21:50.418427  4081 net.cpp:367] penlu23 -> Eltwise11 (in-place)
I1006 21:21:50.418536  4081 net.cpp:122] Setting up penlu23
I1006 21:21:50.418542  4081 net.cpp:129] Top shape: 100 64 7 7 (313600)
I1006 21:21:50.418545  4081 net.cpp:137] Memory required for data: 467578000
I1006 21:21:50.418550  4081 layer_factory.hpp:77] Creating layer Eltwise11_penlu23_0_split
I1006 21:21:50.418555  4081 net.cpp:84] Creating Layer Eltwise11_penlu23_0_split
I1006 21:21:50.418557  4081 net.cpp:406] Eltwise11_penlu23_0_split <- Eltwise11
I1006 21:21:50.418560  4081 net.cpp:380] Eltwise11_penlu23_0_split -> Eltwise11_penlu23_0_split_0
I1006 21:21:50.418565  4081 net.cpp:380] Eltwise11_penlu23_0_split -> Eltwise11_penlu23_0_split_1
I1006 21:21:50.418589  4081 net.cpp:122] Setting up Eltwise11_penlu23_0_split
I1006 21:21:50.418594  4081 net.cpp:129] Top shape: 100 64 7 7 (313600)
I1006 21:21:50.418597  4081 net.cpp:129] Top shape: 100 64 7 7 (313600)
I1006 21:21:50.418599  4081 net.cpp:137] Memory required for data: 470086800
I1006 21:21:50.418602  4081 layer_factory.hpp:77] Creating layer Convolution26
I1006 21:21:50.418608  4081 net.cpp:84] Creating Layer Convolution26
I1006 21:21:50.418612  4081 net.cpp:406] Convolution26 <- Eltwise11_penlu23_0_split_0
I1006 21:21:50.418617  4081 net.cpp:380] Convolution26 -> Convolution26
I1006 21:21:50.422973  4081 net.cpp:122] Setting up Convolution26
I1006 21:21:50.422989  4081 net.cpp:129] Top shape: 100 64 7 7 (313600)
I1006 21:21:50.422994  4081 net.cpp:137] Memory required for data: 471341200
I1006 21:21:50.423009  4081 layer_factory.hpp:77] Creating layer BatchNorm26
I1006 21:21:50.423018  4081 net.cpp:84] Creating Layer BatchNorm26
I1006 21:21:50.423024  4081 net.cpp:406] BatchNorm26 <- Convolution26
I1006 21:21:50.423032  4081 net.cpp:367] BatchNorm26 -> Convolution26 (in-place)
I1006 21:21:50.423256  4081 net.cpp:122] Setting up BatchNorm26
I1006 21:21:50.423279  4081 net.cpp:129] Top shape: 100 64 7 7 (313600)
I1006 21:21:50.423285  4081 net.cpp:137] Memory required for data: 472595600
I1006 21:21:50.423293  4081 layer_factory.hpp:77] Creating layer Scale26
I1006 21:21:50.423303  4081 net.cpp:84] Creating Layer Scale26
I1006 21:21:50.423310  4081 net.cpp:406] Scale26 <- Convolution26
I1006 21:21:50.423317  4081 net.cpp:367] Scale26 -> Convolution26 (in-place)
I1006 21:21:50.423379  4081 layer_factory.hpp:77] Creating layer Scale26
I1006 21:21:50.423517  4081 net.cpp:122] Setting up Scale26
I1006 21:21:50.423527  4081 net.cpp:129] Top shape: 100 64 7 7 (313600)
I1006 21:21:50.423542  4081 net.cpp:137] Memory required for data: 473850000
I1006 21:21:50.423548  4081 layer_factory.hpp:77] Creating layer penlu24
I1006 21:21:50.423557  4081 net.cpp:84] Creating Layer penlu24
I1006 21:21:50.423563  4081 net.cpp:406] penlu24 <- Convolution26
I1006 21:21:50.423570  4081 net.cpp:367] penlu24 -> Convolution26 (in-place)
I1006 21:21:50.423738  4081 net.cpp:122] Setting up penlu24
I1006 21:21:50.423748  4081 net.cpp:129] Top shape: 100 64 7 7 (313600)
I1006 21:21:50.423753  4081 net.cpp:137] Memory required for data: 475104400
I1006 21:21:50.423760  4081 layer_factory.hpp:77] Creating layer Convolution27
I1006 21:21:50.423771  4081 net.cpp:84] Creating Layer Convolution27
I1006 21:21:50.423777  4081 net.cpp:406] Convolution27 <- Convolution26
I1006 21:21:50.423785  4081 net.cpp:380] Convolution27 -> Convolution27
I1006 21:21:50.429841  4081 net.cpp:122] Setting up Convolution27
I1006 21:21:50.429852  4081 net.cpp:129] Top shape: 100 64 7 7 (313600)
I1006 21:21:50.429854  4081 net.cpp:137] Memory required for data: 476358800
I1006 21:21:50.429859  4081 layer_factory.hpp:77] Creating layer BatchNorm27
I1006 21:21:50.429865  4081 net.cpp:84] Creating Layer BatchNorm27
I1006 21:21:50.429868  4081 net.cpp:406] BatchNorm27 <- Convolution27
I1006 21:21:50.429873  4081 net.cpp:367] BatchNorm27 -> Convolution27 (in-place)
I1006 21:21:50.430016  4081 net.cpp:122] Setting up BatchNorm27
I1006 21:21:50.430022  4081 net.cpp:129] Top shape: 100 64 7 7 (313600)
I1006 21:21:50.430023  4081 net.cpp:137] Memory required for data: 477613200
I1006 21:21:50.430049  4081 layer_factory.hpp:77] Creating layer Scale27
I1006 21:21:50.430064  4081 net.cpp:84] Creating Layer Scale27
I1006 21:21:50.430068  4081 net.cpp:406] Scale27 <- Convolution27
I1006 21:21:50.430070  4081 net.cpp:367] Scale27 -> Convolution27 (in-place)
I1006 21:21:50.430102  4081 layer_factory.hpp:77] Creating layer Scale27
I1006 21:21:50.430183  4081 net.cpp:122] Setting up Scale27
I1006 21:21:50.430189  4081 net.cpp:129] Top shape: 100 64 7 7 (313600)
I1006 21:21:50.430193  4081 net.cpp:137] Memory required for data: 478867600
I1006 21:21:50.430197  4081 layer_factory.hpp:77] Creating layer Eltwise12
I1006 21:21:50.430202  4081 net.cpp:84] Creating Layer Eltwise12
I1006 21:21:50.430205  4081 net.cpp:406] Eltwise12 <- Eltwise11_penlu23_0_split_1
I1006 21:21:50.430208  4081 net.cpp:406] Eltwise12 <- Convolution27
I1006 21:21:50.430212  4081 net.cpp:380] Eltwise12 -> Eltwise12
I1006 21:21:50.430235  4081 net.cpp:122] Setting up Eltwise12
I1006 21:21:50.430240  4081 net.cpp:129] Top shape: 100 64 7 7 (313600)
I1006 21:21:50.430243  4081 net.cpp:137] Memory required for data: 480122000
I1006 21:21:50.430246  4081 layer_factory.hpp:77] Creating layer penlu25
I1006 21:21:50.430253  4081 net.cpp:84] Creating Layer penlu25
I1006 21:21:50.430255  4081 net.cpp:406] penlu25 <- Eltwise12
I1006 21:21:50.430259  4081 net.cpp:367] penlu25 -> Eltwise12 (in-place)
I1006 21:21:50.430374  4081 net.cpp:122] Setting up penlu25
I1006 21:21:50.430380  4081 net.cpp:129] Top shape: 100 64 7 7 (313600)
I1006 21:21:50.430392  4081 net.cpp:137] Memory required for data: 481376400
I1006 21:21:50.430397  4081 layer_factory.hpp:77] Creating layer Eltwise12_penlu25_0_split
I1006 21:21:50.430402  4081 net.cpp:84] Creating Layer Eltwise12_penlu25_0_split
I1006 21:21:50.430404  4081 net.cpp:406] Eltwise12_penlu25_0_split <- Eltwise12
I1006 21:21:50.430408  4081 net.cpp:380] Eltwise12_penlu25_0_split -> Eltwise12_penlu25_0_split_0
I1006 21:21:50.430413  4081 net.cpp:380] Eltwise12_penlu25_0_split -> Eltwise12_penlu25_0_split_1
I1006 21:21:50.430440  4081 net.cpp:122] Setting up Eltwise12_penlu25_0_split
I1006 21:21:50.430444  4081 net.cpp:129] Top shape: 100 64 7 7 (313600)
I1006 21:21:50.430449  4081 net.cpp:129] Top shape: 100 64 7 7 (313600)
I1006 21:21:50.430452  4081 net.cpp:137] Memory required for data: 483885200
I1006 21:21:50.430454  4081 layer_factory.hpp:77] Creating layer Convolution28
I1006 21:21:50.430460  4081 net.cpp:84] Creating Layer Convolution28
I1006 21:21:50.430464  4081 net.cpp:406] Convolution28 <- Eltwise12_penlu25_0_split_0
I1006 21:21:50.430469  4081 net.cpp:380] Convolution28 -> Convolution28
I1006 21:21:50.436225  4081 net.cpp:122] Setting up Convolution28
I1006 21:21:50.436236  4081 net.cpp:129] Top shape: 100 64 7 7 (313600)
I1006 21:21:50.436240  4081 net.cpp:137] Memory required for data: 485139600
I1006 21:21:50.436244  4081 layer_factory.hpp:77] Creating layer BatchNorm28
I1006 21:21:50.436250  4081 net.cpp:84] Creating Layer BatchNorm28
I1006 21:21:50.436254  4081 net.cpp:406] BatchNorm28 <- Convolution28
I1006 21:21:50.436257  4081 net.cpp:367] BatchNorm28 -> Convolution28 (in-place)
I1006 21:21:50.436396  4081 net.cpp:122] Setting up BatchNorm28
I1006 21:21:50.436403  4081 net.cpp:129] Top shape: 100 64 7 7 (313600)
I1006 21:21:50.436404  4081 net.cpp:137] Memory required for data: 486394000
I1006 21:21:50.436409  4081 layer_factory.hpp:77] Creating layer Scale28
I1006 21:21:50.436415  4081 net.cpp:84] Creating Layer Scale28
I1006 21:21:50.436419  4081 net.cpp:406] Scale28 <- Convolution28
I1006 21:21:50.436421  4081 net.cpp:367] Scale28 -> Convolution28 (in-place)
I1006 21:21:50.436450  4081 layer_factory.hpp:77] Creating layer Scale28
I1006 21:21:50.436532  4081 net.cpp:122] Setting up Scale28
I1006 21:21:50.436537  4081 net.cpp:129] Top shape: 100 64 7 7 (313600)
I1006 21:21:50.436539  4081 net.cpp:137] Memory required for data: 487648400
I1006 21:21:50.436543  4081 layer_factory.hpp:77] Creating layer penlu26
I1006 21:21:50.436549  4081 net.cpp:84] Creating Layer penlu26
I1006 21:21:50.436553  4081 net.cpp:406] penlu26 <- Convolution28
I1006 21:21:50.436558  4081 net.cpp:367] penlu26 -> Convolution28 (in-place)
I1006 21:21:50.436671  4081 net.cpp:122] Setting up penlu26
I1006 21:21:50.436676  4081 net.cpp:129] Top shape: 100 64 7 7 (313600)
I1006 21:21:50.436678  4081 net.cpp:137] Memory required for data: 488902800
I1006 21:21:50.436683  4081 layer_factory.hpp:77] Creating layer Convolution29
I1006 21:21:50.436691  4081 net.cpp:84] Creating Layer Convolution29
I1006 21:21:50.436693  4081 net.cpp:406] Convolution29 <- Convolution28
I1006 21:21:50.436698  4081 net.cpp:380] Convolution29 -> Convolution29
I1006 21:21:50.443080  4081 net.cpp:122] Setting up Convolution29
I1006 21:21:50.443091  4081 net.cpp:129] Top shape: 100 64 7 7 (313600)
I1006 21:21:50.443094  4081 net.cpp:137] Memory required for data: 490157200
I1006 21:21:50.443100  4081 layer_factory.hpp:77] Creating layer BatchNorm29
I1006 21:21:50.443106  4081 net.cpp:84] Creating Layer BatchNorm29
I1006 21:21:50.443109  4081 net.cpp:406] BatchNorm29 <- Convolution29
I1006 21:21:50.443114  4081 net.cpp:367] BatchNorm29 -> Convolution29 (in-place)
I1006 21:21:50.443262  4081 net.cpp:122] Setting up BatchNorm29
I1006 21:21:50.443269  4081 net.cpp:129] Top shape: 100 64 7 7 (313600)
I1006 21:21:50.443271  4081 net.cpp:137] Memory required for data: 491411600
I1006 21:21:50.443276  4081 layer_factory.hpp:77] Creating layer Scale29
I1006 21:21:50.443281  4081 net.cpp:84] Creating Layer Scale29
I1006 21:21:50.443291  4081 net.cpp:406] Scale29 <- Convolution29
I1006 21:21:50.443296  4081 net.cpp:367] Scale29 -> Convolution29 (in-place)
I1006 21:21:50.443328  4081 layer_factory.hpp:77] Creating layer Scale29
I1006 21:21:50.443411  4081 net.cpp:122] Setting up Scale29
I1006 21:21:50.443418  4081 net.cpp:129] Top shape: 100 64 7 7 (313600)
I1006 21:21:50.443421  4081 net.cpp:137] Memory required for data: 492666000
I1006 21:21:50.443425  4081 layer_factory.hpp:77] Creating layer Eltwise13
I1006 21:21:50.443429  4081 net.cpp:84] Creating Layer Eltwise13
I1006 21:21:50.443434  4081 net.cpp:406] Eltwise13 <- Eltwise12_penlu25_0_split_1
I1006 21:21:50.443436  4081 net.cpp:406] Eltwise13 <- Convolution29
I1006 21:21:50.443440  4081 net.cpp:380] Eltwise13 -> Eltwise13
I1006 21:21:50.443459  4081 net.cpp:122] Setting up Eltwise13
I1006 21:21:50.443464  4081 net.cpp:129] Top shape: 100 64 7 7 (313600)
I1006 21:21:50.443466  4081 net.cpp:137] Memory required for data: 493920400
I1006 21:21:50.443469  4081 layer_factory.hpp:77] Creating layer penlu27
I1006 21:21:50.443475  4081 net.cpp:84] Creating Layer penlu27
I1006 21:21:50.443477  4081 net.cpp:406] penlu27 <- Eltwise13
I1006 21:21:50.443481  4081 net.cpp:367] penlu27 -> Eltwise13 (in-place)
I1006 21:21:50.443598  4081 net.cpp:122] Setting up penlu27
I1006 21:21:50.443603  4081 net.cpp:129] Top shape: 100 64 7 7 (313600)
I1006 21:21:50.443605  4081 net.cpp:137] Memory required for data: 495174800
I1006 21:21:50.443610  4081 layer_factory.hpp:77] Creating layer Eltwise13_penlu27_0_split
I1006 21:21:50.443615  4081 net.cpp:84] Creating Layer Eltwise13_penlu27_0_split
I1006 21:21:50.443619  4081 net.cpp:406] Eltwise13_penlu27_0_split <- Eltwise13
I1006 21:21:50.443621  4081 net.cpp:380] Eltwise13_penlu27_0_split -> Eltwise13_penlu27_0_split_0
I1006 21:21:50.443627  4081 net.cpp:380] Eltwise13_penlu27_0_split -> Eltwise13_penlu27_0_split_1
I1006 21:21:50.443652  4081 net.cpp:122] Setting up Eltwise13_penlu27_0_split
I1006 21:21:50.443657  4081 net.cpp:129] Top shape: 100 64 7 7 (313600)
I1006 21:21:50.443661  4081 net.cpp:129] Top shape: 100 64 7 7 (313600)
I1006 21:21:50.443665  4081 net.cpp:137] Memory required for data: 497683600
I1006 21:21:50.443666  4081 layer_factory.hpp:77] Creating layer Convolution30
I1006 21:21:50.443673  4081 net.cpp:84] Creating Layer Convolution30
I1006 21:21:50.443676  4081 net.cpp:406] Convolution30 <- Eltwise13_penlu27_0_split_0
I1006 21:21:50.443681  4081 net.cpp:380] Convolution30 -> Convolution30
I1006 21:21:50.445739  4081 net.cpp:122] Setting up Convolution30
I1006 21:21:50.445749  4081 net.cpp:129] Top shape: 100 64 7 7 (313600)
I1006 21:21:50.445753  4081 net.cpp:137] Memory required for data: 498938000
I1006 21:21:50.445757  4081 layer_factory.hpp:77] Creating layer BatchNorm30
I1006 21:21:50.445765  4081 net.cpp:84] Creating Layer BatchNorm30
I1006 21:21:50.445768  4081 net.cpp:406] BatchNorm30 <- Convolution30
I1006 21:21:50.445772  4081 net.cpp:367] BatchNorm30 -> Convolution30 (in-place)
I1006 21:21:50.445914  4081 net.cpp:122] Setting up BatchNorm30
I1006 21:21:50.445919  4081 net.cpp:129] Top shape: 100 64 7 7 (313600)
I1006 21:21:50.445922  4081 net.cpp:137] Memory required for data: 500192400
I1006 21:21:50.445927  4081 layer_factory.hpp:77] Creating layer Scale30
I1006 21:21:50.445932  4081 net.cpp:84] Creating Layer Scale30
I1006 21:21:50.445935  4081 net.cpp:406] Scale30 <- Convolution30
I1006 21:21:50.445938  4081 net.cpp:367] Scale30 -> Convolution30 (in-place)
I1006 21:21:50.445968  4081 layer_factory.hpp:77] Creating layer Scale30
I1006 21:21:50.446080  4081 net.cpp:122] Setting up Scale30
I1006 21:21:50.446086  4081 net.cpp:129] Top shape: 100 64 7 7 (313600)
I1006 21:21:50.446089  4081 net.cpp:137] Memory required for data: 501446800
I1006 21:21:50.446094  4081 layer_factory.hpp:77] Creating layer penlu28
I1006 21:21:50.446099  4081 net.cpp:84] Creating Layer penlu28
I1006 21:21:50.446101  4081 net.cpp:406] penlu28 <- Convolution30
I1006 21:21:50.446115  4081 net.cpp:367] penlu28 -> Convolution30 (in-place)
I1006 21:21:50.446236  4081 net.cpp:122] Setting up penlu28
I1006 21:21:50.446243  4081 net.cpp:129] Top shape: 100 64 7 7 (313600)
I1006 21:21:50.446245  4081 net.cpp:137] Memory required for data: 502701200
I1006 21:21:50.446249  4081 layer_factory.hpp:77] Creating layer Convolution31
I1006 21:21:50.446257  4081 net.cpp:84] Creating Layer Convolution31
I1006 21:21:50.446260  4081 net.cpp:406] Convolution31 <- Convolution30
I1006 21:21:50.446265  4081 net.cpp:380] Convolution31 -> Convolution31
I1006 21:21:50.450506  4081 net.cpp:122] Setting up Convolution31
I1006 21:21:50.450517  4081 net.cpp:129] Top shape: 100 64 7 7 (313600)
I1006 21:21:50.450521  4081 net.cpp:137] Memory required for data: 503955600
I1006 21:21:50.450526  4081 layer_factory.hpp:77] Creating layer BatchNorm31
I1006 21:21:50.450532  4081 net.cpp:84] Creating Layer BatchNorm31
I1006 21:21:50.450536  4081 net.cpp:406] BatchNorm31 <- Convolution31
I1006 21:21:50.450541  4081 net.cpp:367] BatchNorm31 -> Convolution31 (in-place)
I1006 21:21:50.450685  4081 net.cpp:122] Setting up BatchNorm31
I1006 21:21:50.450690  4081 net.cpp:129] Top shape: 100 64 7 7 (313600)
I1006 21:21:50.450693  4081 net.cpp:137] Memory required for data: 505210000
I1006 21:21:50.450698  4081 layer_factory.hpp:77] Creating layer Scale31
I1006 21:21:50.450704  4081 net.cpp:84] Creating Layer Scale31
I1006 21:21:50.450707  4081 net.cpp:406] Scale31 <- Convolution31
I1006 21:21:50.450711  4081 net.cpp:367] Scale31 -> Convolution31 (in-place)
I1006 21:21:50.450740  4081 layer_factory.hpp:77] Creating layer Scale31
I1006 21:21:50.450822  4081 net.cpp:122] Setting up Scale31
I1006 21:21:50.450827  4081 net.cpp:129] Top shape: 100 64 7 7 (313600)
I1006 21:21:50.450830  4081 net.cpp:137] Memory required for data: 506464400
I1006 21:21:50.450834  4081 layer_factory.hpp:77] Creating layer Eltwise14
I1006 21:21:50.450839  4081 net.cpp:84] Creating Layer Eltwise14
I1006 21:21:50.450842  4081 net.cpp:406] Eltwise14 <- Eltwise13_penlu27_0_split_1
I1006 21:21:50.450845  4081 net.cpp:406] Eltwise14 <- Convolution31
I1006 21:21:50.450850  4081 net.cpp:380] Eltwise14 -> Eltwise14
I1006 21:21:50.450867  4081 net.cpp:122] Setting up Eltwise14
I1006 21:21:50.450871  4081 net.cpp:129] Top shape: 100 64 7 7 (313600)
I1006 21:21:50.450875  4081 net.cpp:137] Memory required for data: 507718800
I1006 21:21:50.450877  4081 layer_factory.hpp:77] Creating layer penlu29
I1006 21:21:50.450882  4081 net.cpp:84] Creating Layer penlu29
I1006 21:21:50.450886  4081 net.cpp:406] penlu29 <- Eltwise14
I1006 21:21:50.450889  4081 net.cpp:367] penlu29 -> Eltwise14 (in-place)
I1006 21:21:50.451002  4081 net.cpp:122] Setting up penlu29
I1006 21:21:50.451007  4081 net.cpp:129] Top shape: 100 64 7 7 (313600)
I1006 21:21:50.451010  4081 net.cpp:137] Memory required for data: 508973200
I1006 21:21:50.451015  4081 layer_factory.hpp:77] Creating layer Eltwise14_penlu29_0_split
I1006 21:21:50.451020  4081 net.cpp:84] Creating Layer Eltwise14_penlu29_0_split
I1006 21:21:50.451025  4081 net.cpp:406] Eltwise14_penlu29_0_split <- Eltwise14
I1006 21:21:50.451032  4081 net.cpp:380] Eltwise14_penlu29_0_split -> Eltwise14_penlu29_0_split_0
I1006 21:21:50.451040  4081 net.cpp:380] Eltwise14_penlu29_0_split -> Eltwise14_penlu29_0_split_1
I1006 21:21:50.451076  4081 net.cpp:122] Setting up Eltwise14_penlu29_0_split
I1006 21:21:50.451083  4081 net.cpp:129] Top shape: 100 64 7 7 (313600)
I1006 21:21:50.451089  4081 net.cpp:129] Top shape: 100 64 7 7 (313600)
I1006 21:21:50.451093  4081 net.cpp:137] Memory required for data: 511482000
I1006 21:21:50.451098  4081 layer_factory.hpp:77] Creating layer Convolution32
I1006 21:21:50.451109  4081 net.cpp:84] Creating Layer Convolution32
I1006 21:21:50.451114  4081 net.cpp:406] Convolution32 <- Eltwise14_penlu29_0_split_0
I1006 21:21:50.451122  4081 net.cpp:380] Convolution32 -> Convolution32
I1006 21:21:50.457269  4081 net.cpp:122] Setting up Convolution32
I1006 21:21:50.457291  4081 net.cpp:129] Top shape: 100 64 7 7 (313600)
I1006 21:21:50.457295  4081 net.cpp:137] Memory required for data: 512736400
I1006 21:21:50.457307  4081 layer_factory.hpp:77] Creating layer BatchNorm32
I1006 21:21:50.457314  4081 net.cpp:84] Creating Layer BatchNorm32
I1006 21:21:50.457316  4081 net.cpp:406] BatchNorm32 <- Convolution32
I1006 21:21:50.457320  4081 net.cpp:367] BatchNorm32 -> Convolution32 (in-place)
I1006 21:21:50.457486  4081 net.cpp:122] Setting up BatchNorm32
I1006 21:21:50.457494  4081 net.cpp:129] Top shape: 100 64 7 7 (313600)
I1006 21:21:50.457495  4081 net.cpp:137] Memory required for data: 513990800
I1006 21:21:50.457511  4081 layer_factory.hpp:77] Creating layer Scale32
I1006 21:21:50.457515  4081 net.cpp:84] Creating Layer Scale32
I1006 21:21:50.457518  4081 net.cpp:406] Scale32 <- Convolution32
I1006 21:21:50.457522  4081 net.cpp:367] Scale32 -> Convolution32 (in-place)
I1006 21:21:50.457554  4081 layer_factory.hpp:77] Creating layer Scale32
I1006 21:21:50.457638  4081 net.cpp:122] Setting up Scale32
I1006 21:21:50.457643  4081 net.cpp:129] Top shape: 100 64 7 7 (313600)
I1006 21:21:50.457645  4081 net.cpp:137] Memory required for data: 515245200
I1006 21:21:50.457649  4081 layer_factory.hpp:77] Creating layer penlu30
I1006 21:21:50.457656  4081 net.cpp:84] Creating Layer penlu30
I1006 21:21:50.457659  4081 net.cpp:406] penlu30 <- Convolution32
I1006 21:21:50.457664  4081 net.cpp:367] penlu30 -> Convolution32 (in-place)
I1006 21:21:50.457777  4081 net.cpp:122] Setting up penlu30
I1006 21:21:50.457783  4081 net.cpp:129] Top shape: 100 64 7 7 (313600)
I1006 21:21:50.457787  4081 net.cpp:137] Memory required for data: 516499600
I1006 21:21:50.457790  4081 layer_factory.hpp:77] Creating layer Convolution33
I1006 21:21:50.457799  4081 net.cpp:84] Creating Layer Convolution33
I1006 21:21:50.457803  4081 net.cpp:406] Convolution33 <- Convolution32
I1006 21:21:50.457806  4081 net.cpp:380] Convolution33 -> Convolution33
I1006 21:21:50.464290  4081 net.cpp:122] Setting up Convolution33
I1006 21:21:50.464301  4081 net.cpp:129] Top shape: 100 64 7 7 (313600)
I1006 21:21:50.464304  4081 net.cpp:137] Memory required for data: 517754000
I1006 21:21:50.464309  4081 layer_factory.hpp:77] Creating layer BatchNorm33
I1006 21:21:50.464314  4081 net.cpp:84] Creating Layer BatchNorm33
I1006 21:21:50.464318  4081 net.cpp:406] BatchNorm33 <- Convolution33
I1006 21:21:50.464323  4081 net.cpp:367] BatchNorm33 -> Convolution33 (in-place)
I1006 21:21:50.464469  4081 net.cpp:122] Setting up BatchNorm33
I1006 21:21:50.464475  4081 net.cpp:129] Top shape: 100 64 7 7 (313600)
I1006 21:21:50.464478  4081 net.cpp:137] Memory required for data: 519008400
I1006 21:21:50.464483  4081 layer_factory.hpp:77] Creating layer Scale33
I1006 21:21:50.464488  4081 net.cpp:84] Creating Layer Scale33
I1006 21:21:50.464490  4081 net.cpp:406] Scale33 <- Convolution33
I1006 21:21:50.464494  4081 net.cpp:367] Scale33 -> Convolution33 (in-place)
I1006 21:21:50.464524  4081 layer_factory.hpp:77] Creating layer Scale33
I1006 21:21:50.464607  4081 net.cpp:122] Setting up Scale33
I1006 21:21:50.464612  4081 net.cpp:129] Top shape: 100 64 7 7 (313600)
I1006 21:21:50.464615  4081 net.cpp:137] Memory required for data: 520262800
I1006 21:21:50.464619  4081 layer_factory.hpp:77] Creating layer Eltwise15
I1006 21:21:50.464623  4081 net.cpp:84] Creating Layer Eltwise15
I1006 21:21:50.464627  4081 net.cpp:406] Eltwise15 <- Eltwise14_penlu29_0_split_1
I1006 21:21:50.464630  4081 net.cpp:406] Eltwise15 <- Convolution33
I1006 21:21:50.464635  4081 net.cpp:380] Eltwise15 -> Eltwise15
I1006 21:21:50.464653  4081 net.cpp:122] Setting up Eltwise15
I1006 21:21:50.464658  4081 net.cpp:129] Top shape: 100 64 7 7 (313600)
I1006 21:21:50.464661  4081 net.cpp:137] Memory required for data: 521517200
I1006 21:21:50.464664  4081 layer_factory.hpp:77] Creating layer penlu31
I1006 21:21:50.464669  4081 net.cpp:84] Creating Layer penlu31
I1006 21:21:50.464673  4081 net.cpp:406] penlu31 <- Eltwise15
I1006 21:21:50.464676  4081 net.cpp:367] penlu31 -> Eltwise15 (in-place)
I1006 21:21:50.464792  4081 net.cpp:122] Setting up penlu31
I1006 21:21:50.464797  4081 net.cpp:129] Top shape: 100 64 7 7 (313600)
I1006 21:21:50.464808  4081 net.cpp:137] Memory required for data: 522771600
I1006 21:21:50.464813  4081 layer_factory.hpp:77] Creating layer Pooling1
I1006 21:21:50.464819  4081 net.cpp:84] Creating Layer Pooling1
I1006 21:21:50.464823  4081 net.cpp:406] Pooling1 <- Eltwise15
I1006 21:21:50.464826  4081 net.cpp:380] Pooling1 -> Pooling1
I1006 21:21:50.466154  4081 net.cpp:122] Setting up Pooling1
I1006 21:21:50.466161  4081 net.cpp:129] Top shape: 100 64 1 1 (6400)
I1006 21:21:50.466166  4081 net.cpp:137] Memory required for data: 522797200
I1006 21:21:50.466167  4081 layer_factory.hpp:77] Creating layer InnerProduct1
I1006 21:21:50.466177  4081 net.cpp:84] Creating Layer InnerProduct1
I1006 21:21:50.466181  4081 net.cpp:406] InnerProduct1 <- Pooling1
I1006 21:21:50.466186  4081 net.cpp:380] InnerProduct1 -> InnerProduct1
I1006 21:21:50.466296  4081 net.cpp:122] Setting up InnerProduct1
I1006 21:21:50.466302  4081 net.cpp:129] Top shape: 100 10 (1000)
I1006 21:21:50.466305  4081 net.cpp:137] Memory required for data: 522801200
I1006 21:21:50.466310  4081 layer_factory.hpp:77] Creating layer SoftmaxWithLoss1
I1006 21:21:50.466315  4081 net.cpp:84] Creating Layer SoftmaxWithLoss1
I1006 21:21:50.466317  4081 net.cpp:406] SoftmaxWithLoss1 <- InnerProduct1
I1006 21:21:50.466321  4081 net.cpp:406] SoftmaxWithLoss1 <- Data2
I1006 21:21:50.466325  4081 net.cpp:380] SoftmaxWithLoss1 -> SoftmaxWithLoss1
…
I1006 21:21:50.471729  4081 net.cpp:294] The NetState phase (1) differed from the phase (0) specified by a rule in layer Data1
I1006 21:21:50.472457  4081 net.cpp:51] Initializing net from parameters: 
name: "resnet_cifar10"
state {
  phase: TEST
}
layer {
  name: "Data1"
  type: "Data"
  top: "Data1"
  top: "Data2"
  include {
    phase: TEST
  }
  transform_param {
    mean_file: "/home/x306/caffe/xn/PENLU/data/cifar10/mean.binaryproto"
  }
  data_param {
    source: "/home/x306/caffe/xn/PENLU/data/cifar10/cifar10_test_lmdb"
    batch_size: 100
    backend: LMDB
  }
}
layer {
  name: "Convolution1"
  type: "Convolution"
  bottom: "Data1"
  top: "Convolution1"
  param {
    lr_mult: 1
    decay_mult: 1
  }
  param {
    lr_mult: 2
    decay_mult: 0
  }
  convolution_param {
    num_output: 16
    pad: 1
    kernel_size: 3
    stride: 1
    weight_filler {
      type: "gaussian"
      std: 0.118
    }
    bias_filler {
      type: "constant"
      value: 0
    }
  }
}
layer {
  name: "BatchNorm1"
  type: "BatchNorm"
  bottom: "Convolution1"
  top: "Convolution1"
  param {
    lr_mult: 0
    decay_mult: 0
  }
  param {
    lr_mult: 0
    decay_mult: 0
  }
  param {
    lr_mult: 0
    decay_mult: 0
  }
}
layer {
  name: "Scale1"
  type: "Scale"
  bottom: "Convolution1"
  top: "Convolution1"
  scale_param {
    bias_term: true
  }
}
layer {
  name: "penlu1"
  type: "PENLU"
  bottom: "Convolution1"
  top: "Convolution1"
  param {
    lr_mult: 2
    decay_mult: 0
  }
  param {
    lr_mult: 2
    decay_mult: 0
  }
  param {
    lr_mult: 0
    decay_mult: 0
  }
  penlu_param {
    alpha_filler {
      type: "constant"
      value: 1
    }
    beta_filler {
      type: "constant"
      value: 1
    }
    eta_filler {
      type: "constant"
      value: 1
    }
  }
}
layer {
  name: "Convolution2"
  type: "Convolution"
  bottom: "Convolution1"
  top: "Convolution2"
  param {
    lr_mult: 1
    decay_mult: 1
  }
  param {
    lr_mult: 2
    decay_mult: 0
  }
  convolution_param {
    num_output: 16
    pad: 1
    kernel_size: 3
    stride: 1
    weight_filler {
      type: "gaussian"
      std: 0.118
    }
    bias_filler {
      type: "constant"
      value: 0
    }
  }
}
layer {
  name: "BatchNorm2"
  type: "BatchNorm"
  bottom: "Convolution2"
  top: "Convolution2"
  param {
    lr_mult: 0
    decay_mult: 0
  }
  param {
    lr_mult: 0
    decay_mult: 0
  }
  param {
    lr_mult: 0
    decay_mult: 0
  }
}
layer {
  name: "Scale2"
  type: "Scale"
  bottom: "Convolution2"
  top: "Convolution2"
  scale_param {
    bias_term: true
  }
}
layer {
  name: "penlu2"
  type: "PENLU"
  bottom: "Convolution2"
  top: "Convolution2"
  param {
    lr_mult: 2
    decay_mult: 0
  }
  param {
    lr_mult: 2
    decay_mult: 0
  }
  param {
    lr_mult: 0
    decay_mult: 0
  }
  penlu_param {
    alpha_filler {
      type: "constant"
      value: 1
    }
    beta_filler {
      type: "constant"
      value: 1
    }
    eta_filler {
      type: "constant"
      value: 1
    }
  }
}
layer {
  name: "Convolution3"
  type: "Convolution"
  bottom: "Convolution2"
  top: "Convolution3"
  param {
    lr_mult: 1
    decay_mult: 1
  }
  param {
    lr_mult: 2
    decay_mult: 0
  }
  convolution_param {
    num_output: 16
    pad: 1
    kernel_size: 3
    stride: 1
    weight_filler {
      type: "gaussian"
      std: 0.118
    }
    bias_filler {
      type: "constant"
      value: 0
    }
  }
}
layer {
  name: "BatchNorm3"
  type: "BatchNorm"
  bottom: "Convolution3"
  top: "Convolution3"
  param {
    lr_mult: 0
    decay_mult: 0
  }
  param {
    lr_mult: 0
    decay_mult: 0
  }
  param {
    lr_mult: 0
    decay_mult: 0
  }
}
layer {
  name: "Scale3"
  type: "Scale"
  bottom: "Convolution3"
  top: "Convolution3"
  scale_param {
    bias_term: true
  }
}
layer {
  name: "Eltwise1"
  type: "Eltwise"
  bottom: "Convolution1"
  bottom: "Convolution3"
  top: "Eltwise1"
  eltwise_param {
    operation: SUM
  }
}
layer {
  name: "penlu3"
  type: "PENLU"
  bottom: "Eltwise1"
  top: "Eltwise1"
  param {
    lr_mult: 2
    decay_mult: 0
  }
  param {
    lr_mult: 2
    decay_mult: 0
  }
  param {
    lr_mult: 0
    decay_mult: 0
  }
  penlu_param {
    alpha_filler {
      type: "constant"
      value: 1
    }
    beta_filler {
      type: "constant"
      value: 1
    }
    eta_filler {
      type: "constant"
      value: 1
    }
  }
}
layer {
  name: "Convolution4"
  type: "Convolution"
  bottom: "Eltwise1"
  top: "Convolution4"
  param {
    lr_mult: 1
    decay_mult: 1
  }
  param {
    lr_mult: 2
    decay_mult: 0
  }
  convolution_param {
    num_output: 16
    pad: 1
    kernel_size: 3
    stride: 1
    weight_filler {
      type: "gaussian"
      std: 0.118
    }
    bias_filler {
      type: "constant"
      value: 0
    }
  }
}
layer {
  name: "BatchNorm4"
  type: "BatchNorm"
  bottom: "Convolution4"
  top: "Convolution4"
  param {
    lr_mult: 0
    decay_mult: 0
  }
  param {
    lr_mult: 0
    decay_mult: 0
  }
  param {
    lr_mult: 0
    decay_mult: 0
  }
}
layer {
  name: "Scale4"
  type: "Scale"
  bottom: "Convolution4"
  top: "Convolution4"
  scale_param {
    bias_term: true
  }
}
layer {
  name: "penlu4"
  type: "PENLU"
  bottom: "Convolution4"
  top: "Convolution4"
  param {
    lr_mult: 2
    decay_mult: 0
  }
  param {
    lr_mult: 2
    decay_mult: 0
  }
  param {
    lr_mult: 0
    decay_mult: 0
  }
  penlu_param {
    alpha_filler {
      type: "constant"
      value: 1
    }
    beta_filler {
      type: "constant"
      value: 1
    }
    eta_filler {
      type: "constant"
      value: 1
    }
  }
}
layer {
  name: "Convolution5"
  type: "Convolution"
  bottom: "Convolution4"
  top: "Convolution5"
  param {
    lr_mult: 1
    decay_mult: 1
  }
  param {
    lr_mult: 2
    decay_mult: 0
  }
  convolution_param {
    num_output: 16
    pad: 1
    kernel_size: 3
    stride: 1
    weight_filler {
      type: "gaussian"
      std: 0.118
    }
    bias_filler {
      type: "constant"
      value: 0
    }
  }
}
layer {
  name: "BatchNorm5"
  type: "BatchNorm"
  bottom: "Convolution5"
  top: "Convolution5"
  param {
    lr_mult: 0
    decay_mult: 0
  }
  param {
    lr_mult: 0
    decay_mult: 0
  }
  param {
    lr_mult: 0
    decay_mult: 0
  }
}
layer {
  name: "Scale5"
  type: "Scale"
  bottom: "Convolution5"
  top: "Convolution5"
  scale_param {
    bias_term: true
  }
}
layer {
  name: "Eltwise2"
  type: "Eltwise"
  bottom: "Eltwise1"
  bottom: "Convolution5"
  top: "Eltwise2"
  eltwise_param {
    operation: SUM
  }
}
layer {
  name: "penlu5"
  type: "PENLU"
  bottom: "Eltwise2"
  top: "Eltwise2"
  param {
    lr_mult: 2
    decay_mult: 0
  }
  param {
    lr_mult: 2
    decay_mult: 0
  }
  param {
    lr_mult: 0
    decay_mult: 0
  }
  penlu_param {
    alpha_filler {
      type: "constant"
      value: 1
    }
    beta_filler {
      type: "constant"
      value: 1
    }
    eta_filler {
      type: "constant"
      value: 1
    }
  }
}
layer {
  name: "Convolution6"
  type: "Convolution"
  bottom: "Eltwise2"
  top: "Convolution6"
  param {
    lr_mult: 1
    decay_mult: 1
  }
  param {
    lr_mult: 2
    decay_mult: 0
  }
  convolution_param {
    num_output: 16
    pad: 1
    kernel_size: 3
    stride: 1
    weight_filler {
      type: "gaussian"
      std: 0.118
    }
    bias_filler {
      type: "constant"
      value: 0
    }
  }
}
layer {
  name: "BatchNorm6"
  type: "BatchNorm"
  bottom: "Convolution6"
  top: "Convolution6"
  param {
    lr_mult: 0
    decay_mult: 0
  }
  param {
    lr_mult: 0
    decay_mult: 0
  }
  param {
    lr_mult: 0
    decay_mult: 0
  }
}
layer {
  name: "Scale6"
  type: "Scale"
  bottom: "Convolution6"
  top: "Convolution6"
  scale_param {
    bias_term: true
  }
}
layer {
  name: "penlu6"
  type: "PENLU"
  bottom: "Convolution6"
  top: "Convolution6"
  param {
    lr_mult: 2
    decay_mult: 0
  }
  param {
    lr_mult: 2
    decay_mult: 0
  }
  param {
    lr_mult: 0
    decay_mult: 0
  }
  penlu_param {
    alpha_filler {
      type: "constant"
      value: 1
    }
    beta_filler {
      type: "constant"
      value: 1
    }
    eta_filler {
      type: "constant"
      value: 1
    }
  }
}
layer {
  name: "Convolution7"
  type: "Convolution"
  bottom: "Convolution6"
  top: "Convolution7"
  param {
    lr_mult: 1
    decay_mult: 1
  }
  param {
    lr_mult: 2
    decay_mult: 0
  }
  convolution_param {
    num_output: 16
    pad: 1
    kernel_size: 3
    stride: 1
    weight_filler {
      type: "gaussian"
      std: 0.118
    }
    bias_filler {
      type: "constant"
      value: 0
    }
  }
}
layer {
  name: "BatchNorm7"
  type: "BatchNorm"
  bottom: "Convolution7"
  top: "Convolution7"
  param {
    lr_mult: 0
    decay_mult: 0
  }
  param {
    lr_mult: 0
    decay_mult: 0
  }
  param {
    lr_mult: 0
    decay_mult: 0
  }
}
layer {
  name: "Scale7"
  type: "Scale"
  bottom: "Convolution7"
  top: "Convolution7"
  scale_param {
    bias_term: true
  }
}
layer {
  name: "Eltwise3"
  type: "Eltwise"
  bottom: "Eltwise2"
  bottom: "Convolution7"
  top: "Eltwise3"
  eltwise_param {
    operation: SUM
  }
}
layer {
  name: "penlu7"
  type: "PENLU"
  bottom: "Eltwise3"
  top: "Eltwise3"
  param {
    lr_mult: 2
    decay_mult: 0
  }
  param {
    lr_mult: 2
    decay_mult: 0
  }
  param {
    lr_mult: 0
    decay_mult: 0
  }
  penlu_param {
    alpha_filler {
      type: "constant"
      value: 1
    }
    beta_filler {
      type: "constant"
      value: 1
    }
    eta_filler {
      type: "constant"
      value: 1
    }
  }
}
layer {
  name: "Convolution8"
  type: "Convolution"
  bottom: "Eltwise3"
  top: "Convolution8"
  param {
    lr_mult: 1
    decay_mult: 1
  }
  param {
    lr_mult: 2
    decay_mult: 0
  }
  convolution_param {
    num_output: 16
    pad: 1
    kernel_size: 3
    stride: 1
    weight_filler {
      type: "gaussian"
      std: 0.118
    }
    bias_filler {
      type: "constant"
      value: 0
    }
  }
}
layer {
  name: "BatchNorm8"
  type: "BatchNorm"
  bottom: "Convolution8"
  top: "Convolution8"
  param {
    lr_mult: 0
    decay_mult: 0
  }
  param {
    lr_mult: 0
    decay_mult: 0
  }
  param {
    lr_mult: 0
    decay_mult: 0
  }
}
layer {
  name: "Scale8"
  type: "Scale"
  bottom: "Convolution8"
  top: "Convolution8"
  scale_param {
    bias_term: true
  }
}
layer {
  name: "penlu8"
  type: "PENLU"
  bottom: "Convolution8"
  top: "Convolution8"
  param {
    lr_mult: 2
    decay_mult: 0
  }
  param {
    lr_mult: 2
    decay_mult: 0
  }
  param {
    lr_mult: 0
    decay_mult: 0
  }
  penlu_param {
    alpha_filler {
      type: "constant"
      value: 1
    }
    beta_filler {
      type: "constant"
      value: 1
    }
    eta_filler {
      type: "constant"
      value: 1
    }
  }
}
layer {
  name: "Convolution9"
  type: "Convolution"
  bottom: "Convolution8"
  top: "Convolution9"
  param {
    lr_mult: 1
    decay_mult: 1
  }
  param {
    lr_mult: 2
    decay_mult: 0
  }
  convolution_param {
    num_output: 16
    pad: 1
    kernel_size: 3
    stride: 1
    weight_filler {
      type: "gaussian"
      std: 0.118
    }
    bias_filler {
      type: "constant"
      value: 0
    }
  }
}
layer {
  name: "BatchNorm9"
  type: "BatchNorm"
  bottom: "Convolution9"
  top: "Convolution9"
  param {
    lr_mult: 0
    decay_mult: 0
  }
  param {
    lr_mult: 0
    decay_mult: 0
  }
  param {
    lr_mult: 0
    decay_mult: 0
  }
}
layer {
  name: "Scale9"
  type: "Scale"
  bottom: "Convolution9"
  top: "Convolution9"
  scale_param {
    bias_term: true
  }
}
layer {
  name: "Eltwise4"
  type: "Eltwise"
  bottom: "Eltwise3"
  bottom: "Convolution9"
  top: "Eltwise4"
  eltwise_param {
    operation: SUM
  }
}
layer {
  name: "penlu9"
  type: "PENLU"
  bottom: "Eltwise4"
  top: "Eltwise4"
  param {
    lr_mult: 2
    decay_mult: 0
  }
  param {
    lr_mult: 2
    decay_mult: 0
  }
  param {
    lr_mult: 0
    decay_mult: 0
  }
  penlu_param {
    alpha_filler {
      type: "constant"
      value: 1
    }
    beta_filler {
      type: "constant"
      value: 1
    }
    eta_filler {
      type: "constant"
      value: 1
    }
  }
}
layer {
  name: "Convolution10"
  type: "Convolution"
  bottom: "Eltwise4"
  top: "Convolution10"
  param {
    lr_mult: 1
    decay_mult: 1
  }
  param {
    lr_mult: 2
    decay_mult: 0
  }
  convolution_param {
    num_output: 16
    pad: 1
    kernel_size: 3
    stride: 1
    weight_filler {
      type: "gaussian"
      std: 0.118
    }
    bias_filler {
      type: "constant"
      value: 0
    }
  }
}
layer {
  name: "BatchNorm10"
  type: "BatchNorm"
  bottom: "Convolution10"
  top: "Convolution10"
  param {
    lr_mult: 0
    decay_mult: 0
  }
  param {
    lr_mult: 0
    decay_mult: 0
  }
  param {
    lr_mult: 0
    decay_mult: 0
  }
}
layer {
  name: "Scale10"
  type: "Scale"
  bottom: "Convolution10"
  top: "Convolution10"
  scale_param {
    bias_term: true
  }
}
layer {
  name: "penlu10"
  type: "PENLU"
  bottom: "Convolution10"
  top: "Convolution10"
  param {
    lr_mult: 2
    decay_mult: 0
  }
  param {
    lr_mult: 2
    decay_mult: 0
  }
  param {
    lr_mult: 0
    decay_mult: 0
  }
  penlu_param {
    alpha_filler {
      type: "constant"
      value: 1
    }
    beta_filler {
      type: "constant"
      value: 1
    }
    eta_filler {
      type: "constant"
      value: 1
    }
  }
}
layer {
  name: "Convolution11"
  type: "Convolution"
  bottom: "Convolution10"
  top: "Convolution11"
  param {
    lr_mult: 1
    decay_mult: 1
  }
  param {
    lr_mult: 2
    decay_mult: 0
  }
  convolution_param {
    num_output: 16
    pad: 1
    kernel_size: 3
    stride: 1
    weight_filler {
      type: "gaussian"
      std: 0.118
    }
    bias_filler {
      type: "constant"
      value: 0
    }
  }
}
layer {
  name: "BatchNorm11"
  type: "BatchNorm"
  bottom: "Convolution11"
  top: "Convolution11"
  param {
    lr_mult: 0
    decay_mult: 0
  }
  param {
    lr_mult: 0
    decay_mult: 0
  }
  param {
    lr_mult: 0
    decay_mult: 0
  }
}
layer {
  name: "Scale11"
  type: "Scale"
  bottom: "Convolution11"
  top: "Convolution11"
  scale_param {
    bias_term: true
  }
}
layer {
  name: "Eltwise5"
  type: "Eltwise"
  bottom: "Eltwise4"
  bottom: "Convolution11"
  top: "Eltwise5"
  eltwise_param {
    operation: SUM
  }
}
layer {
  name: "penlu11"
  type: "PENLU"
  bottom: "Eltwise5"
  top: "Eltwise5"
  param {
    lr_mult: 2
    decay_mult: 0
  }
  param {
    lr_mult: 2
    decay_mult: 0
  }
  param {
    lr_mult: 0
    decay_mult: 0
  }
  penlu_param {
    alpha_filler {
      type: "constant"
      value: 1
    }
    beta_filler {
      type: "constant"
      value: 1
    }
    eta_filler {
      type: "constant"
      value: 1
    }
  }
}
layer {
  name: "Convolution12"
  type: "Convolution"
  bottom: "Eltwise5"
  top: "Convolution12"
  param {
    lr_mult: 1
    decay_mult: 1
  }
  param {
    lr_mult: 2
    decay_mult: 0
  }
  convolution_param {
    num_output: 32
    pad: 0
    kernel_size: 1
    stride: 2
    weight_filler {
      type: "gaussian"
      std: 0.25
    }
    bias_filler {
      type: "constant"
      value: 0
    }
  }
}
layer {
  name: "BatchNorm12"
  type: "BatchNorm"
  bottom: "Convolution12"
  top: "Convolution12"
  param {
    lr_mult: 0
    decay_mult: 0
  }
  param {
    lr_mult: 0
    decay_mult: 0
  }
  param {
    lr_mult: 0
    decay_mult: 0
  }
}
layer {
  name: "Scale12"
  type: "Scale"
  bottom: "Convolution12"
  top: "Convolution12"
  scale_param {
    bias_term: true
  }
}
layer {
  name: "Convolution13"
  type: "Convolution"
  bottom: "Eltwise5"
  top: "Convolution13"
  param {
    lr_mult: 1
    decay_mult: 1
  }
  param {
    lr_mult: 2
    decay_mult: 0
  }
  convolution_param {
    num_output: 32
    pad: 1
    kernel_size: 3
    stride: 2
    weight_filler {
      type: "gaussian"
      std: 0.083
    }
    bias_filler {
      type: "constant"
      value: 0
    }
  }
}
layer {
  name: "BatchNorm13"
  type: "BatchNorm"
  bottom: "Convolution13"
  top: "Convolution13"
  param {
    lr_mult: 0
    decay_mult: 0
  }
  param {
    lr_mult: 0
    decay_mult: 0
  }
  param {
    lr_mult: 0
    decay_mult: 0
  }
}
layer {
  name: "Scale13"
  type: "Scale"
  bottom: "Convolution13"
  top: "Convolution13"
  scale_param {
    bias_term: true
  }
}
layer {
  name: "penlu12"
  type: "PENLU"
  bottom: "Convolution13"
  top: "Convolution13"
  param {
    lr_mult: 2
    decay_mult: 0
  }
  param {
    lr_mult: 2
    decay_mult: 0
  }
  param {
    lr_mult: 0
    decay_mult: 0
  }
  penlu_param {
    alpha_filler {
      type: "constant"
      value: 1
    }
    beta_filler {
      type: "constant"
      value: 1
    }
    eta_filler {
      type: "constant"
      value: 1
    }
  }
}
layer {
  name: "Convolution14"
  type: "Convolution"
  bottom: "Convolution13"
  top: "Convolution14"
  param {
    lr_mult: 1
    decay_mult: 1
  }
  param {
    lr_mult: 2
    decay_mult: 0
  }
  convolution_param {
    num_output: 32
    pad: 1
    kernel_size: 3
    stride: 1
    weight_filler {
      type: "gaussian"
      std: 0.083
    }
    bias_filler {
      type: "constant"
      value: 0
    }
  }
}
layer {
  name: "BatchNorm14"
  type: "BatchNorm"
  bottom: "Convolution14"
  top: "Convolution14"
  param {
    lr_mult: 0
    decay_mult: 0
  }
  param {
    lr_mult: 0
    decay_mult: 0
  }
  param {
    lr_mult: 0
    decay_mult: 0
  }
}
layer {
  name: "Scale14"
  type: "Scale"
  bottom: "Convolution14"
  top: "Convolution14"
  scale_param {
    bias_term: true
  }
}
layer {
  name: "Eltwise6"
  type: "Eltwise"
  bottom: "Convolution12"
  bottom: "Convolution14"
  top: "Eltwise6"
  eltwise_param {
    operation: SUM
  }
}
layer {
  name: "penlu13"
  type: "PENLU"
  bottom: "Eltwise6"
  top: "Eltwise6"
  param {
    lr_mult: 2
    decay_mult: 0
  }
  param {
    lr_mult: 2
    decay_mult: 0
  }
  param {
    lr_mult: 0
    decay_mult: 0
  }
  penlu_param {
    alpha_filler {
      type: "constant"
      value: 1
    }
    beta_filler {
      type: "constant"
      value: 1
    }
    eta_filler {
      type: "constant"
      value: 1
    }
  }
}
layer {
  name: "Convolution15"
  type: "Convolution"
  bottom: "Eltwise6"
  top: "Convolution15"
  param {
    lr_mult: 1
    decay_mult: 1
  }
  param {
    lr_mult: 2
    decay_mult: 0
  }
  convolution_param {
    num_output: 32
    pad: 1
    kernel_size: 3
    stride: 1
    weight_filler {
      type: "gaussian"
      std: 0.083
    }
    bias_filler {
      type: "constant"
      value: 0
    }
  }
}
layer {
  name: "BatchNorm15"
  type: "BatchNorm"
  bottom: "Convolution15"
  top: "Convolution15"
  param {
    lr_mult: 0
    decay_mult: 0
  }
  param {
    lr_mult: 0
    decay_mult: 0
  }
  param {
    lr_mult: 0
    decay_mult: 0
  }
}
layer {
  name: "Scale15"
  type: "Scale"
  bottom: "Convolution15"
  top: "Convolution15"
  scale_param {
    bias_term: true
  }
}
layer {
  name: "penlu14"
  type: "PENLU"
  bottom: "Convolution15"
  top: "Convolution15"
  param {
    lr_mult: 2
    decay_mult: 0
  }
  param {
    lr_mult: 2
    decay_mult: 0
  }
  param {
    lr_mult: 0
    decay_mult: 0
  }
  penlu_param {
    alpha_filler {
      type: "constant"
      value: 1
    }
    beta_filler {
      type: "constant"
      value: 1
    }
    eta_filler {
      type: "constant"
      value: 1
    }
  }
}
layer {
  name: "Convolution16"
  type: "Convolution"
  bottom: "Convolution15"
  top: "Convolution16"
  param {
    lr_mult: 1
    decay_mult: 1
  }
  param {
    lr_mult: 2
    decay_mult: 0
  }
  convolution_param {
    num_output: 32
    pad: 1
    kernel_size: 3
    stride: 1
    weight_filler {
      type: "gaussian"
      std: 0.083
    }
    bias_filler {
      type: "constant"
      value: 0
    }
  }
}
layer {
  name: "BatchNorm16"
  type: "BatchNorm"
  bottom: "Convolution16"
  top: "Convolution16"
  param {
    lr_mult: 0
    decay_mult: 0
  }
  param {
    lr_mult: 0
    decay_mult: 0
  }
  param {
    lr_mult: 0
    decay_mult: 0
  }
}
layer {
  name: "Scale16"
  type: "Scale"
  bottom: "Convolution16"
  top: "Convolution16"
  scale_param {
    bias_term: true
  }
}
layer {
  name: "Eltwise7"
  type: "Eltwise"
  bottom: "Eltwise6"
  bottom: "Convolution16"
  top: "Eltwise7"
  eltwise_param {
    operation: SUM
  }
}
layer {
  name: "penlu15"
  type: "PENLU"
  bottom: "Eltwise7"
  top: "Eltwise7"
  param {
    lr_mult: 2
    decay_mult: 0
  }
  param {
    lr_mult: 2
    decay_mult: 0
  }
  param {
    lr_mult: 0
    decay_mult: 0
  }
  penlu_param {
    alpha_filler {
      type: "constant"
      value: 1
    }
    beta_filler {
      type: "constant"
      value: 1
    }
    eta_filler {
      type: "constant"
      value: 1
    }
  }
}
layer {
  name: "Convolution17"
  type: "Convolution"
  bottom: "Eltwise7"
  top: "Convolution17"
  param {
    lr_mult: 1
    decay_mult: 1
  }
  param {
    lr_mult: 2
    decay_mult: 0
  }
  convolution_param {
    num_output: 32
    pad: 1
    kernel_size: 3
    stride: 1
    weight_filler {
      type: "gaussian"
      std: 0.083
    }
    bias_filler {
      type: "constant"
      value: 0
    }
  }
}
layer {
  name: "BatchNorm17"
  type: "BatchNorm"
  bottom: "Convolution17"
  top: "Convolution17"
  param {
    lr_mult: 0
    decay_mult: 0
  }
  param {
    lr_mult: 0
    decay_mult: 0
  }
  param {
    lr_mult: 0
    decay_mult: 0
  }
}
layer {
  name: "Scale17"
  type: "Scale"
  bottom: "Convolution17"
  top: "Convolution17"
  scale_param {
    bias_term: true
  }
}
layer {
  name: "penlu16"
  type: "PENLU"
  bottom: "Convolution17"
  top: "Convolution17"
  param {
    lr_mult: 2
    decay_mult: 0
  }
  param {
    lr_mult: 2
    decay_mult: 0
  }
  param {
    lr_mult: 0
    decay_mult: 0
  }
  penlu_param {
    alpha_filler {
      type: "constant"
      value: 1
    }
    beta_filler {
      type: "constant"
      value: 1
    }
    eta_filler {
      type: "constant"
      value: 1
    }
  }
}
layer {
  name: "Convolution18"
  type: "Convolution"
  bottom: "Convolution17"
  top: "Convolution18"
  param {
    lr_mult: 1
    decay_mult: 1
  }
  param {
    lr_mult: 2
    decay_mult: 0
  }
  convolution_param {
    num_output: 32
    pad: 1
    kernel_size: 3
    stride: 1
    weight_filler {
      type: "gaussian"
      std: 0.083
    }
    bias_filler {
      type: "constant"
      value: 0
    }
  }
}
layer {
  name: "BatchNorm18"
  type: "BatchNorm"
  bottom: "Convolution18"
  top: "Convolution18"
  param {
    lr_mult: 0
    decay_mult: 0
  }
  param {
    lr_mult: 0
    decay_mult: 0
  }
  param {
    lr_mult: 0
    decay_mult: 0
  }
}
layer {
  name: "Scale18"
  type: "Scale"
  bottom: "Convolution18"
  top: "Convolution18"
  scale_param {
    bias_term: true
  }
}
layer {
  name: "Eltwise8"
  type: "Eltwise"
  bottom: "Eltwise7"
  bottom: "Convolution18"
  top: "Eltwise8"
  eltwise_param {
    operation: SUM
  }
}
layer {
  name: "penlu17"
  type: "PENLU"
  bottom: "Eltwise8"
  top: "Eltwise8"
  param {
    lr_mult: 2
    decay_mult: 0
  }
  param {
    lr_mult: 2
    decay_mult: 0
  }
  param {
    lr_mult: 0
    decay_mult: 0
  }
  penlu_param {
    alpha_filler {
      type: "constant"
      value: 1
    }
    beta_filler {
      type: "constant"
      value: 1
    }
    eta_filler {
      type: "constant"
      value: 1
    }
  }
}
layer {
  name: "Convolution19"
  type: "Convolution"
  bottom: "Eltwise8"
  top: "Convolution19"
  param {
    lr_mult: 1
    decay_mult: 1
  }
  param {
    lr_mult: 2
    decay_mult: 0
  }
  convolution_param {
    num_output: 32
    pad: 1
    kernel_size: 3
    stride: 1
    weight_filler {
      type: "gaussian"
      std: 0.083
    }
    bias_filler {
      type: "constant"
      value: 0
    }
  }
}
layer {
  name: "BatchNorm19"
  type: "BatchNorm"
  bottom: "Convolution19"
  top: "Convolution19"
  param {
    lr_mult: 0
    decay_mult: 0
  }
  param {
    lr_mult: 0
    decay_mult: 0
  }
  param {
    lr_mult: 0
    decay_mult: 0
  }
}
layer {
  name: "Scale19"
  type: "Scale"
  bottom: "Convolution19"
  top: "Convolution19"
  scale_param {
    bias_term: true
  }
}
layer {
  name: "penlu18"
  type: "PENLU"
  bottom: "Convolution19"
  top: "Convolution19"
  param {
    lr_mult: 2
    decay_mult: 0
  }
  param {
    lr_mult: 2
    decay_mult: 0
  }
  param {
    lr_mult: 0
    decay_mult: 0
  }
  penlu_param {
    alpha_filler {
      type: "constant"
      value: 1
    }
    beta_filler {
      type: "constant"
      value: 1
    }
    eta_filler {
      type: "constant"
      value: 1
    }
  }
}
layer {
  name: "Convolution20"
  type: "Convolution"
  bottom: "Convolution19"
  top: "Convolution20"
  param {
    lr_mult: 1
    decay_mult: 1
  }
  param {
    lr_mult: 2
    decay_mult: 0
  }
  convolution_param {
    num_output: 32
    pad: 1
    kernel_size: 3
    stride: 1
    weight_filler {
      type: "gaussian"
      std: 0.083
    }
    bias_filler {
      type: "constant"
      value: 0
    }
  }
}
layer {
  name: "BatchNorm20"
  type: "BatchNorm"
  bottom: "Convolution20"
  top: "Convolution20"
  param {
    lr_mult: 0
    decay_mult: 0
  }
  param {
    lr_mult: 0
    decay_mult: 0
  }
  param {
    lr_mult: 0
    decay_mult: 0
  }
}
layer {
  name: "Scale20"
  type: "Scale"
  bottom: "Convolution20"
  top: "Convolution20"
  scale_param {
    bias_term: true
  }
}
layer {
  name: "Eltwise9"
  type: "Eltwise"
  bottom: "Eltwise8"
  bottom: "Convolution20"
  top: "Eltwise9"
  eltwise_param {
    operation: SUM
  }
}
layer {
  name: "penlu19"
  type: "PENLU"
  bottom: "Eltwise9"
  top: "Eltwise9"
  param {
    lr_mult: 2
    decay_mult: 0
  }
  param {
    lr_mult: 2
    decay_mult: 0
  }
  param {
    lr_mult: 0
    decay_mult: 0
  }
  penlu_param {
    alpha_filler {
      type: "constant"
      value: 1
    }
    beta_filler {
      type: "constant"
      value: 1
    }
    eta_filler {
      type: "constant"
      value: 1
    }
  }
}
layer {
  name: "Convolution21"
  type: "Convolution"
  bottom: "Eltwise9"
  top: "Convolution21"
  param {
    lr_mult: 1
    decay_mult: 1
  }
  param {
    lr_mult: 2
    decay_mult: 0
  }
  convolution_param {
    num_output: 32
    pad: 1
    kernel_size: 3
    stride: 1
    weight_filler {
      type: "gaussian"
      std: 0.083
    }
    bias_filler {
      type: "constant"
      value: 0
    }
  }
}
layer {
  name: "BatchNorm21"
  type: "BatchNorm"
  bottom: "Convolution21"
  top: "Convolution21"
  param {
    lr_mult: 0
    decay_mult: 0
  }
  param {
    lr_mult: 0
    decay_mult: 0
  }
  param {
    lr_mult: 0
    decay_mult: 0
  }
}
layer {
  name: "Scale21"
  type: "Scale"
  bottom: "Convolution21"
  top: "Convolution21"
  scale_param {
    bias_term: true
  }
}
layer {
  name: "penlu20"
  type: "PENLU"
  bottom: "Convolution21"
  top: "Convolution21"
  param {
    lr_mult: 2
    decay_mult: 0
  }
  param {
    lr_mult: 2
    decay_mult: 0
  }
  param {
    lr_mult: 0
    decay_mult: 0
  }
  penlu_param {
    alpha_filler {
      type: "constant"
      value: 1
    }
    beta_filler {
      type: "constant"
      value: 1
    }
    eta_filler {
      type: "constant"
      value: 1
    }
  }
}
layer {
  name: "Convolution22"
  type: "Convolution"
  bottom: "Convolution21"
  top: "Convolution22"
  param {
    lr_mult: 1
    decay_mult: 1
  }
  param {
    lr_mult: 2
    decay_mult: 0
  }
  convolution_param {
    num_output: 32
    pad: 1
    kernel_size: 3
    stride: 1
    weight_filler {
      type: "gaussian"
      std: 0.083
    }
    bias_filler {
      type: "constant"
      value: 0
    }
  }
}
layer {
  name: "BatchNorm22"
  type: "BatchNorm"
  bottom: "Convolution22"
  top: "Convolution22"
  param {
    lr_mult: 0
    decay_mult: 0
  }
  param {
    lr_mult: 0
    decay_mult: 0
  }
  param {
    lr_mult: 0
    decay_mult: 0
  }
}
layer {
  name: "Scale22"
  type: "Scale"
  bottom: "Convolution22"
  top: "Convolution22"
  scale_param {
    bias_term: true
  }
}
layer {
  name: "Eltwise10"
  type: "Eltwise"
  bottom: "Eltwise9"
  bottom: "Convolution22"
  top: "Eltwise10"
  eltwise_param {
    operation: SUM
  }
}
layer {
  name: "penlu21"
  type: "PENLU"
  bottom: "Eltwise10"
  top: "Eltwise10"
  param {
    lr_mult: 2
    decay_mult: 0
  }
  param {
    lr_mult: 2
    decay_mult: 0
  }
  param {
    lr_mult: 0
    decay_mult: 0
  }
  penlu_param {
    alpha_filler {
      type: "constant"
      value: 1
    }
    beta_filler {
      type: "constant"
      value: 1
    }
    eta_filler {
      type: "constant"
      value: 1
    }
  }
}
layer {
  name: "Convolution23"
  type: "Convolution"
  bottom: "Eltwise10"
  top: "Convolution23"
  param {
    lr_mult: 1
    decay_mult: 1
  }
  param {
    lr_mult: 2
    decay_mult: 0
  }
  convolution_param {
    num_output: 64
    pad: 0
    kernel_size: 1
    stride: 2
    weight_filler {
      type: "gaussian"
      std: 0.17677669
    }
    bias_filler {
      type: "constant"
      value: 0
    }
  }
}
layer {
  name: "BatchNorm23"
  type: "BatchNorm"
  bottom: "Convolution23"
  top: "Convolution23"
  param {
    lr_mult: 0
    decay_mult: 0
  }
  param {
    lr_mult: 0
    decay_mult: 0
  }
  param {
    lr_mult: 0
    decay_mult: 0
  }
}
layer {
  name: "Scale23"
  type: "Scale"
  bottom: "Convolution23"
  top: "Convolution23"
  scale_param {
    bias_term: true
  }
}
layer {
  name: "Convolution24"
  type: "Convolution"
  bottom: "Eltwise10"
  top: "Convolution24"
  param {
    lr_mult: 1
    decay_mult: 1
  }
  param {
    lr_mult: 2
    decay_mult: 0
  }
  convolution_param {
    num_output: 64
    pad: 1
    kernel_size: 3
    stride: 2
    weight_filler {
      type: "gaussian"
      std: 0.059
    }
    bias_filler {
      type: "constant"
      value: 0
    }
  }
}
layer {
  name: "BatchNorm24"
  type: "BatchNorm"
  bottom: "Convolution24"
  top: "Convolution24"
  param {
    lr_mult: 0
    decay_mult: 0
  }
  param {
    lr_mult: 0
    decay_mult: 0
  }
  param {
    lr_mult: 0
    decay_mult: 0
  }
}
layer {
  name: "Scale24"
  type: "Scale"
  bottom: "Convolution24"
  top: "Convolution24"
  scale_param {
    bias_term: true
  }
}
layer {
  name: "penlu22"
  type: "PENLU"
 
I1006 21:21:50.472870  4081 layer_factory.hpp:77] Creating layer Data1
I1006 21:21:50.472903  4081 db_lmdb.cpp:35] Opened lmdb /home/x306/caffe/xn/PENLU/data/cifar10/cifar10_test_lmdb
I1006 21:21:50.472921  4081 net.cpp:84] Creating Layer Data1
I1006 21:21:50.472925  4081 net.cpp:380] Data1 -> Data1
I1006 21:21:50.472931  4081 net.cpp:380] Data1 -> Data2
I1006 21:21:50.472936  4081 data_transformer.cpp:25] Loading mean file from: /home/x306/caffe/xn/PENLU/data/cifar10/mean.binaryproto
I1006 21:21:50.473053  4081 data_layer.cpp:45] output data size: 100,3,32,32
I1006 21:21:50.483573  4081 net.cpp:122] Setting up Data1
I1006 21:21:50.483602  4081 net.cpp:129] Top shape: 100 3 32 32 (307200)
I1006 21:21:50.483608  4081 net.cpp:129] Top shape: 100 (100)
…
I1006 21:21:50.572643  4081 net.cpp:129] Top shape: 100 32 16 16 (819200)
I1006 21:21:50.572645  4081 net.cpp:137] Memory required for data: 459982000
I1006 21:21:50.572649  4081 layer_factory.hpp:77] Creating layer Convolution16
I1006 21:21:50.572656  4081 net.cpp:84] Creating Layer Convolution16
I1006 21:21:50.572659  4081 net.cpp:406] Convolution16 <- Convolution15
I1006 21:21:50.572664  4081 net.cpp:380] Convolution16 -> Convolution16
I1006 21:21:50.578788  4081 net.cpp:122] Setting up Convolution16
I1006 21:21:50.578799  4081 net.cpp:129] Top shape: 100 32 16 16 (819200)
I1006 21:21:50.578801  4081 net.cpp:137] Memory required for data: 463258800
I1006 21:21:50.578806  4081 layer_factory.hpp:77] Creating layer BatchNorm16
I1006 21:21:50.578811  4081 net.cpp:84] Creating Layer BatchNorm16
I1006 21:21:50.578815  4081 net.cpp:406] BatchNorm16 <- Convolution16
I1006 21:21:50.578819  4081 net.cpp:367] BatchNorm16 -> Convolution16 (in-place)
I1006 21:21:50.578970  4081 net.cpp:122] Setting up BatchNorm16
I1006 21:21:50.578975  4081 net.cpp:129] Top shape: 100 32 16 16 (819200)
I1006 21:21:50.578977  4081 net.cpp:137] Memory required for data: 466535600
I1006 21:21:50.578982  4081 layer_factory.hpp:77] Creating layer Scale16
I1006 21:21:50.578986  4081 net.cpp:84] Creating Layer Scale16
I1006 21:21:50.578989  4081 net.cpp:406] Scale16 <- Convolution16
I1006 21:21:50.578994  4081 net.cpp:367] Scale16 -> Convolution16 (in-place)
I1006 21:21:50.579023  4081 layer_factory.hpp:77] Creating layer Scale16
I1006 21:21:50.579111  4081 net.cpp:122] Setting up Scale16
I1006 21:21:50.579116  4081 net.cpp:129] Top shape: 100 32 16 16 (819200)
I1006 21:21:50.579118  4081 net.cpp:137] Memory required for data: 469812400
I1006 21:21:50.579123  4081 layer_factory.hpp:77] Creating layer Eltwise7
I1006 21:21:50.579126  4081 net.cpp:84] Creating Layer Eltwise7
I1006 21:21:50.579129  4081 net.cpp:406] Eltwise7 <- Eltwise6_penlu13_0_split_1
I1006 21:21:50.579133  4081 net.cpp:406] Eltwise7 <- Convolution16
I1006 21:21:50.579136  4081 net.cpp:380] Eltwise7 -> Eltwise7
I1006 21:21:50.579151  4081 net.cpp:122] Setting up Eltwise7
I1006 21:21:50.579155  4081 net.cpp:129] Top shape: 100 32 16 16 (819200)
I1006 21:21:50.579157  4081 net.cpp:137] Memory required for data: 473089200
I1006 21:21:50.579160  4081 layer_factory.hpp:77] Creating layer penlu15
I1006 21:21:50.579169  4081 net.cpp:84] Creating Layer penlu15
I1006 21:21:50.579174  4081 net.cpp:406] penlu15 <- Eltwise7
I1006 21:21:50.579176  4081 net.cpp:367] penlu15 -> Eltwise7 (in-place)
I1006 21:21:50.579315  4081 net.cpp:122] Setting up penlu15
I1006 21:21:50.579320  4081 net.cpp:129] Top shape: 100 32 16 16 (819200)
I1006 21:21:50.579322  4081 net.cpp:137] Memory required for data: 476366000
I1006 21:21:50.579326  4081 layer_factory.hpp:77] Creating layer Eltwise7_penlu15_0_split
I1006 21:21:50.579331  4081 net.cpp:84] Creating Layer Eltwise7_penlu15_0_split
I1006 21:21:50.579334  4081 net.cpp:406] Eltwise7_penlu15_0_split <- Eltwise7
I1006 21:21:50.579336  4081 net.cpp:380] Eltwise7_penlu15_0_split -> Eltwise7_penlu15_0_split_0
I1006 21:21:50.579340  4081 net.cpp:380] Eltwise7_penlu15_0_split -> Eltwise7_penlu15_0_split_1
I1006 21:21:50.579365  4081 net.cpp:122] Setting up Eltwise7_penlu15_0_split
I1006 21:21:50.579370  4081 net.cpp:129] Top shape: 100 32 16 16 (819200)
I1006 21:21:50.579372  4081 net.cpp:129] Top shape: 100 32 16 16 (819200)
I1006 21:21:50.579375  4081 net.cpp:137] Memory required for data: 482919600
I1006 21:21:50.579376  4081 layer_factory.hpp:77] Creating layer Convolution17
I1006 21:21:50.579382  4081 net.cpp:84] Creating Layer Convolution17
I1006 21:21:50.579385  4081 net.cpp:406] Convolution17 <- Eltwise7_penlu15_0_split_0
I1006 21:21:50.579390  4081 net.cpp:380] Convolution17 -> Convolution17
I1006 21:21:50.585682  4081 net.cpp:122] Setting up Convolution17
I1006 21:21:50.585690  4081 net.cpp:129] Top shape: 100 32 16 16 (819200)
I1006 21:21:50.585693  4081 net.cpp:137] Memory required for data: 486196400
I1006 21:21:50.585697  4081 layer_factory.hpp:77] Creating layer BatchNorm17
I1006 21:21:50.585710  4081 net.cpp:84] Creating Layer BatchNorm17
I1006 21:21:50.585713  4081 net.cpp:406] BatchNorm17 <- Convolution17
I1006 21:21:50.585716  4081 net.cpp:367] BatchNorm17 -> Convolution17 (in-place)
I1006 21:21:50.585860  4081 net.cpp:122] Setting up BatchNorm17
I1006 21:21:50.585865  4081 net.cpp:129] Top shape: 100 32 16 16 (819200)
I1006 21:21:50.585866  4081 net.cpp:137] Memory required for data: 489473200
I1006 21:21:50.585871  4081 layer_factory.hpp:77] Creating layer Scale17
I1006 21:21:50.585876  4081 net.cpp:84] Creating Layer Scale17
I1006 21:21:50.585878  4081 net.cpp:406] Scale17 <- Convolution17
I1006 21:21:50.585881  4081 net.cpp:367] Scale17 -> Convolution17 (in-place)
I1006 21:21:50.585911  4081 layer_factory.hpp:77] Creating layer Scale17
I1006 21:21:50.585994  4081 net.cpp:122] Setting up Scale17
I1006 21:21:50.585997  4081 net.cpp:129] Top shape: 100 32 16 16 (819200)
I1006 21:21:50.585999  4081 net.cpp:137] Memory required for data: 492750000
I1006 21:21:50.586004  4081 layer_factory.hpp:77] Creating layer penlu16
I1006 21:21:50.586009  4081 net.cpp:84] Creating Layer penlu16
I1006 21:21:50.586011  4081 net.cpp:406] penlu16 <- Convolution17
I1006 21:21:50.586015  4081 net.cpp:367] penlu16 -> Convolution17 (in-place)
I1006 21:21:50.586130  4081 net.cpp:122] Setting up penlu16
I1006 21:21:50.586134  4081 net.cpp:129] Top shape: 100 32 16 16 (819200)
I1006 21:21:50.586136  4081 net.cpp:137] Memory required for data: 496026800
I1006 21:21:50.586140  4081 layer_factory.hpp:77] Creating layer Convolution18
I1006 21:21:50.586148  4081 net.cpp:84] Creating Layer Convolution18
I1006 21:21:50.586149  4081 net.cpp:406] Convolution18 <- Convolution17
I1006 21:21:50.586153  4081 net.cpp:380] Convolution18 -> Convolution18
I1006 21:21:50.592222  4081 net.cpp:122] Setting up Convolution18
I1006 21:21:50.592232  4081 net.cpp:129] Top shape: 100 32 16 16 (819200)
I1006 21:21:50.592236  4081 net.cpp:137] Memory required for data: 499303600
I1006 21:21:50.592241  4081 layer_factory.hpp:77] Creating layer BatchNorm18
I1006 21:21:50.592244  4081 net.cpp:84] Creating Layer BatchNorm18
I1006 21:21:50.592247  4081 net.cpp:406] BatchNorm18 <- Convolution18
I1006 21:21:50.592252  4081 net.cpp:367] BatchNorm18 -> Convolution18 (in-place)
I1006 21:21:50.592423  4081 net.cpp:122] Setting up BatchNorm18
I1006 21:21:50.592430  4081 net.cpp:129] Top shape: 100 32 16 16 (819200)
I1006 21:21:50.592432  4081 net.cpp:137] Memory required for data: 502580400
I1006 21:21:50.592437  4081 layer_factory.hpp:77] Creating layer Scale18
I1006 21:21:50.592442  4081 net.cpp:84] Creating Layer Scale18
I1006 21:21:50.592445  4081 net.cpp:406] Scale18 <- Convolution18
I1006 21:21:50.592448  4081 net.cpp:367] Scale18 -> Convolution18 (in-place)
I1006 21:21:50.592481  4081 layer_factory.hpp:77] Creating layer Scale18
I1006 21:21:50.592581  4081 net.cpp:122] Setting up Scale18
I1006 21:21:50.592586  4081 net.cpp:129] Top shape: 100 32 16 16 (819200)
I1006 21:21:50.592587  4081 net.cpp:137] Memory required for data: 505857200
I1006 21:21:50.592591  4081 layer_factory.hpp:77] Creating layer Eltwise8
I1006 21:21:50.592594  4081 net.cpp:84] Creating Layer Eltwise8
I1006 21:21:50.592597  4081 net.cpp:406] Eltwise8 <- Eltwise7_penlu15_0_split_1
I1006 21:21:50.592600  4081 net.cpp:406] Eltwise8 <- Convolution18
I1006 21:21:50.592604  4081 net.cpp:380] Eltwise8 -> Eltwise8
I1006 21:21:50.592618  4081 net.cpp:122] Setting up Eltwise8
I1006 21:21:50.592622  4081 net.cpp:129] Top shape: 100 32 16 16 (819200)
I1006 21:21:50.592623  4081 net.cpp:137] Memory required for data: 509134000
I1006 21:21:50.592625  4081 layer_factory.hpp:77] Creating layer penlu17
I1006 21:21:50.592631  4081 net.cpp:84] Creating Layer penlu17
I1006 21:21:50.592633  4081 net.cpp:406] penlu17 <- Eltwise8
I1006 21:21:50.592638  4081 net.cpp:367] penlu17 -> Eltwise8 (in-place)
I1006 21:21:50.592761  4081 net.cpp:122] Setting up penlu17
I1006 21:21:50.592766  4081 net.cpp:129] Top shape: 100 32 16 16 (819200)
I1006 21:21:50.592767  4081 net.cpp:137] Memory required for data: 512410800
I1006 21:21:50.592779  4081 layer_factory.hpp:77] Creating layer Eltwise8_penlu17_0_split
I1006 21:21:50.592783  4081 net.cpp:84] Creating Layer Eltwise8_penlu17_0_split
I1006 21:21:50.592785  4081 net.cpp:406] Eltwise8_penlu17_0_split <- Eltwise8
I1006 21:21:50.592788  4081 net.cpp:380] Eltwise8_penlu17_0_split -> Eltwise8_penlu17_0_split_0
I1006 21:21:50.592793  4081 net.cpp:380] Eltwise8_penlu17_0_split -> Eltwise8_penlu17_0_split_1
I1006 21:21:50.592820  4081 net.cpp:122] Setting up Eltwise8_penlu17_0_split
I1006 21:21:50.592824  4081 net.cpp:129] Top shape: 100 32 16 16 (819200)
I1006 21:21:50.592828  4081 net.cpp:129] Top shape: 100 32 16 16 (819200)
I1006 21:21:50.592829  4081 net.cpp:137] Memory required for data: 518964400
I1006 21:21:50.592831  4081 layer_factory.hpp:77] Creating layer Convolution19
I1006 21:21:50.592839  4081 net.cpp:84] Creating Layer Convolution19
I1006 21:21:50.592841  4081 net.cpp:406] Convolution19 <- Eltwise8_penlu17_0_split_0
I1006 21:21:50.592845  4081 net.cpp:380] Convolution19 -> Convolution19
I1006 21:21:50.595216  4081 net.cpp:122] Setting up Convolution19
I1006 21:21:50.595226  4081 net.cpp:129] Top shape: 100 32 16 16 (819200)
I1006 21:21:50.595228  4081 net.cpp:137] Memory required for data: 522241200
I1006 21:21:50.595232  4081 layer_factory.hpp:77] Creating layer BatchNorm19
I1006 21:21:50.595238  4081 net.cpp:84] Creating Layer BatchNorm19
I1006 21:21:50.595242  4081 net.cpp:406] BatchNorm19 <- Convolution19
I1006 21:21:50.595247  4081 net.cpp:367] BatchNorm19 -> Convolution19 (in-place)
I1006 21:21:50.595393  4081 net.cpp:122] Setting up BatchNorm19
I1006 21:21:50.595398  4081 net.cpp:129] Top shape: 100 32 16 16 (819200)
I1006 21:21:50.595401  4081 net.cpp:137] Memory required for data: 525518000
I1006 21:21:50.595405  4081 layer_factory.hpp:77] Creating layer Scale19
I1006 21:21:50.595409  4081 net.cpp:84] Creating Layer Scale19
I1006 21:21:50.595412  4081 net.cpp:406] Scale19 <- Convolution19
I1006 21:21:50.595415  4081 net.cpp:367] Scale19 -> Convolution19 (in-place)
I1006 21:21:50.595445  4081 layer_factory.hpp:77] Creating layer Scale19
I1006 21:21:50.595532  4081 net.cpp:122] Setting up Scale19
I1006 21:21:50.595536  4081 net.cpp:129] Top shape: 100 32 16 16 (819200)
I1006 21:21:50.595540  4081 net.cpp:137] Memory required for data: 528794800
I1006 21:21:50.595542  4081 layer_factory.hpp:77] Creating layer penlu18
I1006 21:21:50.595547  4081 net.cpp:84] Creating Layer penlu18
I1006 21:21:50.595551  4081 net.cpp:406] penlu18 <- Convolution19
I1006 21:21:50.595554  4081 net.cpp:367] penlu18 -> Convolution19 (in-place)
I1006 21:21:50.595675  4081 net.cpp:122] Setting up penlu18
I1006 21:21:50.595679  4081 net.cpp:129] Top shape: 100 32 16 16 (819200)
I1006 21:21:50.595681  4081 net.cpp:137] Memory required for data: 532071600
I1006 21:21:50.595686  4081 layer_factory.hpp:77] Creating layer Convolution20
I1006 21:21:50.595693  4081 net.cpp:84] Creating Layer Convolution20
I1006 21:21:50.595695  4081 net.cpp:406] Convolution20 <- Convolution19
I1006 21:21:50.595701  4081 net.cpp:380] Convolution20 -> Convolution20
I1006 21:21:50.600554  4081 net.cpp:122] Setting up Convolution20
I1006 21:21:50.600563  4081 net.cpp:129] Top shape: 100 32 16 16 (819200)
I1006 21:21:50.600564  4081 net.cpp:137] Memory required for data: 535348400
I1006 21:21:50.600569  4081 layer_factory.hpp:77] Creating layer BatchNorm20
I1006 21:21:50.600574  4081 net.cpp:84] Creating Layer BatchNorm20
I1006 21:21:50.600576  4081 net.cpp:406] BatchNorm20 <- Convolution20
I1006 21:21:50.600580  4081 net.cpp:367] BatchNorm20 -> Convolution20 (in-place)
I1006 21:21:50.600725  4081 net.cpp:122] Setting up BatchNorm20
I1006 21:21:50.600729  4081 net.cpp:129] Top shape: 100 32 16 16 (819200)
I1006 21:21:50.600731  4081 net.cpp:137] Memory required for data: 538625200
I1006 21:21:50.600736  4081 layer_factory.hpp:77] Creating layer Scale20
I1006 21:21:50.600740  4081 net.cpp:84] Creating Layer Scale20
I1006 21:21:50.600742  4081 net.cpp:406] Scale20 <- Convolution20
I1006 21:21:50.600754  4081 net.cpp:367] Scale20 -> Convolution20 (in-place)
I1006 21:21:50.600786  4081 layer_factory.hpp:77] Creating layer Scale20
I1006 21:21:50.600868  4081 net.cpp:122] Setting up Scale20
I1006 21:21:50.600873  4081 net.cpp:129] Top shape: 100 32 16 16 (819200)
I1006 21:21:50.600877  4081 net.cpp:137] Memory required for data: 541902000
I1006 21:21:50.600879  4081 layer_factory.hpp:77] Creating layer Eltwise9
I1006 21:21:50.600884  4081 net.cpp:84] Creating Layer Eltwise9
I1006 21:21:50.600886  4081 net.cpp:406] Eltwise9 <- Eltwise8_penlu17_0_split_1
I1006 21:21:50.600889  4081 net.cpp:406] Eltwise9 <- Convolution20
I1006 21:21:50.600893  4081 net.cpp:380] Eltwise9 -> Eltwise9
I1006 21:21:50.600906  4081 net.cpp:122] Setting up Eltwise9
I1006 21:21:50.600910  4081 net.cpp:129] Top shape: 100 32 16 16 (819200)
I1006 21:21:50.600913  4081 net.cpp:137] Memory required for data: 545178800
I1006 21:21:50.600914  4081 layer_factory.hpp:77] Creating layer penlu19
I1006 21:21:50.600920  4081 net.cpp:84] Creating Layer penlu19
I1006 21:21:50.600922  4081 net.cpp:406] penlu19 <- Eltwise9
I1006 21:21:50.600925  4081 net.cpp:367] penlu19 -> Eltwise9 (in-place)
I1006 21:21:50.601047  4081 net.cpp:122] Setting up penlu19
I1006 21:21:50.601052  4081 net.cpp:129] Top shape: 100 32 16 16 (819200)
I1006 21:21:50.601053  4081 net.cpp:137] Memory required for data: 548455600
I1006 21:21:50.601058  4081 layer_factory.hpp:77] Creating layer Eltwise9_penlu19_0_split
I1006 21:21:50.601061  4081 net.cpp:84] Creating Layer Eltwise9_penlu19_0_split
I1006 21:21:50.601064  4081 net.cpp:406] Eltwise9_penlu19_0_split <- Eltwise9
I1006 21:21:50.601068  4081 net.cpp:380] Eltwise9_penlu19_0_split -> Eltwise9_penlu19_0_split_0
I1006 21:21:50.601073  4081 net.cpp:380] Eltwise9_penlu19_0_split -> Eltwise9_penlu19_0_split_1
I1006 21:21:50.601096  4081 net.cpp:122] Setting up Eltwise9_penlu19_0_split
I1006 21:21:50.601101  4081 net.cpp:129] Top shape: 100 32 16 16 (819200)
I1006 21:21:50.601104  4081 net.cpp:129] Top shape: 100 32 16 16 (819200)
I1006 21:21:50.601106  4081 net.cpp:137] Memory required for data: 555009200
I1006 21:21:50.601109  4081 layer_factory.hpp:77] Creating layer Convolution21
I1006 21:21:50.601114  4081 net.cpp:84] Creating Layer Convolution21
I1006 21:21:50.601116  4081 net.cpp:406] Convolution21 <- Eltwise9_penlu19_0_split_0
I1006 21:21:50.601120  4081 net.cpp:380] Convolution21 -> Convolution21
I1006 21:21:50.607106  4081 net.cpp:122] Setting up Convolution21
I1006 21:21:50.607115  4081 net.cpp:129] Top shape: 100 32 16 16 (819200)
I1006 21:21:50.607118  4081 net.cpp:137] Memory required for data: 558286000
I1006 21:21:50.607123  4081 layer_factory.hpp:77] Creating layer BatchNorm21
I1006 21:21:50.607128  4081 net.cpp:84] Creating Layer BatchNorm21
I1006 21:21:50.607132  4081 net.cpp:406] BatchNorm21 <- Convolution21
I1006 21:21:50.607136  4081 net.cpp:367] BatchNorm21 -> Convolution21 (in-place)
I1006 21:21:50.607292  4081 net.cpp:122] Setting up BatchNorm21
I1006 21:21:50.607297  4081 net.cpp:129] Top shape: 100 32 16 16 (819200)
I1006 21:21:50.607300  4081 net.cpp:137] Memory required for data: 561562800
I1006 21:21:50.607306  4081 layer_factory.hpp:77] Creating layer Scale21
I1006 21:21:50.607311  4081 net.cpp:84] Creating Layer Scale21
I1006 21:21:50.607312  4081 net.cpp:406] Scale21 <- Convolution21
I1006 21:21:50.607316  4081 net.cpp:367] Scale21 -> Convolution21 (in-place)
I1006 21:21:50.607347  4081 layer_factory.hpp:77] Creating layer Scale21
I1006 21:21:50.607436  4081 net.cpp:122] Setting up Scale21
I1006 21:21:50.607440  4081 net.cpp:129] Top shape: 100 32 16 16 (819200)
I1006 21:21:50.607442  4081 net.cpp:137] Memory required for data: 564839600
I1006 21:21:50.607446  4081 layer_factory.hpp:77] Creating layer penlu20
I1006 21:21:50.607452  4081 net.cpp:84] Creating Layer penlu20
I1006 21:21:50.607455  4081 net.cpp:406] penlu20 <- Convolution21
I1006 21:21:50.607461  4081 net.cpp:367] penlu20 -> Convolution21 (in-place)
I1006 21:21:50.607620  4081 net.cpp:122] Setting up penlu20
I1006 21:21:50.607633  4081 net.cpp:129] Top shape: 100 32 16 16 (819200)
I1006 21:21:50.607636  4081 net.cpp:137] Memory required for data: 568116400
I1006 21:21:50.607641  4081 layer_factory.hpp:77] Creating layer Convolution22
I1006 21:21:50.607648  4081 net.cpp:84] Creating Layer Convolution22
I1006 21:21:50.607651  4081 net.cpp:406] Convolution22 <- Convolution21
I1006 21:21:50.607656  4081 net.cpp:380] Convolution22 -> Convolution22
I1006 21:21:50.614367  4081 net.cpp:122] Setting up Convolution22
I1006 21:21:50.614375  4081 net.cpp:129] Top shape: 100 32 16 16 (819200)
I1006 21:21:50.614378  4081 net.cpp:137] Memory required for data: 571393200
I1006 21:21:50.614382  4081 layer_factory.hpp:77] Creating layer BatchNorm22
I1006 21:21:50.614387  4081 net.cpp:84] Creating Layer BatchNorm22
I1006 21:21:50.614390  4081 net.cpp:406] BatchNorm22 <- Convolution22
I1006 21:21:50.614394  4081 net.cpp:367] BatchNorm22 -> Convolution22 (in-place)
I1006 21:21:50.614540  4081 net.cpp:122] Setting up BatchNorm22
I1006 21:21:50.614544  4081 net.cpp:129] Top shape: 100 32 16 16 (819200)
I1006 21:21:50.614547  4081 net.cpp:137] Memory required for data: 574670000
I1006 21:21:50.614552  4081 layer_factory.hpp:77] Creating layer Scale22
I1006 21:21:50.614555  4081 net.cpp:84] Creating Layer Scale22
I1006 21:21:50.614557  4081 net.cpp:406] Scale22 <- Convolution22
I1006 21:21:50.614560  4081 net.cpp:367] Scale22 -> Convolution22 (in-place)
I1006 21:21:50.614591  4081 layer_factory.hpp:77] Creating layer Scale22
I1006 21:21:50.614675  4081 net.cpp:122] Setting up Scale22
I1006 21:21:50.614681  4081 net.cpp:129] Top shape: 100 32 16 16 (819200)
I1006 21:21:50.614682  4081 net.cpp:137] Memory required for data: 577946800
I1006 21:21:50.614686  4081 layer_factory.hpp:77] Creating layer Eltwise10
I1006 21:21:50.614691  4081 net.cpp:84] Creating Layer Eltwise10
I1006 21:21:50.614693  4081 net.cpp:406] Eltwise10 <- Eltwise9_penlu19_0_split_1
I1006 21:21:50.614696  4081 net.cpp:406] Eltwise10 <- Convolution22
I1006 21:21:50.614701  4081 net.cpp:380] Eltwise10 -> Eltwise10
I1006 21:21:50.614714  4081 net.cpp:122] Setting up Eltwise10
I1006 21:21:50.614718  4081 net.cpp:129] Top shape: 100 32 16 16 (819200)
I1006 21:21:50.614720  4081 net.cpp:137] Memory required for data: 581223600
I1006 21:21:50.614722  4081 layer_factory.hpp:77] Creating layer penlu21
I1006 21:21:50.614728  4081 net.cpp:84] Creating Layer penlu21
I1006 21:21:50.614730  4081 net.cpp:406] penlu21 <- Eltwise10
I1006 21:21:50.614734  4081 net.cpp:367] penlu21 -> Eltwise10 (in-place)
I1006 21:21:50.614856  4081 net.cpp:122] Setting up penlu21
I1006 21:21:50.614859  4081 net.cpp:129] Top shape: 100 32 16 16 (819200)
I1006 21:21:50.614861  4081 net.cpp:137] Memory required for data: 584500400
I1006 21:21:50.614866  4081 layer_factory.hpp:77] Creating layer Eltwise10_penlu21_0_split
I1006 21:21:50.614869  4081 net.cpp:84] Creating Layer Eltwise10_penlu21_0_split
I1006 21:21:50.614871  4081 net.cpp:406] Eltwise10_penlu21_0_split <- Eltwise10
I1006 21:21:50.614876  4081 net.cpp:380] Eltwise10_penlu21_0_split -> Eltwise10_penlu21_0_split_0
I1006 21:21:50.614879  4081 net.cpp:380] Eltwise10_penlu21_0_split -> Eltwise10_penlu21_0_split_1
I1006 21:21:50.614905  4081 net.cpp:122] Setting up Eltwise10_penlu21_0_split
I1006 21:21:50.614908  4081 net.cpp:129] Top shape: 100 32 16 16 (819200)
I1006 21:21:50.614912  4081 net.cpp:129] Top shape: 100 32 16 16 (819200)
I1006 21:21:50.614913  4081 net.cpp:137] Memory required for data: 591054000
I1006 21:21:50.614915  4081 layer_factory.hpp:77] Creating layer Convolution23
I1006 21:21:50.614922  4081 net.cpp:84] Creating Layer Convolution23
I1006 21:21:50.614924  4081 net.cpp:406] Convolution23 <- Eltwise10_penlu21_0_split_0
I1006 21:21:50.614928  4081 net.cpp:380] Convolution23 -> Convolution23
I1006 21:21:50.617399  4081 net.cpp:122] Setting up Convolution23
I1006 21:21:50.617408  4081 net.cpp:129] Top shape: 100 64 8 8 (409600)
I1006 21:21:50.617411  4081 net.cpp:137] Memory required for data: 592692400
I1006 21:21:50.617415  4081 layer_factory.hpp:77] Creating layer BatchNorm23
I1006 21:21:50.617429  4081 net.cpp:84] Creating Layer BatchNorm23
I1006 21:21:50.617431  4081 net.cpp:406] BatchNorm23 <- Convolution23
I1006 21:21:50.617436  4081 net.cpp:367] BatchNorm23 -> Convolution23 (in-place)
I1006 21:21:50.617584  4081 net.cpp:122] Setting up BatchNorm23
I1006 21:21:50.617588  4081 net.cpp:129] Top shape: 100 64 8 8 (409600)
I1006 21:21:50.617590  4081 net.cpp:137] Memory required for data: 594330800
I1006 21:21:50.617595  4081 layer_factory.hpp:77] Creating layer Scale23
I1006 21:21:50.617599  4081 net.cpp:84] Creating Layer Scale23
I1006 21:21:50.617602  4081 net.cpp:406] Scale23 <- Convolution23
I1006 21:21:50.617605  4081 net.cpp:367] Scale23 -> Convolution23 (in-place)
I1006 21:21:50.617636  4081 layer_factory.hpp:77] Creating layer Scale23
I1006 21:21:50.617722  4081 net.cpp:122] Setting up Scale23
I1006 21:21:50.617727  4081 net.cpp:129] Top shape: 100 64 8 8 (409600)
I1006 21:21:50.617728  4081 net.cpp:137] Memory required for data: 595969200
I1006 21:21:50.617732  4081 layer_factory.hpp:77] Creating layer Convolution24
I1006 21:21:50.617739  4081 net.cpp:84] Creating Layer Convolution24
I1006 21:21:50.617743  4081 net.cpp:406] Convolution24 <- Eltwise10_penlu21_0_split_1
I1006 21:21:50.617746  4081 net.cpp:380] Convolution24 -> Convolution24
I1006 21:21:50.621867  4081 net.cpp:122] Setting up Convolution24
I1006 21:21:50.621876  4081 net.cpp:129] Top shape: 100 64 8 8 (409600)
I1006 21:21:50.621889  4081 net.cpp:137] Memory required for data: 597607600
I1006 21:21:50.621893  4081 layer_factory.hpp:77] Creating layer BatchNorm24
I1006 21:21:50.621899  4081 net.cpp:84] Creating Layer BatchNorm24
I1006 21:21:50.621902  4081 net.cpp:406] BatchNorm24 <- Convolution24
I1006 21:21:50.621906  4081 net.cpp:367] BatchNorm24 -> Convolution24 (in-place)
I1006 21:21:50.622068  4081 net.cpp:122] Setting up BatchNorm24
I1006 21:21:50.622073  4081 net.cpp:129] Top shape: 100 64 8 8 (409600)
I1006 21:21:50.622076  4081 net.cpp:137] Memory required for data: 599246000
I1006 21:21:50.622081  4081 layer_factory.hpp:77] Creating layer Scale24
I1006 21:21:50.622084  4081 net.cpp:84] Creating Layer Scale24
I1006 21:21:50.622087  4081 net.cpp:406] Scale24 <- Convolution24
I1006 21:21:50.622089  4081 net.cpp:367] Scale24 -> Convolution24 (in-place)
I1006 21:21:50.622120  4081 layer_factory.hpp:77] Creating layer Scale24
I1006 21:21:50.622205  4081 net.cpp:122] Setting up Scale24
I1006 21:21:50.622210  4081 net.cpp:129] Top shape: 100 64 8 8 (409600)
I1006 21:21:50.622211  4081 net.cpp:137] Memory required for data: 600884400
I1006 21:21:50.622215  4081 layer_factory.hpp:77] Creating layer penlu22
I1006 21:21:50.622220  4081 net.cpp:84] Creating Layer penlu22
I1006 21:21:50.622222  4081 net.cpp:406] penlu22 <- Convolution24
I1006 21:21:50.622226  4081 net.cpp:367] penlu22 -> Convolution24 (in-place)
I1006 21:21:50.622344  4081 net.cpp:122] Setting up penlu22
I1006 21:21:50.622349  4081 net.cpp:129] Top shape: 100 64 8 8 (409600)
I1006 21:21:50.622351  4081 net.cpp:137] Memory required for data: 602522800
I1006 21:21:50.622355  4081 layer_factory.hpp:77] Creating layer Convolution25
I1006 21:21:50.622364  4081 net.cpp:84] Creating Layer Convolution25
I1006 21:21:50.622365  4081 net.cpp:406] Convolution25 <- Convolution24
I1006 21:21:50.622370  4081 net.cpp:380] Convolution25 -> Convolution25
I1006 21:21:50.628430  4081 net.cpp:122] Setting up Convolution25
I1006 21:21:50.628439  4081 net.cpp:129] Top shape: 100 64 8 8 (409600)
I1006 21:21:50.628443  4081 net.cpp:137] Memory required for data: 604161200
I1006 21:21:50.628446  4081 layer_factory.hpp:77] Creating layer BatchNorm25
I1006 21:21:50.628451  4081 net.cpp:84] Creating Layer BatchNorm25
I1006 21:21:50.628454  4081 net.cpp:406] BatchNorm25 <- Convolution25
I1006 21:21:50.628458  4081 net.cpp:367] BatchNorm25 -> Convolution25 (in-place)
I1006 21:21:50.628605  4081 net.cpp:122] Setting up BatchNorm25
I1006 21:21:50.628609  4081 net.cpp:129] Top shape: 100 64 8 8 (409600)
I1006 21:21:50.628612  4081 net.cpp:137] Memory required for data: 605799600
I1006 21:21:50.628623  4081 layer_factory.hpp:77] Creating layer Scale25
I1006 21:21:50.628628  4081 net.cpp:84] Creating Layer Scale25
I1006 21:21:50.628631  4081 net.cpp:406] Scale25 <- Convolution25
I1006 21:21:50.628634  4081 net.cpp:367] Scale25 -> Convolution25 (in-place)
I1006 21:21:50.628666  4081 layer_factory.hpp:77] Creating layer Scale25
I1006 21:21:50.628752  4081 net.cpp:122] Setting up Scale25
I1006 21:21:50.628756  4081 net.cpp:129] Top shape: 100 64 8 8 (409600)
I1006 21:21:50.628759  4081 net.cpp:137] Memory required for data: 607438000
I1006 21:21:50.628762  4081 layer_factory.hpp:77] Creating layer Eltwise11
I1006 21:21:50.628767  4081 net.cpp:84] Creating Layer Eltwise11
I1006 21:21:50.628769  4081 net.cpp:406] Eltwise11 <- Convolution23
I1006 21:21:50.628772  4081 net.cpp:406] Eltwise11 <- Convolution25
I1006 21:21:50.628775  4081 net.cpp:380] Eltwise11 -> Eltwise11
I1006 21:21:50.628793  4081 net.cpp:122] Setting up Eltwise11
I1006 21:21:50.628796  4081 net.cpp:129] Top shape: 100 64 8 8 (409600)
I1006 21:21:50.628798  4081 net.cpp:137] Memory required for data: 609076400
I1006 21:21:50.628801  4081 layer_factory.hpp:77] Creating layer penlu23
I1006 21:21:50.628806  4081 net.cpp:84] Creating Layer penlu23
I1006 21:21:50.628809  4081 net.cpp:406] penlu23 <- Eltwise11
I1006 21:21:50.628813  4081 net.cpp:367] penlu23 -> Eltwise11 (in-place)
I1006 21:21:50.628932  4081 net.cpp:122] Setting up penlu23
I1006 21:21:50.628937  4081 net.cpp:129] Top shape: 100 64 8 8 (409600)
I1006 21:21:50.628939  4081 net.cpp:137] Memory required for data: 610714800
I1006 21:21:50.628943  4081 layer_factory.hpp:77] Creating layer Eltwise11_penlu23_0_split
I1006 21:21:50.628947  4081 net.cpp:84] Creating Layer Eltwise11_penlu23_0_split
I1006 21:21:50.628949  4081 net.cpp:406] Eltwise11_penlu23_0_split <- Eltwise11
I1006 21:21:50.628953  4081 net.cpp:380] Eltwise11_penlu23_0_split -> Eltwise11_penlu23_0_split_0
I1006 21:21:50.628957  4081 net.cpp:380] Eltwise11_penlu23_0_split -> Eltwise11_penlu23_0_split_1
I1006 21:21:50.628983  4081 net.cpp:122] Setting up Eltwise11_penlu23_0_split
I1006 21:21:50.628986  4081 net.cpp:129] Top shape: 100 64 8 8 (409600)
I1006 21:21:50.628989  4081 net.cpp:129] Top shape: 100 64 8 8 (409600)
I1006 21:21:50.628991  4081 net.cpp:137] Memory required for data: 613991600
I1006 21:21:50.628993  4081 layer_factory.hpp:77] Creating layer Convolution26
I1006 21:21:50.629001  4081 net.cpp:84] Creating Layer Convolution26
I1006 21:21:50.629004  4081 net.cpp:406] Convolution26 <- Eltwise11_penlu23_0_split_0
I1006 21:21:50.629007  4081 net.cpp:380] Convolution26 -> Convolution26
I1006 21:21:50.634969  4081 net.cpp:122] Setting up Convolution26
I1006 21:21:50.634979  4081 net.cpp:129] Top shape: 100 64 8 8 (409600)
I1006 21:21:50.634981  4081 net.cpp:137] Memory required for data: 615630000
I1006 21:21:50.634985  4081 layer_factory.hpp:77] Creating layer BatchNorm26
I1006 21:21:50.634990  4081 net.cpp:84] Creating Layer BatchNorm26
I1006 21:21:50.634994  4081 net.cpp:406] BatchNorm26 <- Convolution26
I1006 21:21:50.634997  4081 net.cpp:367] BatchNorm26 -> Convolution26 (in-place)
I1006 21:21:50.635146  4081 net.cpp:122] Setting up BatchNorm26
I1006 21:21:50.635150  4081 net.cpp:129] Top shape: 100 64 8 8 (409600)
I1006 21:21:50.635152  4081 net.cpp:137] Memory required for data: 617268400
I1006 21:21:50.635157  4081 layer_factory.hpp:77] Creating layer Scale26
I1006 21:21:50.635161  4081 net.cpp:84] Creating Layer Scale26
I1006 21:21:50.635179  4081 net.cpp:406] Scale26 <- Convolution26
I1006 21:21:50.635185  4081 net.cpp:367] Scale26 -> Convolution26 (in-place)
I1006 21:21:50.635237  4081 layer_factory.hpp:77] Creating layer Scale26
I1006 21:21:50.635323  4081 net.cpp:122] Setting up Scale26
I1006 21:21:50.635327  4081 net.cpp:129] Top shape: 100 64 8 8 (409600)
I1006 21:21:50.635329  4081 net.cpp:137] Memory required for data: 618906800
I1006 21:21:50.635334  4081 layer_factory.hpp:77] Creating layer penlu24
I1006 21:21:50.635339  4081 net.cpp:84] Creating Layer penlu24
I1006 21:21:50.635340  4081 net.cpp:406] penlu24 <- Convolution26
I1006 21:21:50.635354  4081 net.cpp:367] penlu24 -> Convolution26 (in-place)
I1006 21:21:50.635474  4081 net.cpp:122] Setting up penlu24
I1006 21:21:50.635478  4081 net.cpp:129] Top shape: 100 64 8 8 (409600)
I1006 21:21:50.635481  4081 net.cpp:137] Memory required for data: 620545200
I1006 21:21:50.635485  4081 layer_factory.hpp:77] Creating layer Convolution27
I1006 21:21:50.635493  4081 net.cpp:84] Creating Layer Convolution27
I1006 21:21:50.635494  4081 net.cpp:406] Convolution27 <- Convolution26
I1006 21:21:50.635499  4081 net.cpp:380] Convolution27 -> Convolution27
I1006 21:21:50.642014  4081 net.cpp:122] Setting up Convolution27
I1006 21:21:50.642025  4081 net.cpp:129] Top shape: 100 64 8 8 (409600)
I1006 21:21:50.642027  4081 net.cpp:137] Memory required for data: 622183600
I1006 21:21:50.642032  4081 layer_factory.hpp:77] Creating layer BatchNorm27
I1006 21:21:50.642050  4081 net.cpp:84] Creating Layer BatchNorm27
I1006 21:21:50.642053  4081 net.cpp:406] BatchNorm27 <- Convolution27
I1006 21:21:50.642058  4081 net.cpp:367] BatchNorm27 -> Convolution27 (in-place)
I1006 21:21:50.642230  4081 net.cpp:122] Setting up BatchNorm27
I1006 21:21:50.642235  4081 net.cpp:129] Top shape: 100 64 8 8 (409600)
I1006 21:21:50.642236  4081 net.cpp:137] Memory required for data: 623822000
I1006 21:21:50.642264  4081 layer_factory.hpp:77] Creating layer Scale27
I1006 21:21:50.642271  4081 net.cpp:84] Creating Layer Scale27
I1006 21:21:50.642272  4081 net.cpp:406] Scale27 <- Convolution27
I1006 21:21:50.642276  4081 net.cpp:367] Scale27 -> Convolution27 (in-place)
I1006 21:21:50.642310  4081 layer_factory.hpp:77] Creating layer Scale27
I1006 21:21:50.642395  4081 net.cpp:122] Setting up Scale27
I1006 21:21:50.642400  4081 net.cpp:129] Top shape: 100 64 8 8 (409600)
I1006 21:21:50.642401  4081 net.cpp:137] Memory required for data: 625460400
I1006 21:21:50.642405  4081 layer_factory.hpp:77] Creating layer Eltwise12
I1006 21:21:50.642410  4081 net.cpp:84] Creating Layer Eltwise12
I1006 21:21:50.642413  4081 net.cpp:406] Eltwise12 <- Eltwise11_penlu23_0_split_1
I1006 21:21:50.642416  4081 net.cpp:406] Eltwise12 <- Convolution27
I1006 21:21:50.642419  4081 net.cpp:380] Eltwise12 -> Eltwise12
I1006 21:21:50.642437  4081 net.cpp:122] Setting up Eltwise12
I1006 21:21:50.642441  4081 net.cpp:129] Top shape: 100 64 8 8 (409600)
I1006 21:21:50.642443  4081 net.cpp:137] Memory required for data: 627098800
I1006 21:21:50.642446  4081 layer_factory.hpp:77] Creating layer penlu25
I1006 21:21:50.642452  4081 net.cpp:84] Creating Layer penlu25
I1006 21:21:50.642453  4081 net.cpp:406] penlu25 <- Eltwise12
I1006 21:21:50.642458  4081 net.cpp:367] penlu25 -> Eltwise12 (in-place)
I1006 21:21:50.642581  4081 net.cpp:122] Setting up penlu25
I1006 21:21:50.642585  4081 net.cpp:129] Top shape: 100 64 8 8 (409600)
I1006 21:21:50.642587  4081 net.cpp:137] Memory required for data: 628737200
I1006 21:21:50.642591  4081 layer_factory.hpp:77] Creating layer Eltwise12_penlu25_0_split
I1006 21:21:50.642596  4081 net.cpp:84] Creating Layer Eltwise12_penlu25_0_split
I1006 21:21:50.642597  4081 net.cpp:406] Eltwise12_penlu25_0_split <- Eltwise12
I1006 21:21:50.642601  4081 net.cpp:380] Eltwise12_penlu25_0_split -> Eltwise12_penlu25_0_split_0
I1006 21:21:50.642604  4081 net.cpp:380] Eltwise12_penlu25_0_split -> Eltwise12_penlu25_0_split_1
I1006 21:21:50.642630  4081 net.cpp:122] Setting up Eltwise12_penlu25_0_split
I1006 21:21:50.642634  4081 net.cpp:129] Top shape: 100 64 8 8 (409600)
I1006 21:21:50.642637  4081 net.cpp:129] Top shape: 100 64 8 8 (409600)
I1006 21:21:50.642639  4081 net.cpp:137] Memory required for data: 632014000
I1006 21:21:50.642642  4081 layer_factory.hpp:77] Creating layer Convolution28
I1006 21:21:50.642647  4081 net.cpp:84] Creating Layer Convolution28
I1006 21:21:50.642650  4081 net.cpp:406] Convolution28 <- Eltwise12_penlu25_0_split_0
I1006 21:21:50.642654  4081 net.cpp:380] Convolution28 -> Convolution28
I1006 21:21:50.649109  4081 net.cpp:122] Setting up Convolution28
I1006 21:21:50.649118  4081 net.cpp:129] Top shape: 100 64 8 8 (409600)
I1006 21:21:50.649128  4081 net.cpp:137] Memory required for data: 633652400
I1006 21:21:50.649134  4081 layer_factory.hpp:77] Creating layer BatchNorm28
I1006 21:21:50.649139  4081 net.cpp:84] Creating Layer BatchNorm28
I1006 21:21:50.649142  4081 net.cpp:406] BatchNorm28 <- Convolution28
I1006 21:21:50.649147  4081 net.cpp:367] BatchNorm28 -> Convolution28 (in-place)
I1006 21:21:50.649299  4081 net.cpp:122] Setting up BatchNorm28
I1006 21:21:50.649303  4081 net.cpp:129] Top shape: 100 64 8 8 (409600)
I1006 21:21:50.649305  4081 net.cpp:137] Memory required for data: 635290800
I1006 21:21:50.649310  4081 layer_factory.hpp:77] Creating layer Scale28
I1006 21:21:50.649314  4081 net.cpp:84] Creating Layer Scale28
I1006 21:21:50.649317  4081 net.cpp:406] Scale28 <- Convolution28
I1006 21:21:50.649320  4081 net.cpp:367] Scale28 -> Convolution28 (in-place)
I1006 21:21:50.649351  4081 layer_factory.hpp:77] Creating layer Scale28
I1006 21:21:50.649436  4081 net.cpp:122] Setting up Scale28
I1006 21:21:50.649441  4081 net.cpp:129] Top shape: 100 64 8 8 (409600)
I1006 21:21:50.649443  4081 net.cpp:137] Memory required for data: 636929200
I1006 21:21:50.649446  4081 layer_factory.hpp:77] Creating layer penlu26
I1006 21:21:50.649452  4081 net.cpp:84] Creating Layer penlu26
I1006 21:21:50.649456  4081 net.cpp:406] penlu26 <- Convolution28
I1006 21:21:50.649458  4081 net.cpp:367] penlu26 -> Convolution28 (in-place)
I1006 21:21:50.649580  4081 net.cpp:122] Setting up penlu26
I1006 21:21:50.649585  4081 net.cpp:129] Top shape: 100 64 8 8 (409600)
I1006 21:21:50.649586  4081 net.cpp:137] Memory required for data: 638567600
I1006 21:21:50.649591  4081 layer_factory.hpp:77] Creating layer Convolution29
I1006 21:21:50.649600  4081 net.cpp:84] Creating Layer Convolution29
I1006 21:21:50.649602  4081 net.cpp:406] Convolution29 <- Convolution28
I1006 21:21:50.649605  4081 net.cpp:380] Convolution29 -> Convolution29
I1006 21:21:50.655412  4081 net.cpp:122] Setting up Convolution29
I1006 21:21:50.655422  4081 net.cpp:129] Top shape: 100 64 8 8 (409600)
I1006 21:21:50.655426  4081 net.cpp:137] Memory required for data: 640206000
I1006 21:21:50.655429  4081 layer_factory.hpp:77] Creating layer BatchNorm29
I1006 21:21:50.655434  4081 net.cpp:84] Creating Layer BatchNorm29
I1006 21:21:50.655436  4081 net.cpp:406] BatchNorm29 <- Convolution29
I1006 21:21:50.655441  4081 net.cpp:367] BatchNorm29 -> Convolution29 (in-place)
I1006 21:21:50.655592  4081 net.cpp:122] Setting up BatchNorm29
I1006 21:21:50.655596  4081 net.cpp:129] Top shape: 100 64 8 8 (409600)
I1006 21:21:50.655599  4081 net.cpp:137] Memory required for data: 641844400
I1006 21:21:50.655603  4081 layer_factory.hpp:77] Creating layer Scale29
I1006 21:21:50.655607  4081 net.cpp:84] Creating Layer Scale29
I1006 21:21:50.655611  4081 net.cpp:406] Scale29 <- Convolution29
I1006 21:21:50.655613  4081 net.cpp:367] Scale29 -> Convolution29 (in-place)
I1006 21:21:50.655644  4081 layer_factory.hpp:77] Creating layer Scale29
I1006 21:21:50.655731  4081 net.cpp:122] Setting up Scale29
I1006 21:21:50.655735  4081 net.cpp:129] Top shape: 100 64 8 8 (409600)
I1006 21:21:50.655738  4081 net.cpp:137] Memory required for data: 643482800
I1006 21:21:50.655741  4081 layer_factory.hpp:77] Creating layer Eltwise13
I1006 21:21:50.655745  4081 net.cpp:84] Creating Layer Eltwise13
I1006 21:21:50.655748  4081 net.cpp:406] Eltwise13 <- Eltwise12_penlu25_0_split_1
I1006 21:21:50.655751  4081 net.cpp:406] Eltwise13 <- Convolution29
I1006 21:21:50.655755  4081 net.cpp:380] Eltwise13 -> Eltwise13
I1006 21:21:50.655773  4081 net.cpp:122] Setting up Eltwise13
I1006 21:21:50.655777  4081 net.cpp:129] Top shape: 100 64 8 8 (409600)
I1006 21:21:50.655779  4081 net.cpp:137] Memory required for data: 645121200
I1006 21:21:50.655781  4081 layer_factory.hpp:77] Creating layer penlu27
I1006 21:21:50.655786  4081 net.cpp:84] Creating Layer penlu27
I1006 21:21:50.655788  4081 net.cpp:406] penlu27 <- Eltwise13
I1006 21:21:50.655792  4081 net.cpp:367] penlu27 -> Eltwise13 (in-place)
I1006 21:21:50.655925  4081 net.cpp:122] Setting up penlu27
I1006 21:21:50.655930  4081 net.cpp:129] Top shape: 100 64 8 8 (409600)
I1006 21:21:50.655931  4081 net.cpp:137] Memory required for data: 646759600
I1006 21:21:50.655936  4081 layer_factory.hpp:77] Creating layer Eltwise13_penlu27_0_split
I1006 21:21:50.655939  4081 net.cpp:84] Creating Layer Eltwise13_penlu27_0_split
I1006 21:21:50.655942  4081 net.cpp:406] Eltwise13_penlu27_0_split <- Eltwise13
I1006 21:21:50.655946  4081 net.cpp:380] Eltwise13_penlu27_0_split -> Eltwise13_penlu27_0_split_0
I1006 21:21:50.655949  4081 net.cpp:380] Eltwise13_penlu27_0_split -> Eltwise13_penlu27_0_split_1
I1006 21:21:50.655977  4081 net.cpp:122] Setting up Eltwise13_penlu27_0_split
I1006 21:21:50.655980  4081 net.cpp:129] Top shape: 100 64 8 8 (409600)
I1006 21:21:50.655982  4081 net.cpp:129] Top shape: 100 64 8 8 (409600)
I1006 21:21:50.655985  4081 net.cpp:137] Memory required for data: 650036400
I1006 21:21:50.655987  4081 layer_factory.hpp:77] Creating layer Convolution30
I1006 21:21:50.655992  4081 net.cpp:84] Creating Layer Convolution30
I1006 21:21:50.655994  4081 net.cpp:406] Convolution30 <- Eltwise13_penlu27_0_split_0
I1006 21:21:50.655999  4081 net.cpp:380] Convolution30 -> Convolution30
I1006 21:21:50.662288  4081 net.cpp:122] Setting up Convolution30
I1006 21:21:50.662297  4081 net.cpp:129] Top shape: 100 64 8 8 (409600)
I1006 21:21:50.662300  4081 net.cpp:137] Memory required for data: 651674800
I1006 21:21:50.662305  4081 layer_factory.hpp:77] Creating layer BatchNorm30
I1006 21:21:50.662310  4081 net.cpp:84] Creating Layer BatchNorm30
I1006 21:21:50.662313  4081 net.cpp:406] BatchNorm30 <- Convolution30
I1006 21:21:50.662317  4081 net.cpp:367] BatchNorm30 -> Convolution30 (in-place)
I1006 21:21:50.662472  4081 net.cpp:122] Setting up BatchNorm30
I1006 21:21:50.662477  4081 net.cpp:129] Top shape: 100 64 8 8 (409600)
I1006 21:21:50.662479  4081 net.cpp:137] Memory required for data: 653313200
I1006 21:21:50.662484  4081 layer_factory.hpp:77] Creating layer Scale30
I1006 21:21:50.662488  4081 net.cpp:84] Creating Layer Scale30
I1006 21:21:50.662492  4081 net.cpp:406] Scale30 <- Convolution30
I1006 21:21:50.662494  4081 net.cpp:367] Scale30 -> Convolution30 (in-place)
I1006 21:21:50.662528  4081 layer_factory.hpp:77] Creating layer Scale30
I1006 21:21:50.662616  4081 net.cpp:122] Setting up Scale30
I1006 21:21:50.662621  4081 net.cpp:129] Top shape: 100 64 8 8 (409600)
I1006 21:21:50.662622  4081 net.cpp:137] Memory required for data: 654951600
I1006 21:21:50.662626  4081 layer_factory.hpp:77] Creating layer penlu28
I1006 21:21:50.662632  4081 net.cpp:84] Creating Layer penlu28
I1006 21:21:50.662634  4081 net.cpp:406] penlu28 <- Convolution30
I1006 21:21:50.662637  4081 net.cpp:367] penlu28 -> Convolution30 (in-place)
I1006 21:21:50.662760  4081 net.cpp:122] Setting up penlu28
I1006 21:21:50.662763  4081 net.cpp:129] Top shape: 100 64 8 8 (409600)
I1006 21:21:50.662765  4081 net.cpp:137] Memory required for data: 656590000
I1006 21:21:50.662770  4081 layer_factory.hpp:77] Creating layer Convolution31
I1006 21:21:50.662776  4081 net.cpp:84] Creating Layer Convolution31
I1006 21:21:50.662780  4081 net.cpp:406] Convolution31 <- Convolution30
I1006 21:21:50.662782  4081 net.cpp:380] Convolution31 -> Convolution31
I1006 21:21:50.668607  4081 net.cpp:122] Setting up Convolution31
I1006 21:21:50.668617  4081 net.cpp:129] Top shape: 100 64 8 8 (409600)
I1006 21:21:50.668619  4081 net.cpp:137] Memory required for data: 658228400
I1006 21:21:50.668624  4081 layer_factory.hpp:77] Creating layer BatchNorm31
I1006 21:21:50.668629  4081 net.cpp:84] Creating Layer BatchNorm31
I1006 21:21:50.668632  4081 net.cpp:406] BatchNorm31 <- Convolution31
I1006 21:21:50.668637  4081 net.cpp:367] BatchNorm31 -> Convolution31 (in-place)
I1006 21:21:50.668792  4081 net.cpp:122] Setting up BatchNorm31
I1006 21:21:50.668797  4081 net.cpp:129] Top shape: 100 64 8 8 (409600)
I1006 21:21:50.668799  4081 net.cpp:137] Memory required for data: 659866800
I1006 21:21:50.668803  4081 layer_factory.hpp:77] Creating layer Scale31
I1006 21:21:50.668815  4081 net.cpp:84] Creating Layer Scale31
I1006 21:21:50.668818  4081 net.cpp:406] Scale31 <- Convolution31
I1006 21:21:50.668823  4081 net.cpp:367] Scale31 -> Convolution31 (in-place)
I1006 21:21:50.668855  4081 layer_factory.hpp:77] Creating layer Scale31
I1006 21:21:50.668946  4081 net.cpp:122] Setting up Scale31
I1006 21:21:50.668951  4081 net.cpp:129] Top shape: 100 64 8 8 (409600)
I1006 21:21:50.668953  4081 net.cpp:137] Memory required for data: 661505200
I1006 21:21:50.668961  4081 layer_factory.hpp:77] Creating layer Eltwise14
I1006 21:21:50.668967  4081 net.cpp:84] Creating Layer Eltwise14
I1006 21:21:50.668972  4081 net.cpp:406] Eltwise14 <- Eltwise13_penlu27_0_split_1
I1006 21:21:50.668977  4081 net.cpp:406] Eltwise14 <- Convolution31
I1006 21:21:50.668982  4081 net.cpp:380] Eltwise14 -> Eltwise14
I1006 21:21:50.669008  4081 net.cpp:122] Setting up Eltwise14
I1006 21:21:50.669024  4081 net.cpp:129] Top shape: 100 64 8 8 (409600)
I1006 21:21:50.669028  4081 net.cpp:137] Memory required for data: 663143600
I1006 21:21:50.669031  4081 layer_factory.hpp:77] Creating layer penlu29
I1006 21:21:50.669049  4081 net.cpp:84] Creating Layer penlu29
I1006 21:21:50.669054  4081 net.cpp:406] penlu29 <- Eltwise14
I1006 21:21:50.669059  4081 net.cpp:367] penlu29 -> Eltwise14 (in-place)
I1006 21:21:50.669198  4081 net.cpp:122] Setting up penlu29
I1006 21:21:50.669203  4081 net.cpp:129] Top shape: 100 64 8 8 (409600)
I1006 21:21:50.669205  4081 net.cpp:137] Memory required for data: 664782000
I1006 21:21:50.669210  4081 layer_factory.hpp:77] Creating layer Eltwise14_penlu29_0_split
I1006 21:21:50.669214  4081 net.cpp:84] Creating Layer Eltwise14_penlu29_0_split
I1006 21:21:50.669216  4081 net.cpp:406] Eltwise14_penlu29_0_split <- Eltwise14
I1006 21:21:50.669220  4081 net.cpp:380] Eltwise14_penlu29_0_split -> Eltwise14_penlu29_0_split_0
I1006 21:21:50.669226  4081 net.cpp:380] Eltwise14_penlu29_0_split -> Eltwise14_penlu29_0_split_1
I1006 21:21:50.669255  4081 net.cpp:122] Setting up Eltwise14_penlu29_0_split
I1006 21:21:50.669258  4081 net.cpp:129] Top shape: 100 64 8 8 (409600)
I1006 21:21:50.669260  4081 net.cpp:129] Top shape: 100 64 8 8 (409600)
I1006 21:21:50.669262  4081 net.cpp:137] Memory required for data: 668058800
I1006 21:21:50.669265  4081 layer_factory.hpp:77] Creating layer Convolution32
I1006 21:21:50.669271  4081 net.cpp:84] Creating Layer Convolution32
I1006 21:21:50.669275  4081 net.cpp:406] Convolution32 <- Eltwise14_penlu29_0_split_0
I1006 21:21:50.669278  4081 net.cpp:380] Convolution32 -> Convolution32
I1006 21:21:50.676123  4081 net.cpp:122] Setting up Convolution32
I1006 21:21:50.676132  4081 net.cpp:129] Top shape: 100 64 8 8 (409600)
I1006 21:21:50.676136  4081 net.cpp:137] Memory required for data: 669697200
I1006 21:21:50.676141  4081 layer_factory.hpp:77] Creating layer BatchNorm32
I1006 21:21:50.676146  4081 net.cpp:84] Creating Layer BatchNorm32
I1006 21:21:50.676148  4081 net.cpp:406] BatchNorm32 <- Convolution32
I1006 21:21:50.676152  4081 net.cpp:367] BatchNorm32 -> Convolution32 (in-place)
I1006 21:21:50.676307  4081 net.cpp:122] Setting up BatchNorm32
I1006 21:21:50.676312  4081 net.cpp:129] Top shape: 100 64 8 8 (409600)
I1006 21:21:50.676314  4081 net.cpp:137] Memory required for data: 671335600
I1006 21:21:50.676319  4081 layer_factory.hpp:77] Creating layer Scale32
I1006 21:21:50.676323  4081 net.cpp:84] Creating Layer Scale32
I1006 21:21:50.676326  4081 net.cpp:406] Scale32 <- Convolution32
I1006 21:21:50.676328  4081 net.cpp:367] Scale32 -> Convolution32 (in-place)
I1006 21:21:50.676359  4081 layer_factory.hpp:77] Creating layer Scale32
I1006 21:21:50.676447  4081 net.cpp:122] Setting up Scale32
I1006 21:21:50.676452  4081 net.cpp:129] Top shape: 100 64 8 8 (409600)
I1006 21:21:50.676455  4081 net.cpp:137] Memory required for data: 672974000
I1006 21:21:50.676457  4081 layer_factory.hpp:77] Creating layer penlu30
I1006 21:21:50.676462  4081 net.cpp:84] Creating Layer penlu30
I1006 21:21:50.676465  4081 net.cpp:406] penlu30 <- Convolution32
I1006 21:21:50.676476  4081 net.cpp:367] penlu30 -> Convolution32 (in-place)
I1006 21:21:50.676600  4081 net.cpp:122] Setting up penlu30
I1006 21:21:50.676605  4081 net.cpp:129] Top shape: 100 64 8 8 (409600)
I1006 21:21:50.676607  4081 net.cpp:137] Memory required for data: 674612400
I1006 21:21:50.676611  4081 layer_factory.hpp:77] Creating layer Convolution33
I1006 21:21:50.676618  4081 net.cpp:84] Creating Layer Convolution33
I1006 21:21:50.676621  4081 net.cpp:406] Convolution33 <- Convolution32
I1006 21:21:50.676625  4081 net.cpp:380] Convolution33 -> Convolution33
I1006 21:21:50.681143  4081 net.cpp:122] Setting up Convolution33
I1006 21:21:50.681151  4081 net.cpp:129] Top shape: 100 64 8 8 (409600)
I1006 21:21:50.681154  4081 net.cpp:137] Memory required for data: 676250800
I1006 21:21:50.681159  4081 layer_factory.hpp:77] Creating layer BatchNorm33
I1006 21:21:50.681164  4081 net.cpp:84] Creating Layer BatchNorm33
I1006 21:21:50.681166  4081 net.cpp:406] BatchNorm33 <- Convolution33
I1006 21:21:50.681169  4081 net.cpp:367] BatchNorm33 -> Convolution33 (in-place)
I1006 21:21:50.681321  4081 net.cpp:122] Setting up BatchNorm33
I1006 21:21:50.681326  4081 net.cpp:129] Top shape: 100 64 8 8 (409600)
I1006 21:21:50.681329  4081 net.cpp:137] Memory required for data: 677889200
I1006 21:21:50.681334  4081 layer_factory.hpp:77] Creating layer Scale33
I1006 21:21:50.681336  4081 net.cpp:84] Creating Layer Scale33
I1006 21:21:50.681339  4081 net.cpp:406] Scale33 <- Convolution33
I1006 21:21:50.681342  4081 net.cpp:367] Scale33 -> Convolution33 (in-place)
I1006 21:21:50.681375  4081 layer_factory.hpp:77] Creating layer Scale33
I1006 21:21:50.681462  4081 net.cpp:122] Setting up Scale33
I1006 21:21:50.681466  4081 net.cpp:129] Top shape: 100 64 8 8 (409600)
I1006 21:21:50.681468  4081 net.cpp:137] Memory required for data: 679527600
I1006 21:21:50.681473  4081 layer_factory.hpp:77] Creating layer Eltwise15
I1006 21:21:50.681476  4081 net.cpp:84] Creating Layer Eltwise15
I1006 21:21:50.681479  4081 net.cpp:406] Eltwise15 <- Eltwise14_penlu29_0_split_1
I1006 21:21:50.681483  4081 net.cpp:406] Eltwise15 <- Convolution33
I1006 21:21:50.681485  4081 net.cpp:380] Eltwise15 -> Eltwise15
I1006 21:21:50.681504  4081 net.cpp:122] Setting up Eltwise15
I1006 21:21:50.681509  4081 net.cpp:129] Top shape: 100 64 8 8 (409600)
I1006 21:21:50.681510  4081 net.cpp:137] Memory required for data: 681166000
I1006 21:21:50.681512  4081 layer_factory.hpp:77] Creating layer penlu31
I1006 21:21:50.681517  4081 net.cpp:84] Creating Layer penlu31
I1006 21:21:50.681520  4081 net.cpp:406] penlu31 <- Eltwise15
I1006 21:21:50.681524  4081 net.cpp:367] penlu31 -> Eltwise15 (in-place)
I1006 21:21:50.681645  4081 net.cpp:122] Setting up penlu31
I1006 21:21:50.681650  4081 net.cpp:129] Top shape: 100 64 8 8 (409600)
I1006 21:21:50.681653  4081 net.cpp:137] Memory required for data: 682804400
I1006 21:21:50.681656  4081 layer_factory.hpp:77] Creating layer Pooling1
I1006 21:21:50.681663  4081 net.cpp:84] Creating Layer Pooling1
I1006 21:21:50.681664  4081 net.cpp:406] Pooling1 <- Eltwise15
I1006 21:21:50.681668  4081 net.cpp:380] Pooling1 -> Pooling1
I1006 21:21:50.681808  4081 net.cpp:122] Setting up Pooling1
I1006 21:21:50.681814  4081 net.cpp:129] Top shape: 100 64 1 1 (6400)
I1006 21:21:50.681816  4081 net.cpp:137] Memory required for data: 682830000
I1006 21:21:50.681818  4081 layer_factory.hpp:77] Creating layer InnerProduct1
I1006 21:21:50.681823  4081 net.cpp:84] Creating Layer InnerProduct1
I1006 21:21:50.681826  4081 net.cpp:406] InnerProduct1 <- Pooling1
I1006 21:21:50.681831  4081 net.cpp:380] InnerProduct1 -> InnerProduct1
I1006 21:21:50.681939  4081 net.cpp:122] Setting up InnerProduct1
I1006 21:21:50.681943  4081 net.cpp:129] Top shape: 100 10 (1000)
I1006 21:21:50.681946  4081 net.cpp:137] Memory required for data: 682834000
I1006 21:21:50.681949  4081 layer_factory.hpp:77] Creating layer InnerProduct1_InnerProduct1_0_split
I1006 21:21:50.681954  4081 net.cpp:84] Creating Layer InnerProduct1_InnerProduct1_0_split
I1006 21:21:50.681957  4081 net.cpp:406] InnerProduct1_InnerProduct1_0_split <- InnerProduct1
I1006 21:21:50.681967  4081 net.cpp:380] InnerProduct1_InnerProduct1_0_split -> InnerProduct1_InnerProduct1_0_split_0
I1006 21:21:50.681972  4081 net.cpp:380] InnerProduct1_InnerProduct1_0_split -> InnerProduct1_InnerProduct1_0_split_1
I1006 21:21:50.682001  4081 net.cpp:122] Setting up InnerProduct1_InnerProduct1_0_split
I1006 21:21:50.682005  4081 net.cpp:129] Top shape: 100 10 (1000)
I1006 21:21:50.682008  4081 net.cpp:129] Top shape: 100 10 (1000)
I1006 21:21:50.682010  4081 net.cpp:137] Memory required for data: 682842000
I1006 21:21:50.682013  4081 layer_factory.hpp:77] Creating layer SoftmaxWithLoss1
I1006 21:21:50.682016  4081 net.cpp:84] Creating Layer SoftmaxWithLoss1
I1006 21:21:50.682019  4081 net.cpp:406] SoftmaxWithLoss1 <- InnerProduct1_InnerProduct1_0_split_0
I1006 21:21:50.682021  4081 net.cpp:406] SoftmaxWithLoss1 <- Data2_Data1_1_split_0
…
