…
I1007 10:06:33.257877  4720 net.cpp:294] The NetState phase (0) differed from the phase (1) specified by a rule in layer Accuracy1
I1007 10:06:33.258582  4720 net.cpp:51] Initializing net from parameters: 
name: "resnet_cifar10"
state {
  phase: TRAIN
  level: 0
  stage: ""
}
layer {
  name: "Data1"
  type: "Data"
  top: "Data1"
  top: "Data2"
  include {
    phase: TRAIN
  }
  transform_param {
    mirror: true
    crop_size: 28
    mean_file: "/home/x306/caffe/xn/PENLU/data/cifar10/mean.binaryproto"
  }
  data_param {
    source: "/home/x306/caffe/xn/PENLU/data/cifar10/cifar10_train_lmdb"
    batch_size: 100
    backend: LMDB
  }
}
layer {
  name: "Convolution1"
  type: "Convolution"
  bottom: "Data1"
  top: "Convolution1"
  param {
    lr_mult: 1
    decay_mult: 1
  }
  param {
    lr_mult: 2
    decay_mult: 0
  }
  convolution_param {
    num_output: 16
    pad: 1
    kernel_size: 3
    stride: 1
    weight_filler {
      type: "gaussian"
      std: 0.118
    }
    bias_filler {
      type: "constant"
      value: 0
    }
  }
}
layer {
  name: "BatchNorm1"
  type: "BatchNorm"
  bottom: "Convolution1"
  top: "Convolution1"
  param {
    lr_mult: 0
    decay_mult: 0
  }
  param {
    lr_mult: 0
    decay_mult: 0
  }
  param {
    lr_mult: 0
    decay_mult: 0
  }
}
layer {
  name: "Scale1"
  type: "Scale"
  bottom: "Convolution1"
  top: "Convolution1"
  scale_param {
    bias_term: true
  }
}
layer {
  name: "penlu1"
  type: "PENLU"
  bottom: "Convolution1"
  top: "Convolution1"
  param {
    lr_mult: 2
    decay_mult: 2
  }
  param {
    lr_mult: 2
    decay_mult: 2
  }
  param {
    lr_mult: 0
    decay_mult: 0
  }
  penlu_param {
    alpha_filler {
      type: "constant"
      value: 1
    }
    beta_filler {
      type: "constant"
      value: 1
    }
    eta_filler {
      type: "constant"
      value: 1
    }
  }
}
layer {
  name: "Convolution2"
  type: "Convolution"
  bottom: "Convolution1"
  top: "Convolution2"
  param {
    lr_mult: 1
    decay_mult: 1
  }
  param {
    lr_mult: 2
    decay_mult: 0
  }
  convolution_param {
    num_output: 16
    pad: 1
    kernel_size: 3
    stride: 1
    weight_filler {
      type: "gaussian"
      std: 0.118
    }
    bias_filler {
      type: "constant"
      value: 0
    }
  }
}
layer {
  name: "BatchNorm2"
  type: "BatchNorm"
  bottom: "Convolution2"
  top: "Convolution2"
  param {
    lr_mult: 0
    decay_mult: 0
  }
  param {
    lr_mult: 0
    decay_mult: 0
  }
  param {
    lr_mult: 0
    decay_mult: 0
  }
}
layer {
  name: "Scale2"
  type: "Scale"
  bottom: "Convolution2"
  top: "Convolution2"
  scale_param {
    bias_term: true
  }
}
layer {
  name: "penlu2"
  type: "PENLU"
  bottom: "Convolution2"
  top: "Convolution2"
  param {
    lr_mult: 2
    decay_mult: 2
  }
  param {
    lr_mult: 2
    decay_mult: 2
  }
  param {
    lr_mult: 0
    decay_mult: 0
  }
  penlu_param {
    alpha_filler {
      type: "constant"
      value: 1
    }
    beta_filler {
      type: "constant"
      value: 1
    }
    eta_filler {
      type: "constant"
      value: 1
    }
  }
}
layer {
  name: "Convolution3"
  type: "Convolution"
  bottom: "Convolution2"
  top: "Convolution3"
  param {
    lr_mult: 1
    decay_mult: 1
  }
  param {
    lr_mult: 2
    decay_mult: 0
  }
  convolution_param {
    num_output: 16
    pad: 1
    kernel_size: 3
    stride: 1
    weight_filler {
      type: "gaussian"
      std: 0.118
    }
    bias_filler {
      type: "constant"
      value: 0
    }
  }
}
layer {
  name: "BatchNorm3"
  type: "BatchNorm"
  bottom: "Convolution3"
  top: "Convolution3"
  param {
    lr_mult: 0
    decay_mult: 0
  }
  param {
    lr_mult: 0
    decay_mult: 0
  }
  param {
    lr_mult: 0
    decay_mult: 0
  }
}
layer {
  name: "Scale3"
  type: "Scale"
  bottom: "Convolution3"
  top: "Convolution3"
  scale_param {
    bias_term: true
  }
}
layer {
  name: "Eltwise1"
  type: "Eltwise"
  bottom: "Convolution1"
  bottom: "Convolution3"
  top: "Eltwise1"
  eltwise_param {
    operation: SUM
  }
}
layer {
  name: "penlu3"
  type: "PENLU"
  bottom: "Eltwise1"
  top: "Eltwise1"
  param {
    lr_mult: 2
    decay_mult: 2
  }
  param {
    lr_mult: 2
    decay_mult: 2
  }
  param {
    lr_mult: 0
    decay_mult: 0
  }
  penlu_param {
    alpha_filler {
      type: "constant"
      value: 1
    }
    beta_filler {
      type: "constant"
      value: 1
    }
    eta_filler {
      type: "constant"
      value: 1
    }
  }
}
layer {
  name: "Convolution4"
  type: "Convolution"
  bottom: "Eltwise1"
  top: "Convolution4"
  param {
    lr_mult: 1
    decay_mult: 1
  }
  param {
    lr_mult: 2
    decay_mult: 0
  }
  convolution_param {
    num_output: 16
    pad: 1
    kernel_size: 3
    stride: 1
    weight_filler {
      type: "gaussian"
      std: 0.118
    }
    bias_filler {
      type: "constant"
      value: 0
    }
  }
}
layer {
  name: "BatchNorm4"
  type: "BatchNorm"
  bottom: "Convolution4"
  top: "Convolution4"
  param {
    lr_mult: 0
    decay_mult: 0
  }
  param {
    lr_mult: 0
    decay_mult: 0
  }
  param {
    lr_mult: 0
    decay_mult: 0
  }
}
layer {
  name: "Scale4"
  type: "Scale"
  bottom: "Convolution4"
  top: "Convolution4"
  scale_param {
    bias_term: true
  }
}
layer {
  name: "penlu4"
  type: "PENLU"
  bottom: "Convolution4"
  top: "Convolution4"
  param {
    lr_mult: 2
    decay_mult: 2
  }
  param {
    lr_mult: 2
    decay_mult: 2
  }
  param {
    lr_mult: 0
    decay_mult: 0
  }
  penlu_param {
    alpha_filler {
      type: "constant"
      value: 1
    }
    beta_filler {
      type: "constant"
      value: 1
    }
    eta_filler {
      type: "constant"
      value: 1
    }
  }
}
layer {
  name: "Convolution5"
  type: "Convolution"
  bottom: "Convolution4"
  top: "Convolution5"
  param {
    lr_mult: 1
    decay_mult: 1
  }
  param {
    lr_mult: 2
    decay_mult: 0
  }
  convolution_param {
    num_output: 16
    pad: 1
    kernel_size: 3
    stride: 1
    weight_filler {
      type: "gaussian"
      std: 0.118
    }
    bias_filler {
      type: "constant"
      value: 0
    }
  }
}
layer {
  name: "BatchNorm5"
  type: "BatchNorm"
  bottom: "Convolution5"
  top: "Convolution5"
  param {
    lr_mult: 0
    decay_mult: 0
  }
  param {
    lr_mult: 0
    decay_mult: 0
  }
  param {
    lr_mult: 0
    decay_mult: 0
  }
}
layer {
  name: "Scale5"
  type: "Scale"
  bottom: "Convolution5"
  top: "Convolution5"
  scale_param {
    bias_term: true
  }
}
layer {
  name: "Eltwise2"
  type: "Eltwise"
  bottom: "Eltwise1"
  bottom: "Convolution5"
  top: "Eltwise2"
  eltwise_param {
    operation: SUM
  }
}
layer {
  name: "penlu5"
  type: "PENLU"
  bottom: "Eltwise2"
  top: "Eltwise2"
  param {
    lr_mult: 2
    decay_mult: 2
  }
  param {
    lr_mult: 2
    decay_mult: 2
  }
  param {
    lr_mult: 0
    decay_mult: 0
  }
  penlu_param {
    alpha_filler {
      type: "constant"
      value: 1
    }
    beta_filler {
      type: "constant"
      value: 1
    }
    eta_filler {
      type: "constant"
      value: 1
    }
  }
}
layer {
  name: "Convolution6"
  type: "Convolution"
  bottom: "Eltwise2"
  top: "Convolution6"
  param {
    lr_mult: 1
    decay_mult: 1
  }
  param {
    lr_mult: 2
    decay_mult: 0
  }
  convolution_param {
    num_output: 16
    pad: 1
    kernel_size: 3
    stride: 1
    weight_filler {
      type: "gaussian"
      std: 0.118
    }
    bias_filler {
      type: "constant"
      value: 0
    }
  }
}
layer {
  name: "BatchNorm6"
  type: "BatchNorm"
  bottom: "Convolution6"
  top: "Convolution6"
  param {
    lr_mult: 0
    decay_mult: 0
  }
  param {
    lr_mult: 0
    decay_mult: 0
  }
  param {
    lr_mult: 0
    decay_mult: 0
  }
}
layer {
  name: "Scale6"
  type: "Scale"
  bottom: "Convolution6"
  top: "Convolution6"
  scale_param {
    bias_term: true
  }
}
layer {
  name: "penlu6"
  type: "PENLU"
  bottom: "Convolution6"
  top: "Convolution6"
  param {
    lr_mult: 2
    decay_mult: 2
  }
  param {
    lr_mult: 2
    decay_mult: 2
  }
  param {
    lr_mult: 0
    decay_mult: 0
  }
  penlu_param {
    alpha_filler {
      type: "constant"
      value: 1
    }
    beta_filler {
      type: "constant"
      value: 1
    }
    eta_filler {
      type: "constant"
      value: 1
    }
  }
}
layer {
  name: "Convolution7"
  type: "Convolution"
  bottom: "Convolution6"
  top: "Convolution7"
  param {
    lr_mult: 1
    decay_mult: 1
  }
  param {
    lr_mult: 2
    decay_mult: 0
  }
  convolution_param {
    num_output: 16
    pad: 1
    kernel_size: 3
    stride: 1
    weight_filler {
      type: "gaussian"
      std: 0.118
    }
    bias_filler {
      type: "constant"
      value: 0
    }
  }
}
layer {
  name: "BatchNorm7"
  type: "BatchNorm"
  bottom: "Convolution7"
  top: "Convolution7"
  param {
    lr_mult: 0
    decay_mult: 0
  }
  param {
    lr_mult: 0
    decay_mult: 0
  }
  param {
    lr_mult: 0
    decay_mult: 0
  }
}
layer {
  name: "Scale7"
  type: "Scale"
  bottom: "Convolution7"
  top: "Convolution7"
  scale_param {
    bias_term: true
  }
}
layer {
  name: "Eltwise3"
  type: "Eltwise"
  bottom: "Eltwise2"
  bottom: "Convolution7"
  top: "Eltwise3"
  eltwise_param {
    operation: SUM
  }
}
layer {
  name: "penlu7"
  type: "PENLU"
  bottom: "Eltwise3"
  top: "Eltwise3"
  param {
    lr_mult: 2
    decay_mult: 2
  }
  param {
    lr_mult: 2
    decay_mult: 2
  }
  param {
    lr_mult: 0
    decay_mult: 0
  }
  penlu_param {
    alpha_filler {
      type: "constant"
      value: 1
    }
    beta_filler {
      type: "constant"
      value: 1
    }
    eta_filler {
      type: "constant"
      value: 1
    }
  }
}
layer {
  name: "Convolution8"
  type: "Convolution"
  bottom: "Eltwise3"
  top: "Convolution8"
  param {
    lr_mult: 1
    decay_mult: 1
  }
  param {
    lr_mult: 2
    decay_mult: 0
  }
  convolution_param {
    num_output: 16
    pad: 1
    kernel_size: 3
    stride: 1
    weight_filler {
      type: "gaussian"
      std: 0.118
    }
    bias_filler {
      type: "constant"
      value: 0
    }
  }
}
layer {
  name: "BatchNorm8"
  type: "BatchNorm"
  bottom: "Convolution8"
  top: "Convolution8"
  param {
    lr_mult: 0
    decay_mult: 0
  }
  param {
    lr_mult: 0
    decay_mult: 0
  }
  param {
    lr_mult: 0
    decay_mult: 0
  }
}
layer {
  name: "Scale8"
  type: "Scale"
  bottom: "Convolution8"
  top: "Convolution8"
  scale_param {
    bias_term: true
  }
}
layer {
  name: "penlu8"
  type: "PENLU"
  bottom: "Convolution8"
  top: "Convolution8"
  param {
    lr_mult: 2
    decay_mult: 2
  }
  param {
    lr_mult: 2
    decay_mult: 2
  }
  param {
    lr_mult: 0
    decay_mult: 0
  }
  penlu_param {
    alpha_filler {
      type: "constant"
      value: 1
    }
    beta_filler {
      type: "constant"
      value: 1
    }
    eta_filler {
      type: "constant"
      value: 1
    }
  }
}
layer {
  name: "Convolution9"
  type: "Convolution"
  bottom: "Convolution8"
  top: "Convolution9"
  param {
    lr_mult: 1
    decay_mult: 1
  }
  param {
    lr_mult: 2
    decay_mult: 0
  }
  convolution_param {
    num_output: 16
    pad: 1
    kernel_size: 3
    stride: 1
    weight_filler {
      type: "gaussian"
      std: 0.118
    }
    bias_filler {
      type: "constant"
      value: 0
    }
  }
}
layer {
  name: "BatchNorm9"
  type: "BatchNorm"
  bottom: "Convolution9"
  top: "Convolution9"
  param {
    lr_mult: 0
    decay_mult: 0
  }
  param {
    lr_mult: 0
    decay_mult: 0
  }
  param {
    lr_mult: 0
    decay_mult: 0
  }
}
layer {
  name: "Scale9"
  type: "Scale"
  bottom: "Convolution9"
  top: "Convolution9"
  scale_param {
    bias_term: true
  }
}
layer {
  name: "Eltwise4"
  type: "Eltwise"
  bottom: "Eltwise3"
  bottom: "Convolution9"
  top: "Eltwise4"
  eltwise_param {
    operation: SUM
  }
}
layer {
  name: "penlu9"
  type: "PENLU"
  bottom: "Eltwise4"
  top: "Eltwise4"
  param {
    lr_mult: 2
    decay_mult: 2
  }
  param {
    lr_mult: 2
    decay_mult: 2
  }
  param {
    lr_mult: 0
    decay_mult: 0
  }
  penlu_param {
    alpha_filler {
      type: "constant"
      value: 1
    }
    beta_filler {
      type: "constant"
      value: 1
    }
    eta_filler {
      type: "constant"
      value: 1
    }
  }
}
layer {
  name: "Convolution10"
  type: "Convolution"
  bottom: "Eltwise4"
  top: "Convolution10"
  param {
    lr_mult: 1
    decay_mult: 1
  }
  param {
    lr_mult: 2
    decay_mult: 0
  }
  convolution_param {
    num_output: 16
    pad: 1
    kernel_size: 3
    stride: 1
    weight_filler {
      type: "gaussian"
      std: 0.118
    }
    bias_filler {
      type: "constant"
      value: 0
    }
  }
}
layer {
  name: "BatchNorm10"
  type: "BatchNorm"
  bottom: "Convolution10"
  top: "Convolution10"
  param {
    lr_mult: 0
    decay_mult: 0
  }
  param {
    lr_mult: 0
    decay_mult: 0
  }
  param {
    lr_mult: 0
    decay_mult: 0
  }
}
layer {
  name: "Scale10"
  type: "Scale"
  bottom: "Convolution10"
  top: "Convolution10"
  scale_param {
    bias_term: true
  }
}
layer {
  name: "penlu10"
  type: "PENLU"
  bottom: "Convolution10"
  top: "Convolution10"
  param {
    lr_mult: 2
    decay_mult: 2
  }
  param {
    lr_mult: 2
    decay_mult: 2
  }
  param {
    lr_mult: 0
    decay_mult: 0
  }
  penlu_param {
    alpha_filler {
      type: "constant"
      value: 1
    }
    beta_filler {
      type: "constant"
      value: 1
    }
    eta_filler {
      type: "constant"
      value: 1
    }
  }
}
layer {
  name: "Convolution11"
  type: "Convolution"
  bottom: "Convolution10"
  top: "Convolution11"
  param {
    lr_mult: 1
    decay_mult: 1
  }
  param {
    lr_mult: 2
    decay_mult: 0
  }
  convolution_param {
    num_output: 16
    pad: 1
    kernel_size: 3
    stride: 1
    weight_filler {
      type: "gaussian"
      std: 0.118
    }
    bias_filler {
      type: "constant"
      value: 0
    }
  }
}
layer {
  name: "BatchNorm11"
  type: "BatchNorm"
  bottom: "Convolution11"
  top: "Convolution11"
  param {
    lr_mult: 0
    decay_mult: 0
  }
  param {
    lr_mult: 0
    decay_mult: 0
  }
  param {
    lr_mult: 0
    decay_mult: 0
  }
}
layer {
  name: "Scale11"
  type: "Scale"
  bottom: "Convolution11"
  top: "Convolution11"
  scale_param {
    bias_term: true
  }
}
layer {
  name: "Eltwise5"
  type: "Eltwise"
  bottom: "Eltwise4"
  bottom: "Convolution11"
  top: "Eltwise5"
  eltwise_param {
    operation: SUM
  }
}
layer {
  name: "penlu11"
  type: "PENLU"
  bottom: "Eltwise5"
  top: "Eltwise5"
  param {
    lr_mult: 2
    decay_mult: 2
  }
  param {
    lr_mult: 2
    decay_mult: 2
  }
  param {
    lr_mult: 0
    decay_mult: 0
  }
  penlu_param {
    alpha_filler {
      type: "constant"
      value: 1
    }
    beta_filler {
      type: "constant"
      value: 1
    }
    eta_filler {
      type: "constant"
      value: 1
    }
  }
}
layer {
  name: "Convolution12"
  type: "Convolution"
  bottom: "Eltwise5"
  top: "Convolution12"
  param {
    lr_mult: 1
    decay_mult: 1
  }
  param {
    lr_mult: 2
    decay_mult: 0
  }
  convolution_param {
    num_output: 32
    pad: 0
    kernel_size: 1
    stride: 2
    weight_filler {
      type: "gaussian"
      std: 0.25
    }
    bias_filler {
      type: "constant"
      value: 0
    }
  }
}
layer {
  name: "BatchNorm12"
  type: "BatchNorm"
  bottom: "Convolution12"
  top: "Convolution12"
  param {
    lr_mult: 0
    decay_mult: 0
  }
  param {
    lr_mult: 0
    decay_mult: 0
  }
  param {
    lr_mult: 0
    decay_mult: 0
  }
}
layer {
  name: "Scale12"
  type: "Scale"
  bottom: "Convolution12"
  top: "Convolution12"
  scale_param {
    bias_term: true
  }
}
layer {
  name: "Convolution13"
  type: "Convolution"
  bottom: "Eltwise5"
  top: "Convolution13"
  param {
    lr_mult: 1
    decay_mult: 1
  }
  param {
    lr_mult: 2
    decay_mult: 0
  }
  convolution_param {
    num_output: 32
    pad: 1
    kernel_size: 3
    stride: 2
    weight_filler {
      type: "gaussian"
      std: 0.083
    }
    bias_filler {
      type: "constant"
      value: 0
    }
  }
}
layer {
  name: "BatchNorm13"
  type: "BatchNorm"
  bottom: "Convolution13"
  top: "Convolution13"
  param {
    lr_mult: 0
    decay_mult: 0
  }
  param {
    lr_mult: 0
    decay_mult: 0
  }
  param {
    lr_mult: 0
    decay_mult: 0
  }
}
layer {
  name: "Scale13"
  type: "Scale"
  bottom: "Convolution13"
  top: "Convolution13"
  scale_param {
    bias_term: true
  }
}
layer {
  name: "penlu12"
  type: "PENLU"
  bottom: "Convolution13"
  top: "Convolution13"
  param {
    lr_mult: 2
    decay_mult: 2
  }
  param {
    lr_mult: 2
    decay_mult: 2
  }
  param {
    lr_mult: 0
    decay_mult: 0
  }
  penlu_param {
    alpha_filler {
      type: "constant"
      value: 1
    }
    beta_filler {
      type: "constant"
      value: 1
    }
    eta_filler {
      type: "constant"
      value: 1
    }
  }
}
layer {
  name: "Convolution14"
  type: "Convolution"
  bottom: "Convolution13"
  top: "Convolution14"
  param {
    lr_mult: 1
    decay_mult: 1
  }
  param {
    lr_mult: 2
    decay_mult: 0
  }
  convolution_param {
    num_output: 32
    pad: 1
    kernel_size: 3
    stride: 1
    weight_filler {
      type: "gaussian"
      std: 0.083
    }
    bias_filler {
      type: "constant"
      value: 0
    }
  }
}
layer {
  name: "BatchNorm14"
  type: "BatchNorm"
  bottom: "Convolution14"
  top: "Convolution14"
  param {
    lr_mult: 0
    decay_mult: 0
  }
  param {
    lr_mult: 0
    decay_mult: 0
  }
  param {
    lr_mult: 0
    decay_mult: 0
  }
}
layer {
  name: "Scale14"
  type: "Scale"
  bottom: "Convolution14"
  top: "Convolution14"
  scale_param {
    bias_term: true
  }
}
layer {
  name: "Eltwise6"
  type: "Eltwise"
  bottom: "Convolution12"
  bottom: "Convolution14"
  top: "Eltwise6"
  eltwise_param {
    operation: SUM
  }
}
layer {
  name: "penlu13"
  type: "PENLU"
  bottom: "Eltwise6"
  top: "Eltwise6"
  param {
    lr_mult: 2
    decay_mult: 2
  }
  param {
    lr_mult: 2
    decay_mult: 2
  }
  param {
    lr_mult: 0
    decay_mult: 0
  }
  penlu_param {
    alpha_filler {
      type: "constant"
      value: 1
    }
    beta_filler {
      type: "constant"
      value: 1
    }
    eta_filler {
      type: "constant"
      value: 1
    }
  }
}
layer {
  name: "Convolution15"
  type: "Convolution"
  bottom: "Eltwise6"
  top: "Convolution15"
  param {
    lr_mult: 1
    decay_mult: 1
  }
  param {
    lr_mult: 2
    decay_mult: 0
  }
  convolution_param {
    num_output: 32
    pad: 1
    kernel_size: 3
    stride: 1
    weight_filler {
      type: "gaussian"
      std: 0.083
    }
    bias_filler {
      type: "constant"
      value: 0
    }
  }
}
layer {
  name: "BatchNorm15"
  type: "BatchNorm"
  bottom: "Convolution15"
  top: "Convolution15"
  param {
    lr_mult: 0
    decay_mult: 0
  }
  param {
    lr_mult: 0
    decay_mult: 0
  }
  param {
    lr_mult: 0
    decay_mult: 0
  }
}
layer {
  name: "Scale15"
  type: "Scale"
  bottom: "Convolution15"
  top: "Convolution15"
  scale_param {
    bias_term: true
  }
}
layer {
  name: "penlu14"
  type: "PENLU"
  bottom: "Convolution15"
  top: "Convolution15"
  param {
    lr_mult: 2
    decay_mult: 2
  }
  param {
    lr_mult: 2
    decay_mult: 2
  }
  param {
    lr_mult: 0
    decay_mult: 0
  }
  penlu_param {
    alpha_filler {
      type: "constant"
      value: 1
    }
    beta_filler {
      type: "constant"
      value: 1
    }
    eta_filler {
      type: "constant"
      value: 1
    }
  }
}
layer {
  name: "Convolution16"
  type: "Convolution"
  bottom: "Convolution15"
  top: "Convolution16"
  param {
    lr_mult: 1
    decay_mult: 1
  }
  param {
    lr_mult: 2
    decay_mult: 0
  }
  convolution_param {
    num_output: 32
    pad: 1
    kernel_size: 3
    stride: 1
    weight_filler {
      type: "gaussian"
      std: 0.083
    }
    bias_filler {
      type: "constant"
      value: 0
    }
  }
}
layer {
  name: "BatchNorm16"
  type: "BatchNorm"
  bottom: "Convolution16"
  top: "Convolution16"
  param {
    lr_mult: 0
    decay_mult: 0
  }
  param {
    lr_mult: 0
    decay_mult: 0
  }
  param {
    lr_mult: 0
    decay_mult: 0
  }
}
layer {
  name: "Scale16"
  type: "Scale"
  bottom: "Convolution16"
  top: "Convolution16"
  scale_param {
    bias_term: true
  }
}
layer {
  name: "Eltwise7"
  type: "Eltwise"
  bottom: "Eltwise6"
  bottom: "Convolution16"
  top: "Eltwise7"
  eltwise_param {
    operation: SUM
  }
}
layer {
  name: "penlu15"
  type: "PENLU"
  bottom: "Eltwise7"
  top: "Eltwise7"
  param {
    lr_mult: 2
    decay_mult: 2
  }
  param {
    lr_mult: 2
    decay_mult: 2
  }
  param {
    lr_mult: 0
    decay_mult: 0
  }
  penlu_param {
    alpha_filler {
      type: "constant"
      value: 1
    }
    beta_filler {
      type: "constant"
      value: 1
    }
    eta_filler {
      type: "constant"
      value: 1
    }
  }
}
layer {
  name: "Convolution17"
  type: "Convolution"
  bottom: "Eltwise7"
  top: "Convolution17"
  param {
    lr_mult: 1
    decay_mult: 1
  }
  param {
    lr_mult: 2
    decay_mult: 0
  }
  convolution_param {
    num_output: 32
    pad: 1
    kernel_size: 3
    stride: 1
    weight_filler {
      type: "gaussian"
      std: 0.083
    }
    bias_filler {
      type: "constant"
      value: 0
    }
  }
}
layer {
  name: "BatchNorm17"
  type: "BatchNorm"
  bottom: "Convolution17"
  top: "Convolution17"
  param {
    lr_mult: 0
    decay_mult: 0
  }
  param {
    lr_mult: 0
    decay_mult: 0
  }
  param {
    lr_mult: 0
    decay_mult: 0
  }
}
layer {
  name: "Scale17"
  type: "Scale"
  bottom: "Convolution17"
  top: "Convolution17"
  scale_param {
    bias_term: true
  }
}
layer {
  name: "penlu16"
  type: "PENLU"
  bottom: "Convolution17"
  top: "Convolution17"
  param {
    lr_mult: 2
    decay_mult: 2
  }
  param {
    lr_mult: 2
    decay_mult: 2
  }
  param {
    lr_mult: 0
    decay_mult: 0
  }
  penlu_param {
    alpha_filler {
      type: "constant"
      value: 1
    }
    beta_filler {
      type: "constant"
      value: 1
    }
    eta_filler {
      type: "constant"
      value: 1
    }
  }
}
layer {
  name: "Convolution18"
  type: "Convolution"
  bottom: "Convolution17"
  top: "Convolution18"
  param {
    lr_mult: 1
    decay_mult: 1
  }
  param {
    lr_mult: 2
    decay_mult: 0
  }
  convolution_param {
    num_output: 32
    pad: 1
    kernel_size: 3
    stride: 1
    weight_filler {
      type: "gaussian"
      std: 0.083
    }
    bias_filler {
      type: "constant"
      value: 0
    }
  }
}
layer {
  name: "BatchNorm18"
  type: "BatchNorm"
  bottom: "Convolution18"
  top: "Convolution18"
  param {
    lr_mult: 0
    decay_mult: 0
  }
  param {
    lr_mult: 0
    decay_mult: 0
  }
  param {
    lr_mult: 0
    decay_mult: 0
  }
}
layer {
  name: "Scale18"
  type: "Scale"
  bottom: "Convolution18"
  top: "Convolution18"
  scale_param {
    bias_term: true
  }
}
layer {
  name: "Eltwise8"
  type: "Eltwise"
  bottom: "Eltwise7"
  bottom: "Convolution18"
  top: "Eltwise8"
  eltwise_param {
    operation: SUM
  }
}
layer {
  name: "penlu17"
  type: "PENLU"
  bottom: "Eltwise8"
  top: "Eltwise8"
  param {
    lr_mult: 2
    decay_mult: 2
  }
  param {
    lr_mult: 2
    decay_mult: 2
  }
  param {
    lr_mult: 0
    decay_mult: 0
  }
  penlu_param {
    alpha_filler {
      type: "constant"
      value: 1
    }
    beta_filler {
      type: "constant"
      value: 1
    }
    eta_filler {
      type: "constant"
      value: 1
    }
  }
}
layer {
  name: "Convolution19"
  type: "Convolution"
  bottom: "Eltwise8"
  top: "Convolution19"
  param {
    lr_mult: 1
    decay_mult: 1
  }
  param {
    lr_mult: 2
    decay_mult: 0
  }
  convolution_param {
    num_output: 32
    pad: 1
    kernel_size: 3
    stride: 1
    weight_filler {
      type: "gaussian"
      std: 0.083
    }
    bias_filler {
      type: "constant"
      value: 0
    }
  }
}
layer {
  name: "BatchNorm19"
  type: "BatchNorm"
  bottom: "Convolution19"
  top: "Convolution19"
  param {
    lr_mult: 0
    decay_mult: 0
  }
  param {
    lr_mult: 0
    decay_mult: 0
  }
  param {
    lr_mult: 0
    decay_mult: 0
  }
}
layer {
  name: "Scale19"
  type: "Scale"
  bottom: "Convolution19"
  top: "Convolution19"
  scale_param {
    bias_term: true
  }
}
layer {
  name: "penlu18"
  type: "PENLU"
  bottom: "Convolution19"
  top: "Convolution19"
  param {
    lr_mult: 2
    decay_mult: 2
  }
  param {
    lr_mult: 2
    decay_mult: 2
  }
  param {
    lr_mult: 0
    decay_mult: 0
  }
  penlu_param {
    alpha_filler {
      type: "constant"
      value: 1
    }
    beta_filler {
      type: "constant"
      value: 1
    }
    eta_filler {
      type: "constant"
      value: 1
    }
  }
}
layer {
  name: "Convolution20"
  type: "Convolution"
  bottom: "Convolution19"
  top: "Convolution20"
  param {
    lr_mult: 1
    decay_mult: 1
  }
  param {
    lr_mult: 2
    decay_mult: 0
  }
  convolution_param {
    num_output: 32
    pad: 1
    kernel_size: 3
    stride: 1
    weight_filler {
      type: "gaussian"
      std: 0.083
    }
    bias_filler {
      type: "constant"
      value: 0
    }
  }
}
layer {
  name: "BatchNorm20"
  type: "BatchNorm"
  bottom: "Convolution20"
  top: "Convolution20"
  param {
    lr_mult: 0
    decay_mult: 0
  }
  param {
    lr_mult: 0
    decay_mult: 0
  }
  param {
    lr_mult: 0
    decay_mult: 0
  }
}
layer {
  name: "Scale20"
  type: "Scale"
  bottom: "Convolution20"
  top: "Convolution20"
  scale_param {
    bias_term: true
  }
}
layer {
  name: "Eltwise9"
  type: "Eltwise"
  bottom: "Eltwise8"
  bottom: "Convolution20"
  top: "Eltwise9"
  eltwise_param {
    operation: SUM
  }
}
layer {
  name: "penlu19"
  type: "PENLU"
  bottom: "Eltwise9"
  top: "Eltwise9"
  param {
    lr_mult: 2
    decay_mult: 2
  }
  param {
    lr_mult: 2
    decay_mult: 2
  }
  param {
    lr_mult: 0
    decay_mult: 0
  }
  penlu_param {
    alpha_filler {
      type: "constant"
      value: 1
    }
    beta_filler {
      type: "constant"
      value: 1
    }
    eta_filler {
      type: "constant"
      value: 1
    }
  }
}
layer {
  name: "Convolution21"
  type: "Convolution"
  bottom: "Eltwise9"
  top: "Convolution21"
  param {
    lr_mult: 1
    decay_mult: 1
  }
  param {
    lr_mult: 2
    decay_mult: 0
  }
  convolution_param {
    num_output: 32
    pad: 1
    kernel_size: 3
    stride: 1
    weight_filler {
      type: "gaussian"
      std: 0.083
    }
    bias_filler {
      type: "constant"
      value: 0
    }
  }
}
layer {
  name: "BatchNorm21"
  type: "BatchNorm"
  bottom: "Convolution21"
  top: "Convolution21"
  param {
    lr_mult: 0
    decay_mult: 0
  }
  param {
    lr_mult: 0
    decay_mult: 0
  }
  param {
    lr_mult: 0
    decay_mult: 0
  }
}
layer {
  name: "Scale21"
  type: "Scale"
  bottom: "Convolution21"
  top: "Convolution21"
  scale_param {
    bias_term: true
  }
}
layer {
  name: "penlu20"
  type: "PENLU"
  bottom: "Convolution21"
  top: "Convolution21"
  param {
    lr_mult: 2
    decay_mult: 2
  }
  param {
    lr_mult: 2
    decay_mult: 2
  }
  param {
    lr_mult: 0
    decay_mult: 0
  }
  penlu_param {
    alpha_filler {
      type: "constant"
      value: 1
    }
    beta_filler {
      type: "constant"
      value: 1
    }
    eta_filler {
      type: "constant"
      value: 1
    }
  }
}
layer {
  name: "Convolution22"
  type: "Convolution"
  bottom: "Convolution21"
  top: "Convolution22"
  param {
    lr_mult: 1
    decay_mult: 1
  }
  param {
    lr_mult: 2
    decay_mult: 0
  }
  convolution_param {
    num_output: 32
    pad: 1
    kernel_size: 3
    stride: 1
    weight_filler {
      type: "gaussian"
      std: 0.083
    }
    bias_filler {
      type: "constant"
      value: 0
    }
  }
}
layer {
  name: "BatchNorm22"
  type: "BatchNorm"
  bottom: "Convolution22"
  top: "Convolution22"
  param {
    lr_mult: 0
    decay_mult: 0
  }
  param {
    lr_mult: 0
    decay_mult: 0
  }
  param {
    lr_mult: 0
    decay_mult: 0
  }
}
layer {
  name: "Scale22"
  type: "Scale"
  bottom: "Convolution22"
  top: "Convolution22"
  scale_param {
    bias_term: true
  }
}
layer {
  name: "Eltwise10"
  type: "Eltwise"
  bottom: "Eltwise9"
  bottom: "Convolution22"
  top: "Eltwise10"
  eltwise_param {
    operation: SUM
  }
}
layer {
  name: "penlu21"
  type: "PENLU"
  bottom: "Eltwise10"
  top: "Eltwise10"
  param {
    lr_mult: 2
    decay_mult: 2
  }
  param {
    lr_mult: 2
    decay_mult: 2
  }
  param {
    lr_mult: 0
    decay_mult: 0
  }
  penlu_param {
    alpha_filler {
      type: "constant"
      value: 1
    }
    beta_filler {
      type: "constant"
      value: 1
    }
    eta_filler {
      type: "constant"
      value: 1
    }
  }
}
layer {
  name: "Convolution23"
  type: "Convolution"
  bottom: "Eltwise10"
  top: "Convolution23"
  param {
    lr_mult: 1
    decay_mult: 1
  }
  param {
    lr_mult: 2
    decay_mult: 0
  }
  convolution_param {
    num_output: 64
    pad: 0
    kernel_size: 1
    stride: 2
    weight_filler {
      type: "gaussian"
      std: 0.17677669
    }
    bias_filler {
      type: "constant"
      value: 0
    }
  }
}
layer {
  name: "BatchNorm23"
  type: "BatchNorm"
  bottom: "Convolution23"
  top: "Convolution23"
  param {
    lr_mult: 0
    decay_mult: 0
  }
  param {
    lr_mult: 0
    decay_mult: 0
  }
  param {
    lr_mult: 0
    decay_mult: 0
  }
}
layer {
  name: "Scale23"
  type: "Scale"
  bottom: "Convolution23"
  top: "Convolution23"
  scale_param {
    bias_term: true
  }
}
layer {
  name: "Convolution24"
  type: "Convolution"
  bottom: "Eltwise10"
  top: "Convolution24"
  param {
    lr_mult: 1
    decay_mult: 1
  }
  param {
    lr_mult: 2
    decay_mult: 0
  }
  convolution_param {
    num_output: 64
    pad: 1
    kernel_size: 3
    stride: 2
    weight_filler {
      type: "gaussian"
      std: 0.059
    }
    bias_filler {
      type: "constant"
      value: 0
    }
  }
}
layer {
  name: "BatchNorm24"
  type: "BatchNorm"
  bottom: "Convolution24"
  top: "Convolution24"
  param {
    lr_mult: 0
    decay_mult: 0
  }
  param {
    lr_mult: 0
    decay_mult: 0
  }
  param {
    lr_mult: 0
    decay_mult: 0
  }
}
layer {
  name: "Scale24"
  type: "Scale"
  bottom: "Convolution24"
  top: "Convolution24"
  scale_param {
    bias
I1007 10:06:33.259265  4720 layer_factory.hpp:77] Creating layer Data1
I1007 10:06:33.259363  4720 db_lmdb.cpp:35] Opened lmdb /home/x306/caffe/xn/PENLU/data/cifar10/cifar10_train_lmdb
I1007 10:06:33.259389  4720 net.cpp:84] Creating Layer Data1
I1007 10:06:33.259398  4720 net.cpp:380] Data1 -> Data1
I1007 10:06:33.259423  4720 net.cpp:380] Data1 -> Data2
I1007 10:06:33.259435  4720 data_transformer.cpp:25] Loading mean file from: /home/x306/caffe/xn/PENLU/data/cifar10/mean.binaryproto
I1007 10:06:33.260989  4720 data_layer.cpp:45] output data size: 100,3,28,28
I1007 10:06:33.263315  4720 net.cpp:122] Setting up Data1
I1007 10:06:33.263329  4720 net.cpp:129] Top shape: 100 3 28 28 (235200)
I1007 10:06:33.263334  4720 net.cpp:129] Top shape: 100 (100)
I1007 10:06:33.263335  4720 net.cpp:137] Memory required for data: 941200
I1007 10:06:33.263341  4720 layer_factory.hpp:77] Creating layer Convolution1
I1007 10:06:33.263358  4720 net.cpp:84] Creating Layer Convolution1
I1007 10:06:33.263363  4720 net.cpp:406] Convolution1 <- Data1
I1007 10:06:33.263372  4720 net.cpp:380] Convolution1 -> Convolution1
I1007 10:06:33.407353  4720 net.cpp:122] Setting up Convolution1
I1007 10:06:33.407377  4720 net.cpp:129] Top shape: 100 16 28 28 (1254400)
I1007 10:06:33.407380  4720 net.cpp:137] Memory required for data: 5958800
I1007 10:06:33.407395  4720 layer_factory.hpp:77] Creating layer BatchNorm1
I1007 10:06:33.407421  4720 net.cpp:84] Creating Layer BatchNorm1
I1007 10:06:33.407436  4720 net.cpp:406] BatchNorm1 <- Convolution1
I1007 10:06:33.407450  4720 net.cpp:367] BatchNorm1 -> Convolution1 (in-place)
I1007 10:06:33.407594  4720 net.cpp:122] Setting up BatchNorm1
I1007 10:06:33.407600  4720 net.cpp:129] Top shape: 100 16 28 28 (1254400)
I1007 10:06:33.407603  4720 net.cpp:137] Memory required for data: 10976400
I1007 10:06:33.407610  4720 layer_factory.hpp:77] Creating layer Scale1
I1007 10:06:33.407619  4720 net.cpp:84] Creating Layer Scale1
I1007 10:06:33.407634  4720 net.cpp:406] Scale1 <- Convolution1
I1007 10:06:33.407639  4720 net.cpp:367] Scale1 -> Convolution1 (in-place)
I1007 10:06:33.407685  4720 layer_factory.hpp:77] Creating layer Scale1
I1007 10:06:33.407781  4720 net.cpp:122] Setting up Scale1
I1007 10:06:33.407786  4720 net.cpp:129] Top shape: 100 16 28 28 (1254400)
I1007 10:06:33.407788  4720 net.cpp:137] Memory required for data: 15994000
I1007 10:06:33.407793  4720 layer_factory.hpp:77] Creating layer penlu1
I1007 10:06:33.407802  4720 net.cpp:84] Creating Layer penlu1
I1007 10:06:33.407806  4720 net.cpp:406] penlu1 <- Convolution1
I1007 10:06:33.407824  4720 net.cpp:367] penlu1 -> Convolution1 (in-place)
I1007 10:06:33.408421  4720 net.cpp:122] Setting up penlu1
I1007 10:06:33.408430  4720 net.cpp:129] Top shape: 100 16 28 28 (1254400)
I1007 10:06:33.408433  4720 net.cpp:137] Memory required for data: 21011600
I1007 10:06:33.408440  4720 layer_factory.hpp:77] Creating layer Convolution1_penlu1_0_split
I1007 10:06:33.408445  4720 net.cpp:84] Creating Layer Convolution1_penlu1_0_split
I1007 10:06:33.408449  4720 net.cpp:406] Convolution1_penlu1_0_split <- Convolution1
I1007 10:06:33.408464  4720 net.cpp:380] Convolution1_penlu1_0_split -> Convolution1_penlu1_0_split_0
I1007 10:06:33.408473  4720 net.cpp:380] Convolution1_penlu1_0_split -> Convolution1_penlu1_0_split_1
I1007 10:06:33.408507  4720 net.cpp:122] Setting up Convolution1_penlu1_0_split
I1007 10:06:33.408512  4720 net.cpp:129] Top shape: 100 16 28 28 (1254400)
I1007 10:06:33.408526  4720 net.cpp:129] Top shape: 100 16 28 28 (1254400)
I1007 10:06:33.408529  4720 net.cpp:137] Memory required for data: 31046800
I1007 10:06:33.408530  4720 layer_factory.hpp:77] Creating layer Convolution2
I1007 10:06:33.408548  4720 net.cpp:84] Creating Layer Convolution2
I1007 10:06:33.408551  4720 net.cpp:406] Convolution2 <- Convolution1_penlu1_0_split_0
I1007 10:06:33.408569  4720 net.cpp:380] Convolution2 -> Convolution2
I1007 10:06:33.409404  4720 net.cpp:122] Setting up Convolution2
I1007 10:06:33.409415  4720 net.cpp:129] Top shape: 100 16 28 28 (1254400)
I1007 10:06:33.409420  4720 net.cpp:137] Memory required for data: 36064400
I1007 10:06:33.409435  4720 layer_factory.hpp:77] Creating layer BatchNorm2
I1007 10:06:33.409440  4720 net.cpp:84] Creating Layer BatchNorm2
I1007 10:06:33.409445  4720 net.cpp:406] BatchNorm2 <- Convolution2
I1007 10:06:33.409449  4720 net.cpp:367] BatchNorm2 -> Convolution2 (in-place)
I1007 10:06:33.409606  4720 net.cpp:122] Setting up BatchNorm2
I1007 10:06:33.409612  4720 net.cpp:129] Top shape: 100 16 28 28 (1254400)
I1007 10:06:33.409624  4720 net.cpp:137] Memory required for data: 41082000
I1007 10:06:33.409631  4720 layer_factory.hpp:77] Creating layer Scale2
I1007 10:06:33.409636  4720 net.cpp:84] Creating Layer Scale2
I1007 10:06:33.409649  4720 net.cpp:406] Scale2 <- Convolution2
I1007 10:06:33.409653  4720 net.cpp:367] Scale2 -> Convolution2 (in-place)
I1007 10:06:33.409696  4720 layer_factory.hpp:77] Creating layer Scale2
I1007 10:06:33.409797  4720 net.cpp:122] Setting up Scale2
I1007 10:06:33.409802  4720 net.cpp:129] Top shape: 100 16 28 28 (1254400)
I1007 10:06:33.409814  4720 net.cpp:137] Memory required for data: 46099600
I1007 10:06:33.409821  4720 layer_factory.hpp:77] Creating layer penlu2
I1007 10:06:33.409837  4720 net.cpp:84] Creating Layer penlu2
I1007 10:06:33.409842  4720 net.cpp:406] penlu2 <- Convolution2
I1007 10:06:33.409847  4720 net.cpp:367] penlu2 -> Convolution2 (in-place)
I1007 10:06:33.409965  4720 net.cpp:122] Setting up penlu2
I1007 10:06:33.409977  4720 net.cpp:129] Top shape: 100 16 28 28 (1254400)
I1007 10:06:33.409989  4720 net.cpp:137] Memory required for data: 51117200
I1007 10:06:33.409994  4720 layer_factory.hpp:77] Creating layer Convolution3
I1007 10:06:33.410012  4720 net.cpp:84] Creating Layer Convolution3
I1007 10:06:33.410014  4720 net.cpp:406] Convolution3 <- Convolution2
I1007 10:06:33.410019  4720 net.cpp:380] Convolution3 -> Convolution3
I1007 10:06:33.410890  4720 net.cpp:122] Setting up Convolution3
I1007 10:06:33.410900  4720 net.cpp:129] Top shape: 100 16 28 28 (1254400)
I1007 10:06:33.410913  4720 net.cpp:137] Memory required for data: 56134800
I1007 10:06:33.410917  4720 layer_factory.hpp:77] Creating layer BatchNorm3
I1007 10:06:33.410923  4720 net.cpp:84] Creating Layer BatchNorm3
I1007 10:06:33.410926  4720 net.cpp:406] BatchNorm3 <- Convolution3
I1007 10:06:33.410930  4720 net.cpp:367] BatchNorm3 -> Convolution3 (in-place)
I1007 10:06:33.411062  4720 net.cpp:122] Setting up BatchNorm3
I1007 10:06:33.411067  4720 net.cpp:129] Top shape: 100 16 28 28 (1254400)
I1007 10:06:33.411079  4720 net.cpp:137] Memory required for data: 61152400
I1007 10:06:33.411084  4720 layer_factory.hpp:77] Creating layer Scale3
I1007 10:06:33.411089  4720 net.cpp:84] Creating Layer Scale3
I1007 10:06:33.411092  4720 net.cpp:406] Scale3 <- Convolution3
I1007 10:06:33.411095  4720 net.cpp:367] Scale3 -> Convolution3 (in-place)
I1007 10:06:33.411130  4720 layer_factory.hpp:77] Creating layer Scale3
I1007 10:06:33.411229  4720 net.cpp:122] Setting up Scale3
I1007 10:06:33.411234  4720 net.cpp:129] Top shape: 100 16 28 28 (1254400)
I1007 10:06:33.411247  4720 net.cpp:137] Memory required for data: 66170000
I1007 10:06:33.411252  4720 layer_factory.hpp:77] Creating layer Eltwise1
I1007 10:06:33.411255  4720 net.cpp:84] Creating Layer Eltwise1
I1007 10:06:33.411258  4720 net.cpp:406] Eltwise1 <- Convolution1_penlu1_0_split_1
I1007 10:06:33.411260  4720 net.cpp:406] Eltwise1 <- Convolution3
I1007 10:06:33.411264  4720 net.cpp:380] Eltwise1 -> Eltwise1
I1007 10:06:33.411283  4720 net.cpp:122] Setting up Eltwise1
I1007 10:06:33.411295  4720 net.cpp:129] Top shape: 100 16 28 28 (1254400)
I1007 10:06:33.411298  4720 net.cpp:137] Memory required for data: 71187600
I1007 10:06:33.411299  4720 layer_factory.hpp:77] Creating layer penlu3
I1007 10:06:33.411315  4720 net.cpp:84] Creating Layer penlu3
I1007 10:06:33.411317  4720 net.cpp:406] penlu3 <- Eltwise1
I1007 10:06:33.411321  4720 net.cpp:367] penlu3 -> Eltwise1 (in-place)
I1007 10:06:33.411429  4720 net.cpp:122] Setting up penlu3
I1007 10:06:33.411434  4720 net.cpp:129] Top shape: 100 16 28 28 (1254400)
I1007 10:06:33.411437  4720 net.cpp:137] Memory required for data: 76205200
I1007 10:06:33.411451  4720 layer_factory.hpp:77] Creating layer Eltwise1_penlu3_0_split
I1007 10:06:33.411455  4720 net.cpp:84] Creating Layer Eltwise1_penlu3_0_split
I1007 10:06:33.411458  4720 net.cpp:406] Eltwise1_penlu3_0_split <- Eltwise1
I1007 10:06:33.411460  4720 net.cpp:380] Eltwise1_penlu3_0_split -> Eltwise1_penlu3_0_split_0
I1007 10:06:33.411465  4720 net.cpp:380] Eltwise1_penlu3_0_split -> Eltwise1_penlu3_0_split_1
I1007 10:06:33.411487  4720 net.cpp:122] Setting up Eltwise1_penlu3_0_split
I1007 10:06:33.411492  4720 net.cpp:129] Top shape: 100 16 28 28 (1254400)
I1007 10:06:33.411504  4720 net.cpp:129] Top shape: 100 16 28 28 (1254400)
I1007 10:06:33.411506  4720 net.cpp:137] Memory required for data: 86240400
I1007 10:06:33.411509  4720 layer_factory.hpp:77] Creating layer Convolution4
I1007 10:06:33.411526  4720 net.cpp:84] Creating Layer Convolution4
I1007 10:06:33.411528  4720 net.cpp:406] Convolution4 <- Eltwise1_penlu3_0_split_0
I1007 10:06:33.411533  4720 net.cpp:380] Convolution4 -> Convolution4
I1007 10:06:33.412406  4720 net.cpp:122] Setting up Convolution4
I1007 10:06:33.412416  4720 net.cpp:129] Top shape: 100 16 28 28 (1254400)
I1007 10:06:33.412428  4720 net.cpp:137] Memory required for data: 91258000
I1007 10:06:33.412433  4720 layer_factory.hpp:77] Creating layer BatchNorm4
I1007 10:06:33.412439  4720 net.cpp:84] Creating Layer BatchNorm4
I1007 10:06:33.412451  4720 net.cpp:406] BatchNorm4 <- Convolution4
I1007 10:06:33.412456  4720 net.cpp:367] BatchNorm4 -> Convolution4 (in-place)
I1007 10:06:33.412585  4720 net.cpp:122] Setting up BatchNorm4
I1007 10:06:33.412590  4720 net.cpp:129] Top shape: 100 16 28 28 (1254400)
I1007 10:06:33.412603  4720 net.cpp:137] Memory required for data: 96275600
I1007 10:06:33.412611  4720 layer_factory.hpp:77] Creating layer Scale4
I1007 10:06:33.412616  4720 net.cpp:84] Creating Layer Scale4
I1007 10:06:33.412621  4720 net.cpp:406] Scale4 <- Convolution4
I1007 10:06:33.412623  4720 net.cpp:367] Scale4 -> Convolution4 (in-place)
I1007 10:06:33.412658  4720 layer_factory.hpp:77] Creating layer Scale4
I1007 10:06:33.412741  4720 net.cpp:122] Setting up Scale4
I1007 10:06:33.412747  4720 net.cpp:129] Top shape: 100 16 28 28 (1254400)
I1007 10:06:33.412750  4720 net.cpp:137] Memory required for data: 101293200
I1007 10:06:33.412755  4720 layer_factory.hpp:77] Creating layer penlu4
I1007 10:06:33.412760  4720 net.cpp:84] Creating Layer penlu4
I1007 10:06:33.412762  4720 net.cpp:406] penlu4 <- Convolution4
I1007 10:06:33.412766  4720 net.cpp:367] penlu4 -> Convolution4 (in-place)
I1007 10:06:33.412864  4720 net.cpp:122] Setting up penlu4
I1007 10:06:33.412870  4720 net.cpp:129] Top shape: 100 16 28 28 (1254400)
I1007 10:06:33.412873  4720 net.cpp:137] Memory required for data: 106310800
I1007 10:06:33.412878  4720 layer_factory.hpp:77] Creating layer Convolution5
I1007 10:06:33.412885  4720 net.cpp:84] Creating Layer Convolution5
I1007 10:06:33.412889  4720 net.cpp:406] Convolution5 <- Convolution4
I1007 10:06:33.412894  4720 net.cpp:380] Convolution5 -> Convolution5
I1007 10:06:33.413776  4720 net.cpp:122] Setting up Convolution5
I1007 10:06:33.413786  4720 net.cpp:129] Top shape: 100 16 28 28 (1254400)
I1007 10:06:33.413790  4720 net.cpp:137] Memory required for data: 111328400
I1007 10:06:33.413794  4720 layer_factory.hpp:77] Creating layer BatchNorm5
I1007 10:06:33.413800  4720 net.cpp:84] Creating Layer BatchNorm5
I1007 10:06:33.413805  4720 net.cpp:406] BatchNorm5 <- Convolution5
I1007 10:06:33.413807  4720 net.cpp:367] BatchNorm5 -> Convolution5 (in-place)
I1007 10:06:33.413935  4720 net.cpp:122] Setting up BatchNorm5
I1007 10:06:33.413941  4720 net.cpp:129] Top shape: 100 16 28 28 (1254400)
I1007 10:06:33.413944  4720 net.cpp:137] Memory required for data: 116346000
I1007 10:06:33.413949  4720 layer_factory.hpp:77] Creating layer Scale5
I1007 10:06:33.413954  4720 net.cpp:84] Creating Layer Scale5
I1007 10:06:33.413957  4720 net.cpp:406] Scale5 <- Convolution5
I1007 10:06:33.413960  4720 net.cpp:367] Scale5 -> Convolution5 (in-place)
I1007 10:06:33.413988  4720 layer_factory.hpp:77] Creating layer Scale5
I1007 10:06:33.414064  4720 net.cpp:122] Setting up Scale5
I1007 10:06:33.414070  4720 net.cpp:129] Top shape: 100 16 28 28 (1254400)
I1007 10:06:33.414073  4720 net.cpp:137] Memory required for data: 121363600
I1007 10:06:33.414077  4720 layer_factory.hpp:77] Creating layer Eltwise2
I1007 10:06:33.414082  4720 net.cpp:84] Creating Layer Eltwise2
I1007 10:06:33.414084  4720 net.cpp:406] Eltwise2 <- Eltwise1_penlu3_0_split_1
I1007 10:06:33.414088  4720 net.cpp:406] Eltwise2 <- Convolution5
I1007 10:06:33.414091  4720 net.cpp:380] Eltwise2 -> Eltwise2
I1007 10:06:33.414108  4720 net.cpp:122] Setting up Eltwise2
I1007 10:06:33.414113  4720 net.cpp:129] Top shape: 100 16 28 28 (1254400)
I1007 10:06:33.414114  4720 net.cpp:137] Memory required for data: 126381200
I1007 10:06:33.414117  4720 layer_factory.hpp:77] Creating layer penlu5
I1007 10:06:33.414122  4720 net.cpp:84] Creating Layer penlu5
I1007 10:06:33.414125  4720 net.cpp:406] penlu5 <- Eltwise2
I1007 10:06:33.414130  4720 net.cpp:367] penlu5 -> Eltwise2 (in-place)
I1007 10:06:33.414233  4720 net.cpp:122] Setting up penlu5
I1007 10:06:33.414238  4720 net.cpp:129] Top shape: 100 16 28 28 (1254400)
I1007 10:06:33.414242  4720 net.cpp:137] Memory required for data: 131398800
I1007 10:06:33.414247  4720 layer_factory.hpp:77] Creating layer Eltwise2_penlu5_0_split
I1007 10:06:33.414258  4720 net.cpp:84] Creating Layer Eltwise2_penlu5_0_split
I1007 10:06:33.414261  4720 net.cpp:406] Eltwise2_penlu5_0_split <- Eltwise2
I1007 10:06:33.414265  4720 net.cpp:380] Eltwise2_penlu5_0_split -> Eltwise2_penlu5_0_split_0
I1007 10:06:33.414269  4720 net.cpp:380] Eltwise2_penlu5_0_split -> Eltwise2_penlu5_0_split_1
I1007 10:06:33.414293  4720 net.cpp:122] Setting up Eltwise2_penlu5_0_split
I1007 10:06:33.414297  4720 net.cpp:129] Top shape: 100 16 28 28 (1254400)
I1007 10:06:33.414301  4720 net.cpp:129] Top shape: 100 16 28 28 (1254400)
I1007 10:06:33.414304  4720 net.cpp:137] Memory required for data: 141434000
I1007 10:06:33.414306  4720 layer_factory.hpp:77] Creating layer Convolution6
I1007 10:06:33.414312  4720 net.cpp:84] Creating Layer Convolution6
I1007 10:06:33.414315  4720 net.cpp:406] Convolution6 <- Eltwise2_penlu5_0_split_0
I1007 10:06:33.414320  4720 net.cpp:380] Convolution6 -> Convolution6
I1007 10:06:33.415208  4720 net.cpp:122] Setting up Convolution6
I1007 10:06:33.415220  4720 net.cpp:129] Top shape: 100 16 28 28 (1254400)
I1007 10:06:33.415222  4720 net.cpp:137] Memory required for data: 146451600
I1007 10:06:33.415227  4720 layer_factory.hpp:77] Creating layer BatchNorm6
I1007 10:06:33.415233  4720 net.cpp:84] Creating Layer BatchNorm6
I1007 10:06:33.415237  4720 net.cpp:406] BatchNorm6 <- Convolution6
I1007 10:06:33.415241  4720 net.cpp:367] BatchNorm6 -> Convolution6 (in-place)
I1007 10:06:33.415369  4720 net.cpp:122] Setting up BatchNorm6
I1007 10:06:33.415374  4720 net.cpp:129] Top shape: 100 16 28 28 (1254400)
I1007 10:06:33.415377  4720 net.cpp:137] Memory required for data: 151469200
I1007 10:06:33.415382  4720 layer_factory.hpp:77] Creating layer Scale6
I1007 10:06:33.415386  4720 net.cpp:84] Creating Layer Scale6
I1007 10:06:33.415390  4720 net.cpp:406] Scale6 <- Convolution6
I1007 10:06:33.415393  4720 net.cpp:367] Scale6 -> Convolution6 (in-place)
I1007 10:06:33.415421  4720 layer_factory.hpp:77] Creating layer Scale6
I1007 10:06:33.415498  4720 net.cpp:122] Setting up Scale6
I1007 10:06:33.415503  4720 net.cpp:129] Top shape: 100 16 28 28 (1254400)
I1007 10:06:33.415505  4720 net.cpp:137] Memory required for data: 156486800
I1007 10:06:33.415509  4720 layer_factory.hpp:77] Creating layer penlu6
I1007 10:06:33.415515  4720 net.cpp:84] Creating Layer penlu6
I1007 10:06:33.415518  4720 net.cpp:406] penlu6 <- Convolution6
I1007 10:06:33.415522  4720 net.cpp:367] penlu6 -> Convolution6 (in-place)
I1007 10:06:33.415627  4720 net.cpp:122] Setting up penlu6
I1007 10:06:33.415632  4720 net.cpp:129] Top shape: 100 16 28 28 (1254400)
I1007 10:06:33.415635  4720 net.cpp:137] Memory required for data: 161504400
I1007 10:06:33.415639  4720 layer_factory.hpp:77] Creating layer Convolution7
I1007 10:06:33.415647  4720 net.cpp:84] Creating Layer Convolution7
I1007 10:06:33.415652  4720 net.cpp:406] Convolution7 <- Convolution6
I1007 10:06:33.415654  4720 net.cpp:380] Convolution7 -> Convolution7
I1007 10:06:33.416211  4720 net.cpp:122] Setting up Convolution7
I1007 10:06:33.416220  4720 net.cpp:129] Top shape: 100 16 28 28 (1254400)
I1007 10:06:33.416224  4720 net.cpp:137] Memory required for data: 166522000
I1007 10:06:33.416227  4720 layer_factory.hpp:77] Creating layer BatchNorm7
I1007 10:06:33.416234  4720 net.cpp:84] Creating Layer BatchNorm7
I1007 10:06:33.416237  4720 net.cpp:406] BatchNorm7 <- Convolution7
I1007 10:06:33.416240  4720 net.cpp:367] BatchNorm7 -> Convolution7 (in-place)
I1007 10:06:33.416369  4720 net.cpp:122] Setting up BatchNorm7
I1007 10:06:33.416375  4720 net.cpp:129] Top shape: 100 16 28 28 (1254400)
I1007 10:06:33.416378  4720 net.cpp:137] Memory required for data: 171539600
I1007 10:06:33.416388  4720 layer_factory.hpp:77] Creating layer Scale7
I1007 10:06:33.416395  4720 net.cpp:84] Creating Layer Scale7
I1007 10:06:33.416399  4720 net.cpp:406] Scale7 <- Convolution7
I1007 10:06:33.416402  4720 net.cpp:367] Scale7 -> Convolution7 (in-place)
I1007 10:06:33.416429  4720 layer_factory.hpp:77] Creating layer Scale7
I1007 10:06:33.416513  4720 net.cpp:122] Setting up Scale7
I1007 10:06:33.416519  4720 net.cpp:129] Top shape: 100 16 28 28 (1254400)
I1007 10:06:33.416522  4720 net.cpp:137] Memory required for data: 176557200
I1007 10:06:33.416527  4720 layer_factory.hpp:77] Creating layer Eltwise3
I1007 10:06:33.416532  4720 net.cpp:84] Creating Layer Eltwise3
I1007 10:06:33.416535  4720 net.cpp:406] Eltwise3 <- Eltwise2_penlu5_0_split_1
I1007 10:06:33.416538  4720 net.cpp:406] Eltwise3 <- Convolution7
I1007 10:06:33.416543  4720 net.cpp:380] Eltwise3 -> Eltwise3
I1007 10:06:33.416558  4720 net.cpp:122] Setting up Eltwise3
I1007 10:06:33.416561  4720 net.cpp:129] Top shape: 100 16 28 28 (1254400)
I1007 10:06:33.416564  4720 net.cpp:137] Memory required for data: 181574800
I1007 10:06:33.416566  4720 layer_factory.hpp:77] Creating layer penlu7
I1007 10:06:33.416574  4720 net.cpp:84] Creating Layer penlu7
I1007 10:06:33.416576  4720 net.cpp:406] penlu7 <- Eltwise3
I1007 10:06:33.416579  4720 net.cpp:367] penlu7 -> Eltwise3 (in-place)
I1007 10:06:33.416682  4720 net.cpp:122] Setting up penlu7
I1007 10:06:33.416687  4720 net.cpp:129] Top shape: 100 16 28 28 (1254400)
I1007 10:06:33.416689  4720 net.cpp:137] Memory required for data: 186592400
I1007 10:06:33.416694  4720 layer_factory.hpp:77] Creating layer Eltwise3_penlu7_0_split
I1007 10:06:33.416698  4720 net.cpp:84] Creating Layer Eltwise3_penlu7_0_split
I1007 10:06:33.416702  4720 net.cpp:406] Eltwise3_penlu7_0_split <- Eltwise3
I1007 10:06:33.416704  4720 net.cpp:380] Eltwise3_penlu7_0_split -> Eltwise3_penlu7_0_split_0
I1007 10:06:33.416709  4720 net.cpp:380] Eltwise3_penlu7_0_split -> Eltwise3_penlu7_0_split_1
I1007 10:06:33.416731  4720 net.cpp:122] Setting up Eltwise3_penlu7_0_split
I1007 10:06:33.416735  4720 net.cpp:129] Top shape: 100 16 28 28 (1254400)
I1007 10:06:33.416739  4720 net.cpp:129] Top shape: 100 16 28 28 (1254400)
I1007 10:06:33.416743  4720 net.cpp:137] Memory required for data: 196627600
I1007 10:06:33.416744  4720 layer_factory.hpp:77] Creating layer Convolution8
I1007 10:06:33.416751  4720 net.cpp:84] Creating Layer Convolution8
I1007 10:06:33.416754  4720 net.cpp:406] Convolution8 <- Eltwise3_penlu7_0_split_0
I1007 10:06:33.416759  4720 net.cpp:380] Convolution8 -> Convolution8
I1007 10:06:33.417636  4720 net.cpp:122] Setting up Convolution8
I1007 10:06:33.417647  4720 net.cpp:129] Top shape: 100 16 28 28 (1254400)
I1007 10:06:33.417650  4720 net.cpp:137] Memory required for data: 201645200
I1007 10:06:33.417655  4720 layer_factory.hpp:77] Creating layer BatchNorm8
I1007 10:06:33.417661  4720 net.cpp:84] Creating Layer BatchNorm8
I1007 10:06:33.417665  4720 net.cpp:406] BatchNorm8 <- Convolution8
I1007 10:06:33.417668  4720 net.cpp:367] BatchNorm8 -> Convolution8 (in-place)
I1007 10:06:33.417796  4720 net.cpp:122] Setting up BatchNorm8
I1007 10:06:33.417801  4720 net.cpp:129] Top shape: 100 16 28 28 (1254400)
I1007 10:06:33.417804  4720 net.cpp:137] Memory required for data: 206662800
I1007 10:06:33.417809  4720 layer_factory.hpp:77] Creating layer Scale8
I1007 10:06:33.417816  4720 net.cpp:84] Creating Layer Scale8
I1007 10:06:33.417819  4720 net.cpp:406] Scale8 <- Convolution8
I1007 10:06:33.417824  4720 net.cpp:367] Scale8 -> Convolution8 (in-place)
I1007 10:06:33.417850  4720 layer_factory.hpp:77] Creating layer Scale8
I1007 10:06:33.417927  4720 net.cpp:122] Setting up Scale8
I1007 10:06:33.417932  4720 net.cpp:129] Top shape: 100 16 28 28 (1254400)
I1007 10:06:33.417934  4720 net.cpp:137] Memory required for data: 211680400
I1007 10:06:33.417937  4720 layer_factory.hpp:77] Creating layer penlu8
I1007 10:06:33.417944  4720 net.cpp:84] Creating Layer penlu8
I1007 10:06:33.417948  4720 net.cpp:406] penlu8 <- Convolution8
I1007 10:06:33.417951  4720 net.cpp:367] penlu8 -> Convolution8 (in-place)
I1007 10:06:33.418056  4720 net.cpp:122] Setting up penlu8
I1007 10:06:33.418061  4720 net.cpp:129] Top shape: 100 16 28 28 (1254400)
I1007 10:06:33.418063  4720 net.cpp:137] Memory required for data: 216698000
I1007 10:06:33.418067  4720 layer_factory.hpp:77] Creating layer Convolution9
I1007 10:06:33.418083  4720 net.cpp:84] Creating Layer Convolution9
I1007 10:06:33.418087  4720 net.cpp:406] Convolution9 <- Convolution8
I1007 10:06:33.418092  4720 net.cpp:380] Convolution9 -> Convolution9
I1007 10:06:33.419034  4720 net.cpp:122] Setting up Convolution9
I1007 10:06:33.419049  4720 net.cpp:129] Top shape: 100 16 28 28 (1254400)
I1007 10:06:33.419054  4720 net.cpp:137] Memory required for data: 221715600
I1007 10:06:33.419061  4720 layer_factory.hpp:77] Creating layer BatchNorm9
I1007 10:06:33.419066  4720 net.cpp:84] Creating Layer BatchNorm9
I1007 10:06:33.419068  4720 net.cpp:406] BatchNorm9 <- Convolution9
I1007 10:06:33.419073  4720 net.cpp:367] BatchNorm9 -> Convolution9 (in-place)
I1007 10:06:33.419261  4720 net.cpp:122] Setting up BatchNorm9
I1007 10:06:33.419271  4720 net.cpp:129] Top shape: 100 16 28 28 (1254400)
I1007 10:06:33.419273  4720 net.cpp:137] Memory required for data: 226733200
I1007 10:06:33.419279  4720 layer_factory.hpp:77] Creating layer Scale9
I1007 10:06:33.419284  4720 net.cpp:84] Creating Layer Scale9
I1007 10:06:33.419287  4720 net.cpp:406] Scale9 <- Convolution9
I1007 10:06:33.419292  4720 net.cpp:367] Scale9 -> Convolution9 (in-place)
I1007 10:06:33.419319  4720 layer_factory.hpp:77] Creating layer Scale9
I1007 10:06:33.419399  4720 net.cpp:122] Setting up Scale9
I1007 10:06:33.419404  4720 net.cpp:129] Top shape: 100 16 28 28 (1254400)
I1007 10:06:33.419407  4720 net.cpp:137] Memory required for data: 231750800
I1007 10:06:33.419412  4720 layer_factory.hpp:77] Creating layer Eltwise4
I1007 10:06:33.419416  4720 net.cpp:84] Creating Layer Eltwise4
I1007 10:06:33.419420  4720 net.cpp:406] Eltwise4 <- Eltwise3_penlu7_0_split_1
I1007 10:06:33.419422  4720 net.cpp:406] Eltwise4 <- Convolution9
I1007 10:06:33.419427  4720 net.cpp:380] Eltwise4 -> Eltwise4
I1007 10:06:33.419442  4720 net.cpp:122] Setting up Eltwise4
I1007 10:06:33.419447  4720 net.cpp:129] Top shape: 100 16 28 28 (1254400)
I1007 10:06:33.419450  4720 net.cpp:137] Memory required for data: 236768400
I1007 10:06:33.419452  4720 layer_factory.hpp:77] Creating layer penlu9
I1007 10:06:33.419457  4720 net.cpp:84] Creating Layer penlu9
I1007 10:06:33.419461  4720 net.cpp:406] penlu9 <- Eltwise4
I1007 10:06:33.419464  4720 net.cpp:367] penlu9 -> Eltwise4 (in-place)
I1007 10:06:33.419574  4720 net.cpp:122] Setting up penlu9
I1007 10:06:33.419579  4720 net.cpp:129] Top shape: 100 16 28 28 (1254400)
I1007 10:06:33.419582  4720 net.cpp:137] Memory required for data: 241786000
I1007 10:06:33.419586  4720 layer_factory.hpp:77] Creating layer Eltwise4_penlu9_0_split
I1007 10:06:33.419590  4720 net.cpp:84] Creating Layer Eltwise4_penlu9_0_split
I1007 10:06:33.419594  4720 net.cpp:406] Eltwise4_penlu9_0_split <- Eltwise4
I1007 10:06:33.419597  4720 net.cpp:380] Eltwise4_penlu9_0_split -> Eltwise4_penlu9_0_split_0
I1007 10:06:33.419601  4720 net.cpp:380] Eltwise4_penlu9_0_split -> Eltwise4_penlu9_0_split_1
I1007 10:06:33.419625  4720 net.cpp:122] Setting up Eltwise4_penlu9_0_split
I1007 10:06:33.419628  4720 net.cpp:129] Top shape: 100 16 28 28 (1254400)
I1007 10:06:33.419632  4720 net.cpp:129] Top shape: 100 16 28 28 (1254400)
I1007 10:06:33.419636  4720 net.cpp:137] Memory required for data: 251821200
I1007 10:06:33.419637  4720 layer_factory.hpp:77] Creating layer Convolution10
I1007 10:06:33.419643  4720 net.cpp:84] Creating Layer Convolution10
I1007 10:06:33.419647  4720 net.cpp:406] Convolution10 <- Eltwise4_penlu9_0_split_0
I1007 10:06:33.419651  4720 net.cpp:380] Convolution10 -> Convolution10
I1007 10:06:33.420549  4720 net.cpp:122] Setting up Convolution10
I1007 10:06:33.420559  4720 net.cpp:129] Top shape: 100 16 28 28 (1254400)
I1007 10:06:33.420563  4720 net.cpp:137] Memory required for data: 256838800
I1007 10:06:33.420567  4720 layer_factory.hpp:77] Creating layer BatchNorm10
I1007 10:06:33.420573  4720 net.cpp:84] Creating Layer BatchNorm10
I1007 10:06:33.420577  4720 net.cpp:406] BatchNorm10 <- Convolution10
I1007 10:06:33.420581  4720 net.cpp:367] BatchNorm10 -> Convolution10 (in-place)
I1007 10:06:33.420719  4720 net.cpp:122] Setting up BatchNorm10
I1007 10:06:33.420725  4720 net.cpp:129] Top shape: 100 16 28 28 (1254400)
I1007 10:06:33.420728  4720 net.cpp:137] Memory required for data: 261856400
I1007 10:06:33.420733  4720 layer_factory.hpp:77] Creating layer Scale10
I1007 10:06:33.420738  4720 net.cpp:84] Creating Layer Scale10
I1007 10:06:33.420742  4720 net.cpp:406] Scale10 <- Convolution10
I1007 10:06:33.420745  4720 net.cpp:367] Scale10 -> Convolution10 (in-place)
I1007 10:06:33.420771  4720 layer_factory.hpp:77] Creating layer Scale10
I1007 10:06:33.420848  4720 net.cpp:122] Setting up Scale10
I1007 10:06:33.420853  4720 net.cpp:129] Top shape: 100 16 28 28 (1254400)
I1007 10:06:33.420856  4720 net.cpp:137] Memory required for data: 266874000
I1007 10:06:33.420861  4720 layer_factory.hpp:77] Creating layer penlu10
I1007 10:06:33.420866  4720 net.cpp:84] Creating Layer penlu10
I1007 10:06:33.420869  4720 net.cpp:406] penlu10 <- Convolution10
I1007 10:06:33.420872  4720 net.cpp:367] penlu10 -> Convolution10 (in-place)
I1007 10:06:33.420989  4720 net.cpp:122] Setting up penlu10
I1007 10:06:33.420994  4720 net.cpp:129] Top shape: 100 16 28 28 (1254400)
I1007 10:06:33.420997  4720 net.cpp:137] Memory required for data: 271891600
I1007 10:06:33.421001  4720 layer_factory.hpp:77] Creating layer Convolution11
I1007 10:06:33.421010  4720 net.cpp:84] Creating Layer Convolution11
I1007 10:06:33.421012  4720 net.cpp:406] Convolution11 <- Convolution10
I1007 10:06:33.421017  4720 net.cpp:380] Convolution11 -> Convolution11
I1007 10:06:33.421897  4720 net.cpp:122] Setting up Convolution11
I1007 10:06:33.421907  4720 net.cpp:129] Top shape: 100 16 28 28 (1254400)
I1007 10:06:33.421911  4720 net.cpp:137] Memory required for data: 276909200
I1007 10:06:33.421916  4720 layer_factory.hpp:77] Creating layer BatchNorm11
I1007 10:06:33.421921  4720 net.cpp:84] Creating Layer BatchNorm11
I1007 10:06:33.421924  4720 net.cpp:406] BatchNorm11 <- Convolution11
I1007 10:06:33.421928  4720 net.cpp:367] BatchNorm11 -> Convolution11 (in-place)
I1007 10:06:33.422060  4720 net.cpp:122] Setting up BatchNorm11
I1007 10:06:33.422065  4720 net.cpp:129] Top shape: 100 16 28 28 (1254400)
I1007 10:06:33.422068  4720 net.cpp:137] Memory required for data: 281926800
I1007 10:06:33.422073  4720 layer_factory.hpp:77] Creating layer Scale11
I1007 10:06:33.422078  4720 net.cpp:84] Creating Layer Scale11
I1007 10:06:33.422081  4720 net.cpp:406] Scale11 <- Convolution11
I1007 10:06:33.422085  4720 net.cpp:367] Scale11 -> Convolution11 (in-place)
I1007 10:06:33.422111  4720 layer_factory.hpp:77] Creating layer Scale11
I1007 10:06:33.422186  4720 net.cpp:122] Setting up Scale11
I1007 10:06:33.422191  4720 net.cpp:129] Top shape: 100 16 28 28 (1254400)
I1007 10:06:33.422194  4720 net.cpp:137] Memory required for data: 286944400
I1007 10:06:33.422199  4720 layer_factory.hpp:77] Creating layer Eltwise5
I1007 10:06:33.422202  4720 net.cpp:84] Creating Layer Eltwise5
I1007 10:06:33.422205  4720 net.cpp:406] Eltwise5 <- Eltwise4_penlu9_0_split_1
I1007 10:06:33.422209  4720 net.cpp:406] Eltwise5 <- Convolution11
I1007 10:06:33.422212  4720 net.cpp:380] Eltwise5 -> Eltwise5
I1007 10:06:33.422227  4720 net.cpp:122] Setting up Eltwise5
I1007 10:06:33.422231  4720 net.cpp:129] Top shape: 100 16 28 28 (1254400)
I1007 10:06:33.422235  4720 net.cpp:137] Memory required for data: 291962000
I1007 10:06:33.422236  4720 layer_factory.hpp:77] Creating layer penlu11
I1007 10:06:33.422242  4720 net.cpp:84] Creating Layer penlu11
I1007 10:06:33.422245  4720 net.cpp:406] penlu11 <- Eltwise5
I1007 10:06:33.422250  4720 net.cpp:367] penlu11 -> Eltwise5 (in-place)
I1007 10:06:33.422356  4720 net.cpp:122] Setting up penlu11
I1007 10:06:33.422361  4720 net.cpp:129] Top shape: 100 16 28 28 (1254400)
I1007 10:06:33.422364  4720 net.cpp:137] Memory required for data: 296979600
I1007 10:06:33.422369  4720 layer_factory.hpp:77] Creating layer Eltwise5_penlu11_0_split
I1007 10:06:33.422372  4720 net.cpp:84] Creating Layer Eltwise5_penlu11_0_split
I1007 10:06:33.422375  4720 net.cpp:406] Eltwise5_penlu11_0_split <- Eltwise5
I1007 10:06:33.422385  4720 net.cpp:380] Eltwise5_penlu11_0_split -> Eltwise5_penlu11_0_split_0
I1007 10:06:33.422390  4720 net.cpp:380] Eltwise5_penlu11_0_split -> Eltwise5_penlu11_0_split_1
I1007 10:06:33.422415  4720 net.cpp:122] Setting up Eltwise5_penlu11_0_split
I1007 10:06:33.422420  4720 net.cpp:129] Top shape: 100 16 28 28 (1254400)
I1007 10:06:33.422422  4720 net.cpp:129] Top shape: 100 16 28 28 (1254400)
I1007 10:06:33.422425  4720 net.cpp:137] Memory required for data: 307014800
I1007 10:06:33.422427  4720 layer_factory.hpp:77] Creating layer Convolution12
I1007 10:06:33.422433  4720 net.cpp:84] Creating Layer Convolution12
I1007 10:06:33.422436  4720 net.cpp:406] Convolution12 <- Eltwise5_penlu11_0_split_0
I1007 10:06:33.422441  4720 net.cpp:380] Convolution12 -> Convolution12
I1007 10:06:33.423619  4720 net.cpp:122] Setting up Convolution12
I1007 10:06:33.423629  4720 net.cpp:129] Top shape: 100 32 14 14 (627200)
I1007 10:06:33.423632  4720 net.cpp:137] Memory required for data: 309523600
I1007 10:06:33.423637  4720 layer_factory.hpp:77] Creating layer BatchNorm12
I1007 10:06:33.423643  4720 net.cpp:84] Creating Layer BatchNorm12
I1007 10:06:33.423647  4720 net.cpp:406] BatchNorm12 <- Convolution12
I1007 10:06:33.423651  4720 net.cpp:367] BatchNorm12 -> Convolution12 (in-place)
I1007 10:06:33.423787  4720 net.cpp:122] Setting up BatchNorm12
I1007 10:06:33.423794  4720 net.cpp:129] Top shape: 100 32 14 14 (627200)
I1007 10:06:33.423796  4720 net.cpp:137] Memory required for data: 312032400
I1007 10:06:33.423801  4720 layer_factory.hpp:77] Creating layer Scale12
I1007 10:06:33.423806  4720 net.cpp:84] Creating Layer Scale12
I1007 10:06:33.423810  4720 net.cpp:406] Scale12 <- Convolution12
I1007 10:06:33.423813  4720 net.cpp:367] Scale12 -> Convolution12 (in-place)
I1007 10:06:33.423840  4720 layer_factory.hpp:77] Creating layer Scale12
I1007 10:06:33.423913  4720 net.cpp:122] Setting up Scale12
I1007 10:06:33.423918  4720 net.cpp:129] Top shape: 100 32 14 14 (627200)
I1007 10:06:33.423921  4720 net.cpp:137] Memory required for data: 314541200
I1007 10:06:33.423925  4720 layer_factory.hpp:77] Creating layer Convolution13
I1007 10:06:33.423933  4720 net.cpp:84] Creating Layer Convolution13
I1007 10:06:33.423935  4720 net.cpp:406] Convolution13 <- Eltwise5_penlu11_0_split_1
I1007 10:06:33.423940  4720 net.cpp:380] Convolution13 -> Convolution13
I1007 10:06:33.425179  4720 net.cpp:122] Setting up Convolution13
I1007 10:06:33.425189  4720 net.cpp:129] Top shape: 100 32 14 14 (627200)
I1007 10:06:33.425192  4720 net.cpp:137] Memory required for data: 317050000
I1007 10:06:33.425196  4720 layer_factory.hpp:77] Creating layer BatchNorm13
I1007 10:06:33.425202  4720 net.cpp:84] Creating Layer BatchNorm13
I1007 10:06:33.425206  4720 net.cpp:406] BatchNorm13 <- Convolution13
I1007 10:06:33.425210  4720 net.cpp:367] BatchNorm13 -> Convolution13 (in-place)
I1007 10:06:33.425343  4720 net.cpp:122] Setting up BatchNorm13
I1007 10:06:33.425348  4720 net.cpp:129] Top shape: 100 32 14 14 (627200)
I1007 10:06:33.425350  4720 net.cpp:137] Memory required for data: 319558800
I1007 10:06:33.425355  4720 layer_factory.hpp:77] Creating layer Scale13
I1007 10:06:33.425360  4720 net.cpp:84] Creating Layer Scale13
I1007 10:06:33.425364  4720 net.cpp:406] Scale13 <- Convolution13
I1007 10:06:33.425366  4720 net.cpp:367] Scale13 -> Convolution13 (in-place)
I1007 10:06:33.425393  4720 layer_factory.hpp:77] Creating layer Scale13
I1007 10:06:33.425467  4720 net.cpp:122] Setting up Scale13
I1007 10:06:33.425472  4720 net.cpp:129] Top shape: 100 32 14 14 (627200)
I1007 10:06:33.425473  4720 net.cpp:137] Memory required for data: 322067600
I1007 10:06:33.425477  4720 layer_factory.hpp:77] Creating layer penlu12
I1007 10:06:33.425483  4720 net.cpp:84] Creating Layer penlu12
I1007 10:06:33.425487  4720 net.cpp:406] penlu12 <- Convolution13
I1007 10:06:33.425492  4720 net.cpp:367] penlu12 -> Convolution13 (in-place)
I1007 10:06:33.425593  4720 net.cpp:122] Setting up penlu12
I1007 10:06:33.425598  4720 net.cpp:129] Top shape: 100 32 14 14 (627200)
I1007 10:06:33.425608  4720 net.cpp:137] Memory required for data: 324576400
I1007 10:06:33.425614  4720 layer_factory.hpp:77] Creating layer Convolution14
I1007 10:06:33.425621  4720 net.cpp:84] Creating Layer Convolution14
I1007 10:06:33.425626  4720 net.cpp:406] Convolution14 <- Convolution13
I1007 10:06:33.425629  4720 net.cpp:380] Convolution14 -> Convolution14
I1007 10:06:33.426673  4720 net.cpp:122] Setting up Convolution14
I1007 10:06:33.426683  4720 net.cpp:129] Top shape: 100 32 14 14 (627200)
I1007 10:06:33.426687  4720 net.cpp:137] Memory required for data: 327085200
I1007 10:06:33.426702  4720 layer_factory.hpp:77] Creating layer BatchNorm14
I1007 10:06:33.426712  4720 net.cpp:84] Creating Layer BatchNorm14
I1007 10:06:33.426715  4720 net.cpp:406] BatchNorm14 <- Convolution14
I1007 10:06:33.426718  4720 net.cpp:367] BatchNorm14 -> Convolution14 (in-place)
I1007 10:06:33.426846  4720 net.cpp:122] Setting up BatchNorm14
I1007 10:06:33.426851  4720 net.cpp:129] Top shape: 100 32 14 14 (627200)
I1007 10:06:33.426854  4720 net.cpp:137] Memory required for data: 329594000
I1007 10:06:33.426859  4720 layer_factory.hpp:77] Creating layer Scale14
I1007 10:06:33.426867  4720 net.cpp:84] Creating Layer Scale14
I1007 10:06:33.426869  4720 net.cpp:406] Scale14 <- Convolution14
I1007 10:06:33.426873  4720 net.cpp:367] Scale14 -> Convolution14 (in-place)
I1007 10:06:33.426899  4720 layer_factory.hpp:77] Creating layer Scale14
I1007 10:06:33.426973  4720 net.cpp:122] Setting up Scale14
I1007 10:06:33.426978  4720 net.cpp:129] Top shape: 100 32 14 14 (627200)
I1007 10:06:33.426981  4720 net.cpp:137] Memory required for data: 332102800
I1007 10:06:33.426985  4720 layer_factory.hpp:77] Creating layer Eltwise6
I1007 10:06:33.426990  4720 net.cpp:84] Creating Layer Eltwise6
I1007 10:06:33.426995  4720 net.cpp:406] Eltwise6 <- Convolution12
I1007 10:06:33.426996  4720 net.cpp:406] Eltwise6 <- Convolution14
I1007 10:06:33.427000  4720 net.cpp:380] Eltwise6 -> Eltwise6
I1007 10:06:33.427014  4720 net.cpp:122] Setting up Eltwise6
I1007 10:06:33.427018  4720 net.cpp:129] Top shape: 100 32 14 14 (627200)
I1007 10:06:33.427021  4720 net.cpp:137] Memory required for data: 334611600
I1007 10:06:33.427022  4720 layer_factory.hpp:77] Creating layer penlu13
I1007 10:06:33.427028  4720 net.cpp:84] Creating Layer penlu13
I1007 10:06:33.427031  4720 net.cpp:406] penlu13 <- Eltwise6
I1007 10:06:33.427033  4720 net.cpp:367] penlu13 -> Eltwise6 (in-place)
I1007 10:06:33.427134  4720 net.cpp:122] Setting up penlu13
I1007 10:06:33.427139  4720 net.cpp:129] Top shape: 100 32 14 14 (627200)
I1007 10:06:33.427140  4720 net.cpp:137] Memory required for data: 337120400
I1007 10:06:33.427145  4720 layer_factory.hpp:77] Creating layer Eltwise6_penlu13_0_split
I1007 10:06:33.427148  4720 net.cpp:84] Creating Layer Eltwise6_penlu13_0_split
I1007 10:06:33.427150  4720 net.cpp:406] Eltwise6_penlu13_0_split <- Eltwise6
I1007 10:06:33.427153  4720 net.cpp:380] Eltwise6_penlu13_0_split -> Eltwise6_penlu13_0_split_0
I1007 10:06:33.427158  4720 net.cpp:380] Eltwise6_penlu13_0_split -> Eltwise6_penlu13_0_split_1
I1007 10:06:33.427196  4720 net.cpp:122] Setting up Eltwise6_penlu13_0_split
I1007 10:06:33.427211  4720 net.cpp:129] Top shape: 100 32 14 14 (627200)
I1007 10:06:33.427212  4720 net.cpp:129] Top shape: 100 32 14 14 (627200)
I1007 10:06:33.427214  4720 net.cpp:137] Memory required for data: 342138000
I1007 10:06:33.427217  4720 layer_factory.hpp:77] Creating layer Convolution15
I1007 10:06:33.427224  4720 net.cpp:84] Creating Layer Convolution15
I1007 10:06:33.427227  4720 net.cpp:406] Convolution15 <- Eltwise6_penlu13_0_split_0
I1007 10:06:33.427230  4720 net.cpp:380] Convolution15 -> Convolution15
I1007 10:06:33.428256  4720 net.cpp:122] Setting up Convolution15
I1007 10:06:33.428266  4720 net.cpp:129] Top shape: 100 32 14 14 (627200)
I1007 10:06:33.428267  4720 net.cpp:137] Memory required for data: 344646800
I1007 10:06:33.428272  4720 layer_factory.hpp:77] Creating layer BatchNorm15
I1007 10:06:33.428277  4720 net.cpp:84] Creating Layer BatchNorm15
I1007 10:06:33.428287  4720 net.cpp:406] BatchNorm15 <- Convolution15
I1007 10:06:33.428292  4720 net.cpp:367] BatchNorm15 -> Convolution15 (in-place)
I1007 10:06:33.428419  4720 net.cpp:122] Setting up BatchNorm15
I1007 10:06:33.428424  4720 net.cpp:129] Top shape: 100 32 14 14 (627200)
I1007 10:06:33.428426  4720 net.cpp:137] Memory required for data: 347155600
I1007 10:06:33.428431  4720 layer_factory.hpp:77] Creating layer Scale15
I1007 10:06:33.428436  4720 net.cpp:84] Creating Layer Scale15
I1007 10:06:33.428438  4720 net.cpp:406] Scale15 <- Convolution15
I1007 10:06:33.428442  4720 net.cpp:367] Scale15 -> Convolution15 (in-place)
I1007 10:06:33.428467  4720 layer_factory.hpp:77] Creating layer Scale15
I1007 10:06:33.428539  4720 net.cpp:122] Setting up Scale15
I1007 10:06:33.428544  4720 net.cpp:129] Top shape: 100 32 14 14 (627200)
I1007 10:06:33.428546  4720 net.cpp:137] Memory required for data: 349664400
I1007 10:06:33.428550  4720 layer_factory.hpp:77] Creating layer penlu14
I1007 10:06:33.428555  4720 net.cpp:84] Creating Layer penlu14
I1007 10:06:33.428557  4720 net.cpp:406] penlu14 <- Convolution15
I1007 10:06:33.428561  4720 net.cpp:367] penlu14 -> Convolution15 (in-place)
I1007 10:06:33.428663  4720 net.cpp:122] Setting up penlu14
I1007 10:06:33.428668  4720 net.cpp:129] Top shape: 100 32 14 14 (627200)
I1007 10:06:33.428670  4720 net.cpp:137] Memory required for data: 352173200
I1007 10:06:33.428674  4720 layer_factory.hpp:77] Creating layer Convolution16
I1007 10:06:33.428681  4720 net.cpp:84] Creating Layer Convolution16
I1007 10:06:33.428684  4720 net.cpp:406] Convolution16 <- Convolution15
I1007 10:06:33.428689  4720 net.cpp:380] Convolution16 -> Convolution16
I1007 10:06:33.429713  4720 net.cpp:122] Setting up Convolution16
I1007 10:06:33.429720  4720 net.cpp:129] Top shape: 100 32 14 14 (627200)
I1007 10:06:33.429723  4720 net.cpp:137] Memory required for data: 354682000
I1007 10:06:33.429728  4720 layer_factory.hpp:77] Creating layer BatchNorm16
I1007 10:06:33.429733  4720 net.cpp:84] Creating Layer BatchNorm16
I1007 10:06:33.429736  4720 net.cpp:406] BatchNorm16 <- Convolution16
I1007 10:06:33.429740  4720 net.cpp:367] BatchNorm16 -> Convolution16 (in-place)
I1007 10:06:33.429868  4720 net.cpp:122] Setting up BatchNorm16
I1007 10:06:33.429872  4720 net.cpp:129] Top shape: 100 32 14 14 (627200)
I1007 10:06:33.429875  4720 net.cpp:137] Memory required for data: 357190800
I1007 10:06:33.429879  4720 layer_factory.hpp:77] Creating layer Scale16
I1007 10:06:33.429884  4720 net.cpp:84] Creating Layer Scale16
I1007 10:06:33.429888  4720 net.cpp:406] Scale16 <- Convolution16
I1007 10:06:33.429890  4720 net.cpp:367] Scale16 -> Convolution16 (in-place)
I1007 10:06:33.429915  4720 layer_factory.hpp:77] Creating layer Scale16
I1007 10:06:33.429988  4720 net.cpp:122] Setting up Scale16
I1007 10:06:33.429992  4720 net.cpp:129] Top shape: 100 32 14 14 (627200)
I1007 10:06:33.429994  4720 net.cpp:137] Memory required for data: 359699600
I1007 10:06:33.429998  4720 layer_factory.hpp:77] Creating layer Eltwise7
I1007 10:06:33.430002  4720 net.cpp:84] Creating Layer Eltwise7
I1007 10:06:33.430006  4720 net.cpp:406] Eltwise7 <- Eltwise6_penlu13_0_split_1
I1007 10:06:33.430008  4720 net.cpp:406] Eltwise7 <- Convolution16
I1007 10:06:33.430011  4720 net.cpp:380] Eltwise7 -> Eltwise7
I1007 10:06:33.430027  4720 net.cpp:122] Setting up Eltwise7
I1007 10:06:33.430030  4720 net.cpp:129] Top shape: 100 32 14 14 (627200)
I1007 10:06:33.430032  4720 net.cpp:137] Memory required for data: 362208400
I1007 10:06:33.430034  4720 layer_factory.hpp:77] Creating layer penlu15
I1007 10:06:33.430039  4720 net.cpp:84] Creating Layer penlu15
I1007 10:06:33.430042  4720 net.cpp:406] penlu15 <- Eltwise7
I1007 10:06:33.430045  4720 net.cpp:367] penlu15 -> Eltwise7 (in-place)
I1007 10:06:33.430147  4720 net.cpp:122] Setting up penlu15
I1007 10:06:33.430151  4720 net.cpp:129] Top shape: 100 32 14 14 (627200)
I1007 10:06:33.430153  4720 net.cpp:137] Memory required for data: 364717200
I1007 10:06:33.430164  4720 layer_factory.hpp:77] Creating layer Eltwise7_penlu15_0_split
I1007 10:06:33.430168  4720 net.cpp:84] Creating Layer Eltwise7_penlu15_0_split
I1007 10:06:33.430171  4720 net.cpp:406] Eltwise7_penlu15_0_split <- Eltwise7
I1007 10:06:33.430173  4720 net.cpp:380] Eltwise7_penlu15_0_split -> Eltwise7_penlu15_0_split_0
I1007 10:06:33.430177  4720 net.cpp:380] Eltwise7_penlu15_0_split -> Eltwise7_penlu15_0_split_1
I1007 10:06:33.430200  4720 net.cpp:122] Setting up Eltwise7_penlu15_0_split
I1007 10:06:33.430204  4720 net.cpp:129] Top shape: 100 32 14 14 (627200)
I1007 10:06:33.430207  4720 net.cpp:129] Top shape: 100 32 14 14 (627200)
I1007 10:06:33.430209  4720 net.cpp:137] Memory required for data: 369734800
I1007 10:06:33.430212  4720 layer_factory.hpp:77] Creating layer Convolution17
I1007 10:06:33.430217  4720 net.cpp:84] Creating Layer Convolution17
I1007 10:06:33.430220  4720 net.cpp:406] Convolution17 <- Eltwise7_penlu15_0_split_0
I1007 10:06:33.430224  4720 net.cpp:380] Convolution17 -> Convolution17
I1007 10:06:33.430932  4720 net.cpp:122] Setting up Convolution17
I1007 10:06:33.430939  4720 net.cpp:129] Top shape: 100 32 14 14 (627200)
I1007 10:06:33.430941  4720 net.cpp:137] Memory required for data: 372243600
I1007 10:06:33.430945  4720 layer_factory.hpp:77] Creating layer BatchNorm17
I1007 10:06:33.430950  4720 net.cpp:84] Creating Layer BatchNorm17
I1007 10:06:33.430953  4720 net.cpp:406] BatchNorm17 <- Convolution17
I1007 10:06:33.430958  4720 net.cpp:367] BatchNorm17 -> Convolution17 (in-place)
I1007 10:06:33.431085  4720 net.cpp:122] Setting up BatchNorm17
I1007 10:06:33.431089  4720 net.cpp:129] Top shape: 100 32 14 14 (627200)
I1007 10:06:33.431092  4720 net.cpp:137] Memory required for data: 374752400
I1007 10:06:33.431097  4720 layer_factory.hpp:77] Creating layer Scale17
I1007 10:06:33.431100  4720 net.cpp:84] Creating Layer Scale17
I1007 10:06:33.431103  4720 net.cpp:406] Scale17 <- Convolution17
I1007 10:06:33.431107  4720 net.cpp:367] Scale17 -> Convolution17 (in-place)
I1007 10:06:33.431133  4720 layer_factory.hpp:77] Creating layer Scale17
I1007 10:06:33.431241  4720 net.cpp:122] Setting up Scale17
I1007 10:06:33.431246  4720 net.cpp:129] Top shape: 100 32 14 14 (627200)
I1007 10:06:33.431247  4720 net.cpp:137] Memory required for data: 377261200
I1007 10:06:33.431252  4720 layer_factory.hpp:77] Creating layer penlu16
I1007 10:06:33.431257  4720 net.cpp:84] Creating Layer penlu16
I1007 10:06:33.431259  4720 net.cpp:406] penlu16 <- Convolution17
I1007 10:06:33.431263  4720 net.cpp:367] penlu16 -> Convolution17 (in-place)
I1007 10:06:33.431365  4720 net.cpp:122] Setting up penlu16
I1007 10:06:33.431368  4720 net.cpp:129] Top shape: 100 32 14 14 (627200)
I1007 10:06:33.431370  4720 net.cpp:137] Memory required for data: 379770000
I1007 10:06:33.431375  4720 layer_factory.hpp:77] Creating layer Convolution18
I1007 10:06:33.431381  4720 net.cpp:84] Creating Layer Convolution18
I1007 10:06:33.431383  4720 net.cpp:406] Convolution18 <- Convolution17
I1007 10:06:33.431387  4720 net.cpp:380] Convolution18 -> Convolution18
I1007 10:06:33.432390  4720 net.cpp:122] Setting up Convolution18
I1007 10:06:33.432399  4720 net.cpp:129] Top shape: 100 32 14 14 (627200)
I1007 10:06:33.432401  4720 net.cpp:137] Memory required for data: 382278800
I1007 10:06:33.432406  4720 layer_factory.hpp:77] Creating layer BatchNorm18
I1007 10:06:33.432411  4720 net.cpp:84] Creating Layer BatchNorm18
I1007 10:06:33.432415  4720 net.cpp:406] BatchNorm18 <- Convolution18
I1007 10:06:33.432417  4720 net.cpp:367] BatchNorm18 -> Convolution18 (in-place)
I1007 10:06:33.432543  4720 net.cpp:122] Setting up BatchNorm18
I1007 10:06:33.432546  4720 net.cpp:129] Top shape: 100 32 14 14 (627200)
I1007 10:06:33.432548  4720 net.cpp:137] Memory required for data: 384787600
I1007 10:06:33.432554  4720 layer_factory.hpp:77] Creating layer Scale18
I1007 10:06:33.432557  4720 net.cpp:84] Creating Layer Scale18
I1007 10:06:33.432559  4720 net.cpp:406] Scale18 <- Convolution18
I1007 10:06:33.432562  4720 net.cpp:367] Scale18 -> Convolution18 (in-place)
I1007 10:06:33.432596  4720 layer_factory.hpp:77] Creating layer Scale18
I1007 10:06:33.432670  4720 net.cpp:122] Setting up Scale18
I1007 10:06:33.432674  4720 net.cpp:129] Top shape: 100 32 14 14 (627200)
I1007 10:06:33.432677  4720 net.cpp:137] Memory required for data: 387296400
I1007 10:06:33.432680  4720 layer_factory.hpp:77] Creating layer Eltwise8
I1007 10:06:33.432684  4720 net.cpp:84] Creating Layer Eltwise8
I1007 10:06:33.432687  4720 net.cpp:406] Eltwise8 <- Eltwise7_penlu15_0_split_1
I1007 10:06:33.432690  4720 net.cpp:406] Eltwise8 <- Convolution18
I1007 10:06:33.432693  4720 net.cpp:380] Eltwise8 -> Eltwise8
I1007 10:06:33.432708  4720 net.cpp:122] Setting up Eltwise8
I1007 10:06:33.432710  4720 net.cpp:129] Top shape: 100 32 14 14 (627200)
I1007 10:06:33.432713  4720 net.cpp:137] Memory required for data: 389805200
I1007 10:06:33.432714  4720 layer_factory.hpp:77] Creating layer penlu17
I1007 10:06:33.432719  4720 net.cpp:84] Creating Layer penlu17
I1007 10:06:33.432723  4720 net.cpp:406] penlu17 <- Eltwise8
I1007 10:06:33.432725  4720 net.cpp:367] penlu17 -> Eltwise8 (in-place)
I1007 10:06:33.432826  4720 net.cpp:122] Setting up penlu17
I1007 10:06:33.432831  4720 net.cpp:129] Top shape: 100 32 14 14 (627200)
I1007 10:06:33.432832  4720 net.cpp:137] Memory required for data: 392314000
I1007 10:06:33.432837  4720 layer_factory.hpp:77] Creating layer Eltwise8_penlu17_0_split
I1007 10:06:33.432839  4720 net.cpp:84] Creating Layer Eltwise8_penlu17_0_split
I1007 10:06:33.432842  4720 net.cpp:406] Eltwise8_penlu17_0_split <- Eltwise8
I1007 10:06:33.432847  4720 net.cpp:380] Eltwise8_penlu17_0_split -> Eltwise8_penlu17_0_split_0
I1007 10:06:33.432852  4720 net.cpp:380] Eltwise8_penlu17_0_split -> Eltwise8_penlu17_0_split_1
I1007 10:06:33.432873  4720 net.cpp:122] Setting up Eltwise8_penlu17_0_split
I1007 10:06:33.432876  4720 net.cpp:129] Top shape: 100 32 14 14 (627200)
I1007 10:06:33.432879  4720 net.cpp:129] Top shape: 100 32 14 14 (627200)
I1007 10:06:33.432881  4720 net.cpp:137] Memory required for data: 397331600
I1007 10:06:33.432883  4720 layer_factory.hpp:77] Creating layer Convolution19
I1007 10:06:33.432889  4720 net.cpp:84] Creating Layer Convolution19
I1007 10:06:33.432893  4720 net.cpp:406] Convolution19 <- Eltwise8_penlu17_0_split_0
I1007 10:06:33.432896  4720 net.cpp:380] Convolution19 -> Convolution19
I1007 10:06:33.434327  4720 net.cpp:122] Setting up Convolution19
I1007 10:06:33.434335  4720 net.cpp:129] Top shape: 100 32 14 14 (627200)
I1007 10:06:33.434339  4720 net.cpp:137] Memory required for data: 399840400
I1007 10:06:33.434342  4720 layer_factory.hpp:77] Creating layer BatchNorm19
I1007 10:06:33.434348  4720 net.cpp:84] Creating Layer BatchNorm19
I1007 10:06:33.434351  4720 net.cpp:406] BatchNorm19 <- Convolution19
I1007 10:06:33.434355  4720 net.cpp:367] BatchNorm19 -> Convolution19 (in-place)
I1007 10:06:33.434533  4720 net.cpp:122] Setting up BatchNorm19
I1007 10:06:33.434540  4720 net.cpp:129] Top shape: 100 32 14 14 (627200)
I1007 10:06:33.434542  4720 net.cpp:137] Memory required for data: 402349200
I1007 10:06:33.434547  4720 layer_factory.hpp:77] Creating layer Scale19
I1007 10:06:33.434553  4720 net.cpp:84] Creating Layer Scale19
I1007 10:06:33.434556  4720 net.cpp:406] Scale19 <- Convolution19
I1007 10:06:33.434559  4720 net.cpp:367] Scale19 -> Convolution19 (in-place)
I1007 10:06:33.434605  4720 layer_factory.hpp:77] Creating layer Scale19
I1007 10:06:33.434710  4720 net.cpp:122] Setting up Scale19
I1007 10:06:33.434717  4720 net.cpp:129] Top shape: 100 32 14 14 (627200)
I1007 10:06:33.434720  4720 net.cpp:137] Memory required for data: 404858000
I1007 10:06:33.434723  4720 layer_factory.hpp:77] Creating layer penlu18
I1007 10:06:33.434729  4720 net.cpp:84] Creating Layer penlu18
I1007 10:06:33.434732  4720 net.cpp:406] penlu18 <- Convolution19
I1007 10:06:33.434737  4720 net.cpp:367] penlu18 -> Convolution19 (in-place)
I1007 10:06:33.434873  4720 net.cpp:122] Setting up penlu18
I1007 10:06:33.434881  4720 net.cpp:129] Top shape: 100 32 14 14 (627200)
I1007 10:06:33.434890  4720 net.cpp:137] Memory required for data: 407366800
I1007 10:06:33.434895  4720 layer_factory.hpp:77] Creating layer Convolution20
I1007 10:06:33.434903  4720 net.cpp:84] Creating Layer Convolution20
I1007 10:06:33.434906  4720 net.cpp:406] Convolution20 <- Convolution19
I1007 10:06:33.434911  4720 net.cpp:380] Convolution20 -> Convolution20
I1007 10:06:33.436084  4720 net.cpp:122] Setting up Convolution20
I1007 10:06:33.436105  4720 net.cpp:129] Top shape: 100 32 14 14 (627200)
I1007 10:06:33.436108  4720 net.cpp:137] Memory required for data: 409875600
I1007 10:06:33.436113  4720 layer_factory.hpp:77] Creating layer BatchNorm20
I1007 10:06:33.436117  4720 net.cpp:84] Creating Layer BatchNorm20
I1007 10:06:33.436121  4720 net.cpp:406] BatchNorm20 <- Convolution20
I1007 10:06:33.436127  4720 net.cpp:367] BatchNorm20 -> Convolution20 (in-place)
I1007 10:06:33.436267  4720 net.cpp:122] Setting up BatchNorm20
I1007 10:06:33.436272  4720 net.cpp:129] Top shape: 100 32 14 14 (627200)
I1007 10:06:33.436285  4720 net.cpp:137] Memory required for data: 412384400
I1007 10:06:33.436290  4720 layer_factory.hpp:77] Creating layer Scale20
I1007 10:06:33.436293  4720 net.cpp:84] Creating Layer Scale20
I1007 10:06:33.436296  4720 net.cpp:406] Scale20 <- Convolution20
I1007 10:06:33.436300  4720 net.cpp:367] Scale20 -> Convolution20 (in-place)
I1007 10:06:33.436334  4720 layer_factory.hpp:77] Creating layer Scale20
I1007 10:06:33.436419  4720 net.cpp:122] Setting up Scale20
I1007 10:06:33.436424  4720 net.cpp:129] Top shape: 100 32 14 14 (627200)
I1007 10:06:33.436425  4720 net.cpp:137] Memory required for data: 414893200
I1007 10:06:33.436429  4720 layer_factory.hpp:77] Creating layer Eltwise9
I1007 10:06:33.436434  4720 net.cpp:84] Creating Layer Eltwise9
I1007 10:06:33.436435  4720 net.cpp:406] Eltwise9 <- Eltwise8_penlu17_0_split_1
I1007 10:06:33.436439  4720 net.cpp:406] Eltwise9 <- Convolution20
I1007 10:06:33.436442  4720 net.cpp:380] Eltwise9 -> Eltwise9
I1007 10:06:33.436457  4720 net.cpp:122] Setting up Eltwise9
I1007 10:06:33.436461  4720 net.cpp:129] Top shape: 100 32 14 14 (627200)
I1007 10:06:33.436463  4720 net.cpp:137] Memory required for data: 417402000
I1007 10:06:33.436477  4720 layer_factory.hpp:77] Creating layer penlu19
I1007 10:06:33.436482  4720 net.cpp:84] Creating Layer penlu19
I1007 10:06:33.436494  4720 net.cpp:406] penlu19 <- Eltwise9
I1007 10:06:33.436498  4720 net.cpp:367] penlu19 -> Eltwise9 (in-place)
I1007 10:06:33.436612  4720 net.cpp:122] Setting up penlu19
I1007 10:06:33.436616  4720 net.cpp:129] Top shape: 100 32 14 14 (627200)
I1007 10:06:33.436619  4720 net.cpp:137] Memory required for data: 419910800
I1007 10:06:33.436622  4720 layer_factory.hpp:77] Creating layer Eltwise9_penlu19_0_split
I1007 10:06:33.436626  4720 net.cpp:84] Creating Layer Eltwise9_penlu19_0_split
I1007 10:06:33.436628  4720 net.cpp:406] Eltwise9_penlu19_0_split <- Eltwise9
I1007 10:06:33.436631  4720 net.cpp:380] Eltwise9_penlu19_0_split -> Eltwise9_penlu19_0_split_0
I1007 10:06:33.436635  4720 net.cpp:380] Eltwise9_penlu19_0_split -> Eltwise9_penlu19_0_split_1
I1007 10:06:33.436656  4720 net.cpp:122] Setting up Eltwise9_penlu19_0_split
I1007 10:06:33.436661  4720 net.cpp:129] Top shape: 100 32 14 14 (627200)
I1007 10:06:33.436663  4720 net.cpp:129] Top shape: 100 32 14 14 (627200)
I1007 10:06:33.436666  4720 net.cpp:137] Memory required for data: 424928400
I1007 10:06:33.436667  4720 layer_factory.hpp:77] Creating layer Convolution21
I1007 10:06:33.436672  4720 net.cpp:84] Creating Layer Convolution21
I1007 10:06:33.436676  4720 net.cpp:406] Convolution21 <- Eltwise9_penlu19_0_split_0
I1007 10:06:33.436679  4720 net.cpp:380] Convolution21 -> Convolution21
I1007 10:06:33.438019  4720 net.cpp:122] Setting up Convolution21
I1007 10:06:33.438027  4720 net.cpp:129] Top shape: 100 32 14 14 (627200)
I1007 10:06:33.438030  4720 net.cpp:137] Memory required for data: 427437200
I1007 10:06:33.438035  4720 layer_factory.hpp:77] Creating layer BatchNorm21
I1007 10:06:33.438040  4720 net.cpp:84] Creating Layer BatchNorm21
I1007 10:06:33.438050  4720 net.cpp:406] BatchNorm21 <- Convolution21
I1007 10:06:33.438055  4720 net.cpp:367] BatchNorm21 -> Convolution21 (in-place)
I1007 10:06:33.438186  4720 net.cpp:122] Setting up BatchNorm21
I1007 10:06:33.438190  4720 net.cpp:129] Top shape: 100 32 14 14 (627200)
I1007 10:06:33.438192  4720 net.cpp:137] Memory required for data: 429946000
I1007 10:06:33.438197  4720 layer_factory.hpp:77] Creating layer Scale21
I1007 10:06:33.438202  4720 net.cpp:84] Creating Layer Scale21
I1007 10:06:33.438205  4720 net.cpp:406] Scale21 <- Convolution21
I1007 10:06:33.438208  4720 net.cpp:367] Scale21 -> Convolution21 (in-place)
I1007 10:06:33.438235  4720 layer_factory.hpp:77] Creating layer Scale21
I1007 10:06:33.438310  4720 net.cpp:122] Setting up Scale21
I1007 10:06:33.438314  4720 net.cpp:129] Top shape: 100 32 14 14 (627200)
I1007 10:06:33.438316  4720 net.cpp:137] Memory required for data: 432454800
I1007 10:06:33.438320  4720 layer_factory.hpp:77] Creating layer penlu20
I1007 10:06:33.438326  4720 net.cpp:84] Creating Layer penlu20
I1007 10:06:33.438328  4720 net.cpp:406] penlu20 <- Convolution21
I1007 10:06:33.438331  4720 net.cpp:367] penlu20 -> Convolution21 (in-place)
I1007 10:06:33.438436  4720 net.cpp:122] Setting up penlu20
I1007 10:06:33.438441  4720 net.cpp:129] Top shape: 100 32 14 14 (627200)
I1007 10:06:33.438442  4720 net.cpp:137] Memory required for data: 434963600
I1007 10:06:33.438447  4720 layer_factory.hpp:77] Creating layer Convolution22
I1007 10:06:33.438453  4720 net.cpp:84] Creating Layer Convolution22
I1007 10:06:33.438457  4720 net.cpp:406] Convolution22 <- Convolution21
I1007 10:06:33.438459  4720 net.cpp:380] Convolution22 -> Convolution22
I1007 10:06:33.439513  4720 net.cpp:122] Setting up Convolution22
I1007 10:06:33.439522  4720 net.cpp:129] Top shape: 100 32 14 14 (627200)
I1007 10:06:33.439524  4720 net.cpp:137] Memory required for data: 437472400
I1007 10:06:33.439528  4720 layer_factory.hpp:77] Creating layer BatchNorm22
I1007 10:06:33.439533  4720 net.cpp:84] Creating Layer BatchNorm22
I1007 10:06:33.439537  4720 net.cpp:406] BatchNorm22 <- Convolution22
I1007 10:06:33.439540  4720 net.cpp:367] BatchNorm22 -> Convolution22 (in-place)
I1007 10:06:33.439671  4720 net.cpp:122] Setting up BatchNorm22
I1007 10:06:33.439677  4720 net.cpp:129] Top shape: 100 32 14 14 (627200)
I1007 10:06:33.439678  4720 net.cpp:137] Memory required for data: 439981200
I1007 10:06:33.439682  4720 layer_factory.hpp:77] Creating layer Scale22
I1007 10:06:33.439687  4720 net.cpp:84] Creating Layer Scale22
I1007 10:06:33.439689  4720 net.cpp:406] Scale22 <- Convolution22
I1007 10:06:33.439692  4720 net.cpp:367] Scale22 -> Convolution22 (in-place)
I1007 10:06:33.439718  4720 layer_factory.hpp:77] Creating layer Scale22
I1007 10:06:33.439792  4720 net.cpp:122] Setting up Scale22
I1007 10:06:33.439796  4720 net.cpp:129] Top shape: 100 32 14 14 (627200)
I1007 10:06:33.439798  4720 net.cpp:137] Memory required for data: 442490000
I1007 10:06:33.439802  4720 layer_factory.hpp:77] Creating layer Eltwise10
I1007 10:06:33.439806  4720 net.cpp:84] Creating Layer Eltwise10
I1007 10:06:33.439810  4720 net.cpp:406] Eltwise10 <- Eltwise9_penlu19_0_split_1
I1007 10:06:33.439811  4720 net.cpp:406] Eltwise10 <- Convolution22
I1007 10:06:33.439815  4720 net.cpp:380] Eltwise10 -> Eltwise10
I1007 10:06:33.439831  4720 net.cpp:122] Setting up Eltwise10
I1007 10:06:33.439834  4720 net.cpp:129] Top shape: 100 32 14 14 (627200)
I1007 10:06:33.439836  4720 net.cpp:137] Memory required for data: 444998800
I1007 10:06:33.439838  4720 layer_factory.hpp:77] Creating layer penlu21
I1007 10:06:33.439843  4720 net.cpp:84] Creating Layer penlu21
I1007 10:06:33.439846  4720 net.cpp:406] penlu21 <- Eltwise10
I1007 10:06:33.439849  4720 net.cpp:367] penlu21 -> Eltwise10 (in-place)
I1007 10:06:33.439952  4720 net.cpp:122] Setting up penlu21
I1007 10:06:33.439956  4720 net.cpp:129] Top shape: 100 32 14 14 (627200)
I1007 10:06:33.439959  4720 net.cpp:137] Memory required for data: 447507600
I1007 10:06:33.439962  4720 layer_factory.hpp:77] Creating layer Eltwise10_penlu21_0_split
I1007 10:06:33.439973  4720 net.cpp:84] Creating Layer Eltwise10_penlu21_0_split
I1007 10:06:33.439975  4720 net.cpp:406] Eltwise10_penlu21_0_split <- Eltwise10
I1007 10:06:33.439978  4720 net.cpp:380] Eltwise10_penlu21_0_split -> Eltwise10_penlu21_0_split_0
I1007 10:06:33.439983  4720 net.cpp:380] Eltwise10_penlu21_0_split -> Eltwise10_penlu21_0_split_1
I1007 10:06:33.440006  4720 net.cpp:122] Setting up Eltwise10_penlu21_0_split
I1007 10:06:33.440011  4720 net.cpp:129] Top shape: 100 32 14 14 (627200)
I1007 10:06:33.440013  4720 net.cpp:129] Top shape: 100 32 14 14 (627200)
I1007 10:06:33.440016  4720 net.cpp:137] Memory required for data: 452525200
I1007 10:06:33.440017  4720 layer_factory.hpp:77] Creating layer Convolution23
I1007 10:06:33.440023  4720 net.cpp:84] Creating Layer Convolution23
I1007 10:06:33.440026  4720 net.cpp:406] Convolution23 <- Eltwise10_penlu21_0_split_0
I1007 10:06:33.440029  4720 net.cpp:380] Convolution23 -> Convolution23
I1007 10:06:33.440899  4720 net.cpp:122] Setting up Convolution23
I1007 10:06:33.440907  4720 net.cpp:129] Top shape: 100 64 7 7 (313600)
I1007 10:06:33.440910  4720 net.cpp:137] Memory required for data: 453779600
I1007 10:06:33.440914  4720 layer_factory.hpp:77] Creating layer BatchNorm23
I1007 10:06:33.440920  4720 net.cpp:84] Creating Layer BatchNorm23
I1007 10:06:33.440923  4720 net.cpp:406] BatchNorm23 <- Convolution23
I1007 10:06:33.440927  4720 net.cpp:367] BatchNorm23 -> Convolution23 (in-place)
I1007 10:06:33.441056  4720 net.cpp:122] Setting up BatchNorm23
I1007 10:06:33.441059  4720 net.cpp:129] Top shape: 100 64 7 7 (313600)
I1007 10:06:33.441062  4720 net.cpp:137] Memory required for data: 455034000
I1007 10:06:33.441066  4720 layer_factory.hpp:77] Creating layer Scale23
I1007 10:06:33.441071  4720 net.cpp:84] Creating Layer Scale23
I1007 10:06:33.441072  4720 net.cpp:406] Scale23 <- Convolution23
I1007 10:06:33.441076  4720 net.cpp:367] Scale23 -> Convolution23 (in-place)
I1007 10:06:33.441102  4720 layer_factory.hpp:77] Creating layer Scale23
I1007 10:06:33.441176  4720 net.cpp:122] Setting up Scale23
I1007 10:06:33.441180  4720 net.cpp:129] Top shape: 100 64 7 7 (313600)
I1007 10:06:33.441182  4720 net.cpp:137] Memory required for data: 456288400
I1007 10:06:33.441186  4720 layer_factory.hpp:77] Creating layer Convolution24
I1007 10:06:33.441192  4720 net.cpp:84] Creating Layer Convolution24
I1007 10:06:33.441196  4720 net.cpp:406] Convolution24 <- Eltwise10_penlu21_0_split_1
I1007 10:06:33.441200  4720 net.cpp:380] Convolution24 -> Convolution24
I1007 10:06:33.442919  4720 net.cpp:122] Setting up Convolution24
I1007 10:06:33.442929  4720 net.cpp:129] Top shape: 100 64 7 7 (313600)
I1007 10:06:33.442931  4720 net.cpp:137] Memory required for data: 457542800
I1007 10:06:33.442935  4720 layer_factory.hpp:77] Creating layer BatchNorm24
I1007 10:06:33.442941  4720 net.cpp:84] Creating Layer BatchNorm24
I1007 10:06:33.442945  4720 net.cpp:406] BatchNorm24 <- Convolution24
I1007 10:06:33.442947  4720 net.cpp:367] BatchNorm24 -> Convolution24 (in-place)
I1007 10:06:33.443078  4720 net.cpp:122] Setting up BatchNorm24
I1007 10:06:33.443084  4720 net.cpp:129] Top shape: 100 64 7 7 (313600)
I1007 10:06:33.443085  4720 net.cpp:137] Memory required for data: 458797200
I1007 10:06:33.443089  4720 layer_factory.hpp:77] Creating layer Scale24
I1007 10:06:33.443094  4720 net.cpp:84] Creating Layer Scale24
I1007 10:06:33.443097  4720 net.cpp:406] Scale24 <- Convolution24
I1007 10:06:33.443100  4720 net.cpp:367] Scale24 -> Convolution24 (in-place)
I1007 10:06:33.443126  4720 layer_factory.hpp:77] Creating layer Scale24
I1007 10:06:33.443230  4720 net.cpp:122] Setting up Scale24
I1007 10:06:33.443235  4720 net.cpp:129] Top shape: 100 64 7 7 (313600)
I1007 10:06:33.443238  4720 net.cpp:137] Memory required for data: 460051600
I1007 10:06:33.443241  4720 layer_factory.hpp:77] Creating layer penlu22
I1007 10:06:33.443248  4720 net.cpp:84] Creating Layer penlu22
I1007 10:06:33.443250  4720 net.cpp:406] penlu22 <- Convolution24
I1007 10:06:33.443260  4720 net.cpp:367] penlu22 -> Convolution24 (in-place)
I1007 10:06:33.443367  4720 net.cpp:122] Setting up penlu22
I1007 10:06:33.443372  4720 net.cpp:129] Top shape: 100 64 7 7 (313600)
I1007 10:06:33.443374  4720 net.cpp:137] Memory required for data: 461306000
I1007 10:06:33.443378  4720 layer_factory.hpp:77] Creating layer Convolution25
I1007 10:06:33.443385  4720 net.cpp:84] Creating Layer Convolution25
I1007 10:06:33.443387  4720 net.cpp:406] Convolution25 <- Convolution24
I1007 10:06:33.443392  4720 net.cpp:380] Convolution25 -> Convolution25
I1007 10:06:33.445302  4720 net.cpp:122] Setting up Convolution25
I1007 10:06:33.445312  4720 net.cpp:129] Top shape: 100 64 7 7 (313600)
I1007 10:06:33.445313  4720 net.cpp:137] Memory required for data: 462560400
I1007 10:06:33.445319  4720 layer_factory.hpp:77] Creating layer BatchNorm25
I1007 10:06:33.445324  4720 net.cpp:84] Creating Layer BatchNorm25
I1007 10:06:33.445327  4720 net.cpp:406] BatchNorm25 <- Convolution25
I1007 10:06:33.445330  4720 net.cpp:367] BatchNorm25 -> Convolution25 (in-place)
I1007 10:06:33.445466  4720 net.cpp:122] Setting up BatchNorm25
I1007 10:06:33.445471  4720 net.cpp:129] Top shape: 100 64 7 7 (313600)
I1007 10:06:33.445472  4720 net.cpp:137] Memory required for data: 463814800
I1007 10:06:33.445477  4720 layer_factory.hpp:77] Creating layer Scale25
I1007 10:06:33.445482  4720 net.cpp:84] Creating Layer Scale25
I1007 10:06:33.445484  4720 net.cpp:406] Scale25 <- Convolution25
I1007 10:06:33.445487  4720 net.cpp:367] Scale25 -> Convolution25 (in-place)
I1007 10:06:33.445513  4720 layer_factory.hpp:77] Creating layer Scale25
I1007 10:06:33.445590  4720 net.cpp:122] Setting up Scale25
I1007 10:06:33.445595  4720 net.cpp:129] Top shape: 100 64 7 7 (313600)
I1007 10:06:33.445596  4720 net.cpp:137] Memory required for data: 465069200
I1007 10:06:33.445600  4720 layer_factory.hpp:77] Creating layer Eltwise11
I1007 10:06:33.445603  4720 net.cpp:84] Creating Layer Eltwise11
I1007 10:06:33.445607  4720 net.cpp:406] Eltwise11 <- Convolution23
I1007 10:06:33.445610  4720 net.cpp:406] Eltwise11 <- Convolution25
I1007 10:06:33.445613  4720 net.cpp:380] Eltwise11 -> Eltwise11
I1007 10:06:33.445627  4720 net.cpp:122] Setting up Eltwise11
I1007 10:06:33.445631  4720 net.cpp:129] Top shape: 100 64 7 7 (313600)
I1007 10:06:33.445633  4720 net.cpp:137] Memory required for data: 466323600
I1007 10:06:33.445636  4720 layer_factory.hpp:77] Creating layer penlu23
I1007 10:06:33.445641  4720 net.cpp:84] Creating Layer penlu23
I1007 10:06:33.445643  4720 net.cpp:406] penlu23 <- Eltwise11
I1007 10:06:33.445647  4720 net.cpp:367] penlu23 -> Eltwise11 (in-place)
I1007 10:06:33.445753  4720 net.cpp:122] Setting up penlu23
I1007 10:06:33.445757  4720 net.cpp:129] Top shape: 100 64 7 7 (313600)
I1007 10:06:33.445760  4720 net.cpp:137] Memory required for data: 467578000
I1007 10:06:33.445763  4720 layer_factory.hpp:77] Creating layer Eltwise11_penlu23_0_split
I1007 10:06:33.445768  4720 net.cpp:84] Creating Layer Eltwise11_penlu23_0_split
I1007 10:06:33.445770  4720 net.cpp:406] Eltwise11_penlu23_0_split <- Eltwise11
I1007 10:06:33.445773  4720 net.cpp:380] Eltwise11_penlu23_0_split -> Eltwise11_penlu23_0_split_0
I1007 10:06:33.445777  4720 net.cpp:380] Eltwise11_penlu23_0_split -> Eltwise11_penlu23_0_split_1
I1007 10:06:33.445799  4720 net.cpp:122] Setting up Eltwise11_penlu23_0_split
I1007 10:06:33.445803  4720 net.cpp:129] Top shape: 100 64 7 7 (313600)
I1007 10:06:33.445806  4720 net.cpp:129] Top shape: 100 64 7 7 (313600)
I1007 10:06:33.445808  4720 net.cpp:137] Memory required for data: 470086800
I1007 10:06:33.445811  4720 layer_factory.hpp:77] Creating layer Convolution26
I1007 10:06:33.445816  4720 net.cpp:84] Creating Layer Convolution26
I1007 10:06:33.445818  4720 net.cpp:406] Convolution26 <- Eltwise11_penlu23_0_split_0
I1007 10:06:33.445822  4720 net.cpp:380] Convolution26 -> Convolution26
I1007 10:06:33.447443  4720 net.cpp:122] Setting up Convolution26
I1007 10:06:33.447451  4720 net.cpp:129] Top shape: 100 64 7 7 (313600)
I1007 10:06:33.447453  4720 net.cpp:137] Memory required for data: 471341200
I1007 10:06:33.447464  4720 layer_factory.hpp:77] Creating layer BatchNorm26
I1007 10:06:33.447470  4720 net.cpp:84] Creating Layer BatchNorm26
I1007 10:06:33.447474  4720 net.cpp:406] BatchNorm26 <- Convolution26
I1007 10:06:33.447477  4720 net.cpp:367] BatchNorm26 -> Convolution26 (in-place)
I1007 10:06:33.447612  4720 net.cpp:122] Setting up BatchNorm26
I1007 10:06:33.447615  4720 net.cpp:129] Top shape: 100 64 7 7 (313600)
I1007 10:06:33.447618  4720 net.cpp:137] Memory required for data: 472595600
I1007 10:06:33.447623  4720 layer_factory.hpp:77] Creating layer Scale26
I1007 10:06:33.447626  4720 net.cpp:84] Creating Layer Scale26
I1007 10:06:33.447628  4720 net.cpp:406] Scale26 <- Convolution26
I1007 10:06:33.447631  4720 net.cpp:367] Scale26 -> Convolution26 (in-place)
I1007 10:06:33.447660  4720 layer_factory.hpp:77] Creating layer Scale26
I1007 10:06:33.447736  4720 net.cpp:122] Setting up Scale26
I1007 10:06:33.447741  4720 net.cpp:129] Top shape: 100 64 7 7 (313600)
I1007 10:06:33.447742  4720 net.cpp:137] Memory required for data: 473850000
I1007 10:06:33.447746  4720 layer_factory.hpp:77] Creating layer penlu24
I1007 10:06:33.447751  4720 net.cpp:84] Creating Layer penlu24
I1007 10:06:33.447754  4720 net.cpp:406] penlu24 <- Convolution26
I1007 10:06:33.447758  4720 net.cpp:367] penlu24 -> Convolution26 (in-place)
I1007 10:06:33.447867  4720 net.cpp:122] Setting up penlu24
I1007 10:06:33.447871  4720 net.cpp:129] Top shape: 100 64 7 7 (313600)
I1007 10:06:33.447873  4720 net.cpp:137] Memory required for data: 475104400
I1007 10:06:33.447877  4720 layer_factory.hpp:77] Creating layer Convolution27
I1007 10:06:33.447885  4720 net.cpp:84] Creating Layer Convolution27
I1007 10:06:33.447887  4720 net.cpp:406] Convolution27 <- Convolution26
I1007 10:06:33.447891  4720 net.cpp:380] Convolution27 -> Convolution27
I1007 10:06:33.449492  4720 net.cpp:122] Setting up Convolution27
I1007 10:06:33.449501  4720 net.cpp:129] Top shape: 100 64 7 7 (313600)
I1007 10:06:33.449503  4720 net.cpp:137] Memory required for data: 476358800
I1007 10:06:33.449509  4720 layer_factory.hpp:77] Creating layer BatchNorm27
I1007 10:06:33.449513  4720 net.cpp:84] Creating Layer BatchNorm27
I1007 10:06:33.449517  4720 net.cpp:406] BatchNorm27 <- Convolution27
I1007 10:06:33.449520  4720 net.cpp:367] BatchNorm27 -> Convolution27 (in-place)
I1007 10:06:33.449656  4720 net.cpp:122] Setting up BatchNorm27
I1007 10:06:33.449661  4720 net.cpp:129] Top shape: 100 64 7 7 (313600)
I1007 10:06:33.449662  4720 net.cpp:137] Memory required for data: 477613200
I1007 10:06:33.449688  4720 layer_factory.hpp:77] Creating layer Scale27
I1007 10:06:33.449702  4720 net.cpp:84] Creating Layer Scale27
I1007 10:06:33.449704  4720 net.cpp:406] Scale27 <- Convolution27
I1007 10:06:33.449708  4720 net.cpp:367] Scale27 -> Convolution27 (in-place)
I1007 10:06:33.449736  4720 layer_factory.hpp:77] Creating layer Scale27
I1007 10:06:33.449812  4720 net.cpp:122] Setting up Scale27
I1007 10:06:33.449817  4720 net.cpp:129] Top shape: 100 64 7 7 (313600)
I1007 10:06:33.449820  4720 net.cpp:137] Memory required for data: 478867600
I1007 10:06:33.449823  4720 layer_factory.hpp:77] Creating layer Eltwise12
I1007 10:06:33.449827  4720 net.cpp:84] Creating Layer Eltwise12
I1007 10:06:33.449829  4720 net.cpp:406] Eltwise12 <- Eltwise11_penlu23_0_split_1
I1007 10:06:33.449833  4720 net.cpp:406] Eltwise12 <- Convolution27
I1007 10:06:33.449836  4720 net.cpp:380] Eltwise12 -> Eltwise12
I1007 10:06:33.449856  4720 net.cpp:122] Setting up Eltwise12
I1007 10:06:33.449862  4720 net.cpp:129] Top shape: 100 64 7 7 (313600)
I1007 10:06:33.449863  4720 net.cpp:137] Memory required for data: 480122000
I1007 10:06:33.449865  4720 layer_factory.hpp:77] Creating layer penlu25
I1007 10:06:33.449870  4720 net.cpp:84] Creating Layer penlu25
I1007 10:06:33.449872  4720 net.cpp:406] penlu25 <- Eltwise12
I1007 10:06:33.449875  4720 net.cpp:367] penlu25 -> Eltwise12 (in-place)
I1007 10:06:33.449986  4720 net.cpp:122] Setting up penlu25
I1007 10:06:33.449996  4720 net.cpp:129] Top shape: 100 64 7 7 (313600)
I1007 10:06:33.449998  4720 net.cpp:137] Memory required for data: 481376400
I1007 10:06:33.450003  4720 layer_factory.hpp:77] Creating layer Eltwise12_penlu25_0_split
I1007 10:06:33.450008  4720 net.cpp:84] Creating Layer Eltwise12_penlu25_0_split
I1007 10:06:33.450011  4720 net.cpp:406] Eltwise12_penlu25_0_split <- Eltwise12
I1007 10:06:33.450013  4720 net.cpp:380] Eltwise12_penlu25_0_split -> Eltwise12_penlu25_0_split_0
I1007 10:06:33.450018  4720 net.cpp:380] Eltwise12_penlu25_0_split -> Eltwise12_penlu25_0_split_1
I1007 10:06:33.450042  4720 net.cpp:122] Setting up Eltwise12_penlu25_0_split
I1007 10:06:33.450045  4720 net.cpp:129] Top shape: 100 64 7 7 (313600)
I1007 10:06:33.450048  4720 net.cpp:129] Top shape: 100 64 7 7 (313600)
I1007 10:06:33.450050  4720 net.cpp:137] Memory required for data: 483885200
I1007 10:06:33.450052  4720 layer_factory.hpp:77] Creating layer Convolution28
I1007 10:06:33.450058  4720 net.cpp:84] Creating Layer Convolution28
I1007 10:06:33.450060  4720 net.cpp:406] Convolution28 <- Eltwise12_penlu25_0_split_0
I1007 10:06:33.450065  4720 net.cpp:380] Convolution28 -> Convolution28
I1007 10:06:33.451683  4720 net.cpp:122] Setting up Convolution28
I1007 10:06:33.451691  4720 net.cpp:129] Top shape: 100 64 7 7 (313600)
I1007 10:06:33.451694  4720 net.cpp:137] Memory required for data: 485139600
I1007 10:06:33.451699  4720 layer_factory.hpp:77] Creating layer BatchNorm28
I1007 10:06:33.451704  4720 net.cpp:84] Creating Layer BatchNorm28
I1007 10:06:33.451706  4720 net.cpp:406] BatchNorm28 <- Convolution28
I1007 10:06:33.451710  4720 net.cpp:367] BatchNorm28 -> Convolution28 (in-place)
I1007 10:06:33.451844  4720 net.cpp:122] Setting up BatchNorm28
I1007 10:06:33.451848  4720 net.cpp:129] Top shape: 100 64 7 7 (313600)
I1007 10:06:33.451850  4720 net.cpp:137] Memory required for data: 486394000
I1007 10:06:33.451854  4720 layer_factory.hpp:77] Creating layer Scale28
I1007 10:06:33.451858  4720 net.cpp:84] Creating Layer Scale28
I1007 10:06:33.451861  4720 net.cpp:406] Scale28 <- Convolution28
I1007 10:06:33.451864  4720 net.cpp:367] Scale28 -> Convolution28 (in-place)
I1007 10:06:33.451891  4720 layer_factory.hpp:77] Creating layer Scale28
I1007 10:06:33.451967  4720 net.cpp:122] Setting up Scale28
I1007 10:06:33.451972  4720 net.cpp:129] Top shape: 100 64 7 7 (313600)
I1007 10:06:33.451973  4720 net.cpp:137] Memory required for data: 487648400
I1007 10:06:33.451977  4720 layer_factory.hpp:77] Creating layer penlu26
I1007 10:06:33.451982  4720 net.cpp:84] Creating Layer penlu26
I1007 10:06:33.451985  4720 net.cpp:406] penlu26 <- Convolution28
I1007 10:06:33.451988  4720 net.cpp:367] penlu26 -> Convolution28 (in-place)
I1007 10:06:33.452097  4720 net.cpp:122] Setting up penlu26
I1007 10:06:33.452101  4720 net.cpp:129] Top shape: 100 64 7 7 (313600)
I1007 10:06:33.452103  4720 net.cpp:137] Memory required for data: 488902800
I1007 10:06:33.452108  4720 layer_factory.hpp:77] Creating layer Convolution29
I1007 10:06:33.452114  4720 net.cpp:84] Creating Layer Convolution29
I1007 10:06:33.452117  4720 net.cpp:406] Convolution29 <- Convolution28
I1007 10:06:33.452121  4720 net.cpp:380] Convolution29 -> Convolution29
I1007 10:06:33.454040  4720 net.cpp:122] Setting up Convolution29
I1007 10:06:33.454047  4720 net.cpp:129] Top shape: 100 64 7 7 (313600)
I1007 10:06:33.454049  4720 net.cpp:137] Memory required for data: 490157200
I1007 10:06:33.454054  4720 layer_factory.hpp:77] Creating layer BatchNorm29
I1007 10:06:33.454059  4720 net.cpp:84] Creating Layer BatchNorm29
I1007 10:06:33.454062  4720 net.cpp:406] BatchNorm29 <- Convolution29
I1007 10:06:33.454066  4720 net.cpp:367] BatchNorm29 -> Convolution29 (in-place)
I1007 10:06:33.454205  4720 net.cpp:122] Setting up BatchNorm29
I1007 10:06:33.454210  4720 net.cpp:129] Top shape: 100 64 7 7 (313600)
I1007 10:06:33.454212  4720 net.cpp:137] Memory required for data: 491411600
I1007 10:06:33.454216  4720 layer_factory.hpp:77] Creating layer Scale29
I1007 10:06:33.454221  4720 net.cpp:84] Creating Layer Scale29
I1007 10:06:33.454231  4720 net.cpp:406] Scale29 <- Convolution29
I1007 10:06:33.454234  4720 net.cpp:367] Scale29 -> Convolution29 (in-place)
I1007 10:06:33.454262  4720 layer_factory.hpp:77] Creating layer Scale29
I1007 10:06:33.454342  4720 net.cpp:122] Setting up Scale29
I1007 10:06:33.454346  4720 net.cpp:129] Top shape: 100 64 7 7 (313600)
I1007 10:06:33.454349  4720 net.cpp:137] Memory required for data: 492666000
I1007 10:06:33.454352  4720 layer_factory.hpp:77] Creating layer Eltwise13
I1007 10:06:33.454357  4720 net.cpp:84] Creating Layer Eltwise13
I1007 10:06:33.454360  4720 net.cpp:406] Eltwise13 <- Eltwise12_penlu25_0_split_1
I1007 10:06:33.454362  4720 net.cpp:406] Eltwise13 <- Convolution29
I1007 10:06:33.454365  4720 net.cpp:380] Eltwise13 -> Eltwise13
I1007 10:06:33.454382  4720 net.cpp:122] Setting up Eltwise13
I1007 10:06:33.454385  4720 net.cpp:129] Top shape: 100 64 7 7 (313600)
I1007 10:06:33.454387  4720 net.cpp:137] Memory required for data: 493920400
I1007 10:06:33.454390  4720 layer_factory.hpp:77] Creating layer penlu27
I1007 10:06:33.454396  4720 net.cpp:84] Creating Layer penlu27
I1007 10:06:33.454397  4720 net.cpp:406] penlu27 <- Eltwise13
I1007 10:06:33.454401  4720 net.cpp:367] penlu27 -> Eltwise13 (in-place)
I1007 10:06:33.454509  4720 net.cpp:122] Setting up penlu27
I1007 10:06:33.454514  4720 net.cpp:129] Top shape: 100 64 7 7 (313600)
I1007 10:06:33.454516  4720 net.cpp:137] Memory required for data: 495174800
I1007 10:06:33.454520  4720 layer_factory.hpp:77] Creating layer Eltwise13_penlu27_0_split
I1007 10:06:33.454524  4720 net.cpp:84] Creating Layer Eltwise13_penlu27_0_split
I1007 10:06:33.454525  4720 net.cpp:406] Eltwise13_penlu27_0_split <- Eltwise13
I1007 10:06:33.454530  4720 net.cpp:380] Eltwise13_penlu27_0_split -> Eltwise13_penlu27_0_split_0
I1007 10:06:33.454532  4720 net.cpp:380] Eltwise13_penlu27_0_split -> Eltwise13_penlu27_0_split_1
I1007 10:06:33.454555  4720 net.cpp:122] Setting up Eltwise13_penlu27_0_split
I1007 10:06:33.454560  4720 net.cpp:129] Top shape: 100 64 7 7 (313600)
I1007 10:06:33.454561  4720 net.cpp:129] Top shape: 100 64 7 7 (313600)
I1007 10:06:33.454563  4720 net.cpp:137] Memory required for data: 497683600
I1007 10:06:33.454566  4720 layer_factory.hpp:77] Creating layer Convolution30
I1007 10:06:33.454572  4720 net.cpp:84] Creating Layer Convolution30
I1007 10:06:33.454574  4720 net.cpp:406] Convolution30 <- Eltwise13_penlu27_0_split_0
I1007 10:06:33.454578  4720 net.cpp:380] Convolution30 -> Convolution30
I1007 10:06:33.456205  4720 net.cpp:122] Setting up Convolution30
I1007 10:06:33.456213  4720 net.cpp:129] Top shape: 100 64 7 7 (313600)
I1007 10:06:33.456217  4720 net.cpp:137] Memory required for data: 498938000
I1007 10:06:33.456220  4720 layer_factory.hpp:77] Creating layer BatchNorm30
I1007 10:06:33.456225  4720 net.cpp:84] Creating Layer BatchNorm30
I1007 10:06:33.456228  4720 net.cpp:406] BatchNorm30 <- Convolution30
I1007 10:06:33.456233  4720 net.cpp:367] BatchNorm30 -> Convolution30 (in-place)
I1007 10:06:33.456367  4720 net.cpp:122] Setting up BatchNorm30
I1007 10:06:33.456372  4720 net.cpp:129] Top shape: 100 64 7 7 (313600)
I1007 10:06:33.456374  4720 net.cpp:137] Memory required for data: 500192400
I1007 10:06:33.456378  4720 layer_factory.hpp:77] Creating layer Scale30
I1007 10:06:33.456383  4720 net.cpp:84] Creating Layer Scale30
I1007 10:06:33.456387  4720 net.cpp:406] Scale30 <- Convolution30
I1007 10:06:33.456389  4720 net.cpp:367] Scale30 -> Convolution30 (in-place)
I1007 10:06:33.456416  4720 layer_factory.hpp:77] Creating layer Scale30
I1007 10:06:33.456493  4720 net.cpp:122] Setting up Scale30
I1007 10:06:33.456497  4720 net.cpp:129] Top shape: 100 64 7 7 (313600)
I1007 10:06:33.456499  4720 net.cpp:137] Memory required for data: 501446800
I1007 10:06:33.456503  4720 layer_factory.hpp:77] Creating layer penlu28
I1007 10:06:33.456508  4720 net.cpp:84] Creating Layer penlu28
I1007 10:06:33.456511  4720 net.cpp:406] penlu28 <- Convolution30
I1007 10:06:33.456516  4720 net.cpp:367] penlu28 -> Convolution30 (in-place)
I1007 10:06:33.456631  4720 net.cpp:122] Setting up penlu28
I1007 10:06:33.456636  4720 net.cpp:129] Top shape: 100 64 7 7 (313600)
I1007 10:06:33.456638  4720 net.cpp:137] Memory required for data: 502701200
I1007 10:06:33.456642  4720 layer_factory.hpp:77] Creating layer Convolution31
I1007 10:06:33.456650  4720 net.cpp:84] Creating Layer Convolution31
I1007 10:06:33.456651  4720 net.cpp:406] Convolution31 <- Convolution30
I1007 10:06:33.456655  4720 net.cpp:380] Convolution31 -> Convolution31
I1007 10:06:33.458585  4720 net.cpp:122] Setting up Convolution31
I1007 10:06:33.458593  4720 net.cpp:129] Top shape: 100 64 7 7 (313600)
I1007 10:06:33.458596  4720 net.cpp:137] Memory required for data: 503955600
I1007 10:06:33.458601  4720 layer_factory.hpp:77] Creating layer BatchNorm31
I1007 10:06:33.458606  4720 net.cpp:84] Creating Layer BatchNorm31
I1007 10:06:33.458608  4720 net.cpp:406] BatchNorm31 <- Convolution31
I1007 10:06:33.458612  4720 net.cpp:367] BatchNorm31 -> Convolution31 (in-place)
I1007 10:06:33.458755  4720 net.cpp:122] Setting up BatchNorm31
I1007 10:06:33.458758  4720 net.cpp:129] Top shape: 100 64 7 7 (313600)
I1007 10:06:33.458761  4720 net.cpp:137] Memory required for data: 505210000
I1007 10:06:33.458766  4720 layer_factory.hpp:77] Creating layer Scale31
I1007 10:06:33.458770  4720 net.cpp:84] Creating Layer Scale31
I1007 10:06:33.458772  4720 net.cpp:406] Scale31 <- Convolution31
I1007 10:06:33.458775  4720 net.cpp:367] Scale31 -> Convolution31 (in-place)
I1007 10:06:33.458803  4720 layer_factory.hpp:77] Creating layer Scale31
I1007 10:06:33.458881  4720 net.cpp:122] Setting up Scale31
I1007 10:06:33.458885  4720 net.cpp:129] Top shape: 100 64 7 7 (313600)
I1007 10:06:33.458887  4720 net.cpp:137] Memory required for data: 506464400
I1007 10:06:33.458891  4720 layer_factory.hpp:77] Creating layer Eltwise14
I1007 10:06:33.458894  4720 net.cpp:84] Creating Layer Eltwise14
I1007 10:06:33.458897  4720 net.cpp:406] Eltwise14 <- Eltwise13_penlu27_0_split_1
I1007 10:06:33.458900  4720 net.cpp:406] Eltwise14 <- Convolution31
I1007 10:06:33.458904  4720 net.cpp:380] Eltwise14 -> Eltwise14
I1007 10:06:33.458920  4720 net.cpp:122] Setting up Eltwise14
I1007 10:06:33.458922  4720 net.cpp:129] Top shape: 100 64 7 7 (313600)
I1007 10:06:33.458925  4720 net.cpp:137] Memory required for data: 507718800
I1007 10:06:33.458926  4720 layer_factory.hpp:77] Creating layer penlu29
I1007 10:06:33.458931  4720 net.cpp:84] Creating Layer penlu29
I1007 10:06:33.458935  4720 net.cpp:406] penlu29 <- Eltwise14
I1007 10:06:33.458938  4720 net.cpp:367] penlu29 -> Eltwise14 (in-place)
I1007 10:06:33.459048  4720 net.cpp:122] Setting up penlu29
I1007 10:06:33.459051  4720 net.cpp:129] Top shape: 100 64 7 7 (313600)
I1007 10:06:33.459053  4720 net.cpp:137] Memory required for data: 508973200
I1007 10:06:33.459058  4720 layer_factory.hpp:77] Creating layer Eltwise14_penlu29_0_split
I1007 10:06:33.459061  4720 net.cpp:84] Creating Layer Eltwise14_penlu29_0_split
I1007 10:06:33.459064  4720 net.cpp:406] Eltwise14_penlu29_0_split <- Eltwise14
I1007 10:06:33.459066  4720 net.cpp:380] Eltwise14_penlu29_0_split -> Eltwise14_penlu29_0_split_0
I1007 10:06:33.459070  4720 net.cpp:380] Eltwise14_penlu29_0_split -> Eltwise14_penlu29_0_split_1
I1007 10:06:33.459094  4720 net.cpp:122] Setting up Eltwise14_penlu29_0_split
I1007 10:06:33.459097  4720 net.cpp:129] Top shape: 100 64 7 7 (313600)
I1007 10:06:33.459100  4720 net.cpp:129] Top shape: 100 64 7 7 (313600)
I1007 10:06:33.459101  4720 net.cpp:137] Memory required for data: 511482000
I1007 10:06:33.459105  4720 layer_factory.hpp:77] Creating layer Convolution32
I1007 10:06:33.459110  4720 net.cpp:84] Creating Layer Convolution32
I1007 10:06:33.459112  4720 net.cpp:406] Convolution32 <- Eltwise14_penlu29_0_split_0
I1007 10:06:33.459116  4720 net.cpp:380] Convolution32 -> Convolution32
I1007 10:06:33.460748  4720 net.cpp:122] Setting up Convolution32
I1007 10:06:33.460757  4720 net.cpp:129] Top shape: 100 64 7 7 (313600)
I1007 10:06:33.460759  4720 net.cpp:137] Memory required for data: 512736400
I1007 10:06:33.460770  4720 layer_factory.hpp:77] Creating layer BatchNorm32
I1007 10:06:33.460775  4720 net.cpp:84] Creating Layer BatchNorm32
I1007 10:06:33.460777  4720 net.cpp:406] BatchNorm32 <- Convolution32
I1007 10:06:33.460783  4720 net.cpp:367] BatchNorm32 -> Convolution32 (in-place)
I1007 10:06:33.460922  4720 net.cpp:122] Setting up BatchNorm32
I1007 10:06:33.460927  4720 net.cpp:129] Top shape: 100 64 7 7 (313600)
I1007 10:06:33.460928  4720 net.cpp:137] Memory required for data: 513990800
I1007 10:06:33.460932  4720 layer_factory.hpp:77] Creating layer Scale32
I1007 10:06:33.460937  4720 net.cpp:84] Creating Layer Scale32
I1007 10:06:33.460939  4720 net.cpp:406] Scale32 <- Convolution32
I1007 10:06:33.460943  4720 net.cpp:367] Scale32 -> Convolution32 (in-place)
I1007 10:06:33.460970  4720 layer_factory.hpp:77] Creating layer Scale32
I1007 10:06:33.461050  4720 net.cpp:122] Setting up Scale32
I1007 10:06:33.461053  4720 net.cpp:129] Top shape: 100 64 7 7 (313600)
I1007 10:06:33.461055  4720 net.cpp:137] Memory required for data: 515245200
I1007 10:06:33.461060  4720 layer_factory.hpp:77] Creating layer penlu30
I1007 10:06:33.461066  4720 net.cpp:84] Creating Layer penlu30
I1007 10:06:33.461067  4720 net.cpp:406] penlu30 <- Convolution32
I1007 10:06:33.461071  4720 net.cpp:367] penlu30 -> Convolution32 (in-place)
I1007 10:06:33.461181  4720 net.cpp:122] Setting up penlu30
I1007 10:06:33.461185  4720 net.cpp:129] Top shape: 100 64 7 7 (313600)
I1007 10:06:33.461187  4720 net.cpp:137] Memory required for data: 516499600
I1007 10:06:33.461191  4720 layer_factory.hpp:77] Creating layer Convolution33
I1007 10:06:33.461199  4720 net.cpp:84] Creating Layer Convolution33
I1007 10:06:33.461201  4720 net.cpp:406] Convolution33 <- Convolution32
I1007 10:06:33.461205  4720 net.cpp:380] Convolution33 -> Convolution33
I1007 10:06:33.463130  4720 net.cpp:122] Setting up Convolution33
I1007 10:06:33.463138  4720 net.cpp:129] Top shape: 100 64 7 7 (313600)
I1007 10:06:33.463141  4720 net.cpp:137] Memory required for data: 517754000
I1007 10:06:33.463145  4720 layer_factory.hpp:77] Creating layer BatchNorm33
I1007 10:06:33.463151  4720 net.cpp:84] Creating Layer BatchNorm33
I1007 10:06:33.463153  4720 net.cpp:406] BatchNorm33 <- Convolution33
I1007 10:06:33.463158  4720 net.cpp:367] BatchNorm33 -> Convolution33 (in-place)
I1007 10:06:33.463302  4720 net.cpp:122] Setting up BatchNorm33
I1007 10:06:33.463307  4720 net.cpp:129] Top shape: 100 64 7 7 (313600)
I1007 10:06:33.463310  4720 net.cpp:137] Memory required for data: 519008400
I1007 10:06:33.463315  4720 layer_factory.hpp:77] Creating layer Scale33
I1007 10:06:33.463320  4720 net.cpp:84] Creating Layer Scale33
I1007 10:06:33.463321  4720 net.cpp:406] Scale33 <- Convolution33
I1007 10:06:33.463325  4720 net.cpp:367] Scale33 -> Convolution33 (in-place)
I1007 10:06:33.463352  4720 layer_factory.hpp:77] Creating layer Scale33
I1007 10:06:33.463433  4720 net.cpp:122] Setting up Scale33
I1007 10:06:33.463436  4720 net.cpp:129] Top shape: 100 64 7 7 (313600)
I1007 10:06:33.463438  4720 net.cpp:137] Memory required for data: 520262800
I1007 10:06:33.463443  4720 layer_factory.hpp:77] Creating layer Eltwise15
I1007 10:06:33.463445  4720 net.cpp:84] Creating Layer Eltwise15
I1007 10:06:33.463449  4720 net.cpp:406] Eltwise15 <- Eltwise14_penlu29_0_split_1
I1007 10:06:33.463450  4720 net.cpp:406] Eltwise15 <- Convolution33
I1007 10:06:33.463454  4720 net.cpp:380] Eltwise15 -> Eltwise15
I1007 10:06:33.463470  4720 net.cpp:122] Setting up Eltwise15
I1007 10:06:33.463474  4720 net.cpp:129] Top shape: 100 64 7 7 (313600)
I1007 10:06:33.463475  4720 net.cpp:137] Memory required for data: 521517200
I1007 10:06:33.463477  4720 layer_factory.hpp:77] Creating layer penlu31
I1007 10:06:33.463484  4720 net.cpp:84] Creating Layer penlu31
I1007 10:06:33.463485  4720 net.cpp:406] penlu31 <- Eltwise15
I1007 10:06:33.463490  4720 net.cpp:367] penlu31 -> Eltwise15 (in-place)
I1007 10:06:33.463596  4720 net.cpp:122] Setting up penlu31
I1007 10:06:33.463600  4720 net.cpp:129] Top shape: 100 64 7 7 (313600)
I1007 10:06:33.463609  4720 net.cpp:137] Memory required for data: 522771600
I1007 10:06:33.463614  4720 layer_factory.hpp:77] Creating layer Pooling1
I1007 10:06:33.463620  4720 net.cpp:84] Creating Layer Pooling1
I1007 10:06:33.463623  4720 net.cpp:406] Pooling1 <- Eltwise15
I1007 10:06:33.463625  4720 net.cpp:380] Pooling1 -> Pooling1
I1007 10:06:33.463775  4720 net.cpp:122] Setting up Pooling1
I1007 10:06:33.463783  4720 net.cpp:129] Top shape: 100 64 1 1 (6400)
I1007 10:06:33.463785  4720 net.cpp:137] Memory required for data: 522797200
I1007 10:06:33.463788  4720 layer_factory.hpp:77] Creating layer InnerProduct1
I1007 10:06:33.463796  4720 net.cpp:84] Creating Layer InnerProduct1
I1007 10:06:33.463798  4720 net.cpp:406] InnerProduct1 <- Pooling1
I1007 10:06:33.463804  4720 net.cpp:380] InnerProduct1 -> InnerProduct1
I1007 10:06:33.463899  4720 net.cpp:122] Setting up InnerProduct1
I1007 10:06:33.463903  4720 net.cpp:129] Top shape: 100 10 (1000)
I1007 10:06:33.463906  4720 net.cpp:137] Memory required for data: 522801200
I1007 10:06:33.463909  4720 layer_factory.hpp:77] Creating layer SoftmaxWithLoss1
I1007 10:06:33.463914  4720 net.cpp:84] Creating Layer SoftmaxWithLoss1
I1007 10:06:33.463917  4720 net.cpp:406] SoftmaxWithLoss1 <- InnerProduct1
I1007 10:06:33.463919  4720 net.cpp:406] SoftmaxWithLoss1 <- Data2
I1007 10:06:33.463923  4720 net.cpp:380] SoftmaxWithLoss1 -> SoftmaxWithLoss1
…
I1007 10:06:33.467603  4720 net.cpp:294] The NetState phase (1) differed from the phase (0) specified by a rule in layer Data1
I1007 10:06:33.468420  4720 net.cpp:51] Initializing net from parameters: 
name: "resnet_cifar10"
state {
  phase: TEST
}
layer {
  name: "Data1"
  type: "Data"
  top: "Data1"
  top: "Data2"
  include {
    phase: TEST
  }
  transform_param {
    mean_file: "/home/x306/caffe/xn/PENLU/data/cifar10/mean.binaryproto"
  }
  data_param {
    source: "/home/x306/caffe/xn/PENLU/data/cifar10/cifar10_test_lmdb"
    batch_size: 100
    backend: LMDB
  }
}
layer {
  name: "Convolution1"
  type: "Convolution"
  bottom: "Data1"
  top: "Convolution1"
  param {
    lr_mult: 1
    decay_mult: 1
  }
  param {
    lr_mult: 2
    decay_mult: 0
  }
  convolution_param {
    num_output: 16
    pad: 1
    kernel_size: 3
    stride: 1
    weight_filler {
      type: "gaussian"
      std: 0.118
    }
    bias_filler {
      type: "constant"
      value: 0
    }
  }
}
layer {
  name: "BatchNorm1"
  type: "BatchNorm"
  bottom: "Convolution1"
  top: "Convolution1"
  param {
    lr_mult: 0
    decay_mult: 0
  }
  param {
    lr_mult: 0
    decay_mult: 0
  }
  param {
    lr_mult: 0
    decay_mult: 0
  }
}
layer {
  name: "Scale1"
  type: "Scale"
  bottom: "Convolution1"
  top: "Convolution1"
  scale_param {
    bias_term: true
  }
}
layer {
  name: "penlu1"
  type: "PENLU"
  bottom: "Convolution1"
  top: "Convolution1"
  param {
    lr_mult: 2
    decay_mult: 2
  }
  param {
    lr_mult: 2
    decay_mult: 2
  }
  param {
    lr_mult: 0
    decay_mult: 0
  }
  penlu_param {
    alpha_filler {
      type: "constant"
      value: 1
    }
    beta_filler {
      type: "constant"
      value: 1
    }
    eta_filler {
      type: "constant"
      value: 1
    }
  }
}
layer {
  name: "Convolution2"
  type: "Convolution"
  bottom: "Convolution1"
  top: "Convolution2"
  param {
    lr_mult: 1
    decay_mult: 1
  }
  param {
    lr_mult: 2
    decay_mult: 0
  }
  convolution_param {
    num_output: 16
    pad: 1
    kernel_size: 3
    stride: 1
    weight_filler {
      type: "gaussian"
      std: 0.118
    }
    bias_filler {
      type: "constant"
      value: 0
    }
  }
}
layer {
  name: "BatchNorm2"
  type: "BatchNorm"
  bottom: "Convolution2"
  top: "Convolution2"
  param {
    lr_mult: 0
    decay_mult: 0
  }
  param {
    lr_mult: 0
    decay_mult: 0
  }
  param {
    lr_mult: 0
    decay_mult: 0
  }
}
layer {
  name: "Scale2"
  type: "Scale"
  bottom: "Convolution2"
  top: "Convolution2"
  scale_param {
    bias_term: true
  }
}
layer {
  name: "penlu2"
  type: "PENLU"
  bottom: "Convolution2"
  top: "Convolution2"
  param {
    lr_mult: 2
    decay_mult: 2
  }
  param {
    lr_mult: 2
    decay_mult: 2
  }
  param {
    lr_mult: 0
    decay_mult: 0
  }
  penlu_param {
    alpha_filler {
      type: "constant"
      value: 1
    }
    beta_filler {
      type: "constant"
      value: 1
    }
    eta_filler {
      type: "constant"
      value: 1
    }
  }
}
layer {
  name: "Convolution3"
  type: "Convolution"
  bottom: "Convolution2"
  top: "Convolution3"
  param {
    lr_mult: 1
    decay_mult: 1
  }
  param {
    lr_mult: 2
    decay_mult: 0
  }
  convolution_param {
    num_output: 16
    pad: 1
    kernel_size: 3
    stride: 1
    weight_filler {
      type: "gaussian"
      std: 0.118
    }
    bias_filler {
      type: "constant"
      value: 0
    }
  }
}
layer {
  name: "BatchNorm3"
  type: "BatchNorm"
  bottom: "Convolution3"
  top: "Convolution3"
  param {
    lr_mult: 0
    decay_mult: 0
  }
  param {
    lr_mult: 0
    decay_mult: 0
  }
  param {
    lr_mult: 0
    decay_mult: 0
  }
}
layer {
  name: "Scale3"
  type: "Scale"
  bottom: "Convolution3"
  top: "Convolution3"
  scale_param {
    bias_term: true
  }
}
layer {
  name: "Eltwise1"
  type: "Eltwise"
  bottom: "Convolution1"
  bottom: "Convolution3"
  top: "Eltwise1"
  eltwise_param {
    operation: SUM
  }
}
layer {
  name: "penlu3"
  type: "PENLU"
  bottom: "Eltwise1"
  top: "Eltwise1"
  param {
    lr_mult: 2
    decay_mult: 2
  }
  param {
    lr_mult: 2
    decay_mult: 2
  }
  param {
    lr_mult: 0
    decay_mult: 0
  }
  penlu_param {
    alpha_filler {
      type: "constant"
      value: 1
    }
    beta_filler {
      type: "constant"
      value: 1
    }
    eta_filler {
      type: "constant"
      value: 1
    }
  }
}
layer {
  name: "Convolution4"
  type: "Convolution"
  bottom: "Eltwise1"
  top: "Convolution4"
  param {
    lr_mult: 1
    decay_mult: 1
  }
  param {
    lr_mult: 2
    decay_mult: 0
  }
  convolution_param {
    num_output: 16
    pad: 1
    kernel_size: 3
    stride: 1
    weight_filler {
      type: "gaussian"
      std: 0.118
    }
    bias_filler {
      type: "constant"
      value: 0
    }
  }
}
layer {
  name: "BatchNorm4"
  type: "BatchNorm"
  bottom: "Convolution4"
  top: "Convolution4"
  param {
    lr_mult: 0
    decay_mult: 0
  }
  param {
    lr_mult: 0
    decay_mult: 0
  }
  param {
    lr_mult: 0
    decay_mult: 0
  }
}
layer {
  name: "Scale4"
  type: "Scale"
  bottom: "Convolution4"
  top: "Convolution4"
  scale_param {
    bias_term: true
  }
}
layer {
  name: "penlu4"
  type: "PENLU"
  bottom: "Convolution4"
  top: "Convolution4"
  param {
    lr_mult: 2
    decay_mult: 2
  }
  param {
    lr_mult: 2
    decay_mult: 2
  }
  param {
    lr_mult: 0
    decay_mult: 0
  }
  penlu_param {
    alpha_filler {
      type: "constant"
      value: 1
    }
    beta_filler {
      type: "constant"
      value: 1
    }
    eta_filler {
      type: "constant"
      value: 1
    }
  }
}
layer {
  name: "Convolution5"
  type: "Convolution"
  bottom: "Convolution4"
  top: "Convolution5"
  param {
    lr_mult: 1
    decay_mult: 1
  }
  param {
    lr_mult: 2
    decay_mult: 0
  }
  convolution_param {
    num_output: 16
    pad: 1
    kernel_size: 3
    stride: 1
    weight_filler {
      type: "gaussian"
      std: 0.118
    }
    bias_filler {
      type: "constant"
      value: 0
    }
  }
}
layer {
  name: "BatchNorm5"
  type: "BatchNorm"
  bottom: "Convolution5"
  top: "Convolution5"
  param {
    lr_mult: 0
    decay_mult: 0
  }
  param {
    lr_mult: 0
    decay_mult: 0
  }
  param {
    lr_mult: 0
    decay_mult: 0
  }
}
layer {
  name: "Scale5"
  type: "Scale"
  bottom: "Convolution5"
  top: "Convolution5"
  scale_param {
    bias_term: true
  }
}
layer {
  name: "Eltwise2"
  type: "Eltwise"
  bottom: "Eltwise1"
  bottom: "Convolution5"
  top: "Eltwise2"
  eltwise_param {
    operation: SUM
  }
}
layer {
  name: "penlu5"
  type: "PENLU"
  bottom: "Eltwise2"
  top: "Eltwise2"
  param {
    lr_mult: 2
    decay_mult: 2
  }
  param {
    lr_mult: 2
    decay_mult: 2
  }
  param {
    lr_mult: 0
    decay_mult: 0
  }
  penlu_param {
    alpha_filler {
      type: "constant"
      value: 1
    }
    beta_filler {
      type: "constant"
      value: 1
    }
    eta_filler {
      type: "constant"
      value: 1
    }
  }
}
layer {
  name: "Convolution6"
  type: "Convolution"
  bottom: "Eltwise2"
  top: "Convolution6"
  param {
    lr_mult: 1
    decay_mult: 1
  }
  param {
    lr_mult: 2
    decay_mult: 0
  }
  convolution_param {
    num_output: 16
    pad: 1
    kernel_size: 3
    stride: 1
    weight_filler {
      type: "gaussian"
      std: 0.118
    }
    bias_filler {
      type: "constant"
      value: 0
    }
  }
}
layer {
  name: "BatchNorm6"
  type: "BatchNorm"
  bottom: "Convolution6"
  top: "Convolution6"
  param {
    lr_mult: 0
    decay_mult: 0
  }
  param {
    lr_mult: 0
    decay_mult: 0
  }
  param {
    lr_mult: 0
    decay_mult: 0
  }
}
layer {
  name: "Scale6"
  type: "Scale"
  bottom: "Convolution6"
  top: "Convolution6"
  scale_param {
    bias_term: true
  }
}
layer {
  name: "penlu6"
  type: "PENLU"
  bottom: "Convolution6"
  top: "Convolution6"
  param {
    lr_mult: 2
    decay_mult: 2
  }
  param {
    lr_mult: 2
    decay_mult: 2
  }
  param {
    lr_mult: 0
    decay_mult: 0
  }
  penlu_param {
    alpha_filler {
      type: "constant"
      value: 1
    }
    beta_filler {
      type: "constant"
      value: 1
    }
    eta_filler {
      type: "constant"
      value: 1
    }
  }
}
layer {
  name: "Convolution7"
  type: "Convolution"
  bottom: "Convolution6"
  top: "Convolution7"
  param {
    lr_mult: 1
    decay_mult: 1
  }
  param {
    lr_mult: 2
    decay_mult: 0
  }
  convolution_param {
    num_output: 16
    pad: 1
    kernel_size: 3
    stride: 1
    weight_filler {
      type: "gaussian"
      std: 0.118
    }
    bias_filler {
      type: "constant"
      value: 0
    }
  }
}
layer {
  name: "BatchNorm7"
  type: "BatchNorm"
  bottom: "Convolution7"
  top: "Convolution7"
  param {
    lr_mult: 0
    decay_mult: 0
  }
  param {
    lr_mult: 0
    decay_mult: 0
  }
  param {
    lr_mult: 0
    decay_mult: 0
  }
}
layer {
  name: "Scale7"
  type: "Scale"
  bottom: "Convolution7"
  top: "Convolution7"
  scale_param {
    bias_term: true
  }
}
layer {
  name: "Eltwise3"
  type: "Eltwise"
  bottom: "Eltwise2"
  bottom: "Convolution7"
  top: "Eltwise3"
  eltwise_param {
    operation: SUM
  }
}
layer {
  name: "penlu7"
  type: "PENLU"
  bottom: "Eltwise3"
  top: "Eltwise3"
  param {
    lr_mult: 2
    decay_mult: 2
  }
  param {
    lr_mult: 2
    decay_mult: 2
  }
  param {
    lr_mult: 0
    decay_mult: 0
  }
  penlu_param {
    alpha_filler {
      type: "constant"
      value: 1
    }
    beta_filler {
      type: "constant"
      value: 1
    }
    eta_filler {
      type: "constant"
      value: 1
    }
  }
}
layer {
  name: "Convolution8"
  type: "Convolution"
  bottom: "Eltwise3"
  top: "Convolution8"
  param {
    lr_mult: 1
    decay_mult: 1
  }
  param {
    lr_mult: 2
    decay_mult: 0
  }
  convolution_param {
    num_output: 16
    pad: 1
    kernel_size: 3
    stride: 1
    weight_filler {
      type: "gaussian"
      std: 0.118
    }
    bias_filler {
      type: "constant"
      value: 0
    }
  }
}
layer {
  name: "BatchNorm8"
  type: "BatchNorm"
  bottom: "Convolution8"
  top: "Convolution8"
  param {
    lr_mult: 0
    decay_mult: 0
  }
  param {
    lr_mult: 0
    decay_mult: 0
  }
  param {
    lr_mult: 0
    decay_mult: 0
  }
}
layer {
  name: "Scale8"
  type: "Scale"
  bottom: "Convolution8"
  top: "Convolution8"
  scale_param {
    bias_term: true
  }
}
layer {
  name: "penlu8"
  type: "PENLU"
  bottom: "Convolution8"
  top: "Convolution8"
  param {
    lr_mult: 2
    decay_mult: 2
  }
  param {
    lr_mult: 2
    decay_mult: 2
  }
  param {
    lr_mult: 0
    decay_mult: 0
  }
  penlu_param {
    alpha_filler {
      type: "constant"
      value: 1
    }
    beta_filler {
      type: "constant"
      value: 1
    }
    eta_filler {
      type: "constant"
      value: 1
    }
  }
}
layer {
  name: "Convolution9"
  type: "Convolution"
  bottom: "Convolution8"
  top: "Convolution9"
  param {
    lr_mult: 1
    decay_mult: 1
  }
  param {
    lr_mult: 2
    decay_mult: 0
  }
  convolution_param {
    num_output: 16
    pad: 1
    kernel_size: 3
    stride: 1
    weight_filler {
      type: "gaussian"
      std: 0.118
    }
    bias_filler {
      type: "constant"
      value: 0
    }
  }
}
layer {
  name: "BatchNorm9"
  type: "BatchNorm"
  bottom: "Convolution9"
  top: "Convolution9"
  param {
    lr_mult: 0
    decay_mult: 0
  }
  param {
    lr_mult: 0
    decay_mult: 0
  }
  param {
    lr_mult: 0
    decay_mult: 0
  }
}
layer {
  name: "Scale9"
  type: "Scale"
  bottom: "Convolution9"
  top: "Convolution9"
  scale_param {
    bias_term: true
  }
}
layer {
  name: "Eltwise4"
  type: "Eltwise"
  bottom: "Eltwise3"
  bottom: "Convolution9"
  top: "Eltwise4"
  eltwise_param {
    operation: SUM
  }
}
layer {
  name: "penlu9"
  type: "PENLU"
  bottom: "Eltwise4"
  top: "Eltwise4"
  param {
    lr_mult: 2
    decay_mult: 2
  }
  param {
    lr_mult: 2
    decay_mult: 2
  }
  param {
    lr_mult: 0
    decay_mult: 0
  }
  penlu_param {
    alpha_filler {
      type: "constant"
      value: 1
    }
    beta_filler {
      type: "constant"
      value: 1
    }
    eta_filler {
      type: "constant"
      value: 1
    }
  }
}
layer {
  name: "Convolution10"
  type: "Convolution"
  bottom: "Eltwise4"
  top: "Convolution10"
  param {
    lr_mult: 1
    decay_mult: 1
  }
  param {
    lr_mult: 2
    decay_mult: 0
  }
  convolution_param {
    num_output: 16
    pad: 1
    kernel_size: 3
    stride: 1
    weight_filler {
      type: "gaussian"
      std: 0.118
    }
    bias_filler {
      type: "constant"
      value: 0
    }
  }
}
layer {
  name: "BatchNorm10"
  type: "BatchNorm"
  bottom: "Convolution10"
  top: "Convolution10"
  param {
    lr_mult: 0
    decay_mult: 0
  }
  param {
    lr_mult: 0
    decay_mult: 0
  }
  param {
    lr_mult: 0
    decay_mult: 0
  }
}
layer {
  name: "Scale10"
  type: "Scale"
  bottom: "Convolution10"
  top: "Convolution10"
  scale_param {
    bias_term: true
  }
}
layer {
  name: "penlu10"
  type: "PENLU"
  bottom: "Convolution10"
  top: "Convolution10"
  param {
    lr_mult: 2
    decay_mult: 2
  }
  param {
    lr_mult: 2
    decay_mult: 2
  }
  param {
    lr_mult: 0
    decay_mult: 0
  }
  penlu_param {
    alpha_filler {
      type: "constant"
      value: 1
    }
    beta_filler {
      type: "constant"
      value: 1
    }
    eta_filler {
      type: "constant"
      value: 1
    }
  }
}
layer {
  name: "Convolution11"
  type: "Convolution"
  bottom: "Convolution10"
  top: "Convolution11"
  param {
    lr_mult: 1
    decay_mult: 1
  }
  param {
    lr_mult: 2
    decay_mult: 0
  }
  convolution_param {
    num_output: 16
    pad: 1
    kernel_size: 3
    stride: 1
    weight_filler {
      type: "gaussian"
      std: 0.118
    }
    bias_filler {
      type: "constant"
      value: 0
    }
  }
}
layer {
  name: "BatchNorm11"
  type: "BatchNorm"
  bottom: "Convolution11"
  top: "Convolution11"
  param {
    lr_mult: 0
    decay_mult: 0
  }
  param {
    lr_mult: 0
    decay_mult: 0
  }
  param {
    lr_mult: 0
    decay_mult: 0
  }
}
layer {
  name: "Scale11"
  type: "Scale"
  bottom: "Convolution11"
  top: "Convolution11"
  scale_param {
    bias_term: true
  }
}
layer {
  name: "Eltwise5"
  type: "Eltwise"
  bottom: "Eltwise4"
  bottom: "Convolution11"
  top: "Eltwise5"
  eltwise_param {
    operation: SUM
  }
}
layer {
  name: "penlu11"
  type: "PENLU"
  bottom: "Eltwise5"
  top: "Eltwise5"
  param {
    lr_mult: 2
    decay_mult: 2
  }
  param {
    lr_mult: 2
    decay_mult: 2
  }
  param {
    lr_mult: 0
    decay_mult: 0
  }
  penlu_param {
    alpha_filler {
      type: "constant"
      value: 1
    }
    beta_filler {
      type: "constant"
      value: 1
    }
    eta_filler {
      type: "constant"
      value: 1
    }
  }
}
layer {
  name: "Convolution12"
  type: "Convolution"
  bottom: "Eltwise5"
  top: "Convolution12"
  param {
    lr_mult: 1
    decay_mult: 1
  }
  param {
    lr_mult: 2
    decay_mult: 0
  }
  convolution_param {
    num_output: 32
    pad: 0
    kernel_size: 1
    stride: 2
    weight_filler {
      type: "gaussian"
      std: 0.25
    }
    bias_filler {
      type: "constant"
      value: 0
    }
  }
}
layer {
  name: "BatchNorm12"
  type: "BatchNorm"
  bottom: "Convolution12"
  top: "Convolution12"
  param {
    lr_mult: 0
    decay_mult: 0
  }
  param {
    lr_mult: 0
    decay_mult: 0
  }
  param {
    lr_mult: 0
    decay_mult: 0
  }
}
layer {
  name: "Scale12"
  type: "Scale"
  bottom: "Convolution12"
  top: "Convolution12"
  scale_param {
    bias_term: true
  }
}
layer {
  name: "Convolution13"
  type: "Convolution"
  bottom: "Eltwise5"
  top: "Convolution13"
  param {
    lr_mult: 1
    decay_mult: 1
  }
  param {
    lr_mult: 2
    decay_mult: 0
  }
  convolution_param {
    num_output: 32
    pad: 1
    kernel_size: 3
    stride: 2
    weight_filler {
      type: "gaussian"
      std: 0.083
    }
    bias_filler {
      type: "constant"
      value: 0
    }
  }
}
layer {
  name: "BatchNorm13"
  type: "BatchNorm"
  bottom: "Convolution13"
  top: "Convolution13"
  param {
    lr_mult: 0
    decay_mult: 0
  }
  param {
    lr_mult: 0
    decay_mult: 0
  }
  param {
    lr_mult: 0
    decay_mult: 0
  }
}
layer {
  name: "Scale13"
  type: "Scale"
  bottom: "Convolution13"
  top: "Convolution13"
  scale_param {
    bias_term: true
  }
}
layer {
  name: "penlu12"
  type: "PENLU"
  bottom: "Convolution13"
  top: "Convolution13"
  param {
    lr_mult: 2
    decay_mult: 2
  }
  param {
    lr_mult: 2
    decay_mult: 2
  }
  param {
    lr_mult: 0
    decay_mult: 0
  }
  penlu_param {
    alpha_filler {
      type: "constant"
      value: 1
    }
    beta_filler {
      type: "constant"
      value: 1
    }
    eta_filler {
      type: "constant"
      value: 1
    }
  }
}
layer {
  name: "Convolution14"
  type: "Convolution"
  bottom: "Convolution13"
  top: "Convolution14"
  param {
    lr_mult: 1
    decay_mult: 1
  }
  param {
    lr_mult: 2
    decay_mult: 0
  }
  convolution_param {
    num_output: 32
    pad: 1
    kernel_size: 3
    stride: 1
    weight_filler {
      type: "gaussian"
      std: 0.083
    }
    bias_filler {
      type: "constant"
      value: 0
    }
  }
}
layer {
  name: "BatchNorm14"
  type: "BatchNorm"
  bottom: "Convolution14"
  top: "Convolution14"
  param {
    lr_mult: 0
    decay_mult: 0
  }
  param {
    lr_mult: 0
    decay_mult: 0
  }
  param {
    lr_mult: 0
    decay_mult: 0
  }
}
layer {
  name: "Scale14"
  type: "Scale"
  bottom: "Convolution14"
  top: "Convolution14"
  scale_param {
    bias_term: true
  }
}
layer {
  name: "Eltwise6"
  type: "Eltwise"
  bottom: "Convolution12"
  bottom: "Convolution14"
  top: "Eltwise6"
  eltwise_param {
    operation: SUM
  }
}
layer {
  name: "penlu13"
  type: "PENLU"
  bottom: "Eltwise6"
  top: "Eltwise6"
  param {
    lr_mult: 2
    decay_mult: 2
  }
  param {
    lr_mult: 2
    decay_mult: 2
  }
  param {
    lr_mult: 0
    decay_mult: 0
  }
  penlu_param {
    alpha_filler {
      type: "constant"
      value: 1
    }
    beta_filler {
      type: "constant"
      value: 1
    }
    eta_filler {
      type: "constant"
      value: 1
    }
  }
}
layer {
  name: "Convolution15"
  type: "Convolution"
  bottom: "Eltwise6"
  top: "Convolution15"
  param {
    lr_mult: 1
    decay_mult: 1
  }
  param {
    lr_mult: 2
    decay_mult: 0
  }
  convolution_param {
    num_output: 32
    pad: 1
    kernel_size: 3
    stride: 1
    weight_filler {
      type: "gaussian"
      std: 0.083
    }
    bias_filler {
      type: "constant"
      value: 0
    }
  }
}
layer {
  name: "BatchNorm15"
  type: "BatchNorm"
  bottom: "Convolution15"
  top: "Convolution15"
  param {
    lr_mult: 0
    decay_mult: 0
  }
  param {
    lr_mult: 0
    decay_mult: 0
  }
  param {
    lr_mult: 0
    decay_mult: 0
  }
}
layer {
  name: "Scale15"
  type: "Scale"
  bottom: "Convolution15"
  top: "Convolution15"
  scale_param {
    bias_term: true
  }
}
layer {
  name: "penlu14"
  type: "PENLU"
  bottom: "Convolution15"
  top: "Convolution15"
  param {
    lr_mult: 2
    decay_mult: 2
  }
  param {
    lr_mult: 2
    decay_mult: 2
  }
  param {
    lr_mult: 0
    decay_mult: 0
  }
  penlu_param {
    alpha_filler {
      type: "constant"
      value: 1
    }
    beta_filler {
      type: "constant"
      value: 1
    }
    eta_filler {
      type: "constant"
      value: 1
    }
  }
}
layer {
  name: "Convolution16"
  type: "Convolution"
  bottom: "Convolution15"
  top: "Convolution16"
  param {
    lr_mult: 1
    decay_mult: 1
  }
  param {
    lr_mult: 2
    decay_mult: 0
  }
  convolution_param {
    num_output: 32
    pad: 1
    kernel_size: 3
    stride: 1
    weight_filler {
      type: "gaussian"
      std: 0.083
    }
    bias_filler {
      type: "constant"
      value: 0
    }
  }
}
layer {
  name: "BatchNorm16"
  type: "BatchNorm"
  bottom: "Convolution16"
  top: "Convolution16"
  param {
    lr_mult: 0
    decay_mult: 0
  }
  param {
    lr_mult: 0
    decay_mult: 0
  }
  param {
    lr_mult: 0
    decay_mult: 0
  }
}
layer {
  name: "Scale16"
  type: "Scale"
  bottom: "Convolution16"
  top: "Convolution16"
  scale_param {
    bias_term: true
  }
}
layer {
  name: "Eltwise7"
  type: "Eltwise"
  bottom: "Eltwise6"
  bottom: "Convolution16"
  top: "Eltwise7"
  eltwise_param {
    operation: SUM
  }
}
layer {
  name: "penlu15"
  type: "PENLU"
  bottom: "Eltwise7"
  top: "Eltwise7"
  param {
    lr_mult: 2
    decay_mult: 2
  }
  param {
    lr_mult: 2
    decay_mult: 2
  }
  param {
    lr_mult: 0
    decay_mult: 0
  }
  penlu_param {
    alpha_filler {
      type: "constant"
      value: 1
    }
    beta_filler {
      type: "constant"
      value: 1
    }
    eta_filler {
      type: "constant"
      value: 1
    }
  }
}
layer {
  name: "Convolution17"
  type: "Convolution"
  bottom: "Eltwise7"
  top: "Convolution17"
  param {
    lr_mult: 1
    decay_mult: 1
  }
  param {
    lr_mult: 2
    decay_mult: 0
  }
  convolution_param {
    num_output: 32
    pad: 1
    kernel_size: 3
    stride: 1
    weight_filler {
      type: "gaussian"
      std: 0.083
    }
    bias_filler {
      type: "constant"
      value: 0
    }
  }
}
layer {
  name: "BatchNorm17"
  type: "BatchNorm"
  bottom: "Convolution17"
  top: "Convolution17"
  param {
    lr_mult: 0
    decay_mult: 0
  }
  param {
    lr_mult: 0
    decay_mult: 0
  }
  param {
    lr_mult: 0
    decay_mult: 0
  }
}
layer {
  name: "Scale17"
  type: "Scale"
  bottom: "Convolution17"
  top: "Convolution17"
  scale_param {
    bias_term: true
  }
}
layer {
  name: "penlu16"
  type: "PENLU"
  bottom: "Convolution17"
  top: "Convolution17"
  param {
    lr_mult: 2
    decay_mult: 2
  }
  param {
    lr_mult: 2
    decay_mult: 2
  }
  param {
    lr_mult: 0
    decay_mult: 0
  }
  penlu_param {
    alpha_filler {
      type: "constant"
      value: 1
    }
    beta_filler {
      type: "constant"
      value: 1
    }
    eta_filler {
      type: "constant"
      value: 1
    }
  }
}
layer {
  name: "Convolution18"
  type: "Convolution"
  bottom: "Convolution17"
  top: "Convolution18"
  param {
    lr_mult: 1
    decay_mult: 1
  }
  param {
    lr_mult: 2
    decay_mult: 0
  }
  convolution_param {
    num_output: 32
    pad: 1
    kernel_size: 3
    stride: 1
    weight_filler {
      type: "gaussian"
      std: 0.083
    }
    bias_filler {
      type: "constant"
      value: 0
    }
  }
}
layer {
  name: "BatchNorm18"
  type: "BatchNorm"
  bottom: "Convolution18"
  top: "Convolution18"
  param {
    lr_mult: 0
    decay_mult: 0
  }
  param {
    lr_mult: 0
    decay_mult: 0
  }
  param {
    lr_mult: 0
    decay_mult: 0
  }
}
layer {
  name: "Scale18"
  type: "Scale"
  bottom: "Convolution18"
  top: "Convolution18"
  scale_param {
    bias_term: true
  }
}
layer {
  name: "Eltwise8"
  type: "Eltwise"
  bottom: "Eltwise7"
  bottom: "Convolution18"
  top: "Eltwise8"
  eltwise_param {
    operation: SUM
  }
}
layer {
  name: "penlu17"
  type: "PENLU"
  bottom: "Eltwise8"
  top: "Eltwise8"
  param {
    lr_mult: 2
    decay_mult: 2
  }
  param {
    lr_mult: 2
    decay_mult: 2
  }
  param {
    lr_mult: 0
    decay_mult: 0
  }
  penlu_param {
    alpha_filler {
      type: "constant"
      value: 1
    }
    beta_filler {
      type: "constant"
      value: 1
    }
    eta_filler {
      type: "constant"
      value: 1
    }
  }
}
layer {
  name: "Convolution19"
  type: "Convolution"
  bottom: "Eltwise8"
  top: "Convolution19"
  param {
    lr_mult: 1
    decay_mult: 1
  }
  param {
    lr_mult: 2
    decay_mult: 0
  }
  convolution_param {
    num_output: 32
    pad: 1
    kernel_size: 3
    stride: 1
    weight_filler {
      type: "gaussian"
      std: 0.083
    }
    bias_filler {
      type: "constant"
      value: 0
    }
  }
}
layer {
  name: "BatchNorm19"
  type: "BatchNorm"
  bottom: "Convolution19"
  top: "Convolution19"
  param {
    lr_mult: 0
    decay_mult: 0
  }
  param {
    lr_mult: 0
    decay_mult: 0
  }
  param {
    lr_mult: 0
    decay_mult: 0
  }
}
layer {
  name: "Scale19"
  type: "Scale"
  bottom: "Convolution19"
  top: "Convolution19"
  scale_param {
    bias_term: true
  }
}
layer {
  name: "penlu18"
  type: "PENLU"
  bottom: "Convolution19"
  top: "Convolution19"
  param {
    lr_mult: 2
    decay_mult: 2
  }
  param {
    lr_mult: 2
    decay_mult: 2
  }
  param {
    lr_mult: 0
    decay_mult: 0
  }
  penlu_param {
    alpha_filler {
      type: "constant"
      value: 1
    }
    beta_filler {
      type: "constant"
      value: 1
    }
    eta_filler {
      type: "constant"
      value: 1
    }
  }
}
layer {
  name: "Convolution20"
  type: "Convolution"
  bottom: "Convolution19"
  top: "Convolution20"
  param {
    lr_mult: 1
    decay_mult: 1
  }
  param {
    lr_mult: 2
    decay_mult: 0
  }
  convolution_param {
    num_output: 32
    pad: 1
    kernel_size: 3
    stride: 1
    weight_filler {
      type: "gaussian"
      std: 0.083
    }
    bias_filler {
      type: "constant"
      value: 0
    }
  }
}
layer {
  name: "BatchNorm20"
  type: "BatchNorm"
  bottom: "Convolution20"
  top: "Convolution20"
  param {
    lr_mult: 0
    decay_mult: 0
  }
  param {
    lr_mult: 0
    decay_mult: 0
  }
  param {
    lr_mult: 0
    decay_mult: 0
  }
}
layer {
  name: "Scale20"
  type: "Scale"
  bottom: "Convolution20"
  top: "Convolution20"
  scale_param {
    bias_term: true
  }
}
layer {
  name: "Eltwise9"
  type: "Eltwise"
  bottom: "Eltwise8"
  bottom: "Convolution20"
  top: "Eltwise9"
  eltwise_param {
    operation: SUM
  }
}
layer {
  name: "penlu19"
  type: "PENLU"
  bottom: "Eltwise9"
  top: "Eltwise9"
  param {
    lr_mult: 2
    decay_mult: 2
  }
  param {
    lr_mult: 2
    decay_mult: 2
  }
  param {
    lr_mult: 0
    decay_mult: 0
  }
  penlu_param {
    alpha_filler {
      type: "constant"
      value: 1
    }
    beta_filler {
      type: "constant"
      value: 1
    }
    eta_filler {
      type: "constant"
      value: 1
    }
  }
}
layer {
  name: "Convolution21"
  type: "Convolution"
  bottom: "Eltwise9"
  top: "Convolution21"
  param {
    lr_mult: 1
    decay_mult: 1
  }
  param {
    lr_mult: 2
    decay_mult: 0
  }
  convolution_param {
    num_output: 32
    pad: 1
    kernel_size: 3
    stride: 1
    weight_filler {
      type: "gaussian"
      std: 0.083
    }
    bias_filler {
      type: "constant"
      value: 0
    }
  }
}
layer {
  name: "BatchNorm21"
  type: "BatchNorm"
  bottom: "Convolution21"
  top: "Convolution21"
  param {
    lr_mult: 0
    decay_mult: 0
  }
  param {
    lr_mult: 0
    decay_mult: 0
  }
  param {
    lr_mult: 0
    decay_mult: 0
  }
}
layer {
  name: "Scale21"
  type: "Scale"
  bottom: "Convolution21"
  top: "Convolution21"
  scale_param {
    bias_term: true
  }
}
layer {
  name: "penlu20"
  type: "PENLU"
  bottom: "Convolution21"
  top: "Convolution21"
  param {
    lr_mult: 2
    decay_mult: 2
  }
  param {
    lr_mult: 2
    decay_mult: 2
  }
  param {
    lr_mult: 0
    decay_mult: 0
  }
  penlu_param {
    alpha_filler {
      type: "constant"
      value: 1
    }
    beta_filler {
      type: "constant"
      value: 1
    }
    eta_filler {
      type: "constant"
      value: 1
    }
  }
}
layer {
  name: "Convolution22"
  type: "Convolution"
  bottom: "Convolution21"
  top: "Convolution22"
  param {
    lr_mult: 1
    decay_mult: 1
  }
  param {
    lr_mult: 2
    decay_mult: 0
  }
  convolution_param {
    num_output: 32
    pad: 1
    kernel_size: 3
    stride: 1
    weight_filler {
      type: "gaussian"
      std: 0.083
    }
    bias_filler {
      type: "constant"
      value: 0
    }
  }
}
layer {
  name: "BatchNorm22"
  type: "BatchNorm"
  bottom: "Convolution22"
  top: "Convolution22"
  param {
    lr_mult: 0
    decay_mult: 0
  }
  param {
    lr_mult: 0
    decay_mult: 0
  }
  param {
    lr_mult: 0
    decay_mult: 0
  }
}
layer {
  name: "Scale22"
  type: "Scale"
  bottom: "Convolution22"
  top: "Convolution22"
  scale_param {
    bias_term: true
  }
}
layer {
  name: "Eltwise10"
  type: "Eltwise"
  bottom: "Eltwise9"
  bottom: "Convolution22"
  top: "Eltwise10"
  eltwise_param {
    operation: SUM
  }
}
layer {
  name: "penlu21"
  type: "PENLU"
  bottom: "Eltwise10"
  top: "Eltwise10"
  param {
    lr_mult: 2
    decay_mult: 2
  }
  param {
    lr_mult: 2
    decay_mult: 2
  }
  param {
    lr_mult: 0
    decay_mult: 0
  }
  penlu_param {
    alpha_filler {
      type: "constant"
      value: 1
    }
    beta_filler {
      type: "constant"
      value: 1
    }
    eta_filler {
      type: "constant"
      value: 1
    }
  }
}
layer {
  name: "Convolution23"
  type: "Convolution"
  bottom: "Eltwise10"
  top: "Convolution23"
  param {
    lr_mult: 1
    decay_mult: 1
  }
  param {
    lr_mult: 2
    decay_mult: 0
  }
  convolution_param {
    num_output: 64
    pad: 0
    kernel_size: 1
    stride: 2
    weight_filler {
      type: "gaussian"
      std: 0.17677669
    }
    bias_filler {
      type: "constant"
      value: 0
    }
  }
}
layer {
  name: "BatchNorm23"
  type: "BatchNorm"
  bottom: "Convolution23"
  top: "Convolution23"
  param {
    lr_mult: 0
    decay_mult: 0
  }
  param {
    lr_mult: 0
    decay_mult: 0
  }
  param {
    lr_mult: 0
    decay_mult: 0
  }
}
layer {
  name: "Scale23"
  type: "Scale"
  bottom: "Convolution23"
  top: "Convolution23"
  scale_param {
    bias_term: true
  }
}
layer {
  name: "Convolution24"
  type: "Convolution"
  bottom: "Eltwise10"
  top: "Convolution24"
  param {
    lr_mult: 1
    decay_mult: 1
  }
  param {
    lr_mult: 2
    decay_mult: 0
  }
  convolution_param {
    num_output: 64
    pad: 1
    kernel_size: 3
    stride: 2
    weight_filler {
      type: "gaussian"
      std: 0.059
    }
    bias_filler {
      type: "constant"
      value: 0
    }
  }
}
layer {
  name: "BatchNorm24"
  type: "BatchNorm"
  bottom: "Convolution24"
  top: "Convolution24"
  param {
    lr_mult: 0
    decay_mult: 0
  }
  param {
    lr_mult: 0
    decay_mult: 0
  }
  param {
    lr_mult: 0
    decay_mult: 0
  }
}
layer {
  name: "Scale24"
  type: "Scale"
  bottom: "Convolution24"
  top: "Convolution24"
  scale_param {
    bias_term: true
  }
}
layer {
  name: "penlu22"
  type: "PENLU"
 
I1007 10:06:33.468822  4720 layer_factory.hpp:77] Creating layer Data1
I1007 10:06:33.496096  4720 db_lmdb.cpp:35] Opened lmdb /home/x306/caffe/xn/PENLU/data/cifar10/cifar10_test_lmdb
I1007 10:06:33.496110  4720 net.cpp:84] Creating Layer Data1
I1007 10:06:33.496114  4720 net.cpp:380] Data1 -> Data1
I1007 10:06:33.496121  4720 net.cpp:380] Data1 -> Data2
I1007 10:06:33.496129  4720 data_transformer.cpp:25] Loading mean file from: /home/x306/caffe/xn/PENLU/data/cifar10/mean.binaryproto
I1007 10:06:33.496273  4720 data_layer.cpp:45] output data size: 100,3,32,32
I1007 10:06:33.500711  4720 net.cpp:122] Setting up Data1
I1007 10:06:33.500730  4720 net.cpp:129] Top shape: 100 3 32 32 (307200)
I1007 10:06:33.500735  4720 net.cpp:129] Top shape: 100 (100)
…
I1007 10:06:33.562319  4720 net.cpp:129] Top shape: 100 32 16 16 (819200)
I1007 10:06:33.562321  4720 net.cpp:137] Memory required for data: 459982000
I1007 10:06:33.562326  4720 layer_factory.hpp:77] Creating layer Convolution16
I1007 10:06:33.562333  4720 net.cpp:84] Creating Layer Convolution16
I1007 10:06:33.562336  4720 net.cpp:406] Convolution16 <- Convolution15
I1007 10:06:33.562340  4720 net.cpp:380] Convolution16 -> Convolution16
I1007 10:06:33.564018  4720 net.cpp:122] Setting up Convolution16
I1007 10:06:33.564028  4720 net.cpp:129] Top shape: 100 32 16 16 (819200)
I1007 10:06:33.564031  4720 net.cpp:137] Memory required for data: 463258800
I1007 10:06:33.564036  4720 layer_factory.hpp:77] Creating layer BatchNorm16
I1007 10:06:33.564043  4720 net.cpp:84] Creating Layer BatchNorm16
I1007 10:06:33.564046  4720 net.cpp:406] BatchNorm16 <- Convolution16
I1007 10:06:33.564049  4720 net.cpp:367] BatchNorm16 -> Convolution16 (in-place)
I1007 10:06:33.564199  4720 net.cpp:122] Setting up BatchNorm16
I1007 10:06:33.564203  4720 net.cpp:129] Top shape: 100 32 16 16 (819200)
I1007 10:06:33.564205  4720 net.cpp:137] Memory required for data: 466535600
I1007 10:06:33.564210  4720 layer_factory.hpp:77] Creating layer Scale16
I1007 10:06:33.564215  4720 net.cpp:84] Creating Layer Scale16
I1007 10:06:33.564218  4720 net.cpp:406] Scale16 <- Convolution16
I1007 10:06:33.564221  4720 net.cpp:367] Scale16 -> Convolution16 (in-place)
I1007 10:06:33.564252  4720 layer_factory.hpp:77] Creating layer Scale16
I1007 10:06:33.564337  4720 net.cpp:122] Setting up Scale16
I1007 10:06:33.564342  4720 net.cpp:129] Top shape: 100 32 16 16 (819200)
I1007 10:06:33.564343  4720 net.cpp:137] Memory required for data: 469812400
I1007 10:06:33.564347  4720 layer_factory.hpp:77] Creating layer Eltwise7
I1007 10:06:33.564352  4720 net.cpp:84] Creating Layer Eltwise7
I1007 10:06:33.564355  4720 net.cpp:406] Eltwise7 <- Eltwise6_penlu13_0_split_1
I1007 10:06:33.564358  4720 net.cpp:406] Eltwise7 <- Convolution16
I1007 10:06:33.564362  4720 net.cpp:380] Eltwise7 -> Eltwise7
I1007 10:06:33.564376  4720 net.cpp:122] Setting up Eltwise7
I1007 10:06:33.564379  4720 net.cpp:129] Top shape: 100 32 16 16 (819200)
I1007 10:06:33.564381  4720 net.cpp:137] Memory required for data: 473089200
I1007 10:06:33.564383  4720 layer_factory.hpp:77] Creating layer penlu15
I1007 10:06:33.564388  4720 net.cpp:84] Creating Layer penlu15
I1007 10:06:33.564390  4720 net.cpp:406] penlu15 <- Eltwise7
I1007 10:06:33.564394  4720 net.cpp:367] penlu15 -> Eltwise7 (in-place)
I1007 10:06:33.564517  4720 net.cpp:122] Setting up penlu15
I1007 10:06:33.564520  4720 net.cpp:129] Top shape: 100 32 16 16 (819200)
I1007 10:06:33.564522  4720 net.cpp:137] Memory required for data: 476366000
I1007 10:06:33.564527  4720 layer_factory.hpp:77] Creating layer Eltwise7_penlu15_0_split
I1007 10:06:33.564532  4720 net.cpp:84] Creating Layer Eltwise7_penlu15_0_split
I1007 10:06:33.564533  4720 net.cpp:406] Eltwise7_penlu15_0_split <- Eltwise7
I1007 10:06:33.564537  4720 net.cpp:380] Eltwise7_penlu15_0_split -> Eltwise7_penlu15_0_split_0
I1007 10:06:33.564540  4720 net.cpp:380] Eltwise7_penlu15_0_split -> Eltwise7_penlu15_0_split_1
I1007 10:06:33.564566  4720 net.cpp:122] Setting up Eltwise7_penlu15_0_split
I1007 10:06:33.564570  4720 net.cpp:129] Top shape: 100 32 16 16 (819200)
I1007 10:06:33.564574  4720 net.cpp:129] Top shape: 100 32 16 16 (819200)
I1007 10:06:33.564575  4720 net.cpp:137] Memory required for data: 482919600
I1007 10:06:33.564577  4720 layer_factory.hpp:77] Creating layer Convolution17
I1007 10:06:33.564584  4720 net.cpp:84] Creating Layer Convolution17
I1007 10:06:33.564587  4720 net.cpp:406] Convolution17 <- Eltwise7_penlu15_0_split_0
I1007 10:06:33.564591  4720 net.cpp:380] Convolution17 -> Convolution17
I1007 10:06:33.565714  4720 net.cpp:122] Setting up Convolution17
I1007 10:06:33.565723  4720 net.cpp:129] Top shape: 100 32 16 16 (819200)
I1007 10:06:33.565726  4720 net.cpp:137] Memory required for data: 486196400
I1007 10:06:33.565737  4720 layer_factory.hpp:77] Creating layer BatchNorm17
I1007 10:06:33.565744  4720 net.cpp:84] Creating Layer BatchNorm17
I1007 10:06:33.565747  4720 net.cpp:406] BatchNorm17 <- Convolution17
I1007 10:06:33.565750  4720 net.cpp:367] BatchNorm17 -> Convolution17 (in-place)
I1007 10:06:33.565901  4720 net.cpp:122] Setting up BatchNorm17
I1007 10:06:33.565906  4720 net.cpp:129] Top shape: 100 32 16 16 (819200)
I1007 10:06:33.565908  4720 net.cpp:137] Memory required for data: 489473200
I1007 10:06:33.565912  4720 layer_factory.hpp:77] Creating layer Scale17
I1007 10:06:33.565917  4720 net.cpp:84] Creating Layer Scale17
I1007 10:06:33.565919  4720 net.cpp:406] Scale17 <- Convolution17
I1007 10:06:33.565922  4720 net.cpp:367] Scale17 -> Convolution17 (in-place)
I1007 10:06:33.565953  4720 layer_factory.hpp:77] Creating layer Scale17
I1007 10:06:33.566037  4720 net.cpp:122] Setting up Scale17
I1007 10:06:33.566041  4720 net.cpp:129] Top shape: 100 32 16 16 (819200)
I1007 10:06:33.566043  4720 net.cpp:137] Memory required for data: 492750000
I1007 10:06:33.566047  4720 layer_factory.hpp:77] Creating layer penlu16
I1007 10:06:33.566053  4720 net.cpp:84] Creating Layer penlu16
I1007 10:06:33.566056  4720 net.cpp:406] penlu16 <- Convolution17
I1007 10:06:33.566061  4720 net.cpp:367] penlu16 -> Convolution17 (in-place)
I1007 10:06:33.566179  4720 net.cpp:122] Setting up penlu16
I1007 10:06:33.566184  4720 net.cpp:129] Top shape: 100 32 16 16 (819200)
I1007 10:06:33.566185  4720 net.cpp:137] Memory required for data: 496026800
I1007 10:06:33.566190  4720 layer_factory.hpp:77] Creating layer Convolution18
I1007 10:06:33.566197  4720 net.cpp:84] Creating Layer Convolution18
I1007 10:06:33.566200  4720 net.cpp:406] Convolution18 <- Convolution17
I1007 10:06:33.566203  4720 net.cpp:380] Convolution18 -> Convolution18
I1007 10:06:33.567342  4720 net.cpp:122] Setting up Convolution18
I1007 10:06:33.567351  4720 net.cpp:129] Top shape: 100 32 16 16 (819200)
I1007 10:06:33.567353  4720 net.cpp:137] Memory required for data: 499303600
I1007 10:06:33.567358  4720 layer_factory.hpp:77] Creating layer BatchNorm18
I1007 10:06:33.567363  4720 net.cpp:84] Creating Layer BatchNorm18
I1007 10:06:33.567366  4720 net.cpp:406] BatchNorm18 <- Convolution18
I1007 10:06:33.567370  4720 net.cpp:367] BatchNorm18 -> Convolution18 (in-place)
I1007 10:06:33.567522  4720 net.cpp:122] Setting up BatchNorm18
I1007 10:06:33.567526  4720 net.cpp:129] Top shape: 100 32 16 16 (819200)
I1007 10:06:33.567528  4720 net.cpp:137] Memory required for data: 502580400
I1007 10:06:33.567533  4720 layer_factory.hpp:77] Creating layer Scale18
I1007 10:06:33.567538  4720 net.cpp:84] Creating Layer Scale18
I1007 10:06:33.567540  4720 net.cpp:406] Scale18 <- Convolution18
I1007 10:06:33.567544  4720 net.cpp:367] Scale18 -> Convolution18 (in-place)
I1007 10:06:33.567574  4720 layer_factory.hpp:77] Creating layer Scale18
I1007 10:06:33.567662  4720 net.cpp:122] Setting up Scale18
I1007 10:06:33.567667  4720 net.cpp:129] Top shape: 100 32 16 16 (819200)
I1007 10:06:33.567668  4720 net.cpp:137] Memory required for data: 505857200
I1007 10:06:33.567672  4720 layer_factory.hpp:77] Creating layer Eltwise8
I1007 10:06:33.567677  4720 net.cpp:84] Creating Layer Eltwise8
I1007 10:06:33.567679  4720 net.cpp:406] Eltwise8 <- Eltwise7_penlu15_0_split_1
I1007 10:06:33.567682  4720 net.cpp:406] Eltwise8 <- Convolution18
I1007 10:06:33.567685  4720 net.cpp:380] Eltwise8 -> Eltwise8
I1007 10:06:33.567700  4720 net.cpp:122] Setting up Eltwise8
I1007 10:06:33.567704  4720 net.cpp:129] Top shape: 100 32 16 16 (819200)
I1007 10:06:33.567706  4720 net.cpp:137] Memory required for data: 509134000
I1007 10:06:33.567708  4720 layer_factory.hpp:77] Creating layer penlu17
I1007 10:06:33.567714  4720 net.cpp:84] Creating Layer penlu17
I1007 10:06:33.567718  4720 net.cpp:406] penlu17 <- Eltwise8
I1007 10:06:33.567721  4720 net.cpp:367] penlu17 -> Eltwise8 (in-place)
I1007 10:06:33.567845  4720 net.cpp:122] Setting up penlu17
I1007 10:06:33.567850  4720 net.cpp:129] Top shape: 100 32 16 16 (819200)
I1007 10:06:33.567859  4720 net.cpp:137] Memory required for data: 512410800
I1007 10:06:33.567864  4720 layer_factory.hpp:77] Creating layer Eltwise8_penlu17_0_split
I1007 10:06:33.567869  4720 net.cpp:84] Creating Layer Eltwise8_penlu17_0_split
I1007 10:06:33.567872  4720 net.cpp:406] Eltwise8_penlu17_0_split <- Eltwise8
I1007 10:06:33.567875  4720 net.cpp:380] Eltwise8_penlu17_0_split -> Eltwise8_penlu17_0_split_0
I1007 10:06:33.587086  4720 net.cpp:380] Eltwise8_penlu17_0_split -> Eltwise8_penlu17_0_split_1
I1007 10:06:33.587131  4720 net.cpp:122] Setting up Eltwise8_penlu17_0_split
I1007 10:06:33.587136  4720 net.cpp:129] Top shape: 100 32 16 16 (819200)
I1007 10:06:33.587141  4720 net.cpp:129] Top shape: 100 32 16 16 (819200)
I1007 10:06:33.587142  4720 net.cpp:137] Memory required for data: 518964400
I1007 10:06:33.587146  4720 layer_factory.hpp:77] Creating layer Convolution19
I1007 10:06:33.587152  4720 net.cpp:84] Creating Layer Convolution19
I1007 10:06:33.587154  4720 net.cpp:406] Convolution19 <- Eltwise8_penlu17_0_split_0
I1007 10:06:33.587160  4720 net.cpp:380] Convolution19 -> Convolution19
I1007 10:06:33.588380  4720 net.cpp:122] Setting up Convolution19
I1007 10:06:33.588390  4720 net.cpp:129] Top shape: 100 32 16 16 (819200)
I1007 10:06:33.588393  4720 net.cpp:137] Memory required for data: 522241200
I1007 10:06:33.588397  4720 layer_factory.hpp:77] Creating layer BatchNorm19
I1007 10:06:33.588403  4720 net.cpp:84] Creating Layer BatchNorm19
I1007 10:06:33.588407  4720 net.cpp:406] BatchNorm19 <- Convolution19
I1007 10:06:33.588410  4720 net.cpp:367] BatchNorm19 -> Convolution19 (in-place)
I1007 10:06:33.588606  4720 net.cpp:122] Setting up BatchNorm19
I1007 10:06:33.588618  4720 net.cpp:129] Top shape: 100 32 16 16 (819200)
I1007 10:06:33.588623  4720 net.cpp:137] Memory required for data: 525518000
I1007 10:06:33.588631  4720 layer_factory.hpp:77] Creating layer Scale19
I1007 10:06:33.588639  4720 net.cpp:84] Creating Layer Scale19
I1007 10:06:33.588642  4720 net.cpp:406] Scale19 <- Convolution19
I1007 10:06:33.588646  4720 net.cpp:367] Scale19 -> Convolution19 (in-place)
I1007 10:06:33.588681  4720 layer_factory.hpp:77] Creating layer Scale19
I1007 10:06:33.588769  4720 net.cpp:122] Setting up Scale19
I1007 10:06:33.588773  4720 net.cpp:129] Top shape: 100 32 16 16 (819200)
I1007 10:06:33.588775  4720 net.cpp:137] Memory required for data: 528794800
I1007 10:06:33.588779  4720 layer_factory.hpp:77] Creating layer penlu18
I1007 10:06:33.588785  4720 net.cpp:84] Creating Layer penlu18
I1007 10:06:33.588788  4720 net.cpp:406] penlu18 <- Convolution19
I1007 10:06:33.588793  4720 net.cpp:367] penlu18 -> Convolution19 (in-place)
I1007 10:06:33.588915  4720 net.cpp:122] Setting up penlu18
I1007 10:06:33.588919  4720 net.cpp:129] Top shape: 100 32 16 16 (819200)
I1007 10:06:33.588922  4720 net.cpp:137] Memory required for data: 532071600
I1007 10:06:33.588927  4720 layer_factory.hpp:77] Creating layer Convolution20
I1007 10:06:33.588933  4720 net.cpp:84] Creating Layer Convolution20
I1007 10:06:33.588937  4720 net.cpp:406] Convolution20 <- Convolution19
I1007 10:06:33.588940  4720 net.cpp:380] Convolution20 -> Convolution20
I1007 10:06:33.589728  4720 net.cpp:122] Setting up Convolution20
I1007 10:06:33.589736  4720 net.cpp:129] Top shape: 100 32 16 16 (819200)
I1007 10:06:33.589738  4720 net.cpp:137] Memory required for data: 535348400
I1007 10:06:33.589743  4720 layer_factory.hpp:77] Creating layer BatchNorm20
I1007 10:06:33.589748  4720 net.cpp:84] Creating Layer BatchNorm20
I1007 10:06:33.589751  4720 net.cpp:406] BatchNorm20 <- Convolution20
I1007 10:06:33.589754  4720 net.cpp:367] BatchNorm20 -> Convolution20 (in-place)
I1007 10:06:33.589905  4720 net.cpp:122] Setting up BatchNorm20
I1007 10:06:33.589910  4720 net.cpp:129] Top shape: 100 32 16 16 (819200)
I1007 10:06:33.589912  4720 net.cpp:137] Memory required for data: 538625200
I1007 10:06:33.589916  4720 layer_factory.hpp:77] Creating layer Scale20
I1007 10:06:33.589921  4720 net.cpp:84] Creating Layer Scale20
I1007 10:06:33.589925  4720 net.cpp:406] Scale20 <- Convolution20
I1007 10:06:33.589936  4720 net.cpp:367] Scale20 -> Convolution20 (in-place)
I1007 10:06:33.589968  4720 layer_factory.hpp:77] Creating layer Scale20
I1007 10:06:33.590055  4720 net.cpp:122] Setting up Scale20
I1007 10:06:33.590059  4720 net.cpp:129] Top shape: 100 32 16 16 (819200)
I1007 10:06:33.590061  4720 net.cpp:137] Memory required for data: 541902000
I1007 10:06:33.590065  4720 layer_factory.hpp:77] Creating layer Eltwise9
I1007 10:06:33.590070  4720 net.cpp:84] Creating Layer Eltwise9
I1007 10:06:33.590073  4720 net.cpp:406] Eltwise9 <- Eltwise8_penlu17_0_split_1
I1007 10:06:33.590076  4720 net.cpp:406] Eltwise9 <- Convolution20
I1007 10:06:33.590080  4720 net.cpp:380] Eltwise9 -> Eltwise9
I1007 10:06:33.590095  4720 net.cpp:122] Setting up Eltwise9
I1007 10:06:33.590098  4720 net.cpp:129] Top shape: 100 32 16 16 (819200)
I1007 10:06:33.590101  4720 net.cpp:137] Memory required for data: 545178800
I1007 10:06:33.590103  4720 layer_factory.hpp:77] Creating layer penlu19
I1007 10:06:33.590107  4720 net.cpp:84] Creating Layer penlu19
I1007 10:06:33.590109  4720 net.cpp:406] penlu19 <- Eltwise9
I1007 10:06:33.590114  4720 net.cpp:367] penlu19 -> Eltwise9 (in-place)
I1007 10:06:33.590240  4720 net.cpp:122] Setting up penlu19
I1007 10:06:33.590245  4720 net.cpp:129] Top shape: 100 32 16 16 (819200)
I1007 10:06:33.590246  4720 net.cpp:137] Memory required for data: 548455600
I1007 10:06:33.590251  4720 layer_factory.hpp:77] Creating layer Eltwise9_penlu19_0_split
I1007 10:06:33.590255  4720 net.cpp:84] Creating Layer Eltwise9_penlu19_0_split
I1007 10:06:33.590257  4720 net.cpp:406] Eltwise9_penlu19_0_split <- Eltwise9
I1007 10:06:33.590260  4720 net.cpp:380] Eltwise9_penlu19_0_split -> Eltwise9_penlu19_0_split_0
I1007 10:06:33.590265  4720 net.cpp:380] Eltwise9_penlu19_0_split -> Eltwise9_penlu19_0_split_1
I1007 10:06:33.590291  4720 net.cpp:122] Setting up Eltwise9_penlu19_0_split
I1007 10:06:33.590296  4720 net.cpp:129] Top shape: 100 32 16 16 (819200)
I1007 10:06:33.590298  4720 net.cpp:129] Top shape: 100 32 16 16 (819200)
I1007 10:06:33.590301  4720 net.cpp:137] Memory required for data: 555009200
I1007 10:06:33.590302  4720 layer_factory.hpp:77] Creating layer Convolution21
I1007 10:06:33.590308  4720 net.cpp:84] Creating Layer Convolution21
I1007 10:06:33.590312  4720 net.cpp:406] Convolution21 <- Eltwise9_penlu19_0_split_0
I1007 10:06:33.590315  4720 net.cpp:380] Convolution21 -> Convolution21
I1007 10:06:33.591470  4720 net.cpp:122] Setting up Convolution21
I1007 10:06:33.591480  4720 net.cpp:129] Top shape: 100 32 16 16 (819200)
I1007 10:06:33.591482  4720 net.cpp:137] Memory required for data: 558286000
I1007 10:06:33.591486  4720 layer_factory.hpp:77] Creating layer BatchNorm21
I1007 10:06:33.591490  4720 net.cpp:84] Creating Layer BatchNorm21
I1007 10:06:33.591493  4720 net.cpp:406] BatchNorm21 <- Convolution21
I1007 10:06:33.591498  4720 net.cpp:367] BatchNorm21 -> Convolution21 (in-place)
I1007 10:06:33.591648  4720 net.cpp:122] Setting up BatchNorm21
I1007 10:06:33.591653  4720 net.cpp:129] Top shape: 100 32 16 16 (819200)
I1007 10:06:33.591655  4720 net.cpp:137] Memory required for data: 561562800
I1007 10:06:33.591660  4720 layer_factory.hpp:77] Creating layer Scale21
I1007 10:06:33.591665  4720 net.cpp:84] Creating Layer Scale21
I1007 10:06:33.591666  4720 net.cpp:406] Scale21 <- Convolution21
I1007 10:06:33.591670  4720 net.cpp:367] Scale21 -> Convolution21 (in-place)
I1007 10:06:33.591699  4720 layer_factory.hpp:77] Creating layer Scale21
I1007 10:06:33.591787  4720 net.cpp:122] Setting up Scale21
I1007 10:06:33.591792  4720 net.cpp:129] Top shape: 100 32 16 16 (819200)
I1007 10:06:33.591794  4720 net.cpp:137] Memory required for data: 564839600
I1007 10:06:33.591799  4720 layer_factory.hpp:77] Creating layer penlu20
I1007 10:06:33.591804  4720 net.cpp:84] Creating Layer penlu20
I1007 10:06:33.591806  4720 net.cpp:406] penlu20 <- Convolution21
I1007 10:06:33.591810  4720 net.cpp:367] penlu20 -> Convolution21 (in-place)
I1007 10:06:33.591931  4720 net.cpp:122] Setting up penlu20
I1007 10:06:33.591943  4720 net.cpp:129] Top shape: 100 32 16 16 (819200)
I1007 10:06:33.591945  4720 net.cpp:137] Memory required for data: 568116400
I1007 10:06:33.591950  4720 layer_factory.hpp:77] Creating layer Convolution22
I1007 10:06:33.591958  4720 net.cpp:84] Creating Layer Convolution22
I1007 10:06:33.591960  4720 net.cpp:406] Convolution22 <- Convolution21
I1007 10:06:33.591965  4720 net.cpp:380] Convolution22 -> Convolution22
I1007 10:06:33.593099  4720 net.cpp:122] Setting up Convolution22
I1007 10:06:33.593108  4720 net.cpp:129] Top shape: 100 32 16 16 (819200)
I1007 10:06:33.593111  4720 net.cpp:137] Memory required for data: 571393200
I1007 10:06:33.593116  4720 layer_factory.hpp:77] Creating layer BatchNorm22
I1007 10:06:33.593122  4720 net.cpp:84] Creating Layer BatchNorm22
I1007 10:06:33.593124  4720 net.cpp:406] BatchNorm22 <- Convolution22
I1007 10:06:33.593127  4720 net.cpp:367] BatchNorm22 -> Convolution22 (in-place)
I1007 10:06:33.593278  4720 net.cpp:122] Setting up BatchNorm22
I1007 10:06:33.593283  4720 net.cpp:129] Top shape: 100 32 16 16 (819200)
I1007 10:06:33.593286  4720 net.cpp:137] Memory required for data: 574670000
I1007 10:06:33.593291  4720 layer_factory.hpp:77] Creating layer Scale22
I1007 10:06:33.593294  4720 net.cpp:84] Creating Layer Scale22
I1007 10:06:33.593297  4720 net.cpp:406] Scale22 <- Convolution22
I1007 10:06:33.593302  4720 net.cpp:367] Scale22 -> Convolution22 (in-place)
I1007 10:06:33.593330  4720 layer_factory.hpp:77] Creating layer Scale22
I1007 10:06:33.593416  4720 net.cpp:122] Setting up Scale22
I1007 10:06:33.593421  4720 net.cpp:129] Top shape: 100 32 16 16 (819200)
I1007 10:06:33.593423  4720 net.cpp:137] Memory required for data: 577946800
I1007 10:06:33.593427  4720 layer_factory.hpp:77] Creating layer Eltwise10
I1007 10:06:33.593431  4720 net.cpp:84] Creating Layer Eltwise10
I1007 10:06:33.593433  4720 net.cpp:406] Eltwise10 <- Eltwise9_penlu19_0_split_1
I1007 10:06:33.593436  4720 net.cpp:406] Eltwise10 <- Convolution22
I1007 10:06:33.593441  4720 net.cpp:380] Eltwise10 -> Eltwise10
I1007 10:06:33.593454  4720 net.cpp:122] Setting up Eltwise10
I1007 10:06:33.593458  4720 net.cpp:129] Top shape: 100 32 16 16 (819200)
I1007 10:06:33.593461  4720 net.cpp:137] Memory required for data: 581223600
I1007 10:06:33.593463  4720 layer_factory.hpp:77] Creating layer penlu21
I1007 10:06:33.593468  4720 net.cpp:84] Creating Layer penlu21
I1007 10:06:33.593472  4720 net.cpp:406] penlu21 <- Eltwise10
I1007 10:06:33.593474  4720 net.cpp:367] penlu21 -> Eltwise10 (in-place)
I1007 10:06:33.593600  4720 net.cpp:122] Setting up penlu21
I1007 10:06:33.593605  4720 net.cpp:129] Top shape: 100 32 16 16 (819200)
I1007 10:06:33.593607  4720 net.cpp:137] Memory required for data: 584500400
I1007 10:06:33.593611  4720 layer_factory.hpp:77] Creating layer Eltwise10_penlu21_0_split
I1007 10:06:33.593616  4720 net.cpp:84] Creating Layer Eltwise10_penlu21_0_split
I1007 10:06:33.593618  4720 net.cpp:406] Eltwise10_penlu21_0_split <- Eltwise10
I1007 10:06:33.593621  4720 net.cpp:380] Eltwise10_penlu21_0_split -> Eltwise10_penlu21_0_split_0
I1007 10:06:33.593626  4720 net.cpp:380] Eltwise10_penlu21_0_split -> Eltwise10_penlu21_0_split_1
I1007 10:06:33.593652  4720 net.cpp:122] Setting up Eltwise10_penlu21_0_split
I1007 10:06:33.593657  4720 net.cpp:129] Top shape: 100 32 16 16 (819200)
I1007 10:06:33.593659  4720 net.cpp:129] Top shape: 100 32 16 16 (819200)
I1007 10:06:33.593662  4720 net.cpp:137] Memory required for data: 591054000
I1007 10:06:33.593663  4720 layer_factory.hpp:77] Creating layer Convolution23
I1007 10:06:33.593668  4720 net.cpp:84] Creating Layer Convolution23
I1007 10:06:33.593672  4720 net.cpp:406] Convolution23 <- Eltwise10_penlu21_0_split_0
I1007 10:06:33.593675  4720 net.cpp:380] Convolution23 -> Convolution23
I1007 10:06:33.594667  4720 net.cpp:122] Setting up Convolution23
I1007 10:06:33.594676  4720 net.cpp:129] Top shape: 100 64 8 8 (409600)
I1007 10:06:33.594678  4720 net.cpp:137] Memory required for data: 592692400
I1007 10:06:33.594683  4720 layer_factory.hpp:77] Creating layer BatchNorm23
I1007 10:06:33.594696  4720 net.cpp:84] Creating Layer BatchNorm23
I1007 10:06:33.594699  4720 net.cpp:406] BatchNorm23 <- Convolution23
I1007 10:06:33.594702  4720 net.cpp:367] BatchNorm23 -> Convolution23 (in-place)
I1007 10:06:33.594862  4720 net.cpp:122] Setting up BatchNorm23
I1007 10:06:33.594867  4720 net.cpp:129] Top shape: 100 64 8 8 (409600)
I1007 10:06:33.594871  4720 net.cpp:137] Memory required for data: 594330800
I1007 10:06:33.594876  4720 layer_factory.hpp:77] Creating layer Scale23
I1007 10:06:33.594878  4720 net.cpp:84] Creating Layer Scale23
I1007 10:06:33.594882  4720 net.cpp:406] Scale23 <- Convolution23
I1007 10:06:33.594884  4720 net.cpp:367] Scale23 -> Convolution23 (in-place)
I1007 10:06:33.594918  4720 layer_factory.hpp:77] Creating layer Scale23
I1007 10:06:33.595006  4720 net.cpp:122] Setting up Scale23
I1007 10:06:33.595012  4720 net.cpp:129] Top shape: 100 64 8 8 (409600)
I1007 10:06:33.595015  4720 net.cpp:137] Memory required for data: 595969200
I1007 10:06:33.595018  4720 layer_factory.hpp:77] Creating layer Convolution24
I1007 10:06:33.595024  4720 net.cpp:84] Creating Layer Convolution24
I1007 10:06:33.595027  4720 net.cpp:406] Convolution24 <- Eltwise10_penlu21_0_split_1
I1007 10:06:33.595031  4720 net.cpp:380] Convolution24 -> Convolution24
I1007 10:06:33.596400  4720 net.cpp:122] Setting up Convolution24
I1007 10:06:33.596410  4720 net.cpp:129] Top shape: 100 64 8 8 (409600)
I1007 10:06:33.596413  4720 net.cpp:137] Memory required for data: 597607600
I1007 10:06:33.596418  4720 layer_factory.hpp:77] Creating layer BatchNorm24
I1007 10:06:33.596422  4720 net.cpp:84] Creating Layer BatchNorm24
I1007 10:06:33.596426  4720 net.cpp:406] BatchNorm24 <- Convolution24
I1007 10:06:33.596431  4720 net.cpp:367] BatchNorm24 -> Convolution24 (in-place)
I1007 10:06:33.596588  4720 net.cpp:122] Setting up BatchNorm24
I1007 10:06:33.596592  4720 net.cpp:129] Top shape: 100 64 8 8 (409600)
I1007 10:06:33.596596  4720 net.cpp:137] Memory required for data: 599246000
I1007 10:06:33.596599  4720 layer_factory.hpp:77] Creating layer Scale24
I1007 10:06:33.596603  4720 net.cpp:84] Creating Layer Scale24
I1007 10:06:33.596606  4720 net.cpp:406] Scale24 <- Convolution24
I1007 10:06:33.596611  4720 net.cpp:367] Scale24 -> Convolution24 (in-place)
I1007 10:06:33.596640  4720 layer_factory.hpp:77] Creating layer Scale24
I1007 10:06:33.596729  4720 net.cpp:122] Setting up Scale24
I1007 10:06:33.596732  4720 net.cpp:129] Top shape: 100 64 8 8 (409600)
I1007 10:06:33.596735  4720 net.cpp:137] Memory required for data: 600884400
I1007 10:06:33.596738  4720 layer_factory.hpp:77] Creating layer penlu22
I1007 10:06:33.596745  4720 net.cpp:84] Creating Layer penlu22
I1007 10:06:33.596746  4720 net.cpp:406] penlu22 <- Convolution24
I1007 10:06:33.596750  4720 net.cpp:367] penlu22 -> Convolution24 (in-place)
I1007 10:06:33.596874  4720 net.cpp:122] Setting up penlu22
I1007 10:06:33.596879  4720 net.cpp:129] Top shape: 100 64 8 8 (409600)
I1007 10:06:33.596880  4720 net.cpp:137] Memory required for data: 602522800
I1007 10:06:33.596885  4720 layer_factory.hpp:77] Creating layer Convolution25
I1007 10:06:33.596894  4720 net.cpp:84] Creating Layer Convolution25
I1007 10:06:33.596896  4720 net.cpp:406] Convolution25 <- Convolution24
I1007 10:06:33.596901  4720 net.cpp:380] Convolution25 -> Convolution25
I1007 10:06:33.598680  4720 net.cpp:122] Setting up Convolution25
I1007 10:06:33.598690  4720 net.cpp:129] Top shape: 100 64 8 8 (409600)
I1007 10:06:33.598692  4720 net.cpp:137] Memory required for data: 604161200
I1007 10:06:33.598697  4720 layer_factory.hpp:77] Creating layer BatchNorm25
I1007 10:06:33.598702  4720 net.cpp:84] Creating Layer BatchNorm25
I1007 10:06:33.598706  4720 net.cpp:406] BatchNorm25 <- Convolution25
I1007 10:06:33.598709  4720 net.cpp:367] BatchNorm25 -> Convolution25 (in-place)
I1007 10:06:33.598865  4720 net.cpp:122] Setting up BatchNorm25
I1007 10:06:33.598870  4720 net.cpp:129] Top shape: 100 64 8 8 (409600)
I1007 10:06:33.598871  4720 net.cpp:137] Memory required for data: 605799600
I1007 10:06:33.598883  4720 layer_factory.hpp:77] Creating layer Scale25
I1007 10:06:33.598888  4720 net.cpp:84] Creating Layer Scale25
I1007 10:06:33.598891  4720 net.cpp:406] Scale25 <- Convolution25
I1007 10:06:33.598894  4720 net.cpp:367] Scale25 -> Convolution25 (in-place)
I1007 10:06:33.617972  4720 layer_factory.hpp:77] Creating layer Scale25
I1007 10:06:33.618077  4720 net.cpp:122] Setting up Scale25
I1007 10:06:33.618083  4720 net.cpp:129] Top shape: 100 64 8 8 (409600)
I1007 10:06:33.618084  4720 net.cpp:137] Memory required for data: 607438000
I1007 10:06:33.618089  4720 layer_factory.hpp:77] Creating layer Eltwise11
I1007 10:06:33.618093  4720 net.cpp:84] Creating Layer Eltwise11
I1007 10:06:33.618096  4720 net.cpp:406] Eltwise11 <- Convolution23
I1007 10:06:33.618100  4720 net.cpp:406] Eltwise11 <- Convolution25
I1007 10:06:33.618103  4720 net.cpp:380] Eltwise11 -> Eltwise11
I1007 10:06:33.618124  4720 net.cpp:122] Setting up Eltwise11
I1007 10:06:33.618129  4720 net.cpp:129] Top shape: 100 64 8 8 (409600)
I1007 10:06:33.618130  4720 net.cpp:137] Memory required for data: 609076400
I1007 10:06:33.618132  4720 layer_factory.hpp:77] Creating layer penlu23
I1007 10:06:33.618139  4720 net.cpp:84] Creating Layer penlu23
I1007 10:06:33.618141  4720 net.cpp:406] penlu23 <- Eltwise11
I1007 10:06:33.618145  4720 net.cpp:367] penlu23 -> Eltwise11 (in-place)
I1007 10:06:33.618278  4720 net.cpp:122] Setting up penlu23
I1007 10:06:33.618283  4720 net.cpp:129] Top shape: 100 64 8 8 (409600)
I1007 10:06:33.618285  4720 net.cpp:137] Memory required for data: 610714800
I1007 10:06:33.618290  4720 layer_factory.hpp:77] Creating layer Eltwise11_penlu23_0_split
I1007 10:06:33.618294  4720 net.cpp:84] Creating Layer Eltwise11_penlu23_0_split
I1007 10:06:33.618296  4720 net.cpp:406] Eltwise11_penlu23_0_split <- Eltwise11
I1007 10:06:33.618300  4720 net.cpp:380] Eltwise11_penlu23_0_split -> Eltwise11_penlu23_0_split_0
I1007 10:06:33.618304  4720 net.cpp:380] Eltwise11_penlu23_0_split -> Eltwise11_penlu23_0_split_1
I1007 10:06:33.618332  4720 net.cpp:122] Setting up Eltwise11_penlu23_0_split
I1007 10:06:33.618336  4720 net.cpp:129] Top shape: 100 64 8 8 (409600)
I1007 10:06:33.618340  4720 net.cpp:129] Top shape: 100 64 8 8 (409600)
I1007 10:06:33.618342  4720 net.cpp:137] Memory required for data: 613991600
I1007 10:06:33.618345  4720 layer_factory.hpp:77] Creating layer Convolution26
I1007 10:06:33.618350  4720 net.cpp:84] Creating Layer Convolution26
I1007 10:06:33.618353  4720 net.cpp:406] Convolution26 <- Eltwise11_penlu23_0_split_0
I1007 10:06:33.618358  4720 net.cpp:380] Convolution26 -> Convolution26
I1007 10:06:33.620303  4720 net.cpp:122] Setting up Convolution26
I1007 10:06:33.620314  4720 net.cpp:129] Top shape: 100 64 8 8 (409600)
I1007 10:06:33.620317  4720 net.cpp:137] Memory required for data: 615630000
I1007 10:06:33.620321  4720 layer_factory.hpp:77] Creating layer BatchNorm26
I1007 10:06:33.620327  4720 net.cpp:84] Creating Layer BatchNorm26
I1007 10:06:33.620331  4720 net.cpp:406] BatchNorm26 <- Convolution26
I1007 10:06:33.620334  4720 net.cpp:367] BatchNorm26 -> Convolution26 (in-place)
I1007 10:06:33.620492  4720 net.cpp:122] Setting up BatchNorm26
I1007 10:06:33.620497  4720 net.cpp:129] Top shape: 100 64 8 8 (409600)
I1007 10:06:33.620499  4720 net.cpp:137] Memory required for data: 617268400
I1007 10:06:33.620504  4720 layer_factory.hpp:77] Creating layer Scale26
I1007 10:06:33.620508  4720 net.cpp:84] Creating Layer Scale26
I1007 10:06:33.620510  4720 net.cpp:406] Scale26 <- Convolution26
I1007 10:06:33.620517  4720 net.cpp:367] Scale26 -> Convolution26 (in-place)
I1007 10:06:33.620549  4720 layer_factory.hpp:77] Creating layer Scale26
I1007 10:06:33.620640  4720 net.cpp:122] Setting up Scale26
I1007 10:06:33.620643  4720 net.cpp:129] Top shape: 100 64 8 8 (409600)
I1007 10:06:33.620646  4720 net.cpp:137] Memory required for data: 618906800
I1007 10:06:33.620651  4720 layer_factory.hpp:77] Creating layer penlu24
I1007 10:06:33.620656  4720 net.cpp:84] Creating Layer penlu24
I1007 10:06:33.620666  4720 net.cpp:406] penlu24 <- Convolution26
I1007 10:06:33.620671  4720 net.cpp:367] penlu24 -> Convolution26 (in-place)
I1007 10:06:33.620797  4720 net.cpp:122] Setting up penlu24
I1007 10:06:33.620801  4720 net.cpp:129] Top shape: 100 64 8 8 (409600)
I1007 10:06:33.620805  4720 net.cpp:137] Memory required for data: 620545200
I1007 10:06:33.620808  4720 layer_factory.hpp:77] Creating layer Convolution27
I1007 10:06:33.620816  4720 net.cpp:84] Creating Layer Convolution27
I1007 10:06:33.620818  4720 net.cpp:406] Convolution27 <- Convolution26
I1007 10:06:33.620822  4720 net.cpp:380] Convolution27 -> Convolution27
I1007 10:06:33.622612  4720 net.cpp:122] Setting up Convolution27
I1007 10:06:33.622622  4720 net.cpp:129] Top shape: 100 64 8 8 (409600)
I1007 10:06:33.622624  4720 net.cpp:137] Memory required for data: 622183600
I1007 10:06:33.622628  4720 layer_factory.hpp:77] Creating layer BatchNorm27
I1007 10:06:33.622643  4720 net.cpp:84] Creating Layer BatchNorm27
I1007 10:06:33.622647  4720 net.cpp:406] BatchNorm27 <- Convolution27
I1007 10:06:33.622650  4720 net.cpp:367] BatchNorm27 -> Convolution27 (in-place)
I1007 10:06:33.622809  4720 net.cpp:122] Setting up BatchNorm27
I1007 10:06:33.622814  4720 net.cpp:129] Top shape: 100 64 8 8 (409600)
I1007 10:06:33.622817  4720 net.cpp:137] Memory required for data: 623822000
I1007 10:06:33.622841  4720 layer_factory.hpp:77] Creating layer Scale27
I1007 10:06:33.622846  4720 net.cpp:84] Creating Layer Scale27
I1007 10:06:33.622849  4720 net.cpp:406] Scale27 <- Convolution27
I1007 10:06:33.622853  4720 net.cpp:367] Scale27 -> Convolution27 (in-place)
I1007 10:06:33.622885  4720 layer_factory.hpp:77] Creating layer Scale27
I1007 10:06:33.622974  4720 net.cpp:122] Setting up Scale27
I1007 10:06:33.622979  4720 net.cpp:129] Top shape: 100 64 8 8 (409600)
I1007 10:06:33.622982  4720 net.cpp:137] Memory required for data: 625460400
I1007 10:06:33.622985  4720 layer_factory.hpp:77] Creating layer Eltwise12
I1007 10:06:33.622990  4720 net.cpp:84] Creating Layer Eltwise12
I1007 10:06:33.622993  4720 net.cpp:406] Eltwise12 <- Eltwise11_penlu23_0_split_1
I1007 10:06:33.622997  4720 net.cpp:406] Eltwise12 <- Convolution27
I1007 10:06:33.623000  4720 net.cpp:380] Eltwise12 -> Eltwise12
I1007 10:06:33.623018  4720 net.cpp:122] Setting up Eltwise12
I1007 10:06:33.623023  4720 net.cpp:129] Top shape: 100 64 8 8 (409600)
I1007 10:06:33.623024  4720 net.cpp:137] Memory required for data: 627098800
I1007 10:06:33.623026  4720 layer_factory.hpp:77] Creating layer penlu25
I1007 10:06:33.623031  4720 net.cpp:84] Creating Layer penlu25
I1007 10:06:33.623034  4720 net.cpp:406] penlu25 <- Eltwise12
I1007 10:06:33.623039  4720 net.cpp:367] penlu25 -> Eltwise12 (in-place)
I1007 10:06:33.623169  4720 net.cpp:122] Setting up penlu25
I1007 10:06:33.623174  4720 net.cpp:129] Top shape: 100 64 8 8 (409600)
I1007 10:06:33.623178  4720 net.cpp:137] Memory required for data: 628737200
I1007 10:06:33.623181  4720 layer_factory.hpp:77] Creating layer Eltwise12_penlu25_0_split
I1007 10:06:33.623185  4720 net.cpp:84] Creating Layer Eltwise12_penlu25_0_split
I1007 10:06:33.623188  4720 net.cpp:406] Eltwise12_penlu25_0_split <- Eltwise12
I1007 10:06:33.623191  4720 net.cpp:380] Eltwise12_penlu25_0_split -> Eltwise12_penlu25_0_split_0
I1007 10:06:33.623195  4720 net.cpp:380] Eltwise12_penlu25_0_split -> Eltwise12_penlu25_0_split_1
I1007 10:06:33.623224  4720 net.cpp:122] Setting up Eltwise12_penlu25_0_split
I1007 10:06:33.623227  4720 net.cpp:129] Top shape: 100 64 8 8 (409600)
I1007 10:06:33.623230  4720 net.cpp:129] Top shape: 100 64 8 8 (409600)
I1007 10:06:33.623232  4720 net.cpp:137] Memory required for data: 632014000
I1007 10:06:33.623234  4720 layer_factory.hpp:77] Creating layer Convolution28
I1007 10:06:33.623241  4720 net.cpp:84] Creating Layer Convolution28
I1007 10:06:33.623245  4720 net.cpp:406] Convolution28 <- Eltwise12_penlu25_0_split_0
I1007 10:06:33.623248  4720 net.cpp:380] Convolution28 -> Convolution28
I1007 10:06:33.625356  4720 net.cpp:122] Setting up Convolution28
I1007 10:06:33.625373  4720 net.cpp:129] Top shape: 100 64 8 8 (409600)
I1007 10:06:33.625376  4720 net.cpp:137] Memory required for data: 633652400
I1007 10:06:33.625381  4720 layer_factory.hpp:77] Creating layer BatchNorm28
I1007 10:06:33.625386  4720 net.cpp:84] Creating Layer BatchNorm28
I1007 10:06:33.625389  4720 net.cpp:406] BatchNorm28 <- Convolution28
I1007 10:06:33.625394  4720 net.cpp:367] BatchNorm28 -> Convolution28 (in-place)
I1007 10:06:33.625558  4720 net.cpp:122] Setting up BatchNorm28
I1007 10:06:33.625563  4720 net.cpp:129] Top shape: 100 64 8 8 (409600)
I1007 10:06:33.625566  4720 net.cpp:137] Memory required for data: 635290800
I1007 10:06:33.625571  4720 layer_factory.hpp:77] Creating layer Scale28
I1007 10:06:33.625574  4720 net.cpp:84] Creating Layer Scale28
I1007 10:06:33.625576  4720 net.cpp:406] Scale28 <- Convolution28
I1007 10:06:33.625579  4720 net.cpp:367] Scale28 -> Convolution28 (in-place)
I1007 10:06:33.625612  4720 layer_factory.hpp:77] Creating layer Scale28
I1007 10:06:33.625701  4720 net.cpp:122] Setting up Scale28
I1007 10:06:33.625706  4720 net.cpp:129] Top shape: 100 64 8 8 (409600)
I1007 10:06:33.625708  4720 net.cpp:137] Memory required for data: 636929200
I1007 10:06:33.625712  4720 layer_factory.hpp:77] Creating layer penlu26
I1007 10:06:33.625717  4720 net.cpp:84] Creating Layer penlu26
I1007 10:06:33.625720  4720 net.cpp:406] penlu26 <- Convolution28
I1007 10:06:33.625723  4720 net.cpp:367] penlu26 -> Convolution28 (in-place)
I1007 10:06:33.625851  4720 net.cpp:122] Setting up penlu26
I1007 10:06:33.625855  4720 net.cpp:129] Top shape: 100 64 8 8 (409600)
I1007 10:06:33.625857  4720 net.cpp:137] Memory required for data: 638567600
I1007 10:06:33.625862  4720 layer_factory.hpp:77] Creating layer Convolution29
I1007 10:06:33.625869  4720 net.cpp:84] Creating Layer Convolution29
I1007 10:06:33.625872  4720 net.cpp:406] Convolution29 <- Convolution28
I1007 10:06:33.625876  4720 net.cpp:380] Convolution29 -> Convolution29
I1007 10:06:33.628197  4720 net.cpp:122] Setting up Convolution29
I1007 10:06:33.628207  4720 net.cpp:129] Top shape: 100 64 8 8 (409600)
I1007 10:06:33.628211  4720 net.cpp:137] Memory required for data: 640206000
I1007 10:06:33.628216  4720 layer_factory.hpp:77] Creating layer BatchNorm29
I1007 10:06:33.628221  4720 net.cpp:84] Creating Layer BatchNorm29
I1007 10:06:33.628224  4720 net.cpp:406] BatchNorm29 <- Convolution29
I1007 10:06:33.628228  4720 net.cpp:367] BatchNorm29 -> Convolution29 (in-place)
I1007 10:06:33.628389  4720 net.cpp:122] Setting up BatchNorm29
I1007 10:06:33.628393  4720 net.cpp:129] Top shape: 100 64 8 8 (409600)
I1007 10:06:33.628396  4720 net.cpp:137] Memory required for data: 641844400
I1007 10:06:33.628401  4720 layer_factory.hpp:77] Creating layer Scale29
I1007 10:06:33.628406  4720 net.cpp:84] Creating Layer Scale29
I1007 10:06:33.628408  4720 net.cpp:406] Scale29 <- Convolution29
I1007 10:06:33.628412  4720 net.cpp:367] Scale29 -> Convolution29 (in-place)
I1007 10:06:33.628443  4720 layer_factory.hpp:77] Creating layer Scale29
I1007 10:06:33.628536  4720 net.cpp:122] Setting up Scale29
I1007 10:06:33.628541  4720 net.cpp:129] Top shape: 100 64 8 8 (409600)
I1007 10:06:33.628543  4720 net.cpp:137] Memory required for data: 643482800
I1007 10:06:33.628547  4720 layer_factory.hpp:77] Creating layer Eltwise13
I1007 10:06:33.628552  4720 net.cpp:84] Creating Layer Eltwise13
I1007 10:06:33.628556  4720 net.cpp:406] Eltwise13 <- Eltwise12_penlu25_0_split_1
I1007 10:06:33.628558  4720 net.cpp:406] Eltwise13 <- Convolution29
I1007 10:06:33.628561  4720 net.cpp:380] Eltwise13 -> Eltwise13
I1007 10:06:33.628581  4720 net.cpp:122] Setting up Eltwise13
I1007 10:06:33.628584  4720 net.cpp:129] Top shape: 100 64 8 8 (409600)
I1007 10:06:33.628587  4720 net.cpp:137] Memory required for data: 645121200
I1007 10:06:33.628589  4720 layer_factory.hpp:77] Creating layer penlu27
I1007 10:06:33.628594  4720 net.cpp:84] Creating Layer penlu27
I1007 10:06:33.628597  4720 net.cpp:406] penlu27 <- Eltwise13
I1007 10:06:33.628600  4720 net.cpp:367] penlu27 -> Eltwise13 (in-place)
I1007 10:06:33.628737  4720 net.cpp:122] Setting up penlu27
I1007 10:06:33.628742  4720 net.cpp:129] Top shape: 100 64 8 8 (409600)
I1007 10:06:33.628746  4720 net.cpp:137] Memory required for data: 646759600
I1007 10:06:33.628749  4720 layer_factory.hpp:77] Creating layer Eltwise13_penlu27_0_split
I1007 10:06:33.628753  4720 net.cpp:84] Creating Layer Eltwise13_penlu27_0_split
I1007 10:06:33.628756  4720 net.cpp:406] Eltwise13_penlu27_0_split <- Eltwise13
I1007 10:06:33.628759  4720 net.cpp:380] Eltwise13_penlu27_0_split -> Eltwise13_penlu27_0_split_0
I1007 10:06:33.628763  4720 net.cpp:380] Eltwise13_penlu27_0_split -> Eltwise13_penlu27_0_split_1
I1007 10:06:33.628790  4720 net.cpp:122] Setting up Eltwise13_penlu27_0_split
I1007 10:06:33.628794  4720 net.cpp:129] Top shape: 100 64 8 8 (409600)
I1007 10:06:33.628798  4720 net.cpp:129] Top shape: 100 64 8 8 (409600)
I1007 10:06:33.628799  4720 net.cpp:137] Memory required for data: 650036400
I1007 10:06:33.628801  4720 layer_factory.hpp:77] Creating layer Convolution30
I1007 10:06:33.628808  4720 net.cpp:84] Creating Layer Convolution30
I1007 10:06:33.628811  4720 net.cpp:406] Convolution30 <- Eltwise13_penlu27_0_split_0
I1007 10:06:33.628815  4720 net.cpp:380] Convolution30 -> Convolution30
I1007 10:06:33.630923  4720 net.cpp:122] Setting up Convolution30
I1007 10:06:33.630931  4720 net.cpp:129] Top shape: 100 64 8 8 (409600)
I1007 10:06:33.630934  4720 net.cpp:137] Memory required for data: 651674800
I1007 10:06:33.630939  4720 layer_factory.hpp:77] Creating layer BatchNorm30
I1007 10:06:33.630944  4720 net.cpp:84] Creating Layer BatchNorm30
I1007 10:06:33.630947  4720 net.cpp:406] BatchNorm30 <- Convolution30
I1007 10:06:33.630951  4720 net.cpp:367] BatchNorm30 -> Convolution30 (in-place)
I1007 10:06:33.631117  4720 net.cpp:122] Setting up BatchNorm30
I1007 10:06:33.631121  4720 net.cpp:129] Top shape: 100 64 8 8 (409600)
I1007 10:06:33.631124  4720 net.cpp:137] Memory required for data: 653313200
I1007 10:06:33.631129  4720 layer_factory.hpp:77] Creating layer Scale30
I1007 10:06:33.631132  4720 net.cpp:84] Creating Layer Scale30
I1007 10:06:33.631135  4720 net.cpp:406] Scale30 <- Convolution30
I1007 10:06:33.631139  4720 net.cpp:367] Scale30 -> Convolution30 (in-place)
I1007 10:06:33.631175  4720 layer_factory.hpp:77] Creating layer Scale30
I1007 10:06:33.631269  4720 net.cpp:122] Setting up Scale30
I1007 10:06:33.631273  4720 net.cpp:129] Top shape: 100 64 8 8 (409600)
I1007 10:06:33.631275  4720 net.cpp:137] Memory required for data: 654951600
I1007 10:06:33.631279  4720 layer_factory.hpp:77] Creating layer penlu28
I1007 10:06:33.631284  4720 net.cpp:84] Creating Layer penlu28
I1007 10:06:33.631287  4720 net.cpp:406] penlu28 <- Convolution30
I1007 10:06:33.631291  4720 net.cpp:367] penlu28 -> Convolution30 (in-place)
I1007 10:06:33.631420  4720 net.cpp:122] Setting up penlu28
I1007 10:06:33.631424  4720 net.cpp:129] Top shape: 100 64 8 8 (409600)
I1007 10:06:33.631427  4720 net.cpp:137] Memory required for data: 656590000
I1007 10:06:33.631431  4720 layer_factory.hpp:77] Creating layer Convolution31
I1007 10:06:33.631438  4720 net.cpp:84] Creating Layer Convolution31
I1007 10:06:33.631440  4720 net.cpp:406] Convolution31 <- Convolution30
I1007 10:06:33.631445  4720 net.cpp:380] Convolution31 -> Convolution31
I1007 10:06:33.633221  4720 net.cpp:122] Setting up Convolution31
I1007 10:06:33.633230  4720 net.cpp:129] Top shape: 100 64 8 8 (409600)
I1007 10:06:33.633234  4720 net.cpp:137] Memory required for data: 658228400
I1007 10:06:33.633237  4720 layer_factory.hpp:77] Creating layer BatchNorm31
I1007 10:06:33.633244  4720 net.cpp:84] Creating Layer BatchNorm31
I1007 10:06:33.633246  4720 net.cpp:406] BatchNorm31 <- Convolution31
I1007 10:06:33.633250  4720 net.cpp:367] BatchNorm31 -> Convolution31 (in-place)
I1007 10:06:33.633411  4720 net.cpp:122] Setting up BatchNorm31
I1007 10:06:33.633416  4720 net.cpp:129] Top shape: 100 64 8 8 (409600)
I1007 10:06:33.633419  4720 net.cpp:137] Memory required for data: 659866800
I1007 10:06:33.633424  4720 layer_factory.hpp:77] Creating layer Scale31
I1007 10:06:33.633435  4720 net.cpp:84] Creating Layer Scale31
I1007 10:06:33.648875  4720 net.cpp:406] Scale31 <- Convolution31
I1007 10:06:33.648885  4720 net.cpp:367] Scale31 -> Convolution31 (in-place)
I1007 10:06:33.648936  4720 layer_factory.hpp:77] Creating layer Scale31
I1007 10:06:33.649037  4720 net.cpp:122] Setting up Scale31
I1007 10:06:33.649044  4720 net.cpp:129] Top shape: 100 64 8 8 (409600)
I1007 10:06:33.649046  4720 net.cpp:137] Memory required for data: 661505200
I1007 10:06:33.649051  4720 layer_factory.hpp:77] Creating layer Eltwise14
I1007 10:06:33.649055  4720 net.cpp:84] Creating Layer Eltwise14
I1007 10:06:33.649058  4720 net.cpp:406] Eltwise14 <- Eltwise13_penlu27_0_split_1
I1007 10:06:33.649061  4720 net.cpp:406] Eltwise14 <- Convolution31
I1007 10:06:33.649065  4720 net.cpp:380] Eltwise14 -> Eltwise14
I1007 10:06:33.649086  4720 net.cpp:122] Setting up Eltwise14
I1007 10:06:33.649091  4720 net.cpp:129] Top shape: 100 64 8 8 (409600)
I1007 10:06:33.649092  4720 net.cpp:137] Memory required for data: 663143600
I1007 10:06:33.649094  4720 layer_factory.hpp:77] Creating layer penlu29
I1007 10:06:33.649101  4720 net.cpp:84] Creating Layer penlu29
I1007 10:06:33.649103  4720 net.cpp:406] penlu29 <- Eltwise14
I1007 10:06:33.649107  4720 net.cpp:367] penlu29 -> Eltwise14 (in-place)
I1007 10:06:33.649242  4720 net.cpp:122] Setting up penlu29
I1007 10:06:33.649247  4720 net.cpp:129] Top shape: 100 64 8 8 (409600)
I1007 10:06:33.649250  4720 net.cpp:137] Memory required for data: 664782000
I1007 10:06:33.649255  4720 layer_factory.hpp:77] Creating layer Eltwise14_penlu29_0_split
I1007 10:06:33.649260  4720 net.cpp:84] Creating Layer Eltwise14_penlu29_0_split
I1007 10:06:33.649262  4720 net.cpp:406] Eltwise14_penlu29_0_split <- Eltwise14
I1007 10:06:33.649266  4720 net.cpp:380] Eltwise14_penlu29_0_split -> Eltwise14_penlu29_0_split_0
I1007 10:06:33.649271  4720 net.cpp:380] Eltwise14_penlu29_0_split -> Eltwise14_penlu29_0_split_1
I1007 10:06:33.649299  4720 net.cpp:122] Setting up Eltwise14_penlu29_0_split
I1007 10:06:33.649303  4720 net.cpp:129] Top shape: 100 64 8 8 (409600)
I1007 10:06:33.649307  4720 net.cpp:129] Top shape: 100 64 8 8 (409600)
I1007 10:06:33.649308  4720 net.cpp:137] Memory required for data: 668058800
I1007 10:06:33.649310  4720 layer_factory.hpp:77] Creating layer Convolution32
I1007 10:06:33.649317  4720 net.cpp:84] Creating Layer Convolution32
I1007 10:06:33.649320  4720 net.cpp:406] Convolution32 <- Eltwise14_penlu29_0_split_0
I1007 10:06:33.649325  4720 net.cpp:380] Convolution32 -> Convolution32
I1007 10:06:33.651849  4720 net.cpp:122] Setting up Convolution32
I1007 10:06:33.651859  4720 net.cpp:129] Top shape: 100 64 8 8 (409600)
I1007 10:06:33.651861  4720 net.cpp:137] Memory required for data: 669697200
I1007 10:06:33.651865  4720 layer_factory.hpp:77] Creating layer BatchNorm32
I1007 10:06:33.651871  4720 net.cpp:84] Creating Layer BatchNorm32
I1007 10:06:33.651875  4720 net.cpp:406] BatchNorm32 <- Convolution32
I1007 10:06:33.651878  4720 net.cpp:367] BatchNorm32 -> Convolution32 (in-place)
I1007 10:06:33.652040  4720 net.cpp:122] Setting up BatchNorm32
I1007 10:06:33.652045  4720 net.cpp:129] Top shape: 100 64 8 8 (409600)
I1007 10:06:33.652047  4720 net.cpp:137] Memory required for data: 671335600
I1007 10:06:33.652052  4720 layer_factory.hpp:77] Creating layer Scale32
I1007 10:06:33.652058  4720 net.cpp:84] Creating Layer Scale32
I1007 10:06:33.652061  4720 net.cpp:406] Scale32 <- Convolution32
I1007 10:06:33.652065  4720 net.cpp:367] Scale32 -> Convolution32 (in-place)
I1007 10:06:33.652097  4720 layer_factory.hpp:77] Creating layer Scale32
I1007 10:06:33.652187  4720 net.cpp:122] Setting up Scale32
I1007 10:06:33.652191  4720 net.cpp:129] Top shape: 100 64 8 8 (409600)
I1007 10:06:33.652194  4720 net.cpp:137] Memory required for data: 672974000
I1007 10:06:33.652197  4720 layer_factory.hpp:77] Creating layer penlu30
I1007 10:06:33.652204  4720 net.cpp:84] Creating Layer penlu30
I1007 10:06:33.652206  4720 net.cpp:406] penlu30 <- Convolution32
I1007 10:06:33.652217  4720 net.cpp:367] penlu30 -> Convolution32 (in-place)
I1007 10:06:33.652345  4720 net.cpp:122] Setting up penlu30
I1007 10:06:33.652350  4720 net.cpp:129] Top shape: 100 64 8 8 (409600)
I1007 10:06:33.652353  4720 net.cpp:137] Memory required for data: 674612400
I1007 10:06:33.652356  4720 layer_factory.hpp:77] Creating layer Convolution33
I1007 10:06:33.652364  4720 net.cpp:84] Creating Layer Convolution33
I1007 10:06:33.652366  4720 net.cpp:406] Convolution33 <- Convolution32
I1007 10:06:33.652370  4720 net.cpp:380] Convolution33 -> Convolution33
I1007 10:06:33.654114  4720 net.cpp:122] Setting up Convolution33
I1007 10:06:33.654124  4720 net.cpp:129] Top shape: 100 64 8 8 (409600)
I1007 10:06:33.654126  4720 net.cpp:137] Memory required for data: 676250800
I1007 10:06:33.654131  4720 layer_factory.hpp:77] Creating layer BatchNorm33
I1007 10:06:33.654136  4720 net.cpp:84] Creating Layer BatchNorm33
I1007 10:06:33.654139  4720 net.cpp:406] BatchNorm33 <- Convolution33
I1007 10:06:33.654144  4720 net.cpp:367] BatchNorm33 -> Convolution33 (in-place)
I1007 10:06:33.654300  4720 net.cpp:122] Setting up BatchNorm33
I1007 10:06:33.654304  4720 net.cpp:129] Top shape: 100 64 8 8 (409600)
I1007 10:06:33.654306  4720 net.cpp:137] Memory required for data: 677889200
I1007 10:06:33.654311  4720 layer_factory.hpp:77] Creating layer Scale33
I1007 10:06:33.654315  4720 net.cpp:84] Creating Layer Scale33
I1007 10:06:33.654319  4720 net.cpp:406] Scale33 <- Convolution33
I1007 10:06:33.654322  4720 net.cpp:367] Scale33 -> Convolution33 (in-place)
I1007 10:06:33.654352  4720 layer_factory.hpp:77] Creating layer Scale33
I1007 10:06:33.654443  4720 net.cpp:122] Setting up Scale33
I1007 10:06:33.654446  4720 net.cpp:129] Top shape: 100 64 8 8 (409600)
I1007 10:06:33.654448  4720 net.cpp:137] Memory required for data: 679527600
I1007 10:06:33.654453  4720 layer_factory.hpp:77] Creating layer Eltwise15
I1007 10:06:33.654456  4720 net.cpp:84] Creating Layer Eltwise15
I1007 10:06:33.654459  4720 net.cpp:406] Eltwise15 <- Eltwise14_penlu29_0_split_1
I1007 10:06:33.654464  4720 net.cpp:406] Eltwise15 <- Convolution33
I1007 10:06:33.654466  4720 net.cpp:380] Eltwise15 -> Eltwise15
I1007 10:06:33.654486  4720 net.cpp:122] Setting up Eltwise15
I1007 10:06:33.654489  4720 net.cpp:129] Top shape: 100 64 8 8 (409600)
I1007 10:06:33.654491  4720 net.cpp:137] Memory required for data: 681166000
I1007 10:06:33.654495  4720 layer_factory.hpp:77] Creating layer penlu31
I1007 10:06:33.654500  4720 net.cpp:84] Creating Layer penlu31
I1007 10:06:33.654502  4720 net.cpp:406] penlu31 <- Eltwise15
I1007 10:06:33.654505  4720 net.cpp:367] penlu31 -> Eltwise15 (in-place)
I1007 10:06:33.654631  4720 net.cpp:122] Setting up penlu31
I1007 10:06:33.654636  4720 net.cpp:129] Top shape: 100 64 8 8 (409600)
I1007 10:06:33.654639  4720 net.cpp:137] Memory required for data: 682804400
I1007 10:06:33.654644  4720 layer_factory.hpp:77] Creating layer Pooling1
I1007 10:06:33.654647  4720 net.cpp:84] Creating Layer Pooling1
I1007 10:06:33.654650  4720 net.cpp:406] Pooling1 <- Eltwise15
I1007 10:06:33.654654  4720 net.cpp:380] Pooling1 -> Pooling1
I1007 10:06:33.654798  4720 net.cpp:122] Setting up Pooling1
I1007 10:06:33.654804  4720 net.cpp:129] Top shape: 100 64 1 1 (6400)
I1007 10:06:33.654808  4720 net.cpp:137] Memory required for data: 682830000
I1007 10:06:33.654809  4720 layer_factory.hpp:77] Creating layer InnerProduct1
I1007 10:06:33.654815  4720 net.cpp:84] Creating Layer InnerProduct1
I1007 10:06:33.654819  4720 net.cpp:406] InnerProduct1 <- Pooling1
I1007 10:06:33.654824  4720 net.cpp:380] InnerProduct1 -> InnerProduct1
I1007 10:06:33.654932  4720 net.cpp:122] Setting up InnerProduct1
I1007 10:06:33.654937  4720 net.cpp:129] Top shape: 100 10 (1000)
I1007 10:06:33.654939  4720 net.cpp:137] Memory required for data: 682834000
I1007 10:06:33.654943  4720 layer_factory.hpp:77] Creating layer InnerProduct1_InnerProduct1_0_split
I1007 10:06:33.654947  4720 net.cpp:84] Creating Layer InnerProduct1_InnerProduct1_0_split
I1007 10:06:33.654955  4720 net.cpp:406] InnerProduct1_InnerProduct1_0_split <- InnerProduct1
I1007 10:06:33.654960  4720 net.cpp:380] InnerProduct1_InnerProduct1_0_split -> InnerProduct1_InnerProduct1_0_split_0
I1007 10:06:33.654964  4720 net.cpp:380] InnerProduct1_InnerProduct1_0_split -> InnerProduct1_InnerProduct1_0_split_1
I1007 10:06:33.654995  4720 net.cpp:122] Setting up InnerProduct1_InnerProduct1_0_split
I1007 10:06:33.654999  4720 net.cpp:129] Top shape: 100 10 (1000)
I1007 10:06:33.655001  4720 net.cpp:129] Top shape: 100 10 (1000)
I1007 10:06:33.655004  4720 net.cpp:137] Memory required for data: 682842000
I1007 10:06:33.655006  4720 layer_factory.hpp:77] Creating layer SoftmaxWithLoss1
I1007 10:06:33.655009  4720 net.cpp:84] Creating Layer SoftmaxWithLoss1
I1007 10:06:33.655012  4720 net.cpp:406] SoftmaxWithLoss1 <- InnerProduct1_InnerProduct1_0_split_0
I1007 10:06:33.655015  4720 net.cpp:406] SoftmaxWithLoss1 <- Data2_Data1_1_split_0
…
