…
I1007 22:14:28.573850  5299 net.cpp:294] The NetState phase (0) differed from the phase (1) specified by a rule in layer Accuracy1
I1007 22:14:28.574509  5299 net.cpp:51] Initializing net from parameters: 
name: "resnet_cifar10"
state {
  phase: TRAIN
  level: 0
  stage: ""
}
layer {
  name: "Data1"
  type: "Data"
  top: "Data1"
  top: "Data2"
  include {
    phase: TRAIN
  }
  transform_param {
    mirror: true
    crop_size: 28
    mean_file: "/home/x306/caffe/xn/PENLU/data/cifar10/mean.binaryproto"
  }
  data_param {
    source: "/home/x306/caffe/xn/PENLU/data/cifar10/cifar10_train_lmdb"
    batch_size: 100
    backend: LMDB
  }
}
layer {
  name: "Convolution1"
  type: "Convolution"
  bottom: "Data1"
  top: "Convolution1"
  param {
    lr_mult: 1
    decay_mult: 1
  }
  param {
    lr_mult: 2
    decay_mult: 0
  }
  convolution_param {
    num_output: 16
    pad: 1
    kernel_size: 3
    stride: 1
    weight_filler {
      type: "gaussian"
      std: 0.118
    }
    bias_filler {
      type: "constant"
      value: 0
    }
  }
}
layer {
  name: "BatchNorm1"
  type: "BatchNorm"
  bottom: "Convolution1"
  top: "Convolution1"
  param {
    lr_mult: 0
    decay_mult: 0
  }
  param {
    lr_mult: 0
    decay_mult: 0
  }
  param {
    lr_mult: 0
    decay_mult: 0
  }
}
layer {
  name: "Scale1"
  type: "Scale"
  bottom: "Convolution1"
  top: "Convolution1"
  scale_param {
    bias_term: true
  }
}
layer {
  name: "M2PELU1"
  type: "M2PELU"
  bottom: "Convolution1"
  top: "Convolution1"
  param {
    lr_mult: 2
    decay_mult: 2
  }
  param {
    lr_mult: 2
    decay_mult: 2
  }
  m2pelu_param {
    alpha_filler {
      type: "constant"
      value: 1
    }
    beta_filler {
      type: "constant"
      value: 1
    }
  }
}
layer {
  name: "Convolution2"
  type: "Convolution"
  bottom: "Convolution1"
  top: "Convolution2"
  param {
    lr_mult: 1
    decay_mult: 1
  }
  param {
    lr_mult: 2
    decay_mult: 0
  }
  convolution_param {
    num_output: 16
    pad: 1
    kernel_size: 3
    stride: 1
    weight_filler {
      type: "gaussian"
      std: 0.118
    }
    bias_filler {
      type: "constant"
      value: 0
    }
  }
}
layer {
  name: "BatchNorm2"
  type: "BatchNorm"
  bottom: "Convolution2"
  top: "Convolution2"
  param {
    lr_mult: 0
    decay_mult: 0
  }
  param {
    lr_mult: 0
    decay_mult: 0
  }
  param {
    lr_mult: 0
    decay_mult: 0
  }
}
layer {
  name: "Scale2"
  type: "Scale"
  bottom: "Convolution2"
  top: "Convolution2"
  scale_param {
    bias_term: true
  }
}
layer {
  name: "M2PELU2"
  type: "M2PELU"
  bottom: "Convolution2"
  top: "Convolution2"
  param {
    lr_mult: 2
    decay_mult: 2
  }
  param {
    lr_mult: 2
    decay_mult: 2
  }
  m2pelu_param {
    alpha_filler {
      type: "constant"
      value: 1
    }
    beta_filler {
      type: "constant"
      value: 1
    }
  }
}
layer {
  name: "Convolution3"
  type: "Convolution"
  bottom: "Convolution2"
  top: "Convolution3"
  param {
    lr_mult: 1
    decay_mult: 1
  }
  param {
    lr_mult: 2
    decay_mult: 0
  }
  convolution_param {
    num_output: 16
    pad: 1
    kernel_size: 3
    stride: 1
    weight_filler {
      type: "gaussian"
      std: 0.118
    }
    bias_filler {
      type: "constant"
      value: 0
    }
  }
}
layer {
  name: "BatchNorm3"
  type: "BatchNorm"
  bottom: "Convolution3"
  top: "Convolution3"
  param {
    lr_mult: 0
    decay_mult: 0
  }
  param {
    lr_mult: 0
    decay_mult: 0
  }
  param {
    lr_mult: 0
    decay_mult: 0
  }
}
layer {
  name: "Scale3"
  type: "Scale"
  bottom: "Convolution3"
  top: "Convolution3"
  scale_param {
    bias_term: true
  }
}
layer {
  name: "Eltwise1"
  type: "Eltwise"
  bottom: "Convolution1"
  bottom: "Convolution3"
  top: "Eltwise1"
  eltwise_param {
    operation: SUM
  }
}
layer {
  name: "M2PELU3"
  type: "M2PELU"
  bottom: "Eltwise1"
  top: "Eltwise1"
  param {
    lr_mult: 2
    decay_mult: 2
  }
  param {
    lr_mult: 2
    decay_mult: 2
  }
  m2pelu_param {
    alpha_filler {
      type: "constant"
      value: 1
    }
    beta_filler {
      type: "constant"
      value: 1
    }
  }
}
layer {
  name: "Convolution4"
  type: "Convolution"
  bottom: "Eltwise1"
  top: "Convolution4"
  param {
    lr_mult: 1
    decay_mult: 1
  }
  param {
    lr_mult: 2
    decay_mult: 0
  }
  convolution_param {
    num_output: 16
    pad: 1
    kernel_size: 3
    stride: 1
    weight_filler {
      type: "gaussian"
      std: 0.118
    }
    bias_filler {
      type: "constant"
      value: 0
    }
  }
}
layer {
  name: "BatchNorm4"
  type: "BatchNorm"
  bottom: "Convolution4"
  top: "Convolution4"
  param {
    lr_mult: 0
    decay_mult: 0
  }
  param {
    lr_mult: 0
    decay_mult: 0
  }
  param {
    lr_mult: 0
    decay_mult: 0
  }
}
layer {
  name: "Scale4"
  type: "Scale"
  bottom: "Convolution4"
  top: "Convolution4"
  scale_param {
    bias_term: true
  }
}
layer {
  name: "M2PELU4"
  type: "M2PELU"
  bottom: "Convolution4"
  top: "Convolution4"
  param {
    lr_mult: 2
    decay_mult: 2
  }
  param {
    lr_mult: 2
    decay_mult: 2
  }
  m2pelu_param {
    alpha_filler {
      type: "constant"
      value: 1
    }
    beta_filler {
      type: "constant"
      value: 1
    }
  }
}
layer {
  name: "Convolution5"
  type: "Convolution"
  bottom: "Convolution4"
  top: "Convolution5"
  param {
    lr_mult: 1
    decay_mult: 1
  }
  param {
    lr_mult: 2
    decay_mult: 0
  }
  convolution_param {
    num_output: 16
    pad: 1
    kernel_size: 3
    stride: 1
    weight_filler {
      type: "gaussian"
      std: 0.118
    }
    bias_filler {
      type: "constant"
      value: 0
    }
  }
}
layer {
  name: "BatchNorm5"
  type: "BatchNorm"
  bottom: "Convolution5"
  top: "Convolution5"
  param {
    lr_mult: 0
    decay_mult: 0
  }
  param {
    lr_mult: 0
    decay_mult: 0
  }
  param {
    lr_mult: 0
    decay_mult: 0
  }
}
layer {
  name: "Scale5"
  type: "Scale"
  bottom: "Convolution5"
  top: "Convolution5"
  scale_param {
    bias_term: true
  }
}
layer {
  name: "Eltwise2"
  type: "Eltwise"
  bottom: "Eltwise1"
  bottom: "Convolution5"
  top: "Eltwise2"
  eltwise_param {
    operation: SUM
  }
}
layer {
  name: "M2PELU5"
  type: "M2PELU"
  bottom: "Eltwise2"
  top: "Eltwise2"
  param {
    lr_mult: 2
    decay_mult: 2
  }
  param {
    lr_mult: 2
    decay_mult: 2
  }
  m2pelu_param {
    alpha_filler {
      type: "constant"
      value: 1
    }
    beta_filler {
      type: "constant"
      value: 1
    }
  }
}
layer {
  name: "Convolution6"
  type: "Convolution"
  bottom: "Eltwise2"
  top: "Convolution6"
  param {
    lr_mult: 1
    decay_mult: 1
  }
  param {
    lr_mult: 2
    decay_mult: 0
  }
  convolution_param {
    num_output: 16
    pad: 1
    kernel_size: 3
    stride: 1
    weight_filler {
      type: "gaussian"
      std: 0.118
    }
    bias_filler {
      type: "constant"
      value: 0
    }
  }
}
layer {
  name: "BatchNorm6"
  type: "BatchNorm"
  bottom: "Convolution6"
  top: "Convolution6"
  param {
    lr_mult: 0
    decay_mult: 0
  }
  param {
    lr_mult: 0
    decay_mult: 0
  }
  param {
    lr_mult: 0
    decay_mult: 0
  }
}
layer {
  name: "Scale6"
  type: "Scale"
  bottom: "Convolution6"
  top: "Convolution6"
  scale_param {
    bias_term: true
  }
}
layer {
  name: "M2PELU6"
  type: "M2PELU"
  bottom: "Convolution6"
  top: "Convolution6"
  param {
    lr_mult: 2
    decay_mult: 2
  }
  param {
    lr_mult: 2
    decay_mult: 2
  }
  m2pelu_param {
    alpha_filler {
      type: "constant"
      value: 1
    }
    beta_filler {
      type: "constant"
      value: 1
    }
  }
}
layer {
  name: "Convolution7"
  type: "Convolution"
  bottom: "Convolution6"
  top: "Convolution7"
  param {
    lr_mult: 1
    decay_mult: 1
  }
  param {
    lr_mult: 2
    decay_mult: 0
  }
  convolution_param {
    num_output: 16
    pad: 1
    kernel_size: 3
    stride: 1
    weight_filler {
      type: "gaussian"
      std: 0.118
    }
    bias_filler {
      type: "constant"
      value: 0
    }
  }
}
layer {
  name: "BatchNorm7"
  type: "BatchNorm"
  bottom: "Convolution7"
  top: "Convolution7"
  param {
    lr_mult: 0
    decay_mult: 0
  }
  param {
    lr_mult: 0
    decay_mult: 0
  }
  param {
    lr_mult: 0
    decay_mult: 0
  }
}
layer {
  name: "Scale7"
  type: "Scale"
  bottom: "Convolution7"
  top: "Convolution7"
  scale_param {
    bias_term: true
  }
}
layer {
  name: "Eltwise3"
  type: "Eltwise"
  bottom: "Eltwise2"
  bottom: "Convolution7"
  top: "Eltwise3"
  eltwise_param {
    operation: SUM
  }
}
layer {
  name: "M2PELU7"
  type: "M2PELU"
  bottom: "Eltwise3"
  top: "Eltwise3"
  param {
    lr_mult: 2
    decay_mult: 2
  }
  param {
    lr_mult: 2
    decay_mult: 2
  }
  m2pelu_param {
    alpha_filler {
      type: "constant"
      value: 1
    }
    beta_filler {
      type: "constant"
      value: 1
    }
  }
}
layer {
  name: "Convolution8"
  type: "Convolution"
  bottom: "Eltwise3"
  top: "Convolution8"
  param {
    lr_mult: 1
    decay_mult: 1
  }
  param {
    lr_mult: 2
    decay_mult: 0
  }
  convolution_param {
    num_output: 16
    pad: 1
    kernel_size: 3
    stride: 1
    weight_filler {
      type: "gaussian"
      std: 0.118
    }
    bias_filler {
      type: "constant"
      value: 0
    }
  }
}
layer {
  name: "BatchNorm8"
  type: "BatchNorm"
  bottom: "Convolution8"
  top: "Convolution8"
  param {
    lr_mult: 0
    decay_mult: 0
  }
  param {
    lr_mult: 0
    decay_mult: 0
  }
  param {
    lr_mult: 0
    decay_mult: 0
  }
}
layer {
  name: "Scale8"
  type: "Scale"
  bottom: "Convolution8"
  top: "Convolution8"
  scale_param {
    bias_term: true
  }
}
layer {
  name: "M2PELU8"
  type: "M2PELU"
  bottom: "Convolution8"
  top: "Convolution8"
  param {
    lr_mult: 2
    decay_mult: 2
  }
  param {
    lr_mult: 2
    decay_mult: 2
  }
  m2pelu_param {
    alpha_filler {
      type: "constant"
      value: 1
    }
    beta_filler {
      type: "constant"
      value: 1
    }
  }
}
layer {
  name: "Convolution9"
  type: "Convolution"
  bottom: "Convolution8"
  top: "Convolution9"
  param {
    lr_mult: 1
    decay_mult: 1
  }
  param {
    lr_mult: 2
    decay_mult: 0
  }
  convolution_param {
    num_output: 16
    pad: 1
    kernel_size: 3
    stride: 1
    weight_filler {
      type: "gaussian"
      std: 0.118
    }
    bias_filler {
      type: "constant"
      value: 0
    }
  }
}
layer {
  name: "BatchNorm9"
  type: "BatchNorm"
  bottom: "Convolution9"
  top: "Convolution9"
  param {
    lr_mult: 0
    decay_mult: 0
  }
  param {
    lr_mult: 0
    decay_mult: 0
  }
  param {
    lr_mult: 0
    decay_mult: 0
  }
}
layer {
  name: "Scale9"
  type: "Scale"
  bottom: "Convolution9"
  top: "Convolution9"
  scale_param {
    bias_term: true
  }
}
layer {
  name: "Eltwise4"
  type: "Eltwise"
  bottom: "Eltwise3"
  bottom: "Convolution9"
  top: "Eltwise4"
  eltwise_param {
    operation: SUM
  }
}
layer {
  name: "M2PELU9"
  type: "M2PELU"
  bottom: "Eltwise4"
  top: "Eltwise4"
  param {
    lr_mult: 2
    decay_mult: 2
  }
  param {
    lr_mult: 2
    decay_mult: 2
  }
  m2pelu_param {
    alpha_filler {
      type: "constant"
      value: 1
    }
    beta_filler {
      type: "constant"
      value: 1
    }
  }
}
layer {
  name: "Convolution10"
  type: "Convolution"
  bottom: "Eltwise4"
  top: "Convolution10"
  param {
    lr_mult: 1
    decay_mult: 1
  }
  param {
    lr_mult: 2
    decay_mult: 0
  }
  convolution_param {
    num_output: 16
    pad: 1
    kernel_size: 3
    stride: 1
    weight_filler {
      type: "gaussian"
      std: 0.118
    }
    bias_filler {
      type: "constant"
      value: 0
    }
  }
}
layer {
  name: "BatchNorm10"
  type: "BatchNorm"
  bottom: "Convolution10"
  top: "Convolution10"
  param {
    lr_mult: 0
    decay_mult: 0
  }
  param {
    lr_mult: 0
    decay_mult: 0
  }
  param {
    lr_mult: 0
    decay_mult: 0
  }
}
layer {
  name: "Scale10"
  type: "Scale"
  bottom: "Convolution10"
  top: "Convolution10"
  scale_param {
    bias_term: true
  }
}
layer {
  name: "M2PELU10"
  type: "M2PELU"
  bottom: "Convolution10"
  top: "Convolution10"
  param {
    lr_mult: 2
    decay_mult: 2
  }
  param {
    lr_mult: 2
    decay_mult: 2
  }
  m2pelu_param {
    alpha_filler {
      type: "constant"
      value: 1
    }
    beta_filler {
      type: "constant"
      value: 1
    }
  }
}
layer {
  name: "Convolution11"
  type: "Convolution"
  bottom: "Convolution10"
  top: "Convolution11"
  param {
    lr_mult: 1
    decay_mult: 1
  }
  param {
    lr_mult: 2
    decay_mult: 0
  }
  convolution_param {
    num_output: 16
    pad: 1
    kernel_size: 3
    stride: 1
    weight_filler {
      type: "gaussian"
      std: 0.118
    }
    bias_filler {
      type: "constant"
      value: 0
    }
  }
}
layer {
  name: "BatchNorm11"
  type: "BatchNorm"
  bottom: "Convolution11"
  top: "Convolution11"
  param {
    lr_mult: 0
    decay_mult: 0
  }
  param {
    lr_mult: 0
    decay_mult: 0
  }
  param {
    lr_mult: 0
    decay_mult: 0
  }
}
layer {
  name: "Scale11"
  type: "Scale"
  bottom: "Convolution11"
  top: "Convolution11"
  scale_param {
    bias_term: true
  }
}
layer {
  name: "Eltwise5"
  type: "Eltwise"
  bottom: "Eltwise4"
  bottom: "Convolution11"
  top: "Eltwise5"
  eltwise_param {
    operation: SUM
  }
}
layer {
  name: "M2PELU11"
  type: "M2PELU"
  bottom: "Eltwise5"
  top: "Eltwise5"
  param {
    lr_mult: 2
    decay_mult: 2
  }
  param {
    lr_mult: 2
    decay_mult: 2
  }
  m2pelu_param {
    alpha_filler {
      type: "constant"
      value: 1
    }
    beta_filler {
      type: "constant"
      value: 1
    }
  }
}
layer {
  name: "Convolution12"
  type: "Convolution"
  bottom: "Eltwise5"
  top: "Convolution12"
  param {
    lr_mult: 1
    decay_mult: 1
  }
  param {
    lr_mult: 2
    decay_mult: 0
  }
  convolution_param {
    num_output: 32
    pad: 0
    kernel_size: 1
    stride: 2
    weight_filler {
      type: "gaussian"
      std: 0.25
    }
    bias_filler {
      type: "constant"
      value: 0
    }
  }
}
layer {
  name: "BatchNorm12"
  type: "BatchNorm"
  bottom: "Convolution12"
  top: "Convolution12"
  param {
    lr_mult: 0
    decay_mult: 0
  }
  param {
    lr_mult: 0
    decay_mult: 0
  }
  param {
    lr_mult: 0
    decay_mult: 0
  }
}
layer {
  name: "Scale12"
  type: "Scale"
  bottom: "Convolution12"
  top: "Convolution12"
  scale_param {
    bias_term: true
  }
}
layer {
  name: "Convolution13"
  type: "Convolution"
  bottom: "Eltwise5"
  top: "Convolution13"
  param {
    lr_mult: 1
    decay_mult: 1
  }
  param {
    lr_mult: 2
    decay_mult: 0
  }
  convolution_param {
    num_output: 32
    pad: 1
    kernel_size: 3
    stride: 2
    weight_filler {
      type: "gaussian"
      std: 0.083
    }
    bias_filler {
      type: "constant"
      value: 0
    }
  }
}
layer {
  name: "BatchNorm13"
  type: "BatchNorm"
  bottom: "Convolution13"
  top: "Convolution13"
  param {
    lr_mult: 0
    decay_mult: 0
  }
  param {
    lr_mult: 0
    decay_mult: 0
  }
  param {
    lr_mult: 0
    decay_mult: 0
  }
}
layer {
  name: "Scale13"
  type: "Scale"
  bottom: "Convolution13"
  top: "Convolution13"
  scale_param {
    bias_term: true
  }
}
layer {
  name: "M2PELU12"
  type: "M2PELU"
  bottom: "Convolution13"
  top: "Convolution13"
  param {
    lr_mult: 2
    decay_mult: 2
  }
  param {
    lr_mult: 2
    decay_mult: 2
  }
  m2pelu_param {
    alpha_filler {
      type: "constant"
      value: 1
    }
    beta_filler {
      type: "constant"
      value: 1
    }
  }
}
layer {
  name: "Convolution14"
  type: "Convolution"
  bottom: "Convolution13"
  top: "Convolution14"
  param {
    lr_mult: 1
    decay_mult: 1
  }
  param {
    lr_mult: 2
    decay_mult: 0
  }
  convolution_param {
    num_output: 32
    pad: 1
    kernel_size: 3
    stride: 1
    weight_filler {
      type: "gaussian"
      std: 0.083
    }
    bias_filler {
      type: "constant"
      value: 0
    }
  }
}
layer {
  name: "BatchNorm14"
  type: "BatchNorm"
  bottom: "Convolution14"
  top: "Convolution14"
  param {
    lr_mult: 0
    decay_mult: 0
  }
  param {
    lr_mult: 0
    decay_mult: 0
  }
  param {
    lr_mult: 0
    decay_mult: 0
  }
}
layer {
  name: "Scale14"
  type: "Scale"
  bottom: "Convolution14"
  top: "Convolution14"
  scale_param {
    bias_term: true
  }
}
layer {
  name: "Eltwise6"
  type: "Eltwise"
  bottom: "Convolution12"
  bottom: "Convolution14"
  top: "Eltwise6"
  eltwise_param {
    operation: SUM
  }
}
layer {
  name: "M2PELU13"
  type: "M2PELU"
  bottom: "Eltwise6"
  top: "Eltwise6"
  param {
    lr_mult: 2
    decay_mult: 2
  }
  param {
    lr_mult: 2
    decay_mult: 2
  }
  m2pelu_param {
    alpha_filler {
      type: "constant"
      value: 1
    }
    beta_filler {
      type: "constant"
      value: 1
    }
  }
}
layer {
  name: "Convolution15"
  type: "Convolution"
  bottom: "Eltwise6"
  top: "Convolution15"
  param {
    lr_mult: 1
    decay_mult: 1
  }
  param {
    lr_mult: 2
    decay_mult: 0
  }
  convolution_param {
    num_output: 32
    pad: 1
    kernel_size: 3
    stride: 1
    weight_filler {
      type: "gaussian"
      std: 0.083
    }
    bias_filler {
      type: "constant"
      value: 0
    }
  }
}
layer {
  name: "BatchNorm15"
  type: "BatchNorm"
  bottom: "Convolution15"
  top: "Convolution15"
  param {
    lr_mult: 0
    decay_mult: 0
  }
  param {
    lr_mult: 0
    decay_mult: 0
  }
  param {
    lr_mult: 0
    decay_mult: 0
  }
}
layer {
  name: "Scale15"
  type: "Scale"
  bottom: "Convolution15"
  top: "Convolution15"
  scale_param {
    bias_term: true
  }
}
layer {
  name: "M2PELU14"
  type: "M2PELU"
  bottom: "Convolution15"
  top: "Convolution15"
  param {
    lr_mult: 2
    decay_mult: 2
  }
  param {
    lr_mult: 2
    decay_mult: 2
  }
  m2pelu_param {
    alpha_filler {
      type: "constant"
      value: 1
    }
    beta_filler {
      type: "constant"
      value: 1
    }
  }
}
layer {
  name: "Convolution16"
  type: "Convolution"
  bottom: "Convolution15"
  top: "Convolution16"
  param {
    lr_mult: 1
    decay_mult: 1
  }
  param {
    lr_mult: 2
    decay_mult: 0
  }
  convolution_param {
    num_output: 32
    pad: 1
    kernel_size: 3
    stride: 1
    weight_filler {
      type: "gaussian"
      std: 0.083
    }
    bias_filler {
      type: "constant"
      value: 0
    }
  }
}
layer {
  name: "BatchNorm16"
  type: "BatchNorm"
  bottom: "Convolution16"
  top: "Convolution16"
  param {
    lr_mult: 0
    decay_mult: 0
  }
  param {
    lr_mult: 0
    decay_mult: 0
  }
  param {
    lr_mult: 0
    decay_mult: 0
  }
}
layer {
  name: "Scale16"
  type: "Scale"
  bottom: "Convolution16"
  top: "Convolution16"
  scale_param {
    bias_term: true
  }
}
layer {
  name: "Eltwise7"
  type: "Eltwise"
  bottom: "Eltwise6"
  bottom: "Convolution16"
  top: "Eltwise7"
  eltwise_param {
    operation: SUM
  }
}
layer {
  name: "M2PELU15"
  type: "M2PELU"
  bottom: "Eltwise7"
  top: "Eltwise7"
  param {
    lr_mult: 2
    decay_mult: 2
  }
  param {
    lr_mult: 2
    decay_mult: 2
  }
  m2pelu_param {
    alpha_filler {
      type: "constant"
      value: 1
    }
    beta_filler {
      type: "constant"
      value: 1
    }
  }
}
layer {
  name: "Convolution17"
  type: "Convolution"
  bottom: "Eltwise7"
  top: "Convolution17"
  param {
    lr_mult: 1
    decay_mult: 1
  }
  param {
    lr_mult: 2
    decay_mult: 0
  }
  convolution_param {
    num_output: 32
    pad: 1
    kernel_size: 3
    stride: 1
    weight_filler {
      type: "gaussian"
      std: 0.083
    }
    bias_filler {
      type: "constant"
      value: 0
    }
  }
}
layer {
  name: "BatchNorm17"
  type: "BatchNorm"
  bottom: "Convolution17"
  top: "Convolution17"
  param {
    lr_mult: 0
    decay_mult: 0
  }
  param {
    lr_mult: 0
    decay_mult: 0
  }
  param {
    lr_mult: 0
    decay_mult: 0
  }
}
layer {
  name: "Scale17"
  type: "Scale"
  bottom: "Convolution17"
  top: "Convolution17"
  scale_param {
    bias_term: true
  }
}
layer {
  name: "M2PELU16"
  type: "M2PELU"
  bottom: "Convolution17"
  top: "Convolution17"
  param {
    lr_mult: 2
    decay_mult: 2
  }
  param {
    lr_mult: 2
    decay_mult: 2
  }
  m2pelu_param {
    alpha_filler {
      type: "constant"
      value: 1
    }
    beta_filler {
      type: "constant"
      value: 1
    }
  }
}
layer {
  name: "Convolution18"
  type: "Convolution"
  bottom: "Convolution17"
  top: "Convolution18"
  param {
    lr_mult: 1
    decay_mult: 1
  }
  param {
    lr_mult: 2
    decay_mult: 0
  }
  convolution_param {
    num_output: 32
    pad: 1
    kernel_size: 3
    stride: 1
    weight_filler {
      type: "gaussian"
      std: 0.083
    }
    bias_filler {
      type: "constant"
      value: 0
    }
  }
}
layer {
  name: "BatchNorm18"
  type: "BatchNorm"
  bottom: "Convolution18"
  top: "Convolution18"
  param {
    lr_mult: 0
    decay_mult: 0
  }
  param {
    lr_mult: 0
    decay_mult: 0
  }
  param {
    lr_mult: 0
    decay_mult: 0
  }
}
layer {
  name: "Scale18"
  type: "Scale"
  bottom: "Convolution18"
  top: "Convolution18"
  scale_param {
    bias_term: true
  }
}
layer {
  name: "Eltwise8"
  type: "Eltwise"
  bottom: "Eltwise7"
  bottom: "Convolution18"
  top: "Eltwise8"
  eltwise_param {
    operation: SUM
  }
}
layer {
  name: "M2PELU17"
  type: "M2PELU"
  bottom: "Eltwise8"
  top: "Eltwise8"
  param {
    lr_mult: 2
    decay_mult: 2
  }
  param {
    lr_mult: 2
    decay_mult: 2
  }
  m2pelu_param {
    alpha_filler {
      type: "constant"
      value: 1
    }
    beta_filler {
      type: "constant"
      value: 1
    }
  }
}
layer {
  name: "Convolution19"
  type: "Convolution"
  bottom: "Eltwise8"
  top: "Convolution19"
  param {
    lr_mult: 1
    decay_mult: 1
  }
  param {
    lr_mult: 2
    decay_mult: 0
  }
  convolution_param {
    num_output: 32
    pad: 1
    kernel_size: 3
    stride: 1
    weight_filler {
      type: "gaussian"
      std: 0.083
    }
    bias_filler {
      type: "constant"
      value: 0
    }
  }
}
layer {
  name: "BatchNorm19"
  type: "BatchNorm"
  bottom: "Convolution19"
  top: "Convolution19"
  param {
    lr_mult: 0
    decay_mult: 0
  }
  param {
    lr_mult: 0
    decay_mult: 0
  }
  param {
    lr_mult: 0
    decay_mult: 0
  }
}
layer {
  name: "Scale19"
  type: "Scale"
  bottom: "Convolution19"
  top: "Convolution19"
  scale_param {
    bias_term: true
  }
}
layer {
  name: "M2PELU18"
  type: "M2PELU"
  bottom: "Convolution19"
  top: "Convolution19"
  param {
    lr_mult: 2
    decay_mult: 2
  }
  param {
    lr_mult: 2
    decay_mult: 2
  }
  m2pelu_param {
    alpha_filler {
      type: "constant"
      value: 1
    }
    beta_filler {
      type: "constant"
      value: 1
    }
  }
}
layer {
  name: "Convolution20"
  type: "Convolution"
  bottom: "Convolution19"
  top: "Convolution20"
  param {
    lr_mult: 1
    decay_mult: 1
  }
  param {
    lr_mult: 2
    decay_mult: 0
  }
  convolution_param {
    num_output: 32
    pad: 1
    kernel_size: 3
    stride: 1
    weight_filler {
      type: "gaussian"
      std: 0.083
    }
    bias_filler {
      type: "constant"
      value: 0
    }
  }
}
layer {
  name: "BatchNorm20"
  type: "BatchNorm"
  bottom: "Convolution20"
  top: "Convolution20"
  param {
    lr_mult: 0
    decay_mult: 0
  }
  param {
    lr_mult: 0
    decay_mult: 0
  }
  param {
    lr_mult: 0
    decay_mult: 0
  }
}
layer {
  name: "Scale20"
  type: "Scale"
  bottom: "Convolution20"
  top: "Convolution20"
  scale_param {
    bias_term: true
  }
}
layer {
  name: "Eltwise9"
  type: "Eltwise"
  bottom: "Eltwise8"
  bottom: "Convolution20"
  top: "Eltwise9"
  eltwise_param {
    operation: SUM
  }
}
layer {
  name: "M2PELU19"
  type: "M2PELU"
  bottom: "Eltwise9"
  top: "Eltwise9"
  param {
    lr_mult: 2
    decay_mult: 2
  }
  param {
    lr_mult: 2
    decay_mult: 2
  }
  m2pelu_param {
    alpha_filler {
      type: "constant"
      value: 1
    }
    beta_filler {
      type: "constant"
      value: 1
    }
  }
}
layer {
  name: "Convolution21"
  type: "Convolution"
  bottom: "Eltwise9"
  top: "Convolution21"
  param {
    lr_mult: 1
    decay_mult: 1
  }
  param {
    lr_mult: 2
    decay_mult: 0
  }
  convolution_param {
    num_output: 32
    pad: 1
    kernel_size: 3
    stride: 1
    weight_filler {
      type: "gaussian"
      std: 0.083
    }
    bias_filler {
      type: "constant"
      value: 0
    }
  }
}
layer {
  name: "BatchNorm21"
  type: "BatchNorm"
  bottom: "Convolution21"
  top: "Convolution21"
  param {
    lr_mult: 0
    decay_mult: 0
  }
  param {
    lr_mult: 0
    decay_mult: 0
  }
  param {
    lr_mult: 0
    decay_mult: 0
  }
}
layer {
  name: "Scale21"
  type: "Scale"
  bottom: "Convolution21"
  top: "Convolution21"
  scale_param {
    bias_term: true
  }
}
layer {
  name: "M2PELU20"
  type: "M2PELU"
  bottom: "Convolution21"
  top: "Convolution21"
  param {
    lr_mult: 2
    decay_mult: 2
  }
  param {
    lr_mult: 2
    decay_mult: 2
  }
  m2pelu_param {
    alpha_filler {
      type: "constant"
      value: 1
    }
    beta_filler {
      type: "constant"
      value: 1
    }
  }
}
layer {
  name: "Convolution22"
  type: "Convolution"
  bottom: "Convolution21"
  top: "Convolution22"
  param {
    lr_mult: 1
    decay_mult: 1
  }
  param {
    lr_mult: 2
    decay_mult: 0
  }
  convolution_param {
    num_output: 32
    pad: 1
    kernel_size: 3
    stride: 1
    weight_filler {
      type: "gaussian"
      std: 0.083
    }
    bias_filler {
      type: "constant"
      value: 0
    }
  }
}
layer {
  name: "BatchNorm22"
  type: "BatchNorm"
  bottom: "Convolution22"
  top: "Convolution22"
  param {
    lr_mult: 0
    decay_mult: 0
  }
  param {
    lr_mult: 0
    decay_mult: 0
  }
  param {
    lr_mult: 0
    decay_mult: 0
  }
}
layer {
  name: "Scale22"
  type: "Scale"
  bottom: "Convolution22"
  top: "Convolution22"
  scale_param {
    bias_term: true
  }
}
layer {
  name: "Eltwise10"
  type: "Eltwise"
  bottom: "Eltwise9"
  bottom: "Convolution22"
  top: "Eltwise10"
  eltwise_param {
    operation: SUM
  }
}
layer {
  name: "M2PELU21"
  type: "M2PELU"
  bottom: "Eltwise10"
  top: "Eltwise10"
  param {
    lr_mult: 2
    decay_mult: 2
  }
  param {
    lr_mult: 2
    decay_mult: 2
  }
  m2pelu_param {
    alpha_filler {
      type: "constant"
      value: 1
    }
    beta_filler {
      type: "constant"
      value: 1
    }
  }
}
layer {
  name: "Convolution23"
  type: "Convolution"
  bottom: "Eltwise10"
  top: "Convolution23"
  param {
    lr_mult: 1
    decay_mult: 1
  }
  param {
    lr_mult: 2
    decay_mult: 0
  }
  convolution_param {
    num_output: 64
    pad: 0
    kernel_size: 1
    stride: 2
    weight_filler {
      type: "gaussian"
      std: 0.17677669
    }
    bias_filler {
      type: "constant"
      value: 0
    }
  }
}
layer {
  name: "BatchNorm23"
  type: "BatchNorm"
  bottom: "Convolution23"
  top: "Convolution23"
  param {
    lr_mult: 0
    decay_mult: 0
  }
  param {
    lr_mult: 0
    decay_mult: 0
  }
  param {
    lr_mult: 0
    decay_mult: 0
  }
}
layer {
  name: "Scale23"
  type: "Scale"
  bottom: "Convolution23"
  top: "Convolution23"
  scale_param {
    bias_term: true
  }
}
layer {
  name: "Convolution24"
  type: "Convolution"
  bottom: "Eltwise10"
  top: "Convolution24"
  param {
    lr_mult: 1
    decay_mult: 1
  }
  param {
    lr_mult: 2
    decay_mult: 0
  }
  convolution_param {
    num_output: 64
    pad: 1
    kernel_size: 3
    stride: 2
    weight_filler {
      type: "gaussian"
      std: 0.059
    }
    bias_filler {
      type: "constant"
      value: 0
    }
  }
}
layer {
  name: "BatchNorm24"
  type: "BatchNorm"
  bottom: "Convolution24"
  top: "Convolution24"
  param {
    lr_mult: 0
    decay_mult: 0
  }
  param {
    lr_mult: 0
    decay_mult: 0
  }
  param {
    lr_mult: 0
    decay_mult: 0
  }
}
layer {
  name: "Scale24"
  type: "Scale"
  bottom: "Convolution24"
  top: "Convolution24"
  scale_param {
    bias_term: true
  }
}
layer {
  name: "M2PELU22"
  type: "M2PELU"
  bottom: "Convolution24"
  top: "Convolution24"
  param {
    lr_mult: 2
    decay_mult: 2
  }
  param {
    lr_mult: 2
    decay_mult: 2
  }
  m2pelu_param {
    alpha_filler {
      type: "constant"
      value: 1
    }
    beta_filler {
      type: "constant"
      value: 1
    }
  }
}
layer {
  name: "Convolution25"
  type: "Convolution"
  bottom: "Convolution24"
  top: "Convolution25"
  param {
    lr_mult: 1
    decay_mult: 1
  }
  param {
    lr_mult: 2
    decay_mult: 0
  }
  convolution_param {
    num_output: 64
    pad: 1
    kernel_size: 3
    stride: 1
    weight_filler {
      type: "gaussian"
      std: 0.059
    }
    bias_filler {
      type: "constant"
      value: 0
    }
  }
}
layer {
  name: "BatchNorm25"
  type: "BatchNorm"
  bottom: "Convolution25"
  top: "Convolution25"
  param {
    lr_mult: 0
    decay_mult: 0
  }
  param {
    lr_mult: 0
    decay_mult: 0
  }
  param {
    lr_mult: 0
    decay_mult: 0
  }
}
layer {
  name: "Scale25"
  type: "Scale"
  bottom: "Convolution25"
  top: "Convolution25"
  scale_param {
    bias_term: true
  }
}
layer {
  name: "Eltwise11"
  type: "Eltwise"
  bottom: "Convolution23"
  bottom: "Convolution25"
  top: "Eltwise11"
  eltwise_param {
    operation: SUM
  }
}
layer {
  name: "M2PELU23"
  type: "M2PELU"
  bottom: "Eltwise11"
  top: "Eltwise11"
  param {
    lr_mult: 2
    decay_mult: 2
  }
  param {
    lr_mult: 2
    decay_mult: 2
  }
  m2pelu_param {
    alpha_filler {
      type: "constant"
      value: 1
    }
    beta_filler {
      type: "constant"
      value: 1
    }
  }
}
layer {
  name: "Convolution26"
  type: "Convolution"
  bottom: "Eltwise11"
  top: "Convolution26"
  param {
    lr_mult: 1
    decay_mult: 1
  }
  param {
    lr_mult: 2
    decay_mult: 0
  }
  convolution_param {
    num_output: 64
    pad: 1
    kernel_size: 3
    stride: 1
    weight_filler {
      type: "gaussian"
      std: 0.059
    }
    bias_filler {
      type: "constant"
      value: 0
    }
  }
}
layer {
  name: "BatchNorm26"
  type: "BatchNorm"
  bottom: "Convolution26"
  top: "Convolution26"
  param {
    lr_mult: 0
    decay_mult: 0
  }
  param {
    lr
I1007 22:14:28.574940  5299 layer_factory.hpp:77] Creating layer Data1
I1007 22:14:28.575007  5299 db_lmdb.cpp:35] Opened lmdb /home/x306/caffe/xn/PENLU/data/cifar10/cifar10_train_lmdb
I1007 22:14:28.575033  5299 net.cpp:84] Creating Layer Data1
I1007 22:14:28.575039  5299 net.cpp:380] Data1 -> Data1
I1007 22:14:28.575057  5299 net.cpp:380] Data1 -> Data2
I1007 22:14:28.575067  5299 data_transformer.cpp:25] Loading mean file from: /home/x306/caffe/xn/PENLU/data/cifar10/mean.binaryproto
I1007 22:14:28.576524  5299 data_layer.cpp:45] output data size: 100,3,28,28
I1007 22:14:28.595357  5299 net.cpp:122] Setting up Data1
I1007 22:14:28.595388  5299 net.cpp:129] Top shape: 100 3 28 28 (235200)
I1007 22:14:28.595393  5299 net.cpp:129] Top shape: 100 (100)
I1007 22:14:28.595397  5299 net.cpp:137] Memory required for data: 941200
I1007 22:14:28.595407  5299 layer_factory.hpp:77] Creating layer Convolution1
I1007 22:14:28.595429  5299 net.cpp:84] Creating Layer Convolution1
I1007 22:14:28.595444  5299 net.cpp:406] Convolution1 <- Data1
I1007 22:14:28.595466  5299 net.cpp:380] Convolution1 -> Convolution1
I1007 22:14:28.901700  5299 net.cpp:122] Setting up Convolution1
I1007 22:14:28.901726  5299 net.cpp:129] Top shape: 100 16 28 28 (1254400)
I1007 22:14:28.901729  5299 net.cpp:137] Memory required for data: 5958800
I1007 22:14:28.901751  5299 layer_factory.hpp:77] Creating layer BatchNorm1
I1007 22:14:28.901767  5299 net.cpp:84] Creating Layer BatchNorm1
I1007 22:14:28.901782  5299 net.cpp:406] BatchNorm1 <- Convolution1
I1007 22:14:28.901789  5299 net.cpp:367] BatchNorm1 -> Convolution1 (in-place)
I1007 22:14:28.901917  5299 net.cpp:122] Setting up BatchNorm1
I1007 22:14:28.901923  5299 net.cpp:129] Top shape: 100 16 28 28 (1254400)
I1007 22:14:28.901926  5299 net.cpp:137] Memory required for data: 10976400
I1007 22:14:28.901949  5299 layer_factory.hpp:77] Creating layer Scale1
I1007 22:14:28.901959  5299 net.cpp:84] Creating Layer Scale1
I1007 22:14:28.901962  5299 net.cpp:406] Scale1 <- Convolution1
I1007 22:14:28.901965  5299 net.cpp:367] Scale1 -> Convolution1 (in-place)
I1007 22:14:28.902025  5299 layer_factory.hpp:77] Creating layer Scale1
I1007 22:14:28.902140  5299 net.cpp:122] Setting up Scale1
I1007 22:14:28.902146  5299 net.cpp:129] Top shape: 100 16 28 28 (1254400)
I1007 22:14:28.902148  5299 net.cpp:137] Memory required for data: 15994000
I1007 22:14:28.902163  5299 layer_factory.hpp:77] Creating layer M2PELU1
I1007 22:14:28.902173  5299 net.cpp:84] Creating Layer M2PELU1
I1007 22:14:28.902176  5299 net.cpp:406] M2PELU1 <- Convolution1
I1007 22:14:28.902180  5299 net.cpp:367] M2PELU1 -> Convolution1 (in-place)
I1007 22:14:28.902801  5299 net.cpp:122] Setting up M2PELU1
I1007 22:14:28.902811  5299 net.cpp:129] Top shape: 100 16 28 28 (1254400)
I1007 22:14:28.902814  5299 net.cpp:137] Memory required for data: 21011600
I1007 22:14:28.902832  5299 layer_factory.hpp:77] Creating layer Convolution1_M2PELU1_0_split
I1007 22:14:28.902837  5299 net.cpp:84] Creating Layer Convolution1_M2PELU1_0_split
I1007 22:14:28.902840  5299 net.cpp:406] Convolution1_M2PELU1_0_split <- Convolution1
I1007 22:14:28.902844  5299 net.cpp:380] Convolution1_M2PELU1_0_split -> Convolution1_M2PELU1_0_split_0
I1007 22:14:28.902853  5299 net.cpp:380] Convolution1_M2PELU1_0_split -> Convolution1_M2PELU1_0_split_1
I1007 22:14:28.902889  5299 net.cpp:122] Setting up Convolution1_M2PELU1_0_split
I1007 22:14:28.902894  5299 net.cpp:129] Top shape: 100 16 28 28 (1254400)
I1007 22:14:28.902900  5299 net.cpp:129] Top shape: 100 16 28 28 (1254400)
I1007 22:14:28.902904  5299 net.cpp:137] Memory required for data: 31046800
I1007 22:14:28.902907  5299 layer_factory.hpp:77] Creating layer Convolution2
I1007 22:14:28.902917  5299 net.cpp:84] Creating Layer Convolution2
I1007 22:14:28.902921  5299 net.cpp:406] Convolution2 <- Convolution1_M2PELU1_0_split_0
I1007 22:14:28.902926  5299 net.cpp:380] Convolution2 -> Convolution2
I1007 22:14:28.907982  5299 net.cpp:122] Setting up Convolution2
I1007 22:14:28.907994  5299 net.cpp:129] Top shape: 100 16 28 28 (1254400)
I1007 22:14:28.908007  5299 net.cpp:137] Memory required for data: 36064400
I1007 22:14:28.908013  5299 layer_factory.hpp:77] Creating layer BatchNorm2
I1007 22:14:28.908020  5299 net.cpp:84] Creating Layer BatchNorm2
I1007 22:14:28.908025  5299 net.cpp:406] BatchNorm2 <- Convolution2
I1007 22:14:28.908030  5299 net.cpp:367] BatchNorm2 -> Convolution2 (in-place)
I1007 22:14:28.908159  5299 net.cpp:122] Setting up BatchNorm2
I1007 22:14:28.908165  5299 net.cpp:129] Top shape: 100 16 28 28 (1254400)
I1007 22:14:28.908169  5299 net.cpp:137] Memory required for data: 41082000
I1007 22:14:28.908179  5299 layer_factory.hpp:77] Creating layer Scale2
I1007 22:14:28.908186  5299 net.cpp:84] Creating Layer Scale2
I1007 22:14:28.908191  5299 net.cpp:406] Scale2 <- Convolution2
I1007 22:14:28.908195  5299 net.cpp:367] Scale2 -> Convolution2 (in-place)
I1007 22:14:28.908224  5299 layer_factory.hpp:77] Creating layer Scale2
I1007 22:14:28.908298  5299 net.cpp:122] Setting up Scale2
I1007 22:14:28.908303  5299 net.cpp:129] Top shape: 100 16 28 28 (1254400)
I1007 22:14:28.908308  5299 net.cpp:137] Memory required for data: 46099600
I1007 22:14:28.908313  5299 layer_factory.hpp:77] Creating layer M2PELU2
I1007 22:14:28.908320  5299 net.cpp:84] Creating Layer M2PELU2
I1007 22:14:28.908324  5299 net.cpp:406] M2PELU2 <- Convolution2
I1007 22:14:28.908329  5299 net.cpp:367] M2PELU2 -> Convolution2 (in-place)
I1007 22:14:28.908406  5299 net.cpp:122] Setting up M2PELU2
I1007 22:14:28.908418  5299 net.cpp:129] Top shape: 100 16 28 28 (1254400)
I1007 22:14:28.908423  5299 net.cpp:137] Memory required for data: 51117200
I1007 22:14:28.908432  5299 layer_factory.hpp:77] Creating layer Convolution3
I1007 22:14:28.908440  5299 net.cpp:84] Creating Layer Convolution3
I1007 22:14:28.908444  5299 net.cpp:406] Convolution3 <- Convolution2
I1007 22:14:28.908450  5299 net.cpp:380] Convolution3 -> Convolution3
I1007 22:14:28.914535  5299 net.cpp:122] Setting up Convolution3
I1007 22:14:28.914546  5299 net.cpp:129] Top shape: 100 16 28 28 (1254400)
I1007 22:14:28.914561  5299 net.cpp:137] Memory required for data: 56134800
I1007 22:14:28.914568  5299 layer_factory.hpp:77] Creating layer BatchNorm3
I1007 22:14:28.914574  5299 net.cpp:84] Creating Layer BatchNorm3
I1007 22:14:28.914579  5299 net.cpp:406] BatchNorm3 <- Convolution3
I1007 22:14:28.914585  5299 net.cpp:367] BatchNorm3 -> Convolution3 (in-place)
I1007 22:14:28.914717  5299 net.cpp:122] Setting up BatchNorm3
I1007 22:14:28.914722  5299 net.cpp:129] Top shape: 100 16 28 28 (1254400)
I1007 22:14:28.914734  5299 net.cpp:137] Memory required for data: 61152400
I1007 22:14:28.914739  5299 layer_factory.hpp:77] Creating layer Scale3
I1007 22:14:28.914746  5299 net.cpp:84] Creating Layer Scale3
I1007 22:14:28.914748  5299 net.cpp:406] Scale3 <- Convolution3
I1007 22:14:28.914752  5299 net.cpp:367] Scale3 -> Convolution3 (in-place)
I1007 22:14:28.914779  5299 layer_factory.hpp:77] Creating layer Scale3
I1007 22:14:28.914890  5299 net.cpp:122] Setting up Scale3
I1007 22:14:28.914896  5299 net.cpp:129] Top shape: 100 16 28 28 (1254400)
I1007 22:14:28.914907  5299 net.cpp:137] Memory required for data: 66170000
I1007 22:14:28.914913  5299 layer_factory.hpp:77] Creating layer Eltwise1
I1007 22:14:28.914921  5299 net.cpp:84] Creating Layer Eltwise1
I1007 22:14:28.914927  5299 net.cpp:406] Eltwise1 <- Convolution1_M2PELU1_0_split_1
I1007 22:14:28.914929  5299 net.cpp:406] Eltwise1 <- Convolution3
I1007 22:14:28.914934  5299 net.cpp:380] Eltwise1 -> Eltwise1
I1007 22:14:28.914955  5299 net.cpp:122] Setting up Eltwise1
I1007 22:14:28.914960  5299 net.cpp:129] Top shape: 100 16 28 28 (1254400)
I1007 22:14:28.914963  5299 net.cpp:137] Memory required for data: 71187600
I1007 22:14:28.914966  5299 layer_factory.hpp:77] Creating layer M2PELU3
I1007 22:14:28.914971  5299 net.cpp:84] Creating Layer M2PELU3
I1007 22:14:28.914974  5299 net.cpp:406] M2PELU3 <- Eltwise1
I1007 22:14:28.914978  5299 net.cpp:367] M2PELU3 -> Eltwise1 (in-place)
I1007 22:14:28.915058  5299 net.cpp:122] Setting up M2PELU3
I1007 22:14:28.915063  5299 net.cpp:129] Top shape: 100 16 28 28 (1254400)
I1007 22:14:28.915066  5299 net.cpp:137] Memory required for data: 76205200
I1007 22:14:28.915071  5299 layer_factory.hpp:77] Creating layer Eltwise1_M2PELU3_0_split
I1007 22:14:28.915076  5299 net.cpp:84] Creating Layer Eltwise1_M2PELU3_0_split
I1007 22:14:28.915077  5299 net.cpp:406] Eltwise1_M2PELU3_0_split <- Eltwise1
I1007 22:14:28.915081  5299 net.cpp:380] Eltwise1_M2PELU3_0_split -> Eltwise1_M2PELU3_0_split_0
I1007 22:14:28.915086  5299 net.cpp:380] Eltwise1_M2PELU3_0_split -> Eltwise1_M2PELU3_0_split_1
I1007 22:14:28.915107  5299 net.cpp:122] Setting up Eltwise1_M2PELU3_0_split
I1007 22:14:28.915112  5299 net.cpp:129] Top shape: 100 16 28 28 (1254400)
I1007 22:14:28.915115  5299 net.cpp:129] Top shape: 100 16 28 28 (1254400)
I1007 22:14:28.915118  5299 net.cpp:137] Memory required for data: 86240400
I1007 22:14:28.915120  5299 layer_factory.hpp:77] Creating layer Convolution4
I1007 22:14:28.915127  5299 net.cpp:84] Creating Layer Convolution4
I1007 22:14:28.915132  5299 net.cpp:406] Convolution4 <- Eltwise1_M2PELU3_0_split_0
I1007 22:14:28.915136  5299 net.cpp:380] Convolution4 -> Convolution4
I1007 22:14:28.921346  5299 net.cpp:122] Setting up Convolution4
I1007 22:14:28.921357  5299 net.cpp:129] Top shape: 100 16 28 28 (1254400)
I1007 22:14:28.921363  5299 net.cpp:137] Memory required for data: 91258000
I1007 22:14:28.921372  5299 layer_factory.hpp:77] Creating layer BatchNorm4
I1007 22:14:28.921389  5299 net.cpp:84] Creating Layer BatchNorm4
I1007 22:14:28.921394  5299 net.cpp:406] BatchNorm4 <- Convolution4
I1007 22:14:28.921401  5299 net.cpp:367] BatchNorm4 -> Convolution4 (in-place)
I1007 22:14:28.921524  5299 net.cpp:122] Setting up BatchNorm4
I1007 22:14:28.921530  5299 net.cpp:129] Top shape: 100 16 28 28 (1254400)
I1007 22:14:28.921535  5299 net.cpp:137] Memory required for data: 96275600
I1007 22:14:28.921542  5299 layer_factory.hpp:77] Creating layer Scale4
I1007 22:14:28.921548  5299 net.cpp:84] Creating Layer Scale4
I1007 22:14:28.921552  5299 net.cpp:406] Scale4 <- Convolution4
I1007 22:14:28.921557  5299 net.cpp:367] Scale4 -> Convolution4 (in-place)
I1007 22:14:28.921584  5299 layer_factory.hpp:77] Creating layer Scale4
I1007 22:14:28.921656  5299 net.cpp:122] Setting up Scale4
I1007 22:14:28.921663  5299 net.cpp:129] Top shape: 100 16 28 28 (1254400)
I1007 22:14:28.921666  5299 net.cpp:137] Memory required for data: 101293200
I1007 22:14:28.921676  5299 layer_factory.hpp:77] Creating layer M2PELU4
I1007 22:14:28.921684  5299 net.cpp:84] Creating Layer M2PELU4
I1007 22:14:28.921686  5299 net.cpp:406] M2PELU4 <- Convolution4
I1007 22:14:28.921692  5299 net.cpp:367] M2PELU4 -> Convolution4 (in-place)
I1007 22:14:28.921773  5299 net.cpp:122] Setting up M2PELU4
I1007 22:14:28.921779  5299 net.cpp:129] Top shape: 100 16 28 28 (1254400)
I1007 22:14:28.921783  5299 net.cpp:137] Memory required for data: 106310800
I1007 22:14:28.921789  5299 layer_factory.hpp:77] Creating layer Convolution5
I1007 22:14:28.921798  5299 net.cpp:84] Creating Layer Convolution5
I1007 22:14:28.921802  5299 net.cpp:406] Convolution5 <- Convolution4
I1007 22:14:28.921808  5299 net.cpp:380] Convolution5 -> Convolution5
I1007 22:14:28.927897  5299 net.cpp:122] Setting up Convolution5
I1007 22:14:28.927908  5299 net.cpp:129] Top shape: 100 16 28 28 (1254400)
I1007 22:14:28.927912  5299 net.cpp:137] Memory required for data: 111328400
I1007 22:14:28.927920  5299 layer_factory.hpp:77] Creating layer BatchNorm5
I1007 22:14:28.927927  5299 net.cpp:84] Creating Layer BatchNorm5
I1007 22:14:28.927932  5299 net.cpp:406] BatchNorm5 <- Convolution5
I1007 22:14:28.927937  5299 net.cpp:367] BatchNorm5 -> Convolution5 (in-place)
I1007 22:14:28.928058  5299 net.cpp:122] Setting up BatchNorm5
I1007 22:14:28.928064  5299 net.cpp:129] Top shape: 100 16 28 28 (1254400)
I1007 22:14:28.928066  5299 net.cpp:137] Memory required for data: 116346000
I1007 22:14:28.928076  5299 layer_factory.hpp:77] Creating layer Scale5
I1007 22:14:28.928081  5299 net.cpp:84] Creating Layer Scale5
I1007 22:14:28.928086  5299 net.cpp:406] Scale5 <- Convolution5
I1007 22:14:28.928089  5299 net.cpp:367] Scale5 -> Convolution5 (in-place)
I1007 22:14:28.928117  5299 layer_factory.hpp:77] Creating layer Scale5
I1007 22:14:28.928192  5299 net.cpp:122] Setting up Scale5
I1007 22:14:28.928197  5299 net.cpp:129] Top shape: 100 16 28 28 (1254400)
I1007 22:14:28.928200  5299 net.cpp:137] Memory required for data: 121363600
I1007 22:14:28.928206  5299 layer_factory.hpp:77] Creating layer Eltwise2
I1007 22:14:28.928212  5299 net.cpp:84] Creating Layer Eltwise2
I1007 22:14:28.928216  5299 net.cpp:406] Eltwise2 <- Eltwise1_M2PELU3_0_split_1
I1007 22:14:28.928220  5299 net.cpp:406] Eltwise2 <- Convolution5
I1007 22:14:28.928226  5299 net.cpp:380] Eltwise2 -> Eltwise2
I1007 22:14:28.928251  5299 net.cpp:122] Setting up Eltwise2
I1007 22:14:28.928259  5299 net.cpp:129] Top shape: 100 16 28 28 (1254400)
I1007 22:14:28.928264  5299 net.cpp:137] Memory required for data: 126381200
I1007 22:14:28.928269  5299 layer_factory.hpp:77] Creating layer M2PELU5
I1007 22:14:28.928278  5299 net.cpp:84] Creating Layer M2PELU5
I1007 22:14:28.928283  5299 net.cpp:406] M2PELU5 <- Eltwise2
I1007 22:14:28.928290  5299 net.cpp:367] M2PELU5 -> Eltwise2 (in-place)
I1007 22:14:28.928412  5299 net.cpp:122] Setting up M2PELU5
I1007 22:14:28.928424  5299 net.cpp:129] Top shape: 100 16 28 28 (1254400)
I1007 22:14:28.928429  5299 net.cpp:137] Memory required for data: 131398800
I1007 22:14:28.928438  5299 layer_factory.hpp:77] Creating layer Eltwise2_M2PELU5_0_split
I1007 22:14:28.928455  5299 net.cpp:84] Creating Layer Eltwise2_M2PELU5_0_split
I1007 22:14:28.928462  5299 net.cpp:406] Eltwise2_M2PELU5_0_split <- Eltwise2
I1007 22:14:28.928468  5299 net.cpp:380] Eltwise2_M2PELU5_0_split -> Eltwise2_M2PELU5_0_split_0
I1007 22:14:28.928478  5299 net.cpp:380] Eltwise2_M2PELU5_0_split -> Eltwise2_M2PELU5_0_split_1
I1007 22:14:28.928506  5299 net.cpp:122] Setting up Eltwise2_M2PELU5_0_split
I1007 22:14:28.928511  5299 net.cpp:129] Top shape: 100 16 28 28 (1254400)
I1007 22:14:28.928514  5299 net.cpp:129] Top shape: 100 16 28 28 (1254400)
I1007 22:14:28.928516  5299 net.cpp:137] Memory required for data: 141434000
I1007 22:14:28.928519  5299 layer_factory.hpp:77] Creating layer Convolution6
I1007 22:14:28.928525  5299 net.cpp:84] Creating Layer Convolution6
I1007 22:14:28.928529  5299 net.cpp:406] Convolution6 <- Eltwise2_M2PELU5_0_split_0
I1007 22:14:28.928532  5299 net.cpp:380] Convolution6 -> Convolution6
I1007 22:14:28.935101  5299 net.cpp:122] Setting up Convolution6
I1007 22:14:28.935111  5299 net.cpp:129] Top shape: 100 16 28 28 (1254400)
I1007 22:14:28.935124  5299 net.cpp:137] Memory required for data: 146451600
I1007 22:14:28.935129  5299 layer_factory.hpp:77] Creating layer BatchNorm6
I1007 22:14:28.935144  5299 net.cpp:84] Creating Layer BatchNorm6
I1007 22:14:28.935148  5299 net.cpp:406] BatchNorm6 <- Convolution6
I1007 22:14:28.935153  5299 net.cpp:367] BatchNorm6 -> Convolution6 (in-place)
I1007 22:14:28.935303  5299 net.cpp:122] Setting up BatchNorm6
I1007 22:14:28.935310  5299 net.cpp:129] Top shape: 100 16 28 28 (1254400)
I1007 22:14:28.935322  5299 net.cpp:137] Memory required for data: 151469200
I1007 22:14:28.935328  5299 layer_factory.hpp:77] Creating layer Scale6
I1007 22:14:28.935333  5299 net.cpp:84] Creating Layer Scale6
I1007 22:14:28.935338  5299 net.cpp:406] Scale6 <- Convolution6
I1007 22:14:28.935343  5299 net.cpp:367] Scale6 -> Convolution6 (in-place)
I1007 22:14:28.935395  5299 layer_factory.hpp:77] Creating layer Scale6
I1007 22:14:28.935495  5299 net.cpp:122] Setting up Scale6
I1007 22:14:28.935500  5299 net.cpp:129] Top shape: 100 16 28 28 (1254400)
I1007 22:14:28.935513  5299 net.cpp:137] Memory required for data: 156486800
I1007 22:14:28.935516  5299 layer_factory.hpp:77] Creating layer M2PELU6
I1007 22:14:28.935523  5299 net.cpp:84] Creating Layer M2PELU6
I1007 22:14:28.935529  5299 net.cpp:406] M2PELU6 <- Convolution6
I1007 22:14:28.935535  5299 net.cpp:367] M2PELU6 -> Convolution6 (in-place)
I1007 22:14:28.935626  5299 net.cpp:122] Setting up M2PELU6
I1007 22:14:28.935631  5299 net.cpp:129] Top shape: 100 16 28 28 (1254400)
I1007 22:14:28.935643  5299 net.cpp:137] Memory required for data: 161504400
I1007 22:14:28.935647  5299 layer_factory.hpp:77] Creating layer Convolution7
I1007 22:14:28.935655  5299 net.cpp:84] Creating Layer Convolution7
I1007 22:14:28.935660  5299 net.cpp:406] Convolution7 <- Convolution6
I1007 22:14:28.935667  5299 net.cpp:380] Convolution7 -> Convolution7
I1007 22:14:28.941706  5299 net.cpp:122] Setting up Convolution7
I1007 22:14:28.941715  5299 net.cpp:129] Top shape: 100 16 28 28 (1254400)
I1007 22:14:28.941728  5299 net.cpp:137] Memory required for data: 166522000
I1007 22:14:28.941732  5299 layer_factory.hpp:77] Creating layer BatchNorm7
I1007 22:14:28.941738  5299 net.cpp:84] Creating Layer BatchNorm7
I1007 22:14:28.941743  5299 net.cpp:406] BatchNorm7 <- Convolution7
I1007 22:14:28.941750  5299 net.cpp:367] BatchNorm7 -> Convolution7 (in-place)
I1007 22:14:28.941870  5299 net.cpp:122] Setting up BatchNorm7
I1007 22:14:28.941876  5299 net.cpp:129] Top shape: 100 16 28 28 (1254400)
I1007 22:14:28.941880  5299 net.cpp:137] Memory required for data: 171539600
I1007 22:14:28.941885  5299 layer_factory.hpp:77] Creating layer Scale7
I1007 22:14:28.941893  5299 net.cpp:84] Creating Layer Scale7
I1007 22:14:28.941896  5299 net.cpp:406] Scale7 <- Convolution7
I1007 22:14:28.941900  5299 net.cpp:367] Scale7 -> Convolution7 (in-place)
I1007 22:14:28.941926  5299 layer_factory.hpp:77] Creating layer Scale7
I1007 22:14:28.942006  5299 net.cpp:122] Setting up Scale7
I1007 22:14:28.942013  5299 net.cpp:129] Top shape: 100 16 28 28 (1254400)
I1007 22:14:28.942016  5299 net.cpp:137] Memory required for data: 176557200
I1007 22:14:28.942020  5299 layer_factory.hpp:77] Creating layer Eltwise3
I1007 22:14:28.942025  5299 net.cpp:84] Creating Layer Eltwise3
I1007 22:14:28.942029  5299 net.cpp:406] Eltwise3 <- Eltwise2_M2PELU5_0_split_1
I1007 22:14:28.942034  5299 net.cpp:406] Eltwise3 <- Convolution7
I1007 22:14:28.942040  5299 net.cpp:380] Eltwise3 -> Eltwise3
I1007 22:14:28.942057  5299 net.cpp:122] Setting up Eltwise3
I1007 22:14:28.942062  5299 net.cpp:129] Top shape: 100 16 28 28 (1254400)
I1007 22:14:28.942066  5299 net.cpp:137] Memory required for data: 181574800
I1007 22:14:28.942070  5299 layer_factory.hpp:77] Creating layer M2PELU7
I1007 22:14:28.942076  5299 net.cpp:84] Creating Layer M2PELU7
I1007 22:14:28.942080  5299 net.cpp:406] M2PELU7 <- Eltwise3
I1007 22:14:28.942085  5299 net.cpp:367] M2PELU7 -> Eltwise3 (in-place)
I1007 22:14:28.942164  5299 net.cpp:122] Setting up M2PELU7
I1007 22:14:28.942169  5299 net.cpp:129] Top shape: 100 16 28 28 (1254400)
I1007 22:14:28.942173  5299 net.cpp:137] Memory required for data: 186592400
I1007 22:14:28.942179  5299 layer_factory.hpp:77] Creating layer Eltwise3_M2PELU7_0_split
I1007 22:14:28.942184  5299 net.cpp:84] Creating Layer Eltwise3_M2PELU7_0_split
I1007 22:14:28.942188  5299 net.cpp:406] Eltwise3_M2PELU7_0_split <- Eltwise3
I1007 22:14:28.942193  5299 net.cpp:380] Eltwise3_M2PELU7_0_split -> Eltwise3_M2PELU7_0_split_0
I1007 22:14:28.942200  5299 net.cpp:380] Eltwise3_M2PELU7_0_split -> Eltwise3_M2PELU7_0_split_1
I1007 22:14:28.942222  5299 net.cpp:122] Setting up Eltwise3_M2PELU7_0_split
I1007 22:14:28.942227  5299 net.cpp:129] Top shape: 100 16 28 28 (1254400)
I1007 22:14:28.942232  5299 net.cpp:129] Top shape: 100 16 28 28 (1254400)
I1007 22:14:28.942236  5299 net.cpp:137] Memory required for data: 196627600
I1007 22:14:28.942239  5299 layer_factory.hpp:77] Creating layer Convolution8
I1007 22:14:28.942247  5299 net.cpp:84] Creating Layer Convolution8
I1007 22:14:28.942251  5299 net.cpp:406] Convolution8 <- Eltwise3_M2PELU7_0_split_0
I1007 22:14:28.942256  5299 net.cpp:380] Convolution8 -> Convolution8
I1007 22:14:28.948303  5299 net.cpp:122] Setting up Convolution8
I1007 22:14:28.948315  5299 net.cpp:129] Top shape: 100 16 28 28 (1254400)
I1007 22:14:28.948319  5299 net.cpp:137] Memory required for data: 201645200
I1007 22:14:28.948333  5299 layer_factory.hpp:77] Creating layer BatchNorm8
I1007 22:14:28.948339  5299 net.cpp:84] Creating Layer BatchNorm8
I1007 22:14:28.948344  5299 net.cpp:406] BatchNorm8 <- Convolution8
I1007 22:14:28.948350  5299 net.cpp:367] BatchNorm8 -> Convolution8 (in-place)
I1007 22:14:28.948472  5299 net.cpp:122] Setting up BatchNorm8
I1007 22:14:28.948477  5299 net.cpp:129] Top shape: 100 16 28 28 (1254400)
I1007 22:14:28.948482  5299 net.cpp:137] Memory required for data: 206662800
I1007 22:14:28.948488  5299 layer_factory.hpp:77] Creating layer Scale8
I1007 22:14:28.948494  5299 net.cpp:84] Creating Layer Scale8
I1007 22:14:28.948498  5299 net.cpp:406] Scale8 <- Convolution8
I1007 22:14:28.948503  5299 net.cpp:367] Scale8 -> Convolution8 (in-place)
I1007 22:14:28.948529  5299 layer_factory.hpp:77] Creating layer Scale8
I1007 22:14:28.948601  5299 net.cpp:122] Setting up Scale8
I1007 22:14:28.948606  5299 net.cpp:129] Top shape: 100 16 28 28 (1254400)
I1007 22:14:28.948611  5299 net.cpp:137] Memory required for data: 211680400
I1007 22:14:28.948616  5299 layer_factory.hpp:77] Creating layer M2PELU8
I1007 22:14:28.948623  5299 net.cpp:84] Creating Layer M2PELU8
I1007 22:14:28.948626  5299 net.cpp:406] M2PELU8 <- Convolution8
I1007 22:14:28.948632  5299 net.cpp:367] M2PELU8 -> Convolution8 (in-place)
I1007 22:14:28.948711  5299 net.cpp:122] Setting up M2PELU8
I1007 22:14:28.948716  5299 net.cpp:129] Top shape: 100 16 28 28 (1254400)
I1007 22:14:28.948721  5299 net.cpp:137] Memory required for data: 216698000
I1007 22:14:28.948734  5299 layer_factory.hpp:77] Creating layer Convolution9
I1007 22:14:28.948743  5299 net.cpp:84] Creating Layer Convolution9
I1007 22:14:28.948747  5299 net.cpp:406] Convolution9 <- Convolution8
I1007 22:14:28.948753  5299 net.cpp:380] Convolution9 -> Convolution9
I1007 22:14:28.952875  5299 net.cpp:122] Setting up Convolution9
I1007 22:14:28.952885  5299 net.cpp:129] Top shape: 100 16 28 28 (1254400)
I1007 22:14:28.952890  5299 net.cpp:137] Memory required for data: 221715600
I1007 22:14:28.952898  5299 layer_factory.hpp:77] Creating layer BatchNorm9
I1007 22:14:28.952904  5299 net.cpp:84] Creating Layer BatchNorm9
I1007 22:14:28.952908  5299 net.cpp:406] BatchNorm9 <- Convolution9
I1007 22:14:28.952914  5299 net.cpp:367] BatchNorm9 -> Convolution9 (in-place)
I1007 22:14:28.953034  5299 net.cpp:122] Setting up BatchNorm9
I1007 22:14:28.953040  5299 net.cpp:129] Top shape: 100 16 28 28 (1254400)
I1007 22:14:28.953044  5299 net.cpp:137] Memory required for data: 226733200
I1007 22:14:28.953052  5299 layer_factory.hpp:77] Creating layer Scale9
I1007 22:14:28.953058  5299 net.cpp:84] Creating Layer Scale9
I1007 22:14:28.953061  5299 net.cpp:406] Scale9 <- Convolution9
I1007 22:14:28.953066  5299 net.cpp:367] Scale9 -> Convolution9 (in-place)
I1007 22:14:28.953094  5299 layer_factory.hpp:77] Creating layer Scale9
I1007 22:14:28.953166  5299 net.cpp:122] Setting up Scale9
I1007 22:14:28.953171  5299 net.cpp:129] Top shape: 100 16 28 28 (1254400)
I1007 22:14:28.953176  5299 net.cpp:137] Memory required for data: 231750800
I1007 22:14:28.953181  5299 layer_factory.hpp:77] Creating layer Eltwise4
I1007 22:14:28.953186  5299 net.cpp:84] Creating Layer Eltwise4
I1007 22:14:28.953191  5299 net.cpp:406] Eltwise4 <- Eltwise3_M2PELU7_0_split_1
I1007 22:14:28.953196  5299 net.cpp:406] Eltwise4 <- Convolution9
I1007 22:14:28.953200  5299 net.cpp:380] Eltwise4 -> Eltwise4
I1007 22:14:28.953217  5299 net.cpp:122] Setting up Eltwise4
I1007 22:14:28.953222  5299 net.cpp:129] Top shape: 100 16 28 28 (1254400)
I1007 22:14:28.953227  5299 net.cpp:137] Memory required for data: 236768400
I1007 22:14:28.953229  5299 layer_factory.hpp:77] Creating layer M2PELU9
I1007 22:14:28.953236  5299 net.cpp:84] Creating Layer M2PELU9
I1007 22:14:28.953239  5299 net.cpp:406] M2PELU9 <- Eltwise4
I1007 22:14:28.953245  5299 net.cpp:367] M2PELU9 -> Eltwise4 (in-place)
I1007 22:14:28.953325  5299 net.cpp:122] Setting up M2PELU9
I1007 22:14:28.953330  5299 net.cpp:129] Top shape: 100 16 28 28 (1254400)
I1007 22:14:28.953335  5299 net.cpp:137] Memory required for data: 241786000
I1007 22:14:28.953341  5299 layer_factory.hpp:77] Creating layer Eltwise4_M2PELU9_0_split
I1007 22:14:28.953346  5299 net.cpp:84] Creating Layer Eltwise4_M2PELU9_0_split
I1007 22:14:28.953349  5299 net.cpp:406] Eltwise4_M2PELU9_0_split <- Eltwise4
I1007 22:14:28.953356  5299 net.cpp:380] Eltwise4_M2PELU9_0_split -> Eltwise4_M2PELU9_0_split_0
I1007 22:14:28.953361  5299 net.cpp:380] Eltwise4_M2PELU9_0_split -> Eltwise4_M2PELU9_0_split_1
I1007 22:14:28.953384  5299 net.cpp:122] Setting up Eltwise4_M2PELU9_0_split
I1007 22:14:28.953389  5299 net.cpp:129] Top shape: 100 16 28 28 (1254400)
I1007 22:14:28.953394  5299 net.cpp:129] Top shape: 100 16 28 28 (1254400)
I1007 22:14:28.953398  5299 net.cpp:137] Memory required for data: 251821200
I1007 22:14:28.953402  5299 layer_factory.hpp:77] Creating layer Convolution10
I1007 22:14:28.953409  5299 net.cpp:84] Creating Layer Convolution10
I1007 22:14:28.953413  5299 net.cpp:406] Convolution10 <- Eltwise4_M2PELU9_0_split_0
I1007 22:14:28.953418  5299 net.cpp:380] Convolution10 -> Convolution10
I1007 22:14:28.954237  5299 net.cpp:122] Setting up Convolution10
I1007 22:14:28.954248  5299 net.cpp:129] Top shape: 100 16 28 28 (1254400)
I1007 22:14:28.954253  5299 net.cpp:137] Memory required for data: 256838800
I1007 22:14:28.954259  5299 layer_factory.hpp:77] Creating layer BatchNorm10
I1007 22:14:28.954267  5299 net.cpp:84] Creating Layer BatchNorm10
I1007 22:14:28.954269  5299 net.cpp:406] BatchNorm10 <- Convolution10
I1007 22:14:28.954282  5299 net.cpp:367] BatchNorm10 -> Convolution10 (in-place)
I1007 22:14:28.954407  5299 net.cpp:122] Setting up BatchNorm10
I1007 22:14:28.954412  5299 net.cpp:129] Top shape: 100 16 28 28 (1254400)
I1007 22:14:28.954417  5299 net.cpp:137] Memory required for data: 261856400
I1007 22:14:28.954424  5299 layer_factory.hpp:77] Creating layer Scale10
I1007 22:14:28.954429  5299 net.cpp:84] Creating Layer Scale10
I1007 22:14:28.954433  5299 net.cpp:406] Scale10 <- Convolution10
I1007 22:14:28.954438  5299 net.cpp:367] Scale10 -> Convolution10 (in-place)
I1007 22:14:28.954465  5299 layer_factory.hpp:77] Creating layer Scale10
I1007 22:14:28.954537  5299 net.cpp:122] Setting up Scale10
I1007 22:14:28.954542  5299 net.cpp:129] Top shape: 100 16 28 28 (1254400)
I1007 22:14:28.954545  5299 net.cpp:137] Memory required for data: 266874000
I1007 22:14:28.954551  5299 layer_factory.hpp:77] Creating layer M2PELU10
I1007 22:14:28.954558  5299 net.cpp:84] Creating Layer M2PELU10
I1007 22:14:28.954562  5299 net.cpp:406] M2PELU10 <- Convolution10
I1007 22:14:28.954566  5299 net.cpp:367] M2PELU10 -> Convolution10 (in-place)
I1007 22:14:28.954650  5299 net.cpp:122] Setting up M2PELU10
I1007 22:14:28.954655  5299 net.cpp:129] Top shape: 100 16 28 28 (1254400)
I1007 22:14:28.954658  5299 net.cpp:137] Memory required for data: 271891600
I1007 22:14:28.954664  5299 layer_factory.hpp:77] Creating layer Convolution11
I1007 22:14:28.954674  5299 net.cpp:84] Creating Layer Convolution11
I1007 22:14:28.954676  5299 net.cpp:406] Convolution11 <- Convolution10
I1007 22:14:28.954681  5299 net.cpp:380] Convolution11 -> Convolution11
I1007 22:14:28.958995  5299 net.cpp:122] Setting up Convolution11
I1007 22:14:28.959007  5299 net.cpp:129] Top shape: 100 16 28 28 (1254400)
I1007 22:14:28.959010  5299 net.cpp:137] Memory required for data: 276909200
I1007 22:14:28.959017  5299 layer_factory.hpp:77] Creating layer BatchNorm11
I1007 22:14:28.959024  5299 net.cpp:84] Creating Layer BatchNorm11
I1007 22:14:28.959028  5299 net.cpp:406] BatchNorm11 <- Convolution11
I1007 22:14:28.959034  5299 net.cpp:367] BatchNorm11 -> Convolution11 (in-place)
I1007 22:14:28.959157  5299 net.cpp:122] Setting up BatchNorm11
I1007 22:14:28.959162  5299 net.cpp:129] Top shape: 100 16 28 28 (1254400)
I1007 22:14:28.959185  5299 net.cpp:137] Memory required for data: 281926800
I1007 22:14:28.959194  5299 layer_factory.hpp:77] Creating layer Scale11
I1007 22:14:28.959209  5299 net.cpp:84] Creating Layer Scale11
I1007 22:14:28.959213  5299 net.cpp:406] Scale11 <- Convolution11
I1007 22:14:28.959219  5299 net.cpp:367] Scale11 -> Convolution11 (in-place)
I1007 22:14:28.959247  5299 layer_factory.hpp:77] Creating layer Scale11
I1007 22:14:28.959323  5299 net.cpp:122] Setting up Scale11
I1007 22:14:28.959328  5299 net.cpp:129] Top shape: 100 16 28 28 (1254400)
I1007 22:14:28.959332  5299 net.cpp:137] Memory required for data: 286944400
I1007 22:14:28.959339  5299 layer_factory.hpp:77] Creating layer Eltwise5
I1007 22:14:28.959345  5299 net.cpp:84] Creating Layer Eltwise5
I1007 22:14:28.959349  5299 net.cpp:406] Eltwise5 <- Eltwise4_M2PELU9_0_split_1
I1007 22:14:28.959354  5299 net.cpp:406] Eltwise5 <- Convolution11
I1007 22:14:28.959360  5299 net.cpp:380] Eltwise5 -> Eltwise5
I1007 22:14:28.959378  5299 net.cpp:122] Setting up Eltwise5
I1007 22:14:28.959383  5299 net.cpp:129] Top shape: 100 16 28 28 (1254400)
I1007 22:14:28.959386  5299 net.cpp:137] Memory required for data: 291962000
I1007 22:14:28.959390  5299 layer_factory.hpp:77] Creating layer M2PELU11
I1007 22:14:28.959398  5299 net.cpp:84] Creating Layer M2PELU11
I1007 22:14:28.959400  5299 net.cpp:406] M2PELU11 <- Eltwise5
I1007 22:14:28.959406  5299 net.cpp:367] M2PELU11 -> Eltwise5 (in-place)
I1007 22:14:28.959491  5299 net.cpp:122] Setting up M2PELU11
I1007 22:14:28.959496  5299 net.cpp:129] Top shape: 100 16 28 28 (1254400)
I1007 22:14:28.959499  5299 net.cpp:137] Memory required for data: 296979600
I1007 22:14:28.959506  5299 layer_factory.hpp:77] Creating layer Eltwise5_M2PELU11_0_split
I1007 22:14:28.959511  5299 net.cpp:84] Creating Layer Eltwise5_M2PELU11_0_split
I1007 22:14:28.959522  5299 net.cpp:406] Eltwise5_M2PELU11_0_split <- Eltwise5
I1007 22:14:28.959529  5299 net.cpp:380] Eltwise5_M2PELU11_0_split -> Eltwise5_M2PELU11_0_split_0
I1007 22:14:28.959537  5299 net.cpp:380] Eltwise5_M2PELU11_0_split -> Eltwise5_M2PELU11_0_split_1
I1007 22:14:28.959561  5299 net.cpp:122] Setting up Eltwise5_M2PELU11_0_split
I1007 22:14:28.959566  5299 net.cpp:129] Top shape: 100 16 28 28 (1254400)
I1007 22:14:28.959570  5299 net.cpp:129] Top shape: 100 16 28 28 (1254400)
I1007 22:14:28.959575  5299 net.cpp:137] Memory required for data: 307014800
I1007 22:14:28.959579  5299 layer_factory.hpp:77] Creating layer Convolution12
I1007 22:14:28.959589  5299 net.cpp:84] Creating Layer Convolution12
I1007 22:14:28.959591  5299 net.cpp:406] Convolution12 <- Eltwise5_M2PELU11_0_split_0
I1007 22:14:28.959597  5299 net.cpp:380] Convolution12 -> Convolution12
I1007 22:14:28.966353  5299 net.cpp:122] Setting up Convolution12
I1007 22:14:28.966365  5299 net.cpp:129] Top shape: 100 32 14 14 (627200)
I1007 22:14:28.966378  5299 net.cpp:137] Memory required for data: 309523600
I1007 22:14:28.966384  5299 layer_factory.hpp:77] Creating layer BatchNorm12
I1007 22:14:28.966395  5299 net.cpp:84] Creating Layer BatchNorm12
I1007 22:14:28.966398  5299 net.cpp:406] BatchNorm12 <- Convolution12
I1007 22:14:28.966413  5299 net.cpp:367] BatchNorm12 -> Convolution12 (in-place)
I1007 22:14:28.966567  5299 net.cpp:122] Setting up BatchNorm12
I1007 22:14:28.966573  5299 net.cpp:129] Top shape: 100 32 14 14 (627200)
I1007 22:14:28.966585  5299 net.cpp:137] Memory required for data: 312032400
I1007 22:14:28.966591  5299 layer_factory.hpp:77] Creating layer Scale12
I1007 22:14:28.966599  5299 net.cpp:84] Creating Layer Scale12
I1007 22:14:28.966603  5299 net.cpp:406] Scale12 <- Convolution12
I1007 22:14:28.966606  5299 net.cpp:367] Scale12 -> Convolution12 (in-place)
I1007 22:14:28.966647  5299 layer_factory.hpp:77] Creating layer Scale12
I1007 22:14:28.966742  5299 net.cpp:122] Setting up Scale12
I1007 22:14:28.966747  5299 net.cpp:129] Top shape: 100 32 14 14 (627200)
I1007 22:14:28.966759  5299 net.cpp:137] Memory required for data: 314541200
I1007 22:14:28.966764  5299 layer_factory.hpp:77] Creating layer Convolution13
I1007 22:14:28.966773  5299 net.cpp:84] Creating Layer Convolution13
I1007 22:14:28.966776  5299 net.cpp:406] Convolution13 <- Eltwise5_M2PELU11_0_split_1
I1007 22:14:28.966784  5299 net.cpp:380] Convolution13 -> Convolution13
I1007 22:14:28.973196  5299 net.cpp:122] Setting up Convolution13
I1007 22:14:28.973206  5299 net.cpp:129] Top shape: 100 32 14 14 (627200)
I1007 22:14:28.973212  5299 net.cpp:137] Memory required for data: 317050000
I1007 22:14:28.973219  5299 layer_factory.hpp:77] Creating layer BatchNorm13
I1007 22:14:28.973227  5299 net.cpp:84] Creating Layer BatchNorm13
I1007 22:14:28.973232  5299 net.cpp:406] BatchNorm13 <- Convolution13
I1007 22:14:28.973238  5299 net.cpp:367] BatchNorm13 -> Convolution13 (in-place)
I1007 22:14:28.973372  5299 net.cpp:122] Setting up BatchNorm13
I1007 22:14:28.973378  5299 net.cpp:129] Top shape: 100 32 14 14 (627200)
I1007 22:14:28.973382  5299 net.cpp:137] Memory required for data: 319558800
I1007 22:14:28.973390  5299 layer_factory.hpp:77] Creating layer Scale13
I1007 22:14:28.973397  5299 net.cpp:84] Creating Layer Scale13
I1007 22:14:28.973402  5299 net.cpp:406] Scale13 <- Convolution13
I1007 22:14:28.973407  5299 net.cpp:367] Scale13 -> Convolution13 (in-place)
I1007 22:14:28.973436  5299 layer_factory.hpp:77] Creating layer Scale13
I1007 22:14:28.973515  5299 net.cpp:122] Setting up Scale13
I1007 22:14:28.973520  5299 net.cpp:129] Top shape: 100 32 14 14 (627200)
I1007 22:14:28.973523  5299 net.cpp:137] Memory required for data: 322067600
I1007 22:14:28.973531  5299 layer_factory.hpp:77] Creating layer M2PELU12
I1007 22:14:28.973538  5299 net.cpp:84] Creating Layer M2PELU12
I1007 22:14:28.973542  5299 net.cpp:406] M2PELU12 <- Convolution13
I1007 22:14:28.973548  5299 net.cpp:367] M2PELU12 -> Convolution13 (in-place)
I1007 22:14:28.973639  5299 net.cpp:122] Setting up M2PELU12
I1007 22:14:28.973644  5299 net.cpp:129] Top shape: 100 32 14 14 (627200)
I1007 22:14:28.973649  5299 net.cpp:137] Memory required for data: 324576400
I1007 22:14:28.973654  5299 layer_factory.hpp:77] Creating layer Convolution14
I1007 22:14:28.973664  5299 net.cpp:84] Creating Layer Convolution14
I1007 22:14:28.973666  5299 net.cpp:406] Convolution14 <- Convolution13
I1007 22:14:28.973673  5299 net.cpp:380] Convolution14 -> Convolution14
I1007 22:14:28.974876  5299 net.cpp:122] Setting up Convolution14
I1007 22:14:28.974889  5299 net.cpp:129] Top shape: 100 32 14 14 (627200)
I1007 22:14:28.974894  5299 net.cpp:137] Memory required for data: 327085200
I1007 22:14:28.974901  5299 layer_factory.hpp:77] Creating layer BatchNorm14
I1007 22:14:28.974912  5299 net.cpp:84] Creating Layer BatchNorm14
I1007 22:14:28.974916  5299 net.cpp:406] BatchNorm14 <- Convolution14
I1007 22:14:28.974922  5299 net.cpp:367] BatchNorm14 -> Convolution14 (in-place)
I1007 22:14:28.975051  5299 net.cpp:122] Setting up BatchNorm14
I1007 22:14:28.975056  5299 net.cpp:129] Top shape: 100 32 14 14 (627200)
I1007 22:14:28.975061  5299 net.cpp:137] Memory required for data: 329594000
I1007 22:14:28.975069  5299 layer_factory.hpp:77] Creating layer Scale14
I1007 22:14:28.975076  5299 net.cpp:84] Creating Layer Scale14
I1007 22:14:28.975080  5299 net.cpp:406] Scale14 <- Convolution14
I1007 22:14:28.975085  5299 net.cpp:367] Scale14 -> Convolution14 (in-place)
I1007 22:14:28.975114  5299 layer_factory.hpp:77] Creating layer Scale14
I1007 22:14:28.975216  5299 net.cpp:122] Setting up Scale14
I1007 22:14:28.975224  5299 net.cpp:129] Top shape: 100 32 14 14 (627200)
I1007 22:14:28.975227  5299 net.cpp:137] Memory required for data: 332102800
I1007 22:14:28.975234  5299 layer_factory.hpp:77] Creating layer Eltwise6
I1007 22:14:28.975241  5299 net.cpp:84] Creating Layer Eltwise6
I1007 22:14:28.975244  5299 net.cpp:406] Eltwise6 <- Convolution12
I1007 22:14:28.975250  5299 net.cpp:406] Eltwise6 <- Convolution14
I1007 22:14:28.975255  5299 net.cpp:380] Eltwise6 -> Eltwise6
I1007 22:14:28.975273  5299 net.cpp:122] Setting up Eltwise6
I1007 22:14:28.975278  5299 net.cpp:129] Top shape: 100 32 14 14 (627200)
I1007 22:14:28.975282  5299 net.cpp:137] Memory required for data: 334611600
I1007 22:14:28.975286  5299 layer_factory.hpp:77] Creating layer M2PELU13
I1007 22:14:28.975294  5299 net.cpp:84] Creating Layer M2PELU13
I1007 22:14:28.975297  5299 net.cpp:406] M2PELU13 <- Eltwise6
I1007 22:14:28.975302  5299 net.cpp:367] M2PELU13 -> Eltwise6 (in-place)
I1007 22:14:28.975388  5299 net.cpp:122] Setting up M2PELU13
I1007 22:14:28.975394  5299 net.cpp:129] Top shape: 100 32 14 14 (627200)
I1007 22:14:28.975397  5299 net.cpp:137] Memory required for data: 337120400
I1007 22:14:28.975404  5299 layer_factory.hpp:77] Creating layer Eltwise6_M2PELU13_0_split
I1007 22:14:28.975409  5299 net.cpp:84] Creating Layer Eltwise6_M2PELU13_0_split
I1007 22:14:28.975412  5299 net.cpp:406] Eltwise6_M2PELU13_0_split <- Eltwise6
I1007 22:14:28.975419  5299 net.cpp:380] Eltwise6_M2PELU13_0_split -> Eltwise6_M2PELU13_0_split_0
I1007 22:14:28.975425  5299 net.cpp:380] Eltwise6_M2PELU13_0_split -> Eltwise6_M2PELU13_0_split_1
I1007 22:14:28.975451  5299 net.cpp:122] Setting up Eltwise6_M2PELU13_0_split
I1007 22:14:28.975456  5299 net.cpp:129] Top shape: 100 32 14 14 (627200)
I1007 22:14:28.975461  5299 net.cpp:129] Top shape: 100 32 14 14 (627200)
I1007 22:14:28.975466  5299 net.cpp:137] Memory required for data: 342138000
I1007 22:14:28.975468  5299 layer_factory.hpp:77] Creating layer Convolution15
I1007 22:14:28.975477  5299 net.cpp:84] Creating Layer Convolution15
I1007 22:14:28.975481  5299 net.cpp:406] Convolution15 <- Eltwise6_M2PELU13_0_split_0
I1007 22:14:28.975487  5299 net.cpp:380] Convolution15 -> Convolution15
I1007 22:14:28.979423  5299 net.cpp:122] Setting up Convolution15
I1007 22:14:28.979434  5299 net.cpp:129] Top shape: 100 32 14 14 (627200)
I1007 22:14:28.979439  5299 net.cpp:137] Memory required for data: 344646800
I1007 22:14:28.979454  5299 layer_factory.hpp:77] Creating layer BatchNorm15
I1007 22:14:28.979460  5299 net.cpp:84] Creating Layer BatchNorm15
I1007 22:14:28.979465  5299 net.cpp:406] BatchNorm15 <- Convolution15
I1007 22:14:28.979471  5299 net.cpp:367] BatchNorm15 -> Convolution15 (in-place)
I1007 22:14:28.979604  5299 net.cpp:122] Setting up BatchNorm15
I1007 22:14:28.979609  5299 net.cpp:129] Top shape: 100 32 14 14 (627200)
I1007 22:14:28.979614  5299 net.cpp:137] Memory required for data: 347155600
I1007 22:14:28.979630  5299 layer_factory.hpp:77] Creating layer Scale15
I1007 22:14:28.979637  5299 net.cpp:84] Creating Layer Scale15
I1007 22:14:28.979641  5299 net.cpp:406] Scale15 <- Convolution15
I1007 22:14:28.979647  5299 net.cpp:367] Scale15 -> Convolution15 (in-place)
I1007 22:14:28.979678  5299 layer_factory.hpp:77] Creating layer Scale15
I1007 22:14:28.979755  5299 net.cpp:122] Setting up Scale15
I1007 22:14:28.979760  5299 net.cpp:129] Top shape: 100 32 14 14 (627200)
I1007 22:14:28.979764  5299 net.cpp:137] Memory required for data: 349664400
I1007 22:14:28.979771  5299 layer_factory.hpp:77] Creating layer M2PELU14
I1007 22:14:28.979777  5299 net.cpp:84] Creating Layer M2PELU14
I1007 22:14:28.979780  5299 net.cpp:406] M2PELU14 <- Convolution15
I1007 22:14:28.979786  5299 net.cpp:367] M2PELU14 -> Convolution15 (in-place)
I1007 22:14:28.979871  5299 net.cpp:122] Setting up M2PELU14
I1007 22:14:28.979876  5299 net.cpp:129] Top shape: 100 32 14 14 (627200)
I1007 22:14:28.979881  5299 net.cpp:137] Memory required for data: 352173200
I1007 22:14:28.979887  5299 layer_factory.hpp:77] Creating layer Convolution16
I1007 22:14:28.979895  5299 net.cpp:84] Creating Layer Convolution16
I1007 22:14:28.979899  5299 net.cpp:406] Convolution16 <- Convolution15
I1007 22:14:28.979907  5299 net.cpp:380] Convolution16 -> Convolution16
I1007 22:14:28.985973  5299 net.cpp:122] Setting up Convolution16
I1007 22:14:28.985983  5299 net.cpp:129] Top shape: 100 32 14 14 (627200)
I1007 22:14:28.985990  5299 net.cpp:137] Memory required for data: 354682000
I1007 22:14:28.985996  5299 layer_factory.hpp:77] Creating layer BatchNorm16
I1007 22:14:28.986004  5299 net.cpp:84] Creating Layer BatchNorm16
I1007 22:14:28.986008  5299 net.cpp:406] BatchNorm16 <- Convolution16
I1007 22:14:28.986014  5299 net.cpp:367] BatchNorm16 -> Convolution16 (in-place)
I1007 22:14:28.986145  5299 net.cpp:122] Setting up BatchNorm16
I1007 22:14:28.986150  5299 net.cpp:129] Top shape: 100 32 14 14 (627200)
I1007 22:14:28.986155  5299 net.cpp:137] Memory required for data: 357190800
I1007 22:14:28.986162  5299 layer_factory.hpp:77] Creating layer Scale16
I1007 22:14:28.986167  5299 net.cpp:84] Creating Layer Scale16
I1007 22:14:28.986171  5299 net.cpp:406] Scale16 <- Convolution16
I1007 22:14:28.986178  5299 net.cpp:367] Scale16 -> Convolution16 (in-place)
I1007 22:14:28.986207  5299 layer_factory.hpp:77] Creating layer Scale16
I1007 22:14:28.986285  5299 net.cpp:122] Setting up Scale16
I1007 22:14:28.986291  5299 net.cpp:129] Top shape: 100 32 14 14 (627200)
I1007 22:14:28.986295  5299 net.cpp:137] Memory required for data: 359699600
I1007 22:14:28.986302  5299 layer_factory.hpp:77] Creating layer Eltwise7
I1007 22:14:28.986307  5299 net.cpp:84] Creating Layer Eltwise7
I1007 22:14:28.986311  5299 net.cpp:406] Eltwise7 <- Eltwise6_M2PELU13_0_split_1
I1007 22:14:28.986317  5299 net.cpp:406] Eltwise7 <- Convolution16
I1007 22:14:28.986322  5299 net.cpp:380] Eltwise7 -> Eltwise7
I1007 22:14:28.986342  5299 net.cpp:122] Setting up Eltwise7
I1007 22:14:28.986347  5299 net.cpp:129] Top shape: 100 32 14 14 (627200)
I1007 22:14:28.986351  5299 net.cpp:137] Memory required for data: 362208400
I1007 22:14:28.986354  5299 layer_factory.hpp:77] Creating layer M2PELU15
I1007 22:14:28.986361  5299 net.cpp:84] Creating Layer M2PELU15
I1007 22:14:28.986364  5299 net.cpp:406] M2PELU15 <- Eltwise7
I1007 22:14:28.986371  5299 net.cpp:367] M2PELU15 -> Eltwise7 (in-place)
I1007 22:14:28.986452  5299 net.cpp:122] Setting up M2PELU15
I1007 22:14:28.986459  5299 net.cpp:129] Top shape: 100 32 14 14 (627200)
I1007 22:14:28.986469  5299 net.cpp:137] Memory required for data: 364717200
I1007 22:14:28.986476  5299 layer_factory.hpp:77] Creating layer Eltwise7_M2PELU15_0_split
I1007 22:14:28.986484  5299 net.cpp:84] Creating Layer Eltwise7_M2PELU15_0_split
I1007 22:14:28.986486  5299 net.cpp:406] Eltwise7_M2PELU15_0_split <- Eltwise7
I1007 22:14:28.986492  5299 net.cpp:380] Eltwise7_M2PELU15_0_split -> Eltwise7_M2PELU15_0_split_0
I1007 22:14:28.986498  5299 net.cpp:380] Eltwise7_M2PELU15_0_split -> Eltwise7_M2PELU15_0_split_1
I1007 22:14:28.986526  5299 net.cpp:122] Setting up Eltwise7_M2PELU15_0_split
I1007 22:14:28.986531  5299 net.cpp:129] Top shape: 100 32 14 14 (627200)
I1007 22:14:28.986536  5299 net.cpp:129] Top shape: 100 32 14 14 (627200)
I1007 22:14:28.986539  5299 net.cpp:137] Memory required for data: 369734800
I1007 22:14:28.986543  5299 layer_factory.hpp:77] Creating layer Convolution17
I1007 22:14:28.986552  5299 net.cpp:84] Creating Layer Convolution17
I1007 22:14:28.986555  5299 net.cpp:406] Convolution17 <- Eltwise7_M2PELU15_0_split_0
I1007 22:14:28.986562  5299 net.cpp:380] Convolution17 -> Convolution17
I1007 22:14:28.992590  5299 net.cpp:122] Setting up Convolution17
I1007 22:14:28.992601  5299 net.cpp:129] Top shape: 100 32 14 14 (627200)
I1007 22:14:28.992614  5299 net.cpp:137] Memory required for data: 372243600
I1007 22:14:28.992620  5299 layer_factory.hpp:77] Creating layer BatchNorm17
I1007 22:14:28.992628  5299 net.cpp:84] Creating Layer BatchNorm17
I1007 22:14:28.992633  5299 net.cpp:406] BatchNorm17 <- Convolution17
I1007 22:14:28.992638  5299 net.cpp:367] BatchNorm17 -> Convolution17 (in-place)
I1007 22:14:28.992781  5299 net.cpp:122] Setting up BatchNorm17
I1007 22:14:28.992787  5299 net.cpp:129] Top shape: 100 32 14 14 (627200)
I1007 22:14:28.992789  5299 net.cpp:137] Memory required for data: 374752400
I1007 22:14:28.992805  5299 layer_factory.hpp:77] Creating layer Scale17
I1007 22:14:28.992810  5299 net.cpp:84] Creating Layer Scale17
I1007 22:14:28.992811  5299 net.cpp:406] Scale17 <- Convolution17
I1007 22:14:28.992815  5299 net.cpp:367] Scale17 -> Convolution17 (in-place)
I1007 22:14:28.992841  5299 layer_factory.hpp:77] Creating layer Scale17
I1007 22:14:28.992925  5299 net.cpp:122] Setting up Scale17
I1007 22:14:28.992930  5299 net.cpp:129] Top shape: 100 32 14 14 (627200)
I1007 22:14:28.992933  5299 net.cpp:137] Memory required for data: 377261200
I1007 22:14:28.992946  5299 layer_factory.hpp:77] Creating layer M2PELU16
I1007 22:14:28.992954  5299 net.cpp:84] Creating Layer M2PELU16
I1007 22:14:28.992957  5299 net.cpp:406] M2PELU16 <- Convolution17
I1007 22:14:28.992964  5299 net.cpp:367] M2PELU16 -> Convolution17 (in-place)
I1007 22:14:28.993053  5299 net.cpp:122] Setting up M2PELU16
I1007 22:14:28.993059  5299 net.cpp:129] Top shape: 100 32 14 14 (627200)
I1007 22:14:28.993063  5299 net.cpp:137] Memory required for data: 379770000
I1007 22:14:28.993067  5299 layer_factory.hpp:77] Creating layer Convolution18
I1007 22:14:28.993077  5299 net.cpp:84] Creating Layer Convolution18
I1007 22:14:28.993080  5299 net.cpp:406] Convolution18 <- Convolution17
I1007 22:14:28.993084  5299 net.cpp:380] Convolution18 -> Convolution18
I1007 22:14:28.999758  5299 net.cpp:122] Setting up Convolution18
I1007 22:14:28.999768  5299 net.cpp:129] Top shape: 100 32 14 14 (627200)
I1007 22:14:28.999781  5299 net.cpp:137] Memory required for data: 382278800
I1007 22:14:28.999786  5299 layer_factory.hpp:77] Creating layer BatchNorm18
I1007 22:14:28.999794  5299 net.cpp:84] Creating Layer BatchNorm18
I1007 22:14:28.999799  5299 net.cpp:406] BatchNorm18 <- Convolution18
I1007 22:14:28.999802  5299 net.cpp:367] BatchNorm18 -> Convolution18 (in-place)
I1007 22:14:28.999943  5299 net.cpp:122] Setting up BatchNorm18
I1007 22:14:28.999948  5299 net.cpp:129] Top shape: 100 32 14 14 (627200)
I1007 22:14:28.999961  5299 net.cpp:137] Memory required for data: 384787600
I1007 22:14:28.999966  5299 layer_factory.hpp:77] Creating layer Scale18
I1007 22:14:28.999971  5299 net.cpp:84] Creating Layer Scale18
I1007 22:14:28.999984  5299 net.cpp:406] Scale18 <- Convolution18
I1007 22:14:28.999989  5299 net.cpp:367] Scale18 -> Convolution18 (in-place)
I1007 22:14:29.000030  5299 layer_factory.hpp:77] Creating layer Scale18
I1007 22:14:29.000128  5299 net.cpp:122] Setting up Scale18
I1007 22:14:29.000133  5299 net.cpp:129] Top shape: 100 32 14 14 (627200)
I1007 22:14:29.000145  5299 net.cpp:137] Memory required for data: 387296400
I1007 22:14:29.000149  5299 layer_factory.hpp:77] Creating layer Eltwise8
I1007 22:14:29.000155  5299 net.cpp:84] Creating Layer Eltwise8
I1007 22:14:29.000159  5299 net.cpp:406] Eltwise8 <- Eltwise7_M2PELU15_0_split_1
I1007 22:14:29.000164  5299 net.cpp:406] Eltwise8 <- Convolution18
I1007 22:14:29.000169  5299 net.cpp:380] Eltwise8 -> Eltwise8
I1007 22:14:29.000197  5299 net.cpp:122] Setting up Eltwise8
I1007 22:14:29.000201  5299 net.cpp:129] Top shape: 100 32 14 14 (627200)
I1007 22:14:29.000205  5299 net.cpp:137] Memory required for data: 389805200
I1007 22:14:29.000216  5299 layer_factory.hpp:77] Creating layer M2PELU17
I1007 22:14:29.000221  5299 net.cpp:84] Creating Layer M2PELU17
I1007 22:14:29.000224  5299 net.cpp:406] M2PELU17 <- Eltwise8
I1007 22:14:29.000229  5299 net.cpp:367] M2PELU17 -> Eltwise8 (in-place)
I1007 22:14:29.000313  5299 net.cpp:122] Setting up M2PELU17
I1007 22:14:29.000320  5299 net.cpp:129] Top shape: 100 32 14 14 (627200)
I1007 22:14:29.000324  5299 net.cpp:137] Memory required for data: 392314000
I1007 22:14:29.000329  5299 layer_factory.hpp:77] Creating layer Eltwise8_M2PELU17_0_split
I1007 22:14:29.000334  5299 net.cpp:84] Creating Layer Eltwise8_M2PELU17_0_split
I1007 22:14:29.000337  5299 net.cpp:406] Eltwise8_M2PELU17_0_split <- Eltwise8
I1007 22:14:29.000344  5299 net.cpp:380] Eltwise8_M2PELU17_0_split -> Eltwise8_M2PELU17_0_split_0
I1007 22:14:29.000349  5299 net.cpp:380] Eltwise8_M2PELU17_0_split -> Eltwise8_M2PELU17_0_split_1
I1007 22:14:29.000375  5299 net.cpp:122] Setting up Eltwise8_M2PELU17_0_split
I1007 22:14:29.000380  5299 net.cpp:129] Top shape: 100 32 14 14 (627200)
I1007 22:14:29.000385  5299 net.cpp:129] Top shape: 100 32 14 14 (627200)
I1007 22:14:29.000389  5299 net.cpp:137] Memory required for data: 397331600
I1007 22:14:29.000393  5299 layer_factory.hpp:77] Creating layer Convolution19
I1007 22:14:29.000403  5299 net.cpp:84] Creating Layer Convolution19
I1007 22:14:29.000406  5299 net.cpp:406] Convolution19 <- Eltwise8_M2PELU17_0_split_0
I1007 22:14:29.000413  5299 net.cpp:380] Convolution19 -> Convolution19
I1007 22:14:29.006635  5299 net.cpp:122] Setting up Convolution19
I1007 22:14:29.006646  5299 net.cpp:129] Top shape: 100 32 14 14 (627200)
I1007 22:14:29.006651  5299 net.cpp:137] Memory required for data: 399840400
I1007 22:14:29.006660  5299 layer_factory.hpp:77] Creating layer BatchNorm19
I1007 22:14:29.006666  5299 net.cpp:84] Creating Layer BatchNorm19
I1007 22:14:29.006670  5299 net.cpp:406] BatchNorm19 <- Convolution19
I1007 22:14:29.006678  5299 net.cpp:367] BatchNorm19 -> Convolution19 (in-place)
I1007 22:14:29.006814  5299 net.cpp:122] Setting up BatchNorm19
I1007 22:14:29.006821  5299 net.cpp:129] Top shape: 100 32 14 14 (627200)
I1007 22:14:29.006825  5299 net.cpp:137] Memory required for data: 402349200
I1007 22:14:29.006834  5299 layer_factory.hpp:77] Creating layer Scale19
I1007 22:14:29.006839  5299 net.cpp:84] Creating Layer Scale19
I1007 22:14:29.006844  5299 net.cpp:406] Scale19 <- Convolution19
I1007 22:14:29.006849  5299 net.cpp:367] Scale19 -> Convolution19 (in-place)
I1007 22:14:29.006878  5299 layer_factory.hpp:77] Creating layer Scale19
I1007 22:14:29.006958  5299 net.cpp:122] Setting up Scale19
I1007 22:14:29.006963  5299 net.cpp:129] Top shape: 100 32 14 14 (627200)
I1007 22:14:29.006968  5299 net.cpp:137] Memory required for data: 404858000
I1007 22:14:29.006974  5299 layer_factory.hpp:77] Creating layer M2PELU18
I1007 22:14:29.006980  5299 net.cpp:84] Creating Layer M2PELU18
I1007 22:14:29.006984  5299 net.cpp:406] M2PELU18 <- Convolution19
I1007 22:14:29.006991  5299 net.cpp:367] M2PELU18 -> Convolution19 (in-place)
I1007 22:14:29.007083  5299 net.cpp:122] Setting up M2PELU18
I1007 22:14:29.007089  5299 net.cpp:129] Top shape: 100 32 14 14 (627200)
I1007 22:14:29.007094  5299 net.cpp:137] Memory required for data: 407366800
I1007 22:14:29.007100  5299 layer_factory.hpp:77] Creating layer Convolution20
I1007 22:14:29.007110  5299 net.cpp:84] Creating Layer Convolution20
I1007 22:14:29.007114  5299 net.cpp:406] Convolution20 <- Convolution19
I1007 22:14:29.007122  5299 net.cpp:380] Convolution20 -> Convolution20
I1007 22:14:29.012987  5299 net.cpp:122] Setting up Convolution20
I1007 22:14:29.012998  5299 net.cpp:129] Top shape: 100 32 14 14 (627200)
I1007 22:14:29.013003  5299 net.cpp:137] Memory required for data: 409875600
I1007 22:14:29.013011  5299 layer_factory.hpp:77] Creating layer BatchNorm20
I1007 22:14:29.013020  5299 net.cpp:84] Creating Layer BatchNorm20
I1007 22:14:29.013022  5299 net.cpp:406] BatchNorm20 <- Convolution20
I1007 22:14:29.013028  5299 net.cpp:367] BatchNorm20 -> Convolution20 (in-place)
I1007 22:14:29.013161  5299 net.cpp:122] Setting up BatchNorm20
I1007 22:14:29.013167  5299 net.cpp:129] Top shape: 100 32 14 14 (627200)
I1007 22:14:29.013171  5299 net.cpp:137] Memory required for data: 412384400
I1007 22:14:29.013180  5299 layer_factory.hpp:77] Creating layer Scale20
I1007 22:14:29.013186  5299 net.cpp:84] Creating Layer Scale20
I1007 22:14:29.013190  5299 net.cpp:406] Scale20 <- Convolution20
I1007 22:14:29.013195  5299 net.cpp:367] Scale20 -> Convolution20 (in-place)
I1007 22:14:29.013224  5299 layer_factory.hpp:77] Creating layer Scale20
I1007 22:14:29.013303  5299 net.cpp:122] Setting up Scale20
I1007 22:14:29.013309  5299 net.cpp:129] Top shape: 100 32 14 14 (627200)
I1007 22:14:29.013312  5299 net.cpp:137] Memory required for data: 414893200
I1007 22:14:29.013319  5299 layer_factory.hpp:77] Creating layer Eltwise9
I1007 22:14:29.013326  5299 net.cpp:84] Creating Layer Eltwise9
I1007 22:14:29.013329  5299 net.cpp:406] Eltwise9 <- Eltwise8_M2PELU17_0_split_1
I1007 22:14:29.013334  5299 net.cpp:406] Eltwise9 <- Convolution20
I1007 22:14:29.013340  5299 net.cpp:380] Eltwise9 -> Eltwise9
I1007 22:14:29.013360  5299 net.cpp:122] Setting up Eltwise9
I1007 22:14:29.013365  5299 net.cpp:129] Top shape: 100 32 14 14 (627200)
I1007 22:14:29.013368  5299 net.cpp:137] Memory required for data: 417402000
I1007 22:14:29.013372  5299 layer_factory.hpp:77] Creating layer M2PELU19
I1007 22:14:29.013381  5299 net.cpp:84] Creating Layer M2PELU19
I1007 22:14:29.013384  5299 net.cpp:406] M2PELU19 <- Eltwise9
I1007 22:14:29.013389  5299 net.cpp:367] M2PELU19 -> Eltwise9 (in-place)
I1007 22:14:29.013473  5299 net.cpp:122] Setting up M2PELU19
I1007 22:14:29.013479  5299 net.cpp:129] Top shape: 100 32 14 14 (627200)
I1007 22:14:29.013484  5299 net.cpp:137] Memory required for data: 419910800
I1007 22:14:29.013490  5299 layer_factory.hpp:77] Creating layer Eltwise9_M2PELU19_0_split
I1007 22:14:29.013497  5299 net.cpp:84] Creating Layer Eltwise9_M2PELU19_0_split
I1007 22:14:29.013500  5299 net.cpp:406] Eltwise9_M2PELU19_0_split <- Eltwise9
I1007 22:14:29.013505  5299 net.cpp:380] Eltwise9_M2PELU19_0_split -> Eltwise9_M2PELU19_0_split_0
I1007 22:14:29.013512  5299 net.cpp:380] Eltwise9_M2PELU19_0_split -> Eltwise9_M2PELU19_0_split_1
I1007 22:14:29.013538  5299 net.cpp:122] Setting up Eltwise9_M2PELU19_0_split
I1007 22:14:29.013543  5299 net.cpp:129] Top shape: 100 32 14 14 (627200)
I1007 22:14:29.013548  5299 net.cpp:129] Top shape: 100 32 14 14 (627200)
I1007 22:14:29.013551  5299 net.cpp:137] Memory required for data: 424928400
I1007 22:14:29.013556  5299 layer_factory.hpp:77] Creating layer Convolution21
I1007 22:14:29.013564  5299 net.cpp:84] Creating Layer Convolution21
I1007 22:14:29.013568  5299 net.cpp:406] Convolution21 <- Eltwise9_M2PELU19_0_split_0
I1007 22:14:29.013576  5299 net.cpp:380] Convolution21 -> Convolution21
I1007 22:14:29.019824  5299 net.cpp:122] Setting up Convolution21
I1007 22:14:29.019834  5299 net.cpp:129] Top shape: 100 32 14 14 (627200)
I1007 22:14:29.019840  5299 net.cpp:137] Memory required for data: 427437200
I1007 22:14:29.019852  5299 layer_factory.hpp:77] Creating layer BatchNorm21
I1007 22:14:29.019860  5299 net.cpp:84] Creating Layer BatchNorm21
I1007 22:14:29.019863  5299 net.cpp:406] BatchNorm21 <- Convolution21
I1007 22:14:29.019870  5299 net.cpp:367] BatchNorm21 -> Convolution21 (in-place)
I1007 22:14:29.020014  5299 net.cpp:122] Setting up BatchNorm21
I1007 22:14:29.020018  5299 net.cpp:129] Top shape: 100 32 14 14 (627200)
I1007 22:14:29.020030  5299 net.cpp:137] Memory required for data: 429946000
I1007 22:14:29.020035  5299 layer_factory.hpp:77] Creating layer Scale21
I1007 22:14:29.020043  5299 net.cpp:84] Creating Layer Scale21
I1007 22:14:29.020048  5299 net.cpp:406] Scale21 <- Convolution21
I1007 22:14:29.020052  5299 net.cpp:367] Scale21 -> Convolution21 (in-place)
I1007 22:14:29.020093  5299 layer_factory.hpp:77] Creating layer Scale21
I1007 22:14:29.020180  5299 net.cpp:122] Setting up Scale21
I1007 22:14:29.020185  5299 net.cpp:129] Top shape: 100 32 14 14 (627200)
I1007 22:14:29.020189  5299 net.cpp:137] Memory required for data: 432454800
I1007 22:14:29.020192  5299 layer_factory.hpp:77] Creating layer M2PELU20
I1007 22:14:29.020198  5299 net.cpp:84] Creating Layer M2PELU20
I1007 22:14:29.020201  5299 net.cpp:406] M2PELU20 <- Convolution21
I1007 22:14:29.020205  5299 net.cpp:367] M2PELU20 -> Convolution21 (in-place)
I1007 22:14:29.020287  5299 net.cpp:122] Setting up M2PELU20
I1007 22:14:29.020292  5299 net.cpp:129] Top shape: 100 32 14 14 (627200)
I1007 22:14:29.020294  5299 net.cpp:137] Memory required for data: 434963600
I1007 22:14:29.020298  5299 layer_factory.hpp:77] Creating layer Convolution22
I1007 22:14:29.020305  5299 net.cpp:84] Creating Layer Convolution22
I1007 22:14:29.020308  5299 net.cpp:406] Convolution22 <- Convolution21
I1007 22:14:29.020313  5299 net.cpp:380] Convolution22 -> Convolution22
I1007 22:14:29.026607  5299 net.cpp:122] Setting up Convolution22
I1007 22:14:29.026618  5299 net.cpp:129] Top shape: 100 32 14 14 (627200)
I1007 22:14:29.026631  5299 net.cpp:137] Memory required for data: 437472400
I1007 22:14:29.026638  5299 layer_factory.hpp:77] Creating layer BatchNorm22
I1007 22:14:29.026643  5299 net.cpp:84] Creating Layer BatchNorm22
I1007 22:14:29.026645  5299 net.cpp:406] BatchNorm22 <- Convolution22
I1007 22:14:29.026649  5299 net.cpp:367] BatchNorm22 -> Convolution22 (in-place)
I1007 22:14:29.026804  5299 net.cpp:122] Setting up BatchNorm22
I1007 22:14:29.026811  5299 net.cpp:129] Top shape: 100 32 14 14 (627200)
I1007 22:14:29.026823  5299 net.cpp:137] Memory required for data: 439981200
I1007 22:14:29.026829  5299 layer_factory.hpp:77] Creating layer Scale22
I1007 22:14:29.026834  5299 net.cpp:84] Creating Layer Scale22
I1007 22:14:29.026836  5299 net.cpp:406] Scale22 <- Convolution22
I1007 22:14:29.026839  5299 net.cpp:367] Scale22 -> Convolution22 (in-place)
I1007 22:14:29.026870  5299 layer_factory.hpp:77] Creating layer Scale22
I1007 22:14:29.026947  5299 net.cpp:122] Setting up Scale22
I1007 22:14:29.026952  5299 net.cpp:129] Top shape: 100 32 14 14 (627200)
I1007 22:14:29.026954  5299 net.cpp:137] Memory required for data: 442490000
I1007 22:14:29.026958  5299 layer_factory.hpp:77] Creating layer Eltwise10
I1007 22:14:29.026964  5299 net.cpp:84] Creating Layer Eltwise10
I1007 22:14:29.026968  5299 net.cpp:406] Eltwise10 <- Eltwise9_M2PELU19_0_split_1
I1007 22:14:29.026970  5299 net.cpp:406] Eltwise10 <- Convolution22
I1007 22:14:29.026974  5299 net.cpp:380] Eltwise10 -> Eltwise10
I1007 22:14:29.026991  5299 net.cpp:122] Setting up Eltwise10
I1007 22:14:29.026995  5299 net.cpp:129] Top shape: 100 32 14 14 (627200)
I1007 22:14:29.026998  5299 net.cpp:137] Memory required for data: 444998800
I1007 22:14:29.027000  5299 layer_factory.hpp:77] Creating layer M2PELU21
I1007 22:14:29.027006  5299 net.cpp:84] Creating Layer M2PELU21
I1007 22:14:29.027009  5299 net.cpp:406] M2PELU21 <- Eltwise10
I1007 22:14:29.027012  5299 net.cpp:367] M2PELU21 -> Eltwise10 (in-place)
I1007 22:14:29.027099  5299 net.cpp:122] Setting up M2PELU21
I1007 22:14:29.027112  5299 net.cpp:129] Top shape: 100 32 14 14 (627200)
I1007 22:14:29.027114  5299 net.cpp:137] Memory required for data: 447507600
I1007 22:14:29.027118  5299 layer_factory.hpp:77] Creating layer Eltwise10_M2PELU21_0_split
I1007 22:14:29.027123  5299 net.cpp:84] Creating Layer Eltwise10_M2PELU21_0_split
I1007 22:14:29.027127  5299 net.cpp:406] Eltwise10_M2PELU21_0_split <- Eltwise10
I1007 22:14:29.027129  5299 net.cpp:380] Eltwise10_M2PELU21_0_split -> Eltwise10_M2PELU21_0_split_0
I1007 22:14:29.027133  5299 net.cpp:380] Eltwise10_M2PELU21_0_split -> Eltwise10_M2PELU21_0_split_1
I1007 22:14:29.027159  5299 net.cpp:122] Setting up Eltwise10_M2PELU21_0_split
I1007 22:14:29.027168  5299 net.cpp:129] Top shape: 100 32 14 14 (627200)
I1007 22:14:29.027181  5299 net.cpp:129] Top shape: 100 32 14 14 (627200)
I1007 22:14:29.027184  5299 net.cpp:137] Memory required for data: 452525200
I1007 22:14:29.027186  5299 layer_factory.hpp:77] Creating layer Convolution23
I1007 22:14:29.027194  5299 net.cpp:84] Creating Layer Convolution23
I1007 22:14:29.027196  5299 net.cpp:406] Convolution23 <- Eltwise10_M2PELU21_0_split_0
I1007 22:14:29.027210  5299 net.cpp:380] Convolution23 -> Convolution23
I1007 22:14:29.033252  5299 net.cpp:122] Setting up Convolution23
I1007 22:14:29.033263  5299 net.cpp:129] Top shape: 100 64 7 7 (313600)
I1007 22:14:29.033267  5299 net.cpp:137] Memory required for data: 453779600
I1007 22:14:29.033272  5299 layer_factory.hpp:77] Creating layer BatchNorm23
I1007 22:14:29.033279  5299 net.cpp:84] Creating Layer BatchNorm23
I1007 22:14:29.033282  5299 net.cpp:406] BatchNorm23 <- Convolution23
I1007 22:14:29.033288  5299 net.cpp:367] BatchNorm23 -> Convolution23 (in-place)
I1007 22:14:29.033421  5299 net.cpp:122] Setting up BatchNorm23
I1007 22:14:29.033427  5299 net.cpp:129] Top shape: 100 64 7 7 (313600)
I1007 22:14:29.033429  5299 net.cpp:137] Memory required for data: 455034000
I1007 22:14:29.033433  5299 layer_factory.hpp:77] Creating layer Scale23
I1007 22:14:29.033439  5299 net.cpp:84] Creating Layer Scale23
I1007 22:14:29.033442  5299 net.cpp:406] Scale23 <- Convolution23
I1007 22:14:29.033447  5299 net.cpp:367] Scale23 -> Convolution23 (in-place)
I1007 22:14:29.033473  5299 layer_factory.hpp:77] Creating layer Scale23
I1007 22:14:29.033550  5299 net.cpp:122] Setting up Scale23
I1007 22:14:29.033555  5299 net.cpp:129] Top shape: 100 64 7 7 (313600)
I1007 22:14:29.033557  5299 net.cpp:137] Memory required for data: 456288400
I1007 22:14:29.033561  5299 layer_factory.hpp:77] Creating layer Convolution24
I1007 22:14:29.033569  5299 net.cpp:84] Creating Layer Convolution24
I1007 22:14:29.033572  5299 net.cpp:406] Convolution24 <- Eltwise10_M2PELU21_0_split_1
I1007 22:14:29.033576  5299 net.cpp:380] Convolution24 -> Convolution24
I1007 22:14:29.035368  5299 net.cpp:122] Setting up Convolution24
I1007 22:14:29.035380  5299 net.cpp:129] Top shape: 100 64 7 7 (313600)
I1007 22:14:29.035384  5299 net.cpp:137] Memory required for data: 457542800
I1007 22:14:29.035388  5299 layer_factory.hpp:77] Creating layer BatchNorm24
I1007 22:14:29.035396  5299 net.cpp:84] Creating Layer BatchNorm24
I1007 22:14:29.035400  5299 net.cpp:406] BatchNorm24 <- Convolution24
I1007 22:14:29.035404  5299 net.cpp:367] BatchNorm24 -> Convolution24 (in-place)
I1007 22:14:29.035542  5299 net.cpp:122] Setting up BatchNorm24
I1007 22:14:29.035547  5299 net.cpp:129] Top shape: 100 64 7 7 (313600)
I1007 22:14:29.035549  5299 net.cpp:137] Memory required for data: 458797200
I1007 22:14:29.035554  5299 layer_factory.hpp:77] Creating layer Scale24
I1007 22:14:29.035560  5299 net.cpp:84] Creating Layer Scale24
I1007 22:14:29.035563  5299 net.cpp:406] Scale24 <- Convolution24
I1007 22:14:29.035567  5299 net.cpp:367] Scale24 -> Convolution24 (in-place)
I1007 22:14:29.035595  5299 layer_factory.hpp:77] Creating layer Scale24
I1007 22:14:29.035676  5299 net.cpp:122] Setting up Scale24
I1007 22:14:29.035681  5299 net.cpp:129] Top shape: 100 64 7 7 (313600)
I1007 22:14:29.035682  5299 net.cpp:137] Memory required for data: 460051600
I1007 22:14:29.035696  5299 layer_factory.hpp:77] Creating layer M2PELU22
I1007 22:14:29.035701  5299 net.cpp:84] Creating Layer M2PELU22
I1007 22:14:29.035706  5299 net.cpp:406] M2PELU22 <- Convolution24
I1007 22:14:29.035709  5299 net.cpp:367] M2PELU22 -> Convolution24 (in-place)
I1007 22:14:29.035799  5299 net.cpp:122] Setting up M2PELU22
I1007 22:14:29.035804  5299 net.cpp:129] Top shape: 100 64 7 7 (313600)
I1007 22:14:29.035806  5299 net.cpp:137] Memory required for data: 461306000
I1007 22:14:29.035810  5299 layer_factory.hpp:77] Creating layer Convolution25
I1007 22:14:29.035818  5299 net.cpp:84] Creating Layer Convolution25
I1007 22:14:29.035821  5299 net.cpp:406] Convolution25 <- Convolution24
I1007 22:14:29.035826  5299 net.cpp:380] Convolution25 -> Convolution25
I1007 22:14:29.042006  5299 net.cpp:122] Setting up Convolution25
I1007 22:14:29.042016  5299 net.cpp:129] Top shape: 100 64 7 7 (313600)
I1007 22:14:29.042021  5299 net.cpp:137] Memory required for data: 462560400
I1007 22:14:29.042026  5299 layer_factory.hpp:77] Creating layer BatchNorm25
I1007 22:14:29.042032  5299 net.cpp:84] Creating Layer BatchNorm25
I1007 22:14:29.042035  5299 net.cpp:406] BatchNorm25 <- Convolution25
I1007 22:14:29.042040  5299 net.cpp:367] BatchNorm25 -> Convolution25 (in-place)
I1007 22:14:29.042186  5299 net.cpp:122] Setting up BatchNorm25
I1007 22:14:29.042191  5299 net.cpp:129] Top shape: 100 64 7 7 (313600)
I1007 22:14:29.042193  5299 net.cpp:137] Memory required for data: 463814800
I1007 22:14:29.042198  5299 layer_factory.hpp:77] Creating layer Scale25
I1007 22:14:29.042204  5299 net.cpp:84] Creating Layer Scale25
I1007 22:14:29.042208  5299 net.cpp:406] Scale25 <- Convolution25
I1007 22:14:29.042212  5299 net.cpp:367] Scale25 -> Convolution25 (in-place)
I1007 22:14:29.042239  5299 layer_factory.hpp:77] Creating layer Scale25
I1007 22:14:29.042321  5299 net.cpp:122] Setting up Scale25
I1007 22:14:29.042325  5299 net.cpp:129] Top shape: 100 64 7 7 (313600)
I1007 22:14:29.042328  5299 net.cpp:137] Memory required for data: 465069200
I1007 22:14:29.042332  5299 layer_factory.hpp:77] Creating layer Eltwise11
I1007 22:14:29.042338  5299 net.cpp:84] Creating Layer Eltwise11
I1007 22:14:29.042341  5299 net.cpp:406] Eltwise11 <- Convolution23
I1007 22:14:29.042345  5299 net.cpp:406] Eltwise11 <- Convolution25
I1007 22:14:29.042347  5299 net.cpp:380] Eltwise11 -> Eltwise11
I1007 22:14:29.042366  5299 net.cpp:122] Setting up Eltwise11
I1007 22:14:29.042371  5299 net.cpp:129] Top shape: 100 64 7 7 (313600)
I1007 22:14:29.042372  5299 net.cpp:137] Memory required for data: 466323600
I1007 22:14:29.042374  5299 layer_factory.hpp:77] Creating layer M2PELU23
I1007 22:14:29.042381  5299 net.cpp:84] Creating Layer M2PELU23
I1007 22:14:29.042383  5299 net.cpp:406] M2PELU23 <- Eltwise11
I1007 22:14:29.042387  5299 net.cpp:367] M2PELU23 -> Eltwise11 (in-place)
I1007 22:14:29.042476  5299 net.cpp:122] Setting up M2PELU23
I1007 22:14:29.042481  5299 net.cpp:129] Top shape: 100 64 7 7 (313600)
I1007 22:14:29.042484  5299 net.cpp:137] Memory required for data: 467578000
I1007 22:14:29.042487  5299 layer_factory.hpp:77] Creating layer Eltwise11_M2PELU23_0_split
I1007 22:14:29.042492  5299 net.cpp:84] Creating Layer Eltwise11_M2PELU23_0_split
I1007 22:14:29.042495  5299 net.cpp:406] Eltwise11_M2PELU23_0_split <- Eltwise11
I1007 22:14:29.042500  5299 net.cpp:380] Eltwise11_M2PELU23_0_split -> Eltwise11_M2PELU23_0_split_0
I1007 22:14:29.042505  5299 net.cpp:380] Eltwise11_M2PELU23_0_split -> Eltwise11_M2PELU23_0_split_1
I1007 22:14:29.042529  5299 net.cpp:122] Setting up Eltwise11_M2PELU23_0_split
I1007 22:14:29.042534  5299 net.cpp:129] Top shape: 100 64 7 7 (313600)
I1007 22:14:29.042537  5299 net.cpp:129] Top shape: 100 64 7 7 (313600)
I1007 22:14:29.042539  5299 net.cpp:137] Memory required for data: 470086800
I1007 22:14:29.042541  5299 layer_factory.hpp:77] Creating layer Convolution26
I1007 22:14:29.042548  5299 net.cpp:84] Creating Layer Convolution26
I1007 22:14:29.042551  5299 net.cpp:406] Convolution26 <- Eltwise11_M2PELU23_0_split_0
I1007 22:14:29.042562  5299 net.cpp:380] Convolution26 -> Convolution26
I1007 22:14:29.048265  5299 net.cpp:122] Setting up Convolution26
I1007 22:14:29.048275  5299 net.cpp:129] Top shape: 100 64 7 7 (313600)
I1007 22:14:29.048280  5299 net.cpp:137] Memory required for data: 471341200
I1007 22:14:29.048283  5299 layer_factory.hpp:77] Creating layer BatchNorm26
I1007 22:14:29.048290  5299 net.cpp:84] Creating Layer BatchNorm26
I1007 22:14:29.048292  5299 net.cpp:406] BatchNorm26 <- Convolution26
I1007 22:14:29.048296  5299 net.cpp:367] BatchNorm26 -> Convolution26 (in-place)
I1007 22:14:29.048434  5299 net.cpp:122] Setting up BatchNorm26
I1007 22:14:29.048440  5299 net.cpp:129] Top shape: 100 64 7 7 (313600)
I1007 22:14:29.048444  5299 net.cpp:137] Memory required for data: 472595600
I1007 22:14:29.048447  5299 layer_factory.hpp:77] Creating layer Scale26
I1007 22:14:29.048452  5299 net.cpp:84] Creating Layer Scale26
I1007 22:14:29.048455  5299 net.cpp:406] Scale26 <- Convolution26
I1007 22:14:29.048460  5299 net.cpp:367] Scale26 -> Convolution26 (in-place)
I1007 22:14:29.048486  5299 layer_factory.hpp:77] Creating layer Scale26
I1007 22:14:29.048568  5299 net.cpp:122] Setting up Scale26
I1007 22:14:29.048573  5299 net.cpp:129] Top shape: 100 64 7 7 (313600)
I1007 22:14:29.048575  5299 net.cpp:137] Memory required for data: 473850000
I1007 22:14:29.048579  5299 layer_factory.hpp:77] Creating layer M2PELU24
I1007 22:14:29.048585  5299 net.cpp:84] Creating Layer M2PELU24
I1007 22:14:29.048588  5299 net.cpp:406] M2PELU24 <- Convolution26
I1007 22:14:29.048591  5299 net.cpp:367] M2PELU24 -> Convolution26 (in-place)
I1007 22:14:29.048678  5299 net.cpp:122] Setting up M2PELU24
I1007 22:14:29.048683  5299 net.cpp:129] Top shape: 100 64 7 7 (313600)
I1007 22:14:29.048686  5299 net.cpp:137] Memory required for data: 475104400
I1007 22:14:29.048689  5299 layer_factory.hpp:77] Creating layer Convolution27
I1007 22:14:29.048697  5299 net.cpp:84] Creating Layer Convolution27
I1007 22:14:29.048701  5299 net.cpp:406] Convolution27 <- Convolution26
I1007 22:14:29.048705  5299 net.cpp:380] Convolution27 -> Convolution27
I1007 22:14:29.054361  5299 net.cpp:122] Setting up Convolution27
I1007 22:14:29.054373  5299 net.cpp:129] Top shape: 100 64 7 7 (313600)
I1007 22:14:29.054375  5299 net.cpp:137] Memory required for data: 476358800
I1007 22:14:29.054381  5299 layer_factory.hpp:77] Creating layer BatchNorm27
I1007 22:14:29.054386  5299 net.cpp:84] Creating Layer BatchNorm27
I1007 22:14:29.054390  5299 net.cpp:406] BatchNorm27 <- Convolution27
I1007 22:14:29.054394  5299 net.cpp:367] BatchNorm27 -> Convolution27 (in-place)
I1007 22:14:29.054548  5299 net.cpp:122] Setting up BatchNorm27
I1007 22:14:29.054553  5299 net.cpp:129] Top shape: 100 64 7 7 (313600)
I1007 22:14:29.054554  5299 net.cpp:137] Memory required for data: 477613200
I1007 22:14:29.054559  5299 layer_factory.hpp:77] Creating layer Scale27
I1007 22:14:29.054574  5299 net.cpp:84] Creating Layer Scale27
I1007 22:14:29.054576  5299 net.cpp:406] Scale27 <- Convolution27
I1007 22:14:29.054580  5299 net.cpp:367] Scale27 -> Convolution27 (in-place)
I1007 22:14:29.054610  5299 layer_factory.hpp:77] Creating layer Scale27
I1007 22:14:29.054690  5299 net.cpp:122] Setting up Scale27
I1007 22:14:29.054695  5299 net.cpp:129] Top shape: 100 64 7 7 (313600)
I1007 22:14:29.054697  5299 net.cpp:137] Memory required for data: 478867600
I1007 22:14:29.054702  5299 layer_factory.hpp:77] Creating layer Eltwise12
I1007 22:14:29.054708  5299 net.cpp:84] Creating Layer Eltwise12
I1007 22:14:29.054710  5299 net.cpp:406] Eltwise12 <- Eltwise11_M2PELU23_0_split_1
I1007 22:14:29.054713  5299 net.cpp:406] Eltwise12 <- Convolution27
I1007 22:14:29.054716  5299 net.cpp:380] Eltwise12 -> Eltwise12
I1007 22:14:29.054738  5299 net.cpp:122] Setting up Eltwise12
I1007 22:14:29.054744  5299 net.cpp:129] Top shape: 100 64 7 7 (313600)
I1007 22:14:29.054746  5299 net.cpp:137] Memory required for data: 480122000
I1007 22:14:29.054749  5299 layer_factory.hpp:77] Creating layer M2PELU25
I1007 22:14:29.054754  5299 net.cpp:84] Creating Layer M2PELU25
I1007 22:14:29.054764  5299 net.cpp:406] M2PELU25 <- Eltwise12
I1007 22:14:29.054767  5299 net.cpp:367] M2PELU25 -> Eltwise12 (in-place)
I1007 22:14:29.054859  5299 net.cpp:122] Setting up M2PELU25
I1007 22:14:29.054864  5299 net.cpp:129] Top shape: 100 64 7 7 (313600)
I1007 22:14:29.054868  5299 net.cpp:137] Memory required for data: 481376400
I1007 22:14:29.054872  5299 layer_factory.hpp:77] Creating layer Eltwise12_M2PELU25_0_split
I1007 22:14:29.054877  5299 net.cpp:84] Creating Layer Eltwise12_M2PELU25_0_split
I1007 22:14:29.054880  5299 net.cpp:406] Eltwise12_M2PELU25_0_split <- Eltwise12
I1007 22:14:29.054883  5299 net.cpp:380] Eltwise12_M2PELU25_0_split -> Eltwise12_M2PELU25_0_split_0
I1007 22:14:29.054888  5299 net.cpp:380] Eltwise12_M2PELU25_0_split -> Eltwise12_M2PELU25_0_split_1
I1007 22:14:29.054913  5299 net.cpp:122] Setting up Eltwise12_M2PELU25_0_split
I1007 22:14:29.054918  5299 net.cpp:129] Top shape: 100 64 7 7 (313600)
I1007 22:14:29.054920  5299 net.cpp:129] Top shape: 100 64 7 7 (313600)
I1007 22:14:29.054924  5299 net.cpp:137] Memory required for data: 483885200
I1007 22:14:29.054925  5299 layer_factory.hpp:77] Creating layer Convolution28
I1007 22:14:29.054930  5299 net.cpp:84] Creating Layer Convolution28
I1007 22:14:29.054934  5299 net.cpp:406] Convolution28 <- Eltwise12_M2PELU25_0_split_0
I1007 22:14:29.054939  5299 net.cpp:380] Convolution28 -> Convolution28
I1007 22:14:29.059784  5299 net.cpp:122] Setting up Convolution28
I1007 22:14:29.059795  5299 net.cpp:129] Top shape: 100 64 7 7 (313600)
I1007 22:14:29.059798  5299 net.cpp:137] Memory required for data: 485139600
I1007 22:14:29.059803  5299 layer_factory.hpp:77] Creating layer BatchNorm28
I1007 22:14:29.059808  5299 net.cpp:84] Creating Layer BatchNorm28
I1007 22:14:29.059811  5299 net.cpp:406] BatchNorm28 <- Convolution28
I1007 22:14:29.059815  5299 net.cpp:367] BatchNorm28 -> Convolution28 (in-place)
I1007 22:14:29.059960  5299 net.cpp:122] Setting up BatchNorm28
I1007 22:14:29.059965  5299 net.cpp:129] Top shape: 100 64 7 7 (313600)
I1007 22:14:29.059978  5299 net.cpp:137] Memory required for data: 486394000
I1007 22:14:29.059983  5299 layer_factory.hpp:77] Creating layer Scale28
I1007 22:14:29.059986  5299 net.cpp:84] Creating Layer Scale28
I1007 22:14:29.059990  5299 net.cpp:406] Scale28 <- Convolution28
I1007 22:14:29.059993  5299 net.cpp:367] Scale28 -> Convolution28 (in-place)
I1007 22:14:29.060021  5299 layer_factory.hpp:77] Creating layer Scale28
I1007 22:14:29.060102  5299 net.cpp:122] Setting up Scale28
I1007 22:14:29.060107  5299 net.cpp:129] Top shape: 100 64 7 7 (313600)
I1007 22:14:29.060109  5299 net.cpp:137] Memory required for data: 487648400
I1007 22:14:29.060113  5299 layer_factory.hpp:77] Creating layer M2PELU26
I1007 22:14:29.060119  5299 net.cpp:84] Creating Layer M2PELU26
I1007 22:14:29.060122  5299 net.cpp:406] M2PELU26 <- Convolution28
I1007 22:14:29.060127  5299 net.cpp:367] M2PELU26 -> Convolution28 (in-place)
I1007 22:14:29.060214  5299 net.cpp:122] Setting up M2PELU26
I1007 22:14:29.060220  5299 net.cpp:129] Top shape: 100 64 7 7 (313600)
I1007 22:14:29.060222  5299 net.cpp:137] Memory required for data: 488902800
I1007 22:14:29.060226  5299 layer_factory.hpp:77] Creating layer Convolution29
I1007 22:14:29.060233  5299 net.cpp:84] Creating Layer Convolution29
I1007 22:14:29.060237  5299 net.cpp:406] Convolution29 <- Convolution28
I1007 22:14:29.060241  5299 net.cpp:380] Convolution29 -> Convolution29
I1007 22:14:29.066603  5299 net.cpp:122] Setting up Convolution29
I1007 22:14:29.066613  5299 net.cpp:129] Top shape: 100 64 7 7 (313600)
I1007 22:14:29.066617  5299 net.cpp:137] Memory required for data: 490157200
I1007 22:14:29.066622  5299 layer_factory.hpp:77] Creating layer BatchNorm29
I1007 22:14:29.066627  5299 net.cpp:84] Creating Layer BatchNorm29
I1007 22:14:29.066630  5299 net.cpp:406] BatchNorm29 <- Convolution29
I1007 22:14:29.066637  5299 net.cpp:367] BatchNorm29 -> Convolution29 (in-place)
I1007 22:14:29.066778  5299 net.cpp:122] Setting up BatchNorm29
I1007 22:14:29.066790  5299 net.cpp:129] Top shape: 100 64 7 7 (313600)
I1007 22:14:29.066793  5299 net.cpp:137] Memory required for data: 491411600
I1007 22:14:29.066798  5299 layer_factory.hpp:77] Creating layer Scale29
I1007 22:14:29.066803  5299 net.cpp:84] Creating Layer Scale29
I1007 22:14:29.066807  5299 net.cpp:406] Scale29 <- Convolution29
I1007 22:14:29.066809  5299 net.cpp:367] Scale29 -> Convolution29 (in-place)
I1007 22:14:29.066839  5299 layer_factory.hpp:77] Creating layer Scale29
I1007 22:14:29.066920  5299 net.cpp:122] Setting up Scale29
I1007 22:14:29.066926  5299 net.cpp:129] Top shape: 100 64 7 7 (313600)
I1007 22:14:29.066928  5299 net.cpp:137] Memory required for data: 492666000
I1007 22:14:29.066932  5299 layer_factory.hpp:77] Creating layer Eltwise13
I1007 22:14:29.066937  5299 net.cpp:84] Creating Layer Eltwise13
I1007 22:14:29.066941  5299 net.cpp:406] Eltwise13 <- Eltwise12_M2PELU25_0_split_1
I1007 22:14:29.066942  5299 net.cpp:406] Eltwise13 <- Convolution29
I1007 22:14:29.066946  5299 net.cpp:380] Eltwise13 -> Eltwise13
I1007 22:14:29.066964  5299 net.cpp:122] Setting up Eltwise13
I1007 22:14:29.066968  5299 net.cpp:129] Top shape: 100 64 7 7 (313600)
I1007 22:14:29.066970  5299 net.cpp:137] Memory required for data: 493920400
I1007 22:14:29.066973  5299 layer_factory.hpp:77] Creating layer M2PELU27
I1007 22:14:29.066978  5299 net.cpp:84] Creating Layer M2PELU27
I1007 22:14:29.066982  5299 net.cpp:406] M2PELU27 <- Eltwise13
I1007 22:14:29.066987  5299 net.cpp:367] M2PELU27 -> Eltwise13 (in-place)
I1007 22:14:29.067075  5299 net.cpp:122] Setting up M2PELU27
I1007 22:14:29.067080  5299 net.cpp:129] Top shape: 100 64 7 7 (313600)
I1007 22:14:29.067081  5299 net.cpp:137] Memory required for data: 495174800
I1007 22:14:29.067104  5299 layer_factory.hpp:77] Creating layer Eltwise13_M2PELU27_0_split
I1007 22:14:29.067109  5299 net.cpp:84] Creating Layer Eltwise13_M2PELU27_0_split
I1007 22:14:29.067112  5299 net.cpp:406] Eltwise13_M2PELU27_0_split <- Eltwise13
I1007 22:14:29.067116  5299 net.cpp:380] Eltwise13_M2PELU27_0_split -> Eltwise13_M2PELU27_0_split_0
I1007 22:14:29.067121  5299 net.cpp:380] Eltwise13_M2PELU27_0_split -> Eltwise13_M2PELU27_0_split_1
I1007 22:14:29.067148  5299 net.cpp:122] Setting up Eltwise13_M2PELU27_0_split
I1007 22:14:29.067152  5299 net.cpp:129] Top shape: 100 64 7 7 (313600)
I1007 22:14:29.067157  5299 net.cpp:129] Top shape: 100 64 7 7 (313600)
I1007 22:14:29.067158  5299 net.cpp:137] Memory required for data: 497683600
I1007 22:14:29.067162  5299 layer_factory.hpp:77] Creating layer Convolution30
I1007 22:14:29.067181  5299 net.cpp:84] Creating Layer Convolution30
I1007 22:14:29.067186  5299 net.cpp:406] Convolution30 <- Eltwise13_M2PELU27_0_split_0
I1007 22:14:29.067191  5299 net.cpp:380] Convolution30 -> Convolution30
I1007 22:14:29.072968  5299 net.cpp:122] Setting up Convolution30
I1007 22:14:29.072978  5299 net.cpp:129] Top shape: 100 64 7 7 (313600)
I1007 22:14:29.072981  5299 net.cpp:137] Memory required for data: 498938000
I1007 22:14:29.072985  5299 layer_factory.hpp:77] Creating layer BatchNorm30
I1007 22:14:29.072991  5299 net.cpp:84] Creating Layer BatchNorm30
I1007 22:14:29.072994  5299 net.cpp:406] BatchNorm30 <- Convolution30
I1007 22:14:29.072999  5299 net.cpp:367] BatchNorm30 -> Convolution30 (in-place)
I1007 22:14:29.073138  5299 net.cpp:122] Setting up BatchNorm30
I1007 22:14:29.073144  5299 net.cpp:129] Top shape: 100 64 7 7 (313600)
I1007 22:14:29.073148  5299 net.cpp:137] Memory required for data: 500192400
I1007 22:14:29.073153  5299 layer_factory.hpp:77] Creating layer Scale30
I1007 22:14:29.073158  5299 net.cpp:84] Creating Layer Scale30
I1007 22:14:29.073160  5299 net.cpp:406] Scale30 <- Convolution30
I1007 22:14:29.073164  5299 net.cpp:367] Scale30 -> Convolution30 (in-place)
I1007 22:14:29.073191  5299 layer_factory.hpp:77] Creating layer Scale30
I1007 22:14:29.073271  5299 net.cpp:122] Setting up Scale30
I1007 22:14:29.073276  5299 net.cpp:129] Top shape: 100 64 7 7 (313600)
I1007 22:14:29.073279  5299 net.cpp:137] Memory required for data: 501446800
I1007 22:14:29.073292  5299 layer_factory.hpp:77] Creating layer M2PELU28
I1007 22:14:29.073297  5299 net.cpp:84] Creating Layer M2PELU28
I1007 22:14:29.073299  5299 net.cpp:406] M2PELU28 <- Convolution30
I1007 22:14:29.073303  5299 net.cpp:367] M2PELU28 -> Convolution30 (in-place)
I1007 22:14:29.073398  5299 net.cpp:122] Setting up M2PELU28
I1007 22:14:29.073403  5299 net.cpp:129] Top shape: 100 64 7 7 (313600)
I1007 22:14:29.073405  5299 net.cpp:137] Memory required for data: 502701200
I1007 22:14:29.073410  5299 layer_factory.hpp:77] Creating layer Convolution31
I1007 22:14:29.073417  5299 net.cpp:84] Creating Layer Convolution31
I1007 22:14:29.073421  5299 net.cpp:406] Convolution31 <- Convolution30
I1007 22:14:29.073426  5299 net.cpp:380] Convolution31 -> Convolution31
I1007 22:14:29.079804  5299 net.cpp:122] Setting up Convolution31
I1007 22:14:29.079814  5299 net.cpp:129] Top shape: 100 64 7 7 (313600)
I1007 22:14:29.079818  5299 net.cpp:137] Memory required for data: 503955600
I1007 22:14:29.079823  5299 layer_factory.hpp:77] Creating layer BatchNorm31
I1007 22:14:29.079828  5299 net.cpp:84] Creating Layer BatchNorm31
I1007 22:14:29.079833  5299 net.cpp:406] BatchNorm31 <- Convolution31
I1007 22:14:29.079835  5299 net.cpp:367] BatchNorm31 -> Convolution31 (in-place)
I1007 22:14:29.079980  5299 net.cpp:122] Setting up BatchNorm31
I1007 22:14:29.079985  5299 net.cpp:129] Top shape: 100 64 7 7 (313600)
I1007 22:14:29.079988  5299 net.cpp:137] Memory required for data: 505210000
I1007 22:14:29.079993  5299 layer_factory.hpp:77] Creating layer Scale31
I1007 22:14:29.079999  5299 net.cpp:84] Creating Layer Scale31
I1007 22:14:29.080003  5299 net.cpp:406] Scale31 <- Convolution31
I1007 22:14:29.080005  5299 net.cpp:367] Scale31 -> Convolution31 (in-place)
I1007 22:14:29.080034  5299 layer_factory.hpp:77] Creating layer Scale31
I1007 22:14:29.080116  5299 net.cpp:122] Setting up Scale31
I1007 22:14:29.080121  5299 net.cpp:129] Top shape: 100 64 7 7 (313600)
I1007 22:14:29.080123  5299 net.cpp:137] Memory required for data: 506464400
I1007 22:14:29.080127  5299 layer_factory.hpp:77] Creating layer Eltwise14
I1007 22:14:29.080132  5299 net.cpp:84] Creating Layer Eltwise14
I1007 22:14:29.080137  5299 net.cpp:406] Eltwise14 <- Eltwise13_M2PELU27_0_split_1
I1007 22:14:29.080139  5299 net.cpp:406] Eltwise14 <- Convolution31
I1007 22:14:29.080142  5299 net.cpp:380] Eltwise14 -> Eltwise14
I1007 22:14:29.080160  5299 net.cpp:122] Setting up Eltwise14
I1007 22:14:29.080164  5299 net.cpp:129] Top shape: 100 64 7 7 (313600)
I1007 22:14:29.080168  5299 net.cpp:137] Memory required for data: 507718800
I1007 22:14:29.080169  5299 layer_factory.hpp:77] Creating layer M2PELU29
I1007 22:14:29.080174  5299 net.cpp:84] Creating Layer M2PELU29
I1007 22:14:29.080178  5299 net.cpp:406] M2PELU29 <- Eltwise14
I1007 22:14:29.080180  5299 net.cpp:367] M2PELU29 -> Eltwise14 (in-place)
I1007 22:14:29.080267  5299 net.cpp:122] Setting up M2PELU29
I1007 22:14:29.080272  5299 net.cpp:129] Top shape: 100 64 7 7 (313600)
I1007 22:14:29.080276  5299 net.cpp:137] Memory required for data: 508973200
I1007 22:14:29.080278  5299 layer_factory.hpp:77] Creating layer Eltwise14_M2PELU29_0_split
I1007 22:14:29.080283  5299 net.cpp:84] Creating Layer Eltwise14_M2PELU29_0_split
I1007 22:14:29.080286  5299 net.cpp:406] Eltwise14_M2PELU29_0_split <- Eltwise14
I1007 22:14:29.080291  5299 net.cpp:380] Eltwise14_M2PELU29_0_split -> Eltwise14_M2PELU29_0_split_0
I1007 22:14:29.080296  5299 net.cpp:380] Eltwise14_M2PELU29_0_split -> Eltwise14_M2PELU29_0_split_1
I1007 22:14:29.080319  5299 net.cpp:122] Setting up Eltwise14_M2PELU29_0_split
I1007 22:14:29.080323  5299 net.cpp:129] Top shape: 100 64 7 7 (313600)
I1007 22:14:29.080327  5299 net.cpp:129] Top shape: 100 64 7 7 (313600)
I1007 22:14:29.080329  5299 net.cpp:137] Memory required for data: 511482000
I1007 22:14:29.080332  5299 layer_factory.hpp:77] Creating layer Convolution32
I1007 22:14:29.080338  5299 net.cpp:84] Creating Layer Convolution32
I1007 22:14:29.080341  5299 net.cpp:406] Convolution32 <- Eltwise14_M2PELU29_0_split_0
I1007 22:14:29.080353  5299 net.cpp:380] Convolution32 -> Convolution32
I1007 22:14:29.086529  5299 net.cpp:122] Setting up Convolution32
I1007 22:14:29.086541  5299 net.cpp:129] Top shape: 100 64 7 7 (313600)
I1007 22:14:29.086544  5299 net.cpp:137] Memory required for data: 512736400
I1007 22:14:29.086549  5299 layer_factory.hpp:77] Creating layer BatchNorm32
I1007 22:14:29.086555  5299 net.cpp:84] Creating Layer BatchNorm32
I1007 22:14:29.086560  5299 net.cpp:406] BatchNorm32 <- Convolution32
I1007 22:14:29.086565  5299 net.cpp:367] BatchNorm32 -> Convolution32 (in-place)
I1007 22:14:29.086727  5299 net.cpp:122] Setting up BatchNorm32
I1007 22:14:29.086735  5299 net.cpp:129] Top shape: 100 64 7 7 (313600)
I1007 22:14:29.086736  5299 net.cpp:137] Memory required for data: 513990800
I1007 22:14:29.086742  5299 layer_factory.hpp:77] Creating layer Scale32
I1007 22:14:29.086747  5299 net.cpp:84] Creating Layer Scale32
I1007 22:14:29.086750  5299 net.cpp:406] Scale32 <- Convolution32
I1007 22:14:29.086755  5299 net.cpp:367] Scale32 -> Convolution32 (in-place)
I1007 22:14:29.086786  5299 layer_factory.hpp:77] Creating layer Scale32
I1007 22:14:29.086869  5299 net.cpp:122] Setting up Scale32
I1007 22:14:29.086874  5299 net.cpp:129] Top shape: 100 64 7 7 (313600)
I1007 22:14:29.086877  5299 net.cpp:137] Memory required for data: 515245200
I1007 22:14:29.086881  5299 layer_factory.hpp:77] Creating layer M2PELU30
I1007 22:14:29.086889  5299 net.cpp:84] Creating Layer M2PELU30
I1007 22:14:29.086891  5299 net.cpp:406] M2PELU30 <- Convolution32
I1007 22:14:29.086894  5299 net.cpp:367] M2PELU30 -> Convolution32 (in-place)
I1007 22:14:29.086984  5299 net.cpp:122] Setting up M2PELU30
I1007 22:14:29.086989  5299 net.cpp:129] Top shape: 100 64 7 7 (313600)
I1007 22:14:29.086992  5299 net.cpp:137] Memory required for data: 516499600
I1007 22:14:29.086995  5299 layer_factory.hpp:77] Creating layer Convolution33
I1007 22:14:29.087003  5299 net.cpp:84] Creating Layer Convolution33
I1007 22:14:29.087007  5299 net.cpp:406] Convolution33 <- Convolution32
I1007 22:14:29.087010  5299 net.cpp:380] Convolution33 -> Convolution33
I1007 22:14:29.093627  5299 net.cpp:122] Setting up Convolution33
I1007 22:14:29.093637  5299 net.cpp:129] Top shape: 100 64 7 7 (313600)
I1007 22:14:29.093641  5299 net.cpp:137] Memory required for data: 517754000
I1007 22:14:29.093647  5299 layer_factory.hpp:77] Creating layer BatchNorm33
I1007 22:14:29.093652  5299 net.cpp:84] Creating Layer BatchNorm33
I1007 22:14:29.093654  5299 net.cpp:406] BatchNorm33 <- Convolution33
I1007 22:14:29.093659  5299 net.cpp:367] BatchNorm33 -> Convolution33 (in-place)
I1007 22:14:29.093808  5299 net.cpp:122] Setting up BatchNorm33
I1007 22:14:29.093814  5299 net.cpp:129] Top shape: 100 64 7 7 (313600)
I1007 22:14:29.093817  5299 net.cpp:137] Memory required for data: 519008400
I1007 22:14:29.093822  5299 layer_factory.hpp:77] Creating layer Scale33
I1007 22:14:29.093827  5299 net.cpp:84] Creating Layer Scale33
I1007 22:14:29.093830  5299 net.cpp:406] Scale33 <- Convolution33
I1007 22:14:29.093834  5299 net.cpp:367] Scale33 -> Convolution33 (in-place)
I1007 22:14:29.093863  5299 layer_factory.hpp:77] Creating layer Scale33
I1007 22:14:29.093945  5299 net.cpp:122] Setting up Scale33
I1007 22:14:29.093950  5299 net.cpp:129] Top shape: 100 64 7 7 (313600)
I1007 22:14:29.093953  5299 net.cpp:137] Memory required for data: 520262800
I1007 22:14:29.093957  5299 layer_factory.hpp:77] Creating layer Eltwise15
I1007 22:14:29.093962  5299 net.cpp:84] Creating Layer Eltwise15
I1007 22:14:29.093966  5299 net.cpp:406] Eltwise15 <- Eltwise14_M2PELU29_0_split_1
I1007 22:14:29.093968  5299 net.cpp:406] Eltwise15 <- Convolution33
I1007 22:14:29.093972  5299 net.cpp:380] Eltwise15 -> Eltwise15
I1007 22:14:29.093991  5299 net.cpp:122] Setting up Eltwise15
I1007 22:14:29.093996  5299 net.cpp:129] Top shape: 100 64 7 7 (313600)
I1007 22:14:29.093997  5299 net.cpp:137] Memory required for data: 521517200
I1007 22:14:29.093999  5299 layer_factory.hpp:77] Creating layer M2PELU31
I1007 22:14:29.094004  5299 net.cpp:84] Creating Layer M2PELU31
I1007 22:14:29.094014  5299 net.cpp:406] M2PELU31 <- Eltwise15
I1007 22:14:29.094019  5299 net.cpp:367] M2PELU31 -> Eltwise15 (in-place)
I1007 22:14:29.094111  5299 net.cpp:122] Setting up M2PELU31
I1007 22:14:29.094116  5299 net.cpp:129] Top shape: 100 64 7 7 (313600)
I1007 22:14:29.094120  5299 net.cpp:137] Memory required for data: 522771600
I1007 22:14:29.094123  5299 layer_factory.hpp:77] Creating layer Pooling1
I1007 22:14:29.094130  5299 net.cpp:84] Creating Layer Pooling1
I1007 22:14:29.094131  5299 net.cpp:406] Pooling1 <- Eltwise15
I1007 22:14:29.094136  5299 net.cpp:380] Pooling1 -> Pooling1
I1007 22:14:29.095458  5299 net.cpp:122] Setting up Pooling1
I1007 22:14:29.095466  5299 net.cpp:129] Top shape: 100 64 1 1 (6400)
I1007 22:14:29.095469  5299 net.cpp:137] Memory required for data: 522797200
I1007 22:14:29.095472  5299 layer_factory.hpp:77] Creating layer InnerProduct1
I1007 22:14:29.095481  5299 net.cpp:84] Creating Layer InnerProduct1
I1007 22:14:29.095484  5299 net.cpp:406] InnerProduct1 <- Pooling1
I1007 22:14:29.095489  5299 net.cpp:380] InnerProduct1 -> InnerProduct1
I1007 22:14:29.095590  5299 net.cpp:122] Setting up InnerProduct1
I1007 22:14:29.095595  5299 net.cpp:129] Top shape: 100 10 (1000)
I1007 22:14:29.095598  5299 net.cpp:137] Memory required for data: 522801200
I1007 22:14:29.095603  5299 layer_factory.hpp:77] Creating layer SoftmaxWithLoss1
I1007 22:14:29.095608  5299 net.cpp:84] Creating Layer SoftmaxWithLoss1
I1007 22:14:29.095612  5299 net.cpp:406] SoftmaxWithLoss1 <- InnerProduct1
I1007 22:14:29.095614  5299 net.cpp:406] SoftmaxWithLoss1 <- Data2
I1007 22:14:29.095618  5299 net.cpp:380] SoftmaxWithLoss1 -> SoftmaxWithLoss1
…
I1007 22:14:29.100843  5299 net.cpp:294] The NetState phase (1) differed from the phase (0) specified by a rule in layer Data1
I1007 22:14:29.101518  5299 net.cpp:51] Initializing net from parameters: 
name: "resnet_cifar10"
state {
  phase: TEST
}
layer {
  name: "Data1"
  type: "Data"
  top: "Data1"
  top: "Data2"
  include {
    phase: TEST
  }
  transform_param {
    mean_file: "/home/x306/caffe/xn/PENLU/data/cifar10/mean.binaryproto"
  }
  data_param {
    source: "/home/x306/caffe/xn/PENLU/data/cifar10/cifar10_test_lmdb"
    batch_size: 100
    backend: LMDB
  }
}
layer {
  name: "Convolution1"
  type: "Convolution"
  bottom: "Data1"
  top: "Convolution1"
  param {
    lr_mult: 1
    decay_mult: 1
  }
  param {
    lr_mult: 2
    decay_mult: 0
  }
  convolution_param {
    num_output: 16
    pad: 1
    kernel_size: 3
    stride: 1
    weight_filler {
      type: "gaussian"
      std: 0.118
    }
    bias_filler {
      type: "constant"
      value: 0
    }
  }
}
layer {
  name: "BatchNorm1"
  type: "BatchNorm"
  bottom: "Convolution1"
  top: "Convolution1"
  param {
    lr_mult: 0
    decay_mult: 0
  }
  param {
    lr_mult: 0
    decay_mult: 0
  }
  param {
    lr_mult: 0
    decay_mult: 0
  }
}
layer {
  name: "Scale1"
  type: "Scale"
  bottom: "Convolution1"
  top: "Convolution1"
  scale_param {
    bias_term: true
  }
}
layer {
  name: "M2PELU1"
  type: "M2PELU"
  bottom: "Convolution1"
  top: "Convolution1"
  param {
    lr_mult: 2
    decay_mult: 2
  }
  param {
    lr_mult: 2
    decay_mult: 2
  }
  m2pelu_param {
    alpha_filler {
      type: "constant"
      value: 1
    }
    beta_filler {
      type: "constant"
      value: 1
    }
  }
}
layer {
  name: "Convolution2"
  type: "Convolution"
  bottom: "Convolution1"
  top: "Convolution2"
  param {
    lr_mult: 1
    decay_mult: 1
  }
  param {
    lr_mult: 2
    decay_mult: 0
  }
  convolution_param {
    num_output: 16
    pad: 1
    kernel_size: 3
    stride: 1
    weight_filler {
      type: "gaussian"
      std: 0.118
    }
    bias_filler {
      type: "constant"
      value: 0
    }
  }
}
layer {
  name: "BatchNorm2"
  type: "BatchNorm"
  bottom: "Convolution2"
  top: "Convolution2"
  param {
    lr_mult: 0
    decay_mult: 0
  }
  param {
    lr_mult: 0
    decay_mult: 0
  }
  param {
    lr_mult: 0
    decay_mult: 0
  }
}
layer {
  name: "Scale2"
  type: "Scale"
  bottom: "Convolution2"
  top: "Convolution2"
  scale_param {
    bias_term: true
  }
}
layer {
  name: "M2PELU2"
  type: "M2PELU"
  bottom: "Convolution2"
  top: "Convolution2"
  param {
    lr_mult: 2
    decay_mult: 2
  }
  param {
    lr_mult: 2
    decay_mult: 2
  }
  m2pelu_param {
    alpha_filler {
      type: "constant"
      value: 1
    }
    beta_filler {
      type: "constant"
      value: 1
    }
  }
}
layer {
  name: "Convolution3"
  type: "Convolution"
  bottom: "Convolution2"
  top: "Convolution3"
  param {
    lr_mult: 1
    decay_mult: 1
  }
  param {
    lr_mult: 2
    decay_mult: 0
  }
  convolution_param {
    num_output: 16
    pad: 1
    kernel_size: 3
    stride: 1
    weight_filler {
      type: "gaussian"
      std: 0.118
    }
    bias_filler {
      type: "constant"
      value: 0
    }
  }
}
layer {
  name: "BatchNorm3"
  type: "BatchNorm"
  bottom: "Convolution3"
  top: "Convolution3"
  param {
    lr_mult: 0
    decay_mult: 0
  }
  param {
    lr_mult: 0
    decay_mult: 0
  }
  param {
    lr_mult: 0
    decay_mult: 0
  }
}
layer {
  name: "Scale3"
  type: "Scale"
  bottom: "Convolution3"
  top: "Convolution3"
  scale_param {
    bias_term: true
  }
}
layer {
  name: "Eltwise1"
  type: "Eltwise"
  bottom: "Convolution1"
  bottom: "Convolution3"
  top: "Eltwise1"
  eltwise_param {
    operation: SUM
  }
}
layer {
  name: "M2PELU3"
  type: "M2PELU"
  bottom: "Eltwise1"
  top: "Eltwise1"
  param {
    lr_mult: 2
    decay_mult: 2
  }
  param {
    lr_mult: 2
    decay_mult: 2
  }
  m2pelu_param {
    alpha_filler {
      type: "constant"
      value: 1
    }
    beta_filler {
      type: "constant"
      value: 1
    }
  }
}
layer {
  name: "Convolution4"
  type: "Convolution"
  bottom: "Eltwise1"
  top: "Convolution4"
  param {
    lr_mult: 1
    decay_mult: 1
  }
  param {
    lr_mult: 2
    decay_mult: 0
  }
  convolution_param {
    num_output: 16
    pad: 1
    kernel_size: 3
    stride: 1
    weight_filler {
      type: "gaussian"
      std: 0.118
    }
    bias_filler {
      type: "constant"
      value: 0
    }
  }
}
layer {
  name: "BatchNorm4"
  type: "BatchNorm"
  bottom: "Convolution4"
  top: "Convolution4"
  param {
    lr_mult: 0
    decay_mult: 0
  }
  param {
    lr_mult: 0
    decay_mult: 0
  }
  param {
    lr_mult: 0
    decay_mult: 0
  }
}
layer {
  name: "Scale4"
  type: "Scale"
  bottom: "Convolution4"
  top: "Convolution4"
  scale_param {
    bias_term: true
  }
}
layer {
  name: "M2PELU4"
  type: "M2PELU"
  bottom: "Convolution4"
  top: "Convolution4"
  param {
    lr_mult: 2
    decay_mult: 2
  }
  param {
    lr_mult: 2
    decay_mult: 2
  }
  m2pelu_param {
    alpha_filler {
      type: "constant"
      value: 1
    }
    beta_filler {
      type: "constant"
      value: 1
    }
  }
}
layer {
  name: "Convolution5"
  type: "Convolution"
  bottom: "Convolution4"
  top: "Convolution5"
  param {
    lr_mult: 1
    decay_mult: 1
  }
  param {
    lr_mult: 2
    decay_mult: 0
  }
  convolution_param {
    num_output: 16
    pad: 1
    kernel_size: 3
    stride: 1
    weight_filler {
      type: "gaussian"
      std: 0.118
    }
    bias_filler {
      type: "constant"
      value: 0
    }
  }
}
layer {
  name: "BatchNorm5"
  type: "BatchNorm"
  bottom: "Convolution5"
  top: "Convolution5"
  param {
    lr_mult: 0
    decay_mult: 0
  }
  param {
    lr_mult: 0
    decay_mult: 0
  }
  param {
    lr_mult: 0
    decay_mult: 0
  }
}
layer {
  name: "Scale5"
  type: "Scale"
  bottom: "Convolution5"
  top: "Convolution5"
  scale_param {
    bias_term: true
  }
}
layer {
  name: "Eltwise2"
  type: "Eltwise"
  bottom: "Eltwise1"
  bottom: "Convolution5"
  top: "Eltwise2"
  eltwise_param {
    operation: SUM
  }
}
layer {
  name: "M2PELU5"
  type: "M2PELU"
  bottom: "Eltwise2"
  top: "Eltwise2"
  param {
    lr_mult: 2
    decay_mult: 2
  }
  param {
    lr_mult: 2
    decay_mult: 2
  }
  m2pelu_param {
    alpha_filler {
      type: "constant"
      value: 1
    }
    beta_filler {
      type: "constant"
      value: 1
    }
  }
}
layer {
  name: "Convolution6"
  type: "Convolution"
  bottom: "Eltwise2"
  top: "Convolution6"
  param {
    lr_mult: 1
    decay_mult: 1
  }
  param {
    lr_mult: 2
    decay_mult: 0
  }
  convolution_param {
    num_output: 16
    pad: 1
    kernel_size: 3
    stride: 1
    weight_filler {
      type: "gaussian"
      std: 0.118
    }
    bias_filler {
      type: "constant"
      value: 0
    }
  }
}
layer {
  name: "BatchNorm6"
  type: "BatchNorm"
  bottom: "Convolution6"
  top: "Convolution6"
  param {
    lr_mult: 0
    decay_mult: 0
  }
  param {
    lr_mult: 0
    decay_mult: 0
  }
  param {
    lr_mult: 0
    decay_mult: 0
  }
}
layer {
  name: "Scale6"
  type: "Scale"
  bottom: "Convolution6"
  top: "Convolution6"
  scale_param {
    bias_term: true
  }
}
layer {
  name: "M2PELU6"
  type: "M2PELU"
  bottom: "Convolution6"
  top: "Convolution6"
  param {
    lr_mult: 2
    decay_mult: 2
  }
  param {
    lr_mult: 2
    decay_mult: 2
  }
  m2pelu_param {
    alpha_filler {
      type: "constant"
      value: 1
    }
    beta_filler {
      type: "constant"
      value: 1
    }
  }
}
layer {
  name: "Convolution7"
  type: "Convolution"
  bottom: "Convolution6"
  top: "Convolution7"
  param {
    lr_mult: 1
    decay_mult: 1
  }
  param {
    lr_mult: 2
    decay_mult: 0
  }
  convolution_param {
    num_output: 16
    pad: 1
    kernel_size: 3
    stride: 1
    weight_filler {
      type: "gaussian"
      std: 0.118
    }
    bias_filler {
      type: "constant"
      value: 0
    }
  }
}
layer {
  name: "BatchNorm7"
  type: "BatchNorm"
  bottom: "Convolution7"
  top: "Convolution7"
  param {
    lr_mult: 0
    decay_mult: 0
  }
  param {
    lr_mult: 0
    decay_mult: 0
  }
  param {
    lr_mult: 0
    decay_mult: 0
  }
}
layer {
  name: "Scale7"
  type: "Scale"
  bottom: "Convolution7"
  top: "Convolution7"
  scale_param {
    bias_term: true
  }
}
layer {
  name: "Eltwise3"
  type: "Eltwise"
  bottom: "Eltwise2"
  bottom: "Convolution7"
  top: "Eltwise3"
  eltwise_param {
    operation: SUM
  }
}
layer {
  name: "M2PELU7"
  type: "M2PELU"
  bottom: "Eltwise3"
  top: "Eltwise3"
  param {
    lr_mult: 2
    decay_mult: 2
  }
  param {
    lr_mult: 2
    decay_mult: 2
  }
  m2pelu_param {
    alpha_filler {
      type: "constant"
      value: 1
    }
    beta_filler {
      type: "constant"
      value: 1
    }
  }
}
layer {
  name: "Convolution8"
  type: "Convolution"
  bottom: "Eltwise3"
  top: "Convolution8"
  param {
    lr_mult: 1
    decay_mult: 1
  }
  param {
    lr_mult: 2
    decay_mult: 0
  }
  convolution_param {
    num_output: 16
    pad: 1
    kernel_size: 3
    stride: 1
    weight_filler {
      type: "gaussian"
      std: 0.118
    }
    bias_filler {
      type: "constant"
      value: 0
    }
  }
}
layer {
  name: "BatchNorm8"
  type: "BatchNorm"
  bottom: "Convolution8"
  top: "Convolution8"
  param {
    lr_mult: 0
    decay_mult: 0
  }
  param {
    lr_mult: 0
    decay_mult: 0
  }
  param {
    lr_mult: 0
    decay_mult: 0
  }
}
layer {
  name: "Scale8"
  type: "Scale"
  bottom: "Convolution8"
  top: "Convolution8"
  scale_param {
    bias_term: true
  }
}
layer {
  name: "M2PELU8"
  type: "M2PELU"
  bottom: "Convolution8"
  top: "Convolution8"
  param {
    lr_mult: 2
    decay_mult: 2
  }
  param {
    lr_mult: 2
    decay_mult: 2
  }
  m2pelu_param {
    alpha_filler {
      type: "constant"
      value: 1
    }
    beta_filler {
      type: "constant"
      value: 1
    }
  }
}
layer {
  name: "Convolution9"
  type: "Convolution"
  bottom: "Convolution8"
  top: "Convolution9"
  param {
    lr_mult: 1
    decay_mult: 1
  }
  param {
    lr_mult: 2
    decay_mult: 0
  }
  convolution_param {
    num_output: 16
    pad: 1
    kernel_size: 3
    stride: 1
    weight_filler {
      type: "gaussian"
      std: 0.118
    }
    bias_filler {
      type: "constant"
      value: 0
    }
  }
}
layer {
  name: "BatchNorm9"
  type: "BatchNorm"
  bottom: "Convolution9"
  top: "Convolution9"
  param {
    lr_mult: 0
    decay_mult: 0
  }
  param {
    lr_mult: 0
    decay_mult: 0
  }
  param {
    lr_mult: 0
    decay_mult: 0
  }
}
layer {
  name: "Scale9"
  type: "Scale"
  bottom: "Convolution9"
  top: "Convolution9"
  scale_param {
    bias_term: true
  }
}
layer {
  name: "Eltwise4"
  type: "Eltwise"
  bottom: "Eltwise3"
  bottom: "Convolution9"
  top: "Eltwise4"
  eltwise_param {
    operation: SUM
  }
}
layer {
  name: "M2PELU9"
  type: "M2PELU"
  bottom: "Eltwise4"
  top: "Eltwise4"
  param {
    lr_mult: 2
    decay_mult: 2
  }
  param {
    lr_mult: 2
    decay_mult: 2
  }
  m2pelu_param {
    alpha_filler {
      type: "constant"
      value: 1
    }
    beta_filler {
      type: "constant"
      value: 1
    }
  }
}
layer {
  name: "Convolution10"
  type: "Convolution"
  bottom: "Eltwise4"
  top: "Convolution10"
  param {
    lr_mult: 1
    decay_mult: 1
  }
  param {
    lr_mult: 2
    decay_mult: 0
  }
  convolution_param {
    num_output: 16
    pad: 1
    kernel_size: 3
    stride: 1
    weight_filler {
      type: "gaussian"
      std: 0.118
    }
    bias_filler {
      type: "constant"
      value: 0
    }
  }
}
layer {
  name: "BatchNorm10"
  type: "BatchNorm"
  bottom: "Convolution10"
  top: "Convolution10"
  param {
    lr_mult: 0
    decay_mult: 0
  }
  param {
    lr_mult: 0
    decay_mult: 0
  }
  param {
    lr_mult: 0
    decay_mult: 0
  }
}
layer {
  name: "Scale10"
  type: "Scale"
  bottom: "Convolution10"
  top: "Convolution10"
  scale_param {
    bias_term: true
  }
}
layer {
  name: "M2PELU10"
  type: "M2PELU"
  bottom: "Convolution10"
  top: "Convolution10"
  param {
    lr_mult: 2
    decay_mult: 2
  }
  param {
    lr_mult: 2
    decay_mult: 2
  }
  m2pelu_param {
    alpha_filler {
      type: "constant"
      value: 1
    }
    beta_filler {
      type: "constant"
      value: 1
    }
  }
}
layer {
  name: "Convolution11"
  type: "Convolution"
  bottom: "Convolution10"
  top: "Convolution11"
  param {
    lr_mult: 1
    decay_mult: 1
  }
  param {
    lr_mult: 2
    decay_mult: 0
  }
  convolution_param {
    num_output: 16
    pad: 1
    kernel_size: 3
    stride: 1
    weight_filler {
      type: "gaussian"
      std: 0.118
    }
    bias_filler {
      type: "constant"
      value: 0
    }
  }
}
layer {
  name: "BatchNorm11"
  type: "BatchNorm"
  bottom: "Convolution11"
  top: "Convolution11"
  param {
    lr_mult: 0
    decay_mult: 0
  }
  param {
    lr_mult: 0
    decay_mult: 0
  }
  param {
    lr_mult: 0
    decay_mult: 0
  }
}
layer {
  name: "Scale11"
  type: "Scale"
  bottom: "Convolution11"
  top: "Convolution11"
  scale_param {
    bias_term: true
  }
}
layer {
  name: "Eltwise5"
  type: "Eltwise"
  bottom: "Eltwise4"
  bottom: "Convolution11"
  top: "Eltwise5"
  eltwise_param {
    operation: SUM
  }
}
layer {
  name: "M2PELU11"
  type: "M2PELU"
  bottom: "Eltwise5"
  top: "Eltwise5"
  param {
    lr_mult: 2
    decay_mult: 2
  }
  param {
    lr_mult: 2
    decay_mult: 2
  }
  m2pelu_param {
    alpha_filler {
      type: "constant"
      value: 1
    }
    beta_filler {
      type: "constant"
      value: 1
    }
  }
}
layer {
  name: "Convolution12"
  type: "Convolution"
  bottom: "Eltwise5"
  top: "Convolution12"
  param {
    lr_mult: 1
    decay_mult: 1
  }
  param {
    lr_mult: 2
    decay_mult: 0
  }
  convolution_param {
    num_output: 32
    pad: 0
    kernel_size: 1
    stride: 2
    weight_filler {
      type: "gaussian"
      std: 0.25
    }
    bias_filler {
      type: "constant"
      value: 0
    }
  }
}
layer {
  name: "BatchNorm12"
  type: "BatchNorm"
  bottom: "Convolution12"
  top: "Convolution12"
  param {
    lr_mult: 0
    decay_mult: 0
  }
  param {
    lr_mult: 0
    decay_mult: 0
  }
  param {
    lr_mult: 0
    decay_mult: 0
  }
}
layer {
  name: "Scale12"
  type: "Scale"
  bottom: "Convolution12"
  top: "Convolution12"
  scale_param {
    bias_term: true
  }
}
layer {
  name: "Convolution13"
  type: "Convolution"
  bottom: "Eltwise5"
  top: "Convolution13"
  param {
    lr_mult: 1
    decay_mult: 1
  }
  param {
    lr_mult: 2
    decay_mult: 0
  }
  convolution_param {
    num_output: 32
    pad: 1
    kernel_size: 3
    stride: 2
    weight_filler {
      type: "gaussian"
      std: 0.083
    }
    bias_filler {
      type: "constant"
      value: 0
    }
  }
}
layer {
  name: "BatchNorm13"
  type: "BatchNorm"
  bottom: "Convolution13"
  top: "Convolution13"
  param {
    lr_mult: 0
    decay_mult: 0
  }
  param {
    lr_mult: 0
    decay_mult: 0
  }
  param {
    lr_mult: 0
    decay_mult: 0
  }
}
layer {
  name: "Scale13"
  type: "Scale"
  bottom: "Convolution13"
  top: "Convolution13"
  scale_param {
    bias_term: true
  }
}
layer {
  name: "M2PELU12"
  type: "M2PELU"
  bottom: "Convolution13"
  top: "Convolution13"
  param {
    lr_mult: 2
    decay_mult: 2
  }
  param {
    lr_mult: 2
    decay_mult: 2
  }
  m2pelu_param {
    alpha_filler {
      type: "constant"
      value: 1
    }
    beta_filler {
      type: "constant"
      value: 1
    }
  }
}
layer {
  name: "Convolution14"
  type: "Convolution"
  bottom: "Convolution13"
  top: "Convolution14"
  param {
    lr_mult: 1
    decay_mult: 1
  }
  param {
    lr_mult: 2
    decay_mult: 0
  }
  convolution_param {
    num_output: 32
    pad: 1
    kernel_size: 3
    stride: 1
    weight_filler {
      type: "gaussian"
      std: 0.083
    }
    bias_filler {
      type: "constant"
      value: 0
    }
  }
}
layer {
  name: "BatchNorm14"
  type: "BatchNorm"
  bottom: "Convolution14"
  top: "Convolution14"
  param {
    lr_mult: 0
    decay_mult: 0
  }
  param {
    lr_mult: 0
    decay_mult: 0
  }
  param {
    lr_mult: 0
    decay_mult: 0
  }
}
layer {
  name: "Scale14"
  type: "Scale"
  bottom: "Convolution14"
  top: "Convolution14"
  scale_param {
    bias_term: true
  }
}
layer {
  name: "Eltwise6"
  type: "Eltwise"
  bottom: "Convolution12"
  bottom: "Convolution14"
  top: "Eltwise6"
  eltwise_param {
    operation: SUM
  }
}
layer {
  name: "M2PELU13"
  type: "M2PELU"
  bottom: "Eltwise6"
  top: "Eltwise6"
  param {
    lr_mult: 2
    decay_mult: 2
  }
  param {
    lr_mult: 2
    decay_mult: 2
  }
  m2pelu_param {
    alpha_filler {
      type: "constant"
      value: 1
    }
    beta_filler {
      type: "constant"
      value: 1
    }
  }
}
layer {
  name: "Convolution15"
  type: "Convolution"
  bottom: "Eltwise6"
  top: "Convolution15"
  param {
    lr_mult: 1
    decay_mult: 1
  }
  param {
    lr_mult: 2
    decay_mult: 0
  }
  convolution_param {
    num_output: 32
    pad: 1
    kernel_size: 3
    stride: 1
    weight_filler {
      type: "gaussian"
      std: 0.083
    }
    bias_filler {
      type: "constant"
      value: 0
    }
  }
}
layer {
  name: "BatchNorm15"
  type: "BatchNorm"
  bottom: "Convolution15"
  top: "Convolution15"
  param {
    lr_mult: 0
    decay_mult: 0
  }
  param {
    lr_mult: 0
    decay_mult: 0
  }
  param {
    lr_mult: 0
    decay_mult: 0
  }
}
layer {
  name: "Scale15"
  type: "Scale"
  bottom: "Convolution15"
  top: "Convolution15"
  scale_param {
    bias_term: true
  }
}
layer {
  name: "M2PELU14"
  type: "M2PELU"
  bottom: "Convolution15"
  top: "Convolution15"
  param {
    lr_mult: 2
    decay_mult: 2
  }
  param {
    lr_mult: 2
    decay_mult: 2
  }
  m2pelu_param {
    alpha_filler {
      type: "constant"
      value: 1
    }
    beta_filler {
      type: "constant"
      value: 1
    }
  }
}
layer {
  name: "Convolution16"
  type: "Convolution"
  bottom: "Convolution15"
  top: "Convolution16"
  param {
    lr_mult: 1
    decay_mult: 1
  }
  param {
    lr_mult: 2
    decay_mult: 0
  }
  convolution_param {
    num_output: 32
    pad: 1
    kernel_size: 3
    stride: 1
    weight_filler {
      type: "gaussian"
      std: 0.083
    }
    bias_filler {
      type: "constant"
      value: 0
    }
  }
}
layer {
  name: "BatchNorm16"
  type: "BatchNorm"
  bottom: "Convolution16"
  top: "Convolution16"
  param {
    lr_mult: 0
    decay_mult: 0
  }
  param {
    lr_mult: 0
    decay_mult: 0
  }
  param {
    lr_mult: 0
    decay_mult: 0
  }
}
layer {
  name: "Scale16"
  type: "Scale"
  bottom: "Convolution16"
  top: "Convolution16"
  scale_param {
    bias_term: true
  }
}
layer {
  name: "Eltwise7"
  type: "Eltwise"
  bottom: "Eltwise6"
  bottom: "Convolution16"
  top: "Eltwise7"
  eltwise_param {
    operation: SUM
  }
}
layer {
  name: "M2PELU15"
  type: "M2PELU"
  bottom: "Eltwise7"
  top: "Eltwise7"
  param {
    lr_mult: 2
    decay_mult: 2
  }
  param {
    lr_mult: 2
    decay_mult: 2
  }
  m2pelu_param {
    alpha_filler {
      type: "constant"
      value: 1
    }
    beta_filler {
      type: "constant"
      value: 1
    }
  }
}
layer {
  name: "Convolution17"
  type: "Convolution"
  bottom: "Eltwise7"
  top: "Convolution17"
  param {
    lr_mult: 1
    decay_mult: 1
  }
  param {
    lr_mult: 2
    decay_mult: 0
  }
  convolution_param {
    num_output: 32
    pad: 1
    kernel_size: 3
    stride: 1
    weight_filler {
      type: "gaussian"
      std: 0.083
    }
    bias_filler {
      type: "constant"
      value: 0
    }
  }
}
layer {
  name: "BatchNorm17"
  type: "BatchNorm"
  bottom: "Convolution17"
  top: "Convolution17"
  param {
    lr_mult: 0
    decay_mult: 0
  }
  param {
    lr_mult: 0
    decay_mult: 0
  }
  param {
    lr_mult: 0
    decay_mult: 0
  }
}
layer {
  name: "Scale17"
  type: "Scale"
  bottom: "Convolution17"
  top: "Convolution17"
  scale_param {
    bias_term: true
  }
}
layer {
  name: "M2PELU16"
  type: "M2PELU"
  bottom: "Convolution17"
  top: "Convolution17"
  param {
    lr_mult: 2
    decay_mult: 2
  }
  param {
    lr_mult: 2
    decay_mult: 2
  }
  m2pelu_param {
    alpha_filler {
      type: "constant"
      value: 1
    }
    beta_filler {
      type: "constant"
      value: 1
    }
  }
}
layer {
  name: "Convolution18"
  type: "Convolution"
  bottom: "Convolution17"
  top: "Convolution18"
  param {
    lr_mult: 1
    decay_mult: 1
  }
  param {
    lr_mult: 2
    decay_mult: 0
  }
  convolution_param {
    num_output: 32
    pad: 1
    kernel_size: 3
    stride: 1
    weight_filler {
      type: "gaussian"
      std: 0.083
    }
    bias_filler {
      type: "constant"
      value: 0
    }
  }
}
layer {
  name: "BatchNorm18"
  type: "BatchNorm"
  bottom: "Convolution18"
  top: "Convolution18"
  param {
    lr_mult: 0
    decay_mult: 0
  }
  param {
    lr_mult: 0
    decay_mult: 0
  }
  param {
    lr_mult: 0
    decay_mult: 0
  }
}
layer {
  name: "Scale18"
  type: "Scale"
  bottom: "Convolution18"
  top: "Convolution18"
  scale_param {
    bias_term: true
  }
}
layer {
  name: "Eltwise8"
  type: "Eltwise"
  bottom: "Eltwise7"
  bottom: "Convolution18"
  top: "Eltwise8"
  eltwise_param {
    operation: SUM
  }
}
layer {
  name: "M2PELU17"
  type: "M2PELU"
  bottom: "Eltwise8"
  top: "Eltwise8"
  param {
    lr_mult: 2
    decay_mult: 2
  }
  param {
    lr_mult: 2
    decay_mult: 2
  }
  m2pelu_param {
    alpha_filler {
      type: "constant"
      value: 1
    }
    beta_filler {
      type: "constant"
      value: 1
    }
  }
}
layer {
  name: "Convolution19"
  type: "Convolution"
  bottom: "Eltwise8"
  top: "Convolution19"
  param {
    lr_mult: 1
    decay_mult: 1
  }
  param {
    lr_mult: 2
    decay_mult: 0
  }
  convolution_param {
    num_output: 32
    pad: 1
    kernel_size: 3
    stride: 1
    weight_filler {
      type: "gaussian"
      std: 0.083
    }
    bias_filler {
      type: "constant"
      value: 0
    }
  }
}
layer {
  name: "BatchNorm19"
  type: "BatchNorm"
  bottom: "Convolution19"
  top: "Convolution19"
  param {
    lr_mult: 0
    decay_mult: 0
  }
  param {
    lr_mult: 0
    decay_mult: 0
  }
  param {
    lr_mult: 0
    decay_mult: 0
  }
}
layer {
  name: "Scale19"
  type: "Scale"
  bottom: "Convolution19"
  top: "Convolution19"
  scale_param {
    bias_term: true
  }
}
layer {
  name: "M2PELU18"
  type: "M2PELU"
  bottom: "Convolution19"
  top: "Convolution19"
  param {
    lr_mult: 2
    decay_mult: 2
  }
  param {
    lr_mult: 2
    decay_mult: 2
  }
  m2pelu_param {
    alpha_filler {
      type: "constant"
      value: 1
    }
    beta_filler {
      type: "constant"
      value: 1
    }
  }
}
layer {
  name: "Convolution20"
  type: "Convolution"
  bottom: "Convolution19"
  top: "Convolution20"
  param {
    lr_mult: 1
    decay_mult: 1
  }
  param {
    lr_mult: 2
    decay_mult: 0
  }
  convolution_param {
    num_output: 32
    pad: 1
    kernel_size: 3
    stride: 1
    weight_filler {
      type: "gaussian"
      std: 0.083
    }
    bias_filler {
      type: "constant"
      value: 0
    }
  }
}
layer {
  name: "BatchNorm20"
  type: "BatchNorm"
  bottom: "Convolution20"
  top: "Convolution20"
  param {
    lr_mult: 0
    decay_mult: 0
  }
  param {
    lr_mult: 0
    decay_mult: 0
  }
  param {
    lr_mult: 0
    decay_mult: 0
  }
}
layer {
  name: "Scale20"
  type: "Scale"
  bottom: "Convolution20"
  top: "Convolution20"
  scale_param {
    bias_term: true
  }
}
layer {
  name: "Eltwise9"
  type: "Eltwise"
  bottom: "Eltwise8"
  bottom: "Convolution20"
  top: "Eltwise9"
  eltwise_param {
    operation: SUM
  }
}
layer {
  name: "M2PELU19"
  type: "M2PELU"
  bottom: "Eltwise9"
  top: "Eltwise9"
  param {
    lr_mult: 2
    decay_mult: 2
  }
  param {
    lr_mult: 2
    decay_mult: 2
  }
  m2pelu_param {
    alpha_filler {
      type: "constant"
      value: 1
    }
    beta_filler {
      type: "constant"
      value: 1
    }
  }
}
layer {
  name: "Convolution21"
  type: "Convolution"
  bottom: "Eltwise9"
  top: "Convolution21"
  param {
    lr_mult: 1
    decay_mult: 1
  }
  param {
    lr_mult: 2
    decay_mult: 0
  }
  convolution_param {
    num_output: 32
    pad: 1
    kernel_size: 3
    stride: 1
    weight_filler {
      type: "gaussian"
      std: 0.083
    }
    bias_filler {
      type: "constant"
      value: 0
    }
  }
}
layer {
  name: "BatchNorm21"
  type: "BatchNorm"
  bottom: "Convolution21"
  top: "Convolution21"
  param {
    lr_mult: 0
    decay_mult: 0
  }
  param {
    lr_mult: 0
    decay_mult: 0
  }
  param {
    lr_mult: 0
    decay_mult: 0
  }
}
layer {
  name: "Scale21"
  type: "Scale"
  bottom: "Convolution21"
  top: "Convolution21"
  scale_param {
    bias_term: true
  }
}
layer {
  name: "M2PELU20"
  type: "M2PELU"
  bottom: "Convolution21"
  top: "Convolution21"
  param {
    lr_mult: 2
    decay_mult: 2
  }
  param {
    lr_mult: 2
    decay_mult: 2
  }
  m2pelu_param {
    alpha_filler {
      type: "constant"
      value: 1
    }
    beta_filler {
      type: "constant"
      value: 1
    }
  }
}
layer {
  name: "Convolution22"
  type: "Convolution"
  bottom: "Convolution21"
  top: "Convolution22"
  param {
    lr_mult: 1
    decay_mult: 1
  }
  param {
    lr_mult: 2
    decay_mult: 0
  }
  convolution_param {
    num_output: 32
    pad: 1
    kernel_size: 3
    stride: 1
    weight_filler {
      type: "gaussian"
      std: 0.083
    }
    bias_filler {
      type: "constant"
      value: 0
    }
  }
}
layer {
  name: "BatchNorm22"
  type: "BatchNorm"
  bottom: "Convolution22"
  top: "Convolution22"
  param {
    lr_mult: 0
    decay_mult: 0
  }
  param {
    lr_mult: 0
    decay_mult: 0
  }
  param {
    lr_mult: 0
    decay_mult: 0
  }
}
layer {
  name: "Scale22"
  type: "Scale"
  bottom: "Convolution22"
  top: "Convolution22"
  scale_param {
    bias_term: true
  }
}
layer {
  name: "Eltwise10"
  type: "Eltwise"
  bottom: "Eltwise9"
  bottom: "Convolution22"
  top: "Eltwise10"
  eltwise_param {
    operation: SUM
  }
}
layer {
  name: "M2PELU21"
  type: "M2PELU"
  bottom: "Eltwise10"
  top: "Eltwise10"
  param {
    lr_mult: 2
    decay_mult: 2
  }
  param {
    lr_mult: 2
    decay_mult: 2
  }
  m2pelu_param {
    alpha_filler {
      type: "constant"
      value: 1
    }
    beta_filler {
      type: "constant"
      value: 1
    }
  }
}
layer {
  name: "Convolution23"
  type: "Convolution"
  bottom: "Eltwise10"
  top: "Convolution23"
  param {
    lr_mult: 1
    decay_mult: 1
  }
  param {
    lr_mult: 2
    decay_mult: 0
  }
  convolution_param {
    num_output: 64
    pad: 0
    kernel_size: 1
    stride: 2
    weight_filler {
      type: "gaussian"
      std: 0.17677669
    }
    bias_filler {
      type: "constant"
      value: 0
    }
  }
}
layer {
  name: "BatchNorm23"
  type: "BatchNorm"
  bottom: "Convolution23"
  top: "Convolution23"
  param {
    lr_mult: 0
    decay_mult: 0
  }
  param {
    lr_mult: 0
    decay_mult: 0
  }
  param {
    lr_mult: 0
    decay_mult: 0
  }
}
layer {
  name: "Scale23"
  type: "Scale"
  bottom: "Convolution23"
  top: "Convolution23"
  scale_param {
    bias_term: true
  }
}
layer {
  name: "Convolution24"
  type: "Convolution"
  bottom: "Eltwise10"
  top: "Convolution24"
  param {
    lr_mult: 1
    decay_mult: 1
  }
  param {
    lr_mult: 2
    decay_mult: 0
  }
  convolution_param {
    num_output: 64
    pad: 1
    kernel_size: 3
    stride: 2
    weight_filler {
      type: "gaussian"
      std: 0.059
    }
    bias_filler {
      type: "constant"
      value: 0
    }
  }
}
layer {
  name: "BatchNorm24"
  type: "BatchNorm"
  bottom: "Convolution24"
  top: "Convolution24"
  param {
    lr_mult: 0
    decay_mult: 0
  }
  param {
    lr_mult: 0
    decay_mult: 0
  }
  param {
    lr_mult: 0
    decay_mult: 0
  }
}
layer {
  name: "Scale24"
  type: "Scale"
  bottom: "Convolution24"
  top: "Convolution24"
  scale_param {
    bias_term: true
  }
}
layer {
  name: "M2PELU22"
  type: "M2PELU"
  bottom: "Convolution24"
  top: "Convolution24"
  param {
    lr_mult: 2
    decay_mult: 2
  }
  param {
    lr_mult: 2
    decay_mult: 2
  }
  m2pelu_param {
    alpha_filler {
      type: "constant"
      value: 1
    }
    beta_filler {
      type: "constant"
      value: 1
    }
  }
}
layer {
  name: "Convolution25"
  type: "Convolution"
  bottom: "Convolution24"
  top: "Convolution25"
  param {
    lr_mult: 1
    decay_mult: 1
  }
  param {
    lr_mult: 2
    decay_mult: 0
  }
  convolution_param {
    num_output: 64
    pad: 1
    kernel_size: 3
    stride: 1
    weight_filler {
      type: "gaussian"
      std: 0.059
    }
    bias_filler {
      type: "constant"
      value: 0
    }
  }
}
layer {
  name: "BatchNorm25"
  type: "BatchNorm"
  bottom: "Convolution25"
  top: "Convolution25"
  param {
    lr_mult: 0
    decay_mult: 0
  }
  param {
    lr_mult: 0
    decay_mult: 0
  }
  param {
    lr_mult: 0
    decay_mult: 0
  }
}
layer {
  name: "Scale25"
  type: "Scale"
  bottom: "Convolution25"
  top: "Convolution25"
  scale_param {
    bias_term: true
  }
}
layer {
  name: "Eltwise11"
  type: "Eltwise"
  bottom: "Convolution23"
  bottom: "Convolution25"
  top: "Eltwise11"
  eltwise_param {
    operation: SUM
  }
}
layer {
  name: "M2PELU23"
  type: "M2PELU"
  bottom: "Eltwise11"
  top: "Eltwise11"
  param {
    lr_mult: 2
    decay_mult: 2
  }
  param {
    lr_mult: 2
    decay_mult: 2
  }
  m2pelu_param {
    alpha_filler {
      type: "constant"
      value: 1
    }
    beta_filler {
      type: "constant"
      value: 1
    }
  }
}
layer {
  name: "Convolution26"
  type: "Convolution"
  bottom: "Eltwise11"
  top: "Convolution26"
  param {
    lr_mult: 1
    decay_mult: 1
  }
  param {
    lr_mult: 2
    decay_mult: 0
  }
  convolution_param {
    num_output: 64
    pad: 1
    kernel_size: 3
    stride: 1
    weight_filler {
      type: "gaussian"
      std: 0.059
    }
    bias_filler {
      type: "constant"
      value: 0
    }
  }
}
layer {
  name: "BatchNorm26"
  type: "BatchNorm"
  bottom: "Convolution26"
  top: "Convolution26"
  param {
    lr_mult: 0
    decay_mult: 0
  }
  param {
    lr_mult: 0
    decay_mult: 0
  }
  param {
    lr_mult: 0
    d
I1007 22:14:29.101910  5299 layer_factory.hpp:77] Creating layer Data1
I1007 22:14:29.101941  5299 db_lmdb.cpp:35] Opened lmdb /home/x306/caffe/xn/PENLU/data/cifar10/cifar10_test_lmdb
I1007 22:14:29.101956  5299 net.cpp:84] Creating Layer Data1
I1007 22:14:29.101960  5299 net.cpp:380] Data1 -> Data1
I1007 22:14:29.101966  5299 net.cpp:380] Data1 -> Data2
I1007 22:14:29.101971  5299 data_transformer.cpp:25] Loading mean file from: /home/x306/caffe/xn/PENLU/data/cifar10/mean.binaryproto
…
I1007 22:14:29.200920  5299 layer_factory.hpp:77] Creating layer Convolution16
I1007 22:14:29.200928  5299 net.cpp:84] Creating Layer Convolution16
I1007 22:14:29.200930  5299 net.cpp:406] Convolution16 <- Convolution15
I1007 22:14:29.200934  5299 net.cpp:380] Convolution16 -> Convolution16
I1007 22:14:29.206778  5299 net.cpp:122] Setting up Convolution16
I1007 22:14:29.206790  5299 net.cpp:129] Top shape: 100 32 16 16 (819200)
I1007 22:14:29.206795  5299 net.cpp:137] Memory required for data: 463258800
I1007 22:14:29.206804  5299 layer_factory.hpp:77] Creating layer BatchNorm16
I1007 22:14:29.206811  5299 net.cpp:84] Creating Layer BatchNorm16
I1007 22:14:29.206815  5299 net.cpp:406] BatchNorm16 <- Convolution16
I1007 22:14:29.206823  5299 net.cpp:367] BatchNorm16 -> Convolution16 (in-place)
I1007 22:14:29.207041  5299 net.cpp:122] Setting up BatchNorm16
I1007 22:14:29.207051  5299 net.cpp:129] Top shape: 100 32 16 16 (819200)
I1007 22:14:29.207056  5299 net.cpp:137] Memory required for data: 466535600
I1007 22:14:29.207063  5299 layer_factory.hpp:77] Creating layer Scale16
I1007 22:14:29.207072  5299 net.cpp:84] Creating Layer Scale16
I1007 22:14:29.207075  5299 net.cpp:406] Scale16 <- Convolution16
I1007 22:14:29.207082  5299 net.cpp:367] Scale16 -> Convolution16 (in-place)
I1007 22:14:29.207125  5299 layer_factory.hpp:77] Creating layer Scale16
I1007 22:14:29.207244  5299 net.cpp:122] Setting up Scale16
I1007 22:14:29.207253  5299 net.cpp:129] Top shape: 100 32 16 16 (819200)
I1007 22:14:29.207257  5299 net.cpp:137] Memory required for data: 469812400
I1007 22:14:29.207264  5299 layer_factory.hpp:77] Creating layer Eltwise7
I1007 22:14:29.207270  5299 net.cpp:84] Creating Layer Eltwise7
I1007 22:14:29.207278  5299 net.cpp:406] Eltwise7 <- Eltwise6_M2PELU13_0_split_1
I1007 22:14:29.207283  5299 net.cpp:406] Eltwise7 <- Convolution16
I1007 22:14:29.207288  5299 net.cpp:380] Eltwise7 -> Eltwise7
I1007 22:14:29.207311  5299 net.cpp:122] Setting up Eltwise7
I1007 22:14:29.207319  5299 net.cpp:129] Top shape: 100 32 16 16 (819200)
I1007 22:14:29.207322  5299 net.cpp:137] Memory required for data: 473089200
I1007 22:14:29.207325  5299 layer_factory.hpp:77] Creating layer M2PELU15
I1007 22:14:29.207334  5299 net.cpp:84] Creating Layer M2PELU15
I1007 22:14:29.207339  5299 net.cpp:406] M2PELU15 <- Eltwise7
I1007 22:14:29.207345  5299 net.cpp:367] M2PELU15 -> Eltwise7 (in-place)
I1007 22:14:29.207489  5299 net.cpp:122] Setting up M2PELU15
I1007 22:14:29.207499  5299 net.cpp:129] Top shape: 100 32 16 16 (819200)
I1007 22:14:29.207501  5299 net.cpp:137] Memory required for data: 476366000
I1007 22:14:29.207509  5299 layer_factory.hpp:77] Creating layer Eltwise7_M2PELU15_0_split
I1007 22:14:29.207515  5299 net.cpp:84] Creating Layer Eltwise7_M2PELU15_0_split
I1007 22:14:29.207518  5299 net.cpp:406] Eltwise7_M2PELU15_0_split <- Eltwise7
I1007 22:14:29.207525  5299 net.cpp:380] Eltwise7_M2PELU15_0_split -> Eltwise7_M2PELU15_0_split_0
I1007 22:14:29.207532  5299 net.cpp:380] Eltwise7_M2PELU15_0_split -> Eltwise7_M2PELU15_0_split_1
I1007 22:14:29.207572  5299 net.cpp:122] Setting up Eltwise7_M2PELU15_0_split
I1007 22:14:29.207581  5299 net.cpp:129] Top shape: 100 32 16 16 (819200)
I1007 22:14:29.207586  5299 net.cpp:129] Top shape: 100 32 16 16 (819200)
I1007 22:14:29.207589  5299 net.cpp:137] Memory required for data: 482919600
I1007 22:14:29.207593  5299 layer_factory.hpp:77] Creating layer Convolution17
I1007 22:14:29.207613  5299 net.cpp:84] Creating Layer Convolution17
I1007 22:14:29.207618  5299 net.cpp:406] Convolution17 <- Eltwise7_M2PELU15_0_split_0
I1007 22:14:29.207625  5299 net.cpp:380] Convolution17 -> Convolution17
I1007 22:14:29.214148  5299 net.cpp:122] Setting up Convolution17
I1007 22:14:29.214156  5299 net.cpp:129] Top shape: 100 32 16 16 (819200)
I1007 22:14:29.214159  5299 net.cpp:137] Memory required for data: 486196400
I1007 22:14:29.214164  5299 layer_factory.hpp:77] Creating layer BatchNorm17
I1007 22:14:29.214169  5299 net.cpp:84] Creating Layer BatchNorm17
I1007 22:14:29.214171  5299 net.cpp:406] BatchNorm17 <- Convolution17
I1007 22:14:29.214175  5299 net.cpp:367] BatchNorm17 -> Convolution17 (in-place)
I1007 22:14:29.214316  5299 net.cpp:122] Setting up BatchNorm17
I1007 22:14:29.214320  5299 net.cpp:129] Top shape: 100 32 16 16 (819200)
I1007 22:14:29.214323  5299 net.cpp:137] Memory required for data: 489473200
I1007 22:14:29.214328  5299 layer_factory.hpp:77] Creating layer Scale17
I1007 22:14:29.214331  5299 net.cpp:84] Creating Layer Scale17
I1007 22:14:29.214334  5299 net.cpp:406] Scale17 <- Convolution17
I1007 22:14:29.214337  5299 net.cpp:367] Scale17 -> Convolution17 (in-place)
I1007 22:14:29.214367  5299 layer_factory.hpp:77] Creating layer Scale17
I1007 22:14:29.214447  5299 net.cpp:122] Setting up Scale17
I1007 22:14:29.214452  5299 net.cpp:129] Top shape: 100 32 16 16 (819200)
I1007 22:14:29.214453  5299 net.cpp:137] Memory required for data: 492750000
I1007 22:14:29.214457  5299 layer_factory.hpp:77] Creating layer M2PELU16
I1007 22:14:29.214462  5299 net.cpp:84] Creating Layer M2PELU16
I1007 22:14:29.214465  5299 net.cpp:406] M2PELU16 <- Convolution17
I1007 22:14:29.214468  5299 net.cpp:367] M2PELU16 -> Convolution17 (in-place)
I1007 22:14:29.214555  5299 net.cpp:122] Setting up M2PELU16
I1007 22:14:29.214560  5299 net.cpp:129] Top shape: 100 32 16 16 (819200)
I1007 22:14:29.214561  5299 net.cpp:137] Memory required for data: 496026800
I1007 22:14:29.214565  5299 layer_factory.hpp:77] Creating layer Convolution18
I1007 22:14:29.214572  5299 net.cpp:84] Creating Layer Convolution18
I1007 22:14:29.214574  5299 net.cpp:406] Convolution18 <- Convolution17
I1007 22:14:29.214578  5299 net.cpp:380] Convolution18 -> Convolution18
I1007 22:14:29.218004  5299 net.cpp:122] Setting up Convolution18
I1007 22:14:29.218014  5299 net.cpp:129] Top shape: 100 32 16 16 (819200)
I1007 22:14:29.218015  5299 net.cpp:137] Memory required for data: 499303600
I1007 22:14:29.218020  5299 layer_factory.hpp:77] Creating layer BatchNorm18
I1007 22:14:29.218025  5299 net.cpp:84] Creating Layer BatchNorm18
I1007 22:14:29.218029  5299 net.cpp:406] BatchNorm18 <- Convolution18
I1007 22:14:29.218031  5299 net.cpp:367] BatchNorm18 -> Convolution18 (in-place)
I1007 22:14:29.218173  5299 net.cpp:122] Setting up BatchNorm18
I1007 22:14:29.218178  5299 net.cpp:129] Top shape: 100 32 16 16 (819200)
I1007 22:14:29.218180  5299 net.cpp:137] Memory required for data: 502580400
I1007 22:14:29.218185  5299 layer_factory.hpp:77] Creating layer Scale18
I1007 22:14:29.218189  5299 net.cpp:84] Creating Layer Scale18
I1007 22:14:29.218191  5299 net.cpp:406] Scale18 <- Convolution18
I1007 22:14:29.218194  5299 net.cpp:367] Scale18 -> Convolution18 (in-place)
I1007 22:14:29.218224  5299 layer_factory.hpp:77] Creating layer Scale18
I1007 22:14:29.218304  5299 net.cpp:122] Setting up Scale18
I1007 22:14:29.218308  5299 net.cpp:129] Top shape: 100 32 16 16 (819200)
I1007 22:14:29.218310  5299 net.cpp:137] Memory required for data: 505857200
I1007 22:14:29.218314  5299 layer_factory.hpp:77] Creating layer Eltwise8
I1007 22:14:29.218320  5299 net.cpp:84] Creating Layer Eltwise8
I1007 22:14:29.218322  5299 net.cpp:406] Eltwise8 <- Eltwise7_M2PELU15_0_split_1
I1007 22:14:29.218325  5299 net.cpp:406] Eltwise8 <- Convolution18
I1007 22:14:29.218329  5299 net.cpp:380] Eltwise8 -> Eltwise8
I1007 22:14:29.218343  5299 net.cpp:122] Setting up Eltwise8
I1007 22:14:29.218348  5299 net.cpp:129] Top shape: 100 32 16 16 (819200)
I1007 22:14:29.218358  5299 net.cpp:137] Memory required for data: 509134000
I1007 22:14:29.218359  5299 layer_factory.hpp:77] Creating layer M2PELU17
I1007 22:14:29.218365  5299 net.cpp:84] Creating Layer M2PELU17
I1007 22:14:29.218367  5299 net.cpp:406] M2PELU17 <- Eltwise8
I1007 22:14:29.218370  5299 net.cpp:367] M2PELU17 -> Eltwise8 (in-place)
I1007 22:14:29.218466  5299 net.cpp:122] Setting up M2PELU17
I1007 22:14:29.218469  5299 net.cpp:129] Top shape: 100 32 16 16 (819200)
I1007 22:14:29.218472  5299 net.cpp:137] Memory required for data: 512410800
I1007 22:14:29.218475  5299 layer_factory.hpp:77] Creating layer Eltwise8_M2PELU17_0_split
I1007 22:14:29.218479  5299 net.cpp:84] Creating Layer Eltwise8_M2PELU17_0_split
I1007 22:14:29.218482  5299 net.cpp:406] Eltwise8_M2PELU17_0_split <- Eltwise8
I1007 22:14:29.218485  5299 net.cpp:380] Eltwise8_M2PELU17_0_split -> Eltwise8_M2PELU17_0_split_0
I1007 22:14:29.218490  5299 net.cpp:380] Eltwise8_M2PELU17_0_split -> Eltwise8_M2PELU17_0_split_1
I1007 22:14:29.218515  5299 net.cpp:122] Setting up Eltwise8_M2PELU17_0_split
I1007 22:14:29.218519  5299 net.cpp:129] Top shape: 100 32 16 16 (819200)
I1007 22:14:29.218523  5299 net.cpp:129] Top shape: 100 32 16 16 (819200)
I1007 22:14:29.218524  5299 net.cpp:137] Memory required for data: 518964400
I1007 22:14:29.218526  5299 layer_factory.hpp:77] Creating layer Convolution19
I1007 22:14:29.218531  5299 net.cpp:84] Creating Layer Convolution19
I1007 22:14:29.218534  5299 net.cpp:406] Convolution19 <- Eltwise8_M2PELU17_0_split_0
I1007 22:14:29.218538  5299 net.cpp:380] Convolution19 -> Convolution19
I1007 22:14:29.224326  5299 net.cpp:122] Setting up Convolution19
I1007 22:14:29.224335  5299 net.cpp:129] Top shape: 100 32 16 16 (819200)
I1007 22:14:29.224339  5299 net.cpp:137] Memory required for data: 522241200
I1007 22:14:29.224342  5299 layer_factory.hpp:77] Creating layer BatchNorm19
I1007 22:14:29.224347  5299 net.cpp:84] Creating Layer BatchNorm19
I1007 22:14:29.224349  5299 net.cpp:406] BatchNorm19 <- Convolution19
I1007 22:14:29.224354  5299 net.cpp:367] BatchNorm19 -> Convolution19 (in-place)
I1007 22:14:29.224498  5299 net.cpp:122] Setting up BatchNorm19
I1007 22:14:29.224503  5299 net.cpp:129] Top shape: 100 32 16 16 (819200)
I1007 22:14:29.224504  5299 net.cpp:137] Memory required for data: 525518000
I1007 22:14:29.224509  5299 layer_factory.hpp:77] Creating layer Scale19
I1007 22:14:29.224514  5299 net.cpp:84] Creating Layer Scale19
I1007 22:14:29.224515  5299 net.cpp:406] Scale19 <- Convolution19
I1007 22:14:29.224519  5299 net.cpp:367] Scale19 -> Convolution19 (in-place)
I1007 22:14:29.224547  5299 layer_factory.hpp:77] Creating layer Scale19
I1007 22:14:29.224628  5299 net.cpp:122] Setting up Scale19
I1007 22:14:29.224632  5299 net.cpp:129] Top shape: 100 32 16 16 (819200)
I1007 22:14:29.224634  5299 net.cpp:137] Memory required for data: 528794800
I1007 22:14:29.224638  5299 layer_factory.hpp:77] Creating layer M2PELU18
I1007 22:14:29.224643  5299 net.cpp:84] Creating Layer M2PELU18
I1007 22:14:29.224647  5299 net.cpp:406] M2PELU18 <- Convolution19
I1007 22:14:29.224649  5299 net.cpp:367] M2PELU18 -> Convolution19 (in-place)
I1007 22:14:29.224737  5299 net.cpp:122] Setting up M2PELU18
I1007 22:14:29.224741  5299 net.cpp:129] Top shape: 100 32 16 16 (819200)
I1007 22:14:29.224743  5299 net.cpp:137] Memory required for data: 532071600
I1007 22:14:29.224747  5299 layer_factory.hpp:77] Creating layer Convolution20
I1007 22:14:29.224753  5299 net.cpp:84] Creating Layer Convolution20
I1007 22:14:29.224756  5299 net.cpp:406] Convolution20 <- Convolution19
I1007 22:14:29.224761  5299 net.cpp:380] Convolution20 -> Convolution20
I1007 22:14:29.230885  5299 net.cpp:122] Setting up Convolution20
I1007 22:14:29.230893  5299 net.cpp:129] Top shape: 100 32 16 16 (819200)
I1007 22:14:29.230896  5299 net.cpp:137] Memory required for data: 535348400
I1007 22:14:29.230901  5299 layer_factory.hpp:77] Creating layer BatchNorm20
I1007 22:14:29.230906  5299 net.cpp:84] Creating Layer BatchNorm20
I1007 22:14:29.230916  5299 net.cpp:406] BatchNorm20 <- Convolution20
I1007 22:14:29.230921  5299 net.cpp:367] BatchNorm20 -> Convolution20 (in-place)
I1007 22:14:29.231070  5299 net.cpp:122] Setting up BatchNorm20
I1007 22:14:29.231075  5299 net.cpp:129] Top shape: 100 32 16 16 (819200)
I1007 22:14:29.231076  5299 net.cpp:137] Memory required for data: 538625200
I1007 22:14:29.231081  5299 layer_factory.hpp:77] Creating layer Scale20
I1007 22:14:29.231086  5299 net.cpp:84] Creating Layer Scale20
I1007 22:14:29.231088  5299 net.cpp:406] Scale20 <- Convolution20
I1007 22:14:29.231092  5299 net.cpp:367] Scale20 -> Convolution20 (in-place)
I1007 22:14:29.231122  5299 layer_factory.hpp:77] Creating layer Scale20
I1007 22:14:29.231236  5299 net.cpp:122] Setting up Scale20
I1007 22:14:29.231242  5299 net.cpp:129] Top shape: 100 32 16 16 (819200)
I1007 22:14:29.231245  5299 net.cpp:137] Memory required for data: 541902000
I1007 22:14:29.231248  5299 layer_factory.hpp:77] Creating layer Eltwise9
I1007 22:14:29.231252  5299 net.cpp:84] Creating Layer Eltwise9
I1007 22:14:29.231256  5299 net.cpp:406] Eltwise9 <- Eltwise8_M2PELU17_0_split_1
I1007 22:14:29.231258  5299 net.cpp:406] Eltwise9 <- Convolution20
I1007 22:14:29.231262  5299 net.cpp:380] Eltwise9 -> Eltwise9
I1007 22:14:29.231276  5299 net.cpp:122] Setting up Eltwise9
I1007 22:14:29.231279  5299 net.cpp:129] Top shape: 100 32 16 16 (819200)
I1007 22:14:29.231281  5299 net.cpp:137] Memory required for data: 545178800
I1007 22:14:29.231283  5299 layer_factory.hpp:77] Creating layer M2PELU19
I1007 22:14:29.231289  5299 net.cpp:84] Creating Layer M2PELU19
I1007 22:14:29.231292  5299 net.cpp:406] M2PELU19 <- Eltwise9
I1007 22:14:29.231294  5299 net.cpp:367] M2PELU19 -> Eltwise9 (in-place)
I1007 22:14:29.231390  5299 net.cpp:122] Setting up M2PELU19
I1007 22:14:29.231395  5299 net.cpp:129] Top shape: 100 32 16 16 (819200)
I1007 22:14:29.231397  5299 net.cpp:137] Memory required for data: 548455600
I1007 22:14:29.231400  5299 layer_factory.hpp:77] Creating layer Eltwise9_M2PELU19_0_split
I1007 22:14:29.231405  5299 net.cpp:84] Creating Layer Eltwise9_M2PELU19_0_split
I1007 22:14:29.231407  5299 net.cpp:406] Eltwise9_M2PELU19_0_split <- Eltwise9
I1007 22:14:29.231410  5299 net.cpp:380] Eltwise9_M2PELU19_0_split -> Eltwise9_M2PELU19_0_split_0
I1007 22:14:29.231415  5299 net.cpp:380] Eltwise9_M2PELU19_0_split -> Eltwise9_M2PELU19_0_split_1
I1007 22:14:29.231442  5299 net.cpp:122] Setting up Eltwise9_M2PELU19_0_split
I1007 22:14:29.231446  5299 net.cpp:129] Top shape: 100 32 16 16 (819200)
I1007 22:14:29.231449  5299 net.cpp:129] Top shape: 100 32 16 16 (819200)
I1007 22:14:29.231451  5299 net.cpp:137] Memory required for data: 555009200
I1007 22:14:29.231453  5299 layer_factory.hpp:77] Creating layer Convolution21
I1007 22:14:29.231459  5299 net.cpp:84] Creating Layer Convolution21
I1007 22:14:29.231462  5299 net.cpp:406] Convolution21 <- Eltwise9_M2PELU19_0_split_0
I1007 22:14:29.231467  5299 net.cpp:380] Convolution21 -> Convolution21
I1007 22:14:29.237538  5299 net.cpp:122] Setting up Convolution21
I1007 22:14:29.237551  5299 net.cpp:129] Top shape: 100 32 16 16 (819200)
I1007 22:14:29.237555  5299 net.cpp:137] Memory required for data: 558286000
I1007 22:14:29.237562  5299 layer_factory.hpp:77] Creating layer BatchNorm21
I1007 22:14:29.237571  5299 net.cpp:84] Creating Layer BatchNorm21
I1007 22:14:29.237576  5299 net.cpp:406] BatchNorm21 <- Convolution21
I1007 22:14:29.237581  5299 net.cpp:367] BatchNorm21 -> Convolution21 (in-place)
I1007 22:14:29.237804  5299 net.cpp:122] Setting up BatchNorm21
I1007 22:14:29.237814  5299 net.cpp:129] Top shape: 100 32 16 16 (819200)
I1007 22:14:29.237818  5299 net.cpp:137] Memory required for data: 561562800
I1007 22:14:29.237826  5299 layer_factory.hpp:77] Creating layer Scale21
I1007 22:14:29.237843  5299 net.cpp:84] Creating Layer Scale21
I1007 22:14:29.237846  5299 net.cpp:406] Scale21 <- Convolution21
I1007 22:14:29.237854  5299 net.cpp:367] Scale21 -> Convolution21 (in-place)
I1007 22:14:29.237910  5299 layer_factory.hpp:77] Creating layer Scale21
I1007 22:14:29.238059  5299 net.cpp:122] Setting up Scale21
I1007 22:14:29.238070  5299 net.cpp:129] Top shape: 100 32 16 16 (819200)
I1007 22:14:29.238072  5299 net.cpp:137] Memory required for data: 564839600
I1007 22:14:29.238080  5299 layer_factory.hpp:77] Creating layer M2PELU20
I1007 22:14:29.238087  5299 net.cpp:84] Creating Layer M2PELU20
I1007 22:14:29.238091  5299 net.cpp:406] M2PELU20 <- Convolution21
I1007 22:14:29.238099  5299 net.cpp:367] M2PELU20 -> Convolution21 (in-place)
I1007 22:14:29.238263  5299 net.cpp:122] Setting up M2PELU20
I1007 22:14:29.238272  5299 net.cpp:129] Top shape: 100 32 16 16 (819200)
I1007 22:14:29.238276  5299 net.cpp:137] Memory required for data: 568116400
I1007 22:14:29.238282  5299 layer_factory.hpp:77] Creating layer Convolution22
I1007 22:14:29.238296  5299 net.cpp:84] Creating Layer Convolution22
I1007 22:14:29.238301  5299 net.cpp:406] Convolution22 <- Convolution21
I1007 22:14:29.238308  5299 net.cpp:380] Convolution22 -> Convolution22
I1007 22:14:29.244696  5299 net.cpp:122] Setting up Convolution22
I1007 22:14:29.244705  5299 net.cpp:129] Top shape: 100 32 16 16 (819200)
I1007 22:14:29.244709  5299 net.cpp:137] Memory required for data: 571393200
I1007 22:14:29.244712  5299 layer_factory.hpp:77] Creating layer BatchNorm22
I1007 22:14:29.244719  5299 net.cpp:84] Creating Layer BatchNorm22
I1007 22:14:29.244721  5299 net.cpp:406] BatchNorm22 <- Convolution22
I1007 22:14:29.244725  5299 net.cpp:367] BatchNorm22 -> Convolution22 (in-place)
I1007 22:14:29.244874  5299 net.cpp:122] Setting up BatchNorm22
I1007 22:14:29.244879  5299 net.cpp:129] Top shape: 100 32 16 16 (819200)
I1007 22:14:29.244881  5299 net.cpp:137] Memory required for data: 574670000
I1007 22:14:29.244885  5299 layer_factory.hpp:77] Creating layer Scale22
I1007 22:14:29.244890  5299 net.cpp:84] Creating Layer Scale22
I1007 22:14:29.244892  5299 net.cpp:406] Scale22 <- Convolution22
I1007 22:14:29.244895  5299 net.cpp:367] Scale22 -> Convolution22 (in-place)
I1007 22:14:29.244926  5299 layer_factory.hpp:77] Creating layer Scale22
I1007 22:14:29.245012  5299 net.cpp:122] Setting up Scale22
I1007 22:14:29.245016  5299 net.cpp:129] Top shape: 100 32 16 16 (819200)
I1007 22:14:29.245018  5299 net.cpp:137] Memory required for data: 577946800
I1007 22:14:29.245023  5299 layer_factory.hpp:77] Creating layer Eltwise10
I1007 22:14:29.245026  5299 net.cpp:84] Creating Layer Eltwise10
I1007 22:14:29.245029  5299 net.cpp:406] Eltwise10 <- Eltwise9_M2PELU19_0_split_1
I1007 22:14:29.245033  5299 net.cpp:406] Eltwise10 <- Convolution22
I1007 22:14:29.245035  5299 net.cpp:380] Eltwise10 -> Eltwise10
I1007 22:14:29.245050  5299 net.cpp:122] Setting up Eltwise10
I1007 22:14:29.245054  5299 net.cpp:129] Top shape: 100 32 16 16 (819200)
I1007 22:14:29.245056  5299 net.cpp:137] Memory required for data: 581223600
I1007 22:14:29.245059  5299 layer_factory.hpp:77] Creating layer M2PELU21
I1007 22:14:29.245064  5299 net.cpp:84] Creating Layer M2PELU21
I1007 22:14:29.245066  5299 net.cpp:406] M2PELU21 <- Eltwise10
I1007 22:14:29.245069  5299 net.cpp:367] M2PELU21 -> Eltwise10 (in-place)
I1007 22:14:29.245165  5299 net.cpp:122] Setting up M2PELU21
I1007 22:14:29.245170  5299 net.cpp:129] Top shape: 100 32 16 16 (819200)
I1007 22:14:29.245172  5299 net.cpp:137] Memory required for data: 584500400
I1007 22:14:29.245175  5299 layer_factory.hpp:77] Creating layer Eltwise10_M2PELU21_0_split
I1007 22:14:29.245180  5299 net.cpp:84] Creating Layer Eltwise10_M2PELU21_0_split
I1007 22:14:29.245182  5299 net.cpp:406] Eltwise10_M2PELU21_0_split <- Eltwise10
I1007 22:14:29.245185  5299 net.cpp:380] Eltwise10_M2PELU21_0_split -> Eltwise10_M2PELU21_0_split_0
I1007 22:14:29.245189  5299 net.cpp:380] Eltwise10_M2PELU21_0_split -> Eltwise10_M2PELU21_0_split_1
I1007 22:14:29.245216  5299 net.cpp:122] Setting up Eltwise10_M2PELU21_0_split
I1007 22:14:29.245220  5299 net.cpp:129] Top shape: 100 32 16 16 (819200)
I1007 22:14:29.245223  5299 net.cpp:129] Top shape: 100 32 16 16 (819200)
I1007 22:14:29.245224  5299 net.cpp:137] Memory required for data: 591054000
I1007 22:14:29.245234  5299 layer_factory.hpp:77] Creating layer Convolution23
I1007 22:14:29.245242  5299 net.cpp:84] Creating Layer Convolution23
I1007 22:14:29.245244  5299 net.cpp:406] Convolution23 <- Eltwise10_M2PELU21_0_split_0
I1007 22:14:29.245249  5299 net.cpp:380] Convolution23 -> Convolution23
I1007 22:14:29.251315  5299 net.cpp:122] Setting up Convolution23
I1007 22:14:29.251324  5299 net.cpp:129] Top shape: 100 64 8 8 (409600)
I1007 22:14:29.251327  5299 net.cpp:137] Memory required for data: 592692400
I1007 22:14:29.251332  5299 layer_factory.hpp:77] Creating layer BatchNorm23
I1007 22:14:29.251338  5299 net.cpp:84] Creating Layer BatchNorm23
I1007 22:14:29.251340  5299 net.cpp:406] BatchNorm23 <- Convolution23
I1007 22:14:29.251345  5299 net.cpp:367] BatchNorm23 -> Convolution23 (in-place)
I1007 22:14:29.251493  5299 net.cpp:122] Setting up BatchNorm23
I1007 22:14:29.251497  5299 net.cpp:129] Top shape: 100 64 8 8 (409600)
I1007 22:14:29.251500  5299 net.cpp:137] Memory required for data: 594330800
I1007 22:14:29.251504  5299 layer_factory.hpp:77] Creating layer Scale23
I1007 22:14:29.251509  5299 net.cpp:84] Creating Layer Scale23
I1007 22:14:29.251513  5299 net.cpp:406] Scale23 <- Convolution23
I1007 22:14:29.251515  5299 net.cpp:367] Scale23 -> Convolution23 (in-place)
I1007 22:14:29.251544  5299 layer_factory.hpp:77] Creating layer Scale23
I1007 22:14:29.251631  5299 net.cpp:122] Setting up Scale23
I1007 22:14:29.251634  5299 net.cpp:129] Top shape: 100 64 8 8 (409600)
I1007 22:14:29.251636  5299 net.cpp:137] Memory required for data: 595969200
I1007 22:14:29.251641  5299 layer_factory.hpp:77] Creating layer Convolution24
I1007 22:14:29.251648  5299 net.cpp:84] Creating Layer Convolution24
I1007 22:14:29.251651  5299 net.cpp:406] Convolution24 <- Eltwise10_M2PELU21_0_split_1
I1007 22:14:29.251654  5299 net.cpp:380] Convolution24 -> Convolution24
I1007 22:14:29.257952  5299 net.cpp:122] Setting up Convolution24
I1007 22:14:29.257961  5299 net.cpp:129] Top shape: 100 64 8 8 (409600)
I1007 22:14:29.257963  5299 net.cpp:137] Memory required for data: 597607600
I1007 22:14:29.257968  5299 layer_factory.hpp:77] Creating layer BatchNorm24
I1007 22:14:29.257973  5299 net.cpp:84] Creating Layer BatchNorm24
I1007 22:14:29.257977  5299 net.cpp:406] BatchNorm24 <- Convolution24
I1007 22:14:29.257980  5299 net.cpp:367] BatchNorm24 -> Convolution24 (in-place)
I1007 22:14:29.258129  5299 net.cpp:122] Setting up BatchNorm24
I1007 22:14:29.258134  5299 net.cpp:129] Top shape: 100 64 8 8 (409600)
I1007 22:14:29.258136  5299 net.cpp:137] Memory required for data: 599246000
I1007 22:14:29.258141  5299 layer_factory.hpp:77] Creating layer Scale24
I1007 22:14:29.258146  5299 net.cpp:84] Creating Layer Scale24
I1007 22:14:29.258147  5299 net.cpp:406] Scale24 <- Convolution24
I1007 22:14:29.258150  5299 net.cpp:367] Scale24 -> Convolution24 (in-place)
I1007 22:14:29.258180  5299 layer_factory.hpp:77] Creating layer Scale24
I1007 22:14:29.258265  5299 net.cpp:122] Setting up Scale24
I1007 22:14:29.258270  5299 net.cpp:129] Top shape: 100 64 8 8 (409600)
I1007 22:14:29.258272  5299 net.cpp:137] Memory required for data: 600884400
I1007 22:14:29.258275  5299 layer_factory.hpp:77] Creating layer M2PELU22
I1007 22:14:29.258280  5299 net.cpp:84] Creating Layer M2PELU22
I1007 22:14:29.258283  5299 net.cpp:406] M2PELU22 <- Convolution24
I1007 22:14:29.258286  5299 net.cpp:367] M2PELU22 -> Convolution24 (in-place)
I1007 22:14:29.258376  5299 net.cpp:122] Setting up M2PELU22
I1007 22:14:29.258380  5299 net.cpp:129] Top shape: 100 64 8 8 (409600)
I1007 22:14:29.258383  5299 net.cpp:137] Memory required for data: 602522800
I1007 22:14:29.258386  5299 layer_factory.hpp:77] Creating layer Convolution25
I1007 22:14:29.258394  5299 net.cpp:84] Creating Layer Convolution25
I1007 22:14:29.258395  5299 net.cpp:406] Convolution25 <- Convolution24
I1007 22:14:29.258399  5299 net.cpp:380] Convolution25 -> Convolution25
I1007 22:14:29.264504  5299 net.cpp:122] Setting up Convolution25
I1007 22:14:29.264513  5299 net.cpp:129] Top shape: 100 64 8 8 (409600)
I1007 22:14:29.264523  5299 net.cpp:137] Memory required for data: 604161200
I1007 22:14:29.264528  5299 layer_factory.hpp:77] Creating layer BatchNorm25
I1007 22:14:29.264533  5299 net.cpp:84] Creating Layer BatchNorm25
I1007 22:14:29.264535  5299 net.cpp:406] BatchNorm25 <- Convolution25
I1007 22:14:29.264539  5299 net.cpp:367] BatchNorm25 -> Convolution25 (in-place)
I1007 22:14:29.264685  5299 net.cpp:122] Setting up BatchNorm25
I1007 22:14:29.264690  5299 net.cpp:129] Top shape: 100 64 8 8 (409600)
I1007 22:14:29.264693  5299 net.cpp:137] Memory required for data: 605799600
I1007 22:14:29.264698  5299 layer_factory.hpp:77] Creating layer Scale25
I1007 22:14:29.264701  5299 net.cpp:84] Creating Layer Scale25
I1007 22:14:29.264703  5299 net.cpp:406] Scale25 <- Convolution25
I1007 22:14:29.264708  5299 net.cpp:367] Scale25 -> Convolution25 (in-place)
I1007 22:14:29.264735  5299 layer_factory.hpp:77] Creating layer Scale25
I1007 22:14:29.264819  5299 net.cpp:122] Setting up Scale25
I1007 22:14:29.264823  5299 net.cpp:129] Top shape: 100 64 8 8 (409600)
I1007 22:14:29.264827  5299 net.cpp:137] Memory required for data: 607438000
I1007 22:14:29.264830  5299 layer_factory.hpp:77] Creating layer Eltwise11
I1007 22:14:29.264833  5299 net.cpp:84] Creating Layer Eltwise11
I1007 22:14:29.264837  5299 net.cpp:406] Eltwise11 <- Convolution23
I1007 22:14:29.264839  5299 net.cpp:406] Eltwise11 <- Convolution25
I1007 22:14:29.264843  5299 net.cpp:380] Eltwise11 -> Eltwise11
I1007 22:14:29.264861  5299 net.cpp:122] Setting up Eltwise11
I1007 22:14:29.264865  5299 net.cpp:129] Top shape: 100 64 8 8 (409600)
I1007 22:14:29.264868  5299 net.cpp:137] Memory required for data: 609076400
I1007 22:14:29.264869  5299 layer_factory.hpp:77] Creating layer M2PELU23
I1007 22:14:29.264873  5299 net.cpp:84] Creating Layer M2PELU23
I1007 22:14:29.264876  5299 net.cpp:406] M2PELU23 <- Eltwise11
I1007 22:14:29.264879  5299 net.cpp:367] M2PELU23 -> Eltwise11 (in-place)
I1007 22:14:29.264972  5299 net.cpp:122] Setting up M2PELU23
I1007 22:14:29.264976  5299 net.cpp:129] Top shape: 100 64 8 8 (409600)
I1007 22:14:29.264978  5299 net.cpp:137] Memory required for data: 610714800
I1007 22:14:29.264982  5299 layer_factory.hpp:77] Creating layer Eltwise11_M2PELU23_0_split
I1007 22:14:29.264986  5299 net.cpp:84] Creating Layer Eltwise11_M2PELU23_0_split
I1007 22:14:29.264988  5299 net.cpp:406] Eltwise11_M2PELU23_0_split <- Eltwise11
I1007 22:14:29.264992  5299 net.cpp:380] Eltwise11_M2PELU23_0_split -> Eltwise11_M2PELU23_0_split_0
I1007 22:14:29.264997  5299 net.cpp:380] Eltwise11_M2PELU23_0_split -> Eltwise11_M2PELU23_0_split_1
I1007 22:14:29.265022  5299 net.cpp:122] Setting up Eltwise11_M2PELU23_0_split
I1007 22:14:29.265027  5299 net.cpp:129] Top shape: 100 64 8 8 (409600)
I1007 22:14:29.265029  5299 net.cpp:129] Top shape: 100 64 8 8 (409600)
I1007 22:14:29.265031  5299 net.cpp:137] Memory required for data: 613991600
I1007 22:14:29.265033  5299 layer_factory.hpp:77] Creating layer Convolution26
I1007 22:14:29.265038  5299 net.cpp:84] Creating Layer Convolution26
I1007 22:14:29.265040  5299 net.cpp:406] Convolution26 <- Eltwise11_M2PELU23_0_split_0
I1007 22:14:29.265045  5299 net.cpp:380] Convolution26 -> Convolution26
I1007 22:14:29.271075  5299 net.cpp:122] Setting up Convolution26
I1007 22:14:29.271086  5299 net.cpp:129] Top shape: 100 64 8 8 (409600)
I1007 22:14:29.271088  5299 net.cpp:137] Memory required for data: 615630000
I1007 22:14:29.271093  5299 layer_factory.hpp:77] Creating layer BatchNorm26
I1007 22:14:29.271098  5299 net.cpp:84] Creating Layer BatchNorm26
I1007 22:14:29.271101  5299 net.cpp:406] BatchNorm26 <- Convolution26
I1007 22:14:29.271106  5299 net.cpp:367] BatchNorm26 -> Convolution26 (in-place)
I1007 22:14:29.271282  5299 net.cpp:122] Setting up BatchNorm26
I1007 22:14:29.271291  5299 net.cpp:129] Top shape: 100 64 8 8 (409600)
I1007 22:14:29.271293  5299 net.cpp:137] Memory required for data: 617268400
I1007 22:14:29.271301  5299 layer_factory.hpp:77] Creating layer Scale26
I1007 22:14:29.271315  5299 net.cpp:84] Creating Layer Scale26
I1007 22:14:29.271327  5299 net.cpp:406] Scale26 <- Convolution26
I1007 22:14:29.271335  5299 net.cpp:367] Scale26 -> Convolution26 (in-place)
I1007 22:14:29.271369  5299 layer_factory.hpp:77] Creating layer Scale26
I1007 22:14:29.271510  5299 net.cpp:122] Setting up Scale26
I1007 22:14:29.271517  5299 net.cpp:129] Top shape: 100 64 8 8 (409600)
I1007 22:14:29.271519  5299 net.cpp:137] Memory required for data: 618906800
I1007 22:14:29.271524  5299 layer_factory.hpp:77] Creating layer M2PELU24
I1007 22:14:29.271529  5299 net.cpp:84] Creating Layer M2PELU24
I1007 22:14:29.271533  5299 net.cpp:406] M2PELU24 <- Convolution26
I1007 22:14:29.271536  5299 net.cpp:367] M2PELU24 -> Convolution26 (in-place)
I1007 22:14:29.271643  5299 net.cpp:122] Setting up M2PELU24
I1007 22:14:29.271647  5299 net.cpp:129] Top shape: 100 64 8 8 (409600)
I1007 22:14:29.271649  5299 net.cpp:137] Memory required for data: 620545200
I1007 22:14:29.271653  5299 layer_factory.hpp:77] Creating layer Convolution27
I1007 22:14:29.271661  5299 net.cpp:84] Creating Layer Convolution27
I1007 22:14:29.271663  5299 net.cpp:406] Convolution27 <- Convolution26
I1007 22:14:29.271667  5299 net.cpp:380] Convolution27 -> Convolution27
I1007 22:14:29.278337  5299 net.cpp:122] Setting up Convolution27
I1007 22:14:29.278347  5299 net.cpp:129] Top shape: 100 64 8 8 (409600)
I1007 22:14:29.278349  5299 net.cpp:137] Memory required for data: 622183600
I1007 22:14:29.278353  5299 layer_factory.hpp:77] Creating layer BatchNorm27
I1007 22:14:29.278369  5299 net.cpp:84] Creating Layer BatchNorm27
I1007 22:14:29.278373  5299 net.cpp:406] BatchNorm27 <- Convolution27
I1007 22:14:29.278376  5299 net.cpp:367] BatchNorm27 -> Convolution27 (in-place)
I1007 22:14:29.278527  5299 net.cpp:122] Setting up BatchNorm27
I1007 22:14:29.278532  5299 net.cpp:129] Top shape: 100 64 8 8 (409600)
I1007 22:14:29.278533  5299 net.cpp:137] Memory required for data: 623822000
I1007 22:14:29.278538  5299 layer_factory.hpp:77] Creating layer Scale27
I1007 22:14:29.278543  5299 net.cpp:84] Creating Layer Scale27
I1007 22:14:29.278545  5299 net.cpp:406] Scale27 <- Convolution27
I1007 22:14:29.278548  5299 net.cpp:367] Scale27 -> Convolution27 (in-place)
I1007 22:14:29.278578  5299 layer_factory.hpp:77] Creating layer Scale27
I1007 22:14:29.278664  5299 net.cpp:122] Setting up Scale27
I1007 22:14:29.278668  5299 net.cpp:129] Top shape: 100 64 8 8 (409600)
I1007 22:14:29.278671  5299 net.cpp:137] Memory required for data: 625460400
I1007 22:14:29.278674  5299 layer_factory.hpp:77] Creating layer Eltwise12
I1007 22:14:29.278679  5299 net.cpp:84] Creating Layer Eltwise12
I1007 22:14:29.278681  5299 net.cpp:406] Eltwise12 <- Eltwise11_M2PELU23_0_split_1
I1007 22:14:29.278684  5299 net.cpp:406] Eltwise12 <- Convolution27
I1007 22:14:29.278687  5299 net.cpp:380] Eltwise12 -> Eltwise12
I1007 22:14:29.278707  5299 net.cpp:122] Setting up Eltwise12
I1007 22:14:29.278709  5299 net.cpp:129] Top shape: 100 64 8 8 (409600)
I1007 22:14:29.278712  5299 net.cpp:137] Memory required for data: 627098800
I1007 22:14:29.278713  5299 layer_factory.hpp:77] Creating layer M2PELU25
I1007 22:14:29.278719  5299 net.cpp:84] Creating Layer M2PELU25
I1007 22:14:29.278722  5299 net.cpp:406] M2PELU25 <- Eltwise12
I1007 22:14:29.278724  5299 net.cpp:367] M2PELU25 -> Eltwise12 (in-place)
I1007 22:14:29.278815  5299 net.cpp:122] Setting up M2PELU25
I1007 22:14:29.278820  5299 net.cpp:129] Top shape: 100 64 8 8 (409600)
I1007 22:14:29.278821  5299 net.cpp:137] Memory required for data: 628737200
I1007 22:14:29.278825  5299 layer_factory.hpp:77] Creating layer Eltwise12_M2PELU25_0_split
I1007 22:14:29.278829  5299 net.cpp:84] Creating Layer Eltwise12_M2PELU25_0_split
I1007 22:14:29.278831  5299 net.cpp:406] Eltwise12_M2PELU25_0_split <- Eltwise12
I1007 22:14:29.278834  5299 net.cpp:380] Eltwise12_M2PELU25_0_split -> Eltwise12_M2PELU25_0_split_0
I1007 22:14:29.278839  5299 net.cpp:380] Eltwise12_M2PELU25_0_split -> Eltwise12_M2PELU25_0_split_1
I1007 22:14:29.278864  5299 net.cpp:122] Setting up Eltwise12_M2PELU25_0_split
I1007 22:14:29.278875  5299 net.cpp:129] Top shape: 100 64 8 8 (409600)
I1007 22:14:29.278878  5299 net.cpp:129] Top shape: 100 64 8 8 (409600)
I1007 22:14:29.278880  5299 net.cpp:137] Memory required for data: 632014000
I1007 22:14:29.278882  5299 layer_factory.hpp:77] Creating layer Convolution28
I1007 22:14:29.278888  5299 net.cpp:84] Creating Layer Convolution28
I1007 22:14:29.278892  5299 net.cpp:406] Convolution28 <- Eltwise12_M2PELU25_0_split_0
I1007 22:14:29.278895  5299 net.cpp:380] Convolution28 -> Convolution28
I1007 22:14:29.281384  5299 net.cpp:122] Setting up Convolution28
I1007 22:14:29.281395  5299 net.cpp:129] Top shape: 100 64 8 8 (409600)
I1007 22:14:29.281400  5299 net.cpp:137] Memory required for data: 633652400
I1007 22:14:29.281407  5299 layer_factory.hpp:77] Creating layer BatchNorm28
I1007 22:14:29.281416  5299 net.cpp:84] Creating Layer BatchNorm28
I1007 22:14:29.281421  5299 net.cpp:406] BatchNorm28 <- Convolution28
I1007 22:14:29.281428  5299 net.cpp:367] BatchNorm28 -> Convolution28 (in-place)
I1007 22:14:29.281646  5299 net.cpp:122] Setting up BatchNorm28
I1007 22:14:29.281653  5299 net.cpp:129] Top shape: 100 64 8 8 (409600)
I1007 22:14:29.281656  5299 net.cpp:137] Memory required for data: 635290800
I1007 22:14:29.281661  5299 layer_factory.hpp:77] Creating layer Scale28
I1007 22:14:29.281666  5299 net.cpp:84] Creating Layer Scale28
I1007 22:14:29.281668  5299 net.cpp:406] Scale28 <- Convolution28
I1007 22:14:29.281672  5299 net.cpp:367] Scale28 -> Convolution28 (in-place)
I1007 22:14:29.281703  5299 layer_factory.hpp:77] Creating layer Scale28
I1007 22:14:29.281790  5299 net.cpp:122] Setting up Scale28
I1007 22:14:29.281795  5299 net.cpp:129] Top shape: 100 64 8 8 (409600)
I1007 22:14:29.281797  5299 net.cpp:137] Memory required for data: 636929200
I1007 22:14:29.281801  5299 layer_factory.hpp:77] Creating layer M2PELU26
I1007 22:14:29.281806  5299 net.cpp:84] Creating Layer M2PELU26
I1007 22:14:29.281810  5299 net.cpp:406] M2PELU26 <- Convolution28
I1007 22:14:29.281812  5299 net.cpp:367] M2PELU26 -> Convolution28 (in-place)
I1007 22:14:29.281904  5299 net.cpp:122] Setting up M2PELU26
I1007 22:14:29.281909  5299 net.cpp:129] Top shape: 100 64 8 8 (409600)
I1007 22:14:29.281913  5299 net.cpp:137] Memory required for data: 638567600
I1007 22:14:29.281915  5299 layer_factory.hpp:77] Creating layer Convolution29
I1007 22:14:29.281922  5299 net.cpp:84] Creating Layer Convolution29
I1007 22:14:29.281924  5299 net.cpp:406] Convolution29 <- Convolution28
I1007 22:14:29.281929  5299 net.cpp:380] Convolution29 -> Convolution29
I1007 22:14:29.287056  5299 net.cpp:122] Setting up Convolution29
I1007 22:14:29.287065  5299 net.cpp:129] Top shape: 100 64 8 8 (409600)
I1007 22:14:29.287068  5299 net.cpp:137] Memory required for data: 640206000
I1007 22:14:29.287072  5299 layer_factory.hpp:77] Creating layer BatchNorm29
I1007 22:14:29.287078  5299 net.cpp:84] Creating Layer BatchNorm29
I1007 22:14:29.287081  5299 net.cpp:406] BatchNorm29 <- Convolution29
I1007 22:14:29.287086  5299 net.cpp:367] BatchNorm29 -> Convolution29 (in-place)
I1007 22:14:29.287261  5299 net.cpp:122] Setting up BatchNorm29
I1007 22:14:29.287266  5299 net.cpp:129] Top shape: 100 64 8 8 (409600)
I1007 22:14:29.287268  5299 net.cpp:137] Memory required for data: 641844400
I1007 22:14:29.287273  5299 layer_factory.hpp:77] Creating layer Scale29
I1007 22:14:29.287278  5299 net.cpp:84] Creating Layer Scale29
I1007 22:14:29.287281  5299 net.cpp:406] Scale29 <- Convolution29
I1007 22:14:29.287283  5299 net.cpp:367] Scale29 -> Convolution29 (in-place)
I1007 22:14:29.287314  5299 layer_factory.hpp:77] Creating layer Scale29
I1007 22:14:29.287400  5299 net.cpp:122] Setting up Scale29
I1007 22:14:29.287405  5299 net.cpp:129] Top shape: 100 64 8 8 (409600)
I1007 22:14:29.287406  5299 net.cpp:137] Memory required for data: 643482800
I1007 22:14:29.287410  5299 layer_factory.hpp:77] Creating layer Eltwise13
I1007 22:14:29.287413  5299 net.cpp:84] Creating Layer Eltwise13
I1007 22:14:29.287416  5299 net.cpp:406] Eltwise13 <- Eltwise12_M2PELU25_0_split_1
I1007 22:14:29.287428  5299 net.cpp:406] Eltwise13 <- Convolution29
I1007 22:14:29.287433  5299 net.cpp:380] Eltwise13 -> Eltwise13
I1007 22:14:29.287452  5299 net.cpp:122] Setting up Eltwise13
I1007 22:14:29.287456  5299 net.cpp:129] Top shape: 100 64 8 8 (409600)
I1007 22:14:29.287458  5299 net.cpp:137] Memory required for data: 645121200
I1007 22:14:29.287461  5299 layer_factory.hpp:77] Creating layer M2PELU27
I1007 22:14:29.287466  5299 net.cpp:84] Creating Layer M2PELU27
I1007 22:14:29.287467  5299 net.cpp:406] M2PELU27 <- Eltwise13
I1007 22:14:29.287472  5299 net.cpp:367] M2PELU27 -> Eltwise13 (in-place)
I1007 22:14:29.287564  5299 net.cpp:122] Setting up M2PELU27
I1007 22:14:29.287569  5299 net.cpp:129] Top shape: 100 64 8 8 (409600)
I1007 22:14:29.287571  5299 net.cpp:137] Memory required for data: 646759600
I1007 22:14:29.287595  5299 layer_factory.hpp:77] Creating layer Eltwise13_M2PELU27_0_split
I1007 22:14:29.287598  5299 net.cpp:84] Creating Layer Eltwise13_M2PELU27_0_split
I1007 22:14:29.287601  5299 net.cpp:406] Eltwise13_M2PELU27_0_split <- Eltwise13
I1007 22:14:29.287605  5299 net.cpp:380] Eltwise13_M2PELU27_0_split -> Eltwise13_M2PELU27_0_split_0
I1007 22:14:29.287608  5299 net.cpp:380] Eltwise13_M2PELU27_0_split -> Eltwise13_M2PELU27_0_split_1
I1007 22:14:29.287636  5299 net.cpp:122] Setting up Eltwise13_M2PELU27_0_split
I1007 22:14:29.287641  5299 net.cpp:129] Top shape: 100 64 8 8 (409600)
I1007 22:14:29.287643  5299 net.cpp:129] Top shape: 100 64 8 8 (409600)
I1007 22:14:29.287645  5299 net.cpp:137] Memory required for data: 650036400
I1007 22:14:29.287647  5299 layer_factory.hpp:77] Creating layer Convolution30
I1007 22:14:29.287655  5299 net.cpp:84] Creating Layer Convolution30
I1007 22:14:29.287658  5299 net.cpp:406] Convolution30 <- Eltwise13_M2PELU27_0_split_0
I1007 22:14:29.287662  5299 net.cpp:380] Convolution30 -> Convolution30
I1007 22:14:29.293910  5299 net.cpp:122] Setting up Convolution30
I1007 22:14:29.293918  5299 net.cpp:129] Top shape: 100 64 8 8 (409600)
I1007 22:14:29.293920  5299 net.cpp:137] Memory required for data: 651674800
I1007 22:14:29.293926  5299 layer_factory.hpp:77] Creating layer BatchNorm30
I1007 22:14:29.293931  5299 net.cpp:84] Creating Layer BatchNorm30
I1007 22:14:29.293933  5299 net.cpp:406] BatchNorm30 <- Convolution30
I1007 22:14:29.293937  5299 net.cpp:367] BatchNorm30 -> Convolution30 (in-place)
I1007 22:14:29.294092  5299 net.cpp:122] Setting up BatchNorm30
I1007 22:14:29.294097  5299 net.cpp:129] Top shape: 100 64 8 8 (409600)
I1007 22:14:29.294100  5299 net.cpp:137] Memory required for data: 653313200
I1007 22:14:29.294103  5299 layer_factory.hpp:77] Creating layer Scale30
I1007 22:14:29.294108  5299 net.cpp:84] Creating Layer Scale30
I1007 22:14:29.294111  5299 net.cpp:406] Scale30 <- Convolution30
I1007 22:14:29.294114  5299 net.cpp:367] Scale30 -> Convolution30 (in-place)
I1007 22:14:29.294144  5299 layer_factory.hpp:77] Creating layer Scale30
I1007 22:14:29.294231  5299 net.cpp:122] Setting up Scale30
I1007 22:14:29.294235  5299 net.cpp:129] Top shape: 100 64 8 8 (409600)
I1007 22:14:29.294237  5299 net.cpp:137] Memory required for data: 654951600
I1007 22:14:29.294241  5299 layer_factory.hpp:77] Creating layer M2PELU28
I1007 22:14:29.294246  5299 net.cpp:84] Creating Layer M2PELU28
I1007 22:14:29.294250  5299 net.cpp:406] M2PELU28 <- Convolution30
I1007 22:14:29.294253  5299 net.cpp:367] M2PELU28 -> Convolution30 (in-place)
I1007 22:14:29.294348  5299 net.cpp:122] Setting up M2PELU28
I1007 22:14:29.294351  5299 net.cpp:129] Top shape: 100 64 8 8 (409600)
I1007 22:14:29.294353  5299 net.cpp:137] Memory required for data: 656590000
I1007 22:14:29.294356  5299 layer_factory.hpp:77] Creating layer Convolution31
I1007 22:14:29.294363  5299 net.cpp:84] Creating Layer Convolution31
I1007 22:14:29.294365  5299 net.cpp:406] Convolution31 <- Convolution30
I1007 22:14:29.294369  5299 net.cpp:380] Convolution31 -> Convolution31
I1007 22:14:29.299408  5299 net.cpp:122] Setting up Convolution31
I1007 22:14:29.299422  5299 net.cpp:129] Top shape: 100 64 8 8 (409600)
I1007 22:14:29.299434  5299 net.cpp:137] Memory required for data: 658228400
I1007 22:14:29.299443  5299 layer_factory.hpp:77] Creating layer BatchNorm31
I1007 22:14:29.299460  5299 net.cpp:84] Creating Layer BatchNorm31
I1007 22:14:29.299465  5299 net.cpp:406] BatchNorm31 <- Convolution31
I1007 22:14:29.299471  5299 net.cpp:367] BatchNorm31 -> Convolution31 (in-place)
I1007 22:14:29.299675  5299 net.cpp:122] Setting up BatchNorm31
I1007 22:14:29.299682  5299 net.cpp:129] Top shape: 100 64 8 8 (409600)
I1007 22:14:29.299685  5299 net.cpp:137] Memory required for data: 659866800
I1007 22:14:29.299690  5299 layer_factory.hpp:77] Creating layer Scale31
I1007 22:14:29.299695  5299 net.cpp:84] Creating Layer Scale31
I1007 22:14:29.299697  5299 net.cpp:406] Scale31 <- Convolution31
I1007 22:14:29.299701  5299 net.cpp:367] Scale31 -> Convolution31 (in-place)
I1007 22:14:29.299734  5299 layer_factory.hpp:77] Creating layer Scale31
I1007 22:14:29.299826  5299 net.cpp:122] Setting up Scale31
I1007 22:14:29.299830  5299 net.cpp:129] Top shape: 100 64 8 8 (409600)
I1007 22:14:29.299834  5299 net.cpp:137] Memory required for data: 661505200
I1007 22:14:29.299837  5299 layer_factory.hpp:77] Creating layer Eltwise14
I1007 22:14:29.299842  5299 net.cpp:84] Creating Layer Eltwise14
I1007 22:14:29.299844  5299 net.cpp:406] Eltwise14 <- Eltwise13_M2PELU27_0_split_1
I1007 22:14:29.299847  5299 net.cpp:406] Eltwise14 <- Convolution31
I1007 22:14:29.299851  5299 net.cpp:380] Eltwise14 -> Eltwise14
I1007 22:14:29.299870  5299 net.cpp:122] Setting up Eltwise14
I1007 22:14:29.299875  5299 net.cpp:129] Top shape: 100 64 8 8 (409600)
I1007 22:14:29.299876  5299 net.cpp:137] Memory required for data: 663143600
I1007 22:14:29.299878  5299 layer_factory.hpp:77] Creating layer M2PELU29
I1007 22:14:29.299885  5299 net.cpp:84] Creating Layer M2PELU29
I1007 22:14:29.299886  5299 net.cpp:406] M2PELU29 <- Eltwise14
I1007 22:14:29.299890  5299 net.cpp:367] M2PELU29 -> Eltwise14 (in-place)
I1007 22:14:29.299986  5299 net.cpp:122] Setting up M2PELU29
I1007 22:14:29.299990  5299 net.cpp:129] Top shape: 100 64 8 8 (409600)
I1007 22:14:29.299993  5299 net.cpp:137] Memory required for data: 664782000
I1007 22:14:29.299996  5299 layer_factory.hpp:77] Creating layer Eltwise14_M2PELU29_0_split
I1007 22:14:29.300000  5299 net.cpp:84] Creating Layer Eltwise14_M2PELU29_0_split
I1007 22:14:29.300002  5299 net.cpp:406] Eltwise14_M2PELU29_0_split <- Eltwise14
I1007 22:14:29.300005  5299 net.cpp:380] Eltwise14_M2PELU29_0_split -> Eltwise14_M2PELU29_0_split_0
I1007 22:14:29.300009  5299 net.cpp:380] Eltwise14_M2PELU29_0_split -> Eltwise14_M2PELU29_0_split_1
I1007 22:14:29.300037  5299 net.cpp:122] Setting up Eltwise14_M2PELU29_0_split
I1007 22:14:29.300041  5299 net.cpp:129] Top shape: 100 64 8 8 (409600)
I1007 22:14:29.300043  5299 net.cpp:129] Top shape: 100 64 8 8 (409600)
I1007 22:14:29.300045  5299 net.cpp:137] Memory required for data: 668058800
I1007 22:14:29.300047  5299 layer_factory.hpp:77] Creating layer Convolution32
I1007 22:14:29.300055  5299 net.cpp:84] Creating Layer Convolution32
I1007 22:14:29.300056  5299 net.cpp:406] Convolution32 <- Eltwise14_M2PELU29_0_split_0
I1007 22:14:29.300060  5299 net.cpp:380] Convolution32 -> Convolution32
I1007 22:14:29.304697  5299 net.cpp:122] Setting up Convolution32
I1007 22:14:29.304708  5299 net.cpp:129] Top shape: 100 64 8 8 (409600)
I1007 22:14:29.304711  5299 net.cpp:137] Memory required for data: 669697200
I1007 22:14:29.304716  5299 layer_factory.hpp:77] Creating layer BatchNorm32
I1007 22:14:29.304723  5299 net.cpp:84] Creating Layer BatchNorm32
I1007 22:14:29.304725  5299 net.cpp:406] BatchNorm32 <- Convolution32
I1007 22:14:29.304729  5299 net.cpp:367] BatchNorm32 -> Convolution32 (in-place)
I1007 22:14:29.304894  5299 net.cpp:122] Setting up BatchNorm32
I1007 22:14:29.304899  5299 net.cpp:129] Top shape: 100 64 8 8 (409600)
I1007 22:14:29.304901  5299 net.cpp:137] Memory required for data: 671335600
I1007 22:14:29.304906  5299 layer_factory.hpp:77] Creating layer Scale32
I1007 22:14:29.304910  5299 net.cpp:84] Creating Layer Scale32
I1007 22:14:29.304920  5299 net.cpp:406] Scale32 <- Convolution32
I1007 22:14:29.304924  5299 net.cpp:367] Scale32 -> Convolution32 (in-place)
I1007 22:14:29.304960  5299 layer_factory.hpp:77] Creating layer Scale32
I1007 22:14:29.305048  5299 net.cpp:122] Setting up Scale32
I1007 22:14:29.305053  5299 net.cpp:129] Top shape: 100 64 8 8 (409600)
I1007 22:14:29.305055  5299 net.cpp:137] Memory required for data: 672974000
I1007 22:14:29.305059  5299 layer_factory.hpp:77] Creating layer M2PELU30
I1007 22:14:29.305065  5299 net.cpp:84] Creating Layer M2PELU30
I1007 22:14:29.305068  5299 net.cpp:406] M2PELU30 <- Convolution32
I1007 22:14:29.305071  5299 net.cpp:367] M2PELU30 -> Convolution32 (in-place)
I1007 22:14:29.305169  5299 net.cpp:122] Setting up M2PELU30
I1007 22:14:29.305173  5299 net.cpp:129] Top shape: 100 64 8 8 (409600)
I1007 22:14:29.305176  5299 net.cpp:137] Memory required for data: 674612400
I1007 22:14:29.305179  5299 layer_factory.hpp:77] Creating layer Convolution33
I1007 22:14:29.305186  5299 net.cpp:84] Creating Layer Convolution33
I1007 22:14:29.305189  5299 net.cpp:406] Convolution33 <- Convolution32
I1007 22:14:29.305193  5299 net.cpp:380] Convolution33 -> Convolution33
I1007 22:14:29.311107  5299 net.cpp:122] Setting up Convolution33
I1007 22:14:29.311116  5299 net.cpp:129] Top shape: 100 64 8 8 (409600)
I1007 22:14:29.311120  5299 net.cpp:137] Memory required for data: 676250800
I1007 22:14:29.311123  5299 layer_factory.hpp:77] Creating layer BatchNorm33
I1007 22:14:29.311131  5299 net.cpp:84] Creating Layer BatchNorm33
I1007 22:14:29.311133  5299 net.cpp:406] BatchNorm33 <- Convolution33
I1007 22:14:29.311137  5299 net.cpp:367] BatchNorm33 -> Convolution33 (in-place)
I1007 22:14:29.311326  5299 net.cpp:122] Setting up BatchNorm33
I1007 22:14:29.311331  5299 net.cpp:129] Top shape: 100 64 8 8 (409600)
I1007 22:14:29.311333  5299 net.cpp:137] Memory required for data: 677889200
I1007 22:14:29.311338  5299 layer_factory.hpp:77] Creating layer Scale33
I1007 22:14:29.311343  5299 net.cpp:84] Creating Layer Scale33
I1007 22:14:29.311347  5299 net.cpp:406] Scale33 <- Convolution33
I1007 22:14:29.311349  5299 net.cpp:367] Scale33 -> Convolution33 (in-place)
I1007 22:14:29.311381  5299 layer_factory.hpp:77] Creating layer Scale33
I1007 22:14:29.311471  5299 net.cpp:122] Setting up Scale33
I1007 22:14:29.311475  5299 net.cpp:129] Top shape: 100 64 8 8 (409600)
I1007 22:14:29.311477  5299 net.cpp:137] Memory required for data: 679527600
I1007 22:14:29.311481  5299 layer_factory.hpp:77] Creating layer Eltwise15
I1007 22:14:29.311487  5299 net.cpp:84] Creating Layer Eltwise15
I1007 22:14:29.311491  5299 net.cpp:406] Eltwise15 <- Eltwise14_M2PELU29_0_split_1
I1007 22:14:29.311493  5299 net.cpp:406] Eltwise15 <- Convolution33
I1007 22:14:29.311496  5299 net.cpp:380] Eltwise15 -> Eltwise15
I1007 22:14:29.311516  5299 net.cpp:122] Setting up Eltwise15
I1007 22:14:29.311519  5299 net.cpp:129] Top shape: 100 64 8 8 (409600)
I1007 22:14:29.311522  5299 net.cpp:137] Memory required for data: 681166000
I1007 22:14:29.311523  5299 layer_factory.hpp:77] Creating layer M2PELU31
I1007 22:14:29.311529  5299 net.cpp:84] Creating Layer M2PELU31
I1007 22:14:29.311532  5299 net.cpp:406] M2PELU31 <- Eltwise15
I1007 22:14:29.311535  5299 net.cpp:367] M2PELU31 -> Eltwise15 (in-place)
I1007 22:14:29.311635  5299 net.cpp:122] Setting up M2PELU31
I1007 22:14:29.311638  5299 net.cpp:129] Top shape: 100 64 8 8 (409600)
I1007 22:14:29.311640  5299 net.cpp:137] Memory required for data: 682804400
I1007 22:14:29.311645  5299 layer_factory.hpp:77] Creating layer Pooling1
I1007 22:14:29.311650  5299 net.cpp:84] Creating Layer Pooling1
I1007 22:14:29.311651  5299 net.cpp:406] Pooling1 <- Eltwise15
I1007 22:14:29.311655  5299 net.cpp:380] Pooling1 -> Pooling1
I1007 22:14:29.313216  5299 net.cpp:122] Setting up Pooling1
I1007 22:14:29.313222  5299 net.cpp:129] Top shape: 100 64 1 1 (6400)
I1007 22:14:29.313225  5299 net.cpp:137] Memory required for data: 682830000
I1007 22:14:29.313227  5299 layer_factory.hpp:77] Creating layer InnerProduct1
I1007 22:14:29.313239  5299 net.cpp:84] Creating Layer InnerProduct1
I1007 22:14:29.313242  5299 net.cpp:406] InnerProduct1 <- Pooling1
I1007 22:14:29.313247  5299 net.cpp:380] InnerProduct1 -> InnerProduct1
I1007 22:14:29.313360  5299 net.cpp:122] Setting up InnerProduct1
I1007 22:14:29.313365  5299 net.cpp:129] Top shape: 100 10 (1000)
I1007 22:14:29.313367  5299 net.cpp:137] Memory required for data: 682834000
I1007 22:14:29.313371  5299 layer_factory.hpp:77] Creating layer InnerProduct1_InnerProduct1_0_split
I1007 22:14:29.313375  5299 net.cpp:84] Creating Layer InnerProduct1_InnerProduct1_0_split
I1007 22:14:29.313377  5299 net.cpp:406] InnerProduct1_InnerProduct1_0_split <- InnerProduct1
I1007 22:14:29.313381  5299 net.cpp:380] InnerProduct1_InnerProduct1_0_split -> InnerProduct1_InnerProduct1_0_split_0
I1007 22:14:29.313386  5299 net.cpp:380] InnerProduct1_InnerProduct1_0_split -> InnerProduct1_InnerProduct1_0_split_1
I1007 22:14:29.313415  5299 net.cpp:122] Setting up InnerProduct1_InnerProduct1_0_split
I1007 22:14:29.313418  5299 net.cpp:129] Top shape: 100 10 (1000)
I1007 22:14:29.313421  5299 net.cpp:129] Top shape: 100 10 (1000)
I1007 22:14:29.313423  5299 net.cpp:137] Memory required for data: 682842000
I1007 22:14:29.313426  5299 layer_factory.hpp:77] Creating layer SoftmaxWithLoss1
I1007 22:14:29.313431  5299 net.cpp:84] Creating Layer SoftmaxWithLoss1
I1007 22:14:29.313432  5299 net.cpp:406] SoftmaxWithLoss1 <- InnerProduct1_InnerProduct1_0_split_0
I1007 22:14:29.313446  5299 net.cpp:406] SoftmaxWithLoss1 <- Data2_Data1_1_split_0
…
