…
I1007 22:14:13.323053  5289 net.cpp:294] The NetState phase (0) differed from the phase (1) specified by a rule in layer Accuracy1
I1007 22:14:13.323628  5289 net.cpp:51] Initializing net from parameters: 
name: "resnet_cifar10"
state {
  phase: TRAIN
  level: 0
  stage: ""
}
layer {
  name: "Data1"
  type: "Data"
  top: "Data1"
  top: "Data2"
  include {
    phase: TRAIN
  }
  transform_param {
    mirror: true
    crop_size: 28
    mean_file: "/home/x306/caffe/xn/PENLU/data/cifar10/mean.binaryproto"
  }
  data_param {
    source: "/home/x306/caffe/xn/PENLU/data/cifar10/cifar10_train_lmdb"
    batch_size: 100
    backend: LMDB
  }
}
layer {
  name: "Convolution1"
  type: "Convolution"
  bottom: "Data1"
  top: "Convolution1"
  param {
    lr_mult: 1
    decay_mult: 1
  }
  param {
    lr_mult: 2
    decay_mult: 0
  }
  convolution_param {
    num_output: 16
    pad: 1
    kernel_size: 3
    stride: 1
    weight_filler {
      type: "gaussian"
      std: 0.118
    }
    bias_filler {
      type: "constant"
      value: 0
    }
  }
}
layer {
  name: "BatchNorm1"
  type: "BatchNorm"
  bottom: "Convolution1"
  top: "Convolution1"
  param {
    lr_mult: 0
    decay_mult: 0
  }
  param {
    lr_mult: 0
    decay_mult: 0
  }
  param {
    lr_mult: 0
    decay_mult: 0
  }
}
layer {
  name: "Scale1"
  type: "Scale"
  bottom: "Convolution1"
  top: "Convolution1"
  scale_param {
    bias_term: true
  }
}
layer {
  name: "elu1"
  type: "ELU"
  bottom: "Convolution1"
  top: "Convolution1"
  elu_param {
    alpha: 1
  }
}
layer {
  name: "Convolution2"
  type: "Convolution"
  bottom: "Convolution1"
  top: "Convolution2"
  param {
    lr_mult: 1
    decay_mult: 1
  }
  param {
    lr_mult: 2
    decay_mult: 0
  }
  convolution_param {
    num_output: 16
    pad: 1
    kernel_size: 3
    stride: 1
    weight_filler {
      type: "gaussian"
      std: 0.118
    }
    bias_filler {
      type: "constant"
      value: 0
    }
  }
}
layer {
  name: "BatchNorm2"
  type: "BatchNorm"
  bottom: "Convolution2"
  top: "Convolution2"
  param {
    lr_mult: 0
    decay_mult: 0
  }
  param {
    lr_mult: 0
    decay_mult: 0
  }
  param {
    lr_mult: 0
    decay_mult: 0
  }
}
layer {
  name: "Scale2"
  type: "Scale"
  bottom: "Convolution2"
  top: "Convolution2"
  scale_param {
    bias_term: true
  }
}
layer {
  name: "elu2"
  type: "ELU"
  bottom: "Convolution2"
  top: "Convolution2"
  elu_param {
    alpha: 1
  }
}
layer {
  name: "Convolution3"
  type: "Convolution"
  bottom: "Convolution2"
  top: "Convolution3"
  param {
    lr_mult: 1
    decay_mult: 1
  }
  param {
    lr_mult: 2
    decay_mult: 0
  }
  convolution_param {
    num_output: 16
    pad: 1
    kernel_size: 3
    stride: 1
    weight_filler {
      type: "gaussian"
      std: 0.118
    }
    bias_filler {
      type: "constant"
      value: 0
    }
  }
}
layer {
  name: "BatchNorm3"
  type: "BatchNorm"
  bottom: "Convolution3"
  top: "Convolution3"
  param {
    lr_mult: 0
    decay_mult: 0
  }
  param {
    lr_mult: 0
    decay_mult: 0
  }
  param {
    lr_mult: 0
    decay_mult: 0
  }
}
layer {
  name: "Scale3"
  type: "Scale"
  bottom: "Convolution3"
  top: "Convolution3"
  scale_param {
    bias_term: true
  }
}
layer {
  name: "Eltwise1"
  type: "Eltwise"
  bottom: "Convolution1"
  bottom: "Convolution3"
  top: "Eltwise1"
  eltwise_param {
    operation: SUM
  }
}
layer {
  name: "elu3"
  type: "ELU"
  bottom: "Eltwise1"
  top: "Eltwise1"
  elu_param {
    alpha: 1
  }
}
layer {
  name: "Convolution4"
  type: "Convolution"
  bottom: "Eltwise1"
  top: "Convolution4"
  param {
    lr_mult: 1
    decay_mult: 1
  }
  param {
    lr_mult: 2
    decay_mult: 0
  }
  convolution_param {
    num_output: 16
    pad: 1
    kernel_size: 3
    stride: 1
    weight_filler {
      type: "gaussian"
      std: 0.118
    }
    bias_filler {
      type: "constant"
      value: 0
    }
  }
}
layer {
  name: "BatchNorm4"
  type: "BatchNorm"
  bottom: "Convolution4"
  top: "Convolution4"
  param {
    lr_mult: 0
    decay_mult: 0
  }
  param {
    lr_mult: 0
    decay_mult: 0
  }
  param {
    lr_mult: 0
    decay_mult: 0
  }
}
layer {
  name: "Scale4"
  type: "Scale"
  bottom: "Convolution4"
  top: "Convolution4"
  scale_param {
    bias_term: true
  }
}
layer {
  name: "elu4"
  type: "ELU"
  bottom: "Convolution4"
  top: "Convolution4"
  elu_param {
    alpha: 1
  }
}
layer {
  name: "Convolution5"
  type: "Convolution"
  bottom: "Convolution4"
  top: "Convolution5"
  param {
    lr_mult: 1
    decay_mult: 1
  }
  param {
    lr_mult: 2
    decay_mult: 0
  }
  convolution_param {
    num_output: 16
    pad: 1
    kernel_size: 3
    stride: 1
    weight_filler {
      type: "gaussian"
      std: 0.118
    }
    bias_filler {
      type: "constant"
      value: 0
    }
  }
}
layer {
  name: "BatchNorm5"
  type: "BatchNorm"
  bottom: "Convolution5"
  top: "Convolution5"
  param {
    lr_mult: 0
    decay_mult: 0
  }
  param {
    lr_mult: 0
    decay_mult: 0
  }
  param {
    lr_mult: 0
    decay_mult: 0
  }
}
layer {
  name: "Scale5"
  type: "Scale"
  bottom: "Convolution5"
  top: "Convolution5"
  scale_param {
    bias_term: true
  }
}
layer {
  name: "Eltwise2"
  type: "Eltwise"
  bottom: "Eltwise1"
  bottom: "Convolution5"
  top: "Eltwise2"
  eltwise_param {
    operation: SUM
  }
}
layer {
  name: "elu5"
  type: "ELU"
  bottom: "Eltwise2"
  top: "Eltwise2"
  elu_param {
    alpha: 1
  }
}
layer {
  name: "Convolution6"
  type: "Convolution"
  bottom: "Eltwise2"
  top: "Convolution6"
  param {
    lr_mult: 1
    decay_mult: 1
  }
  param {
    lr_mult: 2
    decay_mult: 0
  }
  convolution_param {
    num_output: 16
    pad: 1
    kernel_size: 3
    stride: 1
    weight_filler {
      type: "gaussian"
      std: 0.118
    }
    bias_filler {
      type: "constant"
      value: 0
    }
  }
}
layer {
  name: "BatchNorm6"
  type: "BatchNorm"
  bottom: "Convolution6"
  top: "Convolution6"
  param {
    lr_mult: 0
    decay_mult: 0
  }
  param {
    lr_mult: 0
    decay_mult: 0
  }
  param {
    lr_mult: 0
    decay_mult: 0
  }
}
layer {
  name: "Scale6"
  type: "Scale"
  bottom: "Convolution6"
  top: "Convolution6"
  scale_param {
    bias_term: true
  }
}
layer {
  name: "elu6"
  type: "ELU"
  bottom: "Convolution6"
  top: "Convolution6"
  elu_param {
    alpha: 1
  }
}
layer {
  name: "Convolution7"
  type: "Convolution"
  bottom: "Convolution6"
  top: "Convolution7"
  param {
    lr_mult: 1
    decay_mult: 1
  }
  param {
    lr_mult: 2
    decay_mult: 0
  }
  convolution_param {
    num_output: 16
    pad: 1
    kernel_size: 3
    stride: 1
    weight_filler {
      type: "gaussian"
      std: 0.118
    }
    bias_filler {
      type: "constant"
      value: 0
    }
  }
}
layer {
  name: "BatchNorm7"
  type: "BatchNorm"
  bottom: "Convolution7"
  top: "Convolution7"
  param {
    lr_mult: 0
    decay_mult: 0
  }
  param {
    lr_mult: 0
    decay_mult: 0
  }
  param {
    lr_mult: 0
    decay_mult: 0
  }
}
layer {
  name: "Scale7"
  type: "Scale"
  bottom: "Convolution7"
  top: "Convolution7"
  scale_param {
    bias_term: true
  }
}
layer {
  name: "Eltwise3"
  type: "Eltwise"
  bottom: "Eltwise2"
  bottom: "Convolution7"
  top: "Eltwise3"
  eltwise_param {
    operation: SUM
  }
}
layer {
  name: "elu7"
  type: "ELU"
  bottom: "Eltwise3"
  top: "Eltwise3"
  elu_param {
    alpha: 1
  }
}
layer {
  name: "Convolution8"
  type: "Convolution"
  bottom: "Eltwise3"
  top: "Convolution8"
  param {
    lr_mult: 1
    decay_mult: 1
  }
  param {
    lr_mult: 2
    decay_mult: 0
  }
  convolution_param {
    num_output: 16
    pad: 1
    kernel_size: 3
    stride: 1
    weight_filler {
      type: "gaussian"
      std: 0.118
    }
    bias_filler {
      type: "constant"
      value: 0
    }
  }
}
layer {
  name: "BatchNorm8"
  type: "BatchNorm"
  bottom: "Convolution8"
  top: "Convolution8"
  param {
    lr_mult: 0
    decay_mult: 0
  }
  param {
    lr_mult: 0
    decay_mult: 0
  }
  param {
    lr_mult: 0
    decay_mult: 0
  }
}
layer {
  name: "Scale8"
  type: "Scale"
  bottom: "Convolution8"
  top: "Convolution8"
  scale_param {
    bias_term: true
  }
}
layer {
  name: "elu8"
  type: "ELU"
  bottom: "Convolution8"
  top: "Convolution8"
  elu_param {
    alpha: 1
  }
}
layer {
  name: "Convolution9"
  type: "Convolution"
  bottom: "Convolution8"
  top: "Convolution9"
  param {
    lr_mult: 1
    decay_mult: 1
  }
  param {
    lr_mult: 2
    decay_mult: 0
  }
  convolution_param {
    num_output: 16
    pad: 1
    kernel_size: 3
    stride: 1
    weight_filler {
      type: "gaussian"
      std: 0.118
    }
    bias_filler {
      type: "constant"
      value: 0
    }
  }
}
layer {
  name: "BatchNorm9"
  type: "BatchNorm"
  bottom: "Convolution9"
  top: "Convolution9"
  param {
    lr_mult: 0
    decay_mult: 0
  }
  param {
    lr_mult: 0
    decay_mult: 0
  }
  param {
    lr_mult: 0
    decay_mult: 0
  }
}
layer {
  name: "Scale9"
  type: "Scale"
  bottom: "Convolution9"
  top: "Convolution9"
  scale_param {
    bias_term: true
  }
}
layer {
  name: "Eltwise4"
  type: "Eltwise"
  bottom: "Eltwise3"
  bottom: "Convolution9"
  top: "Eltwise4"
  eltwise_param {
    operation: SUM
  }
}
layer {
  name: "elu9"
  type: "ELU"
  bottom: "Eltwise4"
  top: "Eltwise4"
  elu_param {
    alpha: 1
  }
}
layer {
  name: "Convolution10"
  type: "Convolution"
  bottom: "Eltwise4"
  top: "Convolution10"
  param {
    lr_mult: 1
    decay_mult: 1
  }
  param {
    lr_mult: 2
    decay_mult: 0
  }
  convolution_param {
    num_output: 16
    pad: 1
    kernel_size: 3
    stride: 1
    weight_filler {
      type: "gaussian"
      std: 0.118
    }
    bias_filler {
      type: "constant"
      value: 0
    }
  }
}
layer {
  name: "BatchNorm10"
  type: "BatchNorm"
  bottom: "Convolution10"
  top: "Convolution10"
  param {
    lr_mult: 0
    decay_mult: 0
  }
  param {
    lr_mult: 0
    decay_mult: 0
  }
  param {
    lr_mult: 0
    decay_mult: 0
  }
}
layer {
  name: "Scale10"
  type: "Scale"
  bottom: "Convolution10"
  top: "Convolution10"
  scale_param {
    bias_term: true
  }
}
layer {
  name: "elu10"
  type: "ELU"
  bottom: "Convolution10"
  top: "Convolution10"
  elu_param {
    alpha: 1
  }
}
layer {
  name: "Convolution11"
  type: "Convolution"
  bottom: "Convolution10"
  top: "Convolution11"
  param {
    lr_mult: 1
    decay_mult: 1
  }
  param {
    lr_mult: 2
    decay_mult: 0
  }
  convolution_param {
    num_output: 16
    pad: 1
    kernel_size: 3
    stride: 1
    weight_filler {
      type: "gaussian"
      std: 0.118
    }
    bias_filler {
      type: "constant"
      value: 0
    }
  }
}
layer {
  name: "BatchNorm11"
  type: "BatchNorm"
  bottom: "Convolution11"
  top: "Convolution11"
  param {
    lr_mult: 0
    decay_mult: 0
  }
  param {
    lr_mult: 0
    decay_mult: 0
  }
  param {
    lr_mult: 0
    decay_mult: 0
  }
}
layer {
  name: "Scale11"
  type: "Scale"
  bottom: "Convolution11"
  top: "Convolution11"
  scale_param {
    bias_term: true
  }
}
layer {
  name: "Eltwise5"
  type: "Eltwise"
  bottom: "Eltwise4"
  bottom: "Convolution11"
  top: "Eltwise5"
  eltwise_param {
    operation: SUM
  }
}
layer {
  name: "elu11"
  type: "ELU"
  bottom: "Eltwise5"
  top: "Eltwise5"
  elu_param {
    alpha: 1
  }
}
layer {
  name: "Convolution12"
  type: "Convolution"
  bottom: "Eltwise5"
  top: "Convolution12"
  param {
    lr_mult: 1
    decay_mult: 1
  }
  param {
    lr_mult: 2
    decay_mult: 0
  }
  convolution_param {
    num_output: 32
    pad: 0
    kernel_size: 1
    stride: 2
    weight_filler {
      type: "gaussian"
      std: 0.25
    }
    bias_filler {
      type: "constant"
      value: 0
    }
  }
}
layer {
  name: "BatchNorm12"
  type: "BatchNorm"
  bottom: "Convolution12"
  top: "Convolution12"
  param {
    lr_mult: 0
    decay_mult: 0
  }
  param {
    lr_mult: 0
    decay_mult: 0
  }
  param {
    lr_mult: 0
    decay_mult: 0
  }
}
layer {
  name: "Scale12"
  type: "Scale"
  bottom: "Convolution12"
  top: "Convolution12"
  scale_param {
    bias_term: true
  }
}
layer {
  name: "Convolution13"
  type: "Convolution"
  bottom: "Eltwise5"
  top: "Convolution13"
  param {
    lr_mult: 1
    decay_mult: 1
  }
  param {
    lr_mult: 2
    decay_mult: 0
  }
  convolution_param {
    num_output: 32
    pad: 1
    kernel_size: 3
    stride: 2
    weight_filler {
      type: "gaussian"
      std: 0.083
    }
    bias_filler {
      type: "constant"
      value: 0
    }
  }
}
layer {
  name: "BatchNorm13"
  type: "BatchNorm"
  bottom: "Convolution13"
  top: "Convolution13"
  param {
    lr_mult: 0
    decay_mult: 0
  }
  param {
    lr_mult: 0
    decay_mult: 0
  }
  param {
    lr_mult: 0
    decay_mult: 0
  }
}
layer {
  name: "Scale13"
  type: "Scale"
  bottom: "Convolution13"
  top: "Convolution13"
  scale_param {
    bias_term: true
  }
}
layer {
  name: "elu12"
  type: "ELU"
  bottom: "Convolution13"
  top: "Convolution13"
  elu_param {
    alpha: 1
  }
}
layer {
  name: "Convolution14"
  type: "Convolution"
  bottom: "Convolution13"
  top: "Convolution14"
  param {
    lr_mult: 1
    decay_mult: 1
  }
  param {
    lr_mult: 2
    decay_mult: 0
  }
  convolution_param {
    num_output: 32
    pad: 1
    kernel_size: 3
    stride: 1
    weight_filler {
      type: "gaussian"
      std: 0.083
    }
    bias_filler {
      type: "constant"
      value: 0
    }
  }
}
layer {
  name: "BatchNorm14"
  type: "BatchNorm"
  bottom: "Convolution14"
  top: "Convolution14"
  param {
    lr_mult: 0
    decay_mult: 0
  }
  param {
    lr_mult: 0
    decay_mult: 0
  }
  param {
    lr_mult: 0
    decay_mult: 0
  }
}
layer {
  name: "Scale14"
  type: "Scale"
  bottom: "Convolution14"
  top: "Convolution14"
  scale_param {
    bias_term: true
  }
}
layer {
  name: "Eltwise6"
  type: "Eltwise"
  bottom: "Convolution12"
  bottom: "Convolution14"
  top: "Eltwise6"
  eltwise_param {
    operation: SUM
  }
}
layer {
  name: "elu13"
  type: "ELU"
  bottom: "Eltwise6"
  top: "Eltwise6"
  elu_param {
    alpha: 1
  }
}
layer {
  name: "Convolution15"
  type: "Convolution"
  bottom: "Eltwise6"
  top: "Convolution15"
  param {
    lr_mult: 1
    decay_mult: 1
  }
  param {
    lr_mult: 2
    decay_mult: 0
  }
  convolution_param {
    num_output: 32
    pad: 1
    kernel_size: 3
    stride: 1
    weight_filler {
      type: "gaussian"
      std: 0.083
    }
    bias_filler {
      type: "constant"
      value: 0
    }
  }
}
layer {
  name: "BatchNorm15"
  type: "BatchNorm"
  bottom: "Convolution15"
  top: "Convolution15"
  param {
    lr_mult: 0
    decay_mult: 0
  }
  param {
    lr_mult: 0
    decay_mult: 0
  }
  param {
    lr_mult: 0
    decay_mult: 0
  }
}
layer {
  name: "Scale15"
  type: "Scale"
  bottom: "Convolution15"
  top: "Convolution15"
  scale_param {
    bias_term: true
  }
}
layer {
  name: "elu14"
  type: "ELU"
  bottom: "Convolution15"
  top: "Convolution15"
  elu_param {
    alpha: 1
  }
}
layer {
  name: "Convolution16"
  type: "Convolution"
  bottom: "Convolution15"
  top: "Convolution16"
  param {
    lr_mult: 1
    decay_mult: 1
  }
  param {
    lr_mult: 2
    decay_mult: 0
  }
  convolution_param {
    num_output: 32
    pad: 1
    kernel_size: 3
    stride: 1
    weight_filler {
      type: "gaussian"
      std: 0.083
    }
    bias_filler {
      type: "constant"
      value: 0
    }
  }
}
layer {
  name: "BatchNorm16"
  type: "BatchNorm"
  bottom: "Convolution16"
  top: "Convolution16"
  param {
    lr_mult: 0
    decay_mult: 0
  }
  param {
    lr_mult: 0
    decay_mult: 0
  }
  param {
    lr_mult: 0
    decay_mult: 0
  }
}
layer {
  name: "Scale16"
  type: "Scale"
  bottom: "Convolution16"
  top: "Convolution16"
  scale_param {
    bias_term: true
  }
}
layer {
  name: "Eltwise7"
  type: "Eltwise"
  bottom: "Eltwise6"
  bottom: "Convolution16"
  top: "Eltwise7"
  eltwise_param {
    operation: SUM
  }
}
layer {
  name: "elu15"
  type: "ELU"
  bottom: "Eltwise7"
  top: "Eltwise7"
  elu_param {
    alpha: 1
  }
}
layer {
  name: "Convolution17"
  type: "Convolution"
  bottom: "Eltwise7"
  top: "Convolution17"
  param {
    lr_mult: 1
    decay_mult: 1
  }
  param {
    lr_mult: 2
    decay_mult: 0
  }
  convolution_param {
    num_output: 32
    pad: 1
    kernel_size: 3
    stride: 1
    weight_filler {
      type: "gaussian"
      std: 0.083
    }
    bias_filler {
      type: "constant"
      value: 0
    }
  }
}
layer {
  name: "BatchNorm17"
  type: "BatchNorm"
  bottom: "Convolution17"
  top: "Convolution17"
  param {
    lr_mult: 0
    decay_mult: 0
  }
  param {
    lr_mult: 0
    decay_mult: 0
  }
  param {
    lr_mult: 0
    decay_mult: 0
  }
}
layer {
  name: "Scale17"
  type: "Scale"
  bottom: "Convolution17"
  top: "Convolution17"
  scale_param {
    bias_term: true
  }
}
layer {
  name: "elu16"
  type: "ELU"
  bottom: "Convolution17"
  top: "Convolution17"
  elu_param {
    alpha: 1
  }
}
layer {
  name: "Convolution18"
  type: "Convolution"
  bottom: "Convolution17"
  top: "Convolution18"
  param {
    lr_mult: 1
    decay_mult: 1
  }
  param {
    lr_mult: 2
    decay_mult: 0
  }
  convolution_param {
    num_output: 32
    pad: 1
    kernel_size: 3
    stride: 1
    weight_filler {
      type: "gaussian"
      std: 0.083
    }
    bias_filler {
      type: "constant"
      value: 0
    }
  }
}
layer {
  name: "BatchNorm18"
  type: "BatchNorm"
  bottom: "Convolution18"
  top: "Convolution18"
  param {
    lr_mult: 0
    decay_mult: 0
  }
  param {
    lr_mult: 0
    decay_mult: 0
  }
  param {
    lr_mult: 0
    decay_mult: 0
  }
}
layer {
  name: "Scale18"
  type: "Scale"
  bottom: "Convolution18"
  top: "Convolution18"
  scale_param {
    bias_term: true
  }
}
layer {
  name: "Eltwise8"
  type: "Eltwise"
  bottom: "Eltwise7"
  bottom: "Convolution18"
  top: "Eltwise8"
  eltwise_param {
    operation: SUM
  }
}
layer {
  name: "elu17"
  type: "ELU"
  bottom: "Eltwise8"
  top: "Eltwise8"
  elu_param {
    alpha: 1
  }
}
layer {
  name: "Convolution19"
  type: "Convolution"
  bottom: "Eltwise8"
  top: "Convolution19"
  param {
    lr_mult: 1
    decay_mult: 1
  }
  param {
    lr_mult: 2
    decay_mult: 0
  }
  convolution_param {
    num_output: 32
    pad: 1
    kernel_size: 3
    stride: 1
    weight_filler {
      type: "gaussian"
      std: 0.083
    }
    bias_filler {
      type: "constant"
      value: 0
    }
  }
}
layer {
  name: "BatchNorm19"
  type: "BatchNorm"
  bottom: "Convolution19"
  top: "Convolution19"
  param {
    lr_mult: 0
    decay_mult: 0
  }
  param {
    lr_mult: 0
    decay_mult: 0
  }
  param {
    lr_mult: 0
    decay_mult: 0
  }
}
layer {
  name: "Scale19"
  type: "Scale"
  bottom: "Convolution19"
  top: "Convolution19"
  scale_param {
    bias_term: true
  }
}
layer {
  name: "elu18"
  type: "ELU"
  bottom: "Convolution19"
  top: "Convolution19"
  elu_param {
    alpha: 1
  }
}
layer {
  name: "Convolution20"
  type: "Convolution"
  bottom: "Convolution19"
  top: "Convolution20"
  param {
    lr_mult: 1
    decay_mult: 1
  }
  param {
    lr_mult: 2
    decay_mult: 0
  }
  convolution_param {
    num_output: 32
    pad: 1
    kernel_size: 3
    stride: 1
    weight_filler {
      type: "gaussian"
      std: 0.083
    }
    bias_filler {
      type: "constant"
      value: 0
    }
  }
}
layer {
  name: "BatchNorm20"
  type: "BatchNorm"
  bottom: "Convolution20"
  top: "Convolution20"
  param {
    lr_mult: 0
    decay_mult: 0
  }
  param {
    lr_mult: 0
    decay_mult: 0
  }
  param {
    lr_mult: 0
    decay_mult: 0
  }
}
layer {
  name: "Scale20"
  type: "Scale"
  bottom: "Convolution20"
  top: "Convolution20"
  scale_param {
    bias_term: true
  }
}
layer {
  name: "Eltwise9"
  type: "Eltwise"
  bottom: "Eltwise8"
  bottom: "Convolution20"
  top: "Eltwise9"
  eltwise_param {
    operation: SUM
  }
}
layer {
  name: "elu19"
  type: "ELU"
  bottom: "Eltwise9"
  top: "Eltwise9"
  elu_param {
    alpha: 1
  }
}
layer {
  name: "Convolution21"
  type: "Convolution"
  bottom: "Eltwise9"
  top: "Convolution21"
  param {
    lr_mult: 1
    decay_mult: 1
  }
  param {
    lr_mult: 2
    decay_mult: 0
  }
  convolution_param {
    num_output: 32
    pad: 1
    kernel_size: 3
    stride: 1
    weight_filler {
      type: "gaussian"
      std: 0.083
    }
    bias_filler {
      type: "constant"
      value: 0
    }
  }
}
layer {
  name: "BatchNorm21"
  type: "BatchNorm"
  bottom: "Convolution21"
  top: "Convolution21"
  param {
    lr_mult: 0
    decay_mult: 0
  }
  param {
    lr_mult: 0
    decay_mult: 0
  }
  param {
    lr_mult: 0
    decay_mult: 0
  }
}
layer {
  name: "Scale21"
  type: "Scale"
  bottom: "Convolution21"
  top: "Convolution21"
  scale_param {
    bias_term: true
  }
}
layer {
  name: "elu20"
  type: "ELU"
  bottom: "Convolution21"
  top: "Convolution21"
  elu_param {
    alpha: 1
  }
}
layer {
  name: "Convolution22"
  type: "Convolution"
  bottom: "Convolution21"
  top: "Convolution22"
  param {
    lr_mult: 1
    decay_mult: 1
  }
  param {
    lr_mult: 2
    decay_mult: 0
  }
  convolution_param {
    num_output: 32
    pad: 1
    kernel_size: 3
    stride: 1
    weight_filler {
      type: "gaussian"
      std: 0.083
    }
    bias_filler {
      type: "constant"
      value: 0
    }
  }
}
layer {
  name: "BatchNorm22"
  type: "BatchNorm"
  bottom: "Convolution22"
  top: "Convolution22"
  param {
    lr_mult: 0
    decay_mult: 0
  }
  param {
    lr_mult: 0
    decay_mult: 0
  }
  param {
    lr_mult: 0
    decay_mult: 0
  }
}
layer {
  name: "Scale22"
  type: "Scale"
  bottom: "Convolution22"
  top: "Convolution22"
  scale_param {
    bias_term: true
  }
}
layer {
  name: "Eltwise10"
  type: "Eltwise"
  bottom: "Eltwise9"
  bottom: "Convolution22"
  top: "Eltwise10"
  eltwise_param {
    operation: SUM
  }
}
layer {
  name: "elu21"
  type: "ELU"
  bottom: "Eltwise10"
  top: "Eltwise10"
  elu_param {
    alpha: 1
  }
}
layer {
  name: "Convolution23"
  type: "Convolution"
  bottom: "Eltwise10"
  top: "Convolution23"
  param {
    lr_mult: 1
    decay_mult: 1
  }
  param {
    lr_mult: 2
    decay_mult: 0
  }
  convolution_param {
    num_output: 64
    pad: 0
    kernel_size: 1
    stride: 2
    weight_filler {
      type: "gaussian"
      std: 0.17677669
    }
    bias_filler {
      type: "constant"
      value: 0
    }
  }
}
layer {
  name: "BatchNorm23"
  type: "BatchNorm"
  bottom: "Convolution23"
  top: "Convolution23"
  param {
    lr_mult: 0
    decay_mult: 0
  }
  param {
    lr_mult: 0
    decay_mult: 0
  }
  param {
    lr_mult: 0
    decay_mult: 0
  }
}
layer {
  name: "Scale23"
  type: "Scale"
  bottom: "Convolution23"
  top: "Convolution23"
  scale_param {
    bias_term: true
  }
}
layer {
  name: "Convolution24"
  type: "Convolution"
  bottom: "Eltwise10"
  top: "Convolution24"
  param {
    lr_mult: 1
    decay_mult: 1
  }
  param {
    lr_mult: 2
    decay_mult: 0
  }
  convolution_param {
    num_output: 64
    pad: 1
    kernel_size: 3
    stride: 2
    weight_filler {
      type: "gaussian"
      std: 0.059
    }
    bias_filler {
      type: "constant"
      value: 0
    }
  }
}
layer {
  name: "BatchNorm24"
  type: "BatchNorm"
  bottom: "Convolution24"
  top: "Convolution24"
  param {
    lr_mult: 0
    decay_mult: 0
  }
  param {
    lr_mult: 0
    decay_mult: 0
  }
  param {
    lr_mult: 0
    decay_mult: 0
  }
}
layer {
  name: "Scale24"
  type: "Scale"
  bottom: "Convolution24"
  top: "Convolution24"
  scale_param {
    bias_term: true
  }
}
layer {
  name: "elu22"
  type: "ELU"
  bottom: "Convolution24"
  top: "Convolution24"
  elu_param {
    alpha: 1
  }
}
layer {
  name: "Convolution25"
  type: "Convolution"
  bottom: "Convolution24"
  top: "Convolution25"
  param {
    lr_mult: 1
    decay_mult: 1
  }
  param {
    lr_mult: 2
    decay_mult: 0
  }
  convolution_param {
    num_output: 64
    pad: 1
    kernel_size: 3
    stride: 1
    weight_filler {
      type: "gaussian"
      std: 0.059
    }
    bias_filler {
      type: "constant"
      value: 0
    }
  }
}
layer {
  name: "BatchNorm25"
  type: "BatchNorm"
  bottom: "Convolution25"
  top: "Convolution25"
  param {
    lr_mult: 0
    decay_mult: 0
  }
  param {
    lr_mult: 0
    decay_mult: 0
  }
  param {
    lr_mult: 0
    decay_mult: 0
  }
}
layer {
  name: "Scale25"
  type: "Scale"
  bottom: "Convolution25"
  top: "Convolution25"
  scale_param {
    bias_term: true
  }
}
layer {
  name: "Eltwise11"
  type: "Eltwise"
  bottom: "Convolution23"
  bottom: "Convolution25"
  top: "Eltwise11"
  eltwise_param {
    operation: SUM
  }
}
layer {
  name: "elu23"
  type: "ELU"
  bottom: "Eltwise11"
  top: "Eltwise11"
  elu_param {
    alpha: 1
  }
}
layer {
  name: "Convolution26"
  type: "Convolution"
  bottom: "Eltwise11"
  top: "Convolution26"
  param {
    lr_mult: 1
    decay_mult: 1
  }
  param {
    lr_mult: 2
    decay_mult: 0
  }
  convolution_param {
    num_output: 64
    pad: 1
    kernel_size: 3
    stride: 1
    weight_filler {
      type: "gaussian"
      std: 0.059
    }
    bias_filler {
      type: "constant"
      value: 0
    }
  }
}
layer {
  name: "BatchNorm26"
  type: "BatchNorm"
  bottom: "Convolution26"
  top: "Convolution26"
  param {
    lr_mult: 0
    decay_mult: 0
  }
  param {
    lr_mult: 0
    decay_mult: 0
  }
  param {
    lr_mult: 0
    decay_mult: 0
  }
}
layer {
  name: "Scale26"
  type: "Scale"
  bottom: "Convolution26"
  top: "Convolution26"
  scale_param {
    bias_term: true
  }
}
layer {
  name: "elu24"
  type: "ELU"
  bottom: "Convolution26"
  top: "Convolution26"
  elu_param {
    alpha: 1
  }
}
layer {
  name: "Convolution27"
  type: "Convolution"
  bottom: "Convolution26"
  top: "Convolution27"
  param {
    lr_mult: 1
    decay_mult: 1
  }
  param {
    lr_mult: 2
    decay_mult: 0
  }
  convolution_param {
    num_output: 64
    pad: 1
    kernel_size: 3
    stride: 1
    weight_filler {
      type: "gaussian"
      std: 0.059
    }
    bias_filler {
      type: "constant"
      value: 0
    }
  }
}
layer {
  name: "BatchNorm27"
  type: "BatchNorm"
  bottom: "Convolution27"
  top: "Convolution27"
  param {
    lr_mult: 0
    decay_mult: 0
  }
  param {
    lr_mult: 0
    decay_mult: 0
  }
  param {
    lr_mult: 0
    decay_mult: 0
  }
}
layer {
  name: "Scale27"
  type: "Scale"
  bottom: "Convolution27"
  top: "Convolution27"
  scale_param {
    bias_term: true
  }
}
layer {
  name: "Eltwise12"
  type: "Eltwise"
  bottom: "Eltwise11"
  bottom: "Convolution27"
  top: "Eltwise12"
  eltwise_param {
    operation: SUM
  }
}
layer {
  name: "elu25"
  type: "ELU"
  bottom: "Eltwise12"
  top: "Eltwise12"
  elu_param {
    alpha: 1
  }
}
layer {
  name: "Convolution28"
  type: "Convolution"
  bottom: "Eltwise12"
  top: "Convolution28"
  param {
    lr_mult: 1
    decay_mult: 1
  }
  param {
    lr_mult: 2
    decay_mult: 0
  }
  convolution_param {
    num_output: 64
    pad: 1
    kernel_size: 3
    stride: 1
    weight_filler {
      type: "gaussian"
      std: 0.059
    }
    bias_filler {
      type: "constant"
      value: 0
    }
  }
}
layer {
  name: "BatchNorm28"
  type: "BatchNorm"
  bottom: "Convolution28"
  top: "Convolution28"
  param {
    lr_mult: 0
    decay_mult: 0
  }
  param {
    lr_mult: 0
    decay_mult: 0
  }
  param {
    lr_mult: 0
    decay_mult: 0
  }
}
layer {
  name: "Scale28"
  type: "Scale"
  bottom: "Convolution28"
  top: "Convolution28"
  scale_param {
    bias_term: true
  }
}
layer {
  name: "elu26"
  type: "ELU"
  bottom: "Convolution28"
  top: "Convolution28"
  elu_param {
    alpha: 1
  }
}
layer {
  name: "Convolution29"
  type: "Convolution"
  bottom: "Convolution28"
  top: "Convolution29"
  param {
    lr_mult: 1
    decay_mult: 1
  }
  param {
    lr_mult: 2
    decay_mult: 0
  }
  convolution_param {
    num_output: 64
    pad: 1
    kernel_size: 3
    stride: 1
    weight_filler {
      type: "gaussian"
      std: 0.059
    }
    bias_filler {
      type: "constant"
      value: 0
    }
  }
}
layer {
  name: "BatchNorm29"
  type: "BatchNorm"
  bottom: "Convolution29"
  top: "Convolution29"
  param {
    lr_mult: 0
    decay_mult: 0
  }
  param {
    lr_mult: 0
    decay_mult: 0
  }
  param {
    lr_mult: 0
    decay_mult: 0
  }
}
layer {
  name: "Scale29"
  type: "Scale"
  bottom: "Convolution29"
  top: "Convolution29"
  scale_param {
    bias_term: true
  }
}
layer {
  name: "Eltwise13"
  type: "Eltwise"
  bottom: "Eltwise12"
  bottom: "Convolution29"
  top: "Eltwise13"
  eltwise_param {
    operation: SUM
  }
}
layer {
  name: "elu27"
  type: "ELU"
  bottom: "Eltwise13"
  top: "Eltwise13"
  elu_param {
    alpha: 1
  }
}
layer {
  name: "Convolution30"
  type: "Convolution"
  bottom: "Eltwise13"
  top: "Convolution30"
  param {
    lr_mult: 1
    decay_mult: 1
  }
  param {
    lr_mult: 2
    decay_mult: 0
  }
  convolution_param {
    num_output: 64
    pad: 1
    kernel_size: 3
    stride: 1
    weight_filler {
      type: "gaussian"
      std: 0.059
    }
    bias_filler {
      type: "constant"
      value: 0
    }
  }
}
layer {
  name: "BatchNorm30"
  type: "BatchNorm"
  bottom: "Convolution30"
  top: "Convolution30"
  param {
    lr_mult: 0
    decay_mult: 0
  }
  param {
    lr_mult: 0
    decay_mult: 0
  }
  param {
    lr_mult: 0
    decay_mult: 0
  }
}
layer {
  name: "Scale30"
  type: "Scale"
  bottom: "Convolution30"
  top: "Convolution30"
  scale_param {
    bias_term: true
  }
}
layer {
  name: "elu28"
  type: "ELU"
  bottom: "Convolution30"
  top: "Convolution30"
  elu_param {
    alpha: 1
  }
}
layer {
  name: "Convolution31"
  type: "Convolution"
  bottom: "Convolution30"
  top: "Convolution31"
  param {
    lr_mult: 1
    decay_mult: 1
  }
  param {
    lr_mult: 2
    decay_mult: 0
  }
  convolution_param {
    num_output: 64
    pad: 1
    kernel_size: 3
    stride: 1
    weight_filler {
      type: "gaussian"
      std: 0.059
    }
    bias_filler {
      type: "constant"
      value: 0
    }
  }
}
layer {
  name: "BatchNorm31"
  type: "BatchNorm"
  bottom: "Convolution31"
  top: "Convolution31"
  param {
    lr_mult: 0
    decay_mult: 0
  }
  param {
    lr_mult: 0
    decay_mult: 0
  }
  param {
    lr_mult: 0
    decay_mult: 0
  }
}
layer {
  name: "Scale
I1007 22:14:13.324190  5289 layer_factory.hpp:77] Creating layer Data1
I1007 22:14:13.324286  5289 db_lmdb.cpp:35] Opened lmdb /home/x306/caffe/xn/PENLU/data/cifar10/cifar10_train_lmdb
I1007 22:14:13.324311  5289 net.cpp:84] Creating Layer Data1
I1007 22:14:13.324318  5289 net.cpp:380] Data1 -> Data1
I1007 22:14:13.324340  5289 net.cpp:380] Data1 -> Data2
I1007 22:14:13.324352  5289 data_transformer.cpp:25] Loading mean file from: /home/x306/caffe/xn/PENLU/data/cifar10/mean.binaryproto
I1007 22:14:13.325742  5289 data_layer.cpp:45] output data size: 100,3,28,28
I1007 22:14:13.328029  5289 net.cpp:122] Setting up Data1
I1007 22:14:13.328042  5289 net.cpp:129] Top shape: 100 3 28 28 (235200)
I1007 22:14:13.328047  5289 net.cpp:129] Top shape: 100 (100)
I1007 22:14:13.328048  5289 net.cpp:137] Memory required for data: 941200
I1007 22:14:13.328054  5289 layer_factory.hpp:77] Creating layer Convolution1
I1007 22:14:13.328073  5289 net.cpp:84] Creating Layer Convolution1
I1007 22:14:13.328078  5289 net.cpp:406] Convolution1 <- Data1
I1007 22:14:13.328085  5289 net.cpp:380] Convolution1 -> Convolution1
I1007 22:14:13.474184  5289 net.cpp:122] Setting up Convolution1
I1007 22:14:13.474217  5289 net.cpp:129] Top shape: 100 16 28 28 (1254400)
I1007 22:14:13.474221  5289 net.cpp:137] Memory required for data: 5958800
I1007 22:14:13.474237  5289 layer_factory.hpp:77] Creating layer BatchNorm1
I1007 22:14:13.474261  5289 net.cpp:84] Creating Layer BatchNorm1
I1007 22:14:13.474278  5289 net.cpp:406] BatchNorm1 <- Convolution1
I1007 22:14:13.474311  5289 net.cpp:367] BatchNorm1 -> Convolution1 (in-place)
I1007 22:14:13.474474  5289 net.cpp:122] Setting up BatchNorm1
I1007 22:14:13.474480  5289 net.cpp:129] Top shape: 100 16 28 28 (1254400)
I1007 22:14:13.474493  5289 net.cpp:137] Memory required for data: 10976400
I1007 22:14:13.474500  5289 layer_factory.hpp:77] Creating layer Scale1
I1007 22:14:13.474524  5289 net.cpp:84] Creating Layer Scale1
I1007 22:14:13.474526  5289 net.cpp:406] Scale1 <- Convolution1
I1007 22:14:13.474530  5289 net.cpp:367] Scale1 -> Convolution1 (in-place)
I1007 22:14:13.474591  5289 layer_factory.hpp:77] Creating layer Scale1
I1007 22:14:13.474737  5289 net.cpp:122] Setting up Scale1
I1007 22:14:13.474742  5289 net.cpp:129] Top shape: 100 16 28 28 (1254400)
I1007 22:14:13.474745  5289 net.cpp:137] Memory required for data: 15994000
I1007 22:14:13.474750  5289 layer_factory.hpp:77] Creating layer elu1
I1007 22:14:13.474753  5289 net.cpp:84] Creating Layer elu1
I1007 22:14:13.474756  5289 net.cpp:406] elu1 <- Convolution1
I1007 22:14:13.474759  5289 net.cpp:367] elu1 -> Convolution1 (in-place)
I1007 22:14:13.474777  5289 net.cpp:122] Setting up elu1
I1007 22:14:13.474781  5289 net.cpp:129] Top shape: 100 16 28 28 (1254400)
I1007 22:14:13.474797  5289 net.cpp:137] Memory required for data: 21011600
I1007 22:14:13.474800  5289 layer_factory.hpp:77] Creating layer Convolution1_elu1_0_split
I1007 22:14:13.474815  5289 net.cpp:84] Creating Layer Convolution1_elu1_0_split
I1007 22:14:13.474818  5289 net.cpp:406] Convolution1_elu1_0_split <- Convolution1
I1007 22:14:13.474822  5289 net.cpp:380] Convolution1_elu1_0_split -> Convolution1_elu1_0_split_0
I1007 22:14:13.474839  5289 net.cpp:380] Convolution1_elu1_0_split -> Convolution1_elu1_0_split_1
I1007 22:14:13.474881  5289 net.cpp:122] Setting up Convolution1_elu1_0_split
I1007 22:14:13.474895  5289 net.cpp:129] Top shape: 100 16 28 28 (1254400)
I1007 22:14:13.474897  5289 net.cpp:129] Top shape: 100 16 28 28 (1254400)
I1007 22:14:13.474910  5289 net.cpp:137] Memory required for data: 31046800
I1007 22:14:13.474911  5289 layer_factory.hpp:77] Creating layer Convolution2
I1007 22:14:13.474920  5289 net.cpp:84] Creating Layer Convolution2
I1007 22:14:13.474923  5289 net.cpp:406] Convolution2 <- Convolution1_elu1_0_split_0
I1007 22:14:13.474930  5289 net.cpp:380] Convolution2 -> Convolution2
I1007 22:14:13.475797  5289 net.cpp:122] Setting up Convolution2
I1007 22:14:13.475816  5289 net.cpp:129] Top shape: 100 16 28 28 (1254400)
I1007 22:14:13.475821  5289 net.cpp:137] Memory required for data: 36064400
I1007 22:14:13.475841  5289 layer_factory.hpp:77] Creating layer BatchNorm2
I1007 22:14:13.475848  5289 net.cpp:84] Creating Layer BatchNorm2
I1007 22:14:13.475853  5289 net.cpp:406] BatchNorm2 <- Convolution2
I1007 22:14:13.475859  5289 net.cpp:367] BatchNorm2 -> Convolution2 (in-place)
I1007 22:14:13.476009  5289 net.cpp:122] Setting up BatchNorm2
I1007 22:14:13.476016  5289 net.cpp:129] Top shape: 100 16 28 28 (1254400)
I1007 22:14:13.476018  5289 net.cpp:137] Memory required for data: 41082000
I1007 22:14:13.476034  5289 layer_factory.hpp:77] Creating layer Scale2
I1007 22:14:13.476056  5289 net.cpp:84] Creating Layer Scale2
I1007 22:14:13.476059  5289 net.cpp:406] Scale2 <- Convolution2
I1007 22:14:13.476063  5289 net.cpp:367] Scale2 -> Convolution2 (in-place)
I1007 22:14:13.476097  5289 layer_factory.hpp:77] Creating layer Scale2
I1007 22:14:13.476220  5289 net.cpp:122] Setting up Scale2
I1007 22:14:13.476225  5289 net.cpp:129] Top shape: 100 16 28 28 (1254400)
I1007 22:14:13.476228  5289 net.cpp:137] Memory required for data: 46099600
I1007 22:14:13.476243  5289 layer_factory.hpp:77] Creating layer elu2
I1007 22:14:13.476246  5289 net.cpp:84] Creating Layer elu2
I1007 22:14:13.476261  5289 net.cpp:406] elu2 <- Convolution2
I1007 22:14:13.476264  5289 net.cpp:367] elu2 -> Convolution2 (in-place)
I1007 22:14:13.476269  5289 net.cpp:122] Setting up elu2
I1007 22:14:13.476276  5289 net.cpp:129] Top shape: 100 16 28 28 (1254400)
I1007 22:14:13.476296  5289 net.cpp:137] Memory required for data: 51117200
I1007 22:14:13.476300  5289 layer_factory.hpp:77] Creating layer Convolution3
I1007 22:14:13.476318  5289 net.cpp:84] Creating Layer Convolution3
I1007 22:14:13.476321  5289 net.cpp:406] Convolution3 <- Convolution2
I1007 22:14:13.476326  5289 net.cpp:380] Convolution3 -> Convolution3
I1007 22:14:13.477149  5289 net.cpp:122] Setting up Convolution3
I1007 22:14:13.477159  5289 net.cpp:129] Top shape: 100 16 28 28 (1254400)
I1007 22:14:13.477165  5289 net.cpp:137] Memory required for data: 56134800
I1007 22:14:13.477172  5289 layer_factory.hpp:77] Creating layer BatchNorm3
I1007 22:14:13.477180  5289 net.cpp:84] Creating Layer BatchNorm3
I1007 22:14:13.477183  5289 net.cpp:406] BatchNorm3 <- Convolution3
I1007 22:14:13.477190  5289 net.cpp:367] BatchNorm3 -> Convolution3 (in-place)
I1007 22:14:13.477304  5289 net.cpp:122] Setting up BatchNorm3
I1007 22:14:13.477310  5289 net.cpp:129] Top shape: 100 16 28 28 (1254400)
I1007 22:14:13.477314  5289 net.cpp:137] Memory required for data: 61152400
I1007 22:14:13.477324  5289 layer_factory.hpp:77] Creating layer Scale3
I1007 22:14:13.477329  5289 net.cpp:84] Creating Layer Scale3
I1007 22:14:13.477334  5289 net.cpp:406] Scale3 <- Convolution3
I1007 22:14:13.477339  5289 net.cpp:367] Scale3 -> Convolution3 (in-place)
I1007 22:14:13.477365  5289 layer_factory.hpp:77] Creating layer Scale3
I1007 22:14:13.477437  5289 net.cpp:122] Setting up Scale3
I1007 22:14:13.477443  5289 net.cpp:129] Top shape: 100 16 28 28 (1254400)
I1007 22:14:13.477447  5289 net.cpp:137] Memory required for data: 66170000
I1007 22:14:13.477454  5289 layer_factory.hpp:77] Creating layer Eltwise1
I1007 22:14:13.477459  5289 net.cpp:84] Creating Layer Eltwise1
I1007 22:14:13.477463  5289 net.cpp:406] Eltwise1 <- Convolution1_elu1_0_split_1
I1007 22:14:13.477468  5289 net.cpp:406] Eltwise1 <- Convolution3
I1007 22:14:13.477473  5289 net.cpp:380] Eltwise1 -> Eltwise1
I1007 22:14:13.477494  5289 net.cpp:122] Setting up Eltwise1
I1007 22:14:13.477497  5289 net.cpp:129] Top shape: 100 16 28 28 (1254400)
I1007 22:14:13.477502  5289 net.cpp:137] Memory required for data: 71187600
I1007 22:14:13.477506  5289 layer_factory.hpp:77] Creating layer elu3
I1007 22:14:13.477511  5289 net.cpp:84] Creating Layer elu3
I1007 22:14:13.477515  5289 net.cpp:406] elu3 <- Eltwise1
I1007 22:14:13.477520  5289 net.cpp:367] elu3 -> Eltwise1 (in-place)
I1007 22:14:13.477525  5289 net.cpp:122] Setting up elu3
I1007 22:14:13.477530  5289 net.cpp:129] Top shape: 100 16 28 28 (1254400)
I1007 22:14:13.477535  5289 net.cpp:137] Memory required for data: 76205200
I1007 22:14:13.477538  5289 layer_factory.hpp:77] Creating layer Eltwise1_elu3_0_split
I1007 22:14:13.477545  5289 net.cpp:84] Creating Layer Eltwise1_elu3_0_split
I1007 22:14:13.477547  5289 net.cpp:406] Eltwise1_elu3_0_split <- Eltwise1
I1007 22:14:13.477551  5289 net.cpp:380] Eltwise1_elu3_0_split -> Eltwise1_elu3_0_split_0
I1007 22:14:13.477558  5289 net.cpp:380] Eltwise1_elu3_0_split -> Eltwise1_elu3_0_split_1
I1007 22:14:13.477581  5289 net.cpp:122] Setting up Eltwise1_elu3_0_split
I1007 22:14:13.477586  5289 net.cpp:129] Top shape: 100 16 28 28 (1254400)
I1007 22:14:13.477591  5289 net.cpp:129] Top shape: 100 16 28 28 (1254400)
I1007 22:14:13.477594  5289 net.cpp:137] Memory required for data: 86240400
I1007 22:14:13.477597  5289 layer_factory.hpp:77] Creating layer Convolution4
I1007 22:14:13.477607  5289 net.cpp:84] Creating Layer Convolution4
I1007 22:14:13.477610  5289 net.cpp:406] Convolution4 <- Eltwise1_elu3_0_split_0
I1007 22:14:13.477615  5289 net.cpp:380] Convolution4 -> Convolution4
I1007 22:14:13.478435  5289 net.cpp:122] Setting up Convolution4
I1007 22:14:13.478446  5289 net.cpp:129] Top shape: 100 16 28 28 (1254400)
I1007 22:14:13.478451  5289 net.cpp:137] Memory required for data: 91258000
I1007 22:14:13.478457  5289 layer_factory.hpp:77] Creating layer BatchNorm4
I1007 22:14:13.478464  5289 net.cpp:84] Creating Layer BatchNorm4
I1007 22:14:13.478468  5289 net.cpp:406] BatchNorm4 <- Convolution4
I1007 22:14:13.478482  5289 net.cpp:367] BatchNorm4 -> Convolution4 (in-place)
I1007 22:14:13.478596  5289 net.cpp:122] Setting up BatchNorm4
I1007 22:14:13.478602  5289 net.cpp:129] Top shape: 100 16 28 28 (1254400)
I1007 22:14:13.478607  5289 net.cpp:137] Memory required for data: 96275600
I1007 22:14:13.478615  5289 layer_factory.hpp:77] Creating layer Scale4
I1007 22:14:13.478621  5289 net.cpp:84] Creating Layer Scale4
I1007 22:14:13.478624  5289 net.cpp:406] Scale4 <- Convolution4
I1007 22:14:13.478631  5289 net.cpp:367] Scale4 -> Convolution4 (in-place)
I1007 22:14:13.478657  5289 layer_factory.hpp:77] Creating layer Scale4
I1007 22:14:13.478725  5289 net.cpp:122] Setting up Scale4
I1007 22:14:13.478731  5289 net.cpp:129] Top shape: 100 16 28 28 (1254400)
I1007 22:14:13.478735  5289 net.cpp:137] Memory required for data: 101293200
I1007 22:14:13.478741  5289 layer_factory.hpp:77] Creating layer elu4
I1007 22:14:13.478746  5289 net.cpp:84] Creating Layer elu4
I1007 22:14:13.478750  5289 net.cpp:406] elu4 <- Convolution4
I1007 22:14:13.478755  5289 net.cpp:367] elu4 -> Convolution4 (in-place)
I1007 22:14:13.478761  5289 net.cpp:122] Setting up elu4
I1007 22:14:13.478765  5289 net.cpp:129] Top shape: 100 16 28 28 (1254400)
I1007 22:14:13.478770  5289 net.cpp:137] Memory required for data: 106310800
I1007 22:14:13.478773  5289 layer_factory.hpp:77] Creating layer Convolution5
I1007 22:14:13.478781  5289 net.cpp:84] Creating Layer Convolution5
I1007 22:14:13.478785  5289 net.cpp:406] Convolution5 <- Convolution4
I1007 22:14:13.478790  5289 net.cpp:380] Convolution5 -> Convolution5
I1007 22:14:13.479634  5289 net.cpp:122] Setting up Convolution5
I1007 22:14:13.479643  5289 net.cpp:129] Top shape: 100 16 28 28 (1254400)
I1007 22:14:13.479650  5289 net.cpp:137] Memory required for data: 111328400
I1007 22:14:13.479656  5289 layer_factory.hpp:77] Creating layer BatchNorm5
I1007 22:14:13.479663  5289 net.cpp:84] Creating Layer BatchNorm5
I1007 22:14:13.479667  5289 net.cpp:406] BatchNorm5 <- Convolution5
I1007 22:14:13.479673  5289 net.cpp:367] BatchNorm5 -> Convolution5 (in-place)
I1007 22:14:13.479790  5289 net.cpp:122] Setting up BatchNorm5
I1007 22:14:13.479796  5289 net.cpp:129] Top shape: 100 16 28 28 (1254400)
I1007 22:14:13.479800  5289 net.cpp:137] Memory required for data: 116346000
I1007 22:14:13.479811  5289 layer_factory.hpp:77] Creating layer Scale5
I1007 22:14:13.479816  5289 net.cpp:84] Creating Layer Scale5
I1007 22:14:13.479820  5289 net.cpp:406] Scale5 <- Convolution5
I1007 22:14:13.479825  5289 net.cpp:367] Scale5 -> Convolution5 (in-place)
I1007 22:14:13.479852  5289 layer_factory.hpp:77] Creating layer Scale5
I1007 22:14:13.479923  5289 net.cpp:122] Setting up Scale5
I1007 22:14:13.479928  5289 net.cpp:129] Top shape: 100 16 28 28 (1254400)
I1007 22:14:13.479933  5289 net.cpp:137] Memory required for data: 121363600
I1007 22:14:13.479939  5289 layer_factory.hpp:77] Creating layer Eltwise2
I1007 22:14:13.479945  5289 net.cpp:84] Creating Layer Eltwise2
I1007 22:14:13.479949  5289 net.cpp:406] Eltwise2 <- Eltwise1_elu3_0_split_1
I1007 22:14:13.479954  5289 net.cpp:406] Eltwise2 <- Convolution5
I1007 22:14:13.479959  5289 net.cpp:380] Eltwise2 -> Eltwise2
I1007 22:14:13.479976  5289 net.cpp:122] Setting up Eltwise2
I1007 22:14:13.479981  5289 net.cpp:129] Top shape: 100 16 28 28 (1254400)
I1007 22:14:13.479985  5289 net.cpp:137] Memory required for data: 126381200
I1007 22:14:13.479990  5289 layer_factory.hpp:77] Creating layer elu5
I1007 22:14:13.479995  5289 net.cpp:84] Creating Layer elu5
I1007 22:14:13.480000  5289 net.cpp:406] elu5 <- Eltwise2
I1007 22:14:13.480003  5289 net.cpp:367] elu5 -> Eltwise2 (in-place)
I1007 22:14:13.480010  5289 net.cpp:122] Setting up elu5
I1007 22:14:13.480013  5289 net.cpp:129] Top shape: 100 16 28 28 (1254400)
I1007 22:14:13.480017  5289 net.cpp:137] Memory required for data: 131398800
I1007 22:14:13.480021  5289 layer_factory.hpp:77] Creating layer Eltwise2_elu5_0_split
I1007 22:14:13.480026  5289 net.cpp:84] Creating Layer Eltwise2_elu5_0_split
I1007 22:14:13.480031  5289 net.cpp:406] Eltwise2_elu5_0_split <- Eltwise2
I1007 22:14:13.480042  5289 net.cpp:380] Eltwise2_elu5_0_split -> Eltwise2_elu5_0_split_0
I1007 22:14:13.480049  5289 net.cpp:380] Eltwise2_elu5_0_split -> Eltwise2_elu5_0_split_1
I1007 22:14:13.480072  5289 net.cpp:122] Setting up Eltwise2_elu5_0_split
I1007 22:14:13.480077  5289 net.cpp:129] Top shape: 100 16 28 28 (1254400)
I1007 22:14:13.480082  5289 net.cpp:129] Top shape: 100 16 28 28 (1254400)
I1007 22:14:13.480087  5289 net.cpp:137] Memory required for data: 141434000
I1007 22:14:13.480089  5289 layer_factory.hpp:77] Creating layer Convolution6
I1007 22:14:13.480098  5289 net.cpp:84] Creating Layer Convolution6
I1007 22:14:13.480101  5289 net.cpp:406] Convolution6 <- Eltwise2_elu5_0_split_0
I1007 22:14:13.480108  5289 net.cpp:380] Convolution6 -> Convolution6
I1007 22:14:13.480928  5289 net.cpp:122] Setting up Convolution6
I1007 22:14:13.480939  5289 net.cpp:129] Top shape: 100 16 28 28 (1254400)
I1007 22:14:13.480944  5289 net.cpp:137] Memory required for data: 146451600
I1007 22:14:13.480952  5289 layer_factory.hpp:77] Creating layer BatchNorm6
I1007 22:14:13.480958  5289 net.cpp:84] Creating Layer BatchNorm6
I1007 22:14:13.480962  5289 net.cpp:406] BatchNorm6 <- Convolution6
I1007 22:14:13.480968  5289 net.cpp:367] BatchNorm6 -> Convolution6 (in-place)
I1007 22:14:13.481088  5289 net.cpp:122] Setting up BatchNorm6
I1007 22:14:13.481094  5289 net.cpp:129] Top shape: 100 16 28 28 (1254400)
I1007 22:14:13.481098  5289 net.cpp:137] Memory required for data: 151469200
I1007 22:14:13.481106  5289 layer_factory.hpp:77] Creating layer Scale6
I1007 22:14:13.481112  5289 net.cpp:84] Creating Layer Scale6
I1007 22:14:13.481115  5289 net.cpp:406] Scale6 <- Convolution6
I1007 22:14:13.481122  5289 net.cpp:367] Scale6 -> Convolution6 (in-place)
I1007 22:14:13.481148  5289 layer_factory.hpp:77] Creating layer Scale6
I1007 22:14:13.481218  5289 net.cpp:122] Setting up Scale6
I1007 22:14:13.481225  5289 net.cpp:129] Top shape: 100 16 28 28 (1254400)
I1007 22:14:13.481228  5289 net.cpp:137] Memory required for data: 156486800
I1007 22:14:13.481235  5289 layer_factory.hpp:77] Creating layer elu6
I1007 22:14:13.481240  5289 net.cpp:84] Creating Layer elu6
I1007 22:14:13.481245  5289 net.cpp:406] elu6 <- Convolution6
I1007 22:14:13.481250  5289 net.cpp:367] elu6 -> Convolution6 (in-place)
I1007 22:14:13.481256  5289 net.cpp:122] Setting up elu6
I1007 22:14:13.481261  5289 net.cpp:129] Top shape: 100 16 28 28 (1254400)
I1007 22:14:13.481264  5289 net.cpp:137] Memory required for data: 161504400
I1007 22:14:13.481267  5289 layer_factory.hpp:77] Creating layer Convolution7
I1007 22:14:13.481276  5289 net.cpp:84] Creating Layer Convolution7
I1007 22:14:13.481279  5289 net.cpp:406] Convolution7 <- Convolution6
I1007 22:14:13.481284  5289 net.cpp:380] Convolution7 -> Convolution7
I1007 22:14:13.481789  5289 net.cpp:122] Setting up Convolution7
I1007 22:14:13.481798  5289 net.cpp:129] Top shape: 100 16 28 28 (1254400)
I1007 22:14:13.481803  5289 net.cpp:137] Memory required for data: 166522000
I1007 22:14:13.481811  5289 layer_factory.hpp:77] Creating layer BatchNorm7
I1007 22:14:13.481817  5289 net.cpp:84] Creating Layer BatchNorm7
I1007 22:14:13.481820  5289 net.cpp:406] BatchNorm7 <- Convolution7
I1007 22:14:13.481825  5289 net.cpp:367] BatchNorm7 -> Convolution7 (in-place)
I1007 22:14:13.481945  5289 net.cpp:122] Setting up BatchNorm7
I1007 22:14:13.481951  5289 net.cpp:129] Top shape: 100 16 28 28 (1254400)
I1007 22:14:13.481956  5289 net.cpp:137] Memory required for data: 171539600
I1007 22:14:13.481963  5289 layer_factory.hpp:77] Creating layer Scale7
I1007 22:14:13.481971  5289 net.cpp:84] Creating Layer Scale7
I1007 22:14:13.481973  5289 net.cpp:406] Scale7 <- Convolution7
I1007 22:14:13.481978  5289 net.cpp:367] Scale7 -> Convolution7 (in-place)
I1007 22:14:13.482004  5289 layer_factory.hpp:77] Creating layer Scale7
I1007 22:14:13.482076  5289 net.cpp:122] Setting up Scale7
I1007 22:14:13.482081  5289 net.cpp:129] Top shape: 100 16 28 28 (1254400)
I1007 22:14:13.482085  5289 net.cpp:137] Memory required for data: 176557200
I1007 22:14:13.482100  5289 layer_factory.hpp:77] Creating layer Eltwise3
I1007 22:14:13.482105  5289 net.cpp:84] Creating Layer Eltwise3
I1007 22:14:13.482110  5289 net.cpp:406] Eltwise3 <- Eltwise2_elu5_0_split_1
I1007 22:14:13.482115  5289 net.cpp:406] Eltwise3 <- Convolution7
I1007 22:14:13.482120  5289 net.cpp:380] Eltwise3 -> Eltwise3
I1007 22:14:13.482137  5289 net.cpp:122] Setting up Eltwise3
I1007 22:14:13.482142  5289 net.cpp:129] Top shape: 100 16 28 28 (1254400)
I1007 22:14:13.482146  5289 net.cpp:137] Memory required for data: 181574800
I1007 22:14:13.482149  5289 layer_factory.hpp:77] Creating layer elu7
I1007 22:14:13.482156  5289 net.cpp:84] Creating Layer elu7
I1007 22:14:13.482159  5289 net.cpp:406] elu7 <- Eltwise3
I1007 22:14:13.482163  5289 net.cpp:367] elu7 -> Eltwise3 (in-place)
I1007 22:14:13.482169  5289 net.cpp:122] Setting up elu7
I1007 22:14:13.482173  5289 net.cpp:129] Top shape: 100 16 28 28 (1254400)
I1007 22:14:13.482177  5289 net.cpp:137] Memory required for data: 186592400
I1007 22:14:13.482180  5289 layer_factory.hpp:77] Creating layer Eltwise3_elu7_0_split
I1007 22:14:13.482185  5289 net.cpp:84] Creating Layer Eltwise3_elu7_0_split
I1007 22:14:13.482189  5289 net.cpp:406] Eltwise3_elu7_0_split <- Eltwise3
I1007 22:14:13.482194  5289 net.cpp:380] Eltwise3_elu7_0_split -> Eltwise3_elu7_0_split_0
I1007 22:14:13.482199  5289 net.cpp:380] Eltwise3_elu7_0_split -> Eltwise3_elu7_0_split_1
I1007 22:14:13.482223  5289 net.cpp:122] Setting up Eltwise3_elu7_0_split
I1007 22:14:13.482228  5289 net.cpp:129] Top shape: 100 16 28 28 (1254400)
I1007 22:14:13.482233  5289 net.cpp:129] Top shape: 100 16 28 28 (1254400)
I1007 22:14:13.482236  5289 net.cpp:137] Memory required for data: 196627600
I1007 22:14:13.482239  5289 layer_factory.hpp:77] Creating layer Convolution8
I1007 22:14:13.482247  5289 net.cpp:84] Creating Layer Convolution8
I1007 22:14:13.482251  5289 net.cpp:406] Convolution8 <- Eltwise3_elu7_0_split_0
I1007 22:14:13.482256  5289 net.cpp:380] Convolution8 -> Convolution8
I1007 22:14:13.483069  5289 net.cpp:122] Setting up Convolution8
I1007 22:14:13.483079  5289 net.cpp:129] Top shape: 100 16 28 28 (1254400)
I1007 22:14:13.483084  5289 net.cpp:137] Memory required for data: 201645200
I1007 22:14:13.483093  5289 layer_factory.hpp:77] Creating layer BatchNorm8
I1007 22:14:13.483098  5289 net.cpp:84] Creating Layer BatchNorm8
I1007 22:14:13.483103  5289 net.cpp:406] BatchNorm8 <- Convolution8
I1007 22:14:13.483108  5289 net.cpp:367] BatchNorm8 -> Convolution8 (in-place)
I1007 22:14:13.483255  5289 net.cpp:122] Setting up BatchNorm8
I1007 22:14:13.483261  5289 net.cpp:129] Top shape: 100 16 28 28 (1254400)
I1007 22:14:13.483265  5289 net.cpp:137] Memory required for data: 206662800
I1007 22:14:13.483273  5289 layer_factory.hpp:77] Creating layer Scale8
I1007 22:14:13.483279  5289 net.cpp:84] Creating Layer Scale8
I1007 22:14:13.483283  5289 net.cpp:406] Scale8 <- Convolution8
I1007 22:14:13.483289  5289 net.cpp:367] Scale8 -> Convolution8 (in-place)
I1007 22:14:13.483316  5289 layer_factory.hpp:77] Creating layer Scale8
I1007 22:14:13.483389  5289 net.cpp:122] Setting up Scale8
I1007 22:14:13.483394  5289 net.cpp:129] Top shape: 100 16 28 28 (1254400)
I1007 22:14:13.483398  5289 net.cpp:137] Memory required for data: 211680400
I1007 22:14:13.483404  5289 layer_factory.hpp:77] Creating layer elu8
I1007 22:14:13.483409  5289 net.cpp:84] Creating Layer elu8
I1007 22:14:13.483414  5289 net.cpp:406] elu8 <- Convolution8
I1007 22:14:13.483419  5289 net.cpp:367] elu8 -> Convolution8 (in-place)
I1007 22:14:13.483425  5289 net.cpp:122] Setting up elu8
I1007 22:14:13.483430  5289 net.cpp:129] Top shape: 100 16 28 28 (1254400)
I1007 22:14:13.483434  5289 net.cpp:137] Memory required for data: 216698000
I1007 22:14:13.483438  5289 layer_factory.hpp:77] Creating layer Convolution9
I1007 22:14:13.483448  5289 net.cpp:84] Creating Layer Convolution9
I1007 22:14:13.483450  5289 net.cpp:406] Convolution9 <- Convolution8
I1007 22:14:13.483455  5289 net.cpp:380] Convolution9 -> Convolution9
I1007 22:14:13.484295  5289 net.cpp:122] Setting up Convolution9
I1007 22:14:13.484305  5289 net.cpp:129] Top shape: 100 16 28 28 (1254400)
I1007 22:14:13.484310  5289 net.cpp:137] Memory required for data: 221715600
I1007 22:14:13.484318  5289 layer_factory.hpp:77] Creating layer BatchNorm9
I1007 22:14:13.484324  5289 net.cpp:84] Creating Layer BatchNorm9
I1007 22:14:13.484328  5289 net.cpp:406] BatchNorm9 <- Convolution9
I1007 22:14:13.484334  5289 net.cpp:367] BatchNorm9 -> Convolution9 (in-place)
I1007 22:14:13.484458  5289 net.cpp:122] Setting up BatchNorm9
I1007 22:14:13.484463  5289 net.cpp:129] Top shape: 100 16 28 28 (1254400)
I1007 22:14:13.484468  5289 net.cpp:137] Memory required for data: 226733200
I1007 22:14:13.484477  5289 layer_factory.hpp:77] Creating layer Scale9
I1007 22:14:13.484482  5289 net.cpp:84] Creating Layer Scale9
I1007 22:14:13.484485  5289 net.cpp:406] Scale9 <- Convolution9
I1007 22:14:13.484491  5289 net.cpp:367] Scale9 -> Convolution9 (in-place)
I1007 22:14:13.484519  5289 layer_factory.hpp:77] Creating layer Scale9
I1007 22:14:13.484599  5289 net.cpp:122] Setting up Scale9
I1007 22:14:13.484606  5289 net.cpp:129] Top shape: 100 16 28 28 (1254400)
I1007 22:14:13.484609  5289 net.cpp:137] Memory required for data: 231750800
I1007 22:14:13.484616  5289 layer_factory.hpp:77] Creating layer Eltwise4
I1007 22:14:13.484622  5289 net.cpp:84] Creating Layer Eltwise4
I1007 22:14:13.484627  5289 net.cpp:406] Eltwise4 <- Eltwise3_elu7_0_split_1
I1007 22:14:13.484630  5289 net.cpp:406] Eltwise4 <- Convolution9
I1007 22:14:13.484637  5289 net.cpp:380] Eltwise4 -> Eltwise4
I1007 22:14:13.484653  5289 net.cpp:122] Setting up Eltwise4
I1007 22:14:13.484658  5289 net.cpp:129] Top shape: 100 16 28 28 (1254400)
I1007 22:14:13.484663  5289 net.cpp:137] Memory required for data: 236768400
I1007 22:14:13.484665  5289 layer_factory.hpp:77] Creating layer elu9
I1007 22:14:13.484673  5289 net.cpp:84] Creating Layer elu9
I1007 22:14:13.484675  5289 net.cpp:406] elu9 <- Eltwise4
I1007 22:14:13.484679  5289 net.cpp:367] elu9 -> Eltwise4 (in-place)
I1007 22:14:13.484685  5289 net.cpp:122] Setting up elu9
I1007 22:14:13.484689  5289 net.cpp:129] Top shape: 100 16 28 28 (1254400)
I1007 22:14:13.484694  5289 net.cpp:137] Memory required for data: 241786000
I1007 22:14:13.484697  5289 layer_factory.hpp:77] Creating layer Eltwise4_elu9_0_split
I1007 22:14:13.484702  5289 net.cpp:84] Creating Layer Eltwise4_elu9_0_split
I1007 22:14:13.484705  5289 net.cpp:406] Eltwise4_elu9_0_split <- Eltwise4
I1007 22:14:13.484711  5289 net.cpp:380] Eltwise4_elu9_0_split -> Eltwise4_elu9_0_split_0
I1007 22:14:13.484715  5289 net.cpp:380] Eltwise4_elu9_0_split -> Eltwise4_elu9_0_split_1
I1007 22:14:13.484736  5289 net.cpp:122] Setting up Eltwise4_elu9_0_split
I1007 22:14:13.484740  5289 net.cpp:129] Top shape: 100 16 28 28 (1254400)
I1007 22:14:13.484743  5289 net.cpp:129] Top shape: 100 16 28 28 (1254400)
I1007 22:14:13.484745  5289 net.cpp:137] Memory required for data: 251821200
I1007 22:14:13.484747  5289 layer_factory.hpp:77] Creating layer Convolution10
I1007 22:14:13.484753  5289 net.cpp:84] Creating Layer Convolution10
I1007 22:14:13.484756  5289 net.cpp:406] Convolution10 <- Eltwise4_elu9_0_split_0
I1007 22:14:13.484760  5289 net.cpp:380] Convolution10 -> Convolution10
I1007 22:14:13.485630  5289 net.cpp:122] Setting up Convolution10
I1007 22:14:13.485637  5289 net.cpp:129] Top shape: 100 16 28 28 (1254400)
I1007 22:14:13.485641  5289 net.cpp:137] Memory required for data: 256838800
I1007 22:14:13.485651  5289 layer_factory.hpp:77] Creating layer BatchNorm10
I1007 22:14:13.485656  5289 net.cpp:84] Creating Layer BatchNorm10
I1007 22:14:13.485658  5289 net.cpp:406] BatchNorm10 <- Convolution10
I1007 22:14:13.485663  5289 net.cpp:367] BatchNorm10 -> Convolution10 (in-place)
I1007 22:14:13.485792  5289 net.cpp:122] Setting up BatchNorm10
I1007 22:14:13.485796  5289 net.cpp:129] Top shape: 100 16 28 28 (1254400)
I1007 22:14:13.485798  5289 net.cpp:137] Memory required for data: 261856400
I1007 22:14:13.485803  5289 layer_factory.hpp:77] Creating layer Scale10
I1007 22:14:13.485815  5289 net.cpp:84] Creating Layer Scale10
I1007 22:14:13.485816  5289 net.cpp:406] Scale10 <- Convolution10
I1007 22:14:13.485821  5289 net.cpp:367] Scale10 -> Convolution10 (in-place)
I1007 22:14:13.485847  5289 layer_factory.hpp:77] Creating layer Scale10
I1007 22:14:13.485924  5289 net.cpp:122] Setting up Scale10
I1007 22:14:13.485927  5289 net.cpp:129] Top shape: 100 16 28 28 (1254400)
I1007 22:14:13.485929  5289 net.cpp:137] Memory required for data: 266874000
I1007 22:14:13.485934  5289 layer_factory.hpp:77] Creating layer elu10
I1007 22:14:13.485936  5289 net.cpp:84] Creating Layer elu10
I1007 22:14:13.485939  5289 net.cpp:406] elu10 <- Convolution10
I1007 22:14:13.485941  5289 net.cpp:367] elu10 -> Convolution10 (in-place)
I1007 22:14:13.485945  5289 net.cpp:122] Setting up elu10
I1007 22:14:13.485949  5289 net.cpp:129] Top shape: 100 16 28 28 (1254400)
I1007 22:14:13.485950  5289 net.cpp:137] Memory required for data: 271891600
I1007 22:14:13.485952  5289 layer_factory.hpp:77] Creating layer Convolution11
I1007 22:14:13.485960  5289 net.cpp:84] Creating Layer Convolution11
I1007 22:14:13.485963  5289 net.cpp:406] Convolution11 <- Convolution10
I1007 22:14:13.485966  5289 net.cpp:380] Convolution11 -> Convolution11
I1007 22:14:13.486989  5289 net.cpp:122] Setting up Convolution11
I1007 22:14:13.486999  5289 net.cpp:129] Top shape: 100 16 28 28 (1254400)
I1007 22:14:13.487001  5289 net.cpp:137] Memory required for data: 276909200
I1007 22:14:13.487005  5289 layer_factory.hpp:77] Creating layer BatchNorm11
I1007 22:14:13.487010  5289 net.cpp:84] Creating Layer BatchNorm11
I1007 22:14:13.487023  5289 net.cpp:406] BatchNorm11 <- Convolution11
I1007 22:14:13.487030  5289 net.cpp:367] BatchNorm11 -> Convolution11 (in-place)
I1007 22:14:13.487195  5289 net.cpp:122] Setting up BatchNorm11
I1007 22:14:13.487200  5289 net.cpp:129] Top shape: 100 16 28 28 (1254400)
I1007 22:14:13.487203  5289 net.cpp:137] Memory required for data: 281926800
I1007 22:14:13.487207  5289 layer_factory.hpp:77] Creating layer Scale11
I1007 22:14:13.487212  5289 net.cpp:84] Creating Layer Scale11
I1007 22:14:13.487226  5289 net.cpp:406] Scale11 <- Convolution11
I1007 22:14:13.487229  5289 net.cpp:367] Scale11 -> Convolution11 (in-place)
I1007 22:14:13.487264  5289 layer_factory.hpp:77] Creating layer Scale11
I1007 22:14:13.487365  5289 net.cpp:122] Setting up Scale11
I1007 22:14:13.487370  5289 net.cpp:129] Top shape: 100 16 28 28 (1254400)
I1007 22:14:13.487372  5289 net.cpp:137] Memory required for data: 286944400
I1007 22:14:13.487375  5289 layer_factory.hpp:77] Creating layer Eltwise5
I1007 22:14:13.487380  5289 net.cpp:84] Creating Layer Eltwise5
I1007 22:14:13.487382  5289 net.cpp:406] Eltwise5 <- Eltwise4_elu9_0_split_1
I1007 22:14:13.487397  5289 net.cpp:406] Eltwise5 <- Convolution11
I1007 22:14:13.487401  5289 net.cpp:380] Eltwise5 -> Eltwise5
I1007 22:14:13.487416  5289 net.cpp:122] Setting up Eltwise5
I1007 22:14:13.487419  5289 net.cpp:129] Top shape: 100 16 28 28 (1254400)
I1007 22:14:13.487422  5289 net.cpp:137] Memory required for data: 291962000
I1007 22:14:13.487433  5289 layer_factory.hpp:77] Creating layer elu11
I1007 22:14:13.487438  5289 net.cpp:84] Creating Layer elu11
I1007 22:14:13.487452  5289 net.cpp:406] elu11 <- Eltwise5
I1007 22:14:13.487455  5289 net.cpp:367] elu11 -> Eltwise5 (in-place)
I1007 22:14:13.487462  5289 net.cpp:122] Setting up elu11
I1007 22:14:13.487468  5289 net.cpp:129] Top shape: 100 16 28 28 (1254400)
I1007 22:14:13.487479  5289 net.cpp:137] Memory required for data: 296979600
I1007 22:14:13.487483  5289 layer_factory.hpp:77] Creating layer Eltwise5_elu11_0_split
I1007 22:14:13.487489  5289 net.cpp:84] Creating Layer Eltwise5_elu11_0_split
I1007 22:14:13.487493  5289 net.cpp:406] Eltwise5_elu11_0_split <- Eltwise5
I1007 22:14:13.487498  5289 net.cpp:380] Eltwise5_elu11_0_split -> Eltwise5_elu11_0_split_0
I1007 22:14:13.487504  5289 net.cpp:380] Eltwise5_elu11_0_split -> Eltwise5_elu11_0_split_1
I1007 22:14:13.487529  5289 net.cpp:122] Setting up Eltwise5_elu11_0_split
I1007 22:14:13.487540  5289 net.cpp:129] Top shape: 100 16 28 28 (1254400)
I1007 22:14:13.487545  5289 net.cpp:129] Top shape: 100 16 28 28 (1254400)
I1007 22:14:13.487550  5289 net.cpp:137] Memory required for data: 307014800
I1007 22:14:13.487553  5289 layer_factory.hpp:77] Creating layer Convolution12
I1007 22:14:13.487562  5289 net.cpp:84] Creating Layer Convolution12
I1007 22:14:13.487565  5289 net.cpp:406] Convolution12 <- Eltwise5_elu11_0_split_0
I1007 22:14:13.487572  5289 net.cpp:380] Convolution12 -> Convolution12
I1007 22:14:13.488822  5289 net.cpp:122] Setting up Convolution12
I1007 22:14:13.488832  5289 net.cpp:129] Top shape: 100 32 14 14 (627200)
I1007 22:14:13.488837  5289 net.cpp:137] Memory required for data: 309523600
I1007 22:14:13.488844  5289 layer_factory.hpp:77] Creating layer BatchNorm12
I1007 22:14:13.488850  5289 net.cpp:84] Creating Layer BatchNorm12
I1007 22:14:13.488854  5289 net.cpp:406] BatchNorm12 <- Convolution12
I1007 22:14:13.488860  5289 net.cpp:367] BatchNorm12 -> Convolution12 (in-place)
I1007 22:14:13.488996  5289 net.cpp:122] Setting up BatchNorm12
I1007 22:14:13.489001  5289 net.cpp:129] Top shape: 100 32 14 14 (627200)
I1007 22:14:13.489006  5289 net.cpp:137] Memory required for data: 312032400
I1007 22:14:13.489014  5289 layer_factory.hpp:77] Creating layer Scale12
I1007 22:14:13.489019  5289 net.cpp:84] Creating Layer Scale12
I1007 22:14:13.489023  5289 net.cpp:406] Scale12 <- Convolution12
I1007 22:14:13.489028  5289 net.cpp:367] Scale12 -> Convolution12 (in-place)
I1007 22:14:13.489058  5289 layer_factory.hpp:77] Creating layer Scale12
I1007 22:14:13.489131  5289 net.cpp:122] Setting up Scale12
I1007 22:14:13.489137  5289 net.cpp:129] Top shape: 100 32 14 14 (627200)
I1007 22:14:13.489141  5289 net.cpp:137] Memory required for data: 314541200
I1007 22:14:13.489147  5289 layer_factory.hpp:77] Creating layer Convolution13
I1007 22:14:13.489156  5289 net.cpp:84] Creating Layer Convolution13
I1007 22:14:13.489159  5289 net.cpp:406] Convolution13 <- Eltwise5_elu11_0_split_1
I1007 22:14:13.489166  5289 net.cpp:380] Convolution13 -> Convolution13
I1007 22:14:13.490881  5289 net.cpp:122] Setting up Convolution13
I1007 22:14:13.490891  5289 net.cpp:129] Top shape: 100 32 14 14 (627200)
I1007 22:14:13.490896  5289 net.cpp:137] Memory required for data: 317050000
I1007 22:14:13.490905  5289 layer_factory.hpp:77] Creating layer BatchNorm13
I1007 22:14:13.490911  5289 net.cpp:84] Creating Layer BatchNorm13
I1007 22:14:13.490914  5289 net.cpp:406] BatchNorm13 <- Convolution13
I1007 22:14:13.490922  5289 net.cpp:367] BatchNorm13 -> Convolution13 (in-place)
I1007 22:14:13.491053  5289 net.cpp:122] Setting up BatchNorm13
I1007 22:14:13.491060  5289 net.cpp:129] Top shape: 100 32 14 14 (627200)
I1007 22:14:13.491063  5289 net.cpp:137] Memory required for data: 319558800
I1007 22:14:13.491070  5289 layer_factory.hpp:77] Creating layer Scale13
I1007 22:14:13.491076  5289 net.cpp:84] Creating Layer Scale13
I1007 22:14:13.491080  5289 net.cpp:406] Scale13 <- Convolution13
I1007 22:14:13.491086  5289 net.cpp:367] Scale13 -> Convolution13 (in-place)
I1007 22:14:13.491116  5289 layer_factory.hpp:77] Creating layer Scale13
I1007 22:14:13.491225  5289 net.cpp:122] Setting up Scale13
I1007 22:14:13.491231  5289 net.cpp:129] Top shape: 100 32 14 14 (627200)
I1007 22:14:13.491235  5289 net.cpp:137] Memory required for data: 322067600
I1007 22:14:13.491242  5289 layer_factory.hpp:77] Creating layer elu12
I1007 22:14:13.491248  5289 net.cpp:84] Creating Layer elu12
I1007 22:14:13.491252  5289 net.cpp:406] elu12 <- Convolution13
I1007 22:14:13.491258  5289 net.cpp:367] elu12 -> Convolution13 (in-place)
I1007 22:14:13.491264  5289 net.cpp:122] Setting up elu12
I1007 22:14:13.491269  5289 net.cpp:129] Top shape: 100 32 14 14 (627200)
I1007 22:14:13.491273  5289 net.cpp:137] Memory required for data: 324576400
I1007 22:14:13.491276  5289 layer_factory.hpp:77] Creating layer Convolution14
I1007 22:14:13.491286  5289 net.cpp:84] Creating Layer Convolution14
I1007 22:14:13.491295  5289 net.cpp:406] Convolution14 <- Convolution13
I1007 22:14:13.491302  5289 net.cpp:380] Convolution14 -> Convolution14
I1007 22:14:13.492321  5289 net.cpp:122] Setting up Convolution14
I1007 22:14:13.492332  5289 net.cpp:129] Top shape: 100 32 14 14 (627200)
I1007 22:14:13.492337  5289 net.cpp:137] Memory required for data: 327085200
I1007 22:14:13.492344  5289 layer_factory.hpp:77] Creating layer BatchNorm14
I1007 22:14:13.492357  5289 net.cpp:84] Creating Layer BatchNorm14
I1007 22:14:13.492360  5289 net.cpp:406] BatchNorm14 <- Convolution14
I1007 22:14:13.492367  5289 net.cpp:367] BatchNorm14 -> Convolution14 (in-place)
I1007 22:14:13.492496  5289 net.cpp:122] Setting up BatchNorm14
I1007 22:14:13.492502  5289 net.cpp:129] Top shape: 100 32 14 14 (627200)
I1007 22:14:13.492506  5289 net.cpp:137] Memory required for data: 329594000
I1007 22:14:13.492513  5289 layer_factory.hpp:77] Creating layer Scale14
I1007 22:14:13.492518  5289 net.cpp:84] Creating Layer Scale14
I1007 22:14:13.492522  5289 net.cpp:406] Scale14 <- Convolution14
I1007 22:14:13.492528  5289 net.cpp:367] Scale14 -> Convolution14 (in-place)
I1007 22:14:13.492557  5289 layer_factory.hpp:77] Creating layer Scale14
I1007 22:14:13.492633  5289 net.cpp:122] Setting up Scale14
I1007 22:14:13.492640  5289 net.cpp:129] Top shape: 100 32 14 14 (627200)
I1007 22:14:13.492643  5289 net.cpp:137] Memory required for data: 332102800
I1007 22:14:13.492650  5289 layer_factory.hpp:77] Creating layer Eltwise6
I1007 22:14:13.492655  5289 net.cpp:84] Creating Layer Eltwise6
I1007 22:14:13.492658  5289 net.cpp:406] Eltwise6 <- Convolution12
I1007 22:14:13.492663  5289 net.cpp:406] Eltwise6 <- Convolution14
I1007 22:14:13.492669  5289 net.cpp:380] Eltwise6 -> Eltwise6
I1007 22:14:13.492684  5289 net.cpp:122] Setting up Eltwise6
I1007 22:14:13.492688  5289 net.cpp:129] Top shape: 100 32 14 14 (627200)
I1007 22:14:13.492691  5289 net.cpp:137] Memory required for data: 334611600
I1007 22:14:13.492692  5289 layer_factory.hpp:77] Creating layer elu13
I1007 22:14:13.492697  5289 net.cpp:84] Creating Layer elu13
I1007 22:14:13.492698  5289 net.cpp:406] elu13 <- Eltwise6
I1007 22:14:13.492702  5289 net.cpp:367] elu13 -> Eltwise6 (in-place)
I1007 22:14:13.492705  5289 net.cpp:122] Setting up elu13
I1007 22:14:13.492707  5289 net.cpp:129] Top shape: 100 32 14 14 (627200)
I1007 22:14:13.492709  5289 net.cpp:137] Memory required for data: 337120400
I1007 22:14:13.492712  5289 layer_factory.hpp:77] Creating layer Eltwise6_elu13_0_split
I1007 22:14:13.492715  5289 net.cpp:84] Creating Layer Eltwise6_elu13_0_split
I1007 22:14:13.492717  5289 net.cpp:406] Eltwise6_elu13_0_split <- Eltwise6
I1007 22:14:13.492720  5289 net.cpp:380] Eltwise6_elu13_0_split -> Eltwise6_elu13_0_split_0
I1007 22:14:13.492724  5289 net.cpp:380] Eltwise6_elu13_0_split -> Eltwise6_elu13_0_split_1
I1007 22:14:13.492744  5289 net.cpp:122] Setting up Eltwise6_elu13_0_split
I1007 22:14:13.492748  5289 net.cpp:129] Top shape: 100 32 14 14 (627200)
I1007 22:14:13.492750  5289 net.cpp:129] Top shape: 100 32 14 14 (627200)
I1007 22:14:13.492753  5289 net.cpp:137] Memory required for data: 342138000
I1007 22:14:13.492755  5289 layer_factory.hpp:77] Creating layer Convolution15
I1007 22:14:13.492761  5289 net.cpp:84] Creating Layer Convolution15
I1007 22:14:13.492763  5289 net.cpp:406] Convolution15 <- Eltwise6_elu13_0_split_0
I1007 22:14:13.492768  5289 net.cpp:380] Convolution15 -> Convolution15
I1007 22:14:13.493769  5289 net.cpp:122] Setting up Convolution15
I1007 22:14:13.493778  5289 net.cpp:129] Top shape: 100 32 14 14 (627200)
I1007 22:14:13.493780  5289 net.cpp:137] Memory required for data: 344646800
I1007 22:14:13.493785  5289 layer_factory.hpp:77] Creating layer BatchNorm15
I1007 22:14:13.493790  5289 net.cpp:84] Creating Layer BatchNorm15
I1007 22:14:13.493793  5289 net.cpp:406] BatchNorm15 <- Convolution15
I1007 22:14:13.493798  5289 net.cpp:367] BatchNorm15 -> Convolution15 (in-place)
I1007 22:14:13.493922  5289 net.cpp:122] Setting up BatchNorm15
I1007 22:14:13.493927  5289 net.cpp:129] Top shape: 100 32 14 14 (627200)
I1007 22:14:13.493934  5289 net.cpp:137] Memory required for data: 347155600
I1007 22:14:13.493940  5289 layer_factory.hpp:77] Creating layer Scale15
I1007 22:14:13.493944  5289 net.cpp:84] Creating Layer Scale15
I1007 22:14:13.493947  5289 net.cpp:406] Scale15 <- Convolution15
I1007 22:14:13.493949  5289 net.cpp:367] Scale15 -> Convolution15 (in-place)
I1007 22:14:13.493976  5289 layer_factory.hpp:77] Creating layer Scale15
I1007 22:14:13.494046  5289 net.cpp:122] Setting up Scale15
I1007 22:14:13.494050  5289 net.cpp:129] Top shape: 100 32 14 14 (627200)
I1007 22:14:13.494052  5289 net.cpp:137] Memory required for data: 349664400
I1007 22:14:13.494056  5289 layer_factory.hpp:77] Creating layer elu14
I1007 22:14:13.494060  5289 net.cpp:84] Creating Layer elu14
I1007 22:14:13.494062  5289 net.cpp:406] elu14 <- Convolution15
I1007 22:14:13.494065  5289 net.cpp:367] elu14 -> Convolution15 (in-place)
I1007 22:14:13.494069  5289 net.cpp:122] Setting up elu14
I1007 22:14:13.494072  5289 net.cpp:129] Top shape: 100 32 14 14 (627200)
I1007 22:14:13.494074  5289 net.cpp:137] Memory required for data: 352173200
I1007 22:14:13.494076  5289 layer_factory.hpp:77] Creating layer Convolution16
I1007 22:14:13.494083  5289 net.cpp:84] Creating Layer Convolution16
I1007 22:14:13.494086  5289 net.cpp:406] Convolution16 <- Convolution15
I1007 22:14:13.494091  5289 net.cpp:380] Convolution16 -> Convolution16
I1007 22:14:13.495093  5289 net.cpp:122] Setting up Convolution16
I1007 22:14:13.495102  5289 net.cpp:129] Top shape: 100 32 14 14 (627200)
I1007 22:14:13.495105  5289 net.cpp:137] Memory required for data: 354682000
I1007 22:14:13.495110  5289 layer_factory.hpp:77] Creating layer BatchNorm16
I1007 22:14:13.495115  5289 net.cpp:84] Creating Layer BatchNorm16
I1007 22:14:13.495118  5289 net.cpp:406] BatchNorm16 <- Convolution16
I1007 22:14:13.495121  5289 net.cpp:367] BatchNorm16 -> Convolution16 (in-place)
I1007 22:14:13.495272  5289 net.cpp:122] Setting up BatchNorm16
I1007 22:14:13.495277  5289 net.cpp:129] Top shape: 100 32 14 14 (627200)
I1007 22:14:13.495280  5289 net.cpp:137] Memory required for data: 357190800
I1007 22:14:13.495285  5289 layer_factory.hpp:77] Creating layer Scale16
I1007 22:14:13.495288  5289 net.cpp:84] Creating Layer Scale16
I1007 22:14:13.495290  5289 net.cpp:406] Scale16 <- Convolution16
I1007 22:14:13.495295  5289 net.cpp:367] Scale16 -> Convolution16 (in-place)
I1007 22:14:13.495318  5289 layer_factory.hpp:77] Creating layer Scale16
I1007 22:14:13.495390  5289 net.cpp:122] Setting up Scale16
I1007 22:14:13.495394  5289 net.cpp:129] Top shape: 100 32 14 14 (627200)
I1007 22:14:13.495396  5289 net.cpp:137] Memory required for data: 359699600
I1007 22:14:13.495399  5289 layer_factory.hpp:77] Creating layer Eltwise7
I1007 22:14:13.495404  5289 net.cpp:84] Creating Layer Eltwise7
I1007 22:14:13.495406  5289 net.cpp:406] Eltwise7 <- Eltwise6_elu13_0_split_1
I1007 22:14:13.495409  5289 net.cpp:406] Eltwise7 <- Convolution16
I1007 22:14:13.495412  5289 net.cpp:380] Eltwise7 -> Eltwise7
I1007 22:14:13.495427  5289 net.cpp:122] Setting up Eltwise7
I1007 22:14:13.495430  5289 net.cpp:129] Top shape: 100 32 14 14 (627200)
I1007 22:14:13.495432  5289 net.cpp:137] Memory required for data: 362208400
I1007 22:14:13.495434  5289 layer_factory.hpp:77] Creating layer elu15
I1007 22:14:13.495438  5289 net.cpp:84] Creating Layer elu15
I1007 22:14:13.495440  5289 net.cpp:406] elu15 <- Eltwise7
I1007 22:14:13.495443  5289 net.cpp:367] elu15 -> Eltwise7 (in-place)
I1007 22:14:13.495446  5289 net.cpp:122] Setting up elu15
I1007 22:14:13.495450  5289 net.cpp:129] Top shape: 100 32 14 14 (627200)
I1007 22:14:13.495451  5289 net.cpp:137] Memory required for data: 364717200
I1007 22:14:13.495453  5289 layer_factory.hpp:77] Creating layer Eltwise7_elu15_0_split
I1007 22:14:13.495457  5289 net.cpp:84] Creating Layer Eltwise7_elu15_0_split
I1007 22:14:13.495460  5289 net.cpp:406] Eltwise7_elu15_0_split <- Eltwise7
I1007 22:14:13.495462  5289 net.cpp:380] Eltwise7_elu15_0_split -> Eltwise7_elu15_0_split_0
I1007 22:14:13.495472  5289 net.cpp:380] Eltwise7_elu15_0_split -> Eltwise7_elu15_0_split_1
I1007 22:14:13.495496  5289 net.cpp:122] Setting up Eltwise7_elu15_0_split
I1007 22:14:13.495499  5289 net.cpp:129] Top shape: 100 32 14 14 (627200)
I1007 22:14:13.495502  5289 net.cpp:129] Top shape: 100 32 14 14 (627200)
I1007 22:14:13.495504  5289 net.cpp:137] Memory required for data: 369734800
I1007 22:14:13.495507  5289 layer_factory.hpp:77] Creating layer Convolution17
I1007 22:14:13.495512  5289 net.cpp:84] Creating Layer Convolution17
I1007 22:14:13.495514  5289 net.cpp:406] Convolution17 <- Eltwise7_elu15_0_split_0
I1007 22:14:13.495519  5289 net.cpp:380] Convolution17 -> Convolution17
I1007 22:14:13.496228  5289 net.cpp:122] Setting up Convolution17
I1007 22:14:13.496237  5289 net.cpp:129] Top shape: 100 32 14 14 (627200)
I1007 22:14:13.496238  5289 net.cpp:137] Memory required for data: 372243600
I1007 22:14:13.496243  5289 layer_factory.hpp:77] Creating layer BatchNorm17
I1007 22:14:13.496248  5289 net.cpp:84] Creating Layer BatchNorm17
I1007 22:14:13.496250  5289 net.cpp:406] BatchNorm17 <- Convolution17
I1007 22:14:13.496253  5289 net.cpp:367] BatchNorm17 -> Convolution17 (in-place)
I1007 22:14:13.496378  5289 net.cpp:122] Setting up BatchNorm17
I1007 22:14:13.496382  5289 net.cpp:129] Top shape: 100 32 14 14 (627200)
I1007 22:14:13.496384  5289 net.cpp:137] Memory required for data: 374752400
I1007 22:14:13.496388  5289 layer_factory.hpp:77] Creating layer Scale17
I1007 22:14:13.496392  5289 net.cpp:84] Creating Layer Scale17
I1007 22:14:13.496395  5289 net.cpp:406] Scale17 <- Convolution17
I1007 22:14:13.496399  5289 net.cpp:367] Scale17 -> Convolution17 (in-place)
I1007 22:14:13.496423  5289 layer_factory.hpp:77] Creating layer Scale17
I1007 22:14:13.496497  5289 net.cpp:122] Setting up Scale17
I1007 22:14:13.496501  5289 net.cpp:129] Top shape: 100 32 14 14 (627200)
I1007 22:14:13.496503  5289 net.cpp:137] Memory required for data: 377261200
I1007 22:14:13.496506  5289 layer_factory.hpp:77] Creating layer elu16
I1007 22:14:13.496510  5289 net.cpp:84] Creating Layer elu16
I1007 22:14:13.496512  5289 net.cpp:406] elu16 <- Convolution17
I1007 22:14:13.496516  5289 net.cpp:367] elu16 -> Convolution17 (in-place)
I1007 22:14:13.496520  5289 net.cpp:122] Setting up elu16
I1007 22:14:13.496522  5289 net.cpp:129] Top shape: 100 32 14 14 (627200)
I1007 22:14:13.496525  5289 net.cpp:137] Memory required for data: 379770000
I1007 22:14:13.496526  5289 layer_factory.hpp:77] Creating layer Convolution18
I1007 22:14:13.496532  5289 net.cpp:84] Creating Layer Convolution18
I1007 22:14:13.496534  5289 net.cpp:406] Convolution18 <- Convolution17
I1007 22:14:13.496538  5289 net.cpp:380] Convolution18 -> Convolution18
I1007 22:14:13.497536  5289 net.cpp:122] Setting up Convolution18
I1007 22:14:13.497545  5289 net.cpp:129] Top shape: 100 32 14 14 (627200)
I1007 22:14:13.497547  5289 net.cpp:137] Memory required for data: 382278800
I1007 22:14:13.497552  5289 layer_factory.hpp:77] Creating layer BatchNorm18
I1007 22:14:13.497557  5289 net.cpp:84] Creating Layer BatchNorm18
I1007 22:14:13.497560  5289 net.cpp:406] BatchNorm18 <- Convolution18
I1007 22:14:13.497563  5289 net.cpp:367] BatchNorm18 -> Convolution18 (in-place)
I1007 22:14:13.497691  5289 net.cpp:122] Setting up BatchNorm18
I1007 22:14:13.497695  5289 net.cpp:129] Top shape: 100 32 14 14 (627200)
I1007 22:14:13.497699  5289 net.cpp:137] Memory required for data: 384787600
I1007 22:14:13.497702  5289 layer_factory.hpp:77] Creating layer Scale18
I1007 22:14:13.497706  5289 net.cpp:84] Creating Layer Scale18
I1007 22:14:13.497709  5289 net.cpp:406] Scale18 <- Convolution18
I1007 22:14:13.497711  5289 net.cpp:367] Scale18 -> Convolution18 (in-place)
I1007 22:14:13.497737  5289 layer_factory.hpp:77] Creating layer Scale18
I1007 22:14:13.497809  5289 net.cpp:122] Setting up Scale18
I1007 22:14:13.497813  5289 net.cpp:129] Top shape: 100 32 14 14 (627200)
I1007 22:14:13.497815  5289 net.cpp:137] Memory required for data: 387296400
I1007 22:14:13.497819  5289 layer_factory.hpp:77] Creating layer Eltwise8
I1007 22:14:13.497829  5289 net.cpp:84] Creating Layer Eltwise8
I1007 22:14:13.497833  5289 net.cpp:406] Eltwise8 <- Eltwise7_elu15_0_split_1
I1007 22:14:13.497835  5289 net.cpp:406] Eltwise8 <- Convolution18
I1007 22:14:13.497839  5289 net.cpp:380] Eltwise8 -> Eltwise8
I1007 22:14:13.497855  5289 net.cpp:122] Setting up Eltwise8
I1007 22:14:13.497859  5289 net.cpp:129] Top shape: 100 32 14 14 (627200)
I1007 22:14:13.497861  5289 net.cpp:137] Memory required for data: 389805200
I1007 22:14:13.497864  5289 layer_factory.hpp:77] Creating layer elu17
I1007 22:14:13.497866  5289 net.cpp:84] Creating Layer elu17
I1007 22:14:13.497869  5289 net.cpp:406] elu17 <- Eltwise8
I1007 22:14:13.497871  5289 net.cpp:367] elu17 -> Eltwise8 (in-place)
I1007 22:14:13.497874  5289 net.cpp:122] Setting up elu17
I1007 22:14:13.497877  5289 net.cpp:129] Top shape: 100 32 14 14 (627200)
I1007 22:14:13.497879  5289 net.cpp:137] Memory required for data: 392314000
I1007 22:14:13.497881  5289 layer_factory.hpp:77] Creating layer Eltwise8_elu17_0_split
I1007 22:14:13.497885  5289 net.cpp:84] Creating Layer Eltwise8_elu17_0_split
I1007 22:14:13.497887  5289 net.cpp:406] Eltwise8_elu17_0_split <- Eltwise8
I1007 22:14:13.497889  5289 net.cpp:380] Eltwise8_elu17_0_split -> Eltwise8_elu17_0_split_0
I1007 22:14:13.497894  5289 net.cpp:380] Eltwise8_elu17_0_split -> Eltwise8_elu17_0_split_1
I1007 22:14:13.497915  5289 net.cpp:122] Setting up Eltwise8_elu17_0_split
I1007 22:14:13.497918  5289 net.cpp:129] Top shape: 100 32 14 14 (627200)
I1007 22:14:13.497921  5289 net.cpp:129] Top shape: 100 32 14 14 (627200)
I1007 22:14:13.497923  5289 net.cpp:137] Memory required for data: 397331600
I1007 22:14:13.497925  5289 layer_factory.hpp:77] Creating layer Convolution19
I1007 22:14:13.497931  5289 net.cpp:84] Creating Layer Convolution19
I1007 22:14:13.497933  5289 net.cpp:406] Convolution19 <- Eltwise8_elu17_0_split_0
I1007 22:14:13.497937  5289 net.cpp:380] Convolution19 -> Convolution19
I1007 22:14:13.499280  5289 net.cpp:122] Setting up Convolution19
I1007 22:14:13.499289  5289 net.cpp:129] Top shape: 100 32 14 14 (627200)
I1007 22:14:13.499291  5289 net.cpp:137] Memory required for data: 399840400
I1007 22:14:13.499296  5289 layer_factory.hpp:77] Creating layer BatchNorm19
I1007 22:14:13.499301  5289 net.cpp:84] Creating Layer BatchNorm19
I1007 22:14:13.499305  5289 net.cpp:406] BatchNorm19 <- Convolution19
I1007 22:14:13.499307  5289 net.cpp:367] BatchNorm19 -> Convolution19 (in-place)
I1007 22:14:13.499440  5289 net.cpp:122] Setting up BatchNorm19
I1007 22:14:13.499444  5289 net.cpp:129] Top shape: 100 32 14 14 (627200)
I1007 22:14:13.499446  5289 net.cpp:137] Memory required for data: 402349200
I1007 22:14:13.499464  5289 layer_factory.hpp:77] Creating layer Scale19
I1007 22:14:13.499469  5289 net.cpp:84] Creating Layer Scale19
I1007 22:14:13.499471  5289 net.cpp:406] Scale19 <- Convolution19
I1007 22:14:13.499475  5289 net.cpp:367] Scale19 -> Convolution19 (in-place)
I1007 22:14:13.499502  5289 layer_factory.hpp:77] Creating layer Scale19
I1007 22:14:13.499577  5289 net.cpp:122] Setting up Scale19
I1007 22:14:13.499581  5289 net.cpp:129] Top shape: 100 32 14 14 (627200)
I1007 22:14:13.499583  5289 net.cpp:137] Memory required for data: 404858000
I1007 22:14:13.499588  5289 layer_factory.hpp:77] Creating layer elu18
I1007 22:14:13.499590  5289 net.cpp:84] Creating Layer elu18
I1007 22:14:13.499593  5289 net.cpp:406] elu18 <- Convolution19
I1007 22:14:13.499595  5289 net.cpp:367] elu18 -> Convolution19 (in-place)
I1007 22:14:13.499599  5289 net.cpp:122] Setting up elu18
I1007 22:14:13.499603  5289 net.cpp:129] Top shape: 100 32 14 14 (627200)
I1007 22:14:13.499604  5289 net.cpp:137] Memory required for data: 407366800
I1007 22:14:13.499606  5289 layer_factory.hpp:77] Creating layer Convolution20
I1007 22:14:13.499613  5289 net.cpp:84] Creating Layer Convolution20
I1007 22:14:13.499614  5289 net.cpp:406] Convolution20 <- Convolution19
I1007 22:14:13.499619  5289 net.cpp:380] Convolution20 -> Convolution20
I1007 22:14:13.500660  5289 net.cpp:122] Setting up Convolution20
I1007 22:14:13.500682  5289 net.cpp:129] Top shape: 100 32 14 14 (627200)
I1007 22:14:13.500687  5289 net.cpp:137] Memory required for data: 409875600
I1007 22:14:13.500694  5289 layer_factory.hpp:77] Creating layer BatchNorm20
I1007 22:14:13.500701  5289 net.cpp:84] Creating Layer BatchNorm20
I1007 22:14:13.500705  5289 net.cpp:406] BatchNorm20 <- Convolution20
I1007 22:14:13.500712  5289 net.cpp:367] BatchNorm20 -> Convolution20 (in-place)
I1007 22:14:13.500860  5289 net.cpp:122] Setting up BatchNorm20
I1007 22:14:13.500865  5289 net.cpp:129] Top shape: 100 32 14 14 (627200)
I1007 22:14:13.500869  5289 net.cpp:137] Memory required for data: 412384400
I1007 22:14:13.500874  5289 layer_factory.hpp:77] Creating layer Scale20
I1007 22:14:13.500877  5289 net.cpp:84] Creating Layer Scale20
I1007 22:14:13.500880  5289 net.cpp:406] Scale20 <- Convolution20
I1007 22:14:13.500882  5289 net.cpp:367] Scale20 -> Convolution20 (in-place)
I1007 22:14:13.500908  5289 layer_factory.hpp:77] Creating layer Scale20
I1007 22:14:13.500984  5289 net.cpp:122] Setting up Scale20
I1007 22:14:13.500988  5289 net.cpp:129] Top shape: 100 32 14 14 (627200)
I1007 22:14:13.500990  5289 net.cpp:137] Memory required for data: 414893200
I1007 22:14:13.500994  5289 layer_factory.hpp:77] Creating layer Eltwise9
I1007 22:14:13.500998  5289 net.cpp:84] Creating Layer Eltwise9
I1007 22:14:13.501000  5289 net.cpp:406] Eltwise9 <- Eltwise8_elu17_0_split_1
I1007 22:14:13.501003  5289 net.cpp:406] Eltwise9 <- Convolution20
I1007 22:14:13.501008  5289 net.cpp:380] Eltwise9 -> Eltwise9
I1007 22:14:13.501022  5289 net.cpp:122] Setting up Eltwise9
I1007 22:14:13.501026  5289 net.cpp:129] Top shape: 100 32 14 14 (627200)
I1007 22:14:13.501029  5289 net.cpp:137] Memory required for data: 417402000
I1007 22:14:13.501030  5289 layer_factory.hpp:77] Creating layer elu19
I1007 22:14:13.501034  5289 net.cpp:84] Creating Layer elu19
I1007 22:14:13.501036  5289 net.cpp:406] elu19 <- Eltwise9
I1007 22:14:13.501039  5289 net.cpp:367] elu19 -> Eltwise9 (in-place)
I1007 22:14:13.501042  5289 net.cpp:122] Setting up elu19
I1007 22:14:13.501045  5289 net.cpp:129] Top shape: 100 32 14 14 (627200)
I1007 22:14:13.501047  5289 net.cpp:137] Memory required for data: 419910800
I1007 22:14:13.501050  5289 layer_factory.hpp:77] Creating layer Eltwise9_elu19_0_split
I1007 22:14:13.501054  5289 net.cpp:84] Creating Layer Eltwise9_elu19_0_split
I1007 22:14:13.501055  5289 net.cpp:406] Eltwise9_elu19_0_split <- Eltwise9
I1007 22:14:13.501058  5289 net.cpp:380] Eltwise9_elu19_0_split -> Eltwise9_elu19_0_split_0
I1007 22:14:13.501062  5289 net.cpp:380] Eltwise9_elu19_0_split -> Eltwise9_elu19_0_split_1
I1007 22:14:13.501083  5289 net.cpp:122] Setting up Eltwise9_elu19_0_split
I1007 22:14:13.501086  5289 net.cpp:129] Top shape: 100 32 14 14 (627200)
I1007 22:14:13.501090  5289 net.cpp:129] Top shape: 100 32 14 14 (627200)
I1007 22:14:13.501091  5289 net.cpp:137] Memory required for data: 424928400
I1007 22:14:13.501093  5289 layer_factory.hpp:77] Creating layer Convolution21
I1007 22:14:13.501101  5289 net.cpp:84] Creating Layer Convolution21
I1007 22:14:13.501102  5289 net.cpp:406] Convolution21 <- Eltwise9_elu19_0_split_0
I1007 22:14:13.501106  5289 net.cpp:380] Convolution21 -> Convolution21
I1007 22:14:13.502574  5289 net.cpp:122] Setting up Convolution21
I1007 22:14:13.502584  5289 net.cpp:129] Top shape: 100 32 14 14 (627200)
I1007 22:14:13.502586  5289 net.cpp:137] Memory required for data: 427437200
I1007 22:14:13.502591  5289 layer_factory.hpp:77] Creating layer BatchNorm21
I1007 22:14:13.502596  5289 net.cpp:84] Creating Layer BatchNorm21
I1007 22:14:13.502599  5289 net.cpp:406] BatchNorm21 <- Convolution21
I1007 22:14:13.502604  5289 net.cpp:367] BatchNorm21 -> Convolution21 (in-place)
I1007 22:14:13.502739  5289 net.cpp:122] Setting up BatchNorm21
I1007 22:14:13.502744  5289 net.cpp:129] Top shape: 100 32 14 14 (627200)
I1007 22:14:13.502746  5289 net.cpp:137] Memory required for data: 429946000
I1007 22:14:13.502751  5289 layer_factory.hpp:77] Creating layer Scale21
I1007 22:14:13.502763  5289 net.cpp:84] Creating Layer Scale21
I1007 22:14:13.502766  5289 net.cpp:406] Scale21 <- Convolution21
I1007 22:14:13.502770  5289 net.cpp:367] Scale21 -> Convolution21 (in-place)
I1007 22:14:13.502797  5289 layer_factory.hpp:77] Creating layer Scale21
I1007 22:14:13.502928  5289 net.cpp:122] Setting up Scale21
I1007 22:14:13.502935  5289 net.cpp:129] Top shape: 100 32 14 14 (627200)
I1007 22:14:13.502938  5289 net.cpp:137] Memory required for data: 432454800
I1007 22:14:13.502943  5289 layer_factory.hpp:77] Creating layer elu20
I1007 22:14:13.502948  5289 net.cpp:84] Creating Layer elu20
I1007 22:14:13.502950  5289 net.cpp:406] elu20 <- Convolution21
I1007 22:14:13.502956  5289 net.cpp:367] elu20 -> Convolution21 (in-place)
I1007 22:14:13.502962  5289 net.cpp:122] Setting up elu20
I1007 22:14:13.502965  5289 net.cpp:129] Top shape: 100 32 14 14 (627200)
I1007 22:14:13.502967  5289 net.cpp:137] Memory required for data: 434963600
I1007 22:14:13.502969  5289 layer_factory.hpp:77] Creating layer Convolution22
I1007 22:14:13.502985  5289 net.cpp:84] Creating Layer Convolution22
I1007 22:14:13.502987  5289 net.cpp:406] Convolution22 <- Convolution21
I1007 22:14:13.502991  5289 net.cpp:380] Convolution22 -> Convolution22
I1007 22:14:13.504062  5289 net.cpp:122] Setting up Convolution22
I1007 22:14:13.504071  5289 net.cpp:129] Top shape: 100 32 14 14 (627200)
I1007 22:14:13.504073  5289 net.cpp:137] Memory required for data: 437472400
I1007 22:14:13.504078  5289 layer_factory.hpp:77] Creating layer BatchNorm22
I1007 22:14:13.504083  5289 net.cpp:84] Creating Layer BatchNorm22
I1007 22:14:13.504086  5289 net.cpp:406] BatchNorm22 <- Convolution22
I1007 22:14:13.504091  5289 net.cpp:367] BatchNorm22 -> Convolution22 (in-place)
I1007 22:14:13.504218  5289 net.cpp:122] Setting up BatchNorm22
I1007 22:14:13.504223  5289 net.cpp:129] Top shape: 100 32 14 14 (627200)
I1007 22:14:13.504225  5289 net.cpp:137] Memory required for data: 439981200
I1007 22:14:13.504230  5289 layer_factory.hpp:77] Creating layer Scale22
I1007 22:14:13.504235  5289 net.cpp:84] Creating Layer Scale22
I1007 22:14:13.504236  5289 net.cpp:406] Scale22 <- Convolution22
I1007 22:14:13.504240  5289 net.cpp:367] Scale22 -> Convolution22 (in-place)
I1007 22:14:13.504276  5289 layer_factory.hpp:77] Creating layer Scale22
I1007 22:14:13.504361  5289 net.cpp:122] Setting up Scale22
I1007 22:14:13.504365  5289 net.cpp:129] Top shape: 100 32 14 14 (627200)
I1007 22:14:13.504367  5289 net.cpp:137] Memory required for data: 442490000
I1007 22:14:13.504371  5289 layer_factory.hpp:77] Creating layer Eltwise10
I1007 22:14:13.504375  5289 net.cpp:84] Creating Layer Eltwise10
I1007 22:14:13.504379  5289 net.cpp:406] Eltwise10 <- Eltwise9_elu19_0_split_1
I1007 22:14:13.504381  5289 net.cpp:406] Eltwise10 <- Convolution22
I1007 22:14:13.504384  5289 net.cpp:380] Eltwise10 -> Eltwise10
I1007 22:14:13.504400  5289 net.cpp:122] Setting up Eltwise10
I1007 22:14:13.504402  5289 net.cpp:129] Top shape: 100 32 14 14 (627200)
I1007 22:14:13.504405  5289 net.cpp:137] Memory required for data: 444998800
I1007 22:14:13.504406  5289 layer_factory.hpp:77] Creating layer elu21
I1007 22:14:13.504410  5289 net.cpp:84] Creating Layer elu21
I1007 22:14:13.504412  5289 net.cpp:406] elu21 <- Eltwise10
I1007 22:14:13.504416  5289 net.cpp:367] elu21 -> Eltwise10 (in-place)
I1007 22:14:13.504420  5289 net.cpp:122] Setting up elu21
I1007 22:14:13.504422  5289 net.cpp:129] Top shape: 100 32 14 14 (627200)
I1007 22:14:13.504425  5289 net.cpp:137] Memory required for data: 447507600
I1007 22:14:13.504426  5289 layer_factory.hpp:77] Creating layer Eltwise10_elu21_0_split
I1007 22:14:13.504429  5289 net.cpp:84] Creating Layer Eltwise10_elu21_0_split
I1007 22:14:13.504431  5289 net.cpp:406] Eltwise10_elu21_0_split <- Eltwise10
I1007 22:14:13.504434  5289 net.cpp:380] Eltwise10_elu21_0_split -> Eltwise10_elu21_0_split_0
I1007 22:14:13.504438  5289 net.cpp:380] Eltwise10_elu21_0_split -> Eltwise10_elu21_0_split_1
I1007 22:14:13.504459  5289 net.cpp:122] Setting up Eltwise10_elu21_0_split
I1007 22:14:13.504470  5289 net.cpp:129] Top shape: 100 32 14 14 (627200)
I1007 22:14:13.504473  5289 net.cpp:129] Top shape: 100 32 14 14 (627200)
I1007 22:14:13.504475  5289 net.cpp:137] Memory required for data: 452525200
I1007 22:14:13.504477  5289 layer_factory.hpp:77] Creating layer Convolution23
I1007 22:14:13.504483  5289 net.cpp:84] Creating Layer Convolution23
I1007 22:14:13.504487  5289 net.cpp:406] Convolution23 <- Eltwise10_elu21_0_split_0
I1007 22:14:13.504489  5289 net.cpp:380] Convolution23 -> Convolution23
I1007 22:14:13.505383  5289 net.cpp:122] Setting up Convolution23
I1007 22:14:13.505393  5289 net.cpp:129] Top shape: 100 64 7 7 (313600)
I1007 22:14:13.505395  5289 net.cpp:137] Memory required for data: 453779600
I1007 22:14:13.505399  5289 layer_factory.hpp:77] Creating layer BatchNorm23
I1007 22:14:13.505404  5289 net.cpp:84] Creating Layer BatchNorm23
I1007 22:14:13.505406  5289 net.cpp:406] BatchNorm23 <- Convolution23
I1007 22:14:13.505410  5289 net.cpp:367] BatchNorm23 -> Convolution23 (in-place)
I1007 22:14:13.505542  5289 net.cpp:122] Setting up BatchNorm23
I1007 22:14:13.505547  5289 net.cpp:129] Top shape: 100 64 7 7 (313600)
I1007 22:14:13.505548  5289 net.cpp:137] Memory required for data: 455034000
I1007 22:14:13.505553  5289 layer_factory.hpp:77] Creating layer Scale23
I1007 22:14:13.505558  5289 net.cpp:84] Creating Layer Scale23
I1007 22:14:13.505559  5289 net.cpp:406] Scale23 <- Convolution23
I1007 22:14:13.505563  5289 net.cpp:367] Scale23 -> Convolution23 (in-place)
I1007 22:14:13.505589  5289 layer_factory.hpp:77] Creating layer Scale23
I1007 22:14:13.505662  5289 net.cpp:122] Setting up Scale23
I1007 22:14:13.505667  5289 net.cpp:129] Top shape: 100 64 7 7 (313600)
I1007 22:14:13.505669  5289 net.cpp:137] Memory required for data: 456288400
I1007 22:14:13.505672  5289 layer_factory.hpp:77] Creating layer Convolution24
I1007 22:14:13.505679  5289 net.cpp:84] Creating Layer Convolution24
I1007 22:14:13.505681  5289 net.cpp:406] Convolution24 <- Eltwise10_elu21_0_split_1
I1007 22:14:13.505686  5289 net.cpp:380] Convolution24 -> Convolution24
I1007 22:14:13.507411  5289 net.cpp:122] Setting up Convolution24
I1007 22:14:13.507421  5289 net.cpp:129] Top shape: 100 64 7 7 (313600)
I1007 22:14:13.507423  5289 net.cpp:137] Memory required for data: 457542800
I1007 22:14:13.507428  5289 layer_factory.hpp:77] Creating layer BatchNorm24
I1007 22:14:13.507432  5289 net.cpp:84] Creating Layer BatchNorm24
I1007 22:14:13.507436  5289 net.cpp:406] BatchNorm24 <- Convolution24
I1007 22:14:13.507439  5289 net.cpp:367] BatchNorm24 -> Convolution24 (in-place)
I1007 22:14:13.507570  5289 net.cpp:122] Setting up BatchNorm24
I1007 22:14:13.507573  5289 net.cpp:129] Top shape: 100 64 7 7 (313600)
I1007 22:14:13.507575  5289 net.cpp:137] Memory required for data: 458797200
I1007 22:14:13.507580  5289 layer_factory.hpp:77] Creating layer Scale24
I1007 22:14:13.507585  5289 net.cpp:84] Creating Layer Scale24
I1007 22:14:13.507586  5289 net.cpp:406] Scale24 <- Convolution24
I1007 22:14:13.507591  5289 net.cpp:367] Scale24 -> Convolution24 (in-place)
I1007 22:14:13.507616  5289 layer_factory.hpp:77] Creating layer Scale24
I1007 22:14:13.507688  5289 net.cpp:122] Setting up Scale24
I1007 22:14:13.507692  5289 net.cpp:129] Top shape: 100 64 7 7 (313600)
I1007 22:14:13.507694  5289 net.cpp:137] Memory required for data: 460051600
I1007 22:14:13.507699  5289 layer_factory.hpp:77] Creating layer elu22
I1007 22:14:13.507701  5289 net.cpp:84] Creating Layer elu22
I1007 22:14:13.507704  5289 net.cpp:406] elu22 <- Convolution24
I1007 22:14:13.507709  5289 net.cpp:367] elu22 -> Convolution24 (in-place)
I1007 22:14:13.507712  5289 net.cpp:122] Setting up elu22
I1007 22:14:13.507715  5289 net.cpp:129] Top shape: 100 64 7 7 (313600)
I1007 22:14:13.507717  5289 net.cpp:137] Memory required for data: 461306000
I1007 22:14:13.507719  5289 layer_factory.hpp:77] Creating layer Convolution25
I1007 22:14:13.507725  5289 net.cpp:84] Creating Layer Convolution25
I1007 22:14:13.507727  5289 net.cpp:406] Convolution25 <- Convolution24
I1007 22:14:13.507740  5289 net.cpp:380] Convolution25 -> Convolution25
I1007 22:14:13.509655  5289 net.cpp:122] Setting up Convolution25
I1007 22:14:13.509665  5289 net.cpp:129] Top shape: 100 64 7 7 (313600)
I1007 22:14:13.509667  5289 net.cpp:137] Memory required for data: 462560400
I1007 22:14:13.509672  5289 layer_factory.hpp:77] Creating layer BatchNorm25
I1007 22:14:13.509676  5289 net.cpp:84] Creating Layer BatchNorm25
I1007 22:14:13.509680  5289 net.cpp:406] BatchNorm25 <- Convolution25
I1007 22:14:13.509683  5289 net.cpp:367] BatchNorm25 -> Convolution25 (in-place)
I1007 22:14:13.509819  5289 net.cpp:122] Setting up BatchNorm25
I1007 22:14:13.509822  5289 net.cpp:129] Top shape: 100 64 7 7 (313600)
I1007 22:14:13.509824  5289 net.cpp:137] Memory required for data: 463814800
I1007 22:14:13.509829  5289 layer_factory.hpp:77] Creating layer Scale25
I1007 22:14:13.509833  5289 net.cpp:84] Creating Layer Scale25
I1007 22:14:13.509836  5289 net.cpp:406] Scale25 <- Convolution25
I1007 22:14:13.509840  5289 net.cpp:367] Scale25 -> Convolution25 (in-place)
I1007 22:14:13.509865  5289 layer_factory.hpp:77] Creating layer Scale25
I1007 22:14:13.509941  5289 net.cpp:122] Setting up Scale25
I1007 22:14:13.509946  5289 net.cpp:129] Top shape: 100 64 7 7 (313600)
I1007 22:14:13.509948  5289 net.cpp:137] Memory required for data: 465069200
I1007 22:14:13.509951  5289 layer_factory.hpp:77] Creating layer Eltwise11
I1007 22:14:13.509955  5289 net.cpp:84] Creating Layer Eltwise11
I1007 22:14:13.509958  5289 net.cpp:406] Eltwise11 <- Convolution23
I1007 22:14:13.509960  5289 net.cpp:406] Eltwise11 <- Convolution25
I1007 22:14:13.509964  5289 net.cpp:380] Eltwise11 -> Eltwise11
I1007 22:14:13.509979  5289 net.cpp:122] Setting up Eltwise11
I1007 22:14:13.509984  5289 net.cpp:129] Top shape: 100 64 7 7 (313600)
I1007 22:14:13.509986  5289 net.cpp:137] Memory required for data: 466323600
I1007 22:14:13.509989  5289 layer_factory.hpp:77] Creating layer elu23
I1007 22:14:13.509991  5289 net.cpp:84] Creating Layer elu23
I1007 22:14:13.509994  5289 net.cpp:406] elu23 <- Eltwise11
I1007 22:14:13.509996  5289 net.cpp:367] elu23 -> Eltwise11 (in-place)
I1007 22:14:13.510000  5289 net.cpp:122] Setting up elu23
I1007 22:14:13.510004  5289 net.cpp:129] Top shape: 100 64 7 7 (313600)
I1007 22:14:13.510005  5289 net.cpp:137] Memory required for data: 467578000
I1007 22:14:13.510007  5289 layer_factory.hpp:77] Creating layer Eltwise11_elu23_0_split
I1007 22:14:13.510010  5289 net.cpp:84] Creating Layer Eltwise11_elu23_0_split
I1007 22:14:13.510012  5289 net.cpp:406] Eltwise11_elu23_0_split <- Eltwise11
I1007 22:14:13.510016  5289 net.cpp:380] Eltwise11_elu23_0_split -> Eltwise11_elu23_0_split_0
I1007 22:14:13.510020  5289 net.cpp:380] Eltwise11_elu23_0_split -> Eltwise11_elu23_0_split_1
I1007 22:14:13.510040  5289 net.cpp:122] Setting up Eltwise11_elu23_0_split
I1007 22:14:13.510044  5289 net.cpp:129] Top shape: 100 64 7 7 (313600)
I1007 22:14:13.510046  5289 net.cpp:129] Top shape: 100 64 7 7 (313600)
I1007 22:14:13.510048  5289 net.cpp:137] Memory required for data: 470086800
I1007 22:14:13.510051  5289 layer_factory.hpp:77] Creating layer Convolution26
I1007 22:14:13.510056  5289 net.cpp:84] Creating Layer Convolution26
I1007 22:14:13.510059  5289 net.cpp:406] Convolution26 <- Eltwise11_elu23_0_split_0
I1007 22:14:13.510062  5289 net.cpp:380] Convolution26 -> Convolution26
I1007 22:14:13.511684  5289 net.cpp:122] Setting up Convolution26
I1007 22:14:13.511693  5289 net.cpp:129] Top shape: 100 64 7 7 (313600)
I1007 22:14:13.511696  5289 net.cpp:137] Memory required for data: 471341200
I1007 22:14:13.511700  5289 layer_factory.hpp:77] Creating layer BatchNorm26
I1007 22:14:13.511705  5289 net.cpp:84] Creating Layer BatchNorm26
I1007 22:14:13.511708  5289 net.cpp:406] BatchNorm26 <- Convolution26
I1007 22:14:13.511713  5289 net.cpp:367] BatchNorm26 -> Convolution26 (in-place)
I1007 22:14:13.511843  5289 net.cpp:122] Setting up BatchNorm26
I1007 22:14:13.511848  5289 net.cpp:129] Top shape: 100 64 7 7 (313600)
I1007 22:14:13.511850  5289 net.cpp:137] Memory required for data: 472595600
I1007 22:14:13.511862  5289 layer_factory.hpp:77] Creating layer Scale26
I1007 22:14:13.511867  5289 net.cpp:84] Creating Layer Scale26
I1007 22:14:13.511868  5289 net.cpp:406] Scale26 <- Convolution26
I1007 22:14:13.511871  5289 net.cpp:367] Scale26 -> Convolution26 (in-place)
I1007 22:14:13.511900  5289 layer_factory.hpp:77] Creating layer Scale26
I1007 22:14:13.511975  5289 net.cpp:122] Setting up Scale26
I1007 22:14:13.511978  5289 net.cpp:129] Top shape: 100 64 7 7 (313600)
I1007 22:14:13.511981  5289 net.cpp:137] Memory required for data: 473850000
I1007 22:14:13.511984  5289 layer_factory.hpp:77] Creating layer elu24
I1007 22:14:13.511988  5289 net.cpp:84] Creating Layer elu24
I1007 22:14:13.511991  5289 net.cpp:406] elu24 <- Convolution26
I1007 22:14:13.511994  5289 net.cpp:367] elu24 -> Convolution26 (in-place)
I1007 22:14:13.511997  5289 net.cpp:122] Setting up elu24
I1007 22:14:13.512001  5289 net.cpp:129] Top shape: 100 64 7 7 (313600)
I1007 22:14:13.512002  5289 net.cpp:137] Memory required for data: 475104400
I1007 22:14:13.512004  5289 layer_factory.hpp:77] Creating layer Convolution27
I1007 22:14:13.512010  5289 net.cpp:84] Creating Layer Convolution27
I1007 22:14:13.512013  5289 net.cpp:406] Convolution27 <- Convolution26
I1007 22:14:13.512017  5289 net.cpp:380] Convolution27 -> Convolution27
I1007 22:14:13.513619  5289 net.cpp:122] Setting up Convolution27
I1007 22:14:13.513628  5289 net.cpp:129] Top shape: 100 64 7 7 (313600)
I1007 22:14:13.513630  5289 net.cpp:137] Memory required for data: 476358800
I1007 22:14:13.513634  5289 layer_factory.hpp:77] Creating layer BatchNorm27
I1007 22:14:13.513640  5289 net.cpp:84] Creating Layer BatchNorm27
I1007 22:14:13.513643  5289 net.cpp:406] BatchNorm27 <- Convolution27
I1007 22:14:13.513646  5289 net.cpp:367] BatchNorm27 -> Convolution27 (in-place)
I1007 22:14:13.513805  5289 net.cpp:122] Setting up BatchNorm27
I1007 22:14:13.513810  5289 net.cpp:129] Top shape: 100 64 7 7 (313600)
I1007 22:14:13.513813  5289 net.cpp:137] Memory required for data: 477613200
I1007 22:14:13.513816  5289 layer_factory.hpp:77] Creating layer Scale27
I1007 22:14:13.513829  5289 net.cpp:84] Creating Layer Scale27
I1007 22:14:13.513831  5289 net.cpp:406] Scale27 <- Convolution27
I1007 22:14:13.513835  5289 net.cpp:367] Scale27 -> Convolution27 (in-place)
I1007 22:14:13.513864  5289 layer_factory.hpp:77] Creating layer Scale27
I1007 22:14:13.513939  5289 net.cpp:122] Setting up Scale27
I1007 22:14:13.513943  5289 net.cpp:129] Top shape: 100 64 7 7 (313600)
I1007 22:14:13.513945  5289 net.cpp:137] Memory required for data: 478867600
I1007 22:14:13.513950  5289 layer_factory.hpp:77] Creating layer Eltwise12
I1007 22:14:13.513953  5289 net.cpp:84] Creating Layer Eltwise12
I1007 22:14:13.513957  5289 net.cpp:406] Eltwise12 <- Eltwise11_elu23_0_split_1
I1007 22:14:13.513958  5289 net.cpp:406] Eltwise12 <- Convolution27
I1007 22:14:13.513962  5289 net.cpp:380] Eltwise12 -> Eltwise12
I1007 22:14:13.513981  5289 net.cpp:122] Setting up Eltwise12
I1007 22:14:13.513986  5289 net.cpp:129] Top shape: 100 64 7 7 (313600)
I1007 22:14:13.513988  5289 net.cpp:137] Memory required for data: 480122000
I1007 22:14:13.513990  5289 layer_factory.hpp:77] Creating layer elu25
I1007 22:14:13.513994  5289 net.cpp:84] Creating Layer elu25
I1007 22:14:13.513996  5289 net.cpp:406] elu25 <- Eltwise12
I1007 22:14:13.513999  5289 net.cpp:367] elu25 -> Eltwise12 (in-place)
I1007 22:14:13.514003  5289 net.cpp:122] Setting up elu25
I1007 22:14:13.514006  5289 net.cpp:129] Top shape: 100 64 7 7 (313600)
I1007 22:14:13.514008  5289 net.cpp:137] Memory required for data: 481376400
I1007 22:14:13.514009  5289 layer_factory.hpp:77] Creating layer Eltwise12_elu25_0_split
I1007 22:14:13.514014  5289 net.cpp:84] Creating Layer Eltwise12_elu25_0_split
I1007 22:14:13.514014  5289 net.cpp:406] Eltwise12_elu25_0_split <- Eltwise12
I1007 22:14:13.514017  5289 net.cpp:380] Eltwise12_elu25_0_split -> Eltwise12_elu25_0_split_0
I1007 22:14:13.514021  5289 net.cpp:380] Eltwise12_elu25_0_split -> Eltwise12_elu25_0_split_1
I1007 22:14:13.514051  5289 net.cpp:122] Setting up Eltwise12_elu25_0_split
I1007 22:14:13.514056  5289 net.cpp:129] Top shape: 100 64 7 7 (313600)
I1007 22:14:13.514060  5289 net.cpp:129] Top shape: 100 64 7 7 (313600)
I1007 22:14:13.514060  5289 net.cpp:137] Memory required for data: 483885200
I1007 22:14:13.514062  5289 layer_factory.hpp:77] Creating layer Convolution28
I1007 22:14:13.514070  5289 net.cpp:84] Creating Layer Convolution28
I1007 22:14:13.514071  5289 net.cpp:406] Convolution28 <- Eltwise12_elu25_0_split_0
I1007 22:14:13.514075  5289 net.cpp:380] Convolution28 -> Convolution28
I1007 22:14:13.515704  5289 net.cpp:122] Setting up Convolution28
I1007 22:14:13.515713  5289 net.cpp:129] Top shape: 100 64 7 7 (313600)
I1007 22:14:13.515717  5289 net.cpp:137] Memory required for data: 485139600
I1007 22:14:13.515722  5289 layer_factory.hpp:77] Creating layer BatchNorm28
I1007 22:14:13.515725  5289 net.cpp:84] Creating Layer BatchNorm28
I1007 22:14:13.515728  5289 net.cpp:406] BatchNorm28 <- Convolution28
I1007 22:14:13.515733  5289 net.cpp:367] BatchNorm28 -> Convolution28 (in-place)
I1007 22:14:13.515864  5289 net.cpp:122] Setting up BatchNorm28
I1007 22:14:13.515869  5289 net.cpp:129] Top shape: 100 64 7 7 (313600)
I1007 22:14:13.515871  5289 net.cpp:137] Memory required for data: 486394000
I1007 22:14:13.515875  5289 layer_factory.hpp:77] Creating layer Scale28
I1007 22:14:13.515879  5289 net.cpp:84] Creating Layer Scale28
I1007 22:14:13.515882  5289 net.cpp:406] Scale28 <- Convolution28
I1007 22:14:13.515884  5289 net.cpp:367] Scale28 -> Convolution28 (in-place)
I1007 22:14:13.515911  5289 layer_factory.hpp:77] Creating layer Scale28
I1007 22:14:13.515988  5289 net.cpp:122] Setting up Scale28
I1007 22:14:13.515992  5289 net.cpp:129] Top shape: 100 64 7 7 (313600)
I1007 22:14:13.515995  5289 net.cpp:137] Memory required for data: 487648400
I1007 22:14:13.515998  5289 layer_factory.hpp:77] Creating layer elu26
I1007 22:14:13.516001  5289 net.cpp:84] Creating Layer elu26
I1007 22:14:13.516003  5289 net.cpp:406] elu26 <- Convolution28
I1007 22:14:13.516006  5289 net.cpp:367] elu26 -> Convolution28 (in-place)
I1007 22:14:13.516010  5289 net.cpp:122] Setting up elu26
I1007 22:14:13.516013  5289 net.cpp:129] Top shape: 100 64 7 7 (313600)
I1007 22:14:13.516016  5289 net.cpp:137] Memory required for data: 488902800
I1007 22:14:13.516017  5289 layer_factory.hpp:77] Creating layer Convolution29
I1007 22:14:13.516026  5289 net.cpp:84] Creating Layer Convolution29
I1007 22:14:13.516027  5289 net.cpp:406] Convolution29 <- Convolution28
I1007 22:14:13.516031  5289 net.cpp:380] Convolution29 -> Convolution29
I1007 22:14:13.517943  5289 net.cpp:122] Setting up Convolution29
I1007 22:14:13.517952  5289 net.cpp:129] Top shape: 100 64 7 7 (313600)
I1007 22:14:13.517956  5289 net.cpp:137] Memory required for data: 490157200
I1007 22:14:13.517961  5289 layer_factory.hpp:77] Creating layer BatchNorm29
I1007 22:14:13.517964  5289 net.cpp:84] Creating Layer BatchNorm29
I1007 22:14:13.517967  5289 net.cpp:406] BatchNorm29 <- Convolution29
I1007 22:14:13.517971  5289 net.cpp:367] BatchNorm29 -> Convolution29 (in-place)
I1007 22:14:13.518110  5289 net.cpp:122] Setting up BatchNorm29
I1007 22:14:13.518113  5289 net.cpp:129] Top shape: 100 64 7 7 (313600)
I1007 22:14:13.518116  5289 net.cpp:137] Memory required for data: 491411600
I1007 22:14:13.518121  5289 layer_factory.hpp:77] Creating layer Scale29
I1007 22:14:13.518124  5289 net.cpp:84] Creating Layer Scale29
I1007 22:14:13.518126  5289 net.cpp:406] Scale29 <- Convolution29
I1007 22:14:13.518131  5289 net.cpp:367] Scale29 -> Convolution29 (in-place)
I1007 22:14:13.518157  5289 layer_factory.hpp:77] Creating layer Scale29
I1007 22:14:13.518234  5289 net.cpp:122] Setting up Scale29
I1007 22:14:13.518239  5289 net.cpp:129] Top shape: 100 64 7 7 (313600)
I1007 22:14:13.518240  5289 net.cpp:137] Memory required for data: 492666000
I1007 22:14:13.518244  5289 layer_factory.hpp:77] Creating layer Eltwise13
I1007 22:14:13.518247  5289 net.cpp:84] Creating Layer Eltwise13
I1007 22:14:13.518257  5289 net.cpp:406] Eltwise13 <- Eltwise12_elu25_0_split_1
I1007 22:14:13.518260  5289 net.cpp:406] Eltwise13 <- Convolution29
I1007 22:14:13.518265  5289 net.cpp:380] Eltwise13 -> Eltwise13
I1007 22:14:13.518280  5289 net.cpp:122] Setting up Eltwise13
I1007 22:14:13.518285  5289 net.cpp:129] Top shape: 100 64 7 7 (313600)
I1007 22:14:13.518287  5289 net.cpp:137] Memory required for data: 493920400
I1007 22:14:13.518290  5289 layer_factory.hpp:77] Creating layer elu27
I1007 22:14:13.518293  5289 net.cpp:84] Creating Layer elu27
I1007 22:14:13.518296  5289 net.cpp:406] elu27 <- Eltwise13
I1007 22:14:13.518298  5289 net.cpp:367] elu27 -> Eltwise13 (in-place)
I1007 22:14:13.518302  5289 net.cpp:122] Setting up elu27
I1007 22:14:13.518306  5289 net.cpp:129] Top shape: 100 64 7 7 (313600)
I1007 22:14:13.518307  5289 net.cpp:137] Memory required for data: 495174800
I1007 22:14:13.518309  5289 layer_factory.hpp:77] Creating layer Eltwise13_elu27_0_split
I1007 22:14:13.518312  5289 net.cpp:84] Creating Layer Eltwise13_elu27_0_split
I1007 22:14:13.518314  5289 net.cpp:406] Eltwise13_elu27_0_split <- Eltwise13
I1007 22:14:13.518317  5289 net.cpp:380] Eltwise13_elu27_0_split -> Eltwise13_elu27_0_split_0
I1007 22:14:13.518321  5289 net.cpp:380] Eltwise13_elu27_0_split -> Eltwise13_elu27_0_split_1
I1007 22:14:13.518342  5289 net.cpp:122] Setting up Eltwise13_elu27_0_split
I1007 22:14:13.518347  5289 net.cpp:129] Top shape: 100 64 7 7 (313600)
I1007 22:14:13.518349  5289 net.cpp:129] Top shape: 100 64 7 7 (313600)
I1007 22:14:13.518352  5289 net.cpp:137] Memory required for data: 497683600
I1007 22:14:13.518353  5289 layer_factory.hpp:77] Creating layer Convolution30
I1007 22:14:13.518359  5289 net.cpp:84] Creating Layer Convolution30
I1007 22:14:13.518362  5289 net.cpp:406] Convolution30 <- Eltwise13_elu27_0_split_0
I1007 22:14:13.518365  5289 net.cpp:380] Convolution30 -> Convolution30
I1007 22:14:13.519987  5289 net.cpp:122] Setting up Convolution30
I1007 22:14:13.519996  5289 net.cpp:129] Top shape: 100 64 7 7 (313600)
I1007 22:14:13.519999  5289 net.cpp:137] Memory required for data: 498938000
I1007 22:14:13.520002  5289 layer_factory.hpp:77] Creating layer BatchNorm30
I1007 22:14:13.520009  5289 net.cpp:84] Creating Layer BatchNorm30
I1007 22:14:13.520011  5289 net.cpp:406] BatchNorm30 <- Convolution30
I1007 22:14:13.520015  5289 net.cpp:367] BatchNorm30 -> Convolution30 (in-place)
I1007 22:14:13.520150  5289 net.cpp:122] Setting up BatchNorm30
I1007 22:14:13.520154  5289 net.cpp:129] Top shape: 100 64 7 7 (313600)
I1007 22:14:13.520156  5289 net.cpp:137] Memory required for data: 500192400
I1007 22:14:13.520160  5289 layer_factory.hpp:77] Creating layer Scale30
I1007 22:14:13.520165  5289 net.cpp:84] Creating Layer Scale30
I1007 22:14:13.520169  5289 net.cpp:406] Scale30 <- Convolution30
I1007 22:14:13.520171  5289 net.cpp:367] Scale30 -> Convolution30 (in-place)
I1007 22:14:13.520197  5289 layer_factory.hpp:77] Creating layer Scale30
I1007 22:14:13.520274  5289 net.cpp:122] Setting up Scale30
I1007 22:14:13.520278  5289 net.cpp:129] Top shape: 100 64 7 7 (313600)
I1007 22:14:13.520280  5289 net.cpp:137] Memory required for data: 501446800
I1007 22:14:13.520284  5289 layer_factory.hpp:77] Creating layer elu28
I1007 22:14:13.520287  5289 net.cpp:84] Creating Layer elu28
I1007 22:14:13.520290  5289 net.cpp:406] elu28 <- Convolution30
I1007 22:14:13.520293  5289 net.cpp:367] elu28 -> Convolution30 (in-place)
I1007 22:14:13.520298  5289 net.cpp:122] Setting up elu28
I1007 22:14:13.520300  5289 net.cpp:129] Top shape: 100 64 7 7 (313600)
I1007 22:14:13.520303  5289 net.cpp:137] Memory required for data: 502701200
I1007 22:14:13.520304  5289 layer_factory.hpp:77] Creating layer Convolution31
I1007 22:14:13.520310  5289 net.cpp:84] Creating Layer Convolution31
I1007 22:14:13.520313  5289 net.cpp:406] Convolution31 <- Convolution30
I1007 22:14:13.520316  5289 net.cpp:380] Convolution31 -> Convolution31
I1007 22:14:13.522238  5289 net.cpp:122] Setting up Convolution31
I1007 22:14:13.522248  5289 net.cpp:129] Top shape: 100 64 7 7 (313600)
I1007 22:14:13.522256  5289 net.cpp:137] Memory required for data: 503955600
I1007 22:14:13.522263  5289 layer_factory.hpp:77] Creating layer BatchNorm31
I1007 22:14:13.522267  5289 net.cpp:84] Creating Layer BatchNorm31
I1007 22:14:13.522270  5289 net.cpp:406] BatchNorm31 <- Convolution31
I1007 22:14:13.522274  5289 net.cpp:367] BatchNorm31 -> Convolution31 (in-place)
I1007 22:14:13.522411  5289 net.cpp:122] Setting up BatchNorm31
I1007 22:14:13.522416  5289 net.cpp:129] Top shape: 100 64 7 7 (313600)
I1007 22:14:13.522418  5289 net.cpp:137] Memory required for data: 505210000
I1007 22:14:13.522423  5289 layer_factory.hpp:77] Creating layer Scale31
I1007 22:14:13.522426  5289 net.cpp:84] Creating Layer Scale31
I1007 22:14:13.522429  5289 net.cpp:406] Scale31 <- Convolution31
I1007 22:14:13.522433  5289 net.cpp:367] Scale31 -> Convolution31 (in-place)
I1007 22:14:13.522459  5289 layer_factory.hpp:77] Creating layer Scale31
I1007 22:14:13.522536  5289 net.cpp:122] Setting up Scale31
I1007 22:14:13.522541  5289 net.cpp:129] Top shape: 100 64 7 7 (313600)
I1007 22:14:13.522542  5289 net.cpp:137] Memory required for data: 506464400
I1007 22:14:13.522547  5289 layer_factory.hpp:77] Creating layer Eltwise14
I1007 22:14:13.522552  5289 net.cpp:84] Creating Layer Eltwise14
I1007 22:14:13.522554  5289 net.cpp:406] Eltwise14 <- Eltwise13_elu27_0_split_1
I1007 22:14:13.522557  5289 net.cpp:406] Eltwise14 <- Convolution31
I1007 22:14:13.522560  5289 net.cpp:380] Eltwise14 -> Eltwise14
I1007 22:14:13.522575  5289 net.cpp:122] Setting up Eltwise14
I1007 22:14:13.522579  5289 net.cpp:129] Top shape: 100 64 7 7 (313600)
I1007 22:14:13.522580  5289 net.cpp:137] Memory required for data: 507718800
I1007 22:14:13.522583  5289 layer_factory.hpp:77] Creating layer elu29
I1007 22:14:13.522588  5289 net.cpp:84] Creating Layer elu29
I1007 22:14:13.522589  5289 net.cpp:406] elu29 <- Eltwise14
I1007 22:14:13.522593  5289 net.cpp:367] elu29 -> Eltwise14 (in-place)
I1007 22:14:13.522595  5289 net.cpp:122] Setting up elu29
I1007 22:14:13.522598  5289 net.cpp:129] Top shape: 100 64 7 7 (313600)
I1007 22:14:13.522600  5289 net.cpp:137] Memory required for data: 508973200
I1007 22:14:13.522603  5289 layer_factory.hpp:77] Creating layer Eltwise14_elu29_0_split
I1007 22:14:13.522606  5289 net.cpp:84] Creating Layer Eltwise14_elu29_0_split
I1007 22:14:13.522608  5289 net.cpp:406] Eltwise14_elu29_0_split <- Eltwise14
I1007 22:14:13.522611  5289 net.cpp:380] Eltwise14_elu29_0_split -> Eltwise14_elu29_0_split_0
I1007 22:14:13.522614  5289 net.cpp:380] Eltwise14_elu29_0_split -> Eltwise14_elu29_0_split_1
I1007 22:14:13.522637  5289 net.cpp:122] Setting up Eltwise14_elu29_0_split
I1007 22:14:13.522640  5289 net.cpp:129] Top shape: 100 64 7 7 (313600)
I1007 22:14:13.522644  5289 net.cpp:129] Top shape: 100 64 7 7 (313600)
I1007 22:14:13.522645  5289 net.cpp:137] Memory required for data: 511482000
I1007 22:14:13.522647  5289 layer_factory.hpp:77] Creating layer Convolution32
I1007 22:14:13.522653  5289 net.cpp:84] Creating Layer Convolution32
I1007 22:14:13.522655  5289 net.cpp:406] Convolution32 <- Eltwise14_elu29_0_split_0
I1007 22:14:13.522660  5289 net.cpp:380] Convolution32 -> Convolution32
I1007 22:14:13.524296  5289 net.cpp:122] Setting up Convolution32
I1007 22:14:13.524304  5289 net.cpp:129] Top shape: 100 64 7 7 (313600)
I1007 22:14:13.524307  5289 net.cpp:137] Memory required for data: 512736400
I1007 22:14:13.524312  5289 layer_factory.hpp:77] Creating layer BatchNorm32
I1007 22:14:13.524317  5289 net.cpp:84] Creating Layer BatchNorm32
I1007 22:14:13.524319  5289 net.cpp:406] BatchNorm32 <- Convolution32
I1007 22:14:13.524323  5289 net.cpp:367] BatchNorm32 -> Convolution32 (in-place)
I1007 22:14:13.524457  5289 net.cpp:122] Setting up BatchNorm32
I1007 22:14:13.524462  5289 net.cpp:129] Top shape: 100 64 7 7 (313600)
I1007 22:14:13.524464  5289 net.cpp:137] Memory required for data: 513990800
I1007 22:14:13.524468  5289 layer_factory.hpp:77] Creating layer Scale32
I1007 22:14:13.524473  5289 net.cpp:84] Creating Layer Scale32
I1007 22:14:13.524482  5289 net.cpp:406] Scale32 <- Convolution32
I1007 22:14:13.524487  5289 net.cpp:367] Scale32 -> Convolution32 (in-place)
I1007 22:14:13.524515  5289 layer_factory.hpp:77] Creating layer Scale32
I1007 22:14:13.524593  5289 net.cpp:122] Setting up Scale32
I1007 22:14:13.524597  5289 net.cpp:129] Top shape: 100 64 7 7 (313600)
I1007 22:14:13.524600  5289 net.cpp:137] Memory required for data: 515245200
I1007 22:14:13.524603  5289 layer_factory.hpp:77] Creating layer elu30
I1007 22:14:13.524607  5289 net.cpp:84] Creating Layer elu30
I1007 22:14:13.524610  5289 net.cpp:406] elu30 <- Convolution32
I1007 22:14:13.524613  5289 net.cpp:367] elu30 -> Convolution32 (in-place)
I1007 22:14:13.524617  5289 net.cpp:122] Setting up elu30
I1007 22:14:13.524621  5289 net.cpp:129] Top shape: 100 64 7 7 (313600)
I1007 22:14:13.524622  5289 net.cpp:137] Memory required for data: 516499600
I1007 22:14:13.524624  5289 layer_factory.hpp:77] Creating layer Convolution33
I1007 22:14:13.524631  5289 net.cpp:84] Creating Layer Convolution33
I1007 22:14:13.524632  5289 net.cpp:406] Convolution33 <- Convolution32
I1007 22:14:13.524636  5289 net.cpp:380] Convolution33 -> Convolution33
I1007 22:14:13.526567  5289 net.cpp:122] Setting up Convolution33
I1007 22:14:13.526576  5289 net.cpp:129] Top shape: 100 64 7 7 (313600)
I1007 22:14:13.526578  5289 net.cpp:137] Memory required for data: 517754000
I1007 22:14:13.526583  5289 layer_factory.hpp:77] Creating layer BatchNorm33
I1007 22:14:13.526588  5289 net.cpp:84] Creating Layer BatchNorm33
I1007 22:14:13.526592  5289 net.cpp:406] BatchNorm33 <- Convolution33
I1007 22:14:13.526594  5289 net.cpp:367] BatchNorm33 -> Convolution33 (in-place)
I1007 22:14:13.526736  5289 net.cpp:122] Setting up BatchNorm33
I1007 22:14:13.526741  5289 net.cpp:129] Top shape: 100 64 7 7 (313600)
I1007 22:14:13.526743  5289 net.cpp:137] Memory required for data: 519008400
I1007 22:14:13.526748  5289 layer_factory.hpp:77] Creating layer Scale33
I1007 22:14:13.526752  5289 net.cpp:84] Creating Layer Scale33
I1007 22:14:13.526754  5289 net.cpp:406] Scale33 <- Convolution33
I1007 22:14:13.526758  5289 net.cpp:367] Scale33 -> Convolution33 (in-place)
I1007 22:14:13.526785  5289 layer_factory.hpp:77] Creating layer Scale33
I1007 22:14:13.526865  5289 net.cpp:122] Setting up Scale33
I1007 22:14:13.526870  5289 net.cpp:129] Top shape: 100 64 7 7 (313600)
I1007 22:14:13.526871  5289 net.cpp:137] Memory required for data: 520262800
I1007 22:14:13.526875  5289 layer_factory.hpp:77] Creating layer Eltwise15
I1007 22:14:13.526878  5289 net.cpp:84] Creating Layer Eltwise15
I1007 22:14:13.526881  5289 net.cpp:406] Eltwise15 <- Eltwise14_elu29_0_split_1
I1007 22:14:13.526885  5289 net.cpp:406] Eltwise15 <- Convolution33
I1007 22:14:13.526887  5289 net.cpp:380] Eltwise15 -> Eltwise15
I1007 22:14:13.526904  5289 net.cpp:122] Setting up Eltwise15
I1007 22:14:13.526908  5289 net.cpp:129] Top shape: 100 64 7 7 (313600)
I1007 22:14:13.526911  5289 net.cpp:137] Memory required for data: 521517200
I1007 22:14:13.526912  5289 layer_factory.hpp:77] Creating layer elu31
I1007 22:14:13.526916  5289 net.cpp:84] Creating Layer elu31
I1007 22:14:13.526917  5289 net.cpp:406] elu31 <- Eltwise15
I1007 22:14:13.526921  5289 net.cpp:367] elu31 -> Eltwise15 (in-place)
I1007 22:14:13.526924  5289 net.cpp:122] Setting up elu31
I1007 22:14:13.526926  5289 net.cpp:129] Top shape: 100 64 7 7 (313600)
I1007 22:14:13.526928  5289 net.cpp:137] Memory required for data: 522771600
I1007 22:14:13.526931  5289 layer_factory.hpp:77] Creating layer Pooling1
I1007 22:14:13.526935  5289 net.cpp:84] Creating Layer Pooling1
I1007 22:14:13.526937  5289 net.cpp:406] Pooling1 <- Eltwise15
I1007 22:14:13.526940  5289 net.cpp:380] Pooling1 -> Pooling1
I1007 22:14:13.527087  5289 net.cpp:122] Setting up Pooling1
I1007 22:14:13.527094  5289 net.cpp:129] Top shape: 100 64 1 1 (6400)
I1007 22:14:13.527096  5289 net.cpp:137] Memory required for data: 522797200
I1007 22:14:13.527098  5289 layer_factory.hpp:77] Creating layer InnerProduct1
I1007 22:14:13.527114  5289 net.cpp:84] Creating Layer InnerProduct1
I1007 22:14:13.527118  5289 net.cpp:406] InnerProduct1 <- Pooling1
I1007 22:14:13.527122  5289 net.cpp:380] InnerProduct1 -> InnerProduct1
I1007 22:14:13.527227  5289 net.cpp:122] Setting up InnerProduct1
I1007 22:14:13.527232  5289 net.cpp:129] Top shape: 100 10 (1000)
I1007 22:14:13.527235  5289 net.cpp:137] Memory required for data: 522801200
I1007 22:14:13.527240  5289 layer_factory.hpp:77] Creating layer SoftmaxWithLoss1
I1007 22:14:13.527245  5289 net.cpp:84] Creating Layer SoftmaxWithLoss1
I1007 22:14:13.527246  5289 net.cpp:406] SoftmaxWithLoss1 <- InnerProduct1
I1007 22:14:13.527249  5289 net.cpp:406] SoftmaxWithLoss1 <- Data2
I1007 22:14:13.527253  5289 net.cpp:380] SoftmaxWithLoss1 -> SoftmaxWithLoss1
…
I1007 22:14:13.530058  5289 net.cpp:294] The NetState phase (1) differed from the phase (0) specified by a rule in layer Data1
I1007 22:14:13.530612  5289 net.cpp:51] Initializing net from parameters: 
name: "resnet_cifar10"
state {
  phase: TEST
}
layer {
  name: "Data1"
  type: "Data"
  top: "Data1"
  top: "Data2"
  include {
    phase: TEST
  }
  transform_param {
    mean_file: "/home/x306/caffe/xn/PENLU/data/cifar10/mean.binaryproto"
  }
  data_param {
    source: "/home/x306/caffe/xn/PENLU/data/cifar10/cifar10_test_lmdb"
    batch_size: 100
    backend: LMDB
  }
}
layer {
  name: "Convolution1"
  type: "Convolution"
  bottom: "Data1"
  top: "Convolution1"
  param {
    lr_mult: 1
    decay_mult: 1
  }
  param {
    lr_mult: 2
    decay_mult: 0
  }
  convolution_param {
    num_output: 16
    pad: 1
    kernel_size: 3
    stride: 1
    weight_filler {
      type: "gaussian"
      std: 0.118
    }
    bias_filler {
      type: "constant"
      value: 0
    }
  }
}
layer {
  name: "BatchNorm1"
  type: "BatchNorm"
  bottom: "Convolution1"
  top: "Convolution1"
  param {
    lr_mult: 0
    decay_mult: 0
  }
  param {
    lr_mult: 0
    decay_mult: 0
  }
  param {
    lr_mult: 0
    decay_mult: 0
  }
}
layer {
  name: "Scale1"
  type: "Scale"
  bottom: "Convolution1"
  top: "Convolution1"
  scale_param {
    bias_term: true
  }
}
layer {
  name: "elu1"
  type: "ELU"
  bottom: "Convolution1"
  top: "Convolution1"
  elu_param {
    alpha: 1
  }
}
layer {
  name: "Convolution2"
  type: "Convolution"
  bottom: "Convolution1"
  top: "Convolution2"
  param {
    lr_mult: 1
    decay_mult: 1
  }
  param {
    lr_mult: 2
    decay_mult: 0
  }
  convolution_param {
    num_output: 16
    pad: 1
    kernel_size: 3
    stride: 1
    weight_filler {
      type: "gaussian"
      std: 0.118
    }
    bias_filler {
      type: "constant"
      value: 0
    }
  }
}
layer {
  name: "BatchNorm2"
  type: "BatchNorm"
  bottom: "Convolution2"
  top: "Convolution2"
  param {
    lr_mult: 0
    decay_mult: 0
  }
  param {
    lr_mult: 0
    decay_mult: 0
  }
  param {
    lr_mult: 0
    decay_mult: 0
  }
}
layer {
  name: "Scale2"
  type: "Scale"
  bottom: "Convolution2"
  top: "Convolution2"
  scale_param {
    bias_term: true
  }
}
layer {
  name: "elu2"
  type: "ELU"
  bottom: "Convolution2"
  top: "Convolution2"
  elu_param {
    alpha: 1
  }
}
layer {
  name: "Convolution3"
  type: "Convolution"
  bottom: "Convolution2"
  top: "Convolution3"
  param {
    lr_mult: 1
    decay_mult: 1
  }
  param {
    lr_mult: 2
    decay_mult: 0
  }
  convolution_param {
    num_output: 16
    pad: 1
    kernel_size: 3
    stride: 1
    weight_filler {
      type: "gaussian"
      std: 0.118
    }
    bias_filler {
      type: "constant"
      value: 0
    }
  }
}
layer {
  name: "BatchNorm3"
  type: "BatchNorm"
  bottom: "Convolution3"
  top: "Convolution3"
  param {
    lr_mult: 0
    decay_mult: 0
  }
  param {
    lr_mult: 0
    decay_mult: 0
  }
  param {
    lr_mult: 0
    decay_mult: 0
  }
}
layer {
  name: "Scale3"
  type: "Scale"
  bottom: "Convolution3"
  top: "Convolution3"
  scale_param {
    bias_term: true
  }
}
layer {
  name: "Eltwise1"
  type: "Eltwise"
  bottom: "Convolution1"
  bottom: "Convolution3"
  top: "Eltwise1"
  eltwise_param {
    operation: SUM
  }
}
layer {
  name: "elu3"
  type: "ELU"
  bottom: "Eltwise1"
  top: "Eltwise1"
  elu_param {
    alpha: 1
  }
}
layer {
  name: "Convolution4"
  type: "Convolution"
  bottom: "Eltwise1"
  top: "Convolution4"
  param {
    lr_mult: 1
    decay_mult: 1
  }
  param {
    lr_mult: 2
    decay_mult: 0
  }
  convolution_param {
    num_output: 16
    pad: 1
    kernel_size: 3
    stride: 1
    weight_filler {
      type: "gaussian"
      std: 0.118
    }
    bias_filler {
      type: "constant"
      value: 0
    }
  }
}
layer {
  name: "BatchNorm4"
  type: "BatchNorm"
  bottom: "Convolution4"
  top: "Convolution4"
  param {
    lr_mult: 0
    decay_mult: 0
  }
  param {
    lr_mult: 0
    decay_mult: 0
  }
  param {
    lr_mult: 0
    decay_mult: 0
  }
}
layer {
  name: "Scale4"
  type: "Scale"
  bottom: "Convolution4"
  top: "Convolution4"
  scale_param {
    bias_term: true
  }
}
layer {
  name: "elu4"
  type: "ELU"
  bottom: "Convolution4"
  top: "Convolution4"
  elu_param {
    alpha: 1
  }
}
layer {
  name: "Convolution5"
  type: "Convolution"
  bottom: "Convolution4"
  top: "Convolution5"
  param {
    lr_mult: 1
    decay_mult: 1
  }
  param {
    lr_mult: 2
    decay_mult: 0
  }
  convolution_param {
    num_output: 16
    pad: 1
    kernel_size: 3
    stride: 1
    weight_filler {
      type: "gaussian"
      std: 0.118
    }
    bias_filler {
      type: "constant"
      value: 0
    }
  }
}
layer {
  name: "BatchNorm5"
  type: "BatchNorm"
  bottom: "Convolution5"
  top: "Convolution5"
  param {
    lr_mult: 0
    decay_mult: 0
  }
  param {
    lr_mult: 0
    decay_mult: 0
  }
  param {
    lr_mult: 0
    decay_mult: 0
  }
}
layer {
  name: "Scale5"
  type: "Scale"
  bottom: "Convolution5"
  top: "Convolution5"
  scale_param {
    bias_term: true
  }
}
layer {
  name: "Eltwise2"
  type: "Eltwise"
  bottom: "Eltwise1"
  bottom: "Convolution5"
  top: "Eltwise2"
  eltwise_param {
    operation: SUM
  }
}
layer {
  name: "elu5"
  type: "ELU"
  bottom: "Eltwise2"
  top: "Eltwise2"
  elu_param {
    alpha: 1
  }
}
layer {
  name: "Convolution6"
  type: "Convolution"
  bottom: "Eltwise2"
  top: "Convolution6"
  param {
    lr_mult: 1
    decay_mult: 1
  }
  param {
    lr_mult: 2
    decay_mult: 0
  }
  convolution_param {
    num_output: 16
    pad: 1
    kernel_size: 3
    stride: 1
    weight_filler {
      type: "gaussian"
      std: 0.118
    }
    bias_filler {
      type: "constant"
      value: 0
    }
  }
}
layer {
  name: "BatchNorm6"
  type: "BatchNorm"
  bottom: "Convolution6"
  top: "Convolution6"
  param {
    lr_mult: 0
    decay_mult: 0
  }
  param {
    lr_mult: 0
    decay_mult: 0
  }
  param {
    lr_mult: 0
    decay_mult: 0
  }
}
layer {
  name: "Scale6"
  type: "Scale"
  bottom: "Convolution6"
  top: "Convolution6"
  scale_param {
    bias_term: true
  }
}
layer {
  name: "elu6"
  type: "ELU"
  bottom: "Convolution6"
  top: "Convolution6"
  elu_param {
    alpha: 1
  }
}
layer {
  name: "Convolution7"
  type: "Convolution"
  bottom: "Convolution6"
  top: "Convolution7"
  param {
    lr_mult: 1
    decay_mult: 1
  }
  param {
    lr_mult: 2
    decay_mult: 0
  }
  convolution_param {
    num_output: 16
    pad: 1
    kernel_size: 3
    stride: 1
    weight_filler {
      type: "gaussian"
      std: 0.118
    }
    bias_filler {
      type: "constant"
      value: 0
    }
  }
}
layer {
  name: "BatchNorm7"
  type: "BatchNorm"
  bottom: "Convolution7"
  top: "Convolution7"
  param {
    lr_mult: 0
    decay_mult: 0
  }
  param {
    lr_mult: 0
    decay_mult: 0
  }
  param {
    lr_mult: 0
    decay_mult: 0
  }
}
layer {
  name: "Scale7"
  type: "Scale"
  bottom: "Convolution7"
  top: "Convolution7"
  scale_param {
    bias_term: true
  }
}
layer {
  name: "Eltwise3"
  type: "Eltwise"
  bottom: "Eltwise2"
  bottom: "Convolution7"
  top: "Eltwise3"
  eltwise_param {
    operation: SUM
  }
}
layer {
  name: "elu7"
  type: "ELU"
  bottom: "Eltwise3"
  top: "Eltwise3"
  elu_param {
    alpha: 1
  }
}
layer {
  name: "Convolution8"
  type: "Convolution"
  bottom: "Eltwise3"
  top: "Convolution8"
  param {
    lr_mult: 1
    decay_mult: 1
  }
  param {
    lr_mult: 2
    decay_mult: 0
  }
  convolution_param {
    num_output: 16
    pad: 1
    kernel_size: 3
    stride: 1
    weight_filler {
      type: "gaussian"
      std: 0.118
    }
    bias_filler {
      type: "constant"
      value: 0
    }
  }
}
layer {
  name: "BatchNorm8"
  type: "BatchNorm"
  bottom: "Convolution8"
  top: "Convolution8"
  param {
    lr_mult: 0
    decay_mult: 0
  }
  param {
    lr_mult: 0
    decay_mult: 0
  }
  param {
    lr_mult: 0
    decay_mult: 0
  }
}
layer {
  name: "Scale8"
  type: "Scale"
  bottom: "Convolution8"
  top: "Convolution8"
  scale_param {
    bias_term: true
  }
}
layer {
  name: "elu8"
  type: "ELU"
  bottom: "Convolution8"
  top: "Convolution8"
  elu_param {
    alpha: 1
  }
}
layer {
  name: "Convolution9"
  type: "Convolution"
  bottom: "Convolution8"
  top: "Convolution9"
  param {
    lr_mult: 1
    decay_mult: 1
  }
  param {
    lr_mult: 2
    decay_mult: 0
  }
  convolution_param {
    num_output: 16
    pad: 1
    kernel_size: 3
    stride: 1
    weight_filler {
      type: "gaussian"
      std: 0.118
    }
    bias_filler {
      type: "constant"
      value: 0
    }
  }
}
layer {
  name: "BatchNorm9"
  type: "BatchNorm"
  bottom: "Convolution9"
  top: "Convolution9"
  param {
    lr_mult: 0
    decay_mult: 0
  }
  param {
    lr_mult: 0
    decay_mult: 0
  }
  param {
    lr_mult: 0
    decay_mult: 0
  }
}
layer {
  name: "Scale9"
  type: "Scale"
  bottom: "Convolution9"
  top: "Convolution9"
  scale_param {
    bias_term: true
  }
}
layer {
  name: "Eltwise4"
  type: "Eltwise"
  bottom: "Eltwise3"
  bottom: "Convolution9"
  top: "Eltwise4"
  eltwise_param {
    operation: SUM
  }
}
layer {
  name: "elu9"
  type: "ELU"
  bottom: "Eltwise4"
  top: "Eltwise4"
  elu_param {
    alpha: 1
  }
}
layer {
  name: "Convolution10"
  type: "Convolution"
  bottom: "Eltwise4"
  top: "Convolution10"
  param {
    lr_mult: 1
    decay_mult: 1
  }
  param {
    lr_mult: 2
    decay_mult: 0
  }
  convolution_param {
    num_output: 16
    pad: 1
    kernel_size: 3
    stride: 1
    weight_filler {
      type: "gaussian"
      std: 0.118
    }
    bias_filler {
      type: "constant"
      value: 0
    }
  }
}
layer {
  name: "BatchNorm10"
  type: "BatchNorm"
  bottom: "Convolution10"
  top: "Convolution10"
  param {
    lr_mult: 0
    decay_mult: 0
  }
  param {
    lr_mult: 0
    decay_mult: 0
  }
  param {
    lr_mult: 0
    decay_mult: 0
  }
}
layer {
  name: "Scale10"
  type: "Scale"
  bottom: "Convolution10"
  top: "Convolution10"
  scale_param {
    bias_term: true
  }
}
layer {
  name: "elu10"
  type: "ELU"
  bottom: "Convolution10"
  top: "Convolution10"
  elu_param {
    alpha: 1
  }
}
layer {
  name: "Convolution11"
  type: "Convolution"
  bottom: "Convolution10"
  top: "Convolution11"
  param {
    lr_mult: 1
    decay_mult: 1
  }
  param {
    lr_mult: 2
    decay_mult: 0
  }
  convolution_param {
    num_output: 16
    pad: 1
    kernel_size: 3
    stride: 1
    weight_filler {
      type: "gaussian"
      std: 0.118
    }
    bias_filler {
      type: "constant"
      value: 0
    }
  }
}
layer {
  name: "BatchNorm11"
  type: "BatchNorm"
  bottom: "Convolution11"
  top: "Convolution11"
  param {
    lr_mult: 0
    decay_mult: 0
  }
  param {
    lr_mult: 0
    decay_mult: 0
  }
  param {
    lr_mult: 0
    decay_mult: 0
  }
}
layer {
  name: "Scale11"
  type: "Scale"
  bottom: "Convolution11"
  top: "Convolution11"
  scale_param {
    bias_term: true
  }
}
layer {
  name: "Eltwise5"
  type: "Eltwise"
  bottom: "Eltwise4"
  bottom: "Convolution11"
  top: "Eltwise5"
  eltwise_param {
    operation: SUM
  }
}
layer {
  name: "elu11"
  type: "ELU"
  bottom: "Eltwise5"
  top: "Eltwise5"
  elu_param {
    alpha: 1
  }
}
layer {
  name: "Convolution12"
  type: "Convolution"
  bottom: "Eltwise5"
  top: "Convolution12"
  param {
    lr_mult: 1
    decay_mult: 1
  }
  param {
    lr_mult: 2
    decay_mult: 0
  }
  convolution_param {
    num_output: 32
    pad: 0
    kernel_size: 1
    stride: 2
    weight_filler {
      type: "gaussian"
      std: 0.25
    }
    bias_filler {
      type: "constant"
      value: 0
    }
  }
}
layer {
  name: "BatchNorm12"
  type: "BatchNorm"
  bottom: "Convolution12"
  top: "Convolution12"
  param {
    lr_mult: 0
    decay_mult: 0
  }
  param {
    lr_mult: 0
    decay_mult: 0
  }
  param {
    lr_mult: 0
    decay_mult: 0
  }
}
layer {
  name: "Scale12"
  type: "Scale"
  bottom: "Convolution12"
  top: "Convolution12"
  scale_param {
    bias_term: true
  }
}
layer {
  name: "Convolution13"
  type: "Convolution"
  bottom: "Eltwise5"
  top: "Convolution13"
  param {
    lr_mult: 1
    decay_mult: 1
  }
  param {
    lr_mult: 2
    decay_mult: 0
  }
  convolution_param {
    num_output: 32
    pad: 1
    kernel_size: 3
    stride: 2
    weight_filler {
      type: "gaussian"
      std: 0.083
    }
    bias_filler {
      type: "constant"
      value: 0
    }
  }
}
layer {
  name: "BatchNorm13"
  type: "BatchNorm"
  bottom: "Convolution13"
  top: "Convolution13"
  param {
    lr_mult: 0
    decay_mult: 0
  }
  param {
    lr_mult: 0
    decay_mult: 0
  }
  param {
    lr_mult: 0
    decay_mult: 0
  }
}
layer {
  name: "Scale13"
  type: "Scale"
  bottom: "Convolution13"
  top: "Convolution13"
  scale_param {
    bias_term: true
  }
}
layer {
  name: "elu12"
  type: "ELU"
  bottom: "Convolution13"
  top: "Convolution13"
  elu_param {
    alpha: 1
  }
}
layer {
  name: "Convolution14"
  type: "Convolution"
  bottom: "Convolution13"
  top: "Convolution14"
  param {
    lr_mult: 1
    decay_mult: 1
  }
  param {
    lr_mult: 2
    decay_mult: 0
  }
  convolution_param {
    num_output: 32
    pad: 1
    kernel_size: 3
    stride: 1
    weight_filler {
      type: "gaussian"
      std: 0.083
    }
    bias_filler {
      type: "constant"
      value: 0
    }
  }
}
layer {
  name: "BatchNorm14"
  type: "BatchNorm"
  bottom: "Convolution14"
  top: "Convolution14"
  param {
    lr_mult: 0
    decay_mult: 0
  }
  param {
    lr_mult: 0
    decay_mult: 0
  }
  param {
    lr_mult: 0
    decay_mult: 0
  }
}
layer {
  name: "Scale14"
  type: "Scale"
  bottom: "Convolution14"
  top: "Convolution14"
  scale_param {
    bias_term: true
  }
}
layer {
  name: "Eltwise6"
  type: "Eltwise"
  bottom: "Convolution12"
  bottom: "Convolution14"
  top: "Eltwise6"
  eltwise_param {
    operation: SUM
  }
}
layer {
  name: "elu13"
  type: "ELU"
  bottom: "Eltwise6"
  top: "Eltwise6"
  elu_param {
    alpha: 1
  }
}
layer {
  name: "Convolution15"
  type: "Convolution"
  bottom: "Eltwise6"
  top: "Convolution15"
  param {
    lr_mult: 1
    decay_mult: 1
  }
  param {
    lr_mult: 2
    decay_mult: 0
  }
  convolution_param {
    num_output: 32
    pad: 1
    kernel_size: 3
    stride: 1
    weight_filler {
      type: "gaussian"
      std: 0.083
    }
    bias_filler {
      type: "constant"
      value: 0
    }
  }
}
layer {
  name: "BatchNorm15"
  type: "BatchNorm"
  bottom: "Convolution15"
  top: "Convolution15"
  param {
    lr_mult: 0
    decay_mult: 0
  }
  param {
    lr_mult: 0
    decay_mult: 0
  }
  param {
    lr_mult: 0
    decay_mult: 0
  }
}
layer {
  name: "Scale15"
  type: "Scale"
  bottom: "Convolution15"
  top: "Convolution15"
  scale_param {
    bias_term: true
  }
}
layer {
  name: "elu14"
  type: "ELU"
  bottom: "Convolution15"
  top: "Convolution15"
  elu_param {
    alpha: 1
  }
}
layer {
  name: "Convolution16"
  type: "Convolution"
  bottom: "Convolution15"
  top: "Convolution16"
  param {
    lr_mult: 1
    decay_mult: 1
  }
  param {
    lr_mult: 2
    decay_mult: 0
  }
  convolution_param {
    num_output: 32
    pad: 1
    kernel_size: 3
    stride: 1
    weight_filler {
      type: "gaussian"
      std: 0.083
    }
    bias_filler {
      type: "constant"
      value: 0
    }
  }
}
layer {
  name: "BatchNorm16"
  type: "BatchNorm"
  bottom: "Convolution16"
  top: "Convolution16"
  param {
    lr_mult: 0
    decay_mult: 0
  }
  param {
    lr_mult: 0
    decay_mult: 0
  }
  param {
    lr_mult: 0
    decay_mult: 0
  }
}
layer {
  name: "Scale16"
  type: "Scale"
  bottom: "Convolution16"
  top: "Convolution16"
  scale_param {
    bias_term: true
  }
}
layer {
  name: "Eltwise7"
  type: "Eltwise"
  bottom: "Eltwise6"
  bottom: "Convolution16"
  top: "Eltwise7"
  eltwise_param {
    operation: SUM
  }
}
layer {
  name: "elu15"
  type: "ELU"
  bottom: "Eltwise7"
  top: "Eltwise7"
  elu_param {
    alpha: 1
  }
}
layer {
  name: "Convolution17"
  type: "Convolution"
  bottom: "Eltwise7"
  top: "Convolution17"
  param {
    lr_mult: 1
    decay_mult: 1
  }
  param {
    lr_mult: 2
    decay_mult: 0
  }
  convolution_param {
    num_output: 32
    pad: 1
    kernel_size: 3
    stride: 1
    weight_filler {
      type: "gaussian"
      std: 0.083
    }
    bias_filler {
      type: "constant"
      value: 0
    }
  }
}
layer {
  name: "BatchNorm17"
  type: "BatchNorm"
  bottom: "Convolution17"
  top: "Convolution17"
  param {
    lr_mult: 0
    decay_mult: 0
  }
  param {
    lr_mult: 0
    decay_mult: 0
  }
  param {
    lr_mult: 0
    decay_mult: 0
  }
}
layer {
  name: "Scale17"
  type: "Scale"
  bottom: "Convolution17"
  top: "Convolution17"
  scale_param {
    bias_term: true
  }
}
layer {
  name: "elu16"
  type: "ELU"
  bottom: "Convolution17"
  top: "Convolution17"
  elu_param {
    alpha: 1
  }
}
layer {
  name: "Convolution18"
  type: "Convolution"
  bottom: "Convolution17"
  top: "Convolution18"
  param {
    lr_mult: 1
    decay_mult: 1
  }
  param {
    lr_mult: 2
    decay_mult: 0
  }
  convolution_param {
    num_output: 32
    pad: 1
    kernel_size: 3
    stride: 1
    weight_filler {
      type: "gaussian"
      std: 0.083
    }
    bias_filler {
      type: "constant"
      value: 0
    }
  }
}
layer {
  name: "BatchNorm18"
  type: "BatchNorm"
  bottom: "Convolution18"
  top: "Convolution18"
  param {
    lr_mult: 0
    decay_mult: 0
  }
  param {
    lr_mult: 0
    decay_mult: 0
  }
  param {
    lr_mult: 0
    decay_mult: 0
  }
}
layer {
  name: "Scale18"
  type: "Scale"
  bottom: "Convolution18"
  top: "Convolution18"
  scale_param {
    bias_term: true
  }
}
layer {
  name: "Eltwise8"
  type: "Eltwise"
  bottom: "Eltwise7"
  bottom: "Convolution18"
  top: "Eltwise8"
  eltwise_param {
    operation: SUM
  }
}
layer {
  name: "elu17"
  type: "ELU"
  bottom: "Eltwise8"
  top: "Eltwise8"
  elu_param {
    alpha: 1
  }
}
layer {
  name: "Convolution19"
  type: "Convolution"
  bottom: "Eltwise8"
  top: "Convolution19"
  param {
    lr_mult: 1
    decay_mult: 1
  }
  param {
    lr_mult: 2
    decay_mult: 0
  }
  convolution_param {
    num_output: 32
    pad: 1
    kernel_size: 3
    stride: 1
    weight_filler {
      type: "gaussian"
      std: 0.083
    }
    bias_filler {
      type: "constant"
      value: 0
    }
  }
}
layer {
  name: "BatchNorm19"
  type: "BatchNorm"
  bottom: "Convolution19"
  top: "Convolution19"
  param {
    lr_mult: 0
    decay_mult: 0
  }
  param {
    lr_mult: 0
    decay_mult: 0
  }
  param {
    lr_mult: 0
    decay_mult: 0
  }
}
layer {
  name: "Scale19"
  type: "Scale"
  bottom: "Convolution19"
  top: "Convolution19"
  scale_param {
    bias_term: true
  }
}
layer {
  name: "elu18"
  type: "ELU"
  bottom: "Convolution19"
  top: "Convolution19"
  elu_param {
    alpha: 1
  }
}
layer {
  name: "Convolution20"
  type: "Convolution"
  bottom: "Convolution19"
  top: "Convolution20"
  param {
    lr_mult: 1
    decay_mult: 1
  }
  param {
    lr_mult: 2
    decay_mult: 0
  }
  convolution_param {
    num_output: 32
    pad: 1
    kernel_size: 3
    stride: 1
    weight_filler {
      type: "gaussian"
      std: 0.083
    }
    bias_filler {
      type: "constant"
      value: 0
    }
  }
}
layer {
  name: "BatchNorm20"
  type: "BatchNorm"
  bottom: "Convolution20"
  top: "Convolution20"
  param {
    lr_mult: 0
    decay_mult: 0
  }
  param {
    lr_mult: 0
    decay_mult: 0
  }
  param {
    lr_mult: 0
    decay_mult: 0
  }
}
layer {
  name: "Scale20"
  type: "Scale"
  bottom: "Convolution20"
  top: "Convolution20"
  scale_param {
    bias_term: true
  }
}
layer {
  name: "Eltwise9"
  type: "Eltwise"
  bottom: "Eltwise8"
  bottom: "Convolution20"
  top: "Eltwise9"
  eltwise_param {
    operation: SUM
  }
}
layer {
  name: "elu19"
  type: "ELU"
  bottom: "Eltwise9"
  top: "Eltwise9"
  elu_param {
    alpha: 1
  }
}
layer {
  name: "Convolution21"
  type: "Convolution"
  bottom: "Eltwise9"
  top: "Convolution21"
  param {
    lr_mult: 1
    decay_mult: 1
  }
  param {
    lr_mult: 2
    decay_mult: 0
  }
  convolution_param {
    num_output: 32
    pad: 1
    kernel_size: 3
    stride: 1
    weight_filler {
      type: "gaussian"
      std: 0.083
    }
    bias_filler {
      type: "constant"
      value: 0
    }
  }
}
layer {
  name: "BatchNorm21"
  type: "BatchNorm"
  bottom: "Convolution21"
  top: "Convolution21"
  param {
    lr_mult: 0
    decay_mult: 0
  }
  param {
    lr_mult: 0
    decay_mult: 0
  }
  param {
    lr_mult: 0
    decay_mult: 0
  }
}
layer {
  name: "Scale21"
  type: "Scale"
  bottom: "Convolution21"
  top: "Convolution21"
  scale_param {
    bias_term: true
  }
}
layer {
  name: "elu20"
  type: "ELU"
  bottom: "Convolution21"
  top: "Convolution21"
  elu_param {
    alpha: 1
  }
}
layer {
  name: "Convolution22"
  type: "Convolution"
  bottom: "Convolution21"
  top: "Convolution22"
  param {
    lr_mult: 1
    decay_mult: 1
  }
  param {
    lr_mult: 2
    decay_mult: 0
  }
  convolution_param {
    num_output: 32
    pad: 1
    kernel_size: 3
    stride: 1
    weight_filler {
      type: "gaussian"
      std: 0.083
    }
    bias_filler {
      type: "constant"
      value: 0
    }
  }
}
layer {
  name: "BatchNorm22"
  type: "BatchNorm"
  bottom: "Convolution22"
  top: "Convolution22"
  param {
    lr_mult: 0
    decay_mult: 0
  }
  param {
    lr_mult: 0
    decay_mult: 0
  }
  param {
    lr_mult: 0
    decay_mult: 0
  }
}
layer {
  name: "Scale22"
  type: "Scale"
  bottom: "Convolution22"
  top: "Convolution22"
  scale_param {
    bias_term: true
  }
}
layer {
  name: "Eltwise10"
  type: "Eltwise"
  bottom: "Eltwise9"
  bottom: "Convolution22"
  top: "Eltwise10"
  eltwise_param {
    operation: SUM
  }
}
layer {
  name: "elu21"
  type: "ELU"
  bottom: "Eltwise10"
  top: "Eltwise10"
  elu_param {
    alpha: 1
  }
}
layer {
  name: "Convolution23"
  type: "Convolution"
  bottom: "Eltwise10"
  top: "Convolution23"
  param {
    lr_mult: 1
    decay_mult: 1
  }
  param {
    lr_mult: 2
    decay_mult: 0
  }
  convolution_param {
    num_output: 64
    pad: 0
    kernel_size: 1
    stride: 2
    weight_filler {
      type: "gaussian"
      std: 0.17677669
    }
    bias_filler {
      type: "constant"
      value: 0
    }
  }
}
layer {
  name: "BatchNorm23"
  type: "BatchNorm"
  bottom: "Convolution23"
  top: "Convolution23"
  param {
    lr_mult: 0
    decay_mult: 0
  }
  param {
    lr_mult: 0
    decay_mult: 0
  }
  param {
    lr_mult: 0
    decay_mult: 0
  }
}
layer {
  name: "Scale23"
  type: "Scale"
  bottom: "Convolution23"
  top: "Convolution23"
  scale_param {
    bias_term: true
  }
}
layer {
  name: "Convolution24"
  type: "Convolution"
  bottom: "Eltwise10"
  top: "Convolution24"
  param {
    lr_mult: 1
    decay_mult: 1
  }
  param {
    lr_mult: 2
    decay_mult: 0
  }
  convolution_param {
    num_output: 64
    pad: 1
    kernel_size: 3
    stride: 2
    weight_filler {
      type: "gaussian"
      std: 0.059
    }
    bias_filler {
      type: "constant"
      value: 0
    }
  }
}
layer {
  name: "BatchNorm24"
  type: "BatchNorm"
  bottom: "Convolution24"
  top: "Convolution24"
  param {
    lr_mult: 0
    decay_mult: 0
  }
  param {
    lr_mult: 0
    decay_mult: 0
  }
  param {
    lr_mult: 0
    decay_mult: 0
  }
}
layer {
  name: "Scale24"
  type: "Scale"
  bottom: "Convolution24"
  top: "Convolution24"
  scale_param {
    bias_term: true
  }
}
layer {
  name: "elu22"
  type: "ELU"
  bottom: "Convolution24"
  top: "Convolution24"
  elu_param {
    alpha: 1
  }
}
layer {
  name: "Convolution25"
  type: "Convolution"
  bottom: "Convolution24"
  top: "Convolution25"
  param {
    lr_mult: 1
    decay_mult: 1
  }
  param {
    lr_mult: 2
    decay_mult: 0
  }
  convolution_param {
    num_output: 64
    pad: 1
    kernel_size: 3
    stride: 1
    weight_filler {
      type: "gaussian"
      std: 0.059
    }
    bias_filler {
      type: "constant"
      value: 0
    }
  }
}
layer {
  name: "BatchNorm25"
  type: "BatchNorm"
  bottom: "Convolution25"
  top: "Convolution25"
  param {
    lr_mult: 0
    decay_mult: 0
  }
  param {
    lr_mult: 0
    decay_mult: 0
  }
  param {
    lr_mult: 0
    decay_mult: 0
  }
}
layer {
  name: "Scale25"
  type: "Scale"
  bottom: "Convolution25"
  top: "Convolution25"
  scale_param {
    bias_term: true
  }
}
layer {
  name: "Eltwise11"
  type: "Eltwise"
  bottom: "Convolution23"
  bottom: "Convolution25"
  top: "Eltwise11"
  eltwise_param {
    operation: SUM
  }
}
layer {
  name: "elu23"
  type: "ELU"
  bottom: "Eltwise11"
  top: "Eltwise11"
  elu_param {
    alpha: 1
  }
}
layer {
  name: "Convolution26"
  type: "Convolution"
  bottom: "Eltwise11"
  top: "Convolution26"
  param {
    lr_mult: 1
    decay_mult: 1
  }
  param {
    lr_mult: 2
    decay_mult: 0
  }
  convolution_param {
    num_output: 64
    pad: 1
    kernel_size: 3
    stride: 1
    weight_filler {
      type: "gaussian"
      std: 0.059
    }
    bias_filler {
      type: "constant"
      value: 0
    }
  }
}
layer {
  name: "BatchNorm26"
  type: "BatchNorm"
  bottom: "Convolution26"
  top: "Convolution26"
  param {
    lr_mult: 0
    decay_mult: 0
  }
  param {
    lr_mult: 0
    decay_mult: 0
  }
  param {
    lr_mult: 0
    decay_mult: 0
  }
}
layer {
  name: "Scale26"
  type: "Scale"
  bottom: "Convolution26"
  top: "Convolution26"
  scale_param {
    bias_term: true
  }
}
layer {
  name: "elu24"
  type: "ELU"
  bottom: "Convolution26"
  top: "Convolution26"
  elu_param {
    alpha: 1
  }
}
layer {
  name: "Convolution27"
  type: "Convolution"
  bottom: "Convolution26"
  top: "Convolution27"
  param {
    lr_mult: 1
    decay_mult: 1
  }
  param {
    lr_mult: 2
    decay_mult: 0
  }
  convolution_param {
    num_output: 64
    pad: 1
    kernel_size: 3
    stride: 1
    weight_filler {
      type: "gaussian"
      std: 0.059
    }
    bias_filler {
      type: "constant"
      value: 0
    }
  }
}
layer {
  name: "BatchNorm27"
  type: "BatchNorm"
  bottom: "Convolution27"
  top: "Convolution27"
  param {
    lr_mult: 0
    decay_mult: 0
  }
  param {
    lr_mult: 0
    decay_mult: 0
  }
  param {
    lr_mult: 0
    decay_mult: 0
  }
}
layer {
  name: "Scale27"
  type: "Scale"
  bottom: "Convolution27"
  top: "Convolution27"
  scale_param {
    bias_term: true
  }
}
layer {
  name: "Eltwise12"
  type: "Eltwise"
  bottom: "Eltwise11"
  bottom: "Convolution27"
  top: "Eltwise12"
  eltwise_param {
    operation: SUM
  }
}
layer {
  name: "elu25"
  type: "ELU"
  bottom: "Eltwise12"
  top: "Eltwise12"
  elu_param {
    alpha: 1
  }
}
layer {
  name: "Convolution28"
  type: "Convolution"
  bottom: "Eltwise12"
  top: "Convolution28"
  param {
    lr_mult: 1
    decay_mult: 1
  }
  param {
    lr_mult: 2
    decay_mult: 0
  }
  convolution_param {
    num_output: 64
    pad: 1
    kernel_size: 3
    stride: 1
    weight_filler {
      type: "gaussian"
      std: 0.059
    }
    bias_filler {
      type: "constant"
      value: 0
    }
  }
}
layer {
  name: "BatchNorm28"
  type: "BatchNorm"
  bottom: "Convolution28"
  top: "Convolution28"
  param {
    lr_mult: 0
    decay_mult: 0
  }
  param {
    lr_mult: 0
    decay_mult: 0
  }
  param {
    lr_mult: 0
    decay_mult: 0
  }
}
layer {
  name: "Scale28"
  type: "Scale"
  bottom: "Convolution28"
  top: "Convolution28"
  scale_param {
    bias_term: true
  }
}
layer {
  name: "elu26"
  type: "ELU"
  bottom: "Convolution28"
  top: "Convolution28"
  elu_param {
    alpha: 1
  }
}
layer {
  name: "Convolution29"
  type: "Convolution"
  bottom: "Convolution28"
  top: "Convolution29"
  param {
    lr_mult: 1
    decay_mult: 1
  }
  param {
    lr_mult: 2
    decay_mult: 0
  }
  convolution_param {
    num_output: 64
    pad: 1
    kernel_size: 3
    stride: 1
    weight_filler {
      type: "gaussian"
      std: 0.059
    }
    bias_filler {
      type: "constant"
      value: 0
    }
  }
}
layer {
  name: "BatchNorm29"
  type: "BatchNorm"
  bottom: "Convolution29"
  top: "Convolution29"
  param {
    lr_mult: 0
    decay_mult: 0
  }
  param {
    lr_mult: 0
    decay_mult: 0
  }
  param {
    lr_mult: 0
    decay_mult: 0
  }
}
layer {
  name: "Scale29"
  type: "Scale"
  bottom: "Convolution29"
  top: "Convolution29"
  scale_param {
    bias_term: true
  }
}
layer {
  name: "Eltwise13"
  type: "Eltwise"
  bottom: "Eltwise12"
  bottom: "Convolution29"
  top: "Eltwise13"
  eltwise_param {
    operation: SUM
  }
}
layer {
  name: "elu27"
  type: "ELU"
  bottom: "Eltwise13"
  top: "Eltwise13"
  elu_param {
    alpha: 1
  }
}
layer {
  name: "Convolution30"
  type: "Convolution"
  bottom: "Eltwise13"
  top: "Convolution30"
  param {
    lr_mult: 1
    decay_mult: 1
  }
  param {
    lr_mult: 2
    decay_mult: 0
  }
  convolution_param {
    num_output: 64
    pad: 1
    kernel_size: 3
    stride: 1
    weight_filler {
      type: "gaussian"
      std: 0.059
    }
    bias_filler {
      type: "constant"
      value: 0
    }
  }
}
layer {
  name: "BatchNorm30"
  type: "BatchNorm"
  bottom: "Convolution30"
  top: "Convolution30"
  param {
    lr_mult: 0
    decay_mult: 0
  }
  param {
    lr_mult: 0
    decay_mult: 0
  }
  param {
    lr_mult: 0
    decay_mult: 0
  }
}
layer {
  name: "Scale30"
  type: "Scale"
  bottom: "Convolution30"
  top: "Convolution30"
  scale_param {
    bias_term: true
  }
}
layer {
  name: "elu28"
  type: "ELU"
  bottom: "Convolution30"
  top: "Convolution30"
  elu_param {
    alpha: 1
  }
}
layer {
  name: "Convolution31"
  type: "Convolution"
  bottom: "Convolution30"
  top: "Convolution31"
  param {
    lr_mult: 1
    decay_mult: 1
  }
  param {
    lr_mult: 2
    decay_mult: 0
  }
  convolution_param {
    num_output: 64
    pad: 1
    kernel_size: 3
    stride: 1
    weight_filler {
      type: "gaussian"
      std: 0.059
    }
    bias_filler {
      type: "constant"
      value: 0
    }
  }
}
layer {
  name: "BatchNorm31"
  type: "BatchNorm"
  bottom: "Convolution31"
  top: "Convolution31"
  param {
    lr_mult: 0
    decay_mult: 0
  }
  param {
    lr_mult: 0
    decay_mult: 0
  }
  param {
    lr_mult: 0
    decay_mult: 0
  }
}
layer {
  name: "Scale31"
  type: "Scale"
  bottom: "Convolution31"
  top: "Convolu
I1007 22:14:13.535821  5289 layer_factory.hpp:77] Creating layer Data1
I1007 22:14:13.535873  5289 db_lmdb.cpp:35] Opened lmdb /home/x306/caffe/xn/PENLU/data/cifar10/cifar10_test_lmdb
I1007 22:14:13.535886  5289 net.cpp:84] Creating Layer Data1
I1007 22:14:13.535889  5289 net.cpp:380] Data1 -> Data1
I1007 22:14:13.535895  5289 net.cpp:380] Data1 -> Data2
I1007 22:14:13.535902  5289 data_transformer.cpp:25] Loading mean file from: /home/x306/caffe/xn/PENLU/data/cifar10/mean.binaryproto
I1007 22:14:13.536032  5289 data_layer.cpp:45] output data size: 100,3,32,32
I1007 22:14:13.540067  5289 net.cpp:122] Setting up Data1
I1007 22:14:13.540087  5289 net.cpp:129] Top shape: 100 3 32 32 (307200)
I1007 22:14:13.540092  5289 net.cpp:129] Top shape: 100 (100)
I1007 22:14:13.540094  5289 net.cpp:137] Memory required for data: 1229200
I1007 22:14:13.540098  5289 layer_factory.hpp:77] Creating layer Data2_Data1_1_split
I1007 22:14:13.540107  5289 net.cpp:84] Creating Layer Data2_Data1_1_split
I1007 22:14:13.540110  5289 net.cpp:406] Data2_Data1_1_split <- Data2
I1007 22:14:13.540114  5289 net.cpp:380] Data2_Data1_1_split -> Data2_Data1_1_split_0
I1007 22:14:13.540122  5289 net.cpp:380] Data2_Data1_1_split -> Data2_Data1_1_split_1
I1007 22:14:13.540195  5289 net.cpp:122] Setting up Data2_Data1_1_split
I1007 22:14:13.540201  5289 net.cpp:129] Top shape: 100 (100)
I1007 22:14:13.540205  5289 net.cpp:129] Top shape: 100 (100)
…
I1007 22:14:13.626591  5289 layer_factory.hpp:77] Creating layer elu14
I1007 22:14:13.626595  5289 net.cpp:84] Creating Layer elu14
I1007 22:14:13.626597  5289 net.cpp:406] elu14 <- Convolution15
I1007 22:14:13.626600  5289 net.cpp:367] elu14 -> Convolution15 (in-place)
I1007 22:14:13.626605  5289 net.cpp:122] Setting up elu14
I1007 22:14:13.626608  5289 net.cpp:129] Top shape: 100 32 16 16 (819200)
I1007 22:14:13.626610  5289 net.cpp:137] Memory required for data: 459982000
I1007 22:14:13.626612  5289 layer_factory.hpp:77] Creating layer Convolution16
I1007 22:14:13.626634  5289 net.cpp:84] Creating Layer Convolution16
I1007 22:14:13.626638  5289 net.cpp:406] Convolution16 <- Convolution15
I1007 22:14:13.626653  5289 net.cpp:380] Convolution16 -> Convolution16
I1007 22:14:13.627856  5289 net.cpp:122] Setting up Convolution16
I1007 22:14:13.627864  5289 net.cpp:129] Top shape: 100 32 16 16 (819200)
I1007 22:14:13.627867  5289 net.cpp:137] Memory required for data: 463258800
I1007 22:14:13.627872  5289 layer_factory.hpp:77] Creating layer BatchNorm16
I1007 22:14:13.627877  5289 net.cpp:84] Creating Layer BatchNorm16
I1007 22:14:13.627881  5289 net.cpp:406] BatchNorm16 <- Convolution16
I1007 22:14:13.627885  5289 net.cpp:367] BatchNorm16 -> Convolution16 (in-place)
I1007 22:14:13.628034  5289 net.cpp:122] Setting up BatchNorm16
I1007 22:14:13.628039  5289 net.cpp:129] Top shape: 100 32 16 16 (819200)
I1007 22:14:13.628041  5289 net.cpp:137] Memory required for data: 466535600
I1007 22:14:13.628046  5289 layer_factory.hpp:77] Creating layer Scale16
I1007 22:14:13.628051  5289 net.cpp:84] Creating Layer Scale16
I1007 22:14:13.628053  5289 net.cpp:406] Scale16 <- Convolution16
I1007 22:14:13.628057  5289 net.cpp:367] Scale16 -> Convolution16 (in-place)
I1007 22:14:13.628085  5289 layer_factory.hpp:77] Creating layer Scale16
I1007 22:14:13.628170  5289 net.cpp:122] Setting up Scale16
I1007 22:14:13.628173  5289 net.cpp:129] Top shape: 100 32 16 16 (819200)
I1007 22:14:13.628175  5289 net.cpp:137] Memory required for data: 469812400
I1007 22:14:13.628180  5289 layer_factory.hpp:77] Creating layer Eltwise7
I1007 22:14:13.628183  5289 net.cpp:84] Creating Layer Eltwise7
I1007 22:14:13.628185  5289 net.cpp:406] Eltwise7 <- Eltwise6_elu13_0_split_1
I1007 22:14:13.628188  5289 net.cpp:406] Eltwise7 <- Convolution16
I1007 22:14:13.628192  5289 net.cpp:380] Eltwise7 -> Eltwise7
I1007 22:14:13.628206  5289 net.cpp:122] Setting up Eltwise7
I1007 22:14:13.628209  5289 net.cpp:129] Top shape: 100 32 16 16 (819200)
I1007 22:14:13.628211  5289 net.cpp:137] Memory required for data: 473089200
I1007 22:14:13.628213  5289 layer_factory.hpp:77] Creating layer elu15
I1007 22:14:13.628217  5289 net.cpp:84] Creating Layer elu15
I1007 22:14:13.628221  5289 net.cpp:406] elu15 <- Eltwise7
I1007 22:14:13.628223  5289 net.cpp:367] elu15 -> Eltwise7 (in-place)
I1007 22:14:13.628227  5289 net.cpp:122] Setting up elu15
I1007 22:14:13.628231  5289 net.cpp:129] Top shape: 100 32 16 16 (819200)
I1007 22:14:13.628232  5289 net.cpp:137] Memory required for data: 476366000
I1007 22:14:13.628234  5289 layer_factory.hpp:77] Creating layer Eltwise7_elu15_0_split
I1007 22:14:13.628237  5289 net.cpp:84] Creating Layer Eltwise7_elu15_0_split
I1007 22:14:13.628239  5289 net.cpp:406] Eltwise7_elu15_0_split <- Eltwise7
I1007 22:14:13.628242  5289 net.cpp:380] Eltwise7_elu15_0_split -> Eltwise7_elu15_0_split_0
I1007 22:14:13.628247  5289 net.cpp:380] Eltwise7_elu15_0_split -> Eltwise7_elu15_0_split_1
I1007 22:14:13.628270  5289 net.cpp:122] Setting up Eltwise7_elu15_0_split
I1007 22:14:13.628274  5289 net.cpp:129] Top shape: 100 32 16 16 (819200)
I1007 22:14:13.628278  5289 net.cpp:129] Top shape: 100 32 16 16 (819200)
I1007 22:14:13.628279  5289 net.cpp:137] Memory required for data: 482919600
I1007 22:14:13.628281  5289 layer_factory.hpp:77] Creating layer Convolution17
I1007 22:14:13.628288  5289 net.cpp:84] Creating Layer Convolution17
I1007 22:14:13.628289  5289 net.cpp:406] Convolution17 <- Eltwise7_elu15_0_split_0
I1007 22:14:13.628293  5289 net.cpp:380] Convolution17 -> Convolution17
I1007 22:14:13.629382  5289 net.cpp:122] Setting up Convolution17
I1007 22:14:13.629391  5289 net.cpp:129] Top shape: 100 32 16 16 (819200)
I1007 22:14:13.629393  5289 net.cpp:137] Memory required for data: 486196400
I1007 22:14:13.629397  5289 layer_factory.hpp:77] Creating layer BatchNorm17
I1007 22:14:13.629405  5289 net.cpp:84] Creating Layer BatchNorm17
I1007 22:14:13.629407  5289 net.cpp:406] BatchNorm17 <- Convolution17
I1007 22:14:13.629411  5289 net.cpp:367] BatchNorm17 -> Convolution17 (in-place)
I1007 22:14:13.629557  5289 net.cpp:122] Setting up BatchNorm17
I1007 22:14:13.629561  5289 net.cpp:129] Top shape: 100 32 16 16 (819200)
I1007 22:14:13.629565  5289 net.cpp:137] Memory required for data: 489473200
I1007 22:14:13.629568  5289 layer_factory.hpp:77] Creating layer Scale17
I1007 22:14:13.629572  5289 net.cpp:84] Creating Layer Scale17
I1007 22:14:13.629575  5289 net.cpp:406] Scale17 <- Convolution17
I1007 22:14:13.629580  5289 net.cpp:367] Scale17 -> Convolution17 (in-place)
I1007 22:14:13.629608  5289 layer_factory.hpp:77] Creating layer Scale17
I1007 22:14:13.629691  5289 net.cpp:122] Setting up Scale17
I1007 22:14:13.629695  5289 net.cpp:129] Top shape: 100 32 16 16 (819200)
I1007 22:14:13.629698  5289 net.cpp:137] Memory required for data: 492750000
I1007 22:14:13.629709  5289 layer_factory.hpp:77] Creating layer elu16
I1007 22:14:13.629712  5289 net.cpp:84] Creating Layer elu16
I1007 22:14:13.629714  5289 net.cpp:406] elu16 <- Convolution17
I1007 22:14:13.629719  5289 net.cpp:367] elu16 -> Convolution17 (in-place)
I1007 22:14:13.629724  5289 net.cpp:122] Setting up elu16
I1007 22:14:13.629726  5289 net.cpp:129] Top shape: 100 32 16 16 (819200)
I1007 22:14:13.629729  5289 net.cpp:137] Memory required for data: 496026800
I1007 22:14:13.629730  5289 layer_factory.hpp:77] Creating layer Convolution18
I1007 22:14:13.629736  5289 net.cpp:84] Creating Layer Convolution18
I1007 22:14:13.629739  5289 net.cpp:406] Convolution18 <- Convolution17
I1007 22:14:13.629742  5289 net.cpp:380] Convolution18 -> Convolution18
I1007 22:14:13.630831  5289 net.cpp:122] Setting up Convolution18
I1007 22:14:13.630838  5289 net.cpp:129] Top shape: 100 32 16 16 (819200)
I1007 22:14:13.630841  5289 net.cpp:137] Memory required for data: 499303600
I1007 22:14:13.630846  5289 layer_factory.hpp:77] Creating layer BatchNorm18
I1007 22:14:13.630851  5289 net.cpp:84] Creating Layer BatchNorm18
I1007 22:14:13.630854  5289 net.cpp:406] BatchNorm18 <- Convolution18
I1007 22:14:13.630857  5289 net.cpp:367] BatchNorm18 -> Convolution18 (in-place)
I1007 22:14:13.631001  5289 net.cpp:122] Setting up BatchNorm18
I1007 22:14:13.631006  5289 net.cpp:129] Top shape: 100 32 16 16 (819200)
I1007 22:14:13.631008  5289 net.cpp:137] Memory required for data: 502580400
I1007 22:14:13.631013  5289 layer_factory.hpp:77] Creating layer Scale18
I1007 22:14:13.631017  5289 net.cpp:84] Creating Layer Scale18
I1007 22:14:13.631019  5289 net.cpp:406] Scale18 <- Convolution18
I1007 22:14:13.631022  5289 net.cpp:367] Scale18 -> Convolution18 (in-place)
I1007 22:14:13.631052  5289 layer_factory.hpp:77] Creating layer Scale18
I1007 22:14:13.631134  5289 net.cpp:122] Setting up Scale18
I1007 22:14:13.631139  5289 net.cpp:129] Top shape: 100 32 16 16 (819200)
I1007 22:14:13.631141  5289 net.cpp:137] Memory required for data: 505857200
I1007 22:14:13.631145  5289 layer_factory.hpp:77] Creating layer Eltwise8
I1007 22:14:13.631150  5289 net.cpp:84] Creating Layer Eltwise8
I1007 22:14:13.631151  5289 net.cpp:406] Eltwise8 <- Eltwise7_elu15_0_split_1
I1007 22:14:13.631155  5289 net.cpp:406] Eltwise8 <- Convolution18
I1007 22:14:13.631157  5289 net.cpp:380] Eltwise8 -> Eltwise8
I1007 22:14:13.631176  5289 net.cpp:122] Setting up Eltwise8
I1007 22:14:13.631181  5289 net.cpp:129] Top shape: 100 32 16 16 (819200)
I1007 22:14:13.631183  5289 net.cpp:137] Memory required for data: 509134000
I1007 22:14:13.631186  5289 layer_factory.hpp:77] Creating layer elu17
I1007 22:14:13.631189  5289 net.cpp:84] Creating Layer elu17
I1007 22:14:13.631191  5289 net.cpp:406] elu17 <- Eltwise8
I1007 22:14:13.631196  5289 net.cpp:367] elu17 -> Eltwise8 (in-place)
I1007 22:14:13.631198  5289 net.cpp:122] Setting up elu17
I1007 22:14:13.631201  5289 net.cpp:129] Top shape: 100 32 16 16 (819200)
I1007 22:14:13.631203  5289 net.cpp:137] Memory required for data: 512410800
I1007 22:14:13.631206  5289 layer_factory.hpp:77] Creating layer Eltwise8_elu17_0_split
I1007 22:14:13.631209  5289 net.cpp:84] Creating Layer Eltwise8_elu17_0_split
I1007 22:14:13.631211  5289 net.cpp:406] Eltwise8_elu17_0_split <- Eltwise8
I1007 22:14:13.631214  5289 net.cpp:380] Eltwise8_elu17_0_split -> Eltwise8_elu17_0_split_0
I1007 22:14:13.631217  5289 net.cpp:380] Eltwise8_elu17_0_split -> Eltwise8_elu17_0_split_1
I1007 22:14:13.631243  5289 net.cpp:122] Setting up Eltwise8_elu17_0_split
I1007 22:14:13.631247  5289 net.cpp:129] Top shape: 100 32 16 16 (819200)
I1007 22:14:13.631249  5289 net.cpp:129] Top shape: 100 32 16 16 (819200)
I1007 22:14:13.631252  5289 net.cpp:137] Memory required for data: 518964400
I1007 22:14:13.631254  5289 layer_factory.hpp:77] Creating layer Convolution19
I1007 22:14:13.631260  5289 net.cpp:84] Creating Layer Convolution19
I1007 22:14:13.631263  5289 net.cpp:406] Convolution19 <- Eltwise8_elu17_0_split_0
I1007 22:14:13.631268  5289 net.cpp:380] Convolution19 -> Convolution19
I1007 22:14:13.632367  5289 net.cpp:122] Setting up Convolution19
I1007 22:14:13.632376  5289 net.cpp:129] Top shape: 100 32 16 16 (819200)
I1007 22:14:13.632380  5289 net.cpp:137] Memory required for data: 522241200
I1007 22:14:13.632383  5289 layer_factory.hpp:77] Creating layer BatchNorm19
I1007 22:14:13.632388  5289 net.cpp:84] Creating Layer BatchNorm19
I1007 22:14:13.632391  5289 net.cpp:406] BatchNorm19 <- Convolution19
I1007 22:14:13.632395  5289 net.cpp:367] BatchNorm19 -> Convolution19 (in-place)
I1007 22:14:13.632542  5289 net.cpp:122] Setting up BatchNorm19
I1007 22:14:13.632547  5289 net.cpp:129] Top shape: 100 32 16 16 (819200)
I1007 22:14:13.632550  5289 net.cpp:137] Memory required for data: 525518000
I1007 22:14:13.632565  5289 layer_factory.hpp:77] Creating layer Scale19
I1007 22:14:13.632570  5289 net.cpp:84] Creating Layer Scale19
I1007 22:14:13.632571  5289 net.cpp:406] Scale19 <- Convolution19
I1007 22:14:13.632575  5289 net.cpp:367] Scale19 -> Convolution19 (in-place)
I1007 22:14:13.632607  5289 layer_factory.hpp:77] Creating layer Scale19
I1007 22:14:13.632691  5289 net.cpp:122] Setting up Scale19
I1007 22:14:13.632695  5289 net.cpp:129] Top shape: 100 32 16 16 (819200)
I1007 22:14:13.632697  5289 net.cpp:137] Memory required for data: 528794800
I1007 22:14:13.632701  5289 layer_factory.hpp:77] Creating layer elu18
I1007 22:14:13.632705  5289 net.cpp:84] Creating Layer elu18
I1007 22:14:13.632707  5289 net.cpp:406] elu18 <- Convolution19
I1007 22:14:13.632710  5289 net.cpp:367] elu18 -> Convolution19 (in-place)
I1007 22:14:13.632714  5289 net.cpp:122] Setting up elu18
I1007 22:14:13.632717  5289 net.cpp:129] Top shape: 100 32 16 16 (819200)
I1007 22:14:13.632719  5289 net.cpp:137] Memory required for data: 532071600
I1007 22:14:13.632721  5289 layer_factory.hpp:77] Creating layer Convolution20
I1007 22:14:13.632728  5289 net.cpp:84] Creating Layer Convolution20
I1007 22:14:13.632730  5289 net.cpp:406] Convolution20 <- Convolution19
I1007 22:14:13.632735  5289 net.cpp:380] Convolution20 -> Convolution20
I1007 22:14:13.633487  5289 net.cpp:122] Setting up Convolution20
I1007 22:14:13.633496  5289 net.cpp:129] Top shape: 100 32 16 16 (819200)
I1007 22:14:13.633497  5289 net.cpp:137] Memory required for data: 535348400
I1007 22:14:13.633502  5289 layer_factory.hpp:77] Creating layer BatchNorm20
I1007 22:14:13.633507  5289 net.cpp:84] Creating Layer BatchNorm20
I1007 22:14:13.633509  5289 net.cpp:406] BatchNorm20 <- Convolution20
I1007 22:14:13.633513  5289 net.cpp:367] BatchNorm20 -> Convolution20 (in-place)
I1007 22:14:13.633657  5289 net.cpp:122] Setting up BatchNorm20
I1007 22:14:13.633661  5289 net.cpp:129] Top shape: 100 32 16 16 (819200)
I1007 22:14:13.633663  5289 net.cpp:137] Memory required for data: 538625200
I1007 22:14:13.633667  5289 layer_factory.hpp:77] Creating layer Scale20
I1007 22:14:13.633672  5289 net.cpp:84] Creating Layer Scale20
I1007 22:14:13.633674  5289 net.cpp:406] Scale20 <- Convolution20
I1007 22:14:13.633677  5289 net.cpp:367] Scale20 -> Convolution20 (in-place)
I1007 22:14:13.633707  5289 layer_factory.hpp:77] Creating layer Scale20
I1007 22:14:13.633788  5289 net.cpp:122] Setting up Scale20
I1007 22:14:13.633793  5289 net.cpp:129] Top shape: 100 32 16 16 (819200)
I1007 22:14:13.633795  5289 net.cpp:137] Memory required for data: 541902000
I1007 22:14:13.633798  5289 layer_factory.hpp:77] Creating layer Eltwise9
I1007 22:14:13.633802  5289 net.cpp:84] Creating Layer Eltwise9
I1007 22:14:13.633805  5289 net.cpp:406] Eltwise9 <- Eltwise8_elu17_0_split_1
I1007 22:14:13.633808  5289 net.cpp:406] Eltwise9 <- Convolution20
I1007 22:14:13.633811  5289 net.cpp:380] Eltwise9 -> Eltwise9
I1007 22:14:13.655006  5289 net.cpp:122] Setting up Eltwise9
I1007 22:14:13.655014  5289 net.cpp:129] Top shape: 100 32 16 16 (819200)
I1007 22:14:13.655019  5289 net.cpp:137] Memory required for data: 545178800
I1007 22:14:13.655022  5289 layer_factory.hpp:77] Creating layer elu19
I1007 22:14:13.655030  5289 net.cpp:84] Creating Layer elu19
I1007 22:14:13.655035  5289 net.cpp:406] elu19 <- Eltwise9
I1007 22:14:13.655047  5289 net.cpp:367] elu19 -> Eltwise9 (in-place)
I1007 22:14:13.655055  5289 net.cpp:122] Setting up elu19
I1007 22:14:13.655059  5289 net.cpp:129] Top shape: 100 32 16 16 (819200)
I1007 22:14:13.655061  5289 net.cpp:137] Memory required for data: 548455600
I1007 22:14:13.655063  5289 layer_factory.hpp:77] Creating layer Eltwise9_elu19_0_split
I1007 22:14:13.655067  5289 net.cpp:84] Creating Layer Eltwise9_elu19_0_split
I1007 22:14:13.655069  5289 net.cpp:406] Eltwise9_elu19_0_split <- Eltwise9
I1007 22:14:13.655074  5289 net.cpp:380] Eltwise9_elu19_0_split -> Eltwise9_elu19_0_split_0
I1007 22:14:13.655078  5289 net.cpp:380] Eltwise9_elu19_0_split -> Eltwise9_elu19_0_split_1
I1007 22:14:13.655107  5289 net.cpp:122] Setting up Eltwise9_elu19_0_split
I1007 22:14:13.655112  5289 net.cpp:129] Top shape: 100 32 16 16 (819200)
I1007 22:14:13.655114  5289 net.cpp:129] Top shape: 100 32 16 16 (819200)
I1007 22:14:13.655117  5289 net.cpp:137] Memory required for data: 555009200
I1007 22:14:13.655118  5289 layer_factory.hpp:77] Creating layer Convolution21
I1007 22:14:13.655127  5289 net.cpp:84] Creating Layer Convolution21
I1007 22:14:13.655128  5289 net.cpp:406] Convolution21 <- Eltwise9_elu19_0_split_0
I1007 22:14:13.655133  5289 net.cpp:380] Convolution21 -> Convolution21
I1007 22:14:13.656390  5289 net.cpp:122] Setting up Convolution21
I1007 22:14:13.656399  5289 net.cpp:129] Top shape: 100 32 16 16 (819200)
I1007 22:14:13.656402  5289 net.cpp:137] Memory required for data: 558286000
I1007 22:14:13.656409  5289 layer_factory.hpp:77] Creating layer BatchNorm21
I1007 22:14:13.656417  5289 net.cpp:84] Creating Layer BatchNorm21
I1007 22:14:13.656422  5289 net.cpp:406] BatchNorm21 <- Convolution21
I1007 22:14:13.656428  5289 net.cpp:367] BatchNorm21 -> Convolution21 (in-place)
I1007 22:14:13.656617  5289 net.cpp:122] Setting up BatchNorm21
I1007 22:14:13.656625  5289 net.cpp:129] Top shape: 100 32 16 16 (819200)
I1007 22:14:13.656628  5289 net.cpp:137] Memory required for data: 561562800
I1007 22:14:13.656636  5289 layer_factory.hpp:77] Creating layer Scale21
I1007 22:14:13.656642  5289 net.cpp:84] Creating Layer Scale21
I1007 22:14:13.656646  5289 net.cpp:406] Scale21 <- Convolution21
I1007 22:14:13.656652  5289 net.cpp:367] Scale21 -> Convolution21 (in-place)
I1007 22:14:13.656693  5289 layer_factory.hpp:77] Creating layer Scale21
I1007 22:14:13.656814  5289 net.cpp:122] Setting up Scale21
I1007 22:14:13.656819  5289 net.cpp:129] Top shape: 100 32 16 16 (819200)
I1007 22:14:13.656821  5289 net.cpp:137] Memory required for data: 564839600
I1007 22:14:13.656826  5289 layer_factory.hpp:77] Creating layer elu20
I1007 22:14:13.656829  5289 net.cpp:84] Creating Layer elu20
I1007 22:14:13.656831  5289 net.cpp:406] elu20 <- Convolution21
I1007 22:14:13.656834  5289 net.cpp:367] elu20 -> Convolution21 (in-place)
I1007 22:14:13.656838  5289 net.cpp:122] Setting up elu20
I1007 22:14:13.656841  5289 net.cpp:129] Top shape: 100 32 16 16 (819200)
I1007 22:14:13.656843  5289 net.cpp:137] Memory required for data: 568116400
I1007 22:14:13.656846  5289 layer_factory.hpp:77] Creating layer Convolution22
I1007 22:14:13.656852  5289 net.cpp:84] Creating Layer Convolution22
I1007 22:14:13.656855  5289 net.cpp:406] Convolution22 <- Convolution21
I1007 22:14:13.656858  5289 net.cpp:380] Convolution22 -> Convolution22
I1007 22:14:13.657951  5289 net.cpp:122] Setting up Convolution22
I1007 22:14:13.657959  5289 net.cpp:129] Top shape: 100 32 16 16 (819200)
I1007 22:14:13.657963  5289 net.cpp:137] Memory required for data: 571393200
I1007 22:14:13.657968  5289 layer_factory.hpp:77] Creating layer BatchNorm22
I1007 22:14:13.657972  5289 net.cpp:84] Creating Layer BatchNorm22
I1007 22:14:13.657975  5289 net.cpp:406] BatchNorm22 <- Convolution22
I1007 22:14:13.657979  5289 net.cpp:367] BatchNorm22 -> Convolution22 (in-place)
I1007 22:14:13.658126  5289 net.cpp:122] Setting up BatchNorm22
I1007 22:14:13.658130  5289 net.cpp:129] Top shape: 100 32 16 16 (819200)
I1007 22:14:13.658133  5289 net.cpp:137] Memory required for data: 574670000
I1007 22:14:13.658144  5289 layer_factory.hpp:77] Creating layer Scale22
I1007 22:14:13.658149  5289 net.cpp:84] Creating Layer Scale22
I1007 22:14:13.658151  5289 net.cpp:406] Scale22 <- Convolution22
I1007 22:14:13.658155  5289 net.cpp:367] Scale22 -> Convolution22 (in-place)
I1007 22:14:13.658185  5289 layer_factory.hpp:77] Creating layer Scale22
I1007 22:14:13.658269  5289 net.cpp:122] Setting up Scale22
I1007 22:14:13.658274  5289 net.cpp:129] Top shape: 100 32 16 16 (819200)
I1007 22:14:13.658277  5289 net.cpp:137] Memory required for data: 577946800
I1007 22:14:13.658280  5289 layer_factory.hpp:77] Creating layer Eltwise10
I1007 22:14:13.658283  5289 net.cpp:84] Creating Layer Eltwise10
I1007 22:14:13.658287  5289 net.cpp:406] Eltwise10 <- Eltwise9_elu19_0_split_1
I1007 22:14:13.658289  5289 net.cpp:406] Eltwise10 <- Convolution22
I1007 22:14:13.658293  5289 net.cpp:380] Eltwise10 -> Eltwise10
I1007 22:14:13.658308  5289 net.cpp:122] Setting up Eltwise10
I1007 22:14:13.658310  5289 net.cpp:129] Top shape: 100 32 16 16 (819200)
I1007 22:14:13.658313  5289 net.cpp:137] Memory required for data: 581223600
I1007 22:14:13.658314  5289 layer_factory.hpp:77] Creating layer elu21
I1007 22:14:13.658318  5289 net.cpp:84] Creating Layer elu21
I1007 22:14:13.658321  5289 net.cpp:406] elu21 <- Eltwise10
I1007 22:14:13.658324  5289 net.cpp:367] elu21 -> Eltwise10 (in-place)
I1007 22:14:13.658329  5289 net.cpp:122] Setting up elu21
I1007 22:14:13.658331  5289 net.cpp:129] Top shape: 100 32 16 16 (819200)
I1007 22:14:13.658334  5289 net.cpp:137] Memory required for data: 584500400
I1007 22:14:13.658335  5289 layer_factory.hpp:77] Creating layer Eltwise10_elu21_0_split
I1007 22:14:13.658339  5289 net.cpp:84] Creating Layer Eltwise10_elu21_0_split
I1007 22:14:13.658340  5289 net.cpp:406] Eltwise10_elu21_0_split <- Eltwise10
I1007 22:14:13.658344  5289 net.cpp:380] Eltwise10_elu21_0_split -> Eltwise10_elu21_0_split_0
I1007 22:14:13.658347  5289 net.cpp:380] Eltwise10_elu21_0_split -> Eltwise10_elu21_0_split_1
I1007 22:14:13.658373  5289 net.cpp:122] Setting up Eltwise10_elu21_0_split
I1007 22:14:13.658377  5289 net.cpp:129] Top shape: 100 32 16 16 (819200)
I1007 22:14:13.658380  5289 net.cpp:129] Top shape: 100 32 16 16 (819200)
I1007 22:14:13.658381  5289 net.cpp:137] Memory required for data: 591054000
I1007 22:14:13.658385  5289 layer_factory.hpp:77] Creating layer Convolution23
I1007 22:14:13.658390  5289 net.cpp:84] Creating Layer Convolution23
I1007 22:14:13.658392  5289 net.cpp:406] Convolution23 <- Eltwise10_elu21_0_split_0
I1007 22:14:13.658396  5289 net.cpp:380] Convolution23 -> Convolution23
I1007 22:14:13.659364  5289 net.cpp:122] Setting up Convolution23
I1007 22:14:13.659373  5289 net.cpp:129] Top shape: 100 64 8 8 (409600)
I1007 22:14:13.659376  5289 net.cpp:137] Memory required for data: 592692400
I1007 22:14:13.659380  5289 layer_factory.hpp:77] Creating layer BatchNorm23
I1007 22:14:13.659386  5289 net.cpp:84] Creating Layer BatchNorm23
I1007 22:14:13.659389  5289 net.cpp:406] BatchNorm23 <- Convolution23
I1007 22:14:13.659394  5289 net.cpp:367] BatchNorm23 -> Convolution23 (in-place)
I1007 22:14:13.659543  5289 net.cpp:122] Setting up BatchNorm23
I1007 22:14:13.659548  5289 net.cpp:129] Top shape: 100 64 8 8 (409600)
I1007 22:14:13.659550  5289 net.cpp:137] Memory required for data: 594330800
I1007 22:14:13.659555  5289 layer_factory.hpp:77] Creating layer Scale23
I1007 22:14:13.659560  5289 net.cpp:84] Creating Layer Scale23
I1007 22:14:13.659564  5289 net.cpp:406] Scale23 <- Convolution23
I1007 22:14:13.659566  5289 net.cpp:367] Scale23 -> Convolution23 (in-place)
I1007 22:14:13.659596  5289 layer_factory.hpp:77] Creating layer Scale23
I1007 22:14:13.659682  5289 net.cpp:122] Setting up Scale23
I1007 22:14:13.659687  5289 net.cpp:129] Top shape: 100 64 8 8 (409600)
I1007 22:14:13.659688  5289 net.cpp:137] Memory required for data: 595969200
I1007 22:14:13.659693  5289 layer_factory.hpp:77] Creating layer Convolution24
I1007 22:14:13.659698  5289 net.cpp:84] Creating Layer Convolution24
I1007 22:14:13.659708  5289 net.cpp:406] Convolution24 <- Eltwise10_elu21_0_split_1
I1007 22:14:13.659713  5289 net.cpp:380] Convolution24 -> Convolution24
I1007 22:14:13.661026  5289 net.cpp:122] Setting up Convolution24
I1007 22:14:13.661036  5289 net.cpp:129] Top shape: 100 64 8 8 (409600)
I1007 22:14:13.661037  5289 net.cpp:137] Memory required for data: 597607600
I1007 22:14:13.661042  5289 layer_factory.hpp:77] Creating layer BatchNorm24
I1007 22:14:13.661047  5289 net.cpp:84] Creating Layer BatchNorm24
I1007 22:14:13.661051  5289 net.cpp:406] BatchNorm24 <- Convolution24
I1007 22:14:13.661054  5289 net.cpp:367] BatchNorm24 -> Convolution24 (in-place)
I1007 22:14:13.661202  5289 net.cpp:122] Setting up BatchNorm24
I1007 22:14:13.661207  5289 net.cpp:129] Top shape: 100 64 8 8 (409600)
I1007 22:14:13.661209  5289 net.cpp:137] Memory required for data: 599246000
I1007 22:14:13.661214  5289 layer_factory.hpp:77] Creating layer Scale24
I1007 22:14:13.661218  5289 net.cpp:84] Creating Layer Scale24
I1007 22:14:13.661221  5289 net.cpp:406] Scale24 <- Convolution24
I1007 22:14:13.661223  5289 net.cpp:367] Scale24 -> Convolution24 (in-place)
I1007 22:14:13.661254  5289 layer_factory.hpp:77] Creating layer Scale24
I1007 22:14:13.661339  5289 net.cpp:122] Setting up Scale24
I1007 22:14:13.661342  5289 net.cpp:129] Top shape: 100 64 8 8 (409600)
I1007 22:14:13.661345  5289 net.cpp:137] Memory required for data: 600884400
I1007 22:14:13.661348  5289 layer_factory.hpp:77] Creating layer elu22
I1007 22:14:13.661355  5289 net.cpp:84] Creating Layer elu22
I1007 22:14:13.661356  5289 net.cpp:406] elu22 <- Convolution24
I1007 22:14:13.661360  5289 net.cpp:367] elu22 -> Convolution24 (in-place)
I1007 22:14:13.661363  5289 net.cpp:122] Setting up elu22
I1007 22:14:13.661366  5289 net.cpp:129] Top shape: 100 64 8 8 (409600)
I1007 22:14:13.661368  5289 net.cpp:137] Memory required for data: 602522800
I1007 22:14:13.661370  5289 layer_factory.hpp:77] Creating layer Convolution25
I1007 22:14:13.661376  5289 net.cpp:84] Creating Layer Convolution25
I1007 22:14:13.661379  5289 net.cpp:406] Convolution25 <- Convolution24
I1007 22:14:13.661383  5289 net.cpp:380] Convolution25 -> Convolution25
I1007 22:14:13.663094  5289 net.cpp:122] Setting up Convolution25
I1007 22:14:13.663102  5289 net.cpp:129] Top shape: 100 64 8 8 (409600)
I1007 22:14:13.663105  5289 net.cpp:137] Memory required for data: 604161200
I1007 22:14:13.663110  5289 layer_factory.hpp:77] Creating layer BatchNorm25
I1007 22:14:13.663115  5289 net.cpp:84] Creating Layer BatchNorm25
I1007 22:14:13.663117  5289 net.cpp:406] BatchNorm25 <- Convolution25
I1007 22:14:13.663121  5289 net.cpp:367] BatchNorm25 -> Convolution25 (in-place)
I1007 22:14:13.663276  5289 net.cpp:122] Setting up BatchNorm25
I1007 22:14:13.663282  5289 net.cpp:129] Top shape: 100 64 8 8 (409600)
I1007 22:14:13.663285  5289 net.cpp:137] Memory required for data: 605799600
I1007 22:14:13.663290  5289 layer_factory.hpp:77] Creating layer Scale25
I1007 22:14:13.663293  5289 net.cpp:84] Creating Layer Scale25
I1007 22:14:13.663295  5289 net.cpp:406] Scale25 <- Convolution25
I1007 22:14:13.663300  5289 net.cpp:367] Scale25 -> Convolution25 (in-place)
I1007 22:14:13.663331  5289 layer_factory.hpp:77] Creating layer Scale25
I1007 22:14:13.663415  5289 net.cpp:122] Setting up Scale25
I1007 22:14:13.663419  5289 net.cpp:129] Top shape: 100 64 8 8 (409600)
I1007 22:14:13.663421  5289 net.cpp:137] Memory required for data: 607438000
I1007 22:14:13.663425  5289 layer_factory.hpp:77] Creating layer Eltwise11
I1007 22:14:13.663429  5289 net.cpp:84] Creating Layer Eltwise11
I1007 22:14:13.663432  5289 net.cpp:406] Eltwise11 <- Convolution23
I1007 22:14:13.663435  5289 net.cpp:406] Eltwise11 <- Convolution25
I1007 22:14:13.663439  5289 net.cpp:380] Eltwise11 -> Eltwise11
I1007 22:14:13.663456  5289 net.cpp:122] Setting up Eltwise11
I1007 22:14:13.663460  5289 net.cpp:129] Top shape: 100 64 8 8 (409600)
I1007 22:14:13.663462  5289 net.cpp:137] Memory required for data: 609076400
I1007 22:14:13.663465  5289 layer_factory.hpp:77] Creating layer elu23
I1007 22:14:13.663475  5289 net.cpp:84] Creating Layer elu23
I1007 22:14:13.663477  5289 net.cpp:406] elu23 <- Eltwise11
I1007 22:14:13.663480  5289 net.cpp:367] elu23 -> Eltwise11 (in-place)
I1007 22:14:13.663485  5289 net.cpp:122] Setting up elu23
I1007 22:14:13.663488  5289 net.cpp:129] Top shape: 100 64 8 8 (409600)
I1007 22:14:13.663491  5289 net.cpp:137] Memory required for data: 610714800
I1007 22:14:13.663492  5289 layer_factory.hpp:77] Creating layer Eltwise11_elu23_0_split
I1007 22:14:13.663496  5289 net.cpp:84] Creating Layer Eltwise11_elu23_0_split
I1007 22:14:13.663497  5289 net.cpp:406] Eltwise11_elu23_0_split <- Eltwise11
I1007 22:14:13.663501  5289 net.cpp:380] Eltwise11_elu23_0_split -> Eltwise11_elu23_0_split_0
I1007 22:14:13.663504  5289 net.cpp:380] Eltwise11_elu23_0_split -> Eltwise11_elu23_0_split_1
I1007 22:14:13.663532  5289 net.cpp:122] Setting up Eltwise11_elu23_0_split
I1007 22:14:13.663535  5289 net.cpp:129] Top shape: 100 64 8 8 (409600)
I1007 22:14:13.663537  5289 net.cpp:129] Top shape: 100 64 8 8 (409600)
I1007 22:14:13.663539  5289 net.cpp:137] Memory required for data: 613991600
I1007 22:14:13.663542  5289 layer_factory.hpp:77] Creating layer Convolution26
I1007 22:14:13.663547  5289 net.cpp:84] Creating Layer Convolution26
I1007 22:14:13.663549  5289 net.cpp:406] Convolution26 <- Eltwise11_elu23_0_split_0
I1007 22:14:13.663554  5289 net.cpp:380] Convolution26 -> Convolution26
I1007 22:14:13.665271  5289 net.cpp:122] Setting up Convolution26
I1007 22:14:13.665280  5289 net.cpp:129] Top shape: 100 64 8 8 (409600)
I1007 22:14:13.665283  5289 net.cpp:137] Memory required for data: 615630000
I1007 22:14:13.665288  5289 layer_factory.hpp:77] Creating layer BatchNorm26
I1007 22:14:13.665292  5289 net.cpp:84] Creating Layer BatchNorm26
I1007 22:14:13.665295  5289 net.cpp:406] BatchNorm26 <- Convolution26
I1007 22:14:13.665299  5289 net.cpp:367] BatchNorm26 -> Convolution26 (in-place)
I1007 22:14:13.665449  5289 net.cpp:122] Setting up BatchNorm26
I1007 22:14:13.665454  5289 net.cpp:129] Top shape: 100 64 8 8 (409600)
I1007 22:14:13.665457  5289 net.cpp:137] Memory required for data: 617268400
I1007 22:14:13.665460  5289 layer_factory.hpp:77] Creating layer Scale26
I1007 22:14:13.665464  5289 net.cpp:84] Creating Layer Scale26
I1007 22:14:13.665467  5289 net.cpp:406] Scale26 <- Convolution26
I1007 22:14:13.665472  5289 net.cpp:367] Scale26 -> Convolution26 (in-place)
I1007 22:14:13.665499  5289 layer_factory.hpp:77] Creating layer Scale26
I1007 22:14:13.665585  5289 net.cpp:122] Setting up Scale26
I1007 22:14:13.665590  5289 net.cpp:129] Top shape: 100 64 8 8 (409600)
I1007 22:14:13.665591  5289 net.cpp:137] Memory required for data: 618906800
I1007 22:14:13.665596  5289 layer_factory.hpp:77] Creating layer elu24
I1007 22:14:13.665599  5289 net.cpp:84] Creating Layer elu24
I1007 22:14:13.665601  5289 net.cpp:406] elu24 <- Convolution26
I1007 22:14:13.665604  5289 net.cpp:367] elu24 -> Convolution26 (in-place)
I1007 22:14:13.665608  5289 net.cpp:122] Setting up elu24
I1007 22:14:13.665611  5289 net.cpp:129] Top shape: 100 64 8 8 (409600)
I1007 22:14:13.665614  5289 net.cpp:137] Memory required for data: 620545200
I1007 22:14:13.665616  5289 layer_factory.hpp:77] Creating layer Convolution27
I1007 22:14:13.665622  5289 net.cpp:84] Creating Layer Convolution27
I1007 22:14:13.665624  5289 net.cpp:406] Convolution27 <- Convolution26
I1007 22:14:13.665628  5289 net.cpp:380] Convolution27 -> Convolution27
I1007 22:14:13.667341  5289 net.cpp:122] Setting up Convolution27
I1007 22:14:13.685763  5289 net.cpp:129] Top shape: 100 64 8 8 (409600)
I1007 22:14:13.685771  5289 net.cpp:137] Memory required for data: 622183600
I1007 22:14:13.685776  5289 layer_factory.hpp:77] Creating layer BatchNorm27
I1007 22:14:13.685796  5289 net.cpp:84] Creating Layer BatchNorm27
I1007 22:14:13.685799  5289 net.cpp:406] BatchNorm27 <- Convolution27
I1007 22:14:13.685803  5289 net.cpp:367] BatchNorm27 -> Convolution27 (in-place)
I1007 22:14:13.685983  5289 net.cpp:122] Setting up BatchNorm27
I1007 22:14:13.685997  5289 net.cpp:129] Top shape: 100 64 8 8 (409600)
I1007 22:14:13.686000  5289 net.cpp:137] Memory required for data: 623822000
I1007 22:14:13.686007  5289 layer_factory.hpp:77] Creating layer Scale27
I1007 22:14:13.686012  5289 net.cpp:84] Creating Layer Scale27
I1007 22:14:13.686014  5289 net.cpp:406] Scale27 <- Convolution27
I1007 22:14:13.686018  5289 net.cpp:367] Scale27 -> Convolution27 (in-place)
I1007 22:14:13.686053  5289 layer_factory.hpp:77] Creating layer Scale27
I1007 22:14:13.686149  5289 net.cpp:122] Setting up Scale27
I1007 22:14:13.686154  5289 net.cpp:129] Top shape: 100 64 8 8 (409600)
I1007 22:14:13.686156  5289 net.cpp:137] Memory required for data: 625460400
I1007 22:14:13.686161  5289 layer_factory.hpp:77] Creating layer Eltwise12
I1007 22:14:13.686167  5289 net.cpp:84] Creating Layer Eltwise12
I1007 22:14:13.686169  5289 net.cpp:406] Eltwise12 <- Eltwise11_elu23_0_split_1
I1007 22:14:13.686172  5289 net.cpp:406] Eltwise12 <- Convolution27
I1007 22:14:13.686175  5289 net.cpp:380] Eltwise12 -> Eltwise12
I1007 22:14:13.686195  5289 net.cpp:122] Setting up Eltwise12
I1007 22:14:13.686199  5289 net.cpp:129] Top shape: 100 64 8 8 (409600)
I1007 22:14:13.686202  5289 net.cpp:137] Memory required for data: 627098800
I1007 22:14:13.686204  5289 layer_factory.hpp:77] Creating layer elu25
I1007 22:14:13.686208  5289 net.cpp:84] Creating Layer elu25
I1007 22:14:13.686210  5289 net.cpp:406] elu25 <- Eltwise12
I1007 22:14:13.686214  5289 net.cpp:367] elu25 -> Eltwise12 (in-place)
I1007 22:14:13.686218  5289 net.cpp:122] Setting up elu25
I1007 22:14:13.686223  5289 net.cpp:129] Top shape: 100 64 8 8 (409600)
I1007 22:14:13.686224  5289 net.cpp:137] Memory required for data: 628737200
I1007 22:14:13.686226  5289 layer_factory.hpp:77] Creating layer Eltwise12_elu25_0_split
I1007 22:14:13.686230  5289 net.cpp:84] Creating Layer Eltwise12_elu25_0_split
I1007 22:14:13.686233  5289 net.cpp:406] Eltwise12_elu25_0_split <- Eltwise12
I1007 22:14:13.686235  5289 net.cpp:380] Eltwise12_elu25_0_split -> Eltwise12_elu25_0_split_0
I1007 22:14:13.686239  5289 net.cpp:380] Eltwise12_elu25_0_split -> Eltwise12_elu25_0_split_1
I1007 22:14:13.686267  5289 net.cpp:122] Setting up Eltwise12_elu25_0_split
I1007 22:14:13.686271  5289 net.cpp:129] Top shape: 100 64 8 8 (409600)
I1007 22:14:13.686275  5289 net.cpp:129] Top shape: 100 64 8 8 (409600)
I1007 22:14:13.686276  5289 net.cpp:137] Memory required for data: 632014000
I1007 22:14:13.686278  5289 layer_factory.hpp:77] Creating layer Convolution28
I1007 22:14:13.686285  5289 net.cpp:84] Creating Layer Convolution28
I1007 22:14:13.686287  5289 net.cpp:406] Convolution28 <- Eltwise12_elu25_0_split_0
I1007 22:14:13.686292  5289 net.cpp:380] Convolution28 -> Convolution28
I1007 22:14:13.688647  5289 net.cpp:122] Setting up Convolution28
I1007 22:14:13.688657  5289 net.cpp:129] Top shape: 100 64 8 8 (409600)
I1007 22:14:13.688658  5289 net.cpp:137] Memory required for data: 633652400
I1007 22:14:13.688664  5289 layer_factory.hpp:77] Creating layer BatchNorm28
I1007 22:14:13.688669  5289 net.cpp:84] Creating Layer BatchNorm28
I1007 22:14:13.688673  5289 net.cpp:406] BatchNorm28 <- Convolution28
I1007 22:14:13.688678  5289 net.cpp:367] BatchNorm28 -> Convolution28 (in-place)
I1007 22:14:13.688838  5289 net.cpp:122] Setting up BatchNorm28
I1007 22:14:13.688843  5289 net.cpp:129] Top shape: 100 64 8 8 (409600)
I1007 22:14:13.688844  5289 net.cpp:137] Memory required for data: 635290800
I1007 22:14:13.688849  5289 layer_factory.hpp:77] Creating layer Scale28
I1007 22:14:13.688853  5289 net.cpp:84] Creating Layer Scale28
I1007 22:14:13.688856  5289 net.cpp:406] Scale28 <- Convolution28
I1007 22:14:13.688859  5289 net.cpp:367] Scale28 -> Convolution28 (in-place)
I1007 22:14:13.688896  5289 layer_factory.hpp:77] Creating layer Scale28
I1007 22:14:13.689034  5289 net.cpp:122] Setting up Scale28
I1007 22:14:13.689043  5289 net.cpp:129] Top shape: 100 64 8 8 (409600)
I1007 22:14:13.689044  5289 net.cpp:137] Memory required for data: 636929200
I1007 22:14:13.689059  5289 layer_factory.hpp:77] Creating layer elu26
I1007 22:14:13.689080  5289 net.cpp:84] Creating Layer elu26
I1007 22:14:13.689083  5289 net.cpp:406] elu26 <- Convolution28
I1007 22:14:13.689088  5289 net.cpp:367] elu26 -> Convolution28 (in-place)
I1007 22:14:13.689092  5289 net.cpp:122] Setting up elu26
I1007 22:14:13.689096  5289 net.cpp:129] Top shape: 100 64 8 8 (409600)
I1007 22:14:13.689098  5289 net.cpp:137] Memory required for data: 638567600
I1007 22:14:13.689100  5289 layer_factory.hpp:77] Creating layer Convolution29
I1007 22:14:13.689107  5289 net.cpp:84] Creating Layer Convolution29
I1007 22:14:13.689110  5289 net.cpp:406] Convolution29 <- Convolution28
I1007 22:14:13.689123  5289 net.cpp:380] Convolution29 -> Convolution29
I1007 22:14:13.691475  5289 net.cpp:122] Setting up Convolution29
I1007 22:14:13.691484  5289 net.cpp:129] Top shape: 100 64 8 8 (409600)
I1007 22:14:13.691488  5289 net.cpp:137] Memory required for data: 640206000
I1007 22:14:13.691493  5289 layer_factory.hpp:77] Creating layer BatchNorm29
I1007 22:14:13.691498  5289 net.cpp:84] Creating Layer BatchNorm29
I1007 22:14:13.691501  5289 net.cpp:406] BatchNorm29 <- Convolution29
I1007 22:14:13.691505  5289 net.cpp:367] BatchNorm29 -> Convolution29 (in-place)
I1007 22:14:13.691660  5289 net.cpp:122] Setting up BatchNorm29
I1007 22:14:13.691665  5289 net.cpp:129] Top shape: 100 64 8 8 (409600)
I1007 22:14:13.691668  5289 net.cpp:137] Memory required for data: 641844400
I1007 22:14:13.691673  5289 layer_factory.hpp:77] Creating layer Scale29
I1007 22:14:13.691676  5289 net.cpp:84] Creating Layer Scale29
I1007 22:14:13.691679  5289 net.cpp:406] Scale29 <- Convolution29
I1007 22:14:13.691682  5289 net.cpp:367] Scale29 -> Convolution29 (in-place)
I1007 22:14:13.691715  5289 layer_factory.hpp:77] Creating layer Scale29
I1007 22:14:13.691802  5289 net.cpp:122] Setting up Scale29
I1007 22:14:13.691807  5289 net.cpp:129] Top shape: 100 64 8 8 (409600)
I1007 22:14:13.691808  5289 net.cpp:137] Memory required for data: 643482800
I1007 22:14:13.691812  5289 layer_factory.hpp:77] Creating layer Eltwise13
I1007 22:14:13.691817  5289 net.cpp:84] Creating Layer Eltwise13
I1007 22:14:13.691819  5289 net.cpp:406] Eltwise13 <- Eltwise12_elu25_0_split_1
I1007 22:14:13.691823  5289 net.cpp:406] Eltwise13 <- Convolution29
I1007 22:14:13.691826  5289 net.cpp:380] Eltwise13 -> Eltwise13
I1007 22:14:13.691844  5289 net.cpp:122] Setting up Eltwise13
I1007 22:14:13.691848  5289 net.cpp:129] Top shape: 100 64 8 8 (409600)
I1007 22:14:13.691849  5289 net.cpp:137] Memory required for data: 645121200
I1007 22:14:13.691853  5289 layer_factory.hpp:77] Creating layer elu27
I1007 22:14:13.691856  5289 net.cpp:84] Creating Layer elu27
I1007 22:14:13.691859  5289 net.cpp:406] elu27 <- Eltwise13
I1007 22:14:13.691861  5289 net.cpp:367] elu27 -> Eltwise13 (in-place)
I1007 22:14:13.691865  5289 net.cpp:122] Setting up elu27
I1007 22:14:13.691869  5289 net.cpp:129] Top shape: 100 64 8 8 (409600)
I1007 22:14:13.691870  5289 net.cpp:137] Memory required for data: 646759600
I1007 22:14:13.691872  5289 layer_factory.hpp:77] Creating layer Eltwise13_elu27_0_split
I1007 22:14:13.691876  5289 net.cpp:84] Creating Layer Eltwise13_elu27_0_split
I1007 22:14:13.691879  5289 net.cpp:406] Eltwise13_elu27_0_split <- Eltwise13
I1007 22:14:13.691881  5289 net.cpp:380] Eltwise13_elu27_0_split -> Eltwise13_elu27_0_split_0
I1007 22:14:13.691884  5289 net.cpp:380] Eltwise13_elu27_0_split -> Eltwise13_elu27_0_split_1
I1007 22:14:13.691910  5289 net.cpp:122] Setting up Eltwise13_elu27_0_split
I1007 22:14:13.691915  5289 net.cpp:129] Top shape: 100 64 8 8 (409600)
I1007 22:14:13.691917  5289 net.cpp:129] Top shape: 100 64 8 8 (409600)
I1007 22:14:13.691920  5289 net.cpp:137] Memory required for data: 650036400
I1007 22:14:13.691921  5289 layer_factory.hpp:77] Creating layer Convolution30
I1007 22:14:13.691928  5289 net.cpp:84] Creating Layer Convolution30
I1007 22:14:13.691931  5289 net.cpp:406] Convolution30 <- Eltwise13_elu27_0_split_0
I1007 22:14:13.691934  5289 net.cpp:380] Convolution30 -> Convolution30
I1007 22:14:13.693974  5289 net.cpp:122] Setting up Convolution30
I1007 22:14:13.693984  5289 net.cpp:129] Top shape: 100 64 8 8 (409600)
I1007 22:14:13.693985  5289 net.cpp:137] Memory required for data: 651674800
I1007 22:14:13.693990  5289 layer_factory.hpp:77] Creating layer BatchNorm30
I1007 22:14:13.693996  5289 net.cpp:84] Creating Layer BatchNorm30
I1007 22:14:13.693998  5289 net.cpp:406] BatchNorm30 <- Convolution30
I1007 22:14:13.694002  5289 net.cpp:367] BatchNorm30 -> Convolution30 (in-place)
I1007 22:14:13.694160  5289 net.cpp:122] Setting up BatchNorm30
I1007 22:14:13.694165  5289 net.cpp:129] Top shape: 100 64 8 8 (409600)
I1007 22:14:13.694167  5289 net.cpp:137] Memory required for data: 653313200
I1007 22:14:13.694172  5289 layer_factory.hpp:77] Creating layer Scale30
I1007 22:14:13.694176  5289 net.cpp:84] Creating Layer Scale30
I1007 22:14:13.694178  5289 net.cpp:406] Scale30 <- Convolution30
I1007 22:14:13.694181  5289 net.cpp:367] Scale30 -> Convolution30 (in-place)
I1007 22:14:13.694213  5289 layer_factory.hpp:77] Creating layer Scale30
I1007 22:14:13.694300  5289 net.cpp:122] Setting up Scale30
I1007 22:14:13.694304  5289 net.cpp:129] Top shape: 100 64 8 8 (409600)
I1007 22:14:13.694306  5289 net.cpp:137] Memory required for data: 654951600
I1007 22:14:13.694310  5289 layer_factory.hpp:77] Creating layer elu28
I1007 22:14:13.694314  5289 net.cpp:84] Creating Layer elu28
I1007 22:14:13.694317  5289 net.cpp:406] elu28 <- Convolution30
I1007 22:14:13.694320  5289 net.cpp:367] elu28 -> Convolution30 (in-place)
I1007 22:14:13.694324  5289 net.cpp:122] Setting up elu28
I1007 22:14:13.694326  5289 net.cpp:129] Top shape: 100 64 8 8 (409600)
I1007 22:14:13.694329  5289 net.cpp:137] Memory required for data: 656590000
I1007 22:14:13.694331  5289 layer_factory.hpp:77] Creating layer Convolution31
I1007 22:14:13.694337  5289 net.cpp:84] Creating Layer Convolution31
I1007 22:14:13.694340  5289 net.cpp:406] Convolution31 <- Convolution30
I1007 22:14:13.694344  5289 net.cpp:380] Convolution31 -> Convolution31
I1007 22:14:13.696075  5289 net.cpp:122] Setting up Convolution31
I1007 22:14:13.696092  5289 net.cpp:129] Top shape: 100 64 8 8 (409600)
I1007 22:14:13.696095  5289 net.cpp:137] Memory required for data: 658228400
I1007 22:14:13.696100  5289 layer_factory.hpp:77] Creating layer BatchNorm31
I1007 22:14:13.696105  5289 net.cpp:84] Creating Layer BatchNorm31
I1007 22:14:13.696108  5289 net.cpp:406] BatchNorm31 <- Convolution31
I1007 22:14:13.696112  5289 net.cpp:367] BatchNorm31 -> Convolution31 (in-place)
I1007 22:14:13.696272  5289 net.cpp:122] Setting up BatchNorm31
I1007 22:14:13.696277  5289 net.cpp:129] Top shape: 100 64 8 8 (409600)
I1007 22:14:13.696280  5289 net.cpp:137] Memory required for data: 659866800
I1007 22:14:13.696285  5289 layer_factory.hpp:77] Creating layer Scale31
I1007 22:14:13.696288  5289 net.cpp:84] Creating Layer Scale31
I1007 22:14:13.696291  5289 net.cpp:406] Scale31 <- Convolution31
I1007 22:14:13.696295  5289 net.cpp:367] Scale31 -> Convolution31 (in-place)
I1007 22:14:13.696326  5289 layer_factory.hpp:77] Creating layer Scale31
I1007 22:14:13.696418  5289 net.cpp:122] Setting up Scale31
I1007 22:14:13.696421  5289 net.cpp:129] Top shape: 100 64 8 8 (409600)
I1007 22:14:13.696424  5289 net.cpp:137] Memory required for data: 661505200
I1007 22:14:13.696427  5289 layer_factory.hpp:77] Creating layer Eltwise14
I1007 22:14:13.696432  5289 net.cpp:84] Creating Layer Eltwise14
I1007 22:14:13.696435  5289 net.cpp:406] Eltwise14 <- Eltwise13_elu27_0_split_1
I1007 22:14:13.696439  5289 net.cpp:406] Eltwise14 <- Convolution31
I1007 22:14:13.696441  5289 net.cpp:380] Eltwise14 -> Eltwise14
I1007 22:14:13.696460  5289 net.cpp:122] Setting up Eltwise14
I1007 22:14:13.696465  5289 net.cpp:129] Top shape: 100 64 8 8 (409600)
I1007 22:14:13.696466  5289 net.cpp:137] Memory required for data: 663143600
I1007 22:14:13.696470  5289 layer_factory.hpp:77] Creating layer elu29
I1007 22:14:13.696472  5289 net.cpp:84] Creating Layer elu29
I1007 22:14:13.696475  5289 net.cpp:406] elu29 <- Eltwise14
I1007 22:14:13.696485  5289 net.cpp:367] elu29 -> Eltwise14 (in-place)
I1007 22:14:13.696491  5289 net.cpp:122] Setting up elu29
I1007 22:14:13.696493  5289 net.cpp:129] Top shape: 100 64 8 8 (409600)
I1007 22:14:13.696496  5289 net.cpp:137] Memory required for data: 664782000
I1007 22:14:13.696498  5289 layer_factory.hpp:77] Creating layer Eltwise14_elu29_0_split
I1007 22:14:13.696501  5289 net.cpp:84] Creating Layer Eltwise14_elu29_0_split
I1007 22:14:13.696503  5289 net.cpp:406] Eltwise14_elu29_0_split <- Eltwise14
I1007 22:14:13.696506  5289 net.cpp:380] Eltwise14_elu29_0_split -> Eltwise14_elu29_0_split_0
I1007 22:14:13.696511  5289 net.cpp:380] Eltwise14_elu29_0_split -> Eltwise14_elu29_0_split_1
I1007 22:14:13.696538  5289 net.cpp:122] Setting up Eltwise14_elu29_0_split
I1007 22:14:13.696542  5289 net.cpp:129] Top shape: 100 64 8 8 (409600)
I1007 22:14:13.696545  5289 net.cpp:129] Top shape: 100 64 8 8 (409600)
I1007 22:14:13.696547  5289 net.cpp:137] Memory required for data: 668058800
I1007 22:14:13.696549  5289 layer_factory.hpp:77] Creating layer Convolution32
I1007 22:14:13.696555  5289 net.cpp:84] Creating Layer Convolution32
I1007 22:14:13.696557  5289 net.cpp:406] Convolution32 <- Eltwise14_elu29_0_split_0
I1007 22:14:13.696563  5289 net.cpp:380] Convolution32 -> Convolution32
I1007 22:14:13.698611  5289 net.cpp:122] Setting up Convolution32
I1007 22:14:13.698619  5289 net.cpp:129] Top shape: 100 64 8 8 (409600)
I1007 22:14:13.698621  5289 net.cpp:137] Memory required for data: 669697200
I1007 22:14:13.698626  5289 layer_factory.hpp:77] Creating layer BatchNorm32
I1007 22:14:13.698632  5289 net.cpp:84] Creating Layer BatchNorm32
I1007 22:14:13.698635  5289 net.cpp:406] BatchNorm32 <- Convolution32
I1007 22:14:13.698639  5289 net.cpp:367] BatchNorm32 -> Convolution32 (in-place)
I1007 22:14:13.698798  5289 net.cpp:122] Setting up BatchNorm32
I1007 22:14:13.698802  5289 net.cpp:129] Top shape: 100 64 8 8 (409600)
I1007 22:14:13.698804  5289 net.cpp:137] Memory required for data: 671335600
I1007 22:14:13.698809  5289 layer_factory.hpp:77] Creating layer Scale32
I1007 22:14:13.698814  5289 net.cpp:84] Creating Layer Scale32
I1007 22:14:13.698817  5289 net.cpp:406] Scale32 <- Convolution32
I1007 22:14:13.698819  5289 net.cpp:367] Scale32 -> Convolution32 (in-place)
I1007 22:14:13.698850  5289 layer_factory.hpp:77] Creating layer Scale32
I1007 22:14:13.698938  5289 net.cpp:122] Setting up Scale32
I1007 22:14:13.698942  5289 net.cpp:129] Top shape: 100 64 8 8 (409600)
I1007 22:14:13.698945  5289 net.cpp:137] Memory required for data: 672974000
I1007 22:14:13.698948  5289 layer_factory.hpp:77] Creating layer elu30
I1007 22:14:13.698952  5289 net.cpp:84] Creating Layer elu30
I1007 22:14:13.698956  5289 net.cpp:406] elu30 <- Convolution32
I1007 22:14:13.698958  5289 net.cpp:367] elu30 -> Convolution32 (in-place)
I1007 22:14:13.698961  5289 net.cpp:122] Setting up elu30
I1007 22:14:13.698964  5289 net.cpp:129] Top shape: 100 64 8 8 (409600)
I1007 22:14:13.698966  5289 net.cpp:137] Memory required for data: 674612400
I1007 22:14:13.698969  5289 layer_factory.hpp:77] Creating layer Convolution33
I1007 22:14:13.698976  5289 net.cpp:84] Creating Layer Convolution33
I1007 22:14:13.698977  5289 net.cpp:406] Convolution33 <- Convolution32
I1007 22:14:13.698982  5289 net.cpp:380] Convolution33 -> Convolution33
I1007 22:14:13.700742  5289 net.cpp:122] Setting up Convolution33
I1007 22:14:13.700752  5289 net.cpp:129] Top shape: 100 64 8 8 (409600)
I1007 22:14:13.715870  5289 net.cpp:137] Memory required for data: 676250800
I1007 22:14:13.715881  5289 layer_factory.hpp:77] Creating layer BatchNorm33
I1007 22:14:13.715889  5289 net.cpp:84] Creating Layer BatchNorm33
I1007 22:14:13.715893  5289 net.cpp:406] BatchNorm33 <- Convolution33
I1007 22:14:13.715896  5289 net.cpp:367] BatchNorm33 -> Convolution33 (in-place)
I1007 22:14:13.716080  5289 net.cpp:122] Setting up BatchNorm33
I1007 22:14:13.716086  5289 net.cpp:129] Top shape: 100 64 8 8 (409600)
I1007 22:14:13.716089  5289 net.cpp:137] Memory required for data: 677889200
I1007 22:14:13.716101  5289 layer_factory.hpp:77] Creating layer Scale33
I1007 22:14:13.716107  5289 net.cpp:84] Creating Layer Scale33
I1007 22:14:13.716109  5289 net.cpp:406] Scale33 <- Convolution33
I1007 22:14:13.716114  5289 net.cpp:367] Scale33 -> Convolution33 (in-place)
I1007 22:14:13.716151  5289 layer_factory.hpp:77] Creating layer Scale33
I1007 22:14:13.716248  5289 net.cpp:122] Setting up Scale33
I1007 22:14:13.716253  5289 net.cpp:129] Top shape: 100 64 8 8 (409600)
I1007 22:14:13.716255  5289 net.cpp:137] Memory required for data: 679527600
I1007 22:14:13.716259  5289 layer_factory.hpp:77] Creating layer Eltwise15
I1007 22:14:13.716264  5289 net.cpp:84] Creating Layer Eltwise15
I1007 22:14:13.716267  5289 net.cpp:406] Eltwise15 <- Eltwise14_elu29_0_split_1
I1007 22:14:13.716270  5289 net.cpp:406] Eltwise15 <- Convolution33
I1007 22:14:13.716274  5289 net.cpp:380] Eltwise15 -> Eltwise15
I1007 22:14:13.716295  5289 net.cpp:122] Setting up Eltwise15
I1007 22:14:13.716298  5289 net.cpp:129] Top shape: 100 64 8 8 (409600)
I1007 22:14:13.716300  5289 net.cpp:137] Memory required for data: 681166000
I1007 22:14:13.716303  5289 layer_factory.hpp:77] Creating layer elu31
I1007 22:14:13.716306  5289 net.cpp:84] Creating Layer elu31
I1007 22:14:13.716310  5289 net.cpp:406] elu31 <- Eltwise15
I1007 22:14:13.716313  5289 net.cpp:367] elu31 -> Eltwise15 (in-place)
I1007 22:14:13.716317  5289 net.cpp:122] Setting up elu31
I1007 22:14:13.716320  5289 net.cpp:129] Top shape: 100 64 8 8 (409600)
I1007 22:14:13.716322  5289 net.cpp:137] Memory required for data: 682804400
I1007 22:14:13.716325  5289 layer_factory.hpp:77] Creating layer Pooling1
I1007 22:14:13.716329  5289 net.cpp:84] Creating Layer Pooling1
I1007 22:14:13.716331  5289 net.cpp:406] Pooling1 <- Eltwise15
I1007 22:14:13.716336  5289 net.cpp:380] Pooling1 -> Pooling1
I1007 22:14:13.716491  5289 net.cpp:122] Setting up Pooling1
I1007 22:14:13.716498  5289 net.cpp:129] Top shape: 100 64 1 1 (6400)
I1007 22:14:13.716500  5289 net.cpp:137] Memory required for data: 682830000
I1007 22:14:13.716503  5289 layer_factory.hpp:77] Creating layer InnerProduct1
I1007 22:14:13.716509  5289 net.cpp:84] Creating Layer InnerProduct1
I1007 22:14:13.716512  5289 net.cpp:406] InnerProduct1 <- Pooling1
I1007 22:14:13.716516  5289 net.cpp:380] InnerProduct1 -> InnerProduct1
I1007 22:14:13.716632  5289 net.cpp:122] Setting up InnerProduct1
I1007 22:14:13.716637  5289 net.cpp:129] Top shape: 100 10 (1000)
I1007 22:14:13.716639  5289 net.cpp:137] Memory required for data: 682834000
I1007 22:14:13.716644  5289 layer_factory.hpp:77] Creating layer InnerProduct1_InnerProduct1_0_split
I1007 22:14:13.716647  5289 net.cpp:84] Creating Layer InnerProduct1_InnerProduct1_0_split
I1007 22:14:13.716650  5289 net.cpp:406] InnerProduct1_InnerProduct1_0_split <- InnerProduct1
I1007 22:14:13.716653  5289 net.cpp:380] InnerProduct1_InnerProduct1_0_split -> InnerProduct1_InnerProduct1_0_split_0
I1007 22:14:13.716660  5289 net.cpp:380] InnerProduct1_InnerProduct1_0_split -> InnerProduct1_InnerProduct1_0_split_1
I1007 22:14:13.716691  5289 net.cpp:122] Setting up InnerProduct1_InnerProduct1_0_split
I1007 22:14:13.716694  5289 net.cpp:129] Top shape: 100 10 (1000)
I1007 22:14:13.716697  5289 net.cpp:129] Top shape: 100 10 (1000)
I1007 22:14:13.716699  5289 net.cpp:137] Memory required for data: 682842000
I1007 22:14:13.716701  5289 layer_factory.hpp:77] Creating layer SoftmaxWithLoss1
I1007 22:14:13.716706  5289 net.cpp:84] Creating Layer SoftmaxWithLoss1
I1007 22:14:13.716709  5289 net.cpp:406] SoftmaxWithLoss1 <- InnerProduct1_InnerProduct1_0_split_0
I1007 22:14:13.716712  5289 net.cpp:406] SoftmaxWithLoss1 <- Data2_Data1_1_split_0
…
