…
I1007 15:08:43.327265  4982 net.cpp:294] The NetState phase (0) differed from the phase (1) specified by a rule in layer Accuracy1
I1007 15:08:43.327975  4982 net.cpp:51] Initializing net from parameters: 
name: "resnet_cifar10"
state {
  phase: TRAIN
  level: 0
  stage: ""
}
layer {
  name: "Data1"
  type: "Data"
  top: "Data1"
  top: "Data2"
  include {
    phase: TRAIN
  }
  transform_param {
    mirror: true
    crop_size: 28
    mean_file: "/home/x306/caffe/xn/PENLU/data/cifar10/mean.binaryproto"
  }
  data_param {
    source: "/home/x306/caffe/xn/PENLU/data/cifar10/cifar10_train_lmdb"
    batch_size: 100
    backend: LMDB
  }
}
layer {
  name: "Convolution1"
  type: "Convolution"
  bottom: "Data1"
  top: "Convolution1"
  param {
    lr_mult: 1
    decay_mult: 1
  }
  param {
    lr_mult: 2
    decay_mult: 0
  }
  convolution_param {
    num_output: 16
    pad: 1
    kernel_size: 3
    stride: 1
    weight_filler {
      type: "gaussian"
      std: 0.118
    }
    bias_filler {
      type: "constant"
      value: 0
    }
  }
}
layer {
  name: "BatchNorm1"
  type: "BatchNorm"
  bottom: "Convolution1"
  top: "Convolution1"
  param {
    lr_mult: 0
    decay_mult: 0
  }
  param {
    lr_mult: 0
    decay_mult: 0
  }
  param {
    lr_mult: 0
    decay_mult: 0
  }
}
layer {
  name: "Scale1"
  type: "Scale"
  bottom: "Convolution1"
  top: "Convolution1"
  scale_param {
    bias_term: true
  }
}
layer {
  name: "penlu1"
  type: "PENLU"
  bottom: "Convolution1"
  top: "Convolution1"
  param {
    lr_mult: 2
    decay_mult: 0
  }
  param {
    lr_mult: 2
    decay_mult: 0
  }
  param {
    lr_mult: 0
    decay_mult: 0
  }
  penlu_param {
    alpha_filler {
      type: "constant"
      value: 2
    }
    beta_filler {
      type: "constant"
      value: 1
    }
    eta_filler {
      type: "constant"
      value: 1
    }
  }
}
layer {
  name: "Convolution2"
  type: "Convolution"
  bottom: "Convolution1"
  top: "Convolution2"
  param {
    lr_mult: 1
    decay_mult: 1
  }
  param {
    lr_mult: 2
    decay_mult: 0
  }
  convolution_param {
    num_output: 16
    pad: 1
    kernel_size: 3
    stride: 1
    weight_filler {
      type: "gaussian"
      std: 0.118
    }
    bias_filler {
      type: "constant"
      value: 0
    }
  }
}
layer {
  name: "BatchNorm2"
  type: "BatchNorm"
  bottom: "Convolution2"
  top: "Convolution2"
  param {
    lr_mult: 0
    decay_mult: 0
  }
  param {
    lr_mult: 0
    decay_mult: 0
  }
  param {
    lr_mult: 0
    decay_mult: 0
  }
}
layer {
  name: "Scale2"
  type: "Scale"
  bottom: "Convolution2"
  top: "Convolution2"
  scale_param {
    bias_term: true
  }
}
layer {
  name: "penlu2"
  type: "PENLU"
  bottom: "Convolution2"
  top: "Convolution2"
  param {
    lr_mult: 2
    decay_mult: 0
  }
  param {
    lr_mult: 2
    decay_mult: 0
  }
  param {
    lr_mult: 0
    decay_mult: 0
  }
  penlu_param {
    alpha_filler {
      type: "constant"
      value: 2
    }
    beta_filler {
      type: "constant"
      value: 1
    }
    eta_filler {
      type: "constant"
      value: 1
    }
  }
}
layer {
  name: "Convolution3"
  type: "Convolution"
  bottom: "Convolution2"
  top: "Convolution3"
  param {
    lr_mult: 1
    decay_mult: 1
  }
  param {
    lr_mult: 2
    decay_mult: 0
  }
  convolution_param {
    num_output: 16
    pad: 1
    kernel_size: 3
    stride: 1
    weight_filler {
      type: "gaussian"
      std: 0.118
    }
    bias_filler {
      type: "constant"
      value: 0
    }
  }
}
layer {
  name: "BatchNorm3"
  type: "BatchNorm"
  bottom: "Convolution3"
  top: "Convolution3"
  param {
    lr_mult: 0
    decay_mult: 0
  }
  param {
    lr_mult: 0
    decay_mult: 0
  }
  param {
    lr_mult: 0
    decay_mult: 0
  }
}
layer {
  name: "Scale3"
  type: "Scale"
  bottom: "Convolution3"
  top: "Convolution3"
  scale_param {
    bias_term: true
  }
}
layer {
  name: "Eltwise1"
  type: "Eltwise"
  bottom: "Convolution1"
  bottom: "Convolution3"
  top: "Eltwise1"
  eltwise_param {
    operation: SUM
  }
}
layer {
  name: "penlu3"
  type: "PENLU"
  bottom: "Eltwise1"
  top: "Eltwise1"
  param {
    lr_mult: 2
    decay_mult: 0
  }
  param {
    lr_mult: 2
    decay_mult: 0
  }
  param {
    lr_mult: 0
    decay_mult: 0
  }
  penlu_param {
    alpha_filler {
      type: "constant"
      value: 2
    }
    beta_filler {
      type: "constant"
      value: 1
    }
    eta_filler {
      type: "constant"
      value: 1
    }
  }
}
layer {
  name: "Convolution4"
  type: "Convolution"
  bottom: "Eltwise1"
  top: "Convolution4"
  param {
    lr_mult: 1
    decay_mult: 1
  }
  param {
    lr_mult: 2
    decay_mult: 0
  }
  convolution_param {
    num_output: 16
    pad: 1
    kernel_size: 3
    stride: 1
    weight_filler {
      type: "gaussian"
      std: 0.118
    }
    bias_filler {
      type: "constant"
      value: 0
    }
  }
}
layer {
  name: "BatchNorm4"
  type: "BatchNorm"
  bottom: "Convolution4"
  top: "Convolution4"
  param {
    lr_mult: 0
    decay_mult: 0
  }
  param {
    lr_mult: 0
    decay_mult: 0
  }
  param {
    lr_mult: 0
    decay_mult: 0
  }
}
layer {
  name: "Scale4"
  type: "Scale"
  bottom: "Convolution4"
  top: "Convolution4"
  scale_param {
    bias_term: true
  }
}
layer {
  name: "penlu4"
  type: "PENLU"
  bottom: "Convolution4"
  top: "Convolution4"
  param {
    lr_mult: 2
    decay_mult: 0
  }
  param {
    lr_mult: 2
    decay_mult: 0
  }
  param {
    lr_mult: 0
    decay_mult: 0
  }
  penlu_param {
    alpha_filler {
      type: "constant"
      value: 2
    }
    beta_filler {
      type: "constant"
      value: 1
    }
    eta_filler {
      type: "constant"
      value: 1
    }
  }
}
layer {
  name: "Convolution5"
  type: "Convolution"
  bottom: "Convolution4"
  top: "Convolution5"
  param {
    lr_mult: 1
    decay_mult: 1
  }
  param {
    lr_mult: 2
    decay_mult: 0
  }
  convolution_param {
    num_output: 16
    pad: 1
    kernel_size: 3
    stride: 1
    weight_filler {
      type: "gaussian"
      std: 0.118
    }
    bias_filler {
      type: "constant"
      value: 0
    }
  }
}
layer {
  name: "BatchNorm5"
  type: "BatchNorm"
  bottom: "Convolution5"
  top: "Convolution5"
  param {
    lr_mult: 0
    decay_mult: 0
  }
  param {
    lr_mult: 0
    decay_mult: 0
  }
  param {
    lr_mult: 0
    decay_mult: 0
  }
}
layer {
  name: "Scale5"
  type: "Scale"
  bottom: "Convolution5"
  top: "Convolution5"
  scale_param {
    bias_term: true
  }
}
layer {
  name: "Eltwise2"
  type: "Eltwise"
  bottom: "Eltwise1"
  bottom: "Convolution5"
  top: "Eltwise2"
  eltwise_param {
    operation: SUM
  }
}
layer {
  name: "penlu5"
  type: "PENLU"
  bottom: "Eltwise2"
  top: "Eltwise2"
  param {
    lr_mult: 2
    decay_mult: 0
  }
  param {
    lr_mult: 2
    decay_mult: 0
  }
  param {
    lr_mult: 0
    decay_mult: 0
  }
  penlu_param {
    alpha_filler {
      type: "constant"
      value: 2
    }
    beta_filler {
      type: "constant"
      value: 1
    }
    eta_filler {
      type: "constant"
      value: 1
    }
  }
}
layer {
  name: "Convolution6"
  type: "Convolution"
  bottom: "Eltwise2"
  top: "Convolution6"
  param {
    lr_mult: 1
    decay_mult: 1
  }
  param {
    lr_mult: 2
    decay_mult: 0
  }
  convolution_param {
    num_output: 16
    pad: 1
    kernel_size: 3
    stride: 1
    weight_filler {
      type: "gaussian"
      std: 0.118
    }
    bias_filler {
      type: "constant"
      value: 0
    }
  }
}
layer {
  name: "BatchNorm6"
  type: "BatchNorm"
  bottom: "Convolution6"
  top: "Convolution6"
  param {
    lr_mult: 0
    decay_mult: 0
  }
  param {
    lr_mult: 0
    decay_mult: 0
  }
  param {
    lr_mult: 0
    decay_mult: 0
  }
}
layer {
  name: "Scale6"
  type: "Scale"
  bottom: "Convolution6"
  top: "Convolution6"
  scale_param {
    bias_term: true
  }
}
layer {
  name: "penlu6"
  type: "PENLU"
  bottom: "Convolution6"
  top: "Convolution6"
  param {
    lr_mult: 2
    decay_mult: 0
  }
  param {
    lr_mult: 2
    decay_mult: 0
  }
  param {
    lr_mult: 0
    decay_mult: 0
  }
  penlu_param {
    alpha_filler {
      type: "constant"
      value: 2
    }
    beta_filler {
      type: "constant"
      value: 1
    }
    eta_filler {
      type: "constant"
      value: 1
    }
  }
}
layer {
  name: "Convolution7"
  type: "Convolution"
  bottom: "Convolution6"
  top: "Convolution7"
  param {
    lr_mult: 1
    decay_mult: 1
  }
  param {
    lr_mult: 2
    decay_mult: 0
  }
  convolution_param {
    num_output: 16
    pad: 1
    kernel_size: 3
    stride: 1
    weight_filler {
      type: "gaussian"
      std: 0.118
    }
    bias_filler {
      type: "constant"
      value: 0
    }
  }
}
layer {
  name: "BatchNorm7"
  type: "BatchNorm"
  bottom: "Convolution7"
  top: "Convolution7"
  param {
    lr_mult: 0
    decay_mult: 0
  }
  param {
    lr_mult: 0
    decay_mult: 0
  }
  param {
    lr_mult: 0
    decay_mult: 0
  }
}
layer {
  name: "Scale7"
  type: "Scale"
  bottom: "Convolution7"
  top: "Convolution7"
  scale_param {
    bias_term: true
  }
}
layer {
  name: "Eltwise3"
  type: "Eltwise"
  bottom: "Eltwise2"
  bottom: "Convolution7"
  top: "Eltwise3"
  eltwise_param {
    operation: SUM
  }
}
layer {
  name: "penlu7"
  type: "PENLU"
  bottom: "Eltwise3"
  top: "Eltwise3"
  param {
    lr_mult: 2
    decay_mult: 0
  }
  param {
    lr_mult: 2
    decay_mult: 0
  }
  param {
    lr_mult: 0
    decay_mult: 0
  }
  penlu_param {
    alpha_filler {
      type: "constant"
      value: 2
    }
    beta_filler {
      type: "constant"
      value: 1
    }
    eta_filler {
      type: "constant"
      value: 1
    }
  }
}
layer {
  name: "Convolution8"
  type: "Convolution"
  bottom: "Eltwise3"
  top: "Convolution8"
  param {
    lr_mult: 1
    decay_mult: 1
  }
  param {
    lr_mult: 2
    decay_mult: 0
  }
  convolution_param {
    num_output: 16
    pad: 1
    kernel_size: 3
    stride: 1
    weight_filler {
      type: "gaussian"
      std: 0.118
    }
    bias_filler {
      type: "constant"
      value: 0
    }
  }
}
layer {
  name: "BatchNorm8"
  type: "BatchNorm"
  bottom: "Convolution8"
  top: "Convolution8"
  param {
    lr_mult: 0
    decay_mult: 0
  }
  param {
    lr_mult: 0
    decay_mult: 0
  }
  param {
    lr_mult: 0
    decay_mult: 0
  }
}
layer {
  name: "Scale8"
  type: "Scale"
  bottom: "Convolution8"
  top: "Convolution8"
  scale_param {
    bias_term: true
  }
}
layer {
  name: "penlu8"
  type: "PENLU"
  bottom: "Convolution8"
  top: "Convolution8"
  param {
    lr_mult: 2
    decay_mult: 0
  }
  param {
    lr_mult: 2
    decay_mult: 0
  }
  param {
    lr_mult: 0
    decay_mult: 0
  }
  penlu_param {
    alpha_filler {
      type: "constant"
      value: 2
    }
    beta_filler {
      type: "constant"
      value: 1
    }
    eta_filler {
      type: "constant"
      value: 1
    }
  }
}
layer {
  name: "Convolution9"
  type: "Convolution"
  bottom: "Convolution8"
  top: "Convolution9"
  param {
    lr_mult: 1
    decay_mult: 1
  }
  param {
    lr_mult: 2
    decay_mult: 0
  }
  convolution_param {
    num_output: 16
    pad: 1
    kernel_size: 3
    stride: 1
    weight_filler {
      type: "gaussian"
      std: 0.118
    }
    bias_filler {
      type: "constant"
      value: 0
    }
  }
}
layer {
  name: "BatchNorm9"
  type: "BatchNorm"
  bottom: "Convolution9"
  top: "Convolution9"
  param {
    lr_mult: 0
    decay_mult: 0
  }
  param {
    lr_mult: 0
    decay_mult: 0
  }
  param {
    lr_mult: 0
    decay_mult: 0
  }
}
layer {
  name: "Scale9"
  type: "Scale"
  bottom: "Convolution9"
  top: "Convolution9"
  scale_param {
    bias_term: true
  }
}
layer {
  name: "Eltwise4"
  type: "Eltwise"
  bottom: "Eltwise3"
  bottom: "Convolution9"
  top: "Eltwise4"
  eltwise_param {
    operation: SUM
  }
}
layer {
  name: "penlu9"
  type: "PENLU"
  bottom: "Eltwise4"
  top: "Eltwise4"
  param {
    lr_mult: 2
    decay_mult: 0
  }
  param {
    lr_mult: 2
    decay_mult: 0
  }
  param {
    lr_mult: 0
    decay_mult: 0
  }
  penlu_param {
    alpha_filler {
      type: "constant"
      value: 2
    }
    beta_filler {
      type: "constant"
      value: 1
    }
    eta_filler {
      type: "constant"
      value: 1
    }
  }
}
layer {
  name: "Convolution10"
  type: "Convolution"
  bottom: "Eltwise4"
  top: "Convolution10"
  param {
    lr_mult: 1
    decay_mult: 1
  }
  param {
    lr_mult: 2
    decay_mult: 0
  }
  convolution_param {
    num_output: 16
    pad: 1
    kernel_size: 3
    stride: 1
    weight_filler {
      type: "gaussian"
      std: 0.118
    }
    bias_filler {
      type: "constant"
      value: 0
    }
  }
}
layer {
  name: "BatchNorm10"
  type: "BatchNorm"
  bottom: "Convolution10"
  top: "Convolution10"
  param {
    lr_mult: 0
    decay_mult: 0
  }
  param {
    lr_mult: 0
    decay_mult: 0
  }
  param {
    lr_mult: 0
    decay_mult: 0
  }
}
layer {
  name: "Scale10"
  type: "Scale"
  bottom: "Convolution10"
  top: "Convolution10"
  scale_param {
    bias_term: true
  }
}
layer {
  name: "penlu10"
  type: "PENLU"
  bottom: "Convolution10"
  top: "Convolution10"
  param {
    lr_mult: 2
    decay_mult: 0
  }
  param {
    lr_mult: 2
    decay_mult: 0
  }
  param {
    lr_mult: 0
    decay_mult: 0
  }
  penlu_param {
    alpha_filler {
      type: "constant"
      value: 2
    }
    beta_filler {
      type: "constant"
      value: 1
    }
    eta_filler {
      type: "constant"
      value: 1
    }
  }
}
layer {
  name: "Convolution11"
  type: "Convolution"
  bottom: "Convolution10"
  top: "Convolution11"
  param {
    lr_mult: 1
    decay_mult: 1
  }
  param {
    lr_mult: 2
    decay_mult: 0
  }
  convolution_param {
    num_output: 16
    pad: 1
    kernel_size: 3
    stride: 1
    weight_filler {
      type: "gaussian"
      std: 0.118
    }
    bias_filler {
      type: "constant"
      value: 0
    }
  }
}
layer {
  name: "BatchNorm11"
  type: "BatchNorm"
  bottom: "Convolution11"
  top: "Convolution11"
  param {
    lr_mult: 0
    decay_mult: 0
  }
  param {
    lr_mult: 0
    decay_mult: 0
  }
  param {
    lr_mult: 0
    decay_mult: 0
  }
}
layer {
  name: "Scale11"
  type: "Scale"
  bottom: "Convolution11"
  top: "Convolution11"
  scale_param {
    bias_term: true
  }
}
layer {
  name: "Eltwise5"
  type: "Eltwise"
  bottom: "Eltwise4"
  bottom: "Convolution11"
  top: "Eltwise5"
  eltwise_param {
    operation: SUM
  }
}
layer {
  name: "penlu11"
  type: "PENLU"
  bottom: "Eltwise5"
  top: "Eltwise5"
  param {
    lr_mult: 2
    decay_mult: 0
  }
  param {
    lr_mult: 2
    decay_mult: 0
  }
  param {
    lr_mult: 0
    decay_mult: 0
  }
  penlu_param {
    alpha_filler {
      type: "constant"
      value: 2
    }
    beta_filler {
      type: "constant"
      value: 1
    }
    eta_filler {
      type: "constant"
      value: 1
    }
  }
}
layer {
  name: "Convolution12"
  type: "Convolution"
  bottom: "Eltwise5"
  top: "Convolution12"
  param {
    lr_mult: 1
    decay_mult: 1
  }
  param {
    lr_mult: 2
    decay_mult: 0
  }
  convolution_param {
    num_output: 32
    pad: 0
    kernel_size: 1
    stride: 2
    weight_filler {
      type: "gaussian"
      std: 0.25
    }
    bias_filler {
      type: "constant"
      value: 0
    }
  }
}
layer {
  name: "BatchNorm12"
  type: "BatchNorm"
  bottom: "Convolution12"
  top: "Convolution12"
  param {
    lr_mult: 0
    decay_mult: 0
  }
  param {
    lr_mult: 0
    decay_mult: 0
  }
  param {
    lr_mult: 0
    decay_mult: 0
  }
}
layer {
  name: "Scale12"
  type: "Scale"
  bottom: "Convolution12"
  top: "Convolution12"
  scale_param {
    bias_term: true
  }
}
layer {
  name: "Convolution13"
  type: "Convolution"
  bottom: "Eltwise5"
  top: "Convolution13"
  param {
    lr_mult: 1
    decay_mult: 1
  }
  param {
    lr_mult: 2
    decay_mult: 0
  }
  convolution_param {
    num_output: 32
    pad: 1
    kernel_size: 3
    stride: 2
    weight_filler {
      type: "gaussian"
      std: 0.083
    }
    bias_filler {
      type: "constant"
      value: 0
    }
  }
}
layer {
  name: "BatchNorm13"
  type: "BatchNorm"
  bottom: "Convolution13"
  top: "Convolution13"
  param {
    lr_mult: 0
    decay_mult: 0
  }
  param {
    lr_mult: 0
    decay_mult: 0
  }
  param {
    lr_mult: 0
    decay_mult: 0
  }
}
layer {
  name: "Scale13"
  type: "Scale"
  bottom: "Convolution13"
  top: "Convolution13"
  scale_param {
    bias_term: true
  }
}
layer {
  name: "penlu12"
  type: "PENLU"
  bottom: "Convolution13"
  top: "Convolution13"
  param {
    lr_mult: 2
    decay_mult: 0
  }
  param {
    lr_mult: 2
    decay_mult: 0
  }
  param {
    lr_mult: 0
    decay_mult: 0
  }
  penlu_param {
    alpha_filler {
      type: "constant"
      value: 2
    }
    beta_filler {
      type: "constant"
      value: 1
    }
    eta_filler {
      type: "constant"
      value: 1
    }
  }
}
layer {
  name: "Convolution14"
  type: "Convolution"
  bottom: "Convolution13"
  top: "Convolution14"
  param {
    lr_mult: 1
    decay_mult: 1
  }
  param {
    lr_mult: 2
    decay_mult: 0
  }
  convolution_param {
    num_output: 32
    pad: 1
    kernel_size: 3
    stride: 1
    weight_filler {
      type: "gaussian"
      std: 0.083
    }
    bias_filler {
      type: "constant"
      value: 0
    }
  }
}
layer {
  name: "BatchNorm14"
  type: "BatchNorm"
  bottom: "Convolution14"
  top: "Convolution14"
  param {
    lr_mult: 0
    decay_mult: 0
  }
  param {
    lr_mult: 0
    decay_mult: 0
  }
  param {
    lr_mult: 0
    decay_mult: 0
  }
}
layer {
  name: "Scale14"
  type: "Scale"
  bottom: "Convolution14"
  top: "Convolution14"
  scale_param {
    bias_term: true
  }
}
layer {
  name: "Eltwise6"
  type: "Eltwise"
  bottom: "Convolution12"
  bottom: "Convolution14"
  top: "Eltwise6"
  eltwise_param {
    operation: SUM
  }
}
layer {
  name: "penlu13"
  type: "PENLU"
  bottom: "Eltwise6"
  top: "Eltwise6"
  param {
    lr_mult: 2
    decay_mult: 0
  }
  param {
    lr_mult: 2
    decay_mult: 0
  }
  param {
    lr_mult: 0
    decay_mult: 0
  }
  penlu_param {
    alpha_filler {
      type: "constant"
      value: 2
    }
    beta_filler {
      type: "constant"
      value: 1
    }
    eta_filler {
      type: "constant"
      value: 1
    }
  }
}
layer {
  name: "Convolution15"
  type: "Convolution"
  bottom: "Eltwise6"
  top: "Convolution15"
  param {
    lr_mult: 1
    decay_mult: 1
  }
  param {
    lr_mult: 2
    decay_mult: 0
  }
  convolution_param {
    num_output: 32
    pad: 1
    kernel_size: 3
    stride: 1
    weight_filler {
      type: "gaussian"
      std: 0.083
    }
    bias_filler {
      type: "constant"
      value: 0
    }
  }
}
layer {
  name: "BatchNorm15"
  type: "BatchNorm"
  bottom: "Convolution15"
  top: "Convolution15"
  param {
    lr_mult: 0
    decay_mult: 0
  }
  param {
    lr_mult: 0
    decay_mult: 0
  }
  param {
    lr_mult: 0
    decay_mult: 0
  }
}
layer {
  name: "Scale15"
  type: "Scale"
  bottom: "Convolution15"
  top: "Convolution15"
  scale_param {
    bias_term: true
  }
}
layer {
  name: "penlu14"
  type: "PENLU"
  bottom: "Convolution15"
  top: "Convolution15"
  param {
    lr_mult: 2
    decay_mult: 0
  }
  param {
    lr_mult: 2
    decay_mult: 0
  }
  param {
    lr_mult: 0
    decay_mult: 0
  }
  penlu_param {
    alpha_filler {
      type: "constant"
      value: 2
    }
    beta_filler {
      type: "constant"
      value: 1
    }
    eta_filler {
      type: "constant"
      value: 1
    }
  }
}
layer {
  name: "Convolution16"
  type: "Convolution"
  bottom: "Convolution15"
  top: "Convolution16"
  param {
    lr_mult: 1
    decay_mult: 1
  }
  param {
    lr_mult: 2
    decay_mult: 0
  }
  convolution_param {
    num_output: 32
    pad: 1
    kernel_size: 3
    stride: 1
    weight_filler {
      type: "gaussian"
      std: 0.083
    }
    bias_filler {
      type: "constant"
      value: 0
    }
  }
}
layer {
  name: "BatchNorm16"
  type: "BatchNorm"
  bottom: "Convolution16"
  top: "Convolution16"
  param {
    lr_mult: 0
    decay_mult: 0
  }
  param {
    lr_mult: 0
    decay_mult: 0
  }
  param {
    lr_mult: 0
    decay_mult: 0
  }
}
layer {
  name: "Scale16"
  type: "Scale"
  bottom: "Convolution16"
  top: "Convolution16"
  scale_param {
    bias_term: true
  }
}
layer {
  name: "Eltwise7"
  type: "Eltwise"
  bottom: "Eltwise6"
  bottom: "Convolution16"
  top: "Eltwise7"
  eltwise_param {
    operation: SUM
  }
}
layer {
  name: "penlu15"
  type: "PENLU"
  bottom: "Eltwise7"
  top: "Eltwise7"
  param {
    lr_mult: 2
    decay_mult: 0
  }
  param {
    lr_mult: 2
    decay_mult: 0
  }
  param {
    lr_mult: 0
    decay_mult: 0
  }
  penlu_param {
    alpha_filler {
      type: "constant"
      value: 2
    }
    beta_filler {
      type: "constant"
      value: 1
    }
    eta_filler {
      type: "constant"
      value: 1
    }
  }
}
layer {
  name: "Convolution17"
  type: "Convolution"
  bottom: "Eltwise7"
  top: "Convolution17"
  param {
    lr_mult: 1
    decay_mult: 1
  }
  param {
    lr_mult: 2
    decay_mult: 0
  }
  convolution_param {
    num_output: 32
    pad: 1
    kernel_size: 3
    stride: 1
    weight_filler {
      type: "gaussian"
      std: 0.083
    }
    bias_filler {
      type: "constant"
      value: 0
    }
  }
}
layer {
  name: "BatchNorm17"
  type: "BatchNorm"
  bottom: "Convolution17"
  top: "Convolution17"
  param {
    lr_mult: 0
    decay_mult: 0
  }
  param {
    lr_mult: 0
    decay_mult: 0
  }
  param {
    lr_mult: 0
    decay_mult: 0
  }
}
layer {
  name: "Scale17"
  type: "Scale"
  bottom: "Convolution17"
  top: "Convolution17"
  scale_param {
    bias_term: true
  }
}
layer {
  name: "penlu16"
  type: "PENLU"
  bottom: "Convolution17"
  top: "Convolution17"
  param {
    lr_mult: 2
    decay_mult: 0
  }
  param {
    lr_mult: 2
    decay_mult: 0
  }
  param {
    lr_mult: 0
    decay_mult: 0
  }
  penlu_param {
    alpha_filler {
      type: "constant"
      value: 2
    }
    beta_filler {
      type: "constant"
      value: 1
    }
    eta_filler {
      type: "constant"
      value: 1
    }
  }
}
layer {
  name: "Convolution18"
  type: "Convolution"
  bottom: "Convolution17"
  top: "Convolution18"
  param {
    lr_mult: 1
    decay_mult: 1
  }
  param {
    lr_mult: 2
    decay_mult: 0
  }
  convolution_param {
    num_output: 32
    pad: 1
    kernel_size: 3
    stride: 1
    weight_filler {
      type: "gaussian"
      std: 0.083
    }
    bias_filler {
      type: "constant"
      value: 0
    }
  }
}
layer {
  name: "BatchNorm18"
  type: "BatchNorm"
  bottom: "Convolution18"
  top: "Convolution18"
  param {
    lr_mult: 0
    decay_mult: 0
  }
  param {
    lr_mult: 0
    decay_mult: 0
  }
  param {
    lr_mult: 0
    decay_mult: 0
  }
}
layer {
  name: "Scale18"
  type: "Scale"
  bottom: "Convolution18"
  top: "Convolution18"
  scale_param {
    bias_term: true
  }
}
layer {
  name: "Eltwise8"
  type: "Eltwise"
  bottom: "Eltwise7"
  bottom: "Convolution18"
  top: "Eltwise8"
  eltwise_param {
    operation: SUM
  }
}
layer {
  name: "penlu17"
  type: "PENLU"
  bottom: "Eltwise8"
  top: "Eltwise8"
  param {
    lr_mult: 2
    decay_mult: 0
  }
  param {
    lr_mult: 2
    decay_mult: 0
  }
  param {
    lr_mult: 0
    decay_mult: 0
  }
  penlu_param {
    alpha_filler {
      type: "constant"
      value: 2
    }
    beta_filler {
      type: "constant"
      value: 1
    }
    eta_filler {
      type: "constant"
      value: 1
    }
  }
}
layer {
  name: "Convolution19"
  type: "Convolution"
  bottom: "Eltwise8"
  top: "Convolution19"
  param {
    lr_mult: 1
    decay_mult: 1
  }
  param {
    lr_mult: 2
    decay_mult: 0
  }
  convolution_param {
    num_output: 32
    pad: 1
    kernel_size: 3
    stride: 1
    weight_filler {
      type: "gaussian"
      std: 0.083
    }
    bias_filler {
      type: "constant"
      value: 0
    }
  }
}
layer {
  name: "BatchNorm19"
  type: "BatchNorm"
  bottom: "Convolution19"
  top: "Convolution19"
  param {
    lr_mult: 0
    decay_mult: 0
  }
  param {
    lr_mult: 0
    decay_mult: 0
  }
  param {
    lr_mult: 0
    decay_mult: 0
  }
}
layer {
  name: "Scale19"
  type: "Scale"
  bottom: "Convolution19"
  top: "Convolution19"
  scale_param {
    bias_term: true
  }
}
layer {
  name: "penlu18"
  type: "PENLU"
  bottom: "Convolution19"
  top: "Convolution19"
  param {
    lr_mult: 2
    decay_mult: 0
  }
  param {
    lr_mult: 2
    decay_mult: 0
  }
  param {
    lr_mult: 0
    decay_mult: 0
  }
  penlu_param {
    alpha_filler {
      type: "constant"
      value: 2
    }
    beta_filler {
      type: "constant"
      value: 1
    }
    eta_filler {
      type: "constant"
      value: 1
    }
  }
}
layer {
  name: "Convolution20"
  type: "Convolution"
  bottom: "Convolution19"
  top: "Convolution20"
  param {
    lr_mult: 1
    decay_mult: 1
  }
  param {
    lr_mult: 2
    decay_mult: 0
  }
  convolution_param {
    num_output: 32
    pad: 1
    kernel_size: 3
    stride: 1
    weight_filler {
      type: "gaussian"
      std: 0.083
    }
    bias_filler {
      type: "constant"
      value: 0
    }
  }
}
layer {
  name: "BatchNorm20"
  type: "BatchNorm"
  bottom: "Convolution20"
  top: "Convolution20"
  param {
    lr_mult: 0
    decay_mult: 0
  }
  param {
    lr_mult: 0
    decay_mult: 0
  }
  param {
    lr_mult: 0
    decay_mult: 0
  }
}
layer {
  name: "Scale20"
  type: "Scale"
  bottom: "Convolution20"
  top: "Convolution20"
  scale_param {
    bias_term: true
  }
}
layer {
  name: "Eltwise9"
  type: "Eltwise"
  bottom: "Eltwise8"
  bottom: "Convolution20"
  top: "Eltwise9"
  eltwise_param {
    operation: SUM
  }
}
layer {
  name: "penlu19"
  type: "PENLU"
  bottom: "Eltwise9"
  top: "Eltwise9"
  param {
    lr_mult: 2
    decay_mult: 0
  }
  param {
    lr_mult: 2
    decay_mult: 0
  }
  param {
    lr_mult: 0
    decay_mult: 0
  }
  penlu_param {
    alpha_filler {
      type: "constant"
      value: 2
    }
    beta_filler {
      type: "constant"
      value: 1
    }
    eta_filler {
      type: "constant"
      value: 1
    }
  }
}
layer {
  name: "Convolution21"
  type: "Convolution"
  bottom: "Eltwise9"
  top: "Convolution21"
  param {
    lr_mult: 1
    decay_mult: 1
  }
  param {
    lr_mult: 2
    decay_mult: 0
  }
  convolution_param {
    num_output: 32
    pad: 1
    kernel_size: 3
    stride: 1
    weight_filler {
      type: "gaussian"
      std: 0.083
    }
    bias_filler {
      type: "constant"
      value: 0
    }
  }
}
layer {
  name: "BatchNorm21"
  type: "BatchNorm"
  bottom: "Convolution21"
  top: "Convolution21"
  param {
    lr_mult: 0
    decay_mult: 0
  }
  param {
    lr_mult: 0
    decay_mult: 0
  }
  param {
    lr_mult: 0
    decay_mult: 0
  }
}
layer {
  name: "Scale21"
  type: "Scale"
  bottom: "Convolution21"
  top: "Convolution21"
  scale_param {
    bias_term: true
  }
}
layer {
  name: "penlu20"
  type: "PENLU"
  bottom: "Convolution21"
  top: "Convolution21"
  param {
    lr_mult: 2
    decay_mult: 0
  }
  param {
    lr_mult: 2
    decay_mult: 0
  }
  param {
    lr_mult: 0
    decay_mult: 0
  }
  penlu_param {
    alpha_filler {
      type: "constant"
      value: 2
    }
    beta_filler {
      type: "constant"
      value: 1
    }
    eta_filler {
      type: "constant"
      value: 1
    }
  }
}
layer {
  name: "Convolution22"
  type: "Convolution"
  bottom: "Convolution21"
  top: "Convolution22"
  param {
    lr_mult: 1
    decay_mult: 1
  }
  param {
    lr_mult: 2
    decay_mult: 0
  }
  convolution_param {
    num_output: 32
    pad: 1
    kernel_size: 3
    stride: 1
    weight_filler {
      type: "gaussian"
      std: 0.083
    }
    bias_filler {
      type: "constant"
      value: 0
    }
  }
}
layer {
  name: "BatchNorm22"
  type: "BatchNorm"
  bottom: "Convolution22"
  top: "Convolution22"
  param {
    lr_mult: 0
    decay_mult: 0
  }
  param {
    lr_mult: 0
    decay_mult: 0
  }
  param {
    lr_mult: 0
    decay_mult: 0
  }
}
layer {
  name: "Scale22"
  type: "Scale"
  bottom: "Convolution22"
  top: "Convolution22"
  scale_param {
    bias_term: true
  }
}
layer {
  name: "Eltwise10"
  type: "Eltwise"
  bottom: "Eltwise9"
  bottom: "Convolution22"
  top: "Eltwise10"
  eltwise_param {
    operation: SUM
  }
}
layer {
  name: "penlu21"
  type: "PENLU"
  bottom: "Eltwise10"
  top: "Eltwise10"
  param {
    lr_mult: 2
    decay_mult: 0
  }
  param {
    lr_mult: 2
    decay_mult: 0
  }
  param {
    lr_mult: 0
    decay_mult: 0
  }
  penlu_param {
    alpha_filler {
      type: "constant"
      value: 2
    }
    beta_filler {
      type: "constant"
      value: 1
    }
    eta_filler {
      type: "constant"
      value: 1
    }
  }
}
layer {
  name: "Convolution23"
  type: "Convolution"
  bottom: "Eltwise10"
  top: "Convolution23"
  param {
    lr_mult: 1
    decay_mult: 1
  }
  param {
    lr_mult: 2
    decay_mult: 0
  }
  convolution_param {
    num_output: 64
    pad: 0
    kernel_size: 1
    stride: 2
    weight_filler {
      type: "gaussian"
      std: 0.17677669
    }
    bias_filler {
      type: "constant"
      value: 0
    }
  }
}
layer {
  name: "BatchNorm23"
  type: "BatchNorm"
  bottom: "Convolution23"
  top: "Convolution23"
  param {
    lr_mult: 0
    decay_mult: 0
  }
  param {
    lr_mult: 0
    decay_mult: 0
  }
  param {
    lr_mult: 0
    decay_mult: 0
  }
}
layer {
  name: "Scale23"
  type: "Scale"
  bottom: "Convolution23"
  top: "Convolution23"
  scale_param {
    bias_term: true
  }
}
layer {
  name: "Convolution24"
  type: "Convolution"
  bottom: "Eltwise10"
  top: "Convolution24"
  param {
    lr_mult: 1
    decay_mult: 1
  }
  param {
    lr_mult: 2
    decay_mult: 0
  }
  convolution_param {
    num_output: 64
    pad: 1
    kernel_size: 3
    stride: 2
    weight_filler {
      type: "gaussian"
      std: 0.059
    }
    bias_filler {
      type: "constant"
      value: 0
    }
  }
}
layer {
  name: "BatchNorm24"
  type: "BatchNorm"
  bottom: "Convolution24"
  top: "Convolution24"
  param {
    lr_mult: 0
    decay_mult: 0
  }
  param {
    lr_mult: 0
    decay_mult: 0
  }
  param {
    lr_mult: 0
    decay_mult: 0
  }
}
layer {
  name: "Scale24"
  type: "Scale"
  bottom: "Convolution24"
  top: "Convolution24"
  scale_param {
    bias
I1007 15:08:43.328654  4982 layer_factory.hpp:77] Creating layer Data1
I1007 15:08:43.328748  4982 db_lmdb.cpp:35] Opened lmdb /home/x306/caffe/xn/PENLU/data/cifar10/cifar10_train_lmdb
I1007 15:08:43.328773  4982 net.cpp:84] Creating Layer Data1
I1007 15:08:43.328780  4982 net.cpp:380] Data1 -> Data1
I1007 15:08:43.328804  4982 net.cpp:380] Data1 -> Data2
I1007 15:08:43.328817  4982 data_transformer.cpp:25] Loading mean file from: /home/x306/caffe/xn/PENLU/data/cifar10/mean.binaryproto
I1007 15:08:43.330354  4982 data_layer.cpp:45] output data size: 100,3,28,28
I1007 15:08:43.332696  4982 net.cpp:122] Setting up Data1
I1007 15:08:43.332710  4982 net.cpp:129] Top shape: 100 3 28 28 (235200)
I1007 15:08:43.332713  4982 net.cpp:129] Top shape: 100 (100)
I1007 15:08:43.332716  4982 net.cpp:137] Memory required for data: 941200
I1007 15:08:43.332721  4982 layer_factory.hpp:77] Creating layer Convolution1
I1007 15:08:43.332741  4982 net.cpp:84] Creating Layer Convolution1
I1007 15:08:43.332746  4982 net.cpp:406] Convolution1 <- Data1
I1007 15:08:43.332754  4982 net.cpp:380] Convolution1 -> Convolution1
I1007 15:08:43.478391  4982 net.cpp:122] Setting up Convolution1
I1007 15:08:43.478416  4982 net.cpp:129] Top shape: 100 16 28 28 (1254400)
I1007 15:08:43.478421  4982 net.cpp:137] Memory required for data: 5958800
I1007 15:08:43.478440  4982 layer_factory.hpp:77] Creating layer BatchNorm1
I1007 15:08:43.478471  4982 net.cpp:84] Creating Layer BatchNorm1
I1007 15:08:43.478495  4982 net.cpp:406] BatchNorm1 <- Convolution1
I1007 15:08:43.478513  4982 net.cpp:367] BatchNorm1 -> Convolution1 (in-place)
I1007 15:08:43.478662  4982 net.cpp:122] Setting up BatchNorm1
I1007 15:08:43.478668  4982 net.cpp:129] Top shape: 100 16 28 28 (1254400)
I1007 15:08:43.478673  4982 net.cpp:137] Memory required for data: 10976400
I1007 15:08:43.478685  4982 layer_factory.hpp:77] Creating layer Scale1
I1007 15:08:43.478706  4982 net.cpp:84] Creating Layer Scale1
I1007 15:08:43.478711  4982 net.cpp:406] Scale1 <- Convolution1
I1007 15:08:43.478718  4982 net.cpp:367] Scale1 -> Convolution1 (in-place)
I1007 15:08:43.478765  4982 layer_factory.hpp:77] Creating layer Scale1
I1007 15:08:43.478869  4982 net.cpp:122] Setting up Scale1
I1007 15:08:43.478876  4982 net.cpp:129] Top shape: 100 16 28 28 (1254400)
I1007 15:08:43.478881  4982 net.cpp:137] Memory required for data: 15994000
I1007 15:08:43.478889  4982 layer_factory.hpp:77] Creating layer penlu1
I1007 15:08:43.478912  4982 net.cpp:84] Creating Layer penlu1
I1007 15:08:43.478916  4982 net.cpp:406] penlu1 <- Convolution1
I1007 15:08:43.478932  4982 net.cpp:367] penlu1 -> Convolution1 (in-place)
I1007 15:08:43.479563  4982 net.cpp:122] Setting up penlu1
I1007 15:08:43.479574  4982 net.cpp:129] Top shape: 100 16 28 28 (1254400)
I1007 15:08:43.479578  4982 net.cpp:137] Memory required for data: 21011600
I1007 15:08:43.479600  4982 layer_factory.hpp:77] Creating layer Convolution1_penlu1_0_split
I1007 15:08:43.479609  4982 net.cpp:84] Creating Layer Convolution1_penlu1_0_split
I1007 15:08:43.479614  4982 net.cpp:406] Convolution1_penlu1_0_split <- Convolution1
I1007 15:08:43.479620  4982 net.cpp:380] Convolution1_penlu1_0_split -> Convolution1_penlu1_0_split_0
I1007 15:08:43.479640  4982 net.cpp:380] Convolution1_penlu1_0_split -> Convolution1_penlu1_0_split_1
I1007 15:08:43.479677  4982 net.cpp:122] Setting up Convolution1_penlu1_0_split
I1007 15:08:43.479686  4982 net.cpp:129] Top shape: 100 16 28 28 (1254400)
I1007 15:08:43.479702  4982 net.cpp:129] Top shape: 100 16 28 28 (1254400)
I1007 15:08:43.479707  4982 net.cpp:137] Memory required for data: 31046800
I1007 15:08:43.479720  4982 layer_factory.hpp:77] Creating layer Convolution2
I1007 15:08:43.479740  4982 net.cpp:84] Creating Layer Convolution2
I1007 15:08:43.479745  4982 net.cpp:406] Convolution2 <- Convolution1_penlu1_0_split_0
I1007 15:08:43.479761  4982 net.cpp:380] Convolution2 -> Convolution2
I1007 15:08:43.480643  4982 net.cpp:122] Setting up Convolution2
I1007 15:08:43.480654  4982 net.cpp:129] Top shape: 100 16 28 28 (1254400)
I1007 15:08:43.480659  4982 net.cpp:137] Memory required for data: 36064400
I1007 15:08:43.480677  4982 layer_factory.hpp:77] Creating layer BatchNorm2
I1007 15:08:43.480700  4982 net.cpp:84] Creating Layer BatchNorm2
I1007 15:08:43.480715  4982 net.cpp:406] BatchNorm2 <- Convolution2
I1007 15:08:43.480732  4982 net.cpp:367] BatchNorm2 -> Convolution2 (in-place)
I1007 15:08:43.480866  4982 net.cpp:122] Setting up BatchNorm2
I1007 15:08:43.480873  4982 net.cpp:129] Top shape: 100 16 28 28 (1254400)
I1007 15:08:43.480877  4982 net.cpp:137] Memory required for data: 41082000
I1007 15:08:43.480896  4982 layer_factory.hpp:77] Creating layer Scale2
I1007 15:08:43.480904  4982 net.cpp:84] Creating Layer Scale2
I1007 15:08:43.480909  4982 net.cpp:406] Scale2 <- Convolution2
I1007 15:08:43.480916  4982 net.cpp:367] Scale2 -> Convolution2 (in-place)
I1007 15:08:43.480948  4982 layer_factory.hpp:77] Creating layer Scale2
I1007 15:08:43.481055  4982 net.cpp:122] Setting up Scale2
I1007 15:08:43.481061  4982 net.cpp:129] Top shape: 100 16 28 28 (1254400)
I1007 15:08:43.481065  4982 net.cpp:137] Memory required for data: 46099600
I1007 15:08:43.481086  4982 layer_factory.hpp:77] Creating layer penlu2
I1007 15:08:43.481093  4982 net.cpp:84] Creating Layer penlu2
I1007 15:08:43.481099  4982 net.cpp:406] penlu2 <- Convolution2
I1007 15:08:43.481106  4982 net.cpp:367] penlu2 -> Convolution2 (in-place)
I1007 15:08:43.481215  4982 net.cpp:122] Setting up penlu2
I1007 15:08:43.481222  4982 net.cpp:129] Top shape: 100 16 28 28 (1254400)
I1007 15:08:43.481235  4982 net.cpp:137] Memory required for data: 51117200
I1007 15:08:43.481245  4982 layer_factory.hpp:77] Creating layer Convolution3
I1007 15:08:43.481256  4982 net.cpp:84] Creating Layer Convolution3
I1007 15:08:43.481261  4982 net.cpp:406] Convolution3 <- Convolution2
I1007 15:08:43.481268  4982 net.cpp:380] Convolution3 -> Convolution3
I1007 15:08:43.482120  4982 net.cpp:122] Setting up Convolution3
I1007 15:08:43.482131  4982 net.cpp:129] Top shape: 100 16 28 28 (1254400)
I1007 15:08:43.482136  4982 net.cpp:137] Memory required for data: 56134800
I1007 15:08:43.482144  4982 layer_factory.hpp:77] Creating layer BatchNorm3
I1007 15:08:43.482153  4982 net.cpp:84] Creating Layer BatchNorm3
I1007 15:08:43.482158  4982 net.cpp:406] BatchNorm3 <- Convolution3
I1007 15:08:43.482165  4982 net.cpp:367] BatchNorm3 -> Convolution3 (in-place)
I1007 15:08:43.482288  4982 net.cpp:122] Setting up BatchNorm3
I1007 15:08:43.482295  4982 net.cpp:129] Top shape: 100 16 28 28 (1254400)
I1007 15:08:43.482300  4982 net.cpp:137] Memory required for data: 61152400
I1007 15:08:43.482311  4982 layer_factory.hpp:77] Creating layer Scale3
I1007 15:08:43.482317  4982 net.cpp:84] Creating Layer Scale3
I1007 15:08:43.482322  4982 net.cpp:406] Scale3 <- Convolution3
I1007 15:08:43.482328  4982 net.cpp:367] Scale3 -> Convolution3 (in-place)
I1007 15:08:43.482359  4982 layer_factory.hpp:77] Creating layer Scale3
I1007 15:08:43.482434  4982 net.cpp:122] Setting up Scale3
I1007 15:08:43.482441  4982 net.cpp:129] Top shape: 100 16 28 28 (1254400)
I1007 15:08:43.482445  4982 net.cpp:137] Memory required for data: 66170000
I1007 15:08:43.482455  4982 layer_factory.hpp:77] Creating layer Eltwise1
I1007 15:08:43.482462  4982 net.cpp:84] Creating Layer Eltwise1
I1007 15:08:43.482467  4982 net.cpp:406] Eltwise1 <- Convolution1_penlu1_0_split_1
I1007 15:08:43.482472  4982 net.cpp:406] Eltwise1 <- Convolution3
I1007 15:08:43.482480  4982 net.cpp:380] Eltwise1 -> Eltwise1
I1007 15:08:43.482501  4982 net.cpp:122] Setting up Eltwise1
I1007 15:08:43.482508  4982 net.cpp:129] Top shape: 100 16 28 28 (1254400)
I1007 15:08:43.482512  4982 net.cpp:137] Memory required for data: 71187600
I1007 15:08:43.482518  4982 layer_factory.hpp:77] Creating layer penlu3
I1007 15:08:43.482527  4982 net.cpp:84] Creating Layer penlu3
I1007 15:08:43.482532  4982 net.cpp:406] penlu3 <- Eltwise1
I1007 15:08:43.482538  4982 net.cpp:367] penlu3 -> Eltwise1 (in-place)
I1007 15:08:43.482640  4982 net.cpp:122] Setting up penlu3
I1007 15:08:43.482647  4982 net.cpp:129] Top shape: 100 16 28 28 (1254400)
I1007 15:08:43.482651  4982 net.cpp:137] Memory required for data: 76205200
I1007 15:08:43.482659  4982 layer_factory.hpp:77] Creating layer Eltwise1_penlu3_0_split
I1007 15:08:43.482666  4982 net.cpp:84] Creating Layer Eltwise1_penlu3_0_split
I1007 15:08:43.482671  4982 net.cpp:406] Eltwise1_penlu3_0_split <- Eltwise1
I1007 15:08:43.482677  4982 net.cpp:380] Eltwise1_penlu3_0_split -> Eltwise1_penlu3_0_split_0
I1007 15:08:43.482686  4982 net.cpp:380] Eltwise1_penlu3_0_split -> Eltwise1_penlu3_0_split_1
I1007 15:08:43.482712  4982 net.cpp:122] Setting up Eltwise1_penlu3_0_split
I1007 15:08:43.482719  4982 net.cpp:129] Top shape: 100 16 28 28 (1254400)
I1007 15:08:43.482727  4982 net.cpp:129] Top shape: 100 16 28 28 (1254400)
I1007 15:08:43.482731  4982 net.cpp:137] Memory required for data: 86240400
I1007 15:08:43.482736  4982 layer_factory.hpp:77] Creating layer Convolution4
I1007 15:08:43.482748  4982 net.cpp:84] Creating Layer Convolution4
I1007 15:08:43.482751  4982 net.cpp:406] Convolution4 <- Eltwise1_penlu3_0_split_0
I1007 15:08:43.482758  4982 net.cpp:380] Convolution4 -> Convolution4
I1007 15:08:43.483603  4982 net.cpp:122] Setting up Convolution4
I1007 15:08:43.483614  4982 net.cpp:129] Top shape: 100 16 28 28 (1254400)
I1007 15:08:43.483619  4982 net.cpp:137] Memory required for data: 91258000
I1007 15:08:43.483628  4982 layer_factory.hpp:77] Creating layer BatchNorm4
I1007 15:08:43.483636  4982 net.cpp:84] Creating Layer BatchNorm4
I1007 15:08:43.483649  4982 net.cpp:406] BatchNorm4 <- Convolution4
I1007 15:08:43.483659  4982 net.cpp:367] BatchNorm4 -> Convolution4 (in-place)
I1007 15:08:43.483780  4982 net.cpp:122] Setting up BatchNorm4
I1007 15:08:43.483788  4982 net.cpp:129] Top shape: 100 16 28 28 (1254400)
I1007 15:08:43.483793  4982 net.cpp:137] Memory required for data: 96275600
I1007 15:08:43.483804  4982 layer_factory.hpp:77] Creating layer Scale4
I1007 15:08:43.483810  4982 net.cpp:84] Creating Layer Scale4
I1007 15:08:43.483815  4982 net.cpp:406] Scale4 <- Convolution4
I1007 15:08:43.483822  4982 net.cpp:367] Scale4 -> Convolution4 (in-place)
I1007 15:08:43.483852  4982 layer_factory.hpp:77] Creating layer Scale4
I1007 15:08:43.483928  4982 net.cpp:122] Setting up Scale4
I1007 15:08:43.483935  4982 net.cpp:129] Top shape: 100 16 28 28 (1254400)
I1007 15:08:43.483939  4982 net.cpp:137] Memory required for data: 101293200
I1007 15:08:43.483947  4982 layer_factory.hpp:77] Creating layer penlu4
I1007 15:08:43.483955  4982 net.cpp:84] Creating Layer penlu4
I1007 15:08:43.483960  4982 net.cpp:406] penlu4 <- Convolution4
I1007 15:08:43.483966  4982 net.cpp:367] penlu4 -> Convolution4 (in-place)
I1007 15:08:43.484067  4982 net.cpp:122] Setting up penlu4
I1007 15:08:43.484074  4982 net.cpp:129] Top shape: 100 16 28 28 (1254400)
I1007 15:08:43.484078  4982 net.cpp:137] Memory required for data: 106310800
I1007 15:08:43.484087  4982 layer_factory.hpp:77] Creating layer Convolution5
I1007 15:08:43.484097  4982 net.cpp:84] Creating Layer Convolution5
I1007 15:08:43.484102  4982 net.cpp:406] Convolution5 <- Convolution4
I1007 15:08:43.484108  4982 net.cpp:380] Convolution5 -> Convolution5
I1007 15:08:43.484953  4982 net.cpp:122] Setting up Convolution5
I1007 15:08:43.484964  4982 net.cpp:129] Top shape: 100 16 28 28 (1254400)
I1007 15:08:43.484969  4982 net.cpp:137] Memory required for data: 111328400
I1007 15:08:43.484977  4982 layer_factory.hpp:77] Creating layer BatchNorm5
I1007 15:08:43.484987  4982 net.cpp:84] Creating Layer BatchNorm5
I1007 15:08:43.484992  4982 net.cpp:406] BatchNorm5 <- Convolution5
I1007 15:08:43.484998  4982 net.cpp:367] BatchNorm5 -> Convolution5 (in-place)
I1007 15:08:43.485123  4982 net.cpp:122] Setting up BatchNorm5
I1007 15:08:43.485131  4982 net.cpp:129] Top shape: 100 16 28 28 (1254400)
I1007 15:08:43.485136  4982 net.cpp:137] Memory required for data: 116346000
I1007 15:08:43.485146  4982 layer_factory.hpp:77] Creating layer Scale5
I1007 15:08:43.485152  4982 net.cpp:84] Creating Layer Scale5
I1007 15:08:43.485157  4982 net.cpp:406] Scale5 <- Convolution5
I1007 15:08:43.485163  4982 net.cpp:367] Scale5 -> Convolution5 (in-place)
I1007 15:08:43.485194  4982 layer_factory.hpp:77] Creating layer Scale5
I1007 15:08:43.485271  4982 net.cpp:122] Setting up Scale5
I1007 15:08:43.485280  4982 net.cpp:129] Top shape: 100 16 28 28 (1254400)
I1007 15:08:43.485283  4982 net.cpp:137] Memory required for data: 121363600
I1007 15:08:43.485291  4982 layer_factory.hpp:77] Creating layer Eltwise2
I1007 15:08:43.485298  4982 net.cpp:84] Creating Layer Eltwise2
I1007 15:08:43.485304  4982 net.cpp:406] Eltwise2 <- Eltwise1_penlu3_0_split_1
I1007 15:08:43.485309  4982 net.cpp:406] Eltwise2 <- Convolution5
I1007 15:08:43.485316  4982 net.cpp:380] Eltwise2 -> Eltwise2
I1007 15:08:43.485337  4982 net.cpp:122] Setting up Eltwise2
I1007 15:08:43.485343  4982 net.cpp:129] Top shape: 100 16 28 28 (1254400)
I1007 15:08:43.485347  4982 net.cpp:137] Memory required for data: 126381200
I1007 15:08:43.485352  4982 layer_factory.hpp:77] Creating layer penlu5
I1007 15:08:43.485361  4982 net.cpp:84] Creating Layer penlu5
I1007 15:08:43.485366  4982 net.cpp:406] penlu5 <- Eltwise2
I1007 15:08:43.485373  4982 net.cpp:367] penlu5 -> Eltwise2 (in-place)
I1007 15:08:43.485478  4982 net.cpp:122] Setting up penlu5
I1007 15:08:43.485486  4982 net.cpp:129] Top shape: 100 16 28 28 (1254400)
I1007 15:08:43.485489  4982 net.cpp:137] Memory required for data: 131398800
I1007 15:08:43.485498  4982 layer_factory.hpp:77] Creating layer Eltwise2_penlu5_0_split
I1007 15:08:43.485512  4982 net.cpp:84] Creating Layer Eltwise2_penlu5_0_split
I1007 15:08:43.485517  4982 net.cpp:406] Eltwise2_penlu5_0_split <- Eltwise2
I1007 15:08:43.485524  4982 net.cpp:380] Eltwise2_penlu5_0_split -> Eltwise2_penlu5_0_split_0
I1007 15:08:43.485532  4982 net.cpp:380] Eltwise2_penlu5_0_split -> Eltwise2_penlu5_0_split_1
I1007 15:08:43.485560  4982 net.cpp:122] Setting up Eltwise2_penlu5_0_split
I1007 15:08:43.485566  4982 net.cpp:129] Top shape: 100 16 28 28 (1254400)
I1007 15:08:43.485572  4982 net.cpp:129] Top shape: 100 16 28 28 (1254400)
I1007 15:08:43.485577  4982 net.cpp:137] Memory required for data: 141434000
I1007 15:08:43.485581  4982 layer_factory.hpp:77] Creating layer Convolution6
I1007 15:08:43.485592  4982 net.cpp:84] Creating Layer Convolution6
I1007 15:08:43.485596  4982 net.cpp:406] Convolution6 <- Eltwise2_penlu5_0_split_0
I1007 15:08:43.485604  4982 net.cpp:380] Convolution6 -> Convolution6
I1007 15:08:43.486455  4982 net.cpp:122] Setting up Convolution6
I1007 15:08:43.486466  4982 net.cpp:129] Top shape: 100 16 28 28 (1254400)
I1007 15:08:43.486471  4982 net.cpp:137] Memory required for data: 146451600
I1007 15:08:43.486479  4982 layer_factory.hpp:77] Creating layer BatchNorm6
I1007 15:08:43.486488  4982 net.cpp:84] Creating Layer BatchNorm6
I1007 15:08:43.486495  4982 net.cpp:406] BatchNorm6 <- Convolution6
I1007 15:08:43.486501  4982 net.cpp:367] BatchNorm6 -> Convolution6 (in-place)
I1007 15:08:43.486629  4982 net.cpp:122] Setting up BatchNorm6
I1007 15:08:43.486636  4982 net.cpp:129] Top shape: 100 16 28 28 (1254400)
I1007 15:08:43.486640  4982 net.cpp:137] Memory required for data: 151469200
I1007 15:08:43.486651  4982 layer_factory.hpp:77] Creating layer Scale6
I1007 15:08:43.486659  4982 net.cpp:84] Creating Layer Scale6
I1007 15:08:43.486663  4982 net.cpp:406] Scale6 <- Convolution6
I1007 15:08:43.486670  4982 net.cpp:367] Scale6 -> Convolution6 (in-place)
I1007 15:08:43.486701  4982 layer_factory.hpp:77] Creating layer Scale6
I1007 15:08:43.486778  4982 net.cpp:122] Setting up Scale6
I1007 15:08:43.486785  4982 net.cpp:129] Top shape: 100 16 28 28 (1254400)
I1007 15:08:43.486789  4982 net.cpp:137] Memory required for data: 156486800
I1007 15:08:43.486796  4982 layer_factory.hpp:77] Creating layer penlu6
I1007 15:08:43.486804  4982 net.cpp:84] Creating Layer penlu6
I1007 15:08:43.486809  4982 net.cpp:406] penlu6 <- Convolution6
I1007 15:08:43.486816  4982 net.cpp:367] penlu6 -> Convolution6 (in-place)
I1007 15:08:43.486922  4982 net.cpp:122] Setting up penlu6
I1007 15:08:43.486928  4982 net.cpp:129] Top shape: 100 16 28 28 (1254400)
I1007 15:08:43.486933  4982 net.cpp:137] Memory required for data: 161504400
I1007 15:08:43.486941  4982 layer_factory.hpp:77] Creating layer Convolution7
I1007 15:08:43.486951  4982 net.cpp:84] Creating Layer Convolution7
I1007 15:08:43.486955  4982 net.cpp:406] Convolution7 <- Convolution6
I1007 15:08:43.486963  4982 net.cpp:380] Convolution7 -> Convolution7
I1007 15:08:43.487498  4982 net.cpp:122] Setting up Convolution7
I1007 15:08:43.487509  4982 net.cpp:129] Top shape: 100 16 28 28 (1254400)
I1007 15:08:43.487512  4982 net.cpp:137] Memory required for data: 166522000
I1007 15:08:43.487520  4982 layer_factory.hpp:77] Creating layer BatchNorm7
I1007 15:08:43.487529  4982 net.cpp:84] Creating Layer BatchNorm7
I1007 15:08:43.487534  4982 net.cpp:406] BatchNorm7 <- Convolution7
I1007 15:08:43.487540  4982 net.cpp:367] BatchNorm7 -> Convolution7 (in-place)
I1007 15:08:43.487668  4982 net.cpp:122] Setting up BatchNorm7
I1007 15:08:43.487675  4982 net.cpp:129] Top shape: 100 16 28 28 (1254400)
I1007 15:08:43.487679  4982 net.cpp:137] Memory required for data: 171539600
I1007 15:08:43.487692  4982 layer_factory.hpp:77] Creating layer Scale7
I1007 15:08:43.487701  4982 net.cpp:84] Creating Layer Scale7
I1007 15:08:43.487706  4982 net.cpp:406] Scale7 <- Convolution7
I1007 15:08:43.487712  4982 net.cpp:367] Scale7 -> Convolution7 (in-place)
I1007 15:08:43.487743  4982 layer_factory.hpp:77] Creating layer Scale7
I1007 15:08:43.487823  4982 net.cpp:122] Setting up Scale7
I1007 15:08:43.487838  4982 net.cpp:129] Top shape: 100 16 28 28 (1254400)
I1007 15:08:43.487843  4982 net.cpp:137] Memory required for data: 176557200
I1007 15:08:43.487851  4982 layer_factory.hpp:77] Creating layer Eltwise3
I1007 15:08:43.487859  4982 net.cpp:84] Creating Layer Eltwise3
I1007 15:08:43.487864  4982 net.cpp:406] Eltwise3 <- Eltwise2_penlu5_0_split_1
I1007 15:08:43.487869  4982 net.cpp:406] Eltwise3 <- Convolution7
I1007 15:08:43.487875  4982 net.cpp:380] Eltwise3 -> Eltwise3
I1007 15:08:43.487897  4982 net.cpp:122] Setting up Eltwise3
I1007 15:08:43.487903  4982 net.cpp:129] Top shape: 100 16 28 28 (1254400)
I1007 15:08:43.487908  4982 net.cpp:137] Memory required for data: 181574800
I1007 15:08:43.487912  4982 layer_factory.hpp:77] Creating layer penlu7
I1007 15:08:43.487920  4982 net.cpp:84] Creating Layer penlu7
I1007 15:08:43.487926  4982 net.cpp:406] penlu7 <- Eltwise3
I1007 15:08:43.487932  4982 net.cpp:367] penlu7 -> Eltwise3 (in-place)
I1007 15:08:43.488037  4982 net.cpp:122] Setting up penlu7
I1007 15:08:43.488044  4982 net.cpp:129] Top shape: 100 16 28 28 (1254400)
I1007 15:08:43.488049  4982 net.cpp:137] Memory required for data: 186592400
I1007 15:08:43.488056  4982 layer_factory.hpp:77] Creating layer Eltwise3_penlu7_0_split
I1007 15:08:43.488064  4982 net.cpp:84] Creating Layer Eltwise3_penlu7_0_split
I1007 15:08:43.488068  4982 net.cpp:406] Eltwise3_penlu7_0_split <- Eltwise3
I1007 15:08:43.488075  4982 net.cpp:380] Eltwise3_penlu7_0_split -> Eltwise3_penlu7_0_split_0
I1007 15:08:43.488082  4982 net.cpp:380] Eltwise3_penlu7_0_split -> Eltwise3_penlu7_0_split_1
I1007 15:08:43.488109  4982 net.cpp:122] Setting up Eltwise3_penlu7_0_split
I1007 15:08:43.488116  4982 net.cpp:129] Top shape: 100 16 28 28 (1254400)
I1007 15:08:43.488121  4982 net.cpp:129] Top shape: 100 16 28 28 (1254400)
I1007 15:08:43.488126  4982 net.cpp:137] Memory required for data: 196627600
I1007 15:08:43.488129  4982 layer_factory.hpp:77] Creating layer Convolution8
I1007 15:08:43.488140  4982 net.cpp:84] Creating Layer Convolution8
I1007 15:08:43.488144  4982 net.cpp:406] Convolution8 <- Eltwise3_penlu7_0_split_0
I1007 15:08:43.488152  4982 net.cpp:380] Convolution8 -> Convolution8
I1007 15:08:43.488993  4982 net.cpp:122] Setting up Convolution8
I1007 15:08:43.489004  4982 net.cpp:129] Top shape: 100 16 28 28 (1254400)
I1007 15:08:43.489009  4982 net.cpp:137] Memory required for data: 201645200
I1007 15:08:43.489017  4982 layer_factory.hpp:77] Creating layer BatchNorm8
I1007 15:08:43.489027  4982 net.cpp:84] Creating Layer BatchNorm8
I1007 15:08:43.489032  4982 net.cpp:406] BatchNorm8 <- Convolution8
I1007 15:08:43.489038  4982 net.cpp:367] BatchNorm8 -> Convolution8 (in-place)
I1007 15:08:43.489176  4982 net.cpp:122] Setting up BatchNorm8
I1007 15:08:43.489184  4982 net.cpp:129] Top shape: 100 16 28 28 (1254400)
I1007 15:08:43.489188  4982 net.cpp:137] Memory required for data: 206662800
I1007 15:08:43.489197  4982 layer_factory.hpp:77] Creating layer Scale8
I1007 15:08:43.489204  4982 net.cpp:84] Creating Layer Scale8
I1007 15:08:43.489210  4982 net.cpp:406] Scale8 <- Convolution8
I1007 15:08:43.489217  4982 net.cpp:367] Scale8 -> Convolution8 (in-place)
I1007 15:08:43.489248  4982 layer_factory.hpp:77] Creating layer Scale8
I1007 15:08:43.489328  4982 net.cpp:122] Setting up Scale8
I1007 15:08:43.489336  4982 net.cpp:129] Top shape: 100 16 28 28 (1254400)
I1007 15:08:43.489341  4982 net.cpp:137] Memory required for data: 211680400
I1007 15:08:43.489348  4982 layer_factory.hpp:77] Creating layer penlu8
I1007 15:08:43.489356  4982 net.cpp:84] Creating Layer penlu8
I1007 15:08:43.489362  4982 net.cpp:406] penlu8 <- Convolution8
I1007 15:08:43.489368  4982 net.cpp:367] penlu8 -> Convolution8 (in-place)
I1007 15:08:43.489476  4982 net.cpp:122] Setting up penlu8
I1007 15:08:43.489483  4982 net.cpp:129] Top shape: 100 16 28 28 (1254400)
I1007 15:08:43.489488  4982 net.cpp:137] Memory required for data: 216698000
I1007 15:08:43.489496  4982 layer_factory.hpp:77] Creating layer Convolution9
I1007 15:08:43.489512  4982 net.cpp:84] Creating Layer Convolution9
I1007 15:08:43.489519  4982 net.cpp:406] Convolution9 <- Convolution8
I1007 15:08:43.489527  4982 net.cpp:380] Convolution9 -> Convolution9
I1007 15:08:43.490491  4982 net.cpp:122] Setting up Convolution9
I1007 15:08:43.490504  4982 net.cpp:129] Top shape: 100 16 28 28 (1254400)
I1007 15:08:43.490509  4982 net.cpp:137] Memory required for data: 221715600
I1007 15:08:43.490526  4982 layer_factory.hpp:77] Creating layer BatchNorm9
I1007 15:08:43.490535  4982 net.cpp:84] Creating Layer BatchNorm9
I1007 15:08:43.490550  4982 net.cpp:406] BatchNorm9 <- Convolution9
I1007 15:08:43.490567  4982 net.cpp:367] BatchNorm9 -> Convolution9 (in-place)
I1007 15:08:43.490701  4982 net.cpp:122] Setting up BatchNorm9
I1007 15:08:43.490710  4982 net.cpp:129] Top shape: 100 16 28 28 (1254400)
I1007 15:08:43.490713  4982 net.cpp:137] Memory required for data: 226733200
I1007 15:08:43.490722  4982 layer_factory.hpp:77] Creating layer Scale9
I1007 15:08:43.490731  4982 net.cpp:84] Creating Layer Scale9
I1007 15:08:43.490736  4982 net.cpp:406] Scale9 <- Convolution9
I1007 15:08:43.490743  4982 net.cpp:367] Scale9 -> Convolution9 (in-place)
I1007 15:08:43.490777  4982 layer_factory.hpp:77] Creating layer Scale9
I1007 15:08:43.490861  4982 net.cpp:122] Setting up Scale9
I1007 15:08:43.490869  4982 net.cpp:129] Top shape: 100 16 28 28 (1254400)
I1007 15:08:43.490873  4982 net.cpp:137] Memory required for data: 231750800
I1007 15:08:43.490880  4982 layer_factory.hpp:77] Creating layer Eltwise4
I1007 15:08:43.490887  4982 net.cpp:84] Creating Layer Eltwise4
I1007 15:08:43.490892  4982 net.cpp:406] Eltwise4 <- Eltwise3_penlu7_0_split_1
I1007 15:08:43.490898  4982 net.cpp:406] Eltwise4 <- Convolution9
I1007 15:08:43.490906  4982 net.cpp:380] Eltwise4 -> Eltwise4
I1007 15:08:43.490926  4982 net.cpp:122] Setting up Eltwise4
I1007 15:08:43.490933  4982 net.cpp:129] Top shape: 100 16 28 28 (1254400)
I1007 15:08:43.490937  4982 net.cpp:137] Memory required for data: 236768400
I1007 15:08:43.490943  4982 layer_factory.hpp:77] Creating layer penlu9
I1007 15:08:43.490952  4982 net.cpp:84] Creating Layer penlu9
I1007 15:08:43.490957  4982 net.cpp:406] penlu9 <- Eltwise4
I1007 15:08:43.490964  4982 net.cpp:367] penlu9 -> Eltwise4 (in-place)
I1007 15:08:43.491075  4982 net.cpp:122] Setting up penlu9
I1007 15:08:43.491081  4982 net.cpp:129] Top shape: 100 16 28 28 (1254400)
I1007 15:08:43.491086  4982 net.cpp:137] Memory required for data: 241786000
I1007 15:08:43.491093  4982 layer_factory.hpp:77] Creating layer Eltwise4_penlu9_0_split
I1007 15:08:43.491101  4982 net.cpp:84] Creating Layer Eltwise4_penlu9_0_split
I1007 15:08:43.491106  4982 net.cpp:406] Eltwise4_penlu9_0_split <- Eltwise4
I1007 15:08:43.491112  4982 net.cpp:380] Eltwise4_penlu9_0_split -> Eltwise4_penlu9_0_split_0
I1007 15:08:43.491120  4982 net.cpp:380] Eltwise4_penlu9_0_split -> Eltwise4_penlu9_0_split_1
I1007 15:08:43.491148  4982 net.cpp:122] Setting up Eltwise4_penlu9_0_split
I1007 15:08:43.491155  4982 net.cpp:129] Top shape: 100 16 28 28 (1254400)
I1007 15:08:43.491161  4982 net.cpp:129] Top shape: 100 16 28 28 (1254400)
I1007 15:08:43.491171  4982 net.cpp:137] Memory required for data: 251821200
I1007 15:08:43.491176  4982 layer_factory.hpp:77] Creating layer Convolution10
I1007 15:08:43.491186  4982 net.cpp:84] Creating Layer Convolution10
I1007 15:08:43.491190  4982 net.cpp:406] Convolution10 <- Eltwise4_penlu9_0_split_0
I1007 15:08:43.491197  4982 net.cpp:380] Convolution10 -> Convolution10
I1007 15:08:43.492267  4982 net.cpp:122] Setting up Convolution10
I1007 15:08:43.492282  4982 net.cpp:129] Top shape: 100 16 28 28 (1254400)
I1007 15:08:43.492287  4982 net.cpp:137] Memory required for data: 256838800
I1007 15:08:43.492295  4982 layer_factory.hpp:77] Creating layer BatchNorm10
I1007 15:08:43.492305  4982 net.cpp:84] Creating Layer BatchNorm10
I1007 15:08:43.492310  4982 net.cpp:406] BatchNorm10 <- Convolution10
I1007 15:08:43.492316  4982 net.cpp:367] BatchNorm10 -> Convolution10 (in-place)
I1007 15:08:43.492492  4982 net.cpp:122] Setting up BatchNorm10
I1007 15:08:43.492509  4982 net.cpp:129] Top shape: 100 16 28 28 (1254400)
I1007 15:08:43.492513  4982 net.cpp:137] Memory required for data: 261856400
I1007 15:08:43.492519  4982 layer_factory.hpp:77] Creating layer Scale10
I1007 15:08:43.492524  4982 net.cpp:84] Creating Layer Scale10
I1007 15:08:43.492527  4982 net.cpp:406] Scale10 <- Convolution10
I1007 15:08:43.492532  4982 net.cpp:367] Scale10 -> Convolution10 (in-place)
I1007 15:08:43.492559  4982 layer_factory.hpp:77] Creating layer Scale10
I1007 15:08:43.492635  4982 net.cpp:122] Setting up Scale10
I1007 15:08:43.492640  4982 net.cpp:129] Top shape: 100 16 28 28 (1254400)
I1007 15:08:43.492642  4982 net.cpp:137] Memory required for data: 266874000
I1007 15:08:43.492646  4982 layer_factory.hpp:77] Creating layer penlu10
I1007 15:08:43.492652  4982 net.cpp:84] Creating Layer penlu10
I1007 15:08:43.492655  4982 net.cpp:406] penlu10 <- Convolution10
I1007 15:08:43.492660  4982 net.cpp:367] penlu10 -> Convolution10 (in-place)
I1007 15:08:43.492763  4982 net.cpp:122] Setting up penlu10
I1007 15:08:43.492769  4982 net.cpp:129] Top shape: 100 16 28 28 (1254400)
I1007 15:08:43.492771  4982 net.cpp:137] Memory required for data: 271891600
I1007 15:08:43.492775  4982 layer_factory.hpp:77] Creating layer Convolution11
I1007 15:08:43.492782  4982 net.cpp:84] Creating Layer Convolution11
I1007 15:08:43.492786  4982 net.cpp:406] Convolution11 <- Convolution10
I1007 15:08:43.492790  4982 net.cpp:380] Convolution11 -> Convolution11
I1007 15:08:43.493661  4982 net.cpp:122] Setting up Convolution11
I1007 15:08:43.493672  4982 net.cpp:129] Top shape: 100 16 28 28 (1254400)
I1007 15:08:43.493675  4982 net.cpp:137] Memory required for data: 276909200
I1007 15:08:43.493680  4982 layer_factory.hpp:77] Creating layer BatchNorm11
I1007 15:08:43.493685  4982 net.cpp:84] Creating Layer BatchNorm11
I1007 15:08:43.493690  4982 net.cpp:406] BatchNorm11 <- Convolution11
I1007 15:08:43.493693  4982 net.cpp:367] BatchNorm11 -> Convolution11 (in-place)
I1007 15:08:43.493819  4982 net.cpp:122] Setting up BatchNorm11
I1007 15:08:43.493824  4982 net.cpp:129] Top shape: 100 16 28 28 (1254400)
I1007 15:08:43.493827  4982 net.cpp:137] Memory required for data: 281926800
I1007 15:08:43.493832  4982 layer_factory.hpp:77] Creating layer Scale11
I1007 15:08:43.493837  4982 net.cpp:84] Creating Layer Scale11
I1007 15:08:43.493840  4982 net.cpp:406] Scale11 <- Convolution11
I1007 15:08:43.493844  4982 net.cpp:367] Scale11 -> Convolution11 (in-place)
I1007 15:08:43.493868  4982 layer_factory.hpp:77] Creating layer Scale11
I1007 15:08:43.493942  4982 net.cpp:122] Setting up Scale11
I1007 15:08:43.493947  4982 net.cpp:129] Top shape: 100 16 28 28 (1254400)
I1007 15:08:43.493950  4982 net.cpp:137] Memory required for data: 286944400
I1007 15:08:43.493954  4982 layer_factory.hpp:77] Creating layer Eltwise5
I1007 15:08:43.493959  4982 net.cpp:84] Creating Layer Eltwise5
I1007 15:08:43.493963  4982 net.cpp:406] Eltwise5 <- Eltwise4_penlu9_0_split_1
I1007 15:08:43.493965  4982 net.cpp:406] Eltwise5 <- Convolution11
I1007 15:08:43.493969  4982 net.cpp:380] Eltwise5 -> Eltwise5
I1007 15:08:43.493985  4982 net.cpp:122] Setting up Eltwise5
I1007 15:08:43.493989  4982 net.cpp:129] Top shape: 100 16 28 28 (1254400)
I1007 15:08:43.493993  4982 net.cpp:137] Memory required for data: 291962000
I1007 15:08:43.493994  4982 layer_factory.hpp:77] Creating layer penlu11
I1007 15:08:43.493999  4982 net.cpp:84] Creating Layer penlu11
I1007 15:08:43.494002  4982 net.cpp:406] penlu11 <- Eltwise5
I1007 15:08:43.494006  4982 net.cpp:367] penlu11 -> Eltwise5 (in-place)
I1007 15:08:43.494112  4982 net.cpp:122] Setting up penlu11
I1007 15:08:43.494117  4982 net.cpp:129] Top shape: 100 16 28 28 (1254400)
I1007 15:08:43.494119  4982 net.cpp:137] Memory required for data: 296979600
I1007 15:08:43.494123  4982 layer_factory.hpp:77] Creating layer Eltwise5_penlu11_0_split
I1007 15:08:43.494127  4982 net.cpp:84] Creating Layer Eltwise5_penlu11_0_split
I1007 15:08:43.494130  4982 net.cpp:406] Eltwise5_penlu11_0_split <- Eltwise5
I1007 15:08:43.494141  4982 net.cpp:380] Eltwise5_penlu11_0_split -> Eltwise5_penlu11_0_split_0
I1007 15:08:43.494146  4982 net.cpp:380] Eltwise5_penlu11_0_split -> Eltwise5_penlu11_0_split_1
I1007 15:08:43.494170  4982 net.cpp:122] Setting up Eltwise5_penlu11_0_split
I1007 15:08:43.494175  4982 net.cpp:129] Top shape: 100 16 28 28 (1254400)
I1007 15:08:43.494179  4982 net.cpp:129] Top shape: 100 16 28 28 (1254400)
I1007 15:08:43.494180  4982 net.cpp:137] Memory required for data: 307014800
I1007 15:08:43.494184  4982 layer_factory.hpp:77] Creating layer Convolution12
I1007 15:08:43.494189  4982 net.cpp:84] Creating Layer Convolution12
I1007 15:08:43.494192  4982 net.cpp:406] Convolution12 <- Eltwise5_penlu11_0_split_0
I1007 15:08:43.494196  4982 net.cpp:380] Convolution12 -> Convolution12
I1007 15:08:43.495360  4982 net.cpp:122] Setting up Convolution12
I1007 15:08:43.495370  4982 net.cpp:129] Top shape: 100 32 14 14 (627200)
I1007 15:08:43.495374  4982 net.cpp:137] Memory required for data: 309523600
I1007 15:08:43.495379  4982 layer_factory.hpp:77] Creating layer BatchNorm12
I1007 15:08:43.495384  4982 net.cpp:84] Creating Layer BatchNorm12
I1007 15:08:43.495388  4982 net.cpp:406] BatchNorm12 <- Convolution12
I1007 15:08:43.495393  4982 net.cpp:367] BatchNorm12 -> Convolution12 (in-place)
I1007 15:08:43.495523  4982 net.cpp:122] Setting up BatchNorm12
I1007 15:08:43.495528  4982 net.cpp:129] Top shape: 100 32 14 14 (627200)
I1007 15:08:43.495532  4982 net.cpp:137] Memory required for data: 312032400
I1007 15:08:43.495537  4982 layer_factory.hpp:77] Creating layer Scale12
I1007 15:08:43.495542  4982 net.cpp:84] Creating Layer Scale12
I1007 15:08:43.495544  4982 net.cpp:406] Scale12 <- Convolution12
I1007 15:08:43.495548  4982 net.cpp:367] Scale12 -> Convolution12 (in-place)
I1007 15:08:43.495574  4982 layer_factory.hpp:77] Creating layer Scale12
I1007 15:08:43.495645  4982 net.cpp:122] Setting up Scale12
I1007 15:08:43.495649  4982 net.cpp:129] Top shape: 100 32 14 14 (627200)
I1007 15:08:43.495652  4982 net.cpp:137] Memory required for data: 314541200
I1007 15:08:43.495656  4982 layer_factory.hpp:77] Creating layer Convolution13
I1007 15:08:43.495663  4982 net.cpp:84] Creating Layer Convolution13
I1007 15:08:43.495667  4982 net.cpp:406] Convolution13 <- Eltwise5_penlu11_0_split_1
I1007 15:08:43.495671  4982 net.cpp:380] Convolution13 -> Convolution13
I1007 15:08:43.496902  4982 net.cpp:122] Setting up Convolution13
I1007 15:08:43.496912  4982 net.cpp:129] Top shape: 100 32 14 14 (627200)
I1007 15:08:43.496917  4982 net.cpp:137] Memory required for data: 317050000
I1007 15:08:43.496922  4982 layer_factory.hpp:77] Creating layer BatchNorm13
I1007 15:08:43.496927  4982 net.cpp:84] Creating Layer BatchNorm13
I1007 15:08:43.496930  4982 net.cpp:406] BatchNorm13 <- Convolution13
I1007 15:08:43.496934  4982 net.cpp:367] BatchNorm13 -> Convolution13 (in-place)
I1007 15:08:43.497061  4982 net.cpp:122] Setting up BatchNorm13
I1007 15:08:43.497067  4982 net.cpp:129] Top shape: 100 32 14 14 (627200)
I1007 15:08:43.497071  4982 net.cpp:137] Memory required for data: 319558800
I1007 15:08:43.497076  4982 layer_factory.hpp:77] Creating layer Scale13
I1007 15:08:43.497079  4982 net.cpp:84] Creating Layer Scale13
I1007 15:08:43.497083  4982 net.cpp:406] Scale13 <- Convolution13
I1007 15:08:43.497087  4982 net.cpp:367] Scale13 -> Convolution13 (in-place)
I1007 15:08:43.497112  4982 layer_factory.hpp:77] Creating layer Scale13
I1007 15:08:43.497184  4982 net.cpp:122] Setting up Scale13
I1007 15:08:43.497189  4982 net.cpp:129] Top shape: 100 32 14 14 (627200)
I1007 15:08:43.497191  4982 net.cpp:137] Memory required for data: 322067600
I1007 15:08:43.497195  4982 layer_factory.hpp:77] Creating layer penlu12
I1007 15:08:43.497201  4982 net.cpp:84] Creating Layer penlu12
I1007 15:08:43.497205  4982 net.cpp:406] penlu12 <- Convolution13
I1007 15:08:43.497208  4982 net.cpp:367] penlu12 -> Convolution13 (in-place)
I1007 15:08:43.497309  4982 net.cpp:122] Setting up penlu12
I1007 15:08:43.497314  4982 net.cpp:129] Top shape: 100 32 14 14 (627200)
I1007 15:08:43.497323  4982 net.cpp:137] Memory required for data: 324576400
I1007 15:08:43.497328  4982 layer_factory.hpp:77] Creating layer Convolution14
I1007 15:08:43.497335  4982 net.cpp:84] Creating Layer Convolution14
I1007 15:08:43.497339  4982 net.cpp:406] Convolution14 <- Convolution13
I1007 15:08:43.497344  4982 net.cpp:380] Convolution14 -> Convolution14
I1007 15:08:43.498368  4982 net.cpp:122] Setting up Convolution14
I1007 15:08:43.498379  4982 net.cpp:129] Top shape: 100 32 14 14 (627200)
I1007 15:08:43.498383  4982 net.cpp:137] Memory required for data: 327085200
I1007 15:08:43.498395  4982 layer_factory.hpp:77] Creating layer BatchNorm14
I1007 15:08:43.498404  4982 net.cpp:84] Creating Layer BatchNorm14
I1007 15:08:43.498407  4982 net.cpp:406] BatchNorm14 <- Convolution14
I1007 15:08:43.498411  4982 net.cpp:367] BatchNorm14 -> Convolution14 (in-place)
I1007 15:08:43.498536  4982 net.cpp:122] Setting up BatchNorm14
I1007 15:08:43.498541  4982 net.cpp:129] Top shape: 100 32 14 14 (627200)
I1007 15:08:43.498544  4982 net.cpp:137] Memory required for data: 329594000
I1007 15:08:43.498549  4982 layer_factory.hpp:77] Creating layer Scale14
I1007 15:08:43.498554  4982 net.cpp:84] Creating Layer Scale14
I1007 15:08:43.498558  4982 net.cpp:406] Scale14 <- Convolution14
I1007 15:08:43.498561  4982 net.cpp:367] Scale14 -> Convolution14 (in-place)
I1007 15:08:43.498586  4982 layer_factory.hpp:77] Creating layer Scale14
I1007 15:08:43.498657  4982 net.cpp:122] Setting up Scale14
I1007 15:08:43.498662  4982 net.cpp:129] Top shape: 100 32 14 14 (627200)
I1007 15:08:43.498666  4982 net.cpp:137] Memory required for data: 332102800
I1007 15:08:43.498669  4982 layer_factory.hpp:77] Creating layer Eltwise6
I1007 15:08:43.498674  4982 net.cpp:84] Creating Layer Eltwise6
I1007 15:08:43.498677  4982 net.cpp:406] Eltwise6 <- Convolution12
I1007 15:08:43.498680  4982 net.cpp:406] Eltwise6 <- Convolution14
I1007 15:08:43.498683  4982 net.cpp:380] Eltwise6 -> Eltwise6
I1007 15:08:43.498698  4982 net.cpp:122] Setting up Eltwise6
I1007 15:08:43.498703  4982 net.cpp:129] Top shape: 100 32 14 14 (627200)
I1007 15:08:43.498704  4982 net.cpp:137] Memory required for data: 334611600
I1007 15:08:43.498706  4982 layer_factory.hpp:77] Creating layer penlu13
I1007 15:08:43.498711  4982 net.cpp:84] Creating Layer penlu13
I1007 15:08:43.498713  4982 net.cpp:406] penlu13 <- Eltwise6
I1007 15:08:43.498718  4982 net.cpp:367] penlu13 -> Eltwise6 (in-place)
I1007 15:08:43.498817  4982 net.cpp:122] Setting up penlu13
I1007 15:08:43.498821  4982 net.cpp:129] Top shape: 100 32 14 14 (627200)
I1007 15:08:43.498823  4982 net.cpp:137] Memory required for data: 337120400
I1007 15:08:43.498828  4982 layer_factory.hpp:77] Creating layer Eltwise6_penlu13_0_split
I1007 15:08:43.498831  4982 net.cpp:84] Creating Layer Eltwise6_penlu13_0_split
I1007 15:08:43.498833  4982 net.cpp:406] Eltwise6_penlu13_0_split <- Eltwise6
I1007 15:08:43.498837  4982 net.cpp:380] Eltwise6_penlu13_0_split -> Eltwise6_penlu13_0_split_0
I1007 15:08:43.498842  4982 net.cpp:380] Eltwise6_penlu13_0_split -> Eltwise6_penlu13_0_split_1
I1007 15:08:43.498862  4982 net.cpp:122] Setting up Eltwise6_penlu13_0_split
I1007 15:08:43.498867  4982 net.cpp:129] Top shape: 100 32 14 14 (627200)
I1007 15:08:43.498869  4982 net.cpp:129] Top shape: 100 32 14 14 (627200)
I1007 15:08:43.498872  4982 net.cpp:137] Memory required for data: 342138000
I1007 15:08:43.498873  4982 layer_factory.hpp:77] Creating layer Convolution15
I1007 15:08:43.498879  4982 net.cpp:84] Creating Layer Convolution15
I1007 15:08:43.498883  4982 net.cpp:406] Convolution15 <- Eltwise6_penlu13_0_split_0
I1007 15:08:43.498885  4982 net.cpp:380] Convolution15 -> Convolution15
I1007 15:08:43.499904  4982 net.cpp:122] Setting up Convolution15
I1007 15:08:43.499913  4982 net.cpp:129] Top shape: 100 32 14 14 (627200)
I1007 15:08:43.499915  4982 net.cpp:137] Memory required for data: 344646800
I1007 15:08:43.499920  4982 layer_factory.hpp:77] Creating layer BatchNorm15
I1007 15:08:43.499925  4982 net.cpp:84] Creating Layer BatchNorm15
I1007 15:08:43.499934  4982 net.cpp:406] BatchNorm15 <- Convolution15
I1007 15:08:43.499939  4982 net.cpp:367] BatchNorm15 -> Convolution15 (in-place)
I1007 15:08:43.500062  4982 net.cpp:122] Setting up BatchNorm15
I1007 15:08:43.500066  4982 net.cpp:129] Top shape: 100 32 14 14 (627200)
I1007 15:08:43.500069  4982 net.cpp:137] Memory required for data: 347155600
I1007 15:08:43.500074  4982 layer_factory.hpp:77] Creating layer Scale15
I1007 15:08:43.500078  4982 net.cpp:84] Creating Layer Scale15
I1007 15:08:43.500080  4982 net.cpp:406] Scale15 <- Convolution15
I1007 15:08:43.500083  4982 net.cpp:367] Scale15 -> Convolution15 (in-place)
I1007 15:08:43.500108  4982 layer_factory.hpp:77] Creating layer Scale15
I1007 15:08:43.500178  4982 net.cpp:122] Setting up Scale15
I1007 15:08:43.500182  4982 net.cpp:129] Top shape: 100 32 14 14 (627200)
I1007 15:08:43.500185  4982 net.cpp:137] Memory required for data: 349664400
I1007 15:08:43.500188  4982 layer_factory.hpp:77] Creating layer penlu14
I1007 15:08:43.500195  4982 net.cpp:84] Creating Layer penlu14
I1007 15:08:43.500196  4982 net.cpp:406] penlu14 <- Convolution15
I1007 15:08:43.500200  4982 net.cpp:367] penlu14 -> Convolution15 (in-place)
I1007 15:08:43.500298  4982 net.cpp:122] Setting up penlu14
I1007 15:08:43.500303  4982 net.cpp:129] Top shape: 100 32 14 14 (627200)
I1007 15:08:43.500304  4982 net.cpp:137] Memory required for data: 352173200
I1007 15:08:43.500309  4982 layer_factory.hpp:77] Creating layer Convolution16
I1007 15:08:43.500315  4982 net.cpp:84] Creating Layer Convolution16
I1007 15:08:43.500318  4982 net.cpp:406] Convolution16 <- Convolution15
I1007 15:08:43.500321  4982 net.cpp:380] Convolution16 -> Convolution16
I1007 15:08:43.501327  4982 net.cpp:122] Setting up Convolution16
I1007 15:08:43.501335  4982 net.cpp:129] Top shape: 100 32 14 14 (627200)
I1007 15:08:43.501338  4982 net.cpp:137] Memory required for data: 354682000
I1007 15:08:43.501343  4982 layer_factory.hpp:77] Creating layer BatchNorm16
I1007 15:08:43.501348  4982 net.cpp:84] Creating Layer BatchNorm16
I1007 15:08:43.501351  4982 net.cpp:406] BatchNorm16 <- Convolution16
I1007 15:08:43.501354  4982 net.cpp:367] BatchNorm16 -> Convolution16 (in-place)
I1007 15:08:43.501478  4982 net.cpp:122] Setting up BatchNorm16
I1007 15:08:43.501483  4982 net.cpp:129] Top shape: 100 32 14 14 (627200)
I1007 15:08:43.501485  4982 net.cpp:137] Memory required for data: 357190800
I1007 15:08:43.501490  4982 layer_factory.hpp:77] Creating layer Scale16
I1007 15:08:43.501494  4982 net.cpp:84] Creating Layer Scale16
I1007 15:08:43.501497  4982 net.cpp:406] Scale16 <- Convolution16
I1007 15:08:43.501499  4982 net.cpp:367] Scale16 -> Convolution16 (in-place)
I1007 15:08:43.501524  4982 layer_factory.hpp:77] Creating layer Scale16
I1007 15:08:43.501595  4982 net.cpp:122] Setting up Scale16
I1007 15:08:43.501598  4982 net.cpp:129] Top shape: 100 32 14 14 (627200)
I1007 15:08:43.501601  4982 net.cpp:137] Memory required for data: 359699600
I1007 15:08:43.501605  4982 layer_factory.hpp:77] Creating layer Eltwise7
I1007 15:08:43.501610  4982 net.cpp:84] Creating Layer Eltwise7
I1007 15:08:43.501611  4982 net.cpp:406] Eltwise7 <- Eltwise6_penlu13_0_split_1
I1007 15:08:43.501615  4982 net.cpp:406] Eltwise7 <- Convolution16
I1007 15:08:43.501617  4982 net.cpp:380] Eltwise7 -> Eltwise7
I1007 15:08:43.501632  4982 net.cpp:122] Setting up Eltwise7
I1007 15:08:43.501636  4982 net.cpp:129] Top shape: 100 32 14 14 (627200)
I1007 15:08:43.501638  4982 net.cpp:137] Memory required for data: 362208400
I1007 15:08:43.501641  4982 layer_factory.hpp:77] Creating layer penlu15
I1007 15:08:43.501646  4982 net.cpp:84] Creating Layer penlu15
I1007 15:08:43.501647  4982 net.cpp:406] penlu15 <- Eltwise7
I1007 15:08:43.501652  4982 net.cpp:367] penlu15 -> Eltwise7 (in-place)
I1007 15:08:43.501751  4982 net.cpp:122] Setting up penlu15
I1007 15:08:43.501755  4982 net.cpp:129] Top shape: 100 32 14 14 (627200)
I1007 15:08:43.501757  4982 net.cpp:137] Memory required for data: 364717200
I1007 15:08:43.501761  4982 layer_factory.hpp:77] Creating layer Eltwise7_penlu15_0_split
I1007 15:08:43.501772  4982 net.cpp:84] Creating Layer Eltwise7_penlu15_0_split
I1007 15:08:43.501775  4982 net.cpp:406] Eltwise7_penlu15_0_split <- Eltwise7
I1007 15:08:43.501778  4982 net.cpp:380] Eltwise7_penlu15_0_split -> Eltwise7_penlu15_0_split_0
I1007 15:08:43.501782  4982 net.cpp:380] Eltwise7_penlu15_0_split -> Eltwise7_penlu15_0_split_1
I1007 15:08:43.501806  4982 net.cpp:122] Setting up Eltwise7_penlu15_0_split
I1007 15:08:43.501809  4982 net.cpp:129] Top shape: 100 32 14 14 (627200)
I1007 15:08:43.501812  4982 net.cpp:129] Top shape: 100 32 14 14 (627200)
I1007 15:08:43.501814  4982 net.cpp:137] Memory required for data: 369734800
I1007 15:08:43.501816  4982 layer_factory.hpp:77] Creating layer Convolution17
I1007 15:08:43.501822  4982 net.cpp:84] Creating Layer Convolution17
I1007 15:08:43.501824  4982 net.cpp:406] Convolution17 <- Eltwise7_penlu15_0_split_0
I1007 15:08:43.501828  4982 net.cpp:380] Convolution17 -> Convolution17
I1007 15:08:43.502508  4982 net.cpp:122] Setting up Convolution17
I1007 15:08:43.502516  4982 net.cpp:129] Top shape: 100 32 14 14 (627200)
I1007 15:08:43.502517  4982 net.cpp:137] Memory required for data: 372243600
I1007 15:08:43.502522  4982 layer_factory.hpp:77] Creating layer BatchNorm17
I1007 15:08:43.502526  4982 net.cpp:84] Creating Layer BatchNorm17
I1007 15:08:43.502528  4982 net.cpp:406] BatchNorm17 <- Convolution17
I1007 15:08:43.502532  4982 net.cpp:367] BatchNorm17 -> Convolution17 (in-place)
I1007 15:08:43.502650  4982 net.cpp:122] Setting up BatchNorm17
I1007 15:08:43.502655  4982 net.cpp:129] Top shape: 100 32 14 14 (627200)
I1007 15:08:43.502657  4982 net.cpp:137] Memory required for data: 374752400
I1007 15:08:43.502661  4982 layer_factory.hpp:77] Creating layer Scale17
I1007 15:08:43.502665  4982 net.cpp:84] Creating Layer Scale17
I1007 15:08:43.502668  4982 net.cpp:406] Scale17 <- Convolution17
I1007 15:08:43.502671  4982 net.cpp:367] Scale17 -> Convolution17 (in-place)
I1007 15:08:43.502696  4982 layer_factory.hpp:77] Creating layer Scale17
I1007 15:08:43.502764  4982 net.cpp:122] Setting up Scale17
I1007 15:08:43.502768  4982 net.cpp:129] Top shape: 100 32 14 14 (627200)
I1007 15:08:43.502770  4982 net.cpp:137] Memory required for data: 377261200
I1007 15:08:43.502774  4982 layer_factory.hpp:77] Creating layer penlu16
I1007 15:08:43.502779  4982 net.cpp:84] Creating Layer penlu16
I1007 15:08:43.502781  4982 net.cpp:406] penlu16 <- Convolution17
I1007 15:08:43.502785  4982 net.cpp:367] penlu16 -> Convolution17 (in-place)
I1007 15:08:43.502881  4982 net.cpp:122] Setting up penlu16
I1007 15:08:43.502885  4982 net.cpp:129] Top shape: 100 32 14 14 (627200)
I1007 15:08:43.502887  4982 net.cpp:137] Memory required for data: 379770000
I1007 15:08:43.502892  4982 layer_factory.hpp:77] Creating layer Convolution18
I1007 15:08:43.502897  4982 net.cpp:84] Creating Layer Convolution18
I1007 15:08:43.502900  4982 net.cpp:406] Convolution18 <- Convolution17
I1007 15:08:43.502903  4982 net.cpp:380] Convolution18 -> Convolution18
I1007 15:08:43.503912  4982 net.cpp:122] Setting up Convolution18
I1007 15:08:43.503921  4982 net.cpp:129] Top shape: 100 32 14 14 (627200)
I1007 15:08:43.503924  4982 net.cpp:137] Memory required for data: 382278800
I1007 15:08:43.503929  4982 layer_factory.hpp:77] Creating layer BatchNorm18
I1007 15:08:43.503933  4982 net.cpp:84] Creating Layer BatchNorm18
I1007 15:08:43.503937  4982 net.cpp:406] BatchNorm18 <- Convolution18
I1007 15:08:43.503939  4982 net.cpp:367] BatchNorm18 -> Convolution18 (in-place)
I1007 15:08:43.504060  4982 net.cpp:122] Setting up BatchNorm18
I1007 15:08:43.504065  4982 net.cpp:129] Top shape: 100 32 14 14 (627200)
I1007 15:08:43.504067  4982 net.cpp:137] Memory required for data: 384787600
I1007 15:08:43.504071  4982 layer_factory.hpp:77] Creating layer Scale18
I1007 15:08:43.504076  4982 net.cpp:84] Creating Layer Scale18
I1007 15:08:43.504078  4982 net.cpp:406] Scale18 <- Convolution18
I1007 15:08:43.504081  4982 net.cpp:367] Scale18 -> Convolution18 (in-place)
I1007 15:08:43.504113  4982 layer_factory.hpp:77] Creating layer Scale18
I1007 15:08:43.504184  4982 net.cpp:122] Setting up Scale18
I1007 15:08:43.504189  4982 net.cpp:129] Top shape: 100 32 14 14 (627200)
I1007 15:08:43.504190  4982 net.cpp:137] Memory required for data: 387296400
I1007 15:08:43.504194  4982 layer_factory.hpp:77] Creating layer Eltwise8
I1007 15:08:43.504197  4982 net.cpp:84] Creating Layer Eltwise8
I1007 15:08:43.504200  4982 net.cpp:406] Eltwise8 <- Eltwise7_penlu15_0_split_1
I1007 15:08:43.504204  4982 net.cpp:406] Eltwise8 <- Convolution18
I1007 15:08:43.504206  4982 net.cpp:380] Eltwise8 -> Eltwise8
I1007 15:08:43.504221  4982 net.cpp:122] Setting up Eltwise8
I1007 15:08:43.504225  4982 net.cpp:129] Top shape: 100 32 14 14 (627200)
I1007 15:08:43.504226  4982 net.cpp:137] Memory required for data: 389805200
I1007 15:08:43.504228  4982 layer_factory.hpp:77] Creating layer penlu17
I1007 15:08:43.504233  4982 net.cpp:84] Creating Layer penlu17
I1007 15:08:43.504236  4982 net.cpp:406] penlu17 <- Eltwise8
I1007 15:08:43.504240  4982 net.cpp:367] penlu17 -> Eltwise8 (in-place)
I1007 15:08:43.504338  4982 net.cpp:122] Setting up penlu17
I1007 15:08:43.504341  4982 net.cpp:129] Top shape: 100 32 14 14 (627200)
I1007 15:08:43.504343  4982 net.cpp:137] Memory required for data: 392314000
I1007 15:08:43.504348  4982 layer_factory.hpp:77] Creating layer Eltwise8_penlu17_0_split
I1007 15:08:43.504351  4982 net.cpp:84] Creating Layer Eltwise8_penlu17_0_split
I1007 15:08:43.504354  4982 net.cpp:406] Eltwise8_penlu17_0_split <- Eltwise8
I1007 15:08:43.504356  4982 net.cpp:380] Eltwise8_penlu17_0_split -> Eltwise8_penlu17_0_split_0
I1007 15:08:43.504360  4982 net.cpp:380] Eltwise8_penlu17_0_split -> Eltwise8_penlu17_0_split_1
I1007 15:08:43.504382  4982 net.cpp:122] Setting up Eltwise8_penlu17_0_split
I1007 15:08:43.504386  4982 net.cpp:129] Top shape: 100 32 14 14 (627200)
I1007 15:08:43.504389  4982 net.cpp:129] Top shape: 100 32 14 14 (627200)
I1007 15:08:43.504390  4982 net.cpp:137] Memory required for data: 397331600
I1007 15:08:43.504393  4982 layer_factory.hpp:77] Creating layer Convolution19
I1007 15:08:43.504398  4982 net.cpp:84] Creating Layer Convolution19
I1007 15:08:43.504401  4982 net.cpp:406] Convolution19 <- Eltwise8_penlu17_0_split_0
I1007 15:08:43.504415  4982 net.cpp:380] Convolution19 -> Convolution19
I1007 15:08:43.505784  4982 net.cpp:122] Setting up Convolution19
I1007 15:08:43.505792  4982 net.cpp:129] Top shape: 100 32 14 14 (627200)
I1007 15:08:43.505795  4982 net.cpp:137] Memory required for data: 399840400
I1007 15:08:43.505800  4982 layer_factory.hpp:77] Creating layer BatchNorm19
I1007 15:08:43.505805  4982 net.cpp:84] Creating Layer BatchNorm19
I1007 15:08:43.505807  4982 net.cpp:406] BatchNorm19 <- Convolution19
I1007 15:08:43.505813  4982 net.cpp:367] BatchNorm19 -> Convolution19 (in-place)
I1007 15:08:43.505976  4982 net.cpp:122] Setting up BatchNorm19
I1007 15:08:43.505985  4982 net.cpp:129] Top shape: 100 32 14 14 (627200)
I1007 15:08:43.505986  4982 net.cpp:137] Memory required for data: 402349200
I1007 15:08:43.505992  4982 layer_factory.hpp:77] Creating layer Scale19
I1007 15:08:43.505996  4982 net.cpp:84] Creating Layer Scale19
I1007 15:08:43.506000  4982 net.cpp:406] Scale19 <- Convolution19
I1007 15:08:43.506002  4982 net.cpp:367] Scale19 -> Convolution19 (in-place)
I1007 15:08:43.506029  4982 layer_factory.hpp:77] Creating layer Scale19
I1007 15:08:43.506110  4982 net.cpp:122] Setting up Scale19
I1007 15:08:43.506115  4982 net.cpp:129] Top shape: 100 32 14 14 (627200)
I1007 15:08:43.506117  4982 net.cpp:137] Memory required for data: 404858000
I1007 15:08:43.506121  4982 layer_factory.hpp:77] Creating layer penlu18
I1007 15:08:43.506126  4982 net.cpp:84] Creating Layer penlu18
I1007 15:08:43.506129  4982 net.cpp:406] penlu18 <- Convolution19
I1007 15:08:43.506132  4982 net.cpp:367] penlu18 -> Convolution19 (in-place)
I1007 15:08:43.506237  4982 net.cpp:122] Setting up penlu18
I1007 15:08:43.506242  4982 net.cpp:129] Top shape: 100 32 14 14 (627200)
I1007 15:08:43.506243  4982 net.cpp:137] Memory required for data: 407366800
I1007 15:08:43.506253  4982 layer_factory.hpp:77] Creating layer Convolution20
I1007 15:08:43.506260  4982 net.cpp:84] Creating Layer Convolution20
I1007 15:08:43.506263  4982 net.cpp:406] Convolution20 <- Convolution19
I1007 15:08:43.506266  4982 net.cpp:380] Convolution20 -> Convolution20
I1007 15:08:43.507375  4982 net.cpp:122] Setting up Convolution20
I1007 15:08:43.507385  4982 net.cpp:129] Top shape: 100 32 14 14 (627200)
I1007 15:08:43.507400  4982 net.cpp:137] Memory required for data: 409875600
I1007 15:08:43.507403  4982 layer_factory.hpp:77] Creating layer BatchNorm20
I1007 15:08:43.507410  4982 net.cpp:84] Creating Layer BatchNorm20
I1007 15:08:43.507412  4982 net.cpp:406] BatchNorm20 <- Convolution20
I1007 15:08:43.507416  4982 net.cpp:367] BatchNorm20 -> Convolution20 (in-place)
I1007 15:08:43.507551  4982 net.cpp:122] Setting up BatchNorm20
I1007 15:08:43.507556  4982 net.cpp:129] Top shape: 100 32 14 14 (627200)
I1007 15:08:43.507558  4982 net.cpp:137] Memory required for data: 412384400
I1007 15:08:43.507573  4982 layer_factory.hpp:77] Creating layer Scale20
I1007 15:08:43.507578  4982 net.cpp:84] Creating Layer Scale20
I1007 15:08:43.507580  4982 net.cpp:406] Scale20 <- Convolution20
I1007 15:08:43.507583  4982 net.cpp:367] Scale20 -> Convolution20 (in-place)
I1007 15:08:43.507618  4982 layer_factory.hpp:77] Creating layer Scale20
I1007 15:08:43.507691  4982 net.cpp:122] Setting up Scale20
I1007 15:08:43.507695  4982 net.cpp:129] Top shape: 100 32 14 14 (627200)
I1007 15:08:43.507697  4982 net.cpp:137] Memory required for data: 414893200
I1007 15:08:43.507701  4982 layer_factory.hpp:77] Creating layer Eltwise9
I1007 15:08:43.507704  4982 net.cpp:84] Creating Layer Eltwise9
I1007 15:08:43.507707  4982 net.cpp:406] Eltwise9 <- Eltwise8_penlu17_0_split_1
I1007 15:08:43.507709  4982 net.cpp:406] Eltwise9 <- Convolution20
I1007 15:08:43.507714  4982 net.cpp:380] Eltwise9 -> Eltwise9
I1007 15:08:43.507728  4982 net.cpp:122] Setting up Eltwise9
I1007 15:08:43.507731  4982 net.cpp:129] Top shape: 100 32 14 14 (627200)
I1007 15:08:43.507733  4982 net.cpp:137] Memory required for data: 417402000
I1007 15:08:43.507735  4982 layer_factory.hpp:77] Creating layer penlu19
I1007 15:08:43.507740  4982 net.cpp:84] Creating Layer penlu19
I1007 15:08:43.507743  4982 net.cpp:406] penlu19 <- Eltwise9
I1007 15:08:43.507746  4982 net.cpp:367] penlu19 -> Eltwise9 (in-place)
I1007 15:08:43.507845  4982 net.cpp:122] Setting up penlu19
I1007 15:08:43.507849  4982 net.cpp:129] Top shape: 100 32 14 14 (627200)
I1007 15:08:43.507851  4982 net.cpp:137] Memory required for data: 419910800
I1007 15:08:43.507855  4982 layer_factory.hpp:77] Creating layer Eltwise9_penlu19_0_split
I1007 15:08:43.507859  4982 net.cpp:84] Creating Layer Eltwise9_penlu19_0_split
I1007 15:08:43.507861  4982 net.cpp:406] Eltwise9_penlu19_0_split <- Eltwise9
I1007 15:08:43.507864  4982 net.cpp:380] Eltwise9_penlu19_0_split -> Eltwise9_penlu19_0_split_0
I1007 15:08:43.507869  4982 net.cpp:380] Eltwise9_penlu19_0_split -> Eltwise9_penlu19_0_split_1
I1007 15:08:43.507889  4982 net.cpp:122] Setting up Eltwise9_penlu19_0_split
I1007 15:08:43.507892  4982 net.cpp:129] Top shape: 100 32 14 14 (627200)
I1007 15:08:43.507895  4982 net.cpp:129] Top shape: 100 32 14 14 (627200)
I1007 15:08:43.507897  4982 net.cpp:137] Memory required for data: 424928400
I1007 15:08:43.507899  4982 layer_factory.hpp:77] Creating layer Convolution21
I1007 15:08:43.507906  4982 net.cpp:84] Creating Layer Convolution21
I1007 15:08:43.507908  4982 net.cpp:406] Convolution21 <- Eltwise9_penlu19_0_split_0
I1007 15:08:43.507912  4982 net.cpp:380] Convolution21 -> Convolution21
I1007 15:08:43.509474  4982 net.cpp:122] Setting up Convolution21
I1007 15:08:43.509483  4982 net.cpp:129] Top shape: 100 32 14 14 (627200)
I1007 15:08:43.509486  4982 net.cpp:137] Memory required for data: 427437200
I1007 15:08:43.509491  4982 layer_factory.hpp:77] Creating layer BatchNorm21
I1007 15:08:43.509496  4982 net.cpp:84] Creating Layer BatchNorm21
I1007 15:08:43.509516  4982 net.cpp:406] BatchNorm21 <- Convolution21
I1007 15:08:43.509521  4982 net.cpp:367] BatchNorm21 -> Convolution21 (in-place)
I1007 15:08:43.509651  4982 net.cpp:122] Setting up BatchNorm21
I1007 15:08:43.509656  4982 net.cpp:129] Top shape: 100 32 14 14 (627200)
I1007 15:08:43.509658  4982 net.cpp:137] Memory required for data: 429946000
I1007 15:08:43.509663  4982 layer_factory.hpp:77] Creating layer Scale21
I1007 15:08:43.509667  4982 net.cpp:84] Creating Layer Scale21
I1007 15:08:43.509670  4982 net.cpp:406] Scale21 <- Convolution21
I1007 15:08:43.509672  4982 net.cpp:367] Scale21 -> Convolution21 (in-place)
I1007 15:08:43.509698  4982 layer_factory.hpp:77] Creating layer Scale21
I1007 15:08:43.509771  4982 net.cpp:122] Setting up Scale21
I1007 15:08:43.509775  4982 net.cpp:129] Top shape: 100 32 14 14 (627200)
I1007 15:08:43.509778  4982 net.cpp:137] Memory required for data: 432454800
I1007 15:08:43.509781  4982 layer_factory.hpp:77] Creating layer penlu20
I1007 15:08:43.509786  4982 net.cpp:84] Creating Layer penlu20
I1007 15:08:43.509788  4982 net.cpp:406] penlu20 <- Convolution21
I1007 15:08:43.509793  4982 net.cpp:367] penlu20 -> Convolution21 (in-place)
I1007 15:08:43.509896  4982 net.cpp:122] Setting up penlu20
I1007 15:08:43.509901  4982 net.cpp:129] Top shape: 100 32 14 14 (627200)
I1007 15:08:43.509902  4982 net.cpp:137] Memory required for data: 434963600
I1007 15:08:43.509907  4982 layer_factory.hpp:77] Creating layer Convolution22
I1007 15:08:43.509913  4982 net.cpp:84] Creating Layer Convolution22
I1007 15:08:43.509915  4982 net.cpp:406] Convolution22 <- Convolution21
I1007 15:08:43.509920  4982 net.cpp:380] Convolution22 -> Convolution22
I1007 15:08:43.510946  4982 net.cpp:122] Setting up Convolution22
I1007 15:08:43.510954  4982 net.cpp:129] Top shape: 100 32 14 14 (627200)
I1007 15:08:43.510957  4982 net.cpp:137] Memory required for data: 437472400
I1007 15:08:43.510962  4982 layer_factory.hpp:77] Creating layer BatchNorm22
I1007 15:08:43.510968  4982 net.cpp:84] Creating Layer BatchNorm22
I1007 15:08:43.510970  4982 net.cpp:406] BatchNorm22 <- Convolution22
I1007 15:08:43.510974  4982 net.cpp:367] BatchNorm22 -> Convolution22 (in-place)
I1007 15:08:43.511102  4982 net.cpp:122] Setting up BatchNorm22
I1007 15:08:43.511106  4982 net.cpp:129] Top shape: 100 32 14 14 (627200)
I1007 15:08:43.511108  4982 net.cpp:137] Memory required for data: 439981200
I1007 15:08:43.511113  4982 layer_factory.hpp:77] Creating layer Scale22
I1007 15:08:43.511117  4982 net.cpp:84] Creating Layer Scale22
I1007 15:08:43.511119  4982 net.cpp:406] Scale22 <- Convolution22
I1007 15:08:43.511122  4982 net.cpp:367] Scale22 -> Convolution22 (in-place)
I1007 15:08:43.511148  4982 layer_factory.hpp:77] Creating layer Scale22
I1007 15:08:43.511248  4982 net.cpp:122] Setting up Scale22
I1007 15:08:43.511253  4982 net.cpp:129] Top shape: 100 32 14 14 (627200)
I1007 15:08:43.511255  4982 net.cpp:137] Memory required for data: 442490000
I1007 15:08:43.511260  4982 layer_factory.hpp:77] Creating layer Eltwise10
I1007 15:08:43.511263  4982 net.cpp:84] Creating Layer Eltwise10
I1007 15:08:43.511266  4982 net.cpp:406] Eltwise10 <- Eltwise9_penlu19_0_split_1
I1007 15:08:43.511270  4982 net.cpp:406] Eltwise10 <- Convolution22
I1007 15:08:43.511272  4982 net.cpp:380] Eltwise10 -> Eltwise10
I1007 15:08:43.511288  4982 net.cpp:122] Setting up Eltwise10
I1007 15:08:43.511291  4982 net.cpp:129] Top shape: 100 32 14 14 (627200)
I1007 15:08:43.511293  4982 net.cpp:137] Memory required for data: 444998800
I1007 15:08:43.511296  4982 layer_factory.hpp:77] Creating layer penlu21
I1007 15:08:43.511301  4982 net.cpp:84] Creating Layer penlu21
I1007 15:08:43.511303  4982 net.cpp:406] penlu21 <- Eltwise10
I1007 15:08:43.511307  4982 net.cpp:367] penlu21 -> Eltwise10 (in-place)
I1007 15:08:43.511409  4982 net.cpp:122] Setting up penlu21
I1007 15:08:43.511415  4982 net.cpp:129] Top shape: 100 32 14 14 (627200)
I1007 15:08:43.511415  4982 net.cpp:137] Memory required for data: 447507600
I1007 15:08:43.511420  4982 layer_factory.hpp:77] Creating layer Eltwise10_penlu21_0_split
I1007 15:08:43.511430  4982 net.cpp:84] Creating Layer Eltwise10_penlu21_0_split
I1007 15:08:43.511433  4982 net.cpp:406] Eltwise10_penlu21_0_split <- Eltwise10
I1007 15:08:43.511437  4982 net.cpp:380] Eltwise10_penlu21_0_split -> Eltwise10_penlu21_0_split_0
I1007 15:08:43.511441  4982 net.cpp:380] Eltwise10_penlu21_0_split -> Eltwise10_penlu21_0_split_1
I1007 15:08:43.511463  4982 net.cpp:122] Setting up Eltwise10_penlu21_0_split
I1007 15:08:43.511468  4982 net.cpp:129] Top shape: 100 32 14 14 (627200)
I1007 15:08:43.511471  4982 net.cpp:129] Top shape: 100 32 14 14 (627200)
I1007 15:08:43.511473  4982 net.cpp:137] Memory required for data: 452525200
I1007 15:08:43.511476  4982 layer_factory.hpp:77] Creating layer Convolution23
I1007 15:08:43.511481  4982 net.cpp:84] Creating Layer Convolution23
I1007 15:08:43.511483  4982 net.cpp:406] Convolution23 <- Eltwise10_penlu21_0_split_0
I1007 15:08:43.511487  4982 net.cpp:380] Convolution23 -> Convolution23
I1007 15:08:43.512351  4982 net.cpp:122] Setting up Convolution23
I1007 15:08:43.512359  4982 net.cpp:129] Top shape: 100 64 7 7 (313600)
I1007 15:08:43.512362  4982 net.cpp:137] Memory required for data: 453779600
I1007 15:08:43.512365  4982 layer_factory.hpp:77] Creating layer BatchNorm23
I1007 15:08:43.512372  4982 net.cpp:84] Creating Layer BatchNorm23
I1007 15:08:43.512374  4982 net.cpp:406] BatchNorm23 <- Convolution23
I1007 15:08:43.512377  4982 net.cpp:367] BatchNorm23 -> Convolution23 (in-place)
I1007 15:08:43.512506  4982 net.cpp:122] Setting up BatchNorm23
I1007 15:08:43.512509  4982 net.cpp:129] Top shape: 100 64 7 7 (313600)
I1007 15:08:43.512511  4982 net.cpp:137] Memory required for data: 455034000
I1007 15:08:43.512516  4982 layer_factory.hpp:77] Creating layer Scale23
I1007 15:08:43.512519  4982 net.cpp:84] Creating Layer Scale23
I1007 15:08:43.512522  4982 net.cpp:406] Scale23 <- Convolution23
I1007 15:08:43.512526  4982 net.cpp:367] Scale23 -> Convolution23 (in-place)
I1007 15:08:43.512552  4982 layer_factory.hpp:77] Creating layer Scale23
I1007 15:08:43.512624  4982 net.cpp:122] Setting up Scale23
I1007 15:08:43.512627  4982 net.cpp:129] Top shape: 100 64 7 7 (313600)
I1007 15:08:43.512629  4982 net.cpp:137] Memory required for data: 456288400
I1007 15:08:43.512634  4982 layer_factory.hpp:77] Creating layer Convolution24
I1007 15:08:43.512639  4982 net.cpp:84] Creating Layer Convolution24
I1007 15:08:43.512642  4982 net.cpp:406] Convolution24 <- Eltwise10_penlu21_0_split_1
I1007 15:08:43.512646  4982 net.cpp:380] Convolution24 -> Convolution24
I1007 15:08:43.514361  4982 net.cpp:122] Setting up Convolution24
I1007 15:08:43.514369  4982 net.cpp:129] Top shape: 100 64 7 7 (313600)
I1007 15:08:43.514372  4982 net.cpp:137] Memory required for data: 457542800
I1007 15:08:43.514376  4982 layer_factory.hpp:77] Creating layer BatchNorm24
I1007 15:08:43.514381  4982 net.cpp:84] Creating Layer BatchNorm24
I1007 15:08:43.514384  4982 net.cpp:406] BatchNorm24 <- Convolution24
I1007 15:08:43.514389  4982 net.cpp:367] BatchNorm24 -> Convolution24 (in-place)
I1007 15:08:43.514519  4982 net.cpp:122] Setting up BatchNorm24
I1007 15:08:43.514524  4982 net.cpp:129] Top shape: 100 64 7 7 (313600)
I1007 15:08:43.514526  4982 net.cpp:137] Memory required for data: 458797200
I1007 15:08:43.514530  4982 layer_factory.hpp:77] Creating layer Scale24
I1007 15:08:43.514534  4982 net.cpp:84] Creating Layer Scale24
I1007 15:08:43.514538  4982 net.cpp:406] Scale24 <- Convolution24
I1007 15:08:43.514540  4982 net.cpp:367] Scale24 -> Convolution24 (in-place)
I1007 15:08:43.514577  4982 layer_factory.hpp:77] Creating layer Scale24
I1007 15:08:43.514662  4982 net.cpp:122] Setting up Scale24
I1007 15:08:43.514667  4982 net.cpp:129] Top shape: 100 64 7 7 (313600)
I1007 15:08:43.514668  4982 net.cpp:137] Memory required for data: 460051600
I1007 15:08:43.514672  4982 layer_factory.hpp:77] Creating layer penlu22
I1007 15:08:43.514678  4982 net.cpp:84] Creating Layer penlu22
I1007 15:08:43.514679  4982 net.cpp:406] penlu22 <- Convolution24
I1007 15:08:43.514683  4982 net.cpp:367] penlu22 -> Convolution24 (in-place)
I1007 15:08:43.514796  4982 net.cpp:122] Setting up penlu22
I1007 15:08:43.514801  4982 net.cpp:129] Top shape: 100 64 7 7 (313600)
I1007 15:08:43.514802  4982 net.cpp:137] Memory required for data: 461306000
I1007 15:08:43.514806  4982 layer_factory.hpp:77] Creating layer Convolution25
I1007 15:08:43.514813  4982 net.cpp:84] Creating Layer Convolution25
I1007 15:08:43.514816  4982 net.cpp:406] Convolution25 <- Convolution24
I1007 15:08:43.514819  4982 net.cpp:380] Convolution25 -> Convolution25
I1007 15:08:43.516752  4982 net.cpp:122] Setting up Convolution25
I1007 15:08:43.516759  4982 net.cpp:129] Top shape: 100 64 7 7 (313600)
I1007 15:08:43.516762  4982 net.cpp:137] Memory required for data: 462560400
I1007 15:08:43.516767  4982 layer_factory.hpp:77] Creating layer BatchNorm25
I1007 15:08:43.516772  4982 net.cpp:84] Creating Layer BatchNorm25
I1007 15:08:43.516773  4982 net.cpp:406] BatchNorm25 <- Convolution25
I1007 15:08:43.516778  4982 net.cpp:367] BatchNorm25 -> Convolution25 (in-place)
I1007 15:08:43.516912  4982 net.cpp:122] Setting up BatchNorm25
I1007 15:08:43.516917  4982 net.cpp:129] Top shape: 100 64 7 7 (313600)
I1007 15:08:43.516919  4982 net.cpp:137] Memory required for data: 463814800
I1007 15:08:43.516924  4982 layer_factory.hpp:77] Creating layer Scale25
I1007 15:08:43.516928  4982 net.cpp:84] Creating Layer Scale25
I1007 15:08:43.516930  4982 net.cpp:406] Scale25 <- Convolution25
I1007 15:08:43.516934  4982 net.cpp:367] Scale25 -> Convolution25 (in-place)
I1007 15:08:43.516959  4982 layer_factory.hpp:77] Creating layer Scale25
I1007 15:08:43.517035  4982 net.cpp:122] Setting up Scale25
I1007 15:08:43.517040  4982 net.cpp:129] Top shape: 100 64 7 7 (313600)
I1007 15:08:43.517041  4982 net.cpp:137] Memory required for data: 465069200
I1007 15:08:43.517045  4982 layer_factory.hpp:77] Creating layer Eltwise11
I1007 15:08:43.517048  4982 net.cpp:84] Creating Layer Eltwise11
I1007 15:08:43.517051  4982 net.cpp:406] Eltwise11 <- Convolution23
I1007 15:08:43.517053  4982 net.cpp:406] Eltwise11 <- Convolution25
I1007 15:08:43.517057  4982 net.cpp:380] Eltwise11 -> Eltwise11
I1007 15:08:43.517073  4982 net.cpp:122] Setting up Eltwise11
I1007 15:08:43.517076  4982 net.cpp:129] Top shape: 100 64 7 7 (313600)
I1007 15:08:43.517078  4982 net.cpp:137] Memory required for data: 466323600
I1007 15:08:43.517081  4982 layer_factory.hpp:77] Creating layer penlu23
I1007 15:08:43.517086  4982 net.cpp:84] Creating Layer penlu23
I1007 15:08:43.517087  4982 net.cpp:406] penlu23 <- Eltwise11
I1007 15:08:43.517091  4982 net.cpp:367] penlu23 -> Eltwise11 (in-place)
I1007 15:08:43.517197  4982 net.cpp:122] Setting up penlu23
I1007 15:08:43.517202  4982 net.cpp:129] Top shape: 100 64 7 7 (313600)
I1007 15:08:43.517204  4982 net.cpp:137] Memory required for data: 467578000
I1007 15:08:43.517208  4982 layer_factory.hpp:77] Creating layer Eltwise11_penlu23_0_split
I1007 15:08:43.517211  4982 net.cpp:84] Creating Layer Eltwise11_penlu23_0_split
I1007 15:08:43.517213  4982 net.cpp:406] Eltwise11_penlu23_0_split <- Eltwise11
I1007 15:08:43.517217  4982 net.cpp:380] Eltwise11_penlu23_0_split -> Eltwise11_penlu23_0_split_0
I1007 15:08:43.517221  4982 net.cpp:380] Eltwise11_penlu23_0_split -> Eltwise11_penlu23_0_split_1
I1007 15:08:43.517243  4982 net.cpp:122] Setting up Eltwise11_penlu23_0_split
I1007 15:08:43.517247  4982 net.cpp:129] Top shape: 100 64 7 7 (313600)
I1007 15:08:43.517249  4982 net.cpp:129] Top shape: 100 64 7 7 (313600)
I1007 15:08:43.517251  4982 net.cpp:137] Memory required for data: 470086800
I1007 15:08:43.517253  4982 layer_factory.hpp:77] Creating layer Convolution26
I1007 15:08:43.517261  4982 net.cpp:84] Creating Layer Convolution26
I1007 15:08:43.517262  4982 net.cpp:406] Convolution26 <- Eltwise11_penlu23_0_split_0
I1007 15:08:43.517266  4982 net.cpp:380] Convolution26 -> Convolution26
I1007 15:08:43.518875  4982 net.cpp:122] Setting up Convolution26
I1007 15:08:43.518884  4982 net.cpp:129] Top shape: 100 64 7 7 (313600)
I1007 15:08:43.518887  4982 net.cpp:137] Memory required for data: 471341200
I1007 15:08:43.518898  4982 layer_factory.hpp:77] Creating layer BatchNorm26
I1007 15:08:43.518903  4982 net.cpp:84] Creating Layer BatchNorm26
I1007 15:08:43.518905  4982 net.cpp:406] BatchNorm26 <- Convolution26
I1007 15:08:43.518909  4982 net.cpp:367] BatchNorm26 -> Convolution26 (in-place)
I1007 15:08:43.519040  4982 net.cpp:122] Setting up BatchNorm26
I1007 15:08:43.519045  4982 net.cpp:129] Top shape: 100 64 7 7 (313600)
I1007 15:08:43.519047  4982 net.cpp:137] Memory required for data: 472595600
I1007 15:08:43.519052  4982 layer_factory.hpp:77] Creating layer Scale26
I1007 15:08:43.519057  4982 net.cpp:84] Creating Layer Scale26
I1007 15:08:43.519059  4982 net.cpp:406] Scale26 <- Convolution26
I1007 15:08:43.519062  4982 net.cpp:367] Scale26 -> Convolution26 (in-place)
I1007 15:08:43.519089  4982 layer_factory.hpp:77] Creating layer Scale26
I1007 15:08:43.519168  4982 net.cpp:122] Setting up Scale26
I1007 15:08:43.519184  4982 net.cpp:129] Top shape: 100 64 7 7 (313600)
I1007 15:08:43.519186  4982 net.cpp:137] Memory required for data: 473850000
I1007 15:08:43.519189  4982 layer_factory.hpp:77] Creating layer penlu24
I1007 15:08:43.519196  4982 net.cpp:84] Creating Layer penlu24
I1007 15:08:43.519198  4982 net.cpp:406] penlu24 <- Convolution26
I1007 15:08:43.519202  4982 net.cpp:367] penlu24 -> Convolution26 (in-place)
I1007 15:08:43.519317  4982 net.cpp:122] Setting up penlu24
I1007 15:08:43.519321  4982 net.cpp:129] Top shape: 100 64 7 7 (313600)
I1007 15:08:43.519323  4982 net.cpp:137] Memory required for data: 475104400
I1007 15:08:43.519327  4982 layer_factory.hpp:77] Creating layer Convolution27
I1007 15:08:43.519335  4982 net.cpp:84] Creating Layer Convolution27
I1007 15:08:43.519336  4982 net.cpp:406] Convolution27 <- Convolution26
I1007 15:08:43.519340  4982 net.cpp:380] Convolution27 -> Convolution27
I1007 15:08:43.520939  4982 net.cpp:122] Setting up Convolution27
I1007 15:08:43.520947  4982 net.cpp:129] Top shape: 100 64 7 7 (313600)
I1007 15:08:43.520951  4982 net.cpp:137] Memory required for data: 476358800
I1007 15:08:43.520956  4982 layer_factory.hpp:77] Creating layer BatchNorm27
I1007 15:08:43.520961  4982 net.cpp:84] Creating Layer BatchNorm27
I1007 15:08:43.520962  4982 net.cpp:406] BatchNorm27 <- Convolution27
I1007 15:08:43.520967  4982 net.cpp:367] BatchNorm27 -> Convolution27 (in-place)
I1007 15:08:43.521100  4982 net.cpp:122] Setting up BatchNorm27
I1007 15:08:43.521104  4982 net.cpp:129] Top shape: 100 64 7 7 (313600)
I1007 15:08:43.521106  4982 net.cpp:137] Memory required for data: 477613200
I1007 15:08:43.521131  4982 layer_factory.hpp:77] Creating layer Scale27
I1007 15:08:43.521143  4982 net.cpp:84] Creating Layer Scale27
I1007 15:08:43.521145  4982 net.cpp:406] Scale27 <- Convolution27
I1007 15:08:43.521148  4982 net.cpp:367] Scale27 -> Convolution27 (in-place)
I1007 15:08:43.521178  4982 layer_factory.hpp:77] Creating layer Scale27
I1007 15:08:43.521253  4982 net.cpp:122] Setting up Scale27
I1007 15:08:43.521257  4982 net.cpp:129] Top shape: 100 64 7 7 (313600)
I1007 15:08:43.521260  4982 net.cpp:137] Memory required for data: 478867600
I1007 15:08:43.521263  4982 layer_factory.hpp:77] Creating layer Eltwise12
I1007 15:08:43.521267  4982 net.cpp:84] Creating Layer Eltwise12
I1007 15:08:43.521270  4982 net.cpp:406] Eltwise12 <- Eltwise11_penlu23_0_split_1
I1007 15:08:43.521272  4982 net.cpp:406] Eltwise12 <- Convolution27
I1007 15:08:43.521276  4982 net.cpp:380] Eltwise12 -> Eltwise12
I1007 15:08:43.521294  4982 net.cpp:122] Setting up Eltwise12
I1007 15:08:43.521299  4982 net.cpp:129] Top shape: 100 64 7 7 (313600)
I1007 15:08:43.521301  4982 net.cpp:137] Memory required for data: 480122000
I1007 15:08:43.521303  4982 layer_factory.hpp:77] Creating layer penlu25
I1007 15:08:43.521307  4982 net.cpp:84] Creating Layer penlu25
I1007 15:08:43.521311  4982 net.cpp:406] penlu25 <- Eltwise12
I1007 15:08:43.521314  4982 net.cpp:367] penlu25 -> Eltwise12 (in-place)
I1007 15:08:43.521420  4982 net.cpp:122] Setting up penlu25
I1007 15:08:43.521425  4982 net.cpp:129] Top shape: 100 64 7 7 (313600)
I1007 15:08:43.521433  4982 net.cpp:137] Memory required for data: 481376400
I1007 15:08:43.521438  4982 layer_factory.hpp:77] Creating layer Eltwise12_penlu25_0_split
I1007 15:08:43.521442  4982 net.cpp:84] Creating Layer Eltwise12_penlu25_0_split
I1007 15:08:43.521445  4982 net.cpp:406] Eltwise12_penlu25_0_split <- Eltwise12
I1007 15:08:43.521447  4982 net.cpp:380] Eltwise12_penlu25_0_split -> Eltwise12_penlu25_0_split_0
I1007 15:08:43.521451  4982 net.cpp:380] Eltwise12_penlu25_0_split -> Eltwise12_penlu25_0_split_1
I1007 15:08:43.521476  4982 net.cpp:122] Setting up Eltwise12_penlu25_0_split
I1007 15:08:43.521478  4982 net.cpp:129] Top shape: 100 64 7 7 (313600)
I1007 15:08:43.521481  4982 net.cpp:129] Top shape: 100 64 7 7 (313600)
I1007 15:08:43.521483  4982 net.cpp:137] Memory required for data: 483885200
I1007 15:08:43.521486  4982 layer_factory.hpp:77] Creating layer Convolution28
I1007 15:08:43.521492  4982 net.cpp:84] Creating Layer Convolution28
I1007 15:08:43.521494  4982 net.cpp:406] Convolution28 <- Eltwise12_penlu25_0_split_0
I1007 15:08:43.521497  4982 net.cpp:380] Convolution28 -> Convolution28
I1007 15:08:43.523103  4982 net.cpp:122] Setting up Convolution28
I1007 15:08:43.523113  4982 net.cpp:129] Top shape: 100 64 7 7 (313600)
I1007 15:08:43.523115  4982 net.cpp:137] Memory required for data: 485139600
I1007 15:08:43.523119  4982 layer_factory.hpp:77] Creating layer BatchNorm28
I1007 15:08:43.523123  4982 net.cpp:84] Creating Layer BatchNorm28
I1007 15:08:43.523126  4982 net.cpp:406] BatchNorm28 <- Convolution28
I1007 15:08:43.523130  4982 net.cpp:367] BatchNorm28 -> Convolution28 (in-place)
I1007 15:08:43.523288  4982 net.cpp:122] Setting up BatchNorm28
I1007 15:08:43.523294  4982 net.cpp:129] Top shape: 100 64 7 7 (313600)
I1007 15:08:43.523296  4982 net.cpp:137] Memory required for data: 486394000
I1007 15:08:43.523300  4982 layer_factory.hpp:77] Creating layer Scale28
I1007 15:08:43.523304  4982 net.cpp:84] Creating Layer Scale28
I1007 15:08:43.523308  4982 net.cpp:406] Scale28 <- Convolution28
I1007 15:08:43.523311  4982 net.cpp:367] Scale28 -> Convolution28 (in-place)
I1007 15:08:43.523336  4982 layer_factory.hpp:77] Creating layer Scale28
I1007 15:08:43.523412  4982 net.cpp:122] Setting up Scale28
I1007 15:08:43.523416  4982 net.cpp:129] Top shape: 100 64 7 7 (313600)
I1007 15:08:43.523418  4982 net.cpp:137] Memory required for data: 487648400
I1007 15:08:43.523422  4982 layer_factory.hpp:77] Creating layer penlu26
I1007 15:08:43.523428  4982 net.cpp:84] Creating Layer penlu26
I1007 15:08:43.523430  4982 net.cpp:406] penlu26 <- Convolution28
I1007 15:08:43.523434  4982 net.cpp:367] penlu26 -> Convolution28 (in-place)
I1007 15:08:43.523543  4982 net.cpp:122] Setting up penlu26
I1007 15:08:43.523548  4982 net.cpp:129] Top shape: 100 64 7 7 (313600)
I1007 15:08:43.523550  4982 net.cpp:137] Memory required for data: 488902800
I1007 15:08:43.523555  4982 layer_factory.hpp:77] Creating layer Convolution29
I1007 15:08:43.523561  4982 net.cpp:84] Creating Layer Convolution29
I1007 15:08:43.523563  4982 net.cpp:406] Convolution29 <- Convolution28
I1007 15:08:43.523567  4982 net.cpp:380] Convolution29 -> Convolution29
I1007 15:08:43.525481  4982 net.cpp:122] Setting up Convolution29
I1007 15:08:43.525490  4982 net.cpp:129] Top shape: 100 64 7 7 (313600)
I1007 15:08:43.525492  4982 net.cpp:137] Memory required for data: 490157200
I1007 15:08:43.525496  4982 layer_factory.hpp:77] Creating layer BatchNorm29
I1007 15:08:43.525501  4982 net.cpp:84] Creating Layer BatchNorm29
I1007 15:08:43.525504  4982 net.cpp:406] BatchNorm29 <- Convolution29
I1007 15:08:43.525507  4982 net.cpp:367] BatchNorm29 -> Convolution29 (in-place)
I1007 15:08:43.525646  4982 net.cpp:122] Setting up BatchNorm29
I1007 15:08:43.525650  4982 net.cpp:129] Top shape: 100 64 7 7 (313600)
I1007 15:08:43.525652  4982 net.cpp:137] Memory required for data: 491411600
I1007 15:08:43.525657  4982 layer_factory.hpp:77] Creating layer Scale29
I1007 15:08:43.525661  4982 net.cpp:84] Creating Layer Scale29
I1007 15:08:43.525671  4982 net.cpp:406] Scale29 <- Convolution29
I1007 15:08:43.525674  4982 net.cpp:367] Scale29 -> Convolution29 (in-place)
I1007 15:08:43.525702  4982 layer_factory.hpp:77] Creating layer Scale29
I1007 15:08:43.525780  4982 net.cpp:122] Setting up Scale29
I1007 15:08:43.525784  4982 net.cpp:129] Top shape: 100 64 7 7 (313600)
I1007 15:08:43.525786  4982 net.cpp:137] Memory required for data: 492666000
I1007 15:08:43.525790  4982 layer_factory.hpp:77] Creating layer Eltwise13
I1007 15:08:43.525794  4982 net.cpp:84] Creating Layer Eltwise13
I1007 15:08:43.525797  4982 net.cpp:406] Eltwise13 <- Eltwise12_penlu25_0_split_1
I1007 15:08:43.525799  4982 net.cpp:406] Eltwise13 <- Convolution29
I1007 15:08:43.525802  4982 net.cpp:380] Eltwise13 -> Eltwise13
I1007 15:08:43.525818  4982 net.cpp:122] Setting up Eltwise13
I1007 15:08:43.525822  4982 net.cpp:129] Top shape: 100 64 7 7 (313600)
I1007 15:08:43.525825  4982 net.cpp:137] Memory required for data: 493920400
I1007 15:08:43.525826  4982 layer_factory.hpp:77] Creating layer penlu27
I1007 15:08:43.525831  4982 net.cpp:84] Creating Layer penlu27
I1007 15:08:43.525835  4982 net.cpp:406] penlu27 <- Eltwise13
I1007 15:08:43.525837  4982 net.cpp:367] penlu27 -> Eltwise13 (in-place)
I1007 15:08:43.525946  4982 net.cpp:122] Setting up penlu27
I1007 15:08:43.525950  4982 net.cpp:129] Top shape: 100 64 7 7 (313600)
I1007 15:08:43.525952  4982 net.cpp:137] Memory required for data: 495174800
I1007 15:08:43.525957  4982 layer_factory.hpp:77] Creating layer Eltwise13_penlu27_0_split
I1007 15:08:43.525960  4982 net.cpp:84] Creating Layer Eltwise13_penlu27_0_split
I1007 15:08:43.525962  4982 net.cpp:406] Eltwise13_penlu27_0_split <- Eltwise13
I1007 15:08:43.525965  4982 net.cpp:380] Eltwise13_penlu27_0_split -> Eltwise13_penlu27_0_split_0
I1007 15:08:43.525969  4982 net.cpp:380] Eltwise13_penlu27_0_split -> Eltwise13_penlu27_0_split_1
I1007 15:08:43.525992  4982 net.cpp:122] Setting up Eltwise13_penlu27_0_split
I1007 15:08:43.525996  4982 net.cpp:129] Top shape: 100 64 7 7 (313600)
I1007 15:08:43.525998  4982 net.cpp:129] Top shape: 100 64 7 7 (313600)
I1007 15:08:43.526000  4982 net.cpp:137] Memory required for data: 497683600
I1007 15:08:43.526002  4982 layer_factory.hpp:77] Creating layer Convolution30
I1007 15:08:43.526008  4982 net.cpp:84] Creating Layer Convolution30
I1007 15:08:43.526010  4982 net.cpp:406] Convolution30 <- Eltwise13_penlu27_0_split_0
I1007 15:08:43.526015  4982 net.cpp:380] Convolution30 -> Convolution30
I1007 15:08:43.527657  4982 net.cpp:122] Setting up Convolution30
I1007 15:08:43.527664  4982 net.cpp:129] Top shape: 100 64 7 7 (313600)
I1007 15:08:43.527667  4982 net.cpp:137] Memory required for data: 498938000
I1007 15:08:43.527671  4982 layer_factory.hpp:77] Creating layer BatchNorm30
I1007 15:08:43.527678  4982 net.cpp:84] Creating Layer BatchNorm30
I1007 15:08:43.527680  4982 net.cpp:406] BatchNorm30 <- Convolution30
I1007 15:08:43.527683  4982 net.cpp:367] BatchNorm30 -> Convolution30 (in-place)
I1007 15:08:43.527818  4982 net.cpp:122] Setting up BatchNorm30
I1007 15:08:43.527823  4982 net.cpp:129] Top shape: 100 64 7 7 (313600)
I1007 15:08:43.527825  4982 net.cpp:137] Memory required for data: 500192400
I1007 15:08:43.527829  4982 layer_factory.hpp:77] Creating layer Scale30
I1007 15:08:43.527833  4982 net.cpp:84] Creating Layer Scale30
I1007 15:08:43.527837  4982 net.cpp:406] Scale30 <- Convolution30
I1007 15:08:43.527839  4982 net.cpp:367] Scale30 -> Convolution30 (in-place)
I1007 15:08:43.527868  4982 layer_factory.hpp:77] Creating layer Scale30
I1007 15:08:43.527945  4982 net.cpp:122] Setting up Scale30
I1007 15:08:43.527950  4982 net.cpp:129] Top shape: 100 64 7 7 (313600)
I1007 15:08:43.527951  4982 net.cpp:137] Memory required for data: 501446800
I1007 15:08:43.527956  4982 layer_factory.hpp:77] Creating layer penlu28
I1007 15:08:43.527961  4982 net.cpp:84] Creating Layer penlu28
I1007 15:08:43.527963  4982 net.cpp:406] penlu28 <- Convolution30
I1007 15:08:43.527967  4982 net.cpp:367] penlu28 -> Convolution30 (in-place)
I1007 15:08:43.528084  4982 net.cpp:122] Setting up penlu28
I1007 15:08:43.528089  4982 net.cpp:129] Top shape: 100 64 7 7 (313600)
I1007 15:08:43.528090  4982 net.cpp:137] Memory required for data: 502701200
I1007 15:08:43.528095  4982 layer_factory.hpp:77] Creating layer Convolution31
I1007 15:08:43.528101  4982 net.cpp:84] Creating Layer Convolution31
I1007 15:08:43.528105  4982 net.cpp:406] Convolution31 <- Convolution30
I1007 15:08:43.528108  4982 net.cpp:380] Convolution31 -> Convolution31
I1007 15:08:43.530037  4982 net.cpp:122] Setting up Convolution31
I1007 15:08:43.530045  4982 net.cpp:129] Top shape: 100 64 7 7 (313600)
I1007 15:08:43.530048  4982 net.cpp:137] Memory required for data: 503955600
I1007 15:08:43.530052  4982 layer_factory.hpp:77] Creating layer BatchNorm31
I1007 15:08:43.530057  4982 net.cpp:84] Creating Layer BatchNorm31
I1007 15:08:43.530061  4982 net.cpp:406] BatchNorm31 <- Convolution31
I1007 15:08:43.530064  4982 net.cpp:367] BatchNorm31 -> Convolution31 (in-place)
I1007 15:08:43.530202  4982 net.cpp:122] Setting up BatchNorm31
I1007 15:08:43.530206  4982 net.cpp:129] Top shape: 100 64 7 7 (313600)
I1007 15:08:43.530210  4982 net.cpp:137] Memory required for data: 505210000
I1007 15:08:43.530213  4982 layer_factory.hpp:77] Creating layer Scale31
I1007 15:08:43.530218  4982 net.cpp:84] Creating Layer Scale31
I1007 15:08:43.530221  4982 net.cpp:406] Scale31 <- Convolution31
I1007 15:08:43.530225  4982 net.cpp:367] Scale31 -> Convolution31 (in-place)
I1007 15:08:43.530251  4982 layer_factory.hpp:77] Creating layer Scale31
I1007 15:08:43.530328  4982 net.cpp:122] Setting up Scale31
I1007 15:08:43.530333  4982 net.cpp:129] Top shape: 100 64 7 7 (313600)
I1007 15:08:43.530334  4982 net.cpp:137] Memory required for data: 506464400
I1007 15:08:43.530339  4982 layer_factory.hpp:77] Creating layer Eltwise14
I1007 15:08:43.530342  4982 net.cpp:84] Creating Layer Eltwise14
I1007 15:08:43.530345  4982 net.cpp:406] Eltwise14 <- Eltwise13_penlu27_0_split_1
I1007 15:08:43.530347  4982 net.cpp:406] Eltwise14 <- Convolution31
I1007 15:08:43.530351  4982 net.cpp:380] Eltwise14 -> Eltwise14
I1007 15:08:43.530367  4982 net.cpp:122] Setting up Eltwise14
I1007 15:08:43.530370  4982 net.cpp:129] Top shape: 100 64 7 7 (313600)
I1007 15:08:43.530372  4982 net.cpp:137] Memory required for data: 507718800
I1007 15:08:43.530375  4982 layer_factory.hpp:77] Creating layer penlu29
I1007 15:08:43.530380  4982 net.cpp:84] Creating Layer penlu29
I1007 15:08:43.530382  4982 net.cpp:406] penlu29 <- Eltwise14
I1007 15:08:43.530385  4982 net.cpp:367] penlu29 -> Eltwise14 (in-place)
I1007 15:08:43.530493  4982 net.cpp:122] Setting up penlu29
I1007 15:08:43.530498  4982 net.cpp:129] Top shape: 100 64 7 7 (313600)
I1007 15:08:43.530500  4982 net.cpp:137] Memory required for data: 508973200
I1007 15:08:43.530504  4982 layer_factory.hpp:77] Creating layer Eltwise14_penlu29_0_split
I1007 15:08:43.530508  4982 net.cpp:84] Creating Layer Eltwise14_penlu29_0_split
I1007 15:08:43.530510  4982 net.cpp:406] Eltwise14_penlu29_0_split <- Eltwise14
I1007 15:08:43.530514  4982 net.cpp:380] Eltwise14_penlu29_0_split -> Eltwise14_penlu29_0_split_0
I1007 15:08:43.530519  4982 net.cpp:380] Eltwise14_penlu29_0_split -> Eltwise14_penlu29_0_split_1
I1007 15:08:43.530540  4982 net.cpp:122] Setting up Eltwise14_penlu29_0_split
I1007 15:08:43.530544  4982 net.cpp:129] Top shape: 100 64 7 7 (313600)
I1007 15:08:43.530546  4982 net.cpp:129] Top shape: 100 64 7 7 (313600)
I1007 15:08:43.530549  4982 net.cpp:137] Memory required for data: 511482000
I1007 15:08:43.530551  4982 layer_factory.hpp:77] Creating layer Convolution32
I1007 15:08:43.530557  4982 net.cpp:84] Creating Layer Convolution32
I1007 15:08:43.530560  4982 net.cpp:406] Convolution32 <- Eltwise14_penlu29_0_split_0
I1007 15:08:43.530563  4982 net.cpp:380] Convolution32 -> Convolution32
I1007 15:08:43.532212  4982 net.cpp:122] Setting up Convolution32
I1007 15:08:43.532219  4982 net.cpp:129] Top shape: 100 64 7 7 (313600)
I1007 15:08:43.532222  4982 net.cpp:137] Memory required for data: 512736400
I1007 15:08:43.532233  4982 layer_factory.hpp:77] Creating layer BatchNorm32
I1007 15:08:43.532238  4982 net.cpp:84] Creating Layer BatchNorm32
I1007 15:08:43.532243  4982 net.cpp:406] BatchNorm32 <- Convolution32
I1007 15:08:43.532245  4982 net.cpp:367] BatchNorm32 -> Convolution32 (in-place)
I1007 15:08:43.532384  4982 net.cpp:122] Setting up BatchNorm32
I1007 15:08:43.532388  4982 net.cpp:129] Top shape: 100 64 7 7 (313600)
I1007 15:08:43.532390  4982 net.cpp:137] Memory required for data: 513990800
I1007 15:08:43.532395  4982 layer_factory.hpp:77] Creating layer Scale32
I1007 15:08:43.532400  4982 net.cpp:84] Creating Layer Scale32
I1007 15:08:43.532402  4982 net.cpp:406] Scale32 <- Convolution32
I1007 15:08:43.532405  4982 net.cpp:367] Scale32 -> Convolution32 (in-place)
I1007 15:08:43.532433  4982 layer_factory.hpp:77] Creating layer Scale32
I1007 15:08:43.532510  4982 net.cpp:122] Setting up Scale32
I1007 15:08:43.532515  4982 net.cpp:129] Top shape: 100 64 7 7 (313600)
I1007 15:08:43.532516  4982 net.cpp:137] Memory required for data: 515245200
I1007 15:08:43.532521  4982 layer_factory.hpp:77] Creating layer penlu30
I1007 15:08:43.532526  4982 net.cpp:84] Creating Layer penlu30
I1007 15:08:43.532528  4982 net.cpp:406] penlu30 <- Convolution32
I1007 15:08:43.532531  4982 net.cpp:367] penlu30 -> Convolution32 (in-place)
I1007 15:08:43.532639  4982 net.cpp:122] Setting up penlu30
I1007 15:08:43.532642  4982 net.cpp:129] Top shape: 100 64 7 7 (313600)
I1007 15:08:43.532644  4982 net.cpp:137] Memory required for data: 516499600
I1007 15:08:43.532649  4982 layer_factory.hpp:77] Creating layer Convolution33
I1007 15:08:43.532655  4982 net.cpp:84] Creating Layer Convolution33
I1007 15:08:43.532657  4982 net.cpp:406] Convolution33 <- Convolution32
I1007 15:08:43.532661  4982 net.cpp:380] Convolution33 -> Convolution33
I1007 15:08:43.534591  4982 net.cpp:122] Setting up Convolution33
I1007 15:08:43.534600  4982 net.cpp:129] Top shape: 100 64 7 7 (313600)
I1007 15:08:43.534602  4982 net.cpp:137] Memory required for data: 517754000
I1007 15:08:43.534607  4982 layer_factory.hpp:77] Creating layer BatchNorm33
I1007 15:08:43.534611  4982 net.cpp:84] Creating Layer BatchNorm33
I1007 15:08:43.534615  4982 net.cpp:406] BatchNorm33 <- Convolution33
I1007 15:08:43.534618  4982 net.cpp:367] BatchNorm33 -> Convolution33 (in-place)
I1007 15:08:43.534756  4982 net.cpp:122] Setting up BatchNorm33
I1007 15:08:43.534761  4982 net.cpp:129] Top shape: 100 64 7 7 (313600)
I1007 15:08:43.534763  4982 net.cpp:137] Memory required for data: 519008400
I1007 15:08:43.534767  4982 layer_factory.hpp:77] Creating layer Scale33
I1007 15:08:43.534771  4982 net.cpp:84] Creating Layer Scale33
I1007 15:08:43.534775  4982 net.cpp:406] Scale33 <- Convolution33
I1007 15:08:43.534777  4982 net.cpp:367] Scale33 -> Convolution33 (in-place)
I1007 15:08:43.534804  4982 layer_factory.hpp:77] Creating layer Scale33
I1007 15:08:43.534883  4982 net.cpp:122] Setting up Scale33
I1007 15:08:43.534888  4982 net.cpp:129] Top shape: 100 64 7 7 (313600)
I1007 15:08:43.534889  4982 net.cpp:137] Memory required for data: 520262800
I1007 15:08:43.534893  4982 layer_factory.hpp:77] Creating layer Eltwise15
I1007 15:08:43.534896  4982 net.cpp:84] Creating Layer Eltwise15
I1007 15:08:43.534899  4982 net.cpp:406] Eltwise15 <- Eltwise14_penlu29_0_split_1
I1007 15:08:43.534903  4982 net.cpp:406] Eltwise15 <- Convolution33
I1007 15:08:43.534906  4982 net.cpp:380] Eltwise15 -> Eltwise15
I1007 15:08:43.534921  4982 net.cpp:122] Setting up Eltwise15
I1007 15:08:43.534926  4982 net.cpp:129] Top shape: 100 64 7 7 (313600)
I1007 15:08:43.534929  4982 net.cpp:137] Memory required for data: 521517200
I1007 15:08:43.534930  4982 layer_factory.hpp:77] Creating layer penlu31
I1007 15:08:43.534934  4982 net.cpp:84] Creating Layer penlu31
I1007 15:08:43.534936  4982 net.cpp:406] penlu31 <- Eltwise15
I1007 15:08:43.534941  4982 net.cpp:367] penlu31 -> Eltwise15 (in-place)
I1007 15:08:43.535048  4982 net.cpp:122] Setting up penlu31
I1007 15:08:43.535053  4982 net.cpp:129] Top shape: 100 64 7 7 (313600)
I1007 15:08:43.535060  4982 net.cpp:137] Memory required for data: 522771600
I1007 15:08:43.535065  4982 layer_factory.hpp:77] Creating layer Pooling1
I1007 15:08:43.535069  4982 net.cpp:84] Creating Layer Pooling1
I1007 15:08:43.535073  4982 net.cpp:406] Pooling1 <- Eltwise15
I1007 15:08:43.535075  4982 net.cpp:380] Pooling1 -> Pooling1
I1007 15:08:43.535248  4982 net.cpp:122] Setting up Pooling1
I1007 15:08:43.535254  4982 net.cpp:129] Top shape: 100 64 1 1 (6400)
I1007 15:08:43.535257  4982 net.cpp:137] Memory required for data: 522797200
I1007 15:08:43.535259  4982 layer_factory.hpp:77] Creating layer InnerProduct1
I1007 15:08:43.535269  4982 net.cpp:84] Creating Layer InnerProduct1
I1007 15:08:43.535271  4982 net.cpp:406] InnerProduct1 <- Pooling1
I1007 15:08:43.535275  4982 net.cpp:380] InnerProduct1 -> InnerProduct1
I1007 15:08:43.535368  4982 net.cpp:122] Setting up InnerProduct1
I1007 15:08:43.535372  4982 net.cpp:129] Top shape: 100 10 (1000)
I1007 15:08:43.535374  4982 net.cpp:137] Memory required for data: 522801200
I1007 15:08:43.535378  4982 layer_factory.hpp:77] Creating layer SoftmaxWithLoss1
I1007 15:08:43.535383  4982 net.cpp:84] Creating Layer SoftmaxWithLoss1
I1007 15:08:43.535385  4982 net.cpp:406] SoftmaxWithLoss1 <- InnerProduct1
I1007 15:08:43.535388  4982 net.cpp:406] SoftmaxWithLoss1 <- Data2
I1007 15:08:43.535392  4982 net.cpp:380] SoftmaxWithLoss1 -> SoftmaxWithLoss1
…
I1007 15:08:43.539041  4982 net.cpp:294] The NetState phase (1) differed from the phase (0) specified by a rule in layer Data1
I1007 15:08:43.539814  4982 net.cpp:51] Initializing net from parameters: 
name: "resnet_cifar10"
state {
  phase: TEST
}
layer {
  name: "Data1"
  type: "Data"
  top: "Data1"
  top: "Data2"
  include {
    phase: TEST
  }
  transform_param {
    mean_file: "/home/x306/caffe/xn/PENLU/data/cifar10/mean.binaryproto"
  }
  data_param {
    source: "/home/x306/caffe/xn/PENLU/data/cifar10/cifar10_test_lmdb"
    batch_size: 100
    backend: LMDB
  }
}
layer {
  name: "Convolution1"
  type: "Convolution"
  bottom: "Data1"
  top: "Convolution1"
  param {
    lr_mult: 1
    decay_mult: 1
  }
  param {
    lr_mult: 2
    decay_mult: 0
  }
  convolution_param {
    num_output: 16
    pad: 1
    kernel_size: 3
    stride: 1
    weight_filler {
      type: "gaussian"
      std: 0.118
    }
    bias_filler {
      type: "constant"
      value: 0
    }
  }
}
layer {
  name: "BatchNorm1"
  type: "BatchNorm"
  bottom: "Convolution1"
  top: "Convolution1"
  param {
    lr_mult: 0
    decay_mult: 0
  }
  param {
    lr_mult: 0
    decay_mult: 0
  }
  param {
    lr_mult: 0
    decay_mult: 0
  }
}
layer {
  name: "Scale1"
  type: "Scale"
  bottom: "Convolution1"
  top: "Convolution1"
  scale_param {
    bias_term: true
  }
}
layer {
  name: "penlu1"
  type: "PENLU"
  bottom: "Convolution1"
  top: "Convolution1"
  param {
    lr_mult: 2
    decay_mult: 0
  }
  param {
    lr_mult: 2
    decay_mult: 0
  }
  param {
    lr_mult: 0
    decay_mult: 0
  }
  penlu_param {
    alpha_filler {
      type: "constant"
      value: 2
    }
    beta_filler {
      type: "constant"
      value: 1
    }
    eta_filler {
      type: "constant"
      value: 1
    }
  }
}
layer {
  name: "Convolution2"
  type: "Convolution"
  bottom: "Convolution1"
  top: "Convolution2"
  param {
    lr_mult: 1
    decay_mult: 1
  }
  param {
    lr_mult: 2
    decay_mult: 0
  }
  convolution_param {
    num_output: 16
    pad: 1
    kernel_size: 3
    stride: 1
    weight_filler {
      type: "gaussian"
      std: 0.118
    }
    bias_filler {
      type: "constant"
      value: 0
    }
  }
}
layer {
  name: "BatchNorm2"
  type: "BatchNorm"
  bottom: "Convolution2"
  top: "Convolution2"
  param {
    lr_mult: 0
    decay_mult: 0
  }
  param {
    lr_mult: 0
    decay_mult: 0
  }
  param {
    lr_mult: 0
    decay_mult: 0
  }
}
layer {
  name: "Scale2"
  type: "Scale"
  bottom: "Convolution2"
  top: "Convolution2"
  scale_param {
    bias_term: true
  }
}
layer {
  name: "penlu2"
  type: "PENLU"
  bottom: "Convolution2"
  top: "Convolution2"
  param {
    lr_mult: 2
    decay_mult: 0
  }
  param {
    lr_mult: 2
    decay_mult: 0
  }
  param {
    lr_mult: 0
    decay_mult: 0
  }
  penlu_param {
    alpha_filler {
      type: "constant"
      value: 2
    }
    beta_filler {
      type: "constant"
      value: 1
    }
    eta_filler {
      type: "constant"
      value: 1
    }
  }
}
layer {
  name: "Convolution3"
  type: "Convolution"
  bottom: "Convolution2"
  top: "Convolution3"
  param {
    lr_mult: 1
    decay_mult: 1
  }
  param {
    lr_mult: 2
    decay_mult: 0
  }
  convolution_param {
    num_output: 16
    pad: 1
    kernel_size: 3
    stride: 1
    weight_filler {
      type: "gaussian"
      std: 0.118
    }
    bias_filler {
      type: "constant"
      value: 0
    }
  }
}
layer {
  name: "BatchNorm3"
  type: "BatchNorm"
  bottom: "Convolution3"
  top: "Convolution3"
  param {
    lr_mult: 0
    decay_mult: 0
  }
  param {
    lr_mult: 0
    decay_mult: 0
  }
  param {
    lr_mult: 0
    decay_mult: 0
  }
}
layer {
  name: "Scale3"
  type: "Scale"
  bottom: "Convolution3"
  top: "Convolution3"
  scale_param {
    bias_term: true
  }
}
layer {
  name: "Eltwise1"
  type: "Eltwise"
  bottom: "Convolution1"
  bottom: "Convolution3"
  top: "Eltwise1"
  eltwise_param {
    operation: SUM
  }
}
layer {
  name: "penlu3"
  type: "PENLU"
  bottom: "Eltwise1"
  top: "Eltwise1"
  param {
    lr_mult: 2
    decay_mult: 0
  }
  param {
    lr_mult: 2
    decay_mult: 0
  }
  param {
    lr_mult: 0
    decay_mult: 0
  }
  penlu_param {
    alpha_filler {
      type: "constant"
      value: 2
    }
    beta_filler {
      type: "constant"
      value: 1
    }
    eta_filler {
      type: "constant"
      value: 1
    }
  }
}
layer {
  name: "Convolution4"
  type: "Convolution"
  bottom: "Eltwise1"
  top: "Convolution4"
  param {
    lr_mult: 1
    decay_mult: 1
  }
  param {
    lr_mult: 2
    decay_mult: 0
  }
  convolution_param {
    num_output: 16
    pad: 1
    kernel_size: 3
    stride: 1
    weight_filler {
      type: "gaussian"
      std: 0.118
    }
    bias_filler {
      type: "constant"
      value: 0
    }
  }
}
layer {
  name: "BatchNorm4"
  type: "BatchNorm"
  bottom: "Convolution4"
  top: "Convolution4"
  param {
    lr_mult: 0
    decay_mult: 0
  }
  param {
    lr_mult: 0
    decay_mult: 0
  }
  param {
    lr_mult: 0
    decay_mult: 0
  }
}
layer {
  name: "Scale4"
  type: "Scale"
  bottom: "Convolution4"
  top: "Convolution4"
  scale_param {
    bias_term: true
  }
}
layer {
  name: "penlu4"
  type: "PENLU"
  bottom: "Convolution4"
  top: "Convolution4"
  param {
    lr_mult: 2
    decay_mult: 0
  }
  param {
    lr_mult: 2
    decay_mult: 0
  }
  param {
    lr_mult: 0
    decay_mult: 0
  }
  penlu_param {
    alpha_filler {
      type: "constant"
      value: 2
    }
    beta_filler {
      type: "constant"
      value: 1
    }
    eta_filler {
      type: "constant"
      value: 1
    }
  }
}
layer {
  name: "Convolution5"
  type: "Convolution"
  bottom: "Convolution4"
  top: "Convolution5"
  param {
    lr_mult: 1
    decay_mult: 1
  }
  param {
    lr_mult: 2
    decay_mult: 0
  }
  convolution_param {
    num_output: 16
    pad: 1
    kernel_size: 3
    stride: 1
    weight_filler {
      type: "gaussian"
      std: 0.118
    }
    bias_filler {
      type: "constant"
      value: 0
    }
  }
}
layer {
  name: "BatchNorm5"
  type: "BatchNorm"
  bottom: "Convolution5"
  top: "Convolution5"
  param {
    lr_mult: 0
    decay_mult: 0
  }
  param {
    lr_mult: 0
    decay_mult: 0
  }
  param {
    lr_mult: 0
    decay_mult: 0
  }
}
layer {
  name: "Scale5"
  type: "Scale"
  bottom: "Convolution5"
  top: "Convolution5"
  scale_param {
    bias_term: true
  }
}
layer {
  name: "Eltwise2"
  type: "Eltwise"
  bottom: "Eltwise1"
  bottom: "Convolution5"
  top: "Eltwise2"
  eltwise_param {
    operation: SUM
  }
}
layer {
  name: "penlu5"
  type: "PENLU"
  bottom: "Eltwise2"
  top: "Eltwise2"
  param {
    lr_mult: 2
    decay_mult: 0
  }
  param {
    lr_mult: 2
    decay_mult: 0
  }
  param {
    lr_mult: 0
    decay_mult: 0
  }
  penlu_param {
    alpha_filler {
      type: "constant"
      value: 2
    }
    beta_filler {
      type: "constant"
      value: 1
    }
    eta_filler {
      type: "constant"
      value: 1
    }
  }
}
layer {
  name: "Convolution6"
  type: "Convolution"
  bottom: "Eltwise2"
  top: "Convolution6"
  param {
    lr_mult: 1
    decay_mult: 1
  }
  param {
    lr_mult: 2
    decay_mult: 0
  }
  convolution_param {
    num_output: 16
    pad: 1
    kernel_size: 3
    stride: 1
    weight_filler {
      type: "gaussian"
      std: 0.118
    }
    bias_filler {
      type: "constant"
      value: 0
    }
  }
}
layer {
  name: "BatchNorm6"
  type: "BatchNorm"
  bottom: "Convolution6"
  top: "Convolution6"
  param {
    lr_mult: 0
    decay_mult: 0
  }
  param {
    lr_mult: 0
    decay_mult: 0
  }
  param {
    lr_mult: 0
    decay_mult: 0
  }
}
layer {
  name: "Scale6"
  type: "Scale"
  bottom: "Convolution6"
  top: "Convolution6"
  scale_param {
    bias_term: true
  }
}
layer {
  name: "penlu6"
  type: "PENLU"
  bottom: "Convolution6"
  top: "Convolution6"
  param {
    lr_mult: 2
    decay_mult: 0
  }
  param {
    lr_mult: 2
    decay_mult: 0
  }
  param {
    lr_mult: 0
    decay_mult: 0
  }
  penlu_param {
    alpha_filler {
      type: "constant"
      value: 2
    }
    beta_filler {
      type: "constant"
      value: 1
    }
    eta_filler {
      type: "constant"
      value: 1
    }
  }
}
layer {
  name: "Convolution7"
  type: "Convolution"
  bottom: "Convolution6"
  top: "Convolution7"
  param {
    lr_mult: 1
    decay_mult: 1
  }
  param {
    lr_mult: 2
    decay_mult: 0
  }
  convolution_param {
    num_output: 16
    pad: 1
    kernel_size: 3
    stride: 1
    weight_filler {
      type: "gaussian"
      std: 0.118
    }
    bias_filler {
      type: "constant"
      value: 0
    }
  }
}
layer {
  name: "BatchNorm7"
  type: "BatchNorm"
  bottom: "Convolution7"
  top: "Convolution7"
  param {
    lr_mult: 0
    decay_mult: 0
  }
  param {
    lr_mult: 0
    decay_mult: 0
  }
  param {
    lr_mult: 0
    decay_mult: 0
  }
}
layer {
  name: "Scale7"
  type: "Scale"
  bottom: "Convolution7"
  top: "Convolution7"
  scale_param {
    bias_term: true
  }
}
layer {
  name: "Eltwise3"
  type: "Eltwise"
  bottom: "Eltwise2"
  bottom: "Convolution7"
  top: "Eltwise3"
  eltwise_param {
    operation: SUM
  }
}
layer {
  name: "penlu7"
  type: "PENLU"
  bottom: "Eltwise3"
  top: "Eltwise3"
  param {
    lr_mult: 2
    decay_mult: 0
  }
  param {
    lr_mult: 2
    decay_mult: 0
  }
  param {
    lr_mult: 0
    decay_mult: 0
  }
  penlu_param {
    alpha_filler {
      type: "constant"
      value: 2
    }
    beta_filler {
      type: "constant"
      value: 1
    }
    eta_filler {
      type: "constant"
      value: 1
    }
  }
}
layer {
  name: "Convolution8"
  type: "Convolution"
  bottom: "Eltwise3"
  top: "Convolution8"
  param {
    lr_mult: 1
    decay_mult: 1
  }
  param {
    lr_mult: 2
    decay_mult: 0
  }
  convolution_param {
    num_output: 16
    pad: 1
    kernel_size: 3
    stride: 1
    weight_filler {
      type: "gaussian"
      std: 0.118
    }
    bias_filler {
      type: "constant"
      value: 0
    }
  }
}
layer {
  name: "BatchNorm8"
  type: "BatchNorm"
  bottom: "Convolution8"
  top: "Convolution8"
  param {
    lr_mult: 0
    decay_mult: 0
  }
  param {
    lr_mult: 0
    decay_mult: 0
  }
  param {
    lr_mult: 0
    decay_mult: 0
  }
}
layer {
  name: "Scale8"
  type: "Scale"
  bottom: "Convolution8"
  top: "Convolution8"
  scale_param {
    bias_term: true
  }
}
layer {
  name: "penlu8"
  type: "PENLU"
  bottom: "Convolution8"
  top: "Convolution8"
  param {
    lr_mult: 2
    decay_mult: 0
  }
  param {
    lr_mult: 2
    decay_mult: 0
  }
  param {
    lr_mult: 0
    decay_mult: 0
  }
  penlu_param {
    alpha_filler {
      type: "constant"
      value: 2
    }
    beta_filler {
      type: "constant"
      value: 1
    }
    eta_filler {
      type: "constant"
      value: 1
    }
  }
}
layer {
  name: "Convolution9"
  type: "Convolution"
  bottom: "Convolution8"
  top: "Convolution9"
  param {
    lr_mult: 1
    decay_mult: 1
  }
  param {
    lr_mult: 2
    decay_mult: 0
  }
  convolution_param {
    num_output: 16
    pad: 1
    kernel_size: 3
    stride: 1
    weight_filler {
      type: "gaussian"
      std: 0.118
    }
    bias_filler {
      type: "constant"
      value: 0
    }
  }
}
layer {
  name: "BatchNorm9"
  type: "BatchNorm"
  bottom: "Convolution9"
  top: "Convolution9"
  param {
    lr_mult: 0
    decay_mult: 0
  }
  param {
    lr_mult: 0
    decay_mult: 0
  }
  param {
    lr_mult: 0
    decay_mult: 0
  }
}
layer {
  name: "Scale9"
  type: "Scale"
  bottom: "Convolution9"
  top: "Convolution9"
  scale_param {
    bias_term: true
  }
}
layer {
  name: "Eltwise4"
  type: "Eltwise"
  bottom: "Eltwise3"
  bottom: "Convolution9"
  top: "Eltwise4"
  eltwise_param {
    operation: SUM
  }
}
layer {
  name: "penlu9"
  type: "PENLU"
  bottom: "Eltwise4"
  top: "Eltwise4"
  param {
    lr_mult: 2
    decay_mult: 0
  }
  param {
    lr_mult: 2
    decay_mult: 0
  }
  param {
    lr_mult: 0
    decay_mult: 0
  }
  penlu_param {
    alpha_filler {
      type: "constant"
      value: 2
    }
    beta_filler {
      type: "constant"
      value: 1
    }
    eta_filler {
      type: "constant"
      value: 1
    }
  }
}
layer {
  name: "Convolution10"
  type: "Convolution"
  bottom: "Eltwise4"
  top: "Convolution10"
  param {
    lr_mult: 1
    decay_mult: 1
  }
  param {
    lr_mult: 2
    decay_mult: 0
  }
  convolution_param {
    num_output: 16
    pad: 1
    kernel_size: 3
    stride: 1
    weight_filler {
      type: "gaussian"
      std: 0.118
    }
    bias_filler {
      type: "constant"
      value: 0
    }
  }
}
layer {
  name: "BatchNorm10"
  type: "BatchNorm"
  bottom: "Convolution10"
  top: "Convolution10"
  param {
    lr_mult: 0
    decay_mult: 0
  }
  param {
    lr_mult: 0
    decay_mult: 0
  }
  param {
    lr_mult: 0
    decay_mult: 0
  }
}
layer {
  name: "Scale10"
  type: "Scale"
  bottom: "Convolution10"
  top: "Convolution10"
  scale_param {
    bias_term: true
  }
}
layer {
  name: "penlu10"
  type: "PENLU"
  bottom: "Convolution10"
  top: "Convolution10"
  param {
    lr_mult: 2
    decay_mult: 0
  }
  param {
    lr_mult: 2
    decay_mult: 0
  }
  param {
    lr_mult: 0
    decay_mult: 0
  }
  penlu_param {
    alpha_filler {
      type: "constant"
      value: 2
    }
    beta_filler {
      type: "constant"
      value: 1
    }
    eta_filler {
      type: "constant"
      value: 1
    }
  }
}
layer {
  name: "Convolution11"
  type: "Convolution"
  bottom: "Convolution10"
  top: "Convolution11"
  param {
    lr_mult: 1
    decay_mult: 1
  }
  param {
    lr_mult: 2
    decay_mult: 0
  }
  convolution_param {
    num_output: 16
    pad: 1
    kernel_size: 3
    stride: 1
    weight_filler {
      type: "gaussian"
      std: 0.118
    }
    bias_filler {
      type: "constant"
      value: 0
    }
  }
}
layer {
  name: "BatchNorm11"
  type: "BatchNorm"
  bottom: "Convolution11"
  top: "Convolution11"
  param {
    lr_mult: 0
    decay_mult: 0
  }
  param {
    lr_mult: 0
    decay_mult: 0
  }
  param {
    lr_mult: 0
    decay_mult: 0
  }
}
layer {
  name: "Scale11"
  type: "Scale"
  bottom: "Convolution11"
  top: "Convolution11"
  scale_param {
    bias_term: true
  }
}
layer {
  name: "Eltwise5"
  type: "Eltwise"
  bottom: "Eltwise4"
  bottom: "Convolution11"
  top: "Eltwise5"
  eltwise_param {
    operation: SUM
  }
}
layer {
  name: "penlu11"
  type: "PENLU"
  bottom: "Eltwise5"
  top: "Eltwise5"
  param {
    lr_mult: 2
    decay_mult: 0
  }
  param {
    lr_mult: 2
    decay_mult: 0
  }
  param {
    lr_mult: 0
    decay_mult: 0
  }
  penlu_param {
    alpha_filler {
      type: "constant"
      value: 2
    }
    beta_filler {
      type: "constant"
      value: 1
    }
    eta_filler {
      type: "constant"
      value: 1
    }
  }
}
layer {
  name: "Convolution12"
  type: "Convolution"
  bottom: "Eltwise5"
  top: "Convolution12"
  param {
    lr_mult: 1
    decay_mult: 1
  }
  param {
    lr_mult: 2
    decay_mult: 0
  }
  convolution_param {
    num_output: 32
    pad: 0
    kernel_size: 1
    stride: 2
    weight_filler {
      type: "gaussian"
      std: 0.25
    }
    bias_filler {
      type: "constant"
      value: 0
    }
  }
}
layer {
  name: "BatchNorm12"
  type: "BatchNorm"
  bottom: "Convolution12"
  top: "Convolution12"
  param {
    lr_mult: 0
    decay_mult: 0
  }
  param {
    lr_mult: 0
    decay_mult: 0
  }
  param {
    lr_mult: 0
    decay_mult: 0
  }
}
layer {
  name: "Scale12"
  type: "Scale"
  bottom: "Convolution12"
  top: "Convolution12"
  scale_param {
    bias_term: true
  }
}
layer {
  name: "Convolution13"
  type: "Convolution"
  bottom: "Eltwise5"
  top: "Convolution13"
  param {
    lr_mult: 1
    decay_mult: 1
  }
  param {
    lr_mult: 2
    decay_mult: 0
  }
  convolution_param {
    num_output: 32
    pad: 1
    kernel_size: 3
    stride: 2
    weight_filler {
      type: "gaussian"
      std: 0.083
    }
    bias_filler {
      type: "constant"
      value: 0
    }
  }
}
layer {
  name: "BatchNorm13"
  type: "BatchNorm"
  bottom: "Convolution13"
  top: "Convolution13"
  param {
    lr_mult: 0
    decay_mult: 0
  }
  param {
    lr_mult: 0
    decay_mult: 0
  }
  param {
    lr_mult: 0
    decay_mult: 0
  }
}
layer {
  name: "Scale13"
  type: "Scale"
  bottom: "Convolution13"
  top: "Convolution13"
  scale_param {
    bias_term: true
  }
}
layer {
  name: "penlu12"
  type: "PENLU"
  bottom: "Convolution13"
  top: "Convolution13"
  param {
    lr_mult: 2
    decay_mult: 0
  }
  param {
    lr_mult: 2
    decay_mult: 0
  }
  param {
    lr_mult: 0
    decay_mult: 0
  }
  penlu_param {
    alpha_filler {
      type: "constant"
      value: 2
    }
    beta_filler {
      type: "constant"
      value: 1
    }
    eta_filler {
      type: "constant"
      value: 1
    }
  }
}
layer {
  name: "Convolution14"
  type: "Convolution"
  bottom: "Convolution13"
  top: "Convolution14"
  param {
    lr_mult: 1
    decay_mult: 1
  }
  param {
    lr_mult: 2
    decay_mult: 0
  }
  convolution_param {
    num_output: 32
    pad: 1
    kernel_size: 3
    stride: 1
    weight_filler {
      type: "gaussian"
      std: 0.083
    }
    bias_filler {
      type: "constant"
      value: 0
    }
  }
}
layer {
  name: "BatchNorm14"
  type: "BatchNorm"
  bottom: "Convolution14"
  top: "Convolution14"
  param {
    lr_mult: 0
    decay_mult: 0
  }
  param {
    lr_mult: 0
    decay_mult: 0
  }
  param {
    lr_mult: 0
    decay_mult: 0
  }
}
layer {
  name: "Scale14"
  type: "Scale"
  bottom: "Convolution14"
  top: "Convolution14"
  scale_param {
    bias_term: true
  }
}
layer {
  name: "Eltwise6"
  type: "Eltwise"
  bottom: "Convolution12"
  bottom: "Convolution14"
  top: "Eltwise6"
  eltwise_param {
    operation: SUM
  }
}
layer {
  name: "penlu13"
  type: "PENLU"
  bottom: "Eltwise6"
  top: "Eltwise6"
  param {
    lr_mult: 2
    decay_mult: 0
  }
  param {
    lr_mult: 2
    decay_mult: 0
  }
  param {
    lr_mult: 0
    decay_mult: 0
  }
  penlu_param {
    alpha_filler {
      type: "constant"
      value: 2
    }
    beta_filler {
      type: "constant"
      value: 1
    }
    eta_filler {
      type: "constant"
      value: 1
    }
  }
}
layer {
  name: "Convolution15"
  type: "Convolution"
  bottom: "Eltwise6"
  top: "Convolution15"
  param {
    lr_mult: 1
    decay_mult: 1
  }
  param {
    lr_mult: 2
    decay_mult: 0
  }
  convolution_param {
    num_output: 32
    pad: 1
    kernel_size: 3
    stride: 1
    weight_filler {
      type: "gaussian"
      std: 0.083
    }
    bias_filler {
      type: "constant"
      value: 0
    }
  }
}
layer {
  name: "BatchNorm15"
  type: "BatchNorm"
  bottom: "Convolution15"
  top: "Convolution15"
  param {
    lr_mult: 0
    decay_mult: 0
  }
  param {
    lr_mult: 0
    decay_mult: 0
  }
  param {
    lr_mult: 0
    decay_mult: 0
  }
}
layer {
  name: "Scale15"
  type: "Scale"
  bottom: "Convolution15"
  top: "Convolution15"
  scale_param {
    bias_term: true
  }
}
layer {
  name: "penlu14"
  type: "PENLU"
  bottom: "Convolution15"
  top: "Convolution15"
  param {
    lr_mult: 2
    decay_mult: 0
  }
  param {
    lr_mult: 2
    decay_mult: 0
  }
  param {
    lr_mult: 0
    decay_mult: 0
  }
  penlu_param {
    alpha_filler {
      type: "constant"
      value: 2
    }
    beta_filler {
      type: "constant"
      value: 1
    }
    eta_filler {
      type: "constant"
      value: 1
    }
  }
}
layer {
  name: "Convolution16"
  type: "Convolution"
  bottom: "Convolution15"
  top: "Convolution16"
  param {
    lr_mult: 1
    decay_mult: 1
  }
  param {
    lr_mult: 2
    decay_mult: 0
  }
  convolution_param {
    num_output: 32
    pad: 1
    kernel_size: 3
    stride: 1
    weight_filler {
      type: "gaussian"
      std: 0.083
    }
    bias_filler {
      type: "constant"
      value: 0
    }
  }
}
layer {
  name: "BatchNorm16"
  type: "BatchNorm"
  bottom: "Convolution16"
  top: "Convolution16"
  param {
    lr_mult: 0
    decay_mult: 0
  }
  param {
    lr_mult: 0
    decay_mult: 0
  }
  param {
    lr_mult: 0
    decay_mult: 0
  }
}
layer {
  name: "Scale16"
  type: "Scale"
  bottom: "Convolution16"
  top: "Convolution16"
  scale_param {
    bias_term: true
  }
}
layer {
  name: "Eltwise7"
  type: "Eltwise"
  bottom: "Eltwise6"
  bottom: "Convolution16"
  top: "Eltwise7"
  eltwise_param {
    operation: SUM
  }
}
layer {
  name: "penlu15"
  type: "PENLU"
  bottom: "Eltwise7"
  top: "Eltwise7"
  param {
    lr_mult: 2
    decay_mult: 0
  }
  param {
    lr_mult: 2
    decay_mult: 0
  }
  param {
    lr_mult: 0
    decay_mult: 0
  }
  penlu_param {
    alpha_filler {
      type: "constant"
      value: 2
    }
    beta_filler {
      type: "constant"
      value: 1
    }
    eta_filler {
      type: "constant"
      value: 1
    }
  }
}
layer {
  name: "Convolution17"
  type: "Convolution"
  bottom: "Eltwise7"
  top: "Convolution17"
  param {
    lr_mult: 1
    decay_mult: 1
  }
  param {
    lr_mult: 2
    decay_mult: 0
  }
  convolution_param {
    num_output: 32
    pad: 1
    kernel_size: 3
    stride: 1
    weight_filler {
      type: "gaussian"
      std: 0.083
    }
    bias_filler {
      type: "constant"
      value: 0
    }
  }
}
layer {
  name: "BatchNorm17"
  type: "BatchNorm"
  bottom: "Convolution17"
  top: "Convolution17"
  param {
    lr_mult: 0
    decay_mult: 0
  }
  param {
    lr_mult: 0
    decay_mult: 0
  }
  param {
    lr_mult: 0
    decay_mult: 0
  }
}
layer {
  name: "Scale17"
  type: "Scale"
  bottom: "Convolution17"
  top: "Convolution17"
  scale_param {
    bias_term: true
  }
}
layer {
  name: "penlu16"
  type: "PENLU"
  bottom: "Convolution17"
  top: "Convolution17"
  param {
    lr_mult: 2
    decay_mult: 0
  }
  param {
    lr_mult: 2
    decay_mult: 0
  }
  param {
    lr_mult: 0
    decay_mult: 0
  }
  penlu_param {
    alpha_filler {
      type: "constant"
      value: 2
    }
    beta_filler {
      type: "constant"
      value: 1
    }
    eta_filler {
      type: "constant"
      value: 1
    }
  }
}
layer {
  name: "Convolution18"
  type: "Convolution"
  bottom: "Convolution17"
  top: "Convolution18"
  param {
    lr_mult: 1
    decay_mult: 1
  }
  param {
    lr_mult: 2
    decay_mult: 0
  }
  convolution_param {
    num_output: 32
    pad: 1
    kernel_size: 3
    stride: 1
    weight_filler {
      type: "gaussian"
      std: 0.083
    }
    bias_filler {
      type: "constant"
      value: 0
    }
  }
}
layer {
  name: "BatchNorm18"
  type: "BatchNorm"
  bottom: "Convolution18"
  top: "Convolution18"
  param {
    lr_mult: 0
    decay_mult: 0
  }
  param {
    lr_mult: 0
    decay_mult: 0
  }
  param {
    lr_mult: 0
    decay_mult: 0
  }
}
layer {
  name: "Scale18"
  type: "Scale"
  bottom: "Convolution18"
  top: "Convolution18"
  scale_param {
    bias_term: true
  }
}
layer {
  name: "Eltwise8"
  type: "Eltwise"
  bottom: "Eltwise7"
  bottom: "Convolution18"
  top: "Eltwise8"
  eltwise_param {
    operation: SUM
  }
}
layer {
  name: "penlu17"
  type: "PENLU"
  bottom: "Eltwise8"
  top: "Eltwise8"
  param {
    lr_mult: 2
    decay_mult: 0
  }
  param {
    lr_mult: 2
    decay_mult: 0
  }
  param {
    lr_mult: 0
    decay_mult: 0
  }
  penlu_param {
    alpha_filler {
      type: "constant"
      value: 2
    }
    beta_filler {
      type: "constant"
      value: 1
    }
    eta_filler {
      type: "constant"
      value: 1
    }
  }
}
layer {
  name: "Convolution19"
  type: "Convolution"
  bottom: "Eltwise8"
  top: "Convolution19"
  param {
    lr_mult: 1
    decay_mult: 1
  }
  param {
    lr_mult: 2
    decay_mult: 0
  }
  convolution_param {
    num_output: 32
    pad: 1
    kernel_size: 3
    stride: 1
    weight_filler {
      type: "gaussian"
      std: 0.083
    }
    bias_filler {
      type: "constant"
      value: 0
    }
  }
}
layer {
  name: "BatchNorm19"
  type: "BatchNorm"
  bottom: "Convolution19"
  top: "Convolution19"
  param {
    lr_mult: 0
    decay_mult: 0
  }
  param {
    lr_mult: 0
    decay_mult: 0
  }
  param {
    lr_mult: 0
    decay_mult: 0
  }
}
layer {
  name: "Scale19"
  type: "Scale"
  bottom: "Convolution19"
  top: "Convolution19"
  scale_param {
    bias_term: true
  }
}
layer {
  name: "penlu18"
  type: "PENLU"
  bottom: "Convolution19"
  top: "Convolution19"
  param {
    lr_mult: 2
    decay_mult: 0
  }
  param {
    lr_mult: 2
    decay_mult: 0
  }
  param {
    lr_mult: 0
    decay_mult: 0
  }
  penlu_param {
    alpha_filler {
      type: "constant"
      value: 2
    }
    beta_filler {
      type: "constant"
      value: 1
    }
    eta_filler {
      type: "constant"
      value: 1
    }
  }
}
layer {
  name: "Convolution20"
  type: "Convolution"
  bottom: "Convolution19"
  top: "Convolution20"
  param {
    lr_mult: 1
    decay_mult: 1
  }
  param {
    lr_mult: 2
    decay_mult: 0
  }
  convolution_param {
    num_output: 32
    pad: 1
    kernel_size: 3
    stride: 1
    weight_filler {
      type: "gaussian"
      std: 0.083
    }
    bias_filler {
      type: "constant"
      value: 0
    }
  }
}
layer {
  name: "BatchNorm20"
  type: "BatchNorm"
  bottom: "Convolution20"
  top: "Convolution20"
  param {
    lr_mult: 0
    decay_mult: 0
  }
  param {
    lr_mult: 0
    decay_mult: 0
  }
  param {
    lr_mult: 0
    decay_mult: 0
  }
}
layer {
  name: "Scale20"
  type: "Scale"
  bottom: "Convolution20"
  top: "Convolution20"
  scale_param {
    bias_term: true
  }
}
layer {
  name: "Eltwise9"
  type: "Eltwise"
  bottom: "Eltwise8"
  bottom: "Convolution20"
  top: "Eltwise9"
  eltwise_param {
    operation: SUM
  }
}
layer {
  name: "penlu19"
  type: "PENLU"
  bottom: "Eltwise9"
  top: "Eltwise9"
  param {
    lr_mult: 2
    decay_mult: 0
  }
  param {
    lr_mult: 2
    decay_mult: 0
  }
  param {
    lr_mult: 0
    decay_mult: 0
  }
  penlu_param {
    alpha_filler {
      type: "constant"
      value: 2
    }
    beta_filler {
      type: "constant"
      value: 1
    }
    eta_filler {
      type: "constant"
      value: 1
    }
  }
}
layer {
  name: "Convolution21"
  type: "Convolution"
  bottom: "Eltwise9"
  top: "Convolution21"
  param {
    lr_mult: 1
    decay_mult: 1
  }
  param {
    lr_mult: 2
    decay_mult: 0
  }
  convolution_param {
    num_output: 32
    pad: 1
    kernel_size: 3
    stride: 1
    weight_filler {
      type: "gaussian"
      std: 0.083
    }
    bias_filler {
      type: "constant"
      value: 0
    }
  }
}
layer {
  name: "BatchNorm21"
  type: "BatchNorm"
  bottom: "Convolution21"
  top: "Convolution21"
  param {
    lr_mult: 0
    decay_mult: 0
  }
  param {
    lr_mult: 0
    decay_mult: 0
  }
  param {
    lr_mult: 0
    decay_mult: 0
  }
}
layer {
  name: "Scale21"
  type: "Scale"
  bottom: "Convolution21"
  top: "Convolution21"
  scale_param {
    bias_term: true
  }
}
layer {
  name: "penlu20"
  type: "PENLU"
  bottom: "Convolution21"
  top: "Convolution21"
  param {
    lr_mult: 2
    decay_mult: 0
  }
  param {
    lr_mult: 2
    decay_mult: 0
  }
  param {
    lr_mult: 0
    decay_mult: 0
  }
  penlu_param {
    alpha_filler {
      type: "constant"
      value: 2
    }
    beta_filler {
      type: "constant"
      value: 1
    }
    eta_filler {
      type: "constant"
      value: 1
    }
  }
}
layer {
  name: "Convolution22"
  type: "Convolution"
  bottom: "Convolution21"
  top: "Convolution22"
  param {
    lr_mult: 1
    decay_mult: 1
  }
  param {
    lr_mult: 2
    decay_mult: 0
  }
  convolution_param {
    num_output: 32
    pad: 1
    kernel_size: 3
    stride: 1
    weight_filler {
      type: "gaussian"
      std: 0.083
    }
    bias_filler {
      type: "constant"
      value: 0
    }
  }
}
layer {
  name: "BatchNorm22"
  type: "BatchNorm"
  bottom: "Convolution22"
  top: "Convolution22"
  param {
    lr_mult: 0
    decay_mult: 0
  }
  param {
    lr_mult: 0
    decay_mult: 0
  }
  param {
    lr_mult: 0
    decay_mult: 0
  }
}
layer {
  name: "Scale22"
  type: "Scale"
  bottom: "Convolution22"
  top: "Convolution22"
  scale_param {
    bias_term: true
  }
}
layer {
  name: "Eltwise10"
  type: "Eltwise"
  bottom: "Eltwise9"
  bottom: "Convolution22"
  top: "Eltwise10"
  eltwise_param {
    operation: SUM
  }
}
layer {
  name: "penlu21"
  type: "PENLU"
  bottom: "Eltwise10"
  top: "Eltwise10"
  param {
    lr_mult: 2
    decay_mult: 0
  }
  param {
    lr_mult: 2
    decay_mult: 0
  }
  param {
    lr_mult: 0
    decay_mult: 0
  }
  penlu_param {
    alpha_filler {
      type: "constant"
      value: 2
    }
    beta_filler {
      type: "constant"
      value: 1
    }
    eta_filler {
      type: "constant"
      value: 1
    }
  }
}
layer {
  name: "Convolution23"
  type: "Convolution"
  bottom: "Eltwise10"
  top: "Convolution23"
  param {
    lr_mult: 1
    decay_mult: 1
  }
  param {
    lr_mult: 2
    decay_mult: 0
  }
  convolution_param {
    num_output: 64
    pad: 0
    kernel_size: 1
    stride: 2
    weight_filler {
      type: "gaussian"
      std: 0.17677669
    }
    bias_filler {
      type: "constant"
      value: 0
    }
  }
}
layer {
  name: "BatchNorm23"
  type: "BatchNorm"
  bottom: "Convolution23"
  top: "Convolution23"
  param {
    lr_mult: 0
    decay_mult: 0
  }
  param {
    lr_mult: 0
    decay_mult: 0
  }
  param {
    lr_mult: 0
    decay_mult: 0
  }
}
layer {
  name: "Scale23"
  type: "Scale"
  bottom: "Convolution23"
  top: "Convolution23"
  scale_param {
    bias_term: true
  }
}
layer {
  name: "Convolution24"
  type: "Convolution"
  bottom: "Eltwise10"
  top: "Convolution24"
  param {
    lr_mult: 1
    decay_mult: 1
  }
  param {
    lr_mult: 2
    decay_mult: 0
  }
  convolution_param {
    num_output: 64
    pad: 1
    kernel_size: 3
    stride: 2
    weight_filler {
      type: "gaussian"
      std: 0.059
    }
    bias_filler {
      type: "constant"
      value: 0
    }
  }
}
layer {
  name: "BatchNorm24"
  type: "BatchNorm"
  bottom: "Convolution24"
  top: "Convolution24"
  param {
    lr_mult: 0
    decay_mult: 0
  }
  param {
    lr_mult: 0
    decay_mult: 0
  }
  param {
    lr_mult: 0
    decay_mult: 0
  }
}
layer {
  name: "Scale24"
  type: "Scale"
  bottom: "Convolution24"
  top: "Convolution24"
  scale_param {
    bias_term: true
  }
}
layer {
  name: "penlu22"
  type: "PENLU"
 
I1007 15:08:43.540355  4982 layer_factory.hpp:77] Creating layer Data1
I1007 15:08:43.567306  4982 db_lmdb.cpp:35] Opened lmdb /home/x306/caffe/xn/PENLU/data/cifar10/cifar10_test_lmdb
I1007 15:08:43.567320  4982 net.cpp:84] Creating Layer Data1
I1007 15:08:43.567325  4982 net.cpp:380] Data1 -> Data1
I1007 15:08:43.567332  4982 net.cpp:380] Data1 -> Data2
I1007 15:08:43.567338  4982 data_transformer.cpp:25] Loading mean file from: /home/x306/caffe/xn/PENLU/data/cifar10/mean.binaryproto
I1007 15:08:43.567483  4982 data_layer.cpp:45] output data size: 100,3,32,32
I1007 15:08:43.572548  4982 net.cpp:122] Setting up Data1
I1007 15:08:43.572567  4982 net.cpp:129] Top shape: 100 3 32 32 (307200)
I1007 15:08:43.572572  4982 net.cpp:129] Top shape: 100 (100)
…
I1007 15:08:43.613986  4982 net.cpp:129] Top shape: 100 32 16 16 (819200)
I1007 15:08:43.613991  4982 net.cpp:137] Memory required for data: 459982000
I1007 15:08:43.613994  4982 layer_factory.hpp:77] Creating layer Convolution16
I1007 15:08:43.614001  4982 net.cpp:84] Creating Layer Convolution16
I1007 15:08:43.614004  4982 net.cpp:406] Convolution16 <- Convolution15
I1007 15:08:43.614009  4982 net.cpp:380] Convolution16 -> Convolution16
I1007 15:08:43.615670  4982 net.cpp:122] Setting up Convolution16
I1007 15:08:43.615681  4982 net.cpp:129] Top shape: 100 32 16 16 (819200)
I1007 15:08:43.615684  4982 net.cpp:137] Memory required for data: 463258800
I1007 15:08:43.615700  4982 layer_factory.hpp:77] Creating layer BatchNorm16
I1007 15:08:43.615706  4982 net.cpp:84] Creating Layer BatchNorm16
I1007 15:08:43.615710  4982 net.cpp:406] BatchNorm16 <- Convolution16
I1007 15:08:43.615713  4982 net.cpp:367] BatchNorm16 -> Convolution16 (in-place)
I1007 15:08:43.615869  4982 net.cpp:122] Setting up BatchNorm16
I1007 15:08:43.615873  4982 net.cpp:129] Top shape: 100 32 16 16 (819200)
I1007 15:08:43.615876  4982 net.cpp:137] Memory required for data: 466535600
I1007 15:08:43.615891  4982 layer_factory.hpp:77] Creating layer Scale16
I1007 15:08:43.615896  4982 net.cpp:84] Creating Layer Scale16
I1007 15:08:43.615900  4982 net.cpp:406] Scale16 <- Convolution16
I1007 15:08:43.615903  4982 net.cpp:367] Scale16 -> Convolution16 (in-place)
I1007 15:08:43.615943  4982 layer_factory.hpp:77] Creating layer Scale16
I1007 15:08:43.616027  4982 net.cpp:122] Setting up Scale16
I1007 15:08:43.616032  4982 net.cpp:129] Top shape: 100 32 16 16 (819200)
I1007 15:08:43.616034  4982 net.cpp:137] Memory required for data: 469812400
I1007 15:08:43.616039  4982 layer_factory.hpp:77] Creating layer Eltwise7
I1007 15:08:43.616044  4982 net.cpp:84] Creating Layer Eltwise7
I1007 15:08:43.616046  4982 net.cpp:406] Eltwise7 <- Eltwise6_penlu13_0_split_1
I1007 15:08:43.616050  4982 net.cpp:406] Eltwise7 <- Convolution16
I1007 15:08:43.616052  4982 net.cpp:380] Eltwise7 -> Eltwise7
I1007 15:08:43.616066  4982 net.cpp:122] Setting up Eltwise7
I1007 15:08:43.616070  4982 net.cpp:129] Top shape: 100 32 16 16 (819200)
I1007 15:08:43.616072  4982 net.cpp:137] Memory required for data: 473089200
I1007 15:08:43.616075  4982 layer_factory.hpp:77] Creating layer penlu15
I1007 15:08:43.616081  4982 net.cpp:84] Creating Layer penlu15
I1007 15:08:43.616084  4982 net.cpp:406] penlu15 <- Eltwise7
I1007 15:08:43.616087  4982 net.cpp:367] penlu15 -> Eltwise7 (in-place)
I1007 15:08:43.616206  4982 net.cpp:122] Setting up penlu15
I1007 15:08:43.616211  4982 net.cpp:129] Top shape: 100 32 16 16 (819200)
I1007 15:08:43.616214  4982 net.cpp:137] Memory required for data: 476366000
I1007 15:08:43.616217  4982 layer_factory.hpp:77] Creating layer Eltwise7_penlu15_0_split
I1007 15:08:43.616222  4982 net.cpp:84] Creating Layer Eltwise7_penlu15_0_split
I1007 15:08:43.616225  4982 net.cpp:406] Eltwise7_penlu15_0_split <- Eltwise7
I1007 15:08:43.616228  4982 net.cpp:380] Eltwise7_penlu15_0_split -> Eltwise7_penlu15_0_split_0
I1007 15:08:43.616233  4982 net.cpp:380] Eltwise7_penlu15_0_split -> Eltwise7_penlu15_0_split_1
I1007 15:08:43.616258  4982 net.cpp:122] Setting up Eltwise7_penlu15_0_split
I1007 15:08:43.616263  4982 net.cpp:129] Top shape: 100 32 16 16 (819200)
I1007 15:08:43.616266  4982 net.cpp:129] Top shape: 100 32 16 16 (819200)
I1007 15:08:43.616268  4982 net.cpp:137] Memory required for data: 482919600
I1007 15:08:43.616271  4982 layer_factory.hpp:77] Creating layer Convolution17
I1007 15:08:43.616276  4982 net.cpp:84] Creating Layer Convolution17
I1007 15:08:43.616281  4982 net.cpp:406] Convolution17 <- Eltwise7_penlu15_0_split_0
I1007 15:08:43.616293  4982 net.cpp:380] Convolution17 -> Convolution17
I1007 15:08:43.617396  4982 net.cpp:122] Setting up Convolution17
I1007 15:08:43.617406  4982 net.cpp:129] Top shape: 100 32 16 16 (819200)
I1007 15:08:43.617409  4982 net.cpp:137] Memory required for data: 486196400
I1007 15:08:43.617414  4982 layer_factory.hpp:77] Creating layer BatchNorm17
I1007 15:08:43.617427  4982 net.cpp:84] Creating Layer BatchNorm17
I1007 15:08:43.617431  4982 net.cpp:406] BatchNorm17 <- Convolution17
I1007 15:08:43.617435  4982 net.cpp:367] BatchNorm17 -> Convolution17 (in-place)
I1007 15:08:43.617580  4982 net.cpp:122] Setting up BatchNorm17
I1007 15:08:43.617585  4982 net.cpp:129] Top shape: 100 32 16 16 (819200)
I1007 15:08:43.617588  4982 net.cpp:137] Memory required for data: 489473200
I1007 15:08:43.617593  4982 layer_factory.hpp:77] Creating layer Scale17
I1007 15:08:43.617597  4982 net.cpp:84] Creating Layer Scale17
I1007 15:08:43.617601  4982 net.cpp:406] Scale17 <- Convolution17
I1007 15:08:43.617604  4982 net.cpp:367] Scale17 -> Convolution17 (in-place)
I1007 15:08:43.617635  4982 layer_factory.hpp:77] Creating layer Scale17
I1007 15:08:43.617717  4982 net.cpp:122] Setting up Scale17
I1007 15:08:43.617722  4982 net.cpp:129] Top shape: 100 32 16 16 (819200)
I1007 15:08:43.617724  4982 net.cpp:137] Memory required for data: 492750000
I1007 15:08:43.617728  4982 layer_factory.hpp:77] Creating layer penlu16
I1007 15:08:43.617734  4982 net.cpp:84] Creating Layer penlu16
I1007 15:08:43.617738  4982 net.cpp:406] penlu16 <- Convolution17
I1007 15:08:43.617741  4982 net.cpp:367] penlu16 -> Convolution17 (in-place)
I1007 15:08:43.617856  4982 net.cpp:122] Setting up penlu16
I1007 15:08:43.617861  4982 net.cpp:129] Top shape: 100 32 16 16 (819200)
I1007 15:08:43.617864  4982 net.cpp:137] Memory required for data: 496026800
I1007 15:08:43.617868  4982 layer_factory.hpp:77] Creating layer Convolution18
I1007 15:08:43.617874  4982 net.cpp:84] Creating Layer Convolution18
I1007 15:08:43.617877  4982 net.cpp:406] Convolution18 <- Convolution17
I1007 15:08:43.617882  4982 net.cpp:380] Convolution18 -> Convolution18
I1007 15:08:43.619235  4982 net.cpp:122] Setting up Convolution18
I1007 15:08:43.619251  4982 net.cpp:129] Top shape: 100 32 16 16 (819200)
I1007 15:08:43.619264  4982 net.cpp:137] Memory required for data: 499303600
I1007 15:08:43.619272  4982 layer_factory.hpp:77] Creating layer BatchNorm18
I1007 15:08:43.619282  4982 net.cpp:84] Creating Layer BatchNorm18
I1007 15:08:43.619287  4982 net.cpp:406] BatchNorm18 <- Convolution18
I1007 15:08:43.619293  4982 net.cpp:367] BatchNorm18 -> Convolution18 (in-place)
I1007 15:08:43.619526  4982 net.cpp:122] Setting up BatchNorm18
I1007 15:08:43.619539  4982 net.cpp:129] Top shape: 100 32 16 16 (819200)
I1007 15:08:43.619544  4982 net.cpp:137] Memory required for data: 502580400
I1007 15:08:43.619552  4982 layer_factory.hpp:77] Creating layer Scale18
I1007 15:08:43.619561  4982 net.cpp:84] Creating Layer Scale18
I1007 15:08:43.619567  4982 net.cpp:406] Scale18 <- Convolution18
I1007 15:08:43.619585  4982 net.cpp:367] Scale18 -> Convolution18 (in-place)
I1007 15:08:43.619634  4982 layer_factory.hpp:77] Creating layer Scale18
I1007 15:08:43.619736  4982 net.cpp:122] Setting up Scale18
I1007 15:08:43.619743  4982 net.cpp:129] Top shape: 100 32 16 16 (819200)
I1007 15:08:43.619745  4982 net.cpp:137] Memory required for data: 505857200
I1007 15:08:43.619750  4982 layer_factory.hpp:77] Creating layer Eltwise8
I1007 15:08:43.619755  4982 net.cpp:84] Creating Layer Eltwise8
I1007 15:08:43.619758  4982 net.cpp:406] Eltwise8 <- Eltwise7_penlu15_0_split_1
I1007 15:08:43.619762  4982 net.cpp:406] Eltwise8 <- Convolution18
I1007 15:08:43.619766  4982 net.cpp:380] Eltwise8 -> Eltwise8
I1007 15:08:43.619782  4982 net.cpp:122] Setting up Eltwise8
I1007 15:08:43.619787  4982 net.cpp:129] Top shape: 100 32 16 16 (819200)
I1007 15:08:43.619789  4982 net.cpp:137] Memory required for data: 509134000
I1007 15:08:43.619791  4982 layer_factory.hpp:77] Creating layer penlu17
I1007 15:08:43.619797  4982 net.cpp:84] Creating Layer penlu17
I1007 15:08:43.619801  4982 net.cpp:406] penlu17 <- Eltwise8
I1007 15:08:43.619804  4982 net.cpp:367] penlu17 -> Eltwise8 (in-place)
I1007 15:08:43.619930  4982 net.cpp:122] Setting up penlu17
I1007 15:08:43.619935  4982 net.cpp:129] Top shape: 100 32 16 16 (819200)
I1007 15:08:43.619936  4982 net.cpp:137] Memory required for data: 512410800
I1007 15:08:43.619949  4982 layer_factory.hpp:77] Creating layer Eltwise8_penlu17_0_split
I1007 15:08:43.619954  4982 net.cpp:84] Creating Layer Eltwise8_penlu17_0_split
I1007 15:08:43.619957  4982 net.cpp:406] Eltwise8_penlu17_0_split <- Eltwise8
I1007 15:08:43.619961  4982 net.cpp:380] Eltwise8_penlu17_0_split -> Eltwise8_penlu17_0_split_0
I1007 15:08:43.619964  4982 net.cpp:380] Eltwise8_penlu17_0_split -> Eltwise8_penlu17_0_split_1
I1007 15:08:43.620003  4982 net.cpp:122] Setting up Eltwise8_penlu17_0_split
I1007 15:08:43.620008  4982 net.cpp:129] Top shape: 100 32 16 16 (819200)
I1007 15:08:43.620012  4982 net.cpp:129] Top shape: 100 32 16 16 (819200)
I1007 15:08:43.620013  4982 net.cpp:137] Memory required for data: 518964400
I1007 15:08:43.620015  4982 layer_factory.hpp:77] Creating layer Convolution19
I1007 15:08:43.620023  4982 net.cpp:84] Creating Layer Convolution19
I1007 15:08:43.620025  4982 net.cpp:406] Convolution19 <- Eltwise8_penlu17_0_split_0
I1007 15:08:43.620039  4982 net.cpp:380] Convolution19 -> Convolution19
I1007 15:08:43.621168  4982 net.cpp:122] Setting up Convolution19
I1007 15:08:43.621178  4982 net.cpp:129] Top shape: 100 32 16 16 (819200)
I1007 15:08:43.621182  4982 net.cpp:137] Memory required for data: 522241200
I1007 15:08:43.621187  4982 layer_factory.hpp:77] Creating layer BatchNorm19
I1007 15:08:43.621193  4982 net.cpp:84] Creating Layer BatchNorm19
I1007 15:08:43.621196  4982 net.cpp:406] BatchNorm19 <- Convolution19
I1007 15:08:43.621201  4982 net.cpp:367] BatchNorm19 -> Convolution19 (in-place)
I1007 15:08:43.621351  4982 net.cpp:122] Setting up BatchNorm19
I1007 15:08:43.621357  4982 net.cpp:129] Top shape: 100 32 16 16 (819200)
I1007 15:08:43.621361  4982 net.cpp:137] Memory required for data: 525518000
I1007 15:08:43.621366  4982 layer_factory.hpp:77] Creating layer Scale19
I1007 15:08:43.621369  4982 net.cpp:84] Creating Layer Scale19
I1007 15:08:43.621373  4982 net.cpp:406] Scale19 <- Convolution19
I1007 15:08:43.621376  4982 net.cpp:367] Scale19 -> Convolution19 (in-place)
I1007 15:08:43.621408  4982 layer_factory.hpp:77] Creating layer Scale19
I1007 15:08:43.621496  4982 net.cpp:122] Setting up Scale19
I1007 15:08:43.621502  4982 net.cpp:129] Top shape: 100 32 16 16 (819200)
I1007 15:08:43.621505  4982 net.cpp:137] Memory required for data: 528794800
I1007 15:08:43.621510  4982 layer_factory.hpp:77] Creating layer penlu18
I1007 15:08:43.621515  4982 net.cpp:84] Creating Layer penlu18
I1007 15:08:43.621517  4982 net.cpp:406] penlu18 <- Convolution19
I1007 15:08:43.621522  4982 net.cpp:367] penlu18 -> Convolution19 (in-place)
I1007 15:08:43.621644  4982 net.cpp:122] Setting up penlu18
I1007 15:08:43.621649  4982 net.cpp:129] Top shape: 100 32 16 16 (819200)
I1007 15:08:43.621652  4982 net.cpp:137] Memory required for data: 532071600
I1007 15:08:43.621657  4982 layer_factory.hpp:77] Creating layer Convolution20
I1007 15:08:43.621666  4982 net.cpp:84] Creating Layer Convolution20
I1007 15:08:43.621670  4982 net.cpp:406] Convolution20 <- Convolution19
I1007 15:08:43.621673  4982 net.cpp:380] Convolution20 -> Convolution20
I1007 15:08:43.622449  4982 net.cpp:122] Setting up Convolution20
I1007 15:08:43.622458  4982 net.cpp:129] Top shape: 100 32 16 16 (819200)
I1007 15:08:43.622462  4982 net.cpp:137] Memory required for data: 535348400
I1007 15:08:43.622465  4982 layer_factory.hpp:77] Creating layer BatchNorm20
I1007 15:08:43.622470  4982 net.cpp:84] Creating Layer BatchNorm20
I1007 15:08:43.622473  4982 net.cpp:406] BatchNorm20 <- Convolution20
I1007 15:08:43.622478  4982 net.cpp:367] BatchNorm20 -> Convolution20 (in-place)
I1007 15:08:43.622628  4982 net.cpp:122] Setting up BatchNorm20
I1007 15:08:43.622633  4982 net.cpp:129] Top shape: 100 32 16 16 (819200)
I1007 15:08:43.622637  4982 net.cpp:137] Memory required for data: 538625200
I1007 15:08:43.622642  4982 layer_factory.hpp:77] Creating layer Scale20
I1007 15:08:43.622647  4982 net.cpp:84] Creating Layer Scale20
I1007 15:08:43.622649  4982 net.cpp:406] Scale20 <- Convolution20
I1007 15:08:43.622659  4982 net.cpp:367] Scale20 -> Convolution20 (in-place)
I1007 15:08:43.622692  4982 layer_factory.hpp:77] Creating layer Scale20
I1007 15:08:43.622779  4982 net.cpp:122] Setting up Scale20
I1007 15:08:43.622784  4982 net.cpp:129] Top shape: 100 32 16 16 (819200)
I1007 15:08:43.622786  4982 net.cpp:137] Memory required for data: 541902000
I1007 15:08:43.622792  4982 layer_factory.hpp:77] Creating layer Eltwise9
I1007 15:08:43.622797  4982 net.cpp:84] Creating Layer Eltwise9
I1007 15:08:43.622799  4982 net.cpp:406] Eltwise9 <- Eltwise8_penlu17_0_split_1
I1007 15:08:43.622802  4982 net.cpp:406] Eltwise9 <- Convolution20
I1007 15:08:43.622807  4982 net.cpp:380] Eltwise9 -> Eltwise9
I1007 15:08:43.622822  4982 net.cpp:122] Setting up Eltwise9
I1007 15:08:43.622825  4982 net.cpp:129] Top shape: 100 32 16 16 (819200)
I1007 15:08:43.622828  4982 net.cpp:137] Memory required for data: 545178800
I1007 15:08:43.622831  4982 layer_factory.hpp:77] Creating layer penlu19
I1007 15:08:43.622836  4982 net.cpp:84] Creating Layer penlu19
I1007 15:08:43.622839  4982 net.cpp:406] penlu19 <- Eltwise9
I1007 15:08:43.622844  4982 net.cpp:367] penlu19 -> Eltwise9 (in-place)
I1007 15:08:43.622969  4982 net.cpp:122] Setting up penlu19
I1007 15:08:43.622974  4982 net.cpp:129] Top shape: 100 32 16 16 (819200)
I1007 15:08:43.622977  4982 net.cpp:137] Memory required for data: 548455600
I1007 15:08:43.622982  4982 layer_factory.hpp:77] Creating layer Eltwise9_penlu19_0_split
I1007 15:08:43.622985  4982 net.cpp:84] Creating Layer Eltwise9_penlu19_0_split
I1007 15:08:43.622989  4982 net.cpp:406] Eltwise9_penlu19_0_split <- Eltwise9
I1007 15:08:43.622993  4982 net.cpp:380] Eltwise9_penlu19_0_split -> Eltwise9_penlu19_0_split_0
I1007 15:08:43.622998  4982 net.cpp:380] Eltwise9_penlu19_0_split -> Eltwise9_penlu19_0_split_1
I1007 15:08:43.623024  4982 net.cpp:122] Setting up Eltwise9_penlu19_0_split
I1007 15:08:43.623029  4982 net.cpp:129] Top shape: 100 32 16 16 (819200)
I1007 15:08:43.623033  4982 net.cpp:129] Top shape: 100 32 16 16 (819200)
I1007 15:08:43.623034  4982 net.cpp:137] Memory required for data: 555009200
I1007 15:08:43.623036  4982 layer_factory.hpp:77] Creating layer Convolution21
I1007 15:08:43.623042  4982 net.cpp:84] Creating Layer Convolution21
I1007 15:08:43.623046  4982 net.cpp:406] Convolution21 <- Eltwise9_penlu19_0_split_0
I1007 15:08:43.623050  4982 net.cpp:380] Convolution21 -> Convolution21
I1007 15:08:43.624182  4982 net.cpp:122] Setting up Convolution21
I1007 15:08:43.624192  4982 net.cpp:129] Top shape: 100 32 16 16 (819200)
I1007 15:08:43.624197  4982 net.cpp:137] Memory required for data: 558286000
I1007 15:08:43.624200  4982 layer_factory.hpp:77] Creating layer BatchNorm21
I1007 15:08:43.624207  4982 net.cpp:84] Creating Layer BatchNorm21
I1007 15:08:43.624209  4982 net.cpp:406] BatchNorm21 <- Convolution21
I1007 15:08:43.624214  4982 net.cpp:367] BatchNorm21 -> Convolution21 (in-place)
I1007 15:08:43.624363  4982 net.cpp:122] Setting up BatchNorm21
I1007 15:08:43.624368  4982 net.cpp:129] Top shape: 100 32 16 16 (819200)
I1007 15:08:43.624372  4982 net.cpp:137] Memory required for data: 561562800
I1007 15:08:43.624377  4982 layer_factory.hpp:77] Creating layer Scale21
I1007 15:08:43.624380  4982 net.cpp:84] Creating Layer Scale21
I1007 15:08:43.624384  4982 net.cpp:406] Scale21 <- Convolution21
I1007 15:08:43.624388  4982 net.cpp:367] Scale21 -> Convolution21 (in-place)
I1007 15:08:43.624418  4982 layer_factory.hpp:77] Creating layer Scale21
I1007 15:08:43.624505  4982 net.cpp:122] Setting up Scale21
I1007 15:08:43.624510  4982 net.cpp:129] Top shape: 100 32 16 16 (819200)
I1007 15:08:43.624512  4982 net.cpp:137] Memory required for data: 564839600
I1007 15:08:43.624516  4982 layer_factory.hpp:77] Creating layer penlu20
I1007 15:08:43.624521  4982 net.cpp:84] Creating Layer penlu20
I1007 15:08:43.624524  4982 net.cpp:406] penlu20 <- Convolution21
I1007 15:08:43.624528  4982 net.cpp:367] penlu20 -> Convolution21 (in-place)
I1007 15:08:43.624649  4982 net.cpp:122] Setting up penlu20
I1007 15:08:43.624660  4982 net.cpp:129] Top shape: 100 32 16 16 (819200)
I1007 15:08:43.624663  4982 net.cpp:137] Memory required for data: 568116400
I1007 15:08:43.624668  4982 layer_factory.hpp:77] Creating layer Convolution22
I1007 15:08:43.624675  4982 net.cpp:84] Creating Layer Convolution22
I1007 15:08:43.624680  4982 net.cpp:406] Convolution22 <- Convolution21
I1007 15:08:43.624683  4982 net.cpp:380] Convolution22 -> Convolution22
I1007 15:08:43.625792  4982 net.cpp:122] Setting up Convolution22
I1007 15:08:43.625802  4982 net.cpp:129] Top shape: 100 32 16 16 (819200)
I1007 15:08:43.625805  4982 net.cpp:137] Memory required for data: 571393200
I1007 15:08:43.625820  4982 layer_factory.hpp:77] Creating layer BatchNorm22
I1007 15:08:43.625825  4982 net.cpp:84] Creating Layer BatchNorm22
I1007 15:08:43.625829  4982 net.cpp:406] BatchNorm22 <- Convolution22
I1007 15:08:43.625843  4982 net.cpp:367] BatchNorm22 -> Convolution22 (in-place)
I1007 15:08:43.625989  4982 net.cpp:122] Setting up BatchNorm22
I1007 15:08:43.625994  4982 net.cpp:129] Top shape: 100 32 16 16 (819200)
I1007 15:08:43.625998  4982 net.cpp:137] Memory required for data: 574670000
I1007 15:08:43.626001  4982 layer_factory.hpp:77] Creating layer Scale22
I1007 15:08:43.626006  4982 net.cpp:84] Creating Layer Scale22
I1007 15:08:43.626010  4982 net.cpp:406] Scale22 <- Convolution22
I1007 15:08:43.626013  4982 net.cpp:367] Scale22 -> Convolution22 (in-place)
I1007 15:08:43.626044  4982 layer_factory.hpp:77] Creating layer Scale22
I1007 15:08:43.626129  4982 net.cpp:122] Setting up Scale22
I1007 15:08:43.626134  4982 net.cpp:129] Top shape: 100 32 16 16 (819200)
I1007 15:08:43.626137  4982 net.cpp:137] Memory required for data: 577946800
I1007 15:08:43.626142  4982 layer_factory.hpp:77] Creating layer Eltwise10
I1007 15:08:43.626145  4982 net.cpp:84] Creating Layer Eltwise10
I1007 15:08:43.626149  4982 net.cpp:406] Eltwise10 <- Eltwise9_penlu19_0_split_1
I1007 15:08:43.626152  4982 net.cpp:406] Eltwise10 <- Convolution22
I1007 15:08:43.626155  4982 net.cpp:380] Eltwise10 -> Eltwise10
I1007 15:08:43.626170  4982 net.cpp:122] Setting up Eltwise10
I1007 15:08:43.626175  4982 net.cpp:129] Top shape: 100 32 16 16 (819200)
I1007 15:08:43.626178  4982 net.cpp:137] Memory required for data: 581223600
I1007 15:08:43.626179  4982 layer_factory.hpp:77] Creating layer penlu21
I1007 15:08:43.626184  4982 net.cpp:84] Creating Layer penlu21
I1007 15:08:43.626188  4982 net.cpp:406] penlu21 <- Eltwise10
I1007 15:08:43.626191  4982 net.cpp:367] penlu21 -> Eltwise10 (in-place)
I1007 15:08:43.626313  4982 net.cpp:122] Setting up penlu21
I1007 15:08:43.626318  4982 net.cpp:129] Top shape: 100 32 16 16 (819200)
I1007 15:08:43.626320  4982 net.cpp:137] Memory required for data: 584500400
I1007 15:08:43.626324  4982 layer_factory.hpp:77] Creating layer Eltwise10_penlu21_0_split
I1007 15:08:43.626329  4982 net.cpp:84] Creating Layer Eltwise10_penlu21_0_split
I1007 15:08:43.626332  4982 net.cpp:406] Eltwise10_penlu21_0_split <- Eltwise10
I1007 15:08:43.626335  4982 net.cpp:380] Eltwise10_penlu21_0_split -> Eltwise10_penlu21_0_split_0
I1007 15:08:43.626339  4982 net.cpp:380] Eltwise10_penlu21_0_split -> Eltwise10_penlu21_0_split_1
I1007 15:08:43.626365  4982 net.cpp:122] Setting up Eltwise10_penlu21_0_split
I1007 15:08:43.626370  4982 net.cpp:129] Top shape: 100 32 16 16 (819200)
I1007 15:08:43.626374  4982 net.cpp:129] Top shape: 100 32 16 16 (819200)
I1007 15:08:43.626375  4982 net.cpp:137] Memory required for data: 591054000
I1007 15:08:43.626377  4982 layer_factory.hpp:77] Creating layer Convolution23
I1007 15:08:43.626384  4982 net.cpp:84] Creating Layer Convolution23
I1007 15:08:43.626387  4982 net.cpp:406] Convolution23 <- Eltwise10_penlu21_0_split_0
I1007 15:08:43.626391  4982 net.cpp:380] Convolution23 -> Convolution23
I1007 15:08:43.627380  4982 net.cpp:122] Setting up Convolution23
I1007 15:08:43.627390  4982 net.cpp:129] Top shape: 100 64 8 8 (409600)
I1007 15:08:43.627393  4982 net.cpp:137] Memory required for data: 592692400
I1007 15:08:43.627398  4982 layer_factory.hpp:77] Creating layer BatchNorm23
I1007 15:08:43.627411  4982 net.cpp:84] Creating Layer BatchNorm23
I1007 15:08:43.627415  4982 net.cpp:406] BatchNorm23 <- Convolution23
I1007 15:08:43.627419  4982 net.cpp:367] BatchNorm23 -> Convolution23 (in-place)
I1007 15:08:43.627590  4982 net.cpp:122] Setting up BatchNorm23
I1007 15:08:43.627595  4982 net.cpp:129] Top shape: 100 64 8 8 (409600)
I1007 15:08:43.627599  4982 net.cpp:137] Memory required for data: 594330800
I1007 15:08:43.627614  4982 layer_factory.hpp:77] Creating layer Scale23
I1007 15:08:43.627619  4982 net.cpp:84] Creating Layer Scale23
I1007 15:08:43.627622  4982 net.cpp:406] Scale23 <- Convolution23
I1007 15:08:43.627625  4982 net.cpp:367] Scale23 -> Convolution23 (in-place)
I1007 15:08:43.627667  4982 layer_factory.hpp:77] Creating layer Scale23
I1007 15:08:43.627755  4982 net.cpp:122] Setting up Scale23
I1007 15:08:43.627760  4982 net.cpp:129] Top shape: 100 64 8 8 (409600)
I1007 15:08:43.627763  4982 net.cpp:137] Memory required for data: 595969200
I1007 15:08:43.627766  4982 layer_factory.hpp:77] Creating layer Convolution24
I1007 15:08:43.627774  4982 net.cpp:84] Creating Layer Convolution24
I1007 15:08:43.627776  4982 net.cpp:406] Convolution24 <- Eltwise10_penlu21_0_split_1
I1007 15:08:43.627780  4982 net.cpp:380] Convolution24 -> Convolution24
I1007 15:08:43.629097  4982 net.cpp:122] Setting up Convolution24
I1007 15:08:43.629107  4982 net.cpp:129] Top shape: 100 64 8 8 (409600)
I1007 15:08:43.629112  4982 net.cpp:137] Memory required for data: 597607600
I1007 15:08:43.629115  4982 layer_factory.hpp:77] Creating layer BatchNorm24
I1007 15:08:43.629122  4982 net.cpp:84] Creating Layer BatchNorm24
I1007 15:08:43.629124  4982 net.cpp:406] BatchNorm24 <- Convolution24
I1007 15:08:43.629129  4982 net.cpp:367] BatchNorm24 -> Convolution24 (in-place)
I1007 15:08:43.629281  4982 net.cpp:122] Setting up BatchNorm24
I1007 15:08:43.629287  4982 net.cpp:129] Top shape: 100 64 8 8 (409600)
I1007 15:08:43.629289  4982 net.cpp:137] Memory required for data: 599246000
I1007 15:08:43.629294  4982 layer_factory.hpp:77] Creating layer Scale24
I1007 15:08:43.629299  4982 net.cpp:84] Creating Layer Scale24
I1007 15:08:43.629302  4982 net.cpp:406] Scale24 <- Convolution24
I1007 15:08:43.629305  4982 net.cpp:367] Scale24 -> Convolution24 (in-place)
I1007 15:08:43.629335  4982 layer_factory.hpp:77] Creating layer Scale24
I1007 15:08:43.629422  4982 net.cpp:122] Setting up Scale24
I1007 15:08:43.629427  4982 net.cpp:129] Top shape: 100 64 8 8 (409600)
I1007 15:08:43.629429  4982 net.cpp:137] Memory required for data: 600884400
I1007 15:08:43.629433  4982 layer_factory.hpp:77] Creating layer penlu22
I1007 15:08:43.629439  4982 net.cpp:84] Creating Layer penlu22
I1007 15:08:43.629442  4982 net.cpp:406] penlu22 <- Convolution24
I1007 15:08:43.629446  4982 net.cpp:367] penlu22 -> Convolution24 (in-place)
I1007 15:08:43.629565  4982 net.cpp:122] Setting up penlu22
I1007 15:08:43.629570  4982 net.cpp:129] Top shape: 100 64 8 8 (409600)
I1007 15:08:43.629571  4982 net.cpp:137] Memory required for data: 602522800
I1007 15:08:43.629576  4982 layer_factory.hpp:77] Creating layer Convolution25
I1007 15:08:43.629585  4982 net.cpp:84] Creating Layer Convolution25
I1007 15:08:43.629587  4982 net.cpp:406] Convolution25 <- Convolution24
I1007 15:08:43.629591  4982 net.cpp:380] Convolution25 -> Convolution25
I1007 15:08:43.631361  4982 net.cpp:122] Setting up Convolution25
I1007 15:08:43.631371  4982 net.cpp:129] Top shape: 100 64 8 8 (409600)
I1007 15:08:43.631376  4982 net.cpp:137] Memory required for data: 604161200
I1007 15:08:43.631391  4982 layer_factory.hpp:77] Creating layer BatchNorm25
I1007 15:08:43.631397  4982 net.cpp:84] Creating Layer BatchNorm25
I1007 15:08:43.631400  4982 net.cpp:406] BatchNorm25 <- Convolution25
I1007 15:08:43.631404  4982 net.cpp:367] BatchNorm25 -> Convolution25 (in-place)
I1007 15:08:43.631564  4982 net.cpp:122] Setting up BatchNorm25
I1007 15:08:43.631569  4982 net.cpp:129] Top shape: 100 64 8 8 (409600)
I1007 15:08:43.631572  4982 net.cpp:137] Memory required for data: 605799600
I1007 15:08:43.631584  4982 layer_factory.hpp:77] Creating layer Scale25
I1007 15:08:43.631592  4982 net.cpp:84] Creating Layer Scale25
I1007 15:08:43.631594  4982 net.cpp:406] Scale25 <- Convolution25
I1007 15:08:43.631597  4982 net.cpp:367] Scale25 -> Convolution25 (in-place)
I1007 15:08:43.631629  4982 layer_factory.hpp:77] Creating layer Scale25
I1007 15:08:43.631716  4982 net.cpp:122] Setting up Scale25
I1007 15:08:43.631722  4982 net.cpp:129] Top shape: 100 64 8 8 (409600)
I1007 15:08:43.631724  4982 net.cpp:137] Memory required for data: 607438000
I1007 15:08:43.631728  4982 layer_factory.hpp:77] Creating layer Eltwise11
I1007 15:08:43.631733  4982 net.cpp:84] Creating Layer Eltwise11
I1007 15:08:43.631737  4982 net.cpp:406] Eltwise11 <- Convolution23
I1007 15:08:43.631739  4982 net.cpp:406] Eltwise11 <- Convolution25
I1007 15:08:43.631743  4982 net.cpp:380] Eltwise11 -> Eltwise11
I1007 15:08:43.631762  4982 net.cpp:122] Setting up Eltwise11
I1007 15:08:43.631767  4982 net.cpp:129] Top shape: 100 64 8 8 (409600)
I1007 15:08:43.631768  4982 net.cpp:137] Memory required for data: 609076400
I1007 15:08:43.631770  4982 layer_factory.hpp:77] Creating layer penlu23
I1007 15:08:43.631775  4982 net.cpp:84] Creating Layer penlu23
I1007 15:08:43.631778  4982 net.cpp:406] penlu23 <- Eltwise11
I1007 15:08:43.631783  4982 net.cpp:367] penlu23 -> Eltwise11 (in-place)
I1007 15:08:43.631903  4982 net.cpp:122] Setting up penlu23
I1007 15:08:43.631909  4982 net.cpp:129] Top shape: 100 64 8 8 (409600)
I1007 15:08:43.631911  4982 net.cpp:137] Memory required for data: 610714800
I1007 15:08:43.631916  4982 layer_factory.hpp:77] Creating layer Eltwise11_penlu23_0_split
I1007 15:08:43.631919  4982 net.cpp:84] Creating Layer Eltwise11_penlu23_0_split
I1007 15:08:43.631922  4982 net.cpp:406] Eltwise11_penlu23_0_split <- Eltwise11
I1007 15:08:43.631925  4982 net.cpp:380] Eltwise11_penlu23_0_split -> Eltwise11_penlu23_0_split_0
I1007 15:08:43.631929  4982 net.cpp:380] Eltwise11_penlu23_0_split -> Eltwise11_penlu23_0_split_1
I1007 15:08:43.631958  4982 net.cpp:122] Setting up Eltwise11_penlu23_0_split
I1007 15:08:43.631963  4982 net.cpp:129] Top shape: 100 64 8 8 (409600)
I1007 15:08:43.631965  4982 net.cpp:129] Top shape: 100 64 8 8 (409600)
I1007 15:08:43.631968  4982 net.cpp:137] Memory required for data: 613991600
I1007 15:08:43.631970  4982 layer_factory.hpp:77] Creating layer Convolution26
I1007 15:08:43.631976  4982 net.cpp:84] Creating Layer Convolution26
I1007 15:08:43.631979  4982 net.cpp:406] Convolution26 <- Eltwise11_penlu23_0_split_0
I1007 15:08:43.631983  4982 net.cpp:380] Convolution26 -> Convolution26
I1007 15:08:43.633713  4982 net.cpp:122] Setting up Convolution26
I1007 15:08:43.633723  4982 net.cpp:129] Top shape: 100 64 8 8 (409600)
I1007 15:08:43.633728  4982 net.cpp:137] Memory required for data: 615630000
I1007 15:08:43.633731  4982 layer_factory.hpp:77] Creating layer BatchNorm26
I1007 15:08:43.633738  4982 net.cpp:84] Creating Layer BatchNorm26
I1007 15:08:43.633743  4982 net.cpp:406] BatchNorm26 <- Convolution26
I1007 15:08:43.633745  4982 net.cpp:367] BatchNorm26 -> Convolution26 (in-place)
I1007 15:08:43.633898  4982 net.cpp:122] Setting up BatchNorm26
I1007 15:08:43.633903  4982 net.cpp:129] Top shape: 100 64 8 8 (409600)
I1007 15:08:43.633905  4982 net.cpp:137] Memory required for data: 617268400
I1007 15:08:43.633910  4982 layer_factory.hpp:77] Creating layer Scale26
I1007 15:08:43.633914  4982 net.cpp:84] Creating Layer Scale26
I1007 15:08:43.633918  4982 net.cpp:406] Scale26 <- Convolution26
I1007 15:08:43.633920  4982 net.cpp:367] Scale26 -> Convolution26 (in-place)
I1007 15:08:43.633952  4982 layer_factory.hpp:77] Creating layer Scale26
I1007 15:08:43.634039  4982 net.cpp:122] Setting up Scale26
I1007 15:08:43.634044  4982 net.cpp:129] Top shape: 100 64 8 8 (409600)
I1007 15:08:43.634047  4982 net.cpp:137] Memory required for data: 618906800
I1007 15:08:43.634050  4982 layer_factory.hpp:77] Creating layer penlu24
I1007 15:08:43.634055  4982 net.cpp:84] Creating Layer penlu24
I1007 15:08:43.634058  4982 net.cpp:406] penlu24 <- Convolution26
I1007 15:08:43.634070  4982 net.cpp:367] penlu24 -> Convolution26 (in-place)
I1007 15:08:43.634193  4982 net.cpp:122] Setting up penlu24
I1007 15:08:43.634198  4982 net.cpp:129] Top shape: 100 64 8 8 (409600)
I1007 15:08:43.634201  4982 net.cpp:137] Memory required for data: 620545200
I1007 15:08:43.634205  4982 layer_factory.hpp:77] Creating layer Convolution27
I1007 15:08:43.634213  4982 net.cpp:84] Creating Layer Convolution27
I1007 15:08:43.634217  4982 net.cpp:406] Convolution27 <- Convolution26
I1007 15:08:43.634220  4982 net.cpp:380] Convolution27 -> Convolution27
I1007 15:08:43.636076  4982 net.cpp:122] Setting up Convolution27
I1007 15:08:43.636086  4982 net.cpp:129] Top shape: 100 64 8 8 (409600)
I1007 15:08:43.636090  4982 net.cpp:137] Memory required for data: 622183600
I1007 15:08:43.636095  4982 layer_factory.hpp:77] Creating layer BatchNorm27
I1007 15:08:43.636109  4982 net.cpp:84] Creating Layer BatchNorm27
I1007 15:08:43.636113  4982 net.cpp:406] BatchNorm27 <- Convolution27
I1007 15:08:43.636117  4982 net.cpp:367] BatchNorm27 -> Convolution27 (in-place)
I1007 15:08:43.636272  4982 net.cpp:122] Setting up BatchNorm27
I1007 15:08:43.636277  4982 net.cpp:129] Top shape: 100 64 8 8 (409600)
I1007 15:08:43.636281  4982 net.cpp:137] Memory required for data: 623822000
I1007 15:08:43.636304  4982 layer_factory.hpp:77] Creating layer Scale27
I1007 15:08:43.636312  4982 net.cpp:84] Creating Layer Scale27
I1007 15:08:43.636314  4982 net.cpp:406] Scale27 <- Convolution27
I1007 15:08:43.636318  4982 net.cpp:367] Scale27 -> Convolution27 (in-place)
I1007 15:08:43.636382  4982 layer_factory.hpp:77] Creating layer Scale27
I1007 15:08:43.636521  4982 net.cpp:122] Setting up Scale27
I1007 15:08:43.636529  4982 net.cpp:129] Top shape: 100 64 8 8 (409600)
I1007 15:08:43.636533  4982 net.cpp:137] Memory required for data: 625460400
I1007 15:08:43.636536  4982 layer_factory.hpp:77] Creating layer Eltwise12
I1007 15:08:43.636550  4982 net.cpp:84] Creating Layer Eltwise12
I1007 15:08:43.636554  4982 net.cpp:406] Eltwise12 <- Eltwise11_penlu23_0_split_1
I1007 15:08:43.636557  4982 net.cpp:406] Eltwise12 <- Convolution27
I1007 15:08:43.636561  4982 net.cpp:380] Eltwise12 -> Eltwise12
I1007 15:08:43.636595  4982 net.cpp:122] Setting up Eltwise12
I1007 15:08:43.636608  4982 net.cpp:129] Top shape: 100 64 8 8 (409600)
I1007 15:08:43.636611  4982 net.cpp:137] Memory required for data: 627098800
I1007 15:08:43.636613  4982 layer_factory.hpp:77] Creating layer penlu25
I1007 15:08:43.636629  4982 net.cpp:84] Creating Layer penlu25
I1007 15:08:43.636632  4982 net.cpp:406] penlu25 <- Eltwise12
I1007 15:08:43.636636  4982 net.cpp:367] penlu25 -> Eltwise12 (in-place)
I1007 15:08:43.636759  4982 net.cpp:122] Setting up penlu25
I1007 15:08:43.636765  4982 net.cpp:129] Top shape: 100 64 8 8 (409600)
I1007 15:08:43.636767  4982 net.cpp:137] Memory required for data: 628737200
I1007 15:08:43.636771  4982 layer_factory.hpp:77] Creating layer Eltwise12_penlu25_0_split
I1007 15:08:43.636776  4982 net.cpp:84] Creating Layer Eltwise12_penlu25_0_split
I1007 15:08:43.636780  4982 net.cpp:406] Eltwise12_penlu25_0_split <- Eltwise12
I1007 15:08:43.636783  4982 net.cpp:380] Eltwise12_penlu25_0_split -> Eltwise12_penlu25_0_split_0
I1007 15:08:43.636787  4982 net.cpp:380] Eltwise12_penlu25_0_split -> Eltwise12_penlu25_0_split_1
I1007 15:08:43.636816  4982 net.cpp:122] Setting up Eltwise12_penlu25_0_split
I1007 15:08:43.636819  4982 net.cpp:129] Top shape: 100 64 8 8 (409600)
I1007 15:08:43.636823  4982 net.cpp:129] Top shape: 100 64 8 8 (409600)
I1007 15:08:43.636826  4982 net.cpp:137] Memory required for data: 632014000
I1007 15:08:43.636827  4982 layer_factory.hpp:77] Creating layer Convolution28
I1007 15:08:43.636833  4982 net.cpp:84] Creating Layer Convolution28
I1007 15:08:43.636837  4982 net.cpp:406] Convolution28 <- Eltwise12_penlu25_0_split_0
I1007 15:08:43.636842  4982 net.cpp:380] Convolution28 -> Convolution28
I1007 15:08:43.639108  4982 net.cpp:122] Setting up Convolution28
I1007 15:08:43.639119  4982 net.cpp:129] Top shape: 100 64 8 8 (409600)
I1007 15:08:43.639139  4982 net.cpp:137] Memory required for data: 633652400
I1007 15:08:43.639145  4982 layer_factory.hpp:77] Creating layer BatchNorm28
I1007 15:08:43.639153  4982 net.cpp:84] Creating Layer BatchNorm28
I1007 15:08:43.639155  4982 net.cpp:406] BatchNorm28 <- Convolution28
I1007 15:08:43.639160  4982 net.cpp:367] BatchNorm28 -> Convolution28 (in-place)
I1007 15:08:43.639343  4982 net.cpp:122] Setting up BatchNorm28
I1007 15:08:43.639349  4982 net.cpp:129] Top shape: 100 64 8 8 (409600)
I1007 15:08:43.639353  4982 net.cpp:137] Memory required for data: 635290800
I1007 15:08:43.639358  4982 layer_factory.hpp:77] Creating layer Scale28
I1007 15:08:43.639363  4982 net.cpp:84] Creating Layer Scale28
I1007 15:08:43.639365  4982 net.cpp:406] Scale28 <- Convolution28
I1007 15:08:43.639369  4982 net.cpp:367] Scale28 -> Convolution28 (in-place)
I1007 15:08:43.639410  4982 layer_factory.hpp:77] Creating layer Scale28
I1007 15:08:43.639508  4982 net.cpp:122] Setting up Scale28
I1007 15:08:43.639513  4982 net.cpp:129] Top shape: 100 64 8 8 (409600)
I1007 15:08:43.639514  4982 net.cpp:137] Memory required for data: 636929200
I1007 15:08:43.639518  4982 layer_factory.hpp:77] Creating layer penlu26
I1007 15:08:43.639525  4982 net.cpp:84] Creating Layer penlu26
I1007 15:08:43.639528  4982 net.cpp:406] penlu26 <- Convolution28
I1007 15:08:43.639533  4982 net.cpp:367] penlu26 -> Convolution28 (in-place)
I1007 15:08:43.639657  4982 net.cpp:122] Setting up penlu26
I1007 15:08:43.639662  4982 net.cpp:129] Top shape: 100 64 8 8 (409600)
I1007 15:08:43.639664  4982 net.cpp:137] Memory required for data: 638567600
I1007 15:08:43.639668  4982 layer_factory.hpp:77] Creating layer Convolution29
I1007 15:08:43.639677  4982 net.cpp:84] Creating Layer Convolution29
I1007 15:08:43.639678  4982 net.cpp:406] Convolution29 <- Convolution28
I1007 15:08:43.639683  4982 net.cpp:380] Convolution29 -> Convolution29
I1007 15:08:43.641932  4982 net.cpp:122] Setting up Convolution29
I1007 15:08:43.641942  4982 net.cpp:129] Top shape: 100 64 8 8 (409600)
I1007 15:08:43.641945  4982 net.cpp:137] Memory required for data: 640206000
I1007 15:08:43.641950  4982 layer_factory.hpp:77] Creating layer BatchNorm29
I1007 15:08:43.641968  4982 net.cpp:84] Creating Layer BatchNorm29
I1007 15:08:43.641973  4982 net.cpp:406] BatchNorm29 <- Convolution29
I1007 15:08:43.641985  4982 net.cpp:367] BatchNorm29 -> Convolution29 (in-place)
I1007 15:08:43.642148  4982 net.cpp:122] Setting up BatchNorm29
I1007 15:08:43.642153  4982 net.cpp:129] Top shape: 100 64 8 8 (409600)
I1007 15:08:43.642154  4982 net.cpp:137] Memory required for data: 641844400
I1007 15:08:43.642159  4982 layer_factory.hpp:77] Creating layer Scale29
I1007 15:08:43.642164  4982 net.cpp:84] Creating Layer Scale29
I1007 15:08:43.642168  4982 net.cpp:406] Scale29 <- Convolution29
I1007 15:08:43.642170  4982 net.cpp:367] Scale29 -> Convolution29 (in-place)
I1007 15:08:43.642202  4982 layer_factory.hpp:77] Creating layer Scale29
I1007 15:08:43.642288  4982 net.cpp:122] Setting up Scale29
I1007 15:08:43.642294  4982 net.cpp:129] Top shape: 100 64 8 8 (409600)
I1007 15:08:43.642297  4982 net.cpp:137] Memory required for data: 643482800
I1007 15:08:43.642300  4982 layer_factory.hpp:77] Creating layer Eltwise13
I1007 15:08:43.642304  4982 net.cpp:84] Creating Layer Eltwise13
I1007 15:08:43.642307  4982 net.cpp:406] Eltwise13 <- Eltwise12_penlu25_0_split_1
I1007 15:08:43.642310  4982 net.cpp:406] Eltwise13 <- Convolution29
I1007 15:08:43.642314  4982 net.cpp:380] Eltwise13 -> Eltwise13
I1007 15:08:43.642333  4982 net.cpp:122] Setting up Eltwise13
I1007 15:08:43.642338  4982 net.cpp:129] Top shape: 100 64 8 8 (409600)
I1007 15:08:43.642339  4982 net.cpp:137] Memory required for data: 645121200
I1007 15:08:43.642341  4982 layer_factory.hpp:77] Creating layer penlu27
I1007 15:08:43.642346  4982 net.cpp:84] Creating Layer penlu27
I1007 15:08:43.642349  4982 net.cpp:406] penlu27 <- Eltwise13
I1007 15:08:43.642354  4982 net.cpp:367] penlu27 -> Eltwise13 (in-place)
I1007 15:08:43.642483  4982 net.cpp:122] Setting up penlu27
I1007 15:08:43.642488  4982 net.cpp:129] Top shape: 100 64 8 8 (409600)
I1007 15:08:43.642491  4982 net.cpp:137] Memory required for data: 646759600
I1007 15:08:43.642495  4982 layer_factory.hpp:77] Creating layer Eltwise13_penlu27_0_split
I1007 15:08:43.642500  4982 net.cpp:84] Creating Layer Eltwise13_penlu27_0_split
I1007 15:08:43.642503  4982 net.cpp:406] Eltwise13_penlu27_0_split <- Eltwise13
I1007 15:08:43.642508  4982 net.cpp:380] Eltwise13_penlu27_0_split -> Eltwise13_penlu27_0_split_0
I1007 15:08:43.642511  4982 net.cpp:380] Eltwise13_penlu27_0_split -> Eltwise13_penlu27_0_split_1
I1007 15:08:43.642558  4982 net.cpp:122] Setting up Eltwise13_penlu27_0_split
I1007 15:08:43.642562  4982 net.cpp:129] Top shape: 100 64 8 8 (409600)
I1007 15:08:43.642565  4982 net.cpp:129] Top shape: 100 64 8 8 (409600)
I1007 15:08:43.642567  4982 net.cpp:137] Memory required for data: 650036400
I1007 15:08:43.642570  4982 layer_factory.hpp:77] Creating layer Convolution30
I1007 15:08:43.642575  4982 net.cpp:84] Creating Layer Convolution30
I1007 15:08:43.642578  4982 net.cpp:406] Convolution30 <- Eltwise13_penlu27_0_split_0
I1007 15:08:43.642583  4982 net.cpp:380] Convolution30 -> Convolution30
I1007 15:08:43.644608  4982 net.cpp:122] Setting up Convolution30
I1007 15:08:43.644618  4982 net.cpp:129] Top shape: 100 64 8 8 (409600)
I1007 15:08:43.644621  4982 net.cpp:137] Memory required for data: 651674800
I1007 15:08:43.644626  4982 layer_factory.hpp:77] Creating layer BatchNorm30
I1007 15:08:43.644632  4982 net.cpp:84] Creating Layer BatchNorm30
I1007 15:08:43.644635  4982 net.cpp:406] BatchNorm30 <- Convolution30
I1007 15:08:43.644640  4982 net.cpp:367] BatchNorm30 -> Convolution30 (in-place)
I1007 15:08:43.644794  4982 net.cpp:122] Setting up BatchNorm30
I1007 15:08:43.644799  4982 net.cpp:129] Top shape: 100 64 8 8 (409600)
I1007 15:08:43.644801  4982 net.cpp:137] Memory required for data: 653313200
I1007 15:08:43.644806  4982 layer_factory.hpp:77] Creating layer Scale30
I1007 15:08:43.644812  4982 net.cpp:84] Creating Layer Scale30
I1007 15:08:43.644815  4982 net.cpp:406] Scale30 <- Convolution30
I1007 15:08:43.644819  4982 net.cpp:367] Scale30 -> Convolution30 (in-place)
I1007 15:08:43.644850  4982 layer_factory.hpp:77] Creating layer Scale30
I1007 15:08:43.644937  4982 net.cpp:122] Setting up Scale30
I1007 15:08:43.644942  4982 net.cpp:129] Top shape: 100 64 8 8 (409600)
I1007 15:08:43.644944  4982 net.cpp:137] Memory required for data: 654951600
I1007 15:08:43.644948  4982 layer_factory.hpp:77] Creating layer penlu28
I1007 15:08:43.644954  4982 net.cpp:84] Creating Layer penlu28
I1007 15:08:43.644958  4982 net.cpp:406] penlu28 <- Convolution30
I1007 15:08:43.644961  4982 net.cpp:367] penlu28 -> Convolution30 (in-place)
I1007 15:08:43.645081  4982 net.cpp:122] Setting up penlu28
I1007 15:08:43.645087  4982 net.cpp:129] Top shape: 100 64 8 8 (409600)
I1007 15:08:43.645088  4982 net.cpp:137] Memory required for data: 656590000
I1007 15:08:43.645092  4982 layer_factory.hpp:77] Creating layer Convolution31
I1007 15:08:43.645099  4982 net.cpp:84] Creating Layer Convolution31
I1007 15:08:43.645102  4982 net.cpp:406] Convolution31 <- Convolution30
I1007 15:08:43.645107  4982 net.cpp:380] Convolution31 -> Convolution31
I1007 15:08:43.646778  4982 net.cpp:122] Setting up Convolution31
I1007 15:08:43.646788  4982 net.cpp:129] Top shape: 100 64 8 8 (409600)
I1007 15:08:43.646791  4982 net.cpp:137] Memory required for data: 658228400
I1007 15:08:43.646795  4982 layer_factory.hpp:77] Creating layer BatchNorm31
I1007 15:08:43.646801  4982 net.cpp:84] Creating Layer BatchNorm31
I1007 15:08:43.646805  4982 net.cpp:406] BatchNorm31 <- Convolution31
I1007 15:08:43.646808  4982 net.cpp:367] BatchNorm31 -> Convolution31 (in-place)
I1007 15:08:43.646960  4982 net.cpp:122] Setting up BatchNorm31
I1007 15:08:43.646965  4982 net.cpp:129] Top shape: 100 64 8 8 (409600)
I1007 15:08:43.646966  4982 net.cpp:137] Memory required for data: 659866800
I1007 15:08:43.646971  4982 layer_factory.hpp:77] Creating layer Scale31
I1007 15:08:43.646983  4982 net.cpp:84] Creating Layer Scale31
I1007 15:08:43.646987  4982 net.cpp:406] Scale31 <- Convolution31
I1007 15:08:43.646991  4982 net.cpp:367] Scale31 -> Convolution31 (in-place)
I1007 15:08:43.647022  4982 layer_factory.hpp:77] Creating layer Scale31
I1007 15:08:43.647109  4982 net.cpp:122] Setting up Scale31
I1007 15:08:43.647114  4982 net.cpp:129] Top shape: 100 64 8 8 (409600)
I1007 15:08:43.647116  4982 net.cpp:137] Memory required for data: 661505200
I1007 15:08:43.647119  4982 layer_factory.hpp:77] Creating layer Eltwise14
I1007 15:08:43.647125  4982 net.cpp:84] Creating Layer Eltwise14
I1007 15:08:43.647128  4982 net.cpp:406] Eltwise14 <- Eltwise13_penlu27_0_split_1
I1007 15:08:43.647131  4982 net.cpp:406] Eltwise14 <- Convolution31
I1007 15:08:43.647135  4982 net.cpp:380] Eltwise14 -> Eltwise14
I1007 15:08:43.647153  4982 net.cpp:122] Setting up Eltwise14
I1007 15:08:43.647158  4982 net.cpp:129] Top shape: 100 64 8 8 (409600)
I1007 15:08:43.647161  4982 net.cpp:137] Memory required for data: 663143600
I1007 15:08:43.647162  4982 layer_factory.hpp:77] Creating layer penlu29
I1007 15:08:43.647183  4982 net.cpp:84] Creating Layer penlu29
I1007 15:08:43.647186  4982 net.cpp:406] penlu29 <- Eltwise14
I1007 15:08:43.647189  4982 net.cpp:367] penlu29 -> Eltwise14 (in-place)
I1007 15:08:43.647328  4982 net.cpp:122] Setting up penlu29
I1007 15:08:43.647333  4982 net.cpp:129] Top shape: 100 64 8 8 (409600)
I1007 15:08:43.647336  4982 net.cpp:137] Memory required for data: 664782000
I1007 15:08:43.647341  4982 layer_factory.hpp:77] Creating layer Eltwise14_penlu29_0_split
I1007 15:08:43.647344  4982 net.cpp:84] Creating Layer Eltwise14_penlu29_0_split
I1007 15:08:43.647346  4982 net.cpp:406] Eltwise14_penlu29_0_split <- Eltwise14
I1007 15:08:43.647349  4982 net.cpp:380] Eltwise14_penlu29_0_split -> Eltwise14_penlu29_0_split_0
I1007 15:08:43.647353  4982 net.cpp:380] Eltwise14_penlu29_0_split -> Eltwise14_penlu29_0_split_1
I1007 15:08:43.647382  4982 net.cpp:122] Setting up Eltwise14_penlu29_0_split
I1007 15:08:43.647387  4982 net.cpp:129] Top shape: 100 64 8 8 (409600)
I1007 15:08:43.647389  4982 net.cpp:129] Top shape: 100 64 8 8 (409600)
I1007 15:08:43.647392  4982 net.cpp:137] Memory required for data: 668058800
I1007 15:08:43.647393  4982 layer_factory.hpp:77] Creating layer Convolution32
I1007 15:08:43.647399  4982 net.cpp:84] Creating Layer Convolution32
I1007 15:08:43.647403  4982 net.cpp:406] Convolution32 <- Eltwise14_penlu29_0_split_0
I1007 15:08:43.647408  4982 net.cpp:380] Convolution32 -> Convolution32
I1007 15:08:43.649389  4982 net.cpp:122] Setting up Convolution32
I1007 15:08:43.649399  4982 net.cpp:129] Top shape: 100 64 8 8 (409600)
I1007 15:08:43.649401  4982 net.cpp:137] Memory required for data: 669697200
I1007 15:08:43.649406  4982 layer_factory.hpp:77] Creating layer BatchNorm32
I1007 15:08:43.649411  4982 net.cpp:84] Creating Layer BatchNorm32
I1007 15:08:43.649415  4982 net.cpp:406] BatchNorm32 <- Convolution32
I1007 15:08:43.649418  4982 net.cpp:367] BatchNorm32 -> Convolution32 (in-place)
I1007 15:08:43.649572  4982 net.cpp:122] Setting up BatchNorm32
I1007 15:08:43.649577  4982 net.cpp:129] Top shape: 100 64 8 8 (409600)
I1007 15:08:43.649580  4982 net.cpp:137] Memory required for data: 671335600
I1007 15:08:43.649585  4982 layer_factory.hpp:77] Creating layer Scale32
I1007 15:08:43.649590  4982 net.cpp:84] Creating Layer Scale32
I1007 15:08:43.649591  4982 net.cpp:406] Scale32 <- Convolution32
I1007 15:08:43.649595  4982 net.cpp:367] Scale32 -> Convolution32 (in-place)
I1007 15:08:43.649627  4982 layer_factory.hpp:77] Creating layer Scale32
I1007 15:08:43.649716  4982 net.cpp:122] Setting up Scale32
I1007 15:08:43.649721  4982 net.cpp:129] Top shape: 100 64 8 8 (409600)
I1007 15:08:43.649724  4982 net.cpp:137] Memory required for data: 672974000
I1007 15:08:43.649727  4982 layer_factory.hpp:77] Creating layer penlu30
I1007 15:08:43.649734  4982 net.cpp:84] Creating Layer penlu30
I1007 15:08:43.649737  4982 net.cpp:406] penlu30 <- Convolution32
I1007 15:08:43.649749  4982 net.cpp:367] penlu30 -> Convolution32 (in-place)
I1007 15:08:43.649873  4982 net.cpp:122] Setting up penlu30
I1007 15:08:43.649878  4982 net.cpp:129] Top shape: 100 64 8 8 (409600)
I1007 15:08:43.649879  4982 net.cpp:137] Memory required for data: 674612400
I1007 15:08:43.649883  4982 layer_factory.hpp:77] Creating layer Convolution33
I1007 15:08:43.649890  4982 net.cpp:84] Creating Layer Convolution33
I1007 15:08:43.649894  4982 net.cpp:406] Convolution33 <- Convolution32
I1007 15:08:43.649899  4982 net.cpp:380] Convolution33 -> Convolution33
I1007 15:08:43.651608  4982 net.cpp:122] Setting up Convolution33
I1007 15:08:43.651618  4982 net.cpp:129] Top shape: 100 64 8 8 (409600)
I1007 15:08:43.651621  4982 net.cpp:137] Memory required for data: 676250800
I1007 15:08:43.651625  4982 layer_factory.hpp:77] Creating layer BatchNorm33
I1007 15:08:43.651631  4982 net.cpp:84] Creating Layer BatchNorm33
I1007 15:08:43.651635  4982 net.cpp:406] BatchNorm33 <- Convolution33
I1007 15:08:43.651639  4982 net.cpp:367] BatchNorm33 -> Convolution33 (in-place)
I1007 15:08:43.651788  4982 net.cpp:122] Setting up BatchNorm33
I1007 15:08:43.651793  4982 net.cpp:129] Top shape: 100 64 8 8 (409600)
I1007 15:08:43.651795  4982 net.cpp:137] Memory required for data: 677889200
I1007 15:08:43.651800  4982 layer_factory.hpp:77] Creating layer Scale33
I1007 15:08:43.651805  4982 net.cpp:84] Creating Layer Scale33
I1007 15:08:43.651808  4982 net.cpp:406] Scale33 <- Convolution33
I1007 15:08:43.651811  4982 net.cpp:367] Scale33 -> Convolution33 (in-place)
I1007 15:08:43.651842  4982 layer_factory.hpp:77] Creating layer Scale33
I1007 15:08:43.651932  4982 net.cpp:122] Setting up Scale33
I1007 15:08:43.651937  4982 net.cpp:129] Top shape: 100 64 8 8 (409600)
I1007 15:08:43.651938  4982 net.cpp:137] Memory required for data: 679527600
I1007 15:08:43.651942  4982 layer_factory.hpp:77] Creating layer Eltwise15
I1007 15:08:43.651947  4982 net.cpp:84] Creating Layer Eltwise15
I1007 15:08:43.651950  4982 net.cpp:406] Eltwise15 <- Eltwise14_penlu29_0_split_1
I1007 15:08:43.651954  4982 net.cpp:406] Eltwise15 <- Convolution33
I1007 15:08:43.651957  4982 net.cpp:380] Eltwise15 -> Eltwise15
I1007 15:08:43.651976  4982 net.cpp:122] Setting up Eltwise15
I1007 15:08:43.651980  4982 net.cpp:129] Top shape: 100 64 8 8 (409600)
I1007 15:08:43.651983  4982 net.cpp:137] Memory required for data: 681166000
I1007 15:08:43.651985  4982 layer_factory.hpp:77] Creating layer penlu31
I1007 15:08:43.651989  4982 net.cpp:84] Creating Layer penlu31
I1007 15:08:43.651991  4982 net.cpp:406] penlu31 <- Eltwise15
I1007 15:08:43.651995  4982 net.cpp:367] penlu31 -> Eltwise15 (in-place)
I1007 15:08:43.652135  4982 net.cpp:122] Setting up penlu31
I1007 15:08:43.652139  4982 net.cpp:129] Top shape: 100 64 8 8 (409600)
I1007 15:08:43.652143  4982 net.cpp:137] Memory required for data: 682804400
I1007 15:08:43.652156  4982 layer_factory.hpp:77] Creating layer Pooling1
I1007 15:08:43.652163  4982 net.cpp:84] Creating Layer Pooling1
I1007 15:08:43.652165  4982 net.cpp:406] Pooling1 <- Eltwise15
I1007 15:08:43.652169  4982 net.cpp:380] Pooling1 -> Pooling1
I1007 15:08:43.652318  4982 net.cpp:122] Setting up Pooling1
I1007 15:08:43.652324  4982 net.cpp:129] Top shape: 100 64 1 1 (6400)
I1007 15:08:43.652328  4982 net.cpp:137] Memory required for data: 682830000
I1007 15:08:43.652330  4982 layer_factory.hpp:77] Creating layer InnerProduct1
I1007 15:08:43.652335  4982 net.cpp:84] Creating Layer InnerProduct1
I1007 15:08:43.652338  4982 net.cpp:406] InnerProduct1 <- Pooling1
I1007 15:08:43.652343  4982 net.cpp:380] InnerProduct1 -> InnerProduct1
I1007 15:08:43.652447  4982 net.cpp:122] Setting up InnerProduct1
I1007 15:08:43.652452  4982 net.cpp:129] Top shape: 100 10 (1000)
I1007 15:08:43.652454  4982 net.cpp:137] Memory required for data: 682834000
I1007 15:08:43.652457  4982 layer_factory.hpp:77] Creating layer InnerProduct1_InnerProduct1_0_split
I1007 15:08:43.652462  4982 net.cpp:84] Creating Layer InnerProduct1_InnerProduct1_0_split
I1007 15:08:43.652463  4982 net.cpp:406] InnerProduct1_InnerProduct1_0_split <- InnerProduct1
I1007 15:08:43.652475  4982 net.cpp:380] InnerProduct1_InnerProduct1_0_split -> InnerProduct1_InnerProduct1_0_split_0
I1007 15:08:43.652480  4982 net.cpp:380] InnerProduct1_InnerProduct1_0_split -> InnerProduct1_InnerProduct1_0_split_1
I1007 15:08:43.652509  4982 net.cpp:122] Setting up InnerProduct1_InnerProduct1_0_split
I1007 15:08:43.652513  4982 net.cpp:129] Top shape: 100 10 (1000)
I1007 15:08:43.652516  4982 net.cpp:129] Top shape: 100 10 (1000)
I1007 15:08:43.652518  4982 net.cpp:137] Memory required for data: 682842000
I1007 15:08:43.652520  4982 layer_factory.hpp:77] Creating layer SoftmaxWithLoss1
I1007 15:08:43.652524  4982 net.cpp:84] Creating Layer SoftmaxWithLoss1
I1007 15:08:43.652528  4982 net.cpp:406] SoftmaxWithLoss1 <- InnerProduct1_InnerProduct1_0_split_0
I1007 15:08:43.652530  4982 net.cpp:406] SoftmaxWithLoss1 <- Data2_Data1_1_split_0
…
