…
I1006 11:25:17.109838  2824 net.cpp:294] The NetState phase (0) differed from the phase (1) specified by a rule in layer Accuracy1
I1006 11:25:17.110540  2824 net.cpp:51] Initializing net from parameters: 
name: "resnet_cifar10"
state {
  phase: TRAIN
  level: 0
  stage: ""
}
layer {
  name: "Data1"
  type: "Data"
  top: "Data1"
  top: "Data2"
  include {
    phase: TRAIN
  }
  transform_param {
    mirror: true
    crop_size: 28
    mean_file: "/home/x306/caffe/xn/PENLU/data/cifar10/mean.binaryproto"
  }
  data_param {
    source: "/home/x306/caffe/xn/PENLU/data/cifar10/cifar10_train_lmdb"
    batch_size: 100
    backend: LMDB
  }
}
layer {
  name: "Convolution1"
  type: "Convolution"
  bottom: "Data1"
  top: "Convolution1"
  param {
    lr_mult: 1
    decay_mult: 1
  }
  param {
    lr_mult: 2
    decay_mult: 0
  }
  convolution_param {
    num_output: 16
    pad: 1
    kernel_size: 3
    stride: 1
    weight_filler {
      type: "gaussian"
      std: 0.118
    }
    bias_filler {
      type: "constant"
      value: 0
    }
  }
}
layer {
  name: "BatchNorm1"
  type: "BatchNorm"
  bottom: "Convolution1"
  top: "Convolution1"
  param {
    lr_mult: 0
    decay_mult: 0
  }
  param {
    lr_mult: 0
    decay_mult: 0
  }
  param {
    lr_mult: 0
    decay_mult: 0
  }
}
layer {
  name: "Scale1"
  type: "Scale"
  bottom: "Convolution1"
  top: "Convolution1"
  scale_param {
    bias_term: true
  }
}
layer {
  name: "penlu1"
  type: "PENLU"
  bottom: "Convolution1"
  top: "Convolution1"
  param {
    lr_mult: 2
    decay_mult: 0
  }
  param {
    lr_mult: 2
    decay_mult: 0
  }
  param {
    lr_mult: 0
    decay_mult: 0
  }
  penlu_param {
    alpha_filler {
      type: "constant"
      value: 0.25
    }
    beta_filler {
      type: "constant"
      value: 1
    }
    eta_filler {
      type: "constant"
      value: 1
    }
  }
}
layer {
  name: "Convolution2"
  type: "Convolution"
  bottom: "Convolution1"
  top: "Convolution2"
  param {
    lr_mult: 1
    decay_mult: 1
  }
  param {
    lr_mult: 2
    decay_mult: 0
  }
  convolution_param {
    num_output: 16
    pad: 1
    kernel_size: 3
    stride: 1
    weight_filler {
      type: "gaussian"
      std: 0.118
    }
    bias_filler {
      type: "constant"
      value: 0
    }
  }
}
layer {
  name: "BatchNorm2"
  type: "BatchNorm"
  bottom: "Convolution2"
  top: "Convolution2"
  param {
    lr_mult: 0
    decay_mult: 0
  }
  param {
    lr_mult: 0
    decay_mult: 0
  }
  param {
    lr_mult: 0
    decay_mult: 0
  }
}
layer {
  name: "Scale2"
  type: "Scale"
  bottom: "Convolution2"
  top: "Convolution2"
  scale_param {
    bias_term: true
  }
}
layer {
  name: "penlu2"
  type: "PENLU"
  bottom: "Convolution2"
  top: "Convolution2"
  param {
    lr_mult: 2
    decay_mult: 0
  }
  param {
    lr_mult: 2
    decay_mult: 0
  }
  param {
    lr_mult: 0
    decay_mult: 0
  }
  penlu_param {
    alpha_filler {
      type: "constant"
      value: 0.25
    }
    beta_filler {
      type: "constant"
      value: 1
    }
    eta_filler {
      type: "constant"
      value: 1
    }
  }
}
layer {
  name: "Convolution3"
  type: "Convolution"
  bottom: "Convolution2"
  top: "Convolution3"
  param {
    lr_mult: 1
    decay_mult: 1
  }
  param {
    lr_mult: 2
    decay_mult: 0
  }
  convolution_param {
    num_output: 16
    pad: 1
    kernel_size: 3
    stride: 1
    weight_filler {
      type: "gaussian"
      std: 0.118
    }
    bias_filler {
      type: "constant"
      value: 0
    }
  }
}
layer {
  name: "BatchNorm3"
  type: "BatchNorm"
  bottom: "Convolution3"
  top: "Convolution3"
  param {
    lr_mult: 0
    decay_mult: 0
  }
  param {
    lr_mult: 0
    decay_mult: 0
  }
  param {
    lr_mult: 0
    decay_mult: 0
  }
}
layer {
  name: "Scale3"
  type: "Scale"
  bottom: "Convolution3"
  top: "Convolution3"
  scale_param {
    bias_term: true
  }
}
layer {
  name: "Eltwise1"
  type: "Eltwise"
  bottom: "Convolution1"
  bottom: "Convolution3"
  top: "Eltwise1"
  eltwise_param {
    operation: SUM
  }
}
layer {
  name: "penlu3"
  type: "PENLU"
  bottom: "Eltwise1"
  top: "Eltwise1"
  param {
    lr_mult: 2
    decay_mult: 0
  }
  param {
    lr_mult: 2
    decay_mult: 0
  }
  param {
    lr_mult: 0
    decay_mult: 0
  }
  penlu_param {
    alpha_filler {
      type: "constant"
      value: 0.25
    }
    beta_filler {
      type: "constant"
      value: 1
    }
    eta_filler {
      type: "constant"
      value: 1
    }
  }
}
layer {
  name: "Convolution4"
  type: "Convolution"
  bottom: "Eltwise1"
  top: "Convolution4"
  param {
    lr_mult: 1
    decay_mult: 1
  }
  param {
    lr_mult: 2
    decay_mult: 0
  }
  convolution_param {
    num_output: 16
    pad: 1
    kernel_size: 3
    stride: 1
    weight_filler {
      type: "gaussian"
      std: 0.118
    }
    bias_filler {
      type: "constant"
      value: 0
    }
  }
}
layer {
  name: "BatchNorm4"
  type: "BatchNorm"
  bottom: "Convolution4"
  top: "Convolution4"
  param {
    lr_mult: 0
    decay_mult: 0
  }
  param {
    lr_mult: 0
    decay_mult: 0
  }
  param {
    lr_mult: 0
    decay_mult: 0
  }
}
layer {
  name: "Scale4"
  type: "Scale"
  bottom: "Convolution4"
  top: "Convolution4"
  scale_param {
    bias_term: true
  }
}
layer {
  name: "penlu4"
  type: "PENLU"
  bottom: "Convolution4"
  top: "Convolution4"
  param {
    lr_mult: 2
    decay_mult: 0
  }
  param {
    lr_mult: 2
    decay_mult: 0
  }
  param {
    lr_mult: 0
    decay_mult: 0
  }
  penlu_param {
    alpha_filler {
      type: "constant"
      value: 0.25
    }
    beta_filler {
      type: "constant"
      value: 1
    }
    eta_filler {
      type: "constant"
      value: 1
    }
  }
}
layer {
  name: "Convolution5"
  type: "Convolution"
  bottom: "Convolution4"
  top: "Convolution5"
  param {
    lr_mult: 1
    decay_mult: 1
  }
  param {
    lr_mult: 2
    decay_mult: 0
  }
  convolution_param {
    num_output: 16
    pad: 1
    kernel_size: 3
    stride: 1
    weight_filler {
      type: "gaussian"
      std: 0.118
    }
    bias_filler {
      type: "constant"
      value: 0
    }
  }
}
layer {
  name: "BatchNorm5"
  type: "BatchNorm"
  bottom: "Convolution5"
  top: "Convolution5"
  param {
    lr_mult: 0
    decay_mult: 0
  }
  param {
    lr_mult: 0
    decay_mult: 0
  }
  param {
    lr_mult: 0
    decay_mult: 0
  }
}
layer {
  name: "Scale5"
  type: "Scale"
  bottom: "Convolution5"
  top: "Convolution5"
  scale_param {
    bias_term: true
  }
}
layer {
  name: "Eltwise2"
  type: "Eltwise"
  bottom: "Eltwise1"
  bottom: "Convolution5"
  top: "Eltwise2"
  eltwise_param {
    operation: SUM
  }
}
layer {
  name: "penlu5"
  type: "PENLU"
  bottom: "Eltwise2"
  top: "Eltwise2"
  param {
    lr_mult: 2
    decay_mult: 0
  }
  param {
    lr_mult: 2
    decay_mult: 0
  }
  param {
    lr_mult: 0
    decay_mult: 0
  }
  penlu_param {
    alpha_filler {
      type: "constant"
      value: 0.25
    }
    beta_filler {
      type: "constant"
      value: 1
    }
    eta_filler {
      type: "constant"
      value: 1
    }
  }
}
layer {
  name: "Convolution6"
  type: "Convolution"
  bottom: "Eltwise2"
  top: "Convolution6"
  param {
    lr_mult: 1
    decay_mult: 1
  }
  param {
    lr_mult: 2
    decay_mult: 0
  }
  convolution_param {
    num_output: 16
    pad: 1
    kernel_size: 3
    stride: 1
    weight_filler {
      type: "gaussian"
      std: 0.118
    }
    bias_filler {
      type: "constant"
      value: 0
    }
  }
}
layer {
  name: "BatchNorm6"
  type: "BatchNorm"
  bottom: "Convolution6"
  top: "Convolution6"
  param {
    lr_mult: 0
    decay_mult: 0
  }
  param {
    lr_mult: 0
    decay_mult: 0
  }
  param {
    lr_mult: 0
    decay_mult: 0
  }
}
layer {
  name: "Scale6"
  type: "Scale"
  bottom: "Convolution6"
  top: "Convolution6"
  scale_param {
    bias_term: true
  }
}
layer {
  name: "penlu6"
  type: "PENLU"
  bottom: "Convolution6"
  top: "Convolution6"
  param {
    lr_mult: 2
    decay_mult: 0
  }
  param {
    lr_mult: 2
    decay_mult: 0
  }
  param {
    lr_mult: 0
    decay_mult: 0
  }
  penlu_param {
    alpha_filler {
      type: "constant"
      value: 0.25
    }
    beta_filler {
      type: "constant"
      value: 1
    }
    eta_filler {
      type: "constant"
      value: 1
    }
  }
}
layer {
  name: "Convolution7"
  type: "Convolution"
  bottom: "Convolution6"
  top: "Convolution7"
  param {
    lr_mult: 1
    decay_mult: 1
  }
  param {
    lr_mult: 2
    decay_mult: 0
  }
  convolution_param {
    num_output: 16
    pad: 1
    kernel_size: 3
    stride: 1
    weight_filler {
      type: "gaussian"
      std: 0.118
    }
    bias_filler {
      type: "constant"
      value: 0
    }
  }
}
layer {
  name: "BatchNorm7"
  type: "BatchNorm"
  bottom: "Convolution7"
  top: "Convolution7"
  param {
    lr_mult: 0
    decay_mult: 0
  }
  param {
    lr_mult: 0
    decay_mult: 0
  }
  param {
    lr_mult: 0
    decay_mult: 0
  }
}
layer {
  name: "Scale7"
  type: "Scale"
  bottom: "Convolution7"
  top: "Convolution7"
  scale_param {
    bias_term: true
  }
}
layer {
  name: "Eltwise3"
  type: "Eltwise"
  bottom: "Eltwise2"
  bottom: "Convolution7"
  top: "Eltwise3"
  eltwise_param {
    operation: SUM
  }
}
layer {
  name: "penlu7"
  type: "PENLU"
  bottom: "Eltwise3"
  top: "Eltwise3"
  param {
    lr_mult: 2
    decay_mult: 0
  }
  param {
    lr_mult: 2
    decay_mult: 0
  }
  param {
    lr_mult: 0
    decay_mult: 0
  }
  penlu_param {
    alpha_filler {
      type: "constant"
      value: 0.25
    }
    beta_filler {
      type: "constant"
      value: 1
    }
    eta_filler {
      type: "constant"
      value: 1
    }
  }
}
layer {
  name: "Convolution8"
  type: "Convolution"
  bottom: "Eltwise3"
  top: "Convolution8"
  param {
    lr_mult: 1
    decay_mult: 1
  }
  param {
    lr_mult: 2
    decay_mult: 0
  }
  convolution_param {
    num_output: 16
    pad: 1
    kernel_size: 3
    stride: 1
    weight_filler {
      type: "gaussian"
      std: 0.118
    }
    bias_filler {
      type: "constant"
      value: 0
    }
  }
}
layer {
  name: "BatchNorm8"
  type: "BatchNorm"
  bottom: "Convolution8"
  top: "Convolution8"
  param {
    lr_mult: 0
    decay_mult: 0
  }
  param {
    lr_mult: 0
    decay_mult: 0
  }
  param {
    lr_mult: 0
    decay_mult: 0
  }
}
layer {
  name: "Scale8"
  type: "Scale"
  bottom: "Convolution8"
  top: "Convolution8"
  scale_param {
    bias_term: true
  }
}
layer {
  name: "penlu8"
  type: "PENLU"
  bottom: "Convolution8"
  top: "Convolution8"
  param {
    lr_mult: 2
    decay_mult: 0
  }
  param {
    lr_mult: 2
    decay_mult: 0
  }
  param {
    lr_mult: 0
    decay_mult: 0
  }
  penlu_param {
    alpha_filler {
      type: "constant"
      value: 0.25
    }
    beta_filler {
      type: "constant"
      value: 1
    }
    eta_filler {
      type: "constant"
      value: 1
    }
  }
}
layer {
  name: "Convolution9"
  type: "Convolution"
  bottom: "Convolution8"
  top: "Convolution9"
  param {
    lr_mult: 1
    decay_mult: 1
  }
  param {
    lr_mult: 2
    decay_mult: 0
  }
  convolution_param {
    num_output: 16
    pad: 1
    kernel_size: 3
    stride: 1
    weight_filler {
      type: "gaussian"
      std: 0.118
    }
    bias_filler {
      type: "constant"
      value: 0
    }
  }
}
layer {
  name: "BatchNorm9"
  type: "BatchNorm"
  bottom: "Convolution9"
  top: "Convolution9"
  param {
    lr_mult: 0
    decay_mult: 0
  }
  param {
    lr_mult: 0
    decay_mult: 0
  }
  param {
    lr_mult: 0
    decay_mult: 0
  }
}
layer {
  name: "Scale9"
  type: "Scale"
  bottom: "Convolution9"
  top: "Convolution9"
  scale_param {
    bias_term: true
  }
}
layer {
  name: "Eltwise4"
  type: "Eltwise"
  bottom: "Eltwise3"
  bottom: "Convolution9"
  top: "Eltwise4"
  eltwise_param {
    operation: SUM
  }
}
layer {
  name: "penlu9"
  type: "PENLU"
  bottom: "Eltwise4"
  top: "Eltwise4"
  param {
    lr_mult: 2
    decay_mult: 0
  }
  param {
    lr_mult: 2
    decay_mult: 0
  }
  param {
    lr_mult: 0
    decay_mult: 0
  }
  penlu_param {
    alpha_filler {
      type: "constant"
      value: 0.25
    }
    beta_filler {
      type: "constant"
      value: 1
    }
    eta_filler {
      type: "constant"
      value: 1
    }
  }
}
layer {
  name: "Convolution10"
  type: "Convolution"
  bottom: "Eltwise4"
  top: "Convolution10"
  param {
    lr_mult: 1
    decay_mult: 1
  }
  param {
    lr_mult: 2
    decay_mult: 0
  }
  convolution_param {
    num_output: 16
    pad: 1
    kernel_size: 3
    stride: 1
    weight_filler {
      type: "gaussian"
      std: 0.118
    }
    bias_filler {
      type: "constant"
      value: 0
    }
  }
}
layer {
  name: "BatchNorm10"
  type: "BatchNorm"
  bottom: "Convolution10"
  top: "Convolution10"
  param {
    lr_mult: 0
    decay_mult: 0
  }
  param {
    lr_mult: 0
    decay_mult: 0
  }
  param {
    lr_mult: 0
    decay_mult: 0
  }
}
layer {
  name: "Scale10"
  type: "Scale"
  bottom: "Convolution10"
  top: "Convolution10"
  scale_param {
    bias_term: true
  }
}
layer {
  name: "penlu10"
  type: "PENLU"
  bottom: "Convolution10"
  top: "Convolution10"
  param {
    lr_mult: 2
    decay_mult: 0
  }
  param {
    lr_mult: 2
    decay_mult: 0
  }
  param {
    lr_mult: 0
    decay_mult: 0
  }
  penlu_param {
    alpha_filler {
      type: "constant"
      value: 0.25
    }
    beta_filler {
      type: "constant"
      value: 1
    }
    eta_filler {
      type: "constant"
      value: 1
    }
  }
}
layer {
  name: "Convolution11"
  type: "Convolution"
  bottom: "Convolution10"
  top: "Convolution11"
  param {
    lr_mult: 1
    decay_mult: 1
  }
  param {
    lr_mult: 2
    decay_mult: 0
  }
  convolution_param {
    num_output: 16
    pad: 1
    kernel_size: 3
    stride: 1
    weight_filler {
      type: "gaussian"
      std: 0.118
    }
    bias_filler {
      type: "constant"
      value: 0
    }
  }
}
layer {
  name: "BatchNorm11"
  type: "BatchNorm"
  bottom: "Convolution11"
  top: "Convolution11"
  param {
    lr_mult: 0
    decay_mult: 0
  }
  param {
    lr_mult: 0
    decay_mult: 0
  }
  param {
    lr_mult: 0
    decay_mult: 0
  }
}
layer {
  name: "Scale11"
  type: "Scale"
  bottom: "Convolution11"
  top: "Convolution11"
  scale_param {
    bias_term: true
  }
}
layer {
  name: "Eltwise5"
  type: "Eltwise"
  bottom: "Eltwise4"
  bottom: "Convolution11"
  top: "Eltwise5"
  eltwise_param {
    operation: SUM
  }
}
layer {
  name: "penlu11"
  type: "PENLU"
  bottom: "Eltwise5"
  top: "Eltwise5"
  param {
    lr_mult: 2
    decay_mult: 0
  }
  param {
    lr_mult: 2
    decay_mult: 0
  }
  param {
    lr_mult: 0
    decay_mult: 0
  }
  penlu_param {
    alpha_filler {
      type: "constant"
      value: 0.25
    }
    beta_filler {
      type: "constant"
      value: 1
    }
    eta_filler {
      type: "constant"
      value: 1
    }
  }
}
layer {
  name: "Convolution12"
  type: "Convolution"
  bottom: "Eltwise5"
  top: "Convolution12"
  param {
    lr_mult: 1
    decay_mult: 1
  }
  param {
    lr_mult: 2
    decay_mult: 0
  }
  convolution_param {
    num_output: 32
    pad: 0
    kernel_size: 1
    stride: 2
    weight_filler {
      type: "gaussian"
      std: 0.25
    }
    bias_filler {
      type: "constant"
      value: 0
    }
  }
}
layer {
  name: "BatchNorm12"
  type: "BatchNorm"
  bottom: "Convolution12"
  top: "Convolution12"
  param {
    lr_mult: 0
    decay_mult: 0
  }
  param {
    lr_mult: 0
    decay_mult: 0
  }
  param {
    lr_mult: 0
    decay_mult: 0
  }
}
layer {
  name: "Scale12"
  type: "Scale"
  bottom: "Convolution12"
  top: "Convolution12"
  scale_param {
    bias_term: true
  }
}
layer {
  name: "Convolution13"
  type: "Convolution"
  bottom: "Eltwise5"
  top: "Convolution13"
  param {
    lr_mult: 1
    decay_mult: 1
  }
  param {
    lr_mult: 2
    decay_mult: 0
  }
  convolution_param {
    num_output: 32
    pad: 1
    kernel_size: 3
    stride: 2
    weight_filler {
      type: "gaussian"
      std: 0.083
    }
    bias_filler {
      type: "constant"
      value: 0
    }
  }
}
layer {
  name: "BatchNorm13"
  type: "BatchNorm"
  bottom: "Convolution13"
  top: "Convolution13"
  param {
    lr_mult: 0
    decay_mult: 0
  }
  param {
    lr_mult: 0
    decay_mult: 0
  }
  param {
    lr_mult: 0
    decay_mult: 0
  }
}
layer {
  name: "Scale13"
  type: "Scale"
  bottom: "Convolution13"
  top: "Convolution13"
  scale_param {
    bias_term: true
  }
}
layer {
  name: "penlu12"
  type: "PENLU"
  bottom: "Convolution13"
  top: "Convolution13"
  param {
    lr_mult: 2
    decay_mult: 0
  }
  param {
    lr_mult: 2
    decay_mult: 0
  }
  param {
    lr_mult: 0
    decay_mult: 0
  }
  penlu_param {
    alpha_filler {
      type: "constant"
      value: 0.25
    }
    beta_filler {
      type: "constant"
      value: 1
    }
    eta_filler {
      type: "constant"
      value: 1
    }
  }
}
layer {
  name: "Convolution14"
  type: "Convolution"
  bottom: "Convolution13"
  top: "Convolution14"
  param {
    lr_mult: 1
    decay_mult: 1
  }
  param {
    lr_mult: 2
    decay_mult: 0
  }
  convolution_param {
    num_output: 32
    pad: 1
    kernel_size: 3
    stride: 1
    weight_filler {
      type: "gaussian"
      std: 0.083
    }
    bias_filler {
      type: "constant"
      value: 0
    }
  }
}
layer {
  name: "BatchNorm14"
  type: "BatchNorm"
  bottom: "Convolution14"
  top: "Convolution14"
  param {
    lr_mult: 0
    decay_mult: 0
  }
  param {
    lr_mult: 0
    decay_mult: 0
  }
  param {
    lr_mult: 0
    decay_mult: 0
  }
}
layer {
  name: "Scale14"
  type: "Scale"
  bottom: "Convolution14"
  top: "Convolution14"
  scale_param {
    bias_term: true
  }
}
layer {
  name: "Eltwise6"
  type: "Eltwise"
  bottom: "Convolution12"
  bottom: "Convolution14"
  top: "Eltwise6"
  eltwise_param {
    operation: SUM
  }
}
layer {
  name: "penlu13"
  type: "PENLU"
  bottom: "Eltwise6"
  top: "Eltwise6"
  param {
    lr_mult: 2
    decay_mult: 0
  }
  param {
    lr_mult: 2
    decay_mult: 0
  }
  param {
    lr_mult: 0
    decay_mult: 0
  }
  penlu_param {
    alpha_filler {
      type: "constant"
      value: 0.25
    }
    beta_filler {
      type: "constant"
      value: 1
    }
    eta_filler {
      type: "constant"
      value: 1
    }
  }
}
layer {
  name: "Convolution15"
  type: "Convolution"
  bottom: "Eltwise6"
  top: "Convolution15"
  param {
    lr_mult: 1
    decay_mult: 1
  }
  param {
    lr_mult: 2
    decay_mult: 0
  }
  convolution_param {
    num_output: 32
    pad: 1
    kernel_size: 3
    stride: 1
    weight_filler {
      type: "gaussian"
      std: 0.083
    }
    bias_filler {
      type: "constant"
      value: 0
    }
  }
}
layer {
  name: "BatchNorm15"
  type: "BatchNorm"
  bottom: "Convolution15"
  top: "Convolution15"
  param {
    lr_mult: 0
    decay_mult: 0
  }
  param {
    lr_mult: 0
    decay_mult: 0
  }
  param {
    lr_mult: 0
    decay_mult: 0
  }
}
layer {
  name: "Scale15"
  type: "Scale"
  bottom: "Convolution15"
  top: "Convolution15"
  scale_param {
    bias_term: true
  }
}
layer {
  name: "penlu14"
  type: "PENLU"
  bottom: "Convolution15"
  top: "Convolution15"
  param {
    lr_mult: 2
    decay_mult: 0
  }
  param {
    lr_mult: 2
    decay_mult: 0
  }
  param {
    lr_mult: 0
    decay_mult: 0
  }
  penlu_param {
    alpha_filler {
      type: "constant"
      value: 0.25
    }
    beta_filler {
      type: "constant"
      value: 1
    }
    eta_filler {
      type: "constant"
      value: 1
    }
  }
}
layer {
  name: "Convolution16"
  type: "Convolution"
  bottom: "Convolution15"
  top: "Convolution16"
  param {
    lr_mult: 1
    decay_mult: 1
  }
  param {
    lr_mult: 2
    decay_mult: 0
  }
  convolution_param {
    num_output: 32
    pad: 1
    kernel_size: 3
    stride: 1
    weight_filler {
      type: "gaussian"
      std: 0.083
    }
    bias_filler {
      type: "constant"
      value: 0
    }
  }
}
layer {
  name: "BatchNorm16"
  type: "BatchNorm"
  bottom: "Convolution16"
  top: "Convolution16"
  param {
    lr_mult: 0
    decay_mult: 0
  }
  param {
    lr_mult: 0
    decay_mult: 0
  }
  param {
    lr_mult: 0
    decay_mult: 0
  }
}
layer {
  name: "Scale16"
  type: "Scale"
  bottom: "Convolution16"
  top: "Convolution16"
  scale_param {
    bias_term: true
  }
}
layer {
  name: "Eltwise7"
  type: "Eltwise"
  bottom: "Eltwise6"
  bottom: "Convolution16"
  top: "Eltwise7"
  eltwise_param {
    operation: SUM
  }
}
layer {
  name: "penlu15"
  type: "PENLU"
  bottom: "Eltwise7"
  top: "Eltwise7"
  param {
    lr_mult: 2
    decay_mult: 0
  }
  param {
    lr_mult: 2
    decay_mult: 0
  }
  param {
    lr_mult: 0
    decay_mult: 0
  }
  penlu_param {
    alpha_filler {
      type: "constant"
      value: 0.25
    }
    beta_filler {
      type: "constant"
      value: 1
    }
    eta_filler {
      type: "constant"
      value: 1
    }
  }
}
layer {
  name: "Convolution17"
  type: "Convolution"
  bottom: "Eltwise7"
  top: "Convolution17"
  param {
    lr_mult: 1
    decay_mult: 1
  }
  param {
    lr_mult: 2
    decay_mult: 0
  }
  convolution_param {
    num_output: 32
    pad: 1
    kernel_size: 3
    stride: 1
    weight_filler {
      type: "gaussian"
      std: 0.083
    }
    bias_filler {
      type: "constant"
      value: 0
    }
  }
}
layer {
  name: "BatchNorm17"
  type: "BatchNorm"
  bottom: "Convolution17"
  top: "Convolution17"
  param {
    lr_mult: 0
    decay_mult: 0
  }
  param {
    lr_mult: 0
    decay_mult: 0
  }
  param {
    lr_mult: 0
    decay_mult: 0
  }
}
layer {
  name: "Scale17"
  type: "Scale"
  bottom: "Convolution17"
  top: "Convolution17"
  scale_param {
    bias_term: true
  }
}
layer {
  name: "penlu16"
  type: "PENLU"
  bottom: "Convolution17"
  top: "Convolution17"
  param {
    lr_mult: 2
    decay_mult: 0
  }
  param {
    lr_mult: 2
    decay_mult: 0
  }
  param {
    lr_mult: 0
    decay_mult: 0
  }
  penlu_param {
    alpha_filler {
      type: "constant"
      value: 0.25
    }
    beta_filler {
      type: "constant"
      value: 1
    }
    eta_filler {
      type: "constant"
      value: 1
    }
  }
}
layer {
  name: "Convolution18"
  type: "Convolution"
  bottom: "Convolution17"
  top: "Convolution18"
  param {
    lr_mult: 1
    decay_mult: 1
  }
  param {
    lr_mult: 2
    decay_mult: 0
  }
  convolution_param {
    num_output: 32
    pad: 1
    kernel_size: 3
    stride: 1
    weight_filler {
      type: "gaussian"
      std: 0.083
    }
    bias_filler {
      type: "constant"
      value: 0
    }
  }
}
layer {
  name: "BatchNorm18"
  type: "BatchNorm"
  bottom: "Convolution18"
  top: "Convolution18"
  param {
    lr_mult: 0
    decay_mult: 0
  }
  param {
    lr_mult: 0
    decay_mult: 0
  }
  param {
    lr_mult: 0
    decay_mult: 0
  }
}
layer {
  name: "Scale18"
  type: "Scale"
  bottom: "Convolution18"
  top: "Convolution18"
  scale_param {
    bias_term: true
  }
}
layer {
  name: "Eltwise8"
  type: "Eltwise"
  bottom: "Eltwise7"
  bottom: "Convolution18"
  top: "Eltwise8"
  eltwise_param {
    operation: SUM
  }
}
layer {
  name: "penlu17"
  type: "PENLU"
  bottom: "Eltwise8"
  top: "Eltwise8"
  param {
    lr_mult: 2
    decay_mult: 0
  }
  param {
    lr_mult: 2
    decay_mult: 0
  }
  param {
    lr_mult: 0
    decay_mult: 0
  }
  penlu_param {
    alpha_filler {
      type: "constant"
      value: 0.25
    }
    beta_filler {
      type: "constant"
      value: 1
    }
    eta_filler {
      type: "constant"
      value: 1
    }
  }
}
layer {
  name: "Convolution19"
  type: "Convolution"
  bottom: "Eltwise8"
  top: "Convolution19"
  param {
    lr_mult: 1
    decay_mult: 1
  }
  param {
    lr_mult: 2
    decay_mult: 0
  }
  convolution_param {
    num_output: 32
    pad: 1
    kernel_size: 3
    stride: 1
    weight_filler {
      type: "gaussian"
      std: 0.083
    }
    bias_filler {
      type: "constant"
      value: 0
    }
  }
}
layer {
  name: "BatchNorm19"
  type: "BatchNorm"
  bottom: "Convolution19"
  top: "Convolution19"
  param {
    lr_mult: 0
    decay_mult: 0
  }
  param {
    lr_mult: 0
    decay_mult: 0
  }
  param {
    lr_mult: 0
    decay_mult: 0
  }
}
layer {
  name: "Scale19"
  type: "Scale"
  bottom: "Convolution19"
  top: "Convolution19"
  scale_param {
    bias_term: true
  }
}
layer {
  name: "penlu18"
  type: "PENLU"
  bottom: "Convolution19"
  top: "Convolution19"
  param {
    lr_mult: 2
    decay_mult: 0
  }
  param {
    lr_mult: 2
    decay_mult: 0
  }
  param {
    lr_mult: 0
    decay_mult: 0
  }
  penlu_param {
    alpha_filler {
      type: "constant"
      value: 0.25
    }
    beta_filler {
      type: "constant"
      value: 1
    }
    eta_filler {
      type: "constant"
      value: 1
    }
  }
}
layer {
  name: "Convolution20"
  type: "Convolution"
  bottom: "Convolution19"
  top: "Convolution20"
  param {
    lr_mult: 1
    decay_mult: 1
  }
  param {
    lr_mult: 2
    decay_mult: 0
  }
  convolution_param {
    num_output: 32
    pad: 1
    kernel_size: 3
    stride: 1
    weight_filler {
      type: "gaussian"
      std: 0.083
    }
    bias_filler {
      type: "constant"
      value: 0
    }
  }
}
layer {
  name: "BatchNorm20"
  type: "BatchNorm"
  bottom: "Convolution20"
  top: "Convolution20"
  param {
    lr_mult: 0
    decay_mult: 0
  }
  param {
    lr_mult: 0
    decay_mult: 0
  }
  param {
    lr_mult: 0
    decay_mult: 0
  }
}
layer {
  name: "Scale20"
  type: "Scale"
  bottom: "Convolution20"
  top: "Convolution20"
  scale_param {
    bias_term: true
  }
}
layer {
  name: "Eltwise9"
  type: "Eltwise"
  bottom: "Eltwise8"
  bottom: "Convolution20"
  top: "Eltwise9"
  eltwise_param {
    operation: SUM
  }
}
layer {
  name: "penlu19"
  type: "PENLU"
  bottom: "Eltwise9"
  top: "Eltwise9"
  param {
    lr_mult: 2
    decay_mult: 0
  }
  param {
    lr_mult: 2
    decay_mult: 0
  }
  param {
    lr_mult: 0
    decay_mult: 0
  }
  penlu_param {
    alpha_filler {
      type: "constant"
      value: 0.25
    }
    beta_filler {
      type: "constant"
      value: 1
    }
    eta_filler {
      type: "constant"
      value: 1
    }
  }
}
layer {
  name: "Convolution21"
  type: "Convolution"
  bottom: "Eltwise9"
  top: "Convolution21"
  param {
    lr_mult: 1
    decay_mult: 1
  }
  param {
    lr_mult: 2
    decay_mult: 0
  }
  convolution_param {
    num_output: 32
    pad: 1
    kernel_size: 3
    stride: 1
    weight_filler {
      type: "gaussian"
      std: 0.083
    }
    bias_filler {
      type: "constant"
      value: 0
    }
  }
}
layer {
  name: "BatchNorm21"
  type: "BatchNorm"
  bottom: "Convolution21"
  top: "Convolution21"
  param {
    lr_mult: 0
    decay_mult: 0
  }
  param {
    lr_mult: 0
    decay_mult: 0
  }
  param {
    lr_mult: 0
    decay_mult: 0
  }
}
layer {
  name: "Scale21"
  type: "Scale"
  bottom: "Convolution21"
  top: "Convolution21"
  scale_param {
    bias_term: true
  }
}
layer {
  name: "penlu20"
  type: "PENLU"
  bottom: "Convolution21"
  top: "Convolution21"
  param {
    lr_mult: 2
    decay_mult: 0
  }
  param {
    lr_mult: 2
    decay_mult: 0
  }
  param {
    lr_mult: 0
    decay_mult: 0
  }
  penlu_param {
    alpha_filler {
      type: "constant"
      value: 0.25
    }
    beta_filler {
      type: "constant"
      value: 1
    }
    eta_filler {
      type: "constant"
      value: 1
    }
  }
}
layer {
  name: "Convolution22"
  type: "Convolution"
  bottom: "Convolution21"
  top: "Convolution22"
  param {
    lr_mult: 1
    decay_mult: 1
  }
  param {
    lr_mult: 2
    decay_mult: 0
  }
  convolution_param {
    num_output: 32
    pad: 1
    kernel_size: 3
    stride: 1
    weight_filler {
      type: "gaussian"
      std: 0.083
    }
    bias_filler {
      type: "constant"
      value: 0
    }
  }
}
layer {
  name: "BatchNorm22"
  type: "BatchNorm"
  bottom: "Convolution22"
  top: "Convolution22"
  param {
    lr_mult: 0
    decay_mult: 0
  }
  param {
    lr_mult: 0
    decay_mult: 0
  }
  param {
    lr_mult: 0
    decay_mult: 0
  }
}
layer {
  name: "Scale22"
  type: "Scale"
  bottom: "Convolution22"
  top: "Convolution22"
  scale_param {
    bias_term: true
  }
}
layer {
  name: "Eltwise10"
  type: "Eltwise"
  bottom: "Eltwise9"
  bottom: "Convolution22"
  top: "Eltwise10"
  eltwise_param {
    operation: SUM
  }
}
layer {
  name: "penlu21"
  type: "PENLU"
  bottom: "Eltwise10"
  top: "Eltwise10"
  param {
    lr_mult: 2
    decay_mult: 0
  }
  param {
    lr_mult: 2
    decay_mult: 0
  }
  param {
    lr_mult: 0
    decay_mult: 0
  }
  penlu_param {
    alpha_filler {
      type: "constant"
      value: 0.25
    }
    beta_filler {
      type: "constant"
      value: 1
    }
    eta_filler {
      type: "constant"
      value: 1
    }
  }
}
layer {
  name: "Convolution23"
  type: "Convolution"
  bottom: "Eltwise10"
  top: "Convolution23"
  param {
    lr_mult: 1
    decay_mult: 1
  }
  param {
    lr_mult: 2
    decay_mult: 0
  }
  convolution_param {
    num_output: 64
    pad: 0
    kernel_size: 1
    stride: 2
    weight_filler {
      type: "gaussian"
      std: 0.17677669
    }
    bias_filler {
      type: "constant"
      value: 0
    }
  }
}
layer {
  name: "BatchNorm23"
  type: "BatchNorm"
  bottom: "Convolution23"
  top: "Convolution23"
  param {
    lr_mult: 0
    decay_mult: 0
  }
  param {
    lr_mult: 0
    decay_mult: 0
  }
  param {
    lr_mult: 0
    decay_mult: 0
  }
}
layer {
  name: "Scale23"
  type: "Scale"
  bottom: "Convolution23"
  top: "Convolution23"
  scale_param {
    bias_term: true
  }
}
layer {
  name: "Convolution24"
  type: "Convolution"
  bottom: "Eltwise10"
  top: "Convolution24"
  param {
    lr_mult: 1
    decay_mult: 1
  }
  param {
    lr_mult: 2
    decay_mult: 0
  }
  convolution_param {
    num_output: 64
    pad: 1
    kernel_size: 3
    stride: 2
    weight_filler {
      type: "gaussian"
      std: 0.059
    }
    bias_filler {
      type: "constant"
      value: 0
    }
  }
}
layer {
  name: "BatchNorm24"
  type: "BatchNorm"
  bottom: "Convolution24"
  top: "Convolution24"
  param {
    lr_mult: 0
    decay_mult: 0
  }
  param {
    lr_mult: 0
    decay_mult: 0
  }
  param {
    lr_mult: 0
    decay_mult: 0
  }
}
layer {
  name: "Scale24"
  type: "Scale"
  bottom: 
I1006 11:25:17.111028  2824 layer_factory.hpp:77] Creating layer Data1
I1006 11:25:17.111104  2824 db_lmdb.cpp:35] Opened lmdb /home/x306/caffe/xn/PENLU/data/cifar10/cifar10_train_lmdb
I1006 11:25:17.111124  2824 net.cpp:84] Creating Layer Data1
I1006 11:25:17.111129  2824 net.cpp:380] Data1 -> Data1
I1006 11:25:17.111143  2824 net.cpp:380] Data1 -> Data2
I1006 11:25:17.111152  2824 data_transformer.cpp:25] Loading mean file from: /home/x306/caffe/xn/PENLU/data/cifar10/mean.binaryproto
I1006 11:25:17.112538  2824 data_layer.cpp:45] output data size: 100,3,28,28
I1006 11:25:17.114805  2824 net.cpp:122] Setting up Data1
I1006 11:25:17.114819  2824 net.cpp:129] Top shape: 100 3 28 28 (235200)
I1006 11:25:17.114822  2824 net.cpp:129] Top shape: 100 (100)
I1006 11:25:17.114825  2824 net.cpp:137] Memory required for data: 941200
I1006 11:25:17.114830  2824 layer_factory.hpp:77] Creating layer Convolution1
I1006 11:25:17.114848  2824 net.cpp:84] Creating Layer Convolution1
I1006 11:25:17.114852  2824 net.cpp:406] Convolution1 <- Data1
I1006 11:25:17.114861  2824 net.cpp:380] Convolution1 -> Convolution1
I1006 11:25:17.261265  2824 net.cpp:122] Setting up Convolution1
I1006 11:25:17.261288  2824 net.cpp:129] Top shape: 100 16 28 28 (1254400)
I1006 11:25:17.261291  2824 net.cpp:137] Memory required for data: 5958800
I1006 11:25:17.261307  2824 layer_factory.hpp:77] Creating layer BatchNorm1
I1006 11:25:17.261327  2824 net.cpp:84] Creating Layer BatchNorm1
I1006 11:25:17.261350  2824 net.cpp:406] BatchNorm1 <- Convolution1
I1006 11:25:17.261366  2824 net.cpp:367] BatchNorm1 -> Convolution1 (in-place)
I1006 11:25:17.261519  2824 net.cpp:122] Setting up BatchNorm1
I1006 11:25:17.261525  2824 net.cpp:129] Top shape: 100 16 28 28 (1254400)
I1006 11:25:17.261528  2824 net.cpp:137] Memory required for data: 10976400
I1006 11:25:17.261535  2824 layer_factory.hpp:77] Creating layer Scale1
I1006 11:25:17.261554  2824 net.cpp:84] Creating Layer Scale1
I1006 11:25:17.261557  2824 net.cpp:406] Scale1 <- Convolution1
I1006 11:25:17.261560  2824 net.cpp:367] Scale1 -> Convolution1 (in-place)
I1006 11:25:17.261622  2824 layer_factory.hpp:77] Creating layer Scale1
I1006 11:25:17.261735  2824 net.cpp:122] Setting up Scale1
I1006 11:25:17.261740  2824 net.cpp:129] Top shape: 100 16 28 28 (1254400)
I1006 11:25:17.261742  2824 net.cpp:137] Memory required for data: 15994000
I1006 11:25:17.261757  2824 layer_factory.hpp:77] Creating layer penlu1
I1006 11:25:17.261767  2824 net.cpp:84] Creating Layer penlu1
I1006 11:25:17.261770  2824 net.cpp:406] penlu1 <- Convolution1
I1006 11:25:17.261775  2824 net.cpp:367] penlu1 -> Convolution1 (in-place)
I1006 11:25:17.262377  2824 net.cpp:122] Setting up penlu1
I1006 11:25:17.262387  2824 net.cpp:129] Top shape: 100 16 28 28 (1254400)
I1006 11:25:17.262389  2824 net.cpp:137] Memory required for data: 21011600
I1006 11:25:17.262397  2824 layer_factory.hpp:77] Creating layer Convolution1_penlu1_0_split
I1006 11:25:17.262401  2824 net.cpp:84] Creating Layer Convolution1_penlu1_0_split
I1006 11:25:17.262403  2824 net.cpp:406] Convolution1_penlu1_0_split <- Convolution1
I1006 11:25:17.262408  2824 net.cpp:380] Convolution1_penlu1_0_split -> Convolution1_penlu1_0_split_0
I1006 11:25:17.262423  2824 net.cpp:380] Convolution1_penlu1_0_split -> Convolution1_penlu1_0_split_1
I1006 11:25:17.262445  2824 net.cpp:122] Setting up Convolution1_penlu1_0_split
I1006 11:25:17.262450  2824 net.cpp:129] Top shape: 100 16 28 28 (1254400)
I1006 11:25:17.262462  2824 net.cpp:129] Top shape: 100 16 28 28 (1254400)
I1006 11:25:17.262465  2824 net.cpp:137] Memory required for data: 31046800
I1006 11:25:17.262467  2824 layer_factory.hpp:77] Creating layer Convolution2
I1006 11:25:17.262485  2824 net.cpp:84] Creating Layer Convolution2
I1006 11:25:17.262487  2824 net.cpp:406] Convolution2 <- Convolution1_penlu1_0_split_0
I1006 11:25:17.262491  2824 net.cpp:380] Convolution2 -> Convolution2
I1006 11:25:17.263356  2824 net.cpp:122] Setting up Convolution2
I1006 11:25:17.263366  2824 net.cpp:129] Top shape: 100 16 28 28 (1254400)
I1006 11:25:17.263370  2824 net.cpp:137] Memory required for data: 36064400
I1006 11:25:17.263383  2824 layer_factory.hpp:77] Creating layer BatchNorm2
I1006 11:25:17.263389  2824 net.cpp:84] Creating Layer BatchNorm2
I1006 11:25:17.263391  2824 net.cpp:406] BatchNorm2 <- Convolution2
I1006 11:25:17.263396  2824 net.cpp:367] BatchNorm2 -> Convolution2 (in-place)
I1006 11:25:17.263517  2824 net.cpp:122] Setting up BatchNorm2
I1006 11:25:17.263522  2824 net.cpp:129] Top shape: 100 16 28 28 (1254400)
I1006 11:25:17.263525  2824 net.cpp:137] Memory required for data: 41082000
I1006 11:25:17.263540  2824 layer_factory.hpp:77] Creating layer Scale2
I1006 11:25:17.263545  2824 net.cpp:84] Creating Layer Scale2
I1006 11:25:17.263548  2824 net.cpp:406] Scale2 <- Convolution2
I1006 11:25:17.263552  2824 net.cpp:367] Scale2 -> Convolution2 (in-place)
I1006 11:25:17.263576  2824 layer_factory.hpp:77] Creating layer Scale2
I1006 11:25:17.263672  2824 net.cpp:122] Setting up Scale2
I1006 11:25:17.263677  2824 net.cpp:129] Top shape: 100 16 28 28 (1254400)
I1006 11:25:17.263679  2824 net.cpp:137] Memory required for data: 46099600
I1006 11:25:17.263695  2824 layer_factory.hpp:77] Creating layer penlu2
I1006 11:25:17.263701  2824 net.cpp:84] Creating Layer penlu2
I1006 11:25:17.263703  2824 net.cpp:406] penlu2 <- Convolution2
I1006 11:25:17.263707  2824 net.cpp:367] penlu2 -> Convolution2 (in-place)
I1006 11:25:17.263808  2824 net.cpp:122] Setting up penlu2
I1006 11:25:17.263819  2824 net.cpp:129] Top shape: 100 16 28 28 (1254400)
I1006 11:25:17.263823  2824 net.cpp:137] Memory required for data: 51117200
I1006 11:25:17.263828  2824 layer_factory.hpp:77] Creating layer Convolution3
I1006 11:25:17.263834  2824 net.cpp:84] Creating Layer Convolution3
I1006 11:25:17.263837  2824 net.cpp:406] Convolution3 <- Convolution2
I1006 11:25:17.263841  2824 net.cpp:380] Convolution3 -> Convolution3
I1006 11:25:17.264660  2824 net.cpp:122] Setting up Convolution3
I1006 11:25:17.264670  2824 net.cpp:129] Top shape: 100 16 28 28 (1254400)
I1006 11:25:17.264673  2824 net.cpp:137] Memory required for data: 56134800
I1006 11:25:17.264678  2824 layer_factory.hpp:77] Creating layer BatchNorm3
I1006 11:25:17.264683  2824 net.cpp:84] Creating Layer BatchNorm3
I1006 11:25:17.264686  2824 net.cpp:406] BatchNorm3 <- Convolution3
I1006 11:25:17.264690  2824 net.cpp:367] BatchNorm3 -> Convolution3 (in-place)
I1006 11:25:17.264804  2824 net.cpp:122] Setting up BatchNorm3
I1006 11:25:17.264811  2824 net.cpp:129] Top shape: 100 16 28 28 (1254400)
I1006 11:25:17.264812  2824 net.cpp:137] Memory required for data: 61152400
I1006 11:25:17.264817  2824 layer_factory.hpp:77] Creating layer Scale3
I1006 11:25:17.264822  2824 net.cpp:84] Creating Layer Scale3
I1006 11:25:17.264825  2824 net.cpp:406] Scale3 <- Convolution3
I1006 11:25:17.264828  2824 net.cpp:367] Scale3 -> Convolution3 (in-place)
I1006 11:25:17.264852  2824 layer_factory.hpp:77] Creating layer Scale3
I1006 11:25:17.264919  2824 net.cpp:122] Setting up Scale3
I1006 11:25:17.264922  2824 net.cpp:129] Top shape: 100 16 28 28 (1254400)
I1006 11:25:17.264925  2824 net.cpp:137] Memory required for data: 66170000
I1006 11:25:17.264930  2824 layer_factory.hpp:77] Creating layer Eltwise1
I1006 11:25:17.264933  2824 net.cpp:84] Creating Layer Eltwise1
I1006 11:25:17.264936  2824 net.cpp:406] Eltwise1 <- Convolution1_penlu1_0_split_1
I1006 11:25:17.264940  2824 net.cpp:406] Eltwise1 <- Convolution3
I1006 11:25:17.264942  2824 net.cpp:380] Eltwise1 -> Eltwise1
I1006 11:25:17.264958  2824 net.cpp:122] Setting up Eltwise1
I1006 11:25:17.264962  2824 net.cpp:129] Top shape: 100 16 28 28 (1254400)
I1006 11:25:17.264964  2824 net.cpp:137] Memory required for data: 71187600
I1006 11:25:17.264966  2824 layer_factory.hpp:77] Creating layer penlu3
I1006 11:25:17.264971  2824 net.cpp:84] Creating Layer penlu3
I1006 11:25:17.264974  2824 net.cpp:406] penlu3 <- Eltwise1
I1006 11:25:17.264977  2824 net.cpp:367] penlu3 -> Eltwise1 (in-place)
I1006 11:25:17.265069  2824 net.cpp:122] Setting up penlu3
I1006 11:25:17.265074  2824 net.cpp:129] Top shape: 100 16 28 28 (1254400)
I1006 11:25:17.265077  2824 net.cpp:137] Memory required for data: 76205200
I1006 11:25:17.265081  2824 layer_factory.hpp:77] Creating layer Eltwise1_penlu3_0_split
I1006 11:25:17.265085  2824 net.cpp:84] Creating Layer Eltwise1_penlu3_0_split
I1006 11:25:17.265089  2824 net.cpp:406] Eltwise1_penlu3_0_split <- Eltwise1
I1006 11:25:17.265091  2824 net.cpp:380] Eltwise1_penlu3_0_split -> Eltwise1_penlu3_0_split_0
I1006 11:25:17.265096  2824 net.cpp:380] Eltwise1_penlu3_0_split -> Eltwise1_penlu3_0_split_1
I1006 11:25:17.265116  2824 net.cpp:122] Setting up Eltwise1_penlu3_0_split
I1006 11:25:17.265120  2824 net.cpp:129] Top shape: 100 16 28 28 (1254400)
I1006 11:25:17.265123  2824 net.cpp:129] Top shape: 100 16 28 28 (1254400)
I1006 11:25:17.265125  2824 net.cpp:137] Memory required for data: 86240400
I1006 11:25:17.265128  2824 layer_factory.hpp:77] Creating layer Convolution4
I1006 11:25:17.265136  2824 net.cpp:84] Creating Layer Convolution4
I1006 11:25:17.265138  2824 net.cpp:406] Convolution4 <- Eltwise1_penlu3_0_split_0
I1006 11:25:17.265141  2824 net.cpp:380] Convolution4 -> Convolution4
I1006 11:25:17.265956  2824 net.cpp:122] Setting up Convolution4
I1006 11:25:17.265965  2824 net.cpp:129] Top shape: 100 16 28 28 (1254400)
I1006 11:25:17.265969  2824 net.cpp:137] Memory required for data: 91258000
I1006 11:25:17.265974  2824 layer_factory.hpp:77] Creating layer BatchNorm4
I1006 11:25:17.265980  2824 net.cpp:84] Creating Layer BatchNorm4
I1006 11:25:17.265988  2824 net.cpp:406] BatchNorm4 <- Convolution4
I1006 11:25:17.265993  2824 net.cpp:367] BatchNorm4 -> Convolution4 (in-place)
I1006 11:25:17.266105  2824 net.cpp:122] Setting up BatchNorm4
I1006 11:25:17.266111  2824 net.cpp:129] Top shape: 100 16 28 28 (1254400)
I1006 11:25:17.266113  2824 net.cpp:137] Memory required for data: 96275600
I1006 11:25:17.266121  2824 layer_factory.hpp:77] Creating layer Scale4
I1006 11:25:17.266125  2824 net.cpp:84] Creating Layer Scale4
I1006 11:25:17.266129  2824 net.cpp:406] Scale4 <- Convolution4
I1006 11:25:17.266132  2824 net.cpp:367] Scale4 -> Convolution4 (in-place)
I1006 11:25:17.266155  2824 layer_factory.hpp:77] Creating layer Scale4
I1006 11:25:17.266222  2824 net.cpp:122] Setting up Scale4
I1006 11:25:17.266225  2824 net.cpp:129] Top shape: 100 16 28 28 (1254400)
I1006 11:25:17.266228  2824 net.cpp:137] Memory required for data: 101293200
I1006 11:25:17.266232  2824 layer_factory.hpp:77] Creating layer penlu4
I1006 11:25:17.266237  2824 net.cpp:84] Creating Layer penlu4
I1006 11:25:17.266242  2824 net.cpp:406] penlu4 <- Convolution4
I1006 11:25:17.266244  2824 net.cpp:367] penlu4 -> Convolution4 (in-place)
I1006 11:25:17.266333  2824 net.cpp:122] Setting up penlu4
I1006 11:25:17.266338  2824 net.cpp:129] Top shape: 100 16 28 28 (1254400)
I1006 11:25:17.266341  2824 net.cpp:137] Memory required for data: 106310800
I1006 11:25:17.266345  2824 layer_factory.hpp:77] Creating layer Convolution5
I1006 11:25:17.266352  2824 net.cpp:84] Creating Layer Convolution5
I1006 11:25:17.266355  2824 net.cpp:406] Convolution5 <- Convolution4
I1006 11:25:17.266360  2824 net.cpp:380] Convolution5 -> Convolution5
I1006 11:25:17.267187  2824 net.cpp:122] Setting up Convolution5
I1006 11:25:17.267197  2824 net.cpp:129] Top shape: 100 16 28 28 (1254400)
I1006 11:25:17.267210  2824 net.cpp:137] Memory required for data: 111328400
I1006 11:25:17.267215  2824 layer_factory.hpp:77] Creating layer BatchNorm5
I1006 11:25:17.267220  2824 net.cpp:84] Creating Layer BatchNorm5
I1006 11:25:17.267223  2824 net.cpp:406] BatchNorm5 <- Convolution5
I1006 11:25:17.267226  2824 net.cpp:367] BatchNorm5 -> Convolution5 (in-place)
I1006 11:25:17.267340  2824 net.cpp:122] Setting up BatchNorm5
I1006 11:25:17.267345  2824 net.cpp:129] Top shape: 100 16 28 28 (1254400)
I1006 11:25:17.267349  2824 net.cpp:137] Memory required for data: 116346000
I1006 11:25:17.267352  2824 layer_factory.hpp:77] Creating layer Scale5
I1006 11:25:17.267357  2824 net.cpp:84] Creating Layer Scale5
I1006 11:25:17.267360  2824 net.cpp:406] Scale5 <- Convolution5
I1006 11:25:17.267364  2824 net.cpp:367] Scale5 -> Convolution5 (in-place)
I1006 11:25:17.267386  2824 layer_factory.hpp:77] Creating layer Scale5
I1006 11:25:17.267453  2824 net.cpp:122] Setting up Scale5
I1006 11:25:17.267458  2824 net.cpp:129] Top shape: 100 16 28 28 (1254400)
I1006 11:25:17.267460  2824 net.cpp:137] Memory required for data: 121363600
I1006 11:25:17.267464  2824 layer_factory.hpp:77] Creating layer Eltwise2
I1006 11:25:17.267468  2824 net.cpp:84] Creating Layer Eltwise2
I1006 11:25:17.267472  2824 net.cpp:406] Eltwise2 <- Eltwise1_penlu3_0_split_1
I1006 11:25:17.267474  2824 net.cpp:406] Eltwise2 <- Convolution5
I1006 11:25:17.267477  2824 net.cpp:380] Eltwise2 -> Eltwise2
I1006 11:25:17.267491  2824 net.cpp:122] Setting up Eltwise2
I1006 11:25:17.267495  2824 net.cpp:129] Top shape: 100 16 28 28 (1254400)
I1006 11:25:17.267498  2824 net.cpp:137] Memory required for data: 126381200
I1006 11:25:17.267500  2824 layer_factory.hpp:77] Creating layer penlu5
I1006 11:25:17.267504  2824 net.cpp:84] Creating Layer penlu5
I1006 11:25:17.267508  2824 net.cpp:406] penlu5 <- Eltwise2
I1006 11:25:17.267511  2824 net.cpp:367] penlu5 -> Eltwise2 (in-place)
I1006 11:25:17.267604  2824 net.cpp:122] Setting up penlu5
I1006 11:25:17.267609  2824 net.cpp:129] Top shape: 100 16 28 28 (1254400)
I1006 11:25:17.267611  2824 net.cpp:137] Memory required for data: 131398800
I1006 11:25:17.267616  2824 layer_factory.hpp:77] Creating layer Eltwise2_penlu5_0_split
I1006 11:25:17.267627  2824 net.cpp:84] Creating Layer Eltwise2_penlu5_0_split
I1006 11:25:17.267630  2824 net.cpp:406] Eltwise2_penlu5_0_split <- Eltwise2
I1006 11:25:17.267633  2824 net.cpp:380] Eltwise2_penlu5_0_split -> Eltwise2_penlu5_0_split_0
I1006 11:25:17.267637  2824 net.cpp:380] Eltwise2_penlu5_0_split -> Eltwise2_penlu5_0_split_1
I1006 11:25:17.267659  2824 net.cpp:122] Setting up Eltwise2_penlu5_0_split
I1006 11:25:17.267663  2824 net.cpp:129] Top shape: 100 16 28 28 (1254400)
I1006 11:25:17.267666  2824 net.cpp:129] Top shape: 100 16 28 28 (1254400)
I1006 11:25:17.267668  2824 net.cpp:137] Memory required for data: 141434000
I1006 11:25:17.267671  2824 layer_factory.hpp:77] Creating layer Convolution6
I1006 11:25:17.267678  2824 net.cpp:84] Creating Layer Convolution6
I1006 11:25:17.267680  2824 net.cpp:406] Convolution6 <- Eltwise2_penlu5_0_split_0
I1006 11:25:17.267683  2824 net.cpp:380] Convolution6 -> Convolution6
I1006 11:25:17.268494  2824 net.cpp:122] Setting up Convolution6
I1006 11:25:17.268504  2824 net.cpp:129] Top shape: 100 16 28 28 (1254400)
I1006 11:25:17.268507  2824 net.cpp:137] Memory required for data: 146451600
I1006 11:25:17.268512  2824 layer_factory.hpp:77] Creating layer BatchNorm6
I1006 11:25:17.268517  2824 net.cpp:84] Creating Layer BatchNorm6
I1006 11:25:17.268520  2824 net.cpp:406] BatchNorm6 <- Convolution6
I1006 11:25:17.268524  2824 net.cpp:367] BatchNorm6 -> Convolution6 (in-place)
I1006 11:25:17.268637  2824 net.cpp:122] Setting up BatchNorm6
I1006 11:25:17.268642  2824 net.cpp:129] Top shape: 100 16 28 28 (1254400)
I1006 11:25:17.268646  2824 net.cpp:137] Memory required for data: 151469200
I1006 11:25:17.268651  2824 layer_factory.hpp:77] Creating layer Scale6
I1006 11:25:17.268654  2824 net.cpp:84] Creating Layer Scale6
I1006 11:25:17.268657  2824 net.cpp:406] Scale6 <- Convolution6
I1006 11:25:17.268661  2824 net.cpp:367] Scale6 -> Convolution6 (in-place)
I1006 11:25:17.268683  2824 layer_factory.hpp:77] Creating layer Scale6
I1006 11:25:17.268751  2824 net.cpp:122] Setting up Scale6
I1006 11:25:17.268756  2824 net.cpp:129] Top shape: 100 16 28 28 (1254400)
I1006 11:25:17.268759  2824 net.cpp:137] Memory required for data: 156486800
I1006 11:25:17.268762  2824 layer_factory.hpp:77] Creating layer penlu6
I1006 11:25:17.268769  2824 net.cpp:84] Creating Layer penlu6
I1006 11:25:17.268771  2824 net.cpp:406] penlu6 <- Convolution6
I1006 11:25:17.268774  2824 net.cpp:367] penlu6 -> Convolution6 (in-place)
I1006 11:25:17.268867  2824 net.cpp:122] Setting up penlu6
I1006 11:25:17.268872  2824 net.cpp:129] Top shape: 100 16 28 28 (1254400)
I1006 11:25:17.268874  2824 net.cpp:137] Memory required for data: 161504400
I1006 11:25:17.268878  2824 layer_factory.hpp:77] Creating layer Convolution7
I1006 11:25:17.268884  2824 net.cpp:84] Creating Layer Convolution7
I1006 11:25:17.268888  2824 net.cpp:406] Convolution7 <- Convolution6
I1006 11:25:17.268893  2824 net.cpp:380] Convolution7 -> Convolution7
I1006 11:25:17.269383  2824 net.cpp:122] Setting up Convolution7
I1006 11:25:17.269392  2824 net.cpp:129] Top shape: 100 16 28 28 (1254400)
I1006 11:25:17.269395  2824 net.cpp:137] Memory required for data: 166522000
I1006 11:25:17.269399  2824 layer_factory.hpp:77] Creating layer BatchNorm7
I1006 11:25:17.269403  2824 net.cpp:84] Creating Layer BatchNorm7
I1006 11:25:17.269407  2824 net.cpp:406] BatchNorm7 <- Convolution7
I1006 11:25:17.269410  2824 net.cpp:367] BatchNorm7 -> Convolution7 (in-place)
I1006 11:25:17.269524  2824 net.cpp:122] Setting up BatchNorm7
I1006 11:25:17.269529  2824 net.cpp:129] Top shape: 100 16 28 28 (1254400)
I1006 11:25:17.269531  2824 net.cpp:137] Memory required for data: 171539600
I1006 11:25:17.269541  2824 layer_factory.hpp:77] Creating layer Scale7
I1006 11:25:17.269546  2824 net.cpp:84] Creating Layer Scale7
I1006 11:25:17.269549  2824 net.cpp:406] Scale7 <- Convolution7
I1006 11:25:17.269552  2824 net.cpp:367] Scale7 -> Convolution7 (in-place)
I1006 11:25:17.269575  2824 layer_factory.hpp:77] Creating layer Scale7
I1006 11:25:17.269642  2824 net.cpp:122] Setting up Scale7
I1006 11:25:17.269654  2824 net.cpp:129] Top shape: 100 16 28 28 (1254400)
I1006 11:25:17.269655  2824 net.cpp:137] Memory required for data: 176557200
I1006 11:25:17.269659  2824 layer_factory.hpp:77] Creating layer Eltwise3
I1006 11:25:17.269665  2824 net.cpp:84] Creating Layer Eltwise3
I1006 11:25:17.269668  2824 net.cpp:406] Eltwise3 <- Eltwise2_penlu5_0_split_1
I1006 11:25:17.269671  2824 net.cpp:406] Eltwise3 <- Convolution7
I1006 11:25:17.269675  2824 net.cpp:380] Eltwise3 -> Eltwise3
I1006 11:25:17.269690  2824 net.cpp:122] Setting up Eltwise3
I1006 11:25:17.269693  2824 net.cpp:129] Top shape: 100 16 28 28 (1254400)
I1006 11:25:17.269696  2824 net.cpp:137] Memory required for data: 181574800
I1006 11:25:17.269698  2824 layer_factory.hpp:77] Creating layer penlu7
I1006 11:25:17.269703  2824 net.cpp:84] Creating Layer penlu7
I1006 11:25:17.269706  2824 net.cpp:406] penlu7 <- Eltwise3
I1006 11:25:17.269709  2824 net.cpp:367] penlu7 -> Eltwise3 (in-place)
I1006 11:25:17.269804  2824 net.cpp:122] Setting up penlu7
I1006 11:25:17.269807  2824 net.cpp:129] Top shape: 100 16 28 28 (1254400)
I1006 11:25:17.269810  2824 net.cpp:137] Memory required for data: 186592400
I1006 11:25:17.269814  2824 layer_factory.hpp:77] Creating layer Eltwise3_penlu7_0_split
I1006 11:25:17.269819  2824 net.cpp:84] Creating Layer Eltwise3_penlu7_0_split
I1006 11:25:17.269821  2824 net.cpp:406] Eltwise3_penlu7_0_split <- Eltwise3
I1006 11:25:17.269824  2824 net.cpp:380] Eltwise3_penlu7_0_split -> Eltwise3_penlu7_0_split_0
I1006 11:25:17.269829  2824 net.cpp:380] Eltwise3_penlu7_0_split -> Eltwise3_penlu7_0_split_1
I1006 11:25:17.269848  2824 net.cpp:122] Setting up Eltwise3_penlu7_0_split
I1006 11:25:17.269853  2824 net.cpp:129] Top shape: 100 16 28 28 (1254400)
I1006 11:25:17.269856  2824 net.cpp:129] Top shape: 100 16 28 28 (1254400)
I1006 11:25:17.269858  2824 net.cpp:137] Memory required for data: 196627600
I1006 11:25:17.269860  2824 layer_factory.hpp:77] Creating layer Convolution8
I1006 11:25:17.269866  2824 net.cpp:84] Creating Layer Convolution8
I1006 11:25:17.269870  2824 net.cpp:406] Convolution8 <- Eltwise3_penlu7_0_split_0
I1006 11:25:17.269873  2824 net.cpp:380] Convolution8 -> Convolution8
I1006 11:25:17.270671  2824 net.cpp:122] Setting up Convolution8
I1006 11:25:17.270681  2824 net.cpp:129] Top shape: 100 16 28 28 (1254400)
I1006 11:25:17.270684  2824 net.cpp:137] Memory required for data: 201645200
I1006 11:25:17.270689  2824 layer_factory.hpp:77] Creating layer BatchNorm8
I1006 11:25:17.270694  2824 net.cpp:84] Creating Layer BatchNorm8
I1006 11:25:17.270697  2824 net.cpp:406] BatchNorm8 <- Convolution8
I1006 11:25:17.270700  2824 net.cpp:367] BatchNorm8 -> Convolution8 (in-place)
I1006 11:25:17.270815  2824 net.cpp:122] Setting up BatchNorm8
I1006 11:25:17.270820  2824 net.cpp:129] Top shape: 100 16 28 28 (1254400)
I1006 11:25:17.270823  2824 net.cpp:137] Memory required for data: 206662800
I1006 11:25:17.270828  2824 layer_factory.hpp:77] Creating layer Scale8
I1006 11:25:17.270833  2824 net.cpp:84] Creating Layer Scale8
I1006 11:25:17.270835  2824 net.cpp:406] Scale8 <- Convolution8
I1006 11:25:17.270838  2824 net.cpp:367] Scale8 -> Convolution8 (in-place)
I1006 11:25:17.270861  2824 layer_factory.hpp:77] Creating layer Scale8
I1006 11:25:17.270928  2824 net.cpp:122] Setting up Scale8
I1006 11:25:17.270933  2824 net.cpp:129] Top shape: 100 16 28 28 (1254400)
I1006 11:25:17.270936  2824 net.cpp:137] Memory required for data: 211680400
I1006 11:25:17.270939  2824 layer_factory.hpp:77] Creating layer penlu8
I1006 11:25:17.270944  2824 net.cpp:84] Creating Layer penlu8
I1006 11:25:17.270947  2824 net.cpp:406] penlu8 <- Convolution8
I1006 11:25:17.270951  2824 net.cpp:367] penlu8 -> Convolution8 (in-place)
I1006 11:25:17.271042  2824 net.cpp:122] Setting up penlu8
I1006 11:25:17.271047  2824 net.cpp:129] Top shape: 100 16 28 28 (1254400)
I1006 11:25:17.271050  2824 net.cpp:137] Memory required for data: 216698000
I1006 11:25:17.271054  2824 layer_factory.hpp:77] Creating layer Convolution9
I1006 11:25:17.271067  2824 net.cpp:84] Creating Layer Convolution9
I1006 11:25:17.271070  2824 net.cpp:406] Convolution9 <- Convolution8
I1006 11:25:17.271075  2824 net.cpp:380] Convolution9 -> Convolution9
I1006 11:25:17.271936  2824 net.cpp:122] Setting up Convolution9
I1006 11:25:17.271946  2824 net.cpp:129] Top shape: 100 16 28 28 (1254400)
I1006 11:25:17.271950  2824 net.cpp:137] Memory required for data: 221715600
I1006 11:25:17.271955  2824 layer_factory.hpp:77] Creating layer BatchNorm9
I1006 11:25:17.271960  2824 net.cpp:84] Creating Layer BatchNorm9
I1006 11:25:17.271963  2824 net.cpp:406] BatchNorm9 <- Convolution9
I1006 11:25:17.271967  2824 net.cpp:367] BatchNorm9 -> Convolution9 (in-place)
I1006 11:25:17.272085  2824 net.cpp:122] Setting up BatchNorm9
I1006 11:25:17.272091  2824 net.cpp:129] Top shape: 100 16 28 28 (1254400)
I1006 11:25:17.272094  2824 net.cpp:137] Memory required for data: 226733200
I1006 11:25:17.272099  2824 layer_factory.hpp:77] Creating layer Scale9
I1006 11:25:17.272104  2824 net.cpp:84] Creating Layer Scale9
I1006 11:25:17.272106  2824 net.cpp:406] Scale9 <- Convolution9
I1006 11:25:17.272109  2824 net.cpp:367] Scale9 -> Convolution9 (in-place)
I1006 11:25:17.272133  2824 layer_factory.hpp:77] Creating layer Scale9
I1006 11:25:17.272204  2824 net.cpp:122] Setting up Scale9
I1006 11:25:17.272209  2824 net.cpp:129] Top shape: 100 16 28 28 (1254400)
I1006 11:25:17.272212  2824 net.cpp:137] Memory required for data: 231750800
I1006 11:25:17.272215  2824 layer_factory.hpp:77] Creating layer Eltwise4
I1006 11:25:17.272219  2824 net.cpp:84] Creating Layer Eltwise4
I1006 11:25:17.272222  2824 net.cpp:406] Eltwise4 <- Eltwise3_penlu7_0_split_1
I1006 11:25:17.272225  2824 net.cpp:406] Eltwise4 <- Convolution9
I1006 11:25:17.272228  2824 net.cpp:380] Eltwise4 -> Eltwise4
I1006 11:25:17.272243  2824 net.cpp:122] Setting up Eltwise4
I1006 11:25:17.272246  2824 net.cpp:129] Top shape: 100 16 28 28 (1254400)
I1006 11:25:17.272249  2824 net.cpp:137] Memory required for data: 236768400
I1006 11:25:17.272251  2824 layer_factory.hpp:77] Creating layer penlu9
I1006 11:25:17.272256  2824 net.cpp:84] Creating Layer penlu9
I1006 11:25:17.272258  2824 net.cpp:406] penlu9 <- Eltwise4
I1006 11:25:17.272263  2824 net.cpp:367] penlu9 -> Eltwise4 (in-place)
I1006 11:25:17.272359  2824 net.cpp:122] Setting up penlu9
I1006 11:25:17.272364  2824 net.cpp:129] Top shape: 100 16 28 28 (1254400)
I1006 11:25:17.272367  2824 net.cpp:137] Memory required for data: 241786000
I1006 11:25:17.272372  2824 layer_factory.hpp:77] Creating layer Eltwise4_penlu9_0_split
I1006 11:25:17.272375  2824 net.cpp:84] Creating Layer Eltwise4_penlu9_0_split
I1006 11:25:17.272378  2824 net.cpp:406] Eltwise4_penlu9_0_split <- Eltwise4
I1006 11:25:17.272382  2824 net.cpp:380] Eltwise4_penlu9_0_split -> Eltwise4_penlu9_0_split_0
I1006 11:25:17.272387  2824 net.cpp:380] Eltwise4_penlu9_0_split -> Eltwise4_penlu9_0_split_1
I1006 11:25:17.272408  2824 net.cpp:122] Setting up Eltwise4_penlu9_0_split
I1006 11:25:17.272411  2824 net.cpp:129] Top shape: 100 16 28 28 (1254400)
I1006 11:25:17.272414  2824 net.cpp:129] Top shape: 100 16 28 28 (1254400)
I1006 11:25:17.272416  2824 net.cpp:137] Memory required for data: 251821200
I1006 11:25:17.272418  2824 layer_factory.hpp:77] Creating layer Convolution10
I1006 11:25:17.272424  2824 net.cpp:84] Creating Layer Convolution10
I1006 11:25:17.272428  2824 net.cpp:406] Convolution10 <- Eltwise4_penlu9_0_split_0
I1006 11:25:17.272431  2824 net.cpp:380] Convolution10 -> Convolution10
I1006 11:25:17.273376  2824 net.cpp:122] Setting up Convolution10
I1006 11:25:17.273386  2824 net.cpp:129] Top shape: 100 16 28 28 (1254400)
I1006 11:25:17.273389  2824 net.cpp:137] Memory required for data: 256838800
I1006 11:25:17.273404  2824 layer_factory.hpp:77] Creating layer BatchNorm10
I1006 11:25:17.273411  2824 net.cpp:84] Creating Layer BatchNorm10
I1006 11:25:17.273413  2824 net.cpp:406] BatchNorm10 <- Convolution10
I1006 11:25:17.273417  2824 net.cpp:367] BatchNorm10 -> Convolution10 (in-place)
I1006 11:25:17.273545  2824 net.cpp:122] Setting up BatchNorm10
I1006 11:25:17.273556  2824 net.cpp:129] Top shape: 100 16 28 28 (1254400)
I1006 11:25:17.273560  2824 net.cpp:137] Memory required for data: 261856400
I1006 11:25:17.273574  2824 layer_factory.hpp:77] Creating layer Scale10
I1006 11:25:17.273581  2824 net.cpp:84] Creating Layer Scale10
I1006 11:25:17.273583  2824 net.cpp:406] Scale10 <- Convolution10
I1006 11:25:17.273586  2824 net.cpp:367] Scale10 -> Convolution10 (in-place)
I1006 11:25:17.273622  2824 layer_factory.hpp:77] Creating layer Scale10
I1006 11:25:17.273701  2824 net.cpp:122] Setting up Scale10
I1006 11:25:17.273706  2824 net.cpp:129] Top shape: 100 16 28 28 (1254400)
I1006 11:25:17.273710  2824 net.cpp:137] Memory required for data: 266874000
I1006 11:25:17.273713  2824 layer_factory.hpp:77] Creating layer penlu10
I1006 11:25:17.273720  2824 net.cpp:84] Creating Layer penlu10
I1006 11:25:17.273722  2824 net.cpp:406] penlu10 <- Convolution10
I1006 11:25:17.273725  2824 net.cpp:367] penlu10 -> Convolution10 (in-place)
I1006 11:25:17.273826  2824 net.cpp:122] Setting up penlu10
I1006 11:25:17.273831  2824 net.cpp:129] Top shape: 100 16 28 28 (1254400)
I1006 11:25:17.273833  2824 net.cpp:137] Memory required for data: 271891600
I1006 11:25:17.273838  2824 layer_factory.hpp:77] Creating layer Convolution11
I1006 11:25:17.273844  2824 net.cpp:84] Creating Layer Convolution11
I1006 11:25:17.273847  2824 net.cpp:406] Convolution11 <- Convolution10
I1006 11:25:17.273851  2824 net.cpp:380] Convolution11 -> Convolution11
I1006 11:25:17.274790  2824 net.cpp:122] Setting up Convolution11
I1006 11:25:17.274801  2824 net.cpp:129] Top shape: 100 16 28 28 (1254400)
I1006 11:25:17.274803  2824 net.cpp:137] Memory required for data: 276909200
I1006 11:25:17.274818  2824 layer_factory.hpp:77] Creating layer BatchNorm11
I1006 11:25:17.274826  2824 net.cpp:84] Creating Layer BatchNorm11
I1006 11:25:17.274828  2824 net.cpp:406] BatchNorm11 <- Convolution11
I1006 11:25:17.274832  2824 net.cpp:367] BatchNorm11 -> Convolution11 (in-place)
I1006 11:25:17.274986  2824 net.cpp:122] Setting up BatchNorm11
I1006 11:25:17.274991  2824 net.cpp:129] Top shape: 100 16 28 28 (1254400)
I1006 11:25:17.274993  2824 net.cpp:137] Memory required for data: 281926800
I1006 11:25:17.275007  2824 layer_factory.hpp:77] Creating layer Scale11
I1006 11:25:17.275012  2824 net.cpp:84] Creating Layer Scale11
I1006 11:25:17.275015  2824 net.cpp:406] Scale11 <- Convolution11
I1006 11:25:17.275019  2824 net.cpp:367] Scale11 -> Convolution11 (in-place)
I1006 11:25:17.275044  2824 layer_factory.hpp:77] Creating layer Scale11
I1006 11:25:17.275116  2824 net.cpp:122] Setting up Scale11
I1006 11:25:17.275121  2824 net.cpp:129] Top shape: 100 16 28 28 (1254400)
I1006 11:25:17.275125  2824 net.cpp:137] Memory required for data: 286944400
I1006 11:25:17.275128  2824 layer_factory.hpp:77] Creating layer Eltwise5
I1006 11:25:17.275133  2824 net.cpp:84] Creating Layer Eltwise5
I1006 11:25:17.275136  2824 net.cpp:406] Eltwise5 <- Eltwise4_penlu9_0_split_1
I1006 11:25:17.275140  2824 net.cpp:406] Eltwise5 <- Convolution11
I1006 11:25:17.275143  2824 net.cpp:380] Eltwise5 -> Eltwise5
I1006 11:25:17.275158  2824 net.cpp:122] Setting up Eltwise5
I1006 11:25:17.275173  2824 net.cpp:129] Top shape: 100 16 28 28 (1254400)
I1006 11:25:17.275177  2824 net.cpp:137] Memory required for data: 291962000
I1006 11:25:17.275179  2824 layer_factory.hpp:77] Creating layer penlu11
I1006 11:25:17.275184  2824 net.cpp:84] Creating Layer penlu11
I1006 11:25:17.275187  2824 net.cpp:406] penlu11 <- Eltwise5
I1006 11:25:17.275192  2824 net.cpp:367] penlu11 -> Eltwise5 (in-place)
I1006 11:25:17.275297  2824 net.cpp:122] Setting up penlu11
I1006 11:25:17.275302  2824 net.cpp:129] Top shape: 100 16 28 28 (1254400)
I1006 11:25:17.275305  2824 net.cpp:137] Memory required for data: 296979600
I1006 11:25:17.275310  2824 layer_factory.hpp:77] Creating layer Eltwise5_penlu11_0_split
I1006 11:25:17.275315  2824 net.cpp:84] Creating Layer Eltwise5_penlu11_0_split
I1006 11:25:17.275317  2824 net.cpp:406] Eltwise5_penlu11_0_split <- Eltwise5
I1006 11:25:17.275328  2824 net.cpp:380] Eltwise5_penlu11_0_split -> Eltwise5_penlu11_0_split_0
I1006 11:25:17.275334  2824 net.cpp:380] Eltwise5_penlu11_0_split -> Eltwise5_penlu11_0_split_1
I1006 11:25:17.275357  2824 net.cpp:122] Setting up Eltwise5_penlu11_0_split
I1006 11:25:17.275362  2824 net.cpp:129] Top shape: 100 16 28 28 (1254400)
I1006 11:25:17.275367  2824 net.cpp:129] Top shape: 100 16 28 28 (1254400)
I1006 11:25:17.275369  2824 net.cpp:137] Memory required for data: 307014800
I1006 11:25:17.275372  2824 layer_factory.hpp:77] Creating layer Convolution12
I1006 11:25:17.275377  2824 net.cpp:84] Creating Layer Convolution12
I1006 11:25:17.275382  2824 net.cpp:406] Convolution12 <- Eltwise5_penlu11_0_split_0
I1006 11:25:17.275385  2824 net.cpp:380] Convolution12 -> Convolution12
I1006 11:25:17.276526  2824 net.cpp:122] Setting up Convolution12
I1006 11:25:17.276537  2824 net.cpp:129] Top shape: 100 32 14 14 (627200)
I1006 11:25:17.276540  2824 net.cpp:137] Memory required for data: 309523600
I1006 11:25:17.276546  2824 layer_factory.hpp:77] Creating layer BatchNorm12
I1006 11:25:17.276551  2824 net.cpp:84] Creating Layer BatchNorm12
I1006 11:25:17.276556  2824 net.cpp:406] BatchNorm12 <- Convolution12
I1006 11:25:17.276559  2824 net.cpp:367] BatchNorm12 -> Convolution12 (in-place)
I1006 11:25:17.276687  2824 net.cpp:122] Setting up BatchNorm12
I1006 11:25:17.276693  2824 net.cpp:129] Top shape: 100 32 14 14 (627200)
I1006 11:25:17.276696  2824 net.cpp:137] Memory required for data: 312032400
I1006 11:25:17.276701  2824 layer_factory.hpp:77] Creating layer Scale12
I1006 11:25:17.276706  2824 net.cpp:84] Creating Layer Scale12
I1006 11:25:17.276710  2824 net.cpp:406] Scale12 <- Convolution12
I1006 11:25:17.276712  2824 net.cpp:367] Scale12 -> Convolution12 (in-place)
I1006 11:25:17.276738  2824 layer_factory.hpp:77] Creating layer Scale12
I1006 11:25:17.276808  2824 net.cpp:122] Setting up Scale12
I1006 11:25:17.276813  2824 net.cpp:129] Top shape: 100 32 14 14 (627200)
I1006 11:25:17.276815  2824 net.cpp:137] Memory required for data: 314541200
I1006 11:25:17.276819  2824 layer_factory.hpp:77] Creating layer Convolution13
I1006 11:25:17.276826  2824 net.cpp:84] Creating Layer Convolution13
I1006 11:25:17.276830  2824 net.cpp:406] Convolution13 <- Eltwise5_penlu11_0_split_1
I1006 11:25:17.276834  2824 net.cpp:380] Convolution13 -> Convolution13
I1006 11:25:17.278060  2824 net.cpp:122] Setting up Convolution13
I1006 11:25:17.278070  2824 net.cpp:129] Top shape: 100 32 14 14 (627200)
I1006 11:25:17.278074  2824 net.cpp:137] Memory required for data: 317050000
I1006 11:25:17.278079  2824 layer_factory.hpp:77] Creating layer BatchNorm13
I1006 11:25:17.278084  2824 net.cpp:84] Creating Layer BatchNorm13
I1006 11:25:17.278087  2824 net.cpp:406] BatchNorm13 <- Convolution13
I1006 11:25:17.278091  2824 net.cpp:367] BatchNorm13 -> Convolution13 (in-place)
I1006 11:25:17.278218  2824 net.cpp:122] Setting up BatchNorm13
I1006 11:25:17.278224  2824 net.cpp:129] Top shape: 100 32 14 14 (627200)
I1006 11:25:17.278228  2824 net.cpp:137] Memory required for data: 319558800
I1006 11:25:17.278232  2824 layer_factory.hpp:77] Creating layer Scale13
I1006 11:25:17.278237  2824 net.cpp:84] Creating Layer Scale13
I1006 11:25:17.278240  2824 net.cpp:406] Scale13 <- Convolution13
I1006 11:25:17.278244  2824 net.cpp:367] Scale13 -> Convolution13 (in-place)
I1006 11:25:17.278270  2824 layer_factory.hpp:77] Creating layer Scale13
I1006 11:25:17.278340  2824 net.cpp:122] Setting up Scale13
I1006 11:25:17.278345  2824 net.cpp:129] Top shape: 100 32 14 14 (627200)
I1006 11:25:17.278348  2824 net.cpp:137] Memory required for data: 322067600
I1006 11:25:17.278353  2824 layer_factory.hpp:77] Creating layer penlu12
I1006 11:25:17.278358  2824 net.cpp:84] Creating Layer penlu12
I1006 11:25:17.278362  2824 net.cpp:406] penlu12 <- Convolution13
I1006 11:25:17.278365  2824 net.cpp:367] penlu12 -> Convolution13 (in-place)
I1006 11:25:17.278466  2824 net.cpp:122] Setting up penlu12
I1006 11:25:17.278471  2824 net.cpp:129] Top shape: 100 32 14 14 (627200)
I1006 11:25:17.278481  2824 net.cpp:137] Memory required for data: 324576400
I1006 11:25:17.278486  2824 layer_factory.hpp:77] Creating layer Convolution14
I1006 11:25:17.278492  2824 net.cpp:84] Creating Layer Convolution14
I1006 11:25:17.278496  2824 net.cpp:406] Convolution14 <- Convolution13
I1006 11:25:17.278501  2824 net.cpp:380] Convolution14 -> Convolution14
I1006 11:25:17.279533  2824 net.cpp:122] Setting up Convolution14
I1006 11:25:17.279543  2824 net.cpp:129] Top shape: 100 32 14 14 (627200)
I1006 11:25:17.279547  2824 net.cpp:137] Memory required for data: 327085200
I1006 11:25:17.279561  2824 layer_factory.hpp:77] Creating layer BatchNorm14
I1006 11:25:17.279568  2824 net.cpp:84] Creating Layer BatchNorm14
I1006 11:25:17.279572  2824 net.cpp:406] BatchNorm14 <- Convolution14
I1006 11:25:17.279577  2824 net.cpp:367] BatchNorm14 -> Convolution14 (in-place)
I1006 11:25:17.279701  2824 net.cpp:122] Setting up BatchNorm14
I1006 11:25:17.279706  2824 net.cpp:129] Top shape: 100 32 14 14 (627200)
I1006 11:25:17.279709  2824 net.cpp:137] Memory required for data: 329594000
I1006 11:25:17.279716  2824 layer_factory.hpp:77] Creating layer Scale14
I1006 11:25:17.279721  2824 net.cpp:84] Creating Layer Scale14
I1006 11:25:17.279723  2824 net.cpp:406] Scale14 <- Convolution14
I1006 11:25:17.279727  2824 net.cpp:367] Scale14 -> Convolution14 (in-place)
I1006 11:25:17.279752  2824 layer_factory.hpp:77] Creating layer Scale14
I1006 11:25:17.279824  2824 net.cpp:122] Setting up Scale14
I1006 11:25:17.279829  2824 net.cpp:129] Top shape: 100 32 14 14 (627200)
I1006 11:25:17.279831  2824 net.cpp:137] Memory required for data: 332102800
I1006 11:25:17.279836  2824 layer_factory.hpp:77] Creating layer Eltwise6
I1006 11:25:17.279840  2824 net.cpp:84] Creating Layer Eltwise6
I1006 11:25:17.279844  2824 net.cpp:406] Eltwise6 <- Convolution12
I1006 11:25:17.279846  2824 net.cpp:406] Eltwise6 <- Convolution14
I1006 11:25:17.279850  2824 net.cpp:380] Eltwise6 -> Eltwise6
I1006 11:25:17.279865  2824 net.cpp:122] Setting up Eltwise6
I1006 11:25:17.279868  2824 net.cpp:129] Top shape: 100 32 14 14 (627200)
I1006 11:25:17.279870  2824 net.cpp:137] Memory required for data: 334611600
I1006 11:25:17.279872  2824 layer_factory.hpp:77] Creating layer penlu13
I1006 11:25:17.279877  2824 net.cpp:84] Creating Layer penlu13
I1006 11:25:17.279881  2824 net.cpp:406] penlu13 <- Eltwise6
I1006 11:25:17.279883  2824 net.cpp:367] penlu13 -> Eltwise6 (in-place)
I1006 11:25:17.279983  2824 net.cpp:122] Setting up penlu13
I1006 11:25:17.279988  2824 net.cpp:129] Top shape: 100 32 14 14 (627200)
I1006 11:25:17.279989  2824 net.cpp:137] Memory required for data: 337120400
I1006 11:25:17.279994  2824 layer_factory.hpp:77] Creating layer Eltwise6_penlu13_0_split
I1006 11:25:17.279997  2824 net.cpp:84] Creating Layer Eltwise6_penlu13_0_split
I1006 11:25:17.280000  2824 net.cpp:406] Eltwise6_penlu13_0_split <- Eltwise6
I1006 11:25:17.280004  2824 net.cpp:380] Eltwise6_penlu13_0_split -> Eltwise6_penlu13_0_split_0
I1006 11:25:17.280007  2824 net.cpp:380] Eltwise6_penlu13_0_split -> Eltwise6_penlu13_0_split_1
I1006 11:25:17.280028  2824 net.cpp:122] Setting up Eltwise6_penlu13_0_split
I1006 11:25:17.280032  2824 net.cpp:129] Top shape: 100 32 14 14 (627200)
I1006 11:25:17.280035  2824 net.cpp:129] Top shape: 100 32 14 14 (627200)
I1006 11:25:17.280037  2824 net.cpp:137] Memory required for data: 342138000
I1006 11:25:17.280040  2824 layer_factory.hpp:77] Creating layer Convolution15
I1006 11:25:17.280045  2824 net.cpp:84] Creating Layer Convolution15
I1006 11:25:17.280048  2824 net.cpp:406] Convolution15 <- Eltwise6_penlu13_0_split_0
I1006 11:25:17.280052  2824 net.cpp:380] Convolution15 -> Convolution15
I1006 11:25:17.281059  2824 net.cpp:122] Setting up Convolution15
I1006 11:25:17.281069  2824 net.cpp:129] Top shape: 100 32 14 14 (627200)
I1006 11:25:17.281071  2824 net.cpp:137] Memory required for data: 344646800
I1006 11:25:17.281075  2824 layer_factory.hpp:77] Creating layer BatchNorm15
I1006 11:25:17.281080  2824 net.cpp:84] Creating Layer BatchNorm15
I1006 11:25:17.281090  2824 net.cpp:406] BatchNorm15 <- Convolution15
I1006 11:25:17.281095  2824 net.cpp:367] BatchNorm15 -> Convolution15 (in-place)
I1006 11:25:17.281217  2824 net.cpp:122] Setting up BatchNorm15
I1006 11:25:17.281222  2824 net.cpp:129] Top shape: 100 32 14 14 (627200)
I1006 11:25:17.281224  2824 net.cpp:137] Memory required for data: 347155600
I1006 11:25:17.281229  2824 layer_factory.hpp:77] Creating layer Scale15
I1006 11:25:17.281234  2824 net.cpp:84] Creating Layer Scale15
I1006 11:25:17.281236  2824 net.cpp:406] Scale15 <- Convolution15
I1006 11:25:17.281239  2824 net.cpp:367] Scale15 -> Convolution15 (in-place)
I1006 11:25:17.281263  2824 layer_factory.hpp:77] Creating layer Scale15
I1006 11:25:17.281332  2824 net.cpp:122] Setting up Scale15
I1006 11:25:17.281337  2824 net.cpp:129] Top shape: 100 32 14 14 (627200)
I1006 11:25:17.281339  2824 net.cpp:137] Memory required for data: 349664400
I1006 11:25:17.281343  2824 layer_factory.hpp:77] Creating layer penlu14
I1006 11:25:17.281348  2824 net.cpp:84] Creating Layer penlu14
I1006 11:25:17.281350  2824 net.cpp:406] penlu14 <- Convolution15
I1006 11:25:17.281354  2824 net.cpp:367] penlu14 -> Convolution15 (in-place)
I1006 11:25:17.281452  2824 net.cpp:122] Setting up penlu14
I1006 11:25:17.281456  2824 net.cpp:129] Top shape: 100 32 14 14 (627200)
I1006 11:25:17.281460  2824 net.cpp:137] Memory required for data: 352173200
I1006 11:25:17.281463  2824 layer_factory.hpp:77] Creating layer Convolution16
I1006 11:25:17.281469  2824 net.cpp:84] Creating Layer Convolution16
I1006 11:25:17.281471  2824 net.cpp:406] Convolution16 <- Convolution15
I1006 11:25:17.281476  2824 net.cpp:380] Convolution16 -> Convolution16
I1006 11:25:17.282485  2824 net.cpp:122] Setting up Convolution16
I1006 11:25:17.282495  2824 net.cpp:129] Top shape: 100 32 14 14 (627200)
I1006 11:25:17.282496  2824 net.cpp:137] Memory required for data: 354682000
I1006 11:25:17.282502  2824 layer_factory.hpp:77] Creating layer BatchNorm16
I1006 11:25:17.282507  2824 net.cpp:84] Creating Layer BatchNorm16
I1006 11:25:17.282510  2824 net.cpp:406] BatchNorm16 <- Convolution16
I1006 11:25:17.282513  2824 net.cpp:367] BatchNorm16 -> Convolution16 (in-place)
I1006 11:25:17.282636  2824 net.cpp:122] Setting up BatchNorm16
I1006 11:25:17.282640  2824 net.cpp:129] Top shape: 100 32 14 14 (627200)
I1006 11:25:17.282642  2824 net.cpp:137] Memory required for data: 357190800
I1006 11:25:17.282647  2824 layer_factory.hpp:77] Creating layer Scale16
I1006 11:25:17.282651  2824 net.cpp:84] Creating Layer Scale16
I1006 11:25:17.282655  2824 net.cpp:406] Scale16 <- Convolution16
I1006 11:25:17.282657  2824 net.cpp:367] Scale16 -> Convolution16 (in-place)
I1006 11:25:17.282681  2824 layer_factory.hpp:77] Creating layer Scale16
I1006 11:25:17.282752  2824 net.cpp:122] Setting up Scale16
I1006 11:25:17.282757  2824 net.cpp:129] Top shape: 100 32 14 14 (627200)
I1006 11:25:17.282758  2824 net.cpp:137] Memory required for data: 359699600
I1006 11:25:17.282763  2824 layer_factory.hpp:77] Creating layer Eltwise7
I1006 11:25:17.282766  2824 net.cpp:84] Creating Layer Eltwise7
I1006 11:25:17.282768  2824 net.cpp:406] Eltwise7 <- Eltwise6_penlu13_0_split_1
I1006 11:25:17.282771  2824 net.cpp:406] Eltwise7 <- Convolution16
I1006 11:25:17.282775  2824 net.cpp:380] Eltwise7 -> Eltwise7
I1006 11:25:17.282789  2824 net.cpp:122] Setting up Eltwise7
I1006 11:25:17.282793  2824 net.cpp:129] Top shape: 100 32 14 14 (627200)
I1006 11:25:17.282795  2824 net.cpp:137] Memory required for data: 362208400
I1006 11:25:17.282797  2824 layer_factory.hpp:77] Creating layer penlu15
I1006 11:25:17.282802  2824 net.cpp:84] Creating Layer penlu15
I1006 11:25:17.282804  2824 net.cpp:406] penlu15 <- Eltwise7
I1006 11:25:17.282809  2824 net.cpp:367] penlu15 -> Eltwise7 (in-place)
I1006 11:25:17.282908  2824 net.cpp:122] Setting up penlu15
I1006 11:25:17.282912  2824 net.cpp:129] Top shape: 100 32 14 14 (627200)
I1006 11:25:17.282914  2824 net.cpp:137] Memory required for data: 364717200
I1006 11:25:17.282919  2824 layer_factory.hpp:77] Creating layer Eltwise7_penlu15_0_split
I1006 11:25:17.282929  2824 net.cpp:84] Creating Layer Eltwise7_penlu15_0_split
I1006 11:25:17.282932  2824 net.cpp:406] Eltwise7_penlu15_0_split <- Eltwise7
I1006 11:25:17.282935  2824 net.cpp:380] Eltwise7_penlu15_0_split -> Eltwise7_penlu15_0_split_0
I1006 11:25:17.282939  2824 net.cpp:380] Eltwise7_penlu15_0_split -> Eltwise7_penlu15_0_split_1
I1006 11:25:17.282963  2824 net.cpp:122] Setting up Eltwise7_penlu15_0_split
I1006 11:25:17.282966  2824 net.cpp:129] Top shape: 100 32 14 14 (627200)
I1006 11:25:17.282969  2824 net.cpp:129] Top shape: 100 32 14 14 (627200)
I1006 11:25:17.282971  2824 net.cpp:137] Memory required for data: 369734800
I1006 11:25:17.282974  2824 layer_factory.hpp:77] Creating layer Convolution17
I1006 11:25:17.282980  2824 net.cpp:84] Creating Layer Convolution17
I1006 11:25:17.282982  2824 net.cpp:406] Convolution17 <- Eltwise7_penlu15_0_split_0
I1006 11:25:17.282986  2824 net.cpp:380] Convolution17 -> Convolution17
I1006 11:25:17.283681  2824 net.cpp:122] Setting up Convolution17
I1006 11:25:17.283689  2824 net.cpp:129] Top shape: 100 32 14 14 (627200)
I1006 11:25:17.283691  2824 net.cpp:137] Memory required for data: 372243600
I1006 11:25:17.283695  2824 layer_factory.hpp:77] Creating layer BatchNorm17
I1006 11:25:17.283699  2824 net.cpp:84] Creating Layer BatchNorm17
I1006 11:25:17.283702  2824 net.cpp:406] BatchNorm17 <- Convolution17
I1006 11:25:17.283706  2824 net.cpp:367] BatchNorm17 -> Convolution17 (in-place)
I1006 11:25:17.283823  2824 net.cpp:122] Setting up BatchNorm17
I1006 11:25:17.283828  2824 net.cpp:129] Top shape: 100 32 14 14 (627200)
I1006 11:25:17.283829  2824 net.cpp:137] Memory required for data: 374752400
I1006 11:25:17.283834  2824 layer_factory.hpp:77] Creating layer Scale17
I1006 11:25:17.283838  2824 net.cpp:84] Creating Layer Scale17
I1006 11:25:17.283840  2824 net.cpp:406] Scale17 <- Convolution17
I1006 11:25:17.283844  2824 net.cpp:367] Scale17 -> Convolution17 (in-place)
I1006 11:25:17.283867  2824 layer_factory.hpp:77] Creating layer Scale17
I1006 11:25:17.283956  2824 net.cpp:122] Setting up Scale17
I1006 11:25:17.283959  2824 net.cpp:129] Top shape: 100 32 14 14 (627200)
I1006 11:25:17.283962  2824 net.cpp:137] Memory required for data: 377261200
I1006 11:25:17.283965  2824 layer_factory.hpp:77] Creating layer penlu16
I1006 11:25:17.283970  2824 net.cpp:84] Creating Layer penlu16
I1006 11:25:17.283973  2824 net.cpp:406] penlu16 <- Convolution17
I1006 11:25:17.283977  2824 net.cpp:367] penlu16 -> Convolution17 (in-place)
I1006 11:25:17.284072  2824 net.cpp:122] Setting up penlu16
I1006 11:25:17.284076  2824 net.cpp:129] Top shape: 100 32 14 14 (627200)
I1006 11:25:17.284078  2824 net.cpp:137] Memory required for data: 379770000
I1006 11:25:17.284082  2824 layer_factory.hpp:77] Creating layer Convolution18
I1006 11:25:17.284088  2824 net.cpp:84] Creating Layer Convolution18
I1006 11:25:17.284090  2824 net.cpp:406] Convolution18 <- Convolution17
I1006 11:25:17.284095  2824 net.cpp:380] Convolution18 -> Convolution18
I1006 11:25:17.285079  2824 net.cpp:122] Setting up Convolution18
I1006 11:25:17.285086  2824 net.cpp:129] Top shape: 100 32 14 14 (627200)
I1006 11:25:17.285089  2824 net.cpp:137] Memory required for data: 382278800
I1006 11:25:17.285094  2824 layer_factory.hpp:77] Creating layer BatchNorm18
I1006 11:25:17.285099  2824 net.cpp:84] Creating Layer BatchNorm18
I1006 11:25:17.285101  2824 net.cpp:406] BatchNorm18 <- Convolution18
I1006 11:25:17.285105  2824 net.cpp:367] BatchNorm18 -> Convolution18 (in-place)
I1006 11:25:17.285224  2824 net.cpp:122] Setting up BatchNorm18
I1006 11:25:17.285228  2824 net.cpp:129] Top shape: 100 32 14 14 (627200)
I1006 11:25:17.285230  2824 net.cpp:137] Memory required for data: 384787600
I1006 11:25:17.285235  2824 layer_factory.hpp:77] Creating layer Scale18
I1006 11:25:17.285239  2824 net.cpp:84] Creating Layer Scale18
I1006 11:25:17.285241  2824 net.cpp:406] Scale18 <- Convolution18
I1006 11:25:17.285244  2824 net.cpp:367] Scale18 -> Convolution18 (in-place)
I1006 11:25:17.285276  2824 layer_factory.hpp:77] Creating layer Scale18
I1006 11:25:17.285346  2824 net.cpp:122] Setting up Scale18
I1006 11:25:17.285349  2824 net.cpp:129] Top shape: 100 32 14 14 (627200)
I1006 11:25:17.285351  2824 net.cpp:137] Memory required for data: 387296400
I1006 11:25:17.285356  2824 layer_factory.hpp:77] Creating layer Eltwise8
I1006 11:25:17.285359  2824 net.cpp:84] Creating Layer Eltwise8
I1006 11:25:17.285362  2824 net.cpp:406] Eltwise8 <- Eltwise7_penlu15_0_split_1
I1006 11:25:17.285365  2824 net.cpp:406] Eltwise8 <- Convolution18
I1006 11:25:17.285368  2824 net.cpp:380] Eltwise8 -> Eltwise8
I1006 11:25:17.285382  2824 net.cpp:122] Setting up Eltwise8
I1006 11:25:17.285385  2824 net.cpp:129] Top shape: 100 32 14 14 (627200)
I1006 11:25:17.285387  2824 net.cpp:137] Memory required for data: 389805200
I1006 11:25:17.285389  2824 layer_factory.hpp:77] Creating layer penlu17
I1006 11:25:17.285394  2824 net.cpp:84] Creating Layer penlu17
I1006 11:25:17.285398  2824 net.cpp:406] penlu17 <- Eltwise8
I1006 11:25:17.285400  2824 net.cpp:367] penlu17 -> Eltwise8 (in-place)
I1006 11:25:17.285496  2824 net.cpp:122] Setting up penlu17
I1006 11:25:17.285501  2824 net.cpp:129] Top shape: 100 32 14 14 (627200)
I1006 11:25:17.285503  2824 net.cpp:137] Memory required for data: 392314000
I1006 11:25:17.285507  2824 layer_factory.hpp:77] Creating layer Eltwise8_penlu17_0_split
I1006 11:25:17.285511  2824 net.cpp:84] Creating Layer Eltwise8_penlu17_0_split
I1006 11:25:17.285513  2824 net.cpp:406] Eltwise8_penlu17_0_split <- Eltwise8
I1006 11:25:17.285516  2824 net.cpp:380] Eltwise8_penlu17_0_split -> Eltwise8_penlu17_0_split_0
I1006 11:25:17.285521  2824 net.cpp:380] Eltwise8_penlu17_0_split -> Eltwise8_penlu17_0_split_1
I1006 11:25:17.285542  2824 net.cpp:122] Setting up Eltwise8_penlu17_0_split
I1006 11:25:17.285544  2824 net.cpp:129] Top shape: 100 32 14 14 (627200)
I1006 11:25:17.285547  2824 net.cpp:129] Top shape: 100 32 14 14 (627200)
I1006 11:25:17.285549  2824 net.cpp:137] Memory required for data: 397331600
I1006 11:25:17.285552  2824 layer_factory.hpp:77] Creating layer Convolution19
I1006 11:25:17.285557  2824 net.cpp:84] Creating Layer Convolution19
I1006 11:25:17.285560  2824 net.cpp:406] Convolution19 <- Eltwise8_penlu17_0_split_0
I1006 11:25:17.285564  2824 net.cpp:380] Convolution19 -> Convolution19
I1006 11:25:17.286870  2824 net.cpp:122] Setting up Convolution19
I1006 11:25:17.286880  2824 net.cpp:129] Top shape: 100 32 14 14 (627200)
I1006 11:25:17.286882  2824 net.cpp:137] Memory required for data: 399840400
I1006 11:25:17.286887  2824 layer_factory.hpp:77] Creating layer BatchNorm19
I1006 11:25:17.286891  2824 net.cpp:84] Creating Layer BatchNorm19
I1006 11:25:17.286895  2824 net.cpp:406] BatchNorm19 <- Convolution19
I1006 11:25:17.286898  2824 net.cpp:367] BatchNorm19 -> Convolution19 (in-place)
I1006 11:25:17.287034  2824 net.cpp:122] Setting up BatchNorm19
I1006 11:25:17.287039  2824 net.cpp:129] Top shape: 100 32 14 14 (627200)
I1006 11:25:17.287040  2824 net.cpp:137] Memory required for data: 402349200
I1006 11:25:17.287045  2824 layer_factory.hpp:77] Creating layer Scale19
I1006 11:25:17.287050  2824 net.cpp:84] Creating Layer Scale19
I1006 11:25:17.287052  2824 net.cpp:406] Scale19 <- Convolution19
I1006 11:25:17.287055  2824 net.cpp:367] Scale19 -> Convolution19 (in-place)
I1006 11:25:17.287081  2824 layer_factory.hpp:77] Creating layer Scale19
I1006 11:25:17.287159  2824 net.cpp:122] Setting up Scale19
I1006 11:25:17.287168  2824 net.cpp:129] Top shape: 100 32 14 14 (627200)
I1006 11:25:17.287173  2824 net.cpp:137] Memory required for data: 404858000
I1006 11:25:17.287176  2824 layer_factory.hpp:77] Creating layer penlu18
I1006 11:25:17.287181  2824 net.cpp:84] Creating Layer penlu18
I1006 11:25:17.287184  2824 net.cpp:406] penlu18 <- Convolution19
I1006 11:25:17.287187  2824 net.cpp:367] penlu18 -> Convolution19 (in-place)
I1006 11:25:17.287286  2824 net.cpp:122] Setting up penlu18
I1006 11:25:17.287289  2824 net.cpp:129] Top shape: 100 32 14 14 (627200)
I1006 11:25:17.287292  2824 net.cpp:137] Memory required for data: 407366800
I1006 11:25:17.287303  2824 layer_factory.hpp:77] Creating layer Convolution20
I1006 11:25:17.287310  2824 net.cpp:84] Creating Layer Convolution20
I1006 11:25:17.287312  2824 net.cpp:406] Convolution20 <- Convolution19
I1006 11:25:17.287317  2824 net.cpp:380] Convolution20 -> Convolution20
I1006 11:25:17.288362  2824 net.cpp:122] Setting up Convolution20
I1006 11:25:17.288374  2824 net.cpp:129] Top shape: 100 32 14 14 (627200)
I1006 11:25:17.288379  2824 net.cpp:137] Memory required for data: 409875600
I1006 11:25:17.288388  2824 layer_factory.hpp:77] Creating layer BatchNorm20
I1006 11:25:17.288395  2824 net.cpp:84] Creating Layer BatchNorm20
I1006 11:25:17.288399  2824 net.cpp:406] BatchNorm20 <- Convolution20
I1006 11:25:17.288405  2824 net.cpp:367] BatchNorm20 -> Convolution20 (in-place)
I1006 11:25:17.288554  2824 net.cpp:122] Setting up BatchNorm20
I1006 11:25:17.288561  2824 net.cpp:129] Top shape: 100 32 14 14 (627200)
I1006 11:25:17.288563  2824 net.cpp:137] Memory required for data: 412384400
I1006 11:25:17.288569  2824 layer_factory.hpp:77] Creating layer Scale20
I1006 11:25:17.288573  2824 net.cpp:84] Creating Layer Scale20
I1006 11:25:17.288576  2824 net.cpp:406] Scale20 <- Convolution20
I1006 11:25:17.288579  2824 net.cpp:367] Scale20 -> Convolution20 (in-place)
I1006 11:25:17.288619  2824 layer_factory.hpp:77] Creating layer Scale20
I1006 11:25:17.288707  2824 net.cpp:122] Setting up Scale20
I1006 11:25:17.288712  2824 net.cpp:129] Top shape: 100 32 14 14 (627200)
I1006 11:25:17.288715  2824 net.cpp:137] Memory required for data: 414893200
I1006 11:25:17.288718  2824 layer_factory.hpp:77] Creating layer Eltwise9
I1006 11:25:17.288722  2824 net.cpp:84] Creating Layer Eltwise9
I1006 11:25:17.288725  2824 net.cpp:406] Eltwise9 <- Eltwise8_penlu17_0_split_1
I1006 11:25:17.288728  2824 net.cpp:406] Eltwise9 <- Convolution20
I1006 11:25:17.288731  2824 net.cpp:380] Eltwise9 -> Eltwise9
I1006 11:25:17.288746  2824 net.cpp:122] Setting up Eltwise9
I1006 11:25:17.288749  2824 net.cpp:129] Top shape: 100 32 14 14 (627200)
I1006 11:25:17.288751  2824 net.cpp:137] Memory required for data: 417402000
I1006 11:25:17.288754  2824 layer_factory.hpp:77] Creating layer penlu19
I1006 11:25:17.288758  2824 net.cpp:84] Creating Layer penlu19
I1006 11:25:17.288761  2824 net.cpp:406] penlu19 <- Eltwise9
I1006 11:25:17.288764  2824 net.cpp:367] penlu19 -> Eltwise9 (in-place)
I1006 11:25:17.288861  2824 net.cpp:122] Setting up penlu19
I1006 11:25:17.288864  2824 net.cpp:129] Top shape: 100 32 14 14 (627200)
I1006 11:25:17.288866  2824 net.cpp:137] Memory required for data: 419910800
I1006 11:25:17.288872  2824 layer_factory.hpp:77] Creating layer Eltwise9_penlu19_0_split
I1006 11:25:17.288874  2824 net.cpp:84] Creating Layer Eltwise9_penlu19_0_split
I1006 11:25:17.288877  2824 net.cpp:406] Eltwise9_penlu19_0_split <- Eltwise9
I1006 11:25:17.288880  2824 net.cpp:380] Eltwise9_penlu19_0_split -> Eltwise9_penlu19_0_split_0
I1006 11:25:17.288884  2824 net.cpp:380] Eltwise9_penlu19_0_split -> Eltwise9_penlu19_0_split_1
I1006 11:25:17.288904  2824 net.cpp:122] Setting up Eltwise9_penlu19_0_split
I1006 11:25:17.288908  2824 net.cpp:129] Top shape: 100 32 14 14 (627200)
I1006 11:25:17.288911  2824 net.cpp:129] Top shape: 100 32 14 14 (627200)
I1006 11:25:17.288913  2824 net.cpp:137] Memory required for data: 424928400
I1006 11:25:17.288915  2824 layer_factory.hpp:77] Creating layer Convolution21
I1006 11:25:17.288920  2824 net.cpp:84] Creating Layer Convolution21
I1006 11:25:17.288923  2824 net.cpp:406] Convolution21 <- Eltwise9_penlu19_0_split_0
I1006 11:25:17.288928  2824 net.cpp:380] Convolution21 -> Convolution21
I1006 11:25:17.290343  2824 net.cpp:122] Setting up Convolution21
I1006 11:25:17.290352  2824 net.cpp:129] Top shape: 100 32 14 14 (627200)
I1006 11:25:17.290355  2824 net.cpp:137] Memory required for data: 427437200
I1006 11:25:17.290359  2824 layer_factory.hpp:77] Creating layer BatchNorm21
I1006 11:25:17.290364  2824 net.cpp:84] Creating Layer BatchNorm21
I1006 11:25:17.290374  2824 net.cpp:406] BatchNorm21 <- Convolution21
I1006 11:25:17.290377  2824 net.cpp:367] BatchNorm21 -> Convolution21 (in-place)
I1006 11:25:17.290504  2824 net.cpp:122] Setting up BatchNorm21
I1006 11:25:17.290508  2824 net.cpp:129] Top shape: 100 32 14 14 (627200)
I1006 11:25:17.290511  2824 net.cpp:137] Memory required for data: 429946000
I1006 11:25:17.290515  2824 layer_factory.hpp:77] Creating layer Scale21
I1006 11:25:17.290519  2824 net.cpp:84] Creating Layer Scale21
I1006 11:25:17.290522  2824 net.cpp:406] Scale21 <- Convolution21
I1006 11:25:17.290525  2824 net.cpp:367] Scale21 -> Convolution21 (in-place)
I1006 11:25:17.290549  2824 layer_factory.hpp:77] Creating layer Scale21
I1006 11:25:17.290619  2824 net.cpp:122] Setting up Scale21
I1006 11:25:17.290623  2824 net.cpp:129] Top shape: 100 32 14 14 (627200)
I1006 11:25:17.290626  2824 net.cpp:137] Memory required for data: 432454800
I1006 11:25:17.290629  2824 layer_factory.hpp:77] Creating layer penlu20
I1006 11:25:17.290634  2824 net.cpp:84] Creating Layer penlu20
I1006 11:25:17.290637  2824 net.cpp:406] penlu20 <- Convolution21
I1006 11:25:17.290640  2824 net.cpp:367] penlu20 -> Convolution21 (in-place)
I1006 11:25:17.290740  2824 net.cpp:122] Setting up penlu20
I1006 11:25:17.290745  2824 net.cpp:129] Top shape: 100 32 14 14 (627200)
I1006 11:25:17.290746  2824 net.cpp:137] Memory required for data: 434963600
I1006 11:25:17.290750  2824 layer_factory.hpp:77] Creating layer Convolution22
I1006 11:25:17.290756  2824 net.cpp:84] Creating Layer Convolution22
I1006 11:25:17.290760  2824 net.cpp:406] Convolution22 <- Convolution21
I1006 11:25:17.290763  2824 net.cpp:380] Convolution22 -> Convolution22
I1006 11:25:17.291831  2824 net.cpp:122] Setting up Convolution22
I1006 11:25:17.291841  2824 net.cpp:129] Top shape: 100 32 14 14 (627200)
I1006 11:25:17.291843  2824 net.cpp:137] Memory required for data: 437472400
I1006 11:25:17.291847  2824 layer_factory.hpp:77] Creating layer BatchNorm22
I1006 11:25:17.291852  2824 net.cpp:84] Creating Layer BatchNorm22
I1006 11:25:17.291856  2824 net.cpp:406] BatchNorm22 <- Convolution22
I1006 11:25:17.291867  2824 net.cpp:367] BatchNorm22 -> Convolution22 (in-place)
I1006 11:25:17.291990  2824 net.cpp:122] Setting up BatchNorm22
I1006 11:25:17.291993  2824 net.cpp:129] Top shape: 100 32 14 14 (627200)
I1006 11:25:17.291996  2824 net.cpp:137] Memory required for data: 439981200
I1006 11:25:17.292001  2824 layer_factory.hpp:77] Creating layer Scale22
I1006 11:25:17.292004  2824 net.cpp:84] Creating Layer Scale22
I1006 11:25:17.292007  2824 net.cpp:406] Scale22 <- Convolution22
I1006 11:25:17.292011  2824 net.cpp:367] Scale22 -> Convolution22 (in-place)
I1006 11:25:17.292033  2824 layer_factory.hpp:77] Creating layer Scale22
I1006 11:25:17.292102  2824 net.cpp:122] Setting up Scale22
I1006 11:25:17.292106  2824 net.cpp:129] Top shape: 100 32 14 14 (627200)
I1006 11:25:17.292109  2824 net.cpp:137] Memory required for data: 442490000
I1006 11:25:17.292112  2824 layer_factory.hpp:77] Creating layer Eltwise10
I1006 11:25:17.292116  2824 net.cpp:84] Creating Layer Eltwise10
I1006 11:25:17.292119  2824 net.cpp:406] Eltwise10 <- Eltwise9_penlu19_0_split_1
I1006 11:25:17.292121  2824 net.cpp:406] Eltwise10 <- Convolution22
I1006 11:25:17.292124  2824 net.cpp:380] Eltwise10 -> Eltwise10
I1006 11:25:17.292138  2824 net.cpp:122] Setting up Eltwise10
I1006 11:25:17.292142  2824 net.cpp:129] Top shape: 100 32 14 14 (627200)
I1006 11:25:17.292145  2824 net.cpp:137] Memory required for data: 444998800
I1006 11:25:17.292146  2824 layer_factory.hpp:77] Creating layer penlu21
I1006 11:25:17.292151  2824 net.cpp:84] Creating Layer penlu21
I1006 11:25:17.292153  2824 net.cpp:406] penlu21 <- Eltwise10
I1006 11:25:17.292156  2824 net.cpp:367] penlu21 -> Eltwise10 (in-place)
I1006 11:25:17.292253  2824 net.cpp:122] Setting up penlu21
I1006 11:25:17.292258  2824 net.cpp:129] Top shape: 100 32 14 14 (627200)
I1006 11:25:17.292259  2824 net.cpp:137] Memory required for data: 447507600
I1006 11:25:17.292263  2824 layer_factory.hpp:77] Creating layer Eltwise10_penlu21_0_split
I1006 11:25:17.292274  2824 net.cpp:84] Creating Layer Eltwise10_penlu21_0_split
I1006 11:25:17.292276  2824 net.cpp:406] Eltwise10_penlu21_0_split <- Eltwise10
I1006 11:25:17.292280  2824 net.cpp:380] Eltwise10_penlu21_0_split -> Eltwise10_penlu21_0_split_0
I1006 11:25:17.292284  2824 net.cpp:380] Eltwise10_penlu21_0_split -> Eltwise10_penlu21_0_split_1
I1006 11:25:17.292306  2824 net.cpp:122] Setting up Eltwise10_penlu21_0_split
I1006 11:25:17.292310  2824 net.cpp:129] Top shape: 100 32 14 14 (627200)
I1006 11:25:17.292313  2824 net.cpp:129] Top shape: 100 32 14 14 (627200)
I1006 11:25:17.292315  2824 net.cpp:137] Memory required for data: 452525200
I1006 11:25:17.292317  2824 layer_factory.hpp:77] Creating layer Convolution23
I1006 11:25:17.292323  2824 net.cpp:84] Creating Layer Convolution23
I1006 11:25:17.292325  2824 net.cpp:406] Convolution23 <- Eltwise10_penlu21_0_split_0
I1006 11:25:17.292330  2824 net.cpp:380] Convolution23 -> Convolution23
I1006 11:25:17.293153  2824 net.cpp:122] Setting up Convolution23
I1006 11:25:17.293161  2824 net.cpp:129] Top shape: 100 64 7 7 (313600)
I1006 11:25:17.293164  2824 net.cpp:137] Memory required for data: 453779600
I1006 11:25:17.293169  2824 layer_factory.hpp:77] Creating layer BatchNorm23
I1006 11:25:17.293174  2824 net.cpp:84] Creating Layer BatchNorm23
I1006 11:25:17.293175  2824 net.cpp:406] BatchNorm23 <- Convolution23
I1006 11:25:17.293179  2824 net.cpp:367] BatchNorm23 -> Convolution23 (in-place)
I1006 11:25:17.293298  2824 net.cpp:122] Setting up BatchNorm23
I1006 11:25:17.293303  2824 net.cpp:129] Top shape: 100 64 7 7 (313600)
I1006 11:25:17.293304  2824 net.cpp:137] Memory required for data: 455034000
I1006 11:25:17.293309  2824 layer_factory.hpp:77] Creating layer Scale23
I1006 11:25:17.293313  2824 net.cpp:84] Creating Layer Scale23
I1006 11:25:17.293315  2824 net.cpp:406] Scale23 <- Convolution23
I1006 11:25:17.293318  2824 net.cpp:367] Scale23 -> Convolution23 (in-place)
I1006 11:25:17.293342  2824 layer_factory.hpp:77] Creating layer Scale23
I1006 11:25:17.293411  2824 net.cpp:122] Setting up Scale23
I1006 11:25:17.293414  2824 net.cpp:129] Top shape: 100 64 7 7 (313600)
I1006 11:25:17.293416  2824 net.cpp:137] Memory required for data: 456288400
I1006 11:25:17.293421  2824 layer_factory.hpp:77] Creating layer Convolution24
I1006 11:25:17.293426  2824 net.cpp:84] Creating Layer Convolution24
I1006 11:25:17.293428  2824 net.cpp:406] Convolution24 <- Eltwise10_penlu21_0_split_1
I1006 11:25:17.293432  2824 net.cpp:380] Convolution24 -> Convolution24
I1006 11:25:17.295104  2824 net.cpp:122] Setting up Convolution24
I1006 11:25:17.295112  2824 net.cpp:129] Top shape: 100 64 7 7 (313600)
I1006 11:25:17.295115  2824 net.cpp:137] Memory required for data: 457542800
I1006 11:25:17.295120  2824 layer_factory.hpp:77] Creating layer BatchNorm24
I1006 11:25:17.295125  2824 net.cpp:84] Creating Layer BatchNorm24
I1006 11:25:17.295127  2824 net.cpp:406] BatchNorm24 <- Convolution24
I1006 11:25:17.295130  2824 net.cpp:367] BatchNorm24 -> Convolution24 (in-place)
I1006 11:25:17.295289  2824 net.cpp:122] Setting up BatchNorm24
I1006 11:25:17.295295  2824 net.cpp:129] Top shape: 100 64 7 7 (313600)
I1006 11:25:17.295297  2824 net.cpp:137] Memory required for data: 458797200
I1006 11:25:17.295301  2824 layer_factory.hpp:77] Creating layer Scale24
I1006 11:25:17.295306  2824 net.cpp:84] Creating Layer Scale24
I1006 11:25:17.295308  2824 net.cpp:406] Scale24 <- Convolution24
I1006 11:25:17.295311  2824 net.cpp:367] Scale24 -> Convolution24 (in-place)
I1006 11:25:17.295336  2824 layer_factory.hpp:77] Creating layer Scale24
I1006 11:25:17.295405  2824 net.cpp:122] Setting up Scale24
I1006 11:25:17.295409  2824 net.cpp:129] Top shape: 100 64 7 7 (313600)
I1006 11:25:17.295411  2824 net.cpp:137] Memory required for data: 460051600
I1006 11:25:17.295415  2824 layer_factory.hpp:77] Creating layer penlu22
I1006 11:25:17.295420  2824 net.cpp:84] Creating Layer penlu22
I1006 11:25:17.295423  2824 net.cpp:406] penlu22 <- Convolution24
I1006 11:25:17.295426  2824 net.cpp:367] penlu22 -> Convolution24 (in-place)
I1006 11:25:17.295532  2824 net.cpp:122] Setting up penlu22
I1006 11:25:17.295536  2824 net.cpp:129] Top shape: 100 64 7 7 (313600)
I1006 11:25:17.295539  2824 net.cpp:137] Memory required for data: 461306000
I1006 11:25:17.295543  2824 layer_factory.hpp:77] Creating layer Convolution25
I1006 11:25:17.295549  2824 net.cpp:84] Creating Layer Convolution25
I1006 11:25:17.295552  2824 net.cpp:406] Convolution25 <- Convolution24
I1006 11:25:17.295557  2824 net.cpp:380] Convolution25 -> Convolution25
I1006 11:25:17.297446  2824 net.cpp:122] Setting up Convolution25
I1006 11:25:17.297453  2824 net.cpp:129] Top shape: 100 64 7 7 (313600)
I1006 11:25:17.297456  2824 net.cpp:137] Memory required for data: 462560400
I1006 11:25:17.297461  2824 layer_factory.hpp:77] Creating layer BatchNorm25
I1006 11:25:17.297466  2824 net.cpp:84] Creating Layer BatchNorm25
I1006 11:25:17.297468  2824 net.cpp:406] BatchNorm25 <- Convolution25
I1006 11:25:17.297472  2824 net.cpp:367] BatchNorm25 -> Convolution25 (in-place)
I1006 11:25:17.297596  2824 net.cpp:122] Setting up BatchNorm25
I1006 11:25:17.297601  2824 net.cpp:129] Top shape: 100 64 7 7 (313600)
I1006 11:25:17.297603  2824 net.cpp:137] Memory required for data: 463814800
I1006 11:25:17.297608  2824 layer_factory.hpp:77] Creating layer Scale25
I1006 11:25:17.297612  2824 net.cpp:84] Creating Layer Scale25
I1006 11:25:17.297614  2824 net.cpp:406] Scale25 <- Convolution25
I1006 11:25:17.297617  2824 net.cpp:367] Scale25 -> Convolution25 (in-place)
I1006 11:25:17.297642  2824 layer_factory.hpp:77] Creating layer Scale25
I1006 11:25:17.297711  2824 net.cpp:122] Setting up Scale25
I1006 11:25:17.297716  2824 net.cpp:129] Top shape: 100 64 7 7 (313600)
I1006 11:25:17.297719  2824 net.cpp:137] Memory required for data: 465069200
I1006 11:25:17.297722  2824 layer_factory.hpp:77] Creating layer Eltwise11
I1006 11:25:17.297726  2824 net.cpp:84] Creating Layer Eltwise11
I1006 11:25:17.297729  2824 net.cpp:406] Eltwise11 <- Convolution23
I1006 11:25:17.297731  2824 net.cpp:406] Eltwise11 <- Convolution25
I1006 11:25:17.297734  2824 net.cpp:380] Eltwise11 -> Eltwise11
I1006 11:25:17.297749  2824 net.cpp:122] Setting up Eltwise11
I1006 11:25:17.297754  2824 net.cpp:129] Top shape: 100 64 7 7 (313600)
I1006 11:25:17.297755  2824 net.cpp:137] Memory required for data: 466323600
I1006 11:25:17.297757  2824 layer_factory.hpp:77] Creating layer penlu23
I1006 11:25:17.297762  2824 net.cpp:84] Creating Layer penlu23
I1006 11:25:17.297765  2824 net.cpp:406] penlu23 <- Eltwise11
I1006 11:25:17.297767  2824 net.cpp:367] penlu23 -> Eltwise11 (in-place)
I1006 11:25:17.297866  2824 net.cpp:122] Setting up penlu23
I1006 11:25:17.297870  2824 net.cpp:129] Top shape: 100 64 7 7 (313600)
I1006 11:25:17.297873  2824 net.cpp:137] Memory required for data: 467578000
I1006 11:25:17.297878  2824 layer_factory.hpp:77] Creating layer Eltwise11_penlu23_0_split
I1006 11:25:17.297880  2824 net.cpp:84] Creating Layer Eltwise11_penlu23_0_split
I1006 11:25:17.297883  2824 net.cpp:406] Eltwise11_penlu23_0_split <- Eltwise11
I1006 11:25:17.297886  2824 net.cpp:380] Eltwise11_penlu23_0_split -> Eltwise11_penlu23_0_split_0
I1006 11:25:17.297890  2824 net.cpp:380] Eltwise11_penlu23_0_split -> Eltwise11_penlu23_0_split_1
I1006 11:25:17.297911  2824 net.cpp:122] Setting up Eltwise11_penlu23_0_split
I1006 11:25:17.297914  2824 net.cpp:129] Top shape: 100 64 7 7 (313600)
I1006 11:25:17.297917  2824 net.cpp:129] Top shape: 100 64 7 7 (313600)
I1006 11:25:17.297919  2824 net.cpp:137] Memory required for data: 470086800
I1006 11:25:17.297921  2824 layer_factory.hpp:77] Creating layer Convolution26
I1006 11:25:17.297927  2824 net.cpp:84] Creating Layer Convolution26
I1006 11:25:17.297930  2824 net.cpp:406] Convolution26 <- Eltwise11_penlu23_0_split_0
I1006 11:25:17.297935  2824 net.cpp:380] Convolution26 -> Convolution26
I1006 11:25:17.299536  2824 net.cpp:122] Setting up Convolution26
I1006 11:25:17.299545  2824 net.cpp:129] Top shape: 100 64 7 7 (313600)
I1006 11:25:17.299547  2824 net.cpp:137] Memory required for data: 471341200
I1006 11:25:17.299558  2824 layer_factory.hpp:77] Creating layer BatchNorm26
I1006 11:25:17.299563  2824 net.cpp:84] Creating Layer BatchNorm26
I1006 11:25:17.299566  2824 net.cpp:406] BatchNorm26 <- Convolution26
I1006 11:25:17.299569  2824 net.cpp:367] BatchNorm26 -> Convolution26 (in-place)
I1006 11:25:17.299691  2824 net.cpp:122] Setting up BatchNorm26
I1006 11:25:17.299695  2824 net.cpp:129] Top shape: 100 64 7 7 (313600)
I1006 11:25:17.299698  2824 net.cpp:137] Memory required for data: 472595600
I1006 11:25:17.299702  2824 layer_factory.hpp:77] Creating layer Scale26
I1006 11:25:17.299706  2824 net.cpp:84] Creating Layer Scale26
I1006 11:25:17.299710  2824 net.cpp:406] Scale26 <- Convolution26
I1006 11:25:17.299712  2824 net.cpp:367] Scale26 -> Convolution26 (in-place)
I1006 11:25:17.299736  2824 layer_factory.hpp:77] Creating layer Scale26
I1006 11:25:17.299804  2824 net.cpp:122] Setting up Scale26
I1006 11:25:17.299808  2824 net.cpp:129] Top shape: 100 64 7 7 (313600)
I1006 11:25:17.299811  2824 net.cpp:137] Memory required for data: 473850000
I1006 11:25:17.299814  2824 layer_factory.hpp:77] Creating layer penlu24
I1006 11:25:17.299819  2824 net.cpp:84] Creating Layer penlu24
I1006 11:25:17.299823  2824 net.cpp:406] penlu24 <- Convolution26
I1006 11:25:17.299825  2824 net.cpp:367] penlu24 -> Convolution26 (in-place)
I1006 11:25:17.299923  2824 net.cpp:122] Setting up penlu24
I1006 11:25:17.299927  2824 net.cpp:129] Top shape: 100 64 7 7 (313600)
I1006 11:25:17.299929  2824 net.cpp:137] Memory required for data: 475104400
I1006 11:25:17.299933  2824 layer_factory.hpp:77] Creating layer Convolution27
I1006 11:25:17.299940  2824 net.cpp:84] Creating Layer Convolution27
I1006 11:25:17.299942  2824 net.cpp:406] Convolution27 <- Convolution26
I1006 11:25:17.299947  2824 net.cpp:380] Convolution27 -> Convolution27
I1006 11:25:17.301501  2824 net.cpp:122] Setting up Convolution27
I1006 11:25:17.301509  2824 net.cpp:129] Top shape: 100 64 7 7 (313600)
I1006 11:25:17.301512  2824 net.cpp:137] Memory required for data: 476358800
I1006 11:25:17.301517  2824 layer_factory.hpp:77] Creating layer BatchNorm27
I1006 11:25:17.301522  2824 net.cpp:84] Creating Layer BatchNorm27
I1006 11:25:17.301524  2824 net.cpp:406] BatchNorm27 <- Convolution27
I1006 11:25:17.301528  2824 net.cpp:367] BatchNorm27 -> Convolution27 (in-place)
I1006 11:25:17.301654  2824 net.cpp:122] Setting up BatchNorm27
I1006 11:25:17.301658  2824 net.cpp:129] Top shape: 100 64 7 7 (313600)
I1006 11:25:17.301661  2824 net.cpp:137] Memory required for data: 477613200
I1006 11:25:17.301681  2824 layer_factory.hpp:77] Creating layer Scale27
I1006 11:25:17.301692  2824 net.cpp:84] Creating Layer Scale27
I1006 11:25:17.301693  2824 net.cpp:406] Scale27 <- Convolution27
I1006 11:25:17.301697  2824 net.cpp:367] Scale27 -> Convolution27 (in-place)
I1006 11:25:17.301723  2824 layer_factory.hpp:77] Creating layer Scale27
I1006 11:25:17.301793  2824 net.cpp:122] Setting up Scale27
I1006 11:25:17.301797  2824 net.cpp:129] Top shape: 100 64 7 7 (313600)
I1006 11:25:17.301800  2824 net.cpp:137] Memory required for data: 478867600
I1006 11:25:17.301803  2824 layer_factory.hpp:77] Creating layer Eltwise12
I1006 11:25:17.301807  2824 net.cpp:84] Creating Layer Eltwise12
I1006 11:25:17.301810  2824 net.cpp:406] Eltwise12 <- Eltwise11_penlu23_0_split_1
I1006 11:25:17.301812  2824 net.cpp:406] Eltwise12 <- Convolution27
I1006 11:25:17.301816  2824 net.cpp:380] Eltwise12 -> Eltwise12
I1006 11:25:17.301834  2824 net.cpp:122] Setting up Eltwise12
I1006 11:25:17.301838  2824 net.cpp:129] Top shape: 100 64 7 7 (313600)
I1006 11:25:17.301841  2824 net.cpp:137] Memory required for data: 480122000
I1006 11:25:17.301842  2824 layer_factory.hpp:77] Creating layer penlu25
I1006 11:25:17.301847  2824 net.cpp:84] Creating Layer penlu25
I1006 11:25:17.301849  2824 net.cpp:406] penlu25 <- Eltwise12
I1006 11:25:17.301853  2824 net.cpp:367] penlu25 -> Eltwise12 (in-place)
I1006 11:25:17.301954  2824 net.cpp:122] Setting up penlu25
I1006 11:25:17.301957  2824 net.cpp:129] Top shape: 100 64 7 7 (313600)
I1006 11:25:17.301965  2824 net.cpp:137] Memory required for data: 481376400
I1006 11:25:17.301970  2824 layer_factory.hpp:77] Creating layer Eltwise12_penlu25_0_split
I1006 11:25:17.301973  2824 net.cpp:84] Creating Layer Eltwise12_penlu25_0_split
I1006 11:25:17.301975  2824 net.cpp:406] Eltwise12_penlu25_0_split <- Eltwise12
I1006 11:25:17.301980  2824 net.cpp:380] Eltwise12_penlu25_0_split -> Eltwise12_penlu25_0_split_0
I1006 11:25:17.301983  2824 net.cpp:380] Eltwise12_penlu25_0_split -> Eltwise12_penlu25_0_split_1
I1006 11:25:17.302006  2824 net.cpp:122] Setting up Eltwise12_penlu25_0_split
I1006 11:25:17.302009  2824 net.cpp:129] Top shape: 100 64 7 7 (313600)
I1006 11:25:17.302012  2824 net.cpp:129] Top shape: 100 64 7 7 (313600)
I1006 11:25:17.302014  2824 net.cpp:137] Memory required for data: 483885200
I1006 11:25:17.302016  2824 layer_factory.hpp:77] Creating layer Convolution28
I1006 11:25:17.302022  2824 net.cpp:84] Creating Layer Convolution28
I1006 11:25:17.302024  2824 net.cpp:406] Convolution28 <- Eltwise12_penlu25_0_split_0
I1006 11:25:17.302028  2824 net.cpp:380] Convolution28 -> Convolution28
I1006 11:25:17.303622  2824 net.cpp:122] Setting up Convolution28
I1006 11:25:17.303632  2824 net.cpp:129] Top shape: 100 64 7 7 (313600)
I1006 11:25:17.303634  2824 net.cpp:137] Memory required for data: 485139600
I1006 11:25:17.303638  2824 layer_factory.hpp:77] Creating layer BatchNorm28
I1006 11:25:17.303643  2824 net.cpp:84] Creating Layer BatchNorm28
I1006 11:25:17.303647  2824 net.cpp:406] BatchNorm28 <- Convolution28
I1006 11:25:17.303650  2824 net.cpp:367] BatchNorm28 -> Convolution28 (in-place)
I1006 11:25:17.303777  2824 net.cpp:122] Setting up BatchNorm28
I1006 11:25:17.303781  2824 net.cpp:129] Top shape: 100 64 7 7 (313600)
I1006 11:25:17.303783  2824 net.cpp:137] Memory required for data: 486394000
I1006 11:25:17.303788  2824 layer_factory.hpp:77] Creating layer Scale28
I1006 11:25:17.303792  2824 net.cpp:84] Creating Layer Scale28
I1006 11:25:17.303794  2824 net.cpp:406] Scale28 <- Convolution28
I1006 11:25:17.303797  2824 net.cpp:367] Scale28 -> Convolution28 (in-place)
I1006 11:25:17.303822  2824 layer_factory.hpp:77] Creating layer Scale28
I1006 11:25:17.303894  2824 net.cpp:122] Setting up Scale28
I1006 11:25:17.303897  2824 net.cpp:129] Top shape: 100 64 7 7 (313600)
I1006 11:25:17.303900  2824 net.cpp:137] Memory required for data: 487648400
I1006 11:25:17.303903  2824 layer_factory.hpp:77] Creating layer penlu26
I1006 11:25:17.303908  2824 net.cpp:84] Creating Layer penlu26
I1006 11:25:17.303910  2824 net.cpp:406] penlu26 <- Convolution28
I1006 11:25:17.303915  2824 net.cpp:367] penlu26 -> Convolution28 (in-place)
I1006 11:25:17.304018  2824 net.cpp:122] Setting up penlu26
I1006 11:25:17.304021  2824 net.cpp:129] Top shape: 100 64 7 7 (313600)
I1006 11:25:17.304023  2824 net.cpp:137] Memory required for data: 488902800
I1006 11:25:17.304028  2824 layer_factory.hpp:77] Creating layer Convolution29
I1006 11:25:17.304034  2824 net.cpp:84] Creating Layer Convolution29
I1006 11:25:17.304036  2824 net.cpp:406] Convolution29 <- Convolution28
I1006 11:25:17.304040  2824 net.cpp:380] Convolution29 -> Convolution29
I1006 11:25:17.305923  2824 net.cpp:122] Setting up Convolution29
I1006 11:25:17.305932  2824 net.cpp:129] Top shape: 100 64 7 7 (313600)
I1006 11:25:17.305935  2824 net.cpp:137] Memory required for data: 490157200
I1006 11:25:17.305939  2824 layer_factory.hpp:77] Creating layer BatchNorm29
I1006 11:25:17.305944  2824 net.cpp:84] Creating Layer BatchNorm29
I1006 11:25:17.305946  2824 net.cpp:406] BatchNorm29 <- Convolution29
I1006 11:25:17.305950  2824 net.cpp:367] BatchNorm29 -> Convolution29 (in-place)
I1006 11:25:17.306080  2824 net.cpp:122] Setting up BatchNorm29
I1006 11:25:17.306084  2824 net.cpp:129] Top shape: 100 64 7 7 (313600)
I1006 11:25:17.306087  2824 net.cpp:137] Memory required for data: 491411600
I1006 11:25:17.306092  2824 layer_factory.hpp:77] Creating layer Scale29
I1006 11:25:17.306095  2824 net.cpp:84] Creating Layer Scale29
I1006 11:25:17.306104  2824 net.cpp:406] Scale29 <- Convolution29
I1006 11:25:17.306107  2824 net.cpp:367] Scale29 -> Convolution29 (in-place)
I1006 11:25:17.306134  2824 layer_factory.hpp:77] Creating layer Scale29
I1006 11:25:17.306205  2824 net.cpp:122] Setting up Scale29
I1006 11:25:17.306210  2824 net.cpp:129] Top shape: 100 64 7 7 (313600)
I1006 11:25:17.306212  2824 net.cpp:137] Memory required for data: 492666000
I1006 11:25:17.306216  2824 layer_factory.hpp:77] Creating layer Eltwise13
I1006 11:25:17.306219  2824 net.cpp:84] Creating Layer Eltwise13
I1006 11:25:17.306222  2824 net.cpp:406] Eltwise13 <- Eltwise12_penlu25_0_split_1
I1006 11:25:17.306226  2824 net.cpp:406] Eltwise13 <- Convolution29
I1006 11:25:17.306228  2824 net.cpp:380] Eltwise13 -> Eltwise13
I1006 11:25:17.306243  2824 net.cpp:122] Setting up Eltwise13
I1006 11:25:17.306247  2824 net.cpp:129] Top shape: 100 64 7 7 (313600)
I1006 11:25:17.306249  2824 net.cpp:137] Memory required for data: 493920400
I1006 11:25:17.306252  2824 layer_factory.hpp:77] Creating layer penlu27
I1006 11:25:17.306257  2824 net.cpp:84] Creating Layer penlu27
I1006 11:25:17.306258  2824 net.cpp:406] penlu27 <- Eltwise13
I1006 11:25:17.306262  2824 net.cpp:367] penlu27 -> Eltwise13 (in-place)
I1006 11:25:17.306363  2824 net.cpp:122] Setting up penlu27
I1006 11:25:17.306367  2824 net.cpp:129] Top shape: 100 64 7 7 (313600)
I1006 11:25:17.306370  2824 net.cpp:137] Memory required for data: 495174800
I1006 11:25:17.306375  2824 layer_factory.hpp:77] Creating layer Eltwise13_penlu27_0_split
I1006 11:25:17.306377  2824 net.cpp:84] Creating Layer Eltwise13_penlu27_0_split
I1006 11:25:17.306380  2824 net.cpp:406] Eltwise13_penlu27_0_split <- Eltwise13
I1006 11:25:17.306383  2824 net.cpp:380] Eltwise13_penlu27_0_split -> Eltwise13_penlu27_0_split_0
I1006 11:25:17.306387  2824 net.cpp:380] Eltwise13_penlu27_0_split -> Eltwise13_penlu27_0_split_1
I1006 11:25:17.306408  2824 net.cpp:122] Setting up Eltwise13_penlu27_0_split
I1006 11:25:17.306412  2824 net.cpp:129] Top shape: 100 64 7 7 (313600)
I1006 11:25:17.306416  2824 net.cpp:129] Top shape: 100 64 7 7 (313600)
I1006 11:25:17.306417  2824 net.cpp:137] Memory required for data: 497683600
I1006 11:25:17.306419  2824 layer_factory.hpp:77] Creating layer Convolution30
I1006 11:25:17.306426  2824 net.cpp:84] Creating Layer Convolution30
I1006 11:25:17.306427  2824 net.cpp:406] Convolution30 <- Eltwise13_penlu27_0_split_0
I1006 11:25:17.306432  2824 net.cpp:380] Convolution30 -> Convolution30
I1006 11:25:17.308045  2824 net.cpp:122] Setting up Convolution30
I1006 11:25:17.308054  2824 net.cpp:129] Top shape: 100 64 7 7 (313600)
I1006 11:25:17.308058  2824 net.cpp:137] Memory required for data: 498938000
I1006 11:25:17.308061  2824 layer_factory.hpp:77] Creating layer BatchNorm30
I1006 11:25:17.308066  2824 net.cpp:84] Creating Layer BatchNorm30
I1006 11:25:17.308069  2824 net.cpp:406] BatchNorm30 <- Convolution30
I1006 11:25:17.308073  2824 net.cpp:367] BatchNorm30 -> Convolution30 (in-place)
I1006 11:25:17.308199  2824 net.cpp:122] Setting up BatchNorm30
I1006 11:25:17.308204  2824 net.cpp:129] Top shape: 100 64 7 7 (313600)
I1006 11:25:17.308207  2824 net.cpp:137] Memory required for data: 500192400
I1006 11:25:17.308212  2824 layer_factory.hpp:77] Creating layer Scale30
I1006 11:25:17.308215  2824 net.cpp:84] Creating Layer Scale30
I1006 11:25:17.308218  2824 net.cpp:406] Scale30 <- Convolution30
I1006 11:25:17.308220  2824 net.cpp:367] Scale30 -> Convolution30 (in-place)
I1006 11:25:17.308245  2824 layer_factory.hpp:77] Creating layer Scale30
I1006 11:25:17.308317  2824 net.cpp:122] Setting up Scale30
I1006 11:25:17.308322  2824 net.cpp:129] Top shape: 100 64 7 7 (313600)
I1006 11:25:17.308324  2824 net.cpp:137] Memory required for data: 501446800
I1006 11:25:17.308328  2824 layer_factory.hpp:77] Creating layer penlu28
I1006 11:25:17.308333  2824 net.cpp:84] Creating Layer penlu28
I1006 11:25:17.308336  2824 net.cpp:406] penlu28 <- Convolution30
I1006 11:25:17.308338  2824 net.cpp:367] penlu28 -> Convolution30 (in-place)
I1006 11:25:17.308452  2824 net.cpp:122] Setting up penlu28
I1006 11:25:17.308456  2824 net.cpp:129] Top shape: 100 64 7 7 (313600)
I1006 11:25:17.308459  2824 net.cpp:137] Memory required for data: 502701200
I1006 11:25:17.308464  2824 layer_factory.hpp:77] Creating layer Convolution31
I1006 11:25:17.308470  2824 net.cpp:84] Creating Layer Convolution31
I1006 11:25:17.308471  2824 net.cpp:406] Convolution31 <- Convolution30
I1006 11:25:17.308475  2824 net.cpp:380] Convolution31 -> Convolution31
I1006 11:25:17.310377  2824 net.cpp:122] Setting up Convolution31
I1006 11:25:17.310385  2824 net.cpp:129] Top shape: 100 64 7 7 (313600)
I1006 11:25:17.310389  2824 net.cpp:137] Memory required for data: 503955600
I1006 11:25:17.310394  2824 layer_factory.hpp:77] Creating layer BatchNorm31
I1006 11:25:17.310397  2824 net.cpp:84] Creating Layer BatchNorm31
I1006 11:25:17.310400  2824 net.cpp:406] BatchNorm31 <- Convolution31
I1006 11:25:17.310405  2824 net.cpp:367] BatchNorm31 -> Convolution31 (in-place)
I1006 11:25:17.310531  2824 net.cpp:122] Setting up BatchNorm31
I1006 11:25:17.310535  2824 net.cpp:129] Top shape: 100 64 7 7 (313600)
I1006 11:25:17.310537  2824 net.cpp:137] Memory required for data: 505210000
I1006 11:25:17.310542  2824 layer_factory.hpp:77] Creating layer Scale31
I1006 11:25:17.310546  2824 net.cpp:84] Creating Layer Scale31
I1006 11:25:17.310549  2824 net.cpp:406] Scale31 <- Convolution31
I1006 11:25:17.310551  2824 net.cpp:367] Scale31 -> Convolution31 (in-place)
I1006 11:25:17.310577  2824 layer_factory.hpp:77] Creating layer Scale31
I1006 11:25:17.310648  2824 net.cpp:122] Setting up Scale31
I1006 11:25:17.310652  2824 net.cpp:129] Top shape: 100 64 7 7 (313600)
I1006 11:25:17.310654  2824 net.cpp:137] Memory required for data: 506464400
I1006 11:25:17.310658  2824 layer_factory.hpp:77] Creating layer Eltwise14
I1006 11:25:17.310662  2824 net.cpp:84] Creating Layer Eltwise14
I1006 11:25:17.310664  2824 net.cpp:406] Eltwise14 <- Eltwise13_penlu27_0_split_1
I1006 11:25:17.310667  2824 net.cpp:406] Eltwise14 <- Convolution31
I1006 11:25:17.310670  2824 net.cpp:380] Eltwise14 -> Eltwise14
I1006 11:25:17.310685  2824 net.cpp:122] Setting up Eltwise14
I1006 11:25:17.310689  2824 net.cpp:129] Top shape: 100 64 7 7 (313600)
I1006 11:25:17.310691  2824 net.cpp:137] Memory required for data: 507718800
I1006 11:25:17.310693  2824 layer_factory.hpp:77] Creating layer penlu29
I1006 11:25:17.310698  2824 net.cpp:84] Creating Layer penlu29
I1006 11:25:17.310700  2824 net.cpp:406] penlu29 <- Eltwise14
I1006 11:25:17.310704  2824 net.cpp:367] penlu29 -> Eltwise14 (in-place)
I1006 11:25:17.310806  2824 net.cpp:122] Setting up penlu29
I1006 11:25:17.310809  2824 net.cpp:129] Top shape: 100 64 7 7 (313600)
I1006 11:25:17.310811  2824 net.cpp:137] Memory required for data: 508973200
I1006 11:25:17.310816  2824 layer_factory.hpp:77] Creating layer Eltwise14_penlu29_0_split
I1006 11:25:17.310818  2824 net.cpp:84] Creating Layer Eltwise14_penlu29_0_split
I1006 11:25:17.310820  2824 net.cpp:406] Eltwise14_penlu29_0_split <- Eltwise14
I1006 11:25:17.310824  2824 net.cpp:380] Eltwise14_penlu29_0_split -> Eltwise14_penlu29_0_split_0
I1006 11:25:17.310828  2824 net.cpp:380] Eltwise14_penlu29_0_split -> Eltwise14_penlu29_0_split_1
I1006 11:25:17.310849  2824 net.cpp:122] Setting up Eltwise14_penlu29_0_split
I1006 11:25:17.310853  2824 net.cpp:129] Top shape: 100 64 7 7 (313600)
I1006 11:25:17.310856  2824 net.cpp:129] Top shape: 100 64 7 7 (313600)
I1006 11:25:17.310858  2824 net.cpp:137] Memory required for data: 511482000
I1006 11:25:17.310860  2824 layer_factory.hpp:77] Creating layer Convolution32
I1006 11:25:17.310866  2824 net.cpp:84] Creating Layer Convolution32
I1006 11:25:17.310868  2824 net.cpp:406] Convolution32 <- Eltwise14_penlu29_0_split_0
I1006 11:25:17.310873  2824 net.cpp:380] Convolution32 -> Convolution32
I1006 11:25:17.312510  2824 net.cpp:122] Setting up Convolution32
I1006 11:25:17.312520  2824 net.cpp:129] Top shape: 100 64 7 7 (313600)
I1006 11:25:17.312522  2824 net.cpp:137] Memory required for data: 512736400
I1006 11:25:17.312533  2824 layer_factory.hpp:77] Creating layer BatchNorm32
I1006 11:25:17.312538  2824 net.cpp:84] Creating Layer BatchNorm32
I1006 11:25:17.312541  2824 net.cpp:406] BatchNorm32 <- Convolution32
I1006 11:25:17.312544  2824 net.cpp:367] BatchNorm32 -> Convolution32 (in-place)
I1006 11:25:17.312676  2824 net.cpp:122] Setting up BatchNorm32
I1006 11:25:17.312680  2824 net.cpp:129] Top shape: 100 64 7 7 (313600)
I1006 11:25:17.312683  2824 net.cpp:137] Memory required for data: 513990800
I1006 11:25:17.312687  2824 layer_factory.hpp:77] Creating layer Scale32
I1006 11:25:17.312691  2824 net.cpp:84] Creating Layer Scale32
I1006 11:25:17.312695  2824 net.cpp:406] Scale32 <- Convolution32
I1006 11:25:17.312697  2824 net.cpp:367] Scale32 -> Convolution32 (in-place)
I1006 11:25:17.312722  2824 layer_factory.hpp:77] Creating layer Scale32
I1006 11:25:17.312796  2824 net.cpp:122] Setting up Scale32
I1006 11:25:17.312800  2824 net.cpp:129] Top shape: 100 64 7 7 (313600)
I1006 11:25:17.312803  2824 net.cpp:137] Memory required for data: 515245200
I1006 11:25:17.312806  2824 layer_factory.hpp:77] Creating layer penlu30
I1006 11:25:17.312811  2824 net.cpp:84] Creating Layer penlu30
I1006 11:25:17.312814  2824 net.cpp:406] penlu30 <- Convolution32
I1006 11:25:17.312818  2824 net.cpp:367] penlu30 -> Convolution32 (in-place)
I1006 11:25:17.312922  2824 net.cpp:122] Setting up penlu30
I1006 11:25:17.312925  2824 net.cpp:129] Top shape: 100 64 7 7 (313600)
I1006 11:25:17.312928  2824 net.cpp:137] Memory required for data: 516499600
I1006 11:25:17.312932  2824 layer_factory.hpp:77] Creating layer Convolution33
I1006 11:25:17.312938  2824 net.cpp:84] Creating Layer Convolution33
I1006 11:25:17.312942  2824 net.cpp:406] Convolution33 <- Convolution32
I1006 11:25:17.312945  2824 net.cpp:380] Convolution33 -> Convolution33
I1006 11:25:17.314848  2824 net.cpp:122] Setting up Convolution33
I1006 11:25:17.314857  2824 net.cpp:129] Top shape: 100 64 7 7 (313600)
I1006 11:25:17.314860  2824 net.cpp:137] Memory required for data: 517754000
I1006 11:25:17.314864  2824 layer_factory.hpp:77] Creating layer BatchNorm33
I1006 11:25:17.314868  2824 net.cpp:84] Creating Layer BatchNorm33
I1006 11:25:17.314872  2824 net.cpp:406] BatchNorm33 <- Convolution33
I1006 11:25:17.314875  2824 net.cpp:367] BatchNorm33 -> Convolution33 (in-place)
I1006 11:25:17.315006  2824 net.cpp:122] Setting up BatchNorm33
I1006 11:25:17.315009  2824 net.cpp:129] Top shape: 100 64 7 7 (313600)
I1006 11:25:17.315012  2824 net.cpp:137] Memory required for data: 519008400
I1006 11:25:17.315016  2824 layer_factory.hpp:77] Creating layer Scale33
I1006 11:25:17.315021  2824 net.cpp:84] Creating Layer Scale33
I1006 11:25:17.315022  2824 net.cpp:406] Scale33 <- Convolution33
I1006 11:25:17.315026  2824 net.cpp:367] Scale33 -> Convolution33 (in-place)
I1006 11:25:17.315052  2824 layer_factory.hpp:77] Creating layer Scale33
I1006 11:25:17.315124  2824 net.cpp:122] Setting up Scale33
I1006 11:25:17.315127  2824 net.cpp:129] Top shape: 100 64 7 7 (313600)
I1006 11:25:17.315129  2824 net.cpp:137] Memory required for data: 520262800
I1006 11:25:17.315134  2824 layer_factory.hpp:77] Creating layer Eltwise15
I1006 11:25:17.315137  2824 net.cpp:84] Creating Layer Eltwise15
I1006 11:25:17.315140  2824 net.cpp:406] Eltwise15 <- Eltwise14_penlu29_0_split_1
I1006 11:25:17.315142  2824 net.cpp:406] Eltwise15 <- Convolution33
I1006 11:25:17.315146  2824 net.cpp:380] Eltwise15 -> Eltwise15
I1006 11:25:17.315160  2824 net.cpp:122] Setting up Eltwise15
I1006 11:25:17.315179  2824 net.cpp:129] Top shape: 100 64 7 7 (313600)
I1006 11:25:17.315182  2824 net.cpp:137] Memory required for data: 521517200
I1006 11:25:17.315186  2824 layer_factory.hpp:77] Creating layer penlu31
I1006 11:25:17.315189  2824 net.cpp:84] Creating Layer penlu31
I1006 11:25:17.315192  2824 net.cpp:406] penlu31 <- Eltwise15
I1006 11:25:17.315196  2824 net.cpp:367] penlu31 -> Eltwise15 (in-place)
I1006 11:25:17.315309  2824 net.cpp:122] Setting up penlu31
I1006 11:25:17.315312  2824 net.cpp:129] Top shape: 100 64 7 7 (313600)
I1006 11:25:17.315320  2824 net.cpp:137] Memory required for data: 522771600
I1006 11:25:17.315325  2824 layer_factory.hpp:77] Creating layer Pooling1
I1006 11:25:17.315330  2824 net.cpp:84] Creating Layer Pooling1
I1006 11:25:17.315332  2824 net.cpp:406] Pooling1 <- Eltwise15
I1006 11:25:17.315335  2824 net.cpp:380] Pooling1 -> Pooling1
I1006 11:25:17.315476  2824 net.cpp:122] Setting up Pooling1
I1006 11:25:17.315482  2824 net.cpp:129] Top shape: 100 64 1 1 (6400)
I1006 11:25:17.315485  2824 net.cpp:137] Memory required for data: 522797200
I1006 11:25:17.315486  2824 layer_factory.hpp:77] Creating layer InnerProduct1
I1006 11:25:17.315495  2824 net.cpp:84] Creating Layer InnerProduct1
I1006 11:25:17.315498  2824 net.cpp:406] InnerProduct1 <- Pooling1
I1006 11:25:17.315502  2824 net.cpp:380] InnerProduct1 -> InnerProduct1
I1006 11:25:17.315603  2824 net.cpp:122] Setting up InnerProduct1
I1006 11:25:17.315608  2824 net.cpp:129] Top shape: 100 10 (1000)
I1006 11:25:17.315609  2824 net.cpp:137] Memory required for data: 522801200
I1006 11:25:17.315613  2824 layer_factory.hpp:77] Creating layer SoftmaxWithLoss1
I1006 11:25:17.315618  2824 net.cpp:84] Creating Layer SoftmaxWithLoss1
I1006 11:25:17.315620  2824 net.cpp:406] SoftmaxWithLoss1 <- InnerProduct1
I1006 11:25:17.315623  2824 net.cpp:406] SoftmaxWithLoss1 <- Data2
I1006 11:25:17.315626  2824 net.cpp:380] SoftmaxWithLoss1 -> SoftmaxWithLoss1
…
I1006 11:25:17.319103  2824 net.cpp:294] The NetState phase (1) differed from the phase (0) specified by a rule in layer Data1
I1006 11:25:17.319911  2824 net.cpp:51] Initializing net from parameters: 
name: "resnet_cifar10"
state {
  phase: TEST
}
layer {
  name: "Data1"
  type: "Data"
  top: "Data1"
  top: "Data2"
  include {
    phase: TEST
  }
  transform_param {
    mean_file: "/home/x306/caffe/xn/PENLU/data/cifar10/mean.binaryproto"
  }
  data_param {
    source: "/home/x306/caffe/xn/PENLU/data/cifar10/cifar10_test_lmdb"
    batch_size: 100
    backend: LMDB
  }
}
layer {
  name: "Convolution1"
  type: "Convolution"
  bottom: "Data1"
  top: "Convolution1"
  param {
    lr_mult: 1
    decay_mult: 1
  }
  param {
    lr_mult: 2
    decay_mult: 0
  }
  convolution_param {
    num_output: 16
    pad: 1
    kernel_size: 3
    stride: 1
    weight_filler {
      type: "gaussian"
      std: 0.118
    }
    bias_filler {
      type: "constant"
      value: 0
    }
  }
}
layer {
  name: "BatchNorm1"
  type: "BatchNorm"
  bottom: "Convolution1"
  top: "Convolution1"
  param {
    lr_mult: 0
    decay_mult: 0
  }
  param {
    lr_mult: 0
    decay_mult: 0
  }
  param {
    lr_mult: 0
    decay_mult: 0
  }
}
layer {
  name: "Scale1"
  type: "Scale"
  bottom: "Convolution1"
  top: "Convolution1"
  scale_param {
    bias_term: true
  }
}
layer {
  name: "penlu1"
  type: "PENLU"
  bottom: "Convolution1"
  top: "Convolution1"
  param {
    lr_mult: 2
    decay_mult: 0
  }
  param {
    lr_mult: 2
    decay_mult: 0
  }
  param {
    lr_mult: 0
    decay_mult: 0
  }
  penlu_param {
    alpha_filler {
      type: "constant"
      value: 0.25
    }
    beta_filler {
      type: "constant"
      value: 1
    }
    eta_filler {
      type: "constant"
      value: 1
    }
  }
}
layer {
  name: "Convolution2"
  type: "Convolution"
  bottom: "Convolution1"
  top: "Convolution2"
  param {
    lr_mult: 1
    decay_mult: 1
  }
  param {
    lr_mult: 2
    decay_mult: 0
  }
  convolution_param {
    num_output: 16
    pad: 1
    kernel_size: 3
    stride: 1
    weight_filler {
      type: "gaussian"
      std: 0.118
    }
    bias_filler {
      type: "constant"
      value: 0
    }
  }
}
layer {
  name: "BatchNorm2"
  type: "BatchNorm"
  bottom: "Convolution2"
  top: "Convolution2"
  param {
    lr_mult: 0
    decay_mult: 0
  }
  param {
    lr_mult: 0
    decay_mult: 0
  }
  param {
    lr_mult: 0
    decay_mult: 0
  }
}
layer {
  name: "Scale2"
  type: "Scale"
  bottom: "Convolution2"
  top: "Convolution2"
  scale_param {
    bias_term: true
  }
}
layer {
  name: "penlu2"
  type: "PENLU"
  bottom: "Convolution2"
  top: "Convolution2"
  param {
    lr_mult: 2
    decay_mult: 0
  }
  param {
    lr_mult: 2
    decay_mult: 0
  }
  param {
    lr_mult: 0
    decay_mult: 0
  }
  penlu_param {
    alpha_filler {
      type: "constant"
      value: 0.25
    }
    beta_filler {
      type: "constant"
      value: 1
    }
    eta_filler {
      type: "constant"
      value: 1
    }
  }
}
layer {
  name: "Convolution3"
  type: "Convolution"
  bottom: "Convolution2"
  top: "Convolution3"
  param {
    lr_mult: 1
    decay_mult: 1
  }
  param {
    lr_mult: 2
    decay_mult: 0
  }
  convolution_param {
    num_output: 16
    pad: 1
    kernel_size: 3
    stride: 1
    weight_filler {
      type: "gaussian"
      std: 0.118
    }
    bias_filler {
      type: "constant"
      value: 0
    }
  }
}
layer {
  name: "BatchNorm3"
  type: "BatchNorm"
  bottom: "Convolution3"
  top: "Convolution3"
  param {
    lr_mult: 0
    decay_mult: 0
  }
  param {
    lr_mult: 0
    decay_mult: 0
  }
  param {
    lr_mult: 0
    decay_mult: 0
  }
}
layer {
  name: "Scale3"
  type: "Scale"
  bottom: "Convolution3"
  top: "Convolution3"
  scale_param {
    bias_term: true
  }
}
layer {
  name: "Eltwise1"
  type: "Eltwise"
  bottom: "Convolution1"
  bottom: "Convolution3"
  top: "Eltwise1"
  eltwise_param {
    operation: SUM
  }
}
layer {
  name: "penlu3"
  type: "PENLU"
  bottom: "Eltwise1"
  top: "Eltwise1"
  param {
    lr_mult: 2
    decay_mult: 0
  }
  param {
    lr_mult: 2
    decay_mult: 0
  }
  param {
    lr_mult: 0
    decay_mult: 0
  }
  penlu_param {
    alpha_filler {
      type: "constant"
      value: 0.25
    }
    beta_filler {
      type: "constant"
      value: 1
    }
    eta_filler {
      type: "constant"
      value: 1
    }
  }
}
layer {
  name: "Convolution4"
  type: "Convolution"
  bottom: "Eltwise1"
  top: "Convolution4"
  param {
    lr_mult: 1
    decay_mult: 1
  }
  param {
    lr_mult: 2
    decay_mult: 0
  }
  convolution_param {
    num_output: 16
    pad: 1
    kernel_size: 3
    stride: 1
    weight_filler {
      type: "gaussian"
      std: 0.118
    }
    bias_filler {
      type: "constant"
      value: 0
    }
  }
}
layer {
  name: "BatchNorm4"
  type: "BatchNorm"
  bottom: "Convolution4"
  top: "Convolution4"
  param {
    lr_mult: 0
    decay_mult: 0
  }
  param {
    lr_mult: 0
    decay_mult: 0
  }
  param {
    lr_mult: 0
    decay_mult: 0
  }
}
layer {
  name: "Scale4"
  type: "Scale"
  bottom: "Convolution4"
  top: "Convolution4"
  scale_param {
    bias_term: true
  }
}
layer {
  name: "penlu4"
  type: "PENLU"
  bottom: "Convolution4"
  top: "Convolution4"
  param {
    lr_mult: 2
    decay_mult: 0
  }
  param {
    lr_mult: 2
    decay_mult: 0
  }
  param {
    lr_mult: 0
    decay_mult: 0
  }
  penlu_param {
    alpha_filler {
      type: "constant"
      value: 0.25
    }
    beta_filler {
      type: "constant"
      value: 1
    }
    eta_filler {
      type: "constant"
      value: 1
    }
  }
}
layer {
  name: "Convolution5"
  type: "Convolution"
  bottom: "Convolution4"
  top: "Convolution5"
  param {
    lr_mult: 1
    decay_mult: 1
  }
  param {
    lr_mult: 2
    decay_mult: 0
  }
  convolution_param {
    num_output: 16
    pad: 1
    kernel_size: 3
    stride: 1
    weight_filler {
      type: "gaussian"
      std: 0.118
    }
    bias_filler {
      type: "constant"
      value: 0
    }
  }
}
layer {
  name: "BatchNorm5"
  type: "BatchNorm"
  bottom: "Convolution5"
  top: "Convolution5"
  param {
    lr_mult: 0
    decay_mult: 0
  }
  param {
    lr_mult: 0
    decay_mult: 0
  }
  param {
    lr_mult: 0
    decay_mult: 0
  }
}
layer {
  name: "Scale5"
  type: "Scale"
  bottom: "Convolution5"
  top: "Convolution5"
  scale_param {
    bias_term: true
  }
}
layer {
  name: "Eltwise2"
  type: "Eltwise"
  bottom: "Eltwise1"
  bottom: "Convolution5"
  top: "Eltwise2"
  eltwise_param {
    operation: SUM
  }
}
layer {
  name: "penlu5"
  type: "PENLU"
  bottom: "Eltwise2"
  top: "Eltwise2"
  param {
    lr_mult: 2
    decay_mult: 0
  }
  param {
    lr_mult: 2
    decay_mult: 0
  }
  param {
    lr_mult: 0
    decay_mult: 0
  }
  penlu_param {
    alpha_filler {
      type: "constant"
      value: 0.25
    }
    beta_filler {
      type: "constant"
      value: 1
    }
    eta_filler {
      type: "constant"
      value: 1
    }
  }
}
layer {
  name: "Convolution6"
  type: "Convolution"
  bottom: "Eltwise2"
  top: "Convolution6"
  param {
    lr_mult: 1
    decay_mult: 1
  }
  param {
    lr_mult: 2
    decay_mult: 0
  }
  convolution_param {
    num_output: 16
    pad: 1
    kernel_size: 3
    stride: 1
    weight_filler {
      type: "gaussian"
      std: 0.118
    }
    bias_filler {
      type: "constant"
      value: 0
    }
  }
}
layer {
  name: "BatchNorm6"
  type: "BatchNorm"
  bottom: "Convolution6"
  top: "Convolution6"
  param {
    lr_mult: 0
    decay_mult: 0
  }
  param {
    lr_mult: 0
    decay_mult: 0
  }
  param {
    lr_mult: 0
    decay_mult: 0
  }
}
layer {
  name: "Scale6"
  type: "Scale"
  bottom: "Convolution6"
  top: "Convolution6"
  scale_param {
    bias_term: true
  }
}
layer {
  name: "penlu6"
  type: "PENLU"
  bottom: "Convolution6"
  top: "Convolution6"
  param {
    lr_mult: 2
    decay_mult: 0
  }
  param {
    lr_mult: 2
    decay_mult: 0
  }
  param {
    lr_mult: 0
    decay_mult: 0
  }
  penlu_param {
    alpha_filler {
      type: "constant"
      value: 0.25
    }
    beta_filler {
      type: "constant"
      value: 1
    }
    eta_filler {
      type: "constant"
      value: 1
    }
  }
}
layer {
  name: "Convolution7"
  type: "Convolution"
  bottom: "Convolution6"
  top: "Convolution7"
  param {
    lr_mult: 1
    decay_mult: 1
  }
  param {
    lr_mult: 2
    decay_mult: 0
  }
  convolution_param {
    num_output: 16
    pad: 1
    kernel_size: 3
    stride: 1
    weight_filler {
      type: "gaussian"
      std: 0.118
    }
    bias_filler {
      type: "constant"
      value: 0
    }
  }
}
layer {
  name: "BatchNorm7"
  type: "BatchNorm"
  bottom: "Convolution7"
  top: "Convolution7"
  param {
    lr_mult: 0
    decay_mult: 0
  }
  param {
    lr_mult: 0
    decay_mult: 0
  }
  param {
    lr_mult: 0
    decay_mult: 0
  }
}
layer {
  name: "Scale7"
  type: "Scale"
  bottom: "Convolution7"
  top: "Convolution7"
  scale_param {
    bias_term: true
  }
}
layer {
  name: "Eltwise3"
  type: "Eltwise"
  bottom: "Eltwise2"
  bottom: "Convolution7"
  top: "Eltwise3"
  eltwise_param {
    operation: SUM
  }
}
layer {
  name: "penlu7"
  type: "PENLU"
  bottom: "Eltwise3"
  top: "Eltwise3"
  param {
    lr_mult: 2
    decay_mult: 0
  }
  param {
    lr_mult: 2
    decay_mult: 0
  }
  param {
    lr_mult: 0
    decay_mult: 0
  }
  penlu_param {
    alpha_filler {
      type: "constant"
      value: 0.25
    }
    beta_filler {
      type: "constant"
      value: 1
    }
    eta_filler {
      type: "constant"
      value: 1
    }
  }
}
layer {
  name: "Convolution8"
  type: "Convolution"
  bottom: "Eltwise3"
  top: "Convolution8"
  param {
    lr_mult: 1
    decay_mult: 1
  }
  param {
    lr_mult: 2
    decay_mult: 0
  }
  convolution_param {
    num_output: 16
    pad: 1
    kernel_size: 3
    stride: 1
    weight_filler {
      type: "gaussian"
      std: 0.118
    }
    bias_filler {
      type: "constant"
      value: 0
    }
  }
}
layer {
  name: "BatchNorm8"
  type: "BatchNorm"
  bottom: "Convolution8"
  top: "Convolution8"
  param {
    lr_mult: 0
    decay_mult: 0
  }
  param {
    lr_mult: 0
    decay_mult: 0
  }
  param {
    lr_mult: 0
    decay_mult: 0
  }
}
layer {
  name: "Scale8"
  type: "Scale"
  bottom: "Convolution8"
  top: "Convolution8"
  scale_param {
    bias_term: true
  }
}
layer {
  name: "penlu8"
  type: "PENLU"
  bottom: "Convolution8"
  top: "Convolution8"
  param {
    lr_mult: 2
    decay_mult: 0
  }
  param {
    lr_mult: 2
    decay_mult: 0
  }
  param {
    lr_mult: 0
    decay_mult: 0
  }
  penlu_param {
    alpha_filler {
      type: "constant"
      value: 0.25
    }
    beta_filler {
      type: "constant"
      value: 1
    }
    eta_filler {
      type: "constant"
      value: 1
    }
  }
}
layer {
  name: "Convolution9"
  type: "Convolution"
  bottom: "Convolution8"
  top: "Convolution9"
  param {
    lr_mult: 1
    decay_mult: 1
  }
  param {
    lr_mult: 2
    decay_mult: 0
  }
  convolution_param {
    num_output: 16
    pad: 1
    kernel_size: 3
    stride: 1
    weight_filler {
      type: "gaussian"
      std: 0.118
    }
    bias_filler {
      type: "constant"
      value: 0
    }
  }
}
layer {
  name: "BatchNorm9"
  type: "BatchNorm"
  bottom: "Convolution9"
  top: "Convolution9"
  param {
    lr_mult: 0
    decay_mult: 0
  }
  param {
    lr_mult: 0
    decay_mult: 0
  }
  param {
    lr_mult: 0
    decay_mult: 0
  }
}
layer {
  name: "Scale9"
  type: "Scale"
  bottom: "Convolution9"
  top: "Convolution9"
  scale_param {
    bias_term: true
  }
}
layer {
  name: "Eltwise4"
  type: "Eltwise"
  bottom: "Eltwise3"
  bottom: "Convolution9"
  top: "Eltwise4"
  eltwise_param {
    operation: SUM
  }
}
layer {
  name: "penlu9"
  type: "PENLU"
  bottom: "Eltwise4"
  top: "Eltwise4"
  param {
    lr_mult: 2
    decay_mult: 0
  }
  param {
    lr_mult: 2
    decay_mult: 0
  }
  param {
    lr_mult: 0
    decay_mult: 0
  }
  penlu_param {
    alpha_filler {
      type: "constant"
      value: 0.25
    }
    beta_filler {
      type: "constant"
      value: 1
    }
    eta_filler {
      type: "constant"
      value: 1
    }
  }
}
layer {
  name: "Convolution10"
  type: "Convolution"
  bottom: "Eltwise4"
  top: "Convolution10"
  param {
    lr_mult: 1
    decay_mult: 1
  }
  param {
    lr_mult: 2
    decay_mult: 0
  }
  convolution_param {
    num_output: 16
    pad: 1
    kernel_size: 3
    stride: 1
    weight_filler {
      type: "gaussian"
      std: 0.118
    }
    bias_filler {
      type: "constant"
      value: 0
    }
  }
}
layer {
  name: "BatchNorm10"
  type: "BatchNorm"
  bottom: "Convolution10"
  top: "Convolution10"
  param {
    lr_mult: 0
    decay_mult: 0
  }
  param {
    lr_mult: 0
    decay_mult: 0
  }
  param {
    lr_mult: 0
    decay_mult: 0
  }
}
layer {
  name: "Scale10"
  type: "Scale"
  bottom: "Convolution10"
  top: "Convolution10"
  scale_param {
    bias_term: true
  }
}
layer {
  name: "penlu10"
  type: "PENLU"
  bottom: "Convolution10"
  top: "Convolution10"
  param {
    lr_mult: 2
    decay_mult: 0
  }
  param {
    lr_mult: 2
    decay_mult: 0
  }
  param {
    lr_mult: 0
    decay_mult: 0
  }
  penlu_param {
    alpha_filler {
      type: "constant"
      value: 0.25
    }
    beta_filler {
      type: "constant"
      value: 1
    }
    eta_filler {
      type: "constant"
      value: 1
    }
  }
}
layer {
  name: "Convolution11"
  type: "Convolution"
  bottom: "Convolution10"
  top: "Convolution11"
  param {
    lr_mult: 1
    decay_mult: 1
  }
  param {
    lr_mult: 2
    decay_mult: 0
  }
  convolution_param {
    num_output: 16
    pad: 1
    kernel_size: 3
    stride: 1
    weight_filler {
      type: "gaussian"
      std: 0.118
    }
    bias_filler {
      type: "constant"
      value: 0
    }
  }
}
layer {
  name: "BatchNorm11"
  type: "BatchNorm"
  bottom: "Convolution11"
  top: "Convolution11"
  param {
    lr_mult: 0
    decay_mult: 0
  }
  param {
    lr_mult: 0
    decay_mult: 0
  }
  param {
    lr_mult: 0
    decay_mult: 0
  }
}
layer {
  name: "Scale11"
  type: "Scale"
  bottom: "Convolution11"
  top: "Convolution11"
  scale_param {
    bias_term: true
  }
}
layer {
  name: "Eltwise5"
  type: "Eltwise"
  bottom: "Eltwise4"
  bottom: "Convolution11"
  top: "Eltwise5"
  eltwise_param {
    operation: SUM
  }
}
layer {
  name: "penlu11"
  type: "PENLU"
  bottom: "Eltwise5"
  top: "Eltwise5"
  param {
    lr_mult: 2
    decay_mult: 0
  }
  param {
    lr_mult: 2
    decay_mult: 0
  }
  param {
    lr_mult: 0
    decay_mult: 0
  }
  penlu_param {
    alpha_filler {
      type: "constant"
      value: 0.25
    }
    beta_filler {
      type: "constant"
      value: 1
    }
    eta_filler {
      type: "constant"
      value: 1
    }
  }
}
layer {
  name: "Convolution12"
  type: "Convolution"
  bottom: "Eltwise5"
  top: "Convolution12"
  param {
    lr_mult: 1
    decay_mult: 1
  }
  param {
    lr_mult: 2
    decay_mult: 0
  }
  convolution_param {
    num_output: 32
    pad: 0
    kernel_size: 1
    stride: 2
    weight_filler {
      type: "gaussian"
      std: 0.25
    }
    bias_filler {
      type: "constant"
      value: 0
    }
  }
}
layer {
  name: "BatchNorm12"
  type: "BatchNorm"
  bottom: "Convolution12"
  top: "Convolution12"
  param {
    lr_mult: 0
    decay_mult: 0
  }
  param {
    lr_mult: 0
    decay_mult: 0
  }
  param {
    lr_mult: 0
    decay_mult: 0
  }
}
layer {
  name: "Scale12"
  type: "Scale"
  bottom: "Convolution12"
  top: "Convolution12"
  scale_param {
    bias_term: true
  }
}
layer {
  name: "Convolution13"
  type: "Convolution"
  bottom: "Eltwise5"
  top: "Convolution13"
  param {
    lr_mult: 1
    decay_mult: 1
  }
  param {
    lr_mult: 2
    decay_mult: 0
  }
  convolution_param {
    num_output: 32
    pad: 1
    kernel_size: 3
    stride: 2
    weight_filler {
      type: "gaussian"
      std: 0.083
    }
    bias_filler {
      type: "constant"
      value: 0
    }
  }
}
layer {
  name: "BatchNorm13"
  type: "BatchNorm"
  bottom: "Convolution13"
  top: "Convolution13"
  param {
    lr_mult: 0
    decay_mult: 0
  }
  param {
    lr_mult: 0
    decay_mult: 0
  }
  param {
    lr_mult: 0
    decay_mult: 0
  }
}
layer {
  name: "Scale13"
  type: "Scale"
  bottom: "Convolution13"
  top: "Convolution13"
  scale_param {
    bias_term: true
  }
}
layer {
  name: "penlu12"
  type: "PENLU"
  bottom: "Convolution13"
  top: "Convolution13"
  param {
    lr_mult: 2
    decay_mult: 0
  }
  param {
    lr_mult: 2
    decay_mult: 0
  }
  param {
    lr_mult: 0
    decay_mult: 0
  }
  penlu_param {
    alpha_filler {
      type: "constant"
      value: 0.25
    }
    beta_filler {
      type: "constant"
      value: 1
    }
    eta_filler {
      type: "constant"
      value: 1
    }
  }
}
layer {
  name: "Convolution14"
  type: "Convolution"
  bottom: "Convolution13"
  top: "Convolution14"
  param {
    lr_mult: 1
    decay_mult: 1
  }
  param {
    lr_mult: 2
    decay_mult: 0
  }
  convolution_param {
    num_output: 32
    pad: 1
    kernel_size: 3
    stride: 1
    weight_filler {
      type: "gaussian"
      std: 0.083
    }
    bias_filler {
      type: "constant"
      value: 0
    }
  }
}
layer {
  name: "BatchNorm14"
  type: "BatchNorm"
  bottom: "Convolution14"
  top: "Convolution14"
  param {
    lr_mult: 0
    decay_mult: 0
  }
  param {
    lr_mult: 0
    decay_mult: 0
  }
  param {
    lr_mult: 0
    decay_mult: 0
  }
}
layer {
  name: "Scale14"
  type: "Scale"
  bottom: "Convolution14"
  top: "Convolution14"
  scale_param {
    bias_term: true
  }
}
layer {
  name: "Eltwise6"
  type: "Eltwise"
  bottom: "Convolution12"
  bottom: "Convolution14"
  top: "Eltwise6"
  eltwise_param {
    operation: SUM
  }
}
layer {
  name: "penlu13"
  type: "PENLU"
  bottom: "Eltwise6"
  top: "Eltwise6"
  param {
    lr_mult: 2
    decay_mult: 0
  }
  param {
    lr_mult: 2
    decay_mult: 0
  }
  param {
    lr_mult: 0
    decay_mult: 0
  }
  penlu_param {
    alpha_filler {
      type: "constant"
      value: 0.25
    }
    beta_filler {
      type: "constant"
      value: 1
    }
    eta_filler {
      type: "constant"
      value: 1
    }
  }
}
layer {
  name: "Convolution15"
  type: "Convolution"
  bottom: "Eltwise6"
  top: "Convolution15"
  param {
    lr_mult: 1
    decay_mult: 1
  }
  param {
    lr_mult: 2
    decay_mult: 0
  }
  convolution_param {
    num_output: 32
    pad: 1
    kernel_size: 3
    stride: 1
    weight_filler {
      type: "gaussian"
      std: 0.083
    }
    bias_filler {
      type: "constant"
      value: 0
    }
  }
}
layer {
  name: "BatchNorm15"
  type: "BatchNorm"
  bottom: "Convolution15"
  top: "Convolution15"
  param {
    lr_mult: 0
    decay_mult: 0
  }
  param {
    lr_mult: 0
    decay_mult: 0
  }
  param {
    lr_mult: 0
    decay_mult: 0
  }
}
layer {
  name: "Scale15"
  type: "Scale"
  bottom: "Convolution15"
  top: "Convolution15"
  scale_param {
    bias_term: true
  }
}
layer {
  name: "penlu14"
  type: "PENLU"
  bottom: "Convolution15"
  top: "Convolution15"
  param {
    lr_mult: 2
    decay_mult: 0
  }
  param {
    lr_mult: 2
    decay_mult: 0
  }
  param {
    lr_mult: 0
    decay_mult: 0
  }
  penlu_param {
    alpha_filler {
      type: "constant"
      value: 0.25
    }
    beta_filler {
      type: "constant"
      value: 1
    }
    eta_filler {
      type: "constant"
      value: 1
    }
  }
}
layer {
  name: "Convolution16"
  type: "Convolution"
  bottom: "Convolution15"
  top: "Convolution16"
  param {
    lr_mult: 1
    decay_mult: 1
  }
  param {
    lr_mult: 2
    decay_mult: 0
  }
  convolution_param {
    num_output: 32
    pad: 1
    kernel_size: 3
    stride: 1
    weight_filler {
      type: "gaussian"
      std: 0.083
    }
    bias_filler {
      type: "constant"
      value: 0
    }
  }
}
layer {
  name: "BatchNorm16"
  type: "BatchNorm"
  bottom: "Convolution16"
  top: "Convolution16"
  param {
    lr_mult: 0
    decay_mult: 0
  }
  param {
    lr_mult: 0
    decay_mult: 0
  }
  param {
    lr_mult: 0
    decay_mult: 0
  }
}
layer {
  name: "Scale16"
  type: "Scale"
  bottom: "Convolution16"
  top: "Convolution16"
  scale_param {
    bias_term: true
  }
}
layer {
  name: "Eltwise7"
  type: "Eltwise"
  bottom: "Eltwise6"
  bottom: "Convolution16"
  top: "Eltwise7"
  eltwise_param {
    operation: SUM
  }
}
layer {
  name: "penlu15"
  type: "PENLU"
  bottom: "Eltwise7"
  top: "Eltwise7"
  param {
    lr_mult: 2
    decay_mult: 0
  }
  param {
    lr_mult: 2
    decay_mult: 0
  }
  param {
    lr_mult: 0
    decay_mult: 0
  }
  penlu_param {
    alpha_filler {
      type: "constant"
      value: 0.25
    }
    beta_filler {
      type: "constant"
      value: 1
    }
    eta_filler {
      type: "constant"
      value: 1
    }
  }
}
layer {
  name: "Convolution17"
  type: "Convolution"
  bottom: "Eltwise7"
  top: "Convolution17"
  param {
    lr_mult: 1
    decay_mult: 1
  }
  param {
    lr_mult: 2
    decay_mult: 0
  }
  convolution_param {
    num_output: 32
    pad: 1
    kernel_size: 3
    stride: 1
    weight_filler {
      type: "gaussian"
      std: 0.083
    }
    bias_filler {
      type: "constant"
      value: 0
    }
  }
}
layer {
  name: "BatchNorm17"
  type: "BatchNorm"
  bottom: "Convolution17"
  top: "Convolution17"
  param {
    lr_mult: 0
    decay_mult: 0
  }
  param {
    lr_mult: 0
    decay_mult: 0
  }
  param {
    lr_mult: 0
    decay_mult: 0
  }
}
layer {
  name: "Scale17"
  type: "Scale"
  bottom: "Convolution17"
  top: "Convolution17"
  scale_param {
    bias_term: true
  }
}
layer {
  name: "penlu16"
  type: "PENLU"
  bottom: "Convolution17"
  top: "Convolution17"
  param {
    lr_mult: 2
    decay_mult: 0
  }
  param {
    lr_mult: 2
    decay_mult: 0
  }
  param {
    lr_mult: 0
    decay_mult: 0
  }
  penlu_param {
    alpha_filler {
      type: "constant"
      value: 0.25
    }
    beta_filler {
      type: "constant"
      value: 1
    }
    eta_filler {
      type: "constant"
      value: 1
    }
  }
}
layer {
  name: "Convolution18"
  type: "Convolution"
  bottom: "Convolution17"
  top: "Convolution18"
  param {
    lr_mult: 1
    decay_mult: 1
  }
  param {
    lr_mult: 2
    decay_mult: 0
  }
  convolution_param {
    num_output: 32
    pad: 1
    kernel_size: 3
    stride: 1
    weight_filler {
      type: "gaussian"
      std: 0.083
    }
    bias_filler {
      type: "constant"
      value: 0
    }
  }
}
layer {
  name: "BatchNorm18"
  type: "BatchNorm"
  bottom: "Convolution18"
  top: "Convolution18"
  param {
    lr_mult: 0
    decay_mult: 0
  }
  param {
    lr_mult: 0
    decay_mult: 0
  }
  param {
    lr_mult: 0
    decay_mult: 0
  }
}
layer {
  name: "Scale18"
  type: "Scale"
  bottom: "Convolution18"
  top: "Convolution18"
  scale_param {
    bias_term: true
  }
}
layer {
  name: "Eltwise8"
  type: "Eltwise"
  bottom: "Eltwise7"
  bottom: "Convolution18"
  top: "Eltwise8"
  eltwise_param {
    operation: SUM
  }
}
layer {
  name: "penlu17"
  type: "PENLU"
  bottom: "Eltwise8"
  top: "Eltwise8"
  param {
    lr_mult: 2
    decay_mult: 0
  }
  param {
    lr_mult: 2
    decay_mult: 0
  }
  param {
    lr_mult: 0
    decay_mult: 0
  }
  penlu_param {
    alpha_filler {
      type: "constant"
      value: 0.25
    }
    beta_filler {
      type: "constant"
      value: 1
    }
    eta_filler {
      type: "constant"
      value: 1
    }
  }
}
layer {
  name: "Convolution19"
  type: "Convolution"
  bottom: "Eltwise8"
  top: "Convolution19"
  param {
    lr_mult: 1
    decay_mult: 1
  }
  param {
    lr_mult: 2
    decay_mult: 0
  }
  convolution_param {
    num_output: 32
    pad: 1
    kernel_size: 3
    stride: 1
    weight_filler {
      type: "gaussian"
      std: 0.083
    }
    bias_filler {
      type: "constant"
      value: 0
    }
  }
}
layer {
  name: "BatchNorm19"
  type: "BatchNorm"
  bottom: "Convolution19"
  top: "Convolution19"
  param {
    lr_mult: 0
    decay_mult: 0
  }
  param {
    lr_mult: 0
    decay_mult: 0
  }
  param {
    lr_mult: 0
    decay_mult: 0
  }
}
layer {
  name: "Scale19"
  type: "Scale"
  bottom: "Convolution19"
  top: "Convolution19"
  scale_param {
    bias_term: true
  }
}
layer {
  name: "penlu18"
  type: "PENLU"
  bottom: "Convolution19"
  top: "Convolution19"
  param {
    lr_mult: 2
    decay_mult: 0
  }
  param {
    lr_mult: 2
    decay_mult: 0
  }
  param {
    lr_mult: 0
    decay_mult: 0
  }
  penlu_param {
    alpha_filler {
      type: "constant"
      value: 0.25
    }
    beta_filler {
      type: "constant"
      value: 1
    }
    eta_filler {
      type: "constant"
      value: 1
    }
  }
}
layer {
  name: "Convolution20"
  type: "Convolution"
  bottom: "Convolution19"
  top: "Convolution20"
  param {
    lr_mult: 1
    decay_mult: 1
  }
  param {
    lr_mult: 2
    decay_mult: 0
  }
  convolution_param {
    num_output: 32
    pad: 1
    kernel_size: 3
    stride: 1
    weight_filler {
      type: "gaussian"
      std: 0.083
    }
    bias_filler {
      type: "constant"
      value: 0
    }
  }
}
layer {
  name: "BatchNorm20"
  type: "BatchNorm"
  bottom: "Convolution20"
  top: "Convolution20"
  param {
    lr_mult: 0
    decay_mult: 0
  }
  param {
    lr_mult: 0
    decay_mult: 0
  }
  param {
    lr_mult: 0
    decay_mult: 0
  }
}
layer {
  name: "Scale20"
  type: "Scale"
  bottom: "Convolution20"
  top: "Convolution20"
  scale_param {
    bias_term: true
  }
}
layer {
  name: "Eltwise9"
  type: "Eltwise"
  bottom: "Eltwise8"
  bottom: "Convolution20"
  top: "Eltwise9"
  eltwise_param {
    operation: SUM
  }
}
layer {
  name: "penlu19"
  type: "PENLU"
  bottom: "Eltwise9"
  top: "Eltwise9"
  param {
    lr_mult: 2
    decay_mult: 0
  }
  param {
    lr_mult: 2
    decay_mult: 0
  }
  param {
    lr_mult: 0
    decay_mult: 0
  }
  penlu_param {
    alpha_filler {
      type: "constant"
      value: 0.25
    }
    beta_filler {
      type: "constant"
      value: 1
    }
    eta_filler {
      type: "constant"
      value: 1
    }
  }
}
layer {
  name: "Convolution21"
  type: "Convolution"
  bottom: "Eltwise9"
  top: "Convolution21"
  param {
    lr_mult: 1
    decay_mult: 1
  }
  param {
    lr_mult: 2
    decay_mult: 0
  }
  convolution_param {
    num_output: 32
    pad: 1
    kernel_size: 3
    stride: 1
    weight_filler {
      type: "gaussian"
      std: 0.083
    }
    bias_filler {
      type: "constant"
      value: 0
    }
  }
}
layer {
  name: "BatchNorm21"
  type: "BatchNorm"
  bottom: "Convolution21"
  top: "Convolution21"
  param {
    lr_mult: 0
    decay_mult: 0
  }
  param {
    lr_mult: 0
    decay_mult: 0
  }
  param {
    lr_mult: 0
    decay_mult: 0
  }
}
layer {
  name: "Scale21"
  type: "Scale"
  bottom: "Convolution21"
  top: "Convolution21"
  scale_param {
    bias_term: true
  }
}
layer {
  name: "penlu20"
  type: "PENLU"
  bottom: "Convolution21"
  top: "Convolution21"
  param {
    lr_mult: 2
    decay_mult: 0
  }
  param {
    lr_mult: 2
    decay_mult: 0
  }
  param {
    lr_mult: 0
    decay_mult: 0
  }
  penlu_param {
    alpha_filler {
      type: "constant"
      value: 0.25
    }
    beta_filler {
      type: "constant"
      value: 1
    }
    eta_filler {
      type: "constant"
      value: 1
    }
  }
}
layer {
  name: "Convolution22"
  type: "Convolution"
  bottom: "Convolution21"
  top: "Convolution22"
  param {
    lr_mult: 1
    decay_mult: 1
  }
  param {
    lr_mult: 2
    decay_mult: 0
  }
  convolution_param {
    num_output: 32
    pad: 1
    kernel_size: 3
    stride: 1
    weight_filler {
      type: "gaussian"
      std: 0.083
    }
    bias_filler {
      type: "constant"
      value: 0
    }
  }
}
layer {
  name: "BatchNorm22"
  type: "BatchNorm"
  bottom: "Convolution22"
  top: "Convolution22"
  param {
    lr_mult: 0
    decay_mult: 0
  }
  param {
    lr_mult: 0
    decay_mult: 0
  }
  param {
    lr_mult: 0
    decay_mult: 0
  }
}
layer {
  name: "Scale22"
  type: "Scale"
  bottom: "Convolution22"
  top: "Convolution22"
  scale_param {
    bias_term: true
  }
}
layer {
  name: "Eltwise10"
  type: "Eltwise"
  bottom: "Eltwise9"
  bottom: "Convolution22"
  top: "Eltwise10"
  eltwise_param {
    operation: SUM
  }
}
layer {
  name: "penlu21"
  type: "PENLU"
  bottom: "Eltwise10"
  top: "Eltwise10"
  param {
    lr_mult: 2
    decay_mult: 0
  }
  param {
    lr_mult: 2
    decay_mult: 0
  }
  param {
    lr_mult: 0
    decay_mult: 0
  }
  penlu_param {
    alpha_filler {
      type: "constant"
      value: 0.25
    }
    beta_filler {
      type: "constant"
      value: 1
    }
    eta_filler {
      type: "constant"
      value: 1
    }
  }
}
layer {
  name: "Convolution23"
  type: "Convolution"
  bottom: "Eltwise10"
  top: "Convolution23"
  param {
    lr_mult: 1
    decay_mult: 1
  }
  param {
    lr_mult: 2
    decay_mult: 0
  }
  convolution_param {
    num_output: 64
    pad: 0
    kernel_size: 1
    stride: 2
    weight_filler {
      type: "gaussian"
      std: 0.17677669
    }
    bias_filler {
      type: "constant"
      value: 0
    }
  }
}
layer {
  name: "BatchNorm23"
  type: "BatchNorm"
  bottom: "Convolution23"
  top: "Convolution23"
  param {
    lr_mult: 0
    decay_mult: 0
  }
  param {
    lr_mult: 0
    decay_mult: 0
  }
  param {
    lr_mult: 0
    decay_mult: 0
  }
}
layer {
  name: "Scale23"
  type: "Scale"
  bottom: "Convolution23"
  top: "Convolution23"
  scale_param {
    bias_term: true
  }
}
layer {
  name: "Convolution24"
  type: "Convolution"
  bottom: "Eltwise10"
  top: "Convolution24"
  param {
    lr_mult: 1
    decay_mult: 1
  }
  param {
    lr_mult: 2
    decay_mult: 0
  }
  convolution_param {
    num_output: 64
    pad: 1
    kernel_size: 3
    stride: 2
    weight_filler {
      type: "gaussian"
      std: 0.059
    }
    bias_filler {
      type: "constant"
      value: 0
    }
  }
}
layer {
  name: "BatchNorm24"
  type: "BatchNorm"
  bottom: "Convolution24"
  top: "Convolution24"
  param {
    lr_mult: 0
    decay_mult: 0
  }
  param {
    lr_mult: 0
    decay_mult: 0
  }
  param {
    lr_mult: 0
    decay_mult: 0
  }
}
layer {
  name: "Scale24"
  type: "Scale"
  bottom: "Convolution24"
  top: "Convolution24"
  scale_param {
    bi
I1006 11:25:17.322101  2824 layer_factory.hpp:77] Creating layer Data1
I1006 11:25:17.349861  2824 db_lmdb.cpp:35] Opened lmdb /home/x306/caffe/xn/PENLU/data/cifar10/cifar10_test_lmdb
I1006 11:25:17.349875  2824 net.cpp:84] Creating Layer Data1
I1006 11:25:17.349880  2824 net.cpp:380] Data1 -> Data1
I1006 11:25:17.349887  2824 net.cpp:380] Data1 -> Data2
I1006 11:25:17.349894  2824 data_transformer.cpp:25] Loading mean file from: /home/x306/caffe/xn/PENLU/data/cifar10/mean.binaryproto
I1006 11:25:17.350039  2824 data_layer.cpp:45] output data size: 100,3,32,32
I1006 11:25:17.354601  2824 net.cpp:122] Setting up Data1
I1006 11:25:17.354621  2824 net.cpp:129] Top shape: 100 3 32 32 (307200)
I1006 11:25:17.354627  2824 net.cpp:129] Top shape: 100 (100)
…
I1006 11:25:17.416611  2824 net.cpp:129] Top shape: 100 32 16 16 (819200)
I1006 11:25:17.416613  2824 net.cpp:137] Memory required for data: 459982000
I1006 11:25:17.416618  2824 layer_factory.hpp:77] Creating layer Convolution16
I1006 11:25:17.416625  2824 net.cpp:84] Creating Layer Convolution16
I1006 11:25:17.416627  2824 net.cpp:406] Convolution16 <- Convolution15
I1006 11:25:17.416631  2824 net.cpp:380] Convolution16 -> Convolution16
I1006 11:25:17.418289  2824 net.cpp:122] Setting up Convolution16
I1006 11:25:17.418298  2824 net.cpp:129] Top shape: 100 32 16 16 (819200)
I1006 11:25:17.418301  2824 net.cpp:137] Memory required for data: 463258800
I1006 11:25:17.418305  2824 layer_factory.hpp:77] Creating layer BatchNorm16
I1006 11:25:17.418313  2824 net.cpp:84] Creating Layer BatchNorm16
I1006 11:25:17.418315  2824 net.cpp:406] BatchNorm16 <- Convolution16
I1006 11:25:17.418318  2824 net.cpp:367] BatchNorm16 -> Convolution16 (in-place)
I1006 11:25:17.418462  2824 net.cpp:122] Setting up BatchNorm16
I1006 11:25:17.418467  2824 net.cpp:129] Top shape: 100 32 16 16 (819200)
I1006 11:25:17.418469  2824 net.cpp:137] Memory required for data: 466535600
I1006 11:25:17.418474  2824 layer_factory.hpp:77] Creating layer Scale16
I1006 11:25:17.418478  2824 net.cpp:84] Creating Layer Scale16
I1006 11:25:17.418481  2824 net.cpp:406] Scale16 <- Convolution16
I1006 11:25:17.418484  2824 net.cpp:367] Scale16 -> Convolution16 (in-place)
I1006 11:25:17.418514  2824 layer_factory.hpp:77] Creating layer Scale16
I1006 11:25:17.418596  2824 net.cpp:122] Setting up Scale16
I1006 11:25:17.418599  2824 net.cpp:129] Top shape: 100 32 16 16 (819200)
I1006 11:25:17.418602  2824 net.cpp:137] Memory required for data: 469812400
I1006 11:25:17.418606  2824 layer_factory.hpp:77] Creating layer Eltwise7
I1006 11:25:17.418611  2824 net.cpp:84] Creating Layer Eltwise7
I1006 11:25:17.418613  2824 net.cpp:406] Eltwise7 <- Eltwise6_penlu13_0_split_1
I1006 11:25:17.418617  2824 net.cpp:406] Eltwise7 <- Convolution16
I1006 11:25:17.418619  2824 net.cpp:380] Eltwise7 -> Eltwise7
I1006 11:25:17.418633  2824 net.cpp:122] Setting up Eltwise7
I1006 11:25:17.418637  2824 net.cpp:129] Top shape: 100 32 16 16 (819200)
I1006 11:25:17.418638  2824 net.cpp:137] Memory required for data: 473089200
I1006 11:25:17.418642  2824 layer_factory.hpp:77] Creating layer penlu15
I1006 11:25:17.418648  2824 net.cpp:84] Creating Layer penlu15
I1006 11:25:17.418649  2824 net.cpp:406] penlu15 <- Eltwise7
I1006 11:25:17.418653  2824 net.cpp:367] penlu15 -> Eltwise7 (in-place)
I1006 11:25:17.418771  2824 net.cpp:122] Setting up penlu15
I1006 11:25:17.418776  2824 net.cpp:129] Top shape: 100 32 16 16 (819200)
I1006 11:25:17.418778  2824 net.cpp:137] Memory required for data: 476366000
I1006 11:25:17.418783  2824 layer_factory.hpp:77] Creating layer Eltwise7_penlu15_0_split
I1006 11:25:17.418787  2824 net.cpp:84] Creating Layer Eltwise7_penlu15_0_split
I1006 11:25:17.418789  2824 net.cpp:406] Eltwise7_penlu15_0_split <- Eltwise7
I1006 11:25:17.418793  2824 net.cpp:380] Eltwise7_penlu15_0_split -> Eltwise7_penlu15_0_split_0
I1006 11:25:17.418797  2824 net.cpp:380] Eltwise7_penlu15_0_split -> Eltwise7_penlu15_0_split_1
I1006 11:25:17.418823  2824 net.cpp:122] Setting up Eltwise7_penlu15_0_split
I1006 11:25:17.418826  2824 net.cpp:129] Top shape: 100 32 16 16 (819200)
I1006 11:25:17.418829  2824 net.cpp:129] Top shape: 100 32 16 16 (819200)
I1006 11:25:17.418831  2824 net.cpp:137] Memory required for data: 482919600
I1006 11:25:17.418833  2824 layer_factory.hpp:77] Creating layer Convolution17
I1006 11:25:17.418839  2824 net.cpp:84] Creating Layer Convolution17
I1006 11:25:17.418843  2824 net.cpp:406] Convolution17 <- Eltwise7_penlu15_0_split_0
I1006 11:25:17.418846  2824 net.cpp:380] Convolution17 -> Convolution17
I1006 11:25:17.419950  2824 net.cpp:122] Setting up Convolution17
I1006 11:25:17.419960  2824 net.cpp:129] Top shape: 100 32 16 16 (819200)
I1006 11:25:17.419961  2824 net.cpp:137] Memory required for data: 486196400
I1006 11:25:17.419965  2824 layer_factory.hpp:77] Creating layer BatchNorm17
I1006 11:25:17.419978  2824 net.cpp:84] Creating Layer BatchNorm17
I1006 11:25:17.419981  2824 net.cpp:406] BatchNorm17 <- Convolution17
I1006 11:25:17.419986  2824 net.cpp:367] BatchNorm17 -> Convolution17 (in-place)
I1006 11:25:17.420127  2824 net.cpp:122] Setting up BatchNorm17
I1006 11:25:17.420131  2824 net.cpp:129] Top shape: 100 32 16 16 (819200)
I1006 11:25:17.420133  2824 net.cpp:137] Memory required for data: 489473200
I1006 11:25:17.420138  2824 layer_factory.hpp:77] Creating layer Scale17
I1006 11:25:17.420143  2824 net.cpp:84] Creating Layer Scale17
I1006 11:25:17.420145  2824 net.cpp:406] Scale17 <- Convolution17
I1006 11:25:17.420150  2824 net.cpp:367] Scale17 -> Convolution17 (in-place)
I1006 11:25:17.420177  2824 layer_factory.hpp:77] Creating layer Scale17
I1006 11:25:17.420258  2824 net.cpp:122] Setting up Scale17
I1006 11:25:17.420261  2824 net.cpp:129] Top shape: 100 32 16 16 (819200)
I1006 11:25:17.420264  2824 net.cpp:137] Memory required for data: 492750000
I1006 11:25:17.420267  2824 layer_factory.hpp:77] Creating layer penlu16
I1006 11:25:17.420272  2824 net.cpp:84] Creating Layer penlu16
I1006 11:25:17.420275  2824 net.cpp:406] penlu16 <- Convolution17
I1006 11:25:17.420279  2824 net.cpp:367] penlu16 -> Convolution17 (in-place)
I1006 11:25:17.420390  2824 net.cpp:122] Setting up penlu16
I1006 11:25:17.420395  2824 net.cpp:129] Top shape: 100 32 16 16 (819200)
I1006 11:25:17.420397  2824 net.cpp:137] Memory required for data: 496026800
I1006 11:25:17.420402  2824 layer_factory.hpp:77] Creating layer Convolution18
I1006 11:25:17.420408  2824 net.cpp:84] Creating Layer Convolution18
I1006 11:25:17.420409  2824 net.cpp:406] Convolution18 <- Convolution17
I1006 11:25:17.420414  2824 net.cpp:380] Convolution18 -> Convolution18
I1006 11:25:17.421499  2824 net.cpp:122] Setting up Convolution18
I1006 11:25:17.421506  2824 net.cpp:129] Top shape: 100 32 16 16 (819200)
I1006 11:25:17.421509  2824 net.cpp:137] Memory required for data: 499303600
I1006 11:25:17.421514  2824 layer_factory.hpp:77] Creating layer BatchNorm18
I1006 11:25:17.421519  2824 net.cpp:84] Creating Layer BatchNorm18
I1006 11:25:17.421521  2824 net.cpp:406] BatchNorm18 <- Convolution18
I1006 11:25:17.421525  2824 net.cpp:367] BatchNorm18 -> Convolution18 (in-place)
I1006 11:25:17.421664  2824 net.cpp:122] Setting up BatchNorm18
I1006 11:25:17.421669  2824 net.cpp:129] Top shape: 100 32 16 16 (819200)
I1006 11:25:17.421671  2824 net.cpp:137] Memory required for data: 502580400
I1006 11:25:17.421675  2824 layer_factory.hpp:77] Creating layer Scale18
I1006 11:25:17.421680  2824 net.cpp:84] Creating Layer Scale18
I1006 11:25:17.421682  2824 net.cpp:406] Scale18 <- Convolution18
I1006 11:25:17.421685  2824 net.cpp:367] Scale18 -> Convolution18 (in-place)
I1006 11:25:17.421713  2824 layer_factory.hpp:77] Creating layer Scale18
I1006 11:25:17.421795  2824 net.cpp:122] Setting up Scale18
I1006 11:25:17.421799  2824 net.cpp:129] Top shape: 100 32 16 16 (819200)
I1006 11:25:17.421802  2824 net.cpp:137] Memory required for data: 505857200
I1006 11:25:17.421805  2824 layer_factory.hpp:77] Creating layer Eltwise8
I1006 11:25:17.421810  2824 net.cpp:84] Creating Layer Eltwise8
I1006 11:25:17.421813  2824 net.cpp:406] Eltwise8 <- Eltwise7_penlu15_0_split_1
I1006 11:25:17.421815  2824 net.cpp:406] Eltwise8 <- Convolution18
I1006 11:25:17.421819  2824 net.cpp:380] Eltwise8 -> Eltwise8
I1006 11:25:17.421833  2824 net.cpp:122] Setting up Eltwise8
I1006 11:25:17.421835  2824 net.cpp:129] Top shape: 100 32 16 16 (819200)
I1006 11:25:17.421838  2824 net.cpp:137] Memory required for data: 509134000
I1006 11:25:17.421840  2824 layer_factory.hpp:77] Creating layer penlu17
I1006 11:25:17.421845  2824 net.cpp:84] Creating Layer penlu17
I1006 11:25:17.421849  2824 net.cpp:406] penlu17 <- Eltwise8
I1006 11:25:17.421851  2824 net.cpp:367] penlu17 -> Eltwise8 (in-place)
I1006 11:25:17.421965  2824 net.cpp:122] Setting up penlu17
I1006 11:25:17.421970  2824 net.cpp:129] Top shape: 100 32 16 16 (819200)
I1006 11:25:17.421978  2824 net.cpp:137] Memory required for data: 512410800
I1006 11:25:17.421983  2824 layer_factory.hpp:77] Creating layer Eltwise8_penlu17_0_split
I1006 11:25:17.421986  2824 net.cpp:84] Creating Layer Eltwise8_penlu17_0_split
I1006 11:25:17.421988  2824 net.cpp:406] Eltwise8_penlu17_0_split <- Eltwise8
I1006 11:25:17.421991  2824 net.cpp:380] Eltwise8_penlu17_0_split -> Eltwise8_penlu17_0_split_0
I1006 11:25:17.441459  2824 net.cpp:380] Eltwise8_penlu17_0_split -> Eltwise8_penlu17_0_split_1
I1006 11:25:17.441504  2824 net.cpp:122] Setting up Eltwise8_penlu17_0_split
I1006 11:25:17.441509  2824 net.cpp:129] Top shape: 100 32 16 16 (819200)
I1006 11:25:17.441512  2824 net.cpp:129] Top shape: 100 32 16 16 (819200)
I1006 11:25:17.441515  2824 net.cpp:137] Memory required for data: 518964400
I1006 11:25:17.441517  2824 layer_factory.hpp:77] Creating layer Convolution19
I1006 11:25:17.441525  2824 net.cpp:84] Creating Layer Convolution19
I1006 11:25:17.441529  2824 net.cpp:406] Convolution19 <- Eltwise8_penlu17_0_split_0
I1006 11:25:17.441532  2824 net.cpp:380] Convolution19 -> Convolution19
I1006 11:25:17.442766  2824 net.cpp:122] Setting up Convolution19
I1006 11:25:17.442778  2824 net.cpp:129] Top shape: 100 32 16 16 (819200)
I1006 11:25:17.442783  2824 net.cpp:137] Memory required for data: 522241200
I1006 11:25:17.442790  2824 layer_factory.hpp:77] Creating layer BatchNorm19
I1006 11:25:17.442800  2824 net.cpp:84] Creating Layer BatchNorm19
I1006 11:25:17.442804  2824 net.cpp:406] BatchNorm19 <- Convolution19
I1006 11:25:17.442811  2824 net.cpp:367] BatchNorm19 -> Convolution19 (in-place)
I1006 11:25:17.442981  2824 net.cpp:122] Setting up BatchNorm19
I1006 11:25:17.442991  2824 net.cpp:129] Top shape: 100 32 16 16 (819200)
I1006 11:25:17.442994  2824 net.cpp:137] Memory required for data: 525518000
I1006 11:25:17.443001  2824 layer_factory.hpp:77] Creating layer Scale19
I1006 11:25:17.443006  2824 net.cpp:84] Creating Layer Scale19
I1006 11:25:17.443008  2824 net.cpp:406] Scale19 <- Convolution19
I1006 11:25:17.443013  2824 net.cpp:367] Scale19 -> Convolution19 (in-place)
I1006 11:25:17.443059  2824 layer_factory.hpp:77] Creating layer Scale19
I1006 11:25:17.443173  2824 net.cpp:122] Setting up Scale19
I1006 11:25:17.443178  2824 net.cpp:129] Top shape: 100 32 16 16 (819200)
I1006 11:25:17.443181  2824 net.cpp:137] Memory required for data: 528794800
I1006 11:25:17.443186  2824 layer_factory.hpp:77] Creating layer penlu18
I1006 11:25:17.443190  2824 net.cpp:84] Creating Layer penlu18
I1006 11:25:17.443192  2824 net.cpp:406] penlu18 <- Convolution19
I1006 11:25:17.443197  2824 net.cpp:367] penlu18 -> Convolution19 (in-place)
I1006 11:25:17.443315  2824 net.cpp:122] Setting up penlu18
I1006 11:25:17.443320  2824 net.cpp:129] Top shape: 100 32 16 16 (819200)
I1006 11:25:17.443321  2824 net.cpp:137] Memory required for data: 532071600
I1006 11:25:17.443326  2824 layer_factory.hpp:77] Creating layer Convolution20
I1006 11:25:17.443333  2824 net.cpp:84] Creating Layer Convolution20
I1006 11:25:17.443336  2824 net.cpp:406] Convolution20 <- Convolution19
I1006 11:25:17.443341  2824 net.cpp:380] Convolution20 -> Convolution20
I1006 11:25:17.444104  2824 net.cpp:122] Setting up Convolution20
I1006 11:25:17.444113  2824 net.cpp:129] Top shape: 100 32 16 16 (819200)
I1006 11:25:17.444115  2824 net.cpp:137] Memory required for data: 535348400
I1006 11:25:17.444119  2824 layer_factory.hpp:77] Creating layer BatchNorm20
I1006 11:25:17.444124  2824 net.cpp:84] Creating Layer BatchNorm20
I1006 11:25:17.444126  2824 net.cpp:406] BatchNorm20 <- Convolution20
I1006 11:25:17.444130  2824 net.cpp:367] BatchNorm20 -> Convolution20 (in-place)
I1006 11:25:17.444278  2824 net.cpp:122] Setting up BatchNorm20
I1006 11:25:17.444283  2824 net.cpp:129] Top shape: 100 32 16 16 (819200)
I1006 11:25:17.444284  2824 net.cpp:137] Memory required for data: 538625200
I1006 11:25:17.444289  2824 layer_factory.hpp:77] Creating layer Scale20
I1006 11:25:17.444293  2824 net.cpp:84] Creating Layer Scale20
I1006 11:25:17.444295  2824 net.cpp:406] Scale20 <- Convolution20
I1006 11:25:17.444306  2824 net.cpp:367] Scale20 -> Convolution20 (in-place)
I1006 11:25:17.444339  2824 layer_factory.hpp:77] Creating layer Scale20
I1006 11:25:17.444422  2824 net.cpp:122] Setting up Scale20
I1006 11:25:17.444427  2824 net.cpp:129] Top shape: 100 32 16 16 (819200)
I1006 11:25:17.444428  2824 net.cpp:137] Memory required for data: 541902000
I1006 11:25:17.444432  2824 layer_factory.hpp:77] Creating layer Eltwise9
I1006 11:25:17.444437  2824 net.cpp:84] Creating Layer Eltwise9
I1006 11:25:17.444440  2824 net.cpp:406] Eltwise9 <- Eltwise8_penlu17_0_split_1
I1006 11:25:17.444443  2824 net.cpp:406] Eltwise9 <- Convolution20
I1006 11:25:17.444447  2824 net.cpp:380] Eltwise9 -> Eltwise9
I1006 11:25:17.444460  2824 net.cpp:122] Setting up Eltwise9
I1006 11:25:17.444463  2824 net.cpp:129] Top shape: 100 32 16 16 (819200)
I1006 11:25:17.444465  2824 net.cpp:137] Memory required for data: 545178800
I1006 11:25:17.444468  2824 layer_factory.hpp:77] Creating layer penlu19
I1006 11:25:17.444473  2824 net.cpp:84] Creating Layer penlu19
I1006 11:25:17.444476  2824 net.cpp:406] penlu19 <- Eltwise9
I1006 11:25:17.444480  2824 net.cpp:367] penlu19 -> Eltwise9 (in-place)
I1006 11:25:17.444602  2824 net.cpp:122] Setting up penlu19
I1006 11:25:17.444607  2824 net.cpp:129] Top shape: 100 32 16 16 (819200)
I1006 11:25:17.444609  2824 net.cpp:137] Memory required for data: 548455600
I1006 11:25:17.444613  2824 layer_factory.hpp:77] Creating layer Eltwise9_penlu19_0_split
I1006 11:25:17.444617  2824 net.cpp:84] Creating Layer Eltwise9_penlu19_0_split
I1006 11:25:17.444619  2824 net.cpp:406] Eltwise9_penlu19_0_split <- Eltwise9
I1006 11:25:17.444624  2824 net.cpp:380] Eltwise9_penlu19_0_split -> Eltwise9_penlu19_0_split_0
I1006 11:25:17.444628  2824 net.cpp:380] Eltwise9_penlu19_0_split -> Eltwise9_penlu19_0_split_1
I1006 11:25:17.444653  2824 net.cpp:122] Setting up Eltwise9_penlu19_0_split
I1006 11:25:17.444658  2824 net.cpp:129] Top shape: 100 32 16 16 (819200)
I1006 11:25:17.444660  2824 net.cpp:129] Top shape: 100 32 16 16 (819200)
I1006 11:25:17.444663  2824 net.cpp:137] Memory required for data: 555009200
I1006 11:25:17.444664  2824 layer_factory.hpp:77] Creating layer Convolution21
I1006 11:25:17.444671  2824 net.cpp:84] Creating Layer Convolution21
I1006 11:25:17.444674  2824 net.cpp:406] Convolution21 <- Eltwise9_penlu19_0_split_0
I1006 11:25:17.444677  2824 net.cpp:380] Convolution21 -> Convolution21
I1006 11:25:17.445785  2824 net.cpp:122] Setting up Convolution21
I1006 11:25:17.445793  2824 net.cpp:129] Top shape: 100 32 16 16 (819200)
I1006 11:25:17.445796  2824 net.cpp:137] Memory required for data: 558286000
I1006 11:25:17.445801  2824 layer_factory.hpp:77] Creating layer BatchNorm21
I1006 11:25:17.445806  2824 net.cpp:84] Creating Layer BatchNorm21
I1006 11:25:17.445808  2824 net.cpp:406] BatchNorm21 <- Convolution21
I1006 11:25:17.445812  2824 net.cpp:367] BatchNorm21 -> Convolution21 (in-place)
I1006 11:25:17.445955  2824 net.cpp:122] Setting up BatchNorm21
I1006 11:25:17.445960  2824 net.cpp:129] Top shape: 100 32 16 16 (819200)
I1006 11:25:17.445962  2824 net.cpp:137] Memory required for data: 561562800
I1006 11:25:17.445966  2824 layer_factory.hpp:77] Creating layer Scale21
I1006 11:25:17.445971  2824 net.cpp:84] Creating Layer Scale21
I1006 11:25:17.445973  2824 net.cpp:406] Scale21 <- Convolution21
I1006 11:25:17.445976  2824 net.cpp:367] Scale21 -> Convolution21 (in-place)
I1006 11:25:17.446004  2824 layer_factory.hpp:77] Creating layer Scale21
I1006 11:25:17.446087  2824 net.cpp:122] Setting up Scale21
I1006 11:25:17.446092  2824 net.cpp:129] Top shape: 100 32 16 16 (819200)
I1006 11:25:17.446094  2824 net.cpp:137] Memory required for data: 564839600
I1006 11:25:17.446099  2824 layer_factory.hpp:77] Creating layer penlu20
I1006 11:25:17.446102  2824 net.cpp:84] Creating Layer penlu20
I1006 11:25:17.446105  2824 net.cpp:406] penlu20 <- Convolution21
I1006 11:25:17.446110  2824 net.cpp:367] penlu20 -> Convolution21 (in-place)
I1006 11:25:17.446225  2824 net.cpp:122] Setting up penlu20
I1006 11:25:17.446235  2824 net.cpp:129] Top shape: 100 32 16 16 (819200)
I1006 11:25:17.446238  2824 net.cpp:137] Memory required for data: 568116400
I1006 11:25:17.446243  2824 layer_factory.hpp:77] Creating layer Convolution22
I1006 11:25:17.446249  2824 net.cpp:84] Creating Layer Convolution22
I1006 11:25:17.446252  2824 net.cpp:406] Convolution22 <- Convolution21
I1006 11:25:17.446256  2824 net.cpp:380] Convolution22 -> Convolution22
I1006 11:25:17.447374  2824 net.cpp:122] Setting up Convolution22
I1006 11:25:17.447383  2824 net.cpp:129] Top shape: 100 32 16 16 (819200)
I1006 11:25:17.447386  2824 net.cpp:137] Memory required for data: 571393200
I1006 11:25:17.447391  2824 layer_factory.hpp:77] Creating layer BatchNorm22
I1006 11:25:17.447396  2824 net.cpp:84] Creating Layer BatchNorm22
I1006 11:25:17.447399  2824 net.cpp:406] BatchNorm22 <- Convolution22
I1006 11:25:17.447402  2824 net.cpp:367] BatchNorm22 -> Convolution22 (in-place)
I1006 11:25:17.447547  2824 net.cpp:122] Setting up BatchNorm22
I1006 11:25:17.447552  2824 net.cpp:129] Top shape: 100 32 16 16 (819200)
I1006 11:25:17.447554  2824 net.cpp:137] Memory required for data: 574670000
I1006 11:25:17.447559  2824 layer_factory.hpp:77] Creating layer Scale22
I1006 11:25:17.447563  2824 net.cpp:84] Creating Layer Scale22
I1006 11:25:17.447566  2824 net.cpp:406] Scale22 <- Convolution22
I1006 11:25:17.447569  2824 net.cpp:367] Scale22 -> Convolution22 (in-place)
I1006 11:25:17.447597  2824 layer_factory.hpp:77] Creating layer Scale22
I1006 11:25:17.447680  2824 net.cpp:122] Setting up Scale22
I1006 11:25:17.447685  2824 net.cpp:129] Top shape: 100 32 16 16 (819200)
I1006 11:25:17.447686  2824 net.cpp:137] Memory required for data: 577946800
I1006 11:25:17.447690  2824 layer_factory.hpp:77] Creating layer Eltwise10
I1006 11:25:17.447695  2824 net.cpp:84] Creating Layer Eltwise10
I1006 11:25:17.447697  2824 net.cpp:406] Eltwise10 <- Eltwise9_penlu19_0_split_1
I1006 11:25:17.447700  2824 net.cpp:406] Eltwise10 <- Convolution22
I1006 11:25:17.447703  2824 net.cpp:380] Eltwise10 -> Eltwise10
I1006 11:25:17.447718  2824 net.cpp:122] Setting up Eltwise10
I1006 11:25:17.447721  2824 net.cpp:129] Top shape: 100 32 16 16 (819200)
I1006 11:25:17.447723  2824 net.cpp:137] Memory required for data: 581223600
I1006 11:25:17.447726  2824 layer_factory.hpp:77] Creating layer penlu21
I1006 11:25:17.447731  2824 net.cpp:84] Creating Layer penlu21
I1006 11:25:17.447732  2824 net.cpp:406] penlu21 <- Eltwise10
I1006 11:25:17.447736  2824 net.cpp:367] penlu21 -> Eltwise10 (in-place)
I1006 11:25:17.447855  2824 net.cpp:122] Setting up penlu21
I1006 11:25:17.447860  2824 net.cpp:129] Top shape: 100 32 16 16 (819200)
I1006 11:25:17.447861  2824 net.cpp:137] Memory required for data: 584500400
I1006 11:25:17.447865  2824 layer_factory.hpp:77] Creating layer Eltwise10_penlu21_0_split
I1006 11:25:17.447870  2824 net.cpp:84] Creating Layer Eltwise10_penlu21_0_split
I1006 11:25:17.447871  2824 net.cpp:406] Eltwise10_penlu21_0_split <- Eltwise10
I1006 11:25:17.447875  2824 net.cpp:380] Eltwise10_penlu21_0_split -> Eltwise10_penlu21_0_split_0
I1006 11:25:17.447878  2824 net.cpp:380] Eltwise10_penlu21_0_split -> Eltwise10_penlu21_0_split_1
I1006 11:25:17.447904  2824 net.cpp:122] Setting up Eltwise10_penlu21_0_split
I1006 11:25:17.447907  2824 net.cpp:129] Top shape: 100 32 16 16 (819200)
I1006 11:25:17.447911  2824 net.cpp:129] Top shape: 100 32 16 16 (819200)
I1006 11:25:17.447912  2824 net.cpp:137] Memory required for data: 591054000
I1006 11:25:17.447914  2824 layer_factory.hpp:77] Creating layer Convolution23
I1006 11:25:17.447921  2824 net.cpp:84] Creating Layer Convolution23
I1006 11:25:17.447923  2824 net.cpp:406] Convolution23 <- Eltwise10_penlu21_0_split_0
I1006 11:25:17.447927  2824 net.cpp:380] Convolution23 -> Convolution23
I1006 11:25:17.448879  2824 net.cpp:122] Setting up Convolution23
I1006 11:25:17.448889  2824 net.cpp:129] Top shape: 100 64 8 8 (409600)
I1006 11:25:17.448890  2824 net.cpp:137] Memory required for data: 592692400
I1006 11:25:17.448895  2824 layer_factory.hpp:77] Creating layer BatchNorm23
I1006 11:25:17.448907  2824 net.cpp:84] Creating Layer BatchNorm23
I1006 11:25:17.448910  2824 net.cpp:406] BatchNorm23 <- Convolution23
I1006 11:25:17.448915  2824 net.cpp:367] BatchNorm23 -> Convolution23 (in-place)
I1006 11:25:17.449064  2824 net.cpp:122] Setting up BatchNorm23
I1006 11:25:17.449069  2824 net.cpp:129] Top shape: 100 64 8 8 (409600)
I1006 11:25:17.449070  2824 net.cpp:137] Memory required for data: 594330800
I1006 11:25:17.449075  2824 layer_factory.hpp:77] Creating layer Scale23
I1006 11:25:17.449080  2824 net.cpp:84] Creating Layer Scale23
I1006 11:25:17.449084  2824 net.cpp:406] Scale23 <- Convolution23
I1006 11:25:17.449086  2824 net.cpp:367] Scale23 -> Convolution23 (in-place)
I1006 11:25:17.449115  2824 layer_factory.hpp:77] Creating layer Scale23
I1006 11:25:17.449199  2824 net.cpp:122] Setting up Scale23
I1006 11:25:17.449204  2824 net.cpp:129] Top shape: 100 64 8 8 (409600)
I1006 11:25:17.449206  2824 net.cpp:137] Memory required for data: 595969200
I1006 11:25:17.449209  2824 layer_factory.hpp:77] Creating layer Convolution24
I1006 11:25:17.449216  2824 net.cpp:84] Creating Layer Convolution24
I1006 11:25:17.449219  2824 net.cpp:406] Convolution24 <- Eltwise10_penlu21_0_split_1
I1006 11:25:17.449223  2824 net.cpp:380] Convolution24 -> Convolution24
I1006 11:25:17.450531  2824 net.cpp:122] Setting up Convolution24
I1006 11:25:17.450539  2824 net.cpp:129] Top shape: 100 64 8 8 (409600)
I1006 11:25:17.450542  2824 net.cpp:137] Memory required for data: 597607600
I1006 11:25:17.450546  2824 layer_factory.hpp:77] Creating layer BatchNorm24
I1006 11:25:17.450551  2824 net.cpp:84] Creating Layer BatchNorm24
I1006 11:25:17.450554  2824 net.cpp:406] BatchNorm24 <- Convolution24
I1006 11:25:17.450559  2824 net.cpp:367] BatchNorm24 -> Convolution24 (in-place)
I1006 11:25:17.450706  2824 net.cpp:122] Setting up BatchNorm24
I1006 11:25:17.450711  2824 net.cpp:129] Top shape: 100 64 8 8 (409600)
I1006 11:25:17.450713  2824 net.cpp:137] Memory required for data: 599246000
I1006 11:25:17.450717  2824 layer_factory.hpp:77] Creating layer Scale24
I1006 11:25:17.450722  2824 net.cpp:84] Creating Layer Scale24
I1006 11:25:17.450724  2824 net.cpp:406] Scale24 <- Convolution24
I1006 11:25:17.450728  2824 net.cpp:367] Scale24 -> Convolution24 (in-place)
I1006 11:25:17.450757  2824 layer_factory.hpp:77] Creating layer Scale24
I1006 11:25:17.450840  2824 net.cpp:122] Setting up Scale24
I1006 11:25:17.450845  2824 net.cpp:129] Top shape: 100 64 8 8 (409600)
I1006 11:25:17.450847  2824 net.cpp:137] Memory required for data: 600884400
I1006 11:25:17.450850  2824 layer_factory.hpp:77] Creating layer penlu22
I1006 11:25:17.450856  2824 net.cpp:84] Creating Layer penlu22
I1006 11:25:17.450860  2824 net.cpp:406] penlu22 <- Convolution24
I1006 11:25:17.450862  2824 net.cpp:367] penlu22 -> Convolution24 (in-place)
I1006 11:25:17.450979  2824 net.cpp:122] Setting up penlu22
I1006 11:25:17.450984  2824 net.cpp:129] Top shape: 100 64 8 8 (409600)
I1006 11:25:17.450986  2824 net.cpp:137] Memory required for data: 602522800
I1006 11:25:17.450990  2824 layer_factory.hpp:77] Creating layer Convolution25
I1006 11:25:17.450999  2824 net.cpp:84] Creating Layer Convolution25
I1006 11:25:17.451001  2824 net.cpp:406] Convolution25 <- Convolution24
I1006 11:25:17.451004  2824 net.cpp:380] Convolution25 -> Convolution25
I1006 11:25:17.452744  2824 net.cpp:122] Setting up Convolution25
I1006 11:25:17.452752  2824 net.cpp:129] Top shape: 100 64 8 8 (409600)
I1006 11:25:17.452755  2824 net.cpp:137] Memory required for data: 604161200
I1006 11:25:17.452759  2824 layer_factory.hpp:77] Creating layer BatchNorm25
I1006 11:25:17.452765  2824 net.cpp:84] Creating Layer BatchNorm25
I1006 11:25:17.452767  2824 net.cpp:406] BatchNorm25 <- Convolution25
I1006 11:25:17.452772  2824 net.cpp:367] BatchNorm25 -> Convolution25 (in-place)
I1006 11:25:17.452924  2824 net.cpp:122] Setting up BatchNorm25
I1006 11:25:17.452929  2824 net.cpp:129] Top shape: 100 64 8 8 (409600)
I1006 11:25:17.452931  2824 net.cpp:137] Memory required for data: 605799600
I1006 11:25:17.452942  2824 layer_factory.hpp:77] Creating layer Scale25
I1006 11:25:17.452947  2824 net.cpp:84] Creating Layer Scale25
I1006 11:25:17.452950  2824 net.cpp:406] Scale25 <- Convolution25
I1006 11:25:17.452953  2824 net.cpp:367] Scale25 -> Convolution25 (in-place)
I1006 11:25:17.472405  2824 layer_factory.hpp:77] Creating layer Scale25
I1006 11:25:17.472507  2824 net.cpp:122] Setting up Scale25
I1006 11:25:17.472513  2824 net.cpp:129] Top shape: 100 64 8 8 (409600)
I1006 11:25:17.472517  2824 net.cpp:137] Memory required for data: 607438000
I1006 11:25:17.472522  2824 layer_factory.hpp:77] Creating layer Eltwise11
I1006 11:25:17.472527  2824 net.cpp:84] Creating Layer Eltwise11
I1006 11:25:17.472528  2824 net.cpp:406] Eltwise11 <- Convolution23
I1006 11:25:17.472532  2824 net.cpp:406] Eltwise11 <- Convolution25
I1006 11:25:17.472535  2824 net.cpp:380] Eltwise11 -> Eltwise11
I1006 11:25:17.472555  2824 net.cpp:122] Setting up Eltwise11
I1006 11:25:17.472559  2824 net.cpp:129] Top shape: 100 64 8 8 (409600)
I1006 11:25:17.472561  2824 net.cpp:137] Memory required for data: 609076400
I1006 11:25:17.472563  2824 layer_factory.hpp:77] Creating layer penlu23
I1006 11:25:17.472569  2824 net.cpp:84] Creating Layer penlu23
I1006 11:25:17.472573  2824 net.cpp:406] penlu23 <- Eltwise11
I1006 11:25:17.472575  2824 net.cpp:367] penlu23 -> Eltwise11 (in-place)
I1006 11:25:17.472702  2824 net.cpp:122] Setting up penlu23
I1006 11:25:17.472707  2824 net.cpp:129] Top shape: 100 64 8 8 (409600)
I1006 11:25:17.472709  2824 net.cpp:137] Memory required for data: 610714800
I1006 11:25:17.472714  2824 layer_factory.hpp:77] Creating layer Eltwise11_penlu23_0_split
I1006 11:25:17.472718  2824 net.cpp:84] Creating Layer Eltwise11_penlu23_0_split
I1006 11:25:17.472720  2824 net.cpp:406] Eltwise11_penlu23_0_split <- Eltwise11
I1006 11:25:17.472723  2824 net.cpp:380] Eltwise11_penlu23_0_split -> Eltwise11_penlu23_0_split_0
I1006 11:25:17.472728  2824 net.cpp:380] Eltwise11_penlu23_0_split -> Eltwise11_penlu23_0_split_1
I1006 11:25:17.472756  2824 net.cpp:122] Setting up Eltwise11_penlu23_0_split
I1006 11:25:17.472760  2824 net.cpp:129] Top shape: 100 64 8 8 (409600)
I1006 11:25:17.472764  2824 net.cpp:129] Top shape: 100 64 8 8 (409600)
I1006 11:25:17.472766  2824 net.cpp:137] Memory required for data: 613991600
I1006 11:25:17.472769  2824 layer_factory.hpp:77] Creating layer Convolution26
I1006 11:25:17.472775  2824 net.cpp:84] Creating Layer Convolution26
I1006 11:25:17.472779  2824 net.cpp:406] Convolution26 <- Eltwise11_penlu23_0_split_0
I1006 11:25:17.472782  2824 net.cpp:380] Convolution26 -> Convolution26
I1006 11:25:17.474702  2824 net.cpp:122] Setting up Convolution26
I1006 11:25:17.474714  2824 net.cpp:129] Top shape: 100 64 8 8 (409600)
I1006 11:25:17.474715  2824 net.cpp:137] Memory required for data: 615630000
I1006 11:25:17.474720  2824 layer_factory.hpp:77] Creating layer BatchNorm26
I1006 11:25:17.474726  2824 net.cpp:84] Creating Layer BatchNorm26
I1006 11:25:17.474728  2824 net.cpp:406] BatchNorm26 <- Convolution26
I1006 11:25:17.474732  2824 net.cpp:367] BatchNorm26 -> Convolution26 (in-place)
I1006 11:25:17.474882  2824 net.cpp:122] Setting up BatchNorm26
I1006 11:25:17.474886  2824 net.cpp:129] Top shape: 100 64 8 8 (409600)
I1006 11:25:17.474889  2824 net.cpp:137] Memory required for data: 617268400
I1006 11:25:17.474894  2824 layer_factory.hpp:77] Creating layer Scale26
I1006 11:25:17.474897  2824 net.cpp:84] Creating Layer Scale26
I1006 11:25:17.474900  2824 net.cpp:406] Scale26 <- Convolution26
I1006 11:25:17.474903  2824 net.cpp:367] Scale26 -> Convolution26 (in-place)
I1006 11:25:17.474934  2824 layer_factory.hpp:77] Creating layer Scale26
I1006 11:25:17.475019  2824 net.cpp:122] Setting up Scale26
I1006 11:25:17.475033  2824 net.cpp:129] Top shape: 100 64 8 8 (409600)
I1006 11:25:17.475035  2824 net.cpp:137] Memory required for data: 618906800
I1006 11:25:17.475039  2824 layer_factory.hpp:77] Creating layer penlu24
I1006 11:25:17.475045  2824 net.cpp:84] Creating Layer penlu24
I1006 11:25:17.475054  2824 net.cpp:406] penlu24 <- Convolution26
I1006 11:25:17.475059  2824 net.cpp:367] penlu24 -> Convolution26 (in-place)
I1006 11:25:17.475194  2824 net.cpp:122] Setting up penlu24
I1006 11:25:17.475200  2824 net.cpp:129] Top shape: 100 64 8 8 (409600)
I1006 11:25:17.475203  2824 net.cpp:137] Memory required for data: 620545200
I1006 11:25:17.475208  2824 layer_factory.hpp:77] Creating layer Convolution27
I1006 11:25:17.475216  2824 net.cpp:84] Creating Layer Convolution27
I1006 11:25:17.475219  2824 net.cpp:406] Convolution27 <- Convolution26
I1006 11:25:17.475224  2824 net.cpp:380] Convolution27 -> Convolution27
I1006 11:25:17.476963  2824 net.cpp:122] Setting up Convolution27
I1006 11:25:17.476971  2824 net.cpp:129] Top shape: 100 64 8 8 (409600)
I1006 11:25:17.476974  2824 net.cpp:137] Memory required for data: 622183600
I1006 11:25:17.476979  2824 layer_factory.hpp:77] Creating layer BatchNorm27
I1006 11:25:17.476994  2824 net.cpp:84] Creating Layer BatchNorm27
I1006 11:25:17.476996  2824 net.cpp:406] BatchNorm27 <- Convolution27
I1006 11:25:17.477000  2824 net.cpp:367] BatchNorm27 -> Convolution27 (in-place)
I1006 11:25:17.477151  2824 net.cpp:122] Setting up BatchNorm27
I1006 11:25:17.477156  2824 net.cpp:129] Top shape: 100 64 8 8 (409600)
I1006 11:25:17.477159  2824 net.cpp:137] Memory required for data: 623822000
I1006 11:25:17.477182  2824 layer_factory.hpp:77] Creating layer Scale27
I1006 11:25:17.477186  2824 net.cpp:84] Creating Layer Scale27
I1006 11:25:17.477190  2824 net.cpp:406] Scale27 <- Convolution27
I1006 11:25:17.477192  2824 net.cpp:367] Scale27 -> Convolution27 (in-place)
I1006 11:25:17.477224  2824 layer_factory.hpp:77] Creating layer Scale27
I1006 11:25:17.477309  2824 net.cpp:122] Setting up Scale27
I1006 11:25:17.477314  2824 net.cpp:129] Top shape: 100 64 8 8 (409600)
I1006 11:25:17.477316  2824 net.cpp:137] Memory required for data: 625460400
I1006 11:25:17.477320  2824 layer_factory.hpp:77] Creating layer Eltwise12
I1006 11:25:17.477324  2824 net.cpp:84] Creating Layer Eltwise12
I1006 11:25:17.477326  2824 net.cpp:406] Eltwise12 <- Eltwise11_penlu23_0_split_1
I1006 11:25:17.477329  2824 net.cpp:406] Eltwise12 <- Convolution27
I1006 11:25:17.477332  2824 net.cpp:380] Eltwise12 -> Eltwise12
I1006 11:25:17.477350  2824 net.cpp:122] Setting up Eltwise12
I1006 11:25:17.477355  2824 net.cpp:129] Top shape: 100 64 8 8 (409600)
I1006 11:25:17.477356  2824 net.cpp:137] Memory required for data: 627098800
I1006 11:25:17.477358  2824 layer_factory.hpp:77] Creating layer penlu25
I1006 11:25:17.477363  2824 net.cpp:84] Creating Layer penlu25
I1006 11:25:17.477366  2824 net.cpp:406] penlu25 <- Eltwise12
I1006 11:25:17.477371  2824 net.cpp:367] penlu25 -> Eltwise12 (in-place)
I1006 11:25:17.477491  2824 net.cpp:122] Setting up penlu25
I1006 11:25:17.477495  2824 net.cpp:129] Top shape: 100 64 8 8 (409600)
I1006 11:25:17.477497  2824 net.cpp:137] Memory required for data: 628737200
I1006 11:25:17.477502  2824 layer_factory.hpp:77] Creating layer Eltwise12_penlu25_0_split
I1006 11:25:17.477506  2824 net.cpp:84] Creating Layer Eltwise12_penlu25_0_split
I1006 11:25:17.477509  2824 net.cpp:406] Eltwise12_penlu25_0_split <- Eltwise12
I1006 11:25:17.477512  2824 net.cpp:380] Eltwise12_penlu25_0_split -> Eltwise12_penlu25_0_split_0
I1006 11:25:17.477516  2824 net.cpp:380] Eltwise12_penlu25_0_split -> Eltwise12_penlu25_0_split_1
I1006 11:25:17.477542  2824 net.cpp:122] Setting up Eltwise12_penlu25_0_split
I1006 11:25:17.477546  2824 net.cpp:129] Top shape: 100 64 8 8 (409600)
I1006 11:25:17.477548  2824 net.cpp:129] Top shape: 100 64 8 8 (409600)
I1006 11:25:17.477550  2824 net.cpp:137] Memory required for data: 632014000
I1006 11:25:17.477553  2824 layer_factory.hpp:77] Creating layer Convolution28
I1006 11:25:17.477558  2824 net.cpp:84] Creating Layer Convolution28
I1006 11:25:17.477561  2824 net.cpp:406] Convolution28 <- Eltwise12_penlu25_0_split_0
I1006 11:25:17.477566  2824 net.cpp:380] Convolution28 -> Convolution28
I1006 11:25:17.479602  2824 net.cpp:122] Setting up Convolution28
I1006 11:25:17.479611  2824 net.cpp:129] Top shape: 100 64 8 8 (409600)
I1006 11:25:17.479620  2824 net.cpp:137] Memory required for data: 633652400
I1006 11:25:17.479625  2824 layer_factory.hpp:77] Creating layer BatchNorm28
I1006 11:25:17.479630  2824 net.cpp:84] Creating Layer BatchNorm28
I1006 11:25:17.479634  2824 net.cpp:406] BatchNorm28 <- Convolution28
I1006 11:25:17.479637  2824 net.cpp:367] BatchNorm28 -> Convolution28 (in-place)
I1006 11:25:17.479791  2824 net.cpp:122] Setting up BatchNorm28
I1006 11:25:17.479796  2824 net.cpp:129] Top shape: 100 64 8 8 (409600)
I1006 11:25:17.479799  2824 net.cpp:137] Memory required for data: 635290800
I1006 11:25:17.479804  2824 layer_factory.hpp:77] Creating layer Scale28
I1006 11:25:17.479807  2824 net.cpp:84] Creating Layer Scale28
I1006 11:25:17.479810  2824 net.cpp:406] Scale28 <- Convolution28
I1006 11:25:17.479813  2824 net.cpp:367] Scale28 -> Convolution28 (in-place)
I1006 11:25:17.479843  2824 layer_factory.hpp:77] Creating layer Scale28
I1006 11:25:17.479929  2824 net.cpp:122] Setting up Scale28
I1006 11:25:17.479933  2824 net.cpp:129] Top shape: 100 64 8 8 (409600)
I1006 11:25:17.479935  2824 net.cpp:137] Memory required for data: 636929200
I1006 11:25:17.479939  2824 layer_factory.hpp:77] Creating layer penlu26
I1006 11:25:17.479945  2824 net.cpp:84] Creating Layer penlu26
I1006 11:25:17.479948  2824 net.cpp:406] penlu26 <- Convolution28
I1006 11:25:17.479951  2824 net.cpp:367] penlu26 -> Convolution28 (in-place)
I1006 11:25:17.480070  2824 net.cpp:122] Setting up penlu26
I1006 11:25:17.480075  2824 net.cpp:129] Top shape: 100 64 8 8 (409600)
I1006 11:25:17.480077  2824 net.cpp:137] Memory required for data: 638567600
I1006 11:25:17.480082  2824 layer_factory.hpp:77] Creating layer Convolution29
I1006 11:25:17.480087  2824 net.cpp:84] Creating Layer Convolution29
I1006 11:25:17.480090  2824 net.cpp:406] Convolution29 <- Convolution28
I1006 11:25:17.480094  2824 net.cpp:380] Convolution29 -> Convolution29
I1006 11:25:17.482324  2824 net.cpp:122] Setting up Convolution29
I1006 11:25:17.482333  2824 net.cpp:129] Top shape: 100 64 8 8 (409600)
I1006 11:25:17.482336  2824 net.cpp:137] Memory required for data: 640206000
I1006 11:25:17.482340  2824 layer_factory.hpp:77] Creating layer BatchNorm29
I1006 11:25:17.482347  2824 net.cpp:84] Creating Layer BatchNorm29
I1006 11:25:17.482349  2824 net.cpp:406] BatchNorm29 <- Convolution29
I1006 11:25:17.482352  2824 net.cpp:367] BatchNorm29 -> Convolution29 (in-place)
I1006 11:25:17.482504  2824 net.cpp:122] Setting up BatchNorm29
I1006 11:25:17.482508  2824 net.cpp:129] Top shape: 100 64 8 8 (409600)
I1006 11:25:17.482511  2824 net.cpp:137] Memory required for data: 641844400
I1006 11:25:17.482516  2824 layer_factory.hpp:77] Creating layer Scale29
I1006 11:25:17.482519  2824 net.cpp:84] Creating Layer Scale29
I1006 11:25:17.482522  2824 net.cpp:406] Scale29 <- Convolution29
I1006 11:25:17.482525  2824 net.cpp:367] Scale29 -> Convolution29 (in-place)
I1006 11:25:17.482555  2824 layer_factory.hpp:77] Creating layer Scale29
I1006 11:25:17.482641  2824 net.cpp:122] Setting up Scale29
I1006 11:25:17.482645  2824 net.cpp:129] Top shape: 100 64 8 8 (409600)
I1006 11:25:17.482648  2824 net.cpp:137] Memory required for data: 643482800
I1006 11:25:17.482651  2824 layer_factory.hpp:77] Creating layer Eltwise13
I1006 11:25:17.482656  2824 net.cpp:84] Creating Layer Eltwise13
I1006 11:25:17.482658  2824 net.cpp:406] Eltwise13 <- Eltwise12_penlu25_0_split_1
I1006 11:25:17.482661  2824 net.cpp:406] Eltwise13 <- Convolution29
I1006 11:25:17.482664  2824 net.cpp:380] Eltwise13 -> Eltwise13
I1006 11:25:17.482682  2824 net.cpp:122] Setting up Eltwise13
I1006 11:25:17.482686  2824 net.cpp:129] Top shape: 100 64 8 8 (409600)
I1006 11:25:17.482688  2824 net.cpp:137] Memory required for data: 645121200
I1006 11:25:17.482691  2824 layer_factory.hpp:77] Creating layer penlu27
I1006 11:25:17.482697  2824 net.cpp:84] Creating Layer penlu27
I1006 11:25:17.482698  2824 net.cpp:406] penlu27 <- Eltwise13
I1006 11:25:17.482702  2824 net.cpp:367] penlu27 -> Eltwise13 (in-place)
I1006 11:25:17.482831  2824 net.cpp:122] Setting up penlu27
I1006 11:25:17.482836  2824 net.cpp:129] Top shape: 100 64 8 8 (409600)
I1006 11:25:17.482838  2824 net.cpp:137] Memory required for data: 646759600
I1006 11:25:17.482842  2824 layer_factory.hpp:77] Creating layer Eltwise13_penlu27_0_split
I1006 11:25:17.482847  2824 net.cpp:84] Creating Layer Eltwise13_penlu27_0_split
I1006 11:25:17.482849  2824 net.cpp:406] Eltwise13_penlu27_0_split <- Eltwise13
I1006 11:25:17.482853  2824 net.cpp:380] Eltwise13_penlu27_0_split -> Eltwise13_penlu27_0_split_0
I1006 11:25:17.482857  2824 net.cpp:380] Eltwise13_penlu27_0_split -> Eltwise13_penlu27_0_split_1
I1006 11:25:17.482883  2824 net.cpp:122] Setting up Eltwise13_penlu27_0_split
I1006 11:25:17.482887  2824 net.cpp:129] Top shape: 100 64 8 8 (409600)
I1006 11:25:17.482889  2824 net.cpp:129] Top shape: 100 64 8 8 (409600)
I1006 11:25:17.482892  2824 net.cpp:137] Memory required for data: 650036400
I1006 11:25:17.482893  2824 layer_factory.hpp:77] Creating layer Convolution30
I1006 11:25:17.482899  2824 net.cpp:84] Creating Layer Convolution30
I1006 11:25:17.482902  2824 net.cpp:406] Convolution30 <- Eltwise13_penlu27_0_split_0
I1006 11:25:17.482908  2824 net.cpp:380] Convolution30 -> Convolution30
I1006 11:25:17.484901  2824 net.cpp:122] Setting up Convolution30
I1006 11:25:17.484910  2824 net.cpp:129] Top shape: 100 64 8 8 (409600)
I1006 11:25:17.484912  2824 net.cpp:137] Memory required for data: 651674800
I1006 11:25:17.484917  2824 layer_factory.hpp:77] Creating layer BatchNorm30
I1006 11:25:17.484922  2824 net.cpp:84] Creating Layer BatchNorm30
I1006 11:25:17.484925  2824 net.cpp:406] BatchNorm30 <- Convolution30
I1006 11:25:17.484930  2824 net.cpp:367] BatchNorm30 -> Convolution30 (in-place)
I1006 11:25:17.485081  2824 net.cpp:122] Setting up BatchNorm30
I1006 11:25:17.485086  2824 net.cpp:129] Top shape: 100 64 8 8 (409600)
I1006 11:25:17.485088  2824 net.cpp:137] Memory required for data: 653313200
I1006 11:25:17.485092  2824 layer_factory.hpp:77] Creating layer Scale30
I1006 11:25:17.485097  2824 net.cpp:84] Creating Layer Scale30
I1006 11:25:17.485100  2824 net.cpp:406] Scale30 <- Convolution30
I1006 11:25:17.485102  2824 net.cpp:367] Scale30 -> Convolution30 (in-place)
I1006 11:25:17.485133  2824 layer_factory.hpp:77] Creating layer Scale30
I1006 11:25:17.485219  2824 net.cpp:122] Setting up Scale30
I1006 11:25:17.485224  2824 net.cpp:129] Top shape: 100 64 8 8 (409600)
I1006 11:25:17.485226  2824 net.cpp:137] Memory required for data: 654951600
I1006 11:25:17.485229  2824 layer_factory.hpp:77] Creating layer penlu28
I1006 11:25:17.485235  2824 net.cpp:84] Creating Layer penlu28
I1006 11:25:17.485237  2824 net.cpp:406] penlu28 <- Convolution30
I1006 11:25:17.485241  2824 net.cpp:367] penlu28 -> Convolution30 (in-place)
I1006 11:25:17.485359  2824 net.cpp:122] Setting up penlu28
I1006 11:25:17.485363  2824 net.cpp:129] Top shape: 100 64 8 8 (409600)
I1006 11:25:17.485365  2824 net.cpp:137] Memory required for data: 656590000
I1006 11:25:17.485369  2824 layer_factory.hpp:77] Creating layer Convolution31
I1006 11:25:17.485376  2824 net.cpp:84] Creating Layer Convolution31
I1006 11:25:17.485378  2824 net.cpp:406] Convolution31 <- Convolution30
I1006 11:25:17.485383  2824 net.cpp:380] Convolution31 -> Convolution31
I1006 11:25:17.487043  2824 net.cpp:122] Setting up Convolution31
I1006 11:25:17.487052  2824 net.cpp:129] Top shape: 100 64 8 8 (409600)
I1006 11:25:17.487056  2824 net.cpp:137] Memory required for data: 658228400
I1006 11:25:17.487059  2824 layer_factory.hpp:77] Creating layer BatchNorm31
I1006 11:25:17.487064  2824 net.cpp:84] Creating Layer BatchNorm31
I1006 11:25:17.487067  2824 net.cpp:406] BatchNorm31 <- Convolution31
I1006 11:25:17.487071  2824 net.cpp:367] BatchNorm31 -> Convolution31 (in-place)
I1006 11:25:17.487246  2824 net.cpp:122] Setting up BatchNorm31
I1006 11:25:17.487252  2824 net.cpp:129] Top shape: 100 64 8 8 (409600)
I1006 11:25:17.487254  2824 net.cpp:137] Memory required for data: 659866800
I1006 11:25:17.487258  2824 layer_factory.hpp:77] Creating layer Scale31
I1006 11:25:17.487270  2824 net.cpp:84] Creating Layer Scale31
I1006 11:25:17.503358  2824 net.cpp:406] Scale31 <- Convolution31
I1006 11:25:17.503368  2824 net.cpp:367] Scale31 -> Convolution31 (in-place)
I1006 11:25:17.503415  2824 layer_factory.hpp:77] Creating layer Scale31
I1006 11:25:17.503516  2824 net.cpp:122] Setting up Scale31
I1006 11:25:17.503522  2824 net.cpp:129] Top shape: 100 64 8 8 (409600)
I1006 11:25:17.503525  2824 net.cpp:137] Memory required for data: 661505200
I1006 11:25:17.503530  2824 layer_factory.hpp:77] Creating layer Eltwise14
I1006 11:25:17.503535  2824 net.cpp:84] Creating Layer Eltwise14
I1006 11:25:17.503537  2824 net.cpp:406] Eltwise14 <- Eltwise13_penlu27_0_split_1
I1006 11:25:17.503540  2824 net.cpp:406] Eltwise14 <- Convolution31
I1006 11:25:17.503545  2824 net.cpp:380] Eltwise14 -> Eltwise14
I1006 11:25:17.503564  2824 net.cpp:122] Setting up Eltwise14
I1006 11:25:17.503569  2824 net.cpp:129] Top shape: 100 64 8 8 (409600)
I1006 11:25:17.503571  2824 net.cpp:137] Memory required for data: 663143600
I1006 11:25:17.503573  2824 layer_factory.hpp:77] Creating layer penlu29
I1006 11:25:17.503579  2824 net.cpp:84] Creating Layer penlu29
I1006 11:25:17.503582  2824 net.cpp:406] penlu29 <- Eltwise14
I1006 11:25:17.503585  2824 net.cpp:367] penlu29 -> Eltwise14 (in-place)
I1006 11:25:17.503717  2824 net.cpp:122] Setting up penlu29
I1006 11:25:17.503721  2824 net.cpp:129] Top shape: 100 64 8 8 (409600)
I1006 11:25:17.503723  2824 net.cpp:137] Memory required for data: 664782000
I1006 11:25:17.503728  2824 layer_factory.hpp:77] Creating layer Eltwise14_penlu29_0_split
I1006 11:25:17.503732  2824 net.cpp:84] Creating Layer Eltwise14_penlu29_0_split
I1006 11:25:17.503736  2824 net.cpp:406] Eltwise14_penlu29_0_split <- Eltwise14
I1006 11:25:17.503738  2824 net.cpp:380] Eltwise14_penlu29_0_split -> Eltwise14_penlu29_0_split_0
I1006 11:25:17.503743  2824 net.cpp:380] Eltwise14_penlu29_0_split -> Eltwise14_penlu29_0_split_1
I1006 11:25:17.503773  2824 net.cpp:122] Setting up Eltwise14_penlu29_0_split
I1006 11:25:17.503777  2824 net.cpp:129] Top shape: 100 64 8 8 (409600)
I1006 11:25:17.503780  2824 net.cpp:129] Top shape: 100 64 8 8 (409600)
I1006 11:25:17.503783  2824 net.cpp:137] Memory required for data: 668058800
I1006 11:25:17.503785  2824 layer_factory.hpp:77] Creating layer Convolution32
I1006 11:25:17.503793  2824 net.cpp:84] Creating Layer Convolution32
I1006 11:25:17.503794  2824 net.cpp:406] Convolution32 <- Eltwise14_penlu29_0_split_0
I1006 11:25:17.503799  2824 net.cpp:380] Convolution32 -> Convolution32
I1006 11:25:17.506222  2824 net.cpp:122] Setting up Convolution32
I1006 11:25:17.506232  2824 net.cpp:129] Top shape: 100 64 8 8 (409600)
I1006 11:25:17.506234  2824 net.cpp:137] Memory required for data: 669697200
I1006 11:25:17.506239  2824 layer_factory.hpp:77] Creating layer BatchNorm32
I1006 11:25:17.506244  2824 net.cpp:84] Creating Layer BatchNorm32
I1006 11:25:17.506247  2824 net.cpp:406] BatchNorm32 <- Convolution32
I1006 11:25:17.506252  2824 net.cpp:367] BatchNorm32 -> Convolution32 (in-place)
I1006 11:25:17.506414  2824 net.cpp:122] Setting up BatchNorm32
I1006 11:25:17.506419  2824 net.cpp:129] Top shape: 100 64 8 8 (409600)
I1006 11:25:17.506422  2824 net.cpp:137] Memory required for data: 671335600
I1006 11:25:17.506427  2824 layer_factory.hpp:77] Creating layer Scale32
I1006 11:25:17.506430  2824 net.cpp:84] Creating Layer Scale32
I1006 11:25:17.506433  2824 net.cpp:406] Scale32 <- Convolution32
I1006 11:25:17.506436  2824 net.cpp:367] Scale32 -> Convolution32 (in-place)
I1006 11:25:17.506469  2824 layer_factory.hpp:77] Creating layer Scale32
I1006 11:25:17.506559  2824 net.cpp:122] Setting up Scale32
I1006 11:25:17.506563  2824 net.cpp:129] Top shape: 100 64 8 8 (409600)
I1006 11:25:17.506566  2824 net.cpp:137] Memory required for data: 672974000
I1006 11:25:17.506569  2824 layer_factory.hpp:77] Creating layer penlu30
I1006 11:25:17.506575  2824 net.cpp:84] Creating Layer penlu30
I1006 11:25:17.506577  2824 net.cpp:406] penlu30 <- Convolution32
I1006 11:25:17.506589  2824 net.cpp:367] penlu30 -> Convolution32 (in-place)
I1006 11:25:17.506736  2824 net.cpp:122] Setting up penlu30
I1006 11:25:17.506742  2824 net.cpp:129] Top shape: 100 64 8 8 (409600)
I1006 11:25:17.506743  2824 net.cpp:137] Memory required for data: 674612400
I1006 11:25:17.506747  2824 layer_factory.hpp:77] Creating layer Convolution33
I1006 11:25:17.506754  2824 net.cpp:84] Creating Layer Convolution33
I1006 11:25:17.506757  2824 net.cpp:406] Convolution33 <- Convolution32
I1006 11:25:17.506762  2824 net.cpp:380] Convolution33 -> Convolution33
I1006 11:25:17.508553  2824 net.cpp:122] Setting up Convolution33
I1006 11:25:17.508563  2824 net.cpp:129] Top shape: 100 64 8 8 (409600)
I1006 11:25:17.508565  2824 net.cpp:137] Memory required for data: 676250800
I1006 11:25:17.508569  2824 layer_factory.hpp:77] Creating layer BatchNorm33
I1006 11:25:17.508575  2824 net.cpp:84] Creating Layer BatchNorm33
I1006 11:25:17.508579  2824 net.cpp:406] BatchNorm33 <- Convolution33
I1006 11:25:17.508582  2824 net.cpp:367] BatchNorm33 -> Convolution33 (in-place)
I1006 11:25:17.508733  2824 net.cpp:122] Setting up BatchNorm33
I1006 11:25:17.508738  2824 net.cpp:129] Top shape: 100 64 8 8 (409600)
I1006 11:25:17.508740  2824 net.cpp:137] Memory required for data: 677889200
I1006 11:25:17.508745  2824 layer_factory.hpp:77] Creating layer Scale33
I1006 11:25:17.508749  2824 net.cpp:84] Creating Layer Scale33
I1006 11:25:17.508751  2824 net.cpp:406] Scale33 <- Convolution33
I1006 11:25:17.508754  2824 net.cpp:367] Scale33 -> Convolution33 (in-place)
I1006 11:25:17.508785  2824 layer_factory.hpp:77] Creating layer Scale33
I1006 11:25:17.508873  2824 net.cpp:122] Setting up Scale33
I1006 11:25:17.508878  2824 net.cpp:129] Top shape: 100 64 8 8 (409600)
I1006 11:25:17.508880  2824 net.cpp:137] Memory required for data: 679527600
I1006 11:25:17.508884  2824 layer_factory.hpp:77] Creating layer Eltwise15
I1006 11:25:17.508889  2824 net.cpp:84] Creating Layer Eltwise15
I1006 11:25:17.508893  2824 net.cpp:406] Eltwise15 <- Eltwise14_penlu29_0_split_1
I1006 11:25:17.508895  2824 net.cpp:406] Eltwise15 <- Convolution33
I1006 11:25:17.508898  2824 net.cpp:380] Eltwise15 -> Eltwise15
I1006 11:25:17.508916  2824 net.cpp:122] Setting up Eltwise15
I1006 11:25:17.508920  2824 net.cpp:129] Top shape: 100 64 8 8 (409600)
I1006 11:25:17.508922  2824 net.cpp:137] Memory required for data: 681166000
I1006 11:25:17.508924  2824 layer_factory.hpp:77] Creating layer penlu31
I1006 11:25:17.508930  2824 net.cpp:84] Creating Layer penlu31
I1006 11:25:17.508932  2824 net.cpp:406] penlu31 <- Eltwise15
I1006 11:25:17.508936  2824 net.cpp:367] penlu31 -> Eltwise15 (in-place)
I1006 11:25:17.509057  2824 net.cpp:122] Setting up penlu31
I1006 11:25:17.509061  2824 net.cpp:129] Top shape: 100 64 8 8 (409600)
I1006 11:25:17.509063  2824 net.cpp:137] Memory required for data: 682804400
I1006 11:25:17.509068  2824 layer_factory.hpp:77] Creating layer Pooling1
I1006 11:25:17.509073  2824 net.cpp:84] Creating Layer Pooling1
I1006 11:25:17.509074  2824 net.cpp:406] Pooling1 <- Eltwise15
I1006 11:25:17.509079  2824 net.cpp:380] Pooling1 -> Pooling1
I1006 11:25:17.509219  2824 net.cpp:122] Setting up Pooling1
I1006 11:25:17.509227  2824 net.cpp:129] Top shape: 100 64 1 1 (6400)
I1006 11:25:17.509229  2824 net.cpp:137] Memory required for data: 682830000
I1006 11:25:17.509232  2824 layer_factory.hpp:77] Creating layer InnerProduct1
I1006 11:25:17.509236  2824 net.cpp:84] Creating Layer InnerProduct1
I1006 11:25:17.509238  2824 net.cpp:406] InnerProduct1 <- Pooling1
I1006 11:25:17.509243  2824 net.cpp:380] InnerProduct1 -> InnerProduct1
I1006 11:25:17.509348  2824 net.cpp:122] Setting up InnerProduct1
I1006 11:25:17.509353  2824 net.cpp:129] Top shape: 100 10 (1000)
I1006 11:25:17.509356  2824 net.cpp:137] Memory required for data: 682834000
I1006 11:25:17.509359  2824 layer_factory.hpp:77] Creating layer InnerProduct1_InnerProduct1_0_split
I1006 11:25:17.509362  2824 net.cpp:84] Creating Layer InnerProduct1_InnerProduct1_0_split
I1006 11:25:17.509366  2824 net.cpp:406] InnerProduct1_InnerProduct1_0_split <- InnerProduct1
I1006 11:25:17.509377  2824 net.cpp:380] InnerProduct1_InnerProduct1_0_split -> InnerProduct1_InnerProduct1_0_split_0
I1006 11:25:17.509382  2824 net.cpp:380] InnerProduct1_InnerProduct1_0_split -> InnerProduct1_InnerProduct1_0_split_1
I1006 11:25:17.509410  2824 net.cpp:122] Setting up InnerProduct1_InnerProduct1_0_split
I1006 11:25:17.509414  2824 net.cpp:129] Top shape: 100 10 (1000)
I1006 11:25:17.509416  2824 net.cpp:129] Top shape: 100 10 (1000)
I1006 11:25:17.509418  2824 net.cpp:137] Memory required for data: 682842000
I1006 11:25:17.509421  2824 layer_factory.hpp:77] Creating layer SoftmaxWithLoss1
I1006 11:25:17.509425  2824 net.cpp:84] Creating Layer SoftmaxWithLoss1
I1006 11:25:17.509428  2824 net.cpp:406] SoftmaxWithLoss1 <- InnerProduct1_InnerProduct1_0_split_0
I1006 11:25:17.509431  2824 net.cpp:406] SoftmaxWithLoss1 <- Data2_Data1_1_split_0
…
